results/PINN/XJTU results/5-5/Experiment8/model.pth (torch, 60271 bytes, 14 tensors)

encoder.net.0.weight f4 [60, 17]
000000 a3 a0 ed 3c d9 3f 32 3e f3 e6 04 bb 8a 1e fa 3d
       0.029007262 0.17407168 -0.0020279258 0.12212856
000010 e8 28 70 3b e9 6c 8c 3d 03 4d 16 3e 73 d1 55 bd
       0.0036645476 0.068567105 0.14677815 -0.0522017
000020 b9 6f 0a be 2e 9f ee 3d f9 4d 4f 3b 7f a6 95 3d
       -0.13519181 0.11651455 0.0031632169 0.07307147
000030 b3 8f 26 be 0a c3 95 bc a3 bf 7d be 75 13 ba 3d
       -0.16265754 -0.018281478 -0.24780135 0.090857424
000040 a6 9d 30 3e af 87 aa 3e 71 7c 6b bb fd 0a 01 3d
       0.17247638 0.33306643 -0.0035932327 0.03150462
000050 de 33 a5 3c 6c 44 a5 be 88 c4 81 be 4b 79 f0 bd
       0.020166334 -0.32278764 -0.25345254 -0.11741885
000060 87 71 50 be 53 d0 aa 3d 3e 68 da 3d 6b dd b3 3c
       -0.20355807 0.08340516 0.10664414 0.021956166
000070 e4 b2 8b bd 9e 2b 83 3d 1a b8 67 bd 33 4a d7 bd
       -0.0682123 0.06404804 -0.056572057 -0.10512199
000080 f6 d7 8f bd 3e 9e 5a 3d 57 64 05 3d 18 de 6c 3e
       -0.07023613 0.053373568 0.032566395 0.23131597
000090 ed cb fa 3c 50 8b 6a 3e dd 02 cb bd 6a d8 5c be
       0.030614818 0.22904706 -0.099126555 -0.2156693
0000a0 5e 08 14 3e e6 a8 aa 3d 4d 33 62 3e eb 05 2c 3e
       0.14456317 0.08332996 0.22089882 0.16799133
0000b0 c9 c3 2a 3e b5 d2 5d 3e 8c 9a d2 bd 37 aa c2 be
       0.16676249 0.2166241 -0.10283384 -0.3802049
0000c0 da ed d9 bd 45 df b7 be c7 d7 12 3d 64 6d d5 3e
       -0.1064107 -0.3591253 0.035850313 0.4168502
0000d0 c3 d2 d5 bd a5 9e 68 3d b4 cf 69 3d 65 69 8a be
       -0.1044059 0.05679192 0.057082847 -0.27033535
0000e0 d2 8b 1f 3e b0 b1 64 be 33 d7 2f 3c d8 54 83 3e
       0.15580681 -0.22333407 0.01073246 0.25650668
0000f0 77 3d 98 3d fc f9 4c 3c dd 38 94 3d f8 c0 d8 bd
       0.074335985 0.012510773 0.07237408 -0.10583681
000100 11 28 e0 39 f5 56 07 3e e6 fc 4f 3e 78 9a ad 3d
       0.0004275446 0.13216765 0.20311317 0.08476728
000110 fc 88 8d bd da 43 cf bd 14 82 87 3d 6e 77 ae bd
       -0.06910893 -0.101203635 0.06616607 -0.08518873
000120 14 23 9f be 6a 70 54 3e 55 0a 13 3c 53 68 2d bd
       -0.3108145 0.20746008 0.008974631 -0.04233582
000130 a4 3b 22 bd 31 a7 f4 bd b6 32 02 3e 93 51 41 be
       -0.03960766 -0.11945952 0.12714657 -0.18878774
000140 99 fd c0 bd 7a f5 c1 3d f3 c5 8c bd 91 52 52 be
       -0.0942337 0.09470649 -0.06873693 -0.20539309
000150 d6 19 09 3e b8 d1 ba 3d 5b 08 8f be b3 a2 1e 3e
       0.13388762 0.09122032 -0.27936062 0.15491752
000160 3b cd 07 be 9c be f9 3d b7 39 35 bd 6b 96 53 be
       -0.13261883 0.12194559 -0.044244494 -0.20662849
000170 99 2e e0 3b 9f 44 40 bd b0 7e dd 3d 7c da 75 3c
       0.0068414924 -0.046940442 0.10815179 0.015005704
000180 82 9e a9 3d eb ab 6a be 08 dc eb bd fd e9 c5 bc
       0.08282186 -0.22917144 -0.11516577 -0.024159426
000190 20 37 ad bd 43 af cd bc 3b 78 57 be 0f 77 e5 3d
       -0.0845778 -0.025107985 -0.21041958 0.11204349
0001a0 16 37 9e 3d 86 d2 88 bd 75 3a 87 bd 97 ea 61 3d
       0.077253506 -0.06680779 -0.06602947 0.055155363
0001b0 6a 62 0e bd 28 43 cc bd 6f 5c 98 3d d6 cd e4 3d
       -0.034761824 -0.099737465 0.07439505 0.111720726
0001c0 a5 59 43 bd f7 ed 1f 3e 52 a6 d8 3d ac 8b ca bd
       -0.047692914 0.1561812 0.10578598 -0.098899215
0001d0 bd 14 ca 3d 53 1a 8e 3e 2a e1 23 be 4b 11 50 be
       0.09867237 0.2775446 -0.16003862 -0.20319097
0001e0 f9 32 9b bd 42 bd 55 be 37 a2 89 be 7d ba 56 3e
       -0.07578082 -0.20872977 -0.26881573 0.20969577
0001f0 9e 2b 5f 3e ff ed 04 3d 68 b5 6a be e2 cd 6c bd
       0.21793982 0.032453533 -0.22920763 -0.057813533
000200 ca 9a 83 3d b6 10 19 bd 34 5c 15 be bf 05 65 be
       0.06426008 -0.037369452 -0.14585954 -0.22365473
000210 f1 23 35 ba c3 36 24 3e 69 32 ba 3e 22 7b 9b 3d
       -0.0006909958 0.16036515 0.36366585 0.07591845
000220 96 59 41 3d 3a b7 30 3e 2e 4f 80 3e 19 10 61 be
       0.047204576 0.17257395 0.2506041 -0.21978797
000230 fd b3 af 3e 17 53 12 3e c4 e1 ba 3d 97 fe b6 bd
       0.34317008 0.14289509 0.091250926 -0.08935278
000240 36 91 7a 3e 43 8c 0d be e7 1c 16 3e 19 96 b7 3d
       0.24469456 -0.13823037 0.14659463 0.08964176
000250 72 15 0d be 62 46 a8 3d a8 04 d2 be 5d 9b 5a be
       -0.13777712 0.082165495 -0.41019177 -0.21348329
000260 53 8f 5a bd de ee 17 3d 7a dc 04 3e e1 a5 ab 3b
       -0.05335934 0.037093036 0.1297473 0.00523828
000270 88 3b 46 be f0 cd 8c bc bd ad 36 3e 13 00 b1 bd
       -0.19358647 -0.017188042 0.17839713 -0.08642592
000280 f8 e3 e9 bd f3 14 13 be 3b e4 02 bb aa a7 ed bc
       -0.11420435 -0.1436346 -0.0019972462 -0.029010613
000290 f4 ac eb 3d 5e 86 49 bd f0 d5 35 be 7c 48 bf 3d
       0.115075976 -0.04920041 -0.17757392 0.09339997
0002a0 ec 49 31 3c dc 49 c8 bc 37 85 0e 3e a1 5c 07 3d
       0.010820847 -0.024449281 0.13918005 0.033047322
0002b0 a0 56 23 be 79 64 41 3d fd c1 37 bd 6e cc f8 3b
       -0.15951014 0.04721496 -0.044862736 0.0075927293
0002c0 cc 04 c2 bd e8 56 a3 bd ee dc 4a 3d ec 5f 6a bb
       -0.09473571 -0.079755604 0.0495271 -0.003576274
0002d0 17 20 73 be be d3 74 3e 43 1a f0 3c d7 87 57 3e
       -0.2374271 0.23908898 0.029309398 0.21047913
0002e0 a1 5e 35 be 9e 4e ae be 7b 35 05 3e 47 c3 8d 3e
       -0.1771188 -0.34044355 0.13008682 0.27688047
0002f0 ef 16 f3 3d e9 b9 ee bd 09 3f f0 3d aa 51 04 3d
       0.118696086 -0.11656553 0.11730773 0.032304443
000300 35 c8 c7 3d fb 33 a6 3b 6b ad aa bd 2c b5 50 3d
       0.09754983 0.0050721145 -0.08333858 0.05095403
000310 c1 67 c0 3d 17 5c 24 be c3 05 47 be 8c e8 7e be
       0.093947895 -0.16050754 -0.19435792 -0.24893397
000320 f1 62 15 3c eb 11 09 3e f6 76 3c be 97 ba b3 3e
       0.009117828 0.13385741 -0.18404755 0.35103294
000330 a7 82 b9 bc 3e f4 3f be d4 42 b3 3d 64 71 35 3d
       -0.022645308 -0.18745515 0.08752981 0.04429759
000340 2c 67 af 3c 66 dd 78 be 03 31 83 bc 87 6d 25 bd
       0.0214115 -0.24303207 -0.016014582 -0.040387657
000350 4a 5c a2 3e ba 33 0a be 7e 6d 39 be b0 73 9a 3e
       0.31711036 -0.13496295 -0.18108174 0.30166388
000360 ac ff d3 bd 42 f2 d6 bc 7c a2 1e bd 17 6c c3 bd
       -0.103515 -0.026238564 -0.038729176 -0.09542101
000370 9c 1d 74 bd c8 78 d0 bc f2 41 7f bd 46 7e 09 be
       -0.05959855 -0.025448218 -0.06231875 -0.13427076
000380 c0 4f 0a be 44 1f 24 3e 16 aa 53 bc 1c a1 b7 3d
       -0.13506985 0.16027552 -0.01291897 0.08966276
000390 3e 4a 5a bd a5 e0 8f 3c ec 17 0e b8 2a e8 54 3e
       -0.05329346 0.017563174 -3.3877717e-05 0.20791689
0003a0 5b 91 cc 3b e9 fe 33 be 30 4a ba bd f1 76 e1 bd
       0.0062429137 -0.1757771 -0.090961814 -0.110090144
0003b0 c3 63 0a bd 25 20 1e bd c1 70 fb bd 1a 08 d7 bd
       -0.033786546 -0.038604874 -0.122773655 -0.10499592
0003c0 11 ff 09 3e 4d 1f 7a 3c 12 08 02 3e a0 3b 0e 3e
       0.13476206 0.015266252 0.12698391 0.13889933
0003d0 0b bd 33 be f0 9a 98 bd db e5 5f bd c3 f1 32 3e
       -0.17552583 -0.07451427 -0.054662567 0.17475037
0003e0 a2 62 40 3d 40 45 e0 bd 0f 23 9c be fe 94 9a bc
       0.046969064 -0.109507084 -0.30495498 -0.018869873
0003f0 61 cc 10 bd 2d 7e 7f 3c 9e 6f 9a 3e 43 60 c1 bb
       -0.03535116 0.0155940475 0.30163282 -0.005901368

encoder.net.0.bias f4 [60]
000000 84 09 c3 3c 6e c5 9f bd 25 a5 ba 3c d9 0b b0 3c
       0.023808248 -0.078013286 0.022783825 0.021490024
000010 52 da cf 3c 9d a8 2b 3d 8e 5a 8f bb 46 51 66 3d
       0.025372658 0.04190885 -0.0043748086 0.056229852
000020 c4 dd a6 3c 31 2d 5f 3c 90 47 f4 bc 54 da 00 bd
       0.020369418 0.013621614 -0.02981928 -0.031458214
000030 42 ef d0 bc 33 28 40 3c f0 c0 97 3c 48 44 3f bb
       -0.025504712 0.011728334 0.018524617 -0.0029184986
000040 e0 27 a5 bc 79 63 bd bc 3e 26 a7 bc 88 6d 1a 3c
       -0.020160615 -0.023118721 -0.020403977 0.009425528
000050 02 a3 a4 3c 55 69 fe 3c 82 c4 ea bc 26 00 14 3d
       0.02009726 0.031056086 -0.028658155 0.036132954
000060 3d 31 0b 3c 16 bf 9a bd 55 16 16 bd 08 1b 05 3c
       0.008495626 -0.07555978 -0.03664239 0.0081241205
000070 b1 73 6b bc 93 c9 0e 3b 8a 3f f5 3c 57 c3 2e 3c
       -0.014370845 0.0021787628 0.029937524 0.01066669
000080 c2 1b 4f 3d 12 c7 68 3c 24 9e 1f 3d 40 5e a8 3c
       0.05056358 0.014207618 0.038969174 0.020552754
000090 e1 26 17 3c ef 66 c5 bc f7 89 ac 3c d9 9c 87 bb
       0.009225578 -0.024096934 0.02106188 -0.0041385707
0000a0 62 b6 b5 bc 56 6c 5c bd fa 3d 12 3d b0 b9 41 bd
       -0.022181693 -0.053814255 0.035703637 -0.047296226
0000b0 03 d5 a5 bc 07 eb 81 bc a8 dc f9 bc 53 60 b5 3c
       -0.020243173 -0.01585914 -0.030500725 0.022140658
0000c0 e2 7d ba bc b3 f8 8d bc 86 44 98 bc 16 c5 b7 3c
       -0.022765104 -0.017330503 -0.018587362 0.022432845
0000d0 ef 58 93 bc 03 b3 09 bc 3f d3 10 3d 3f 54 ad 3c
       -0.017986743 -0.008404496 0.03535771 0.021158336
0000e0 b4 82 07 3d 87 0d b4 bc 9b 55 0b bd bd 2b 96 3d
       0.033083633 -0.021979107 -0.034017187 0.07332561

encoder.net.2.weight f4 [60, 60]
000000 00 96 7f 3e f7 67 2b 3e 6d 95 aa 3d 5e 22 3c bc
       0.24959564 0.16738878 0.08329282 -0.011482803
000010 47 b6 b4 3d a6 0d 61 bc 5f 61 24 bd 87 5f bf 3d
       0.08823829 -0.013736164 -0.040131923 0.09344392
000020 c3 d9 91 bd 16 bf e8 3d c6 77 82 3d 23 14 42 bd
       -0.07121613 0.11364572 0.06370501 -0.047382485
000030 c0 0c 27 3d b7 03 14 be 8d b4 0b be a5 e7 05 3d
       0.040783644 -0.14454542 -0.13643093 0.032691617
000040 b6 85 49 be af be dd bd 70 0f fa 3b 1b 0a 7a be
       -0.19679913 -0.10827386 0.007631235 -0.24417917
000050 d3 e6 13 3d d8 f7 10 be 1c 0b 99 bb a1 e4 3b be
       0.036108803 -0.14157045 -0.004670514 -0.18348934
000060 14 87 7f 3d cd ed 33 3e 46 88 e3 bc 6e 5d 0e be
       0.06238468 0.17571183 -0.027774941 -0.13902828
000070 07 17 96 3d 09 48 de 3d ce 19 0f 3e 2c 59 a9 3d
       0.07328611 0.10853583 0.13974687 0.08268961
000080 d9 8b 11 3e 17 4b f4 3c 18 da 19 3e 83 ce bf 3d
       0.14213504 0.029820962 0.15024602 0.09365561
000090 3d 1f 2b 3d 97 2e dd bd e8 37 83 3d f3 4c e2 3d
       0.041777838 -0.10799902 0.06407148 0.11049833
0000a0 45 d2 1d bc e5 8e 77 3e 6a 91 d7 3c 88 c3 29 3e
       -0.009632652 0.24175604 0.026314456 0.16578496
0000b0 d0 8b e5 3d 47 1f c4 3b 33 87 00 be c6 38 32 bd
       0.11208308 0.005985174 -0.12551574 -0.043511175
0000c0 6f e9 8a bd 0e 89 bf 3d d5 2f 37 3d bd e1 99 bd
       -0.06782805 0.09352313 0.04472335 -0.07513759
0000d0 4f b1 99 3d 1e 76 76 bc 2b 84 91 3d d2 2c 63 3c
       0.07504522 -0.01504281 0.07105287 0.013865666
0000e0 fb 31 58 be 63 87 a1 3d 98 65 cd 3c 11 2a 64 be
       -0.21112816 0.07887151 0.025072858 -0.22281672
0000f0 c1 20 21 3c f4 0f 28 3c 66 bb bc 3d 74 3b 7a 3d
       0.009834469 0.01025771 0.09215431 0.061091855
000100 74 cb b7 bc 73 0c c7 bd 3e 77 4b 3c 78 ae 45 be
       -0.022435881 -0.097191714 0.012418566 -0.19304836
000110 a9 f1 f6 bc 25 2b 65 3e dc bd 1f be b0 4c b8 3d
       -0.03014453 0.2237974 -0.1559977 0.08999002
000120 b1 e9 e6 bd f0 71 33 3e 0c 35 9b 3c de a2 80 3c
       -0.11275042 0.17523932 0.018946193 0.015702661
000130 d7 cf ea 3d 51 c6 cb 3d 17 45 8c bc 40 13 b6 3e
       0.114654236 0.09949935 -0.017122788 0.35561562
000140 e7 57 6d 3e 18 6e 01 bd 24 b5 01 3e 7f 46 45 be
       0.23178063 -0.031599134 0.12666756 -0.19265173
000150 21 50 b6 3c be 5b 11 3e b9 eb 9f 3c 1c fb 3c be
       0.022255005 0.14195153 0.019521581 -0.18455166
000160 d6 f6 e7 bc 4c 9c 72 3c 56 7f 22 bd 9e 66 98 3d
       -0.028315943 0.014807772 -0.03967222 0.07441448
000170 e3 34 9a bd c6 bd 8e bd 13 20 e0 3d 51 39 da 3d
       -0.075296186 -0.0696979 0.10943618 0.106554635
000180 b9 e5 58 3d e3 0a 01 bd e1 29 37 3d 7e dd c4 3d
       0.052953456 -0.031504523 0.044717673 0.09612559
000190 95 11 7b be dc 5e 9c bb 67 a1 f9 ba 26 dd db 3d
       -0.24518426 -0.0047720503 -0.0019045294 0.1073554
0001a0 b6 6e ea bd 6a 6a a6 bd 29 39 41 3e bf c0 22 3e
       -0.11446898 -0.081257656 0.18869461 0.1589384
0001b0 1a 06 15 bd 94 ac a7 bd 0b 29 91 3d 7c bb 2c 3c
       -0.036382772 -0.081872135 0.070879065 0.010542747
0001c0 73 af 42 be 45 da 34 bd 80 6e 21 3d f6 f7 be 3d
       -0.19012241 -0.04415347 0.03941202 0.093246385
0001d0 ed 04 0e bd 5e df f6 bc b0 4d d3 3c 68 85 4c 3d
       -0.034672666 -0.030135807 0.02579388 0.049931914
0001e0 46 ff 5a be d3 8f 15 3c 20 c4 89 3c 1c d7 81 bd
       -0.21386442 0.009128529 0.016817153 -0.06339857
0001f0 45 53 1d be ac 2c f2 3d 09 9c ba 3d 26 aa a3 3d
       -0.15363796 0.11824927 0.091117926 0.079914376
000200 18 4f bf 3d 7a 7e 18 be 95 5f 9e 3d 9d 6e c2 3d
       0.09341258 -0.14891997 0.077330746 0.09493754
000210 fc 80 34 3e 7a 4f 5e bd 4c 09 31 3e 0b 6d 83 3d
       0.17627329 -0.054275014 0.17288703 0.06417283
000220 0c 9c 1c 3e 31 64 be 3d 7d b1 9c 3d f0 f3 8d 3e
       0.15293902 0.09296454 0.07651041 0.27725172
000230 da 54 a1 bd 5d ee 9b 3d 4a 2c 2d 3d 6d 87 2f bd
       -0.07877512 0.076138236 0.042278565 -0.04285376
000240 48 31 16 3b a5 23 f7 3d b9 78 fa bc a1 0a e9 bc
       0.0022917558 0.120673455 -0.030575143 -0.028447451
000250 77 88 c9 3c 5e d0 71 3d 8c da 20 bc 8e 31 d3 bc
       0.024601204 0.059036605 -0.009817731 -0.025780465
000260 f0 96 ac 3b 1b 82 4a 3e f9 28 56 3e c4 c9 55 3c
       0.0052670166 0.19776194 0.20914067 0.013048593
000270 3c 52 98 bd 03 91 01 be 60 37 9d bd f4 74 5c 3d
       -0.0743756 -0.12652974 -0.076765776 0.053822473
000280 62 5f 9f 3c c5 16 f3 3d e3 1e 5a bd 1f 0e 80 3e
       0.019454662 0.11869577 -0.053252112 0.25010774
000290 79 c9 2a be 0c 41 f4 bd f4 c5 d2 3a 5e 67 95 3d
       -0.16678418 -0.11926469 0.0016080723 0.07295106
0002a0 d4 04 8c be 33 07 86 3e a3 44 f9 3d f5 af 44 be
       -0.27347434 0.26177368 0.121712945 -0.19207747
0002b0 ed 50 7b 3e c1 5b 36 be 0e b9 d6 3d d0 6c ed bb
       0.2454259 -0.17808439 0.10484515 -0.0072456375
0002c0 bc ef 44 bc e1 98 da 3d f5 96 a6 bd b1 93 a7 3e
       -0.012020048 0.106736906 -0.081342615 0.32729867
0002d0 73 de f0 3d d7 ae 24 3d 18 f4 87 3c f6 e4 8c bc
       0.11761179 0.040205803 0.016595885 -0.01719902
0002e0 6d bb c7 bd cb 6b 72 3d 31 71 21 3e a0 0e 64 3c
       -0.097525455 0.05918483 0.15765835 0.0139195025
0002f0 86 1c 67 bd de 77 c3 3c 4e 2e c3 3d 19 cf c5 bd
       -0.056423686 0.023860868 0.09530316 -0.09658641
000300 da af e2 3c fb 77 3f 3c 7a 72 d4 3d 13 88 8c 3d
       0.027671743 0.01168632 0.10373397 0.068618916
000310 7b e5 94 bd e4 fe 28 bd 7b 42 2e 3d 62 28 a0 3d
       -0.072703324 -0.041258708 0.04254387 0.078202024
000320 de d5 31 be 9a 4b 94 bd b8 05 7d be 53 6d 2b 3e
       -0.1736674 -0.07240982 -0.24709213 0.16740923
000330 b9 2c 25 be ee 58 64 be de 15 ae bd 3f f1 f3 bd
       -0.16130342 -0.22299549 -0.085002646 -0.119112484
000340 46 8b 2f 3d d3 a1 92 3d 11 44 ed bb 86 be 21 bd
       0.04285743 0.07159772 -0.00724078 -0.039488338
000350 f4 0f fd bd ac 25 54 be 7d 0c 2a 3d 35 8e ff bc
       -0.123565584 -0.20717496 0.041515816 -0.03119574
000360 2c a5 c1 3b 1f 46 dc 3d 1b 01 b7 bd 70 1d 21 3e
       0.0059095826 0.10755562 -0.08935758 0.15733886
000370 d5 fa c9 3d d9 12 b4 3a 8a 01 38 be 3d d6 67 bd
       0.098622955 0.0013738527 -0.17969337 -0.056600798
000380 70 68 a7 3c b2 36 7a 3b c6 94 ec 3d ca 34 e4 3d
       0.020435542 0.0038179574 0.11551814 0.11142881
000390 cb b1 0c 3e dc 30 21 3d 4c f8 dc 3d 62 7e 32 bd
       0.13739698 0.039353237 0.10789546 -0.04357756
0003a0 eb 81 bd bd 81 2a 34 3e f5 cc 83 3d f1 5b 91 bd
       -0.092532955 0.17594339 0.06435577 -0.070976146
0003b0 8d d9 2a 3e 50 60 a1 bc 28 e1 f9 3d d7 66 51 3e
       0.16684552 -0.019699246 0.12201148 0.20449387
0003c0 08 ca a8 3c a2 d4 a1 3d 7a 7b 34 bd 98 c0 dd 3b
       0.020604149 0.079018846 -0.04406307 0.0067673437
0003d0 6b 6a 57 be 19 9c 91 be 35 56 3a bd 90 b9 0c be
       -0.21036689 -0.28439406 -0.04549237 -0.13742661
0003e0 af d4 9d bd 69 8a 0d 3e fd 50 80 3b c6 07 4a 3d
       -0.07706582 0.1382233 0.0039159046 0.04932382
0003f0 b4 06 0e bd d8 df fe bc 4d ba e5 3d e8 aa a4 3b
       -0.03467436 -0.031112596 0.11217175 0.0050252564

encoder.net.2.bias f4 [60]
000000 f6 f4 45 bd b2 38 a3 bc e8 02 db bc e5 66 8a ba
       -0.048329316 -0.019924495 -0.026734784 -0.0010559229
000010 27 0e 7e bd cd 71 94 bc ff b7 65 bd 1d ff 79 3c
       -0.062025215 -0.01812067 -0.056083675 0.015258578
000020 f5 9c 1b 3d 26 6c d7 bc 53 e0 e7 3c ba 2e de 3c
       0.037991483 -0.026296686 0.028305208 0.02712189
000030 47 b4 a5 bc 92 c1 fc bc 93 9a cc bc 7b b7 9f bc
       -0.020227564 -0.03085402 -0.02497605 -0.01949667
000040 58 97 d1 3c bd 37 18 3d aa 6a 66 3d e9 3b 22 bd
       0.025584862 0.03716253 0.056254067 -0.039607916
000050 1a 86 ce bc b6 6b e1 bc 52 bc 05 bd ac c7 81 3d
       -0.025210429 -0.02751718 -0.0326503 0.063369125
000060 e1 03 27 bb c2 62 b4 bc 1e 00 b7 3b d6 88 48 3c
       -0.002548449 -0.022019748 0.0055847308 0.0122396555
000070 68 67 74 3c e0 e2 a7 bc 77 6b 0e 3d 30 2d 9f bb
       0.014917232 -0.020493925 0.034770455 -0.0048576817
000080 a7 f4 cc 3c f2 24 d9 3c 5e e9 ee 3c 92 ae 00 bd
       0.025019003 0.026506875 0.029164013 -0.031416483
000090 8e 98 14 bd 25 24 6c bc 06 8b 1a 3d a6 f4 e9 bc
       -0.0362783 -0.014412914 0.03773024 -0.02855904
0000a0 6f ab df bc 3b 39 e2 3c 37 89 af 3c bb 1b 42 3d
       -0.027303426 0.02761518 0.021427734 0.047389727
0000b0 9f 13 c0 bc 26 01 42 bd db 28 e5 bc b9 af c5 bc
       -0.023446856 -0.047364376 -0.027973583 -0.024131643
0000c0 e5 2c 5c bc e1 e4 99 bb e0 f4 e4 3c 4b 3b 7d 3d
       -0.013438438 -0.004696474 0.027948797 0.061824124
0000d0 77 5d a6 3c 76 61 e4 bc a0 e3 bf 3c 59 03 cc 3c
       0.02030824 -0.027878504 0.02342397 0.02490394
0000e0 f6 ca c6 3c c2 6a db 3c 4d 54 b4 3c 1d 57 43 bd
       0.024266701 0.026784305 0.022012854 -0.0476905

encoder.net.5.weight f4 [32, 60]
000000 5e bb d3 3d 97 55 9a bc 27 fe 14 3e 6c c5 cd bd
       0.10338472 -0.01883964 0.14550076 -0.10047421
000010 a4 a6 01 3e 7a e5 27 be 8f 43 da bc 3c f9 18 bd
       0.12661225 -0.16396132 -0.026643543 -0.037347063
000020 12 4c 4b 3e 83 72 c8 3d d0 98 9f bc 19 0d 42 3d
       0.19853237 0.097874664 -0.019482046 0.047375772
000030 be c0 d0 3d ba 61 3d 3d 95 ba 8e bd 9b c6 b1 3d
       0.10193013 0.046235777 -0.069691814 0.08680459
000040 f3 75 5f be 75 5b 2d bd 3c 30 4a 3e db 49 ae 3d
       -0.21822338 -0.04232355 0.19744962 0.085101806
000050 45 df 24 be 0d c7 6a 3d 0f 70 48 3e 29 c1 0b be
       -0.16100796 0.057318736 0.19573997 -0.13647904
000060 da 01 a9 bd 04 44 43 3e c2 e4 83 3e 87 d9 0b be
       -0.08252306 0.19068915 0.25760466 -0.13657199
000070 35 16 b7 3d 8e b6 05 3e 02 18 f2 3c d2 10 e2 3b
       0.089397825 0.1305792 0.029552463 0.006898978
000080 87 79 be be 1e ce 47 3e f9 cd 4e be a0 8c 6a 3e
       -0.37202093 0.19512221 -0.2019576 0.22905207
000090 d2 d7 1c 3e 4d 7c d0 3c 8e 82 2f 3d 1b 5d 87 be
       0.15316704 0.025449896 0.042849116 -0.2643822
0000a0 8e 2c be bd d4 94 da 3d 2f d2 fe bd 5d fc 69 bd
       -0.09285842 0.10672918 -0.12442433 -0.057125438
0000b0 ab 46 ab be 00 fd 16 be 69 81 27 bd 43 a6 c3 3d
       -0.33452353 -0.1474495 -0.0408949 0.09553196
0000c0 c6 33 f7 be 3a 03 6f be 53 28 3d 3e eb 9b 19 be
       -0.48281687 -0.23341075 0.18472414 -0.15000884
0000d0 e9 51 83 3e e6 88 d2 3b 15 18 1c 3d 36 94 59 be
       0.2564843 0.006425011 0.038108904 -0.21247944
0000e0 d8 1e 07 3c f4 e3 a7 3d 10 79 8c be 49 5d 93 bc
       0.0082471 0.081977755 -0.27436113 -0.017988818
0000f0 3d 2e 62 be 8d ed c2 bd f0 ac 10 be 4c 31 6e bd
       -0.22087951 -0.095179655 -0.1412847 -0.058152482
000100 b5 8f b5 3d 51 bb 38 3e 03 db 86 39 c3 1f 96 b8
       0.088653006 0.18040206 0.00025721648 -7.1584735e-05
000110 9f 0d 92 be f5 73 29 3e 03 b7 4b 3c 1e 8b 36 3c
       -0.28526017 0.1654814 0.01243377 0.011141567
000120 06 88 4f 3e a6 3a 47 be bb f4 39 bc 78 59 27 be
       0.20266733 -0.19455966 -0.011349852 -0.16342723
000130 96 3c 1a 3d 2e 0e 3d 3d b9 b5 03 3e 6d 67 f4 3d
       0.037655436 0.0461561 0.1286229 0.119337894
000140 c1 32 2e be 3f 48 ac 3d 04 41 6b 3d 72 67 35 3d
       -0.17011549 0.08412217 0.05743505 0.044288106
000150 d2 5b 2f be ff 79 07 3c d0 ec ee 3d 1a ed cd bd
       -0.1712487 0.008268832 0.11666262 -0.10054989
000160 16 0a b3 3d da 3e 2d bb 88 50 37 3e 06 34 bc 3a
       0.08742158 -0.0026435168 0.17901814 0.0014358766
000170 20 a3 ac be 2d ac 4c be ec b8 b3 bd e5 59 3b 3d
       -0.33718204 -0.19987555 -0.087755054 0.045740027
000180 96 cb 49 be 75 f6 17 3d a0 30 e4 bd 65 46 8b bd
       -0.19706568 0.037100274 -0.11142087 -0.06800536
000190 c3 b3 07 bd c0 b1 84 3c a7 06 6b be b9 79 b9 3c
       -0.03313042 0.016198039 -0.22951756 0.02264105
0001a0 db dd 5d 3e 49 df 07 be 75 72 5b be 03 ca a1 3d
       0.21666662 -0.1326877 -0.2143038 0.07899859
0001b0 35 55 95 bd 67 7b 40 bd a5 dd c5 3d 24 f8 27 bd
       -0.072916426 -0.046992686 0.09661416 -0.04100813
0001c0 aa 0e b7 bc 14 c4 50 3e ae 35 37 3d 06 ce a0 bd
       -0.02234586 0.20387298 0.044728927 -0.07851796
0001d0 88 29 99 bd ff c3 02 bd 98 9c 14 be 8b 37 10 3e
       -0.074786246 -0.031925198 -0.14512861 0.14083688
0001e0 ce 76 42 be 82 25 0f 3e 2e 2e c3 3e 42 d3 e8 bb
       -0.18990633 0.13979152 0.3812117 -0.007105262
0001f0 95 37 57 3d 24 f4 b0 bd 4d 6c e1 3b fd 4f 78 bd
       0.05254324 -0.08640316 0.0068793655 -0.060623158
000200 3d b2 8a 3d 78 69 2a be 7a 75 c1 3e fd e7 54 3e
       0.067722775 -0.16641796 0.3778494 0.20791622
000210 76 97 76 bd a0 d0 b4 bc b7 b6 3b be b4 79 27 3e
       -0.06020304 -0.022072136 -0.18331419 0.1635502
000220 0f 8b 2a 3d 17 a7 30 3e a6 a0 68 3b 71 f4 fa 3d
       0.041636523 0.1725124 0.0035496145 0.12253655
000230 2a 3d a0 be bb 73 43 bd d2 89 a5 bd 9a f8 4a bd
       -0.31296664 -0.04771779 -0.08082928 -0.04955349
000240 a0 a0 01 3e 4f 08 b4 bc e7 78 b5 bd 0c 0c eb bb
       0.1265893 -0.021976618 -0.08860951 -0.007173067
000250 20 61 86 3d 54 55 64 3e e3 ba 24 3e 8d 99 c6 be
       0.06561494 0.22298175 0.16086917 -0.38789025
000260 21 7f 6b bd 09 21 94 3e 17 4d 90 bd dc ed 24 3e
       -0.057494286 0.28931454 -0.07045954 0.16106361
000270 7c 36 3f be 8d ae c5 bd d0 74 08 3d 47 77 96 bd
       -0.18673128 -0.096524335 0.033314526 -0.07346969
000280 55 b3 86 bd 37 ff 20 3d e7 1d d6 bd 34 1d 3b 3d
       -0.065771736 0.03930589 -0.10454922 0.045682147
000290 a5 dc 91 be 49 11 49 be f6 f7 38 be 55 e1 7d 3c
       -0.2848865 -0.196355 -0.1806334 0.015495618
0002a0 10 69 9d 3d 54 da ca 3c b8 2a 84 3e 39 7f 1f 3d
       0.07686055 0.02476231 0.25813842 0.03893969
0002b0 c0 b5 23 bd ab 86 dc bb 49 29 41 3d 71 58 ed 3d
       -0.039968252 -0.006729921 0.047158513 0.115891345
0002c0 72 27 a6 3c 9f 8e 8a 3e 66 ce 77 bd 65 51 6a 3e
       0.02028248 0.27061936 -0.06049957 0.22882612
0002d0 d2 ec bd 3c af ef 81 3e b9 03 8d 3d db b1 d0 bd
       0.023184214 0.25378177 0.06885476 -0.10190173
0002e0 7a b8 07 be 68 1a 38 3d b3 41 22 be 67 b6 c2 3d
       -0.13253966 0.044947058 -0.15845375 0.09507447
0002f0 6d 4a cc 3d df 03 35 be 53 f5 c1 bd ae 03 45 be
       0.09975133 -0.17677258 -0.0947062 -0.19239685
000300 9b 4e 8b bd 0b c0 e4 3d f3 c7 5a bd f2 5e 8f 3e
       -0.06802102 0.11169442 -0.053413343 0.28002125
000310 68 06 29 be ea e6 9e 3d 79 6a 02 3d 28 9b 0d bc
       -0.1650635 0.07758887 0.03183982 -0.008642949
000320 22 f2 01 3e 9a 6d 4a 3e f6 eb 57 bd 3c 3e 11 be
       0.12690023 0.19768372 -0.052715264 -0.14183897
000330 ec 66 d4 bd 25 d4 fa bd 62 49 f4 3d 26 48 0f 3e
       -0.10371193 -0.122474946 0.11928059 0.13992366
000340 e5 88 4d 3e 8d 49 28 bd 42 eb 89 3e a6 81 a1 bc
       0.20071752 -0.04108577 0.269373 -0.019715142
000350 72 ee 48 3e f1 97 30 3e 13 c1 61 bd c5 be 8b 3c
       0.1962221 0.17245461 -0.05511577 0.01705874
000360 58 cb 73 bd d9 30 e0 3c 6d fe 09 be c4 e7 e0 3d
       -0.059520096 0.027367042 -0.13475962 0.10981706
000370 78 62 d0 3d 27 a9 6e 3c 1a eb 32 bd 89 81 2d be
       0.101750314 0.014566696 -0.04368124 -0.16943945
000380 b5 f2 aa 3b 4b 3e 00 3e 99 c2 1a 3e 93 14 ff bc
       0.005216921 0.12523763 0.15113296 -0.03113774
000390 56 b5 1d 3e 59 21 ac bc 48 63 a8 be 63 f2 92 bd
       0.15401205 -0.021011995 -0.32888246 -0.07175138
0003a0 49 41 2e be 4c 8f 8d bb 1f 63 58 bd c1 65 0b bb
       -0.17017092 -0.004320061 -0.052828904 -0.0021270367
0003b0 d2 35 84 3e 73 cc 75 3c e8 55 c6 3e 42 92 19 be
       0.25822312 0.015002358 0.38737416 -0.14997199
0003c0 a4 e9 0b 3d 35 b5 fe bd d6 94 bb bd 50 d3 b9 be
       0.034158364 -0.12436906 -0.091592476 -0.3629403
0003d0 fc 91 4a bd 2f d5 31 3e 14 b1 8f 3d 4a b3 4a 3e
       -0.049455628 0.1736648 0.07016197 0.19794956
0003e0 92 a0 64 be 18 99 90 3d c9 cb 68 3d 80 86 a3 be
       -0.22326878 0.0706045 0.05683497 -0.31938553
0003f0 d7 fe 20 3c cf aa 15 3b b9 f0 4c 3e 80 75 0c 3d
       0.009826384 0.0022837406 0.20013703 0.034291744

encoder.net.5.bias f4 [32]
000000 48 3c 3e bd e2 70 a0 bd e8 a6 1b 3d b4 21 75 bd
       -0.046444207 -0.07834031 0.03800097 -0.059846595
000010 bd 71 7d 3d 6b 4b 4d 3d 52 8a 23 3d ff ce 42 bd
       0.061876047 0.050120752 0.039926834 -0.047560688
000020 05 24 18 bd 43 0f 6a 3d 78 30 12 bd cb 3c 1a 3d
       -0.037143726 0.05714346 -0.035690755 0.037655633
000030 47 d4 28 bd aa 1e 24 3d 78 28 10 3d 94 07 9b 3d
       -0.04121807 0.040068306 0.035194844 0.07569805
000040 68 7b 79 bd f6 9f 24 bd 7b df 09 3d 96 9c 38 3d
       -0.060908705 -0.040191613 0.033660393 0.045071207
000050 63 67 55 bd 6c ad 00 be 43 35 e6 bc e0 63 21 bc
       -0.05210055 -0.12566155 -0.028101569 -0.009850472
000060 16 40 ae bc 9e 94 33 3d 75 87 d1 bc 32 1c 27 bd
       -0.021270793 0.043842904 -0.025577286 -0.040798374
000070 08 1a 36 bd 52 cf 5d 3d 93 21 9d 3d bc 3a e3 3c
       -0.04445842 0.054152794 0.076724194 0.027737968

predictor.net.1.weight f4 [32, 32]
000000 9b c5 63 bd c8 f5 c0 bc 38 35 c3 bd b7 cf 26 3c
       -0.055608373 -0.023554698 -0.09531635 0.010181359
000010 ad 3e 15 be 21 a6 5b 3e 8f 71 ca 3c b5 63 8e 3e
       -0.1457469 0.21450092 0.024712352 0.27810445
000020 ca 29 9c 3d 9a 1b 62 3d 72 c4 7a 3e b5 f5 9d bd
       0.07625158 0.055202104 0.24489 -0.077128805
000030 8b 67 a2 be 5e 87 e8 bd fe 57 69 bd 70 6c ab 3d
       -0.31719622 -0.11353944 -0.05696868 0.08370292
000040 70 07 23 be f0 71 90 be cb 36 24 3e 2a 44 20 3e
       -0.15920806 -0.28211927 0.16036527 0.15651003
000050 57 cb 22 3d a5 0f 49 3e 25 45 ae 3c 79 46 6e bd
       0.0397447 0.19634874 0.021273205 -0.058172677
000060 f7 68 29 3b 36 8b cc 3c c0 8f b0 bc a5 86 8c 3d
       0.0025849917 0.024968725 -0.02155292 0.06861619
000070 6f 28 73 be ea 80 06 3e e8 e0 1f bd 7f 2a 23 3d
       -0.23745893 0.13135114 -0.039032847 0.03983545
000080 84 70 9c be d0 c4 a2 be b3 80 80 3e bb 25 90 be
       -0.30554593 -0.3179078 0.2509819 -0.28153786
000090 51 5e 24 3e 85 30 5d 3e fb df 70 3e d0 51 93 be
       0.16051604 0.2160054 0.23522942 -0.28773355
0000a0 44 0b b8 be 79 3b 87 3e 2d d4 ef bd cd fb 81 3d
       -0.35946095 0.26412562 -0.11710391 0.06346855
0000b0 3f 53 b7 be 50 45 4b 3e 7f 78 84 bd c9 79 e9 bb
       -0.358057 0.1985066 -0.06468295 -0.0071251136
0000c0 eb d3 81 bd 52 03 f6 3d fd 2a 2e bb 57 13 07 3e
       -0.06339248 0.12012352 -0.0026575916 0.13190971
0000d0 6f 54 c9 be 8c d9 bf be fa d7 9a bc 00 4b 7f 3c
       -0.3932223 -0.37470663 -0.018901814 0.015581846
0000e0 f5 6b 7e 3e 8b 71 8a 3e ea 1b 82 3c 8a c9 9e be
       0.2484587 0.2703975 0.015882451 -0.31013137
0000f0 fa 21 0d be 1c 29 c8 3e 1d e1 46 3e 32 87 55 3e
       -0.13782492 0.39093864 0.19421811 0.20852354
000100 f1 7f 76 be 3c d5 ce bc 92 da 41 3d 2f 2c 7e bd
       -0.24072243 -0.025248162 0.047327586 -0.062053856
000110 da 10 2c be dd ad 42 bd fa 7e 4a be 83 d7 ce 3e
       -0.16803303 -0.04752909 -0.19775 0.40398797
000120 18 4a 02 bd 31 6e cb 3d 30 96 8d be 39 d2 a6 bd
       -0.031808943 0.09933127 -0.27653646 -0.081455655
000130 3e fd d4 3b 0a 12 79 bb 5c b7 c9 3d 78 cc f0 3c
       0.0064999154 -0.0038005137 0.09849426 0.029394373
000140 70 38 84 bd 84 98 24 3e d2 5e 8a be 18 27 55 bd
       -0.06456077 0.16073805 -0.27025467 -0.052039236
000150 d1 b8 4f 3d 4d 75 94 bd 48 84 bd bd aa 23 b1 bd
       0.050713364 -0.07248936 -0.09253746 -0.086493805
000160 9b 89 49 3b d9 db 59 bd a9 a2 5f 3e 78 3b 70 be
       0.0030752185 -0.05318818 0.21839394 -0.23460186
000170 07 87 21 be b6 66 15 3d 41 81 89 3e b7 77 32 3e
       -0.15774165 0.036474906 0.26856425 0.1742848
000180 e5 b7 65 be a3 3d 85 bd 61 96 5b 3e 46 0c 3c 3e
       -0.22433431 -0.06505897 0.21444084 0.18364057
000190 96 15 7a bd 73 2a 16 3e 75 dc 0a bd a1 77 24 be
       -0.061055742 0.1466463 -0.03390165 -0.1606126
0001a0 a4 36 85 be 11 af 16 be 83 02 31 3d c6 e3 e4 3d
       -0.2601825 -0.1471522 0.043215286 0.11176257
0001b0 75 f8 c8 3d 16 a7 26 be 5f 67 ca bd b2 d8 92 be
       0.098130144 -0.16274676 -0.09882998 -0.2868095
0001c0 fd 94 08 be b9 22 0a 3e 67 40 04 3e 51 ed 8f bd
       -0.13338085 0.13489808 0.12915193 -0.070276864
0001d0 57 45 79 3e f3 d7 55 3e d2 8d 2b be 23 6a 5d 3d
       0.24342857 0.2088316 -0.16753319 0.054056298
0001e0 fc 57 8f 3e 2a 16 b8 3d d6 4d c5 be e6 44 3b 3e
       0.27996814 0.089886025 -0.38535947 0.18288001
0001f0 84 dc fd bc 6c cf 13 bc f3 a9 01 bd cd 60 60 3d
       -0.03098894 -0.009021621 -0.031656217 0.054779816
000200 1c 7e 67 3d c0 f0 62 be 6d f1 90 3d 8d 5b 13 3e
       0.05651675 -0.22162151 0.07077298 0.14390393
000210 e2 77 91 bc b1 51 30 bc d4 2b 6b be 51 2e ed bd
       -0.01775736 -0.010761664 -0.22965938 -0.115811
000220 4a aa b4 3d 44 73 ad 3e a2 d8 c0 bd 97 c5 3e 3e
       0.088215426 0.33877003 -0.094163194 0.18630062
000230 4c a1 7b be ae 81 ea 3d 7f 29 d7 3e 73 5b 82 3e
       -0.24573249 0.11450516 0.42023847 0.25460395
000240 70 f4 aa bd 05 3b 17 3e bc 11 74 ba 66 a9 93 be
       -0.08347404 0.14768608 -0.0009310504 -0.28840178
000250 3c ec a1 3c 55 ba bc bc 19 02 72 3d f4 e9 49 3d
       0.019765966 -0.023038069 0.05908403 0.04929538
000260 a1 cd 0b be 15 97 c5 bc ea f2 4b be df ed 8c be
       -0.1365266 -0.024119893 -0.19916883 -0.2752523
000270 22 13 39 be 61 93 e2 bd aa 34 38 3e ed e5 9d bd
       -0.18073705 -0.110632665 0.1798884 -0.077098705
000280 14 53 bd bd 62 13 1b be 29 fe ec bd 47 3b 70 be
       -0.092443615 -0.15144113 -0.11571915 -0.23460113
000290 e8 fc 8c bc 4c 41 d7 3d b4 d4 26 3d 8e 96 c5 be
       -0.017210439 0.10510501 0.040730193 -0.38591427
0002a0 da 51 98 3b e6 bf 24 3e 83 88 7c be 60 35 12 3e
       0.0046484293 0.16088828 -0.2466145 0.14278173
0002b0 a4 ab ac 3c 98 65 b1 3d 44 b3 51 be 45 42 25 3d
       0.021077938 0.086619556 -0.2047854 0.040346403
0002c0 d3 7d e9 bd ff c0 8c be 34 50 ff 3d 60 54 54 3d
       -0.11400952 -0.27490994 0.124664694 0.05183828
0002d0 31 b0 2b 3e 00 32 df bd 64 60 92 be 52 94 8e 3e
       0.1676643 -0.108982086 -0.28589165 0.27847534
0002e0 06 38 8b 3e f6 e6 17 be f1 f4 d9 3d 24 af 9f bd
       0.2719118 -0.14834198 0.10642422 -0.07797077
0002f0 35 85 bf bc ad 05 85 3d 50 0a 61 3e dd a3 53 3e
       -0.023378948 0.06495223 0.2197659 0.20667978
000300 b8 17 2c be 98 71 80 3e 27 04 f1 3d 53 1b 45 3e
       -0.16805923 0.25086665 0.1176837 0.19248705
000310 1f 78 45 be 7b 1d 47 bd 7a 60 18 be 24 3a 87 bc
       -0.19284104 -0.0486121 -0.14880553 -0.016507216
000320 26 54 d9 be 2b d1 fb 3d 95 56 a3 be 51 96 e0 3b
       -0.42447013 0.12295755 -0.31901994 0.0068538566
000330 1a 6b 0f 3d ef 50 3a bc 9d d5 85 bd 8f da 45 bd
       0.03501425 -0.011371835 -0.06534884 -0.048304137
000340 9c 61 31 3e 8a 93 b6 3e 44 e0 93 be b8 ba 21 be
       0.17322391 0.35659438 -0.2888204 -0.15793884
000350 eb f3 ce be 43 a5 16 3e 5d b4 08 3d 03 d5 b0 3c
       -0.4042047 0.1471148 0.033375133 0.021585947
000360 67 09 7b be bf 86 ab 3d d1 09 b2 bc e4 6b 85 bd
       -0.24515305 0.0837531 -0.021733196 -0.06514719
000370 44 6e 48 3e 4a 80 36 bd b0 ef 03 3d e2 72 40 bd
       0.19573313 -0.04455594 0.032211006 -0.04698456
000380 57 5f 91 be a9 61 05 3e 8d 53 94 3e ff 3c df 3c
       -0.2839305 0.13025536 0.28969994 0.027250765
000390 7a 33 86 3d c4 49 4c bd ac ca 4f bd 48 cd 3c 3d
       0.06552787 -0.049875036 -0.050730392 0.04609421
0003a0 d8 2a 16 be 74 81 b8 3e f9 3a 47 3e 76 3f ab 3d
       -0.14664781 0.36036265 0.1945609 0.083617136
0003b0 0d 75 27 be ac 93 72 bd d4 4f 37 3c 43 48 6b bd
       -0.16353245 -0.059222862 0.011188466 -0.05744196
0003c0 e1 1f 90 bc 7d c4 07 be b5 e2 65 3e ca a6 99 3e
       -0.017593326 -0.13258548 0.22449763 0.30010062
0003d0 87 87 e5 3d 04 5b 32 3d 28 c9 3f 3d 94 e5 db bc
       0.112074904 0.04354383 0.046822697 -0.02684287
0003e0 38 0f e1 3d f4 6c 42 bd 89 0d 56 3e f7 b5 2a 3d
       0.10989231 -0.047467187 0.20903601 0.04167744
0003f0 d7 4e b2 be af dd 2c 3f dc fb 9a 3e 83 d7 48 3d
       -0.34825775 0.6752576 0.30270278 0.049033653

predictor.net.1.bias f4 [32]
000000 0b d5 90 3d 5c 0f 03 3e e5 fd ca bd 0e 7b bd 3d
       0.07071885 0.12798828 -0.09911708 0.092519864
000010 93 6e b7 3d 35 71 b6 3d 2c 39 95 3d 8e 6e 36 be
       0.08956637 0.08908311 0.07286295 -0.17815611
000020 b3 c4 b9 bd 28 77 d3 3d a5 96 b4 bd 2f bd b1 3d
       -0.090707205 0.103254616 -0.08817796 0.08678662
000030 74 97 d1 3d ac 0f e9 3d 4a 0c c0 3d bd 81 df bd
       0.102339655 0.11379942 0.09377344 -0.109134175
000040 81 bd be 3d a5 56 c9 3d 0f 69 c0 bd 18 d9 a5 3d
       0.09313489 0.09830979 -0.09395038 0.08098048
000050 a6 0b ba bd 06 8d d1 3d 58 37 b9 3d e7 64 e2 3d
       -0.09084253 0.10231976 0.09043759 0.11054402
000060 d5 62 bb 3d ca 9c e3 bd 94 67 c0 3d 33 00 21 be
       0.0914971 -0.111138895 0.09394756 -0.15722732
000070 e4 23 0f be a9 95 af 3d 03 a6 5c bf be b7 c1 3d
       -0.13978535 0.08573467 -0.86190814 0.09458874

predictor.net.3.weight f4 [1, 32]
000000 d1 ca 11 3d 83 8e 8e 3e 03 c0 41 be 6b f0 12 3f
       0.03559381 0.27843103 -0.18920903 0.573981
000010 d7 a6 b9 3e f8 80 d3 3d 4b 97 b3 3d 9d 53 ed bd
       0.362601 0.10327333 0.08769091 -0.115882136
000020 fe 20 5b be 30 30 14 3e 24 73 27 be 9b b5 1c 3e
       -0.21399304 0.14471507 -0.16352516 0.15303652
000030 be 3d 05 3f 88 1e 70 3d 94 66 74 3e 85 7e 1e be
       0.52047336 0.058622867 0.23867255 -0.15477951
000040 12 20 36 3e a0 ba d3 3e 5a 8b ed be c7 59 20 3e
       0.17785671 0.4135332 -0.4639538 0.15659247
000050 5b 28 a1 be 0a b0 8d 3e d2 3e 1f 3d d1 cc 39 3e
       -0.314761 0.2767337 0.03887827 0.18144538
000060 3a 89 82 3e 97 a2 ba bd 31 86 b5 3e 8e 84 ce bd
       0.2549532 -0.09113043 0.35453942 -0.100838766
000070 eb c5 85 bd 87 07 d0 3e 53 79 20 be 4f fa d2 3e
       -0.065318905 0.40630743 -0.15671282 0.41206595

net.0.weight f4 [60, 35]
000000 d5 75 05 3d 52 c8 31 be 89 64 b8 3d b6 56 0f 3d
       0.032583077 -0.17361572 0.090035506 0.034994803
000010 37 aa 48 3e 95 89 99 3d 63 2f 73 3e 91 7a 25 3e
       0.19596182 0.07496945 0.23748545 0.16160037
000020 09 82 4e be 33 99 c5 bd 7d ea 59 3c ad b7 a6 be
       -0.20166792 -0.09648361 0.013300535 -0.32562009
000030 4d fe 96 3d 9e 49 14 bc cf 5f e0 3b 20 04 cb bc
       0.07372723 -0.009050755 0.006847359 -0.02478224
000040 ed 24 66 3d 79 3d 02 3e 5a d7 26 3d 8d fa 66 3d
       0.05618756 0.12718762 0.04073272 0.056391288
000050 22 c2 e5 3d 47 6a 71 be cc ca d0 bd f1 91 28 3d
       0.112186685 -0.23575698 -0.101949304 0.041154806
000060 49 c4 43 be da 4c 39 bd 8a 52 4d bd bf 57 76 3d
       -0.19117846 -0.045239307 -0.050127544 0.060142275
000070 e5 26 1c 3e 92 1e 19 3d ab b0 08 bd c7 71 9d bd
       0.15249212 0.03738267 -0.03337161 -0.07687717
000080 7e 81 05 bd d7 a0 04 bd 0c 8c af 3e 19 9c 1f bd
       -0.032594196 -0.03237995 0.34286535 -0.038967226
000090 ca 86 ff 3d 67 a7 fa 3b 26 cd b2 3d 71 a7 b9 bd
       0.12476881 0.0076493504 0.08730535 -0.0906514
0000a0 24 26 0a 3b 27 31 9e 3d c3 3a 36 3d 6f e6 4c be
       0.0021079862 0.07724219 0.044489633 -0.20009778
0000b0 80 e2 d8 3d 6f 2a df 3d 6a 0f 53 bd 1a 88 bb bc
       0.105900764 0.108967654 -0.051528372 -0.022892047
0000c0 93 72 20 be d0 3d 28 bd 92 35 53 bd f7 a2 fe bd
       -0.15668707 -0.041074574 -0.05156476 -0.12433427
0000d0 e2 aa 08 3d 8c 54 ee bd c6 b0 cd bd 8c 61 46 bd
       0.03336609 -0.1163722 -0.100434825 -0.04843287
0000e0 fa 2d 85 bd b0 5f 02 be 6f 5a ca bd 1c 66 ea bd
       -0.0650291 -0.12731814 -0.0988053 -0.11445257
0000f0 03 49 06 3e b5 01 03 3e e0 05 3d 3e 64 f3 65 bd
       0.1311379 0.1279362 0.18459272 -0.05614032
000100 8a 4c e0 3d 6c 0d 54 be 48 5c 8e 3c bd 45 2f be
       0.10952099 -0.20708245 0.017377988 -0.17116447
000110 71 65 c0 bc 0b 88 d9 bd 00 fe 1d be e4 1f 8d 3c
       -0.023485871 -0.10621651 -0.15428925 0.01722712
000120 95 5a 5e 3b 23 d5 30 3d a2 f1 91 3e 43 ee b7 be
       0.0033928503 0.043172013 0.28504664 -0.35923967
000130 04 1f d9 3c 7a f3 9b 3e dc 6f f6 3d 71 c0 07 3e
       0.026504047 0.30459195 0.12033054 0.13257004
000140 af 73 c3 bc a3 4c 00 3e 87 52 05 be 4a f5 1c 3e
       -0.023858873 0.12529235 -0.13019763 0.15327945
000150 20 47 fb bd cc 43 c4 bd cf af 67 3d a9 16 9d bd
       -0.122694254 -0.09583244 0.05656415 -0.07670338
000160 87 58 6b 3d 41 87 d7 bc f1 65 b6 3d 4e 72 7b be
       0.057457473 -0.026309611 0.089061625 -0.24555323
000170 44 1f d1 3d 85 35 30 be 61 21 a1 be 5e 49 da bc
       0.102110416 -0.17207916 -0.3147078 -0.026646312
000180 fd 21 79 3d b4 c9 6d 3e b0 f7 38 3e 87 6d c8 be
       0.06082343 0.23221475 0.18063235 -0.39146063
000190 c2 0d db 3b d2 58 6e be a6 f6 13 3e 88 81 fc 3c
       0.0066849897 -0.2327607 0.14449558 0.030823484
0001a0 2b 71 4b 3e 33 a1 b6 bd 13 d9 76 3d 0a e8 f1 bc
       0.19867389 -0.08917465 0.06026561 -0.02952959
0001b0 e8 cd ad 3d fc cc 24 3c 8a 04 2a 3d 66 89 86 3e
       0.08486539 0.010058638 0.041508235 0.26276702
0001c0 45 a1 a9 3d 33 d0 25 bc cd a4 5e 3d d7 98 2e bd
       0.08282713 -0.010120439 0.054356385 -0.04262623
0001d0 f0 86 32 3d a0 eb 9d 3c 08 5e 10 be 7e ab cf bd
       0.043585718 0.019277394 -0.1409837 -0.101401314
0001e0 82 1e 0b 3d a5 f5 94 3d 68 b8 40 3e 6c d9 a3 3d
       0.03396464 0.072734155 0.18820345 0.08000454
0001f0 e7 8e 8f 3d 5e 9b 89 3d e4 e3 44 3b 14 f1 9b 3c
       0.07009678 0.06719087 0.003004306 0.019035853
000200 af c8 d5 ba a8 3c 04 3d 85 84 86 bd c0 f1 58 3e
       -0.0016310419 0.03228441 -0.06568245 0.2118597
000210 28 e4 a2 3d 5a 4d 80 bd 56 6a 48 be ad 16 15 3e
       0.079536736 -0.06264754 -0.19571814 0.14559431
000220 f6 be 49 3c 89 f5 12 be be 59 95 3d 75 6d d6 bd
       0.012313595 -0.14351477 0.072925076 -0.10470096
000230 96 49 ea bd 3e a5 bd bd cb dc b3 bd 3a 2d e4 bc
       -0.11439817 -0.09260033 -0.08782347 -0.027853597
000240 a3 89 bc 3c 1a 59 86 bd b0 d6 41 3d 55 65 ac 3d
       0.023014849 -0.065599635 0.047323883 0.08417765
000250 7f 9c 31 3d 5e c1 f1 3d 83 ba b6 3e 5a 92 9e 3d
       0.043362137 0.1180446 0.35689172 0.07742758
000260 ec 41 66 3c 34 2c 1e 3d 5d 13 5f be ea 21 ef 3d
       0.014053803 0.038616374 -0.2178473 0.116763905
000270 3c 15 95 be 41 79 b8 bd 48 5e 5a 3d d9 5e 2f bd
       -0.29117763 -0.09007502 0.05331257 -0.042815063
000280 6e eb 88 3c 37 d3 40 3c b6 b4 d6 3d 4c d7 3a be
       0.016713824 0.011769108 0.104836866 -0.18246192
000290 85 e1 d4 3d b6 de fd 3d bd 06 19 3d 79 9a 86 3c
       0.10394577 0.12395994 0.03735994 0.01643108
0002a0 a8 ca ab 3d 1c 21 01 be 93 1a 88 3e 4f 74 0a be
       0.08388263 -0.12610286 0.26582775 -0.1352093
0002b0 f8 fe 89 be 83 0f b4 be c2 af 35 bd d5 fb 01 3e
       -0.26952338 -0.35168085 -0.04435707 0.12693723
0002c0 cb 26 37 3d 91 53 46 3e 30 ed 2c 3d a1 f8 a8 3d
       0.04471473 0.19367816 0.042218387 0.08250547
0002d0 62 ce b6 3b 80 1e 93 bb 15 fe 14 3c e7 c2 9e bc
       0.005578802 -0.00448972 0.009093781 -0.019380046
0002e0 ed 4d 43 bc 45 39 25 be 01 3b 63 3e c6 cb b8 3d
       -0.011920434 -0.16135128 0.22190477 0.09023242
0002f0 90 7c dd 3c 84 7a 69 be 0e 27 13 be b5 11 1f bd
       0.027036935 -0.22800642 -0.14370367 -0.038835246
000300 77 f3 82 3c 64 ce 23 be b4 7b 14 3e e3 fb 1b 3e
       0.015985234 -0.159967 0.14500314 0.15232806
000310 c7 90 3a be 89 ee ba 3e a2 95 5d 3e bc bd bf bc
       -0.1821929 0.36510113 0.21639112 -0.023405902
000320 8a 17 1e be 10 53 96 be 27 5f 81 bb 95 f8 85 3e
       -0.15438667 -0.29360247 -0.0039481106 0.26166216
000330 41 67 e6 bc 7c da 05 3e 26 df 91 bc a7 07 f0 3d
       -0.028125407 0.13071626 -0.0178066 0.117202096
000340 09 a8 77 bd 79 48 4c be df e1 b3 bd 14 a3 6c 3d
       -0.060462985 -0.19949521 -0.08783316 0.05777271
000350 6f 26 12 3d 6d 14 35 3e 8f 45 97 bd e3 d0 5f 3d
       0.035681184 0.17683573 -0.07386314 0.05464257
000360 3c 0c b7 3d 8d b8 61 3e 59 ca 55 3d 29 9d 2d bd
       0.089378804 0.22043057 0.052194927 -0.042386208
000370 b6 cd 71 3d 83 30 9b bd 71 c5 c7 bd 1f b6 06 3e
       0.059034072 -0.07577612 -0.09754456 0.13155411
000380 8f a4 9f b9 55 32 87 3d 69 5f 73 3d af 67 c8 3d
       -0.0003044945 0.06601397 0.059417162 0.09785401
000390 1e 47 ca 3d 36 8c 57 3e 7f e1 f8 bc 9a 54 ea 3d
       0.09876846 0.2104958 -0.030380962 0.11441918
0003a0 da b5 60 3e 18 87 1b 3e 18 57 07 bd a6 19 a1 bd
       0.21944371 0.15188253 -0.033042043 -0.0786622
0003b0 a3 1f 5e bc 9b 1a 91 3e 33 cf 08 3e 63 45 aa bd
       -0.0135573475 0.2834061 0.1336029 -0.08314016
0003c0 51 ad 92 bd 2b e3 2d be 99 b0 5b 3e d0 91 fb ba
       -0.07161964 -0.16981189 0.21454085 -0.0019193236
0003d0 2f 33 5f 3d 70 c6 02 3e 19 60 63 be 42 31 4b bc
       0.05449217 0.1277101 -0.22204627 -0.012401881
0003e0 0d 6c 96 3d f6 b4 a5 3e 32 0c 13 3d f4 31 53 3d
       0.07344828 0.32364625 0.035900302 0.05156131
0003f0 20 53 5a be e4 b4 8e bd 14 d4 05 3e ca a8 aa bd
       -0.21320772 -0.06968096 0.13069183 -0.08332975

net.0.bias f4 [60]
000000 0c 89 a0 bd dc 62 b4 bc 3c bd be bc ca 1f bb bd
       -0.078386396 -0.022019796 -0.023283593 -0.09136923
000010 07 a5 3e 3d 04 23 09 3e 81 57 e1 bd 20 79 f6 bc
       0.0465441 0.13392264 -0.11003018 -0.030087054
000020 da 89 06 be 80 7c 1a bd d1 60 c6 bd 42 c1 04 3e
       -0.13138524 -0.03771639 -0.09686435 0.12964347
000030 93 f9 1a 3d b8 fb 91 3d cb 37 1c be ca 6b 32 be
       0.03783567 0.0712809 -0.15255658 -0.17423931
000040 c6 26 cd 3c 91 97 ab 3d ac 03 b5 bd 5c 55 0e be
       0.025042903 0.083785184 -0.08838591 -0.1389975
000050 22 35 21 3e a4 c4 8e bc bc 5c dd 3d e8 c1 e0 3d
       0.15742925 -0.01742775 0.10808703 0.10974485
000060 c7 94 bc bb 15 96 1e 3d e8 a0 e0 3d 5f b4 fc bd
       -0.0057550403 0.038717348 0.109681904 -0.123390906
000070 c6 3c be 3d fb 53 e1 3d e7 8c 4b bd 34 4e c7 bc
       0.09288935 0.11002346 -0.04969492 -0.024329282
000080 2b 51 03 be c4 cb 49 bd 3a f8 1b 3d 2c e2 90 3c
       -0.12823932 -0.04926659 0.038078524 0.017685972
000090 66 fd 1e 3d 8d ff f7 bd 82 c2 a2 3d db d3 43 3d
       0.03881588 -0.12109289 0.07947256 0.047809463
0000a0 a5 90 f1 3c 3d ab 9a 39 11 02 b7 3d d3 52 7a bd
       0.029487917 0.0002950075 0.08935941 -0.061114144
0000b0 bc c3 ea 3d 6a fa 95 bd dd d2 91 3d 43 bc 9d 3d
       0.114631146 -0.07323153 0.07120297 0.07701924
0000c0 46 61 33 be 52 2c ac 3d a1 12 12 be f9 86 a2 bd
       -0.17517576 0.08406891 -0.14264919 -0.079359
0000d0 72 44 05 be 37 47 8b bd c6 7d d1 bd 66 37 0b 3e
       -0.13014391 -0.068006925 -0.102290675 0.13595352
0000e0 c1 80 10 3e 1b 08 13 be 37 50 12 be a4 f7 88 3d
       0.14111616 -0.1435856 -0.14288412 0.06687859

net.2.weight f4 [60, 60]
000000 0e 38 6b 3b e0 7b 38 3e 18 f7 09 bd 5c 86 0e be
       0.0035891565 0.18016005 -0.033682913 -0.13918442
000010 29 e1 96 bd b0 a4 5b bd 01 bf 6d bc 82 22 cd bc
       -0.07367165 -0.053623855 -0.014510871 -0.025040869
000020 6a 87 9d bd ed 0f a5 be 73 e6 9a bd 17 10 02 3e
       -0.07691844 -0.32238713 -0.07563486 0.1270145
000030 5d ef 36 3e c1 70 14 3e 36 e2 93 3d de 33 3b 3e
       0.17864747 0.14496137 0.07220881 0.18281505
000040 86 2f 74 bd 82 3e c1 3c 36 67 96 bc 99 c2 b8 bc
       -0.059615634 0.023589376 -0.018359762 -0.022553729
000050 1e 58 a5 3d 61 c7 13 be 28 ad 93 be 5a 1b 44 3d
       0.08073448 -0.14431526 -0.28843045 0.047877647
000060 e7 d0 e1 3d 85 64 15 3d 1f 00 26 3d b6 a6 83 bd
       0.11026173 0.036472816 0.04052746 -0.06428282
000070 75 2e fc 3d 94 f1 83 bc 2b 32 3b 3e 47 ee 91 3c
       0.123135485 -0.016106404 0.18280856 0.017813815
000080 c4 06 b3 3b a8 06 22 be 22 94 09 bd 31 cc 01 3d
       0.005463453 -0.15822852 -0.033588536 0.031688873
000090 49 9a 6d 3d 94 09 cb 3d 9c 84 34 3d e0 89 3d 3e
       0.058008466 0.09913936 0.04407178 0.18509626
0000a0 7a b9 6e be 68 bf 21 3b 23 b3 0d bc 4a 5a c5 bd
       -0.23312941 0.0024680737 -0.008648667 -0.09636362
0000b0 49 2c 76 3e 33 62 1c bd 20 05 7e 3d 1f 39 90 bd
       0.24040331 -0.038179588 0.062016606 -0.07042145
0000c0 08 4b 18 3d 1f ee 77 3d 7b 1b 41 be fb 7e 2b 3d
       0.03718093 0.060529824 -0.18858139 0.041869145
0000d0 78 42 84 3b d0 62 c2 bd de c0 c2 bd b1 9a 31 3e
       0.004036244 -0.09491503 -0.09509443 0.17344166
0000e0 54 3b 67 3d a8 71 95 bb ac b3 ab bc 1b 23 5f be
       0.056453064 -0.004560668 -0.020959698 -0.21790735
0000f0 ab ea 9c 3d d6 f9 a2 3d 7a 4f 8e 3e 4a 65 32 bd
       0.07661947 0.07957809 0.2779501 -0.043553628
000100 b3 32 81 3d c4 64 0e 3d d0 bf 21 be 9d 94 1d bd
       0.06308498 0.034764066 -0.15795827 -0.038471807
000110 bc 80 e0 3c 7e 75 9e 3c b4 32 63 3d 94 72 1f be
       0.027405135 0.019343134 0.055468276 -0.15571052
000120 dc 59 8e 3e fa a7 8f bc 41 3c 2a bd aa 76 d4 bc
       0.27802932 -0.017536152 -0.04156137 -0.02593549
000130 72 8f 4d bd 20 91 c6 3d 32 18 01 3e 23 ed da bd
       -0.05018563 0.09695649 0.12606886 -0.106897615
000140 3b 87 ac bd e6 a4 d5 bd bf 03 71 3d b5 d7 26 3d
       -0.08424231 -0.104318425 0.058841463 0.040733058
000150 b3 27 7a 3c 5c 8e 00 3e 07 64 f3 3d 04 d6 8b 3c
       0.015268254 0.12554306 0.11884313 0.017069824
000160 bd ef 91 3d c5 ae 60 3d ab 71 77 bc 40 f1 28 3c
       0.071258046 0.054854173 -0.015102784 0.010311425
000170 f7 20 e1 bc e3 45 27 3e af 58 66 3e 0d 09 c7 3a
       -0.02748154 0.16335253 0.22494768 0.0015185192
000180 e0 bb f3 3c 85 a1 28 bd 15 db 6f be 52 17 b5 3d
       0.029752672 -0.041169662 -0.23423417 0.088423386
000190 f0 b2 1b be 0e 51 db 3d c0 d0 cd bd 87 f3 04 be
       -0.15204978 0.10708819 -0.100495815 -0.12983523
0001a0 a8 b6 81 3e 56 ff d4 3d 5b be c8 bd 53 ae ea 3c
       0.25334668 0.10400264 -0.098019324 0.028647577
0001b0 d1 46 3c bd 3b 60 bf 3c e5 2a a1 bb ab 57 aa 3d
       -0.045965973 0.023361316 -0.0049184435 0.083175026
0001c0 a4 53 24 be 27 0a d6 3d 34 ba 95 3c 5d 85 0d 3d
       -0.16047531 0.10451155 0.018277265 0.034551013
0001d0 64 af 2a 3e 6e 0e 3a 3e 26 df 8d 3e 96 92 07 be
       0.16668469 0.18169567 0.2770931 -0.13239512
0001e0 f7 f7 0d 3d 58 ca 94 bd 20 54 d6 bd e8 8c 08 bd
       0.034660306 -0.072651565 -0.10465264 -0.033337504
0001f0 2c 62 bf bd fe 3e 96 3d 05 f7 ae bc c6 16 0c 3d
       -0.09344897 0.073362336 -0.021358022 0.034201406
000200 22 9e 11 3e 3d 67 6c be dd 34 2e 3c 3c c3 37 3c
       0.14220479 -0.23086257 0.010632721 0.011215981
000210 65 46 4a 3d cc 85 88 3e 38 23 b7 bc cd 41 f8 bd
       0.04938354 0.2666458 -0.02235566 -0.121219255
000220 a0 2f e4 3c 49 dc 71 bd e9 00 24 3e 90 37 26 be
       0.02785474 -0.05904797 0.16015972 -0.16232133
000230 3c c6 5f bd d5 80 63 bd 87 f9 76 3e 17 88 be bd
       -0.05463241 -0.055542786 0.24118625 -0.09303301
000240 ab 78 f4 3d b8 75 25 3c c2 bd 8f bc ae e0 7a 3d
       0.11937078 0.010098867 -0.017546538 0.061249427
000250 f4 89 89 bd a0 ce da bd 55 27 5c bd 7e e2 78 3e
       -0.067157656 -0.10683942 -0.053748447 0.2430515
000260 c0 e5 e6 3d 1e 68 be bc 24 85 4d be 67 12 84 3e
       0.1127429 -0.023243006 -0.2007032 0.2579529
000270 2e ae 6b bd 7c 70 8a bc 17 0c 01 bd 5a 19 5b bc
       -0.057539158 -0.01689934 -0.03150567 -0.0133727435
000280 96 62 11 bb 1a c9 bf bd 89 d8 94 bd 96 97 07 3e
       -0.0022184006 -0.09364529 -0.07267863 0.13241419
000290 50 fc 3a 3e cb 3e 3d 3d b8 67 24 bd e5 5a b0 3d
       0.18260312 0.046202462 -0.040137976 0.08611087
0002a0 57 08 21 3c bb 49 e3 3c cd 14 d8 bd 7a 78 09 be
       0.0098286485 0.027745118 -0.105508424 -0.13424864
0002b0 07 3d 33 3c 7f 9d 8e bd 5b 61 12 3d d3 e2 82 3d
       0.010939843 -0.06963634 0.035737377 0.063909195
0002c0 78 e4 6f be e4 45 e3 bd b3 c3 94 bd 7c 31 65 3d
       -0.23426998 -0.11097315 -0.07263889 0.055955395
0002d0 88 e3 e8 bd 22 d4 61 3d 21 b9 7a be 8c ba 81 3d
       -0.11371523 0.055133946 -0.24484684 0.06334409
0002e0 c6 ab 3b be a8 49 d9 bd 53 91 16 3e 6c 1d b5 bd
       -0.18327245 -0.10609752 0.14703874 -0.088435024
0002f0 f5 50 89 be 39 81 90 bd ce 10 eb 3d a1 b8 e0 3c
       -0.26819578 -0.07055897 0.114778146 0.027431788
000300 80 2c cf bd 3b 8f b5 3d c1 a1 13 be 1d 27 7d bd
       -0.101159096 0.0886521 -0.14417173 -0.06180488
000310 c8 7c e4 3d a3 a4 c9 3d 5f 62 32 bd 20 a3 1b 3e
       0.11156613 0.09845855 -0.043550845 0.15198946
000320 5d 44 2b be 62 06 ce bd bd 5a fe 3d 7d 54 b5 3d
       -0.16725297 -0.10059811 0.12419651 0.088540055
000330 2b f4 1c 3e ac 0b 76 3d 6f 85 c1 3a e1 06 8c 3d
       0.15327518 0.060069725 0.0014764498 0.068372495
000340 71 63 b0 bd ae 91 03 be 49 54 9e 3d 09 2f 4a be
       -0.08612717 -0.12848541 0.0773092 -0.19744505
000350 e9 e1 4e 3d c6 34 59 be d2 80 74 3b 97 04 1f 3e
       0.050508413 -0.21211538 0.0037308228 0.15529095
000360 17 4e 02 3e 8f 60 67 3d 1a 97 a3 ba 14 12 1f be
       0.12725101 0.05648857 -0.0012480945 -0.1553424
000370 89 5a 3c 3e d2 84 0d 3e 23 f5 f1 bd 4a 66 a9 3e
       0.18393911 0.13820198 -0.11814334 0.33085853
000380 49 57 a5 3e e9 fe 5e 3d 2f 2c 85 bd fd 2e 02 3e
       0.32293156 0.05444232 -0.06502568 0.12713237
000390 86 3b 55 3e df b3 87 bd ed 50 47 3d 04 f4 48 be
       0.20823488 -0.066261046 0.04866116 -0.19624335
0003a0 64 92 22 be fa c0 05 3d e1 f9 0c be 2f c5 db 3d
       -0.15876156 0.03265474 -0.13767196 0.10730969
0003b0 09 05 7a be 90 a8 03 3e de f3 03 be e3 68 93 bc
       -0.24415983 0.1285727 -0.12885997 -0.01799435
0003c0 5c 82 bf bc c1 8e 17 3d 2d f4 87 bc 48 1d 85 be
       -0.02337759 0.037001375 -0.016595924 -0.25998902
0003d0 b5 da 9c 3d cf b6 7a 3d 19 2e e4 3c 8a 65 05 3e
       0.076589026 0.061209496 0.027854012 0.13027015
0003e0 0a 5f e0 bd 51 6a 28 be 1e 0c 7e be 88 65 5d be
       -0.10955627 -0.16446806 -0.2480931 -0.21620762
0003f0 53 b0 99 bd b7 5b 6e bc b0 3b 59 3d 18 c3 9c 3d
       -0.07504334 -0.014548234 0.053035438 0.07654399
