results/PINN/NASA_dqdv results/5-5/Experiment7/model.pth (torch, 61182 bytes, 14 tensors)

encoder.net.0.weight f4 [60, 18]
000000 fb 3a 96 3d 2b ca 86 3e 97 e7 cf 3d 01 3f 09 bd
       0.073354684 0.26326117 0.10151594 -0.03350735
000010 02 d0 46 bd db 0d fd bd dd 7c ce 3b 71 ec 45 be
       -0.048538215 -0.12356158 0.006301506 -0.19328476
000020 f7 64 34 be 83 f1 20 bd 61 22 2c bd 7f 0c 57 3d
       -0.1761664 -0.039292824 -0.042024974 0.05250215
000030 51 a5 58 3d 11 cc 01 be d3 d5 69 3e e2 63 8f bc
       0.052892033 -0.12675501 0.22835474 -0.017503683
000040 a6 d1 8a bd 32 58 57 3e e7 f7 fe bc d8 5a e3 3d
       -0.067782685 0.21029738 -0.031124068 0.111013114
000050 bf f4 ea 3d 6c dd 8c bd 9a dd 32 bd 11 a7 94 be
       0.11472463 -0.0687817 -0.043668367 -0.29033712
000060 9d 9e a8 3d 95 06 14 3e 88 b8 f0 3d c2 d8 d5 bd
       0.08233378 0.14455636 0.117539465 -0.10441734
000070 78 61 13 3c e9 aa c3 bd 5c 24 17 3d 62 a2 69 3e
       0.008995406 -0.09554083 0.03689991 0.2281585
000080 bc b0 ac 3d b9 0b ad 3c bf c6 1f 3e 9c 8a 97 3d
       0.08432147 0.021123754 0.1560316 0.073994845
000090 ae 29 81 3d 29 f4 e9 3d 0d 63 99 3d ee f2 e2 bb
       0.06306778 0.11423523 0.074895956 -0.006925932
0000a0 c3 0b 91 3d ed 96 51 3d 5a 00 48 bc 31 4f 8d be
       0.070823215 0.051169325 -0.012207115 -0.2759948
0000b0 b9 ad 9e 3c b7 8b 59 3e 75 ff 57 bd 98 a1 b7 3d
       0.019369947 0.21244703 -0.052733857 0.089663684
0000c0 32 09 6b 3c 43 e2 94 be 9a e1 db 3c 92 e5 09 be
       0.014345454 -0.29078874 0.026840974 -0.1346648
0000d0 67 97 66 3e ad cd c1 39 01 36 91 3e 65 ac d8 bd
       0.22518693 0.0003696507 0.28361514 -0.10579757
0000e0 9e cb 26 be 07 ad a7 be e8 6f e6 3d 61 b0 2e bc
       -0.16288611 -0.32749197 0.11251813 -0.010662169
0000f0 b2 65 bb bc cf e9 c5 bd 2d fa 52 be cc 64 5b bd
       -0.02287564 -0.09663736 -0.20603247 -0.053562924
000100 b3 8d 8b be d5 74 80 3d d2 d1 62 be 09 ca 84 3d
       -0.27256545 0.06272284 -0.22150353 0.06483848
000110 0d be 99 3d f6 7d 8d be 7b 63 0e 3e 28 7b 90 bd
       0.075069524 -0.27635163 0.13905136 -0.0705474
000120 27 51 ab be 1a eb 48 3e 35 f9 4a 3d 9b c6 bf 3d
       -0.33460352 0.19620934 0.04955407 0.09364053
000130 07 d6 d0 bc 1a 22 53 be fb 58 1c 3c 3a 2f 6c be
       -0.025492681 -0.20618477 0.009542699 -0.2306489
000140 48 7c e9 bb eb ae e0 bc cb 13 6b bd bb d0 ca bd
       -0.007125411 -0.027427157 -0.057391923 -0.099030934
000150 4d 4e 15 be ae 54 d7 3d 67 dc c4 3c ee e9 bc bd
       -0.1458065 0.10514198 0.024030877 -0.09224306
000160 1a 2c 84 be 65 a2 4a bc 41 25 f4 3d 28 9e c8 3d
       -0.25814897 -0.012367819 0.11921168 0.09795791
000170 33 e7 ad 3c 7d aa b2 bd 4d 49 9f 3e 90 16 b6 bd
       0.021228408 -0.08723924 0.31110612 -0.08891022
000180 33 97 df 3b cb 07 c8 bc 52 1e aa 3d 7e 50 19 bc
       0.0068234443 -0.024417778 0.083065644 -0.00935757
000190 5e 05 f8 3d 61 bc cd 3d b7 df 97 bd f5 74 a7 3e
       0.12110399 0.10045696 -0.07415717 0.3270642
0001a0 09 02 62 be 5b 8f 81 bb 82 4c e4 3d e3 cd 1b be
       -0.22071089 -0.003953857 0.11147405 -0.15215258
0001b0 2d a8 d2 bd 45 75 60 be 23 f1 71 be 19 ce 42 be
       -0.10285983 -0.21919735 -0.23627143 -0.19023933
0001c0 6a 76 bf 3d a0 29 70 3d bd ad 50 3e 79 80 21 3d
       0.093487576 0.058633447 0.20378776 0.03942916
0001d0 9a 5e ab 3d 61 b0 0b bd 41 b3 04 3a 09 d4 03 be
       0.08367653 -0.034103755 0.00050621113 -0.12873854
0001e0 d8 11 90 bd e3 41 e3 3d df 56 4d 3e 39 11 68 be
       -0.070346534 0.11096551 0.2005267 -0.2266282
0001f0 ef f9 7c be cd db ce 3d f3 d3 b0 bd d5 1c 90 bc
       -0.24704717 0.101005174 -0.08634176 -0.017591873
000200 10 5d 84 3d c0 90 b6 bd 5f 3c 95 be f3 97 96 bc
       0.06463063 -0.089143276 -0.29147622 -0.018383002
000210 28 03 39 be 03 16 08 3e 9c a4 9b bc d2 fc 6a 3d
       -0.1806761 0.13289647 -0.01899939 0.057370014
000220 3c c8 15 3d fc 2f b5 3d c1 5d 07 be c9 b8 b3 be
       0.03656791 0.08847043 -0.13219358 -0.35101917
000230 db 0c b5 3d 1a 17 0e be 3b 29 6b bd 31 67 02 bc
       0.088403426 -0.13876 -0.057412367 -0.007959173
000240 a2 81 9c bd cd 50 37 be cd 4d 00 3d 3a 1b 48 3d
       -0.07641913 -0.17901917 0.031324197 0.04885409
000250 86 e8 55 bd 66 59 d6 bd 83 52 8e 3b 72 35 a7 3d
       -0.052223705 -0.1046627 0.0043433323 0.08164491
000260 90 fb c2 3c 4b d5 f2 3d 42 bd 55 b9 84 94 83 bd
       0.023801595 0.11857089 -0.00020383767 -0.064248115
000270 57 6c 12 3e 58 f2 83 bd 27 10 a3 bd 30 88 56 3e
       0.14299141 -0.06442708 -0.07962065 0.20950389
000280 94 b3 b8 bb fe 6f 9b bd c2 3f 0d 3d ed d3 40 be
       -0.0056366418 -0.0758972 0.034484632 -0.18830843
000290 97 c9 42 be fe 1f 7c 3e 58 50 bd 3d 7d e8 e1 3c
       -0.19022213 0.24621579 0.0924384 0.02757668
0002a0 e0 5d 21 bd 1a ff f7 bd 05 b3 3f bc 17 69 5b 3d
       -0.039396167 -0.12109204 -0.011700396 0.05356702
0002b0 69 04 32 3d a5 fb 2b 3c f4 58 0a be 39 32 10 3a
       0.043461237 0.010497008 -0.13510495 0.0005500648
0002c0 34 c5 be bd 6d ad 59 bd d5 5b c2 be 0a 62 7b 3e
       -0.09314957 -0.053143907 -0.37960687 0.24549118
0002d0 07 34 83 3b 7a d9 4a 3e 3f 7a b8 be 1f 4b 55 3d
       0.004004005 0.19809523 -0.36030766 0.052073594
0002e0 14 5f a4 3d 2e bf 4a 3e e6 34 8f be a0 07 02 be
       0.08025947 0.19799492 -0.27970046 -0.12698221
0002f0 3b b6 97 3a 79 33 4c 3c 5c 01 98 bd 3b 29 42 3e
       0.0011574695 0.012463444 -0.07422134 0.1896104
000300 d4 ec 45 3d b4 45 17 be 85 05 4c 3d 1b 4a 59 be
       0.04832156 -0.14772683 0.04980995 -0.21219675
000310 2d b4 92 be 99 38 60 be 37 ae ef 3b ca 6b 88 3d
       -0.28653088 -0.2189659 0.007314469 0.06661184
000320 86 ab f6 3d 64 b2 28 be 18 d4 9c bd 5b e1 29 3d
       0.12044434 -0.164743 -0.07657641 0.04147468
000330 4b 50 55 bd 52 84 73 3e b0 cb 91 3c 9d dc 95 3d
       -0.052078526 0.23780945 0.017797321 0.07317469
000340 6a 31 e6 3a 75 dd d8 bd 6f 35 e6 bd 0f 5e 9f 3d
       0.0017562334 -0.105891146 -0.112406604 0.07781612
000350 72 20 13 be 36 d0 0f bc f7 5f 6d bd a4 84 6b be
       -0.14367846 -0.008777669 -0.057952847 -0.22999817
000360 81 90 ac bc 44 f6 30 be 1c d8 c7 bd 1e cc d9 3d
       -0.021064999 -0.17281443 -0.097580165 0.106346354
000370 0e 5c ba 3c 57 1d c2 be bb c9 0b 3e 87 2b fc 3b
       0.022748973 -0.3791301 0.13651173 0.0076956186
000380 97 67 dc bd 89 86 1c be 26 0a 9f bd 1c c4 08 bc
       -0.10761946 -0.15285696 -0.077656075 -0.008347537
000390 9b 5f e9 bb d8 c2 01 3d 36 9e 8f bd d2 d9 54 be
       -0.0071219928 0.031679958 -0.07012598 -0.20786217
0003a0 27 58 5f 3e e3 63 a8 3d 07 e2 b7 bd 62 2d e5 bd
       0.21810971 0.08222177 -0.08978658 -0.11190297
0003b0 2a 48 b3 3c cb 4b 8b be 93 64 96 be cc f0 22 3d
       0.021884996 -0.27206263 -0.29373607 0.039780423
0003c0 1d 2a 9d 3e 8a c6 a4 bd 1b 0c f4 bd 61 99 b3 3c
       0.30696192 -0.08045681 -0.119163714 0.021923723
0003d0 f3 d8 92 bd 98 d8 43 3d ac db e2 3d 4e 67 38 3e
       -0.07170286 0.04781398 0.11077055 0.18008158
0003e0 b8 40 1d be ef a0 f2 bd da 51 14 3a 00 48 ad be
       -0.1535672 -0.11847102 0.0005657949 -0.33843994
0003f0 44 00 f5 bc 6a b4 49 be 11 23 4a 3e 91 ad c9 bc
       -0.029907353 -0.19697729 0.1973994 -0.024618896

encoder.net.0.bias f4 [60]
000000 e9 7a 14 bd 8b 7f 82 3d 32 39 1c bc 39 63 39 bd
       -0.03625003 0.06371983 -0.009535121 -0.04526064
000010 bc ff 21 bd 77 5f a9 3b 02 a2 2c bd fd 46 19 bd
       -0.039550528 0.005168851 -0.04214669 -0.037421215
000020 32 f0 03 bd a4 2a f6 3c 2b 4c f2 bc a0 27 0e 3d
       -0.03221149 0.03004963 -0.029577335 0.034705758
000030 c1 01 2b bd eb e3 02 3d 75 00 26 bd da fb 6a 3c
       -0.04174972 0.03195564 -0.04052778 0.014342273
000040 d9 a8 45 3c 4d 48 fb bc d7 4a 93 3c 03 3b e7 bc
       0.012064182 -0.030674124 0.017980022 -0.028226381
000050 d9 6e d4 bc c8 c1 d1 bc 24 ad 46 bd 46 c0 30 3d
       -0.025931763 -0.025605097 -0.048504964 0.043152116
000060 b3 8e 5d bd 36 b8 4a 3d 0f b9 02 bd 63 95 ba bc
       -0.054091167 0.049492083 -0.031914767 -0.022776311
000070 5d cc 1f 3d 0e a3 91 3b 67 bd fe 3c 9d e8 37 bd
       0.039013255 0.0044444865 0.031096173 -0.04489957
000080 ce e3 2f bd 4e 7c 86 3a 49 1d 33 3d 5a dc 08 bd
       -0.04294186 0.0010260434 0.0437291 -0.03341327
000090 ca 15 41 3d 0a 61 00 bd 5f 29 ad 3c c0 7e 49 3d
       0.04713992 -0.031342544 0.021137891 0.049193144
0000a0 d0 19 f8 3c aa 1d 10 3d 1e 5f a3 bc 4d b5 da bc
       0.030285746 0.03518454 -0.019942816 -0.02669778
0000b0 9e 80 f9 3b 0b df 0d 3d de 3c 2f 3d 4d 0e 20 3d
       0.0076142093 0.03463654 0.042782657 0.03907614
0000c0 e6 10 49 3d c6 8b f7 bc 69 13 a3 3b b2 f3 fe 3c
       0.04908838 -0.030218016 0.004976679 0.031122062
0000d0 bd e6 0a 3d 9f 75 03 bd fe 9f 85 bc 1d f9 a0 bc
       0.033911455 -0.032094594 -0.016311642 -0.019650036
0000e0 f1 fc 2a 3d 4b 4e 05 3c 01 7c b9 bc 15 16 19 bd
       0.04174513 0.008136342 -0.022642137 -0.037374575

encoder.net.2.weight f4 [60, 60]
000000 95 e4 01 3e 3c b5 9c 3c cf 05 01 bd 9f da 39 3e
       0.12684853 0.019129388 -0.03149968 0.18149804
000010 ad 53 10 3e 31 cb 61 3d 8e fd aa 3c eb 29 04 be
       0.1409442 0.05512542 0.020872857 -0.12906615
000020 39 09 4b be d8 01 64 3c 29 93 a2 3d 6d bd df bc
       -0.19827737 0.013916455 0.07938225 -0.027312005
000030 d6 3a 4c be 24 e7 bb bd e4 79 51 bd 85 a1 d7 bd
       -0.19944319 -0.09174946 -0.051141635 -0.10528854
000040 c1 2d a3 b9 d9 81 4a 3e f1 c8 e7 3d 7d 23 fc bc
       -0.00031123872 0.19776095 0.113176234 -0.03077864
000050 05 77 dc bd d2 c6 ac 3d 07 6d 3b 3e 2f 59 1e be
       -0.10764889 0.084363595 0.1830331 -0.15463708
000060 e7 fe 73 bc d4 09 37 be 89 bd 2e 3d 92 31 22 3e
       -0.014892316 -0.17874843 0.042661224 0.15839222
000070 68 11 ac b9 db 94 80 3d 06 b7 bb 3d cb 66 b5 bc
       -0.00032819365 0.06278392 0.09165768 -0.022143742
000080 59 b8 8a 3d 7b ba 53 be a1 1b 61 bc b6 89 11 be
       0.06773443 -0.20676605 -0.013739497 -0.14212689
000090 0e b5 c3 be 87 11 65 be 08 17 58 be ba 4d a8 bc
       -0.3822407 -0.22369967 -0.21102536 -0.020544875
0000a0 3d 88 12 bd 9b 0c af bd 47 57 12 be 3b 39 4e 3e
       -0.03577446 -0.08547326 -0.14291106 0.20139019
0000b0 2c 6d 12 3a 8f 24 28 3e 51 ab 57 3d 48 2b 83 3d
       0.0005585726 0.16420196 0.052653614 0.064047396
0000c0 64 d3 b7 3a 46 09 ff bd 45 28 46 be e2 f2 cd bd
       0.0014024791 -0.12452941 -0.19351299 -0.10056092
0000d0 fe 94 85 bd eb 34 85 bd 7f e9 e4 3d d8 57 f3 3d
       -0.06522559 -0.06504234 0.11177348 0.11881989
0000e0 1f eb f7 3d 67 a0 52 3e 61 9f c7 bc ef e3 51 be
       0.12105393 0.20569001 -0.02436799 -0.20497106
0000f0 19 f3 64 3e c2 f4 d1 bd b5 f9 3c be 74 b0 2e be
       0.2235836 -0.10251762 -0.1845463 -0.17059499
000100 58 b7 b2 bc 4b 5a 9a bd 22 fc d3 bd 81 2e b9 bc
       -0.02181594 -0.07536753 -0.10350825 -0.022605183
000110 73 ce 1a be 38 5a 8b bd 13 b6 f0 3d f9 5f e2 bd
       -0.15117817 -0.06804317 0.11753478 -0.110534616
000120 91 db 05 3e 6f d7 89 3d f4 78 a4 bd ed 0c 4a 3d
       0.13072039 0.06730544 -0.080308825 0.049328733
000130 2a 9c 49 3e a2 ee 8c 3d a4 b4 d7 3d 6f a6 60 bc
       0.19688478 0.06881453 0.10532501 -0.013711556
000140 b0 29 bf 3c fa db cf bc e2 d2 96 3c ad 85 21 3e
       0.023335308 -0.025373448 0.018411104 0.1577365
000150 f1 f1 04 3d 24 e4 3f 3d c2 51 f7 bc af cb 09 3e
       0.032457296 0.04684843 -0.030190352 0.13456605
000160 1f 8b a3 bc b0 70 a1 3c ae 5f 81 be 3e 3a 45 be
       -0.019963799 0.019707054 -0.2526831 -0.19260499
000170 7b 6d 0f 3e 6a cd 87 bd 94 f4 3b bd 64 22 48 be
       0.14006607 -0.066309765 -0.045887545 -0.19544369
000180 80 bb 66 bc 6c 3b e7 bd b9 9e d2 bd f2 e7 20 be
       -0.014082789 -0.11290631 -0.1028418 -0.1571348
000190 83 a3 04 be ed 4f 81 3b 06 3d cc bd 3a 5e 4b bd
       -0.12953 0.0039462955 -0.09972577 -0.04965041
0001a0 21 35 14 bd ee 55 11 bc 2a 95 bd bd f0 ce 0c be
       -0.03618348 -0.008870585 -0.092569664 -0.13750815
0001b0 e9 e5 e4 bd 8a fb 38 bd c9 c9 98 3d bc 86 8f bc
       -0.111766644 -0.04516176 0.074603625 -0.017520301
0001c0 cf cc a8 ba 40 e1 d5 3d 73 2f 1d 3e c5 3c 95 bd
       -0.001287842 0.10443354 0.15350132 -0.072869815
0001d0 e3 9b 0c 3d 7e a0 1d bd 91 b8 85 3d 1e 7b 86 3d
       0.034328353 -0.038483135 0.06529344 0.065664515
0001e0 83 f6 b8 3d 26 24 51 bb fc 02 b1 3d b9 06 27 3e
       0.090313934 -0.0031912415 0.08643147 0.16311158
0001f0 d7 de 18 be e3 98 6d bd f1 77 6f 3e a2 5e 7b 3d
       -0.14928757 -0.058007132 0.23385598 0.061369546
000200 1e f5 ed 3b 75 94 62 3d 69 e9 ad 3d c7 c1 ce 3c
       0.0072618863 0.05531736 0.08491785 0.025238885
000210 25 94 a5 3d b9 8e de bd 1e 82 12 3d fa 6b 2f 3d
       0.08084897 -0.10867066 0.03576862 0.042827584
000220 e4 88 9b bc bd 56 6c 3d c1 b6 f8 3d 1a 3b ea 3c
       -0.018986173 0.057699908 0.121442325 0.028592635
000230 58 27 d3 bd e3 e6 d7 bb 44 0a 86 3d 5a b2 12 3e
       -0.103102386 -0.006588803 0.06544927 0.14325848
000240 1b 88 29 3d 19 2d f1 bd c5 a7 34 be cd 96 20 bd
       0.041389566 -0.1177618 -0.17642124 -0.039206315
000250 65 c2 a7 bd 26 40 fb bd a5 8b b0 3c af 7d 52 be
       -0.08191375 -0.12268095 0.021550963 -0.20555757
000260 03 fe cf bd 12 d8 4d 3d 4c b7 5e 3e 15 29 85 bd
       -0.10155871 0.05025489 0.2174961 -0.065019764
000270 21 b0 fb bd a5 84 0f 3e ab 86 bd bd 75 e5 1d 3e
       -0.12289453 0.14015444 -0.092542015 0.15419562
000280 82 b7 1d 3e 53 a2 0f bc a5 04 6d bd f9 8a 20 bd
       0.15402034 -0.008766728 -0.057865757 -0.039195035
000290 73 84 c1 3d fd be 75 be 41 b0 ea bd 57 9c 98 bd
       0.09449091 -0.23998637 -0.11459399 -0.074516945
0002a0 3f 7b 48 bb ea 7f fe 3c 85 d2 50 be 54 e6 d2 bd
       -0.0030591039 0.031066854 -0.20392807 -0.10297838
0002b0 86 42 17 be ee 7d 7f bd d4 53 ef 3d 59 a3 18 bd
       -0.1477147 -0.062375955 0.11685911 -0.037265155
0002c0 78 8e 12 be 1b 57 30 3d 19 f9 0a 3e 48 eb bb 3d
       -0.1431216 0.04305182 0.13571586 0.09175736
0002d0 da 3e 54 bd c0 cc ce bd 31 76 01 bd 2b c6 99 bc
       -0.051817752 -0.10097647 -0.031606857 -0.018771252
0002e0 d5 ef 21 3d 59 8b 2a 3e d7 19 15 be dc 7f 87 bd
       0.039535362 0.1665472 -0.14560638 -0.06616184
0002f0 dd 7b aa 3c ba f8 14 3e 4c 26 d8 3d 55 6b cc bc
       0.020811016 0.14548007 0.105541795 -0.024953524
000300 ad 24 2b 3e 38 16 41 3e 79 4f 0d bd f2 7a ae bd
       0.1671321 0.18856132 -0.03449962 -0.08519544
000310 7f fc a3 3d be 4c 4e be 50 66 43 be f0 fd 9a 3d
       0.08007144 -0.20146462 -0.19081998 0.07567966
000320 76 d1 89 3d 57 0c 72 3e 38 0a 80 be bd 19 66 be
       0.06729405 0.2363752 -0.25007796 -0.22470756
000330 5c 45 36 3d f9 f6 0f 3e 7e 64 3f be 25 f2 a8 3c
       0.04449974 0.14059056 -0.18690678 0.020623276
000340 56 e1 df 3d 7b f9 33 3e 76 91 19 3e 6d 83 96 3d
       0.10931651 0.17575638 0.14996895 0.07349286
000350 02 ff f7 bd ea 9a 58 be 01 ef 40 3c ea 95 0b be
       -0.12109186 -0.21152845 0.011775733 -0.13631406
000360 8c d7 4e 3d 76 86 2d 3b 0a 90 25 3d 92 05 68 3e
       0.05049853 0.002647785 0.04042057 0.22658375
000370 52 2e 31 3e df ec d5 3d 4b ae 9d bd 89 f5 04 3d
       0.17302826 0.1044557 -0.07699259 0.032460723
000380 3f 8a 1d 3e 1a e1 b0 3d e9 b6 51 3d 36 17 47 bd
       0.15384768 0.08636685 0.051199827 -0.04860612
000390 ac 6a ad 3d 91 80 0d 3e 22 a8 34 3d 6c 63 a7 bd
       0.08467612 0.13818575 0.044105656 -0.0817326
0003a0 89 9a 23 3e 01 ce 6a 3d 5f 34 34 bd 0c db 91 bd
       0.15976919 0.057325367 -0.043995257 -0.07121858
0003b0 94 6e 9b 3e cb 02 6c bd 86 4e 17 be aa f1 39 3e
       0.30357802 -0.05761985 -0.14776048 0.18158594
0003c0 ea c4 d7 bd a1 c5 7c 3e c2 3a 40 3d 0b 46 31 3d
       -0.10535605 0.24684764 0.046931036 0.04327969
0003d0 aa da e5 bd 90 b4 9b 3d 21 d8 0a be 70 65 dc 3e
       -0.112233475 0.07602799 -0.13559009 0.4304614
0003e0 c8 08 17 ba 39 0d 2d be c5 1a 9b bd 2e 54 a0 3c
       -0.00057615014 -0.16899575 -0.07573465 0.01957139
0003f0 60 0f a1 3c 44 dd 33 3d cf b6 c7 bc 55 b7 24 be
       0.019660652 0.043912187 -0.024379162 -0.1608556

encoder.net.2.bias f4 [60]
000000 89 9a fb bc 5a 9f 49 bb e0 9a b9 3c a7 da 34 3d
       -0.030713337 -0.0030765147 0.022656858 0.044153836
000010 3b 36 0f 3d f7 2f c7 3c b2 56 1c bd 97 dd 0f 3d
       0.034963828 0.024314864 -0.038168617 0.035123434
000020 af 0b 0f 3d b0 3d 59 3d d7 d9 13 3d 45 22 36 bd
       0.03492325 0.053037345 0.03609642 -0.044466276
000030 9a 49 62 bd 60 bc 90 bc 9f aa 1a bd 01 52 70 bc
       -0.055245973 -0.01766795 -0.037760373 -0.014667989
000040 b4 4c 2a 3d c7 04 00 bd 28 29 14 bd 24 15 90 bb
       0.041577056 -0.031254556 -0.036172062 -0.0043970514
000050 43 0b c6 bb d5 10 99 3c da 8a cc bc a2 15 fb bc
       -0.006043823 0.018684784 -0.024968553 -0.030649964
000060 95 2d fa bc a5 37 e2 bc 98 d4 00 3d e0 e4 14 3d
       -0.030539313 -0.027614424 0.031452745 0.036351085
000070 5b 46 2d bd 79 21 a5 3c 58 4e 15 bd d7 68 72 3c
       -0.042303424 0.020157563 -0.036451668 0.014795504
000080 ff 0b 09 bd 21 e4 c3 3d b2 e5 8a 3c ee 87 00 bd
       -0.033458706 0.095649965 0.01695523 -0.031379633
000090 e7 63 a6 3c 51 66 17 bd fd f4 81 ba ec 37 18 bd
       0.020311309 -0.03696281 -0.0009914931 -0.037162706
0000a0 2d 54 8f 3c f3 88 e0 bc 47 9a 06 bd 70 aa 09 3d
       0.017496193 -0.027409052 -0.032861974 0.033609807
0000b0 c4 02 fe bc 62 8e d7 3c f5 6c 06 3d 06 d0 25 3d
       -0.031007178 0.02631301 0.032818753 0.04048159
0000c0 85 49 1e 3d 66 8f aa 3c 55 21 cd 3c 5c 15 e7 bc
       0.038644332 0.02082033 0.025040308 -0.028208427
0000d0 7f db 03 bd 76 cc 19 3d 33 a1 2a bd 4c e9 04 3d
       -0.03219175 0.037548505 -0.041657638 0.03244905
0000e0 fc 86 a3 bc 1a 80 4c bc 31 69 b4 bc 51 7c ae bc
       -0.019961827 -0.012481714 -0.022022815 -0.021299513

encoder.net.5.weight f4 [34, 60]
000000 7b 00 5b 3e 35 4e 91 3d 0e 1d 4a be 0b 07 a6 bd
       0.21386902 0.07094995 -0.19737646 -0.08106812
000010 2d 77 47 be ca d7 39 3d 84 fb 98 3d 01 66 3c be
       -0.19479056 0.045371808 0.07469848 -0.18398286
000020 a0 b7 98 bd 11 27 6b 3d 4d 30 a2 3d 15 d5 d6 bd
       -0.07456899 0.057410304 0.07919369 -0.10489861
000030 d8 2d b4 bd 1b 3d 3e be 15 5e 3e be 5d 7f d5 bd
       -0.087978065 -0.18577997 -0.18590577 -0.10424683
000040 a3 a1 c6 bc ae 00 8c 3d 3d fe 69 3e e3 cc 80 bd
       -0.024246996 0.06836067 0.2285089 -0.06289079
000050 28 a4 80 bd 32 87 d1 3d 06 d8 2c 3e c2 4a f3 3d
       -0.0628131 0.102308646 0.16879281 0.11879493
000060 4c f8 df bd d5 83 af 3c 7d 16 44 be 9f 6a ad 3d
       -0.10936031 0.021425167 -0.19149204 0.08467602
000070 30 a2 e2 3d fd da e1 bc 85 6e f9 bc 15 3e bb bd
       0.11066091 -0.027570242 -0.030448208 -0.091427006
000080 2d 26 f5 3d f3 4d 3c be 0d 81 f6 3c dc e4 1b be
       0.11970172 -0.1838911 0.030090833 -0.15224022
000090 26 19 b1 3d 5e 09 80 bd 8a e2 1e bd 82 f3 37 be
       0.08647375 -0.06251787 -0.038790263 -0.17963985
0000a0 5b 94 30 3e cd e1 1f 3e a3 57 70 3e 91 37 9d bd
       0.17244093 0.1561348 0.23470931 -0.07676614
0000b0 12 01 34 3d 88 11 a2 be c7 87 15 3d 5b cc 04 3d
       0.043946333 -0.31654 0.03650644 0.03242145
0000c0 e4 6a 62 be 3c df 75 bd 14 de cb bb a8 c8 9e 3b
       -0.22111088 -0.060027346 -0.006221542 0.0048456974
0000d0 ed 69 4b ba e3 e5 53 3d 8e 76 e9 bb 5a c0 b4 be
       -0.00077596196 0.05173291 -0.0071247285 -0.35303003
0000e0 30 84 41 3e 80 41 83 3e 0f 5a 1e 3e 9a bf 4f 3e
       0.18898082 0.2563591 0.15464042 0.20287934
0000f0 6c 8b 2d be 7b 1c 58 3d b0 4c 52 bd b5 25 06 bd
       -0.16947716 0.052761536 -0.051342666 -0.032750804
000100 bf 26 f6 bd 3e 4a 3f 3e 7c 7c 46 3e e9 16 1e 3e
       -0.12019109 0.18680665 0.19383425 0.15438427
000110 ca d1 9f bd be ee 17 3d 20 23 74 bd b9 52 37 3c
       -0.07803686 0.037092917 -0.05960381 0.011189156
000120 47 13 16 3e 9b 4c 1d bd ab 6e 21 3e a6 70 df bd
       0.14655791 -0.038403135 0.15764873 -0.10910158
000130 20 8f fd bd 5b b2 74 3e db 62 a3 3d 72 5e 0a 3e
       -0.123808146 0.23896162 0.079778396 0.1351259
000140 f6 c6 95 bc c9 7d d3 3c e1 e7 97 be 25 06 c5 bd
       -0.018283349 0.025816815 -0.29669097 -0.096203126
000150 e0 ab 72 bb 81 5c 28 3d 74 a3 3e 3e 2a 02 17 3e
       -0.0037028715 0.041103844 0.1861704 0.1474692
000160 17 5e 16 bd 63 37 9e bc b8 a3 65 3d dc 73 13 3e
       -0.036710825 -0.01931352 0.056064337 0.14399666
000170 ab bd 34 bd f8 8c eb bd 73 cb 16 be 0d b1 4e 3d
       -0.044126194 -0.11501497 -0.14726047 0.050461818
000180 64 ad 8e bc 0b 64 f5 3d 71 69 2d 3d d4 49 7e 3d
       -0.017416663 0.11981972 0.042336885 0.062082127
000190 70 97 71 3c 91 b6 8d 3e 5a 83 14 be 06 64 06 be
       0.014745578 0.2767835 -0.14503232 -0.13124093
0001a0 ec 51 44 3e ff aa 45 bd 7e 7a 86 bb f6 fc 2a be
       0.19171876 -0.048258778 -0.0041039577 -0.1669806
0001b0 73 72 9e 3d 4e 65 57 3e 1f 8a 24 be 70 91 e4 3b
       0.07736673 0.21034738 -0.16068314 0.0069753453
0001c0 30 5f cd bd 34 a3 a5 be 08 17 91 3e 81 a0 67 3e
       -0.10027921 -0.32351077 0.28337884 0.22619821
0001d0 68 ef b5 3c a5 32 2f bd 17 03 ab bd b9 57 cc bd
       0.022208884 -0.042772908 -0.08350199 -0.09977669
0001e0 ef 4e d0 3d 71 f4 41 be e2 f9 0a 3c dc ab 48 3d
       0.101713054 -0.18940903 0.008482428 0.048992023
0001f0 0d ab 73 3e 91 52 c6 be ee f1 f1 bc de a4 ef bd
       0.2379572 -0.38734868 -0.029534306 -0.11701368
000200 c9 04 c4 bb 17 02 57 be f5 29 18 bd 21 16 87 3e
       -0.0059820157 -0.20996891 -0.03714939 0.2638407
000210 ab 49 65 be 14 d3 68 3e dd 6a 74 bd 57 9e 6e 3e
       -0.22391383 0.2273677 -0.059672225 0.2330259
000220 75 31 43 bd 79 05 1f be 70 21 44 be 4b 40 8a bd
       -0.047654588 -0.15529431 -0.1915338 -0.06750544
000230 17 80 17 3e 03 d7 6e 3c 91 58 01 3e 19 2b 04 3e
       0.14794956 0.01457763 0.12631442 0.12907065
000240 0d 05 1e be a3 fe 8e 3e 9b 44 83 3d ec 37 cc bd
       -0.15431614 0.27928647 0.0640957 -0.09971604
000250 4a 4a 83 3d c9 77 7f 3d 21 ef 4d bd d7 bb 0d be
       0.06410654 0.062370095 -0.05027688 -0.13841186
000260 c3 35 56 3d b8 ee 87 3d 03 0e d9 bc 5a ad f8 3d
       0.052297365 0.06637329 -0.02649594 0.12142439
000270 65 b9 fd 3d c2 5f ca 3d 6d 22 bd 3d 5f c3 c0 3d
       0.12388877 0.098815456 0.09235082 0.09412264
000280 10 8a 39 be 9c bb 0d 3e 39 f1 21 bd 28 0d 00 3e
       -0.18119073 0.13841099 -0.03953669 0.12505019
000290 a3 49 dc bd 10 ce a9 3d 26 48 3d be c1 e2 24 be
       -0.107562326 0.082912564 -0.18484554 -0.16102125
0002a0 f7 21 95 3d b1 34 20 be 1d a2 98 3d 45 0f 02 ba
       0.07281869 -0.156451 0.07452796 -0.0004961382
0002b0 42 26 c2 bd f2 67 41 3d f0 32 e0 3c e3 f2 3c be
       -0.09479953 0.04721827 0.027368039 -0.18452029
0002c0 d7 b3 4f bd 2a 20 d5 bd cd cf 97 3b ca d3 fd 3d
       -0.050708618 -0.104065254 0.004632926 0.12393911
0002d0 7b 36 92 3e a1 a8 bd bd f9 58 db 3d ad 44 a9 be
       0.2855719 -0.09260679 0.107103296 -0.33060208
0002e0 be 17 56 bc 5c 63 e9 3c 2c a9 9a 3e 23 c3 88 3b
       -0.013067184 0.028489761 0.30207193 0.0041736527
0002f0 cc 3f b1 3d 21 1f d6 3c 74 ce 14 3e 95 05 a6 3c
       0.086547464 0.02613789 0.1453188 0.020266334
000300 96 0d 38 be d6 79 90 bd 78 8c c0 3d 63 6c c6 bd
       -0.17973933 -0.07054488 0.09401792 -0.09688642
000310 87 99 d7 bd 1a 31 3a bd dc 8a 92 be a7 0f 48 be
       -0.1052733 -0.045456983 -0.28621566 -0.19537221
000320 42 00 a1 3d 89 f6 07 3e 38 5d a3 3d f8 db 16 be
       0.07861377 0.1327764 0.079767644 -0.14732349
000330 26 ca 4a be 6c 6b 55 be 7e 86 85 be c0 1a 91 bc
       -0.19803676 -0.2084176 -0.26079172 -0.01771295
000340 d6 19 06 3e c4 d1 af 3d 30 1b 75 bd 55 7d ba 3d
       0.13095793 0.085849315 -0.05984038 0.091059364
000350 fd 7e 11 bd ff 16 06 be cd c5 80 3e 19 ad 30 3e
       -0.035521496 -0.1309471 0.2515091 0.17253532
000360 81 64 6c 3e 18 1f 78 be 0b fc 96 3d 66 20 eb bd
       0.23085214 -0.24230611 0.07372292 -0.11480789
000370 60 21 6d bb 17 61 6d be 14 f8 11 bc 12 4d c5 bd
       -0.0036183223 -0.23181568 -0.008909244 -0.096338406
000380 3f d7 b9 3d 43 22 28 3e d5 eb 38 bd 34 8e e2 bd
       0.09074258 0.1641932 -0.045146782 -0.11062279
000390 dc 26 be 3d 03 dc c8 3c 10 e1 72 be cd 04 81 3d
       0.092847556 0.024518972 -0.23718667 0.06299744
0003a0 3c 18 80 bd f6 94 2c be 3a 73 6d bd 87 43 9f bd
       -0.06254622 -0.16853699 -0.057971217 -0.07776552
0003b0 2f 76 59 3d 21 82 2b 3e 71 2a fc 3b 6e 18 1e bd
       0.053091224 0.16748859 0.007695489 -0.038597517
0003c0 44 94 22 3e e5 73 c6 bd d9 ba c1 bd ce d8 04 be
       0.15876871 -0.09690074 -0.094594665 -0.1297333
0003d0 31 94 f9 3d 54 96 d1 3d af 46 09 be 40 00 39 bd
       0.121864684 0.10233751 -0.1340587 -0.045166254
0003e0 a7 7b 79 bb b8 83 11 be 4f 19 37 be 66 f8 e1 bd
       -0.0038068087 -0.14210403 -0.17880748 -0.11033706
0003f0 82 af de bd ef da 60 3b 7c 4e 12 3c f6 4b 43 3e
       -0.10873319 0.0034310182 0.008929845 0.19071946

encoder.net.5.bias f4 [34]
000000 fe 17 26 bd 05 36 59 bd ed 10 de bc ff 82 13 3d
       -0.040550224 -0.053030033 -0.02710768 0.0360136
000010 fa 94 4a bd ad 06 2a 3c dc d2 37 3d bc e1 fd 3c
       -0.04945848 0.010377568 0.044878826 0.030991428
000020 7a cd 40 3d e3 93 a9 bd 63 e7 47 bd 12 55 9d 3d
       0.047070958 -0.0828016 -0.048804652 0.076822415
000030 92 ef 83 3d 84 5e c9 3c 22 f1 78 bc e0 b1 51 3d
       0.06442179 0.024581201 -0.015194209 0.051195025
000040 97 8a 6d 3d 0d bf 87 3d 47 82 ad bc 08 4e 35 bd
       0.057993498 0.06628237 -0.021180285 -0.04426387
000050 a7 fd 01 3d f0 f0 15 3d 51 e2 3f bd 68 c6 10 3d
       0.031736042 0.03660673 -0.04684669 0.035345465
000060 f4 0e 06 3d 2d 10 56 bd d0 92 6f bd cc 4f 21 bd
       0.032729104 -0.05226152 -0.05848962 -0.03938274
000070 79 ad 28 3d d4 85 04 3d d7 8b fe bc f1 f4 e4 bc
       0.04118106 0.03235419 -0.03107254 -0.027948828
000080 ba 50 0f bd 50 39 5c 3d
       -0.034989096 0.053765595

predictor.net.1.weight f4 [32, 34]
000000 a0 d9 e4 be 1a a4 95 be 89 6d 31 3e 13 39 0b be
       -0.44697285 -0.29226762 0.1732694 -0.13595991
000010 ad cd 88 3e 08 a1 62 3e e1 d8 94 bd 26 6a 1a 3e
       0.26719418 0.22131741 -0.07267929 0.15079555
000020 08 29 46 3e 61 07 88 bd a4 13 8a 3a c2 20 93 be
       0.1935159 -0.066420324 0.0010534418 -0.2873593
000030 a5 b9 31 bd de 6f e8 3d 34 98 8f bd f4 82 80 3d
       -0.043389935 0.11349462 -0.07011452 0.06274977
000040 57 63 d3 be 9c 19 80 3d 0c 8c 35 3e 31 43 aa bd
       -0.41286728 0.062548846 0.17729205 -0.08313597
000050 d2 7a 05 3e c2 e4 c0 bc d9 20 c7 3d 74 3e 07 3c
       0.13035133 -0.02354658 0.09723062 0.008254636
000060 be 74 21 be af 81 1f 3d 22 31 b0 3e c6 3e 06 3e
       -0.1576719 0.038942035 0.34412485 0.13109884
000070 d0 2d 59 bc 3e 37 3a bd fc 39 68 3e 51 c4 c8 bd
       -0.013255551 -0.04546284 0.2267837 -0.098030694
000080 76 0a cc bd 02 1f 61 bd 26 3f ce b9 96 80 66 be
       -0.09962933 -0.054961212 -0.0003933843 -0.22509989
000090 8b c1 4a be 8c f4 2b 3e 35 85 5a 3e 1e 44 06 ba
       -0.19800393 0.16792506 0.21339877 -0.00051218446
0000a0 29 c4 5a bb 98 43 52 3d 07 6b 79 be fa ce d5 3d
       -0.003338108 0.051333994 -0.24357234 0.10439868
0000b0 60 a1 6f bd c6 ea 3a 3e 22 73 73 be 9a 6c 0b 3e
       -0.05850351 0.18253621 -0.23774388 0.13615647
0000c0 34 91 c4 bd 26 a5 f3 bd da 32 d5 3d 27 c9 05 be
       -0.09598008 -0.11896734 0.1041009 -0.13065015
0000d0 2d 9a 68 bd 96 ab 30 bd 5a b7 11 be 7a b9 7d be
       -0.05678766 -0.043132387 -0.142301 -0.24777785
0000e0 17 fb 80 3e d3 f3 0c be b3 f5 37 3d 3b 48 9e 3e
       0.25191566 -0.13764887 0.04491205 0.30914482
0000f0 68 34 bf bc 44 0b db 3c 89 db e3 bc 85 d6 a9 be
       -0.023340419 0.02673877 -0.027814643 -0.33171478
000100 c7 e8 9c 3e 30 e5 2f bd 9c b3 44 3c d4 bd 59 bd
       0.30646345 -0.04294318 0.012005713 -0.05315955
000110 39 19 26 3c 61 66 a2 3e 90 68 aa 3d c2 8d 5b bc
       0.0101378495 0.31718734 0.08320725 -0.013400497
000120 2c 0a 64 3e 90 89 bf bd ea 34 b1 3d 95 5e 51 be
       0.22269505 -0.0935241 0.08652671 -0.20446236
000130 38 56 19 3e f1 5d cd bc 9e a1 79 bd 0a 6c aa 3d
       0.14974296 -0.025069209 -0.060945146 0.08321388
000140 39 a7 24 be 8b 9e 68 3e 82 95 17 be f2 88 82 be
       -0.16079415 0.2271673 -0.14803126 -0.25495106
000150 6f 5e 59 bc 11 c0 97 bd 61 f1 8e 3d 92 3e 5b be
       -0.013267144 -0.07409681 0.06979633 -0.21410587
000160 e9 6f 07 bf fc 61 4b 3e 4a 58 67 3d 72 ec 8d 3d
       -0.52905136 0.19861597 0.056480683 0.06929864
000170 7d 99 29 be 02 28 98 bc d0 22 0c 3e dd 44 13 bc
       -0.16562457 -0.018573765 0.13685155 -0.008988586
000180 bf 93 03 3d 03 71 0d 3e 42 fd 50 3d 2b ae 51 3e
       0.032123324 0.13812642 0.051022775 0.20476596
000190 4a 6e 0e 3e 4a e9 8d 3b 9c 9d 35 be 24 56 11 3e
       0.1390926 0.0043307887 -0.17735904 0.14193016
0001a0 49 9f 2c be db 1a 03 3e 0c 9d d5 bd ff 7e 30 bd
       -0.16857637 0.12803213 -0.10430345 -0.043089863
0001b0 79 3f 01 3e c8 a6 ca 3e c3 58 ca bd 87 4f 2c be
       0.12621869 0.3958037 -0.09880211 -0.16827212
0001c0 3b 0c 64 be 6f af 74 3d ba a1 ae 3d f6 fe 49 be
       -0.2227029 0.05973762 0.08526941 -0.19726166
0001d0 19 6a 63 bd 3b 1c de 3d 82 2c 30 3d 7c aa 84 3e
       -0.055521104 0.10845228 0.043011196 0.2591132
0001e0 5c c9 51 be cc 75 21 3e 47 08 10 3d d1 7e 06 3e
       -0.20486969 0.15767592 0.035164144 0.13134314
0001f0 5d 2f d0 bd cf 9e 81 be ec 95 b1 3c 40 91 86 bd
       -0.10165284 -0.25316474 0.021677934 -0.06570673
000200 5c af 30 3e f5 b7 f6 bb 23 75 ba bd 2c ff 49 be
       0.17254394 -0.0075292536 -0.09104373 -0.19726247
000210 55 f7 1a bd e7 82 34 3d 10 5f 2e 3e ca d1 eb 3d
       -0.03783353 0.04407015 0.17028451 0.115146235
000220 f6 52 9a be f2 63 08 3e 35 80 a2 3c 75 45 00 bd
       -0.3014142 0.13319376 0.019836525 -0.03131624
000230 67 43 c2 3d 53 d6 82 be 7a 93 02 3c 3a b4 38 3d
       0.09485512 -0.2555414 0.007969731 0.045093752
000240 d5 1d 10 be e5 f6 e1 bb 1d 5f 4f bd cf 39 a9 bc
       -0.1407388 -0.006895887 -0.050627816 -0.020657448
000250 1a cd c2 3d ce a2 4a be 3f bd 08 3c a8 c1 26 be
       0.09511776 -0.19788668 0.008345901 -0.16284811
000260 d3 18 92 3d d5 d9 a5 bd 54 a4 34 3c 45 54 a4 be
       0.07133641 -0.08098189 0.011025507 -0.32095543
000270 eb 4f dc bd d2 6c 3b 3e 23 99 3a bd 95 5b 5d 3e
       -0.10757431 0.1830323 -0.0455562 0.21616967
000280 50 06 b2 3d 56 c9 b9 3d aa b9 20 3e e6 b6 59 3e
       0.0869261 0.09071605 0.15695825 0.21261176
000290 12 a3 06 be 68 fe a3 be 53 76 08 be f9 47 db bd
       -0.13148144 -0.32030034 -0.13326387 -0.10707087
0002a0 f5 84 86 be 46 f5 53 bd 2f 35 19 bd 5d 89 54 3d
       -0.26273313 -0.051747583 -0.037404235 0.051888812
0002b0 71 6a cd 3c c8 22 38 3e d8 58 55 3d 7e e0 23 be
       0.02507517 0.17982018 0.05208668 -0.16003606
0002c0 93 7b 17 be e3 8f bf 3e 73 e0 2f bd 19 c6 e5 3d
       -0.14793234 0.37414464 -0.04293866 0.11219425
0002d0 91 ef da bc 1d be 1d 3e 9c a0 ae 3d 32 36 18 bc
       -0.026725562 0.15404554 0.085267276 -0.009290265
0002e0 59 8a d5 be db c2 18 be 98 48 8b 3d 76 f7 4a 3d
       -0.41707113 -0.14918081 0.068009555 0.049552403
0002f0 78 63 32 bd b7 70 f9 bd fa 48 4e 3e 57 7c 1b bd
       -0.043551892 -0.12179702 0.20145026 -0.037960377
000300 65 97 98 3c 6e e9 46 be 20 bb 74 bd 09 d9 dd bd
       0.018626878 -0.19424984 -0.05974877 -0.10832412
000310 bf e7 c4 3c c5 1d fe bd 74 c8 67 bd 91 b6 ba 3d
       0.024036286 -0.12408022 -0.05658765 0.09116853
000320 11 bf ec 3d 8b ec 7a bd 34 42 e1 bd d1 69 21 3e
       0.115598805 -0.06126074 -0.10998955 0.15763022
000330 17 5d e8 3c a2 b0 85 3c 9f 63 37 3e d0 cb 7e bd
       0.028364701 0.016319577 0.17909096 -0.06220609
000340 98 eb 3b be 9f 9c 9a be 68 aa 7a be 05 c7 16 be
       -0.1835159 -0.30197617 -0.24479067 -0.14724357
000350 b7 8d 89 3e 91 4b 1b be 82 dc a8 bd 14 7e a3 bd
       0.26865932 -0.15165545 -0.082451835 -0.07983032
000360 ad ee f8 3d 95 89 02 3d e9 e2 58 be d6 2a 0a be
       0.12154899 0.03186949 -0.2118031 -0.13492903
000370 19 e6 e6 bd 1e 6e 81 3e a7 7a 6f 3e ce 6e 62 3e
       -0.112743564 0.25279325 0.23386632 0.22112581
000380 63 2b ad bd 7c 7e 23 3e 66 3c 09 3e a8 61 8c bd
       -0.08455541 0.15966219 0.13401946 -0.06854564
000390 5c 12 8c 3d 29 fb 13 be 8d b3 0c bd e2 dc d7 bd
       0.06839439 -0.14451279 -0.03435092 -0.10540177
0003a0 c5 6d 0f be dc 22 bc 3d d2 6e 97 3e 0f c3 1d bd
       -0.14006718 0.091863364 0.29576737 -0.0385161
0003b0 58 41 0e be 2d 28 09 bd e8 76 05 3e f5 48 88 3e
       -0.13892114 -0.03348558 0.1303364 0.26618162
0003c0 4e 2e 97 3d 69 b6 40 be 83 2b 17 3e 13 a9 3d be
       0.07381879 -0.18819584 0.14762692 -0.18521528
0003d0 a6 be 0e 3e b0 08 04 be 0f e4 0e be 57 23 04 be
       0.13939914 -0.12893939 -0.13954185 -0.12904106
0003e0 30 3a 6f 3d 2b fc 4f bc ad c8 30 3e 7a 82 d4 3d
       0.0584051 -0.012694399 0.17264052 0.10376449
0003f0 d4 56 83 be 1c 2d 14 3e 9d f6 36 be e7 bc 16 3e
       -0.25652182 0.14470333 -0.17867513 0.14720498

predictor.net.1.bias f4 [32]
000000 f0 4c 9c 3d 4c 50 a4 3d c0 89 c2 3d 36 a3 c0 bd
       0.07631862 0.08023128 0.0949893 -0.0940613
000010 12 6a 05 be ec 35 0d bd fb 35 44 3d 78 c0 bf bd
       -0.13028744 -0.034475252 0.047903042 -0.093628824
000020 34 f1 a0 bd 1d 3c ca bd 8c f1 bc 3d 14 19 af bd
       -0.07858506 -0.09874747 0.09225759 -0.08549705
000030 37 4e 3f bd 9f 02 b7 bd f2 1c a4 bd de 46 dd 3d
       -0.04670545 -0.08936047 -0.080133334 0.108045325
000040 4e ca 88 3d f5 62 be bd db ac e8 3d 8b 16 ba 3d
       0.066792116 -0.09296218 0.113610946 0.09086331
000050 37 92 e5 bd 10 e3 b1 bd f6 6d ab bd 07 b6 b4 bd
       -0.11209529 -0.08685887 -0.08370583 -0.088237815
000060 3a 41 e5 bd 5c 72 c3 bd 64 0a b9 bd 76 b7 d2 3d
       -0.111940816 -0.09543297 -0.09035185 0.10288899
000070 fd 67 ac bd b2 ee b4 3d f3 94 b6 3d ee 5b ed 3d
       -0.08418272 0.0883459 0.089151286 0.115898

predictor.net.3.weight f4 [1, 32]
000000 a7 bc a2 3d af cf 40 3d e2 9f 7f 3e 7e de 80 be
       0.07946139 0.047073063 0.24963334 -0.25169748
000010 09 e3 47 bd 22 f3 ad bb 03 2a b9 bb ae 61 a2 be
       -0.048800502 -0.0053085247 -0.00565076 -0.3171515
000020 d6 ab 2f be ad d2 05 bd d5 53 5a 3e db 20 45 be
       -0.17155394 -0.03267162 0.21321042 -0.19250815
000030 2a 2f 67 bc 76 f8 40 be 89 b5 bd bd eb 2c 20 3e
       -0.014110366 -0.1884478 -0.09263141 0.15642135
000040 da 77 b1 3c 1a 12 a8 be f3 85 8f 3d 61 a1 50 3d
       0.021663595 -0.3282631 0.07007971 0.050935153
000050 d0 cb c8 bd 84 2d b5 be 14 c1 c2 be f9 fc 97 be
       -0.09804499 -0.35386288 -0.38037932 -0.2968519
000060 cf 98 a0 be 69 a6 61 be 8a 8b c7 be 14 e4 61 3e
       -0.31366584 -0.22036137 -0.38973647 0.22059661
000070 4a 21 fa be 8a 03 75 3e ea 04 5e 3e f6 40 c6 3d
       -0.48853523 0.23927131 0.21681562 0.09680359

net.0.weight f4 [60, 37]
000000 0d 66 ff bd dc b4 39 3d c2 f5 99 3d a4 4f 0c 3e
       -0.124706365 0.045338497 0.07517578 0.13702255
000010 73 5c c2 bc 84 75 05 3e d4 e9 31 be 8b e0 99 3e
       -0.023725724 0.1303311 -0.17374355 0.30054125
000020 96 39 d7 be ec 62 3f bc 00 80 c5 3c 13 ef 13 be
       -0.42036122 -0.0116813 0.024108887 -0.14446668
000030 b2 af 67 ba b6 1e 16 3d 6f 0c 06 3d d8 26 58 be
       -0.00088381313 0.036650382 0.0327267 -0.21108568
000040 0e af 50 be 5a b8 66 be 57 e0 c6 bb 6a e0 14 3e
       -0.20379278 -0.22531262 -0.006069224 0.14538732
000050 b0 c9 af bc ce af a4 3d 1d 42 fd 3d 59 15 16 3e
       -0.021458477 0.080413446 0.12366126 0.14656581
000060 bd ba 0a 3e a6 65 c4 3e 7d 52 96 3c 0d 15 20 be
       0.13547798 0.38358802 0.01834988 -0.1563303
000070 84 c7 1a be e7 47 29 be bf 4b 89 3d 3a 9b 23 3d
       -0.15115172 -0.16531335 0.067039005 0.039942957
000080 40 93 a6 bd 1d 5d 19 be 24 91 9f 3e 41 5c 12 3e
       -0.081335545 -0.14976926 0.3116542 0.14293005
000090 9d 82 04 be 19 c4 03 3e 9e de 3e 3e 6c 5a d7 3d
       -0.1294045 0.12867774 0.18639609 0.105152935
0000a0 d2 f5 58 bd 96 f3 48 bd af 3e 84 bc 23 ff dd 3d
       -0.052968808 -0.049060427 -0.016143171 0.10839679
0000b0 9b 39 e3 bd 51 38 0f be d2 3c 18 bd 36 4c 35 be
       -0.11094972 -0.13986327 -0.037167378 -0.17704853
0000c0 f1 18 28 be 0f 40 82 3e 55 8a b7 bd e4 7f 2d be
       -0.16415764 0.25439498 -0.089619316 -0.16943318
0000d0 fb d2 03 3c 2b 45 a0 3d 2e 8f 42 39 03 1d 52 be
       0.008045907 0.07825693 0.0001855462 -0.2051888
0000e0 96 70 30 bd f4 88 41 bd c8 b7 df bd 67 ff 03 be
       -0.04307612 -0.04724975 -0.10923725 -0.12890397
0000f0 01 11 52 3d ee d2 c4 bc 40 f1 c6 3d e0 04 8c 3d
       0.051285747 -0.02402636 0.097139835 0.06836867
000100 47 12 51 ba 17 ce f9 3d 8b d8 d2 bc f6 8e 7f 3d
       -0.0007975441 0.12197512 -0.025738021 0.062392198
000110 6a 3a c0 3d 9a 04 fd 3c ec eb 8f bd c2 3b 29 be
       0.093861416 0.030885983 -0.070274204 -0.16526702
000120 0b a4 f1 bd 73 ea fe bd 87 35 9b 3d ac ae 43 3d
       -0.11798867 -0.124470614 0.07578569 0.047774002
000130 55 22 e9 3c 5a 07 88 3e ab 23 d5 bc 76 9f 26 3e
       0.028458754 0.2656811 -0.026017984 0.16271767
000140 ab b1 c3 bd ad 75 4d bd 98 f2 bf bd 34 2c a1 bc
       -0.09555372 -0.050161052 -0.09372443 -0.019674398
000150 4c 0b 8e be 28 84 9f bd f7 72 1a 3e 5c 5a 29 3d
       -0.27742994 -0.07788879 0.15082918 0.04134594
000160 90 fb b7 3c 86 5b 9b bd 8b 7e f4 3d 4c d9 ed 3b
       0.022458822 -0.07585816 0.11938199 0.00725857
000170 cb b4 3d 3e f1 c3 03 be ef 04 35 bd 3c 45 0c be
       0.18525998 -0.12867714 -0.04419416 -0.13698286
000180 e4 a5 5a be 7d 7e 83 3c 97 bb 32 3e 6c ab 20 be
       -0.21352345 0.016051525 0.17454372 -0.15690392
000190 df 2c 12 bc d2 9d 04 3e 27 4a 96 bd 67 b6 d0 bc
       -0.008921831 0.12950829 -0.07338362 -0.025477601
0001a0 0b 8f 2e bd c1 8e e9 bd 92 bc 60 bd a4 3c 2e 3e
       -0.042616885 -0.11404181 -0.054867335 0.1701532
0001b0 28 09 73 3d 05 fb 77 3d ca 61 3d be 9e 06 35 3d
       0.059334904 0.060542125 -0.18494335 0.044195764
0001c0 b3 45 ac bd ef 63 9e 3c 46 8b 1a bd 45 72 62 3e
       -0.084117316 0.019334761 -0.037730478 0.22113903
0001d0 3a 3f 8a be 6b a6 09 be fe 73 c3 3d 4a 60 7b 3e
       -0.27001363 -0.1344239 0.09543608 0.2454845
0001e0 d1 94 45 3d 48 90 81 3d c5 b9 90 3d 14 6c 57 bc
       0.048237626 0.063263476 0.07066683 -0.013148326
0001f0 21 bb 79 be a1 8a 2e bd 2b 99 6e be b3 37 39 bc
       -0.2438779 -0.042612676 -0.23300616 -0.011304784
000200 92 47 94 3d 0a 85 76 be ac 64 8a 3e e8 ec 51 be
       0.072402135 -0.24074188 0.27029932 -0.20500529
000210 65 0f 89 3d 88 e5 af bc 0f 64 11 bd ab 68 4c 3d
       0.066923894 -0.021471754 -0.035495814 0.049904507
000220 27 2f 3b 3e 6b 8f d6 3d 3c fc 43 bd 9c 2a 82 be
       0.18279706 0.104765736 -0.04784797 -0.25423133
000230 0f ec 66 3e 37 c1 d2 bd ed 8b 2f 3d d0 9f 45 bc
       0.22550987 -0.10290759 0.042858053 -0.012062028
000240 b2 56 88 bd 98 27 54 be 0b ca e2 bd e9 4e 5d 3d
       -0.06657161 -0.20718229 -0.11073693 0.054030333
000250 27 95 4a be 72 ba 6f 3e 40 2b c2 3d 60 d3 6e bd
       -0.1978346 0.23410967 0.094809055 -0.05830705
000260 be 3a 8e bd ee 0e 97 bd e7 1c 64 3d 28 12 9a 3d
       -0.06944798 -0.073758945 0.055691626 0.07522994
000270 f0 19 d9 bd e8 52 e0 3d 2e 6b 9f bb 0c 49 d0 3e
       -0.1060065 0.10953313 -0.0048650717 0.4068073
000280 d7 44 a8 bc c9 b3 7d bc 72 3e 6b be 47 0e a5 bd
       -0.020540638 -0.015484759 -0.2297304 -0.08059364
000290 58 b9 2f 3e b1 60 c5 bd 29 ff fd 3c 40 c5 8c bc
       0.17160547 -0.09637583 0.031005459 -0.0171839
0002a0 28 27 5f 3e 51 97 55 bd 99 91 50 be f5 bb 99 bd
       0.2179228 -0.05214626 -0.20368041 -0.07506553
0002b0 65 54 40 bb a8 af de 3d 9a 0d 2b bd c3 ab ba be
       -0.0029347178 0.108733475 -0.04176102 -0.3645917
0002c0 c6 f6 2a be 0a af b3 bd d9 fb 5a 3e 98 48 a2 3d
       -0.16695699 -0.087736204 0.21385135 0.079240024
0002d0 58 06 76 bd 8f de 5c be df a7 aa bc c9 cd b1 bd
       -0.060064644 -0.21569274 -0.020832 -0.086818285
0002e0 50 af 65 3d 2f eb b3 3d 48 ca 17 3e be 79 4b be
       0.056075394 0.08785092 0.14823258 -0.1987066
0002f0 e6 2a b8 3c 3b 62 cd bd 66 d7 81 3b 14 a4 6a 3d
       0.022481393 -0.100285016 0.003962445 0.057285383
000300 df 49 76 3d 8b 78 9d 3d 41 c4 8a bd 0f 20 67 3e
       0.060129043 0.07689007 -0.06775714 0.22570823
000310 22 cc d1 3d 67 55 56 bd 52 76 15 3e 75 dc 9d be
       0.10244013 -0.05232754 0.14595917 -0.30832258
000320 ce e6 9f 3e 3f 34 d9 3c 69 11 3e bd ba df 87 3d
       0.31230778 0.02651417 -0.046403322 0.06634469
000330 7c fb 69 be 6d ce 3e 3c 30 1e eb 3d 73 fb b3 3c
       -0.2284984 0.011645895 0.11480367 0.021970486
000340 3d 2c 77 3e 76 38 17 3e d3 c8 55 be 4a 46 f4 bd
       0.2413797 0.14767632 -0.2087739 -0.11927469
000350 cd c3 a9 3e de eb 39 be 66 40 ed 3d 1e cd fd 3d
       0.33157197 -0.18156382 0.11584549 0.123926386
000360 9b a8 75 be a3 b4 3e bd 9d 33 39 3e a3 ed ad 3d
       -0.23990099 -0.046558987 0.18086095 0.08492591
000370 3c 16 94 3e 06 51 0d 3e 64 52 aa 3d f3 ed 99 3b
       0.28923213 0.13800439 0.08316496 0.004697555
000380 d8 44 36 bd 58 3a 61 be 9a 46 8b bc fd 0e 53 3e
       -0.04449925 -0.21994913 -0.017001439 0.20611186
000390 a9 08 e3 bd 3f c4 b7 3e b3 77 03 3d b2 c3 14 3e
       -0.11085636 0.3589191 0.032096576 0.14527777
0003a0 dc 3f 9c 3b 86 10 44 3b 61 00 51 3e da ac 17 3e
       0.004768355 0.0029917075 0.20410301 0.14812031
0003b0 eb 1a 28 3e b5 25 71 3d b1 2b 9d bd 1d d9 4e 39
       0.16416518 0.05887385 -0.07674349 0.00019726572
0003c0 24 33 8d bc 53 c3 28 be c9 da c7 bd 1d d5 d1 be
       -0.0172363 -0.1648076 -0.09758527 -0.40982905
0003d0 b6 d4 cf bd e2 6d 6d be a4 3b 50 3e cc 1b 98 3d
       -0.10147993 -0.23186448 0.20335251 0.07427177
0003e0 3b 54 c2 3d 0f 5e 2a be 18 b6 0f be ad a8 a8 bd
       0.09488722 -0.16637443 -0.14034307 -0.08235297
0003f0 88 c8 63 bd ce 93 da bd e6 53 a9 3d 83 30 31 be
       -0.055611163 -0.10672723 0.082679555 -0.17303662

net.0.bias f4 [60]
000000 7f 77 9c 3d d8 d8 4a bc ae a8 af 3d 0e be 1c 3d
       0.076399796 -0.012380801 0.08577095 0.038267188
000010 26 c2 09 3c 9a 36 7f 3d 04 28 45 3b ce 7e a1 bd
       0.008408105 0.06230793 0.0030083666 -0.07885514
000020 89 e3 af 3d 80 9b e1 3d 5c 69 7a 3c 52 dd 1c 3e
       0.08588321 0.110159874 0.015283909 0.15318802
000030 7b f9 d0 bd 2b af e7 bc da 0a bf 3d 32 5d e8 bd
       -0.102038346 -0.028281769 0.09328242 -0.113459006
000040 79 f0 ee 3c 30 df 26 3e 5f 39 ec bd dd 5d 10 be
       0.0291674 0.16296077 -0.1153438 -0.14098306
000050 00 bc 8e bd ae 9e 81 3d 01 ad ee bd e4 8f cd 3d
       -0.06969452 0.06329094 -0.116540916 0.100372106
000060 3c 53 db ba 7e c5 9c bc bb 82 41 bc 75 7c 9b bd
       -0.001673318 -0.01913714 -0.011810954 -0.07592098
000070 4f ed 64 3d ff 7e 94 3d c8 87 01 bd a2 c7 c0 3d
       0.055890378 0.07250785 -0.03162363 0.09413077
000080 bb ef 1e be be b6 09 3e 07 24 2c be 00 f8 ed 3d
       -0.15521137 0.13448617 -0.16810618 0.11619568
000090 df 25 fe 3b 67 3a 44 3d 33 bb b4 bd ca cc 9a bd
       0.0077559794 0.04790726 -0.08824768 -0.07558592
0000a0 c5 3c 44 3e 65 6f 98 bd c3 20 b6 3d b1 a6 4d bc
       0.19163807 -0.07443122 0.088929676 -0.012551949
0000b0 a1 08 2a bc 30 03 d1 3d ae 98 ff 3d 88 c6 cf bd
       -0.010378034 0.10205686 0.12480293 -0.10145289
0000c0 6a 7f c4 3d af b5 00 3d 5b 72 76 3d 13 58 3d 3d
       0.09594615 0.031423267 0.06016765 0.046226572
0000d0 6c 9e a6 3d 97 b9 bd bd 35 b2 72 bd fc e1 9c bd
       0.08135685 -0.09263914 -0.059251983 -0.076602906
0000e0 9f 28 2e 3e d1 60 1e be 4a d4 8f bd 4d 4e af bd
       0.17007683 -0.1546662 -0.07022913 -0.085598566

net.2.weight f4 [60, 60]
000000 47 58 32 bc 16 b9 fa 3d fc 29 91 bd 27 aa f4 3d
       -0.010885305 0.122423336 -0.07088086 0.119465165
000010 0d fc 1c be 0f 21 bb 3d 12 6d f3 3d b2 6e 18 3e
       -0.15330525 0.09137165 0.11886038 0.14885977
000020 16 60 99 be 6d e2 6e 3c e6 ae de bc 48 07 3a 3d
       -0.2995612 0.014580351 -0.027183007 0.0454171
000030 99 1b 58 3d ed ff 01 bd 60 4c 38 be e0 ee 24 3d
       0.052760694 -0.03173821 -0.17997885 0.04026687
000040 b2 88 06 3b df 05 19 3d 57 be ec 3c 9c 10 19 3c
       0.0020528254 0.037359115 0.028899355 0.009342339
000050 fb 4d 00 3c 1c f0 ef 3d 5d 0e c0 3d 15 93 18 3c
       0.007831092 0.11715719 0.093777396 0.009312411
000060 e1 18 27 3e 19 69 03 bc 74 ad c0 3d 90 28 e3 bc
       0.16318084 -0.008020663 0.094080836 -0.027729303
000070 4a a7 aa 3d d4 47 df 3d ec af 64 3d 1d 0f 51 be
       0.08332689 0.10902372 0.055831835 -0.20415922
000080 16 4f a6 3c 28 f7 b7 bd e6 34 2a be 57 d5 81 be
       0.020301383 -0.08982688 -0.16621742 -0.25358078
000090 f4 2e a1 bd a3 d3 da bd cc c4 69 bd 57 26 34 3c
       -0.07870284 -0.10684898 -0.057072446 0.010995469
0000a0 3b 2b e1 bd 4a 18 17 be f7 a0 f3 3b 39 37 5f be
       -0.10994574 -0.1475536 0.00743496 -0.2179841
0000b0 f9 99 09 3e 79 bc 41 3e f5 a2 c1 3d 15 52 ac bd
       0.13437642 0.18919553 0.0945491 -0.084140934
0000c0 c8 b5 44 3e 2f 27 b0 bd e5 17 8b 3d 2e 0c 8a 3b
       0.19209969 -0.08601224 0.06791667 0.0042128777
0000d0 da e1 36 3d 72 ae 3b 3c 4e 33 62 bd eb 6f 8e 3d
       0.044648983 0.011455165 -0.05522471 0.069549404
0000e0 92 6c 04 3e ca 31 2a be f0 a4 33 be 74 a6 2d 3d
       0.12932041 -0.16620556 -0.17543387 0.04239507
0000f0 6f 7b 82 bd 82 8e 24 3c e7 60 49 3b 55 b7 c7 bd
       -0.06371199 0.010043742 0.0030727924 -0.09751765
000100 37 fe 1c 3b 97 ef ac 3d e9 2b e3 3d 83 e2 83 3d
       0.0023955235 0.08444136 0.110923596 0.06439688
000110 2a f2 43 bd 10 3d 11 bd 13 5f f7 bd d8 f5 58 be
       -0.047838368 -0.035458624 -0.12078681 -0.21187532
000120 22 4b 36 bd 53 f4 9b 3d 2a 3e f1 3c 58 f2 b8 3d
       -0.044505246 0.076149605 0.029448587 0.090305984
000130 96 36 5a 3e 05 92 1f 3e 4f b8 2b bb c7 f0 29 3e
       0.21309885 0.15583046 -0.0026202386 0.16595756
000140 ea d4 1a 3e 33 29 85 bd 42 84 2c bd 6b db 23 be
       0.15120283 -0.06501999 -0.04211832 -0.1600167
000150 48 93 12 bd 63 3e b2 bc d6 77 22 be d7 8e e6 bd
       -0.03578499 -0.021758264 -0.15866026 -0.11257713
000160 a8 b4 86 3e 72 25 a0 be 20 a5 9a bd 7d 26 80 bd
       0.26309705 -0.31278569 -0.07551026 -0.06257341
000170 e1 61 80 3e 8c 4d 13 be 01 c7 b6 3d 8d 43 96 bd
       0.25074676 -0.1438505 0.08924676 -0.07337103
000180 9c f0 3f bd 46 5f 9e 3e 61 84 5c bd a8 24 0a 3e
       -0.046860322 0.30932063 -0.053837184 0.13490546
000190 d2 c3 59 be 24 37 91 3d 8c 02 28 3e 4e 6c 0c 3e
       -0.21266106 0.07090595 0.16407222 0.1371319
0001a0 82 77 4b be b5 44 e0 bb 8a ee 19 be b0 d8 c8 3d
       -0.19869807 -0.006844128 -0.15032402 0.09806955
0001b0 b4 f3 b5 3c b4 f7 5e 3e cc 56 f6 3d 5d 90 31 3e
       0.022210933 0.21774179 0.12028274 0.17340226
0001c0 2d 18 8a 3d a3 6c b8 3d cb b3 fc 3c f8 9a 78 3e
       0.067428924 0.09005096 0.03084745 0.24277866
0001d0 25 f5 1f 3e 44 54 58 3e 8a 6a ca bd 17 f6 77 bd
       0.15620859 0.21125895 -0.09883602 -0.060537424
0001e0 bc ca 7f bd 98 18 d8 3d 4b 87 51 3e 3b 59 01 be
       -0.062449202 0.10551566 0.20461766 -0.12631695
0001f0 81 87 d5 bc c8 cf 1c be 50 71 1c 3d 73 f9 2d 3d
       -0.02606559 -0.15313637 0.038194 0.04247422
000200 65 67 3a be 51 dd 8f bc 0a 07 59 bd fb 27 cf bc
       -0.18203504 -0.017561587 -0.05298523 -0.025287619
000210 4a 3d da 3e 17 dc a0 3d a1 f8 c6 bd 0e 18 38 3d
       0.42624885 0.07854479 -0.09715391 0.044944815
000220 1b 59 54 3c 16 97 21 bd a2 7a f5 bd 9c 43 43 3e
       0.0129606975 -0.039450727 -0.11986281 0.1906876
000230 40 d1 56 3c 80 91 8f 3d 4c 22 ee 3d 45 19 dd bd
       0.0131114125 0.07010174 0.11627635 -0.107958354
000240 8f b2 31 3e 8f 9c b6 3d 57 96 31 3e 13 54 4e 3e
       0.17353271 0.0891658 0.17342506 0.2014926
000250 6c 2c 91 3c 2a 21 3d 3e 56 2f 22 be 08 b7 9c 3d
       0.017721377 0.18469682 -0.1583837 0.07652098
000260 8c 69 a9 3d 42 13 60 3d 29 eb 18 3c a5 18 13 be
       0.082720846 0.054705866 0.00933341 -0.1436487
000270 5e 93 cd bd 0f 28 0f 3d 94 a7 b6 3d 72 1e 20 3e
       -0.10037874 0.034950312 0.08918682 0.15636614
000280 92 fd c1 bd 49 02 b9 bd 5f b9 ad 3c 33 b3 9b 3d
       -0.09472193 -0.09033639 0.021206556 0.07602539
000290 a6 aa 1d bd 57 22 ac 3d df 76 ed 3c 58 b5 48 be
       -0.03849282 0.08404987 0.028987346 -0.19600427
0002a0 b1 d8 75 bd c7 00 09 be af 70 36 be 5e dd 36 3d
       -0.060021106 -0.13379203 -0.17816423 0.044644706
0002b0 54 12 03 3e c9 68 b7 bd b6 50 b9 3d 24 e0 00 be
       0.1279996 -0.08955533 0.090485975 -0.12585503
0002c0 4a 9e 87 3d 6f 68 1c 3e ef a6 56 bd c9 2d cd bc
       0.06621988 0.15274213 -0.052405294 -0.025046246
0002d0 b8 bf 99 bd d5 e7 66 3c 1f b4 dd 3b 31 c2 76 3d
       -0.075072706 0.014093359 0.006765857 0.06024379
0002e0 96 dd 16 bb 38 28 08 be 73 6d 64 3d 5c 47 e7 3d
       -0.002302026 -0.13296592 0.05576844 0.112929076
0002f0 dc 59 65 bd 99 94 44 bc f8 68 72 bd 31 63 8f bb
       -0.0559939 -0.011998319 -0.059182137 -0.004375838
000300 16 0c 8e 3c 1d 40 bf bd 49 f1 e7 3d 6c 22 40 3d
       0.017339747 -0.093384005 0.11325318 0.046907827
000310 e0 73 6e be b1 a8 cf 3d ab f7 df bc 17 3e f4 bd
       -0.2328639 0.10139597 -0.027339777 -0.11925905
000320 3d e4 21 bd 76 11 4e bd 7f 8a 12 3e 3b 8c 35 3e
       -0.039524306 -0.05030962 0.14310645 0.17729275
000330 30 76 d2 3d 54 fc d4 3c 3c b9 ec bc 12 14 cb bc
       0.10276449 0.025999226 -0.02889692 -0.024789844
000340 ed 57 cb bd da fa 0d be f3 67 bc bd 44 ac dc 3d
       -0.0992888 -0.13865224 -0.09199514 0.107750446
000350 cb 44 f1 bc 80 3b c5 3d 33 16 a4 3d 2b 35 b1 bd
       -0.029451748 0.09630489 0.08012047 -0.08652719
000360 93 b6 f2 bc cf a0 2d 3e 5c d0 e2 bd 77 72 cd bb
       -0.029628074 0.16955875 -0.11074898 -0.006269749
000370 e6 6e f3 bd 4d 44 92 3c f1 f7 05 bd b7 52 cd bc
       -0.118863866 0.017854834 -0.03270716 -0.025063856
000380 fb 28 c7 3d d9 c2 93 3d 5f ab b6 bd da 14 fb bd
       0.09724613 0.072148986 -0.08919405 -0.122598365
000390 c5 0d 52 bc 15 0a 5f bd 33 e4 d5 bd ee ee 9d bd
       -0.012820666 -0.054452974 -0.10443916 -0.07711588
0003a0 d3 25 7f 3d 19 fb 0b 3d 68 f2 a0 bd d5 3a 9e 3c
       0.06229193 0.034175012 -0.07858735 0.019315163
0003b0 09 9f 20 3d fb 19 86 bd 90 df 95 bd 62 a9 80 bc
       0.039214168 -0.06547924 -0.07318032 -0.015705768
0003c0 76 d5 6c 3e 8e a7 87 bd 9b f5 26 3e 2a fa 86 bd
       0.23128304 -0.066237554 0.16304629 -0.06590684
0003d0 0c 5b ac bc 5b ad 76 bd 71 e1 f6 3d 49 a2 bf 3d
       -0.021039508 -0.06022392 0.12054718 0.09357125
0003e0 79 c4 8c 3e 48 00 04 3d d1 a4 91 3d 6b 0d 11 bd
       0.27493647 0.03222683 0.07111514 -0.035413187
0003f0 17 69 42 be 8a a6 b1 3d 95 00 1c be b7 ad cc 3d
       -0.18985401 0.08674343 -0.15234597 0.09994071
