results analysis/processed results/PINN/NASA results/5-5/Experiment6/model.pth (torch, 59646 bytes, 14 tensors)

encoder.net.0.weight f4 [60, 17]
00000000: 3460 b33b 9ac7 c33e a2bb 2cbe eb16 e83c
00000010: adce d5bd 0774 173e 5e75 a13e f7c2 0e3c
00000020: ffa8 b43d a945 7f3e 5f8d 273e ddc1 44be
00000030: 0b96 c63e d1aa aa3e b977 ab3d 8338 93bd
00000040: ad64 6bbb f40d 4c3d fa46 163d 761d 813e
00000050: d19a d43c 9c7e a2bd 3911 663e b6a1 583e
00000060: 6652 4dbe b535 98bd a71a 9b3d d77c 323e
00000070: 0c64 383e 77fe 4dbe 366a 023e 003a 50be
00000080: 51a8 b4be 6382 b33d 8806 bcbe 59ef f9bd
00000090: 29b6 44be d51e cfbd 3404 a23d 31dd 9e3e
000000a0: 8a84 86be 8116 043e 0aa1 37be d65e 613e
000000b0: a4d2 10be 0984 7bbb de92 edbd 7e3d 6dbd
000000c0: 1fbf 21be 71db 863d 04a3 a23e c896 643e
000000d0: 6589 bbbd 295b e73d cd35 3fbe 132a 7bbd
000000e0: e85f 3a3d 0e16 5f3d f1e7 74bd 6670 b2bd
000000f0: 7604 13be 6940 87be 1a9a afbe a740 c43e
00000100: 3fd4 a93b e52b 88bd 1b6c 943d 67c4 36be
00000110: 79bf ccbd 3517 d7bd 658e 0a3d 35ed 40be
00000120: a77c 01be 68c7 7e3d 22f0 d73e 7d3e 8cbc
00000130: 98d0 9bbd 3433 fcbd f30d 72bd 571f 53bd
00000140: 4fdf 2cbe 7c24 0a3e 8aa6 0abe 3aed 9c3d
00000150: de3f 7ebe 36e0 513d 1581 a0be 73d7 9abe
00000160: 12d7 253d 254c cabc 22bc 5d3c d9dc 593e
00000170: 39cf 583d e1b1 b3bd 43b4 a3bd b24b a13e
00000180: e99d 633d 3d13 5b3e 11e2 2f3e 6115 823d
00000190: bdc4 243d a695 d83d dc9d d83c 2239 9b3c
000001a0: 2573 ffbd 398c b23d 1edf a9bd 2393 86bd
000001b0: fa9f 01be 5885 913e 83ff e7bd 7fa5 d2bd
000001c0: 98fe a43c 6d19 88be db24 abbe 2226 e7bd
000001d0: 2d01 60bd a87b adbd 18cf 3ebc 8be8 3f3e
000001e0: 5ae2 9dbd 3be9 73be 83a3 773e 1023 b73e
000001f0: dd36 c73d cbdc 1f3e 958c 85be 1516 0d3e
00000200: 5b0a b5bd 0faf 923e 5bcd 97be 2a16 123e
00000210: e46f 35be 9162 01be 76e2 b9bd d291 bdbc
00000220: 86ed ccbd a66e 0e3e b644 32be d8cd 173e
00000230: f1b7 2abe f9ca 303e 4d40 6d3c 2178 02be
00000240: 8c76 373d 6fda a93c d812 503e cc41 5cbd
00000250: e372 a53e 60a3 ce3d cf59 5d3e 912d 28be
00000260: 90d6 b1b6 af22 0f3e cae2 4f3d 1970 16be
00000270: a5f8 15be 4a95 dc3d 377e 89bc f38e bdbd
00000280: e238 d2bd 2602 5a3d 10b2 80bd f5d4 85bd
00000290: 7619 793d 7b37 f63d ac8f 503e 34f6 47be
000002a0: 770e b63c ab84 8cbd c53c 593e 9600 18be
000002b0: 702a 0dbe 0da5 e3bd 205a 073d 2a88 0d3e
000002c0: 70f6 ce3c 5973 ab3b 74bc 63be 485f 06bd
000002d0: 9c17 05bd 8415 e03d 5af9 8c3e b722 983d
000002e0: 5222 b3bd cf95 3bbe aeb4 253e f55b 3dbe
000002f0: db4b 043e 7789 2d3d 35dc 3fbe b732 da3c
00000300: 6ac8 413e e63d 73be 2f6d 01be c2e9 c7bc
00000310: 60bb 5a3c b045 fc3d 222d 5dbd 1953 b93d
00000320: 6069 4cbe e486 f6bd 35de 55bd 76f2 003e
00000330: 678b 02be 13a5 693e 3051 98bd ade0 7e3e
00000340: 59bd 4abe 0367 503d 7b5f ca3b 9d9f f13d
00000350: 20a3 86be b50e dcbd 9e40 90be b325 c83d
00000360: 8476 883d 9ec3 85bd 37ec 953e b945 79bc
00000370: d1a8 91be 169f 32bc 91a0 98bd b1c3 3b3d
00000380: 3f07 44be 4e18 f9bd 4fc7 89be c881 983d
00000390: 09f6 22bc dba1 a23c 214b 7b3e 5bce 58be
000003a0: 9dcd 0b3c ebfa 4ebd 8b79 5b3e eda2 8d3e
000003b0: fe9f 2b3e c63e 423d d319 953e f9c5 debd
000003c0: e19e 053e 7124 9dbb 15e5 bbbd a811 0c3e
000003d0: 78d6 21be e00e b03d 3c47 cdbe 9c94 ae3d
000003e0: 23d0 34be 5d6d e43d 188e 64bd 818e 4fbe
000003f0: 514c b3be a9d5 95bd d19f 213e 1a44 5ebe
0.005474115 0.3823822 -0.16868451 0.02833124 -0.10439811 0.14790355 0.31534857 0.008713475
0.08821296 0.24928917 0.16362523 -0.19214578 0.3878635 0.33333448 0.08372445 -0.07188513
-0.0035918162 0.049817994 0.036688782 0.2521779 0.025952728 -0.07934305 0.22467507 0.21155438
-0.20050964 -0.07432119 0.07573443 0.17430435 0.18006915 -0.20116602 0.12735829 -0.20334625
-0.35284665 0.08765104 -0.36723733 -0.12203855 -0.19210114 -0.101133026 0.07910958 0.3102813
-0.26272994 0.1289921 -0.17932525 0.22008833 -0.14142853 -0.003837826 -0.11600278 -0.05791997
-0.15795563 0.06584824 0.31764996 0.22323143 -0.09157065 0.11296684 -0.18672867 -0.061319422
0.04550162 0.054464392 -0.05979151 -0.087128446 -0.1435717 -0.2641633 -0.34297258 0.38330576
0.0051827724 -0.06648997 0.07247182 -0.17848359 -0.09997458 -0.10502473 0.033827204 -0.18840487
-0.12645207 0.062201887 0.42175394 -0.01711964 -0.076081455 -0.12314454 -0.059095334 -0.05154356
-0.1688206 0.1349048 -0.13540092 0.07662435 -0.24829051 0.051239215 -0.31348482 -0.302425
0.04048831 -0.024694512 0.013533624 0.21275653 0.052931998 -0.08774162 -0.079933666 0.31503063
0.055570517 0.21394058 0.17176081 0.06351734 0.040226687 0.10575418 0.02644246 0.018948141
-0.12473134 0.087181516 -0.08294509 -0.06571033 -0.12658682 0.28422046 -0.11328032 -0.10285472
0.020140931 -0.26581898 -0.33426556 -0.1128657 -0.05468862 -0.08470851 -0.011646055 0.18741052
-0.07709189 -0.23819439 0.24183469 0.35768938 0.09727261 0.1561157 -0.26083818 0.13777955
-0.08839866 0.28649184 -0.2964886 0.14266267 -0.17718464 -0.12635256 -0.09076397 -0.023140822
-0.100062415 0.13909397 -0.17409024 0.14824617 -0.1667173 0.17264928 0.0144806625 -0.12741138
0.04479079 0.02073404 0.20319688 -0.053773686 0.32314214 0.10089755 0.2161629 -0.16423632
-5.2999894e-06 0.13978074 0.050753392 -0.146912 -0.14645632 0.10770662 -0.016783817 -0.09255781
-0.10264756 0.053224705 -0.06283963 -0.06534759 0.060815297 0.12022301 0.20367306 -0.19527513
0.022223694 -0.06861242 0.21214588 -0.14843974 -0.1378572 -0.11115465 0.033044934 0.13821474
0.025263995 0.0052322564 -0.22239858 -0.03280571 -0.03249322 0.10941604 0.2753399 0.07428496
-0.087467805 -0.18318866 0.16182205 -0.1849211 0.12919562 0.042367425 -0.18736346 0.02663551
0.18924108 -0.23754081 -0.12639306 -0.024403457 0.013350338 0.12317979 -0.05399812 0.09049053
-0.19962072 -0.12037447 -0.052213866 0.12592492 -0.1274849 0.22816877 -0.0743736 0.24890395
-0.19798793 0.05087949 0.006175933 0.11798022 -0.2629633 -0.10744993 -0.281743 0.097728156
0.0666323 -0.06531452 0.2928178 -0.015214377 -0.2844911 -0.010902187 -0.074525006 0.045840923
-0.19143389 -0.12162839 -0.26909873 0.07446629 -0.009946355 0.01985257 0.24540378 -0.21172468
0.008532909 -0.050532263 0.21433084 0.27663365 0.16760251 0.047423147 0.29121265 -0.10877604
0.13048889 -0.004795604 -0.09174553 0.1367861 -0.1580447 0.08596587 -0.4009341 0.08524439
-0.17657523 0.11153672 -0.055799574 -0.20269205 -0.35019162 -0.07316143 0.15783621 -0.21705666

encoder.net.0.bias f4 [60]
00000000: e050 a5bd 3f99 62bd 13e5 10bd b6e5 283d
00000010: 6c25 0abd 95b9 8bbd 0f1e 9fbd 5d51 0dbd
00000020: 6d9a 1abd 2044 963d 597f 043d 776b af3d
00000030: 3ee5 973d 5329 293d 4057 5cbd 0987 843d
00000040: b2cf 2abd c72b d3bd cbef 563d b8f4 eabc
00000050: 0ae2 f83c dd04 76bd 983f ab3d 3118 913d
00000060: 7c98 de3c 52dc d0bc 70b9 9bbd a620 d0bd
00000070: 5c5d 423d 7836 5abd 171f 1a3b 0035 9abd
00000080: 7421 8a3d 0377 643d bdcc 4c3d 8f3d 573d
00000090: 0f0b 02bd 609f 9cbd 07e9 383d c5fe 7b3d
000000a0: 7f4d 563d b7b1 11bd ac43 b83d a559 883d
000000b0: 39cc 9f3d e5d9 753d c3d6 69bd 367d 893d
000000c0: 6b2f 8b3d 33de c7bd c4cf 9abd 8a93 69bd
000000d0: ce83 493d 4c90 11bd cd28 7dbd 293b fe39
000000e0: 6528 a33d 5acd 843c 92b4 c93d f73b 86bd
-0.08072066 -0.055321928 -0.035374712 0.041234694 -0.033727095 -0.06822506 -0.07769405 -0.034501422
-0.03774493 0.073372126 0.03234801 0.08565419 0.07416771 0.041299175 -0.053794146 0.064710684
-0.04170198 -0.10311084 0.05247478 -0.028681144 0.030381221 -0.06006323 0.08361739 0.07084692
0.02717232 -0.025495682 -0.07603729 -0.10162477 0.047452316 -0.0532746 0.0023517066 -0.0752964
0.06744662 0.05577756 0.04999994 0.05254894 -0.031748828 -0.07647586 0.045144107 0.061522264
0.05232 -0.035569873 0.089972824 0.06657723 0.07802624 0.060022254 -0.05708958 0.06713335
0.06796154 -0.09759178 -0.075591594 -0.05702547 0.049197964 -0.035538003 -0.06180649 0.00048490733
0.07966689 0.0162112 0.09848894 -0.06554406

encoder.net.2.weight f4 [60, 60]
00000000: dd58 ab3d 9a66 133e cdb2 96bd 2a99 f63b
00000010: 6762 123e 5132 423d db6f 4bbe 96bd 6d3d
00000020: 71de e03d 2e02 5f3e 8089 4b3e 1e55 d33d
00000030: c207 043e 640a cb3c 4a5b 35bc fce5 aa3e
00000040: d029 97bd 58e8 b5bd f05c e6bc 0940 283e
00000050: 7bb1 dfbd 7c30 68bc 40dd 10be 43c2 f9bd
00000060: a024 5fbe 113a f73c 489e 47be b3df 60bc
00000070: c248 83bd 348f 803e 48a0 fc3d 6fa4 0bbe
00000080: dfe1 fcbc 140f 193e 7f87 1fbd 753d 4e3d
00000090: c9a0 203e 4f20 2abd 8d35 d53d 8e64 e93d
000000a0: 4ce2 bdbc efe6 5cbc f85c 673d 5de2 31bd
000000b0: 9b45 d53d d446 573d d0fc b53d da0f cabc
000000c0: 6026 113e 2361 04be 01ef 6cbd cf07 adbd
000000d0: ec79 353d 1144 ec3c 9e06 4b3d 578d 3cbd
000000e0: d5fe 873d 24b4 8dbe a2ab 773e b89d 2a3a
000000f0: 1178 ffbc 0c36 9c3d f372 d33d e1be ea3a
00000100: a2b0 9b3d 79cc d33c 1b48 353e 099c 4ebd
00000110: 8eba 1cbe fe15 a13e 0d24 083d 95fe 223d
00000120: 36cb 1c3d df5f c7bd f052 b7bc 0238 983d
00000130: e811 333e 0ca5 c93d 2e2a c53c fa4e ad3e
00000140: f34a 733d d9fe 583e 2f26 bdbc d181 0ebe
00000150: 4270 e0be 6113 3b3c b64f 443e 8618 243e
00000160: b4d6 85bc ab6a 3abe 7c50 d53d 2ed9 25bd
00000170: 6c84 ed3d fc1e 18bd 805b a6bd 25cb 70be
00000180: 46a5 0d3e 56e2 c1bd 7d06 41bd 531d 08bb
00000190: 3593 6d3d 310b 523e 608d 503d d982 fbbd
000001a0: 9111 82bd 6309 9a3d b5f4 86bc 3786 8cbe
000001b0: 37f6 17be 5698 62be cdf9 383d 98f8 7cbd
000001c0: 2d4a 7cbb 99a8 f4bd 16e1 873e 3108 a8bd
000001d0: ddc1 b83d 8f5d 07bd a0c9 173e 63bb 6fbe
000001e0: ba30 833d b313 783d 8513 283d dff6 1dbe
000001f0: e3ba c43d e44d f83d 57a4 6cbe ce5e 8f3e
00000200: 2470 d7bd 4489 8fbd 4d32 203e bc49 a7bc
00000210: b0b2 b3bd 9749 20be 0b3a 433d 774e 6dbe
00000220: c15a 643e e1cb 15be 22bc 04bd 4dcb e73d
00000230: f2b7 06bd 708f 78bd 6ecd c03d 5ed5 d13d
00000240: 5707 a3bd ea6e 733d d58b 18be 1aa5 1dbe
00000250: ad72 293e 16e6 053e 11ed f93d fade b63d
00000260: 40f8 ae3c b201 41be 403c d8bb 3669 863e
00000270: bfa8 943e 8ebc 473e 5b82 043e 5b99 05be
00000280: e245 57be 79d2 9dbd f79d 61be f7e9 c4bc
00000290: 7cfe b6bd 2ee4 303e 6735 303d c1d2 493e
000002a0: 3420 76be 3a05 8a3c 059c 7e3c db36 0e3d
000002b0: 0753 3f3e c745 bcbc d751 653e 2b21 1cbe
000002c0: 93d2 e0bd 018e 5abe 6d88 d5bd 4d4f 723e
000002d0: ea27 94bd 739a 44be c964 17bc 6605 03be
000002e0: 4463 ed3c 13ca 6ebd 2087 33be e85c 9b3d
000002f0: 5492 1d3e 27ca b13d 4dbb 8ebe 241f ce3d
00000300: c24c d53d 6717 16bc 1bed ae3c d37b 84bd
00000310: d1c0 0b3e 79ed fa3d 49f1 343c c629 5e3d
00000320: 5cd4 a03d cd8f 893d 4736 2d3e d51b 09be
00000330: 2b03 46bd 69a1 e43d 68ee 643d 0786 223e
00000340: 948a f63d 4a57 c6bb 4734 60bd 2774 0d3e
00000350: 6a22 53be faa4 7dbc c791 79be 159b 823d
00000360: acb7 efbd 9d6c f5bb fbb1 1dbe 0e8f 30be
00000370: f78a 65bd 4852 6cbc 6163 84bd 6692 07bd
00000380: 9f8c 45bd de32 26be 8139 893e e583 e2bc
00000390: 21f0 ae3a bc3d 393d 2890 6ebd b9bd eb3d
000003a0: 7c57 d73d 8e86 133e 1531 cb3c 9f48 013e
000003b0: 13c9 54be 3096 9abd f4e8 483c f46a 5bbe
000003c0: 9464 723e fe96 dfbd 70a8 a1bd 6eea b03d
000003d0: 6df3 1abe 78c4 a9bd 5503 4f3e 2576 9b3d
000003e0: c424 2fbd 3ec3 a43d ebe9 553d 3927 ea3d
000003f0: 91a3 b13d 5e13 49bd 50b2 8d3a 7ab8 80be
0.08366559 0.14394608 -0.07358322 0.007525583 0.1429535 0.047411267 -0.19866888 0.05804213
0.10979927 0.21778175 0.19876671 0.10318969 0.12893584 0.024785228 -0.011069128 0.3337859
-0.07381022 -0.08882207 -0.028120488 0.16430677 -0.109225236 -0.014171716 -0.141469 -0.121952556
-0.21791315 0.030179055 -0.19493973 -0.013725209 -0.06410362 0.25109255 0.12335259 -0.13636945
-0.030869422 0.14947158 -0.03894758 0.05035158 0.15686335 -0.041534718 0.104106046 0.113961324
-0.023179196 -0.013482793 0.056485146 -0.043428767 0.10413667 0.05255778 0.08886111 -0.024665762
0.14174795 -0.1292768 -0.05784512 -0.08448755 0.044305727 0.02884105 0.049566858 -0.04603323
0.06640402 -0.276765 0.24186566 0.0006508487 -0.031185182 0.07627496 0.10324659 0.001790967
0.076020494 0.025854336 0.17703287 -0.050441775 -0.1530554 0.3146209 0.033237506 0.03979357
0.038279735 -0.09735083 -0.022378415 0.07432558 0.174873 0.09845933 0.024067964 0.33849317
0.05939765 0.21190967 -0.023089496 -0.13916709 -0.43835646 0.0114181945 0.19171032 0.1602498
-0.01633773 -0.18204753 0.10415742 -0.04049032 0.11597523 -0.037138924 -0.08122921 -0.23514993
0.13832578 -0.09466998 -0.04712533 -0.0020769432 0.058001716 0.20512082 0.050916076 -0.122808166
-0.06351007 0.075213216 -0.016474107 -0.27446148 -0.14840017 -0.22128424 0.045160104 -0.061760515
-0.003849636 -0.1194622 0.26538914 -0.082046874 0.090213515 -0.03304821 0.14823008 -0.23411326
0.06405778 0.06056566 0.04103424 -0.15426205 0.09605958 0.121242315 -0.23109566 0.28002018
-0.10519436 -0.07008603 0.15644188 -0.020420901 -0.08774316 -0.15653072 0.047662776 -0.23174463
0.22300245 -0.14628555 -0.03240598 0.113180734 -0.032890268 -0.060683668 0.094141826 0.10245775
-0.07960384 0.059431948 -0.14897092 -0.15395012 0.16547652 0.13076052 0.1220342 0.08929248
0.02135861 -0.18848303 -0.0065989792 0.26252145 0.29034993 0.19505522 0.12940352 -0.13046782
-0.21022752 -0.0770616 -0.22032915 -0.024037344 -0.08935258 0.17274544 0.04301968 0.19709302
-0.24035722 0.016848195 0.015540128 0.034720283 0.18684016 -0.022982491 0.223945 -0.15247028
-0.10977664 -0.21343233 -0.10426412 0.23663063 -0.072341755 -0.19199543 -0.009240338 -0.12795028
0.028977998 -0.05829818 -0.17532015 0.0758608 0.15387851 0.086811356 -0.27877274 0.10064533
0.10415031 -0.009160853 0.021353295 -0.0646893 0.13647772 0.122523256 0.011043855 0.054239057
0.07853004 0.06716881 0.16915236 -0.13389523 -0.048342865 0.11163599 0.055891424 0.1587144
0.120381504 -0.006052886 -0.054737356 0.1381384 -0.20618597 -0.015481228 -0.24372016 0.06377236
-0.117049545 -0.0074897544 -0.15399925 -0.17242071 -0.05604073 -0.014423914 -0.064642675 -0.0330986
-0.04822981 -0.16230342 0.26801684 -0.027650783 0.001334671 0.04522489 -0.058242947 0.11510796
0.10514733 0.14406797 0.024803678 0.12625359 -0.20779829 -0.07548177 0.012262572 -0.21427518
0.2367118 -0.10917471 -0.07893455 0.08638464 -0.15131922 -0.082894266 0.20216115 0.07590894
-0.04275967 0.08045052 0.052225035 0.114332624 0.08673776 -0.049090736 0.0010810588 -0.25140744

encoder.net.2.bias f4 [60]
00000000: daf8 943d f4df 823d ddf6 9abd bd8c 56bd
00000010: c39d b4bc 0cac 89bd 1cf4 2dbd 9a6b bd3d
00000020: 5e31 9cbd 2bee 213c 0935 593d 2845 aab9
00000030: 719e 83bd 2cd8 c23d 2c0f b53d 59a9 ba3c
00000040: 8c52 c4bd e947 52bd cc77 9fbd 13a0 aebc
00000050: e3c1 90bd 1a08 433d 01c7 843c 661f 90bd
00000060: 7676 bb3d de93 54bd 7250 913d ed48 94bd
00000070: a12c 9dbd 509f d73c 1001 08bd c4a1 a43d
00000080: 024b c73d 65f0 323d 816c e43d c4f5 c03d
00000090: 87de 6bbd 1ff5 a4bd 95c5 f73c db2a 5b3d
000000a0: e269 08bd de41 843d 5b12 2d3a 8eff 8d3d
000000b0: bf3e 51bd 7af6 743d 11fd 5dbd e85f 80bd
000000c0: 8713 84bd e0b3 103b 8cdb 0ebc e5f4 8e3d
000000d0: cef1 a4bd faf3 60bd 8d3c 913d 7eb3 f43c
000000e0: cc11 86bd fd6a 82bc 37da 92bd ca5c a03c
0.07274027 0.06390372 -0.07566617 -0.052380312 -0.022047883 -0.067222685 -0.04246913 0.09249039
-0.076266035 0.009883444 0.053029094 -0.00032476452 -0.06426705 0.09513888 0.088407844 0.02278583
-0.09586057 -0.05133811 -0.07786521 -0.021316564 -0.07068231 0.047615148 0.016208174 -0.07037239
0.09153454 -0.05189883 0.07095422 -0.07240472 -0.07674528 0.026321083 -0.03320414 0.08038667
0.097311035 0.04368629 0.11153508 0.09421876 -0.057585265 -0.08054566 0.030245582 0.053507667
-0.033304103 0.06457876 0.00066021614 0.06933509 -0.05108523 0.05980537 -0.05419642 -0.06268293
-0.06449037 0.002207987 -0.008719336 0.06980304 -0.08053933 -0.054920174 0.07091627 0.029870745
-0.06546363 -0.015920157 -0.071705274 0.019575495

encoder.net.5.weight f4 [32, 60]
00000000: aa67 5fbc 26c5 a4bd 9e09 8f3c a610 b1bd
00000010: 7ba1 2b3e 21ce 733d 0167 283d 8106 c9bd
00000020: a6b9 693e 7501 ef3d 4b09 1cbe ead1 cbbd
00000030: 7658 81bd d81a 263e f6a7 71be 1cec 983d
00000040: fe56 053d cbc9 8fbd 871a ee3c 3edd 86bd
00000050: ca71 3bbe 8a9b e1bd 648f 32bd 29ee 34be
00000060: d6ec 3a3e f265 d4bd 76e4 2fbe abb3 5abe
00000070: a1e1 0cbc a49e 563e d9e6 dbbd a970 1b3e
00000080: edec 8b3d 9291 043e c541 dd3d 7114 f0bd
00000090: 9a8d 76be 50f9 94be ef19 293d 33f5 02be
000000a0: 591e 023e f55c a4bd 9382 4a3d 66b4 f43d
000000b0: 0715 3cbe edc2 6e3e c018 913c c3e2 a83d
000000c0: 1580 ea3c b975 89bd 8a07 323e 5137 89bb
000000d0: 92bc 31be 8406 30be e1a6 a63d e557 97bd
000000e0: f4db 4bbe 0069 cabd ddeb ecbc 99bc acbc
000000f0: 1cf3 3fbe 6fbc f43c 825c 0cb9 d004 6a3d
00000100: e93a c3bd 000e 2ebe 00fe a93d 7c8a 233e
00000110: c3e0 163e 89a2 b9bc b2ad 72ba 8736 2f3e
00000120: e230 263c c9e4 fdbd 2ba7 26be a33b 1d3e
00000130: 639b a23c 8c7b 303e c388 793d ecbc cebd
00000140: cc1b 413b c0e8 0c3d e6ec 373c e252 2e3e
00000150: ecd4 d43d df84 803c f461 59be bbca 843e
00000160: ef50 bfbb 638f 22bd b343 58bd 5d98 3cbe
00000170: f533 31be 8396 d43d b06c 41be 2da4 023e
00000180: c5a7 0b3e df27 80bc 2dfb bbbd cd56 363c
00000190: 167d 58bd 3755 1c3c e90f 693d 5c26 5a3e
000001a0: 7262 71bd 73a6 babc caab 0d3e d155 063e
000001b0: 718c 463d b917 183e de85 993d 583e f8bb
000001c0: b381 03be 1b2d 323e 1417 97bd 2128 16be
000001d0: 629f 833d c173 ebbd 3131 1d3e 38e7 3cbc
000001e0: 3d26 80be 4f5e 723d 04b0 95bb c0b7 e53d
000001f0: 6ffc 7a3c 1320 32bd 9295 c33b 1d9d 773e
00000200: af0b 58be 5e8c cdbd 72a7 a4be 59ab acbd
00000210: 1d50 1e3e 1dbf a1bd 6003 453e 65cc fcbd
00000220: 9c8c 87be 6122 81bd 5c00 063c 31b7 5ebe
00000230: 05be 553e ba12 0fbe dfd4 3d3d 2781 e43a
00000240: dd2d 343e fa20 743d 84ea 0bbe b346 83bd
00000250: 0be9 1cbe 9fb4 3d3e 5981 a63e 7179 39bb
00000260: 79a7 bc3d fc3e a13d 41fd 8abe 49db 603e
00000270: 7df2 2b3e 82a6 e93d 9b08 82bd fcbd 4ebd
00000280: 6cd1 13be 40fe 84be 9e1f a93e 04b7 9b3d
00000290: 80e9 66be aab0 9b3c 4e4b 1abe 2fa5 61bd
000002a0: b4a0 60be 179e 1ebe 3f35 f13d 49dc f3bc
000002b0: f97e 6ebd 0b2f 87bc e94d ebbd 18b7 ebbc
000002c0: 5cbd 0dbd ef5c 2f3d 4da8 f13c d50f 2c3d
000002d0: 1b19 2d3d b426 98bd f1b5 093e 4c77 ffbd
000002e0: 6e05 47be 427c 28be 41a3 e5bd ddb4 d13d
000002f0: 9afb d33d 6770 21be 8542 853c 0c65 023d
00000300: c36f 243b 5f47 b73d f036 033e b211 1b3e
00000310: 2726 0dbe 3786 e23d 19b7 29bd 1b8a 99bd
00000320: ba97 08be 5c77 993d ba42 24be 7e47 543d
00000330: f841 cebc 542d 753d 1fe1 8f3e b0dc 0f3c
00000340: 64f6 fa3c 7076 8cbc a1d0 803e 630a 1bbe
00000350: 23cb 75bd d654 49be 74c8 35bd e9b0 99bd
00000360: 413d c93d a004 223e daed 7c3e 10b2 73be
00000370: 7e11 c43d 00cf d13d f579 d63e 0703 29be
00000380: 4569 5fbd db43 ba3d 6652 01be cee3 3b3e
00000390: 0066 6e3d bf85 c53d 8aeb f73d ab2c 44be
000003a0: 87a5 56be 71c4 f53d 252c 153d 0cef 05bc
000003b0: 80eb a73d d698 33bd 7a51 80b9 488c 093e
000003c0: 06b7 5c3e bf07 273e 1a27 2f3d 65bf 77be
000003d0: 12c9 95bd 1db1 1cbe 009c 0e3b b574 313e
000003e0: ce70 26bd afcc 173e 57f6 66be 736a d13d
000003f0: 9dbd 903e 41db 243e a2dd 193e 886c a4bd
-0.013635555 -0.080454156 0.01746064 -0.086457536 0.16760819 0.05952275 0.041113857 -0.09815694
0.22824726 0.116702 -0.1523792 -0.09952147 -0.06315701 0.16221178 -0.23599228 0.07466909
0.032553665 -0.07020911 0.029065384 -0.06585167 -0.18305126 -0.11015995 -0.04359378 -0.17668976
0.18254408 -0.10371007 -0.17176995 -0.213576 -0.008598716 0.20958954 -0.1073739 0.15179695
0.068322994 0.12946156 0.1080356 -0.11722649 -0.24077454 -0.2909646 0.041284498 -0.12788849
0.12706889 -0.08025543 0.04944093 0.11948471 -0.18367396 0.23316546 0.017711997 0.08246376
0.028625527 -0.06711907 0.17385688 -0.0041875024 -0.1735709 -0.17189986 0.081372984 -0.073898114
-0.19908124 -0.098833084 -0.028921062 -0.021086024 -0.18745083 0.029875008 -0.00013385902 0.057133496
-0.095327206 -0.16997528 0.083004 0.15970796 0.14734177 -0.02266051 -0.000925745 0.17110644
0.0101434905 -0.12397153 -0.16274707 0.15354781 0.019849485 0.1723463 0.06092144 -0.10094628
0.002946603 0.034401655 0.011225915 0.17023805 0.10392174 0.015688358 -0.21228772 0.2593592
-0.0058385055 -0.039687525 -0.052798938 -0.18417497 -0.17304976 0.1038027 -0.18889117 0.1275794
0.13638218 -0.015644012 -0.09178767 0.011129093 -0.052853666 0.009541801 0.05689994 0.21303695
-0.058931775 -0.022784447 0.13835064 0.13118674 0.04847378 0.148528 0.07496236 -0.0075757913
-0.12842445 0.17400019 -0.07377449 -0.14663745 0.06426884 -0.11496688 0.15350796 -0.011529736
-0.25029173 0.05917197 -0.004568102 0.11216688 0.015318974 -0.04348762 0.005968758 0.24181028
-0.21098207 -0.100365385 -0.32159 -0.084311195 0.15460248 -0.0789778 0.19239569 -0.12343673
-0.26474464 -0.063053854 0.008178797 -0.2174957 0.20873268 -0.13971987 0.046345588 0.001743351
0.1759562 0.05960176 -0.1366368 -0.06409969 -0.15323274 0.18525933 0.3252056 -0.0028301144
0.092116304 0.078733414 -0.27146342 0.2195865 0.1679172 0.11408712 -0.063492976 -0.050474152
-0.14435357 -0.25975227 0.33031934 0.07603267 -0.2255001 0.019005138 -0.15067789 -0.055089172
-0.21936303 -0.15489994 0.11777734 -0.029768126 -0.05822656 -0.016501924 -0.114894696 -0.02877383
-0.034604415 0.042813238 0.029499197 0.042007286 0.04226027 -0.07429257 0.13448311 -0.12473926
-0.19435665 -0.1645365 -0.11212779 0.10239575 0.103507236 -0.15765534 0.01626707 0.031834647
0.002509103 0.0894916 0.12813926 0.15143469 -0.13784085 0.11060756 -0.04143438 -0.07497045
-0.13339129 0.07493469 -0.16041079 0.051825993 -0.02517794 0.05985768 0.2810144 0.008780643
0.030635066 -0.01714632 0.2515917 -0.15140681 -0.06000818 -0.19661269 -0.04438062 -0.07504446
0.098261364 0.15822077 0.24700108 -0.23798394 0.09573649 0.1024456 0.4188992 -0.16505061
-0.054543752 0.09094974 -0.12629089 0.1834862 0.058202744 0.09644651 0.121054724 -0.19157664
-0.20961581 0.12000359 0.036419053 -0.008174669 0.08199215 -0.043846928 -0.00024474767 0.1343242
0.21554193 0.16311549 0.0427619 -0.24194105 -0.07313742 -0.15301938 0.0021760464 0.17329676
-0.040634923 0.14824174 -0.22554909 0.10225382 0.28269663 0.16099264 0.15025952 -0.08028513

encoder.net.5.bias f4 [32]
00000000: 2c7d 773d dbc9 a6bd 2ce9 4dbd 400a f9bc
00000010: 0c9c 2e3d 3070 06bd fb75 6a3d e06f 8fbd
00000020: 8971 183d ea7c edbc 36c1 9dbd b002 c63d
00000030: f431 e03d 68ce 88bd d028 01be 915f 2ebd
00000040: 8c3d 70bd ad7c 213d 8a8b 6e3d 755d b53d
00000050: b213 a43d e98b c03d 7295 bcbd 3df3 a33d
00000060: 2634 a4bd 1cd2 6bbd 61a8 a23d c78d aa3d
00000070: e4be c9bd 7012 a4bd 63be 863d b5e7 65bd
0.060422108 -0.081439696 -0.0502712 -0.030400395 0.042629287 -0.032821834 0.05724142 -0.0700376
0.03721765 -0.028990228 -0.07702868 0.09668481 0.10947028 -0.06679994 -0.12613225 -0.042571608
-0.058652446 0.03942554 0.058238544 0.08855716 0.08011569 0.09401686 -0.09208192 0.080053784
-0.08017759 -0.057573423 0.07942272 0.08327823 -0.098508626 -0.08011329 0.06579282 -0.056129176

predictor.net.1.weight f4 [32, 32]
00000000: 5d6d ac3e 7aeb a13d 7621 86bd 76c3 933d
00000010: 26cf 1abe 22ed 30bd c4f1 ccbd fea5 803e
00000020: c1c2 d7be 8929 2e3e 7940 3abc 1919 3bbd
00000030: 6022 07bd 2440 423e 660c 1b3d 1e80 c73d
00000040: 6776 733e 2356 2ebe 1108 53be 517a d2bb
00000050: 23f1 1abe 8fec 1fbd 345f 40bc 8129 a53d
00000060: a64f 81bc a49b ea3e 07e5 30bd af6d 8b3e
00000070: cc97 ae3d 44df de3b 733a 803e e925 b53d
00000080: 12bc 833d 7086 053e e560 1c3e 1d26 f03d
00000090: 6c53 da3e c358 8dbd 2b62 abbe ed77 03be
000000a0: 984a 0bbe 5c39 a3be da81 9e3d 4968 55be
000000b0: 1619 94bc 400d d7bd 1a3f fdbd f6b7 003e
000000c0: ee5e 96bd 6856 ab3e ae2c 63be 96e1 6d3e
000000d0: 76bc a73d ba0c 573d db86 1a3e 133f c4be
000000e0: 0627 0b3d 63b4 033d 5230 eebe cc18 30bd
000000f0: 87d8 0abe edbe d53c f27d 6cbd c2d7 603e
00000100: 9051 353e 1136 5a3e b901 2abe 6626 1b3e
00000110: 07bf 8cbc 184f 15be 7e19 e33d 75a3 bfbe
00000120: 8b4a 503e 0e37 f23d a1da 52bd 549f 98be
00000130: ca6f 4bbd d827 673e fb10 23be e492 163c
00000140: c3b5 1b3e 6a8a 3abe 90d6 3dbe 7d87 8ebc
00000150: 5a0a 3d3e 85a8 b6bc a103 71bd d604 e9bd
00000160: 40e9 8f3e eb69 e53c 7c8a 943d 4905 583e
00000170: 79e0 4ebd 1fd0 a33d cca8 a53d 7e15 9b3d
00000180: 4bd2 6abd 3245 d3bd 65b7 b53d 9ea0 f73d
00000190: a556 003e 4a92 cabd 9595 94bd 4efe 3bbe
000001a0: 85d5 043c 483a 5dbd ad3d c33d 7fc8 83bd
000001b0: c90b 453e 3cb9 313d a745 383e 8edd 49bd
000001c0: ac10 9b3e 2384 a83d a83a b6bd 1901 0bbe
000001d0: 4f1c 1c3d 6f65 a33d 6d06 463e 860c dabd
000001e0: 639b 8e3e 9784 7ebd 2554 053e 9f6d 8d3b
000001f0: 823a 153e bf4d 443d 1489 6cbe e726 5d3e
00000200: c6f1 b0bc 27ed 87bd 997c 653d 3993 133e
00000210: 3aba 983d 2dfe dcbd 56d1 993d ce6a be3e
00000220: 39c2 a5bd c433 383e e185 16be adfd f83e
00000230: fb63 0b3e a23c 913c 47bc 533e e6b6 3abc
00000240: 5008 7dbd 54a0 54bd a7ed 843e 176b 9d3e
00000250: 83da 38bb b95c dbbd 71cf 6b3e 58bd 0cbe
00000260: 9908 673c df6e 91bd f7aa 07be 2312 c7bd
00000270: 89b4 6bbe 7c85 f13b ffd5 ffbd 8a20 003e
00000280: 5c87 b03c 952e ca3c db07 67bd 9663 1dbe
00000290: fc00 763e 1769 3b3e 401a 39be 3b99 92be
000002a0: bd3c 28bc 4ac9 083e 87bb 28bd 1500 adbe
000002b0: 8742 23bd 7a92 3d3e dca1 093e f3de 963d
000002c0: b85a fc3d 92b8 33bd f03b 3dbe 1620 24be
000002d0: 85de e1ba 0c43 d63d 1a2b 203d 791d 003e
000002e0: 22c6 143e a522 843e a3cf 26bd 8f79 6dbe
000002f0: 6720 693e 4ee2 4abd 29f6 8e3e cd7c 0d3d
00000300: 259c 9dbd 15c8 93bd 3161 21be 6195 babd
00000310: 8eb4 a9be dca7 823d 0af9 db3d 6ac9 14be
00000320: 2a79 37be c5e5 0bbe c244 f83e 7f33 043e
00000330: 4302 17be cac2 62bb 6681 813c f1fb f6bc
00000340: 4e6d 853d cbd1 c8bd 19e8 c6bd f1b2 9ebe
00000350: e454 77be 8089 883d 705c 95bc 3fa6 90be
00000360: 4d37 af3d 5b73 0bbd ba13 9dbe f294 133e
00000370: 0fd5 56be 6616 6e3e ea42 ecbc 257b 0b3e
00000380: 1e97 6bbe 765b bc3d 64eb bd3e 0bb1 583d
00000390: 7c86 423d 0ac9 7cbe 6402 bebd 38a6 87be
000003a0: b249 2a3e bb5a b03d 5f75 91bb b40a 88bd
000003b0: b70b d13e ed2c 103e 858d 34be 2576 cf3d
000003c0: 55d8 bbbd b6ca 64be 83a2 be3b 3aa7 57bd
000003d0: ca1f 75bd 59ff 083e 0e64 41bd 715f 3abb
000003e0: ff5d edbd b84f f83b 6fb8 c2be 42a3 b5ba
000003f0: ebc6 20be 645f 383e ed6e 213b 8f00 473e
0.33677188 0.07906242 -0.06549351 0.072150156 -0.15118083 -0.043194897 -0.10007051 0.25126642
-0.42140773 0.17008032 -0.011367911 -0.045678232 -0.032991767 0.1896978 0.03785362 0.09741233
0.23775636 -0.17025046 -0.20608546 -0.0064232727 -0.15131049 -0.03904396 -0.011741448 0.08064557
-0.01578505 0.4582187 -0.043187167 0.2723212 0.08525047 0.0068015177 0.25044593 0.088451214
0.06432356 0.13039565 0.15271337 0.117260195 0.4264177 -0.069016956 -0.33473334 -0.12838717
-0.13602674 -0.318797 0.07739611 -0.20840563 -0.018078368 -0.10500574 -0.12365551 0.12570176
-0.07342325 0.3346436 -0.22185013 0.23230585 0.08190243 0.05250237 0.15090506 -0.38329372
0.033972763 0.032154452 -0.4652124 -0.0429924 -0.13559161 0.026092017 -0.0577373 0.21957305
0.17706895 0.21309687 -0.1660222 0.15151367 -0.017180933 -0.14580953 0.110888466 -0.37429395
0.20340936 0.11826907 -0.051478032 -0.29809058 -0.049667157 0.22573793 -0.15924446 0.009190295
0.15206055 -0.18216863 -0.1853888 -0.01739859 0.1846098 -0.022297153 -0.05884135 -0.113778755
0.28107643 0.028004607 0.07252976 0.21095766 -0.050507043 0.0799868 0.08088836 0.07572459
-0.057329457 -0.10315932 0.0887287 0.12091182 0.12533052 -0.09891184 -0.07255093 -0.18358728
0.008107548 -0.05401066 0.09533248 -0.06434726 0.19242777 0.043389544 0.1799532 -0.049283557
0.30286157 0.08228328 -0.088979065 -0.13574637 0.038112935 0.07978331 0.19338389 -0.1064692
0.27852926 -0.062138166 0.1302038 0.0043160464 0.145731 0.047925707 -0.23099166 0.21596871
-0.021599662 -0.0663703 0.05602703 0.1441163 0.07457395 -0.10790668 0.07510631 0.3719086
-0.08093686 0.17988497 -0.14699508 0.4863104 0.13612358 0.017729107 0.20677291 -0.011396145
-0.061775506 -0.051910713 0.25962564 0.30745766 -0.0028206415 -0.10711045 0.23028351 -0.13744104
0.014101171 -0.07101225 -0.13248812 -0.09720256 -0.23018087 0.007370649 -0.124919884 0.12512413
0.02154892 0.024680415 -0.056403976 -0.1537002 0.24023813 0.18301807 -0.1807642 -0.2863253
-0.010268387 0.13358036 -0.041194465 -0.33789125 -0.039858367 0.18512908 0.1344065 0.07366743
0.12321991 -0.04387719 -0.18479896 -0.16027865 -0.0017232454 0.10462007 0.039103605 0.12511243
0.14528707 0.25807682 -0.04072536 -0.23190902 0.22766267 -0.049532227 0.2792218 0.034542847
-0.07695798 -0.07215897 -0.15759732 -0.09110523 -0.33145565 0.06379673 0.1074086 -0.14529958
-0.17917314 -0.13661869 0.48489958 0.12910269 -0.14746957 -0.0034600967 0.015808772 -0.030149432
0.06514989 -0.0980564 -0.09712238 -0.30995896 -0.24153477 0.06666851 -0.018232554 -0.28251836
0.0855547 -0.03404556 -0.30679113 0.14412287 -0.20979713 0.23250732 -0.0288405 0.13621195
-0.23006865 0.09197132 0.3709365 0.052903216 0.047491536 -0.24686065 -0.092778 -0.26494002
0.16629675 0.086110555 -0.0044390406 -0.066426665 0.4082925 0.14079638 -0.1763211 0.10129956
-0.091721214 -0.22342953 0.0058177128 -0.052649714 -0.05984477 0.13378657 -0.04721456 -0.0028438235
-0.11590194 0.0075778626 -0.38031337 -0.0013857859 -0.15700881 0.18005139 0.0024632767 0.19433807

predictor.net.1.bias f4 [32]
00000000: 0d4e d13c fe60 f23d aaec ff3d 1a8d 0c3e
00000010: aec9 013e e4d7 f5bd 275e 0f3e 476d e0bd
00000020: e9d2 10be 8a10 0abe e69e e2bd 0b22 ea3d
00000030: 30e8 38be a391 ddbd 4447 103e 0d52 08be
00000040: 04c7 e93d af6f f53d a414 fa3d 8a32 04be
00000050: a04f f53d 368d f8bd 1758 ecbd fddf 013e
00000060: cabc e03d 9d8b d6bd 8943 403d dc46 c8bd
00000070: 33d0 ff3d baba 9ebd f5f7 08be 96d2 003e
0.025549913 0.11834906 0.12496312 0.13725701 0.12674591 -0.120040685 0.1400076 -0.10958343
-0.14142956 -0.13482872 -0.11065464 0.114322744 -0.18057323 -0.108187936 0.14089686 -0.1331255
0.11414912 0.119841926 0.12210968 -0.12909904 0.11978078 -0.12136309 -0.11540239 0.12683101
0.10973509 -0.10475848 0.046939407 -0.0977914 0.12490883 -0.07750459 -0.13375838 0.12580332

predictor.net.3.weight f4 [1, 32]
00000000: 8e24 2e3e 1118 803d 2443 883d d608 2d3e
00000010: 3b97 813e 48fd 59be e199 a73e 1e08 dcbe
00000020: be7f 1abe 542c b2bd afa6 18bf 2a38 943d
00000030: f51c 97bd 4bb4 fdbb cbc7 523d 4f0b 62be
00000040: 1264 a13d eb40 8b3e 67de 653d 076b acbe
00000050: 3523 2c3d 93e5 89bd 4b82 0bbe e2ad b13d
00000060: 77de 4c3d 9d37 b5bc c2d2 f5bd 29ea 46be
00000070: 8160 443e e042 1dbd 7a11 5cbe b916 913e
0.17006132 0.0625459 0.06653431 0.16897902 0.25310692 -0.21288025 0.32734588 -0.42974943
-0.15087792 -0.08699861 -0.5962934 0.07237275 -0.0737857 -0.00774244 0.05146007 -0.22074626
0.07880415 0.27197966 0.056120303 -0.33675405 0.042025764 -0.06733241 -0.13623922 0.08675744
0.050016847 -0.022121245 -0.120030895 -0.19425263 0.19177438 -0.038393855 -0.21491042 0.2833765

net.0.weight f4 [60, 35]
00000000: 15d3 2d3e 11fb 163e 1c3e 7c3e c270 aabd
00000010: e794 523d e32c 413e 338d b03c 3780 a63d
00000020: 1e78 523e 5311 e9bd c8f0 32be 6f6d 4c3e
00000030: a7ac 723d 282f 0cbe ca2d 673e ad1d d0bb
00000040: 7edc 033c 6388 ad3c ac6f 403e 4bce 5b3e
00000050: 18ac 2a3d cecd ea3d acb9 ba3d a8c3 e2bd
00000060: 8e21 e0bd 20b8 103e 2b7d afbd 9421 a1be
00000070: 6923 8e3e 6b25 f13c ebdc e43d 5a5b 033e
00000080: a36c eebd 2318 4abe a706 9bbe 4e50 49bd
00000090: 827e ddbc 42c9 e33c e078 c5bd fe79 42be
000000a0: 23e6 4bbc b3ec 71bd ee9a 63be b633 263e
000000b0: e1fe b3bc 27c6 4cbe 31d2 a5bd a168 29be
000000c0: 3595 5abe a2dc 9d3d 80fe 7dbe beec 9f3d
000000d0: 7f60 8d3d c4f3 3bbe 1522 583d 01b1 2d3e
000000e0: fc56 f13d 8e20 6f3e 7660 613d 610e 48bb
000000f0: 48c3 48be 95d2 da3d 9daf 9fbe 0856 63be
00000100: b3aa 633b 4bc6 e2bc 0162 55bd 6306 6bbe
00000110: 6ecb 9d3d cfbe 94bd 21c6 00be 82ff f03d
00000120: 825d 2d3e e732 84bd e836 143e aec2 91bd
00000130: 50d7 043c ced8 863d 697c 30bd 0c1e 42be
00000140: fef2 ad3d ad6b 813d 17e0 48be 7b54 413e
00000150: 5cf7 f43c 56c5 d43d ebe5 373e 8177 9bbc
00000160: c50c 953e f836 903d 9934 083e 72cc 00be
00000170: 2ba3 3dbe 0bdc 163e 0735 dcbd c63d 7cbd
00000180: 5c66 de3d e498 23bd d762 2e3d 3bb2 923c
00000190: 6bbc 5bbd 80cc aabd d098 073d 4cc6 f6bd
000001a0: c693 70be f1ea abbb b532 d2bd 5beb 9fbd
000001b0: 3eb5 96bd ebea 69be ad60 033d 5ae8 93bd
000001c0: 2717 983d a7f0 293e 330f 363e bd16 d93d
000001d0: 3b53 fbb9 f815 55bc 7606 0f3e f662 253d
000001e0: 3332 d6bd 4b55 5a3d 8ef6 263e 93a5 3d3d
000001f0: 4c76 533c c438 383e 5d9a 04bd f7a9 2e3d
00000200: 8699 11bd 3d3d 0ebe ea52 03bc b8ce 1c3e
00000210: 6268 8e3d 80d7 1b3e a9c1 143d 196b 82be
00000220: cf5e acba 2c7c 013d 0b85 9d3d 4836 3dbd
00000230: af5e 3cbe af71 19be afa8 ed3d 557f 4bbd
00000240: e093 4b3e 6c8e 8f3d cfb4 25be 8885 2fbd
00000250: 9f83 783d b894 1a3e e752 62be 671f 8f3e
00000260: 9386 c53d e6a7 7ebe ad00 763e ee2f c4bd
00000270: d615 973e cb59 3cbe 64a0 86be 7038 90bd
00000280: ba9a 8a3c c3c9 233e 63fe 363d 3ec8 25bd
00000290: 0b46 1fbe 78a8 bdbd 0a61 b13e 5b70 e43d
000002a0: 7b5f 153d dc21 34bd 875a 12be 4025 4cbe
000002b0: f544 1fbe 445e d63a 1352 323e b42c 59be
000002c0: 1bc7 0bbd d8ac 00bd 75f9 263e b751 dfbd
000002d0: b33f c7bc 5933 73bd 6415 d53d ef91 87bd
000002e0: cec5 263e 3d51 173d babf 5ebe e725 f2bc
000002f0: bacd 4c3e 51d0 15be 005c 77bd ffb4 0f3e
00000300: d8f5 80bd 86b0 8a3e 62a2 b03c e10c fe3d
00000310: 305e 0e3e 186d 3fbe 99ce 29bd 69ed 4ebd
00000320: b28d 633d 709a 44be f0ae 04bc 823c 893e
00000330: ad54 3cbd 8bcf a4bd 5db1 323e b01b 9b3d
00000340: 19a6 afbd bab8 26bc 3b86 fabd 42d9 26be
00000350: 9963 f9ba 8b09 453d a563 9c3c 3a97 3bbc
00000360: 061e 30be 9619 19bd c9b4 5e3e 7690 73bd
00000370: 253b 543e 7e2c b9bd 4189 7f3e e528 6cbe
00000380: af12 463e dd21 783d 0e75 98bd c103 e13d
00000390: 385f 243d 41b7 433d da37 ed3e 6069 22bb
000003a0: 5e85 b0bd ec25 e13c 5e49 4dbe 1466 303d
000003b0: fe72 dbbd 2a0a 25bd f28e 573e d69e eebc
000003c0: 318a 39be b77a fbbd ba76 07be 429d 9e3d
000003d0: 82fd 6cbb 2965 4e3e 8acf a5bd 9a0a 16ba
000003e0: 951f 1c3b 0914 b0bd 6791 21be 6132 ce3d
000003f0: 26ca 2a3d d5b8 cabd 3a0b 30be e98c 5fbe
0.16975053 0.14744212 0.24633068 -0.08322288 0.051411536 0.18864779 0.021551704 0.08129924
0.20553634 -0.113802575 -0.17474663 0.1996362 0.059246685 -0.13689864 0.22576061 -0.006351194
0.008048175 0.021183198 0.187926 0.21465413 0.041668028 0.114650354 0.09117445 -0.11072475
-0.109439 0.14132738 -0.08568796 -0.3147093 0.2776139 0.029436788 0.11174949 0.12827817
-0.116418146 -0.1973577 -0.30278513 -0.04914885 -0.027037863 0.027805928 -0.09642196 -0.18991849
-0.012445006 -0.059063625 -0.2222707 0.16230664 -0.021972122 -0.19997464 -0.080967315 -0.16543819
-0.2134598 0.07708098 -0.24804115 0.07808827 0.06903171 -0.18354708 0.05276688 0.16962053
0.11784169 0.23352262 0.055023633 -0.0030526149 -0.19605744 0.106846966 -0.3118867 -0.22200787
0.0034739196 -0.027682444 -0.052095417 -0.22951655 0.07704817 -0.07262956 -0.1257558 0.11767484
0.16930202 -0.06455021 0.1447407 -0.0711721 0.008107975 0.06584321 -0.043087397 -0.18956774
0.08493613 0.06319366 -0.19616733 0.18879883 0.029903106 0.10389201 0.179588 -0.018977882
0.29111305 0.070417345 0.13301314 -0.1257799 -0.18519275 0.14732377 -0.10752302 -0.06158235
0.10859367 -0.03994073 0.04257473 0.017907253 -0.053646486 -0.083397865 0.033104718 -0.12049541
-0.23493871 -0.005246513 -0.10263578 -0.07808562 -0.07358788 -0.2284352 0.03207462 -0.07222052
0.07426291 0.16595708 0.17779236 0.1060004 -0.00047936462 -0.013005726 0.13967308 0.04037758
-0.104587935 0.053303998 0.1630499 0.046300482 0.012906622 0.17990404 -0.032373775 0.04264256
-0.035546802 -0.13890548 -0.008015374 0.15313232 0.06953503 0.15218925 0.0363175 -0.25472334
-0.0013150814 0.03161256 0.076913916 -0.046194345 -0.18395494 -0.14984773 0.116044395 -0.04968198
0.19880629 0.07009587 -0.16182254 -0.042851955 0.0606724 0.15095794 -0.22101937 0.27953646
0.096448086 -0.24868736 0.24023695 -0.09579454 0.29508847 -0.18393628 -0.26294243 -0.070420146
0.016919482 0.15994935 0.044676196 -0.04047417 -0.15554063 -0.092606485 0.34644347 0.111542426
0.03646801 -0.043977603 -0.14292346 -0.19936085 -0.15553649 0.0016354998 0.17414121 -0.21208459
-0.03412543 -0.031414837 0.16306098 -0.10904258 -0.024322366 -0.05937514 0.104044706 -0.066196315
0.16286394 0.03694271 -0.21752825 -0.029559089 0.20000353 -0.14630248 -0.060390472 0.14033888
-0.06296891 0.27087802 0.021561805 0.124048 0.13903117 -0.1869396 -0.041456793 -0.05051938
0.055555053 -0.19199538 -0.008098349 0.26803976 -0.04597919 -0.08047398 0.17450471 0.0757364
-0.085766025 -0.010175878 -0.12232634 -0.16293815 -0.0019026875 0.048104804 0.019090483 -0.011449629
-0.17198953 -0.037377916 0.21748652 -0.05946394 0.20725687 -0.09041689 0.24954702 -0.23062475
0.19343065 0.06057917 -0.074442014 0.10987044 0.04012987 0.047782186 0.46331674 -0.0024782047
-0.08619188 0.027483903 -0.20047519 0.0430661 -0.107152924 -0.040292896 0.21050623 -0.029128473
-0.18119122 -0.122792654 -0.13228884 0.07744838 -0.0036161845 0.20155777 -0.080962256 -0.00057236257
0.0023822535 -0.085975714 -0.15778123 0.10068203 0.04169669 -0.09898535 -0.17191783 -0.21831097

net.0.bias f4 [60]
00000000: e894 833d bbcf 7dbd a501 1cbe 0c44 18be
00000010: 09ff 703d 5b78 893c 2d5f 2ebc 2ee8 6c3d
00000020: 8c1e 1cbe 81de 143e 153c 163e a88c 193d
00000030: 5da6 b23d 19f8 15bd 9792 0abc daa3 1fbe
00000040: 1726 e03d a384 2b3d fb9e 283e eddc bebd
00000050: 20cc 9f3c 24c1 f83d 0b3a ae3c 545b 10be
00000060: 5788 eebc 9242 2e3b 1237 f0bd aa43 d6bd
00000070: 61b8 073e d221 583d cc29 fcbd 504f c23d
00000080: df7a 973d c641 52bd 13aa 7f3d e88d f13d
00000090: 8169 cdbd c391 133e 8247 57bd 9430 d33d
000000a0: 50dd 16bc a005 d23d 7fff b23d 4331 f3bd
000000b0: d4f0 efbb 103f 5b3d e30e 0b3e 807a a93d
000000c0: d339 74bc a9f7 8abb b90c 11be 39a2 f3bd
000000d0: 9e54 9bbc b4f4 b1bd 4077 59bd 305a e7bc
000000e0: 3b98 203e a4ff 68bd d2f7 26be f43c 46bd
0.06424886 -0.061965685 -0.15235002 -0.14869708 0.05883697 0.016781023 -0.010642809 0.05783861
-0.15246028 0.14538004 0.14671357 0.037487656 0.087231375 -0.036613557 -0.008457801 -0.15589848
0.10944765 0.04187454 0.16466896 -0.09319482 0.019506514 0.12146214 0.021267911 -0.14097339
-0.029117746 0.0026589972 -0.11729254 -0.10462125 0.13253929 0.05276663 -0.123126596 0.09487784
0.07396483 -0.051332258 0.062418055 0.117946446 -0.10029889 0.14411072 -0.05255843 0.10312
-0.009208038 0.10254979 0.08740138 -0.1187463 -0.00732241 0.053526938 0.13579898 0.08275318
-0.0149063645 -0.004240949 -0.1416501 -0.11896176 -0.018961247 -0.086892515 -0.05309224 -0.028241247
0.15683071 -0.056884423 -0.16305473 -0.048397973

net.2.weight f4 [60, 60]
00000000: 7e2a dcbd 9721 1a3d 7fcf 5b3d 62ba a4be
00000010: 9054 2dbd e601 dfbd 0862 08bd 14d5 edbc
00000020: 32f4 65be a147 27be 402f 703d db2a 20be
00000030: 5de6 febd 451e 1d3e 0533 153e 9871 c6bd
00000040: e6ac 623e fd76 40be 34c9 5fbd d63f 703d
00000050: fb13 8d3d 5398 713e c91d f3bd fa73 bcbd
00000060: b5d3 d23d 941b 9dbc 47f4 ce3d 1526 92be
00000070: 9b08 09bc 0a21 c8bd 9f07 4e3e 7fd0 4dbd
00000080: 33dc 1a3e dcd6 46be 89ae 92bd 8b61 37bc
00000090: 0896 d83d 29bf 8e3d e421 dcbd 61b1 673d
000000a0: ae3d 87be c32d 4bbc 98ba 3abb 9de1 6d3d
000000b0: 2582 44be 52d7 4f3e 57a2 05bd 9113 4b3d
000000c0: aa9b b13b 2252 8ebd 0a26 afbd 0691 0ebe
000000d0: 08f3 cc3d 19b4 99bc ba11 4e3c 73e6 9fbd
000000e0: a259 0ebe 6f60 0d3e 3a69 963b 1d90 c9ba
000000f0: b16a 14be dbfc 273c 20ac 8bbe 25be ab3e
00000100: 4219 843d 79d0 cabd b027 2a3e 53e4 013d
00000110: 50db 9a3c 73e0 ef3d cfb1 863e 8917 543e
00000120: 65a4 66bd 25fc ca3a c0da 0cbe 16ed 7b3e
00000130: 3840 0d3b 5e3f 48bd 1dcf d0bc 0c1b 48be
00000140: e81b b7bd fb04 2e3d 914b 173d 3a9b b4be
00000150: 522d 1fbd b9f4 0dbe c4c8 02be 6e4a c73d
00000160: 5753 293d 1dc4 90be fa0a 1e3e fed0 663e
00000170: 2ed0 c5bd 8eaa ef3c 3f65 13be c1c8 a93d
00000180: f7fc c63d 6f00 1bb9 1335 9c3e f134 eebd
00000190: 7473 8d3d cc66 4cbb a043 46bd 6a60 4bbe
000001a0: adf7 743d 7266 d73c d24a 943a d69c edbd
000001b0: 03bd 9dbe d706 a3bd 04f3 98bc c902 d7bd
000001c0: 85f7 a5bd 3e07 c3be 1e02 f9bc fb72 6dbc
000001d0: c85d 6f3e 7873 423c feac 79bd 4fe5 9e3d
000001e0: 71a7 b7bd c134 2bbe 02ef 873d f059 ac3e
000001f0: 1875 80bc 71f6 9b3d a407 5a3e f343 e0bc
00000200: 9770 89bd c577 b3be 987e 1abe 8995 893c
00000210: 0253 013e f33b 2f3d bba1 c13d e087 3abe
00000220: 0042 193e 5fc8 993d 4048 55be 257f e1bd
00000230: 548a 4fbd 03b0 3ebe 12f4 813c b29c 0f3c
00000240: 0d5b d2bc 8c7b 0c3e 14da 2abe b386 cd3c
00000250: e16f d73d 6032 863d dc73 e73d 11a1 c7bd
00000260: 219d 2c3e 25ab 62bd 2fa5 f8bd a6c5 2f3d
00000270: d141 053e 0086 983d bc44 633e f070 593e
00000280: ac1b 6bbc 9839 153d 36c6 213e fbbf 2fbc
00000290: 3bd9 5b3d cba5 e43d a7fb a93c 42e8 123e
000002a0: f7ae 8bbe 3a58 2bbd 8d4d 0cbd 732e e9bd
000002b0: f3fa 21be 2a30 083e f338 0cbe 31c7 90bd
000002c0: 33f3 d2bb d239 49be bfdf d73a 9895 a33d
000002d0: 6725 97bd a63a f1bd ad76 b9bd 0ecf 6b3d
000002e0: 77c7 d53c 388a b4bd 653c 333e 83b5 ce3c
000002f0: 40f3 a0be 1cab cbbd 4066 4ebc 9ec2 913e
00000300: e405 15bd d333 bf3d 3d79 2f3e 2dda 353d
00000310: bc64 c93c 2f09 933d a8b4 17bd 1bbb cabc
00000320: 45c2 5b3e 3f76 f1bc d996 edbd dce0 4bbd
00000330: 1dea 8abd 9921 f63d f415 663e a34a 29be
00000340: 757e 333e a45c 12bd 5c9a 2ebe c960 5dbe
00000350: 2715 f8bc ac8e 00be 32bd a83d 1890 c4bd
00000360: 1e43 423d 7e11 50bd 9165 2cbd 0c69 f1bc
00000370: 047d 15bd 1e11 5c3e b925 463e dca0 e4bd
00000380: d4e9 1f3c c58e 0f3e 7de2 4bbd a23e 8ebc
00000390: 7fed 11be 1331 63be 3371 7bbb f43d 11be
000003a0: 5bfe 8cbd 12ea cbbd 75d0 a0bd 9e64 4a3e
000003b0: 72df 3a3e 16da 343e 15be 773d 1cdf 343e
000003c0: af7d 193d 1943 a7bc 4bbf 70be 99bc 22bd
000003d0: 51d1 0d3e f89e 183e 3c20 bdbc 5430 7bbe
000003e0: 214d 97be 12d4 c039 513e 903d a321 fa3c
000003f0: d8d5 a23d da39 163e 2029 1bbd 7bef 91bc
-0.10750292 0.03762969 0.05366468 -0.3217345 -0.042316973 -0.10889034 -0.033296615 -0.029032268
-0.22456434 -0.16335918 0.05863881 -0.15641348 -0.12446282 0.15343578 0.14570244 -0.09689635
0.22136268 -0.1879539 -0.05463524 0.05865463 0.068885766 0.23593263 -0.118709154 -0.09201808
0.10294286 -0.01917819 0.10105186 -0.2854468 -0.008363868 -0.09771927 0.20120095 -0.050247665
0.15123062 -0.194179 -0.07162196 -0.01119269 0.10575491 0.06970055 -0.107486516 0.056565646
-0.26414245 -0.012401047 -0.0028492566 0.05807649 -0.19190271 0.20296982 -0.032625522 0.049579207
0.005420168 -0.06949259 -0.08552177 -0.1392251 0.10007292 -0.018762635 0.0125774685 -0.078076266
-0.1390138 0.13806318 0.0045901807 -0.0015378032 -0.14493825 0.010253157 -0.27279758 0.33543506
0.0645013 -0.09903044 0.16616702 0.031711888 0.018903404 0.11712732 0.26307532 0.20712103
-0.056309123 0.0015486522 -0.13755322 0.2460216 0.002155317 -0.048888557 -0.025489384 -0.19541568
-0.089408696 0.04248522 0.0369373 -0.35274678 -0.03886158 -0.13862886 -0.12771899 0.09730993
0.041339245 -0.28274623 0.15433875 0.22540662 -0.09658848 0.029256132 -0.14394091 0.08290244
0.09716218 -0.00014782113 0.30509242 -0.116311915 0.069067866 -0.0031189201 -0.048404336 -0.19860998
0.059806515 0.026293967 0.0011313802 -0.1160218 -0.30808267 -0.07960289 -0.018670566 -0.10498578
-0.08103851 -0.38091463 -0.030396517 -0.0144927455 0.23375618 0.01186835 -0.060955994 0.07758581
-0.08967484 -0.16719343 0.06637384 0.33662367 -0.015680835 0.07615364 0.21291977 -0.02737615
-0.06710928 -0.35052314 -0.15087354 0.016794937 0.12629321 0.04278178 0.09454676 -0.18215895
0.14966583 0.07508921 -0.20828342 -0.11010579 -0.05066903 -0.1862183 0.015863452 0.008765386
-0.025678182 0.13719004 -0.16684753 0.025088644 0.10519386 0.06552577 0.11301395 -0.09747518
0.16856815 -0.055338997 -0.12140881 0.0429131 0.13013388 0.074474335 0.22194189 0.21234488
-0.014349859 0.03643188 0.15798268 -0.010726924 0.053673964 0.11164435 0.02074988 0.14346412
-0.27281925 -0.041832186 -0.034253646 -0.113858126 -0.15818386 0.13299623 -0.136936 -0.07069243
-0.006437683 -0.19650963 0.001646988 0.07987517 -0.07380181 -0.117787644 -0.09055839 0.05757051
0.026096089 -0.08815426 0.17503507 0.025233036 -0.31435585 -0.09944746 -0.0125976205 0.28468794
-0.03638257 0.093360566 0.17136092 0.04439752 0.024584167 0.07179486 -0.03703752 -0.024747422
0.21460827 -0.02947533 -0.116010375 -0.04977499 -0.06782935 0.12018127 0.22469312 -0.16532378
0.17528708 -0.03573288 -0.17051071 -0.21618952 -0.030283524 -0.12554425 0.08239211 -0.09597796
0.04742729 -0.05079793 -0.04208905 -0.029469036 -0.036496177 0.21490905 0.19350328 -0.11163494
0.009760339 0.14019306 -0.049776543 -0.01736385 -0.14250754 -0.22186689 -0.0038367033 -0.1418379
-0.06884452 -0.09956755 -0.0785226 0.19764945 0.182493 0.17661318 0.06048401 0.17663234
0.037473377 -0.020417737 -0.23510472 -0.039730642 0.13849379 0.14904392 -0.02308666 -0.24530154
-0.29551032 0.00036779098 0.07043136 0.030533617 0.07950944 0.14670506 -0.037881017 -0.017814388

net.2.bias f4 [60]
00000000: 49a9 573d 9816 9bbd f790 e13d d68b 0abd
00000010: 7a9a e3bd 8f8e debd ce25 babd 0fc3 c93d
00000020: 360f ca3d 2c9e c7bc d094 b83c 9866 07bd
00000030: 6a6b 2c3d 9f7b f9bc 1b3c a5bd cb0a f6bc
00000040: f979 3fbd 4469 d9bd a94c 343d 8c9c b93d
00000050: 68b5 08be baa7 4bbc ce28 72bd ae73 c3bd
00000060: 2036 2e3d 41a2 bcbd f4e4 e03d 488b 3bbd
00000070: ff45 b6bd 5025 2cbd 2a0b 0b3c aa35 033e
00000080: 16dd c4bd b96d fe3c a28e d8bc 6f6b 433b
00000090: d6b4 933b c61e 64bd 96fe 8ebb fd94 be3d
000000a0: c488 693d 72d9 2dbd 3395 b9bd a52e 663d
000000b0: 8c7d 55bc a636 e4bd b609 a5bd 850d edbd
000000c0: 779a 453c b491 113d 302e f9bd 9644 f3bd
000000d0: 147d 9d3d 7e31 2a3d 3fec ae3d 0167 a9bd
000000e0: 2342 e9bd e55c e73d acc2 c9bd 943c c53c
0.052651677 -0.07572669 0.11013978 -0.033824764 -0.111134484 -0.10867035 -0.09089242 0.098516576
0.098661825 -0.024367414 0.022531897 -0.033056825 0.042094626 -0.030454455 -0.08068105 -0.030034443
-0.04674718 -0.10615781 0.04401842 0.09063062 -0.13350451 -0.012430126 -0.059120946 -0.095435485
0.042532086 -0.09210635 0.10981169 -0.045787126 -0.089000694 -0.04202777 0.008486548 0.1281344
-0.09612481 0.03105818 -0.0264352 0.0029818674 0.0045076413 -0.05569341 -0.004363845 0.09305761
0.057015195 -0.0424437 -0.090616606 0.056196827 -0.013030421 -0.11143236 -0.08058493 -0.11574844
0.012060753 0.035539344 -0.12167013 -0.11878316 0.076898724 0.041551106 0.08541154 -0.082715996
-0.11389568 0.11297015 -0.09851584 0.024076737

net.5.weight f4 [1, 60]
00000000: 9dc0 ddbd d3a3 fabd 8a19 8e3e 020f a5be
00000010: 691e c33d c3f9 df3d 0139 86be d557 3a3d
00000020: 68eb 3c3e ec84 23bd 6e42 5bbe 7e0a d93c
00000030: e6b7 19bd 53f0 eebd cd07 e33c 92a8 c33d
00000040: 364c d33c d393 21bd 6b1b acbe bce8 3abe
00000050: d53f 81be db11 0cbe 96c8 8cbe fa33 923e
00000060: cc7e d43c c56e 013d e0fb 1d3d 1efe 353e
00000070: 0ddf d43e 129e 033e 4ff8 a23e c1ab bf3d
00000080: fe48 2fbe 9eac 803d 5bfc c9bc b8d1 6e3c
00000090: 4cbe 92be fef7 fb3e 6e07 e13d 54df 89bd
000000a0: 0c75 a03b 5ede d2bc 58cc 94be 9537 0fbe
000000b0: a80e 343e 5ccd 92b8 77cc 663b a3f2 d43c
000000c0: dd68 d53d e7f4 073c 732f 08be bdf6 46bc
000000d0: 6ae5 d0bd 52e8 9abe 1235 593d 161e 303e
000000e0: 7832 a93c 62cb b0bd 63c5 76bc 11d9 3a3d
-0.10827754 -0.12238278 0.2775386 -0.32238013 0.09527285 0.1093631 -0.26215366 0.04549392
0.18449175 -0.039921686 -0.2141206 0.02649426 -0.037528895 -0.11666932 0.02771368 0.095536366
0.025793176 -0.039447617 -0.33614668 -0.18252844 -0.25244012 -0.13678686 -0.27496785 0.2855528
0.025939368 0.03159978 0.038570285 0.1777272 0.41576424 0.12853268 0.3183007 0.09358931
-0.17117688 0.06282924 -0.024656465 0.014576368 -0.2866081 0.4921264 0.10987745 -0.067320496
0.0048967656 -0.025740799 -0.29062152 -0.13986047 0.17583716 -7.000074e-05 0.0035217085 0.025994604
0.10420392 0.008298135 -0.1329935 -0.012143788 -0.10200007 -0.3025537 0.053029127 0.17198977
0.020653948 -0.08632542 -0.015061709 0.045617167
