results/PINN/NASA results/3-3/Experiment6/model.pth (torch, 59646 bytes, 14 tensors)

encoder.net.0.weight f4 [60, 17]
-0.050277583 -0.19596188 0.04136093 0.12165758 -0.18300465 0.06174989 0.08211193 -0.072850876
-0.2628902 -0.43323904 -0.014768106 0.022780633 -0.13103348 0.038000684 -0.119490646 -0.056934096
-0.17463712 0.06257487 0.115853384 -0.14543761 0.04709752 0.109475054 -0.050975285 0.11945679
0.089557365 -0.095552325 0.06839299 0.42083222 -0.2626169 0.2364009 0.14523505 -0.10186922
0.1979525 -0.18902417 -0.083319105 0.23588008 0.25856903 -0.25562033 -0.11647329 -0.16755877
-0.15034789 -0.15481505 0.13869874 0.07164327 -0.11972451 -0.1759637 0.31330603 -0.109571055
0.063921586 -0.16878416 -0.036542986 0.16120073 -0.016091386 0.1526267 -0.0025769102 0.11693292
-0.14416346 -0.30300704 -0.077133715 0.10188955 -0.22077699 -0.040213823 -0.16086812 -0.10120118
-0.0012941944 0.15199053 0.017734904 -0.07194928 -0.06625481 -0.037686504 -0.33803347 0.20756908
-0.036575876 0.09879667 0.0026814477 0.31409946 -0.23190878 0.13177897 -0.030690571 -0.11045097
0.21854298 -0.1629753 0.07977169 0.11781674 -0.02781333 0.072210066 -0.2522324 0.05188524
0.16729699 0.024721583 0.14671047 0.11517822 0.07843975 -0.01261329 -0.10400405 0.20643805
-0.18247248 -0.095619924 0.024848463 -0.2242805 0.36901683 -0.113511644 0.08707688 -0.045079224
-0.17012782 -0.22608474 -0.25241038 0.02143021 0.273774 0.010621244 -0.07154596 -0.07226231
-0.30117026 0.22595897 0.10941942 0.13336408 0.24645273 0.17524436 0.15797585 0.28554207
-0.27316 0.06184044 -0.1407879 0.20265199 -0.027359705 -0.011812709 -0.19736159 -0.2639027
-0.025717158 0.10554039 -0.13115436 -0.068708956 -0.025413383 0.053019352 0.17384781 -0.17449781
-0.011242205 0.012483936 0.024692003 -0.21596551 0.23029551 0.12772453 -0.07676014 0.17341425
0.10513961 -0.14527518 0.098538496 -0.16576816 -0.08294311 0.23625953 -0.010201426 -0.14068148
0.16992976 -0.11482527 -0.22673842 -0.14430045 0.009406495 -0.06430756 0.028054867 -0.034563776
-0.08422939 0.14398557 0.07495796 -0.08208084 -0.10091363 0.12992239 -0.11475825 -0.016565701
-0.24385755 0.03688884 -0.18092746 -0.08766966 0.20338963 0.320813 0.13785641 -0.127727
0.11979513 -0.0066290093 0.16179417 0.19189508 0.05142627 -0.19235133 0.013025789 -0.20630394
-0.06909665 -0.25327373 0.057906955 0.21581188 -0.15717247 -0.07496347 -0.03155956 -0.009179402
-0.24404414 -0.034009393 -0.1045808 0.074321054 -0.010277756 0.19478394 0.16559198 0.28849736
-0.22333457 0.28371057 0.19673392 -0.006094781 -0.10698088 -0.036752503 -0.038147736 0.11252697
-0.017694764 -0.09908927 -0.10766536 0.10147647 0.2838664 -0.14972976 0.19990225 0.05432428
-0.09728957 0.23626024 -0.23323654 -0.29060444 0.14160493 0.19700441 -0.07280622 -0.33372945
-0.0014098908 0.048802763 0.10269799 0.19157638 0.272851 -0.25457543 -0.0008742796 0.022102494
0.027286083 -0.2688015 -0.017574681 -0.10423283 -0.14854662 0.090213306 0.021465465 0.059402682
-0.046068884 -0.16476971 -0.062249523 -0.08299491 0.20151706 0.2517904 0.15888534 -0.02039127
-0.07715092 -0.082831495 -0.16618465 -0.15600298 0.08359605 -0.2542598 -0.04306138 -0.16979693
00000000: deef 4dbd 3baa 48be 146a 293d 9c27 f93d
00000010: 9265 3bbe 74ed 7c3d 4d2a a83d d732 95bd
00000020: 8b99 86be 82d1 ddbe edf5 71bc 739e ba3c
00000030: a42d 06be 9ba6 1b3d 83b7 f4bd ba33 69bd
00000040: 13d4 32be 4127 803d 8a44 ed3d 99ed 14be
00000050: 54e9 403d 7534 e03d 76cb 50bd c3a5 f43d
00000060: da69 b73d f0b0 c3bd a011 8c3d 5277 d73e
00000070: b975 86be 1413 723e 7fb8 143e cfa0 d0bd
00000080: 0fb4 4a3e 8d8f 41be 35a3 aabd 8c8a 713e
00000090: 2963 843e abe0 82be 8c89 eebd 8794 2bbe
000000a0: ccf4 19be d687 1ebe 0b07 0e3e b5b9 923d
000000b0: 2032 f5bd d42f 34be a669 a03e ca66 e0bd
000000c0: 52e9 823d c1d5 2cbe 19ae 15bd ce11 253e
000000d0: 15d2 83bc 2c4a 1c3e 61e1 28bb 877a ef3d
000000e0: 969f 13be bd23 9bbe 48f8 9dbd 78ab d03d
000000f0: 5d13 62be 40b7 24bd 9dba 24be 9042 cfbd
00000100: f5a1 a9ba 68a3 1b3e ca48 913c 255a 93bd
00000110: 9ab0 87bd 2a5d 1abd b912 adbe fd8c 543e
00000120: 96d0 15bd e955 ca3d 3abb 2f3b a5d1 a03e
00000130: 7f79 6dbe 11f1 063e cb6a fbbc 1e34 e2bd
00000140: bbc9 5f3e ffe2 26be 575f a33d e749 f13d
00000150: c8d8 e3bc dfe2 933d 9b24 81be 9e85 543d
00000160: e74f 2b3e eb84 ca3c 453b 163e 8fe2 eb3d
00000170: 05a5 a03d f9a7 4ebc 1300 d5bd 7f64 533e
00000180: 11da 3abe 61d4 c3bd 018f cb3c caa9 65be
00000190: c6ef bc3e cb78 e8bd 5d55 b23d fea4 38bd
000001a0: fd35 2ebe c282 67be ef3b 81be 688e af3c
000001b0: 1b2c 8c3e ba04 2e3c b086 92bd 43fe 93bd
000001c0: fd32 9abe ca61 673e 4a17 e03d 9890 083e
000001d0: 1b5e 7c3e 4273 333e 6cc4 213e 9232 923e
000001e0: a1db 8bbe 674c 7d3d b42a 10be 0184 4f3e
000001f0: 7621 e0bc 188a 41bc 2819 4abe 411e 87be
00000200: caac d2bc 8f25 d83d 544d 06be 48b7 8cbd
00000210: ba2f d0bc d22a 593d 2905 323e 8eaf 32be
00000220: 3a31 38bc 6c89 4c3c e246 ca3c 1026 5dbe
00000230: 96d2 6b3e 38ca 023e 6c34 9dbd 8193 313e
00000240: 7053 d73d 04c3 14be 8dce c93d 21bf 29be
00000250: 14de a9bd 05ee 713e e223 27bc ce0e 10be
00000260: 1102 2e3e 8329 ebbd 1e2e 68be 7fc3 13be
00000270: b31d 1a3c afb3 83bd 52d3 e53c bf92 0dbd
00000280: 7580 acbd f470 133e 8f83 993d 001a a8bd
00000290: ceab cebd 600a 053e 6006 ebbd cbb4 87bc
000002a0: cbb5 79be c118 173d 0c45 39be 278c b3bd
000002b0: 5f45 503e 9a41 a43e 3b2a 0d3e deca 02be
000002c0: 2657 f53d 2938 d9bb 5fad 253e 2580 443e
000002d0: 5aa4 523d bff7 44be 1e6a 553c 5741 53be
000002e0: 8b82 8dbd 18ad 81be d82f 6d3d cafd 5c3e
000002f0: d2f1 20be 7386 99bd 9944 01bd 3465 16bc
00000300: b5e6 79be 6f4d 0bbd 752e d6bd a335 983d
00000310: 0864 28bc 7175 473e f290 293e edb5 933e
00000320: d1b1 64be 8342 913e 9e74 493e bbb6 c7bb
00000330: cb18 dbbd cb89 16bd cd40 1cbd 8a74 e63d
00000340: 9cf4 90bc 51ef cabd a87f dcbd e5d2 cf3d
00000350: f056 913e c252 19be 2db3 4c3e 2383 5e3d
00000360: c13f c7bd 34ee 713e 8fd5 6ebe 1bca 94be
00000370: e200 113e 86bb 493e 6d1b 95bd 96de aabe
00000380: 16cc b8ba 68e5 473d 5353 d23d 992c 443e
00000390: 20b3 8b3e b657 82be e92f 65ba 4a10 b53c
000003a0: 1087 df3c 5aa0 89be c7f8 8fbc 0678 d5bd
000003b0: 9b1c 18be c1c1 b83d 58d8 af3c 3a50 733d
000003c0: bab2 3cbd 64b9 28be 5bf9 7ebd 3cf9 a9bd
000003d0: 7d5a 4e3e acea 803e d7b2 223e 980b a7bc
000003e0: 4d01 9ebd 8fa3 a9bd 4f2c 2abe 3fbf 1fbe
000003f0: 6834 ab3d 572e 82be 2161 30bd 3fdf 2dbe

encoder.net.0.bias f4 [60]
-0.070325054 0.05670228 0.05500172 -0.090380915 0.08786984 -0.06521692 0.061771356 -0.06211983
0.03859966 0.102174364 -0.046401363 0.06097254 -0.10550488 0.060884546 0.07199065 -0.05509781
0.077674806 -0.028445464 0.068717346 0.103772566 0.04913405 0.05265713 0.0043733064 0.046356242
0.06070436 -0.098024845 -0.0724861 0.023725001 0.011599931 -0.056799732 0.046594795 0.0036289303
0.040791262 0.072808646 -0.030528836 0.07888817 0.081386484 0.05580941 0.03445682 -0.1093339
0.099434815 -0.057256736 -0.040753033 -0.060177613 0.02156408 -0.059401296 -0.047408633 0.042295396
0.11630991 -0.0576439 0.07188068 0.07156739 0.0676455 0.0632916 -0.043477125 0.058397166
-0.055353742 -0.084728196 -0.05518617 -0.058422428
00000000: 9506 90bd a640 683d 7c49 613d a119 b9bd
00000010: 1af5 b33d 7390 85bd f603 7d3d 5d71 7ebd
00000020: ad1a 1e3d cb40 d13d 5b0f 3ebd 58be 793d
00000030: f112 d8bd 1362 793d d56f 933d 3eae 61bd
00000040: f813 9f3d 7606 e9bc aebb 8c3d b686 d43d
00000050: c940 493d 01af 573d f44d 8f3b 0be0 3d3d
00000060: 23a5 783d 40c1 c8bd 9873 94bd ef5a c23c
00000070: a30d 3e3c d6a6 68bd 2fda 3e3d 59d3 6d3b
00000080: bd14 273d b31c 953d 9c17 fabc 1f90 a13d
00000090: f5ad a63d 6898 643d 9822 0d3d 74ea dfbd
000000a0: 7ba4 cb3d 0a86 6abd a7ec 26bd cd7c 76bd
000000b0: 27a7 b03c c64e 73bd 8e2f 42bd f03d 2d3d
000000c0: e433 ee3d 031c 6cbd 2e36 933d ec91 923d
000000d0: b989 8a3d 079f 813d 1215 32bd de31 6f3d
000000e0: 9bba 62bd fa85 adbd e50a 62bd 5b4c 6fbd

encoder.net.2.weight f4 [60, 60]
-0.066770196 -0.0029150804 -0.15293247 0.0053271395 0.0017221507 -0.025145119 0.052101463 -0.10240111
-0.09966197 0.05218286 -0.035400804 -0.17362212 0.054261696 0.25433517 0.16877829 -0.23641081
0.06126651 0.032733805 0.01111017 -0.1224161 0.10703787 -0.20252348 0.0675404 0.025055178
0.061299022 0.009800002 -0.084878534 0.0020224468 0.055314332 -0.10673366 0.13786559 0.03591219
-0.027275983 -0.07064782 0.00019518056 0.04598835 -0.0048756585 0.111755945 0.2651618 0.07291065
-0.006437173 -0.07113788 0.28351185 -0.19081855 -0.15990995 -0.14286491 -0.05128048 -0.2436306
-0.0700421 -0.00823736 -0.017587014 -0.028827934 -0.0802466 0.044629317 0.028370118 0.05198328
0.105385624 -0.030242808 -0.15150388 0.06400558 0.015402341 -0.07332103 -0.12782393 0.116580226
-0.0073106377 -0.26010305 0.10050959 0.15902631 -0.15042892 -0.044275776 -0.0053549805 0.120228134
0.09967148 0.15956603 -0.17677605 -0.08652381 0.07195607 0.0019454276 0.059953377 -0.13009454
0.028959943 -0.029086228 0.010994303 0.1225335 -0.18435095 0.21747343 -0.07538534 0.10739481
-0.047323238 -0.022461668 -0.1984432 -0.030508086 0.08063369 0.067959026 0.19264 0.068624675
0.08351024 -0.058610067 0.15777123 0.060343266 0.22618772 -0.07245452 -0.017945187 0.13943294
0.045943316 -0.14105378 -0.030601403 -0.06363882 0.11938425 0.11439156 0.10784902 -0.11654675
-0.06885317 0.14696892 0.11597414 0.029285314 0.21021022 -0.06603127 -0.23481311 0.0014504299
0.22188875 0.16288419 -0.042727686 0.2411971 -0.1318363 0.13119157 -0.055028923 -0.06390596
0.09726752 -0.25258517 -0.10388995 -0.070439555 -0.2504698 0.08042986 0.02287994 0.06575402
-0.07637957 -0.059422046 -0.008641294 0.25150678 0.003783904 0.0027797332 -0.068736 -0.053273246
0.06346289 -0.040581353 0.20580797 -0.13041642 0.052458216 0.009564749 -0.05690557 -0.17863673
-0.051513016 0.08578421 0.058423363 0.06457472 -0.06688869 -0.06794474 0.07643487 0.3577351
0.0841432 0.18200055 0.07023264 0.4186052 0.23493256 0.16180019 0.20347202 0.18636419
-0.07060308 0.032656003 -0.07612642 0.07882476 -0.0500745 -0.01599805 -0.050512105 0.18488437
0.04145089 -0.06825939 0.007487619 -0.18106602 0.055349473 0.058072753 0.31105798 -0.029460173
-0.1892063 -0.0675914 -0.019900529 0.13570273 0.10887875 0.09596593 0.07203831 0.025461705
-0.06433121 -0.13807298 0.0627242 0.05754166 0.08647511 -0.02532404 0.11844224 -0.12747075
0.02592618 -0.084567994 -0.010634358 0.003922539 -0.05975863 -0.13602541 -0.16383934 -0.070259094
0.075957835 0.2145264 -0.121311784 0.010424981 -0.016912207 0.04647746 -0.18665612 -0.17586808
0.054079287 -0.124196455 0.03940337 -0.01975701 -0.017126843 -0.11095119 -0.027166137 0.072881795
-0.09284278 0.042130545 0.0031225178 -0.04532264 0.08332472 -0.10230421 0.06676922 -0.0155450525
-0.102841444 -0.008337465 -0.21589917 0.28223708 -0.05661315 0.24163401 -0.1457925 0.045399576
-0.1707032 0.057488274 0.17405903 -0.11796075 -0.0020914827 -0.1921762 -0.041916884 0.06751104
-0.018778924 0.07223589 0.052096013 0.02362711 -0.029200062 -0.028290007 -0.027887171 -0.044274237
00000000: d0be 88bd ef0a 3fbb 549a 1cbe 498f ae3b
00000010: cab9 e13a 23fd cdbc 5868 553d acb7 d1bd
00000020: 931b ccbd b2bd 553d 6f00 11bd ffc9 31be
00000030: 8341 5e3d 3838 823e 37d4 2c3e ad15 72be
00000040: 98f2 7a3d e213 063d 6e07 363c 4bb5 fabd
00000050: ac36 db3d 5162 4fbe 9f52 8a3d 8440 cd3c
00000060: af14 7b3d 3090 203c ccd4 adbd 078b 043b
00000070: 4891 623d 2d97 dabd a32c 0d3e a918 133d
00000080: e271 dfbc ceaf 90bd 62a9 4c39 485e 3c3d
00000090: fdc3 9fbb 4de0 e43d 4ac3 873e 2e52 953d
000000a0: ecee d2bb bdb0 91bd 7728 913e f065 43be
000000b0: 6fbf 23be 2e4b 12be 7b0b 52bd 4d7a 79be
000000c0: 3c72 8fbd fef5 06bc a412 90bc 8f28 ecbc
000000d0: 5458 a4bd 3bcd 363d 7368 e83c 6bec 543d
000000e0: 6bd4 d73d c4bf f7bc d523 1bbe 5c15 833d
000000f0: 1a5a 7c3c 5629 96bd 47e4 02be 9dc1 ee3d
00000100: 138e efbb 3a2c 85be f9d7 cd3d cbd7 223e
00000110: 0a0a 1abe 845a 35bd d578 afbb 2b3a f63d
00000120: 9020 cc3d 4765 233e c804 35be 6533 b1bd
00000130: b45d 933d b8fd fe3a ac91 753d 8137 05be
00000140: 673d ed3c 3e46 eebc 7321 343c d8f2 fa3d
00000150: 7fc6 3cbe 5bb1 5e3e a163 9abd cff1 db3d
00000160: 03d6 41bd 8801 b8bc b234 4bbe 18ec f9bc
00000170: 4723 a53d 1a2e 8b3d 6c43 453e 188b 8c3d
00000180: 6b07 ab3d 1c11 70bd c88e 213e 802a 773d
00000190: c19d 673e 0963 94bd c901 93bc 82c7 0e3e
000001a0: 0f2f 3c3d 6770 10be cbaf fabc 1255 82bd
000001b0: bb7f f43d 1f46 ea3d f2df dc3d 10b0 eebd
000001c0: e402 8dbd 057f 163e da83 ed3d c1e7 ef3c
000001d0: 5941 573e 673b 87bd d972 70be 5a1c be3a
000001e0: ce36 633e 1dcb 263e 3a03 2fbd 5ffc 763e
000001f0: 1800 07be 1557 063e 0266 61bd 21e1 82bd
00000200: 3234 c73d d852 81be 41c4 d4bd 9d42 90bd
00000210: 943d 80be 69b8 a43d b66e bb3c 0baa 863d
00000220: e46c 9cbd 8864 73bd 3794 0dbc 7fc5 803e
00000230: 60fb 773b 2f2c 363b 76c5 8cbd 0c35 5abd
00000240: d5f8 813d a238 26bd 53bf 523e e28b 05be
00000250: 6dde 563d 77b5 1c3c d115 69bd 8cec 36be
00000260: 50ff 52bd a2af af3d 564d 6f3d c03f 843d
00000270: f0fc 88bd 9d26 8bbd e389 9c3d 0e29 b73e
00000280: 4553 ac3d 5a5e 3a3e 21d6 8f3d 6c53 d63e
00000290: 2992 703e f3ae 253e f85a 503e 41d6 3e3e
000002a0: 5998 90bd 4dc2 053d 2be8 9bbd e06e a13d
000002b0: eb1a 4dbd 580e 83bc c8e5 4ebd 5452 3d3e
000002c0: 69c8 293d 94cb 8bbd b35a f53b 5f69 39be
000002d0: 21b6 623d b2dd 6d3d fe42 9f3e 7656 f1bc
000002e0: 4cbf 41be 5c6d 8abd 6f06 a3bc a8f5 0a3e
000002f0: d2fb de3d c989 c43d d288 933d 1195 d03c
00000300: 15c0 83bd 0163 0dbe 8c75 803d ceb0 6b3d
00000310: dd19 b13d 5c74 cfbc d891 f23d b187 02be
00000320: 2463 d43c fc31 adbd bb3b 2ebc a488 803b
00000330: 77c5 74bd 3f4a 0bbe 80c5 27be 00e4 8fbd
00000340: c88f 9b3d cfac 5b3e 5072 f8bd 8acd 2a3c
00000350: 788b 8abc 265f 3e3d c822 3fbe c316 34be
00000360: 3e82 5d3d b65a febd 6e65 213d 74d9 a1bc
00000370: 984d 8cbc 613a e3bd 858b debc 0d43 953d
00000380: 5b24 bebd 1491 2c3d 28a3 4c3b 3ca4 39bd
00000390: 27a6 aa3d df84 d1bd 4dbe 883d adb0 7ebc
000003a0: 899e d2bd dd99 08bc ac14 5dbe 6181 903e
000003b0: 31e3 67bd e86e 773e a14a 15be e8f4 393d
000003c0: d2cc 2ebe d378 6b3d 883c 323e 6895 f1bd
000003d0: 4211 09bb d6c9 44be 0ab1 2bbd 3a43 8a3d
000003e0: 42d6 99bc 69f0 933d a162 553d a48d c13c
000003f0: f834 efbc 72c0 e7bc a373 e4bc e758 35bd

encoder.net.2.bias f4 [60]
0.052611932 0.0850808 -0.05596429 0.047370084 0.08653122 0.06294317 -0.066796914 -0.08775825
0.036873404 0.018133987 -0.042805858 0.079842776 0.068564385 0.079614684 0.033592705 0.059918135
-0.09536622 0.07289086 -0.07093277 -0.08011115 0.05590982 -0.066754855 0.12239023 0.05375009
0.045952152 0.072190575 0.06475492 0.03692598 0.031408653 0.06035061 -0.08564315 -0.054378457
-0.12104371 -0.06748655 -0.06946525 0.06275618 -0.07034546 0.07439386 0.081798874 0.063864075
0.026374195 -0.035423454 -0.06534833 -0.0064019677 -0.053684358 -0.06560958 -0.07395754 -0.07421788
0.078421906 0.0683519 -0.021360386 -0.06379746 -0.066431865 -0.06503039 -0.052072722 -0.07455644
-0.06810131 0.06971014 -0.038713537 -0.07272273
00000000: 9c7f 573d d83e ae3d d03a 65bd 2207 423d
00000010: 4837 b13d 59e8 803d d2cc 88bd 99ba b3bd
00000020: 9108 173d ba8d 943c 3255 2fbd 9c84 a33d
00000030: 7c6b 8c3d 060d a33d 8198 093d b86c 753d
00000040: 5d4f c3bd ce47 953d 3345 91bd 5111 a4bd
00000050: b201 653d c5b6 88bd bba7 fa3d 0e29 5c3d
00000060: 5338 3c3d a7d8 933d 3a9e 843d b23f 173d
00000070: 5ca6 003d 3432 773d ad65 afbd f2bb 5ebd
00000080: c4e5 f7bd 6336 8abd cc43 8ebd 5086 803d
00000090: 4811 90bd cf5b 983d 2b86 a73d 2bcb 823d
000000a0: b20e d83c 2f18 11bd 58d5 85bd 99c7 d1bb
000000b0: 21e4 5bbd 515e 86bd 0d77 97bd 8bff 97bd
000000c0: aa9b a03d 15fc 8b3d fafb aebc 3ea8 82bd
000000d0: 6e0d 88bd a72e 85bd 354a 55bd 0cb1 98bd
000000e0: b378 8bbd 31c4 8e3d 1692 1ebd a8ef 94bd

encoder.net.5.weight f4 [32, 60]
0.10466589 0.06258739 -0.050385773 -0.024580255 0.03982588 0.14048536 -0.37804186 0.13447608
-0.079731904 0.051161304 -0.09155144 0.18167187 -0.16260305 0.059125476 0.14839306 0.048145946
0.12541506 0.07275471 -0.1202418 0.17445906 0.17038424 -0.13003795 0.05965741 0.2031906
-0.12193609 0.16471237 0.058240347 -0.0376515 -0.20478667 -0.09230802 0.12023218 -0.03495299
0.02113467 -0.30559397 0.2462945 -0.09680991 -0.107280605 -0.27587432 -0.16973303 -0.038502008
-0.3099631 -0.16273557 -0.026656784 0.04644401 -0.24686897 -0.17192422 0.1657653 0.18431528
0.07228874 0.10948483 0.07404284 0.0036328407 0.29529917 0.29637307 0.1425766 0.21418476
-0.06276444 -0.24629511 -0.15877861 0.01906298 0.076407924 -0.005984709 0.31431434 -0.14068341
-0.11851631 -0.024804186 -0.024992242 -0.10435705 -0.2453028 -0.019138293 -0.14998262 0.1443467
-0.16960724 0.077271186 0.021155754 -0.27009696 -0.110338174 0.0020221535 0.08305683 0.12337516
-0.32324615 0.19992013 -0.015824096 -0.102230564 -0.009568665 0.32016495 0.05371096 0.09361879
0.111155644 0.16347356 0.11497161 -0.07633646 0.012507393 0.19820786 0.22766344 -0.052071426
0.18045259 0.117571965 0.02067348 0.050835706 -0.118294954 0.28619933 0.04762574 0.0034435662
0.085648686 0.061190963 -0.08179404 -0.015012972 -0.28167146 0.34156588 0.26112026 0.09579612
-0.1603465 0.14233984 0.10858631 0.0135876965 -0.14194831 0.080258 0.053802375 -0.040800467
-0.069382384 0.059799727 0.069418415 -0.19215666 -0.082442686 -0.026582593 -0.1729086 -0.10569744
-0.17607298 0.04829507 0.03172224 -0.040819325 -0.01758353 -0.17426516 -0.099196866 0.06534341
-0.13978225 -0.017273087 0.050924156 0.13555956 -0.016889561 0.09736206 0.031699166 -0.026259514
-0.1281117 -0.10442039 0.13878477 0.25385532 -0.20187248 -0.28122613 -0.08376691 0.09889949
0.08781263 0.063803814 -0.10999795 -0.1528782 0.0878529 0.057974532 0.16871835 0.026942568
0.13948815 -0.19464085 -0.18437317 -0.28144085 0.056566007 0.009525772 0.22487912 -0.115101874
0.18591633 0.054357525 0.18591128 0.12231016 -0.025444949 0.12970659 -0.1425461 -0.09409993
-0.07630415 0.06399131 -0.06379389 0.31536826 0.054433815 -0.047678445 0.085447006 -0.035177916
-0.0068459474 0.0009598013 -0.016709562 0.04942837 0.024162903 -0.015165772 -0.08200953 0.01337531
0.05670694 0.11232489 0.2035487 -0.03156126 -0.005415588 0.17267853 0.02851186 0.033119984
0.11767762 0.014354697 -0.15712124 0.20859295 0.044614464 0.06626307 0.073387034 0.06212315
0.3624627 0.21396482 -0.034353897 0.0075489595 0.092024766 0.13658695 -0.031147914 -0.13688281
0.010426014 0.15183787 0.003268997 0.29213256 0.07086258 -0.0015464213 -0.124288425 0.018108808
-0.03690358 -0.06404784 0.0006033417 0.017025791 0.14739251 0.20021464 0.09460516 0.13476834
0.19025548 0.03880076 -0.017234936 0.05645188 0.10473114 -0.117583744 -0.02123101 -0.2757017
0.10134916 -0.029717108 -0.054786287 -0.1308037 0.13421634 -0.003586477 -0.109152414 0.1001889
0.0390946 0.017596519 0.21224044 -0.1396844 -0.19951245 -0.026940731 -0.011079241 0.055278633
00000000: 125b d63d d12d 803d 5061 4ebd 885c c9bc
00000010: 7620 233d 65db 0f3e b48e c1be 19b4 093e
00000020: 7b4a a3bd 848e 513d 527f bbbd 3108 3a3e
00000030: 6a81 26be 8e2d 723d 5af4 173e af34 453d
00000040: ce6c 003e 6c00 953d 5541 f6bd 65a5 323e
00000050: 3579 2e3e ab28 05be 545b 743d 3211 503e
00000060: a1b9 f9bd 5caa 283e 6e8d 6e3d 7638 1abd
00000070: 99b3 51be fd0b bdbd 4a3c f63d de2a 0fbd
00000080: 9e22 ad3c d076 9cbe a034 7c3e 4644 c6bd
00000090: efb5 dbbd 663f 8dbe 7fce 2dbe 48b4 1dbd
000000a0: 7cb3 9ebe 27a4 26be 545f dabc 133c 3e3d
000000b0: 38cb 7cbe e70c 30be 61be 293e 25bd 3c3e
000000c0: 1e0c 943d 9539 e03d c6a3 973d f414 6e3b
000000d0: 7431 973e 36be 973e 9aff 113e 4053 5b3e
000000e0: a58a 80bd c934 7cbe dc96 22be f729 9c3c
000000f0: c27b 9c3d 611b c4bb cfed a03e 500f 10be
00000100: aeb8 f2bd 2632 cbbc 88bc ccbc 26b9 d5bd
00000110: a830 7bbe e9c7 9cbc 0b95 19be 9fcf 133e
00000120: 85ad 2dbe 5b40 9e3d d54e ad3c 264a 8abe
00000130: fbf8 e1bd 1b86 043b b319 aa3d 1eac fc3d
00000140: 8580 a5be ddb7 4c3e 89a1 81bc 425e d1bd
00000150: e4c5 1cbc a9ec a33e 0600 5c3d 35bb bf3d
00000160: 92a5 e33d 9d65 273e 3c76 eb3d 4a56 9cbd
00000170: cfeb 4c3c 00f7 4a3e 9b20 693e d948 55bd
00000180: 90c8 383e 92c9 f03d 6e5b a93c 1a39 503d
00000190: a044 f2bd b888 923e 3513 433d 74ad 613b
000001a0: 9468 af3d 60a3 7a3d a283 a7bd f8f8 75bc
000001b0: 3e37 90be b9e1 ae3e 8eb1 853e c230 c43d
000001c0: df31 24be 89c1 113e 8062 de3d ee9e 5e3c
000001d0: e65a 11be 4e5e a43d e15f 5c3d 641e 27bd
000001e0: 5a18 8ebd 8ff0 743d 3e2b 8e3d b7c4 44be
000001f0: b6d7 a8bd bdc3 d9bc f40e 31be e677 d8bd
00000200: 7a4c 34be 0dd1 453d 2eef 013d 2a32 27bd
00000210: 560b 90bc 9172 32be ba27 cbbd c4d2 853d
00000220: 1423 0fbe 4a80 8dbc d995 503d 20d0 0a3e
00000230: fa5b 8abc c265 c73d fcd6 013d 311e d7bc
00000240: b72f 03be 5cda d5bd 981d 0e3e 53f9 813e
00000250: a9b7 4ebe dffc 8fbe fc8d abbd d18b ca3d
00000260: 1cd7 b33d 93ab 823d 9b46 e1bd 1a8c 1cbe
00000270: 39ec b33d b476 6d3d 81c4 2c3e a9b6 dc3c
00000280: fbd5 0e3e ee4f 47be 52cc 3cbe 0419 90be
00000290: c2b1 673d fc11 1c3c b646 663e 88ba ebbd
000002a0: da60 3e3e ffa5 5e3d 875f 3e3e c07d fa3d
000002b0: ed71 d0bc ced1 043e 9bf7 11be 77b7 c0bd
000002c0: 5a45 9cbd e00d 833d 5fa6 82bd f377 a13e
000002d0: fef5 5e3d 794a 43bd d7fe ae3d b816 10bd
000002e0: f853 e0bb 2d9b 7b3a 7ee2 88bc 6775 4a3d
000002f0: 48f1 c53c dc79 78bc 9df4 a7bd 1e24 5b3c
00000300: 8945 683d 980a e63d 126f 503e 6146 01bd
00000310: 3f75 b1bb a4d2 303e b491 e93c d2a8 073d
00000320: f700 f13d f72f 6b3c 64e4 20be 6499 553e
00000330: a8bd 363d efb4 873d f14b 963d d874 7e3d
00000340: b694 b93e 9819 5b3e acb6 0cbd 435d f73b
00000350: 7b77 bc3d 73dd 0b3e e929 ffbc 022b 0cbe
00000360: dfd1 2a3c 637b 1b3e ab3c 563b 6692 953e
00000370: 6620 913d 4ab1 caba ee8a febd ec58 943c
00000380: 3528 17bd 842b 83bd 9329 1e3a ac79 8b3c
00000390: 10ee 163e 1105 4d3e 5ac0 c13d b600 0a3e
000003a0: 55d2 423e 8ced 1e3d 4830 8dbc 163a 673d
000003b0: 487d d63d bfcf f0bd a8ec adbc c628 8dbe
000003c0: 2690 cf3d 4b71 f3bc 9667 60bd 68f1 05be
000003d0: 0270 093e 190b 6bbb 4d8b dfbd d72f cd3d
000003e0: a921 203d 9326 903c 8f55 593e 6d09 0fbe
000003f0: fe4c 4cbe cfb2 dcbc b485 35bc d96b 623d

encoder.net.5.bias f4 [32]
-0.083214976 0.0838838 0.072192416 0.07551863 0.07740235 0.039036166 -0.08018375 -0.04957845
0.028975176 -0.08104098 -0.09304642 -0.07845623 0.06829214 -0.06936961 0.071777165 0.07490876
-0.09170725 0.085075475 0.05361468 0.072458304 -0.022197088 -0.08446936 0.059364717 0.022958506
0.052047778 -0.07574762 0.04866459 -0.10943546 -0.101806775 0.04944851 -0.05771497 -0.0815688
00000000: 9d6c aabd 45cb ab3d 9ed9 933d 83a9 9a3d
00000010: 2085 9e3d 63e4 1f3d 6137 a4bd c612 4bbd
00000020: 595d ed3c d0f8 a5bd 1f8f bebd a9ad a0bd
00000030: c0dc 8b3d a711 8ebd e8ff 923d c469 993d
00000040: 03d1 bbbd 0d3c ae3d 119b 5b3d 0565 943d
00000050: abd6 b5bc 46fe acbd 6b28 733d 7a13 bc3c
00000060: 0d30 553d 9121 9bbd 8554 473d b31f e0bd
00000070: 1280 d0bd 858a 4a3d 8866 6cbd 8b0d a7bd

predictor.net.1.weight f4 [32, 32]
0.020681305 -0.111511804 0.0037464038 -0.054818556 0.11936155 0.20404258 0.020133212 -0.28827226
-0.27655643 0.10147421 0.06228162 0.24171828 0.06239871 -0.019188678 -0.16089866 -0.26479477
0.18561268 -0.13047026 0.08852102 -0.00016812609 -0.16287509 0.09483796 -0.16240816 -0.18646568
0.54179686 0.32962123 -0.03644973 0.25744173 -0.06142207 0.1009002 0.048248354 0.317231
-0.25901 -0.21827815 0.10594458 -0.2653752 0.106853314 -0.072695754 -0.08049467 -0.0240355
-0.06689045 -0.11226863 -0.37756673 -0.027840894 -0.25962836 -0.049914557 -0.00029273104 -0.05348668
0.27889386 -0.074757874 0.022948537 -0.15052257 -0.10909216 -0.14660332 -0.00010396192 -0.10639571
0.04444684 -0.028834563 -0.112543575 0.08218997 0.022679148 -0.040407825 -0.2704015 0.0757399
0.06790811 -0.0013535356 0.072420865 -0.17434393 -0.17598578 0.1659444 0.39655766 0.059602086
0.03868455 -0.10163854 0.24774265 -0.2847768 0.21641326 0.31448963 -0.012821541 -0.25353912
-0.061054572 0.109757654 0.12024008 -0.2508008 0.4033113 -0.0101031475 -0.061464738 -0.07397916
-0.16209894 -0.10650078 -0.28214666 0.21460441 0.16677038 -0.24162513 0.1156796 0.0641633
-0.0062259645 0.03071597 -0.003501627 -0.008744311 -0.003977346 -0.10577325 0.13946924 0.12051872
0.09327789 0.0015085051 -0.42807087 -0.33296713 0.12795244 0.08141604 0.12720749 -0.01631679
0.051560998 -0.042920463 -0.33021274 0.40035683 -0.13628615 -0.0040832544 -0.050621122 0.11861306
-0.15206264 0.118408 -0.14461116 -0.006408141 -0.2821005 0.28047398 0.079610705 -0.0368179
-0.10060058 -0.21007206 -0.07906745 0.19744872 0.3163624 0.034463603 0.32549554 0.040545393
-0.25649092 -0.17272103 -0.0976379 -0.30294776 -0.19662143 -0.012089267 0.19458783 -0.107295536
-0.116882324 0.10322078 -0.1007348 0.03703459 0.19590333 -0.01424848 0.22578213 0.11026262
-0.045765262 -0.195699 0.009865152 0.27018026 -0.10789806 -0.046662197 -0.020859804 0.29604495
0.25374737 -0.058075674 0.21851188 0.27493805 0.13367109 -0.010772626 -0.18495317 -0.25263348
0.09069477 0.2992883 -0.22409989 0.17792529 -0.1840238 -0.06351218 0.03582499 0.06945738
-0.062271375 -0.25916663 -0.05891506 0.041791562 0.13295972 -0.1314969 0.20013224 0.15364857
0.3332894 -0.075378515 -0.30490994 0.19440737 0.1106686 -0.16851707 -0.38897514 0.098324195
-0.1601359 0.008067201 -0.002139727 0.00039549902 -0.15151642 -0.1418486 0.067743845 -0.43924096
-0.034669615 0.024293011 -0.19765244 0.14035955 0.32546324 -0.0037999684 0.1538673 -0.21713635
0.009569392 0.15351358 -0.09559006 -0.17012954 -0.26165923 -0.08563182 -0.0048946883 0.032848183
-0.050756283 0.18702814 -0.13064845 0.216028 -0.06358793 0.20733391 0.20481974 0.07830148
0.022065308 -0.021675734 0.25084215 0.07559538 -0.12891898 -0.16128446 -0.1521453 0.17715338
0.022335539 0.04738844 -0.20416443 0.21594693 -0.21376082 -0.009134959 -0.5310543 0.06351328
-0.060957383 0.11111397 -0.048337873 0.098476864 -0.08667269 -0.23265256 -0.2592245 -0.0025588418
-0.0054580993 -0.20714958 -0.31374702 -0.1361179 -0.0014107558 0.029695155 0.34296307 0.1400002
00000000: d76b a93c 4d60 e4bd 3a86 753b 6c89 60bd
00000010: d473 f43d 8af0 503e 68ee a43c 6c98 93be
00000020: ce98 8dbe b6d1 cf3d 031b 7f3d ff84 773e
00000030: ca95 7f3d 9331 9dbc 9ec2 24be 2e93 87be
00000040: 4011 3e3e ff99 05be 824a b53d 014b 30b9
00000050: bac8 26be 683a c23d 534e 26be dcf0 3ebe
00000060: 33b3 0a3f 1dc4 a83e 504c 15bd 67cf 833e
00000070: b595 7bbd c4a4 ce3d 11a0 453d 1a6c a23e
00000080: f59c 84be 4f84 5fbe 79f9 d83d 42df 87be
00000090: e9d5 da3d 83e1 94bd 64da a4bd 19e6 c4bc
000000a0: dcfd 88bd 18ed e5bd 6d50 c1be 9612 e4bc
000000b0: 02ee 84be 3573 4cbd b279 99b9 d914 5bbd
000000c0: 2dcb 8e3e a81a 99bd 92fe bb3c 9722 1abe
000000d0: b66b dfbd 2e1f 16be 2106 dab8 fee5 d9bd
000000e0: e40d 363d 7636 ecbc 3f7d e6bd 3753 a83d
000000f0: 9fc9 b93c ad82 25bd 1172 8abe 851d 9b3d
00000100: 6813 8b3d 1e69 b1ba 6451 943d 3787 32be
00000110: 9e35 34be 54ed 293e 9b09 cb3e 5121 743d
00000120: b173 1e3d de27 d0bd 40b0 7d3e 44ce 91be
00000130: 709b 5d3e c904 a13e 7111 52bc e1cf 81be
00000140: 5c14 7abd 9fc8 e03d 6e40 f63d f668 80be
00000150: d27e ce3e ac87 25bc 73c2 7bbd 6382 97bd
00000160: 44fd 25be 151d dabd 8775 90be 42c1 5b3e
00000170: dbc5 2a3e 946c 77be 6de9 ec3d 0c68 833d
00000180: 2d03 ccbb 0fa0 fb3c 8d7b 65bb 4c44 0fbc
00000190: 6554 82bb a59f d8bd 06d1 0e3e 85d2 f63d
000001a0: 7a08 bf3d 08b9 c53a 1b2c dbbe ab7a aabe
000001b0: f705 033e 74bd a63d ae42 023e caaa 85bc
000001c0: a031 533d 5ecd 2fbd a511 a9be 92fb cc3e
000001d0: 998e 0bbe d2cc 85bb 1858 4fbd 67eb f23d
000001e0: 4fb6 1bbe e57f f23d f314 14be 62fb d1bb
000001f0: 7a6f 90be 499a 8f3e f00a a33d 5ece 16bd
00000200: ad07 cebd 211d 57be 1dee a1bd ff2f 4a3e
00000210: 41fa a13e b529 0d3d 5aa7 a63e ed12 263d
00000220: c752 83be c8dd 30be 61f6 c7bd f81b 9bbe
00000230: 2157 49be 1012 46bc 0842 473e c3bd dbbd
00000240: 0060 efbd 6b65 d33d 0c4e cebd 95b1 173d
00000250: e29a 483e 7572 69bc 6e33 673e 5ed1 e13d
00000260: 5b74 3bbd 5265 48be 72a1 213c 1155 8a3e
00000270: a8f9 dcbd dc20 3fbd 2ee2 aabc 3493 973e
00000280: 2deb 813e c2e0 6dbd 94c1 5f3e aec4 8c3e
00000290: 13e1 083e ab7f 30bc 5d64 3dbe 2d59 81be
000002a0: 2ebe b93d 513c 993e 717a 65be 0c32 363e
000002b0: bc70 3cbe ac12 82bd 3abd 123d ac3f 8e3d
000002c0: 4510 7fbd 7db1 84be eb50 71bd a12d 2b3d
000002d0: 9826 083e 20a7 06be 77ef 4c3e 0d56 1d3e
000002e0: e9a4 aa3e 0d60 9abd 281d 9cbe ba12 473e
000002f0: 38a6 e23d bd8f 2cbe c027 c7be 325e c93d
00000300: aafa 23be 4b2c 043c a93a 0cbb fb5a cf39
00000310: 1f27 1bbe c240 11be 49bd 8a3d 31e4 e0be
00000320: ba01 0ebd 2302 c73c 6765 4abe 6aba 0f3e
00000330: 1ea3 a63e e408 79bb 648f 1d3e fe58 5ebe
00000340: f0c8 1c3c aa32 1d3e b9c4 c3bd 7036 2ebe
00000350: 33f8 85be bc5f afbd 9f63 a0bb d18b 063d
00000360: d2e5 4fbd 4e84 3f3e b5c8 05be 7236 5d3e
00000370: 633a 82bd 574f 543e 44bc 513e 875c a03d
00000380: 4ec2 b43c 4f91 b1bc 626e 803e c0d1 9a3d
00000390: 5603 04be c127 25be facb 1bbe b267 353e
000003a0: 05f9 b63c 621a 423d 7b10 51be 3121 5d3e
000003b0: 1ee4 5abe ccaa 15bc 2df3 07bf 4013 823d
000003c0: 73ae 79bd b98f e33d effd 45bd 3dae c93d
000003d0: 7481 b1bd 793c 6ebe 13b9 84be 3eb2 27bb
000003e0: dbd9 b2bb 051f 54be 73a3 a0be 7e62 0bbe
000003f0: 1ce9 b8ba 4143 f33c db98 af3e 365c 0f3e

predictor.net.1.bias f4 [32]
-0.11005948 -0.1059821 -0.1056417 -0.11154562 0.10701419 0.103753194 0.108042866 0.06163281
-0.1057231 0.12542085 0.10542245 0.10661975 -0.09994004 -0.092563316 0.13544038 0.11132141
-0.10136373 -0.100236185 0.111359805 0.10262693 -0.07970006 0.12347061 -0.111929186 0.11292071
-0.06612169 0.09908039 -0.08516473 0.09375108 -0.114962794 0.11015859 0.11104705 0.11513406
00000000: dd66 e1bd 250d d9bd ad5a d8bd 0872 e4bd
00000010: 412a db3d 8e7c d43d 9445 dd3d af72 7c3d
00000020: 5a85 d8bd 536e 003e bae7 d73d 755b da3d
00000030: 5dad ccbd d691 bdbd e2b0 0a3e 7bfc e33d
00000040: ca97 cfbd a148 cdbd 9c10 e43d 112e d23d
00000050: c939 a3bd 29de fc3d 213b e5bd f942 e73d
00000060: cf6a 87bd a9ea ca3d d96a aebd 9100 c03d
00000070: 9d71 ebbd d49a e13d a36c e33d 68cb eb3d

predictor.net.3.weight f4 [1, 32]
-0.343884 -0.3225096 -0.24294339 -0.21618378 0.21535839 0.09553089 0.43370533 -0.007464693
-0.23298363 0.09271359 0.26545054 0.039108347 -0.23703879 -0.021591831 0.1336554 0.18016763
-0.17360258 -0.12741801 0.09487436 0.1561609 0.015491177 0.077226125 -0.42292312 0.33613744
0.005851276 0.094485365 -0.018381381 0.0684139 -0.19102831 0.45069155 0.44252574 0.13632764
00000000: 9011 b0be fa1f a5be 27c6 78be 485f 5dbe
00000010: e986 5c3e b3a5 c33d a00e de3e 629a f4bb
00000020: 4393 6ebe 9fe0 bd3d 22e9 873e 1330 203d
00000030: 4cba 72be 5ae1 b0bc f6dc 083e dd7d 383e
00000040: e0c4 31be de79 02be 7d4d c23d a5e8 1f3e
00000050: b5ce 7d3c bb28 9e3d 6189 d8be 351a ac3e
00000060: 10bc bf3b 8b81 c13d 8d94 96bc 961c 8c3d
00000070: ed9c 43be 0bc1 e63e bc92 e23e 7999 0b3e

net.0.weight f4 [60, 35]
-0.014976747 -0.05337234 0.056384016 -0.2000359 0.31857476 -0.08833594 0.028307559 -0.079248935
0.054069053 -0.18194619 -0.020056775 -0.2141871 -0.12525442 -0.29161626 -0.17762958 0.08023479
-0.06664024 0.08998864 -0.020107029 -0.1686172 0.019286178 -0.013668755 -0.09523359 0.042857498
0.05876209 -0.004181017 -0.207926 -0.17398152 -0.022898192 -0.15503417 0.18442687 -0.15724133
0.07707549 -0.20872918 0.05836501 0.033417232 0.1324219 0.12556814 -0.014696759 0.061577808
0.33911204 0.0864072 -0.0024216215 0.19681798 -0.06197212 0.12778114 0.044942725 0.13829963
0.16254802 -0.24657904 -0.04632314 -0.35051787 -0.02995967 0.09149331 -0.015011015 0.022227405
0.07341497 0.030228615 -0.014332488 0.06450391 -0.07843825 -0.007744695 0.053170428 -0.14507124
0.097705156 0.15722309 0.08892542 -0.15815364 0.27427405 -0.093616255 0.06703126 -0.023446614
-0.082722604 -0.028159002 0.029313518 0.10386818 -0.17087328 -0.032796234 -0.15193497 0.18612337
-0.27393922 -0.16346917 -0.0923947 0.062851146 -0.06694365 -0.2593722 0.112601735 0.1458131
-0.17063715 0.004951358 -0.18913597 -0.23944576 0.04020951 -0.19050995 0.18881032 -0.38437328
-0.08965363 -0.09142541 -0.10528896 0.13083766 -0.18103436 0.2436029 0.032248143 -0.18649082
0.1227071 -0.19247057 0.11332382 0.10402541 0.124989346 -0.1848218 -0.06175304 -0.043609735
-0.03846968 -0.29254365 -0.030356023 0.09964066 0.17670316 0.3068056 -0.16948824 -0.10762057
0.17828768 0.025850259 -0.026336778 0.108307324 0.06722388 -0.2645104 0.06917807 -0.14061719
-0.09590512 -0.1763189 0.020804482 -0.035438374 0.0054209884 -0.031176673 0.23029926 -0.22425722
0.1646256 0.011983659 0.01610035 -0.14171022 0.05436772 -0.19194233 0.0020294173 0.21669185
0.0647465 0.063743435 -0.06617686 0.061117742 -0.36692774 -0.06516685 -0.09950997 -0.105497435
-0.015298084 0.15047775 0.0065038307 0.042934835 -0.1171883 0.059817247 -0.1770703 -0.12006691
0.1572982 -0.12758662 0.055249773 -0.08087906 0.029241787 -0.07111122 0.049465533 -0.059561674
-0.30005187 0.1457618 0.09595061 0.0033987614 -0.15164769 0.01596806 0.19347234 0.011828521
-0.23287138 -0.123411745 -0.10005753 0.0060585365 -0.08296012 0.03505598 -0.014237049 -0.1867259
0.24054231 0.05861082 0.0055655935 -0.114112906 -0.07366656 -0.058866166 0.09890382 -0.21933414
-0.03628339 0.09440617 0.25997025 0.2994577 -0.05045138 -0.18750426 0.08490667 0.099551454
-0.050558362 0.034106396 -0.0017656013 0.105144575 -0.1453505 -0.06773735 0.17659618 0.114006765
-0.059064202 -0.2138171 0.027331727 -0.0037052722 -0.089548685 -0.015819773 0.17247981 -0.1148258
-0.12577122 -0.06304536 -0.101101324 -0.110532306 0.030513711 0.32673937 -0.17487718 0.14895965
-0.38374195 0.02444923 0.061916538 -0.106562816 0.028796613 0.11766087 -0.14134154 0.17668022
0.15632267 -0.23547259 0.10248182 -0.0019926874 -0.12788007 -0.026544958 0.15554927 0.09894633
0.1340033 0.07760483 0.07662674 -0.0032689136 0.23801781 0.11399386 -0.025321793 -0.23644559
-0.08204495 0.098073415 0.09932403 0.4828174 -0.003554412 -0.19996254 0.04782427 -0.07512093
00000000: 0861 75bc f49c 5abd edf2 663d 36d6 4cbe
00000010: 3b1c a33e 79e9 b4bd 41e5 e73c 444d a2bd
00000020: 8377 5d3d 1a50 3abe 1b4e a4bc dd53 5bbe
00000030: b242 00be ba4e 95be 87e4 35be 2352 a43d
00000040: ae7a 88bd f74b b83d 7fb7 a4bc fda9 2cbe
00000050: 0cfe 9d3c eaf2 5fbc d409 c3bd 588b 2f3d
00000060: 84b0 703d ea00 89bb 8eea 54be 3628 32be
00000070: fd94 bbbc 47c1 1ebe 66da 3c3e df03 21be
00000080: c1d9 9d3d 1abd 55be 2610 6f3d 82e0 083d
00000090: 9b99 073e ef94 003e adca 70bc 0339 7c3d
000000a0: 18a0 ad3e 42f6 b03d 11b4 1ebb a78a 493e
000000b0: 7ad6 7dbd 0fd9 023e dd15 383d 6b9e 0d3e
000000c0: fd72 263e 377f 7cbe 55bd 3dbd 1477 b3be
000000d0: fb6d f5bc d860 bb3d c3f0 75bc 3f16 b63c
000000e0: 965a 963d 00a2 f73c d0d2 6abc a01a 843d
000000f0: 3ca4 a0bd 36c7 fdbb 3cc9 593d 8e8d 14be
00000100: a419 c83d 17ff 203e 881e b63d 07f3 21be
00000110: a66d 8c3e e1b9 bfbd af47 893d 1d13 c0bc
00000120: 786a a9bd b5ad e6bc e722 f03c d7b8 d43d
00000130: 68f9 2ebe 5855 06bd d794 1bbe 2097 3e3e
00000140: c341 8cbe 7664 27be 6f39 bdbd 1ab8 803d
00000150: c119 89bd 6fcc 84be bd9b e63d 0750 153e
00000160: 81bb 2ebe 003f a23b dcac 41be 4531 75be
00000170: bab2 243d 0a15 43be 7e57 413e 93cc c4be
00000180: 539c b7bd 3f3d bbbd bda1 d7bd 4ffa 053e
00000190: 1261 39be 0a73 793e a116 043d 73f7 3ebe
000001a0: dc4d fb3d 0117 45be 5216 e83d 460b d53d
000001b0: 6afa ff3d ed41 3dbe c1f0 7cbd 1fa0 32bd
000001c0: 6292 1dbd 48c8 95be 32ad f8bc 6710 cc3d
000001d0: acf1 343e a015 9d3e 538e 2dbe 2c68 dcbd
000001e0: 0c91 363e ecc3 d33c 3ac0 d7bc 3bd0 dd3d
000001f0: acac 893d e86d 87be 3bad 8d3d f4fd 0fbe
00000200: e769 c4bd f18c 34be 296e aa3c d427 11bd
00000210: 8ca2 b13b 3966 ffbc 92d3 6b3e afa3 65be
00000220: 9d93 283e 1c57 443c e2e4 833c 7c1c 11be
00000230: b0b0 5e3d 888c 44be f9ff 043b 78e4 5d3e
00000240: d099 843d eb8b 823d bc87 87bd 9956 7a3d
00000250: f4dd bbbe 3376 85bd e2cb cbbd 0a0f d8bd
00000260: d1a4 7abc d716 1a3e 161e d53b 70dc 2f3d
00000270: 6b00 f0bd ee02 753d eb51 35be a4e5 f5bd
00000280: c812 213e 11a6 02be 964d 623d eca3 a5bd
00000290: 798c ef3c c2a2 91bd 5f9c 4a3d f1f6 73bd
000002a0: 66a0 99be 9542 153e c181 c43d c1bd 5e3b
000002b0: 8849 1bbe 73cf 823c 9d1d 463e 6acc 413c
000002c0: d675 6ebe 4cbf fcbd f6ea ccbd b086 c63b
000002d0: ffe6 a9bd dc96 0f3d 8342 69bc 1335 3fbe
000002e0: b950 763e e611 703d 955f b63b 07b4 e9bd
000002f0: 7ede 96bd a61d 71bd 168e ca3d 2199 60be
00000300: e49d 14bd 0658 c13d d21a 853e 8552 993e
00000310: 1ba6 4ebd 1e01 40be 8ce3 ad3d a2e1 cb3d
00000320: 4916 4fbd 26b3 0b3d c06b e7ba 0a56 d73d
00000330: c3d6 14be e1b9 8abd a1d5 343e 617c e93d
00000340: 4eed 71bd dff2 5abe c9e6 df3c 27d4 72bb
00000350: 4d65 b7bd 7898 81bc 8c9e 303e ca29 ebbd
00000360: 2cca 00be ed1d 81bd 360e cfbd c35e e2bd
00000370: e4f7 f93c 624a a73e 0113 33be e188 183e
00000380: d379 c4be c049 c83c 329c 7d3d 9b3d dabd
00000390: e0e6 eb3c 2ff8 f03d d6bb 10be a9eb 343e
000003a0: 0d13 203e ba1f 71be fde1 d13d bf97 02bb
000003b0: fef2 02be d074 d9bc 4f48 1f3e 60a4 ca3d
000003c0: 2938 093e 48ef 9e3d 7bee 9c3d 453b 56bb
000003d0: f1ba 733e 9d75 e93d a66f cfbc cb1e 72be
000003e0: 2f07 a8bd b7da c83d 666a cb3d d833 f73e
000003f0: 23f1 68bb fbc2 4cbe 62e3 433d 01d9 99bd

net.0.bias f4 [60]
0.10164653 0.017354248 0.06511828 -0.0055082594 0.020453457 0.06565609 0.14155327 -0.11835701
0.039440777 -0.053763315 -0.0063631833 0.13940245 -0.090517424 -0.04845286 0.13864781 0.08487305
-0.10522389 0.06386203 -0.023465987 0.13822143 0.11484826 -0.097430885 -0.14092973 -0.13906094
0.045610413 0.13648732 -0.06954885 0.033674974 0.03262875 -0.028380355 -0.0347342 -0.13901804
-0.079285614 -0.058670264 -0.13016105 -0.10301562 0.045538522 0.042934652 -0.009158527 -0.03705525
-0.13438678 0.11942428 0.16548346 0.15958956 -0.017631488 -0.13159722 0.13821459 0.15873626
0.054241516 -0.11562096 -0.07066826 0.044262346 -0.07505558 -0.07123549 -0.09399926 -0.09221469
-0.12658164 -0.042081304 -0.03327945 0.0072407625
00000000: 0e2c d03d 7f2a 8e3c bc5c 853d a17e b4bb
00000010: 028e a73c b376 863d 57f3 103e 2965 f2bd
00000020: a78c 213d ec36 5cbd 4082 d0bb 84bf 0e3e
00000030: 3361 b9bd 8276 46bd b1f9 0d3e ecd1 ad3d
00000040: 9f7f d7bd 19ca 823d be3b c0bc eb89 0d3e
00000050: 9135 eb3d d889 c7bd e24f 10be fe65 0ebe
00000060: fcd1 3a3d 55c3 0b3e a16f 8ebd c5ee 093d
00000070: b9a5 053d eb7d e8bc 7345 0ebd bf5a 0ebe
00000080: 7f60 a2bd 3b50 70bd f048 05be daf9 d2bd
00000090: 9a86 3a3d 3fdc 2f3d a50d 16bc 3fc7 17bd
000000a0: b09c 09be b894 f43d 7f74 293e 726b 233e
000000b0: e96f 90bc 6cc1 06be 2088 0d3e c28b 223e
000000c0: 5a2c 5e3d afca ecbd 85ba 90bd 6f4c 353d
000000d0: bdb6 99bd eae3 91bd af82 c0bd 0edb bcbd
000000e0: 9e9e 01be 725d 2cbd 0850 08bd eb43 ed3b

net.2.weight f4 [60, 60]
-0.0640299 -0.016522206 0.106482744 -0.05798571 0.04904772 -0.02051423 -0.12749992 0.15366824
0.1394436 -0.1221956 0.008019674 0.09518607 0.039597463 -0.13782729 0.05621221 -0.28105596
-0.10798721 0.011122065 0.06341485 -0.11625646 0.07641834 0.029521376 0.096239544 0.12295251
0.013867672 -0.1103635 -0.05162601 0.053969443 -0.09551575 -0.06698524 0.13796273 0.062194295
0.111856475 -0.108575165 -0.023864193 0.09550648 -0.1728872 -0.20295267 -0.09308729 0.047970317
0.011417572 -0.10153085 0.052669186 0.20267592 -0.027783899 0.074831516 -0.08041196 -0.008769233
-0.11596784 0.002625947 -0.1648947 -0.1256392 0.2642523 -0.008966957 0.19726776 -0.06856627
-0.12522516 -0.16454671 -0.04685522 -0.05127833 0.07851038 0.014245579 -0.40318108 0.15682752
0.068861276 -0.071125835 -0.2866815 0.13136914 -0.078670226 0.15114757 0.1160773 0.28182507
0.285462 0.09810989 -0.22978127 0.061617054 -0.06886625 0.2227558 0.15738471 -0.03717773
-0.0022042892 -0.2050049 -0.02515351 -0.01000658 0.08700443 0.063745394 -0.07030762 0.10275461
-0.12931359 0.115922816 -0.11249376 -0.05579712 -0.058334313 -0.040162385 0.12951584 -0.035204317
0.057539187 0.16234267 -0.21674877 0.103110336 -0.18748692 0.07498158 -0.13925771 -0.026578529
0.007900386 0.030020837 -0.009491764 -0.113104425 -0.09894713 0.16281976 0.2504044 0.09813365
0.08847262 0.22965653 0.06285707 0.13884228 0.13755743 -0.088592544 -0.08451947 -0.16977544
-0.26074874 0.009590433 -0.009371389 0.028765433 -0.05253806 0.013523203 -0.053594146 0.0035494692
-0.06604852 -0.16554624 0.11387304 0.033736024 0.10832805 0.11708438 -0.11512405 -0.14407809
0.18523566 0.031382456 -0.061337326 0.06046038 0.036636256 -0.12018861 0.09999933 0.1407579
0.050293054 0.21474898 -0.021097641 -0.068142466 -0.123151384 -0.04911293 -0.19863369 0.08475358
0.18140058 -0.12160003 -0.14491501 -0.038219083 -0.050103694 -0.24619427 -0.037808217 -0.12982969
0.06652662 0.26920554 -0.15901741 -0.14294423 -0.24945161 -0.18446666 0.044453856 -0.05059649
-0.0049819048 0.05528583 -0.27885088 5.1326424e-06 0.08603889 -0.060108796 0.12862617 -0.064483576
0.08061029 0.13596877 -0.07753647 -0.17655703 0.06080577 -0.21240522 0.039097104 0.05912799
-0.03972117 -0.07465665 -0.2769892 0.01921677 0.098306686 0.22587113 0.05844637 0.08522622
-0.038077153 -0.076317 -0.07763987 0.07217249 0.07714005 0.041535474 0.025215367 -0.119986065
-0.14101636 -0.04204645 0.23835811 -0.06526826 -0.22411743 -0.008497027 0.1566281 -0.22644772
-0.08690348 0.03324636 0.0626879 -0.11986594 0.36063382 -0.05924445 -0.19541834 0.05267603
-0.12158429 -0.24921359 0.12918253 -0.02025308 -0.0585644 -0.033596475 0.22636646 -0.22395532
0.16795953 -0.17720288 -0.03696808 0.09731588 -0.01773201 -0.3074253 0.11397958 -0.10958508
0.0981287 -0.033192012 -0.16255519 0.13324331 0.21074384 -0.069070324 -0.18392524 0.18299393
-0.19076765 -0.08579268 0.03246868 -0.06646569 0.16243294 0.07155197 0.053995796 -0.21925893
-0.14958577 -0.030016238 0.12693386 -0.022357045 -0.0431692 -0.13887909 -0.1976776 -0.015797995
00000000: 1c22 83bd 9459 87bc a013 da3d 6d82 6dbd
00000010: 43e6 483d 750d a8bc 578f 02be 355b 1d3e
00000020: 4eca 0e3e b041 fabd f364 033c eaf0 c23d
00000030: f330 223d 9922 0dbe c63e 663d 91e6 8fbe
00000040: 6628 ddbd 5239 363c a5df 813d de17 eebd
00000050: 3881 9c3d d0d6 f13c 3d19 c53d 87ce fb3d
00000060: 3b35 633c 4206 e2bd cc75 53bd 100f 5d3d
00000070: c39d c3bd 8f2f 89bd 1a46 0d3e 72bf 7e3d
00000080: 0215 e53d a85c debd d77e c3bc e798 c33d
00000090: 5809 31be d3d2 4fbe 8da4 bebd 867c 443d
000000a0: c510 3b3c 68ef cfbd a5bb 573d 478a 4f3e
000000b0: 0f9b e3bc 4441 993d 07af a4bd d4ac 0fbc
000000c0: 8c80 edbd 1418 2c3b 28da 28be 90a7 00be
000000d0: 144c 873e 25ea 12bc 8f00 4a3e 796c 8cbd
000000e0: 063b 00be ef7e 28be 42eb 3fbd 3a09 52bd
000000f0: 0dca a03d 4a66 693c c06d cebe 6597 203e
00000100: 2407 8d3d 6caa 91bd ebc7 92be a285 063e
00000110: db1d a1bd 6ec6 1a3e efb9 ed3d 604b 903e
00000120: 1328 923e d7ed c83d c84b 6bbe 2a62 7c3d
00000130: c009 8dbd 191a 643e 7529 213e ad47 18bd
00000140: d675 10bb ceec 51be bc0e cebc a3f2 23bc
00000150: 612f b23d f28c 823d 71fd 8fbd 0271 d23d
00000160: c86a 04be f168 ed3d 2163 e6bd 858b 64bd
00000170: f6ef 6ebd 5081 24bd cd9f 043e 6732 10bd
00000180: 36ae 6b3d 283d 263e 64f3 5dbe 832b d33d
00000190: 92fc 3fbe f18f 993d 9399 0ebe 37bb d9bc
000001a0: 9f70 013c 42ee f53c 5883 1bbc 4ba3 e7bd
000001b0: cba4 cabd 39ba 263e 0135 803e 4cfa c83d
000001c0: 2231 b53d 152b 6b3e 35bb 803d ac2c 0e3e
000001d0: dbdb 0c3e 0270 b5bd 8b18 adbd 9dd9 2dbe
000001e0: dc80 85be 3121 1d3c 748a 19bc 7ca5 eb3c
000001f0: 2632 57bd 6d90 5d3c 8985 5bbd 369e 683b
00000200: 7244 87bd f484 29be 4536 e93d c92e 0a3d
00000210: 19db dd3d efc9 ef3d 28c6 ebbd 3589 13be
00000220: 6bae 3d3e e48a 003d d93c 7bbd 4ea5 773d
00000230: e60f 163d 7225 f6bd 73cc cc3d d722 103e
00000240: 1700 4e3d 28e7 5b3e f6d4 acbc 478e 8bbd
00000250: cb36 fcbd a42a 49bd a166 4bbe 4993 ad3d
00000260: 13c1 393e 7009 f9bd 9a64 14be 9d8b 1cbd
00000270: 8839 4dbd 5a1a 7cbe cadc 1abd 13f2 04be
00000280: 1c3f 883d 4fd5 893e 76d5 22be f95f 12be
00000290: 3e70 7fbe d4e4 3cbe 3f15 363d 443e 4fbd
000002a0: 3f3f a3bb 6573 623d 8bc5 8ebe 1039 ac36
000002b0: 2835 b03d a434 76bd 94b6 033e f70f 84bd
000002c0: 0217 a53d 663b 0b3e 71cb 9ebd 5ecb 34be
000002d0: 790f 793d c180 59be 4924 203d 3130 723d
000002e0: aab2 22bd 96e5 98bd 87d1 8dbe 7d6c 9d3c
000002f0: 0455 c93d c34a 673e 7665 6f3d 168b ae3d
00000300: caf6 1bbd 164c 9cbd a701 9fbd 2ccf 933d
00000310: 9afb 9d3d 1a21 2a3d 7590 ce3c 41bb f5bd
00000320: 9866 10be e638 2cbd 2614 743e 5eab 85bd
00000330: 0a7f 65be 1d37 0bbc 1e63 203e e9e1 67be
00000340: 74fa b1bd 562d 083d 8462 803d 467c f5bd
00000350: ffa4 b83e 4faa 72bd bf1b 48be d2c2 573d
00000360: 2f01 f9bd d931 7fbe 6d48 043e cae9 a5bc
00000370: 39e1 6fbd 759c 09bd 9ccc 673e 8b54 65be
00000380: 95fd 2b3e ac74 35be d76b 17bd 8c4d c73d
00000390: b842 91bc d966 9dbe 206e e93d 246e e0bd
000003a0: b3f7 c83d 59f4 07bd de74 26be ef70 083e
000003b0: 3ccd 573e be74 8dbd e656 3cbe c362 3b3e
000003c0: 9858 43be 13b4 afbd e1fd 043d 2a1f 88bd
000003d0: d254 263e d789 923d b22a 5d3d 6a85 60be
000003e0: 032d 19be 9de4 f5bc f3fa 013e 1f26 b7bc
000003f0: 30d2 30bd 5236 0ebe ff6b 4abe cc6a 81bc

net.2.bias f4 [60]
-0.088333264 -0.087726355 0.061689556 -0.0990855 -0.0617058 -0.08889529 0.039652944 -0.09467797
-0.055186953 -0.090520136 0.041188 0.054338448 0.109718904 0.06535152 0.095732465 0.050519273
-0.11975613 0.11049799 0.0428925 -0.05883651 -0.10432836 -0.032028254 -0.04397552 3.0094749e-05
0.013470267 0.09882198 0.13346401 -0.1274046 0.032458052 -0.120625876 0.043820664 0.0062119057
-0.026608055 -0.037936352 -0.10072213 0.08489174 -0.03640739 -0.095362164 0.111416586 -0.0043432587
-0.08171413 0.040438924 -0.04758886 0.017186914 0.0007396897 0.011579194 -0.049051676 0.10398564
0.034638885 0.01260133 -0.06509755 -0.09521918 0.056696564 -0.10052337 -0.077236965 0.09764742
0.071789116 -0.08500563 -0.03326423 -0.03747754
00000000: 12e8 b4bd e0a9 b3bd 30ae 7c3d 57ed cabd
00000010: 39bf 7cbd bc0e b6bd 206b 223d 86e6 c1bd
00000020: b70b 62bd 9f62 b9bd c0b4 283d fe91 5e3d
00000030: 4eb4 e03d 05d7 853d 620f c43d 4ced 4e3d
00000040: b442 f5bd c54c e23d 0cb0 2f3d 8dfe 70bd
00000050: 1baa d5bd 0f30 03bd ad1f 34bd fb73 fc37
00000060: 65b2 5c3c 2e63 ca3d caaa 083e 5a76 02be
00000070: bcf2 043d b30a f7bd 4c7d 333d 3e8d cb3b
00000080: 23f9 d9bc 2663 1bbd 6747 cebd b8db ad3d
00000090: ea1f 15bd 3d4d c3bd 612e e43d e551 8ebb
000000a0: bd59 a7bd 49a3 253d 89ec 42bd 92cb 8c3c
000000b0: bce7 413a a9b6 3d3c 69ea 48bd 6cf6 d43d
000000c0: 81e1 0d3d cf75 4e3c dd51 85bd 4602 c3bd
000000d0: a83a 683d 32df cdbd 6a2e 9ebd 5ffb c73d
000000e0: 2c06 933d 6f17 aebd 1340 08bd 0d82 19bd

net.5.weight f4 [1, 60]
0.086209916 0.18788171 -0.038048923 0.01643735 0.042325106 -0.122597985 -0.20648032 -0.2815757
0.38862333 -0.053582773 -0.08090648 0.21140774 0.04706303 0.16875024 -0.08075746 -0.11569378
0.008333021 0.23886742 0.071294665 0.17642313 -0.19362754 -0.12557393 -0.031617697 -0.2592768
-0.00041184959 0.094868794 -0.032051735 0.40123957 -0.22957101 0.23639387 -0.035118386 -0.16828717
0.1589129 0.13937224 0.11340103 0.284397 0.038780816 -0.3147772 -0.39349493 -0.2729757
-0.15249017 0.14734887 0.085331775 0.17478473 -0.09210156 -0.17211545 0.04554986 0.16718617
-0.2559492 -0.15117607 0.10290068 -0.09093498 0.17413959 -0.09525411 0.24523795 0.17881146
-0.0029585427 0.093800835 0.31117937 -0.2747646
00000000: d38e b03d 1064 403e 30d9 1bbd 9fa7 863c
00000010: 175d 2d3d a714 fbbd 946f 53be b12a 90be
00000020: a3f9 c63e 9c79 5bbd 4cb2 a5bd 457b 583e
00000030: 2ac5 403d ddcc 2c3e 2b64 a5bd dcf0 ecbd
00000040: 3987 083c a999 743e f002 923d 44a8 343e
00000050: 4c46 46be 7496 00be 8f81 01bd eebf 84be
00000060: 84ed d7b9 924a c23d ae48 03bd 466f cd3e
00000070: aa14 6bbe 3c11 723e 4cd8 0fbd 7953 2cbe
00000080: 10ba 223e 99b7 0e3e cd3e e83d 7c9c 913e
00000090: a2d8 1e3d 7a2a a1be 2b78 c9be 79c3 8bbe
000000a0: 6226 1cbe 9fe2 163e 6dc2 ae3d c5fa 323e
000000b0: be9f bcbd 083f 30be 7d92 3a3d da32 2b3e
000000c0: c60b 83be e6cd 1abe 97bd d23d 1e3c babd
000000d0: a651 323e 9614 c3bd a81f 7b3e 5a1a 373e
000000e0: 1ce4 41bb a71a c03d e752 9f3e f2ad 8cbe
