results analysis/processed results/PINN/NASA_dqdv results/7-7/Experiment9/model.pth (torch, 61182 bytes, 14 tensors)

encoder.net.0.weight f4 [60, 18]
00000000: 802c 0bbd 4cfd e83d d031 a6be a3f6 43be
00000010: af58 673e 196c 913e 9a90 933e b6cd 493e
00000020: 7eb8 c1be 14a6 063d 523f 1abe bace 813e
00000030: e615 3ebe 5756 733e d4eb 833c 7b60 663d
00000040: 3384 dc3d d520 55be 2c68 9a3e c8c0 953d
00000050: 9294 31be 78be 7dbd c42f 1cbe 529d e53d
00000060: 3f7c da3d fddb 2cbd d864 92be d2c9 8fbd
00000070: 8a61 543d f8ef 22be 4ade 9b3d f39b 9ebd
00000080: ee01 c6bd 7d8f f83d 8841 183e 8051 283e
00000090: 371a 1f3e 4f1e 08bd 22d5 273e 85b7 00bc
000000a0: 2bb3 963e a52d 853d deee 973e 950e 1abe
000000b0: 0dc6 ca3d 9ad8 bdbd 6837 99be 2de3 833e
000000c0: d267 483e f8b2 d4bd 0423 fc3d 8c94 acbd
000000d0: ff4d 983d 2727 5dbe 098e f43d 77ea 5e3b
000000e0: bc32 cbbe 05ad 8e3d 1368 eabc 67be 043e
000000f0: a24c dcbd 6fd7 983d 4d53 803e c1f4 41be
00000100: 9f6d c5bc f6a5 843e e44a 86be f124 953c
00000110: 5fac 7a3e 3e9a 403e b7eb 97be 576d 61be
00000120: f3d3 e93c a5a8 9abc 31af 913e 51b1 99be
00000130: 4538 25be 2105 46be e01c 74be a958 06be
00000140: ae05 073e 194d 0dbe 8ae1 f53c d7ac 43bd
00000150: a4fc 05be 88f0 da3d c75b e13b 165b d7bd
00000160: 5de3 82be 272d 00be a358 4c3e c965 00be
00000170: 37b3 5ebd 965f 24be 055e 75be b6f8 b23d
00000180: 002a 133e 3e66 513d 1ef0 61bd 655f ba3d
00000190: 45c3 67be 5e59 a5bd 4416 e93d e9a9 86bd
000001a0: 662d 433d d708 093e a03c af3c a3fe b439
000001b0: b1cc 933d bd53 82bd b3dd 09be c275 05be
000001c0: d00b 4bbd 9fdf 97be 7253 b9bc 9619 053c
000001d0: a329 71be ad66 963e 4452 cc3d e6a0 ba3d
000001e0: 5235 273e 4ddd 1e3d 08c2 a13c 24ce e93d
000001f0: a27a 5d3d 5287 f0bd 6408 b7bc 6e63 363e
00000200: 1770 99bc ec12 a43d 279d c33e 80e8 bc3d
00000210: 469a 013e 869c 9d3c 952d bbbe c127 4d3e
00000220: 59d6 0a3e 6a9f 303e 09ca 043d f96b 84bd
00000230: c47e c33d e5fd 1e3e 9f53 183e eb57 0b3e
00000240: 24ad d83d 2595 cd3d 7cc9 6ebe 06f1 e03d
00000250: 6a4a 43bd fccc a03d 91e9 a4be 76bb 403d
00000260: 190b ee3c c46c 8c3e 4cd3 dcbd 9832 443e
00000270: a624 fbbd 1059 6abe fd4b 86be 3894 b03e
00000280: c4fb 66bd ae71 73bb 53e8 d23d ea0b 563d
00000290: 7a29 ef3d 2164 c6be 5a33 713d 82e8 4abd
000002a0: 455e 9bbd 815c 1f3e 2393 55be b16a 01bd
000002b0: a42d d5bc b1d7 47be 1b63 3f3d 784e 2c3d
000002c0: 748a fa3c 7213 483d f735 053e ef2b c43c
000002d0: e739 bfbd 1de0 9f3e 41de 03bd d922 0cbe
000002e0: fbf4 6bbe 0e47 933c 92b2 e63d 18a0 14bc
000002f0: 33f9 383e 7386 0c3e b8ab ddbd c42d 073d
00000300: dbfe 1ebe d7f6 47be 8aa1 22be 862f 77be
00000310: 0147 093e a4e0 d2bd 064d eb3c 8dc4 983d
00000320: 99ba 8abe eb55 c2bc 26f3 68be e2c8 49be
00000330: d003 7c3d 9a9f 653d e411 e53d 079a 933e
00000340: 4062 863d af35 cd3d 4573 35be b195 0d3d
00000350: 91e4 4dbe d6a0 29be 7aca fa3d b0f1 eab8
00000360: b0b6 0a3e f060 623e 7037 8a3e 74b9 e03d
00000370: 3752 c5be d379 2e3d ff71 e4bd 12f2 613d
00000380: 5a25 7bbe b13d 093e 3de0 88bd 195f c4bd
00000390: 5b1e a9bd f500 a53d 9efe 2fbe f5b1 893e
000003a0: 5a6c f53d 042b cc3d f1dd 463d 3ba5 293e
000003b0: b740 283e cf8f 743d 4607 7f3e 1306 433e
000003c0: a091 0bbd 41ac 77bc d05f d53d 4ec3 85be
000003d0: c87c dd3d fee1 d93d 2658 30be a29e b13e
000003e0: 1c3f 503e 6bc0 4ebe 6d41 9d3d 6f34 38be
000003f0: ffa2 673c 60ff f03c bf4d 10be 1193 043e
-0.033977985 0.113764375 -0.3245988 -0.19137053 0.22592424 0.28402784 0.2882126 0.19707379
-0.3783607 0.03287323 -0.15063217 0.25353032 -0.18563041 0.23763405 0.016103663 0.056244355
0.107674025 -0.20813306 0.30157602 0.07312161 -0.17341831 -0.061949223 -0.15252596 0.11211647
0.10668229 -0.042201985 -0.28592563 -0.07020916 0.051850833 -0.15911853 0.07610758 -0.07744589
-0.09668337 0.12136743 0.14868748 0.1643734 0.15537344 -0.03323203 0.16389897 -0.0078562545
0.2943357 0.06502847 0.2967443 -0.15044625 0.099010564 -0.09269829 -0.29925084 0.2575926
0.19570854 -0.10385698 0.12311366 -0.084267706 0.074367516 -0.21596967 0.119411536 0.0034014264
-0.39687145 0.069665946 -0.02861408 0.12963258 -0.10756804 0.07462966 0.25063553 -0.18941022
-0.024100123 0.25907868 -0.26229012 0.018206092 0.24479817 0.18808839 -0.29672024 -0.22014366
0.028543448 -0.018879244 0.28453973 -0.30018094 -0.16134746 -0.19337894 -0.2383914 -0.13119759
0.1318576 -0.13798942 0.030014772 -0.047772255 -0.13084656 0.10690409 0.006877396 -0.1051542
-0.2556409 -0.12517224 0.19955687 -0.12538828 -0.05437013 -0.16052088 -0.23961647 0.08738844
0.1437149 0.051122896 -0.055160634 0.09100226 -0.22633083 -0.08073686 0.113812 -0.065753765
0.047650717 0.13382278 0.021391213 0.00034521995 0.07216776 -0.06363628 -0.13463478 -0.13033202
-0.049571812 -0.29662797 -0.022622798 0.008123776 -0.2355104 0.2937521 0.099766284 0.0911272
0.16328934 0.038785268 0.019745842 0.11416271 0.05407203 -0.1174456 -0.022342868 0.17811367
-0.018730206 0.080114216 0.38205835 0.09224033 0.12656507 0.019239675 -0.36558214 0.20034696
0.1355833 0.17248312 0.03241924 -0.06465907 0.09545663 0.1552654 0.14875649 0.13607757
0.10579899 0.10038213 -0.23319048 0.109834716 -0.04767839 0.07851598 -0.32209447 0.047053777
0.029058026 0.27426732 -0.10782489 0.19159925 -0.122628495 -0.22885537 -0.2622985 0.34488082
-0.056392446 -0.0037146616 0.102982186 0.052257456 0.11677833 -0.38748267 0.058886863 -0.049538143
-0.0758634 0.15562631 -0.2085691 -0.03159589 -0.02602274 -0.19515873 0.046725374 0.04206702
0.030583598 0.04884667 0.13008867 0.02394673 -0.09337216 0.31225672 -0.03219438 -0.13685168
-0.23042671 0.017978217 0.11264528 -0.009071372 0.18063812 0.13723163 -0.108237684 0.03300263
-0.15526907 -0.19527756 -0.15881935 -0.24139223 0.13405992 -0.10296753 0.028723251 0.07459364
-0.27095488 -0.02372261 -0.22749004 -0.19705537 0.061527073 0.05606041 0.11185053 0.2882845
0.065617085 0.10020005 -0.17719753 0.034566585 -0.20106722 -0.1656526 0.122456506 -0.00011203007
0.13546252 0.22107291 0.2699542 0.109728724 -0.38539287 0.04259665 -0.111545555 0.055162497
-0.24525967 0.1340244 -0.06683395 -0.09588451 -0.08257743 0.08056823 -0.17186972 0.26893583
0.11983557 0.09969142 0.048551504 0.16566937 0.16430937 0.05970746 0.24905118 0.19045286
-0.034074426 -0.015116752 0.104186654 -0.26125568 0.10814816 0.10638808 -0.17221126 0.3469134
0.20336574 -0.20190589 0.076784946 -0.17988752 0.014137982 0.029418647 -0.14092158 0.12946726

encoder.net.0.bias f4 [60]
00000000: ec34 183d 7abb 3e3d d0aa e0bc 0cda 2fbd
00000010: 63b1 313d eb09 0f3d 5bea 1abd 5fc8 e8bc
00000020: 5d99 12bd b0fa 14bd 1852 1b3a 4e34 ce3c
00000030: 5e6c fabc 98e8 4d3d be64 93bc 18db 663d
00000040: 0bb7 69bd 2fa2 963b e3cd acbc f991 213d
00000050: 4409 ab3d b40d 37bd 7da7 f6bc 09e4 6cbd
00000060: 6700 693d f468 693d f39d 19bd d78d 2b3d
00000070: 9523 0abd 306b 113d 8d8f 083d c12e 85bd
00000080: 5f00 333d 2633 f6bc c71a 293d 294f 3b3b
00000090: 614e ddbc 71a4 1bbd 1589 88bd d248 0b3d
000000a0: f05e fdbc 985b 0fbd 6296 013d 98ac 313d
000000b0: 5626 1cbd 7f16 3fbd 38ad 123d 437d a4bd
000000c0: d991 ad3b 54cd dfbc 445a 9fbc 5e1d 023d
000000d0: aeef 923d 985a 2b3d acd2 4b3d 5994 0b3d
000000e0: 110e b1bc 5f00 073d b1c5 083d 83ed 313d
0.037159845 0.04656551 -0.0274252 -0.042932555 0.04338206 0.034921568 -0.037821155 -0.028415857
-0.03579079 -0.036371887 0.00059250137 0.025171425 -0.030569252 0.050270647 -0.017992374 0.056361288
-0.05705933 0.0045969705 -0.021094268 0.03944585 0.08351377 -0.044690803 -0.030109162 -0.05783466
0.05688515 0.056984857 -0.037504148 0.041883316 -0.03372534 0.035502613 0.033340026 -0.06503058
0.043701526 -0.030053686 0.041285302 0.0028581119 -0.027014913 -0.03799862 -0.06666771 0.034004994
-0.030929059 -0.03499946 0.031637557 0.04337749 -0.038122497 -0.046652313 0.035809726 -0.08031704
0.0052969274 -0.027319588 -0.019452222 0.031766288 0.071746215 0.041834444 0.04976146 0.034077022
-0.021613153 0.03295934 0.03339166 0.0434394

encoder.net.2.weight f4 [60, 60]
00000000: 308e 41be 6206 ad3c 583d 19be 5495 cc3d
00000010: 8c11 63be 7158 d73d 7cda 25bd 6d1d ec3d
00000020: 1be4 f73d a602 ccbd 83c7 22bd 385a 1d3c
00000030: 61e2 1c3e 13b9 47be d1b6 493d e0d2 03be
00000040: 698a 473d eb42 973d 372a 3cbe 00b3 1ebe
00000050: 793d 91bd 6028 113d 61ea 4ebe 08c4 5039
00000060: ae1f 5ebc 7560 23be 77c8 0fbe 90e7 5cbe
00000070: d21c b83d bda2 14bd 3ef0 e83d 70c7 033e
00000080: 4f93 06bd 445e 6f3e c706 7fbd d01a 3b3d
00000090: 60d6 acbb 1a26 47be 54e5 86be 0a23 d1bc
000000a0: 2f45 0d3e ba78 be3b 7397 25be d4a2 f83d
000000b0: 754f 3e3d 694c 42bd 2bb6 993d d7b3 113e
000000c0: 4da3 493e 4e26 05bd a9ac d9bd e389 73be
000000d0: d12a dd3c 55a1 66bd 6fa7 54be 3e2e 5dbe
000000e0: 74e5 a13a 0d52 07bd 92b8 3e3e 3c81 bebd
000000f0: 4bbd 22be bc64 d03d ec18 93bd 1aaa 6fba
00000100: 74bb 2b3e 8df2 063e d6b0 59bd d488 853c
00000110: 32c3 103e e1f2 adbd 3534 e43d cac2 edbc
00000120: e2e9 963b 93d9 a83d db47 06be 6a73 203d
00000130: b43d bebd 6c3a 893c 3212 663d 1af4 b93b
00000140: 341b 1dbd 64c6 4dbd df2e e03d 0f98 87bd
00000150: ab11 7fbe d54b 003e da17 843d fe41 d8bd
00000160: f35a 293e e1a7 35bd 162a e03b 6c63 3ebe
00000170: 30c9 0fbe 24d7 b53d bd0e f0bc ec91 b23d
00000180: a7c9 723e fc01 ba3c 444d 49be 809d 44bd
00000190: e9c2 f3ba 2244 54be ce96 243e c1ff ccbd
000001a0: 9952 b43d b78d a43c 9dcd 19be 92f1 e1bd
000001b0: f39f 033d b1d4 8cbc 273e 8fbd 569a 94bd
000001c0: 251a 45bd 7a36 a5bd 3d7b 363e de47 5ebd
000001d0: 6ec3 343e a237 5c3c 67fb 19be 5ad0 5abe
000001e0: add6 4d3e e8f0 e23d 36ad 35bd 9f09 34bd
000001f0: 039c 4bbe c219 d8bd 2b10 06be c17a 303e
00000200: 9f46 85bd 2bfa 5fbe b658 643e 92c2 2d3e
00000210: 5635 d23c 700b 8f3d 771b d8ba dcb9 0d3e
00000220: 3bf7 a43c 8fc3 4ebe 6a87 223c 7121 debd
00000230: 0da4 9fbd fb23 0e3e adbe 253e 62f4 153d
00000240: e6ca f0bd 2b5c 96bc 69b5 803e 0276 a0bc
00000250: c093 8d3d f662 e1bd d394 543c 178e f8bc
00000260: d5ba 153e 525b c6bc 2b88 7e3d e134 543d
00000270: e333 a4bc 8f1a da3d 9230 47bc 9bba cbbd
00000280: 8bba 873e 104d a8be a0e3 273d dca6 f73d
00000290: 212d dbbd f450 6ebd 7514 41bd b0e8 3a3e
000002a0: aaf7 88bd c6df 813e f073 2dbd 0bab ca3c
000002b0: a50a 3e3c 575b 1bbe a4a2 92bc 7a96 7fbd
000002c0: d486 67bd c076 11be 1c96 d33c 82c3 783d
000002d0: 6f59 3e3c 2682 4ebd 00ee a3bd 0c86 b8bd
000002e0: 901b 6f3d 8d54 c1be 5412 d43d 6e0c 82be
000002f0: 9cc7 a83d 1dde 36be 6758 1c3c 01ec 093e
00000300: cdbf 143d 383f e3bc 15fe e23d 6c42 05be
00000310: 5d3e 1a3e 0927 efbd 3851 d03d f5d2 6bbe
00000320: ae81 e03d 0a53 c0bc 181b 4ebd cda7 e73d
00000330: bd54 213c 9caa 1fbd ee03 403e 7548 103d
00000340: 49d8 14be 517a 473e 6f96 16be 891d a93d
00000350: 48ad 3ebd a197 a73e f83e 5c3e 07bc a83c
00000360: 9a29 a8bd eb81 773d 7231 e238 ec85 5f3d
00000370: ba00 6a3e 5634 f6bd 3eac a6bd 166d 4fbd
00000380: d371 02be 30a4 b63d 6153 1dbe 841b 283d
00000390: 2e1b b1bc d877 afbd 1d74 133d 7b22 c4bd
000003a0: 8639 95bd 028d 09ba 64f8 533e 4ce1 79bd
000003b0: c8a8 403c 1182 d5bd cb0d a73b 7bb5 bfbc
000003c0: a031 2a3d 03f6 30be f197 723d ed13 933e
000003d0: c257 e33d 5f93 953d 1867 9abd 108c 05be
000003e0: 3b0a 92be e775 343d 1a5c e73c 54bd a5bd
000003f0: b0a0 4fbe 68f6 e3bd 01d6 77bd 383a 843d
-0.18901896 0.021121208 -0.14964807 0.099894196 -0.22174662 0.10514916 -0.040491566 0.1152905
0.121040545 -0.09961443 -0.03974105 0.009604029 0.15320732 -0.19504194 0.049246613 -0.12873411
0.048715983 0.073858105 -0.18375479 -0.1549797 -0.07091803 0.035438895 -0.20206596 0.00019909453
-0.013557358 -0.15954764 -0.14041315 -0.21572709 0.08989872 -0.03628801 0.113739476 0.12869048
-0.03285533 0.23375803 -0.062262323 0.045679867 -0.005274579 -0.19448128 -0.26346838 -0.025529403
0.13795923 0.0058127316 -0.16171055 0.12140432 0.046462495 -0.04743615 0.07505449 0.1422876
0.196912 -0.032507233 -0.106286354 -0.23783068 0.026997956 -0.056306202 -0.20766996 -0.21599671
0.0012351708 -0.033037234 0.18625095 -0.09301993 -0.15892522 0.101754636 -0.07182488 -0.00091424736
0.16770726 0.13178463 -0.05314716 0.016300596 0.14136961 -0.08493591 0.1114277 -0.029023547
0.0046055177 0.08244624 -0.13113348 0.039172567 -0.09289113 0.01675149 0.056169696 0.005674851
-0.03835602 -0.05023803 0.1094644 -0.066208 -0.24909084 0.12528928 0.06449862 -0.10559462
0.165386 -0.044349555 0.0068409545 -0.18592614 -0.1404159 0.088789254 -0.029303903 0.08719239
0.23709737 0.022706024 -0.19658381 -0.048001766 -0.0018597516 -0.20729116 0.16073152 -0.10009719
0.08804817 0.020087106 -0.15019841 -0.11032404 0.03213496 -0.017191263 -0.069942765 -0.07256
-0.048120636 -0.08067031 0.17820449 -0.054267757 0.17652676 0.013440998 -0.15037309 -0.21368542
0.20101424 0.110811055 -0.04435464 -0.043954488 -0.19883732 -0.10551788 -0.13092105 0.17234327
-0.065076105 -0.21872775 0.22299466 0.16968754 0.025660198 0.069846034 -0.0016487677 0.13840431
0.02013742 -0.20191787 0.009919981 -0.10846222 -0.07794962 0.13880913 0.16186018 0.036610015
-0.1175745 -0.018354496 0.25138405 -0.01958752 0.06912947 -0.110052034 0.012974936 -0.030341191
0.14622052 -0.024213467 0.06214158 0.05180824 -0.020044273 0.10649597 -0.012157576 -0.099477015
0.26509508 -0.32871294 0.040988564 0.12092373 -0.10701967 -0.05818267 -0.04713865 0.18252826
-0.06687863 0.25366038 -0.042346895 0.024739763 0.011599218 -0.15171562 -0.017899819 -0.062399365
-0.056525066 -0.14205456 0.025828414 0.060733326 0.011618002 -0.050417088 -0.08004379 -0.090099424
0.058375895 -0.3775982 0.10355058 -0.25400108 0.082411975 -0.17858167 0.009542561 0.13468935
0.036315728 -0.027740106 0.110836186 -0.13013619 0.15062852 -0.11677367 0.10171741 -0.23029692
0.109622344 -0.023477096 -0.050318807 0.11311302 0.009846863 -0.038981065 0.18751499 0.03522535
-0.14535631 0.19480254 -0.14705823 0.082575865 -0.046551973 0.3273287 0.21508396 0.02059747
-0.0821106 0.060426634 0.0001078573 0.054571077 0.2285184 -0.12021701 -0.08138321 -0.05064114
-0.12738733 0.08918035 -0.15363838 0.041041866 -0.021619406 -0.0856778 0.035999406 -0.09576889
-0.07286362 -0.0005247147 0.20700222 -0.061005875 0.011758991 -0.10425199 0.00509808 -0.023401966
0.041551232 -0.17281346 0.059226934 0.2872614 0.11100723 0.073034994 -0.07539195 -0.13041711
-0.2852343 0.044057753 0.02824216 -0.08092752 -0.20276141 -0.11130983 -0.060506824 0.06456417

encoder.net.2.bias f4 [60]
00000000: e47b 18bd bb66 10bd 51cf 853d 2e2d 20bd
00000010: 70d5 f43c f353 d2bc 7d63 8abd 66d2 bbbc
00000020: 14dd 123d f1fc 493d d215 1f3d 69a4 353d
00000030: bb3f a1bd cdb9 963c 1bfd 65bd 1958 273d
00000040: a590 25bd a268 0ebc 23fb e2bc f91c 393d
00000050: eaab 353d cfa8 253d 8753 f5bb d9cd 91bc
00000060: da18 293d 891d f03c 040a 683d 37e8 8f3d
00000070: 1648 1d3d 20df 21bd 7b7b 193d 7c53 ffbc
00000080: 6864 81bd 82c1 3e3d e183 5ebd 07b2 7dbd
00000090: 48d8 50bd aa3c 413b ec1b 3fbd a9da aa3c
000000a0: bdc8 e0bc 7c53 b83d d96f 2b3d 2091 66bc
000000b0: acbc 663d 2917 10bd b31a d4bc 5d69 4c3d
000000c0: b82e 073d 6722 d4bb d5f4 17bd 6e12 ccbc
000000d0: af8a 933d 9fad 45bd f2ea 4bbd c69c 0abc
000000e0: e5ad 62bd 90a4 25bd ee56 fd3c 0916 c3bc
-0.037227526 -0.03525422 0.06533683 -0.039105587 0.029886931 -0.025674796 -0.06757257 -0.022927474
0.035855368 0.04931349 0.03883917 0.044346247 -0.07873484 0.018399144 -0.056149583 0.0408555
-0.040421147 -0.008691939 -0.027707642 0.045193646 0.044353403 0.04044419 -0.007486764 -0.017798351
0.041283466 0.029310958 0.056650177 0.07026713 0.038398825 -0.03951943 0.037471276 -0.031167738
-0.06317979 0.046571262 -0.05432499 -0.06193736 -0.050987512 0.0029485621 -0.046657488 0.020856218
-0.02743947 0.090002984 0.041854713 -0.014072686 0.056332275 -0.035178337 -0.025891637 0.04990517
0.03300354 -0.0064738276 -0.037098724 -0.024911132 0.07204186 -0.04826128 -0.04978461 -0.008460229
-0.05534162 -0.040440142 0.03092524 -0.023814218

encoder.net.5.weight f4 [34, 60]
00000000: f5b5 193c 8665 f9bd 400d 003d 40ac 813d
00000010: 6809 f33d 7f12 bcbc a2a5 59bd 1067 c5bb
00000020: 363f 7f3d be40 503d 4147 3f3d b19c 8a3d
00000030: fdde 90be cea8 c63c 08c7 85bd 3635 bb3d
00000040: f3b0 793e 8fef a33c 1ca7 993d 7e50 efbd
00000050: 6fec 703c 468f 85bd 85fd 893c 5555 c43d
00000060: 109a 35be df88 423e 6a7a b83d 19cd ee3d
00000070: c873 39be 5634 01bb d951 f43d 744d 59be
00000080: 626f 1cbe be89 c3bc d2a6 1f3e 804f e03d
00000090: 7204 793d ae48 8fbd ca17 193c 0cc3 4a3e
000000a0: c792 b23d 404b 95bd 140c 0bbe 43df c63d
000000b0: eb1b 473d ee14 8bbc 8da1 82bd 3b14 003e
000000c0: 03b0 0ebe e37d 8cbd 105d f9bd 8ed3 36be
000000d0: 2999 a3bd 1e56 e1bd f2db a3bd 60c3 653e
000000e0: 6932 913d 8be2 253e 19c6 2d3c 35a6 903d
000000f0: 2081 b73e 6ca4 2b3e af79 87be 5f63 c63d
00000100: dc2b 533e 6b8f f1bd 2f52 373e e5f5 5f3e
00000110: 04dc 773c 9c6b 77bd 90fe ac3d 7696 69be
00000120: 8017 653d 055f 143e 3430 133e 8daa f4bd
00000130: 7004 c33d 7ab7 583d 6672 dbbc b29b 0d3e
00000140: b75e a7bb b15a 953d 4bf0 863d b1b9 653d
00000150: 2b08 31bd a4f4 8b3e e60c 4bbd dad1 2c3e
00000160: 7016 313d 8090 7bbe a443 dc3e 1396 003d
00000170: be26 babd f608 88bd 0942 e63a 5dc5 c4bc
00000180: 32bc ca3d 0732 213e a02e 843e ad31 d03d
00000190: 9e9d c53c ff84 a23d 0e0e 9ebd d1c1 d73c
000001a0: cfce 193c 7c24 443c adf7 56be 6c04 0f3d
000001b0: 8f86 44be ff3b a4bd da1f 6ebd d8f8 87be
000001c0: f53d bc3d d365 5a3d 84c2 1abd 2405 41bd
000001d0: 7170 a63d b46d a2bc 8b76 063e 9354 733e
000001e0: b9e9 253e 2b2c b53e 5035 ac3c f3cf 01be
000001f0: ad1b b7bd 516f 2dbe 3fb5 a93b 7454 933d
00000200: 6d57 8fbe ae40 2d3d 4161 04bd 1843 bebd
00000210: 43cf 8cbe 92fb f1bd 0857 90bd d969 74be
00000220: b38e 6e3e fb8b 7fbd 62ca da3d a7a0 e73d
00000230: f824 a03e 66f6 f8bc 1567 013e 1abb c93d
00000240: b4fc babd c10f bb3b 4060 9a3d b1f6 d5bd
00000250: f57d adbd e8af f03b b7ec b73c f5be 86be
00000260: a542 393e 36e3 5f3e 36d0 de3d 500e 3b3e
00000270: fcd1 6d3d fa0c 3a3d 4b10 3b3d c605 96bb
00000280: 0783 cbbd 4ce6 a13e a2bd 8fbc cd89 ec3d
00000290: dc76 08be c926 a23d 12f6 c2bd 3246 b73d
000002a0: 9882 623e 8e0f b1bd f29e 283e ad55 2f3d
000002b0: 93bc 3abc 796b 673e 6ecf 263d f34d 203e
000002c0: 845d 92bd 724f 99be 9423 4c3e 8662 4cbd
000002d0: 0928 253c 16dc 03bd 561e d63d 962f ebbd
000002e0: 7593 c73d 9a96 9c3a c8ed 453e e7a7 ffbd
000002f0: dc5c 13be 2abf 0d3e 0b79 e13d f611 74bd
00000300: b235 74bd 0aa2 973d 4371 b93c 0cab 543d
00000310: 4fa6 cebd c0a0 a93d 920e 2ebd a9e2 a0bc
00000320: f1d9 023d 3d44 f63d 237e 0dbe 7374 b13c
00000330: 5364 063e 8234 893d eb31 76be e977 903a
00000340: 5e2e 933e a0ce c03c c76e 18be 01ee cbbe
00000350: 8617 e83d ca62 a83d 7b9f b13c 747c 513e
00000360: 2445 02bd 80e9 0a3d 7d3a a73d 0b13 2dbe
00000370: 0901 39be 1cb2 01bb 493f 873e 09d9 ba3d
00000380: 87d0 39be a0f7 d43c 6782 423e 5e66 8f3c
00000390: 42ce a4bc 140c d33d 3d24 d33d d9db 68bc
000003a0: 60d7 373e c2be d3bd 2fef d5bb f3f6 813e
000003b0: 5bf9 b9bd 590e ea3d 3321 14be fe4b 9dbe
000003c0: 95e8 123e bf8b 96bd 0636 7e3d cdd1 9cbd
000003d0: 1a90 5d3e 644e c93d 6018 a2b9 d086 8dbc
000003e0: 2661 4dbc 8c1a b7bd 4b09 01be 7dd5 97bd
000003f0: 4548 723d ef9a 513e 60bf 43bc 5192 bcbd
0.009381761 -0.12177567 0.031262636 0.06331682 0.118670285 -0.022958038 -0.053136475 -0.006024249
0.062316142 0.050842993 0.046698812 0.06768168 -0.28295127 0.024250414 -0.06532103 0.091410086
0.24383907 0.020011691 0.07502577 -0.116852745 0.014704808 -0.06521468 0.01684452 0.09586588
-0.17734551 0.18997525 0.09007724 0.11660213 -0.18110573 -0.0019715033 0.11929674 -0.21220952
-0.15276864 -0.023869392 0.1559098 0.109526634 0.060795255 -0.069962844 0.009344051 0.19800967
0.08719402 -0.072897434 -0.13578826 0.097105525 0.04861061 -0.016977753 -0.063784696 0.12507717
-0.1393433 -0.068599485 -0.121759534 -0.17854139 -0.07988197 -0.11002754 -0.080009356 0.22437811
0.07089693 0.161997 0.010606312 0.070629515 0.35840702 0.1676194 -0.26460025 0.09686922
0.206222 -0.11794933 0.17902444 0.21871145 0.015128139 -0.06040536 0.084469914 -0.22811303
0.055930614 0.14489372 0.14373857 -0.119465925 0.09522331 0.052909352 -0.026787948 0.13828924
-0.0051077264 0.07292689 0.06588801 0.056085292 -0.04322068 0.27335083 -0.049572848 0.16876927
0.04323429 -0.24566841 0.43020356 0.031393122 -0.09089421 -0.06642334 0.0017567287 -0.024019891
0.09899177 0.1574174 0.25816822 0.10165725 0.02412301 0.07935523 -0.077175245 0.026337536
0.009387686 0.011971589 -0.20992918 0.034916326 -0.19191955 -0.08019256 -0.058135845 -0.2655704
0.09191505 0.053319763 -0.03778316 -0.047124043 0.08126915 -0.019827701 0.13131158 0.23762731
0.1620244 0.3538526 0.021021515 -0.12676983 -0.089408256 -0.16936995 0.005179077 0.071938425
-0.27996388 0.04229801 -0.03231931 -0.09290141 -0.27501878 -0.11815561 -0.0704785 -0.23868503
0.23296623 -0.062389355 0.10683133 0.11309939 0.31278205 -0.03039093 0.12636979 0.0985014
-0.091302305 0.005708665 0.075378895 -0.10447443 -0.0847129 0.0073451884 0.022451742 -0.26317564
0.18091829 0.21864018 0.10879557 0.18267179 0.058061585 0.04542253 0.045669835 -0.004578325
-0.09937101 0.31621015 -0.017546479 0.11549721 -0.13326591 0.07917554 -0.095195904 0.089489356
0.2212013 -0.08645545 0.16466883 0.042806316 -0.011397499 0.22599591 0.040725164 0.15654735
-0.07146743 -0.29943424 0.19935447 -0.049898647 0.010080346 -0.032192312 0.10455005 -0.11483686
0.09744922 0.0011946738 0.19328988 -0.12483197 -0.14390892 0.13842455 0.11009415 -0.05958744
-0.05962152 0.074039534 0.022637015 0.051920936 -0.100903146 0.08282614 -0.042494364 -0.01963933
0.031946126 0.12024734 -0.13817649 0.021661973 0.13124208 0.06699468 -0.2404248 0.0011022064
0.28746313 0.023536026 -0.14886008 -0.3983002 0.11332612 0.082219675 0.021682492 0.20457631
-0.03180422 0.03391409 0.08165453 -0.16901796 -0.18066801 -0.001979 0.2641547 0.091234274
-0.18145953 0.025996983 0.18995057 0.017504867 -0.020117883 0.10305038 0.10309646 -0.014212572
0.17953253 -0.103391185 -0.006528757 0.2538372 -0.09080764 0.11428518 -0.1446579 -0.3072204
0.14346536 -0.07350873 0.06206324 -0.07657204 0.21637002 0.09829405 -0.0003091721 -0.017276198
-0.012535369 -0.0894061 -0.12601201 -0.074137665 0.059150953 0.20469259 -0.011947483 -0.09207595

encoder.net.5.bias f4 [34]
00000000: 95f7 f3bc 97a1 60bd 65f1 3fbd f02f 4a3d
00000010: f081 79bd 935d 163d e62f 603d f6f3 663d
00000020: 1570 52bd 9c76 22bd 696d ae3d a19d 5539
00000030: cc42 66bd d571 36bd 28b4 453c 800a 19bd
00000040: 7212 2fbd d791 d7bd 1d17 6fbd 360a 533c
00000050: 35ce 973d fb7a a53d d63b e53c c026 42bd
00000060: 0507 16bd e231 973d 9ac4 39bd 16d1 f83c
00000070: 62b5 47bd c736 2abd 0b82 27bd 4148 453d
00000080: fe77 033d a0d5 0a3d
-0.029781142 -0.054841604 -0.04686107 0.049362123 -0.060914934 0.036710333 0.05473318 0.056385003
-0.05137642 -0.039663896 0.08516962 0.00020371984 -0.056216046 -0.044542152 0.012066878 -0.03736353
-0.0427422 -0.105258636 -0.058371652 0.012880852 0.07412378 0.08080097 0.027982634 -0.047400236
-0.036627788 0.07382561 -0.04535351 0.030373137 -0.048756965 -0.041556146 -0.040895503 0.04816461
0.032096855 0.033895135

predictor.net.1.weight f4 [32, 34]
00000000: 1631 98bd 24eb c63e 0485 b7bd 4e09 223e
00000010: b9cb 9fbe 2598 dc3d 7cd9 acbe 81d6 cf3d
00000020: 3e99 2dbe 299c 0abe 7f2c e6bb a97e b33d
00000030: 5f11 09bd 880d 6abe 0b30 b03d 22a6 05bd
00000040: 8189 94bd c2fb 6d3e 23eb 0ebe c63e 88bd
00000050: 5a6e 253b 8301 843d 5c20 5bbd 176f 2c3e
00000060: 75e8 e93d f486 97be b636 263e 8c86 12bd
00000070: 3219 54be c6db 2ebe d077 e4bd 4b52 023e
00000080: 0ce3 123d 02c0 a2bc ce12 69be b7c7 13be
00000090: 6955 b8bd 5bfb 4ebe 482e f43c 2e3d a5be
000000a0: e4de c53e 92ff 21bc d392 983d faae ec3d
000000b0: 93e9 b7be a3b8 debc 3abd 1d3e 70a9 643c
000000c0: dcee f9bd 5e4c 5cbe cb35 9d3d de7b b9bd
000000d0: 2440 2bbe 5680 933d 80b6 f73d 3a85 8bbe
000000e0: c75f 4bbc 6e4d 11be db9a 69be dfca 8f3c
000000f0: c4f0 9abd 8ed3 dfbd a5d5 75bd 7695 1bbe
00000100: ba6b 62bd 6a3d 81bd f536 043e fb16 8bbe
00000110: 35a8 443d f88c 2b3e 1a7f 773e 7005 8dbe
00000120: d2d6 d83d a623 8abe be87 8b3d 2d66 8fbd
00000130: 3a6f cdbe 8d53 36be b7cf 323e d8fe 34bc
00000140: 34cc 883c 434f c2bc 5b74 c2bd 9c4e 103e
00000150: d572 c1be 1b55 1d3e b50f a53d 426a d2bd
00000160: b2c5 43bc e428 90be c59f ca3b c394 333d
00000170: c45d 67be b9ed 293e 70d4 f6bb c879 8cbd
00000180: fbd9 a3bc 7bb2 c23d 2a0a a9bd 9cb0 283e
00000190: 09bb 8cbc 7976 1abe 801e a4bd b705 0fbe
000001a0: 6ced 04bd 9852 903e f60d 4c3e d435 2c3d
000001b0: 35ce 223e 7f82 283e 6eeb e1be d56d c03b
000001c0: cd4b 913d 4b8c 7a3d 6d00 d33d ae34 153d
000001d0: 65e6 43bd 0e4e 9dbe dad3 643e a55c 97be
000001e0: 69b5 6c3e a97e 563e 90b8 a33e c8e6 08bc
000001f0: d160 243e 0085 7fbe 38e0 fabd 31ae 1abe
00000200: e362 6c3c 6d40 5f3e 1016 d43d 95af 8bbd
00000210: 6398 97be 8f05 f53c 4e89 f2bd 2a2c d53c
00000220: cff6 9a3d b54b ddbd c4fb d13d 3a27 023b
00000230: 55a0 ed3d cf4d 8cbd 7729 cd3c 93c9 ed3a
00000240: 3d18 3cbe 7544 353e e265 423e 6a3b 0bbe
00000250: e675 7dbe d15c 72be ecc0 873d 2b50 82bd
00000260: 4394 d3bc f68e 873e c467 d9bd 0c90 0e3e
00000270: 09c5 a3bd 6a9b 89bd 1112 ccbd 9fea 4dbd
00000280: d1fa 6abc 9bd6 893e 6bd2 623d 7f4f 91be
00000290: b7d7 9b3c f030 153e a06f b5bc 1c2d 973d
000002a0: e0d7 fa3c 8999 57bd ab2b d83e 83f5 023c
000002b0: 668b 373e 9853 07be b85f 21bd 457f aa3d
000002c0: 6dcb 323c e219 ce3c 2ba8 aa3e 9850 173e
000002d0: dd35 d3bd 67f8 9abc 4caa d6bc b081 f5bb
000002e0: 9a2e 823e 5bd1 cdbe a43c b8bc 3187 b7bd
000002f0: 5a35 cabd 0d62 6fbe 7e76 a2bd 8b34 9b3d
00000300: 9339 5e3b 5e79 5a3e 2955 cd3d a9f0 903d
00000310: 33cb 32be ad3e 10be 1d13 423e c526 893e
00000320: e2f2 d63b c855 933c 6b70 2fbe 0dc0 27be
00000330: 0a86 95bd 0c9f 7c3d ebe3 863d 1186 843e
00000340: a092 da3e bfc0 73be 1b31 c63c b869 7cbe
00000350: 17de b4be ee39 41be 01eb 7c3d e1f8 d6bd
00000360: 8715 f6bd f1ad 053e 20a0 08bd 8aa7 de3d
00000370: 729a 103e e553 473d 3b8d adbe b1fe 753e
00000380: 4c1b 85be ee1a eb3c e14f 893c 8a24 d93c
00000390: 0fdd 733e ef82 123e b6cb 3e3e 914a 983d
000003a0: 5896 583e 0728 56be f665 54be 1099 df3c
000003b0: 2db9 23bd 6b04 dc3c 2aac 743e f4fd b7be
000003c0: 374c 85bd ae8a d43c d44c 93bd d965 ebbd
000003d0: 5208 723d bd7a 59be 4ca0 bfbd dca2 aabd
000003e0: 4da9 60be 9873 4cbe 2226 a8bd 60aa 0cbc
000003f0: 226b a9bc 8c8c c2bd d8c3 813e e893 213e
-0.074312374 0.38851273 -0.089609176 0.15823862 -0.31210116 0.10771207 -0.33759677 0.10148335
-0.16952989 -0.13536133 -0.0070243473 0.08764393 -0.033463832 -0.22856724 0.086029135 -0.03262914
-0.07252789 0.23240569 -0.13956885 -0.06652598 0.0025242777 0.06445601 -0.053497657 0.16839252
0.11421291 -0.2959515 0.16231808 -0.035772845 -0.20712736 -0.17076024 -0.11155665 0.12726705
0.03586106 -0.019866947 -0.2276108 -0.14431654 -0.09000666 -0.20213072 0.029807225 -0.3227324
0.38646615 -0.009887593 0.074498795 0.11556812 -0.3592039 -0.027187651 0.15404215 0.013956413
-0.12203762 -0.21513507 0.07676276 -0.09056829 -0.16723686 0.072022125 0.12095356 -0.2725008
-0.012412972 -0.14189693 -0.22812979 0.017552791 -0.07565454 -0.10929023 -0.0600182 -0.15193734
-0.055278517 -0.06310542 0.1291159 -0.2716597 0.048011977 0.16752994 0.24169579 -0.2754321
0.10587849 -0.26980323 0.06813 -0.0700191 -0.40123922 -0.1780531 0.1746205 -0.011047088
0.016698934 -0.023719436 -0.09494849 0.14092487 -0.37782922 0.15364496 0.080596365 -0.10274173
-0.01194899 -0.28156197 0.006183597 0.043843042 -0.22594362 0.1659459 -0.0075326487 -0.068591654
-0.020001402 0.09506699 -0.08253892 0.16473621 -0.017179029 -0.15084256 -0.0801363 -0.13967024
-0.032452986 0.28188014 0.199272 0.042043522 0.15898974 0.1645603 -0.4412493 0.005872468
0.07094536 0.06116895 0.103028156 0.036427192 -0.047827143 -0.30723614 0.2234644 -0.2956287
0.23116077 0.20946755 0.31976748 -0.008355804 0.16052558 -0.24953079 -0.122497976 -0.15105511
0.014427873 0.2180192 0.103557706 -0.06820599 -0.2960845 0.029909877 -0.11842595 0.026022036
0.07566606 -0.108054556 0.102530986 0.0019859807 0.116028465 -0.06850778 0.025044186 0.0018141739
-0.18368621 0.17701896 0.18984178 -0.13596883 -0.24752006 -0.23668219 0.06628594 -0.06362947
-0.025827533 0.26476258 -0.10615495 0.13922137 -0.07996566 -0.06719096 -0.099643834 -0.05027258
-0.014342026 0.26921543 0.05537645 -0.28380963 0.01902376 0.1456945 -0.022147954 0.07381651
0.030620515 -0.052636657 0.42220816 0.007993105 0.1792427 -0.13215482 -0.039397925 0.08325056
0.010912758 0.025158826 0.33331427 0.14776838 -0.10313008 -0.018917276 -0.02620425 -0.0074922666
0.2542618 -0.40198788 -0.022489853 -0.089613326 -0.09873457 -0.23377247 -0.07932757 0.07578381
0.0033908829 0.2133536 0.10026009 0.07077152 -0.17460327 -0.14086409 0.18952604 0.2678739
0.0065597156 0.01798524 -0.17132728 -0.16381855 -0.073009565 0.061675116 0.06586441 0.25883535
0.4268999 -0.23803996 0.024193337 -0.24649704 -0.3532569 -0.18869755 0.061747555 -0.10496689
-0.12015825 0.13054635 -0.033355832 0.10871799 0.14121416 0.048663992 -0.33896813 0.24022938
-0.25997388 0.028699365 0.016761722 0.026506681 0.23814796 0.1430776 0.18632397 0.074360974
0.21151102 -0.20913707 -0.2074202 0.027294666 -0.03997152 0.026857575 0.238938 -0.35935938
-0.065086775 0.025945034 -0.07192388 -0.11494035 0.059089966 -0.21238227 -0.09356746 -0.08331844
-0.21939583 -0.1996597 -0.08210398 -0.008585542 -0.020680968 -0.094994634 0.2534473 0.15779078

predictor.net.1.bias f4 [32]
00000000: 2dbd a03d a8ac acbd 2b27 833d c161 d1bd
00000010: a43e adbd 1d4f bb3d 6e48 a03d 593c babd
00000020: dda5 a23d eead b5bd aad0 d43d 0990 9fbd
00000030: 70ec a53d 288d abbd 6f9c a5bd 5d96 9e3d
00000040: 74b7 aa3d 9982 aabd ad9d a2bd b4af a63d
00000050: a2aa aebd a1ce bd3d 22f1 a4bd 77eb 16bd
00000060: 10ab 9dbd 054e a33d 6b9d a43d 3d68 babd
00000070: d6af a0bd 4544 c23d d703 c9bd c12f 9dbd
0.078485824 -0.08431369 0.06403955 -0.10223723 -0.084592134 0.09145949 0.07826315 -0.09093542
0.07941792 -0.08871065 0.10391362 -0.077911444 0.081017375 -0.08376533 -0.08086478 0.07743523
0.08335772 -0.08325691 -0.079402305 0.081389815 -0.085286394 0.09267927 -0.08053805 -0.03684565
-0.07698643 0.079738654 0.080378376 -0.09101913 -0.07846038 0.09485678 -0.098151855 -0.07675124

predictor.net.3.weight f4 [1, 32]
00000000: adf9 5c3e ac84 92bd 2721 68ba a4e1 9fbe
00000010: 76b4 bebe 8f44 103e eb76 a23e 7427 06be
00000020: 7b02 573e 07f3 dcbd 2691 263e a95a 973a
00000030: f516 823e 47a4 6fbe eae1 a6bd 6475 733e
00000040: 3a19 793e 6944 5ebe c635 b7bc 3aaa 7e3e
00000050: 19d0 31bf 17f1 943e 533f 8fbe c2d3 053c
00000060: 3201 93be ff33 503e 791f 953e fb2d 52be
00000070: 6bd6 22be c875 733d 3cf7 17be 04aa 0dbe
0.21579619 -0.071542114 -0.0008855038 -0.31226838 -0.37247056 0.14088653 0.31731352 -0.13100988
0.2099704 -0.10788541 0.16266307 0.0011547405 0.2540814 -0.2340251 -0.081485584 0.2377525
0.2432603 -0.21705784 -0.022364508 0.24869624 -0.69458157 0.29090187 -0.27978 0.008168163
-0.2871185 0.20332335 0.29125574 -0.20525353 -0.15902106 0.059438497 -0.14840406 -0.13834387

net.0.weight f4 [60, 37]
00000000: 48b5 15bd 9f04 15be b312 44bc f54d eebb
00000010: 3822 0f3e a781 9fbd f976 46be 1ffa 893c
00000020: be67 503d 93a8 533e 09e8 e43d b408 51bd
00000030: 72b2 bfbd 0f92 793c 3323 583e ee87 6c3b
00000040: 72b7 a1bd 0f4a f13d e493 ff3d 29e7 51bd
00000050: 4dfe 3e3e 3893 03be 552f c33d fd38 33b7
00000060: 1d2b ed3d a0ab 333d 4687 a6bd ebf2 9fbd
00000070: c15d c2bc 2a74 86bd fa3e 793d 6cb1 033e
00000080: ef12 77bd 33e4 93bc 0213 0ebd f9bf 8fbd
00000090: b2e5 243d 87dc c03d a713 bbbd 7ffc 0ebe
000000a0: f01d 71be d59e f6bd 6594 40bd 6d00 bf3d
000000b0: 95eb 4f3e 8184 473d 48c8 613e 4df3 5d3d
000000c0: 74b6 b73e 6496 1c3e 2827 05be cc47 aa3e
000000d0: 90dc 0a3e 9658 a0be 5205 d3bd 8894 29bd
000000e0: 031e 32be 33b8 1ebd b12e 03be a721 023e
000000f0: 6b39 babd 1388 9fbd f489 073d 1b38 473e
00000100: 748c 8a3e 9d87 8dbd cf33 ce3d 6c84 f6bd
00000110: bded 343e c1b7 65be 30b8 0abe 3eea 96be
00000120: e785 32bd c794 d8bd 8bf6 0e3d 7932 a23d
00000130: 5b05 2bbe f736 873d 12ed 853e 7c8b 4b3e
00000140: 0aa3 f5bd c80f 74bd 9da9 7fbe 631a c0bd
00000150: dde7 c6bd 4346 a1bd bd23 073e 69ee 87be
00000160: b272 dabc 7949 6e3e da5b be3e 8528 ea3d
00000170: 7529 89be 74c0 2fbe c5bd cebd 4b20 f7bb
00000180: 1b74 a53e c6e2 26be f9a7 95be a9bf 7fbd
00000190: 6657 61bd dd3f 01bd a259 e2bd 944c f9bd
000001a0: 108c 4bbe 802f 4fbd 6f56 de3d 8075 18bd
000001b0: e4f4 cbbd 4c0c a8be 8ac4 d0bd 36e2 203e
000001c0: dc29 ba3d 1189 8bbd 2c3d c6bc aaa9 193e
000001d0: 9711 3e3e 6d9a d3bd 96f1 41be d2d0 9cbd
000001e0: 916c b73d 3d23 bfbe 8d9d 853e 3473 b2bd
000001f0: daf7 223c d439 113e c20d c93d a978 c6bd
00000200: 4354 82bb bbb0 323e 8073 153d 690c 533c
00000210: cdd2 b2bc c2ac 8bbd b6b5 8dbe 75a4 14bd
00000220: d120 8e3d d96d a63e 6a70 cdbd 626e 01be
00000230: b2aa 013c 1256 bb3d df3e b7ba e91c f83d
00000240: c7fa a5bd 139c 13be cf94 bd3d 446f 7cbd
00000250: 05e3 9dbd 86e5 913b 2f2e b9be c928 c43e
00000260: 19aa 33bd 54ce a9bc 2e67 dd3c 268f 1d3b
00000270: c2d2 103e 6011 b9ba 07f6 9cbc c8eb a6bd
00000280: 2694 54be 5612 0cbe 34c4 15be 809e 55be
00000290: 6ca0 f6bd df6f fabd e620 9bbc 87af bebd
000002a0: 0804 1bbe 7104 4e3d f2a5 18be 654f 233e
000002b0: 4299 923d 6fa2 1d3e 2fdd 6bbe f266 673d
000002c0: 0737 4d3e a384 ba3e 347d 3d3e 3c78 f93d
000002d0: a50f 04be 364e 08bd 218d 153e dc2e 40bd
000002e0: 2c43 b4bc 7bcb bcbb 348a 2b3e 5603 88bd
000002f0: 7d6f fe3d fca8 f23d 0be8 9a3d 6f91 94bd
00000300: 4405 e9bd 7ed7 583e 23c1 1b3e d36a 1bbe
00000310: 72c8 553c 1fbb df3d 05f9 8bbd 3b3f 47bd
00000320: 3797 b83d 436f f53d a826 e83d eed9 b3bc
00000330: aebf 973e 561c 48be da45 643c c41a 3d3d
00000340: ebe4 d3bd 97fb 4c3e 921d 953c 54e5 21bd
00000350: 40b3 13be 5f87 34bd 3c2f de3d 8f22 2e3e
00000360: 61b7 2c3e c04f 4dbe 0546 963d 6e6b a0be
00000370: 7e2a d5bd 1aa3 8f3d 1dea 653e 5756 4dbd
00000380: 1311 0e3c ef98 933d e1e0 56be 4807 cd3d
00000390: 85f8 cdbc 54b8 de3d 2861 63bd 508f 813e
000003a0: d175 de3d cb32 203e be1b 563e ae3e 243e
000003b0: 1a3a 2f3d 1aa2 00bd 5c12 45be 157e 633e
000003c0: 29c5 5ebe 1a65 5dbd b604 5e3c b21c 2c3e
000003d0: 4496 833c ea06 13bd ca87 d2bd 958a d43c
000003e0: 8e96 243e f979 cc3c 2d58 073e 920a 0cbd
000003f0: d0dc 80be cffe 19bc b3ad e83b 6ec6 8a3e
-0.036549836 -0.14552544 -0.011967349 -0.007272477 0.13977897 -0.07788401 -0.19381322 0.0168429
0.050880186 0.20669775 0.1117707 -0.05103369 -0.093602076 0.015232577 0.21107177 0.0036091763
-0.078963175 0.11781704 0.1247938 -0.051245842 0.18651696 -0.12849128 0.09530512 -1.06825e-05
0.11580489 0.043864846 -0.0813127 -0.07810005 -0.023726346 -0.06565125 0.060851075 0.1286065
-0.06032079 -0.01805315 -0.034686096 -0.07019038 0.040258117 0.09417062 -0.09134608 -0.13963507
-0.23546576 -0.120420136 -0.04701652 0.09326253 0.20304711 0.04871035 0.22049057 0.054187108
0.35881388 0.15291744 -0.13003218 0.33257902 0.135607 -0.31317586 -0.10303749 -0.041401416
-0.17394261 -0.038749885 -0.1281078 0.1270815 -0.09092983 -0.07789626 0.033090547 0.19454996
0.27060282 -0.06910632 0.100684755 -0.12036976 0.17668815 -0.22433378 -0.13546824 -0.29475588
-0.04358473 -0.10575252 0.03490309 0.07919783 -0.16701262 0.066022806 0.26157433 0.19877428
-0.11993988 -0.059585363 -0.24967046 -0.09380033 -0.09712193 -0.078747295 0.13197227 -0.2654908
-0.02666602 0.23270215 0.37179452 0.1143351 -0.26789442 -0.17163259 -0.100947894 -0.0075416914
0.32315144 -0.16297445 -0.29229715 -0.06243864 -0.05501499 -0.031555045 -0.11052252 -0.12172809
-0.19877648 -0.05058241 0.1085633 -0.03722143 -0.099588186 -0.32821882 -0.10193737 0.15711293
0.09090015 -0.06813253 -0.02419909 0.15006128 0.18561397 -0.10332189 -0.18939814 -0.07657017
0.08956254 -0.37331572 0.26096764 -0.087133795 0.009946788 0.14182216 0.09817077 -0.09690983
-0.00397733 0.1745023 0.036487103 0.012881377 -0.021829033 -0.0682006 -0.27677697 -0.03628965
0.06939853 0.32505682 -0.10031207 -0.12639764 0.007914232 0.09147276 -0.0013980529 0.12114889
-0.081044726 -0.14415006 0.092568986 -0.06162955 -0.07709316 0.00445241 -0.36168048 0.38312367
-0.04386339 -0.020728268 0.027026739 0.0024041622 0.14142898 -0.0014119558 -0.019160284 -0.081504405
-0.20759639 -0.1367887 -0.14625627 -0.20861244 -0.12042317 -0.12228369 -0.018936586 -0.09310823
-0.15138257 0.050297204 -0.14907053 0.15948255 0.07158138 0.15393995 -0.23033594 0.05649466
0.20040523 0.3642932 0.18504792 0.12181136 -0.12896593 -0.033277713 0.14604618 -0.04691969
-0.022004686 -0.0057615614 0.16751939 -0.06641261 0.124236085 0.118486375 0.0756379 -0.07254302
-0.113779575 0.21175954 0.15210395 -0.15177469 0.013048278 0.109243624 -0.06834606 -0.048644286
0.09013217 0.11984112 0.11335498 -0.021954503 0.29638427 -0.1954206 0.01393267 0.046168104
-0.10346397 0.20017849 0.018202577 -0.039525345 -0.14423847 -0.044074412 0.10848853 0.1700537
0.16866829 -0.20049953 0.07337574 -0.31331962 -0.10408495 0.07013531 0.22452588 -0.05013117
0.008671063 0.07206904 -0.20984222 0.100111544 -0.025142917 0.108750015 -0.055512577 0.2530465
0.108623154 0.15644376 0.2090902 0.16039535 0.04278002 -0.031404592 -0.19245285 0.22216065
-0.21754898 -0.054051496 0.013550928 0.16807821 0.016062863 -0.035895266 -0.10279806 0.025944987
0.16073057 0.024960505 0.1321723 -0.034189768 -0.25168467 -0.00939913 0.0071007847 0.27104515

net.0.bias f4 [60]
00000000: 8b4e 0cbe 9d14 e9bc c73b 1b3e 1ef1 71bd
00000010: cb11 9dbb 42d3 a03d 53e5 8fbc 1591 853c
00000020: c787 a6bc 95b9 ed3d 4b7d 253e e764 bd3c
00000030: d3ab 083e 4c30 0a3e 6ee9 ce3d 9a86 23be
00000040: 213f 23be daa1 b2bd 7db8 d83d 3655 673d
00000050: a7a7 c13b 9cb3 113e 47ad 09be 84d6 383c
00000060: 5e1e 1b3e 4d3c 033e e6ea ab3d e469 76bd
00000070: 135b 24bc 5ffc 003d ebca 27bd 915e 33bd
00000080: 2e23 14bc b8be 28bd 6460 023e cc75 db3c
00000090: 01ef 0b3d eb52 1bbe eed2 36be a61d 04be
000000a0: f87d 8b3d 1119 653d f49a 0f3e fc82 213e
000000b0: 81e2 713b 1e6c aabb 2380 ac3c c5ba 0d3d
000000c0: 9e73 b93d f71c 4b3d 05ae 953d 3284 173c
000000d0: ab8d debd 57d8 0b3e 6f1a 21bd 319a 9e3d
000000e0: 9c52 bd3d 61bb fa3d ae5d 0ebe 4076 c93d
-0.13701837 -0.028452212 0.15159522 -0.059067838 -0.004793381 0.07852794 -0.017565405 0.016304532
-0.020328416 0.116076626 0.16161077 0.023119403 0.13346796 0.13494986 0.10103117 -0.15969315
-0.1594205 -0.08722277 0.10582063 0.056477748 0.0059098783 0.14228672 -0.13445006 0.011281613
0.15148303 0.12815972 0.08394413 -0.06015958 -0.010031479 0.03149068 -0.040965002 -0.043791357
-0.009041591 -0.04119751 0.12732083 0.026789568 0.03416348 -0.1516835 -0.17853901 -0.12901935
0.06811136 0.05593211 0.14023954 0.15772623 0.0036908688 -0.005200877 0.021057194 0.034601945
0.09055255 0.04958817 0.07308582 0.009247826 -0.10866865 0.13656746 -0.03933185 0.077442534
0.09244272 0.12242771 -0.13902923 0.098370075

net.2.weight f4 [60, 60]
00000000: 53c2 16be 0013 01bd f991 97bc 769e 6e3d
00000010: 899f 5bbe 2083 823c 2878 f0bd 5534 593e
00000020: 7327 88bd f782 c2bc 0b60 383d 4baa 01be
00000030: d917 153e 097a 19be 818f 7ebe 6bfc 583a
00000040: 8192 8bbc e861 84bd 06df 0abd 91af bf3c
00000050: a807 9f3d 1aaa e4bd 08e1 81bd 3532 26bd
00000060: fdd3 9bbb a75a f23d 3532 89bd 4d15 313e
00000070: 73c4 273e 46f0 aa3d 6699 343e 84ca 9a3d
00000080: 114f 85bc be3c 0bbe 6ef5 f93d 7b0a 3fbd
00000090: 0fd0 00be 5779 653e 253a 303e 8ae9 30bd
000000a0: 600a f0bb 7955 f93c 411b 53bc 2dac a5bd
000000b0: 26a6 1f3c 3ced 283c c993 60be e82a 1bbc
000000c0: 0fd3 03be c338 993d f20a 8bbd 6b64 023c
000000d0: 13e8 2b3e c0c1 0bbe 5498 933d 0d10 0fbe
000000e0: a95d f63c 6dfa c3bc 54ab 023e f5cd 20be
000000f0: 1bff 13be 7e27 773d aaad afbd 4de5 6c3e
00000100: aa5b 003e a080 113e 7734 893d 9adf 3a3d
00000110: 1161 173d 6081 8abe 71ec 7cbc 50c6 13be
00000120: 43f7 28be ead8 52be 1906 9cbd 0eb1 49bd
00000130: 09bc 52bd 8008 ba3c 1005 823e edb4 8dbd
00000140: acbd 103d d6a5 cbbd ea49 09bc 9e1c b83c
00000150: 2bb6 d83d 7a0c 00bd 34e7 3d3e 72c8 433e
00000160: a022 473c 1303 bdbc 3a13 3ebd c368 52be
00000170: e3a1 26be f27f 8b3d 7f73 0e3e cec9 07bd
00000180: b4f1 05bc 5c86 8a3d fd22 24be 111f fbbb
00000190: 190e 31bd 3f9e 403d f470 6ebc 0dcb 313e
000001a0: 9eb9 583e 3dd1 ae3d 1c34 c1bd ca18 ac3d
000001b0: 5300 423c 2dde 60be 98bd edbd 6c45 643e
000001c0: 04da 21be f536 4bbd 7e95 a6be 3843 903d
000001d0: cbc6 8ebd 5e63 b83c 0701 e83d 8e68 55bc
000001e0: 3e20 213d d6fb 0f3d 92b8 d23d ee50 813d
000001f0: 2cec 15be 4461 64be ea27 ee3d 802c ed3d
00000200: bf80 213d d1c3 c8bc 37c9 29bd c2fb 063e
00000210: b517 99bd bc5c 403c 6ea5 a53d f154 723e
00000220: 4d8b 8d3e 8292 debd 971c 7abe 96d0 1bbe
00000230: a539 883d b9a3 e9bd 1f89 4dbe dbb4 e5bd
00000240: 0037 843e 08da 2bbd b5b2 94bc 6ddc 8fbd
00000250: 7262 403d 18ee 953d e668 8e3c dfad 873c
00000260: 0a8f 7d3c 6f9d b5bc 02e3 743d 725a 1fbe
00000270: 5299 a4bd 687b d13d ca84 3a3e 009e 873d
00000280: bbbb e73d 114d 503c d131 b23e eb3d d4bd
00000290: 4fb6 743e 8356 12bd d232 0e3e 0d30 173e
000002a0: fca4 cd3d c768 073e 8d99 ec3d 6b7d bbbc
000002b0: ab84 4abd ca64 1e3e 7e6a 2cbd 43e6 353e
000002c0: 7fc3 1bbe 2d64 41bd 9743 a93b 1493 0cbc
000002d0: 6f7d aa3d 165b 1c3e 227b e43d 358b 353d
000002e0: 0fa0 0ebe af4b b63d 01ce 67be a554 cf3c
000002f0: 1c24 3ebd 6863 42bd 4b4d e8bd 16cf b3bd
00000300: 2e9d eb3b 1c04 1abd 517d 8fbc 2708 2c3e
00000310: ef6c f03d 95d3 9e3b 562b ce3c 19de ff3d
00000320: 8923 7b3e 54d1 e4bd 8d73 1abe a3d3 e03d
00000330: 6496 423d 68d2 203e b55e 89bc 11a7 3e3d
00000340: f8fb 0cbd b47e ff3c 39cd 88bb 1994 26be
00000350: a097 473e 7ed9 403c 50c7 e4bb a2e2 0bbe
00000360: 7dd1 92be f69a 103e ae0e 143e 80f3 dcba
00000370: c69b 5cbe 4ae9 663b bcc2 cc3b 5fc9 1cbc
00000380: 0aef 1f3e 7d92 a33d 4fb8 c7bd 8e79 353d
00000390: 4234 53bd 5582 0dbd 36f8 6fbd 743e 873d
000003a0: 1e94 8ebd 67cc 863e 8520 f53d 02a7 6bbc
000003b0: e26f 9d3c 3d9b cf3d ccf2 11be 36f5 9fbd
000003c0: 5c79 003e 22ee 7e3c ad39 e83d 5589 693b
000003d0: d215 61bd 161c b6bd 680a f33d 296a 04be
000003e0: 89b9 b83d e88a df3b a4e2 1dbe 570a 02be
000003f0: 38d0 9abc 8311 193b 8e7c 483d fe3b a53d
-0.14722566 -0.03151226 -0.018502222 0.05825659 -0.21447577 0.015931666 -0.11741668 0.2121137
-0.06648149 -0.02374409 0.04501347 -0.12662618 0.14559878 -0.14987959 -0.2485943 0.00082773593
-0.017037632 -0.06463987 -0.033904098 0.023399146 0.07765132 -0.11165257 -0.063417494 -0.040575225
-0.0047554956 0.11833697 -0.06699029 0.17293282 0.16383533 0.0834661 0.17636642 0.07558158
-0.016273053 -0.1359739 0.12205015 -0.046640854 -0.12579368 0.22409569 0.1720968 -0.04319147
-0.0073254555 0.030436264 -0.012884916 -0.080894805 0.009744203 0.010310467 -0.21931376 -0.009470679
-0.12873481 0.074815296 -0.06789197 0.007958512 0.16787748 -0.13648129 0.07206789 -0.13970967
0.030073958 -0.023923123 0.12760669 -0.15703566 -0.14452784 0.060340397 -0.08578046 0.23134346
0.12534967 0.14209223 0.0669946 0.0456234 0.036957804 -0.2705183 -0.015437231 -0.14431119
-0.16500573 -0.20590559 -0.076183505 -0.049241118 -0.051448856 0.022709131 0.25394487 -0.069192745
0.035337135 -0.0994374 -0.008379439 0.022474583 0.10581621 -0.0312619 0.18545228 0.19119433
0.012154251 -0.023072755 -0.046405055 -0.20547776 -0.16272692 0.06811513 0.13911246 -0.03315144
-0.008175302 0.06763908 -0.16028972 -0.0076636155 -0.043226335 0.047025915 -0.014553297 0.17362614
0.21164557 0.08536003 -0.09433767 0.08403166 0.011840898 -0.21959753 -0.11608428 0.22292107
-0.15805823 -0.049612958 -0.32535928 0.07044071 -0.069715105 0.02250832 0.11328321 -0.013025416
0.03933739 0.03515228 0.1028911 0.06314264 -0.14640874 -0.22302729 0.11628707 0.11580753
0.039429422 -0.024507435 -0.04145166 0.13181975 -0.07475225 0.01174086 0.08088194 0.23665215
0.2764534 -0.10867788 -0.24424969 -0.15216288 0.0665162 -0.11408181 -0.20071839 -0.11216136
0.25823212 -0.041955978 -0.01815162 -0.07024465 0.046968885 0.073208034 0.017384004 0.0165624
0.015475998 -0.022169797 0.059786804 -0.15561846 -0.08037056 0.10228616 0.18214718 0.06621933
0.113151036 0.012713687 0.34803632 -0.103633724 0.2389767 -0.035727035 0.13886574 0.14764424
0.10041234 0.13223563 0.11552725 -0.022886952 -0.04944293 0.15468135 -0.042093746 0.17763619
-0.15211295 -0.047214676 0.005165528 -0.008579988 0.08324706 0.15269122 0.11156298 0.04432221
-0.13928245 0.08901154 -0.22637178 0.025308916 -0.046421155 -0.047458082 -0.113428675 -0.08779733
0.007190368 -0.037601575 -0.01751581 0.16799985 0.117395274 0.004847 0.025167149 0.12493534
0.24525274 -0.11172739 -0.15083142 0.109778665 0.047506705 0.15705264 -0.016768793 0.046546046
-0.034419984 0.031188346 -0.004174855 -0.16267432 0.19491434 0.011770604 -0.0069817677 -0.13660672
-0.28675452 0.14121613 0.14458725 -0.0016857237 -0.21543798 0.0035234266 0.0062488 -0.009569495
0.1561853 0.07986925 -0.09751951 0.044305377 -0.05156351 -0.034548122 -0.05858632 0.06603709
-0.06961845 0.26327822 0.11969093 -0.0143830795 0.019218389 0.10137031 -0.14252776 -0.07810442
0.12546295 0.015559705 0.11339126 0.0035634835 -0.05495245 -0.08892076 0.11867219 -0.12931122
0.09019763 0.006821979 -0.15418488 -0.12699257 -0.018898115 0.0023356385 0.04894691 0.08068083

net.2.bias f4 [60]
00000000: 8651 943d d97f e93d a76d 2a3d c998 b43d
00000010: 592b cc3c fc72 903d f51b 373c 042b c03d
00000020: 7f45 5abd 8f64 573d e135 e33d 46bb 50bd
00000030: cb6a cebd f5e1 ba3d 551e 66bd e4bf 38bd
00000040: 099d de3b e7bb 04bd 85f3 bf3d fe04 9cbd
00000050: 91b8 023e 8ea7 26bd 0791 dcbc e35f 353c
00000060: fcd0 073d 82f8 983c 3882 7a3d 3976 aa3d
00000070: 787e e5bd e9a5 9abd 7e06 6fbd c137 5cbd
00000080: 9d31 253d 7ecf b6bc 7433 813d 134d bc3d
00000090: 3923 843d 745d b6bd 086d bf3d 8619 1c3d
000000a0: 41cd a4bd 7e3a 973d daa3 15bd 5695 543d
000000b0: 0615 cf3d 1602 a63d 2cf8 a6bd 936a b03c
000000c0: cd8a a9bd 01d3 e33d e0d9 853d 8920 e3bd
000000d0: d720 b23d 878a b23c af63 b0bb 708c e33c
000000e0: 53b1 bf3d b85e c4bc 8447 b5bd 8731 983c
0.07242112 0.11401338 0.04160848 0.08818204 0.024923014 0.070531815 0.011176099 0.093832046
-0.053288933 0.052586135 0.11094261 -0.050959848 -0.10078963 0.09125129 -0.05618127 -0.045104876
0.0067936224 -0.03240576 0.093726195 -0.0761814 0.12765719 -0.040687136 -0.026924623 0.011070224
0.033158287 0.018673185 0.061159343 0.083233304 -0.112057626 -0.07551176 -0.0583558 -0.05376411
0.040330518 -0.022315737 0.06308642 0.09194388 0.06452031 -0.089045435 0.09346968 0.03811028
-0.080469616 0.073842034 -0.036533214 0.05190023 0.10111432 0.081058666 -0.08152804 0.021535194
-0.08278427 0.1112423 0.06535697 -0.1109019 0.0869767 0.02179457 -0.005382977 0.027776927
0.09359994 -0.023970947 -0.08851531 0.018578304

net.5.weight f4 [1, 60]
00000000: f1b6 de3e 74d8 fc3d e5cd 85be d6b3 703d
00000010: d93b e23d 9c5d edbe 610e 9fbd 1c40 ad3c
00000020: 8382 803e 59bf 493e 32a1 0cbb f95c dabd
00000030: 1c96 da3d 57fd d03c 5756 963d 0652 03be
00000040: 2459 113e 40ed 47be b2bf cdbd a6f9 9b3e
00000050: 5c6f a9be 7adf 0d3e 60b5 233e 5bda 05be
00000060: c8c9 253d 9117 2dbd fdc5 33bd 8733 623e
00000070: 705f 39be 513c 8c3e d9f5 5dbd 04ee bbbc
00000080: 2430 ea3d b84b edbc b993 1c3b c9bf 1a3d
00000090: 2791 36bd 50af 6fbd e34b 003e 98dd 523e
000000a0: a73c babb 926a fb3d 8a37 333b 663c cb3e
000000b0: eb83 813d 840a 0d3e b2a2 33bd b537 b23d
000000c0: a14b 85be ea25 7ebe 1626 263e 0682 82bd
000000d0: 9708 c93e 2465 17be e512 29bd cac0 7d3d
000000e0: dcda 153e 3edb a23c 6f79 15bd 920c c53c
0.43498948 0.12345973 -0.26133648 0.058765255 0.11046571 -0.4636048 -0.077664144 0.021148734
0.25099573 0.197019 -0.0021458385 -0.106622644 0.10673162 0.025511427 0.07340687 -0.12824258
0.1419416 -0.19524097 -0.100463286 0.30463904 -0.33092773 0.13854781 0.15987158 -0.13071577
0.040475637 -0.042258803 -0.04388999 0.22089969 -0.18102813 0.27389768 -0.054189537 -0.022940643
0.11434963 -0.02896677 0.002389176 0.037780557 -0.04457202 -0.0585168 0.12528948 0.20592344
-0.0056835 0.12276186 0.0027346336 0.39694518 0.063239895 0.13773543 -0.04385633 0.087020315
-0.26034263 -0.2481915 0.16225466 -0.06372456 0.39264366 -0.14784676 -0.041277785 0.061951436
0.1463427 0.019879933 -0.03649276 0.024053846
