results analysis/processed results/PINN/NASA results/3-3/Experiment4/model.pth (torch, 59646 bytes, 14 tensors)

encoder.net.0.weight f4 [60, 17]
000000 ab 41 92 3e a1 67 9d bd f7 81 88 3e d5 53 3f 3d
       0.28565726 -0.07685781 0.26661655 0.046710808
000010 08 b2 f0 bd b3 c0 b5 3d 44 ab 6c 3d ba 65 4c bd
       -0.11752707 0.08874645 0.05778052 -0.0499017
000020 88 04 a7 3d 80 ef f8 bc 26 4c 81 3d d9 f8 76 bd
       0.08155161 -0.03038764 0.06313352 -0.060295913
000030 59 5b e2 3c b8 ff 4c 3d c0 d3 81 bd cb 93 c8 3d
       0.027631449 0.05004856 -0.06339216 0.09793814
000040 d0 76 4c be 38 0c 35 3e cd af 0c 3e ef b3 39 3e
       -0.19967198 0.17680442 0.13738938 0.18135045
000050 a5 ae 90 3e 2d 5f 3d 3e da af a7 3d 11 e8 ee 3d
       0.28258243 0.18493338 0.08187838 0.11665357
000060 cd 4e b6 be 3a 00 49 be f3 73 e0 3d 20 53 9a 3e
       -0.35606995 -0.19628993 0.109596156 0.30141544
000070 e5 b0 14 be 4f 37 1d bd b0 ae 39 be b9 47 8d 3d
       -0.14520605 -0.038382825 -0.18133044 0.06898446
000080 0f 05 2e 3d a1 02 19 bd aa 23 f7 bd ea 96 ad 3d
       0.042485293 -0.037356023 -0.12067349 0.0847605
000090 0e 79 87 3d 0a 9c 19 bd 96 e2 83 be d1 e2 33 be
       0.06614886 -0.037502326 -0.2575881 -0.17566992
0000a0 46 47 f4 bd c8 55 3d 3e 73 0a a1 bd 2b cb 35 be
       -0.11927657 0.18489754 -0.07863321 -0.17753284
0000b0 f0 13 10 3e 99 27 33 bd 27 92 35 3e 42 2a 80 be
       0.14070106 -0.043738935 0.17731534 -0.2503224
0000c0 3c 51 86 be 41 64 bd be 4d 62 9b bd 83 c8 0c 3d
       -0.26233852 -0.3699055 -0.07587109 0.03437091
0000d0 23 ab 9f bc 6c 8a 32 bc a8 10 5b be 97 88 88 be
       -0.019490784 -0.01089726 -0.21393073 -0.2666671
0000e0 ae 77 ef bd 51 8b 62 3d fe 70 33 be 25 d0 27 3c
       -0.11692749 0.055308644 -0.17523572 0.010242497
0000f0 8e 5a eb bd c4 e0 4c 3d ba 1f ad be 5c f7 f6 bd
       -0.11491881 0.05001904 -0.33813268 -0.12058899
000100 a3 c3 2b 3e 45 fd b5 3d 9f 23 68 be 0b d9 fe bd
       0.16773848 0.08886198 -0.22669838 -0.124437414
000110 35 a4 c5 3d ce 92 57 be 8e 28 1c be e0 96 b1 ba
       0.09650461 -0.21052095 -0.15249845 -0.0013548993
000120 ce 3c 8f 3d 7b ae 5f be c8 51 55 be 5a 48 d7 bb
       0.069940194 -0.21843903 -0.20831978 -0.0065699043
000130 75 ce 9d bc 37 c4 2a 3e e8 71 a7 bc 4b a8 19 3d
       -0.019263485 0.16676413 -0.020440057 0.037514012
000140 34 ca 26 3e 20 e4 a8 3c 82 e8 18 3e ef 22 8b 3e
       0.16288072 0.020616591 0.14932445 0.2717509
000150 0c 57 07 bb bc 78 4b 3d 57 53 c4 3e 15 22 4f be
       -0.002065125 0.04967569 0.38344833 -0.20227845
000160 75 5a 8c be 99 a1 35 3d ac 82 5c 3e cc c5 d3 3c
       -0.27412763 0.044343565 0.21534222 0.025851153
000170 3b ed 95 3e 1f 3a be bc 0f db af 3d 2b 28 0e bd
       0.29282555 -0.023221074 0.08586704 -0.034706276
000180 26 6b 4b 3e 8e 2a d3 3c a2 1a 8d bd a9 22 c3 bd
       0.19865093 0.025777128 -0.068898454 -0.09528095
000190 c5 fe b3 bd fa 2c a5 3d d6 56 bd bd 20 ad 48 be
       -0.08788828 0.08065219 -0.09245078 -0.19597292
0001a0 f2 98 68 bd 98 5f 72 bd 1b 83 0b 3e 62 a1 ba 3d
       -0.056786485 -0.059173197 0.13624232 0.091128126
0001b0 83 8c 5b 3d 0e 99 c6 3d 23 eb 9d bd 6d 3b c4 bd
       0.0536008 0.096971616 -0.077108644 -0.09581647
0001c0 47 46 d2 bd 25 7c b5 bd a7 d0 bd 3b b2 74 33 3d
       -0.102673106 -0.08861569 0.0057926956 0.04381246
0001d0 8d 31 90 3e 72 2d 18 bd 0c 66 1c bc ac 23 26 bd
       0.28162804 -0.037152715 -0.009545814 -0.040561363
0001e0 93 95 25 be ce 56 19 be 23 04 d2 bd c5 26 ec 3d
       -0.1617034 -0.1497452 -0.10254695 0.11530832
0001f0 0a 8d c6 3c 3d d7 84 3d 80 7c 8d 3d 7b 8f 2a be
       0.024237175 0.06486366 0.06908512 -0.16656296
000200 be 1d 38 3e e4 2b a6 3d b1 ad 3e be 70 12 c1 bd
       0.17980096 0.0811384 -0.18620946 -0.09427345
000210 f0 01 ea ba f6 f8 b7 3d 7b e2 5f 3d cf 71 aa bc
       -0.0017853361 0.089830324 0.054659348 -0.020806221
000220 df 1b d1 bd f3 68 7e 3d ba 11 28 3d 2f eb 0d 3e
       -0.10210394 0.062111806 0.04103253 0.13859247
000230 77 62 73 ba a1 d4 2d bc de b5 c1 bd b4 9d bb 3d
       -0.0009284387 -0.010609777 -0.094585165 0.09160939
000240 dc 7d 56 bb 9b 03 1c be 34 34 4c bd d2 6e ae 3d
       -0.0032728827 -0.1523575 -0.049854472 0.08517231
000250 aa a7 99 3d cb 40 e8 3e 4d f3 ba bd b1 31 2d bd
       0.075026825 0.45361933 -0.09128437 -0.042283718
000260 08 82 8e 3d 54 4d 9e 3e ab 7f 2d 3e a4 92 b5 bd
       0.06958395 0.30918372 0.16943233 -0.0886586
000270 dc 37 f7 3b 96 b5 ca 3d a5 a8 1e 3e 26 8f 21 be
       0.0075445008 0.09897916 0.1549402 -0.15777263
000280 5a 7a cb 3d 8d fb 7a be 80 17 49 be 9c 96 33 be
       0.09935446 -0.24510022 -0.19637871 -0.17537922
000290 49 09 89 be 31 b8 69 bd 9a 4b 5b be 0b 59 29 bd
       -0.26764897 -0.057060424 -0.21415558 -0.041344684
0002a0 03 af 72 be d8 c8 21 bd 11 86 cb 3d c4 4e 57 bc
       -0.23699574 -0.03949818 0.099376805 -0.013141338
0002b0 40 33 1e 3e ca 8c 8d 3d 23 2b 3d be d7 41 e7 3d
       0.15449238 0.06911619 -0.18473487 0.11291855
0002c0 4f 14 70 bd 6d a2 53 3e 48 5f 9e 3c 88 87 78 3d
       -0.058613118 0.2066743 0.019332543 0.060676128
0002d0 51 30 8b 3e e5 38 92 bd 65 ee d0 bd a5 d0 95 3d
       0.271853 -0.07139758 -0.1020172 0.073151864
0002e0 c9 23 a9 bc cc 43 3e be ef 69 bc 3e bf 0e 59 3e
       -0.020646947 -0.1858055 0.3679957 0.21197031
0002f0 82 b8 51 3e 5e d9 0f bd b8 3c 31 bd 7a f8 9e 3d
       0.2048054 -0.035119407 -0.043270797 0.07762237
000300 ca 28 5b be 39 59 26 bd 75 07 74 bd 57 47 5f 3e
       -0.21402279 -0.040612433 -0.059577424 0.21804558
000310 d0 f0 a0 bd fc 26 5b 3e ee 1e 3f 3e 20 07 88 3d
       -0.07858431 0.2140159 0.18664142 0.06641984
000320 f3 90 aa 3c 7f 35 02 3d 40 e3 29 3e 60 ba 43 be
       0.02082107 0.0317893 0.16590595 -0.19114065
000330 81 0d d8 3c 05 6b 19 3e 01 85 69 3c f9 74 5f 3e
       0.026373627 0.14982231 0.014252902 0.21821965
000340 74 7a 01 3c e0 ee b7 3c 9b 83 83 bd 29 7e 40 be
       0.00790273 0.022452772 -0.06421586 -0.18798126
000350 3a db 82 be d8 a9 0f be f2 3d 63 be 33 2d 8e 3d
       -0.25557882 -0.14029634 -0.22191599 0.06942215
000360 ba 3b c7 bc 65 d5 a9 3c ab 52 31 be f7 50 80 bd
       -0.024320472 0.020731637 -0.17316692 -0.06265443
000370 da 21 39 3e ea 03 5d 3c 07 f4 03 be 83 fb db 3d
       0.1807932 0.013489703 -0.12886058 0.107413314
000380 fa 63 e0 3d ab d5 6c 3d c6 90 8c bd d4 b0 82 be
       0.10956569 0.057820957 -0.06863551 -0.25525534
000390 05 30 bc 3d eb 5a 94 bc b6 f3 6d 3e f2 4e 41 bd
       0.091888465 -0.01810976 0.232375 -0.04719443
0003a0 e0 eb 11 bd 99 84 26 3d 5d a9 f0 bd 79 1f 7c be
       -0.03562534 0.0406538 -0.117510535 -0.24621381
0003b0 6b 90 ac bd 2f 4e 1b bd 4e 08 7d 3d 79 93 5e 3e
       -0.08425983 -0.03791636 0.061775498 0.21735944
0003c0 62 b5 68 be b5 ce 2c 3e 73 86 03 be cd d7 d6 bc
       -0.22725442 0.16875727 -0.12844257 -0.026225949
0003d0 98 40 9a be 1b 26 74 be 39 4b b4 3e c4 08 f2 be
       -0.30127406 -0.23842661 0.3521364 -0.47272313
0003e0 71 e5 69 be ae ee 73 3d 8a dc a9 3e d7 dd e5 bd
       -0.22841431 0.059553795 0.3317607 -0.11223953
0003f0 06 22 84 3e 4a 6b 72 be ee 1f 78 3d bc 81 17 be
       0.25807208 -0.2367374 0.060577326 -0.14795583

encoder.net.0.bias f4 [60]
000000 7c d4 bc 3d 05 c6 88 bd 92 c1 6c bd 27 b7 ae 3d
       0.09220216 -0.06678394 -0.05780179 0.08531027
000010 22 0a 7d bb 31 28 9a 3d f4 1e 86 3d ed 07 c3 bd
       -0.0038610776 0.07527197 0.065488726 -0.09522996
000020 d2 ab db bd aa 62 00 3d a1 bb 62 bd 32 88 b7 bd
       -0.107261315 0.031344093 -0.055354718 -0.08961524
000030 9c 87 a3 bd 22 c3 ab bd ac 6b 92 bd 61 f5 91 3d
       -0.0798485 -0.08386828 -0.07149443 0.071268804
000040 0c 6c 39 bd a6 dc 9d 3d 54 d9 b1 bd fa bf 90 bd
       -0.045269057 0.07708101 -0.0868403 -0.070678666
000050 c3 dd c1 bd 6a 4e 24 bd 54 ab 83 3d f5 6a 02 3c
       -0.09466126 -0.040113844 0.064291626 0.007960071
000060 b1 58 af 3d 07 6a 27 bd d6 74 04 bd 7f ce b0 3d
       0.085618384 -0.0408726 -0.032337986 0.08633136
000070 c2 c8 c8 bd 7c c9 35 3d de 4d ae 3d ca 9e b4 3d
       -0.098039165 0.044381604 0.08510946 0.08819349
000080 fd 61 ab 3d 45 a3 8f bd b5 8c 68 bd fd 18 22 3d
       0.08368299 -0.07013563 -0.056774814 0.039574612
000090 fb 28 7d 3d 2d 90 a3 bd 54 6f 97 3d 0a 20 a6 bd
       0.06180666 -0.07986484 0.07394281 -0.0811158
0000a0 32 ae 88 3d 9b 23 2f 3d e9 dd a4 bd de 34 86 3c
       0.0667385 0.042758565 -0.080501385 0.01638263
0000b0 e9 b6 94 bd 66 40 8c bd ed 2a 63 3d 7b 9e 89 3d
       -0.0726145 -0.068482205 0.05546086 0.06719681
0000c0 45 ef 92 bd 3a 9a 73 3d 81 37 2b bc aa 99 80 3d
       -0.07174543 0.059473254 -0.010450245 0.06279309
0000d0 a2 21 d3 bd 35 5c 9d bd 9d 3c a8 bd c8 cb 96 bd
       -0.10309149 -0.07683603 -0.08214686 -0.07363087
0000e0 87 ba d1 bd 73 8f 90 3d 7b 0c 85 3d e2 b0 a0 3d
       -0.102406554 0.07058611 0.06496521 0.07846238

encoder.net.2.weight f4 [60, 60]
000000 c2 bc db 3d e8 38 97 be a0 e4 38 3e d7 30 00 be
       0.10729362 -0.29535604 0.18055964 -0.12518631
000010 8e d2 5c bc bc 14 c4 bd 91 ef ca 3d 2a d2 89 bc
       -0.0134779345 -0.09574267 0.09908975 -0.016823847
000020 bc 4c be bd 9c ed 83 bd fb d6 62 3d 86 9e f9 bd
       -0.0929198 -0.06441805 0.055380803 -0.12188439
000030 8a 5e 0e 3e bb f8 0c 3e 67 e8 aa bc 46 76 11 3e
       0.13903251 0.13766758 -0.020862771 0.14205274
000040 41 44 2c bc 4f 02 72 be 87 f8 47 be bb 6b 95 bc
       -0.01051432 -0.23633693 -0.195284 -0.018239846
000050 33 1e 0b 3e b8 c9 76 3e 33 ac 17 bd 02 d1 2f be
       0.13585739 0.24100387 -0.037029456 -0.17169574
000060 e0 e0 01 3e 9e 63 1a 3e 47 92 c5 3d 52 a1 4c be
       0.12683439 0.15077063 0.09647041 -0.19983414
000070 c0 09 ce 3b 18 57 3a 3e 26 44 0a 3e 0b a7 cc 3e
       0.0062877834 0.18197286 0.13502559 0.39971194
000080 91 bb 43 3d 9a c0 30 3d f5 f9 02 bd d7 cd 59 be
       0.0477863 0.04315243 -0.03197666 -0.21269928
000090 5d ef 73 3e 84 bb 91 bb f3 b6 ef bd ae 09 03 be
       0.23821779 -0.0044474024 -0.11704817 -0.12796661
0000a0 83 ec 75 3b 2b 4d 1c 3e 0b 9d ac bc cf 8d a2 bc
       0.0037525005 0.15263812 -0.021070978 -0.01984301
0000b0 e4 8f b7 bc 87 63 0c bd 51 64 f4 3c a9 f0 79 3b
       -0.02240748 -0.034274604 0.02983299 0.003813783
0000c0 e1 90 b5 3d 4b a7 3d be 54 7e 75 3d 93 ff 0a 3d
       0.08865524 -0.18520848 0.05993493 0.03393514
0000d0 e0 c0 2f be 8f 0c e1 3d 60 7a 2a 3e dc 34 b6 3c
       -0.1716342 0.109887235 0.16648245 0.022242002
0000e0 e1 94 48 be 8a 57 50 3d e5 4c 25 be 6d f2 5a 3d
       -0.19588043 0.050864734 -0.16142614 0.05345385
0000f0 9c 55 4f 3e 07 d8 12 3e bb d3 2c 3e 6d 90 26 bc
       0.20247501 0.1434022 0.16877644 -0.01016627
000100 da 8b b6 3c c4 21 b4 bc 0e 46 09 be 3a ac 57 3c
       0.022283483 -0.021988757 -0.1340563 0.013163621
000110 ae 02 72 bd e0 6b 09 3e 97 5e b6 3d 8d d6 35 bc
       -0.059084587 0.13420057 0.0890476 -0.011098516
000120 31 65 70 bd a5 34 9c bb eb 9a 0a be 11 f8 29 ba
       -0.058690254 -0.004767018 -0.13535659 -0.0006483803
000130 4e 8d 8e bb d8 07 26 3d fa d9 0b 3e f6 0f da be
       -0.004350341 0.040534824 0.1365737 -0.42590302
000140 ae aa 34 be a4 50 6c bd 4d 84 3c 3e 70 03 99 3d
       -0.17643234 -0.057694092 0.18409844 0.07471359
000150 5e 35 a7 bd 01 26 ad bb 1b 3c eb 3c 2d b8 ec 3c
       -0.08164476 -0.0052840714 0.028715184 0.028896416
000160 60 b9 ba bd 14 92 b1 3d 25 4e bd 3d 5a 8b c9 bd
       -0.09117389 0.0867044 0.092434205 -0.09841032
000170 ec 54 40 3d 3d 25 36 3e d4 89 86 3e 48 dc c5 3d
       0.046955988 0.17787643 0.2627703 0.09661156
000180 32 4c 01 3e 6e 6e ce bb 76 5a 22 3e f1 27 93 bd
       0.12626722 -0.0062997853 0.1585482 -0.071853526
000190 11 a6 eb bc b9 03 14 be b9 ea 24 be 35 6f b8 bd
       -0.02876571 -0.14454545 -0.16105165 -0.09005586
0001a0 85 69 2f 3e 50 0e 7a 3d 7a 23 ef 3d 35 52 1b 3d
       0.17130096 0.061048806 0.116766885 0.037920196
0001b0 c6 5b 2d bc 89 a3 de bd 35 83 d1 3c b7 6e f1 3d
       -0.0105809625 -0.108710356 0.02557526 0.11788695
0001c0 03 af e0 bc 44 ee a0 bd 2a d6 37 be 70 e8 d5 bd
       -0.027427202 -0.078579456 -0.17952791 -0.104447246
0001d0 8a 2c 57 3d 1b c9 35 3d 11 b0 11 3d fa 6a 26 3d
       0.05253271 0.044381242 0.0355683 0.040629365
0001e0 3d 15 97 bd ea 40 e4 bd 44 a3 52 3e 68 ca 08 be
       -0.07377098 -0.11145194 0.20570093 -0.13358462
0001f0 4c f2 fb 3d ec 72 8f 3c 40 13 4e 3e aa f3 e3 bd
       0.12302074 0.017510854 0.20124531 -0.111304596
000200 07 64 85 bd e8 73 dd 3d 99 5c 67 bd ae 51 07 3d
       -0.06513219 0.10813123 -0.056484792 0.03303688
000210 da 61 e7 bd 84 91 b7 3d 95 e8 b9 3a 94 6d b4 bd
       -0.112979606 0.08963302 0.0014183695 -0.08809963
000220 50 ce f9 3d c6 1e 24 bd c0 3e 6d 3d cc d7 5b be
       0.12197554 -0.04006841 0.05792117 -0.21469039
000230 88 55 df be 48 27 a4 bd 1a b7 b8 3c 09 74 a2 3d
       -0.43619943 -0.08015305 0.022548247 0.07932288
000240 38 78 88 bb 9a 87 0e 3e 76 f3 1e be 19 d3 62 bd
       -0.004164722 0.13918915 -0.1552256 -0.0553771
000250 bc 64 d6 bd 5f fe 0a bd 3a e0 3f bd 84 c5 cc 3d
       -0.10468432 -0.033933993 -0.0468447 0.099986106
000260 16 c7 07 be 45 fd 9d be 37 7d 0f 3d 9c c2 a7 bd
       -0.13259539 -0.30857292 0.035031524 -0.08191416
000270 91 5f ac 3d a2 ba 04 3d 3b 34 e3 bd 5c 0e a8 3d
       0.08416665 0.03240455 -0.110939465 0.08205864
000280 7a 6d f7 3d 9a c3 bb 3d b7 93 21 3d 8e 19 7e 3e
       0.12081428 0.091681674 0.039447512 0.24814436
000290 a7 4b bd be af 8f 48 3e 15 35 a9 3d 3b 9e 97 37
       -0.3697178 0.19586061 0.08262078 1.8074285e-05
0002a0 3b 9c e8 3d 3a e0 c2 bd 62 a8 3a bd 38 11 c1 3c
       0.113579236 -0.09515424 -0.04557074 0.02356778
0002b0 10 59 15 3d 54 4d 07 3c db e8 e5 bc 1d c4 f5 bc
       0.03646189 0.008258183 -0.028065136 -0.03000074
0002c0 3a e5 16 be da e2 90 be 3a a9 a8 be 52 92 20 be
       -0.1473588 -0.28298074 -0.3294161 -0.15680817
0002d0 fc 66 aa bd 2d e3 37 bc db 8f e6 bd 69 73 fc 3c
       -0.08320424 -0.0112235965 -0.11257907 0.03081675
0002e0 c3 01 61 3e 14 73 9c bd 22 a1 57 3e 25 5e be bd
       0.21973328 -0.07639137 0.21057561 -0.092953004
0002f0 0f b1 0f 3d 59 f8 00 be 35 97 7e be 3d a2 5b bc
       0.035080966 -0.12594737 -0.24862368 -0.01340538
000300 3f 5f cc bd 71 89 75 bd 27 d0 aa 3d ca 3f 02 3e
       -0.09979104 -0.059945527 0.08340483 0.12719646
000310 28 2d 30 3e 36 54 05 be 1a 2e 27 3d ce b8 ad 3d
       0.17204726 -0.13020405 0.04081545 0.08482514
000320 3c 0e 0f 3e e8 81 d6 bc da ef c6 bc c9 8d 1d be
       0.13970274 -0.026184991 -0.024284292 -0.15386118
000330 90 cd 12 be 3b f9 74 3e 04 ce 44 3d 5f 3a 4f ba
       -0.14336228 0.23923199 0.048048034 -0.00079051213
000340 05 8e 2d be ba c9 c7 3d 2f 35 c8 bd 50 ea 2f 3c
       -0.16948707 0.09755273 -0.09775769 0.010737017
000350 b0 2d 4b 3e 24 da a4 bd 47 59 3b bd 16 67 e3 3d
       0.19841647 -0.080494195 -0.04573944 0.111036465
000360 c6 db 67 bd 71 6e 2e 3d 78 0b 85 3d 6a dc e1 bd
       -0.056606077 0.042585794 0.06496328 -0.11028369
000370 a4 d3 50 3d 10 d7 89 bd 60 38 08 3e e6 96 d5 3d
       0.050983086 -0.06730473 0.13302755 0.10429172
000380 9b 76 70 3e 77 14 9e 3e df 35 40 3e 50 b5 07 be
       0.23482744 0.30874988 0.1877055 -0.13252759
000390 3f 52 21 be ef 4b a7 3e f9 3d 91 bd 24 5f 74 3e
       -0.1575403 0.3267512 -0.070918985 0.23864418
0003a0 05 9f f5 bd 7d d9 c8 3c c1 ca ab 3d 71 85 ed 3c
       -0.11993221 0.024517769 0.083882816 0.028994294
0003b0 36 83 20 3d 59 91 18 3d 72 9c 15 3e 1b 67 b8 3c
       0.039187633 0.03724799 0.1461046 0.022510102
0003c0 bb 31 e9 bd 45 6d e7 3d 52 df 8c 3d 4b 51 90 3c
       -0.113864385 0.113001384 0.068785325 0.017616889
0003d0 f4 5d 91 be 04 22 f7 3d 50 d5 6b 3c ed b2 23 bd
       -0.28391993 0.12067035 0.014394119 -0.03996556
0003e0 4a 4f 36 be 34 d6 35 bd 5d a8 3e bd 75 36 cd 3d
       -0.17803684 -0.044393733 -0.046547282 0.100201525
0003f0 5c bf 0b 3e 29 99 21 be 4d a1 e1 3d 09 3f ab 3e
       0.13647217 -0.15781082 0.11017094 0.3344653

encoder.net.2.bias f4 [60]
000000 d8 3b c2 3d 0c 14 93 3d cc 9b a2 bd b1 5b 78 3d
       0.094840705 0.07181558 -0.07939872 0.06063432
000010 41 24 46 3d 46 72 f0 bd 26 29 9c bd 81 98 90 bd
       0.04837442 -0.11740546 -0.07625036 -0.07060338
000020 39 1f 05 3d e1 02 5e bd 8a 54 88 bd 21 4e c4 3d
       0.03250048 -0.054201964 -0.066567495 0.095852144
000030 86 e1 74 3d 28 36 58 bd d3 bf 9d bd 37 36 d0 3d
       0.05978539 -0.052786022 -0.07702603 0.10166591
000040 64 a0 4f bd 46 aa a5 3d 60 8d 8d bd af 4d b9 bd
       -0.05069007 0.08089118 -0.06911731 -0.0904802
000050 3f 2b 98 bd c6 c9 74 bd d1 95 ad bd 6b fd 50 3d
       -0.074301235 -0.05976274 -0.08475841 0.05102293
000060 3b 68 9c 3d 0f 35 ca 3d 2b af f4 bd e9 2b 99 3d
       0.07637068 0.098734014 -0.11947473 0.07479078
000070 2f 7a 95 bd 12 3b bd 3d 2f c0 44 bd 0f c7 95 3d
       -0.07298695 0.092397824 -0.048034843 0.07313358
000080 ef 22 a9 bd df 95 66 3d 51 3c 94 3d a2 62 22 3d
       -0.08258616 0.056295272 0.07238067 0.039644845
000090 80 06 83 3d 32 9b b1 bd 39 3b 91 bd f5 eb af 3d
       0.06397724 -0.08672179 -0.07091374 0.08589927
0000a0 7a 44 b8 3d c9 e6 89 3d b2 b2 94 bd d3 da a7 bd
       0.08997436 0.06733472 -0.07260646 -0.08196034
0000b0 e3 8a 3a bd d9 97 cd bd d0 36 64 3d e2 2f 80 3d
       -0.04554261 -0.10038728 0.055716336 0.06259133
0000c0 1b 7a 9a bd 82 59 c9 3c 3d 5e 9b 3d 1e b2 1f bd
       -0.07542821 0.024578813 0.07586334 -0.038988225
0000d0 30 9c 9e bd 79 1f 8a bd 22 28 70 3d 40 cc 9a bd
       -0.07744634 -0.06744284 0.058632024 -0.07558489
0000e0 e2 f9 a8 3d f0 a1 0f 3d c1 ba 99 3d c4 a1 b2 bd
       0.08250786 0.035066545 0.075063236 -0.087222606

encoder.net.5.weight f4 [32, 60]
000000 83 b1 12 be db 89 aa 3d 02 99 a1 3e fe a9 d1 3d
       -0.14325528 0.08327075 0.31562048 0.102375016
000010 d4 b0 c6 bc da af cd bd 53 72 0e 3e 3a cd 36 3e
       -0.02425424 -0.10043307 0.13910799 0.17851725
000020 81 65 1d bd fb 5b 1c 3b e0 77 54 3e 7e 89 3d be
       -0.03842688 0.0023858536 0.20748854 -0.1850948
000030 e2 2c 2e bd 8e e1 7f 3e 1f 2e 13 3d ef 0d 38 be
       -0.042523272 0.24988386 0.035932656 -0.17974065
000040 2f 31 8b bd 58 a4 99 3c a9 58 ce bd 5e 28 bd bd
       -0.067964904 0.018755123 -0.10075504 -0.09236215
000050 05 8c 17 3e 8d ca 12 be 22 f9 ed 39 7b 65 7b be
       0.14799507 -0.1433508 0.0004538978 -0.2455043
000060 4d 51 22 be 2b 21 a3 3d fc f6 80 bd 6a 41 3d be
       -0.15851326 0.07965311 -0.062971085 -0.18481985
000070 d3 d9 9c 3d eb cb 53 be 21 52 4b 3d 9d 00 05 be
       0.07658734 -0.20683257 0.04963887 -0.12988515
000080 35 91 6a be 57 27 39 3d ca b7 1d be 2b 80 61 3d
       -0.22906955 0.045203533 -0.15402141 0.05505387
000090 71 f0 81 3e 1b 21 dc 3d e1 0b 2f 3d 0b ac 5c be
       0.25378755 0.10748502 0.042735938 -0.21550004
0000a0 3f 73 8a 3d 39 db af 3d 33 31 19 be 62 9c 4b be
       0.06760263 0.08586735 -0.14960174 -0.19883874
0000b0 1e 4d 6c be 09 9a 41 bd bb 5e 40 be fe 91 91 be
       -0.23076293 -0.04726604 -0.18786137 -0.28431696
0000c0 cc 28 58 3e 22 8b 03 3d 3b 89 60 3e 8a fc bb 3b
       0.21109313 0.03211511 0.2192735 0.005736892
0000d0 5c 0d 61 be 55 62 20 be f3 22 92 be 8e 02 1d 3e
       -0.21977752 -0.1566251 -0.2854229 0.15333006
0000e0 88 3f 95 bd 16 27 5b bd e2 3b 95 3e 2e fd c3 bc
       -0.07287508 -0.053504072 0.2914725 -0.023924436
0000f0 c0 18 98 3d ef a4 34 3e 7a b1 00 3e 53 df c7 3c
       0.07426596 0.17641042 0.12567702 0.024398481
000100 d6 eb 9f 3e 3e bf 72 3c 6f 79 95 bd 1b ad 32 3e
       0.31234616 0.0148161035 -0.07298552 0.17448847
000110 73 ec 09 be ab c5 d4 3d 15 f5 c2 3d 05 31 1e 3e
       -0.13469104 0.10389265 0.09519402 0.15448387
000120 c4 00 76 3c 50 ae c0 bd 48 9c 03 3e 80 8e a6 3d
       0.015014831 -0.094082475 0.12852585 0.081326485
000130 fe 20 0a bd 99 7f bc be 8a ca 91 be cc 15 ea 3d
       -0.03372287 -0.368161 -0.28474838 0.11429939
000140 f9 9c 8d 3e de 77 2a 3d 82 d9 16 3d 4f 5d 00 3d
       0.27658823 0.04161822 0.036828525 0.031338986
000150 0d 26 b9 bd dd 61 af 3d d0 a3 f5 3d b0 dd 3a 3d
       -0.09040461 0.08563588 0.119941354 0.045621574
000160 fd da 45 3e 08 ed b9 3d fa 21 ab b9 79 51 33 3d
       0.19321819 0.09078413 -0.00032640976 0.04377887
000170 08 c8 87 3d df 05 a9 3d 26 f1 98 bd 2f 76 5f bd
       0.0662995 0.08253073 -0.074678704 -0.054556068
000180 25 6e dd 3e f6 04 16 3e d5 68 32 3a 23 c2 42 be
       0.43248096 0.1465033 0.00068057823 -0.1901937
000190 94 bf 1a 3e f8 11 fb bd 9a 1f de 3d f9 3d 48 bc
       0.15112144 -0.12259287 0.10845871 -0.012221807
0001a0 3d 7e 3d be e6 c4 be 3e 0f d6 8d 3e 12 66 ee bd
       -0.18505187 0.37259597 0.27702376 -0.11640562
0001b0 52 f7 c5 3b 3e ec 95 be bb 3a a7 bd 2e 12 83 bc
       0.006041446 -0.292818 -0.08165499 -0.01599988
0001c0 89 ec 87 be 56 53 71 bd ab 73 d0 3d 64 6a cd 3d
       -0.2654765 -0.058917366 0.10178312 0.10030058
0001d0 5e 53 87 be 22 e8 81 3e b9 20 b5 bd 8c 65 a8 3e
       -0.26430792 0.25372416 -0.08844132 0.32889974
0001e0 15 e5 43 3c f2 05 28 3e 39 02 aa bd ca 38 61 3e
       0.011956473 0.16408518 -0.08301205 0.2199432
0001f0 f7 c5 4d bd 5c d6 cc bd f9 a2 99 3d c9 71 eb 3b
       -0.050237622 -0.10001823 0.07501788 0.007185195
000200 81 89 9a 3e 07 73 53 3d 40 05 85 bd 8b 7a 9a be
       0.30183032 0.05162337 -0.06495142 -0.30171618
000210 56 e6 cd 3d 04 09 07 bd 35 d1 67 3e 93 0c 09 bd
       0.10053699 -0.032967582 0.226384 -0.033459257
000220 7b 25 a0 3c 8d 99 23 3e a6 43 0b 3e ad c3 75 3e
       0.019549122 0.15976544 0.13600025 0.24000426
000230 00 49 6a bb 03 17 01 3e 57 f8 88 bb d2 fe 87 3e
       -0.0035749078 0.12606435 -0.004179995 0.265616
000240 58 f1 0d 3e 15 20 9c be b2 40 00 be 66 7b 7b be
       0.13861597 -0.30493227 -0.1252468 -0.24558792
000250 20 84 eb bd cd 89 29 3d b7 ee 88 be 82 58 fb bd
       -0.1149981 0.041391183 -0.26744625 -0.12272741
000260 69 07 c2 bd f1 79 50 be 83 f9 66 3d ac c9 2e 3d
       -0.094740696 -0.20359017 0.056390297 0.042672798
000270 ad 67 7c bc 61 9d 23 bd 14 8e bf 3d 0b 70 8b be
       -0.015405578 -0.03994501 0.09353271 -0.2723392
000280 97 3f 4f 3e c1 d3 c7 bc db 31 60 3d 07 6f 1b be
       0.20239101 -0.024392964 0.054735046 -0.15179072
000290 0a c7 ee bd b2 e5 4f be 5f 3c 99 3d 66 ee 9d 3c
       -0.116590574 -0.20302466 0.07482218 0.019278716
0002a0 39 90 bc 3d 58 e5 94 be 22 2b 92 bc ed 4d 38 3e
       0.09207196 -0.29081225 -0.017842833 0.17998476
0002b0 fc 7b 81 bd 66 82 72 3e 58 2a b2 3d cc 3c 3b 3b
       -0.06322476 0.23682556 0.08699483 0.0028570173
0002c0 59 0a a7 3d ba 8e ba bb 60 0a 16 be 7a c9 d6 bd
       0.081562705 -0.005693284 -0.14652395 -0.10487647
0002d0 c3 6b 4c 3d e2 b6 82 3d 95 d7 17 3e 33 67 5f 3e
       0.049907457 0.063825384 0.14828332 0.21816711
0002e0 ec 41 87 bc f3 53 84 be fb d5 7a be 1d 4e d2 be
       -0.016510926 -0.25845298 -0.2449569 -0.4107522
0002f0 98 4c 0a 3d 6c d6 2c 3e ee d3 0f 3e 49 73 b7 3d
       0.03376445 0.1687867 0.14045689 0.08957536
000300 66 f8 c2 bd 45 91 4d be 8a 30 22 be 02 57 d3 bd
       -0.095200345 -0.20074947 -0.15838829 -0.1031933
000310 a9 df f7 3d 56 89 99 be d0 56 0f 3e 69 93 80 3d
       0.12103207 -0.29987592 0.1399796 0.06278116
000320 ca 2a 85 3e 0b 32 39 be ba a7 e7 3b 24 4b 06 be
       0.26009208 -0.18085496 0.007069555 -0.13114601
000330 af 46 ad bd 44 fd b2 3c 4c c8 cd bd 50 08 05 3e
       -0.084607475 0.021849282 -0.10047969 0.12991452
000340 ac e3 08 3c 4a 3d e4 3c 95 3c b3 bd bb f1 65 be
       0.008355062 0.027861256 -0.087517895 -0.22455494
000350 8e e9 cd 3c c5 68 09 bd f4 fb 0d be 1a aa 65 3e
       0.025135782 -0.03354718 -0.13865644 0.2242817
000360 89 ee 03 be 9e 54 d6 bd 37 72 40 bd d6 8f e9 3d
       -0.12883963 -0.10465358 -0.046983924 0.11404388
000370 2f fe b5 3b a4 0f c1 3d a3 6b 0a bd 62 a6 77 3e
       0.0055539827 0.09426811 -0.033794057 0.24184564
000380 83 0d 88 be 30 a5 c2 3d a6 5e b4 bd df 22 6d bd
       -0.2657281 0.09504163 -0.08807115 -0.057894584
000390 9d 90 39 3e 02 99 30 bd 54 ea ca 3d 83 7e 3f 3d
       0.18121572 -0.04311467 0.09907976 0.04675151
0003a0 0c af 1e be 33 dc 4a bd 3f d8 00 be ab 04 7e 3e
       -0.15496463 -0.049526405 -0.12582491 0.24806468
0003b0 99 8f 03 be a8 3b 54 be 37 99 50 3e 06 96 8a bd
       -0.12847747 -0.20725882 0.20370947 -0.06766896
0003c0 83 24 ee bd a6 40 ca 3d bf b3 6e 3e 43 f9 2c bd
       -0.11628058 0.09875612 0.23310755 -0.042229902
0003d0 77 c6 e0 3c c2 72 05 3e c9 df c4 3c 5f 7c 6e be
       0.027438385 0.13032058 0.02403249 -0.23289631
0003e0 c0 74 90 be ce 91 fb 3d 6d b5 3e 3e ba c7 0c be
       -0.28214073 0.122836694 0.18623896 -0.13748065
0003f0 34 e5 1e be 6f 5c a2 bd 9a 52 87 bd 4b 76 cc 3d
       -0.15517122 -0.079277866 -0.06607552 0.099835

encoder.net.5.bias f4 [32]
000000 95 87 a9 bd 14 a7 98 3d 8f 56 aa bd 53 e6 b1 3d
       -0.08277813 0.074537426 -0.08317291 0.08686509
000010 49 aa 38 3d 2f 6d f7 3d 5d 84 8e 3d a9 1a b7 3d
       0.04508427 0.12081372 0.0695884 0.08940632
000020 40 1b aa bd a6 29 b4 3d dc c0 b1 3d 1c 88 63 3d
       -0.08305979 0.08797006 0.08679363 0.055549726
000030 1a 00 d0 3d 9f 42 9e bd f4 e8 ed bd 35 c7 3a bd
       0.10156269 -0.07727551 -0.11616698 -0.045600135
000040 47 af a8 3d ef d5 a6 bd eb 07 f7 3d 96 63 b8 bd
       0.082365565 -0.08146273 0.12062057 -0.090033695
000050 e2 ac ac 3d c6 5b a1 3d 06 8b af bd 0b ba 9a bd
       0.08431412 0.078788325 -0.085714385 -0.07555016
000060 d3 5f bc bd da de aa bd c7 ab bf 3d c7 69 0a bd
       -0.091979645 -0.08343287 0.09358936 -0.033792283
000070 20 87 ce 3d 62 10 a4 3d b0 7a b0 3d 96 65 a3 3d
       0.10084367 0.08010937 0.08617151 0.0797836

predictor.net.1.weight f4 [32, 32]
000000 36 9f 9e be 66 b3 d4 bd e1 a7 8e 3e 26 d6 68 3e
       -0.30980843 -0.1038578 0.27862456 0.22737941
000010 50 2d bf 3c f6 3c 33 be f5 fa ac bd 9b e8 5b be
       0.023337036 -0.17503724 -0.08446304 -0.2147545
000020 fc fc a1 3e bb 6d 5e 3e a1 e3 82 be 54 53 1c 3e
       0.31638324 0.21721546 -0.25564292 0.15266162
000030 ca 1e 61 3e fd 34 b8 3e 5b 86 45 3e 0e 52 8e 3d
       0.21984401 0.35977927 0.19289534 0.069492444
000040 df 40 1b bd a0 fd 51 bd 03 bc 31 3e d3 ea d4 be
       -0.037903663 -0.051267266 0.17356877 -0.41585407
000050 5f c3 2b be 26 e8 32 3d a7 e1 80 3e cb e8 91 3d
       -0.16773747 0.043678425 0.2517216 0.0712448
000060 a3 ec 54 3e 4d 78 75 3e d6 58 f8 3d 07 19 30 3e
       0.20793395 0.23971672 0.12126319 0.17197047
000070 02 55 86 be 47 e9 a6 be d6 f8 85 3d a2 a0 27 be
       -0.2623673 -0.3259985 0.06541602 -0.1636987
000080 a7 c5 57 bd 84 36 12 be 97 d0 cf bd 79 24 c0 be
       -0.05267873 -0.14278609 -0.10147207 -0.37527826
000090 69 ed fe bd 37 c1 91 bd 13 1a dd bc 96 c6 0b 3e
       -0.12447626 -0.07116931 -0.026989972 0.13649973
0000a0 9d ea b3 3e a2 9f 2c be 6e 84 67 3e 7f f1 a2 be
       0.35139933 -0.1685777 0.22609112 -0.31824872
0000b0 3e e4 88 bd 43 7c a2 bd a1 4c d5 3d 93 1b 91 3d
       -0.06684159 -0.07933857 0.104150064 0.070853375
0000c0 cd a2 5c be c6 c8 4e be 3f 69 f7 3d f7 4b 11 3e
       -0.21546479 -0.20193776 0.12080621 0.14189135
0000d0 e4 4e bc 3e 5b f4 7a 3e a6 1c 97 bd d4 44 bd bc
       0.3677894 0.24507277 -0.07378511 -0.023104109
0000e0 4c f9 20 3d 15 1a c5 bd af 42 06 bd 1e 10 14 3e
       0.039300248 -0.096241154 -0.03277844 0.14459273
0000f0 6b fa e2 bd 0d 1b 1e 3e 49 f3 16 3e c4 38 34 3e
       -0.1108292 0.15440007 0.14741243 0.1759978
000100 81 5b 85 3d 75 0e ef 3d 51 bb fa be 43 2a 07 3e
       0.065115936 0.11672679 -0.48971036 0.13199715
000110 98 d4 9b 3e e6 d5 83 3c 3a 25 38 3d 0e ed c5 3d
       0.30435634 0.016093206 0.044957377 0.09664355
000120 ef a6 cc bd a6 2b 4f be 03 3c 26 be 40 b9 f2 bd
       -0.099927776 -0.20231494 -0.1623383 -0.1185174
000130 de e5 cd 3d ec a4 10 3d cc 9a 27 3e 34 4c 15 3d
       0.10053609 0.03531353 0.16367644 0.036449626
000140 ec 12 ab 3c ce 04 96 be d3 f8 09 3d 96 00 17 be
       0.020883046 -0.2930054 0.033684563 -0.14746317
000150 59 1b 05 be 07 54 8a 3d 36 d8 e1 3d 30 c4 ad 3d
       -0.12998714 0.06754308 0.11027567 0.084846854
000160 9b de 11 be 45 8e 4f bd 63 ce 3b be 28 3a d8 bd
       -0.14245073 -0.05067279 -0.18340449 -0.105579674
000170 02 7c c6 3d dc e7 db bd d9 87 83 3d 00 98 3a be
       0.09691621 -0.10737583 0.06422395 -0.18222046
000180 24 d5 a9 3e 8a 8f 11 be 04 39 e9 3d e8 55 d7 bc
       0.33170426 -0.14214912 0.11387828 -0.02628608
000190 40 2d 85 3e 06 61 85 3b c9 f4 22 bc 4b b2 aa 3e
       0.26011086 0.004070404 -0.009946057 0.33339152
0001a0 ed 09 50 bd 6c 32 32 be 90 d5 91 bd 15 59 be bc
       -0.050790716 -0.17402047 -0.07120812 -0.023235837
0001b0 27 50 11 be ce eb e0 3d 38 cf 76 3e 53 a1 83 3e
       -0.14190732 0.10982476 0.24102485 0.25709018
0001c0 a2 a6 cf bd fe 8d 8e be 75 e0 52 3e 7d c7 bc 3d
       -0.101392046 -0.27842706 0.20593436 0.09217737
0001d0 a3 eb ab 3b ee 18 f0 be ad 93 29 be 78 c8 de 3e
       0.005246596 -0.4689402 -0.1656024 0.4351232
0001e0 d6 66 51 3e e6 ee 08 3d 07 ef 83 bd bd 8e 2f be
       0.20449385 0.033430956 -0.06442075 -0.17144294
0001f0 70 25 56 3e 41 cb c1 3e a2 03 1e 3e e8 f2 76 be
       0.20912719 0.37850383 0.15431073 -0.24116099
000200 e3 6a 58 3e 5d 64 b4 bd a5 9d bf bd dc c0 a0 be
       0.21134524 -0.08808205 -0.0935624 -0.3139714
000210 b3 de 7c 3e f8 a2 a8 3d 3e 6d 59 be ed cb 2f 3e
       0.24694328 0.08234209 -0.21233079 0.17167635
000220 1c de 89 be e2 9a 25 bc 88 93 af bc 0c 4a 06 3e
       -0.26927269 -0.010107728 -0.021432653 0.13114184
000230 6b 37 15 be 2e ce 55 3d e8 19 28 3e 67 60 1c be
       -0.14571922 0.05219858 0.16416132 -0.1527115
000240 9b 7e 01 be 3b 69 89 3e 88 2a 41 bd 60 1f 97 bc
       -0.12645952 0.26838097 -0.0471597 -0.018447578
000250 fd b7 13 3e 54 00 e9 3d ae 0b 2d bd c6 bd 48 be
       0.14425655 0.11377016 -0.042247467 -0.19603643
000260 01 af f2 bd 82 6f 0f be 58 bb a5 3e 00 e3 bc be
       -0.118497856 -0.1400738 0.32369494 -0.36891937
000270 b0 0b f4 bd a0 be 92 3e 1a 84 13 3e a0 ee 28 be
       -0.11916292 0.2866106 0.14405861 -0.16497278
000280 8f db 1b 3e f4 67 a2 3c 62 b5 2c be 77 0c 60 bb
       0.15220474 0.01982496 -0.16866067 -0.0034187117
000290 55 1c 75 3e e0 72 0f 3e 1b 69 92 3c 39 08 35 3e
       0.23936589 0.14008665 0.017872384 0.17678918
0002a0 49 47 53 be 3e 30 0d 3e a9 f3 18 be ce 88 9f bd
       -0.20632662 0.13787934 -0.14936699 -0.07789765
0002b0 29 62 aa bd f2 37 55 3c 07 dc b3 be 8c 5b 22 3e
       -0.08319504 0.013013827 -0.35128805 0.15855235
0002c0 27 4e 82 3e 8c c7 39 be a5 b2 ca 3d 0c 98 78 be
       0.2545025 -0.18142527 0.09897355 -0.24276751
0002d0 df 66 00 3f 65 eb ea bd 22 98 23 be bd 92 fe 3c
       0.5015697 -0.11470679 -0.15976003 0.03107583
0002e0 8a 86 20 3e 7e 44 66 be 5a a2 e8 bd ae 8c ae 3d
       0.15676323 -0.22487065 -0.11359091 0.08522926
0002f0 ee 8b d6 bd b5 85 07 be 51 55 1b be d2 db 15 3e
       -0.10475908 -0.13234599 -0.15169264 0.14634636
000300 e8 88 9d be aa 95 c1 3d 1a 01 98 3e 79 a1 f0 3d
       -0.30768514 0.09452374 0.2968834 0.117495485
000310 da 74 72 3e 58 da 1b 3d 39 3c 63 bd f4 b3 4b 3d
       0.23677388 0.038050026 -0.055477355 0.049732164
000320 97 40 62 3e d9 e1 61 3e b9 78 3b 3d 5c b2 f3 bd
       0.22094952 0.2205881 0.045769427 -0.11899254
000330 8f 2f 85 be 3f d5 19 be 8d 61 30 3e e1 31 80 be
       -0.26012847 -0.15022753 0.17224713 -0.25038055
000340 35 7e 2b 3b 60 96 71 bd a9 6c dc b9 b5 8e 39 be
       0.0026167755 -0.0589813 -0.00042042628 -0.18120845
000350 ad c0 78 3e 92 5d a9 3d 6f 03 5b 3e c0 64 d1 bd
       0.2429225 0.082698 0.21388029 -0.10224295
000360 2e 65 33 3e 5c ef 5a be eb 5b a2 bd ec 07 a8 b8
       0.17519066 -0.21380371 -0.07927688 -8.01234e-05
000370 d8 73 92 be 32 16 91 3d e4 c0 88 3d 45 e4 7f 3e
       -0.28604007 0.070843115 0.06677416 0.24989422
000380 3a 22 64 be b8 b4 c5 ba 0a c5 92 3c 26 e1 0a be
       -0.22278681 -0.0015083766 0.017916221 -0.1356245
000390 e0 6e 29 bd 1e ea dc 3c 6c 2b 38 3e ca 86 9f 3d
       -0.041365504 0.026967105 0.17985314 0.07789381
0003a0 80 6f 55 3e 2a 9e 50 3e c5 22 22 be 44 85 2a 3e
       0.20843315 0.20372835 -0.15833576 0.166524
0003b0 46 57 37 3d 85 60 5d bd 97 60 d9 3b ca 69 8f be
       0.044760965 -0.054047126 0.006633829 -0.28010398
0003c0 05 08 48 be ce 58 32 be 18 fd 26 be b2 2f 84 3d
       -0.19534309 -0.17416689 -0.16307485 0.0645441
0003d0 b6 8b ea 3d 06 0e a6 bd 77 a0 ca bb 70 8f 09 be
       0.11452429 -0.081081435 -0.0061836797 -0.13433623
0003e0 8a e6 d2 3e 7b 89 91 be 2e 44 b6 bd 8d a5 51 be
       0.41191512 -0.28425202 -0.08899723 -0.20473309
0003f0 bc c1 ee 3b 71 5c ef bd 30 4e 9b bd 9c b5 da 3d
       0.0072862785 -0.11687554 -0.075832725 0.106791705

predictor.net.1.bias f4 [32]
000000 c5 90 b8 bd 74 db d8 bd a1 0c 07 be d1 57 ca bd
       -0.090119876 -0.10588732 -0.13188411 -0.09880031
000010 14 de e3 bd a4 f0 d4 3d 99 a1 da 3d 5c 22 ea bd
       -0.111263424 0.10397461 0.106753536 -0.11432335
000020 05 be d0 3d b7 8d 05 3e 82 03 da bd 92 77 e1 3d
       0.10192493 0.13042341 -0.106452 0.11009134
000030 72 ef c9 bd a3 2c d3 3c b2 29 f3 bd 70 d5 d8 3d
       -0.09860124 0.02577812 -0.11873187 0.10587585
000040 0f dd 06 3e f8 4a d5 3d b1 be db 3d c6 6e 97 bd
       0.13170265 0.1041469 0.10729731 -0.07394175
000050 be be dc 3d 45 6a de 3d a1 4d e2 bd 3f 84 dc bd
       0.10778569 0.10860113 -0.11049963 -0.107674114
000060 f2 b1 01 3e b4 e7 d5 3d a9 b2 e2 bd bf ed db bd
       0.12665537 0.104445845 -0.11069233 -0.10738706
000070 a4 18 dc bd 6e 78 e8 bd b1 c1 d8 bd e0 68 d6 3d
       -0.10746887 -0.11351095 -0.10583819 0.10469222

predictor.net.3.weight f4 [1, 32]
000000 63 ad 88 bc da fe 55 be 6d 77 0d bb 94 46 af bd
       -0.01668424 -0.20898 -0.0021586076 -0.085583836
000010 91 68 8e bd 71 92 9e 3d 1c b2 0a 3f b6 cf af be
       -0.06953538 0.07742775 0.54178023 -0.34338158
000020 89 25 69 3e 98 75 14 3d 2d b6 22 bd 56 8e e8 3d
       0.22768225 0.03624496 -0.039724518 0.113552734
000030 fc 32 d7 bd 83 aa ad bc 1b 3d 3f be 35 57 01 3e
       -0.105077714 -0.02119947 -0.18675654 0.12630923
000040 23 ae fb 3d 12 30 92 3e 5a 68 a5 3e 87 0b 08 3c
       0.12289073 0.285523 0.32306176 0.00830353
000050 07 60 91 3d af 22 b4 3e 81 b6 07 bf 03 b1 58 be
       0.07098394 0.3518271 -0.53012854 -0.21161275
000060 e1 60 e3 3d f3 1d 15 3e f4 43 a1 be 96 27 05 be
       0.111024626 0.14562206 -0.31497157 -0.13003382
000070 b8 89 bd bc 12 b3 02 be ca 21 a2 be 9f 12 a3 3e
       -0.023136958 -0.12763622 -0.31666404 0.31850144

net.0.weight f4 [60, 35]
000000 88 ae 62 bd 6c da 0e be df be 8c 3d 64 a5 38 3e
       -0.055342227 -0.13950509 0.06872343 0.18031842
000010 0f 2c 94 be b1 23 39 be a7 72 b8 bd b4 28 1e be
       -0.28939864 -0.18080021 -0.09006243 -0.15445215
000020 ef 43 41 bd 83 74 33 3d 08 9b 0f bd 0e bf 12 be
       -0.047183927 0.043812286 -0.03505996 -0.14330694
000030 ec 37 1f 3e c0 ec b7 bd 18 86 14 3e 94 5b be bd
       0.15548676 -0.08980703 0.14504278 -0.09294811
000040 59 01 ad 3d c9 2c 3e be 98 92 5d 3c 53 f4 93 3c
       0.08447523 -0.18571772 0.01352372 0.018060839
000050 ac 09 53 3e ca 98 53 bb e1 0b d6 3d ac 23 fd 3d
       0.20609158 -0.0032287114 0.104514845 0.123603195
000060 81 d4 a7 bd 25 74 39 be 75 24 8a be 31 c0 e6 bb
       -0.08194829 -0.18110712 -0.2698094 -0.007041954
000070 2d 98 ae be 88 9f 14 be 0b 89 ff bd 92 86 44 3e
       -0.34100476 -0.14513981 -0.12477311 0.1919196
000080 c4 c2 f2 3b 01 d9 21 bd 16 b0 31 3e 3f 11 93 3e
       0.007408472 -0.03951359 0.17352328 0.28724095
000090 da 74 06 3e 2a a2 88 3c a9 4a b0 3e 2c 91 88 3d
       0.13130513 0.016678888 0.3443196 0.06668314
0000a0 8a 85 96 bd 00 27 8b 3d 1f 6a 1b bd 30 94 a0 bd
       -0.07349689 0.06794548 -0.037943 -0.078407645
0000b0 19 ba 2e be 09 08 e6 3d d0 3e 9c 3e 81 8f 47 3e
       -0.17063178 0.11232001 0.30516672 0.19488336
0000c0 40 c2 27 3d 60 2d 20 be 0b 00 a5 bd 1c 15 b1 3d
       0.040956736 -0.15642309 -0.08056649 0.086466044
0000d0 0b d6 1f 3d c9 d9 4f bd 70 9b b4 3c b1 be 38 3e
       0.039022487 -0.050744805 0.022046775 0.18041493
0000e0 0a 2e 07 be 84 a8 3a bd 74 66 cd bd 74 f1 9f bd
       -0.13201156 -0.045570865 -0.10029307 -0.078097254
0000f0 55 bc 93 3d 66 6c 17 3e 4d 11 82 3d 82 d3 ef 3d
       0.07213656 0.14787444 0.06350956 0.11710264
000100 25 93 dc 3d 88 73 5e 3d c9 ad fa 3d d0 fe 06 3d
       0.10770253 0.054309398 0.12240178 0.032957852
000110 b3 94 33 bd af 5a 86 3d d4 58 04 be 9e 68 fe bc
       -0.043842983 0.06560265 -0.1292451 -0.031055745
000120 63 30 8f bd 7a 64 86 3d 42 5f b0 bd fa 39 09 be
       -0.06991651 0.06562133 -0.08611919 -0.13401023
000130 f6 c6 6d bc 4f a9 71 3e 7a 15 e3 bd 2c 74 9a bd
       -0.014512768 0.23599742 -0.11088081 -0.07541689
000140 b3 70 b9 3d 35 59 2b be 0b 8b 8c 3e d7 26 a4 3b
       0.09054699 -0.16733249 0.2744983 0.005009513
000150 7b 20 2e be 8f 3c d9 3d 94 83 42 3e 70 a9 e0 bd
       -0.17004578 0.10607254 0.18995506 -0.10969818
000160 d7 07 ad 3c 9b ba 07 3e a8 da 29 bc 07 4b e7 bd
       0.021121902 0.13254778 -0.010367073 -0.11293607
000170 74 45 43 3c e3 d7 a5 bc 11 f7 a0 ba ff 6d 9b 3d
       0.011918414 -0.020244544 -0.0012280663 0.075893395
000180 14 80 d7 3c ff c9 e0 bd ac e8 38 bc ec cc f6 bc
       0.02630619 -0.10976028 -0.011285942 -0.030127011
000190 95 ad ee bd da 9b 3b be 09 31 24 bd ef e5 13 be
       -0.11654202 -0.18321171 -0.040085826 -0.14443181
0001a0 d1 57 ba bd 35 37 24 be f8 cc 5d 3e 62 c7 a8 3d
       -0.09098781 -0.16036685 0.2166022 0.08241154
0001b0 27 2e bf be 11 cb be 3d 7b df 08 3c aa 30 69 be
       -0.373399 0.093160756 0.008354063 -0.2277247
0001c0 ae f5 81 be c2 af 14 3e 31 15 29 3d a2 05 e2 3c
       -0.2538275 0.14520171 0.041279975 0.027590577
0001d0 44 c4 ef bc c3 89 04 be 4b 1a 89 3d ec 79 e7 bb
       -0.029268391 -0.12943177 0.06694468 -0.0070640948
0001e0 56 f1 85 be 73 d2 91 bd a8 15 50 3e ac b1 aa bb
       -0.26160687 -0.07120218 0.20320761 -0.0052091684
0001f0 3a 68 51 3d bd b5 95 bc ee 9b de 3c 9d 42 1e 3d
       0.05112479 -0.018275136 0.027173962 0.038637746
000200 3e 6b 88 be e0 93 38 3e ed 0a d6 bd 5f 28 56 3d
       -0.2664432 0.1802516 -0.10451303 0.052284595
000210 5b eb 4a 3e 21 40 7b bd e5 d2 c7 3d 27 fb a2 be
       0.19816343 -0.061340455 0.09757022 -0.3183224
000220 20 44 f8 bd 67 c3 e9 3d fa f5 d8 bd 9d 14 a6 3d
       -0.12122369 0.11414223 -0.10593791 0.081094004
000230 f4 8a 18 3e 45 16 dc bc 8b fc 6a be a5 1a d8 3c
       0.14896756 -0.026866088 -0.229479 0.026379893
000240 e7 d6 b1 3d f2 63 c7 bd 52 ab 14 3d 8e e3 9e bd
       0.086835675 -0.0973586 0.036296196 -0.07758246
000250 a0 94 f3 3d 63 c5 71 be c1 52 c0 3d 0e c8 ae 3e
       0.11893582 -0.23610453 0.09390784 0.34137005
000260 72 9f 45 3d 47 b7 ea bd 25 ef 5d 3d 71 b6 20 bd
       0.048247762 -0.11460739 0.054183144 -0.03923649
000270 05 74 81 3d 58 aa 5c be b6 58 38 3e 06 19 0c be
       0.06320957 -0.21549356 0.1800259 -0.1368142
000280 71 14 30 be 3c e1 b4 3d 6f 39 5b bd 74 d6 65 3d
       -0.17195298 0.088320225 -0.05352157 0.05611272
000290 63 05 0e 3c 40 f9 68 be 4f b3 de bc f9 f1 a3 bc
       0.0086682765 -0.22751331 -0.02718511 -0.020012842
0002a0 34 a9 11 be 5b c6 db be 9b 5e e7 bd 1c eb d8 bc
       -0.14224702 -0.4292477 -0.112973414 -0.026479296
0002b0 6a be 99 bd 9a d3 e7 3d 5f a2 91 bd dd 5c 94 3e
       -0.07507022 0.11319657 -0.07111048 0.289771
0002c0 f6 93 11 3e e4 83 72 3e 54 10 56 3e bd f9 1e 3e
       0.14216599 0.23683125 0.20904666 0.15524955
0002d0 da 17 6f 3d 2e 31 93 bd b6 94 96 bc 66 01 31 3d
       0.058372356 -0.07187115 -0.018381458 0.043214224
0002e0 18 34 29 3e 21 d6 cd 3d b4 be 56 3d 44 ac 83 3e
       0.16523778 0.100506075 0.052427962 0.25717366
0002f0 92 a8 1b be f1 2e 83 3e 15 82 56 bd 6c 46 9d 3d
       -0.15201023 0.2562175 -0.05237015 0.076794475
000300 d8 3d 96 3c cf f0 6d 3d 0c c4 ee be c4 b3 61 be
       0.018340036 0.05809098 -0.46633947 -0.22041231
000310 dc c5 55 bc d6 29 35 3e 08 db 82 3d 74 9d e5 bd
       -0.013047662 0.1769174 0.06389433 -0.112116724
000320 2c f7 8e bd b4 94 1c 3e 77 3f 28 3d 2c f4 87 3e
       -0.06980738 0.152911 0.04107615 0.26553476
000330 cf ed f7 bd 41 9c 01 bd 52 cc 98 bd 7f 74 4f 3e
       -0.12105905 -0.031643156 -0.07460846 0.20259283
000340 40 96 a9 3d c3 c6 04 3e 42 41 17 bd 4e ef 32 3e
       0.08280611 0.12966447 -0.03692747 0.174741
000350 bc f9 20 be cc de 7e 3d 8e 25 fc 3d da 2f 18 3e
       -0.15720266 0.062224194 0.123118505 0.14862004
000360 2a 35 02 be 78 3f 69 3d 55 65 5d 3e 98 6c 0a 3d
       -0.12715593 0.056945294 0.21620686 0.03379497
000370 28 15 c2 3d 86 37 66 3e 21 1f 49 3d 57 95 6b 3d
       0.094766915 0.22482118 0.049101952 0.05751547
000380 62 68 2f 3d be f2 f8 3c d0 46 91 3c 54 3c bd bc
       0.042824157 0.030389186 0.017733961 -0.023100056
000390 35 cf 42 3e 26 43 a8 3b 71 b2 6c 3d 4f 43 8e bd
       0.19024356 0.005134958 0.057787362 -0.06946432
0003a0 47 a3 3d bd 01 ae 18 3e f3 9e 27 be 91 cd 7f bd
       -0.04629829 0.14910127 -0.16369228 -0.062451903
0003b0 0d 27 04 bd 53 c1 84 be 02 b0 7e bd 35 3c 04 bd
       -0.032263804 -0.25928745 -0.062179573 -0.03228398
0003c0 43 47 7c bd 35 f8 68 3b 86 82 2b bd 22 46 8d be
       -0.061591398 0.0035548334 -0.041872524 -0.2759257
0003d0 6b 1e 0f be a9 74 9c bd f3 6b aa bd e3 9a c5 bc
       -0.13976447 -0.07639439 -0.08321371 -0.024121707
0003e0 57 28 44 3d f3 91 03 3e 73 e1 6d 3c dd df 48 be
       0.047890034 0.12848644 0.014519083 -0.19616647
0003f0 7f d7 e4 3c b8 c8 58 3d e1 91 23 3e 10 d2 da bd
       0.027934788 0.052925795 0.15973617 -0.106845975

net.0.bias f4 [60]
000000 81 11 20 be f2 35 ad bd f7 b1 42 bd af 84 4d 3d
       -0.15631677 -0.08457555 -0.047533 0.050175365
000010 aa 29 bb bd 68 4a 09 bd db 67 5a 3d 86 95 e0 3d
       -0.09138806 -0.033518225 0.0533217 0.10966019
000020 a1 92 1f 3e 32 99 a2 bc 2c 95 a5 3a 05 4e 09 be
       0.15583278 -0.01984844 0.0012632958 -0.13408668
000030 67 04 02 be 86 54 91 3d 44 26 fc 3d a7 44 d2 3d
       -0.12696992 0.070962 0.12311986 0.10267001
000040 ec da c1 bc 04 97 07 bb 8a 19 09 be 8c 7e b6 bd
       -0.02366396 -0.0020689378 -0.13388649 -0.08910856
000050 4d da 2a 3d 43 96 0a 3e d8 1c ba 3c 7b f4 1a be
       0.041712094 0.13533883 0.022718832 -0.15132324
000060 49 5c e4 3d 5e 1b cd 3d 9f aa 10 be 50 2a 21 bd
       0.111504145 0.100149855 -0.14127587 -0.039346993
000070 dc ed ae bd cf 2f cf bd 9f a8 3a be 85 e0 49 bc
       -0.08541462 -0.10116541 -0.18228386 -0.012321596
000080 d1 e1 c0 bc 6e fd dd 3d e7 51 f4 3d 74 6b e8 3d
       -0.023545178 0.108393535 0.11929684 0.1134862
000090 7a 89 29 3d 87 07 41 bd f0 f2 06 be 16 6b 79 bd
       0.041390873 -0.04712632 -0.13178611 -0.06089314
0000a0 7a 89 45 bd 8d 75 0c 3e 9f 08 3e 3c 1c 67 c8 bc
       -0.04822681 0.13716717 0.011598735 -0.024463229
0000b0 6d 06 79 3d 98 15 d1 bd d4 bf b1 3d b9 14 85 3c
       0.060797144 -0.10209197 0.086791664 0.016245233
0000c0 80 57 e5 3d b7 96 a1 3d 23 0a 15 be 56 03 12 be
       0.1119833 0.07890075 -0.14554648 -0.14259085
0000d0 b4 15 b0 3d 2b 45 e5 bd 07 3e a2 bb 03 95 97 3d
       0.085978895 -0.11194833 -0.004951242 0.074014686
0000e0 29 7e 91 3d df be 40 be e3 f5 f2 3d 05 95 4b 3c
       0.07104141 -0.18822812 0.118633054 0.012425666

net.2.weight f4 [60, 60]
000000 df cc 2e be e1 e6 0f 3e df c7 ab bd 3b fd 8f 3c
       -0.1707034 0.14052917 -0.08387732 0.017576804
000010 a6 10 ca bd 9e 9f 19 be da b6 15 be 66 21 e1 3d
       -0.09866457 -0.15002295 -0.14620534 0.10992698
000020 82 3f 62 bd 89 92 3c be 93 2b 2f 3e b0 98 4a 3e
       -0.055236347 -0.18415274 0.17106466 0.19784808
000030 3e 2c 1d 3d b4 33 1b bd 85 2f 86 3d e4 87 67 3d
       0.03837227 -0.037891105 0.065520324 0.05652608
000040 88 56 e5 3b c2 e6 58 3e 3d 28 62 3e bd 39 24 3e
       0.0069988407 0.21181777 0.22085662 0.1603765
000050 29 ab 9d be b1 a7 e4 3d 60 ca d0 3d e7 6c c0 3d
       -0.30794647 0.11164797 0.1019485 0.093957715
000060 32 7e 08 3e 1d e5 e9 bc 88 97 69 3d 38 0b 65 3e
       0.1332939 -0.028551633 0.057029277 0.22367561
000070 a4 f6 3c 3e 3b 2d 79 3d 96 ad 9d 3d 43 4a 1c 3e
       0.18453461 0.06083415 0.076991245 0.15262704
000080 1b d2 bd 3d 1b d3 57 3e 17 13 d9 bc f8 a2 2a 3e
       0.0926859 0.21076624 -0.02649836 0.1666373
000090 46 4b bc 3d e2 4d fc 3b 7b ae 55 3d db bd 6c 3d
       0.09194045 0.007699714 0.05216835 0.057798248
0000a0 54 ea 58 bd 45 8c 74 be 86 88 43 be f6 5c 84 be
       -0.052957848 -0.23881634 -0.19095048 -0.25852174
0000b0 e0 96 26 bd e7 90 62 3e ce f4 05 3e 71 28 09 3d
       -0.04067123 0.22125588 0.13081667 0.033485834
0000c0 12 23 71 be 01 c9 bb 3d 94 4b d8 bd 53 89 12 3e
       -0.23548535 0.09169198 -0.105612904 0.14310198
0000d0 5b d1 25 be cc 59 45 bd f4 1e ea 3c 53 70 05 3e
       -0.16193144 -0.04818134 0.028579213 0.1303113
0000e0 64 03 8c bd ae 68 e1 bd 2f 73 dd be 59 3c fa bd
       -0.06836584 -0.11006294 -0.4325194 -0.12218542
0000f0 d7 d2 4f 3e 3e 9d 0a bd 86 4a e2 bd ed 51 42 bd
       0.20295273 -0.033841364 -0.110493705 -0.04744141
000100 ff 9c ea bd 63 99 50 3e 14 b1 be 3d 02 60 a7 be
       -0.11455726 0.20371012 0.09311119 -0.32690436
000110 26 b3 a1 3a 0e 28 b3 bd 38 7e 44 be 23 49 b7 bd
       0.0012336716 -0.08747874 -0.19188774 -0.089494966
000120 d0 99 c5 bb 88 69 c1 3d c2 6d 01 be fe 05 94 3d
       -0.006030299 0.094439566 -0.12639526 0.072277054
000130 9c 61 37 be 95 32 f7 3c 52 7c cf 3d 85 d8 90 bd
       -0.17908329 0.030175487 0.10131134 -0.07072548
000140 6f bf b5 3c a1 2f 8b bd 34 61 ab 3d 12 24 08 3e
       0.02218601 -0.06796194 0.083681494 0.1329501
000150 d3 2f e8 3d 11 f2 29 be d1 fa 28 be 73 0f 2c bd
       0.11337247 -0.16596247 -0.16501929 -0.04200692
000160 e7 65 88 3d 05 f3 2b 3d a8 00 df bd af 77 5c 3e
       0.06660061 0.04197981 -0.10888797 0.2153003
000170 68 bc 4d 3e 66 1d 12 be 03 5c 89 3c ec 4f c9 3d
       0.20091403 -0.14269027 0.016767507 0.09829697
000180 97 34 d9 3d 39 0f 8f bd 68 bb 5b 3d 96 b9 cf bd
       0.10605734 -0.06985325 0.05364552 -0.101428196
000190 e0 2c ed 3d 65 e9 c7 bd bf b3 06 bd 65 69 36 3e
       0.11580825 -0.09761313 -0.032886263 0.17813642
0001a0 0f 94 93 bc a1 19 d8 3d 28 89 d7 3c 27 ed cd ba
       -0.018014936 0.10551763 0.026310518 -0.0015710936
0001b0 6b 38 d4 3d 03 40 6e bd 19 36 a7 3d 30 41 03 be
       0.103623234 -0.058166515 0.08164615 -0.12817836
0001c0 7b 01 0e 3e 14 ed d3 bd 23 ef 6b 3e bc 3e 3d 3c
       0.13867752 -0.103479534 0.23040442 0.011550602
0001d0 12 c6 3c 3d c6 fc a7 bd 51 44 8b 3c 43 6a b1 bd
       0.046087332 -0.082025096 0.01700035 -0.08662846
0001e0 3e ab 63 bd de 59 1a be dc 10 b9 3d 00 4a c0 3d
       -0.05558323 -0.15073344 0.09036419 0.093891144
0001f0 62 0f eb 3d 30 ee 94 3c e1 76 2e be 94 18 48 3e
       0.114775434 0.018179983 -0.17037536 0.19540626
000200 bc d3 99 3c f6 56 4d 3e 20 5f b2 bd 1d 5d 72 be
       0.01877772 0.20052704 -0.0870955 -0.23668332
000210 0c 91 a1 bd d6 2b 4a be 73 75 69 3c 90 81 55 bd
       -0.078889936 -0.19743285 0.0142491935 -0.052125514
000220 fa 95 1e 3d ec e0 38 bd 1e 38 f9 3d 8f 53 91 3c
       0.038717248 -0.045136377 0.12168907 0.01774004
000230 5d 32 8f be f4 ab 4a 3c 0e d2 93 3e e4 9e 06 be
       -0.27968112 0.012370098 0.28871197 -0.1314655
000240 be 05 3b bd 44 6e 3b be e5 43 cd 3d 3e ad 0d bd
       -0.045659773 -0.18303782 0.100227155 -0.034589045
000250 84 0d 2c be e5 87 9a 3d 7d 02 70 3e a3 13 88 bd
       -0.16802031 0.07545451 0.23438449 -0.066443704
000260 c8 c9 59 39 a0 90 a0 bc ed 1c ac 3d 0d 62 59 be
       0.00020769902 -0.019600213 0.08403955 -0.2122881
000270 66 e7 ce bc ad 59 02 3c 53 b6 94 bd 6d fb 6a 3d
       -0.025256824 0.007955951 -0.07261338 0.057368685
000280 6a 17 41 3d c4 16 3e 3d 0c b4 94 be a3 e8 ce bc
       0.04714147 0.04640843 -0.29043615 -0.025257414
000290 b9 c1 8f be 39 17 83 be 9b 3a af bd 98 3b e5 3d
       -0.28077486 -0.25603655 -0.085561 0.11193007
0002a0 7b 88 29 be a6 cf c4 3d c9 0d 8e be 97 e0 5e be
       -0.1655597 0.09609918 -0.27744892 -0.21765362
0002b0 c8 38 06 3d 93 b9 ac ba 98 20 c7 3d bb fd 89 3c
       0.032768995 -0.0013177864 0.09723014 0.01684462
0002c0 80 4d 4a 3d d7 87 7d bd 77 d3 1e bd 58 df 0b be
       0.049390316 -0.061897125 -0.038775887 -0.13659418
0002d0 d4 88 84 bd 1f 46 b9 3c 68 99 6d 3d 5d 40 75 ba
       -0.064714104 0.022616444 0.058007628 -0.0009355599
0002e0 15 67 0d 3e b9 0e 55 bd a1 ea 52 3d d8 17 38 bd
       0.13808854 -0.052015994 0.05149329 -0.044944614
0002f0 fd 17 14 3e b5 71 57 3e 1c 3c 43 3e 4f 06 33 3e
       0.14462276 0.2103947 0.19065899 0.17482875
000300 35 bc d1 bc 6c 02 e3 3d 5d b5 dc bd 83 5c bb 3d
       -0.02560244 0.11084446 -0.1077678 0.091485046
000310 3b e1 93 3e f6 de 83 3e 84 f2 48 be 27 f3 39 3d
       0.28882775 0.25756043 -0.19623762 0.045397904
000320 84 bf 3c 3d 8d 68 a6 3c f5 55 ef 3d 6d 2c 23 bd
       0.04608108 0.020313526 0.11686317 -0.03983729
000330 84 b9 71 3d a5 43 21 bd 8c be 19 bd 15 3d 3e 3d
       0.059014812 -0.03937115 -0.037535235 0.04644497
000340 cb ae b5 bc 79 e3 6f be ed fc 05 bc 61 d9 7a 3d
       -0.022178074 -0.23426618 -0.008177978 0.061242465
000350 a3 13 4a 3e 57 a4 28 be f8 67 ed 3d e6 d8 06 3e
       0.19734053 -0.1646894 0.11592096 0.13168678
000360 e7 fb 06 bd fe a7 f4 bd 48 5a 55 3c ab 04 9d bd
       -0.032955077 -0.119461045 0.013022013 -0.07666906
000370 cf 5a f0 bd 1a 0a d5 bc d7 95 b0 3c 71 2b 1b be
       -0.1173607 -0.026005793 0.021555824 -0.1515329
000380 a7 b8 35 3e 50 39 36 bd 7e d5 77 be 75 48 95 3e
       0.1774622 -0.04448825 -0.24202535 0.29156843
000390 e4 91 fa bd 25 ed d2 bd e6 2b e7 3c ee 70 5a 3d
       -0.12234858 -0.10299138 0.028219175 0.053330354
0003a0 96 e6 33 be df b2 a0 3d b9 19 87 3d 06 dd 8a bc
       -0.1756843 0.07846617 0.06596703 -0.016951095
0003b0 ad 46 a9 bd 0e aa 8e 3d 14 db 4d 38 4b f0 93 be
       -0.082654335 0.06966029 4.907984e-05 -0.28894266
0003c0 ed 44 ff 3d 53 49 1c bc 48 57 f3 3d 2a 5b 02 be
       0.124643184 -0.009538966 0.11881882 -0.12730089
0003d0 39 9d c5 3d db 02 34 bd 9b 1b ba 3b 6f 54 a0 3d
       0.096491285 -0.043948036 0.0056795604 0.078286044
0003e0 f5 15 48 be 26 66 d1 ba 44 64 1d bd e1 b7 3d bd
       -0.19539626 -0.0015975877 -0.0384257 -0.04631794
0003f0 7f 88 fa 3c 01 87 22 bc 89 74 4f bd 1f e0 16 bd
       0.030582665 -0.009919883 -0.050648246 -0.036834832
