results/PINN/NASA results/1-1/Experiment4/model.pth (torch, 59646 bytes, 14 tensors)

encoder.net.0.weight f4 [60, 17]
0	0x3e037142	0.12836173
1	0xbd6b6c93	-0.05747659
2	0x3da2f5c0	0.07957029
3	0x3dc5e848	0.09663445
4	0xbd45d934	-0.048302844
5	0xbe15c0a4	-0.14624268
6	0x3e545ec5	0.20739277
7	0xbea88d61	-0.32920364
8	0x3d5155de	0.05110728
9	0xbd4c6db9	-0.049909327
10	0x3db0f12f	0.08639752
11	0xbdea8125	-0.114504136
12	0x3e162e1a	0.14666024
13	0xbcd25bf8	-0.02567862
14	0xbeaa3941	-0.33246806
15	0xbb1f92c7	-0.002434896
16	0x3e4e4ca8	0.2014643
17	0xbadcf802	-0.001685858
18	0x3d9585b1	0.0730089
19	0xbda9e6d6	-0.082959816
20	0x3d091a92	0.033472605
21	0xbe831785	-0.2560388
22	0xbe2b2898	-0.16714704
23	0x3e09137c	0.13386339
24	0x3dc0a114	0.09405723
25	0xbcdde131	-0.027084919
26	0x3e3680e9	0.17822613
27	0x3c9bfdd0	0.019041926
28	0x3d225613	0.039632868
29	0xbb9c2d06	-0.0047661094
30	0x3cc54d35	0.024084667
31	0x3e2dc71a	0.16970482
32	0x3db0b79f	0.08628773
33	0x3e75dbb5	0.24009593
34	0x3e2a8d8e	0.16655561
35	0xbeceabf1	-0.40365556
36	0xbe0286b4	-0.12746698
37	0x3e22601b	0.15856974
38	0x3d77bb31	0.060481254
39	0xbdb451f8	-0.08804697
40	0xbb177022	-0.0023107608
41	0xbdcf9e0d	-0.10137568
42	0x3d354031	0.04425067
43	0xbadd16e6	-0.0016867786
44	0xbcdb0e98	-0.026740357
45	0x3e2468dd	0.16055627
46	0xbe423a2e	-0.18967506
47	0x3d4bb642	0.04973436
48	0xbdf98fd2	-0.12185635
49	0x3df7de16	0.121029064
50	0x3ea82d6b	0.3284715
51	0xbe27d21a	-0.16388741
52	0xbe9cf94f	-0.30658957
53	0x3d276e0a	0.040876426
54	0x3d2a7c87	0.041622665
55	0xbe0a78e1	-0.13522674
56	0x3e41daac	0.18931073
57	0x3e081b10	0.13291574
58	0xbe30bcac	-0.17259473
59	0xbdcb0b66	-0.099142835
60	0x3e1be507	0.15224086
61	0x3d835acf	0.06413805
62	0xbde9c665	-0.11414794
63	0xbe0db365	-0.13837965
64	0x3e2a08cd	0.1660492
65	0x3e2bda93	0.16782598
66	0xbdd42550	-0.10358679
67	0xbde15bd8	-0.11003846
68	0x3ca054a8	0.019571617
69	0x3d061d86	0.032743
70	0xbeb59a09	-0.35469082
71	0xbd469de7	-0.04849043
72	0x3e1c11e3	0.15241198
73	0xbd33a979	-0.043862794
74	0xbe1390f7	-0.14410768
75	0xbd1c57cb	-0.038169663
76	0xbe5d4413	-0.21608
77	0xbd3b42c1	-0.04571796
78	0xbda10d96	-0.078639194
79	0x3db038d1	0.08604587
80	0xbecb576b	-0.39715132
81	0x3dbb6806	0.091507
82	0xbdb66e4b	-0.089077555
83	0xbbe25d30	-0.0069080815
84	0x3d0260f6	0.03183075
85	0x3e624451	0.22096373
86	0xbd46e443	-0.04855753
87	0x3e92d57a	0.28678495
88	0x3c147c65	0.009062861
89	0xbe2bcdcd	-0.16777726
90	0x3ca8cd44	0.02060569
91	0x3dc34c91	0.09536088
92	0x3d9f2e51	0.07772506
93	0x3dbecbf9	0.093162484
94	0x3de9335a	0.11386748
95	0x3e672a0e	0.22574636
96	0x3e626e25	0.2211233
97	0x3ef03351	0.4691415
98	0xbdbcf50d	-0.09226427
99	0x3dbcc25f	0.09216761
100	0xbe167338	-0.1469239
101	0x3d3b7003	0.04576112
102	0x3d231f3d	0.039824713
103	0x3b5c722f	0.0033637395
104	0xbd6b0d01	-0.05738545
105	0xbe16ad7c	-0.14714617
106	0xbe4db03b	-0.20086758
107	0x3e34fd9d	0.17674871
108	0xbd1955af	-0.03743523
109	0x3eae02cd	0.33986512
110	0xbc4798ad	-0.012182397
111	0x3e58969b	0.21151201
112	0xbd2cc07d	-0.04217576
113	0xbe3967c0	-0.18105984
114	0x3e0b78e2	0.13620332
115	0x3cfa5dd0	0.030562311
116	0xbd07f024	-0.033188
117	0x3d8a823f	0.06763124
118	0x3b908dc9	0.0044114334
119	0x3edca049	0.43091038
120	0xbdbb020f	-0.09131252
121	0x3d597e6a	0.053099073
122	0x3e5ed570	0.21761107
123	0x3dadd6b8	0.0848822
124	0xbe4c43ea	-0.19947782
125	0xbd93690e	-0.07197772
126	0xbc1a5449	-0.009419509
127	0xbe0f8b34	-0.14017946
128	0x3e416274	0.18885213
129	0xbd9d9e57	-0.076962166
130	0x3bf23e17	0.0073926556
131	0x3e47706b	0.19476478
132	0xbdd3d5e1	-0.103435285
133	0xbd9adbd5	-0.07561461
134	0xbd90ce79	-0.070706315
135	0x3eaa7514	0.3329245
136	0xbda87910	-0.08226216
137	0x3b15f7c4	0.0022883276
138	0xbcb78784	-0.022403486
139	0x3e3f1c55	0.18663152
140	0x3d507303	0.050890934
141	0xbd52b854	-0.05144532
142	0xbd1957a1	-0.037437085
143	0x3d2c8d47	0.04212692
144	0x3e1ebeee	0.15502521
145	0x3ebe8deb	0.3721765
146	0x3d7922b2	0.060824104
147	0xbe505d60	-0.2034812
148	0xbeba389b	-0.36371312
149	0xb97b806d	-0.00023985068
150	0x3ec95733	0.3932434
151	0x3dece400	0.11566925
152	0x3e99027f	0.29884717
153	0x3d7df5c0	0.062001944
154	0xbe2ff503	-0.17183308
155	0xbbf5e2ef	-0.0075038592
156	0xbca3f9fc	-0.020016663
157	0xbc2ce0dc	-0.0105516575
158	0xbe22dd16	-0.1590465
159	0x3ce4243e	0.027849313
160	0x3cfec70b	0.03110077
161	0x3e060106	0.13086328
162	0x3db29b0b	0.08720978
163	0x3eee1709	0.4650195
164	0xbe6ae88a	-0.22940269
165	0xbe958bde	-0.29208273
166	0x3cc23edc	0.023711614
167	0xbd968125	-0.07348851
168	0x3e08d4a5	0.13362367
169	0xbdf8e9be	-0.12153958
170	0xbe96028c	-0.29298818
171	0xbe34c4ca	-0.17653194
172	0x3e24cd04	0.16093832
173	0x3dfdc019	0.12390155
174	0xbd8e2ea5	-0.069424905
175	0x3d157998	0.036492914
176	0xbe2dddb4	-0.16979104
177	0x3daef790	0.085433125
178	0xbd145072	-0.03620953
179	0x3e1a878d	0.15090771
180	0xbd2df36a	-0.042468466
181	0xbd602d35	-0.054730613
182	0x3e1d7a7d	0.15378757
183	0xbdb71353	-0.08939233
184	0xbd2c5064	-0.042068854
185	0x3d375662	0.044760115
186	0x3cef43af	0.029207079
187	0x3e3c412f	0.1838424
188	0x3d44a393	0.04800756
189	0xbdd900fa	-0.105958894
190	0x3d4c096e	0.04981368
191	0xbd9e17a3	-0.07719352
192	0x3e343ae1	0.17600586
193	0xbdb9a244	-0.09064153
194	0xbe849a6a	-0.2589906
195	0xbb8dfa63	-0.004332827
196	0x3d8afa67	0.06786042
197	0x3e24b88e	0.16086027
198	0xbda5232d	-0.0806335
199	0x3c4b7c80	0.01241982
200	0x3d8e8d13	0.069605015
201	0xbe4e1705	-0.20125969
202	0x3d6052e4	0.05476655
203	0xbe0b4d96	-0.13603815
204	0x3e45f537	0.19331823
205	0x3e04c377	0.12965189
206	0xbdf84d3f	-0.121241085
207	0xbddf1ad8	-0.10893792
208	0x3dea82af	0.11450707
209	0xbd5c3137	-0.053757872
210	0xbe4243f0	-0.18971229
211	0xbcb7de5f	-0.022444902
212	0xbe3ce604	-0.18447119
213	0x3d99f023	0.075165056
214	0xbe09ada1	-0.1344514
215	0xbbf95ba0	-0.0076097995
216	0xbe173c56	-0.1476911
217	0xbcea44c3	-0.028597241
218	0x3e8632da	0.26210672
219	0x3dac5aed	0.0841578
220	0xbe2323a8	-0.1593157
221	0x3ea970e2	0.33093935
222	0x3d829bef	0.06377398
223	0x3dacb010	0.08432019
224	0x3c672489	0.014107832
225	0x3d8295c6	0.06376223
226	0xbe71105b	-0.23541395
227	0xbe3a4c8d	-0.18193264
228	0xbca6ba8b	-0.020352622
229	0x3e90ffd9	0.28320196
230	0x3d86682c	0.06562838
231	0x3e8a8850	0.27057123
232	0x3e4e5070	0.20147872
233	0xbdae0975	-0.084978975
234	0x3e80295c	0.25031555
235	0xbe3a9986	-0.18222627
236	0xbe0ea763	-0.1393104
237	0x3db0427f	0.08606433
238	0x3e8d767d	0.27629462
239	0xbc4c8b22	-0.012484344
240	0xbdf89222	-0.121372476
241	0xbd43c3dd	-0.04779421
242	0xbe493feb	-0.19653289
243	0xbe6188c8	-0.22024834
244	0x3e359596	0.17732844
245	0x3dd5fe04	0.1044884
246	0xbcf3f426	-0.029779505
247	0x3d2677e7	0.04064169
248	0x3cb3bdb6	0.021941047
249	0x3e816835	0.25274816
250	0xbb354326	-0.0027658432
251	0xbe152b4c	-0.14567298
252	0x3d507056	0.050888382
253	0xbea8b885	-0.32953277
254	0x3e66446f	0.22487043
255	0xbe532524	-0.20619637

encoder.net.0.bias f4 [60]
0	0x3cc3c0ea	0.0238957
1	0x3d6c7ad7	0.057734337
2	0xbc5f3b42	-0.013624968
3	0xbd6dcc20	-0.058055997
4	0xbcccfeb5	-0.025023798
5	0xbd66c40b	-0.056339305
6	0x3ddcf646	0.107891604
7	0x3d458417	0.048221674
8	0x3ce21e6e	0.0276024
9	0xbd844fec	-0.064605564
10	0xbd2927d5	-0.041297752
11	0xbbdbd6ff	-0.006708979
12	0x3db395b3	0.08768787
13	0xbd7c4337	-0.06158754
14	0xbccd3e0e	-0.025054004
15	0x3d50f0ca	0.051010884
16	0xbd8e0ee1	-0.06936432
17	0xbd76b675	-0.0602326
18	0xbd4f4d2f	-0.050610717
19	0xbd034c59	-0.032055233
20	0xbc21140a	-0.009831438
21	0x3d1b9724	0.037985936
22	0xbd3a60c2	-0.04550243
23	0x3d65a8bf	0.056069132
24	0xbd5db8c5	-0.054131288
25	0x3da24bb8	0.079245985
26	0xbd3259d1	-0.043542687
27	0xbd75c457	-0.060001697
28	0x3cee7293	0.029107368
29	0xbd001e74	-0.031279042
30	0xbd7ad3e3	-0.061237227
31	0xbce7b0f8	-0.028282627
32	0x3d8e3737	0.06944125
33	0x3d519e62	0.051176436
34	0xbd150483	-0.036381256
35	0xbdef15c6	-0.11674075
36	0xbd8a4e26	-0.06753187
37	0x3dab56ce	0.08366166
38	0x3d75051e	0.059819333
39	0xbd6ec63d	-0.058294524
40	0x3d8f2296	0.069890186
41	0xbd355b14	-0.044276312
42	0xbd9a9225	-0.07547406
43	0xbd916c2a	-0.07100709
44	0x3b768641	0.0037616643
45	0x3d448555	0.047978718
46	0xbb4ab381	-0.0030929747
47	0x3d4442f5	0.047915418
48	0xbd72c235	-0.05926724
49	0x3cf1ac52	0.029501114
50	0xbbe0ccfc	-0.0068603735
51	0x3d77f18f	0.060533103
52	0xbd67a63a	-0.05655501
53	0xbd88f541	-0.066874035
54	0xbc850956	-0.016239803
55	0xbda11370	-0.078650355
56	0xbd1bb0a4	-0.038010255
57	0xbd81d61b	-0.063396655
58	0x3d37e79b	0.04489861
59	0x3d1fbfb8	0.039001197

encoder.net.2.weight f4 [60, 60]
0	0xbe158a2a	-0.14603487
1	0x3b0221b1	0.0019856507
2	0xbe0dcb45	-0.13847072
3	0xbcab92f1	-0.02094409
4	0xbd079c85	-0.033108253
5	0x3dcc652e	0.09980236
6	0xbd9caba4	-0.07649925
7	0x3d400532	0.046879955
8	0xbd1f5d09	-0.038907085
9	0xbe2ecb10	-0.1706965
10	0x3d0d63d6	0.03451904
11	0x3d51eea6	0.051252984
12	0xbd14900f	-0.036270197
13	0xbdb02eed	-0.086027004
14	0xbb074a37	-0.00206436
15	0x3b99f7e7	0.0046987417
16	0x3e2d7dc4	0.16942507
17	0x3d495602	0.04915429
18	0xbca2edbb	-0.01988875
19	0x3e01aa12	0.12662533
20	0xbe05a383	-0.13050656
21	0xbbb01c37	-0.005374457
22	0x3d890346	0.066900775
23	0xbe27df3b	-0.1639375
24	0x3dcaae5f	0.0989654
25	0xbc2f2f3f	-0.010692417
26	0xbdba826f	-0.091069095
27	0xbe95615b	-0.2917584
28	0xbbf276ee	-0.0073994314
29	0xbe121311	-0.14265086
30	0x3ce9d1ba	0.028542388
31	0xbdaeec9d	-0.08541224
32	0xbe316c61	-0.173265
33	0xbe59589b	-0.21225207
34	0x3d0373c2	0.032092817
35	0xbd297669	-0.04137269
36	0x3cf92519	0.030413197
37	0x3deb8e8a	0.115017965
38	0xbccbd6b8	-0.02488266
39	0xbcbe1b68	-0.023206428
40	0x3cdcdc18	0.026960418
41	0xbcb52abf	-0.02211511
42	0x3cd75cf8	0.026289448
43	0x3e32dbc7	0.17466651
44	0xbe26059a	-0.16213074
45	0xbdc09a6d	-0.094044544
46	0xbe66d4d2	-0.22542122
47	0x3ced504f	0.028968958
48	0x3c852bd2	0.016256247
49	0xbd47d4d0	-0.04878694
50	0xbe4aa130	-0.1978805
51	0xbe18dd40	-0.1492815
52	0xbd92c645	-0.07166723
53	0x3c1783b2	0.009247707
54	0xbe53ce5c	-0.20684189
55	0x3e34ed21	0.17668582
56	0xbe209edd	-0.15685602
57	0x3dfedde8	0.12444669
58	0xbe09a4f0	-0.13441825
59	0xbd976f67	-0.07394295
60	0xbd0ed0e9	-0.0348672
61	0x3ded668d	0.11591826
62	0x3e5eea3c	0.21769041
63	0xbd8a9b3b	-0.06767889
64	0x3e405030	0.18780589
65	0xbc50d57a	-0.012746209
66	0xbe3ed9e2	-0.18637803
67	0x3da96b9c	0.08272478
68	0x3c5e49f5	0.013567437
69	0xbd7ce8fe	-0.061745636
70	0xbdcf8f32	-0.10134734
71	0xbd454737	-0.04816362
72	0xbe3be68e	-0.18349668
73	0xbc25808e	-0.010101451
74	0x3d3909d9	0.045175407
75	0x3c976a28	0.018483236
76	0x3e9909fd	0.29890433
77	0xbe46b412	-0.19404629
78	0xbd99578b	-0.074874006
79	0xbc9ae508	-0.018908039
80	0xbdddbe0f	-0.108272664
81	0x3e079c41	0.132432
82	0x3e5dd0db	0.21661703
83	0x3e78c247	0.24292861
84	0x3cfff11e	0.031242903
85	0x3cd74017	0.026275678
86	0xbe19a5ca	-0.1500465
87	0x3e81252a	0.25223666
88	0x3e3d0947	0.1846057
89	0x3e2201ae	0.15820953
90	0x3e6da0c7	0.23205863
91	0xbd23b2cf	-0.039965447
92	0x3e1cee18	0.153252
93	0x3b49c01a	0.0030784667
94	0xbdf38289	-0.11890132
95	0x3e2f00d7	0.17090164
96	0xbe016306	-0.1263543
97	0xbde46292	-0.11151613
98	0xbd026f94	-0.03184469
99	0x3c0c2832	0.008554505
100	0x3c4e96b4	0.012609173
101	0x3e2c8089	0.16845907
102	0x3c95fabb	0.018308034
103	0x3c900b27	0.017583443
104	0x3c9dbec8	0.01925601
105	0x3d14f82c	0.036369488
106	0x3d1e8fac	0.038711235
107	0xbe1b2fd3	-0.15154962
108	0xbd06c372	-0.032901235
109	0x3d80d4a0	0.06290555
110	0x3df93139	0.121675916
111	0xbe1ade9e	-0.15123984
112	0x3dfc4305	0.123174705
113	0xbb99c0a3	-0.0046921535
114	0x3e8091dd	0.25111285
115	0xbcabbcd6	-0.020964067
116	0xbd3c5bb1	-0.04598588
117	0x3d149808	0.0362778
118	0x3e6869ca	0.22696605
119	0x3dab765e	0.08372186
120	0xbe5aa887	-0.2135335
121	0xbc53a2e5	-0.012917255
122	0xbe4854a8	-0.19563544
123	0xbdd8f048	-0.10592705
124	0x3ce00ebb	0.027350774
125	0xbda76dc9	-0.08175237
126	0x3e7ab808	0.24484265
127	0xbde096f5	-0.10966293
128	0xbcc11626	-0.023570132
129	0xbba83b59	-0.005134028
130	0x3d438b9a	0.047740556
131	0x3d461437	0.048359122
132	0xbce3044e	-0.027712014
133	0x3d136b16	0.035990797
134	0xbeb19cda	-0.3468998
135	0xbd55b066	-0.05217018
136	0x3d88d6f6	0.066816255
137	0x3c68a2b9	0.014198952
138	0x3dd6aa50	0.10481703
139	0x3dee5400	0.116371155
140	0xbb495ae4	-0.003072434
141	0x3d3ef46f	0.04661983
142	0xbd7b39c0	-0.06133437
143	0xbd91726c	-0.07101902
144	0x3dc98073	0.09838953
145	0xbd669b16	-0.056300245
146	0xbdeb9742	-0.115034595
147	0xbd67b6a3	-0.05657066
148	0xbd5d90f3	-0.054093312
149	0x3df8c69e	0.12147258
150	0x3d7113e0	0.058856845
151	0x3d8ec29a	0.06970711
152	0x3e987416	0.29776067
153	0x3ceba387	0.0287645
154	0x3e98016f	0.29688594
155	0x3d9848bd	0.07435749
156	0xbdf52c25	-0.119713105
157	0xbde1fd6a	-0.11034663
158	0x3db1e2ac	0.08685812
159	0xbcb590e6	-0.02216382
160	0x3ddd030a	0.10791595
161	0x3e830cf1	0.2559581
162	0xbe51a283	-0.2047215
163	0xbe7efd7c	-0.24901384
164	0x3c0c0b30	0.008547589
165	0xbe5b1b54	-0.21397144
166	0x3d0ecbf8	0.03486249
167	0x3e0a24ee	0.1349065
168	0x3e2829f2	0.16422251
169	0xbe292b79	-0.1652049
170	0x3e785b59	0.24253596
171	0xbc00c310	-0.0078590065
172	0xbcce7f80	-0.025207281
173	0x3d541ef2	0.051787324
174	0xbde8e6a0	-0.11372113
175	0xbdc8ecc0	-0.098107815
176	0x3d36e051	0.04464752
177	0xbe033443	-0.12812905
178	0x3e66fa96	0.22556528
179	0x3e0c3c24	0.13694817
180	0x3e02600d	0.12731953
181	0x3d67a66c	0.056555197
182	0x3e27d6d8	0.1639055
183	0xbd9c6b19	-0.07637615
184	0x3d4dfbcb	0.050288957
185	0x3d4840a6	0.04888978
186	0x3e87a48c	0.26492727
187	0xba317885	-0.0006769973
188	0xbc8e6911	-0.017384084
189	0xbb30b1e0	-0.002696149
190	0x3cd39622	0.025828425
191	0xbdb853d9	-0.09000368
192	0x3e552282	0.20813945
193	0xbd0c5826	-0.034263752
194	0x3dd2b5f5	0.10288612
195	0xbe11c0b6	-0.1423367
196	0x3d0c4f66	0.034255408
197	0x3d910437	0.07080882
198	0x3e6eb434	0.2331093
199	0xbe15a98f	-0.14615463
200	0xbd04833f	-0.03235173
201	0x3e132237	0.1436852
202	0xbde71761	-0.11283756
203	0x3cc23091	0.023704799
204	0xbdb8eb26	-0.09029226
205	0x3e0f1cb1	0.13975789
206	0xbe251a62	-0.16123345
207	0x3dc009a7	0.09376841
208	0xbe3e2781	-0.18569757
209	0xbbc395c8	-0.005968783
210	0x3d4aa3e2	0.049472697
211	0x3c55463f	0.013017236
212	0x3d50a22b	0.050935905
213	0xba352395	-0.0006909904
214	0x3d66cb7e	0.05634641
215	0xbc0ad56d	-0.008473736
216	0x3e775cf9	0.2415656
217	0x3e48f99e	0.19626471
218	0xbde0d032	-0.1097721
219	0xbe986140	-0.29761696
220	0x3d909b16	0.0706083
221	0xbd3ac7c2	-0.04560066
222	0xbdc76b6b	-0.09737285
223	0x3d89e5a9	0.06733257
224	0x3d068f6e	0.03285163
225	0x3e5cbd8c	0.21556681
226	0xbe0ed86d	-0.13949747
227	0x3dfe5b61	0.12419773
228	0x3e69a7ee	0.22817966
229	0x3e5cce1e	0.21563002
230	0x3dc78b92	0.09743418
231	0x3e688fe6	0.22711143
232	0x3d972963	0.07380941
233	0xbc0c37cd	-0.008558226
234	0x3cddc5f7	0.027071936
235	0xbdd51cec	-0.10405907
236	0xbe666f6c	-0.22503442
237	0x3d656f0a	0.0560141
238	0xbd6df7f3	-0.05809779
239	0x3ddb1df1	0.1069907
240	0x3e0103ad	0.12599058
241	0xbd9b2ba3	-0.075766824
242	0x3e093385	0.1339856
243	0xbe0aa2d5	-0.13538678
244	0x3e8de253	0.27711734
245	0x3e268834	0.16262895
246	0x3eabebc6	0.33578318
247	0xbe4fd9e5	-0.20297964
248	0x3dc952c5	0.0983024
249	0xbe0ffbe0	-0.14060926
250	0x3e9aef67	0.30260774
251	0x3e75f7ba	0.24020281
252	0xbe2c87f4	-0.16848737
253	0x3d5060f0	0.050873697
254	0x3ac95ecc	0.0015363335
255	0x3d5ec85a	0.05439029

encoder.net.2.bias f4 [60]
0	0x3d800307	0.062505774
1	0xbda57cfe	-0.08080481
2	0x3d135e10	0.035978377
3	0xbc77c9e5	-0.015123819
4	0x3bdd1197	0.0067464816
5	0xbd57ee48	-0.052717477
6	0x3d868c82	0.065697685
7	0xbd941e43	-0.072323345
8	0xbd51ad36	-0.051190577
9	0xbccd8c97	-0.025091453
10	0x3d851a9c	0.06499216
11	0xbcd71d1e	-0.026259001
12	0x3d6a4252	0.057192154
13	0xbd88f0da	-0.06686564
14	0x3b2fb322	0.0026809652
15	0xbd61deab	-0.055143993
16	0xbd3319a2	-0.043725617
17	0xbd660a4e	-0.05616217
18	0xbcf4550d	-0.029825712
19	0xbda63b15	-0.08116738
20	0xbd291547	-0.041280057
21	0xbd99e1e3	-0.075137876
22	0xbd5b91de	-0.053605907
23	0x3d237fbc	0.03991674
24	0xbd436e46	-0.047712587
25	0xbda57c98	-0.08080405
26	0xbd5a0e7a	-0.053236462
27	0x3d3e2b18	0.046427816
28	0xbd995321	-0.07486559
29	0xbd8465f1	-0.06464756
30	0x3ce1b5aa	0.027552444
31	0xbd66b307	-0.056323078
32	0xbdcac13f	-0.0990014
33	0x3cdc43a1	0.026887717
34	0xbd8df6fc	-0.06931874
35	0xbd4fd938	-0.050744265
36	0x3d8aca86	0.067769095
37	0xbd63a260	-0.055574775
38	0xbd88452d	-0.06653819
39	0x3cb8da52	0.02256504
40	0x3d533599	0.051564787
41	0xbbf19c8a	-0.0073733972
42	0xbc355e20	-0.011069804
43	0xbd5f93ba	-0.054584242
44	0xbd390e3b	-0.045179587
45	0xbd5927c2	-0.05301643
46	0xbdd801ac	-0.10547194
47	0xbcec4150	-0.028839737
48	0x3d636d9f	0.055524465
49	0x3d69bb1b	0.057063203
50	0xbd3f3fb0	-0.046691597
51	0x3d766396	0.060153566
52	0xbc8c9c1b	-0.01716428
53	0xbcf63cd5	-0.030058304
54	0x3d1e0673	0.03858037
55	0xbd6c369f	-0.05766928
56	0xbd9ba0cb	-0.07599028
57	0x3c954471	0.018221112
58	0x3dac0af7	0.08400529
59	0xbd5082fd	-0.05090617

encoder.net.5.weight f4 [32, 60]
0	0x3c66accc	0.014079284
1	0x3cb44590	0.022005826
2	0xbdfb3a17	-0.12266939
3	0xbe81084f	-0.2520165
4	0x3d40d035	0.04707356
5	0xbe45418d	-0.19263287
6	0xbc6ad472	-0.0143328775
7	0xbec44acc	-0.38338315
8	0x3d4352f3	0.04768653
9	0x3e15b6b9	0.14620484
10	0xbd34ec6a	-0.044170775
11	0xbe3837f4	-0.17990094
12	0x3d57490d	0.0525599
13	0xbcb26208	-0.02177526
14	0x3dee770b	0.116437994
15	0x3c198aac	0.009371441
16	0xbdb20ec6	-0.08694224
17	0x3da1062f	0.078625076
18	0x3ccbad9c	0.024863057
19	0xbd409d80	-0.047025204
20	0xbd2212ca	-0.0395687
21	0xbd8fb23e	-0.07016419
22	0xbd26849a	-0.040653802
23	0x3cc188e3	0.023624843
24	0xbdbcebc0	-0.09224653
25	0xbe118375	-0.14210303
26	0xbd013735	-0.03154679
27	0xbe0708f0	-0.13187003
28	0xbda95a1e	-0.082691416
29	0x3e052956	0.1300405
30	0x3d50712b	0.050889175
31	0xbe12b9c6	-0.1432868
32	0xbe2a391f	-0.16623352
33	0xbddbce90	-0.10732758
34	0xbe121e87	-0.14269458
35	0xbdf7dca6	-0.12102632
36	0x3e29a9e3	0.16568713
37	0x3e0bc56a	0.13649526
38	0xbd5f3d39	-0.054501746
39	0xbd79000c	-0.06079106
40	0x3d547a89	0.05187467
41	0x3e1025a7	0.14076863
42	0xbdc3e953	-0.095659874
43	0xbe0faa0a	-0.14029709
44	0xbdae5c7c	-0.08513734
45	0x3cf30729	0.0296665
46	0xbdec7ff2	-0.11547841
47	0xbe3cdd92	-0.18443897
48	0xbe13ed25	-0.14445932
49	0xbd83ee44	-0.0644193
50	0xbe0e19da	-0.13877049
51	0xbd800753	-0.06251397
52	0xbd9a577c	-0.075362176
53	0xbdac3579	-0.084086366
54	0xbd6fc0ef	-0.058533605
55	0x3e07c7a9	0.13259758
56	0x3cbb656a	0.022875506
57	0xbcbb5d2a	-0.022871573
58	0x3e06c9e9	0.1316296
59	0x3e8bcf28	0.27306485
60	0x3c8ea8f5	0.01741455
61	0xbc0f3da8	-0.008742727
62	0xbe8e05ed	-0.27738896
63	0x3e1a7d87	0.15086947
64	0xbe0a6faf	-0.13519166
65	0xbd945833	-0.07243385
66	0x3e325d43	0.17418389
67	0x3dc132b8	0.09433502
68	0xbda3bcf1	-0.07995022
69	0x3e14863a	0.14504328
70	0x3b178068	0.0023117308
71	0x3de0ac2f	0.109703414
72	0x3c862f24	0.0163799
73	0xbcfd8a33	-0.030949688
74	0xbded1b66	-0.115774915
75	0xbd8c4982	-0.06849958
76	0xbdea9450	-0.114540696
77	0xbd98afa4	-0.07455376
78	0xbdbb1f9b	-0.09136888
79	0x3e44a0e1	0.19201995
80	0xbc899c0d	-0.016798044
81	0x3e26bd98	0.16283262
82	0xbd270597	-0.040776815
83	0x3dc00403	0.09375765
84	0xbd9972ce	-0.074926004
85	0x3c48c8b9	0.012254887
86	0xbd6d88d8	-0.057991832
87	0x3e6672b4	0.22504693
88	0x3dd2b1d6	0.10287826
89	0xbea09c7d	-0.3136939
90	0xbe9ce731	-0.30645135
91	0xbd8c761b	-0.06858464
92	0xbd2df749	-0.042472158
93	0xbdf23f05	-0.11828426
94	0x3e7e0c64	0.24809414
95	0x3cc02623	0.023455685
96	0x3e0d171a	0.13778344
97	0xbdc28fb2	-0.09500064
98	0x3e14b0c5	0.14520557
99	0xbe224efb	-0.15850441
100	0x3e27f50e	0.16402075
101	0xbd88fe04	-0.06689075
102	0xbe5c533c	-0.21516126
103	0x3cb55ac8	0.022138014
104	0xbe4757f0	-0.19467139
105	0x3d1e977c	0.038718686
106	0x3c922c12	0.01784328
107	0xbdb54218	-0.08850497
108	0x3cc0caff	0.023534296
109	0xbd85229d	-0.065007426
110	0xbe3594d9	-0.17732562
111	0xbd8620ef	-0.0654925
112	0x3df25af3	0.118337534
113	0xbe965add	-0.29366198
114	0x3d4b24b5	0.049595553
115	0xbd403686	-0.046926998
116	0x3e10220d	0.1407549
117	0x3de83c9b	0.113396846
118	0xbe15ad52	-0.14616898
119	0x3e21301e	0.15741012
120	0xbc92d561	-0.017924013
121	0x3c00c791	0.00786008
122	0x3dfa80cc	0.12231597
123	0xbe5c41cd	-0.21509476
124	0x3c74ccfe	0.014941452
125	0xbe2f29aa	-0.17105737
126	0x3d756801	0.05991364
127	0x3c8ceffe	0.017204281
128	0x3e789dfc	0.24279016
129	0xbc21549e	-0.0098468345
130	0xbd8031f2	-0.06259526
131	0x3d1b924e	0.037981324
132	0x3e25b3be	0.16181847
133	0xbdc81050	-0.09768736
134	0x3d6930c1	0.05693126
135	0x3dde7ed7	0.108640365
136	0xbe1ed1d6	-0.15509734
137	0x3e51331a	0.2042965
138	0xbd83e1c1	-0.064395435
139	0x3dc76acc	0.09737167
140	0xbd71b66c	-0.05901186
141	0x3da483b4	0.08032933
142	0xbb436a41	-0.002981797
143	0x3e10ecc7	0.14152823
144	0x3e0aed6e	0.13567135
145	0x3e04d89d	0.12973256
146	0x3e751f38	0.2393769
147	0x3e8ecea1	0.2789202
148	0x3e4f5a48	0.20249283
149	0x3e269b5b	0.16270201
150	0x3e475832	0.19467238
151	0xbdadd81d	-0.08488486
152	0x3ea53753	0.32268772
153	0xbd1e7bda	-0.038692333
154	0x3dbc6ea7	0.09200793
155	0x3b2f2c8f	0.002672944
156	0x3da19c07	0.07891088
157	0x3e0d7e30	0.13817668
158	0xbe31f5c4	-0.17378908
159	0x3ddcaf8c	0.107756704
160	0x3e4f6fe4	0.20257527
161	0x3e471d09	0.1944467
162	0xbdb769e4	-0.08955744
163	0x3d879864	0.06620863
164	0x3d904dd3	0.07046094
165	0x3d888e35	0.06667749
166	0x3e11700a	0.14202896
167	0xbd817f30	-0.06323087
168	0xbcc45b90	-0.023969442
169	0xbe9437ab	-0.2894872
170	0xbd9b4bcc	-0.075828165
171	0xbb3a608c	-0.0028438894
172	0xbe81d474	-0.253574
173	0x3e199f30	0.15002131
174	0x3d6522f6	0.055941544
175	0x3cd4f7dd	0.025997097
176	0xbda1a154	-0.07892099
177	0x3e1e3c00	0.15452576
178	0x3d4349b7	0.04767772
179	0x3cb11f48	0.021621361
180	0x3e1212b9	0.14264955
181	0x3d0b0ec9	0.033949647
182	0x3b477f20	0.0030440763
183	0x3e2316ff	0.15926741
184	0x3e4c4c3b	0.19950955
185	0x3d95c8fc	0.07313725
186	0xbcdab818	-0.02669911
187	0xbd0bfa77	-0.03417441
188	0xbe0e4dc2	-0.1389685
189	0xbd805d7d	-0.062678315
190	0x3e827e04	0.25486767
191	0x3e2dfc76	0.16990837
192	0xbc8571b8	-0.016289577
193	0x3cb4ec64	0.022085376
194	0xbd2abf20	-0.041686177
195	0xbdb2cb31	-0.08730162
196	0xbda6358b	-0.08115681
197	0xbdf13655	-0.11777941
198	0xbda724b3	-0.08161297
199	0x3e5c28de	0.21499965
200	0x3d8c7655	0.068585075
201	0x3cb114f5	0.021616438
202	0xbd9c448b	-0.07630261
203	0xbe274455	-0.1633466
204	0x3d511c56	0.051052414
205	0x3e02ae0b	0.12761705
206	0xbc96398a	-0.018337984
207	0xbb1542d1	-0.0022775421
208	0x3e24995a	0.16074124
209	0xbc926a05	-0.01787282
210	0x3dff6bad	0.124717094
211	0x3d687dfa	0.056760766
212	0x3dddbe33	0.10827293
213	0x3d74dcb5	0.059780795
214	0xbda0db7f	-0.078543656
215	0xbe697845	-0.22799785
216	0x3e24878e	0.16067335
217	0x3e49370b	0.19649903
218	0x3dfcd7a0	0.12345815
219	0xbe0790bb	-0.13238804
220	0xbb0aecd4	-0.002119829
221	0x3b06e9f0	0.0020586215
222	0xbcfb478d	-0.030673767
223	0x3d0c12c2	0.034197576
224	0x3da77ba0	0.081778765
225	0x3cd84698	0.02640085
226	0xbd9958c2	-0.07487632
227	0xbe3a80f9	-0.18213262
228	0xbcfd3cad	-0.030912722
229	0xbec44d36	-0.38340157
230	0x3d88b26b	0.066746555
231	0xbe274cbe	-0.16337869
232	0x3e27519f	0.1633973
233	0xbaf2b10b	-0.0018515898
234	0xbe2c2f7a	-0.16814986
235	0xbd9a601f	-0.07537865
236	0x3e1c2d93	0.1525176
237	0xbd9f301d	-0.07772849
238	0xbe0c72ce	-0.1371567
239	0x3d597436	0.053089343
240	0x3d3f62c6	0.046725057
241	0xbcb875c8	-0.0225171
242	0xbe88a04a	-0.2668479
243	0xbeb61142	-0.35560042
244	0x3e55e77c	0.20889086
245	0xbce1b8c7	-0.027553929
246	0xbe28f515	-0.16499741
247	0x3e04ec11	0.12980677
248	0x3d6fb98c	0.05852656
249	0xbcfd8d80	-0.030951262
250	0xbe144250	-0.14478421
251	0x3e81192f	0.25214526
252	0xbca7c4f1	-0.020479651
253	0x3c8390b5	0.016060213
254	0x3e8b1657	0.2716548
255	0x3e4ff564	0.20308453

encoder.net.5.bias f4 [32]
0	0x3d29db76	0.04146906
1	0xbd69f206	-0.057115577
2	0x3d4ac60e	0.049505286
3	0xbe12d6ff	-0.14339827
4	0xbdb4d797	-0.08830183
5	0xbd599832	-0.05312366
6	0xbd5d49b8	-0.05402538
7	0x3d754517	0.059880342
8	0xbda0668f	-0.078320615
9	0xbd2c07a3	-0.04199947
10	0xbe2603e8	-0.16212428
11	0xbde7bf86	-0.11315827
12	0x3d9941d2	0.07483257
13	0x3d9333ef	0.0718764
14	0x3d8eb3b0	0.069678664
15	0xbd832ef9	-0.06405444
16	0xbdbd000d	-0.09228525
17	0x3cf07bc4	0.029355891
18	0x3d9ac2ab	0.07556661
19	0xbd8e649a	-0.06952782
20	0xbd918628	-0.071056664
21	0xbc9b00f0	-0.018921345
22	0x3d65a23d	0.056062926
23	0x3da97310	0.082738996
24	0xbddb3e89	-0.10705287
25	0xbd9afdf4	-0.07567969
26	0x3da4a1fd	0.08038709
27	0xbda13a2d	-0.07872424
28	0xbda1b2e0	-0.07895446
29	0x3db4b3ef	0.08823382
30	0xbd826814	-0.063675076
31	0x3d8eac44	0.06966451

predictor.net.1.weight f4 [32, 32]
0	0xbdd27e22	-0.10277964
1	0xbdc47faa	-0.095946625
2	0xbdf057f7	-0.11735528
3	0xbe37c4be	-0.17946145
4	0xbe9f6ce5	-0.31137767
5	0x3e85f278	0.2616155
6	0xbe57d7cb	-0.21078412
7	0xbe096050	-0.13415647
8	0xbc210396	-0.009827515
9	0xbcd6c14c	-0.026215218
10	0xbded7960	-0.11595416
11	0x3e0f1957	0.1397451
12	0xbebf2968	-0.37336278
13	0xbe080270	-0.1328218
14	0xbcdb85a8	-0.02679713
15	0xbc51ab95	-0.012797256
16	0x3dc9be33	0.09850731
17	0x3de08a1f	0.109638445
18	0x3c20ac22	0.009806665
19	0xbe052df6	-0.13005814
20	0xbd05a060	-0.03262365
21	0xbe0ed0b3	-0.139468
22	0xbef1655d	-0.47147647
23	0xbe2c589e	-0.1683068
24	0xbdc40a0e	-0.0957223
25	0x3ef78f3d	0.4835147
26	0x3ef5463a	0.4790514
27	0xbd7df28e	-0.061998896
28	0xbe47499a	-0.1946167
29	0x3e385cb0	0.18004107
30	0xbe84f361	-0.25966933
31	0x3dd42998	0.10359496
32	0x3daf22bd	0.08551548
33	0xbe08edf5	-0.13372023
34	0xbdf1be54	-0.1180388
35	0xbdc75efb	-0.09734913
36	0xbdbe974a	-0.093062
37	0xbd662d03	-0.05619527
38	0x3e7e7ef5	0.24853118
39	0xbede4117	-0.43409035
40	0x3e925c59	0.2858608
41	0x3d8f31c2	0.069919124
42	0x3ee28b81	0.44247058
43	0xbb3b0155	-0.002853473
44	0xbed8bbe1	-0.4233084
45	0x3d8d6fa1	0.06906057
46	0x3d9433c6	0.072364375
47	0x3cbaff45	0.0228268
48	0x3e530bcc	0.20609969
49	0x3dbb9c4d	0.091606714
50	0x3e3def26	0.18548259
51	0x3e89f862	0.26947314
52	0x3e63baa5	0.22239168
53	0xbe1e5b1c	-0.15464443
54	0x3e9027aa	0.2815526
55	0x3e4ee7c5	0.202056
56	0x3e3615e4	0.17781788
57	0x3db7d883	0.08976843
58	0x3e1a4320	0.15064669
59	0x3d84c01a	0.06481953
60	0x3e03f4b9	0.12886323
61	0xbe192318	-0.14954793
62	0xbe12ebfd	-0.14347835
63	0x3dd4a480	0.103829384
64	0x3dbc5d7c	0.09197518
65	0x3d37e923	0.04490007
66	0xbd52a619	-0.051427934
67	0xbe86dc1b	-0.26339802
68	0xbe921fff	-0.28540036
69	0x3da4572b	0.080244385
70	0xbd60c9f7	-0.05488011
71	0x3e534942	0.20633414
72	0xbe066438	-0.13124168
73	0x3dd4af3b	0.10384985
74	0xbe9d161a	-0.30680925
75	0xbe917047	-0.28405973
76	0xbe5a8e16	-0.21343264
77	0x3e298d56	0.16557822
78	0x3e44aeec	0.19207352
79	0xbe5e6636	-0.21718678
80	0xbe94fff6	-0.29101533
81	0xbe34e23a	-0.17664424
82	0x3d4f90b9	0.050675128
83	0xbe245b58	-0.1605047
84	0xbda101cb	-0.0786167
85	0xbdf17698	-0.11790198
86	0xbe3847f9	-0.17996205
87	0x3e303940	0.17209339
88	0xbdfee086	-0.12445168
89	0xbdc42047	-0.09576469
90	0xbd26c9a7	-0.040719654
91	0xbe8125c5	-0.25224128
92	0x3dbf3468	0.093361676
93	0x3c52cb93	0.012865919
94	0x3e167704	0.14693838
95	0x3e258b68	0.1616646
96	0x3e41183a	0.18856898
97	0x3d8a517a	0.06753822
98	0xbecdc217	-0.4018714
99	0x3dc33a15	0.09532563
100	0xbe02ef75	-0.12786658
101	0xbe1d9f8d	-0.15392895
102	0xbe12db63	-0.14341502
103	0x3e1c0fb0	0.1524036
104	0x3c744a1f	0.01491025
105	0xbe4c8b85	-0.19975097
106	0xbdbda32a	-0.09259637
107	0x3e2da4af	0.16957353
108	0xbeb56a13	-0.3543249
109	0xbe31b960	-0.17355871
110	0xbe9cb6e5	-0.30608287
111	0x3dce29bd	0.10066555
112	0xbe4c9930	-0.19980311
113	0xbe26d5a2	-0.16292432
114	0x3cbce4c7	0.023058308
115	0x3e45fd98	0.1933502
116	0x3df1f773	0.11814775
117	0x3dc5817a	0.09643836
118	0x3da509fd	0.08058546
119	0xbcac05e0	-0.020998895
120	0xbdee393e	-0.11632012
121	0xbc3a1e3f	-0.01135975
122	0x3eb3e5ae	0.3513617
123	0xbeaefec0	-0.34178734
124	0x3d047866	0.032341383
125	0xbe2df5f9	-0.16988362
126	0x3d1081ef	0.035280164
127	0xbe8c2b6d	-0.2737688
128	0x3db916e7	0.090375714
129	0xbe1a675f	-0.15078495
130	0x3db1591a	0.08659573
131	0xbead8e42	-0.33897597
132	0xbcd47ce8	-0.025938466
133	0x3e7e2b4d	0.24821205
134	0x3d968137	0.073488645
135	0x3c89f514	0.016840495
136	0x3ea0d722	0.31414133
137	0xbde27b97	-0.11058729
138	0x3e98d2b8	0.29848266
139	0xbe5f58a7	-0.21811162
140	0xbd210c32	-0.03931827
141	0x3d63f8b0	0.05565709
142	0x3c3a0757	0.011354289
143	0x3e1e14d8	0.15437639
144	0x3e7b4d4a	0.24541202
145	0x3d155a60	0.03646314
146	0x3ea8e15c	0.32984436
147	0xbe31d7ca	-0.17367473
148	0xbdd7c4cf	-0.10535585
149	0x3d36a17a	0.04458759
150	0x3d02c974	0.031930402
151	0x3e35643f	0.17714022
152	0xbe1a0df8	-0.15044391
153	0x3edf7ea5	0.4365131
154	0xbd8f0f26	-0.06985311
155	0xbec77ab4	-0.38960803
156	0xbe7d9403	-0.24763493
157	0xbe6c553c	-0.2307939
158	0xbb860f16	-0.004091154
159	0x3d7de65f	0.061987277
160	0xbd2ef405	-0.042713184
161	0x3d59f1dd	0.053209174
162	0xbe4ae12e	-0.19812462
163	0xbea0c971	-0.31403688
164	0xbe95f7cc	-0.29290617
165	0x3dc3ec34	0.095665365
166	0xbcf41f5b	-0.029800108
167	0x3ea9c71f	0.3315973
168	0x3dbf1881	0.093308456
169	0xbc50e19f	-0.012749105
170	0xbe02d785	-0.12777527
171	0xbe907fd8	-0.28222537
172	0x3da9ab11	0.082845815
173	0xbd7fd579	-0.062459443
174	0x3cf0e754	0.02940718
175	0x3ee3e804	0.4451295
176	0x3e32355a	0.17403165
177	0xbe8bce6c	-0.27305925
178	0xbdb5d1f4	-0.08877936
179	0x3e1b053f	0.1513872
180	0x3e91699b	0.28400883
181	0x3e267411	0.16255213
182	0xbe077aec	-0.13230485
183	0xbda80833	-0.08204689
184	0xbe29f17b	-0.16596024
185	0x3cf4038b	0.029786846
186	0x3e0c334c	0.13691443
187	0x3e8e20f4	0.27759516
188	0x3d9ea857	0.07746952
189	0xbe904272	-0.28175694
190	0xbe5c8f7c	-0.2153911
191	0xbe1f8082	-0.15576366
192	0xbe029318	-0.12751424
193	0x3c546253	0.012962895
194	0x3e381011	0.17974879
195	0x3d53bbaa	0.051692642
196	0x3eb29125	0.3487636
197	0xbc6ef6aa	-0.0145851765
198	0xbe31c67b	-0.1736087
199	0xbd97e739	-0.07417149
200	0x3debcb4f	0.115133874
201	0xbe7bfa68	-0.24607241
202	0xbc9fbe3e	-0.019499894
203	0x3da5da08	0.08098227
204	0xbec1c8d7	-0.3784854
205	0x3da9ca0a	0.08290489
206	0xbd333393	-0.043750357
207	0x3e04fc57	0.12986885
208	0xbd0ddc4c	-0.03463392
209	0xbd67baa2	-0.05657447
210	0xbcd4d824	-0.02598197
211	0xbc759ba1	-0.014990718
212	0xbd905343	-0.07047131
213	0xbe040dd4	-0.128959
214	0x3d98240f	0.07428753
215	0xbe8aaf4b	-0.27086863
216	0xbce798f5	-0.028271178
217	0xbd8bc003	-0.06823733
218	0x3d96838b	0.073493086
219	0xbdae4afa	-0.085103944
220	0xbe2a223d	-0.16614623
221	0x3ebc2d7e	0.36753458
222	0x3e30b8ce	0.17257997
223	0x3e0753c8	0.13215554
224	0x3d656f65	0.056014437
225	0x3e8791ed	0.2647852
226	0xbdff5f13	-0.12469306
227	0x3e98a7cb	0.29815516
228	0xbde80d20	-0.113306284
229	0x3e1f51ce	0.1555855
230	0x3e6818f3	0.22665767
231	0xbda9c4c3	-0.082894824
232	0xbe5fe03d	-0.21862884
233	0xbd841d10	-0.06450856
234	0xbdfddc30	-0.12395513
235	0xbdd328ff	-0.10310554
236	0xbeaed01a	-0.34143144
237	0xbdb3b086	-0.087739035
238	0xbd87bfa3	-0.06628349
239	0x3cb11fe2	0.021621648
240	0x3e1da332	0.15394285
241	0x3e4b3bfd	0.19847102
242	0x3d9c5ddd	0.076350905
243	0xbcb0604d	-0.021530295
244	0x3ea1b924	0.31586564
245	0xbf08f69f	-0.53501314
246	0x3ea73746	0.32659358
247	0x3d728a23	0.05921377
248	0x3d15f668	0.036611944
249	0x3c710f4e	0.014713122
250	0x3e8ddc8b	0.27707323
251	0x3da565b0	0.08076036
252	0x3dc0cb6b	0.09413799
253	0x3dd1ce44	0.1024442
254	0xbdc2c399	-0.095099635
255	0x3db852ed	0.09000192

predictor.net.1.bias f4 [32]
0	0x3db53b71	0.08849228
1	0x3de22911	0.11042989
2	0x3ddf6d92	0.10909571
3	0x3ddef775	0.108870424
4	0xbddc7c60	-0.1076591
5	0xbdb14d25	-0.08657292
6	0x3dcbaa68	0.09944612
7	0xbdcf93a4	-0.10135582
8	0x3dcde878	0.100541055
9	0xbde0170a	-0.10941894
10	0xbdd7627e	-0.10516833
11	0x3dc05169	0.09390528
12	0xbdd51c9a	-0.10405846
13	0xbd95b9da	-0.07310839
14	0xbdfa5597	-0.12223356
15	0x3dd4cbe2	0.1039045
16	0x3dda6091	0.1066295
17	0x3de01789	0.10941989
18	0xbdd13c5d	-0.102165915
19	0x3dcdbdea	0.10045989
20	0xbdc1d7f6	-0.094650194
21	0x3dc8aec2	0.097989574
22	0xbde2db75	-0.11077014
23	0xbdba3137	-0.09091418
24	0x3dea2b68	0.1143406
25	0xbdd7eea7	-0.10543566
26	0xbdd49f3c	-0.10381934
27	0xbde6f4aa	-0.11277135
28	0xbde265a3	-0.11054542
29	0xbdb98a9b	-0.0905964
30	0x3dcba405	0.099433936
31	0x3ddfac65	0.109215535

predictor.net.3.weight f4 [1, 32]
0	0x3cf84f47	0.03031124
1	0x3e086537	0.1331986
2	0x3eabe5eb	0.3357385
3	0x3d348ff4	0.044082597
4	0xbd87f4cb	-0.066384874
5	0xbd7ff394	-0.062488154
6	0x3dd28e27	0.1028102
7	0xbdc64bec	-0.0968245
8	0x3d9eabd0	0.077476144
9	0xbe8e07ab	-0.27740225
10	0xbe76619c	-0.24060673
11	0x3daae986	0.08345322
12	0xbe850bba	-0.2598551
13	0xbb8495e9	-0.004046191
14	0xbdf59557	-0.11991375
15	0x3dde253d	0.108469464
16	0x3e09e4c7	0.13466178
17	0x3db64947	0.08900695
18	0xbec118d0	-0.37714243
19	0x3e5e7f1d	0.21728177
20	0xbd0d36d6	-0.034476124
21	0x3ec8e3da	0.39236337
22	0xbe262030	-0.16223216
23	0xbe28d279	-0.16486539
24	0x3db50f7b	0.08840843
25	0xbea95464	-0.33072197
26	0xbe7c0fc2	-0.24615386
27	0xbdf33e32	-0.11877097
28	0xbe901e12	-0.28147942
29	0xbd8358ad	-0.06413398
30	0x3e8f12a5	0.27943912
31	0x3e23a392	0.15980366

net.0.weight f4 [60, 35]
0	0x3da68860	0.0813148
1	0x3e0b8af0	0.13627219
2	0x3dcc4d70	0.099757075
3	0xbddcccf7	-0.107812814
4	0x3df22c9a	0.11824913
5	0xbe993aec	-0.29927766
6	0xbd272d4c	-0.040814683
7	0xbdc82c92	-0.09774126
8	0xbd085600	-0.03328514
9	0xbd9c7560	-0.07639575
10	0xbdb5e632	-0.08881797
11	0xbd627162	-0.05528391
12	0xbdcb4c5e	-0.09926675
13	0xbd13499f	-0.035958882
14	0x3e23cd8b	0.15996377
15	0xbe57fc44	-0.21092325
16	0x3c68b775	0.014203896
17	0x3d82df60	0.06390262
18	0xbdf9c390	-0.12195504
19	0x3d769372	0.06019921
20	0x3e40c698	0.18825758
21	0xbe09dbfd	-0.13462825
22	0x3d2cd7ab	0.042197865
23	0x3df0f012	0.1176454
24	0xbc603735	-0.013685037
25	0xbdb0c2c6	-0.086309
26	0xbd10b092	-0.03532464
27	0xbe2e5bea	-0.1702725
28	0x3b1a2685	0.0023521495
29	0x3e814eeb	0.25255522
30	0x3ca317c4	0.019908793
31	0x3cb88d2d	0.022528255
32	0xbe80586a	-0.25067455
33	0xbe2ea42f	-0.17054819
34	0x3de9123f	0.11380433
35	0xbc69e0c9	-0.014274784
36	0xbe59356a	-0.21211782
37	0xbe36631e	-0.17811248
38	0xbe88ed40	-0.26743507
39	0xbd93062b	-0.07178911
40	0x3db4649d	0.08808253
41	0x3e5fede5	0.21868093
42	0x3c2a86fc	0.010408159
43	0xbda54778	-0.08070272
44	0x3e406804	0.18789679
45	0x3de82d79	0.11336798
46	0xbd8d67f6	-0.069045946
47	0xbcdd8265	-0.027039716
48	0xbe5ad23c	-0.2136926
49	0x3dcccf1c	0.100004405
50	0x3e9413a7	0.28921244
51	0xbccc2847	-0.02492155
52	0xbe92dabb	-0.28682503
53	0x3d29ee9c	0.04148732
54	0x3e119a58	0.14219034
55	0x3de02468	0.10944444
56	0xbc3c8e55	-0.011508544
57	0xbc69e147	-0.014274902
58	0x3e813f6b	0.25243697
59	0xbe59f9f6	-0.21286759
60	0xbd907962	-0.07054402
61	0x3c6366c0	0.013879478
62	0x3dc196d8	0.09452599
63	0x3df1629f	0.117863886
64	0x3e055e01	0.13024141
65	0xbd9674b6	-0.073464796
66	0xbdf12dc4	-0.11776307
67	0x3e3d7a19	0.18503608
68	0xbdb5e764	-0.08882025
69	0x3d3dad73	0.046307992
70	0xbd88f0d8	-0.06686562
71	0x3e1f2fa4	0.15545517
72	0x3e887a7d	0.2665595
73	0xbc1dd9b1	-0.009634421
74	0x3e16fd03	0.14744954
75	0x3b5c4821	0.0033612328
76	0x3db09744	0.08622602
77	0xbe85c52b	-0.2612699
78	0xbe44b17c	-0.1920833
79	0x3cfe4e54	0.03104321
80	0xbd1b87cf	-0.037971314
81	0xbd044883	-0.032295715
82	0x3d9da7cb	0.076980196
83	0xbc4a7b30	-0.012358472
84	0xbbe4ecc2	-0.0069862315
85	0xbe90a3c9	-0.28249958
86	0xbe06bb66	-0.13157424
87	0x3bc6219f	0.0060464884
88	0x3e70624c	0.23474997
89	0x3ef02ec4	0.4691068
90	0x3cfc7256	0.030816238
91	0xbdcdda22	-0.10051371
92	0x3e042d78	0.1290797
93	0xbb9bae62	-0.0047510127
94	0xbcd4ecf7	-0.0259919
95	0xbd0b3ae9	-0.033991728
96	0xbe161b8d	-0.14658947
97	0xbe7291a1	-0.23688366
98	0x3dabeb29	0.083944626
99	0xbe16ba3e	-0.14719483
100	0xbdaa5ac4	-0.083180934
101	0x3d6cc915	0.057808954
102	0x3e59b267	0.21259461
103	0xbe94ee88	-0.29088235
104	0xbe22c134	-0.15894014
105	0x3ccca6b0	0.024981827
106	0x3cc6c7e1	0.024265232
107	0xbd99f30a	-0.07517059
108	0xbdde1615	-0.108440556
109	0xbe63a591	-0.22231127
110	0x3e134311	0.14381053
111	0x3ca7e905	0.020496855
112	0x3d5f880f	0.054573115
113	0xbd1d044d	-0.03833418
114	0xbe5c3879	-0.21505918
115	0x3cc1ff67	0.023681356
116	0x3daf9fab	0.08575376
117	0x3e035b18	0.12827718
118	0xbe1b4496	-0.15162882
119	0xbb6439ab	-0.0034824412
120	0xbde30e92	-0.110867634
121	0xbe306f89	-0.17230047
122	0xbe4227cb	-0.18960492
123	0x3d3e3270	0.04643482
124	0x3df64d96	0.12026517
125	0xbc1bb85c	-0.009504404
126	0xbe78f69a	-0.24312821
127	0xbc9548cb	-0.018223187
128	0x3d817dbc	0.0632281
129	0xbe206706	-0.156643
130	0x3e9595e6	0.29215926
131	0xbe3b92dc	-0.18317741
132	0x3e661d2d	0.22472067
133	0xbe53fb18	-0.20701253
134	0xbe4f924f	-0.20270656
135	0xbd7e10c8	-0.062027723
136	0x3e452792	0.19253376
137	0x3e333a69	0.1750275
138	0x3e60ff0b	0.21972291
139	0xbdc0a4f3	-0.094064616
140	0xbca9f015	-0.020744363
141	0xbc9b242d	-0.018938148
142	0x3de3b0ef	0.11117732
143	0x3e1a9bb8	0.15098464
144	0x3e0b0e66	0.13579711
145	0x3e1b4a10	0.15164971
146	0xbe7a44e5	-0.24440344
147	0x3e851e06	0.2599947
148	0xbdc03738	-0.09385532
149	0xbc8565be	-0.016283866
150	0x3d573af8	0.05254647
151	0x3de9aa07	0.11409383
152	0xbe17d92f	-0.14828943
153	0x3d4cbd8d	0.049985457
154	0x3de33b12	0.11095251
155	0x3daff33d	0.08591316
156	0x3c8c3af4	0.017117955
157	0x38669caf	5.4982196e-05
158	0x3c0e8c6c	0.008700471
159	0xbd8c160b	-0.06840142
160	0xbd219ce5	-0.039456267
161	0x3dc87a0e	0.09788905
162	0xbd132a3f	-0.03592896
163	0xbe84d54e	-0.2594399
164	0xbd476d60	-0.048688293
165	0x3eade6c9	0.33965138
166	0xbd4cbd6e	-0.04998534
167	0x3cf20070	0.029541224
168	0x3e6bea98	0.23038709
169	0x3e894408	0.26809716
170	0xbdaef421	-0.08542658
171	0x3e1856d1	0.14876868
172	0x3d70df71	0.05880684
173	0xbde1675c	-0.11006042
174	0xbd789d25	-0.06069674
175	0xbe7b190d	-0.24521275
176	0x3c104348	0.008805104
177	0x3d8e4171	0.06946076
178	0x3d63cf0a	0.05561737
179	0xbc475f30	-0.012168691
180	0xbe4b1aee	-0.19834492
181	0x3e2a9a5a	0.16660443
182	0xbde70eb3	-0.112821005
183	0x3d73aad4	0.059489086
184	0xbdf69cd7	-0.120416336
185	0x3d23a86c	0.03995554
186	0xbe20188d	-0.15634365
187	0xbdc45bca	-0.0958782
188	0x3cbe8bfb	0.023260107
189	0x3e0e3104	0.13885885
190	0x3d3df899	0.04637966
191	0x3b281ffa	0.0025653825
192	0x3d927bf4	0.071525484
193	0xbd374440	-0.044742823
194	0x3daa899c	0.08327028
195	0x3e664f28	0.22491133
196	0xbda5cb27	-0.08095389
197	0xbdc3b8dd	-0.09556744
198	0x3e2476d9	0.16060962
199	0x3e0843ad	0.13307066
200	0xbe1e4957	-0.15457664
201	0xbc5e527a	-0.013569469
202	0x3d86f0d5	0.06588904
203	0x3cdf165a	0.027232338
204	0xbe0226ba	-0.12710086
205	0x3e31ede5	0.17375906
206	0xbe07b072	-0.13250902
207	0x3e45e0ac	0.19323987
208	0xbdbfc323	-0.09363391
209	0x3e85d3d4	0.26138175
210	0xbe7398c3	-0.23788743
211	0x3d58e58c	0.052953288
212	0x3b893cc8	0.004188154
213	0xbda161b2	-0.07879962
214	0xbdb52059	-0.088440605
215	0x3c532186	0.012886411
216	0x3e0ec7f4	0.13943464
217	0xbd55c4ca	-0.052189626
218	0xbdd75a6a	-0.10515292
219	0x3dd1c058	0.10241765
220	0x3e1165d6	0.14199004
221	0x3d9dd827	0.077072434
222	0x3cb34311	0.021882566
223	0x3eb8af80	0.36071396
224	0xbe1a98bf	-0.1509733
225	0x3d66cdf5	0.05634876
226	0xbc75a95d	-0.014993993
227	0x3ed1e25d	0.40993014
228	0x3e9445a9	0.28959396
229	0xbdab73b2	-0.083716765
230	0xbdfdd51f	-0.12394165
231	0xbdb53b87	-0.088492446
232	0x3ce3d619	0.02781205
233	0xbdaf686f	-0.08564841
234	0xbd0e4cc9	-0.034741197
235	0xbe81035b	-0.25197873
236	0x3ddab445	0.10678915
237	0xbd0839b8	-0.03325817
238	0xbe145978	-0.14487255
239	0x3d0dd8f7	0.034630742
240	0xbb2d9ee8	-0.002649242
241	0x3dc823a8	0.09772426
242	0x3e30f67a	0.17281523
243	0xbe099723	-0.1343656
244	0x3d31d4fe	0.043416016
245	0xbe5e0776	-0.21682534
246	0xbe2fb642	-0.1715937
247	0x3cc864cc	0.024462126
248	0xbeb53d3d	-0.35398284
249	0x3d56e2ed	0.052462507
250	0xbecd0743	-0.40044603
251	0x3e7b4374	0.2453745
252	0xbd3fc080	-0.04681444
253	0xbe9b7ba1	-0.3036776
254	0x3d983719	0.07432384
255	0xbd1d3dbb	-0.03838895

net.0.bias f4 [60]
0	0xbddfe9d8	-0.10933274
1	0x3e357c0e	0.17723104
2	0xbd74bf65	-0.05975284
3	0xbd90647f	-0.07050418
4	0xbe076e1c	-0.13225597
5	0xbcf9a2a9	-0.03047307
6	0x3db7f3fd	0.08982084
7	0xbcffa6af	-0.03120741
8	0x3caef949	0.021359103
9	0xbdaae124	-0.083437234
10	0xbd6f12fb	-0.05836771
11	0x3e3d9a58	0.18515909
12	0x3cc17fc8	0.023620501
13	0x3ce4778c	0.027889036
14	0x3ca10d27	0.019659592
15	0x3d01c724	0.031684056
16	0xbdc1c0cd	-0.09460602
17	0x3d8abdb4	0.06774464
18	0xbd48f029	-0.04905716
19	0xbd85a4ca	-0.06525572
20	0x3da16851	0.07881225
21	0x3e5304c1	0.20607282
22	0xbd838610	-0.06422055
23	0x3da00743	0.07813885
24	0x3d613ac8	0.0549877
25	0xbd49fa7a	-0.04931114
26	0x3e2b20d8	0.16711748
27	0x3d90cbdd	0.07070134
28	0x3e120dcc	0.14263076
29	0xba28b2e6	-0.00064353494
30	0x3d61f2e6	0.055163287
31	0xbcd67268	-0.0261776
32	0x3e06737e	0.13129994
33	0xbe6b85ac	-0.2300021
34	0xbe063459	-0.13105907
35	0xbd284c1a	-0.0410882
36	0xbdac1027	-0.08401518
37	0xbe11f02b	-0.14251773
38	0x3e08cd27	0.1335951
39	0x3dfdc0aa	0.123902634
40	0x3e36fb46	0.1786929
41	0xbdfe4919	-0.12416286
42	0x3d4a79ec	0.04943268
43	0xbccfe35e	-0.025376972
44	0xbdc4942e	-0.095985755
45	0xbdaf4f9f	-0.085601084
46	0x3df7b234	0.120945364
47	0x3db9c0eb	0.09069999
48	0x3d572db3	0.052533817
49	0x3df79e70	0.120907664
50	0xbdc247bd	-0.09486339
51	0xbd9a5d1a	-0.07537289
52	0xbe1f2822	-0.15542653
53	0xbde907e1	-0.11378456
54	0x3e11ac75	0.14225943
55	0xbc2b1edb	-0.010444368
56	0xbd218514	-0.039433554
57	0x3aae51a5	0.0013299478
58	0x3d78c5d1	0.060735527
59	0x3d9a775a	0.07542296

net.2.weight f4 [60, 60]
0	0x3dc8d856	0.09806888
1	0x3dae3c17	0.08507555
2	0xbe3824b2	-0.17982748
3	0x3e73f86a	0.23825231
4	0x3d8232ca	0.063573435
5	0x3d48013d	0.048829306
6	0x3da44a08	0.08021933
7	0x3dcba733	0.09944
8	0xbd1fa83f	-0.03897881
9	0xbddcbc83	-0.10778143
10	0x3cae8294	0.021302499
11	0xbc8a9456	-0.016916435
12	0x3bb56542	0.0055357525
13	0xbe3ea80e	-0.18618795
14	0x3ca57966	0.020199489
15	0xbc43db99	-0.011954212
16	0xbe31a2a8	-0.17347205
17	0xbdc11ebc	-0.0942969
18	0x3dd465a8	0.10370952
19	0x3de80bb3	0.113303564
20	0xbbd825bf	-0.0065962966
21	0xbdb27bd2	-0.08715023
22	0x3e8a4315	0.27004305
23	0x3cb62ad8	0.022237226
24	0x3df05bf4	0.11736289
25	0xbd7f7032	-0.062362857
26	0xbdb8e31d	-0.090276934
27	0x3cb9ad3a	0.022665609
28	0x3df62cd7	0.12020271
29	0x3d20ab1c	0.039225683
30	0x3df05055	0.11734072
31	0x3ea0748c	0.31338918
32	0x3d1f8b6b	0.03895132
33	0x3dd75d38	0.10515827
34	0x3c042c27	0.008067167
35	0x3e5f17ad	0.21786375
36	0x3c8267da	0.01591866
37	0xbd0075b5	-0.031362254
38	0xbd6a621c	-0.05722247
39	0xbe380b03	-0.1797295
40	0xbd8d4418	-0.068977535
41	0xbe8bea38	-0.27327132
42	0x3cfdcd98	0.030981824
43	0x3e45758b	0.1928312
44	0xbd195143	-0.037431013
45	0xbd49d7fb	-0.04927824
46	0xbd9952af	-0.07486474
47	0xbe786c7e	-0.24260136
48	0x3d8b2c01	0.067955025
49	0xbe1436e7	-0.14474069
50	0x3c1b6a22	0.009485753
51	0xbe041636	-0.12899098
52	0x3e42e4c0	0.19032574
53	0xbc385275	-0.011250128
54	0x3d6a9ec6	0.057280324
55	0x3db8bc7d	0.09020326
56	0xbd89968e	-0.06718169
57	0x3dc21c4c	0.094780535
58	0x3cf28fc8	0.029609576
59	0x3df1268f	0.117749326
60	0x3d7f0fb4	0.062270835
61	0x3e456b31	0.19279172
62	0xbe0d99c1	-0.13828184
63	0x3e0f97c8	0.14022744
64	0xbe8a704e	-0.27038807
65	0x3e146d1b	0.14494745
66	0x3e101de9	0.1407391
67	0x3d7c7174	0.061631635
68	0x3d9c49ed	0.07631288
69	0x3e98b6e7	0.29827043
70	0xbe5d4626	-0.21608791
71	0xbdc51780	-0.09623623
72	0x3d7973d0	0.060901463
73	0xbe18a729	-0.14907517
74	0xbd4bbccd	-0.0497406
75	0xbd82e5b9	-0.06391472
76	0x3e6e1e2c	0.23253697
77	0x3e90b1c4	0.28260624
78	0xbe8adae9	-0.2712014
79	0x3d6497ec	0.055808946
80	0x3d34517d	0.044023026
81	0x3d7a3847	0.061088827
82	0x3e68875a	0.22707883
83	0xbcd1bc28	-0.025602415
84	0x3d5d351b	0.054005723
85	0xbda7c045	-0.081909694
86	0x3c4e7a81	0.012602449
87	0x3e29805c	0.16552871
88	0x3d56319f	0.052293416
89	0x3e64ad3d	0.2233171
90	0xbd4edb33	-0.050502013
91	0xbd349193	-0.044084143
92	0xbb29b7cc	-0.0025896905
93	0xbe39a0cb	-0.18127744
94	0x3e1c26ab	0.15249126
95	0xbdaf18b0	-0.08549631
96	0xbdc23138	-0.09482044
97	0x3df7821e	0.12085365
98	0xbeb1c32f	-0.34719226
99	0x3d8dca65	0.06923369
100	0xbdc6061c	-0.09669134
101	0xbcaaa05a	-0.020828415
102	0x3d9e0b93	0.07717051
103	0xbe761fb5	-0.24035533
104	0xbcab4362	-0.020906154
105	0xbda1af2b	-0.07894739
106	0xbdcbe766	-0.09956245
107	0xbe0c1f17	-0.13683735
108	0x3e3c1248	0.18366349
109	0x3e6f711c	0.23382992
110	0xbe7c8ff9	-0.24664296
111	0x3da68f1b	0.08132764
112	0x3d2b8310	0.041873038
113	0xbe248d3f	-0.16069506
114	0x3ce98855	0.028507391
115	0x3e43c571	0.19118287
116	0x3d03fbeb	0.03222267
117	0xbd9a6f42	-0.07540752
118	0x3d1d3122	0.038376935
119	0xbe2bca21	-0.16776325
120	0x3e0a2804	0.13491827
121	0x3de890f4	0.113557726
122	0x3d92f72f	0.07176053
123	0xbe27dc09	-0.1639253
124	0x3e0de90b	0.1385843
125	0x3ddf897b	0.10914894
126	0xbc1a18ac	-0.009405296
127	0x3d319e0e	0.043363623
128	0xbda3a7da	-0.079909995
129	0x3ddd1dd2	0.107967034
130	0xbd3a0b22	-0.045420773
131	0x3d3df07f	0.046371933
132	0xbe7bead1	-0.24601294
133	0xbdc8162b	-0.09769853
134	0xbcd9a8a4	-0.026569672
135	0x3df22035	0.11822549
136	0x3d82a3db	0.06378909
137	0xbe2f5d29	-0.17125382
138	0x3d3c2f02	0.045943268
139	0x3dfdbfac	0.12390074
140	0x3e303d6a	0.17210928
141	0xbe691959	-0.22763576
142	0xbe3c8ce2	-0.18413118
143	0x3e3ac9ea	0.18241087
144	0xbd852e7c	-0.06503007
145	0xbd9842a9	-0.074345894
146	0xbdb25426	-0.08707456
147	0x3e02f8df	0.1279025
148	0x3e43d6c6	0.19124898
149	0x3e07a98c	0.13248271
150	0x3e05c6d4	0.13064128
151	0x3db9ecf7	0.090784006
152	0xbe1c6857	-0.15274177
153	0xbe07ff4b	-0.1328098
154	0xbbb85ab3	-0.0056260466
155	0x3e058a25	0.13040979
156	0xbc9adf90	-0.018905431
157	0x3cd6203e	0.026138421
158	0x3d4b6655	0.04965814
159	0xbe201621	-0.15633442
160	0x3da53a5b	0.08067771
161	0x3d47ada1	0.04874957
162	0x3c656a2f	0.014002367
163	0xbdc4efc1	-0.09616042
164	0xbdc776b2	-0.09739436
165	0xbd871295	-0.06595341
166	0xbdefcfcf	-0.11709558
167	0xbd52d774	-0.051475003
168	0x3d95b2e9	0.07309515
169	0x3d406824	0.046974316
170	0x3e027771	0.12740876
171	0xbcf746fb	-0.030185213
172	0x3e121e6d	0.14269419
173	0x3dd8c4b7	0.105843954
174	0x3e9922be	0.2990932
175	0xbe05bc13	-0.13060026
176	0xbe536a42	-0.20646003
177	0x3d0cb858	0.03435549
178	0x3e51f936	0.20505223
179	0xbcba5cfb	-0.022749415
180	0x3c631e2c	0.013862174
181	0x3e1f7b8d	0.15574475
182	0x3ea4a3e1	0.3215628
183	0x3e13a2da	0.14417592
184	0xbe19dbf2	-0.15025309
185	0x3e93928f	0.28822753
186	0xbe26b7df	-0.16281079
187	0x3d9cf73d	0.076643445
188	0x3d772da0	0.060346246
189	0xbd8f08eb	-0.06984123
190	0x3dcf9e86	0.10137658
191	0xbe03c670	-0.12868667
192	0x3e5cf863	0.21579127
193	0x3e0b609a	0.1361107
194	0xbdb9a78b	-0.090651594
195	0x3ce516d5	0.027964989
196	0x3d63ff0d	0.055663157
197	0xbcafe695	-0.021472255
198	0x3c8f7247	0.017510546
199	0xbeba5b92	-0.36397988
200	0x3deac978	0.11464208
201	0xbdd15132	-0.10220565
202	0x3d83a843	0.06428578
203	0xbd2442e7	-0.040102866
204	0xbdd44dcb	-0.103664
205	0x3dc3f1fc	0.09567639
206	0x3d4b0607	0.049566295
207	0x3d0e63f7	0.034763303
208	0x3e14c375	0.14527686
209	0x3de09d98	0.109675586
210	0x3c80a766	0.015704822
211	0xbe450ca5	-0.19243105
212	0xbc925ebc	-0.017867438
213	0xbe53d770	-0.20687652
214	0x3bebe377	0.007198747
215	0x3d2e2f91	0.04252583
216	0x3da3362e	0.07969318
217	0x3d037b32	0.03209991
218	0xbe4a94fb	-0.19783394
219	0xbcf8b93d	-0.030361766
220	0xbc81b53c	-0.01583349
221	0x3d99faf1	0.075185664
222	0x3e4018a1	0.18759395
223	0xbe51b44c	-0.20478934
224	0xbdc7bdfc	-0.097530335
225	0xbce2e647	-0.027697695
226	0xbd8f71b1	-0.07004107
227	0xbdaf521f	-0.08560585
228	0xbe2fb508	-0.17158902
229	0xbeabc0c1	-0.33545497
230	0x3d504d44	0.050854936
231	0xbe1532c8	-0.14570153
232	0xbd5c785e	-0.05382573
233	0xbca68bd1	-0.020330342
234	0x3ea03b62	0.31295305
235	0x3d81cde9	0.06338102
236	0xbe359484	-0.17732435
237	0xbd805ad4	-0.06267324
238	0x3dd5ce87	0.104397826
239	0x3e2ec10a	0.17065826
240	0x3e24c2bf	0.16089915
241	0xbe56fc7b	-0.20994751
242	0x3dc6dfff	0.097106926
243	0xbd35df26	-0.044402264
244	0x3e32b6c8	0.17452538
245	0x3b3e406a	0.0029030093
246	0x3cfa8b75	0.030584076
247	0xbe263956	-0.1623281
248	0xbdae0378	-0.08496755
249	0xbceaa743	-0.02864421
250	0xbdb4f9d3	-0.08836713
251	0xbe3081c6	-0.17237005
252	0x3dc1026a	0.094242886
253	0xbea237f0	-0.31683302
254	0xbe499306	-0.19684991
255	0x3e3439f7	0.17600237

net.2.bias f4 [60]
0	0xbc90cca1	-0.0176757
1	0xbdb833f2	-0.08994283
2	0x3d818f73	0.06326189
3	0x3cb8ed2c	0.02257403
4	0xbceb60bb	-0.028732648
5	0x3dc11f98	0.09429854
6	0xbdae1189	-0.08499438
7	0xbbbdce17	-0.00579239
8	0xbd19c8d1	-0.03754503
9	0xbc967a94	-0.018368997
10	0x3d6d7827	0.057975914
11	0x3d85f699	0.065411754
12	0x3d710136	0.058839045
13	0xbda3ff5b	-0.080076896
14	0xbd44eb1f	-0.04807579
15	0x3e06e323	0.13172583
16	0xbd0e3b1c	-0.03472434
17	0xbddaa113	-0.10675254
18	0x3cc55123	0.02408654
19	0xbd81b909	-0.06334121
20	0x3d8ab8b5	0.06773511
21	0xbdbcbefd	-0.092161156
22	0xbb9433bf	-0.00452277
23	0x3dabbf25	0.08386067
24	0xbdccbe78	-0.099972665
25	0x3e01fcc3	0.12694077
26	0x3daea467	0.08527451
27	0x3d2cea00	0.042215347
28	0xbdd21222	-0.10257365
29	0xbbb754e4	-0.0055948365
30	0x3de5de27	0.11224013
31	0x3dd12374	0.1021184
32	0xbcb356b7	-0.021891935
33	0x3df829cb	0.121173464
34	0xbdae581b	-0.085128985
35	0x3df1ed21	0.11812807
36	0x3d16f9d1	0.036859337
37	0xbd8126e0	-0.06306243
38	0xbd64c9ca	-0.055856504
39	0xbc8d26ef	-0.017230479
40	0xbddf5929	-0.10905678
41	0x3df09f0f	0.11749088
42	0xbd8e8b46	-0.06960158
43	0xbd2949a7	-0.041330006
44	0xbdf44970	-0.119280696
45	0x3dd23bdb	0.10265323
46	0xbcbc6be6	-0.023000669
47	0x3b955f8a	0.0045585083
48	0x3dab7840	0.08372545
49	0xbc690425	-0.01422218
50	0x3dc3138b	0.09525212
51	0xbd4dd23a	-0.050249316
52	0xbd501a68	-0.050806433
53	0xbc0a5594	-0.008443255
54	0xbbe447b2	-0.0069665546
55	0xbdc38a2b	-0.09547838
56	0xbd946e3b	-0.07247587
57	0xbcb5786d	-0.02215215
58	0x3d84230e	0.06451999
59	0x3dd4f61d	0.10398505
