results analysis/processed results/PINN/NASA_dqdv results/9-9/Experiment10/model.pth (torch, 61182 bytes, 14 tensors)

encoder.net.0.weight f4 [60, 18]
000000 44 cf d7 bc d2 0c ec 3c 78 57 71 3d 28 a1 b1 3c
       -0.02634395 0.028814707 0.058921307 0.02168329
000010 31 90 81 3e 3a c9 f5 3c 13 4d c6 bb 22 1a 99 be
       0.25305322 0.030003179 -0.0060516684 -0.2990275
000020 93 73 a4 3d a5 42 8a 3e 6c a4 02 3c 20 d0 d8 bd
       0.080298565 0.2700397 0.007973772 -0.10586572
000030 67 0e 41 3e 50 7b ae bd 36 85 af be 05 58 91 be
       0.1885315 -0.08519614 -0.3428132 -0.28387466
000040 5e 2c d9 3e 91 0d 9e bd 46 ce 10 3d b4 7d f5 3d
       0.42416662 -0.07717431 0.035352968 0.119868666
000050 55 a8 75 3e c9 ed 9a 3c 9e c5 d2 3d cf 33 00 3e
       0.23989995 0.018912213 0.10291599 0.12519763
000060 19 f4 d9 3e e6 bd 93 be 7d 10 69 be ed 49 7e 3c
       0.42569044 -0.2885582 -0.22760196 0.015520555
000070 6e eb e2 bd 46 af 35 bd 9c 1b 38 3c 45 01 0a 3d
       -0.11080061 -0.044356607 0.011237051 0.033692617
000080 67 1f fa 3d 13 bc 76 bd 4d 90 69 be 20 84 ac be
       0.12213021 -0.060237955 -0.22808953 -0.33694553
000090 a1 61 cc 3d 99 61 1a 3d 57 02 68 bd 04 76 80 be
       0.09979559 0.037690733 -0.056642856 -0.2509004
0000a0 b7 1f 30 bb 29 b5 86 3e 33 93 79 3d 3b 43 83 3d
       -0.0026874372 0.2631009 0.060931396 0.064093076
0000b0 57 64 06 be cc 86 43 be ee 53 62 be 21 3d 2a bd
       -0.13124214 -0.1909439 -0.22102329 -0.041562203
0000c0 bc 6f fb 3d f6 30 d8 bd 2b 95 8d bc 4e 8d 14 3e
       0.12277171 -0.105562136 -0.017283043 0.14507028
0000d0 27 35 8d bd db 3b e1 bb df 7f 3e bc 04 11 52 be
       -0.06894904 -0.0068735904 -0.0116271665 -0.20514303
0000e0 69 ef be bd a8 53 1a 3d 3d 3e c1 bd b2 3f 82 be
       -0.093230076 0.037677437 -0.09435699 -0.2543922
0000f0 f9 6a 2d be d0 b2 06 3d cd 69 88 3e c6 be 42 be
       -0.16935338 0.032885373 0.2664322 -0.19018087
000100 20 52 fa 3d 89 93 a5 3d 7f 62 b1 bd 64 ee 48 3e
       0.12222695 0.08084781 -0.08661365 0.19622189
000110 d3 59 6b 3c c9 15 59 bd 35 24 81 be 23 d4 f8 bd
       0.0143646775 -0.05299929 -0.25222936 -0.12149837
000120 55 a5 a8 be a8 b1 88 bc e0 82 5a 3e e0 8a 8f bd
       -0.32938638 -0.016686276 0.21338987 -0.0700891
000130 86 b5 25 be 50 21 2f be 5a e5 71 3e 6d f0 8b 3e
       -0.16182527 -0.17102551 0.23622647 0.27331868
000140 53 04 bb bd 8e e9 86 be ea 27 81 bd 0f ea c2 3d
       -0.09131684 -0.26350063 -0.06306441 0.095172994
000150 19 fc ad bd d0 47 13 3e 79 20 65 bd b6 38 08 3e
       -0.084953494 0.14382863 -0.05593917 0.13302884
000160 b6 51 ab bd 66 3f bd bd 53 bc 7e 3d 58 2f db bd
       -0.083651945 -0.09240608 0.06219132 -0.107023895
000170 cb 80 34 3e 41 0f 23 3e 5d 31 4e 3e 04 cb e6 3d
       0.17627256 0.15923788 0.20136018 0.11269191
000180 fd 58 24 3e c9 d8 85 3d 29 0c 8b bd 62 cd c1 be
       0.16049571 0.06535489 -0.06789429 -0.37852007
000190 e0 77 f0 bc f3 7d 14 3e 53 60 88 3c 7c b7 0b be
       -0.029354036 0.14501171 0.016647493 -0.13644212
0001a0 d0 cd ec 3d 12 78 47 3d 3e 92 29 be e6 8f 9e bd
       0.11562693 0.048698492 -0.16559693 -0.0774229
0001b0 b9 7a 67 be 62 95 e1 be c1 00 94 bb 35 80 c0 3d
       -0.22605409 -0.44059283 -0.0045166914 0.093994536
0001c0 03 78 b2 3b 91 38 da bd be ef 7e 3d db 0d cc 3d
       0.0054464354 -0.106553204 0.062240355 0.0996358
0001d0 88 23 e6 3d 84 b4 e8 bd 38 07 5b bd 08 bf 0c bc
       0.11237246 -0.113625556 -0.05347368 -0.008590467
0001e0 1f 8a d6 bd 6c 17 46 3e 5f 83 e3 be 4d 1e 2f 3d
       -0.10475563 0.19344872 -0.44436166 0.042753506
0001f0 1a 4c 81 3c 43 f9 03 3e dc fa 23 3d 81 7f ac be
       0.015783358 0.12888055 0.04003416 -0.33691028
000200 41 f5 a9 3c 4e d7 b9 bd f3 f9 c1 bd 5e b6 a8 bd
       0.020746829 -0.09074269 -0.09471502 -0.08237909
000210 db 15 ec 3d 74 a0 ea 3d 3f e3 de 3d cc 96 25 3e
       0.11527606 0.11456385 0.108831875 0.16170806
000220 dd ea 38 3e 37 ff 50 bd 8f 02 f4 bc fc 6e 74 bd
       0.18058343 -0.05102464 -0.029786376 -0.059676155
000230 b1 59 58 3c 09 fd e0 be 47 d3 25 be 3b ca 47 3d
       0.013204978 -0.4394305 -0.16193877 0.048776846
000240 fa e6 9d bc 8a 78 6b 3d 95 a6 9a bc 67 88 c4 bc
       -0.019275177 0.057488002 -0.01887826 -0.023990823
000250 2b 14 9c bd fd c5 09 bd 95 ec 1f 3e 43 6f 3b 3c
       -0.07621034 -0.033636082 0.15617593 0.011440101
000260 b6 c0 55 3e 73 37 61 3e 7f 97 06 bc 0e dc 32 be
       0.20874295 0.21993808 -0.00821483 -0.17466757
000270 36 e1 84 bd 33 d4 b1 3d ba d4 8b be 64 51 5b bd
       -0.06488268 0.08683052 -0.27310735 -0.053544417
000280 fe 8f e5 bc 16 22 4e 3e 29 4e 51 3e 7d 41 a2 3c
       -0.028022762 0.2013019 0.20439972 0.019806618
000290 38 8e 9b bd e7 d2 19 be 1f 5b 97 be 88 82 12 3e
       -0.075954854 -0.15021859 -0.29561707 0.14307606
0002a0 81 43 6c bd 85 29 40 3e 42 b6 4b 3e 76 ad 66 3e
       -0.057681564 0.18765838 0.19893745 0.22527108
0002b0 d7 34 3b 3e 70 72 c9 3d 0e 5c 2b be db bb 06 3d
       0.18281876 0.0983628 -0.16734335 0.032893997
0002c0 cb 61 9a bb 39 09 c0 be ae 1a 8d be fb e7 c4 bd
       -0.004711365 -0.37507036 -0.27559417 -0.09614559
0002d0 ae 74 03 bc a6 f0 32 3d 17 61 59 be 8f d1 2d 3e
       -0.008023424 0.04368653 -0.21228443 0.16974472
0002e0 41 f4 1e 3e 28 6b 8d bd 06 b8 34 3e bc 6b 3a 3e
       0.15522863 -0.06905204 0.17648324 0.1820516
0002f0 2f 31 30 3e bf 51 17 3e 2d ba e0 3d 9c 52 2c 3e
       0.17206262 0.14777277 0.1097301 0.16828388
000300 45 55 ab be 29 4c 06 bd d3 20 5c 3d 56 fc 75 be
       -0.33463493 -0.032787476 0.05374224 -0.2402204
000310 9a 15 0c be 1f eb 16 3e ea dd 5d bd 24 4a 86 be
       -0.13680115 0.14738129 -0.054166712 -0.2622844
000320 15 41 00 be c5 f0 aa bd d9 51 08 3e de 17 a7 bd
       -0.12524827 -0.083467044 0.13312472 -0.08158849
000330 68 5f 80 bd 3d 5f fa bd 18 43 c5 3d f6 00 03 be
       -0.06268197 -0.122251965 0.09631938 -0.12793335
000340 d1 ca e5 ba 1f f5 99 bd 1f fc 24 bd d2 92 9d 3d
       -0.0017531757 -0.07517456 -0.040279504 0.076940194
000350 0d e9 1c bc 63 0c f6 3b 62 7d af 3d cd 29 20 3d
       -0.009577048 0.007508801 0.08568837 0.039102364
000360 1e 94 ac bd e7 6a d8 3d 56 a2 d4 bd 6f e8 49 3c
       -0.084266886 0.10567265 -0.103825256 0.012323483
000370 e4 7e fe 3d c1 d5 f0 3e ad 52 bb 3d 6b be 5a bd
       0.12426546 0.4703808 0.091466285 -0.053404253
000380 ae a5 51 bc 7c 78 b4 3e 32 7e 56 bd 99 43 32 3e
       -0.012795849 0.35248172 -0.052366443 0.17408599
000390 c3 1b 49 bd f7 f2 2a be c4 1d 08 3e 0c d4 00 bd
       -0.04909874 -0.16694246 0.13292605 -0.031452224
0003a0 27 87 fb bc 29 ec cd 3d 16 b5 9f 3e 9e 07 6a be
       -0.030704094 0.100548096 0.31192845 -0.22854468
0003b0 24 34 9a bd b0 cb 08 be c6 6f 36 3d bd 07 8a bc
       -0.07529476 -0.1335895 0.04454019 -0.016849393
0003c0 77 bf 87 be 44 b5 87 be f5 9c 12 be 5f e6 51 3e
       -0.26513264 -0.26505482 -0.14317687 0.20498036
0003d0 e3 28 95 bc 48 53 fa 3b e4 91 c9 bd 04 a5 3b 3e
       -0.018207973 0.0076393224 -0.098422796 0.18324667
0003e0 82 7b 06 bc 65 76 a5 bd 96 bc 08 be 87 41 69 be
       -0.0082081575 -0.080792226 -0.1335319 -0.22778903
0003f0 9f 32 3f 3e 34 ae 36 bd 6f 20 7e be de 56 c9 bd
       0.18671654 -0.044599727 -0.2481706 -0.09831022

encoder.net.0.bias f4 [60]
000000 b0 a4 b6 bb 91 29 99 3d cb 26 56 3d b7 a3 7b 3d
       -0.0055738315 0.07478631 0.05228309 0.061435428
000010 f0 4f 10 bc 8d 72 94 bd 19 db 10 3d 4d 83 03 bd
       -0.008808121 -0.07248411 0.035365198 -0.03210764
000020 de 62 91 3d 1e 66 1e 3d 51 5f 66 3d 5b 78 f3 bc
       0.070989355 0.038671605 0.056243245 -0.029720476
000030 f9 6b b6 bc f9 02 00 bd 51 e7 4e bd 34 38 28 3d
       -0.022268282 -0.031252835 -0.05051357 0.041069224
000040 99 3d 29 bd fe 61 90 bd 87 9f 94 bd 0f be d0 3c
       -0.04131851 -0.070499405 -0.0725699 0.025481252
000050 c2 ec 64 3d 67 fc 62 3d 31 8a 51 bb 00 6c 4b bd
       0.055889852 0.05541649 -0.0031973238 -0.049663544
000060 c2 6e 7f bd 96 55 89 bd 27 88 64 bd 8b f0 21 3c
       -0.062361486 -0.06705777 -0.055793907 0.00988401
000070 82 dc 66 3d 7a 92 a5 3d 85 15 89 bd 99 f6 35 bd
       0.056362636 0.08084579 -0.06693558 -0.044424627
000080 ab 79 7f bd b2 44 c0 bc ab 19 7f bd d0 25 7c bd
       -0.06237189 -0.023470256 -0.06228034 -0.0615595
000090 bd e4 57 3d d3 4d 80 ba ce 5a 77 3d d9 a4 11 bd
       0.052708376 -0.0009788818 0.060389332 -0.0355576
0000a0 ad f9 6b 3d 86 39 ec 3c fb d4 fb bc 0c b2 90 3d
       0.057611156 0.028836023 -0.030741205 0.0706521
0000b0 80 d0 01 bd 24 aa 57 3d 4e e9 88 3d 59 9d ca 3c
       -0.03169298 0.052652493 0.06685124 0.024733232
0000c0 28 1d 7b bd 00 19 04 bd f3 f9 bc bd e6 e7 77 bd
       -0.061307102 -0.032250404 -0.092273615 -0.06052389
0000d0 d0 e7 40 bd aa f9 0c 3d f6 29 86 bd 9c 92 45 bd
       -0.047096074 0.034417786 -0.06550972 -0.04823552
0000e0 13 72 33 3d 3e 74 61 bd 39 4d d0 bc d2 eb 4f bd
       0.04380996 -0.055042498 -0.025427448 -0.050762005

encoder.net.2.weight f4 [60, 60]
000000 aa 23 63 3c 67 9f 23 bd d0 dd cc bd c6 8b be 3d
       0.013863483 -0.03994694 -0.10003245 0.093040034
000010 3c d8 79 3e fc 49 e3 3d 4b 79 ce 3c 7e ae 11 3e
       0.24398893 0.11098096 0.025204321 0.1422672
000020 3f 31 c4 3d 8b 7f 04 3e fb b2 a8 3a d2 6e 23 bd
       0.095797054 0.12939279 0.0012870723 -0.03990061
000030 e6 42 fc bb 7f 06 cc bd c0 22 72 3e 8e b4 3d bd
       -0.0076984046 -0.099621765 0.23646069 -0.04631477
000040 aa 1b 4b 3e f7 b1 b6 bd 1f f1 1c bd 0d d5 09 be
       0.19834772 -0.08920663 -0.03831589 -0.13460179
000050 c2 c3 84 bc c8 b5 52 3d 5c 89 cc 3c b6 8d 0e 3d
       -0.016206626 0.05144289 0.024967842 0.034803115
000060 59 67 f3 3d ac ad 23 3c 92 5a 44 bd da 28 04 3e
       0.118849464 0.009990137 -0.047937937 0.12906209
000070 ea 42 eb bd 8f f3 8c bd cf 10 ad ba cc 94 d8 bd
       -0.11487372 -0.068823926 -0.0013203862 -0.10575256
000080 f7 f7 53 bc 37 6e 76 bd c1 9d 38 3d 28 3d 0b be
       -0.012937537 -0.060163703 0.04507232 -0.13597548
000090 dd 3a 95 3d 9e e3 ef bd 4b 30 10 3e 7a e0 10 3d
       0.07286618 -0.117133364 0.14080922 0.035370328
0000a0 21 31 95 3d 78 e5 48 bd ce 6f 6c 3e 71 a4 26 3d
       0.07284761 -0.049046963 0.23089525 0.040684167
0000b0 01 c5 e2 bd 8b be 4a bd 6c cf ef bd 8e 1a 09 be
       -0.11072732 -0.049498122 -0.117094845 -0.13389036
0000c0 de 5a 70 bb 92 6b 3a bd 5d aa 3d be cb 56 9a bd
       -0.0036675255 -0.045512743 -0.1852202 -0.07536086
0000d0 fb cd 50 bd 64 c5 3e 3e ff 47 d1 3d fe e2 f6 3d
       -0.05097769 0.18629986 0.1021881 0.12055014
0000e0 70 48 7c bd ba 0f 54 be 2e b7 d7 3d f1 a6 21 3d
       -0.06159252 -0.20709124 0.10532986 0.03946585
0000f0 cf ec dc 3d 06 d4 e6 3d 25 50 42 bb e8 60 97 bc
       0.10787355 0.11270909 -0.002964982 -0.018478826
000100 68 d7 8a 3c 28 b3 23 be 81 af dc 3c 53 67 9f 3d
       0.016948417 -0.15986311 0.026939156 0.077833794
000110 1c cd a9 3d ff 78 aa 3b ba c2 23 be 9d 49 a8 be
       0.08291075 0.005202412 -0.15992251 -0.32868662
000120 c5 66 43 be a3 e9 0a 3e 1a bd f6 3d 2d 3c c8 3d
       -0.19082172 0.13565688 0.12047787 0.097771026
000130 8c 04 c0 3c 7e 07 4f 3e 09 62 a0 bd 5a f2 dc 3d
       0.023439668 0.20217702 -0.07831199 0.107884124
000140 36 0a 49 be ba 22 18 be 9b e0 c5 3d 97 a4 09 3d
       -0.19632801 -0.14856997 0.09661981 0.03360423
000150 71 77 c7 bd e3 6c 11 3d 3c 3a 3a 3d 64 db 6c 3e
       -0.097395785 0.035504233 0.045465693 0.23130566
000160 fc 72 01 bc f6 07 9c bd da fc 17 bb f7 2c 0d be
       -0.00790095 -0.07618706 -0.0023191483 -0.13786684
000170 34 9b ce bc be d4 02 bd 10 b4 43 bd ae 6c cc bd
       -0.025220491 -0.031941168 -0.047779143 -0.099816665
000180 5b 15 1d bd b2 7f 2f be f1 51 36 3d 4e 93 fb bc
       -0.038350444 -0.17138556 0.04451174 -0.030709889
000190 41 63 9e bd b2 50 15 bd d7 49 3f be 25 d0 33 3d
       -0.07733775 -0.03645391 -0.18680511 0.043899674
0001a0 e7 e2 26 bd 72 d0 04 3e b4 78 85 be f5 b4 61 3d
       -0.040743735 0.1297014 -0.26068652 0.055104215
0001b0 cc 8b 5f 3d 70 c8 c1 3c b1 55 f9 bb 30 c6 dd 3d
       0.05457668 0.023655146 -0.007609092 0.10828817
0001c0 0b 3b 17 bd d4 fd a1 3e 74 f8 ef 3c 3f a3 44 3e
       -0.036921542 0.31638968 0.029293276 0.19202898
0001d0 55 b6 5b 3c 31 7d 86 3c 28 de 91 bd 03 0b 40 3e
       0.013410171 0.016417118 -0.07122451 0.187542
0001e0 d9 92 d5 bd 57 c1 05 3e 4c 07 d3 3c e7 f8 05 3d
       -0.104283996 0.13062035 0.025760315 0.032708075
0001f0 a4 28 bb bd 15 92 b2 3d 83 7b 07 bd 10 f4 a6 bd
       -0.09138611 0.08719269 -0.033076774 -0.0815202
000200 ec 24 12 3d 2a f4 c4 bd 85 ba 71 3d 83 3b 43 be
       0.035679743 -0.09616883 0.05901577 -0.1906567
000210 94 cf 21 3e b8 30 03 bc 51 23 c9 3c 66 2a 9a 3c
       0.15801841 -0.008007221 0.024552973 0.018819045
000220 7e 33 c5 3d bb 6e 74 3d 52 87 d8 3d 81 7a 10 be
       0.09628962 0.059675913 0.10572685 -0.14109232
000230 8a 13 ec bd 6e f4 b0 bd 7c f9 f7 bc b0 ba 31 be
       -0.11527164 -0.08640371 -0.03027033 -0.17356372
000240 98 c0 4c be 8f 41 07 be 68 2d b6 3d 6d 38 e3 3a
       -0.19995344 -0.13208602 0.08895379 0.0017335542
000250 02 d4 e1 3c 60 5d 6b 3e 08 28 11 3e 42 c3 99 bd
       0.027566914 0.22984838 0.14175427 -0.075079456
000260 d0 3f d1 3d 33 4e a8 3d aa 46 68 bd 6d 34 1a be
       0.102172494 0.0821804 -0.056708016 -0.15059061
000270 51 bd 42 3d a7 28 0f be 84 3f 14 bd 96 16 58 bc
       0.047543827 -0.13980351 -0.036193386 -0.013188979
000280 4c f8 fa bc 10 31 ba bd 3e ce b2 bb 9f 29 28 bd
       -0.030635975 -0.09091389 -0.005456715 -0.041055318
000290 17 ec a3 bd b5 71 80 3d 89 72 02 3d 39 a4 dc bd
       -0.08004015 0.06271688 0.03184751 -0.107735105
0002a0 23 7f 02 bd 8c 09 2d be ec d6 3e 3e ff 8c 62 3d
       -0.03185953 -0.16898173 0.18636674 0.055310246
0002b0 68 99 58 3e a0 c7 7c bb 27 53 4b bd 05 1f f9 bd
       0.2115227 -0.0038571134 -0.049639847 -0.1216412
0002c0 d9 53 85 3e 77 e3 8a bc 74 c6 e4 bc 6d 3b 45 bb
       0.26040533 -0.016954167 -0.027926661 -0.0030095235
0002d0 e9 dc d0 3d 0d 3e d1 bc c5 2a d8 bd 36 39 f1 3c
       0.10198385 -0.025542283 -0.10555033 0.029446226
0002e0 69 45 32 be ca 66 86 3d 2a f7 4f be b0 cf 5d 3e
       -0.1740929 0.06562574 -0.2030913 0.21661258
0002f0 12 f6 2d 3c 19 c7 81 bd e2 7d 7e 3c 46 07 ca bd
       0.01061775 -0.06336803 0.0155329425 -0.098646685
000300 2d d6 9d bd ae 0c a8 3e 45 43 c9 bd 99 72 73 be
       -0.077068664 0.32822174 -0.09827284 -0.23774184
000310 70 5d f8 3c 03 88 60 bd fb 2c 5b 3c be 7c b4 3c
       0.030317992 -0.05481721 0.013377423 0.022032138
000320 d8 59 d6 3d e0 00 29 3d e7 27 c2 3d b6 2c 31 bb
       0.10466355 0.0412606 0.09480267 -0.0027034706
000330 35 ee 01 be fb 65 63 bc 7b 7b 21 3e a2 48 0c be
       -0.12688525 -0.0138792945 0.1576976 -0.13699582
000340 d2 fc 28 be 86 7d 1f 3d 03 d6 03 3e 7c 8b 1b 3e
       -0.16502693 0.038938068 0.12874608 0.15189928
000350 75 66 3b be 19 f4 09 be a3 be 98 3d b7 0d 52 bd
       -0.18300803 -0.13472022 0.07458236 -0.05128261
000360 98 25 85 bd f6 e2 09 3e 18 12 1e 3e 59 5a 67 be
       -0.06501311 0.13465485 0.1543659 -0.22593059
000370 43 3e 88 bb 6c b8 59 3c b4 1a c6 3c 9f 4d 4e be
       -0.004157813 0.0132885985 0.024182655 -0.20146798
000380 5c 0b ea 3d 72 4e cb bd 8c ea ae 3c 39 45 ab 3d
       0.11427948 -0.09927072 0.021352075 0.083628125
000390 09 16 32 be ae b7 5d be 4f 33 be be 7d 68 93 3b
       -0.17391218 -0.216521 -0.3714852 0.00449854
0003a0 50 57 e6 bc 34 bd d2 bd ef d6 00 3d 51 3e ce 3d
       -0.028117806 -0.10289994 0.031454977 0.1007048
0003b0 42 3f df bd 5e 49 04 3d 49 2c ce bd 78 c3 30 3e
       -0.10900737 0.03229653 -0.100670405 0.17262065
0003c0 c2 b5 06 3d e4 08 24 3e 2a cf 50 bd c6 42 05 bd
       0.03288818 0.16019017 -0.050978817 -0.032534383
0003d0 67 7c d0 bd 1b b7 5a 3d 36 65 42 bd 0b 95 2a bc
       -0.10179978 0.05339728 -0.047459804 -0.010411511
0003e0 89 dc 04 3e 16 c0 2e 3e eb 81 db bc 2b dd d1 3d
       0.12974752 0.17065462 -0.026795348 0.102472626
0003f0 ca 2f ff 3c 0c d4 33 3e 3a 94 10 be 1d 4e 18 3e
       0.031150717 0.17561358 -0.14119044 0.14873548

encoder.net.2.bias f4 [60]
000000 ea ee 81 3c c3 b6 48 bd 35 89 58 bd 7b 64 46 bd
       0.015860993 -0.04900242 -0.052865226 -0.04843567
000010 b6 87 6d bd 8e 6b ee bc a5 1b 82 3c a7 aa 47 3d
       -0.057990752 -0.02910402 0.015882323 0.04874673
000020 b1 3a f6 bc 51 bf 46 bd ca cb 53 bd c4 f5 84 3d
       -0.030057283 -0.048522297 -0.05170802 0.064921886
000030 d1 42 97 bd c3 09 96 3d e4 14 54 3d 28 38 5b bd
       -0.07385791 0.07326081 0.051777735 -0.05352035
000040 b7 f2 7f bd 78 32 96 3d 01 dd 72 3d ae 75 23 bd
       -0.06248733 0.07333845 0.059292797 -0.03990715
000050 df 3f 6d bd 02 72 65 bd 77 fc 41 3d b6 c5 fc ba
       -0.05792224 -0.05601693 0.04735991 -0.0019284997
000060 78 17 7b 3d 3e 4d 67 ba b2 06 c7 b7 86 87 85 3d
       0.06130168 -0.00088234607 -2.3725766e-05 0.0651999
000070 33 8a 5a bd 09 54 d6 bc 78 97 99 3d a5 89 97 3d
       -0.053354453 -0.026163118 0.074995935 0.073993005
000080 ab fa 5b 3d 92 5e f0 3c 65 e1 81 bd c0 9e 88 bd
       0.053705852 0.02934197 -0.06341819 -0.06670904
000090 43 5a 8c bd 5b fb 4a 3d d6 27 a7 3d c3 bd 6b 3d
       -0.068531536 0.049556118 0.08161895 0.057554018
0000a0 dc 89 45 bd 15 ee 1a bd 66 60 24 3d db 91 7c 3d
       -0.048227176 -0.03782471 0.040130995 0.061662536
0000b0 89 f7 6f 3d a9 34 18 3d 0a e3 63 3d 7f 01 b4 bd
       0.058585677 0.037159596 0.055636443 -0.08789348
0000c0 c9 76 80 3d 41 6b 18 bd b9 8b 8d bd b2 5a 4f bd
       0.062726565 -0.03721166 -0.069114156 -0.050623603
0000d0 60 3d 79 bd f3 72 85 3c a8 f8 81 3d 23 85 67 bd
       -0.060849547 0.016290164 0.063462555 -0.056523453
0000e0 01 a1 8e bd 49 ff 2f 3d 8b 32 a3 bd 7b 6e 8c 3d
       -0.06964303 0.04296807 -0.07968625 0.0685701

encoder.net.5.weight f4 [34, 60]
000000 df 4d 90 bd c3 f6 4e 3b a6 c9 91 3d c4 46 66 3d
       -0.07046103 0.0031580187 0.071185395 0.05621983
000010 33 6b 48 3d e8 ea 1c 3e 21 11 08 3e ca 97 e4 bc
       0.04893036 0.15323985 0.13287784 -0.02790441
000020 7c 50 50 3e 02 0f db bd 78 be c9 bc 3a 7f ad bd
       0.20343202 -0.10696222 -0.024626955 -0.08471532
000030 5a 11 31 be 7b 25 71 bd cf 83 9a 3e 50 26 3c be
       -0.17291775 -0.058873635 0.30178687 -0.1837399
000040 59 34 2f be df e8 f9 bd 75 de c3 bd 22 02 46 3e
       -0.17109813 -0.1220262 -0.09563915 0.19336751
000050 39 9c 78 ba 21 85 a0 3c bb 69 8e 3c df b2 a1 bc
       -0.0009483728 0.01959473 0.0173844 -0.019738613
000060 d1 71 a1 bd 5e f6 b6 3c 43 e3 da bd f6 22 0b bd
       -0.07883037 0.022334274 -0.10687878 -0.03396889
000070 e8 51 bb be 41 e3 8b 3d 68 cb 02 be 11 db 93 3c
       -0.36585927 0.068304546 -0.12772906 0.018048795
000080 c5 7a 63 3d 4f c4 73 be 3d 3d 27 be 03 11 2a be
       0.055537004 -0.23805355 -0.16331954 -0.16608052
000090 78 63 32 be d2 74 a7 3d f9 4d 3b be ad 70 c2 bd
       -0.17420757 0.081765786 -0.18291463 -0.094941474
0000a0 43 0d f7 bd 89 05 84 bd f4 ba 24 3d 47 d7 44 3e
       -0.12063076 -0.06446368 0.040217355 0.19222747
0000b0 14 72 0d 3e 7e 51 03 bd b4 32 1d 3e 6c 97 1d 3e
       0.13813049 -0.03206014 0.15351373 0.15389794
0000c0 67 33 d4 3d 0c 95 80 3d d0 a2 70 be 6d 90 82 bd
       0.10361367 0.062784284 -0.23499608 -0.06375203
0000d0 ab 9f af bc db af 33 be 89 1c 0b 3e b0 9a 41 bb
       -0.02143844 -0.17547552 0.13585104 -0.0029541664
0000e0 f8 af d4 3c 14 ec 4d be df ed 09 3e 4f 36 8a bd
       0.025962815 -0.20109588 0.13469647 -0.0674864
0000f0 61 05 0a 3e 33 54 b9 bd 11 35 05 be bb 20 23 3e
       0.13478614 -0.09049263 -0.13008524 0.15930454
000100 37 35 57 be 42 c4 dd bd 95 03 8f 3e c0 9a c9 bc
       -0.21016394 -0.10828449 0.2793242 -0.024609923
000110 90 2d da bd db 97 71 3d 63 60 63 3e 2d 3d 0b 3e
       -0.106532216 0.05898271 0.22204737 0.13597555
000120 28 cb 0d bd 0c 0e 5b 3e a8 a4 8e 3e 90 a5 4b 3d
       -0.034617573 0.21392077 0.27859998 0.04971844
000130 06 ca 8b bd 27 e8 c4 bd 07 96 b4 bd e1 93 67 be
       -0.06825642 -0.09614592 -0.08817678 -0.22615005
000140 68 3e 8b bd 84 c4 b3 3d f8 64 b6 bd 7f 2a 8e 3e
       -0.067990124 0.08777717 -0.08905977 0.27766797
000150 b1 b2 56 be a5 06 2b 3e e8 37 b7 3d 16 22 77 3d
       -0.20966603 0.16701753 0.0894621 0.06033524
000160 fa 19 9d be 3e 0c 58 be ce b1 d7 bd bb 8b 92 be
       -0.3068388 -0.2109842 -0.105319604 -0.2862223
000170 90 5a 99 be 47 b0 98 bd d0 0d db bc 30 43 c6 3c
       -0.29951906 -0.07455497 -0.026739985 0.02420196
000180 2d 11 ac bd c4 6b 00 3e 0f 6b 5b 3d 12 4e 84 bd
       -0.084017135 0.1254111 0.053568896 -0.06460203
000190 a2 62 b5 3c ef 2f b2 bd 30 92 44 bd 97 13 bb 3d
       0.022141758 -0.08700549 -0.047990978 0.09134596
0001a0 40 4f 61 ba 34 99 6e be 32 5e 7b 3d b7 56 34 be
       -0.0008594878 -0.2330063 0.06136913 -0.17611204
0001b0 b7 c5 65 be 74 c1 74 bd 3a 93 26 bd ff 0a f1 38
       -0.22438703 -0.059754804 -0.04066775 0.00011493824
0001c0 fa fa d8 bd d4 c5 ef bd 56 5b 8e be 74 14 98 bd
       -0.10594745 -0.117076546 -0.2780406 -0.07425776
0001d0 a2 c7 6f bd 40 ef a6 bd 0f 64 98 be ee f8 f1 3d
       -0.058539994 -0.08151102 -0.2976384 0.11815058
0001e0 85 64 d3 3d 9e 26 18 3e 62 30 98 3e 92 35 c4 3d
       0.10321907 0.14858481 0.29724413 0.0958053
0001f0 ed 8c 66 bd b2 a8 f2 bd 28 d0 a5 bc 94 ab fa bd
       -0.05628674 -0.11848582 -0.020240858 -0.12239757
000200 70 e1 e3 3b fc 6e 44 bc bf f1 0a be 3c e7 00 be
       0.0069543645 -0.011989351 -0.13568781 -0.12588209
000210 c2 d3 97 bd 23 aa a3 bd 5b b5 8d be 30 8f aa bd
       -0.074134365 -0.079914354 -0.27677426 -0.08328092
000220 62 5b 1a be e4 ad e9 3b 1d 85 2a be 31 f5 5a bd
       -0.15073922 0.007131325 -0.16652341 -0.05345649
000230 47 3b 9c bd 9c 27 77 3d 47 bd d9 3d 07 cb 56 3d
       -0.07628494 0.06034051 0.10631805 0.052439716
000240 6a e8 db bd 6a 2f fd 3c f3 44 4e be 11 bb f0 bd
       -0.10737689 0.030906398 -0.2014349 -0.1175443
000250 91 bb 92 3e 94 07 f4 bc c7 01 c8 bb 58 7c 08 be
       0.28658727 -0.02978877 -0.0061037275 -0.13328683
000260 0a ff 8b bd 54 8d 25 bd 19 99 6a be 7d 0e 7a 3e
       -0.06835754 -0.040417984 -0.22909965 0.2441959
000270 61 ad aa 3d 5b e4 63 3d 1b 96 d7 bb a7 a1 26 3e
       0.08333851 0.0556377 -0.0065791733 0.16272603
000280 d9 6b 30 3e 71 4e e2 3d cc 8c 93 bc 93 2b 64 3e
       0.1722864 0.11050118 -0.018011473 0.22282247
000290 25 09 6a be da af 49 bd 0a ef 41 be b3 cb 9f bc
       -0.22855051 -0.04923997 -0.18938842 -0.019506311
0002a0 b1 ae 36 3e 22 85 02 bc 88 9b 6a 3e df 00 1f 3e
       0.17840077 -0.007966312 0.22910893 0.15527676
0002b0 3d 26 a5 3e 09 8c 84 be 67 45 69 3e 1b 29 51 3e
       0.32255736 -0.25888088 0.22780381 0.20425837
0002c0 a0 17 77 3c 25 e1 5a 3e 50 1e af 3d 28 5c fd bb
       0.015081316 0.21374948 0.085507035 -0.007731933
0002d0 c9 68 82 3d ba 76 2a 3e ae 3a ca bd 76 87 eb bd
       0.063676424 0.16646853 -0.098744735 -0.115004465
0002e0 ae 8a 0d bc 98 b3 7d be 2d 8c 3b be 1e 25 f3 bd
       -0.008639021 -0.24775541 -0.18315192 -0.11872314
0002f0 69 12 80 3e 8d 46 8b 3e 46 c8 00 3d 67 94 9e 3b
       0.25014046 0.27202263 0.031440996 0.0048394683
000300 f2 21 e5 bd 67 58 4a bd f8 12 fc bc e5 5e 99 bd
       -0.11188115 -0.049400713 -0.030770764 -0.07488803
000310 98 7b 55 3d 5d a6 91 3e 05 ea a3 3d fe 1d 62 bd
       0.05211982 0.28447238 0.0800362 -0.055204384
000320 78 2f 01 be e8 a4 2f 3e 13 57 b9 3d 76 cc f1 3d
       -0.12615764 0.1715275 0.09049811 0.11806576
000330 4c 9c 8b 3d cd 6a 44 be 5c d4 cd bd d9 82 86 be
       0.06816921 -0.19181366 -0.1005027 -0.26271704
000340 43 2d aa 3d 3d ab de 3d bf 10 0e 3e d4 f6 6c 3d
       0.08309414 0.10872505 0.13873576 0.05785258
000350 f1 4a 8e 3d cc 23 b6 be 41 ab ea 3d 03 e4 01 be
       0.06947888 -0.35574186 0.11458445 -0.12684636
000360 d6 cc ba 3d ee 14 a1 3e 89 4d 82 3c 5b c3 cd ba
       0.091211006 0.3146128 0.015906112 -0.0015698479
000370 8d 26 21 bd 74 3e e8 3d 2b 88 62 be 46 ee 7a 3e
       -0.039343406 0.11340037 -0.22122256 0.24504957
000380 69 a2 27 3e d0 04 aa 3d 42 4f 26 be 53 20 79 bd
       0.16370548 0.08301699 -0.16241172 -0.060821842
000390 b8 22 d0 3d 59 78 e5 3b 72 85 d6 bd 75 45 40 be
       0.10162872 0.007002872 -0.104746714 -0.18776496
0003a0 6a 74 0e 3e d4 c8 12 3e c1 ae 90 bd 2d 4e 9b bc
       0.13911596 0.14334422 -0.07064582 -0.018958176
0003b0 5d 46 38 bd 35 af e1 3c 85 d0 f4 3d 61 84 0b be
       -0.04498898 0.027549366 0.119538344 -0.13624717
0003c0 c0 d4 c4 b9 21 d4 d0 3d 20 05 11 be bf bf 59 bd
       -0.00037542544 0.101967104 -0.14162111 -0.05316138
0003d0 fb a2 d5 3c c1 6e 52 bd 22 2e f5 b9 25 de ff ba
       0.026078692 -0.051375154 -0.00046764413 -0.001952116
0003e0 42 7f 95 3d e1 7f 24 3e 15 36 83 3d 51 4c 25 be
       0.07299663 0.16064407 0.064068 -0.16142394
0003f0 ae 44 83 3d 75 52 48 3d e1 8e f2 ba a9 cd ab 3e
       0.06409584 0.048906762 -0.0018505716 0.33555344

encoder.net.5.bias f4 [34]
000000 75 a1 a3 3d 73 8c ba bd e3 33 8e bd 3d 73 6d 3d
       0.0798978 -0.0910882 -0.0694349 0.057971228
000010 16 56 85 bd e8 8b 75 3d 3f 09 2a 3d d3 1a 96 bd
       -0.0651056 0.059947878 0.041512724 -0.07329335
000020 a0 72 99 bd 19 c8 48 3d 68 7c 7b 3d a7 5d a1 bd
       -0.07492566 0.049018953 0.06139794 -0.07879191
000030 96 6e 4e bd 82 72 a1 bd d2 90 99 bd c0 64 c5 3d
       -0.05039843 -0.07883169 -0.074983254 0.09638357
000040 1e c5 93 3d 77 11 91 bd 32 5a 7d 3b ec fb 7e 3d
       0.072153315 -0.07083409 0.0038658497 0.06225197
000050 80 bb a1 bd 95 03 79 bd 1b fc 93 3d 69 05 97 bd
       -0.07897091 -0.06079443 0.0722582 -0.07374079
000060 d4 fb 7d bd f7 1c 80 bd 75 e0 c9 3c a5 d4 d1 bc
       -0.06200774 -0.062555246 0.024643162 -0.025614092
000070 83 15 b6 3d bd a1 0c bd 87 f5 38 3c 12 54 89 3d
       0.08890822 -0.034333933 0.011289007 0.06705488
000080 02 f2 1e 3d 25 27 8e 3d
       0.038805015 0.0694106

predictor.net.1.weight f4 [32, 34]
000000 6d 6c 5e 3e 76 dc 2a 3d a6 49 7d 3d d0 55 e2 3c
       0.21721049 0.041714154 0.061837815 0.02762881
000010 9e e3 15 bd 11 e1 e7 3d 79 dc 19 be 7e e2 4e 3d
       -0.036594026 0.11322225 -0.1502551 0.05050897
000020 18 1f e5 bd 3d ba 89 3e 72 87 e3 bc a0 db 4a 3e
       -0.11187571 0.268999 -0.027774546 0.19810343
000030 df 35 0c 3e 43 5e a6 bd 17 ee 47 be 11 2c 9d 3e
       0.13692425 -0.08123448 -0.19524418 0.30697682
000040 64 bc ab 3e 38 db 3c be b3 7d 2e bc eb 4d 68 3d
       0.33542168 -0.18443 -0.010650086 0.056714933
000050 3c f2 a3 3e b1 d5 53 be cb cb 14 be 10 cf 3f be
       0.32020748 -0.20686986 -0.14530866 -0.18731332
000060 80 95 96 be 4d 08 d7 3d d4 f8 b5 3e 26 58 01 be
       -0.29410934 0.1049963 0.35541403 -0.12631282
000070 31 aa 82 3d 97 82 8d 3c 62 20 00 3d 8c a5 80 be
       0.06380118 0.017274184 0.031280883 -0.25126302
000080 07 39 19 3e da c6 72 be df 5a d1 bc 97 e2 9e bd
       0.1496316 -0.23708668 -0.025556026 -0.07758062
000090 8a 3e 0a 3e 9d cb 19 be d9 f7 77 bd cf 53 55 be
       0.1350042 -0.15019079 -0.0605391 -0.20832752
0000a0 bd a9 ea 3d 09 eb 23 3d d3 f1 29 3e 9a f3 8d bd
       0.11458156 0.04001907 0.16596155 -0.06931229
0000b0 4b 6c bc 3d b6 9c 5f be 45 a2 7f be 85 56 a3 3e
       0.09200343 -0.21837124 -0.24964245 0.31901947
0000c0 c0 34 31 3d 7e 28 43 be 8f 47 a2 bd 6a 55 b6 bd
       0.043263197 -0.19058415 -0.07923805 -0.0890301
0000d0 b9 52 2b bd 6a ea 5b be c6 46 1c bc e2 d3 13 3e
       -0.041826937 -0.2147614 -0.009538358 0.14436296
0000e0 03 d6 8b be 55 d9 70 bc ff fc 46 3e 0f 4e 1f 3e
       -0.27311715 -0.0147002535 0.19432448 0.1555712
0000f0 43 6e c3 be d8 01 98 3c d9 ab 60 bd ed 44 a7 3d
       -0.3817006 0.018555567 -0.054851387 0.081674434
000100 7d 3c 9c bd 86 b8 a8 3d 73 98 bb be 83 01 6b 3c
       -0.07628725 0.0823832 -0.36639747 0.014343622
000110 40 95 e5 3d c1 30 6e bd e6 68 9f bc a4 69 bf 3d
       0.11210108 -0.058151964 -0.0194592 0.09346321
000120 ca 38 ef bd 84 13 36 be 00 48 be bd e5 93 56 be
       -0.116807535 -0.17780882 -0.09291077 -0.20954855
000130 2d 9e 9d bd e6 15 ed bc bc 64 09 3e 1c 95 66 bd
       -0.07696185 -0.028941106 0.13417333 -0.056294546
000140 ff c0 d6 be 4f 79 8e 3d de 66 5d be c8 d2 9a bd
       -0.4194412 0.069567315 -0.21621272 -0.075597346
000150 77 f3 30 3e dd 82 1c 3e d2 de 8b be 4f c1 41 bc
       0.17280374 0.15284295 -0.27318436 -0.0118258735
000160 6e ee bb 3d 8e ca 53 3e 95 c7 d7 bd 49 14 61 bd
       0.09176336 0.20682737 -0.10536114 -0.054950986
000170 41 33 bc 3c d9 44 d2 3d b5 38 0c 3e 49 15 b7 3d
       0.022973659 0.10267038 0.13693507 0.08939607
000180 99 71 b3 3c d3 a5 42 3e 0d 88 7c be 36 de ac bc
       0.021904754 0.1900857 -0.24661274 -0.021102052
000190 6b 6b c4 3c 29 ab c9 3d d7 2e 65 bc a8 a1 a6 3d
       0.023977002 0.09847099 -0.013988218 0.08136302
0001a0 cf 1c 6b be b2 51 5a bc e5 56 1c 3e a6 aa 08 3d
       -0.22960208 -0.013325142 0.15267523 0.033365868
0001b0 99 02 98 3a e0 de 03 3d 66 76 65 be ec 9c df bc
       0.0011597454 0.032194972 -0.22408447 -0.027296506
0001c0 5a d6 8f 3e d7 be 04 3e 15 3d 81 be 3b 50 32 be
       0.28093225 0.12963425 -0.25241914 -0.17413418
0001d0 f2 a5 a9 bd 69 99 b4 bc e6 7d 04 be de 63 54 be
       -0.08283605 -0.022045808 -0.12938651 -0.20741221
0001e0 aa 12 52 bc 97 cb c2 3d af ea 04 3e 27 df e3 bd
       -0.012821833 0.09511488 0.1298015 -0.11126547
0001f0 4f 27 e8 3d 1f 2d 9e 3d 6f c7 a0 3e 15 86 2b be
       0.113356225 0.0772345 0.31402156 -0.16750367
000200 08 81 f0 bc 5d b1 47 3d b8 82 36 3e d6 f9 3c 3d
       -0.029358402 0.04875313 0.17823303 0.0461367
000210 34 e7 1a bc 6d 29 95 be 6e 7e d7 3b 2d 22 56 be
       -0.009454537 -0.29133168 0.006576351 -0.20911475
000220 eb bd 84 3d 2a 9b 31 3e 2a 0e 6b 3e e4 4d e1 3d
       0.064815365 0.17344347 0.22954622 0.110011846
000230 b5 e7 dc bd c7 f5 11 bd 20 38 c8 3d 35 b9 3e 3e
       -0.10786382 -0.035634782 0.0977633 0.18625338
000240 b9 b6 f3 bc dd b5 25 3e 42 b3 f1 bc 2b c9 c7 3e
       -0.029750215 0.16182657 -0.029504422 0.39020666
000250 37 86 c6 3c 64 79 ad be dc 2a c6 bc 78 df 65 bd
       0.02423392 -0.33881676 -0.024190359 -0.05612132
000260 c2 ea 82 3e 61 13 4f 3e 09 36 ad bc ff 86 81 be
       0.2556973 0.20222236 -0.02114393 -0.25298306
000270 95 5a 33 bd fd 2b f8 bd 41 a9 52 3d 5d 58 c7 3d
       -0.043787558 -0.12117765 0.051430944 0.09733651
000280 da 4a b5 be 95 80 26 3d 44 7d 89 be 98 cf 19 3d
       -0.3540867 0.04064997 -0.26853383 0.037551492
000290 c9 14 91 3d aa b4 16 3c 34 5d a9 be ab f1 27 be
       0.070840426 0.009198347 -0.3307892 -0.16400783
0002a0 04 d5 2b bd a8 ef 1c bd b7 44 a6 3d 95 3a 8d be
       -0.041951194 -0.03831449 0.08118575 -0.27583757
0002b0 4a f7 cf 3d e8 f0 c7 bd 37 6c b5 be 73 c0 04 bf
       0.101545885 -0.09762746 -0.35434124 -0.51856154
0002c0 a4 3f 23 be 9e 4c 40 bd f7 5d 9f 3c e2 fb d9 bc
       -0.15942246 -0.046948068 0.019453986 -0.026609365
0002d0 5f fb 51 3d f1 d4 c1 bd 8a 42 c6 3e 9a 6e ab 3d
       0.051265117 -0.094644435 0.3872264 0.08370705
0002e0 cc 61 ec bd 00 e4 f5 3d 82 e5 6d bd 12 2f a0 be
       -0.11542091 0.12006378 -0.058080204 -0.31285912
0002f0 b9 d8 ec bb 8f ef 55 3e 6c 63 05 bd 7a a4 69 3d
       -0.007227984 0.20892166 -0.03256552 0.057041623
000300 71 da 55 bd 4f 94 d2 bd 9b a7 4e 3e c9 35 6f 3e
       -0.052210275 -0.10282194 0.20181124 0.23360361
000310 84 25 01 3e 19 e4 3e be b3 ea 0c be be 9b cf be
       0.12611967 -0.186417 -0.13761406 -0.4054851
000320 b9 23 e6 bd 04 d6 98 bd f6 aa 4a 3e 78 35 f8 bd
       -0.11237282 -0.07462695 0.19791779 -0.12119573
000330 ac 0f 82 3e 85 10 e9 bd 1c ee 49 3e 1c ce 27 3d
       0.25402582 -0.11380104 0.19719738 0.040968046
000340 d6 10 28 be d0 fc 9e be 43 bf 3a 3d 0b a6 75 3e
       -0.16412672 -0.31052256 0.045592558 0.23989122
000350 2e 04 d1 3d a2 23 95 3e d3 65 d0 3b ff d7 9a 3e
       0.10205875 0.29128748 0.0063597946 0.30242917
000360 87 4e 04 3e 77 73 10 be 88 19 9e 3e ec ea 9e 3c
       0.12920581 -0.14106546 0.30878854 0.019399129
000370 8a dd 25 3c 94 d2 a3 3e 2f 28 74 3c 43 8a 23 be
       0.01012362 0.31996596 0.014902159 -0.15970711
000380 df a3 80 be dd 8b ca 3b 6b af 14 be 8f 2d 10 3e
       -0.25125024 0.006181224 -0.14520042 0.14079879
000390 f5 b5 0c bc 86 f6 bc bd 6d d4 35 3e 83 c4 24 3d
       -0.008588304 -0.09226708 0.17756815 0.04022647
0003a0 49 9a 11 bc 1c 75 5b 3c d7 40 6e be c3 e0 6d bd
       -0.008886882 0.01339462 -0.23266922 -0.058075678
0003b0 4d 00 72 bd 90 01 8f 3e 93 c1 b4 3c 8b 2a c6 bd
       -0.059082318 0.2793088 0.02206496 -0.09676083
0003c0 55 2e 01 bd 0a ac 58 bd ec 23 d3 bc 82 2f 22 3e
       -0.031538326 -0.052898444 -0.025773965 0.15838435
0003d0 7f cf ab 3e 92 ba 19 3e 2b d6 37 bd 47 b9 22 3e
       0.33556744 0.15012577 -0.04488198 0.1589099
0003e0 ee 45 20 be 94 d4 e4 3d 4c de 7d 3d e0 db 30 be
       -0.15651676 0.111733586 0.061979577 -0.17271376
0003f0 01 2d 1c 3e b6 f5 d4 3c e6 5d d3 3e f5 91 06 be
       0.15251543 0.02599607 0.41282576 -0.13141616

predictor.net.1.bias f4 [32]
000000 33 70 c9 bd 02 78 c5 bd 30 fc d0 3d 1a c3 d2 3d
       -0.098358534 -0.0964203 0.10204351 0.10291119
000010 04 3b d6 bd 79 8c c0 bd 76 64 e7 3d 8e a7 ce 3d
       -0.10460475 -0.09401793 0.11298458 0.10090552
000020 94 4e 04 be 2b 09 d0 3d 88 51 c4 3d cf 67 d7 3d
       -0.129206 0.10157999 0.09585863 0.10517847
000030 90 ce c6 3d dd 06 da 3d 95 37 cf 3d 8d e1 d0 3d
       0.097073674 0.1064584 0.10118023 0.101992704
000040 16 18 e1 bd 83 e2 57 bd 72 93 ce 3d 40 c1 bf 3d
       -0.10990922 -0.052706253 0.10086717 0.093630314
000050 15 42 13 be 1f b3 c2 bd d5 69 e1 3d e5 f5 cc bd
       -0.14380677 -0.09506821 0.11006514 -0.10007838
000060 ed 92 c7 3d f6 c2 b8 bd 7a 95 19 3e 08 ca c9 bd
       0.09744821 -0.09021561 0.14998427 -0.098529875
000070 a7 8f d1 bd a4 49 e1 3c 0c 24 fb bd af ae d0 bd
       -0.10232478 0.027500935 -0.12262735 -0.10189568

predictor.net.3.weight f4 [1, 32]
000000 af 72 15 be ff 71 e6 be d1 e5 95 3e 38 ee 91 3e
       -0.1459453 -0.45008847 0.29276899 0.2850206
000010 f4 0a 83 be 10 70 4b bd 60 08 1e 3d 09 0d b0 3e
       -0.25594294 -0.049667418 0.038582206 0.34384945
000020 b6 1a ee bc 3b a2 f0 3d 73 b7 be 3d fd 2e 18 3e
       -0.029065471 0.11749693 0.09312334 0.14861675
000030 37 bd 49 3d 2e de ce 3e e4 0e a3 3e c0 3c 1f 3e
       0.049252715 0.40403885 0.31847298 0.15550518
000040 67 5f 7c be cc ab 9e 3c f1 c3 14 3e e0 71 80 3d
       -0.24645768 0.019369029 0.1452787 0.0627172
000050 28 71 0b bb c4 37 91 bd 19 40 25 3d 5a 66 db bd
       -0.0021277163 -0.070907146 0.04034433 -0.107128814
000060 2a 0a 1b 3d a6 c7 fd bb f7 9b 7a 3b e3 5a cc bd
       0.03785149 -0.007744747 0.0038239935 -0.09978273
000070 29 f1 24 be d9 d2 6f 3c d2 dc 5a bd c5 ee d6 bd
       -0.1610762 0.014637672 -0.053433247 -0.104947604

net.0.weight f4 [60, 37]
000000 3f cb 85 3d c2 b7 29 3e 7a b8 74 3e 8e 6b 69 3d
       0.06532907 0.16574004 0.23898497 0.056987338
000010 14 bc c8 bd 2d 29 0d be 5d ec 22 be 89 ac 1b 3a
       -0.09801498 -0.13785239 -0.15910478 0.00059384905
000020 ee bb 9e 3d d3 1d 48 3e 8f 17 31 3c b6 1e 99 bc
       0.077506885 0.19542627 0.010808839 -0.018691402
000030 16 7a 2c be 6d 3f fc bd 99 d0 e3 bd 66 87 70 3e
       -0.16843447 -0.12316785 -0.11123771 0.2348915
000040 c6 af 32 3e 9d f3 17 3c 60 20 78 be 90 75 da 3d
       0.17449865 0.0092743905 -0.242311 0.106669545
000050 6f 0b bd be 99 96 01 3e 59 7a 33 bd d3 28 45 3d
       -0.36922786 0.12655105 -0.04381785 0.048134636
000060 0f bf b8 3d a7 75 18 39 20 95 12 be 15 f8 54 bd
       0.090208165 0.00014539679 -0.14314699 -0.051994402
000070 39 1e 35 3e 65 c7 97 3c cf e8 4a be 0b 04 0d be
       0.1768731 0.018527696 -0.19815372 -0.13771074
000080 e0 e8 6b 3d 6b 26 d9 3c 72 2d c6 3d 1a 39 72 3d
       0.057595134 0.026507577 0.09676637 0.059136488
000090 9f e2 a6 3b 7c 59 f1 3d 73 0a a0 bd 85 98 82 be
       0.0050929333 0.11784646 -0.07814493 -0.25506988
0000a0 6c 73 91 bc c0 04 12 be bc 3b 51 3e 4a e4 b6 bc
       -0.017755233 -0.14259624 0.20432943 -0.022325654
0000b0 48 89 8e bd 90 d8 db 3d fc d4 d4 bd 13 0f a9 bd
       -0.06959778 0.107346654 -0.10392186 -0.08254828
0000c0 aa 0e 39 be ac be c5 3d 38 e5 2e 3e 17 0c 3c be
       -0.18072 0.096555084 0.17079628 -0.18363987
0000d0 ae 2c 95 bc 4b 8a 3d be cc 8e d8 3d 1b 7d 41 3e
       -0.018209781 -0.18509786 0.10574111 0.1889538
0000e0 64 ff 76 bd 16 9a 54 be e5 d8 63 3e aa 06 c2 bd
       -0.060302153 -0.20761904 0.22250707 -0.09473927
0000f0 c7 d5 fd 3c 42 36 4d 3d b2 f9 57 3e e2 cb ef bd
       0.030985726 0.050100572 0.21091345 -0.117088094
000100 c7 46 50 3d 1e 75 f4 3c c2 99 bc bd c1 05 38 be
       0.05084875 0.029841002 -0.092090145 -0.17970945
000110 c3 67 40 bd e9 5e a5 bd 6c 4a e6 3d ef 3b 75 3d
       -0.046973955 -0.08074743 0.112446636 0.05987161
000120 12 c0 6f bd 52 3f 3d 3e 9e 04 2d 3e f7 e1 e9 3d
       -0.058532782 0.18481186 0.16896293 0.114200525
000130 c7 5b 63 bd 3c 5e 5a 3d c2 05 24 3c 6a bf 4c be
       -0.055507448 0.053312525 0.010011138 -0.19994894
000140 69 67 00 3e 9a 10 07 3e 39 43 14 bd 3f a1 54 3d
       0.12539448 0.13189927 -0.03619692 0.05191159
000150 a6 fe 0c be fe 72 25 3d ad 32 83 bc 91 8c 5b bd
       -0.13769016 0.04039287 -0.016015375 -0.05360085
000160 8f 24 b6 bc 09 37 fe ba 1d 70 7d 3e 8d b6 70 bd
       -0.02223423 -0.0019395064 0.24749799 -0.058767844
000170 ef ce 3e 3d 14 7e cd 3c 04 d6 0c 3e b3 c4 14 be
       0.046584066 0.025084533 0.13753515 -0.1452816
000180 6a 4f b5 3d 2b e3 87 3e 44 7c 5e 3e 32 94 0a bc
       0.08853038 0.26540503 0.21727091 -0.008458184
000190 e6 f8 4e 3e 54 b4 82 3d 0f 78 00 3e 5a cf 2b be
       0.20212135 0.06382051 0.12545799 -0.16778317
0001a0 26 44 63 ba bc fa 36 be 21 15 54 be b9 0f 29 be
       -0.00086695177 -0.17869085 -0.20711185 -0.16509904
0001b0 61 01 44 bd 18 48 6b bd 24 ac af bd 1e 41 fe bc
       -0.047852878 -0.0574418 -0.08577755 -0.03103691
0001c0 c9 e5 cc 3d c2 74 b9 3e ba 8d a2 3d 80 da c0 3d
       0.100047655 0.36221892 0.079371884 0.094166756
0001d0 8e aa 15 3d ac 74 71 3c 9b ed 41 3d 28 17 1c 3e
       0.036539607 0.014737289 0.04734574 0.15243208
0001e0 b0 ee 12 3d a1 7d 52 be 69 dd 75 3e df 88 a8 3e
       0.03587216 -0.20555736 0.24010243 0.32916924
0001f0 ed 2a 36 3e d7 3d a6 be a0 a7 f7 bd ac 01 94 3e
       0.17789812 -0.32469055 -0.12092519 0.28907526
000200 c2 7e 33 3e 52 06 39 be d4 95 7c bd 08 91 aa 3d
       0.17528823 -0.18068817 -0.061666325 0.08328444
000210 7b 95 b0 bd 98 e7 39 3d 6f 43 4c 3e db b0 5d 3e
       -0.08622261 0.04538688 0.19947599 0.21649496
000220 81 b1 1f be d2 d7 2a 3d d0 f6 9e 3d 34 01 2d 3d
       -0.15595056 0.04170973 0.077619195 0.042237476
000230 9e 24 b3 bd 38 8f c0 bd 36 e4 9a be ee 40 0e 3e
       -0.087472185 -0.09402317 -0.30252236 0.13891956
000240 cd 0f 09 3e 30 df 1f 3e 93 52 36 be 14 20 32 3d
       0.13384934 0.15612483 -0.17804937 0.043487623
000250 fd 97 d9 bd 1c 52 03 bd 35 18 dd bd c9 ae 66 3c
       -0.106246926 -0.032060727 -0.10795633 0.014079758
000260 a4 7a e9 3d 32 2b 39 3e d9 39 b9 3e 5e 1a 46 bd
       0.11400345 0.18082884 0.36176947 -0.04836499
000270 60 6e d2 bd cc 14 d4 3d 2d eb b9 bd 98 0e f8 3d
       -0.102749586 0.10355529 -0.09078059 0.121121585
000280 c0 62 5a be e5 d5 80 3e 0b ad 83 be 3a 3e 42 bd
       -0.21326733 0.2516319 -0.2571796 -0.047422625
000290 40 14 a5 bd 28 87 1f be 1d 71 41 bc 5c b5 3f be
       -0.08060503 -0.15578902 -0.011806753 -0.18721527
0002a0 3e cb a3 bd 9e 79 91 3e 1b 3b 4b 3c 8d 98 40 3e
       -0.0799775 0.284131 0.012404229 0.18808194
0002b0 a8 63 8a bd 05 89 34 3e 01 b3 b2 3d 35 73 03 be
       -0.06757289 0.17630394 0.087255485 -0.12836917
0002c0 a9 42 37 be 2e 2b cd 3d 92 1d a4 bd 07 a0 8a 3d
       -0.17896523 0.100180015 -0.080134526 0.06768804
0002d0 b5 fa 24 be 9a fc a5 3e 28 7f 2e be 6d 3a 33 bd
       -0.16111262 0.32419282 -0.17040694 -0.04375689
0002e0 e4 72 1d 3c d9 3b b9 3d 5c 9d 87 be 13 c8 05 3e
       0.009609912 0.09044618 -0.26487243 0.13064604
0002f0 7c 2e ef bd e0 c2 22 3d 3f e9 27 3e f3 9e 30 bd
       -0.11678788 0.03973663 0.1639757 -0.043120336
000300 4d 75 24 3e a6 6a 26 3e 29 9c 69 3d 8b 40 29 be
       0.16060372 0.1625162 0.05703369 -0.16528527
000310 9a e8 25 3e c2 bd a8 bc 0d 15 b8 3c 3a be 75 bd
       0.16202012 -0.020598296 0.022470975 -0.059995867
000320 a2 cb c3 bd 5b 34 41 3e 5b e0 7c 3e 7b 2f 3b be
       -0.09560324 0.18867628 0.2469496 -0.18279831
000330 ec fd f5 3d 6e ed 22 bd 3b 5c 16 bd ed 4f ac bd
       0.120113224 -0.03977721 -0.03670905 -0.08413682
000340 7b 31 b2 3c cc b0 a7 bd df 38 40 bd cf f9 a8 bd
       0.02175211 -0.08188018 -0.046929237 -0.08250772
000350 10 b9 37 3e 91 48 1b 3e 63 b7 45 bd 14 67 04 be
       0.1794169 0.151644 -0.048270594 -0.12929946
000360 d0 d1 46 3b 4f 38 85 3c 1b 9c 07 3d 41 31 ac 3d
       0.003033746 0.016262202 0.03310786 0.08407832
000370 ec 6c 43 3e 92 e0 52 3e 2a 8b 2c 3d 38 d1 ff 3c
       0.19084519 0.2059348 0.042124905 0.031227693
000380 3c b5 a3 3c fc 27 94 3d 53 05 04 bc 8c 14 64 3e
       0.01998388 0.07234189 -0.00805791 0.22273463
000390 88 ca 9d 3c 08 87 1f 3d 5f 98 28 3e 6f 0a a3 bc
       0.019261613 0.038947135 0.16464375 -0.019902436
0003a0 32 56 8d 3d 00 d2 64 3e 68 9d bd bd 63 10 e1 3d
       0.06901206 0.22345734 -0.092585385 0.10989454
0003b0 96 66 84 3c fa 1b 66 3e 8c f5 47 3d 0a 39 a5 3d
       0.016162198 0.2247161 0.048818156 0.0806752
0003c0 f2 ba 22 ba b3 7e 6b bd 09 0d bd bd c7 25 68 bd
       -0.00062076666 -0.057493877 -0.09231002 -0.056676652
0003d0 d3 26 3a 3e 3f 3e 54 3d f9 59 ca bc 31 e5 32 be
       0.18178873 0.051817175 -0.024701105 -0.17470242
0003e0 60 46 8c bd 27 1d d7 3d a9 b2 56 3e 3f a5 c8 3c
       -0.068493605 0.10503607 0.20966591 0.024492858
0003f0 fe 12 7e bd c4 95 83 3e 55 7c 5b bd 0c 4e 2d be
       -0.06202983 0.257002 -0.05358537 -0.16924304

net.0.bias f4 [60]
000000 12 f5 05 be 51 84 0c bd e2 43 a1 bd 3a 98 c8 bd
       -0.13081768 -0.034305874 -0.07874276 -0.0979466
000010 41 ee 8c bd ad 57 f5 bd 67 ab aa bd ad 4c 19 3e
       -0.06881381 -0.119796135 -0.08333474 0.14970656
000020 31 c3 9d 3d 71 1b 8d bd 49 1b f5 bd 3e 76 8a 3d
       0.077032454 -0.0689 -0.11968095 0.06760834
000030 14 da c3 3d 2a 7f 3f bd 98 10 09 be 3f d9 0b 3e
       0.095630795 -0.046752132 -0.13385236 0.13657092
000040 58 dc 25 bc 15 1c 61 3d cd e6 f5 3d 24 30 6d 3d
       -0.010123335 0.05495842 0.120069124 0.05790724
000050 53 81 03 be 3a 70 c7 3d 19 70 08 3e 58 af 07 3e
       -0.12842302 0.097382024 0.13324012 0.13250482
000060 fe 8e 47 bd a9 d4 0e be 1c e1 3f 3d 69 e4 12 be
       -0.048720352 -0.13948311 0.04684554 -0.14344944
000070 71 a9 20 3c 9c c5 7e bd 91 e2 47 3c ff 28 7a bd
       0.009806023 -0.062200174 0.012200014 -0.061074253
000080 11 1d dc 3d 18 9a 92 3d 73 20 21 3c 32 36 bf 3c
       0.107477315 0.07158297 0.009834397 0.023341272
000090 f1 27 ce 3d e2 e7 f3 bd d2 86 ab bd 88 bc be bc
       0.10066212 -0.119094625 -0.08375324 -0.023283258
0000a0 e2 89 8a bd b2 8f eb bd e1 53 7e 3d ca cf 24 be
       -0.0676458 -0.11502017 0.062091712 -0.1609489
0000b0 94 09 50 be f0 fb c2 bd ec 34 c8 3c a1 14 88 3d
       -0.20316154 -0.095207095 0.024439298 0.0664456
0000c0 a7 a3 1a be d1 d5 16 3d 09 10 e0 3d 2d f3 a7 bd
       -0.15101491 0.036825005 0.109405585 -0.08200679
0000d0 a2 c1 af bd 36 63 f3 3d 0f 38 87 3d 1b 29 f4 bd
       -0.085818544 0.11884157 0.06602489 -0.11921903
0000e0 78 76 49 bd 5d 74 8f bd 9b 67 dc bd 2a 88 bb bd
       -0.049185246 -0.070046164 -0.10761949 -0.091568306

net.2.weight f4 [60, 60]
000000 e1 66 1d be b9 15 68 be 95 2e a6 3d 95 83 30 bd
       -0.15371276 -0.22664537 0.081143536 -0.043094236
000010 b1 c3 43 3c ca c0 92 bd ea f7 20 3e 2e 3e 3c bd
       0.011948512 -0.07165678 0.15719572 -0.045957737
000020 10 b8 d6 3d bf 24 da bd 98 2a d9 bd b3 9c 84 3d
       0.10484326 -0.1065154 -0.10603827 0.064752005
000030 c3 36 41 be 80 ae 29 3d d1 e6 e6 bd 34 29 ca 3c
       -0.18868546 0.04142618 -0.112744935 0.02467785
000040 fd 60 44 3e 06 92 59 bd 1f c0 0c be d7 78 a5 bd
       0.19177623 -0.053117774 -0.13745163 -0.08079689
000050 53 37 3c 3e 5c 57 eb 3c a4 82 4b bd a3 db 51 bb
       0.1838048 0.02872818 -0.049685135 -0.0032021783
000060 4d 20 d2 3d 85 3f 94 bd 9b 4c 7c bd 2b 59 a6 3d
       0.10260067 -0.07238678 -0.061596494 0.08122476
000070 ec 2b 1d be 89 63 b4 bd 58 29 0e 3e 2c 45 97 bd
       -0.15348786 -0.08808047 0.13882959 -0.0738624
000080 3a 87 e1 3d 5f ed 98 bc 82 8c 78 bd 37 ef d4 3d
       0.110121205 -0.018667875 -0.060680874 0.10397189
000090 ce c2 e9 bd 6e 27 cd bd 8e 89 e3 3c d2 00 11 3d
       -0.11414109 -0.10017286 0.027775552 0.035401173
0000a0 9a e1 a6 3e b4 4c 0e be 47 3c b0 3d 38 9f f4 bd
       0.32593995 -0.13896447 0.08605247 -0.11944431
0000b0 19 8d b6 3c 71 1e 00 3e d4 9e 4f 3c db 6c cf bc
       0.022284077 0.12511612 0.012672145 -0.025320461
0000c0 4e d3 88 3c 9e 2d d4 3c 76 3a 15 be 16 e8 0a be
       0.01670232 0.025900658 -0.14573082 -0.13565096
0000d0 fe 7c a9 3d bb 4c 45 3e e9 e8 91 3d 67 0e fa bc
       0.082757935 0.19267552 0.07124502 -0.030524446
0000e0 f2 e1 15 bc a1 52 fd bc 92 92 89 3c b8 95 07 be
       -0.009148108 -0.03092319 0.016793523 -0.13240707
0000f0 eb c4 ae 3d f9 1d 92 3c 02 cc a2 bd 12 c5 95 bd
       0.08533653 0.017836558 -0.07949068 -0.07312979
000100 47 f0 20 3a 9d dc d4 bd 6c 37 a9 3d 10 1c cb 3d
       0.000613932 -0.10393641 0.08262524 0.09917462
000110 b3 c6 fc 3d 90 ea 68 3c bd 80 01 3d 59 18 2a bb
       0.12342586 0.01421608 0.031616915 -0.0025954454
000120 a3 f3 0e 3e 69 69 19 bd 4d 4c 9e 38 9d f6 22 be
       0.13960128 -0.037454043 7.548239e-05 -0.15914388
000130 49 33 98 bd 40 6f 1b 3e a1 82 57 3e a1 51 af 3c
       -0.07431657 0.15179157 0.21045925 0.021401228
000140 3e 14 5a be a2 d5 04 3b c3 74 01 3d 26 29 54 3c
       -0.21296784 0.0020268937 0.031605493 0.012949264
000150 af 7e 2a 3e d8 02 b4 3d 36 3e 28 bc 1c 9d 82 3e
       0.16649888 0.08789605 -0.0102687385 0.2551049
000160 f5 86 2b 3d 37 18 44 3c 91 30 12 be ed f0 90 bc
       0.041876752 0.011968664 -0.14276339 -0.017693007
000170 53 89 29 bd e3 85 03 bd b9 16 28 3d 33 51 cf 3d
       -0.04139073 -0.032110106 0.041037295 0.101229094
000180 15 ef 44 be 36 0d 96 bd 47 12 e9 bc 27 29 9f 3d
       -0.19231828 -0.073267385 -0.028451098 0.07771521
000190 3e 59 56 bc 2b c3 cd 3c 32 7b b3 3e c7 db 0b 3e
       -0.0130828 0.025117477 0.35054928 0.13658057
0001a0 9e c0 11 be 1a a8 85 3d 26 6a 24 3e 81 ad fd 3c
       -0.14233634 0.065262035 0.16056117 0.030966522
0001b0 c8 fb 8d 3d 9a 65 fb 3d 98 90 25 bd 29 b3 d3 3c
       0.06932789 0.12275238 -0.0404211 0.025842266
0001c0 24 14 af 3d 62 24 ae bb 3c 3e 42 3e 6a ab 88 be
       0.085487634 -0.0053143958 0.18969053 -0.2669328
0001d0 92 c6 96 3c 90 f7 8e bd ea 63 05 bd f9 34 06 3e
       0.018405233 -0.069808125 -0.03256599 0.13106145
0001e0 93 b6 c5 3d 54 14 0b 3e a4 44 63 3e de 1f fd bc
       0.09653964 0.13581973 0.22194153 -0.030898985
0001f0 f3 ba a3 be 54 3b 9a 3b 76 61 d1 3d 24 e6 2d be
       -0.31978568 0.0047067795 0.10223667 -0.16982323
000200 fe 59 20 bc c5 00 0e 3e 77 31 e0 bd 21 78 19 bc
       -0.009787081 0.13867481 -0.10946935 -0.00936702
000210 20 65 05 3c de 10 a4 3d 0d bd eb 3d 3a 3f de bd
       0.008141786 0.0801103 0.11510668 -0.10851903
000220 45 c3 12 be c0 92 86 bd 1f 1a c6 ba ae b1 4a bd
       -0.14332302 -0.06570959 -0.0015113986 -0.049485855
000230 38 7f a2 3c e7 6c a5 3d 7c 61 5a 3d 26 55 1c bd
       0.019836053 0.08077412 0.053315625 -0.03816714
000240 18 9b e8 bd 01 9e 20 3e ff 12 79 be 85 6d 9d 3d
       -0.11357707 0.15685274 -0.24323653 0.07686905
000250 3b f2 36 3b 5b 90 9f bd bd 8e 76 3d be 29 1d bd
       0.0027915377 -0.077912055 0.06019472 -0.038369887
000260 4c 16 7b be 99 6d 3d 3e 46 35 a7 3d 72 1c 91 bd
       -0.24520224 0.1849884 0.08164458 -0.07085504
000270 37 25 ac 3c 9e 6b 28 3e 80 21 1f be 82 3c e1 bd
       0.02101384 0.16447303 -0.15540123 -0.10997869
000280 94 65 1e 3e ae a5 31 bd 88 9e ea bd 82 df 89 3e
       0.15468436 -0.043370895 -0.11456019 0.26928335
000290 60 90 29 3a d6 c4 e9 3b d5 81 40 bc 99 e1 a9 3d
       0.0006468352 0.0071340604 -0.011749704 0.082949825
0002a0 61 e6 71 bd a0 25 34 3e 3c 7e 4a bd 0c 47 01 3e
       -0.059057597 0.17592478 -0.049436793 0.12624758
0002b0 b3 6c a0 3d 74 58 4c 3c 1c e0 4c 3e f7 46 a3 bd
       0.07833233 0.012472261 0.20007366 -0.0797252
0002c0 d3 3c 06 be 47 21 83 3e c5 8c bf bc b0 77 3d be
       -0.1310914 0.25611326 -0.023382554 -0.18502688
0002d0 99 aa 80 be 8c 2f 1a be 23 8e e9 3b cf 0f 81 b9
       -0.25130156 -0.150572 0.0071275397 -0.00024616576
0002e0 ed dd ad bd 4b 3d f8 3c d8 be 94 bd 87 d4 3a 3d
       -0.084895946 0.030302664 -0.07262963 0.045612838
0002f0 da c8 de 3d 6c e4 31 3e cf 6a 4d 3b e4 c0 8e bd
       0.10878153 0.17372292 0.003134418 -0.06970385
000300 b5 ce dc bd da 5c 1b be e4 00 78 bc c9 2a 8f bc
       -0.10781614 -0.15172139 -0.015136931 -0.017476456
000310 2e 5d 9c 3d 38 c9 20 be b8 fd 67 3d 76 b0 14 bd
       0.0763496 -0.15701759 0.05663845 -0.0363011
000320 84 9a 3c 3c 71 71 70 3e 0a 53 2a be 4f 75 b9 3c
       0.011511449 0.23480774 -0.1663324 0.022638945
000330 17 70 02 3e fc ee 25 3d 0a 4b 24 bc bb d3 4b bd
       0.12738071 0.040511116 -0.010027656 -0.04976247
000340 db 97 90 3e 13 dd 9e 3d 40 81 08 3d 50 6b 2a be
       0.28240857 0.0775701 0.033326387 -0.16642499
000350 5c 74 5f 3d 1c f2 4a 3e 23 84 c5 bd 30 b6 f6 bd
       0.05455433 0.1981892 -0.09644344 -0.12046468
000360 05 07 b5 3c 09 01 82 3c 55 1a f5 3d fa 1e 80 3d
       0.022098074 0.015869634 0.11967913 0.06255908
000370 b7 c8 8d bd 97 cb 10 bd ac 06 6c be 2d e4 06 3d
       -0.06923049 -0.03535041 -0.2304942 0.03293245
000380 ef 63 87 3d 23 a1 7e bd 05 80 cb 3b c9 c0 10 3c
       0.06610858 -0.06216539 0.0062103295 0.008835026
000390 ad 8d c8 bd 3e 79 63 bd 4e f2 cd 3a ef 61 47 bd
       -0.097926475 -0.055535547 0.0015712471 -0.04867738
0003a0 c0 c6 88 3d b4 55 40 bd 91 02 46 3d 99 16 a4 3c
       0.066785336 -0.046956733 0.04834229 0.020030307
0003b0 b7 03 56 3d cf b1 2d 3e f7 97 9b bd d3 6a ec bc
       0.052249637 0.1696236 -0.07597344 -0.028859532
0003c0 86 7c 5f be f4 5f 5c 3e 0d af 3b 3e d8 f6 2e 3e
       -0.21824846 0.21520978 0.18328495 0.17086351
0003d0 c7 73 40 3d ad 61 2d be 45 7d 89 3c 67 9a 87 3c
       0.046985414 -0.16931792 0.016783366 0.016553117
0003e0 f9 36 8f bd 45 86 45 bd 64 62 39 bd 5e 5c 62 3d
       -0.06992907 -0.048223753 -0.04525985 0.05526387
0003f0 cd d0 7b bd 6c d7 d8 3d 36 11 e6 bd d9 7d 4b bc
       -0.061478425 0.105879635 -0.112337515 -0.012420141
