results analysis/processed results/PINN/NASA results/5-5/Experiment4/model.pth (torch, 59646 bytes, 14 tensors)

encoder.net.0.weight f4 [60, 17]
000000 67 42 f8 3d 01 09 eb 3d 59 8a 15 3e bb 11 c8 3b
       0.1212204 0.11476327 0.14603557 0.0061056293
000010 3e 85 28 be 11 87 25 3c 8a 89 9e 3c b9 3b 6e be
       -0.16457078 0.010103003 0.019352693 -0.2326497
000020 91 de 78 be cc 6c 18 3e 95 08 c9 3d ef ea 0c 3e
       -0.24303652 0.14885253 0.0981609 0.13761495
000030 3a 6c 18 3e 14 bb 74 be c2 96 ab 3d 27 62 2c be
       0.14885035 -0.2389949 0.08378364 -0.16834317
000040 80 b3 3d bd 63 d8 19 be 69 92 d7 3b 36 72 9b 3e
       -0.046313763 -0.15023951 0.0065787327 0.30360574
000050 e4 19 5d 3e 58 b7 d0 3e d8 ee 0c 3d 2a 98 96 3d
       0.21591908 0.4076488 0.034407467 0.07353242
000060 a0 52 2e 3d 1f e7 59 be bf 5e e0 3d 4c 03 b0 bb
       0.042559266 -0.21279572 0.109555714 -0.005371487
000070 6d 24 69 3e 57 72 d0 bd 98 d3 0e bd 91 9f dc 3d
       0.22767802 -0.101780586 -0.03486976 0.107726224
000080 36 ab 94 3e c6 00 4f bd 48 36 1d 3d bf 7b 08 3e
       0.29036874 -0.050537847 0.038381845 0.13328455
000090 10 13 f2 bc aa c9 1e 3e 8a d6 3f be 88 10 8b be
       -0.029550105 0.15506616 -0.18734184 -0.2716105
0000a0 79 4f 09 bd 51 8f cc 3d e4 36 45 be 53 a6 9f 3e
       -0.033523057 0.09988273 -0.1925922 0.31181583
0000b0 cf ad 11 3e 7d 2c 12 bd eb fc 07 3e b7 69 6e bc
       0.14226459 -0.03568696 0.13280074 -0.014551572
0000c0 c6 a8 e4 bd 09 94 63 3e e5 93 8c 3d a5 e5 cd 3b
       -0.111650035 0.2222444 0.06864146 0.0062834793
0000d0 06 df 1a bd 94 dc 6d bd c9 09 64 be 74 09 18 3d
       -0.037810348 -0.058071688 -0.22269358 0.03711839
0000e0 6f 88 86 3d 26 3a 68 bc 1f a7 43 3d ed 01 cc 3c
       0.065689914 -0.01417402 0.0477668 0.024903262
0000f0 15 9e 23 3e b7 c3 3d 3e 50 0a 4a bc 9b 45 24 bd
       0.15978272 0.1853169 -0.01233156 -0.040105443
000100 23 a0 ca bd 45 05 85 be 6e f9 c9 bd dc 08 37 3e
       -0.09893825 -0.25980583 -0.09862028 0.17874473
000110 b9 ec 29 3e 08 12 13 3e 04 ae a1 3c bb d8 b5 bd
       0.16594209 0.14362347 0.019736297 -0.08879229
000120 8c 78 0c 3d d2 5b 0d bd 5a 27 ad 3d ed a9 40 bd
       0.03429465 -0.034511395 0.08454771 -0.047037054
000130 dc 92 cd bd 95 52 03 3e 96 ec 08 bd 64 82 17 bd
       -0.10037777 0.12824471 -0.03342875 -0.036989585
000140 b3 8c a8 bd 1d 7c 52 be 72 db 53 be 99 de 0f be
       -0.08229961 -0.20555158 -0.2068918 -0.14049758
000150 f8 4d 03 be 64 f4 98 3d 7c eb c1 bd 90 56 e4 be
       -0.12822711 0.07468489 -0.09468743 -0.44597292
000160 2d 66 85 bd e8 04 7c bd b3 95 0a 3e 8e ba 9f be
       -0.06513629 -0.061528116 0.13533668 -0.31197017
000170 fc 87 49 3d 7d 77 ae 3e 56 55 01 be 0f e2 d9 3d
       0.04920195 0.34075537 -0.1263021 0.106388204
000180 99 4e ed bd 0d e7 9d bd aa fc de 3c c3 58 fd 3d
       -0.11587257 -0.07710085 0.027220089 0.123704456
000190 e7 e3 26 3e f9 95 14 bd 15 83 05 bb 70 67 25 3e
       0.16297875 -0.036275838 -0.002037232 0.1615274
0001a0 30 1b 48 3e bb 13 4e bd c7 e1 84 3e ed 94 9d bd
       0.19541621 -0.050311785 0.25953504 -0.07694421
0001b0 04 7a 13 be 21 54 4d 3d 47 e2 59 3d ef c6 7f 3c
       -0.14402014 0.05012906 0.05319431 0.015611394
0001c0 05 4e cb bd 17 b7 6f 3d b3 5e f5 bb 2d fd 17 be
       -0.099269904 0.058524217 -0.0074880957 -0.14842673
0001d0 c8 34 4c bd e3 7f 90 be 51 95 02 bd 2c 4d 95 bc
       -0.049855024 -0.2822257 -0.03188068 -0.018225275
0001e0 2f 62 14 3e f9 86 80 bd 84 dd 36 3d 29 6b 35 be
       0.14490579 -0.06275744 0.044644848 -0.1771666
0001f0 6c 0e 25 3d fc c4 e3 3d a8 3c 56 3d e1 00 a6 bc
       0.040296957 0.11121556 0.05230394 -0.020264091
000200 36 e5 70 bc b8 77 54 be c2 18 2a bd ea 1e 98 3c
       -0.014703086 -0.20748794 -0.041527517 0.018569428
000210 bb d5 63 3d ba 91 bf bd 4e cb bc 3e 5b 22 82 3e
       0.05562375 -0.09353967 0.3687386 0.25416836
000220 94 21 c9 bd 21 8b 99 be 2e 15 04 3d c5 67 37 3d
       -0.09820858 -0.2998896 0.03224676 0.044776697
000230 88 4f 91 3d 09 67 5a bd eb 3c 05 bd 76 0d b3 3e
       0.070952475 -0.05332092 -0.0325288 0.34971207
000240 0a fc 1b 3e 28 38 be 3d a1 15 e9 3d c7 9a 4f 3c
       0.15232864 0.09288055 0.113810785 0.012671179
000250 2b ca 7e bd 4d 64 dd 3d 9a 03 42 be f7 ea 53 3e
       -0.06220452 0.108101465 -0.18946686 0.206951
000260 80 32 3d be 42 db 62 3a f5 a5 4e be 10 87 3f be
       -0.18476295 0.0008653888 -0.20180495 -0.18703866
000270 0e 5a cf 3d d4 b1 41 3e 6a 34 53 3e 74 f8 b2 3d
       0.101245984 0.18915492 0.20625463 0.08738795
000280 1b be 3a 3e 0d 7b 58 bc 75 36 e1 3d 07 10 0d be
       0.18236582 -0.013212931 0.10996715 -0.13775645
000290 06 77 95 3d 73 70 19 be 86 cb bf 3d fa 9a 50 bd
       0.072980925 -0.14984302 0.09364991 -0.050929047
0002a0 1f 1d f8 bd 92 a1 3a 3e 48 46 43 be 8f c6 f0 3d
       -0.121149294 0.18225697 -0.19069779 0.11756622
0002b0 59 74 ed bd 25 63 95 be 1c 95 79 3e 92 57 bd bd
       -0.11594457 -0.29177204 0.24373287 -0.09245218
0002c0 6b f7 e7 bd 26 c4 d5 bd 79 63 83 3d 5d d1 0b 3e
       -0.11326488 -0.10437803 0.06415457 0.13654085
0002d0 2f cf fa 3c 04 73 13 3d 5f f1 2a be ba 2b 28 39
       0.030616371 0.03599836 -0.16693638 0.00016038018
0002e0 5b 76 35 3e c2 47 28 be 02 2c cf 3b ef fe 2a 3e
       0.1772093 -0.16433623 0.006322385 0.16698812
0002f0 c9 ef 10 3d b4 a2 9d bd e2 99 8b 3d ea 50 c6 3d
       0.035384927 -0.07697049 0.0681646 0.09683402
000300 30 eb 73 3d c8 8c 11 bd df 8f 40 3e 37 c3 3a be
       0.059550464 -0.03553465 0.18804882 -0.18238531
000310 af da 7b be e1 a6 88 3d e5 59 9c 3e a5 76 2d 3d
       -0.2459514 0.066724546 0.30537334 0.042349476
000320 9c 0d 49 bd 7d e4 a3 be ab 2b 46 3e 6e 11 38 3d
       -0.049085245 -0.3201026 0.19352596 0.044938497
000330 6e 13 bc 3d ed e4 89 be a5 07 68 3e 7c 40 45 be
       0.091833934 -0.2693247 0.22659166 -0.1926288
000340 4c bc 0a 3e 1e 3b fa bd b1 0a 0e be 16 40 8b 3d
       0.13548392 -0.12218307 -0.13871266 0.06799333
000350 1d 5e bf bd c9 f6 6f 3d f2 0c ef 3d 2d db e2 3d
       -0.093441226 0.058584962 0.11672391 0.11076961
000360 c2 9e f4 bd 41 32 8e bd 10 76 a8 be 8c f6 14 3e
       -0.11944343 -0.06943179 -0.32902575 0.14547175
000370 4c ef c5 bd 2a eb c3 bb 66 02 c6 3d ed d6 b1 bd
       -0.09664783 -0.0059789615 0.09668426 -0.08683572
000380 2c 64 ae 3d 2b 93 2f 3d a6 6f 74 bd 65 00 80 3c
       0.085152 0.04286496 -0.05967679 0.015625188
000390 09 bf 49 3b d1 ec 56 3e 30 a4 2d bc 7b 78 3c bd
       0.0030784032 0.20988776 -0.010598227 -0.046013337
0003a0 80 37 dc bd e6 95 0d bd b9 45 85 bc 60 7a d9 bd
       -0.10752773 -0.034566782 -0.016268598 -0.10619044
0003b0 2b 80 51 3e 9e 71 cb 3d fd 27 33 3d e2 82 b2 3e
       0.20459048 0.0993378 0.043739308 0.3486548
0003c0 13 06 14 3e 13 d4 d6 bd b0 ab ea 3d 12 15 39 3e
       0.14455442 -0.10489669 0.11458528 0.18074444
0003d0 ec 76 b9 bd 0b bc 8e be 63 2c 30 3e 50 10 5b be
       -0.09055886 -0.2787784 0.17204432 -0.21392941
0003e0 6a 3e d4 3e cb e8 31 3e 17 e2 ba bb dc c8 72 3d
       0.41453868 0.1737396 -0.0057032215 0.059273586
0003f0 33 f9 e1 3d a0 48 25 be da 13 76 3e 48 dd 4e 3e
       0.11033859 -0.16140985 0.2403101 0.202016

encoder.net.0.bias f4 [60]
000000 0a 36 44 3c 6b 78 36 3d fe 8a 43 bd ad 20 61 bd
       0.011975775 0.044548433 -0.047739975 -0.054962803
000010 d2 e5 7e 3d 19 53 8b bd b4 a1 bd bd f4 d4 84 3d
       0.062230892 -0.06802959 -0.09259358 0.0648593
000020 e1 b8 88 bd 7c c9 dd 3c d9 14 a2 3b 61 d6 4d bc
       -0.06675888 0.027073614 0.004946333 -0.012563319
000030 f3 12 6e 3d 65 13 6d 3d 90 77 3a bd e4 c3 6a 3d
       0.05812354 0.057879824 -0.04552418 0.057315722
000040 7f fa 52 bd df 7e 8f 3d b4 ad 94 3d d9 c9 a7 3d
       -0.051508423 0.070066206 0.07259694 0.08192796
000050 ec e8 af 3c 1f 67 ba bd 07 d7 64 bc 39 c5 b2 3d
       0.02147337 -0.091017 -0.013967282 0.087290235
000060 84 7c 7e bd 7b b8 ad 3d 46 0c 72 bd 7a cf 8b bd
       -0.062130466 0.084824525 -0.059093736 -0.068266824
000070 c1 ca 07 bd 0f ef 8d bd af 2b 09 bd bf 67 85 3d
       -0.033152346 -0.069303624 -0.033488926 0.065139286
000080 dd 83 b6 3d 3e 20 05 bd 0d e7 10 3d e5 e6 4f bd
       0.0891187 -0.03250145 0.035376597 -0.050757308
000090 f7 ff bf 3d 92 02 84 3c 33 8a 83 3d 68 1a 7b 3d
       0.09374993 0.016114507 0.06422844 0.06130448
0000a0 6c 6d 2a 3d 44 c6 83 bd 4f 12 c9 3d f2 bc 93 bd
       0.04160826 -0.064343005 0.09817945 -0.07213773
0000b0 30 78 18 3d 44 1d bc bd 12 5f ae 3d c4 f1 85 3c
       0.037223995 -0.091852695 0.08514227 0.016350634
0000c0 f0 42 9f 3c f3 01 61 3d af 1a 58 bc a3 c4 23 3d
       0.019441098 0.0549335 -0.013189956 0.03998245
0000d0 d6 ba 3c bd e6 88 87 bd 8b e1 9d 3d a6 ea f0 bc
       -0.046076618 -0.06617908 0.077090345 -0.029408764
0000e0 0d c4 c9 bd ef 11 42 bd ee 4f 6f 3d 06 ea 10 3d
       -0.09851847 -0.047380384 0.058425836 0.035379432

encoder.net.2.weight f4 [60, 60]
000000 fb 65 87 3d f0 5a c1 bd 70 53 a3 3c 8e 51 1b 3e
       0.06611248 -0.09441173 0.019937247 0.1516783
000010 22 67 08 bc 2e 07 8e 3d b9 c9 2f bd fb b2 aa bd
       -0.00832537 0.06934963 -0.042916987 -0.08334919
000020 42 b1 9d be 2a 8b 93 be 59 6c 75 ba 75 33 bb bd
       -0.307993 -0.2881711 -0.00093621534 -0.09140674
000030 5d 84 29 be e3 87 89 3c 86 a0 a1 bd e2 63 56 bc
       -0.16554399 0.016788429 -0.078919455 -0.013085337
000040 ca 3b 71 3e 7a 07 ef bc 74 e2 b1 bd fb e3 06 3d
       0.23557964 -0.02917837 -0.08685771 0.032932263
000050 d9 42 06 bd da 27 21 bc d4 94 99 bd 5f e5 4a 3e
       -0.032778595 -0.0098361615 -0.0749909 0.1981406
000060 03 4e 33 be 25 a6 fb 3c 86 81 96 3d f1 f8 c2 3e
       -0.17510228 0.030718872 0.073489234 0.38080552
000070 40 4c 05 bd d5 b8 ca 3c a8 2e 90 bd 51 40 07 3e
       -0.03254342 0.024746338 -0.07040149 0.13208129
000080 61 57 a2 3c 85 c9 c6 bd 90 ab 1d 3e c7 d9 b8 bd
       0.019817056 -0.097064056 0.15397477 -0.09025913
000090 91 27 0a 3d 64 0e 9a be d2 08 81 3e 5c 44 27 3d
       0.03372914 -0.30089104 0.25202042 0.040836677
0000a0 6e 19 ca 3d ab 47 a0 3d c7 24 c5 3d 26 da ec bd
       0.098681316 0.078261696 0.09626155 -0.11565046
0000b0 c9 9a 55 3d 96 a0 03 be f1 6c b2 bd 55 d6 4d 3d
       0.052149568 -0.12854227 -0.08712185 0.05025323
0000c0 0e 40 d4 3d ba bd 8b bd 65 37 e2 bd 91 d4 b1 bc
       0.1036378 -0.06823297 -0.11045722 -0.021707805
0000d0 13 d3 c9 bd 6d 01 e6 bd fc 51 23 3d aa 17 7f bc
       -0.09854712 -0.11230741 0.03987311 -0.015569607
0000e0 fc 6a 25 bd da dd 23 be 96 e3 d8 bd f3 1c 89 bd
       -0.04038523 -0.16002598 -0.105902836 -0.06694975
0000f0 fe 81 c6 bd 23 45 8b bd 87 6a 0d 3d db 2e 36 3c
       -0.09692763 -0.06800296 0.03452542 0.01111957
000100 52 f5 01 be 7e c1 1b 3e dc f1 62 3e 03 50 10 3e
       -0.12691239 0.1521053 0.22162575 0.14093022
000110 7e a9 49 3d ca ec 4d 3e ed b2 8c 3d fa e7 30 be
       0.049233906 0.20109859 0.06870065 -0.17275992
000120 5e 62 f6 3c 7d 21 27 be 78 e2 19 3e 80 56 8b bc
       0.030076202 -0.16321369 0.15027797 -0.01700902
000130 74 3b 95 3e a6 86 35 bd 5b 25 06 be 29 32 22 3d
       0.29146922 -0.044317864 -0.13100187 0.039598618
000140 0c 7f 1e 3c e1 1b 3f 3e 56 8c 19 3e 3f f5 89 3c
       0.009673845 0.18662979 0.1499494 0.016840575
000150 af 06 db 3d 28 e1 c4 bd 93 76 89 be 0a f9 67 3e
       0.10694634 -0.09613258 -0.26848277 0.22653595
000160 ee 38 70 bd 35 88 b0 bd 0f b2 66 be f9 cc 8f 3d
       -0.058648042 -0.086197294 -0.22528861 0.07021517
000170 c8 63 5c 3e ff 4d ea 3d ec 46 6a bc 2f 52 a3 be
       0.21522439 0.11440658 -0.014299136 -0.3189864
000180 9e c6 ac be af f3 f6 3a c3 1e 20 3e c4 bf 26 3e
       -0.33745283 0.0018840934 0.15636735 0.1628409
000190 7d 0f 82 3d 36 00 fb 3d f3 51 e7 3c 1f 41 2f bd
       0.063506104 0.122558996 0.028237319 -0.042786714
0001a0 88 f7 3f 3d e1 7b b6 bd 45 bb 56 3e 0a 39 ee 3d
       0.046866924 -0.08910347 0.20969875 0.11631973
0001b0 9b f0 43 be 16 ce 8e 3d a0 94 1b 3d 87 78 12 bd
       -0.19134752 0.069729015 0.037983537 -0.035759475
0001c0 a9 bd 95 3d 7e 8f cc bd b5 11 80 bd 6a 43 1d 3e
       0.073115654 -0.099883065 -0.06253377 0.15357748
0001d0 a8 c0 e8 bd 2e 13 7f be c7 99 8b bd 7b 4e 26 3e
       -0.11364871 -0.2490966 -0.0681644 0.16240875
0001e0 39 71 e8 bd da 20 dd bd 15 9d 26 bd 3f 8c d6 bd
       -0.113497205 -0.107972816 -0.04067715 -0.104759686
0001f0 67 01 0d be 29 9d ce 3d e7 f6 1b be 4a 70 f8 bd
       -0.13770066 0.1008857 -0.15230905 -0.121307924
000200 c6 42 27 3e c6 ea 8a be 42 85 03 bc 6c e1 6f bc
       0.16334066 -0.27132243 -0.008027377 -0.014641147
000210 3d 46 88 3c 18 ae 56 3e 94 89 46 3e b2 91 49 bd
       0.016635055 0.20964849 0.1938842 -0.04921121
000220 4f 0d 4c bd 60 0a 3a be bd bf 72 3d 18 96 50 bc
       -0.04981738 -0.1816802 0.059264887 -0.012731098
000230 23 ff 6c be 77 ca af 3d ad 2d 92 3d 70 ed 4c 3d
       -0.23144202 0.08583539 0.07137618 0.050031126
000240 a8 41 a7 bd 5a 6e 97 3e ff ca 52 bd b3 a0 91 bd
       -0.0816682 0.2957638 -0.051463123 -0.07110729
000250 48 d1 0c be ba 91 eb 3c 07 4f e8 3d 21 8f 96 be
       -0.1375171 0.028756011 0.11343198 -0.29406074
000260 74 e3 be bc 98 0a d3 bc cf 0b c3 bd 24 21 61 bd
       -0.023301817 -0.025761887 -0.09523737 -0.054963246
000270 3a 9e 03 3e d3 ca c0 3c 8e 49 ce 3c ae 41 a5 bc
       0.12853327 0.023534214 0.025181558 -0.02017292
000280 92 c0 c1 bb 5b 63 21 be 29 55 fb 3c a4 b4 9c bd
       -0.0059128487 -0.15760557 0.030680256 -0.07651642
000290 c8 fc 72 bd 1f 68 78 bd f1 16 fe bd c9 14 63 3d
       -0.059323102 -0.060646173 -0.124067195 0.055439744
0002a0 76 24 b1 bd 5c 44 70 3c 9c d2 16 3d 42 1c 5a be
       -0.086495325 0.014664736 0.036821947 -0.21299842
0002b0 ac 2f 1f bd 63 ee 8a 3d da ef 23 be 56 f8 4e bc
       -0.038863823 0.0678375 -0.16009465 -0.01263245
0002c0 15 58 38 3d 2d 9a 9d bd d8 e4 a7 3c 5d 2f 17 3e
       0.045005877 -0.07695422 0.020494863 0.14764161
0002d0 a0 b9 be 3d 51 23 3f bd 37 42 15 3e 5d 94 44 be
       0.09312749 -0.04666454 0.1457604 -0.19197221
0002e0 61 a0 87 3e f9 b2 62 3e 24 fc 6b 3b 7e 8d 29 be
       0.26489547 0.22138585 0.0036008442 -0.16557881
0002f0 4e 43 82 ba d0 80 da bd 5e b4 12 bd 17 54 8d 3d
       -0.0009938271 -0.106691 -0.035816543 0.069008045
000300 80 b4 45 bd a5 9a 4b be c8 ab 38 bd 21 0e 1c 3d
       -0.04826784 -0.19883211 -0.0450857 0.038099412
000310 6d 02 8d bd 2b 26 50 bb 23 1f 59 be 5e b8 0a be
       -0.06885228 -0.003176103 -0.21203284 -0.13546893
000320 00 e0 17 be da 93 e1 3a 3a 42 29 be 91 c7 01 3b
       -0.14831543 0.0017210201 -0.1652917 0.0019802789
000330 a4 91 dc 3d f1 da 8a bd d2 14 3f 3d dd fb 0d bd
       0.10769966 -0.06780041 0.046650715 -0.034664024
000340 a8 4e 1c bd d6 46 7b 3e 25 52 99 3d 83 b6 f0 bd
       -0.03816095 0.2453874 0.07486371 -0.11753561
000350 6a 02 58 3e a6 d6 0a be 3a 94 a5 3e a2 df 5e bd
       0.21094671 -0.13558444 0.3233965 -0.05441249
000360 b9 06 8c bc 56 be 26 bd 8b 1e 15 3d e8 b0 e7 bd
       -0.01709305 -0.040708862 0.03640608 -0.11313039
000370 40 e0 29 be 7a 21 87 3e 08 ce 1c be ed 7f 87 be
       -0.16589451 0.26392728 -0.1531297 -0.26464787
000380 44 77 4d 3e 85 01 09 be 8e af be 3c 20 26 43 bd
       0.20065027 -0.13379486 0.02327707 -0.04764378
000390 03 25 02 3e 10 71 47 3e 97 ce 9b bd 79 05 81 bd
       0.12709431 0.19476724 -0.07607763 -0.06299872
0003a0 b6 0e f4 3c 07 5d 31 3e b1 cc 3c 3e c0 02 f3 3d
       0.029792171 0.17320643 0.18437459 0.11865759
0003b0 c8 53 bf b8 0d b0 57 be 47 59 db 3b 27 bf 24 be
       -9.123195e-05 -0.21063252 0.0066939923 -0.16088544
0003c0 64 db d7 3c 2f bf 2d 3e 5f 7d 64 3c e8 5d 2b bd
       0.02634973 0.16967462 0.013945906 -0.041837603
0003d0 11 a9 e7 bc 5f cf d4 3d b0 2c 3a 3c 52 bd 17 3e
       -0.02827886 0.103911154 0.011363193 0.14818314
0003e0 77 29 90 be af ac f7 3c 39 90 88 be a6 de 35 bd
       -0.28156635 0.03023371 -0.26672533 -0.044401787
0003f0 52 f7 44 bc 25 eb 07 3e 14 24 2e 3e 06 ad fe bd
       -0.012021856 0.13273294 0.1700595 -0.12435345

encoder.net.2.bias f4 [60]
000000 26 8b 84 3d 0a 7f 42 3d ac 7f 5f bd 95 e5 94 bd
       0.06471853 0.047484435 -0.054565117 -0.07270352
000010 f0 6c 74 3d a7 06 6f 3d a5 c9 8a 3d 27 69 81 bd
       0.059674203 0.058355954 0.06776742 -0.06318884
000020 1b 77 f2 bc c8 89 93 3d 9c c9 f0 bc ba 01 d3 bd
       -0.02959781 0.07204014 -0.02939301 -0.10303064
000030 87 94 2d 3d 5e 99 55 bd 3a a2 1b bd a5 df ad bd
       0.042377975 -0.052148215 -0.03799651 -0.084899224
000040 fc 38 17 3d 34 7a 1c bd 16 ba fd 3c 3d 8a e1 bd
       0.03691958 -0.03820248 0.030972522 -0.11012695
000050 15 bb 91 3d 81 d9 85 3d 5c e5 80 3d 2d 8f 96 3d
       0.07115761 0.06535626 0.06293747 0.07351527
000060 63 11 b3 3b 7c 9a 3d bc 09 00 86 bd 14 ba 97 bc
       0.005464719 -0.0115724765 -0.065429755 -0.018521346
000070 47 7b 21 bd 5a 64 96 bc f7 32 22 bc 52 71 b4 bd
       -0.039424207 -0.018358398 -0.009899846 -0.08810677
000080 7a 11 65 3d fe 8a d7 bc c1 4f 84 bd 67 34 98 3d
       0.05592487 -0.026311394 -0.06460524 0.0743187
000090 d2 b1 8d 3d 97 ea ab bc cb 36 82 3d b6 9a db 39
       0.06918682 -0.020985885 0.06358107 0.00041886204
0000a0 8e 7e 69 3c f8 dc 55 bd d1 df 53 bd 88 ce 3f 3d
       0.014251364 -0.052212685 -0.05172712 0.046827823
0000b0 8f 9b 88 3d 47 4d 14 bd 52 42 a2 3d a6 de 49 bd
       0.066702954 -0.03620651 0.07922806 -0.0492846
0000c0 a7 d6 89 3c 57 cf 14 bd b5 c4 d7 bd d9 51 a6 3d
       0.016825987 -0.036330547 -0.10535566 0.0812108
0000d0 93 03 a0 3d 2d bf b0 3d a4 9f 94 3d 16 1f 81 bd
       0.07813182 0.08630214 0.072570115 -0.06304757
0000e0 55 ad 75 3d 92 12 71 3d 3d 7d 70 bd 33 0b 7c 3d
       0.059979755 0.0588556 -0.058713187 0.061534118

encoder.net.5.weight f4 [32, 60]
000000 bf 5d c5 bd 74 05 41 3d 6e 46 54 be 6a 7c d6 3d
       -0.09637021 0.04712434 -0.20729992 0.10472949
000010 26 81 29 3c 34 44 d2 3c a3 69 94 3e bb 09 fc bd
       0.010345733 0.025667287 0.28986844 -0.123065434
000020 9c 83 29 3e d7 1b a0 3c 28 25 a5 bd 23 f8 84 3e
       0.16554111 0.019544525 -0.080637276 0.25970563
000030 fc cf f1 3d 45 11 77 be 4b 34 fb 3c 46 7d b7 3d
       0.11807248 -0.24127682 0.030664584 0.08959441
000040 0b 56 12 3d 71 0b 33 3e 6b 86 92 3d c5 29 e6 bd
       0.03572659 0.17484833 0.071545444 -0.11238436
000050 c0 0a c5 bd 01 52 9f 3d 3f 3d a8 3d 25 52 30 bd
       -0.09621191 0.07779313 0.08214807 -0.04304709
000060 31 ea 24 be 4b 72 ce bd 70 ad 1d bd 01 66 1d 3e
       -0.16104962 -0.100803934 -0.03849548 0.15370943
000070 1e 7c 9b be 29 ff 8d 3d 0c 37 1f be 28 e7 45 3d
       -0.3036813 0.069334336 -0.15548342 0.04831615
000080 4e be 32 3d e2 e0 96 3e 4e 3d cd bc a8 3e c2 3d
       0.04363852 0.29468447 -0.025053646 0.09484607
000090 67 98 1e be cf 22 67 3e dc 43 a5 3e d2 e6 87 bd
       -0.15487824 0.22571872 0.32278335 -0.06635822
0000a0 d0 7e f6 bb 77 59 8a be a3 36 88 3e da 31 21 3e
       -0.0075224414 -0.2702138 0.26604185 0.15741673
0000b0 b8 c8 a3 be 91 5e 16 bd d8 ea 0a 3e 84 81 ad 3d
       -0.31989074 -0.03671128 0.13566148 0.08471969
0000c0 90 53 51 be 35 a0 ee 3d 79 40 41 bd d1 a1 ce 3d
       -0.20442033 0.11651651 -0.047180627 0.10089458
0000d0 5a 7c 80 bd cb 31 53 bc 02 65 83 be 6d d9 8b bb
       -0.06273718 -0.01289029 -0.25663 -0.0042678625
0000e0 60 1d a4 be d8 02 c3 bc 78 a9 ba bd 28 d5 cd 3b
       -0.3205366 -0.023805067 -0.09114355 0.0062815137
0000f0 9e 15 21 be 70 41 bc 3b ae 51 af bd dd 11 ad 3e
       -0.15730903 0.0057451054 -0.08560501 0.3380269
000100 85 2e ca bd 76 4f 31 bd bb fb 71 3d f5 e5 61 bd
       -0.09872154 -0.04328867 0.05907796 -0.055150945
000110 63 1e 85 3e e0 f8 5e be 11 c9 d5 bc 9a 5f c5 3d
       0.25999746 -0.21774626 -0.026096852 0.09637375
000120 27 7a 9a 3d 87 90 da bd 7b c4 75 bc bf d2 45 3e
       0.0754283 -0.10672098 -0.015000458 0.19318675
000130 ea a2 9a 3d b8 9a 48 bd af 26 b6 3d 43 98 52 be
       0.07550605 -0.048975676 0.08894097 -0.20565896
000140 48 5c 02 be ef 19 8d bd 5f 3d bc bd 1e 28 92 be
       -0.12730515 -0.06889712 -0.09191393 -0.28546232
000150 d7 fe 01 bd 60 4c 2e 3d 86 d6 62 3d 03 09 e8 bb
       -0.031737175 0.042553306 0.055380367 -0.0070811524
000160 ff 8f 08 3e 53 c4 4e 3b 02 38 9b 3d 3c 5c f1 bd
       0.1333618 0.0031550124 0.07579042 -0.117851704
000170 db 95 a8 3d af e9 c3 3c b2 cc 75 ba 53 02 4d bd
       0.08231708 0.02391514 -0.000937651 -0.050051045
000180 a9 11 83 be 20 5a d1 3d 78 b9 c1 3b 98 bc 2b 3e
       -0.2559941 0.10222268 0.005912002 0.16771162
000190 7d 4a 30 3c 9b 64 db bd 91 97 4f bc e0 3c 87 3b
       0.010759947 -0.10712548 -0.012670414 0.00412713
0001a0 84 05 65 3c b2 f7 a9 3c a4 3a c9 bd c8 1d a3 3d
       0.013978366 0.020747993 -0.09825638 0.07964665
0001b0 37 a1 24 3d a4 78 2d 3e 30 84 65 bd 14 db 06 3e
       0.04019281 0.16940552 -0.056034267 0.13169509
0001c0 5f fe 8a be e8 ad 23 be 7e 4d 9e bd 91 9f 9c 3d
       -0.27147195 -0.15984309 -0.07729624 0.076476224
0001d0 79 4f 86 be ff c0 0d 3e 18 31 70 3e 04 de 92 3c
       -0.26232508 0.13843153 0.23456228 0.01792813
0001e0 10 b5 66 3c b3 fb 0d be 5a c0 d3 be cc 58 14 be
       0.014081255 -0.13865547 -0.4135769 -0.14486998
0001f0 1e a4 16 3c 2d 2d fe 3d 9e 77 91 3d 79 08 07 be
       0.009194402 0.1241096 0.07102893 -0.13186826
000200 d9 0d 44 3e 95 2d a4 bd 7e ea f1 bc ca 7b 91 3d
       0.19145907 -0.080165066 -0.02953076 0.07103689
000210 92 6b 3b 3d 24 8c 37 bd 8a 91 5e be 14 b7 20 be
       0.045756884 -0.044811383 -0.21735206 -0.15694839
000220 38 01 5f 3e 0a e1 d6 bd aa e3 6b bd f9 05 13 3e
       0.21777809 -0.104921415 -0.057590164 0.14357747
000230 50 da ba bd 3e 2b 51 3d f9 6a 0c 3d 13 7b 89 bd
       -0.09123671 0.05106663 0.034281705 -0.06712928
000240 a4 59 1e be 39 ec d2 3d e5 f1 2a 3d 9e b1 88 3e
       -0.15463883 0.10298962 0.041734595 0.2669801
000250 1e 15 77 3e f6 48 02 3e d5 1d c0 3d cf 93 5f 3e
       0.2412915 0.12723145 0.0938069 0.21833728
000260 f5 c1 1c be 5f b2 e7 bc cd ae 12 be 53 2c a2 bd
       -0.15308364 -0.028283296 -0.14324494 -0.079186104
000270 38 66 b1 bb a2 cc 9f 3c d0 11 0b be 37 ee d9 bc
       -0.0054137968 0.019506756 -0.13581014 -0.026602848
000280 96 7d a2 bb be 77 ca 3d 3e 83 bb bd f7 51 d3 bd
       -0.0049588187 0.0988612 -0.09155892 -0.10318368
000290 bd e4 e8 bd f5 94 2d 3d 6c ff 79 bd c1 37 91 bd
       -0.11371753 0.042378385 -0.061034605 -0.07090712
0002a0 14 4d bf bd 7d 81 ad 3e c1 b4 3a 3e 97 80 3c be
       -0.09340873 0.33887854 0.18233015 -0.18408428
0002b0 ab 19 a3 3b 33 66 06 3e d2 65 91 3d d1 ed 46 bd
       0.004977425 0.13124923 0.07099499 -0.048566643
0002c0 7a 59 14 3e d6 48 a8 3d 84 97 14 3e 6d 94 aa 3d
       0.14487258 0.08217017 0.14510924 0.08329091
0002d0 1f 6e d4 3e ad 79 e1 3d 03 0b b7 bd c7 b1 89 3d
       0.41490266 0.11009536 -0.08937647 0.067233615
0002e0 28 d4 8b 3d 14 ab 0f 3d 56 53 d1 bc fc fa 05 3e
       0.06827575 0.035075262 -0.025552433 0.13084024
0002f0 6d c9 04 3e c2 91 ed bc 07 25 9d bc a1 d3 da 3d
       0.12967463 -0.029000167 -0.019182695 0.10684896
000300 4c 1c e4 3d b1 fb 4e 3e 41 20 da bd d4 9c ac bc
       0.1113821 0.202132 -0.10650683 -0.021070875
000310 45 94 1b bc d7 ab 2f 3e 44 09 b4 bd f8 57 82 3d
       -0.009495799 0.17155395 -0.0879083 0.06364435
000320 8a 13 0a 3e 34 7f 98 bd 89 dd 05 bd 4f 94 35 3e
       0.13484016 -0.07446137 -0.032681976 0.17732356
000330 8e 6c a3 3d 8f 62 1f be d6 34 83 3d 7a 59 c5 bd
       0.079796895 -0.15564941 0.06406562 -0.09636207
000340 0f 2a dc 3b f1 be 5b 3c 68 e6 c5 3a f8 13 a1 bd
       0.006718881 0.013412223 0.0015098574 -0.07865137
000350 d7 40 21 be 60 8f dd bd eb 2e ec bd f8 2b 83 be
       -0.1574739 -0.10818362 -0.115323864 -0.25619483
000360 e5 1a 88 3e 1e 90 f6 3c 4f dd 75 bd 2b 10 10 be
       0.2658302 0.030098017 -0.06002551 -0.14068668
000370 3e c8 29 be 6f 1e 2d 3d a7 d9 59 3e 72 53 15 3e
       -0.16580293 0.04226535 0.21274434 0.14582613
000380 f6 f6 d5 3d ac a9 8a bd 49 c3 e5 bd 36 1a 87 be
       0.10447495 -0.067706436 -0.11218888 -0.26387185
000390 40 f1 0b be 66 2d 8c bd 36 f2 37 bd 81 c6 21 3d
       -0.13666248 -0.068445966 -0.044908725 0.03949595
0003a0 f2 e0 5c 3c 98 e5 ab 3d 0d 91 03 3e 4f 48 b1 3e
       0.0134813655 0.08393401 0.12848301 0.3462548
0003b0 a3 a5 ae bd 10 bd 52 be 77 d9 db bd 7d 4e 06 3e
       -0.085276864 -0.20579934 -0.107348375 0.13115878
0003c0 6b d4 b8 bd 36 f0 8a be aa 90 04 bc 3d 37 d9 3c
       -0.090248905 -0.2713639 -0.008091131 0.026515597
0003d0 40 21 05 be 73 b7 07 be aa ed b6 3d ca d0 1a be
       -0.13000965 -0.13253574 0.089320496 -0.15118709
0003e0 6f eb f3 3e 21 72 1c 3e ae 26 76 bb 88 76 f1 3d
       0.4764056 0.15277912 -0.0037559676 0.11790186
0003f0 c9 50 af 3d 49 21 51 3e 9f 42 b6 3d 4c fd 99 3d
       0.085603304 0.20422854 0.08899426 0.07519016

encoder.net.5.bias f4 [32]
000000 12 a4 8d 3d 2d 64 9f bd 5e 4d 5e 3d 25 73 3a bd
       0.069160596 -0.07782779 0.054273 -0.045519967
000010 f5 c5 60 bb 9c d1 23 bd ea 88 f5 3d 45 0c 97 3c
       -0.003429768 -0.03999482 0.11989005 0.018438468
000020 5d 22 a0 bd c4 b1 8b bd 78 f1 c2 3d 32 b6 8d 3d
       -0.07819054 -0.068210155 0.09518713 0.069195166
000030 d4 f2 91 bd fd 55 a4 bd 08 4a 3a bd cb 2e 58 3d
       -0.07126394 -0.080242135 -0.045480758 0.052779
000040 7d 4e 6e 3d c5 b1 bc 3d 4b 28 d2 3d 03 a9 92 bd
       0.05818032 0.09213594 0.102615915 -0.07161143
000050 26 3d 9c 3d 68 12 8c bd 0a c3 05 be af 59 99 3d
       0.07628851 -0.06839448 -0.13062683 0.07487809
000060 28 ee af 3d 05 2c 43 bc b9 66 a6 bd c6 ea 8d 3d
       0.085903466 -0.011912351 -0.081250615 0.06929545
000070 5e c3 b3 bd 47 0d 91 3d d3 34 df 3c c5 28 a5 3d
       -0.08777498 0.070826106 0.027246868 0.08064417

predictor.net.1.weight f4 [32, 32]
000000 95 36 4f 3e 11 09 29 3e a5 4c 3f 3e 7a 87 c8 3d
       0.20235665 0.16507365 0.18681581 0.09791465
000010 cc 90 0e 3e 6d 47 3e 3e 33 ca bf 3b 75 10 2e bd
       0.13922423 0.18581934 0.0058529614 -0.042496163
000020 8f ba 11 3d 37 3f 92 3e c2 8f ec bd a7 5f 38 3e
       0.035578307 0.28563854 -0.11550857 0.18005238
000030 3a 62 18 bd 28 58 51 3c 58 17 56 bd b2 bc bb ba
       -0.03720305 0.012777366 -0.052268356 -0.0014323203
000040 81 80 66 bc 9d 38 55 3d db 07 5d bc 35 b9 09 3e
       -0.014068724 0.052055944 -0.013490642 0.13449557
000050 50 a5 19 be d0 c7 3a b7 7c dc 61 be 72 20 07 be
       -0.15004468 -1.1132986e-05 -0.22056764 -0.1319597
000060 e6 6d 52 3e a5 43 9f 3d 05 9b ab 3d 22 e2 1e 3c
       0.20549735 0.07776574 0.08379177 0.009697469
000070 c3 3d 90 3e 8a da 4b 3c f4 14 30 bd 46 c5 e5 bd
       0.2817212 0.0124422405 -0.042988732 -0.112192675
000080 80 cd 29 3d 41 1f 44 3e 55 56 5d 3e ec 4c 2c bc
       0.041455746 0.19152547 0.21614964 -0.0105163865
000090 b8 39 76 bc c5 b2 c5 bd 4a 62 2f 3e 13 38 85 be
       -0.01502841 -0.09653238 0.17127338 -0.26019344
0000a0 14 5a f3 3e 41 ab 0d be b8 a9 0b 3d 98 1a c9 3e
       0.47529662 -0.1383486 0.034097403 0.39278102
0000b0 f4 3a a3 3e f0 7f 2a 3d 57 b5 86 be 16 de 52 be
       0.31880915 0.041625917 -0.26310226 -0.20592532
0000c0 54 08 29 3e e2 3f 59 3e 59 7e 55 3e 18 30 90 3e
       0.16507083 0.21215776 0.20848979 0.28161693
0000d0 f0 b1 3f be 39 23 95 bd 03 99 fc 3d 5f dc ae bc
       -0.18720222 -0.07282109 0.12333872 -0.021345316
0000e0 87 e7 88 be 77 31 aa 3d d7 c3 e1 bd ec 36 1d 3e
       -0.2673914 0.08310216 -0.110236816 0.15352982
0000f0 2a f6 9d 3d 4a 85 26 be f8 cc fc bd c6 88 83 3d
       0.07712968 -0.16261783 -0.12343782 0.06422572
000100 4e c3 ba be 15 ba e9 bd 83 14 82 bd cd c3 91 3d
       -0.3647713 -0.114124455 -0.063515685 0.07117424
000110 a5 26 1d bd 5d 61 1a 3d 7f 7f 83 3d 0e 11 40 bd
       -0.038366932 0.03769051 0.06420802 -0.046891265
000120 5d 5d 9a 3c 66 a5 92 3e 68 1d 9b 3d bb e9 7b be
       0.018843347 0.28641814 0.07573968 -0.2460088
000130 07 d0 83 be 88 57 2a be eb c5 a5 be ed 53 83 3e
       -0.2574465 -0.16634953 -0.32377562 0.25649968
000140 38 7a b4 3c 0c e4 49 be de 5d d1 be e1 e2 1c 3d
       0.022030935 -0.19715899 -0.40891927 0.038302306
000150 5e b8 83 bc c3 08 22 3e 1f 84 d9 3d 5c 22 ff bd
       -0.016079124 0.15823655 0.10620903 -0.124577254
000160 75 ff c2 bd d0 c2 57 3e 63 90 c8 bc 33 22 d7 3d
       -0.09521381 0.21070409 -0.024482911 0.1050457
000170 60 19 5e be 89 55 c8 3d de 47 c7 bc 3e 74 15 bd
       -0.21689367 0.097819395 -0.024326261 -0.03648781
000180 64 07 b6 bd 69 f6 3e be dd a0 ea be 37 0b b8 bd
       -0.088881284 -0.18648686 -0.45825854 -0.08986514
000190 16 d8 04 bd bf 19 36 3e 6f 87 f2 be 98 1c b6 3e
       -0.032432638 0.17783259 -0.47368953 0.3556869
0001a0 d0 28 0e be cb 87 28 3e f1 09 11 be 11 0f c9 3d
       -0.13882756 0.16458051 -0.14163949 0.09817327
0001b0 2f 89 e4 3c c1 bc 75 3d 56 62 79 3d 59 09 70 3e
       0.027897445 0.059994463 0.060884796 0.23441066
0001c0 10 e9 36 be 10 ff 80 be e3 5a d8 be e9 08 b6 bd
       -0.17862344 -0.25194597 -0.4225684 -0.08888418
0001d0 eb bf ed bd 67 51 45 be f2 6b 1d 3e 26 de 26 be
       -0.11608871 -0.19269334 0.15373209 -0.1629568
0001e0 37 60 01 bd e4 48 18 be 1c c0 a5 bc 67 4f 29 be
       -0.0315859 -0.14871556 -0.020233206 -0.16534196
0001f0 c3 30 95 be d8 c5 bb bc 0a 27 27 3e d2 e3 32 bd
       -0.29138765 -0.022921488 0.16323486 -0.043674298
000200 b0 15 cb bd 73 f5 b9 3d 52 5f ab 3c 25 0a 92 3e
       -0.09916246 0.09080019 0.020919476 0.28523365
000210 ca 25 59 3e 29 be 1b be 9b 6b a2 3e 52 5f 04 bf
       0.21205822 -0.15209259 0.3172272 -0.5170795
000220 68 4d 7c bd d2 3a 22 be 73 3d dc 3b 1b ee 92 3e
       -0.061597258 -0.1584275 0.0067211925 0.28697285
000230 d2 38 08 be c3 4f 3b 3e f9 99 82 3d fa 30 dc 3d
       -0.13302925 0.18292145 0.06377024 0.10751529
000240 cf 99 e2 3e 3a 88 a3 3d fe d5 15 3e e4 d0 4b 3e
       0.44257972 0.079849675 0.14632413 0.19903904
000250 0d fd be bd fe 8c 2d 3e 2a fd 54 3e 67 a9 41 be
       -0.09325609 0.16948316 0.207997 -0.18912278
000260 d7 cf 10 bd 4a e9 6c 3e f3 9d c6 be 42 d2 4f 3e
       -0.03535446 0.23135868 -0.3879238 0.2029505
000270 e3 e4 da 3d f9 7c d4 bd 44 8a 76 3d 0b fd 92 bc
       0.10688188 -0.10375399 0.060190454 -0.017942926
000280 31 d6 dc bd 7a 4e 15 3e 24 a0 71 3e 77 09 54 be
       -0.10783041 0.14580718 0.23596245 -0.20706736
000290 63 aa 33 bd 88 a6 27 3e 5c 76 06 3b 50 b3 8d 3c
       -0.043863665 0.1637212 0.0020517325 0.017297417
0002a0 dc 0d 14 be 31 fb 84 bb ca 7a ba 3d 1c bf 52 be
       -0.14458412 -0.0040582647 0.091054514 -0.20580715
0002b0 47 c9 58 3e 60 c1 bc bd 94 73 42 3e c9 18 00 be
       0.21170531 -0.09216571 0.18989402 -0.12509455
0002c0 77 26 f9 bd 27 ad 3c 3e 5f 2e 08 3e b3 bf 5b be
       -0.1216554 0.18425427 0.13298939 -0.21459846
0002d0 61 6e 7a be e2 79 bf 3c 45 18 13 bd fc ba aa bd
       -0.24456169 0.023373548 -0.035911817 -0.08336446
0002e0 10 b2 a9 be 4c 58 ff bd 7b 00 16 bd 6d b4 4f 3c
       -0.33143663 -0.12468013 -0.036621552 0.012677294
0002f0 cf cd db bd 68 c6 e9 be d8 38 c0 3e 48 c7 8c bc
       -0.10732614 -0.45659184 0.37543368 -0.017184868
000300 66 b1 6d be 5a 7b 53 3e 97 32 8b 3d 96 4a 25 3d
       -0.23212203 0.20652524 0.067967586 0.040354334
000310 3f f9 21 bd 9b 50 ec 3d e3 3f a9 3c 3d 90 49 3e
       -0.03954434 0.11538812 0.020660346 0.19683929
000320 09 6d e4 3c d6 57 75 bc 7d cd 1d 3e 57 27 58 be
       0.027884023 -0.014974555 0.15410419 -0.21108757
000330 49 19 a1 bd 70 08 a8 3e 7f bb 71 3d d2 23 94 bc
       -0.07866151 0.32818937 0.0590167 -0.018083487
000340 90 14 23 be d5 0e 3d be 00 9d 2a 3e ec 30 81 3c
       -0.15925813 -0.18462689 0.16661453 0.015770398
000350 51 32 22 bc 1b a4 40 be 7b b7 94 3d ab c5 24 3e
       -0.009899692 -0.18812601 0.072615586 0.1609103
000360 c5 d4 de 3d fd 37 a2 be 41 d0 08 be 0f 74 74 be
       0.10880426 -0.3168334 -0.13360693 -0.23872398
000370 ac cf 62 3d f2 cf 5c bd af af 6c be 8b 65 ac bd
       0.055373833 -0.05390925 -0.23113893 -0.08417805
000380 c4 5e a3 3d 49 f3 ea bc 7b 18 ae 3d 4b bf 6c 3d
       0.079770595 -0.02868046 0.08500763 0.05779962
000390 8a af 00 3e 0f 1c 98 3c e8 4d 05 be 15 79 ec 3d
       0.12566963 0.018568067 -0.13018 0.11546532
0003a0 42 2a c3 3e ec 3d 10 3e 2d 58 53 3d a6 7f 2a be
       0.38118178 0.14086121 0.051597763 -0.16650257
0003b0 64 5e d6 3d 10 f8 07 3f d2 e6 da be 43 ea 25 bd
       0.10467222 0.5311289 -0.42754227 -0.040506613
0003c0 98 95 5b 3e d1 22 79 3c 53 5e 01 3e 8e d1 62 be
       0.21443784 0.015206055 0.12633638 -0.22150251
0003d0 5e f9 fb 3d c8 62 cf bd 73 85 6d 3a 20 3a bc be
       0.123034224 -0.10126263 0.0009060718 -0.36763096
0003e0 c8 aa b7 3d e4 99 d6 3d 3d 3e 85 bd e1 0f 55 3e
       0.08968121 0.10478571 -0.06506012 0.20806839
0003f0 7e 77 21 3e ab f7 dd bd 20 6a 5c 3e c0 81 b5 bd
       0.15768239 -0.108382545 0.21524858 -0.088626385

predictor.net.1.bias f4 [32]
000000 e0 42 db bd ea 99 c6 bd 96 41 db 3d c8 19 d8 bd
       -0.10706115 -0.096973255 0.10705869 -0.105517924
000010 09 ba b3 3d 56 bd ba bd b3 75 c4 bd 8d 9b ca 3d
       0.08775718 -0.09118144 -0.09592762 0.0989295
000020 34 cc d8 3d ee 58 b2 3d ff d3 15 be 4b 66 9a bd
       0.10585824 0.08708368 -0.14631651 -0.07539042
000030 6d fe c2 3d 29 fa e7 bd d1 76 cc 3d 52 85 e1 bd
       0.09521184 -0.11327011 0.099836 -0.11011757
000040 32 2c b0 3d ee d9 b8 3d 4b 11 c8 3d b0 db d2 3d
       0.086021796 0.09025942 0.09768923 0.10295808
000050 b5 b2 d1 3d 32 b3 b8 bd d3 d7 fb bd cd 51 cb bd
       0.10239164 -0.09018554 -0.122970246 -0.09927712
000060 5e 58 d5 bd dc e6 d5 3d 46 50 c2 bd f9 7a c9 bd
       -0.10417245 0.104444236 -0.09487967 -0.09837908
000070 2a 8d e6 3d 0b 64 db bd 61 5f d6 bd a4 33 ca bd
       0.11257394 -0.10712441 -0.10467411 -0.09873131

predictor.net.3.weight f4 [1, 32]
000000 ba 8a 87 be 31 15 b8 be e0 da b4 3e 51 b1 b7 be
       -0.26473027 -0.35953668 0.35323238 -0.3587747
000010 90 46 18 3d 28 b3 89 be d2 d2 cf be d2 4c 07 3d
       0.03717667 -0.26894498 -0.4059053 0.033032246
000020 b8 50 ba 3d 60 66 b3 3b 67 7f 40 bc 4e 24 bf bb
       0.09097427 0.0054748505 -0.011749125 -0.0058331853
000030 48 e2 64 3d 16 83 9f bd 0f a7 6c 3e 88 ff b2 bd
       0.05587986 -0.077886745 0.23110603 -0.08740145
000040 d8 4f 28 3f c3 6a 7d 3e d5 b8 3e 3d 8a 68 8f 3e
       0.6574683 0.24747758 0.04656299 0.28009444
000050 ef 9a 7b 3e 34 c6 ac 38 af f8 50 be c0 c5 8e be
       0.24570821 8.238517e-05 -0.20407365 -0.27885246
000060 0e d0 30 be 8b 87 96 3e 1f 6b 19 be 3c 6c a4 be
       -0.17266867 0.29400286 -0.1498227 -0.32113826
000070 f8 a5 71 3d 81 9f 23 be a1 69 c8 be 78 46 c7 bd
       0.05899617 -0.15978815 -0.39143088 -0.09730238

net.0.weight f4 [60, 35]
000000 3c 9c de 3d ee 0f b8 bc 22 74 23 3c 76 0e aa bd
       0.10869643 -0.022468533 0.009976419 -0.083035395
000010 e4 49 d7 bd 15 42 6f 3d e5 68 f0 bc c7 7a 0f 3e
       -0.105121404 0.05841263 -0.029346893 0.1401168
000020 89 4a 36 3e 7f f1 76 bd ea c0 a4 bc 85 ad 03 bd
       0.1780187 -0.060288902 -0.02011152 -0.032147903
000030 d6 e8 30 3e 09 81 ef bd 02 47 cb 3c f6 38 23 bd
       0.1727632 -0.116945334 0.024814133 -0.039849244
000040 f9 b2 ed bc d5 18 2e bd 39 d2 3a 3e 75 aa 41 3d
       -0.029016005 -0.04250415 0.18244256 0.0472817
000050 ff 23 bb 3d e9 a7 eb bd 37 6b 83 bd b9 18 45 3e
       0.09137725 -0.11506636 -0.06416934 0.19247712
000060 9d 9b 96 3d a1 b9 a4 3c 00 a2 94 be 38 51 1e 3e
       0.073539 0.020108046 -0.29029846 0.1546067
000070 a3 f0 c4 bd aa c1 01 bc af 77 cc bd 8b 8f bc bd
       -0.0961621 -0.007919708 -0.09983765 -0.09207066
000080 ed 31 4f 3e c0 94 e0 3d 7e 7a 21 3e 75 87 71 bd
       0.20233889 0.10965872 0.15769383 -0.058967073
000090 e3 7e 66 3e 67 83 a0 3c c2 cb 92 3c ad a5 26 3e
       0.22509341 0.019593908 0.017919425 0.16274138
0000a0 d4 46 0b 3e c8 71 84 bd 17 46 b7 bc d2 37 52 bd
       0.13601238 -0.064670146 -0.022372289 -0.051322766
0000b0 ab e8 c4 3c 80 7f 90 3e 12 84 b3 bb 64 38 bd 3d
       0.024036726 0.28222275 -0.0054783905 0.09239271
0000c0 b7 2a 7b 3e 71 e6 78 bb 82 d9 4a 3e c1 20 84 3d
       0.24528013 -0.003797915 0.19809535 0.0645156
0000d0 40 ec a3 3d 87 c8 ac bd 4b 15 48 bd c0 ef 08 be
       0.080040455 -0.08436685 -0.04884843 -0.13372707
0000e0 2a ed 91 bd 12 13 9a 3d 9b eb 56 3d 8e 1c 2f be
       -0.071253136 0.075231686 0.052470785 -0.17100736
0000f0 5c ea 2f 3a 8b f7 67 3e f6 70 84 bc 6d 17 2e 3e
       0.00067106425 0.22653024 -0.016167145 0.17001124
000100 16 4f d0 3a 44 40 4f 3e d3 06 8c 3e e6 a8 2f 3e
       0.001589271 0.20239359 0.27348956 0.17154273
000110 3d e6 66 3e 28 90 7b be d0 97 69 3e 50 e5 c4 3d
       0.22548766 -0.2456671 0.22811818 0.096140504
000120 8d 37 9c 3e b0 f4 12 bb dc d8 4e bd d3 25 aa bd
       0.30511132 -0.0022423677 -0.050499782 -0.08307996
000130 85 02 46 3e 89 76 8d 3c 8b 8c 3a be 7c 3d 10 be
       0.19336899 0.017268436 -0.18217675 -0.14085954
000140 ca 7c 1a 3d dd c5 cd bd fc a3 0e be e2 cd 78 bb
       0.037716664 -0.10047505 -0.13929743 -0.0037964513
000150 7b 3e 9d 3d fd 52 e1 bd da f7 d1 bd c7 0f ee 3d
       0.07677933 -0.11002157 -0.10252352 0.11624103
000160 ff 4c 94 be 50 09 05 3e a0 e4 85 3d c0 0d e7 3c
       -0.28964993 0.12991834 0.065377474 0.028204799
000170 de 86 db 3a c8 d6 7a 3e 22 f0 e7 3c 79 72 8c 3d
       0.0016748568 0.24495995 0.028312746 0.068577714
000180 fb b4 a3 3d 87 d0 02 be d4 3e 54 3c ad 2b e1 bd
       0.07993504 -0.1277486 0.0129544325 -0.109946586
000190 cf 14 19 bd b4 ca 27 be 0a fb a2 3e 9f db b3 3d
       -0.03737336 -0.16385919 0.31832153 0.08782124
0001a0 48 a1 c4 bc 0f 72 87 3e cf ff a1 bb 5f 23 e2 3c
       -0.024002686 0.26454207 -0.004943825 0.027604757
0001b0 97 d3 7c 3e 27 c4 24 3e 08 a8 cb bd 60 11 49 3e
       0.2469009 0.16090451 -0.09944159 0.19635534
0001c0 68 b3 52 3d ae 1b 22 3e a3 b9 a8 3d 2b 2b 0d 3d
       0.051440626 0.15830871 0.082385324 0.034464996
0001d0 06 51 39 bd 1c 21 f5 3c f8 ac 9e bd ed db 36 3e
       -0.045243286 0.029923014 -0.07747835 0.17857333
0001e0 50 5b 3a 3e f4 f6 72 3e 44 4a 41 3d b6 c0 79 bd
       0.18198895 0.23727018 0.047189966 -0.0609748
0001f0 fb db 42 3e 80 40 b6 3c 0e df 33 bd 9d 91 92 bc
       0.19029228 0.022247553 -0.043913893 -0.0178917
000200 2c 71 3d bc bb 05 bc bd 96 df 47 3e 8a 35 d0 bd
       -0.011562627 -0.091807805 0.19518885 -0.10166462
000210 bb 98 20 3c cc 79 22 be 1f c7 b4 bb 1b 54 5e bc
       0.009802039 -0.15866774 -0.005516901 -0.013569857
000220 2c be a7 bd 4d dc b4 bd 3f 69 df 3d f0 f8 16 3e
       -0.08190569 -0.088310815 0.10908746 0.147434
000230 0d 11 66 3e a0 8c 64 bd cd 7a 46 3c 85 0a 87 bd
       0.22467442 -0.055798173 0.012114239 -0.06593803
000240 b8 fe 74 3d 64 9b 25 bc be 6b e2 bd 22 d9 0b 3e
       0.05981323 -0.010107849 -0.110557064 0.13657048
000250 46 7a 82 3e 60 57 f4 bd cc c5 ec 3d 3d f8 9a bc
       0.25483912 -0.11930728 0.11561164 -0.018917197
000260 76 2d 53 bc db 07 3c be db a7 f0 bd bf dd 71 3d
       -0.012889257 -0.18362372 -0.11750766 0.059049364
000270 10 aa 63 3e b0 47 9c bd 8a 7f 41 3e e6 68 58 39
       0.22232842 -0.07630861 0.18896309 0.00020638443
000280 5b 5e f8 3c ce 62 ca bc 40 c7 62 3d 87 ad 66 bd
       0.03031843 -0.024705317 0.0553658 -0.056317832
000290 cb aa 38 be 6a bf 02 3e 53 a3 a4 3d 23 96 b5 bd
       -0.18033902 0.12768331 0.08038964 -0.08866527
0002a0 ca 12 ab 3d 50 d7 0c be 72 e2 25 be 47 84 ff bc
       0.08353193 -0.1375401 -0.16199663 -0.031191004
0002b0 c0 28 36 3e d4 03 cd be f5 bc a4 3e be 5f 09 3e
       0.17788982 -0.40041983 0.32175413 0.13415429
0002c0 1a df c8 bd 7d 83 35 bd 3f bb 1e be bd 3e 86 3e
       -0.09808178 -0.04431485 -0.15501116 0.2621974
0002d0 0a 2c 07 3d 87 e7 54 3b ce fb 2c bd 17 45 6b bd
       0.033000983 0.0032486634 -0.042232327 -0.057438936
0002e0 5f 60 cb 3d 6e 95 b4 bd b5 f7 2e be 6d 24 27 be
       0.09930491 -0.08817564 -0.1708668 -0.16322489
0002f0 8c d6 48 3e 49 39 e7 bd f8 67 24 3e a4 e6 c4 bd
       0.19613093 -0.11290223 0.16055286 -0.09614304
000300 b4 a6 94 bd 09 a6 b9 3d 84 7b e8 bc d5 25 8b bd
       -0.072583586 0.09064872 -0.02837921 -0.06794325
000310 25 b4 3e 3e db fd b8 bb 27 c3 15 be d9 76 b3 bd
       0.18623407 -0.0056454963 -0.14625226 -0.08762903
000320 3d 20 b1 3d 66 f4 ec 3e ec f7 51 bd 51 18 14 3e
       0.08648727 0.4628021 -0.051261827 0.14462401
000330 96 29 38 be 0e 78 27 be 87 e0 30 be ca c4 03 bd
       -0.17984614 -0.16354391 -0.1727315 -0.032170095
000340 2f 95 70 bc 69 5f 0a bd 1f ab a4 bd 55 a9 7f bc
       -0.014684006 -0.033782396 -0.08040451 -0.015604337
000350 24 64 0a be d7 35 ff bd e7 e1 51 3e 24 6a 8a 3e
       -0.13514763 -0.12461441 0.20496331 0.27034104
000360 5c d4 99 be f7 42 a9 bd f4 d4 12 b9 c6 51 14 3c
       -0.3004483 -0.08264726 -0.00014002976 0.009052699
000370 86 66 02 be 0e 34 7e bc 44 3d 5e bc ed da b9 bd
       -0.12734422 -0.0155153405 -0.013564412 -0.0907496
000380 f0 43 02 be c1 32 6c 3e a2 34 25 3e aa 11 17 3c
       -0.12721229 0.23066236 0.16133359 0.00922052
000390 4d 37 b5 bc 90 cc a9 bb 65 d7 5c 3e a7 61 8b bd
       -0.022121096 -0.0051818565 0.21566541 -0.06805735
0003a0 10 1d 53 bd 18 e0 1a 3c 78 d2 d0 bb 13 6c 97 bd
       -0.051541388 0.009452842 -0.006372746 -0.073936604
0003b0 ed 93 01 3e b6 7a 0f 3d 64 71 86 3d 85 29 2a be
       0.12654085 0.035029136 0.06564596 -0.16617401
0003c0 a3 a4 4b 3e 1d e3 e6 3e 5f c2 2a be 89 68 80 bb
       0.19887023 0.4509515 -0.16675709 -0.0039187116
0003d0 3d b4 f5 bd d8 b8 c7 3c 7c e2 90 bd 84 9c 11 3e
       -0.11997268 0.024380133 -0.070744485 0.14219862
0003e0 84 81 44 3e a3 e5 ba bd ee 27 a2 bb af 9d 8a bd
       0.19190031 -0.09125831 -0.0049486076 -0.06768357
0003f0 99 c5 b9 bd 7d 30 8f bd 0c 72 73 bd 7f e7 81 be
       -0.09070892 -0.0699167 -0.059434935 -0.2537193

net.0.bias f4 [60]
000000 df a9 a4 bd 1e 51 a1 3d 32 58 02 3e 7a 8f 25 bd
       -0.08040213 0.078768 0.12728956 -0.040420033
000010 96 99 7c 3d c9 17 e0 bd b7 1f 53 3d cc 18 23 be
       0.06166991 -0.10942037 0.051543918 -0.15927428
000020 8c e8 f1 bd 07 35 7c 3d 89 76 29 be 62 25 d0 3d
       -0.11811933 0.06157401 -0.16549124 0.1016338
000030 91 b6 ed bd 2d 74 d7 3b 68 7a 06 be bc ca 0a bc
       -0.116070874 0.0065751285 -0.13132632 -0.008471187
000040 f5 1f 03 be 85 75 b8 bd 16 2d 0a 3d 18 b2 13 bc
       -0.1280516 -0.0900679 0.033734404 -0.009014629
000050 a5 85 af bd c8 78 34 3d c0 dc 33 bd 52 94 7d 3d
       -0.085704125 0.0440605 -0.043911695 0.061909027
000060 4b 73 03 be b2 6d f3 bc fe ad e5 bc 30 e8 0e be
       -0.1283695 -0.029715393 -0.028037068 -0.1395576
000070 29 c4 db bc be f5 1f be 00 06 08 be b0 96 ea 3b
       -0.026826935 -0.15621087 -0.13283539 0.0071590766
000080 86 c5 c0 bd c4 81 0d bd 22 c0 e4 3d ab 0d ce 3d
       -0.094126746 -0.034547582 0.11169459 0.10061201
000090 9c 24 97 bd c5 3c d7 bd ab f9 d1 bd bc 00 f3 3d
       -0.073800296 -0.10509638 -0.102526985 0.118653744
0000a0 f6 88 8f bd df 2e 6e bd c6 0f 0e 3e d2 e4 25 bd
       -0.07008545 -0.05815017 0.13873205 -0.040501423
0000b0 ec 83 08 be c6 40 f4 3c 04 4b 04 3d 22 6d db bd
       -0.13331574 0.029816043 0.032298103 -0.10714175
0000c0 a4 a0 49 3d ba 8a 23 3e 78 05 4a bd 11 a6 ba bd
       0.049225464 0.15970889 -0.04932162 -0.09113706
0000d0 47 2d 65 3d 89 48 4d bc c7 70 01 be 34 a4 06 bd
       0.055951383 -0.012529501 -0.12640677 -0.03287144
0000e0 00 b0 19 be 7b a9 95 bd 0c 9f 03 be 61 2d 1f 3e
       -0.15008545 -0.073077165 -0.1285364 0.15544654

net.2.weight f4 [60, 60]
000000 19 a2 20 3e f5 98 08 3e ef 98 10 3e 59 12 3d 3e
       0.15686835 0.13339598 0.1412084 0.1846403
000010 88 e9 cb bd 7d 85 1e bd 3e 26 75 be 98 9b 20 3d
       -0.09956652 -0.038701523 -0.2394037 0.039210886
000020 7c 57 c8 bd ae f6 5f be 43 47 1a be b6 95 06 3e
       -0.09782311 -0.21871445 -0.15066247 0.13143048
000030 55 95 12 3d 77 49 07 be 46 d6 9f bd 2f e0 17 3d
       0.035786945 -0.13211618 -0.07804541 0.037079033
000040 04 d6 88 3d 58 40 27 be 8b 6d 08 3c ec a2 25 be
       0.06681445 -0.16333139 0.008326898 -0.16175431
000050 2f a4 de 3b fe e0 86 3d 6f fc 5b 3d 32 d6 e6 3d
       0.0067944746 0.065858826 0.053707536 0.11271323
000060 6d 49 aa bc 22 6b 4c bd 68 79 05 3e 55 fe 27 3d
       -0.020786965 -0.049906857 0.13034594 0.041014034
000070 96 3a 8c 3e b1 dc 9f be 62 1f 2c be 04 2c 50 3c
       0.27388448 -0.31223062 -0.16808847 0.012705807
000080 d9 32 3d 3d a2 32 9d bc 96 6d a0 bd 4c 3c 9c 3d
       0.04619107 -0.019189183 -0.07833402 0.07628688
000090 7e 27 82 bc 3d d9 c2 3d 95 9c 31 bd 4e 98 db 3b
       -0.015887972 0.09514091 -0.04336222 0.0067015057
0000a0 68 8b 6e 3e 56 7b 71 3d a0 d8 aa 3d e8 49 df 3d
       0.23295367 0.058955513 0.08342099 0.109027684
0000b0 84 85 11 be 1f a5 a1 ba 78 86 87 bc 29 55 05 bc
       -0.14211088 -0.0012332535 -0.016543612 -0.00813798
0000c0 2d 1d 7b bd 9c bc 57 3c fd b1 73 3d b5 49 88 3c
       -0.06130712 0.013167527 0.059495915 0.016636709
0000d0 b5 99 c0 3c c0 cb 7c 3d 1b 33 d3 bc bf 8c 2e 3c
       0.023510793 0.06171775 -0.025781205 0.010653674
0000e0 19 7d 1a 3e e1 13 8d bd ca 57 98 3e 2b 75 81 be
       0.15086783 -0.06888557 0.29754478 -0.25284705
0000f0 18 5c 20 3e 05 c1 8f bd e3 9d 5e 3c d8 2f 67 bd
       0.15660131 -0.070192374 0.013587448 -0.05644211
000100 b0 52 82 3e d0 da a8 bc e1 31 a6 3d 68 c1 3e be
       0.2545371 -0.02061215 0.081149824 -0.18628466
000110 4b b3 6f 3e c9 42 00 bf 93 ef 2d 3e 3b b1 43 3d
       0.23408239 -0.50101906 0.16985922 0.047776442
000120 ec 2b 94 bd 89 77 6a 3d d3 30 1f bd 59 cd 60 be
       -0.0723494 0.057242904 -0.03886492 -0.21953334
000130 4e 74 1b bd 92 e5 c0 bc 31 39 64 3d e4 55 55 be
       -0.037952714 -0.023546968 0.055718604 -0.20833546
000140 d7 3f 91 bd d5 15 1b be a5 a6 5a 3d f9 7b bd bd
       -0.070922546 -0.15145047 0.05338158 -0.092521615
000150 a1 a8 e2 bd ce 72 0f bc ae 61 87 3d 20 c4 46 3e
       -0.1106732 -0.008755399 0.06610428 0.19410753
000160 4f f2 4e be 54 68 17 3e d4 f1 70 3e 15 d9 a6 bd
       -0.20209621 0.14785892 0.2352975 -0.08146874
000170 08 6a 1c 3e d8 03 39 be b2 44 16 3b fe 5e d0 3d
       0.15274823 -0.18067873 0.002292913 0.10174368
000180 00 a1 04 3e 98 d5 0c 3c 8a 59 3b be e4 82 0e 3e
       0.12952042 0.008595847 -0.18295875 0.13917118
000190 49 29 52 3c fe d7 61 3e 82 52 ee 3c 1d 03 ac bb
       0.012827226 0.2205505 0.029092077 -0.0052493946
0001a0 ea 90 5e bd e8 f9 bd 3c c2 04 dc 3d d9 b2 f5 bd
       -0.05433742 0.023190454 0.10743095 -0.11997003
0001b0 71 0c 18 be b9 db a1 3e 2e df a9 3d dc 26 bd 3c
       -0.14848496 0.31612948 0.08294521 0.023089819
0001c0 41 3c 3d 3d 7b de 3c be 70 89 1d be 78 4b 1b be
       0.04620004 -0.18444245 -0.1538446 -0.15165508
0001d0 84 f7 85 3e ce 96 85 bd f1 0b 4f be 78 a2 42 bb
       0.26165402 -0.06522904 -0.20219399 -0.002969889
0001e0 fc f4 97 bd d7 9b 29 be bb 1d 85 3d bc 93 ab bd
       -0.07419774 -0.16563354 0.06499811 -0.083777875
0001f0 3d d8 8b be 8c 53 16 3e 9b 6d f5 3a a3 b8 d0 bd
       -0.27313414 0.14680308 0.0018724682 -0.10191467
000200 30 17 fe 3d 53 47 74 be 46 0d 08 be 6f a2 75 3b
       0.124067664 -0.23855333 -0.13286313 0.0037480851
000210 e0 d4 47 be e7 ad a4 3d 84 de 7d 3d 6a 42 29 3d
       -0.19514799 0.08040982 0.061979786 0.041323103
000220 4c f2 21 3e 52 ab d8 ba 76 fa 1a bd 67 f0 52 3e
       0.15815085 -0.001653055 -0.037836514 0.20599519
000230 38 29 a9 bd 15 d7 b7 3c 70 f1 c3 3d d0 40 56 3d
       -0.08259815 0.022441426 0.09567535 0.052307904
000240 a4 e7 03 be eb 76 e6 3c c4 bb 00 3d 0f fc 33 bd
       -0.12881333 0.028132876 0.031429067 -0.043941554
000250 ce 71 58 3d 63 ed b3 3d 0f 15 e5 bd ef d2 b5 3d
       0.052842908 0.08785512 -0.11185657 0.08878123
000260 39 b2 9c bd a1 5f 0e be 0c 6a 90 bd e2 ff d7 3d
       -0.07651181 -0.13903667 -0.07051477 0.10546853
000270 37 54 04 3d 6d cc 90 3d eb 53 a2 3d 3f 89 2c 3e
       0.032306876 0.07070241 0.07926162 0.1684923
000280 12 29 93 3c aa 79 ba 3d 05 77 00 bd 8f a7 7f 3e
       0.01796392 0.09105237 -0.031363506 0.24966262
000290 a8 ee 2e bd a7 c0 e6 bd 7d a1 b1 bd 6f ab e7 bd
       -0.04270807 -0.11267214 -0.086733796 -0.11311995
0002a0 0d 58 6a 3d b1 7a 18 3d cf 98 6e 3d ff 1b 9d 3d
       0.057212878 0.037226383 0.0582512 0.076713555
0002b0 c7 07 e4 3c f2 9c 9e be f8 cb 08 3e 23 f9 c6 3d
       0.02783574 -0.30979115 0.13359058 0.09715488
0002c0 0a 2c 98 3d 2e 10 0e bc bc de 7c bc 95 fc d3 3c
       0.07430275 -0.00867085 -0.015433963 0.025877276
0002d0 10 e7 15 3e d8 b3 3f 3d 9b 8f 19 3d 76 e4 1d be
       0.14638925 0.04680237 0.03749047 -0.15419182
0002e0 1e b1 0a be 90 c4 82 3d 38 3e 6d bd 1a f4 7c 3a
       -0.13544127 0.063851476 -0.057920665 0.0009649411
0002f0 4a a3 7e be c4 26 18 3d ed e6 df bd 84 3e bf 3d
       -0.24866977 0.037146345 -0.109327175 0.09338096
000300 c9 5e 61 3d 0a 6a 44 3e 76 c9 8f 3e 97 ea 64 bd
       0.055022035 0.19181076 0.2808339 -0.055887785
000310 b0 e9 37 bb c6 a1 dd 3c 2f 8a 1a 3e 71 bb 8e 3d
       -0.0028062873 0.027054679 0.15091775 0.06969345
000320 0c 93 c0 3d fa bf 5a 3e d6 6d b7 bc 65 38 9d bd
       0.09403047 0.21362296 -0.022391241 -0.07676772
000330 96 dc 0f bd 9e bf 1d be 5d 06 62 bd 5a 85 cf bc
       -0.035122477 -0.15405127 -0.05518185 -0.025332142
000340 53 77 2f 3e 48 3f 6e be 3c 73 5b 3e 9b 73 1d 3e
       0.17135362 -0.23266327 0.21430677 0.15376131
000350 3a 21 8f 3d 2b 8b f6 3d 2c 9a e9 3b 27 0e 15 be
       0.06988759 0.12038263 0.0071289744 -0.1455618
000360 05 6b db 3c ca 63 61 be 3c 12 64 3d 16 45 3b 3d
       0.02678443 -0.22010723 0.055681452 0.045720182
000370 23 47 da bc ce 0d 36 be 32 11 9f 3e 46 9b 69 be
       -0.026645249 -0.17778704 0.31067806 -0.22813138
000380 87 2a e0 3d 04 76 c9 3c 6e 12 f1 3d 29 6a 47 3d
       0.109456114 0.024592407 0.11771093 0.048685227
000390 56 b4 56 bc 93 21 bc bd a2 e5 36 bd cb 70 48 3e
       -0.013104519 -0.09186091 -0.04465259 0.19574277
0003a0 0e 40 65 bb 8c 14 fe bd 07 0b 69 3e fd 98 8a bc
       -0.0034980807 -0.12406263 0.22758113 -0.016918654
0003b0 2c e1 cb bc 2a ad 45 3d c2 cf 7c be 72 f2 61 3e
       -0.024887644 0.048260845 -0.24688628 0.22065142
0003c0 3e 8d 26 bd 6a 3c 46 be bd b8 d7 3d 79 3e 43 3e
       -0.040662043 -0.19358984 0.10533283 0.190668
0003d0 14 87 8c 3d c6 8f 64 3e 2b 65 85 be 33 c0 46 be
       0.068617016 0.2232047 -0.26053748 -0.19409256
0003e0 0f 66 0b 3e 7a 47 8c bd a8 30 6f 3c 5a c4 94 bd
       0.13613151 -0.068495706 0.014599003 -0.072640136
0003f0 54 1c 3e be d8 aa ab 3c 98 6d 8d bd 00 19 8f 3d
       -0.18565494 0.020955488 -0.06905669 0.0698719
