results analysis/processed results/PINN/NASA results/5-5/Experiment5/model.pth (torch, 59646 bytes, 14 tensors)

encoder.net.0.weight f4 [60, 17]
0	0xbe28da66	-0.16489562
1	0x3da3f535	0.08005754
2	0xbe2514f2	-0.16121271
3	0xbc2e7b35	-0.010649492
4	0x3cfe5206	0.031044971
5	0xbe47d323	-0.19514136
6	0xbe7b2720	-0.24526644
7	0xbdd021fb	-0.10162731
8	0xbe48ca2a	-0.1960837
9	0xbd661836	-0.056175433
10	0xbd15a229	-0.0365316
11	0xbe654078	-0.22387874
12	0x3da65b97	0.08122938
13	0xbe69bbb0	-0.22825503
14	0x3eb143bc	0.3462199
15	0x3dd41b26	0.10356741
16	0xbd4214cb	-0.04738311
17	0x3e07a1f6	0.13245377
18	0xbdb2ce52	-0.08730759
19	0xbd119898	-0.035545915
20	0x3e530ed9	0.20611133
21	0x3caf5e6b	0.021407327
22	0x3d1f1cbc	0.038845763
23	0x3d910775	0.070815004
24	0xbdd1894c	-0.102312654
25	0xbd087c5b	-0.03332172
26	0x3e293815	0.165253
27	0xbe90194e	-0.28144306
28	0xbcd105a0	-0.025515378
29	0x3e7cd83e	0.24691865
30	0xbdbbf10a	-0.09176834
31	0x3e28eddb	0.16496985
32	0xbd2ccdb6	-0.04218837
33	0xbdcf9ad8	-0.10136956
34	0xbd584ca8	-0.05280748
35	0x3e037361	0.12836982
36	0xbe8f0d59	-0.2793987
37	0xbd35004b	-0.044189733
38	0x3d38dd65	0.045133013
39	0x3bcd3390	0.0062622502
40	0xbd9d20cd	-0.07672272
41	0x3de25a27	0.110523514
42	0xbe978fd1	-0.2960191
43	0x3d2b8acf	0.041880425
44	0x3e281cd4	0.16417247
45	0xbe6ed9ec	-0.23325318
46	0xbd05f9a5	-0.032708783
47	0x3e36f22f	0.17865823
48	0x3d8dcf34	0.069242865
49	0xbe0474e2	-0.12935212
50	0xbc9924fb	-0.018694391
51	0x3d545d9b	0.05184708
52	0xbe518e31	-0.20464398
53	0xbe63d5ac	-0.22249478
54	0x3ea90885	0.33014312
55	0x3e708a52	0.23490265
56	0x3d5e649c	0.054295167
57	0xbdd65f99	-0.104674526
58	0x3d9ac40d	0.07556925
59	0xbd3b8585	-0.04578163
60	0xbea0eccc	-0.31430662
61	0x3db3a7ea	0.087722614
62	0xbdcda44c	-0.10041103
63	0x3cfc8ec4	0.030829795
64	0xbdde4a6f	-0.10854041
65	0x3dbe449f	0.09290432
66	0xbd8895a6	-0.06669168
67	0xbd95b59d	-0.073100306
68	0xbc97fe58	-0.018553898
69	0xbd17b0be	-0.03703379
70	0x3e7baa61	0.24576713
71	0xbd4b4f7d	-0.049636353
72	0xbe23e175	-0.16003974
73	0xbe9bbdcb	-0.30418238
74	0xbe166ca4	-0.1468988
75	0xbe465b58	-0.19370782
76	0x3d314da3	0.04328693
77	0xbe944e54	-0.2896601
78	0xbe4569a1	-0.19278575
79	0xbe360b16	-0.17777666
80	0xbdb9caec	-0.090719074
81	0xbe131546	-0.14363584
82	0x3e5db84d	0.21652336
83	0x3e32d9d1	0.17465903
84	0xbe2fa30f	-0.17152046
85	0x3d2f05e2	0.04273022
86	0x3dba9516	0.09110467
87	0x3dd5f3e4	0.10446909
88	0x3e80d1b9	0.25160006
89	0xbd94de86	-0.072690055
90	0x3decf991	0.115710385
91	0xbd525cbf	-0.05135798
92	0xbda06dfe	-0.07833479
93	0x3e632d34	0.22185212
94	0x3dec0a9a	0.115254596
95	0x3d1c3d74	0.038144544
96	0x3eb708a5	0.35748783
97	0x3e50ab3d	0.20377822
98	0xbe21b8f7	-0.15793215
99	0xbe668e83	-0.22515301
100	0x3e345726	0.1761137
101	0xbc7fbd18	-0.015609048
102	0x3df6a23b	0.12042662
103	0xbd00c7e4	-0.03144063
104	0xbe8d115f	-0.27552316
105	0x3ca17354	0.019708313
106	0x3ec65f00	0.38744354
107	0x3dcedfbe	0.10101269
108	0x3d2a5b48	0.04159096
109	0xbca7a5c5	-0.020464787
110	0xbe5c14af	-0.21492265
111	0xbe2ed62c	-0.17073888
112	0x3c205405	0.009785657
113	0x3d03693e	0.03208279
114	0xbd581511	-0.052754465
115	0x3ca461b2	0.020066116
116	0x3db8dd87	0.09026628
117	0xbdd1c136	-0.1024193
118	0xbe04a5a7	-0.12953816
119	0xbbbd733d	-0.0057815597
120	0xbe268a6e	-0.16263744
121	0xbe65a13d	-0.22424789
122	0xbe61411b	-0.21997492
123	0xbdc05080	-0.09390354
124	0xbe219487	-0.15779315
125	0xbde71cb4	-0.112847716
126	0xbe291fee	-0.16516086
127	0xbd4fdb21	-0.050746087
128	0x3ea33f49	0.3188422
129	0x3e0d9f6f	0.1383035
130	0xbda5b9e2	-0.08092095
131	0xbe2cd873	-0.16879444
132	0xbd384717	-0.04498967
133	0x3e104a05	0.14090736
134	0xbc904cd8	-0.017614767
135	0xbe20f1d1	-0.15717246
136	0xbe159c51	-0.14610411
137	0x3e338fba	0.17535296
138	0x3df7618a	0.12079151
139	0x3dcf48dc	0.10121319
140	0x3e0f1f75	0.13976844
141	0xbde853dc	-0.1134412
142	0x3ea3e5a3	0.32011136
143	0x3e32c5e8	0.17458308
144	0xbe87f1df	-0.2655172
145	0x3da0e643	0.07856419
146	0x3e561650	0.20906949
147	0x3eaecfc3	0.34142885
148	0x3d14ff20	0.03637612
149	0xbe16a64c	-0.14711875
150	0x3df90104	0.12158397
151	0xbeacdd44	-0.33762562
152	0xbde30d7e	-0.11086558
153	0xbde56169	-0.1120022
154	0x3df33494	0.11875263
155	0x3d62d557	0.055379238
156	0xbdc0c003	-0.09411623
157	0x3e0763bd	0.13221641
158	0x3cdf4263	0.027253335
159	0xbce141e2	-0.027497236
160	0xbe449232	-0.19196394
161	0xbe85d598	-0.26139522
162	0xbe5bb8db	-0.21457236
163	0xbd7b4da3	-0.061353337
164	0xbd4a7d47	-0.04943588
165	0xbdc7f024	-0.097626
166	0xbe3bcd18	-0.18339956
167	0x3db2fddb	0.08739825
168	0xbdcb578c	-0.099288076
169	0x3e81fe81	0.25389484
170	0x3e407e95	0.18798287
171	0xbe35d715	-0.17757829
172	0xbe27f91b	-0.1640362
173	0xbadb9396	-0.0016752358
174	0x3e954674	0.29155314
175	0x3d53b0a2	0.051682122
176	0x3e3b4bb8	0.18290603
177	0xbe441c9d	-0.1915154
178	0x3e8bf67e	0.27336496
179	0x3d27086f	0.040779527
180	0x3c9748a0	0.018467247
181	0xbda313eb	-0.079627834
182	0x3c7be41b	0.015374209
183	0xbc8ecd1b	-0.017431786
184	0x3d88119e	0.06643985
185	0xbe8348b8	-0.25641418
186	0xbdc48361	-0.09595371
187	0xbd27e72e	-0.040991955
188	0x3df16e93	0.117886685
189	0x3e7de6f2	0.2479513
190	0x3d99f8ea	0.0751818
191	0xbe183667	-0.14864503
192	0xbe4a198a	-0.19736305
193	0x3ca1cb03	0.019750124
194	0x3e732def	0.23747991
195	0x3d345064	0.04402198
196	0x3c403baf	0.01173298
197	0x3d9226df	0.0713632
198	0xbd9b368e	-0.07578765
199	0x3e054b97	0.13017116
200	0x3d3f9e6a	0.046781935
201	0xbe880744	-0.26568043
202	0x3e6002cd	0.21876068
203	0x3bbec7b8	0.005822148
204	0x3dc75563	0.09733083
205	0xbe3fc525	-0.18727548
206	0x3e9b25e5	0.3030235
207	0xbe3378ca	-0.17526546
208	0xbed09613	-0.40739498
209	0x3d90f099	0.0707714
210	0xbe8246dd	-0.2544469
211	0xbe0e4af5	-0.13895781
212	0xbaa2a8ec	-0.0012409962
213	0xbf22a788	-0.6353688
214	0x3e8877e9	0.26653984
215	0x3e86fc69	0.2636445
216	0x3e6b4b8b	0.22978036
217	0xbdcee7af	-0.10102784
218	0xbdc97179	-0.09836096
219	0x3cb930be	0.02260625
220	0xbd8a97b6	-0.06767218
221	0x3e8131f9	0.2523344
222	0xbde451da	-0.111484244
223	0x3d9c36cc	0.07627639
224	0xbb9aaab2	-0.0047200555
225	0xbd4c8272	-0.04992909
226	0xbe23efcc	-0.16009444
227	0x3da5b133	0.08090439
228	0x3f049b95	0.517999
229	0x3cdfcbf7	0.027318938
230	0xbe071768	-0.13192523
231	0xbde7193b	-0.11284109
232	0x3d12335a	0.035693504
233	0x3dc6683d	0.096878506
234	0xbba7a353	-0.0051159053
235	0xbc28a096	-0.010292193
236	0x3da45c0e	0.080253705
237	0xbe41064b	-0.18850057
238	0xbd63bffc	-0.055603012
239	0x3e8eb472	0.27872044
240	0xbd743916	-0.059624754
241	0xbdd8c00c	-0.10583505
242	0x3c8d0fa0	0.017219365
243	0xbd29fa21	-0.041498307
244	0x3dfefcff	0.12450599
245	0xbdf130e2	-0.11776902
246	0xbe84be6f	-0.2592654
247	0xbdf7f865	-0.12107924
248	0x3e08852f	0.13332056
249	0xbd8cf46f	-0.068825595
250	0xbe90a7e1	-0.2825308
251	0x3dffa9a6	0.1248353
252	0x3dc421f7	0.09576791
253	0xbe0be3fb	-0.13661186
254	0x3dd17da6	0.10229044
255	0xbddc3d8e	-0.10753928

encoder.net.0.bias f4 [60]
0	0x3da4d97e	0.08049296
1	0x3dacc714	0.08436409
2	0x3d3b3f42	0.045714624
3	0xbd836950	-0.06416571
4	0x3d7feaf4	0.062479928
5	0xbc874727	-0.01651342
6	0x3db640f9	0.08899111
7	0x3d0435c0	0.032277822
8	0x3da3abdc	0.07991764
9	0x3d8090b7	0.06277602
10	0x3dbdcfaa	0.092681244
11	0xbdb3ad12	-0.08773245
12	0x3d5ff937	0.05468103
13	0x3d906927	0.07051306
14	0xbd787c99	-0.0606657
15	0xbcb2ae1c	-0.021811537
16	0x3d835c51	0.06414092
17	0xbd4a7cc8	-0.049435407
18	0x3d7d0b60	0.061778426
19	0x3d9c9c12	0.076469555
20	0x3d3b19fc	0.045679078
21	0x3d360720	0.04444039
22	0x3d8eb8cf	0.06968843
23	0xbd65222a	-0.055940785
24	0x3d2264e6	0.039647005
25	0x3d94447d	0.072396256
26	0x3d8110e7	0.06302052
27	0x3dc5640b	0.09638222
28	0x3d7a2374	0.061068967
29	0x3bdd43e8	0.00675248
30	0x3d97c2e9	0.07410223
31	0xbd2dd357	-0.042437878
32	0x3d6d2dc1	0.057904962
33	0xbde30e6b	-0.110867344
34	0xbd989a57	-0.07451313
35	0xbd119103	-0.035538685
36	0xbd140d4b	-0.03614549
37	0x3d88335f	0.06650423
38	0xbd88b72c	-0.06675562
39	0xbc3b9010	-0.011447921
40	0xbd6e589d	-0.058189977
41	0xbd55dce9	-0.05221263
42	0x3c90aa99	0.017659472
43	0xbda8108e	-0.082062826
44	0xbd53f749	-0.0517495
45	0x3d5f188f	0.05446678
46	0xbcc881d9	-0.024475979
47	0x3c1a283c	0.009409007
48	0x3d8db318	0.06918925
49	0x3d82e824	0.063919336
50	0x3d5efc6d	0.05443995
51	0x3d94f2cf	0.072728746
52	0x3de2b155	0.1106898
53	0x3d9cfaf5	0.07665054
54	0xbd8c8d30	-0.06862867
55	0xbdc9b77b	-0.09849449
56	0xbdcb2669	-0.099194355
57	0xbdefb30f	-0.117040746
58	0x3d846238	0.06464046
59	0xbd8f5ee0	-0.07000518

encoder.net.2.weight f4 [60, 60]
0	0x3bd4c6c8	0.006493423
1	0xbde31206	-0.11087422
2	0x3d4a02b1	0.049318973
3	0xbd7459de	-0.059656017
4	0x3d2eaec7	0.04264715
5	0x3ca4a4ce	0.020098116
6	0x3d835f5d	0.064146735
7	0x3cfb8144	0.030701287
8	0x3d2de6d0	0.042456448
9	0xbcb0a0f4	-0.021561123
10	0xbb944b39	-0.004525569
11	0xbd251bce	-0.04030972
12	0x3d4dd0b5	0.050247867
13	0xbd90efdb	-0.07076999
14	0xbe3b9ee2	-0.18322328
15	0x3e10167b	0.14071076
16	0xbe004be4	-0.1252895
17	0xbe1ad45d	-0.15120073
18	0xbd492009	-0.049102817
19	0xbe1edd1d	-0.15514036
20	0x3e06527a	0.131174
21	0x3d31766d	0.04332583
22	0xbe4133da	-0.18867436
23	0x3dd5fadd	0.10448239
24	0x3dc72265	0.09723357
25	0xbd3adf5e	-0.045623176
26	0x3dd2fcf1	0.10302151
27	0x3d699fe6	0.057037257
28	0x3d124fa4	0.035720482
29	0xbded3818	-0.11582965
30	0xbbd95aaf	-0.006633125
31	0x3d5f8d57	0.05457815
32	0xbd20d6a7	-0.03926721
33	0xbd558a9d	-0.052134145
34	0x3e5b6add	0.21427484
35	0xbdec5d82	-0.11541273
36	0x3e36f6d7	0.178676
37	0xbd5daae4	-0.054118052
38	0x3e663a43	0.22483163
39	0x3e5933cd	0.21211167
40	0xbe0f1691	-0.13973452
41	0xbceb5583	-0.028727299
42	0xbd9934ec	-0.07480797
43	0x3d3971cd	0.045274545
44	0xbc637b50	-0.01388438
45	0x3deca80f	0.11555492
46	0x3ddf0717	0.10890024
47	0x3c1d764b	0.009610723
48	0xbdc96a60	-0.098347425
49	0x3e426744	0.18984705
50	0xbd85b9d4	-0.065295845
51	0x3c581307	0.01318813
52	0x3db07a1a	0.08617039
53	0xbd8f81ec	-0.070072025
54	0xbe028bf2	-0.12748697
55	0xbd3fb619	-0.04680452
56	0x3e2018e8	0.15634501
57	0x3cdb9f28	0.02680929
58	0xbe1d7348	-0.15376008
59	0x3d97d74b	0.07414111
60	0x3e368829	0.17825378
61	0xbda75d81	-0.08172131
62	0x3d059212	0.032610007
63	0x3df556f9	0.11979479
64	0x3e2bfb85	0.16795166
65	0x3d868f0a	0.06570251
66	0x3d47e8f5	0.04880615
67	0xbda5371a	-0.080671504
68	0xbdac4c74	-0.0841302
69	0xbd79bcb4	-0.060970977
70	0x3e0eb9c1	0.13938047
71	0xbe5a2798	-0.21304166
72	0xbe39e448	-0.18153489
73	0x3e62ff13	0.22167616
74	0x3da4e4ae	0.0805143
75	0x3ba7b7fb	0.0051183677
76	0xbd384040	-0.04498315
77	0xbdcda9ea	-0.10042174
78	0x3e236e87	0.15960132
79	0x3dc83f0c	0.0977765
80	0xbe0498cb	-0.12948911
81	0xbe0e28f8	-0.13882816
82	0xbd76d160	-0.06025827
83	0x3d69b16b	0.057053965
84	0xbd2f9638	-0.04286787
85	0xbdd31672	-0.103070155
86	0xbd995860	-0.07487559
87	0x3de6539c	0.11246416
88	0xbe7b5fe8	-0.24548304
89	0xbe26a8b0	-0.16275287
90	0x3b877ab3	0.0041345
91	0x3d39d466	0.045368575
92	0x3c4b83ad	0.012421531
93	0x3c004397	0.007828615
94	0x3c0500af	0.008117839
95	0xbe185768	-0.14877093
96	0xbccf7963	-0.025326436
97	0x3dde4dca	0.10854681
98	0x3e14d79a	0.1453537
99	0xbdd1041f	-0.10205864
100	0xb991e2cd	-0.00027825535
101	0xbbd60bb5	-0.0065321573
102	0x3d769cee	0.060208254
103	0xbdd7d360	-0.105383635
104	0xbd590094	-0.052979067
105	0x3d21091a	0.03931532
106	0x3eaba94f	0.3352761
107	0x3e717829	0.23580994
108	0x3e38c810	0.18045068
109	0xbe7a53cf	-0.24446033
110	0x3d48ba58	0.049005836
111	0x3d87763c	0.06614348
112	0xbc972474	-0.01845
113	0xbda48282	-0.08032705
114	0x3ccd5a5c	0.0250675
115	0xbe38d916	-0.18051562
116	0x3d97fccc	0.07421264
117	0x3e4cf650	0.20015836
118	0xbde2f12d	-0.11081157
119	0x3e08d415	0.13362153
120	0x3ddc3b9c	0.10753557
121	0xbcc74da3	-0.024329012
122	0x3e02ae92	0.12761906
123	0xbb3f5220	-0.0029193237
124	0x3c8438c4	0.01614035
125	0xbd5197a6	-0.051170014
126	0x3e2f3d4b	0.17113225
127	0x3d8d0d46	0.06887297
128	0x3e1bb6ab	0.15206401
129	0xbe30ea15	-0.17276795
130	0xbd156e22	-0.036481984
131	0x3dd27e11	0.102779515
132	0x3e41b09d	0.18915029
133	0xbe2fa61e	-0.17153212
134	0xbe884d26	-0.2662136
135	0xbd37db93	-0.044887137
136	0x3e3ad4e7	0.18245278
137	0x3d5271f9	0.051378224
138	0x3e7ce867	0.2469803
139	0xbd8ce371	-0.068793185
140	0x3e796768	0.24355853
141	0x3dba09d3	0.09083905
142	0x3df94195	0.12170712
143	0xbb35071a	-0.002762264
144	0x3e84bec4	0.25926793
145	0x3c957ab6	0.01824699
146	0x3c547a1a	0.012968564
147	0x3e180bb6	0.14848217
148	0xbcaf1032	-0.021370027
149	0xbe01393a	-0.12619486
150	0x3bd232f8	0.0064147674
151	0xbdadb35a	-0.08481474
152	0xbd2ccd24	-0.042187825
153	0xbe5e0201	-0.21680452
154	0x3da8eaf5	0.082479395
155	0xbe36c085	-0.17846878
156	0xbdb121cd	-0.08649025
157	0x3e1e5f1b	0.15465967
158	0xbcb98b65	-0.022649476
159	0xbcc38a9e	-0.023869809
160	0xbe07b781	-0.13253595
161	0xbdadf378	-0.084937036
162	0xbcf79cd3	-0.030226147
163	0x3e4d593a	0.20053568
164	0x3e094396	0.13404688
165	0xbe583152	-0.21112564
166	0x3d7581df	0.059938308
167	0x3c839bfc	0.01606559
168	0xbe13e23f	-0.14441775
169	0xbe17ceda	-0.14825001
170	0xbd3db7c5	-0.046317834
171	0xbc3e9b05	-0.011633639
172	0xbdbd35bc	-0.09238765
173	0x3e7b05c3	0.24513917
174	0x3d9c0286	0.07617669
175	0x3e382c45	0.17985637
176	0x3d089680	0.033346653
177	0xbcc10d27	-0.023565842
178	0x3d11e4f0	0.035618722
179	0x3d9acd7f	0.075587265
180	0xbd5758a3	-0.052574765
181	0x3e85c1e6	0.26124495
182	0xb9b5ed3a	-0.00034699758
183	0xbced3158	-0.028954193
184	0x3d1f1a25	0.038843293
185	0xbb21fb05	-0.002471627
186	0xbd8de2c5	-0.069280185
187	0x3e0535ad	0.13008757
188	0xbc93e5b1	-0.018053861
189	0x3e84ed52	0.2596231
190	0xbd3a48ad	-0.045479465
191	0xbcf5793e	-0.02996504
192	0x3e03a3e6	0.12855491
193	0xbd452940	-0.048135042
194	0x3dbe73ce	0.09299432
195	0x3cbe775f	0.02325028
196	0x3e1dbc13	0.15403776
197	0x3c20c267	0.009811974
198	0x3daa0cda	0.083032325
199	0xbdb01fb3	-0.08599796
200	0xbdf864f3	-0.121286295
201	0x3df66803	0.120315574
202	0xbd4994a0	-0.049214005
203	0xbea27bfe	-0.31735224
204	0xbd9066be	-0.070508465
205	0x3e022f9c	0.12713474
206	0x3bf47eea	0.0074614184
207	0xbe0f4c63	-0.13993983
208	0xbe1f284d	-0.15542717
209	0xbd154658	-0.03644404
210	0x3e1ded2f	0.1542251
211	0x3cad0519	0.021120595
212	0xbd09aba9	-0.033610974
213	0xbdc20277	-0.094731264
214	0x3d1d79d8	0.038446277
215	0x3e5b2590	0.21401048
216	0xbd9e4565	-0.0772808
217	0x3e0adc74	0.13560659
218	0xbdd302cf	-0.1030327
219	0xbcb8f061	-0.02257556
220	0x3d18c363	0.03729571
221	0xbdffb5f1	-0.124858744
222	0xbdf28dfb	-0.11843487
223	0xbe08531b	-0.13312952
224	0xbd4fe174	-0.05075212
225	0x3dbb292d	0.09138713
226	0xbde2c180	-0.110720634
227	0x3b061299	0.0020457862
228	0x3caf7143	0.021416312
229	0xbe605f66	-0.21911392
230	0x3cdebbac	0.027189098
231	0x3d9afc71	0.075676806
232	0x3e21da3d	0.15805908
233	0x3d05eb57	0.03269514
234	0xbe559bfe	-0.20860288
235	0xbe157463	-0.1459518
236	0x3ddd2820	0.10798669
237	0xbbd67bac	-0.0065455046
238	0xbbf1bda1	-0.007377342
239	0x3e1511dd	0.14557596
240	0xbe910580	-0.2832451
241	0x3d64e121	0.055878762
242	0x3e71b2aa	0.23603311
243	0x3d56c8a1	0.05243743
244	0xbe1c8f1a	-0.15288964
245	0x3cac13ce	0.021005537
246	0xbd3d3935	-0.046197135
247	0x3d5ebc00	0.05437851
248	0xbe24deaa	-0.16100565
249	0xbd1d9a7d	-0.03847741
250	0x3bf4b970	0.007468395
251	0x3d54a08e	0.05191093
252	0xbdce7bc8	-0.10082203
253	0x3df61140	0.12015009
254	0x3d837053	0.064179085
255	0x3ddb2658	0.10700673

encoder.net.2.bias f4 [60]
0	0xbda5dd2b	-0.08098825
1	0x3da21332	0.079138175
2	0x3d861d7b	0.06548592
3	0xbcdd4e6f	-0.02701494
4	0x3d54f14a	0.051987924
5	0xbdadf597	-0.08494108
6	0x3da9c158	0.082888305
7	0xbd847127	-0.064668946
8	0xbd63f931	-0.05565757
9	0x3da1bba1	0.078971155
10	0x3c9f049a	0.019411374
11	0xbd9546da	-0.072889045
12	0xbd8e2c57	-0.06942051
13	0xbdb3f589	-0.087870665
14	0xbda5e2a8	-0.08099872
15	0x3d83c977	0.06434911
16	0xbba6d5ab	-0.005091389
17	0xbcdd6c90	-0.027029306
18	0xbcd5e0ac	-0.026108108
19	0x3d7ed24c	0.062212273
20	0xbd6013f7	-0.05470654
21	0x3cf9128a	0.030404348
22	0x3d9bebe3	0.07613351
23	0xbd5a73a5	-0.053332943
24	0xbd8e5dd6	-0.069514915
25	0x3d6fed4a	0.058575906
26	0xbc2409b0	-0.010012075
27	0xbc89587c	-0.016765825
28	0xbd74ae69	-0.059736643
29	0x3db202e0	0.086919546
30	0x3d35a7ac	0.044349357
31	0xbce02602	-0.027361874
32	0x3ddee5b2	0.10883655
33	0x3d8f2657	0.069897346
34	0x3d6cb1f0	0.057786882
35	0x3d91fda7	0.071284585
36	0xbda02985	-0.07820419
37	0x3d531708	0.051535636
38	0xbd747acc	-0.05968742
39	0xbdc9a58b	-0.09846028
40	0xbd0181c2	-0.031617887
41	0xbd9ebc05	-0.07750706
42	0xbd884eaa	-0.06655629
43	0x3da02893	0.07820239
44	0xbd75f7da	-0.060050823
45	0x3d917123	0.07101657
46	0xbd8055fa	-0.06266399
47	0xbd40c525	-0.04706301
48	0x3d8a2c19	0.06746692
49	0x3d848e0c	0.06472406
50	0x3d6ec86b	0.058296602
51	0x3d2b7ddd	0.04186808
52	0xbd43b012	-0.047775336
53	0xbd78020a	-0.06054882
54	0xbda03754	-0.07823053
55	0x3da5675f	0.08076357
56	0x3d5a048f	0.053227004
57	0xbdb556eb	-0.08854469
58	0xbd8dd517	-0.06925409
59	0x3d5c9eac	0.05386226

encoder.net.5.weight f4 [32, 60]
0	0x3dd822db	0.10553523
1	0x3e2b32b6	0.16718563
2	0x3df189f8	0.117938936
3	0x3b1189d0	0.0022207387
4	0xbe361c59	-0.17784251
5	0xbcdf0ded	-0.02722832
6	0xbe4dc82a	-0.20095888
7	0xbe6e3786	-0.23263368
8	0x3d897013	0.067108296
9	0x3daed57f	0.08536815
10	0xbb59ddd6	-0.0033243797
11	0xbea27d3b	-0.31736168
12	0x3e8a07a7	0.26958963
13	0xbe240e17	-0.16021
14	0x3dc69afb	0.09697529
15	0xbe2dcbcf	-0.16972278
16	0x3e0702be	0.1318464
17	0xbbd7b9c9	-0.0065834266
18	0x3de5eddf	0.11227011
19	0x3e5ce0fc	0.215702
20	0x3c512637	0.012765459
21	0x3e2437c2	0.16036895
22	0xbe6a24bf	-0.2286558
23	0xbdf63a19	-0.120228
24	0xbca832a2	-0.020531956
25	0x3d75706f	0.05992168
26	0x3ead6e23	0.3387309
27	0xbe22df47	-0.15905486
28	0xbe131353	-0.1436284
29	0xbdc8091f	-0.09767365
30	0xbdde6077	-0.10858243
31	0x3cd21145	0.025643
32	0xbe293ee7	-0.16527902
33	0x3e3df62f	0.18550943
34	0x3e1199f5	0.14218886
35	0xbe3747b7	-0.17898451
36	0x3b44c13d	0.0030022406
37	0xbedea5e4	-0.4348594
38	0x3bbca8b7	0.005757417
39	0x3d81ac7a	0.063317254
40	0xbcd517b7	-0.026012285
41	0x3e0adb63	0.13560252
42	0xbd9e9790	-0.07743752
43	0xbc808c2d	-0.015691841
44	0xbd1d0050	-0.038330376
45	0xbe46003c	-0.19336027
46	0xbda4612f	-0.08026349
47	0xbdba903d	-0.091095425
48	0x3e22b0d0	0.15887761
49	0xbd7bd3dd	-0.061481345
50	0x3dd7f8d9	0.10545511
51	0x3cce0550	0.025149018
52	0xbd88fdae	-0.066890106
53	0x3cb9ab56	0.022664707
54	0x3d8cdee6	0.06878452
55	0xbd967db2	-0.07348193
56	0x3c916f6e	0.01775333
57	0x3e6bf145	0.23041256
58	0x3da3a869	0.07991106
59	0xbe121785	-0.14266784
60	0x3d290686	0.041265987
61	0x3c9d76c5	0.019221673
62	0xbe7c7cad	-0.24656935
63	0x3d8b4159	0.067995735
64	0x3e42062a	0.18947664
65	0xbb9fb12e	-0.0048734164
66	0xbdaa2a68	-0.083088696
67	0xbd9cb7ca	-0.076522425
68	0xbcb99cdc	-0.022657804
69	0x3e033d47	0.12816344
70	0xbd0d0bf9	-0.034435246
71	0x3ed9d67a	0.42546445
72	0x3d6add4d	0.057339955
73	0xbc7c4170	-0.015396461
74	0xbd057cbb	-0.032589655
75	0xbe33a1ca	-0.17542186
76	0xbd6be3c1	-0.05759025
77	0x3eb11f3f	0.3459415
78	0x3db8add1	0.09017528
79	0xbe7d5378	-0.24738872
80	0x3e0364e5	0.12831457
81	0x3e09ce08	0.13457501
82	0x3d357126	0.04429736
83	0xbe01ca46	-0.12674817
84	0x3ae8bc95	0.0017756397
85	0x3dd777e1	0.10520912
86	0xbe144a2b	-0.14481418
87	0xbe9a15ac	-0.3009466
88	0x3de8a73c	0.113600224
89	0x3da442b2	0.080205336
90	0x3dcab6cd	0.09898148
91	0xbe16808e	-0.14697477
92	0x3e4ecc14	0.20195037
93	0x3c4bcac2	0.012438478
94	0xbd20a125	-0.03921618
95	0xbdecc5a3	-0.11561134
96	0xbe3c2238	-0.18372428
97	0xbea2825b	-0.31740078
98	0x3ca697e6	0.020336103
99	0x3e84c93b	0.25934777
100	0x3e75719c	0.2396912
101	0x3d1741d2	0.036928006
102	0x3e3f49e1	0.18680526
103	0x3cb07fed	0.021545375
104	0x3e2f9353	0.17146043
105	0x3e0a8b58	0.13529718
106	0xbe9b0697	-0.30278465
107	0xbe296d99	-0.16545714
108	0xbd05f7f9	-0.03270719
109	0x3d1f8495	0.0389448
110	0xbd8a2dd6	-0.06747024
111	0xbdf8f47d	-0.121560074
112	0x3b939126	0.004503387
113	0x3cc09c75	0.023512105
114	0xbd84338e	-0.06455146
115	0x3cba04fa	0.022707451
116	0xbe42e5a7	-0.19032918
117	0xbcaed362	-0.02134103
118	0xbd05258b	-0.032506507
119	0x3e1a0138	0.15039527
120	0xbe447d76	-0.19188485
121	0xbdcb6cf3	-0.0993289
122	0x3d1cbf42	0.038268335
123	0x3dda3bfc	0.10655972
124	0xbd4f27bd	-0.050575007
125	0xbd1c5461	-0.038166407
126	0x3dfc9938	0.12333912
127	0xbea9a145	-0.3313085
128	0xbe196b5f	-0.14982365
129	0x3e13561f	0.14388321
130	0x3c06939a	0.008213902
131	0xbdf3a486	-0.11896615
132	0x3e536022	0.2064214
133	0x3dca497e	0.09877299
134	0x3db69a51	0.08916152
135	0x3ce5d4cb	0.02805557
136	0x3ab0d3b7	0.001349083
137	0xbc7c3d6c	-0.0153955035
138	0x3c234d7b	0.009967203
139	0x3df2cd26	0.11855535
140	0xbd74cec9	-0.05976752
141	0x3e90fedb	0.2831944
142	0xbe5d3b10	-0.21604562
143	0x3e992a8d	0.29915276
144	0x3e843ca8	0.25827527
145	0x3e621de7	0.2208172
146	0x3c9f88e1	0.019474449
147	0x3def80ec	0.11694512
148	0xbdce8da1	-0.10085607
149	0xbcdbd44d	-0.026834631
150	0xbe624c0b	-0.2209932
151	0x3d41a01d	0.047271837
152	0xbe796ccc	-0.24357909
153	0xbe0e7700	-0.13912582
154	0xbca8f9f1	-0.020626994
155	0xbdf087d4	-0.11744657
156	0x3e8d185e	0.27557653
157	0x3cdbc5a4	0.02682764
158	0xbe39c494	-0.18141395
159	0x3e71186b	0.23544471
160	0xbcab38aa	-0.020901043
161	0x3e75e168	0.24011767
162	0xbe97bd1b	-0.29636464
163	0x3cd2c7bd	0.025730008
164	0xbe4623d0	-0.19349599
165	0x3c4cfd52	0.012511568
166	0xbd99df01	-0.07513238
167	0x3e693788	0.2277509
168	0x3e9a5e09	0.30149868
169	0xbe21dd76	-0.15807137
170	0x3e08536d	0.13313074
171	0x3e502c5f	0.20329426
172	0xbdf8f745	-0.12156538
173	0xbe1011bb	-0.14069264
174	0xbd8c629c	-0.06854746
175	0x3d4014ab	0.04689471
176	0x3e667829	0.22506775
177	0x3e38d550	0.18050122
178	0x3b8c1baa	0.0042757588
179	0x3c741bf3	0.014899242
180	0x3da998a4	0.08281067
181	0xbe565ddb	-0.2093424
182	0xbd9cee70	-0.07662666
183	0x3b066159	0.00205048
184	0x3e0caab2	0.1373699
185	0xbe995522	-0.29947764
186	0xbe0f3078	-0.13983333
187	0x3d09ef38	0.033675402
188	0x3da26c4f	0.079308145
189	0xbd8c0783	-0.0683737
190	0xbe2bf225	-0.1679159
191	0x3d88a862	0.066727415
192	0x3d9c786e	0.07640158
193	0x3e5da7e5	0.21646078
194	0x387e4070	6.061833e-05
195	0xbe6df33f	-0.23237322
196	0x3e2d03fe	0.16896054
197	0xbc595f65	-0.013267373
198	0x3de45bff	0.11150359
199	0x3b54f4c1	0.0032494518
200	0xbe5482b8	-0.2075299
201	0xbdb9b603	-0.09067919
202	0xbe770cc2	-0.2412596
203	0xbe44baab	-0.19211833
204	0xbd260001	-0.040527347
205	0x3dc71f57	0.097227745
206	0xbdb183fb	-0.086677514
207	0x3eb9fdbb	0.36326393
208	0x3d279f30	0.040923297
209	0xbd642987	-0.055703666
210	0xbd89539d	-0.06705401
211	0x3dee8a6b	0.11647495
212	0xbe07883b	-0.13235562
213	0xbc4ab7af	-0.012372895
214	0x3e09a61c	0.13442272
215	0xbc5cb9bd	-0.013472018
216	0xbd6e2f12	-0.05815036
217	0x3d989b95	0.0745155
218	0x3cd857a6	0.026408982
219	0x3c90d2d2	0.017678652
220	0xbe3e08d1	-0.1855805
221	0xbe15ded1	-0.14635779
222	0x3c96ed30	0.018423647
223	0x3e35fe22	0.17772725
224	0x3d31544d	0.043293286
225	0x3e939a12	0.28828484
226	0x3e397c6a	0.18113866
227	0x3d98adfd	0.07455061
228	0xbd8f8439	-0.07007641
229	0xbd0ae2aa	-0.03390757
230	0x3d952f5d	0.072844245
231	0xbe18cdc6	-0.14922246
232	0x3e39b702	0.18136218
233	0xbd405565	-0.04695644
234	0xbe209414	-0.15681487
235	0xbc634666	-0.013871765
236	0xbe11f8fb	-0.14255135
237	0xbd6eccc3	-0.058300745
238	0xbdc0ae1a	-0.09408207
239	0xbdf69458	-0.12040013
240	0x3d6dfb1f	0.058100816
241	0xbea84f97	-0.32873222
242	0xbd29efc9	-0.041488443
243	0x3d9ffb8c	0.07811651
244	0x3d9d0ef8	0.07668871
245	0x3cd82e36	0.026389223
246	0x3da26e86	0.07931237
247	0x3dc78ea6	0.09744005
248	0x3e1c22cb	0.15247647
249	0x3c8faacf	0.017537503
250	0xbc668826	-0.014070546
251	0xbe4853cb	-0.19563214
252	0xbe11fc3e	-0.14256379
253	0x3d240d04	0.040051475
254	0xbd90b689	-0.07066066
255	0x3cdf5237	0.027260883

encoder.net.5.bias f4 [32]
0	0xbe29aff4	-0.16571027
1	0xbd4ab1f9	-0.049486134
2	0xbe16f933	-0.147435
3	0xbcdfd75e	-0.027324375
4	0xbd7eea9e	-0.062235467
5	0x3dd04fc7	0.10171466
6	0xbd80f3d9	-0.0629651
7	0xbd90d546	-0.07071929
8	0x3db6c8f8	0.089250505
9	0x3db050a4	0.08609131
10	0xbd904416	-0.07044236
11	0x3de22a9a	0.11043282
12	0x3da7f53b	0.08201071
13	0x3d91772f	0.071028106
14	0x3da201f1	0.079105265
15	0xbdb2138f	-0.08695137
16	0x3d922d79	0.071375795
17	0x3cc6f3a2	0.024286095
18	0x3d94fd8d	0.072749235
19	0xbd48887f	-0.048958298
20	0x3be97281	0.0071242456
21	0x3da6c4e0	0.0814302
22	0xbcd72602	-0.02626324
23	0xbdb5c5db	-0.088756286
24	0xbd94ce6a	-0.07265933
25	0xbd8a23a1	-0.06745077
26	0xbd8d1d83	-0.068903945
27	0x3dd0b79d	0.101912715
28	0x3db7f6b3	0.08982601
29	0xbdc7e0ac	-0.0975965
30	0xbd970e29	-0.07375748
31	0xbd7208a4	-0.05909027

predictor.net.1.weight f4 [32, 32]
0	0xbdfa748f	-0.12229263
1	0xbe856b19	-0.26058272
2	0x3ed524d8	0.41629672
3	0xbd954be5	-0.07289866
4	0xbe8c04b8	-0.2734735
5	0x3e15cee6	0.14629707
6	0xbdad4e42	-0.08462192
7	0xbe529fa7	-0.20568715
8	0x3e2053f1	0.15657021
9	0xbe5fe8a5	-0.2186609
10	0x3d423afb	0.04741953
11	0x3e7daa8b	0.24772088
12	0x3b180ff3	0.0023202866
13	0xbd920146	-0.07129149
14	0xbe50cb13	-0.20389967
15	0x3b097544	0.0020974437
16	0x3d6857a8	0.05672422
17	0x3e24fe18	0.16112554
18	0x3de5914f	0.11209356
19	0x3dcf191b	0.1011221
20	0x3d388a8a	0.045053996
21	0xbd378d29	-0.044812355
22	0xbde9b6ab	-0.11411794
23	0xbdaf8204	-0.085697204
24	0x3e1db311	0.1540034
25	0xbe15f686	-0.14644822
26	0x3eddabfb	0.43295273
27	0x3e081332	0.13288572
28	0x3cc549f8	0.024083123
29	0x3e3071c1	0.17230894
30	0x3e5c5b8a	0.21519294
31	0x3e873173	0.26404914
32	0x3da6e47d	0.081490494
33	0x3dc6be0c	0.09704217
34	0xbcb8c3be	-0.022554275
35	0xbd982319	-0.07428569
36	0xbe90012e	-0.281259
37	0xbdc1e924	-0.09468296
38	0xbe0a8633	-0.13527755
39	0xbe622118	-0.22082937
40	0xbd8a04b1	-0.06739176
41	0xbdf5c245	-0.119999446
42	0x3eb977ef	0.36224315
43	0x3d37a7d6	0.044837795
44	0xbdcb9ccf	-0.09942018
45	0x3dcb4a85	0.09926323
46	0x3e8ea3c6	0.27859324
47	0x3d70b7c2	0.058768995
48	0xbd97f6da	-0.0742013
49	0xbdb269ff	-0.087116234
50	0x3df0bae8	0.117543995
51	0xbdda7c2f	-0.106682174
52	0x3dc4fdee	0.09618746
53	0x3d05e317	0.032687273
54	0xbdd9d4f4	-0.10636321
55	0x3db8bc3f	0.0902028
56	0x3e059778	0.13046062
57	0xbe127190	-0.14301133
58	0x3e9cf07f	0.30652234
59	0xbdadc08c	-0.08483991
60	0x3d9a5f33	0.07537689
61	0x3cede1fd	0.029038424
62	0x3c8757f3	0.01652143
63	0xbdf6522f	-0.12027394
64	0xbde63f04	-0.11242488
65	0x3d1fc3a7	0.039004948
66	0x3e0aa4a2	0.13539365
67	0xbd290955	-0.041268665
68	0xbb4207c2	-0.0029606675
69	0xbd088a45	-0.03333499
70	0x3cfd1807	0.030895246
71	0x3726a2c0	9.932264e-06
72	0x3e31061c	0.17287487
73	0xbcbd45c3	-0.023104554
74	0xbe653030	-0.22381663
75	0xbb32e24b	-0.0027295526
76	0x3ee4f7e8	0.44720387
77	0xbcacb73b	-0.021083465
78	0x3e398af7	0.18119417
79	0x3d4a2779	0.04935405
80	0x3e710718	0.23537862
81	0xbe6e732e	-0.23286125
82	0xbe0fcb8f	-0.14042495
83	0xbdb225ed	-0.0869864
84	0xbe465919	-0.19369926
85	0x3e44b43d	0.1920938
86	0x3cda51e2	0.026650373
87	0x3e709c15	0.2349704
88	0xbddb1092	-0.1069652
89	0xbebba178	-0.36646628
90	0x3c850981	0.016239883
91	0xbc22c74c	-0.009935211
92	0x3de97487	0.11399179
93	0x3e8b14fe	0.27164453
94	0x3e588132	0.21143034
95	0x3dccc44d	0.09998379
96	0x3c451b58	0.012030445
97	0x3c652495	0.013985773
98	0x3d155a57	0.036463108
99	0xbd3dc10e	-0.04632669
100	0xbe17fd20	-0.14842653
101	0xbe10b34a	-0.14130893
102	0x3d8d78ec	0.0690783
103	0xbe893072	-0.26794773
104	0x3e331702	0.17489246
105	0x3dc1e1b4	0.094668776
106	0x3dadd2ee	0.08487497
107	0xbc81f4a3	-0.015863722
108	0x3d85c844	0.06532338
109	0xbe0da12f	-0.13831018
110	0xbd8162d3	-0.06317677
111	0xbe8c8aa8	-0.27449536
112	0x3ee28fdd	0.44250384
113	0xbde0ff2c	-0.1098617
114	0x3e132334	0.14368898
115	0x3dbb6d57	0.09151714
116	0xbbc3de8b	-0.005977457
117	0xbd811d74	-0.06304446
118	0xbead7f38	-0.33886123
119	0xbe0505eb	-0.12990539
120	0xbdb10c6b	-0.08644947
121	0xbe87b0bc	-0.26502025
122	0x3e579c2e	0.21055672
123	0x3d490f85	0.049087066
124	0xbd68424e	-0.056703858
125	0x3d361057	0.044449177
126	0x3e0eb79c	0.13937229
127	0xbde17447	-0.11008506
128	0x3e83fa24	0.2577678
129	0xbe530132	-0.20605925
130	0x3dea5890	0.11442673
131	0xbe9c9472	-0.30582005
132	0x3db8690a	0.090044096
133	0x3caa0fb7	0.020759447
134	0xbc8338ab	-0.016018232
135	0xbea3d22a	-0.3199628
136	0xbd89cd2a	-0.06728585
137	0xbe935b1f	-0.28780457
138	0xbd530dc2	-0.051526792
139	0xbecf3ce9	-0.40476158
140	0xbd1c1d3c	-0.038113818
141	0xbe97787a	-0.29584104
142	0xbddb58f6	-0.10710327
143	0x3e32a8ad	0.17447157
144	0x3e94c9a9	0.29060104
145	0xbe9cdbc8	-0.3063643
146	0x3d2269ad	0.03965156
147	0xbc608621	-0.013703854
148	0xbd87cd51	-0.06630958
149	0xbcf248ef	-0.029575793
150	0x3de85d0b	0.113458715
151	0x3e0894ad	0.13337965
152	0x3dff65ad	0.12470565
153	0xbe1b54bc	-0.15169042
154	0x3d399bfc	0.045314774
155	0xbdced4e6	-0.10099201
156	0xbd470b4b	-0.048594754
157	0x3e032ada	0.12809315
158	0xbea474b3	-0.32120284
159	0xbda24cca	-0.079248026
160	0x3e04671b	0.12929957
161	0xbce77e6b	-0.028258523
162	0x3dc50e88	0.09621912
163	0x3cfbc8ea	0.030735452
164	0x3d68293d	0.056679953
165	0xbdbc1510	-0.09183705
166	0xbd77403f	-0.060364004
167	0xbea53579	-0.3226736
168	0xbe11b47c	-0.14229006
169	0xbd55eb8d	-0.05222659
170	0x3e1e5c96	0.15465006
171	0xbe5dd775	-0.21664222
172	0xbd92187a	-0.07133575
173	0x3e5b8f7c	0.21441454
174	0x3e12c7e8	0.1433407
175	0xbe47dee2	-0.19518617
176	0xbe5c0d08	-0.21489346
177	0xbdb235ac	-0.08701643
178	0x3cc00af9	0.023442732
179	0x3bf6a192	0.007526585
180	0xbcc0b924	-0.023525782
181	0x3e1c424f	0.1525967
182	0x3d25c29d	0.0404688
183	0x3e0ec9c4	0.13944155
184	0x3e7fbc07	0.2497407
185	0x3c7e68af	0.015527888
186	0x3d682ff3	0.056686353
187	0x3e100108	0.14062893
188	0x3e35e405	0.17762764
189	0xbe0f4dd2	-0.1399453
190	0xbd5b7ced	-0.053585935
191	0x3e18faab	0.14939372
192	0x3e853007	0.26013204
193	0x3dc4f16d	0.09616361
194	0xbc833b51	-0.016019495
195	0x3d1836dc	0.037161693
196	0x3ddbe67d	0.107373215
197	0xbe23d974	-0.1600092
198	0xbd70c348	-0.058779985
199	0xbd754f53	-0.059890103
200	0xbde21b3e	-0.11040352
201	0xbd60a6e7	-0.05484667
202	0x3e6f6932	0.23379973
203	0xbe62cb01	-0.22147752
204	0xbe8aeffb	-0.27136216
205	0xbdd27849	-0.10276849
206	0x3dba3e29	0.09093887
207	0xbb98eae6	-0.004666674
208	0xbd01ce6e	-0.031691007
209	0x3d033aa7	0.032038357
210	0x3d4d6c66	0.050152205
211	0xbe4d48fe	-0.20047376
212	0x3d991e13	0.07476439
213	0x3eaaa315	0.33327547
214	0xbd3edec9	-0.046599183
215	0x3d8927b0	0.06697023
216	0x3d164f19	0.036696527
217	0x3d70cc60	0.058788657
218	0xbe5001c2	-0.2031317
219	0x3ce8ae46	0.028403413
220	0x3c79d456	0.015248379
221	0xbe75670a	-0.23965088
222	0xbd9fd0f6	-0.07803528
223	0xbe3c739d	-0.18403478
224	0x3e19ef00	0.15032578
225	0x3d85cbb5	0.06532995
226	0xbd2e6270	-0.042574346
227	0x3eb3ca2d	0.35115185
228	0x3e3b9b4b	0.18320958
229	0xbe0f8459	-0.1401533
230	0x3e33769c	0.17525715
231	0x3dcca7aa	0.09992917
232	0xbe6a2492	-0.22865513
233	0xbe200609	-0.15627302
234	0xbdaa0f75	-0.083037294
235	0x3e8261fe	0.25465387
236	0x3daa038a	0.08301456
237	0x3e1f4a1d	0.15555616
238	0xbe559cf3	-0.20860653
239	0x3e7ef692	0.24898747
240	0x3c24b60b	0.010053168
241	0x3e55928e	0.20856687
242	0xbc38b7d9	-0.011274301
243	0xbedf0eb1	-0.43565896
244	0xbe087f5f	-0.13329838
245	0xbe00602f	-0.12536691
246	0x3d0f0337	0.034915175
247	0xbda6b02f	-0.08139073
248	0x3e33f884	0.1757527
249	0xbe3018b6	-0.17196926
250	0xbe7c68ce	-0.24649355
251	0x3e050fbc	0.12994283
252	0x3ec00a22	0.3750773
253	0x3ec1390d	0.3773884
254	0x3d195aed	0.03744023
255	0x3d2fe55d	0.042943347

predictor.net.1.bias f4 [32]
0	0xbdfca128	-0.123354256
1	0xbdfe9be5	-0.12432078
2	0x3de49d7d	0.11162851
3	0x3db91eb8	0.09039062
4	0xbd937558	-0.07200116
5	0x3de5a0d1	0.11212314
6	0x3db6cac7	0.089253955
7	0x3e1faada	0.15592518
8	0xbe157cbf	-0.14598368
9	0xbde87307	-0.11350065
10	0xbdce9e04	-0.10088733
11	0x3de54be5	0.11196116
12	0xbdd9882f	-0.10621678
13	0x3df4517e	0.11929606
14	0xbdf67a92	-0.12035097
15	0x3e11223d	0.14173217
16	0xbe0db8de	-0.13840052
17	0xbdefbe99	-0.117062755
18	0xbdfd6bc1	-0.12374068
19	0xbde563ac	-0.112006515
20	0x3de2a58b	0.11066731
21	0x3dcd1584	0.100138694
22	0x3de5ba70	0.11217201
23	0x3e0097ef	0.12557958
24	0x3df83501	0.12119485
25	0x3dff9aa3	0.124806665
26	0xbdfc5dab	-0.12322553
27	0xbdcb6c15	-0.099327244
28	0xbddc9a7c	-0.10771653
29	0x3de4d59e	0.11173557
30	0x3df71353	0.12064233
31	0x3e0f86e1	0.14016296

predictor.net.3.weight f4 [1, 32]
0	0xbd9d7359	-0.076880164
1	0xbe85e346	-0.26149958
2	0x3deaa0a8	0.11456424
3	0x3e811e2d	0.25218335
4	0x3c91882c	0.017765127
5	0x3e3c550a	0.18391815
6	0x3c8947b4	0.016757824
7	0x3b8e3da0	0.0043408424
8	0xbce935cb	-0.028468033
9	0xbdabc807	-0.083877616
10	0xbdc5d56c	-0.096598476
11	0x3e9be28c	0.3044628
12	0xbda8bc48	-0.08239037
13	0x3dca9d25	0.09893254
14	0xbec81bfb	-0.39083847
15	0x3d835d8e	0.064143285
16	0xbdcbba21	-0.09947611
17	0xbd387c93	-0.04504068
18	0xbe51cf75	-0.20489295
19	0xbde443a1	-0.11145712
20	0x3de7ce60	0.1131866
21	0x3dcd7cf6	0.100336
22	0x3ed3242b	0.4123853
23	0x3ebf6874	0.3738438
24	0x3e360ee9	0.17779125
25	0x3e65d39b	0.22444002
26	0xbe40a085	-0.18811233
27	0xba84e57e	-0.0010139195
28	0xbd93232c	-0.07184443
29	0x3eab57e1	0.33465484
30	0x3e312404	0.17298895
31	0x3d8a8e3e	0.06765412

net.0.weight f4 [60, 35]
0	0xbd233511	-0.03984553
1	0x3dd6fa38	0.10496944
2	0x3cfe612d	0.031052196
3	0x3cb20621	0.021731438
4	0x3cc71a4d	0.024304533
5	0x3e4816e0	0.19539976
6	0xbd5618a6	-0.0522696
7	0xbe1c9299	-0.15290298
8	0x3e775fe1	0.24157669
9	0x3e4aedf8	0.1981734
10	0xbe7b4620	-0.2453847
11	0x3d5d49b6	0.054025374
12	0x3d13eb21	0.03611291
13	0x3e1e2dc5	0.15447147
14	0x3e0e51a1	0.13898326
15	0x3dd9a98d	0.10628042
16	0x3e4d7f86	0.20068178
17	0x3d7a84fc	0.06116198
18	0x3d96cab5	0.07362882
19	0xbca326be	-0.019915935
20	0xbeb79ea6	-0.35863227
21	0x3dc1aa88	0.094563544
22	0x3eacf454	0.33780158
23	0xbe46c8af	-0.19412492
24	0x3dacc096	0.0843517
25	0x3dd9303f	0.10604905
26	0x3d9a855e	0.07544969
27	0x3d5b36b1	0.053518955
28	0x3e1a68fe	0.15079114
29	0xbe516a58	-0.20450723
30	0xbe6ead0b	-0.23308198
31	0x3d18fb0d	0.037348796
32	0xbe19370d	-0.14962406
33	0x3d862e87	0.06551843
34	0xbe03bac8	-0.1286422
35	0x3df5939d	0.119910456
36	0xbe54377b	-0.20724289
37	0xbdd4880f	-0.103775136
38	0xbd7f0d2e	-0.06226843
39	0xbe255a4d	-0.16147728
40	0xbe284a7e	-0.16434667
41	0xbc4b5de2	-0.01241252
42	0xbd98f02a	-0.07467683
43	0xbd1dc672	-0.03851933
44	0x3e5359db	0.20639746
45	0xbd12b2a0	-0.03581488
46	0x3d62e2e8	0.055392176
47	0x3cd6b4da	0.026209284
48	0x3e99e287	0.3005564
49	0x3d069249	0.032854352
50	0xbe9ab949	-0.30219486
51	0x3dfa4284	0.12219718
52	0xbc86e1c8	-0.016465083
53	0xbbae7dcb	-0.0053250543
54	0x3e182879	0.14859189
55	0x3de5f05f	0.11227488
56	0x3d2683c9	0.040653024
57	0xbb449de1	-0.003000133
58	0xbde9ba28	-0.114124596
59	0x3daa04a2	0.08301665
60	0x3e6f9a91	0.23398806
61	0xbde05042	-0.10952808
62	0x39e4302c	0.0004352344
63	0xbe513c33	-0.2043312
64	0xbc80da4a	-0.015729088
65	0x3e197441	0.14985754
66	0x3dbbaedf	0.091642134
67	0x3d2a1421	0.041523103
68	0x3de1af3d	0.11019752
69	0xbe68ddf9	-0.22740926
70	0x3d1980a0	0.037476182
71	0xbcc2db66	-0.023786258
72	0xbe01cf03	-0.12676625
73	0xbd9cae63	-0.07650449
74	0xbd1ec2a1	-0.03875983
75	0x3e47bced	0.19505663
76	0x3de6aa8b	0.11262997
77	0x3de07c47	0.10961204
78	0x3e139b8c	0.14414805
79	0xbd5c10b1	-0.053726856
80	0x3e77ed53	0.24211626
81	0xbd290e36	-0.04127332
82	0x3e0ace1d	0.13555188
83	0x3e3d3c0c	0.18479937
84	0x3d3c5b09	0.045985255
85	0xbd240e42	-0.04005266
86	0x3dd12eab	0.10213979
87	0x3dddeeb8	0.108365476
88	0x3d576b62	0.052592643
89	0xbdee9ec6	-0.116513774
90	0xbe995cba	-0.29953557
91	0xbdd04e5d	-0.101711966
92	0xbd3a84b9	-0.04553673
93	0xbdfd3edf	-0.12365507
94	0xbddc1824	-0.10746792
95	0xbe3924b5	-0.18080409
96	0xbe37977c	-0.1792888
97	0xbe84d9b9	-0.2594736
98	0xbd387387	-0.04503205
99	0x3e11960b	0.14217393
100	0xbd52ee9f	-0.051497098
101	0x3e90027b	0.28126892
102	0x3e01e8dd	0.12686487
103	0x3dabdea8	0.08392078
104	0xbdef981b	-0.11698934
105	0xbd180ead	-0.03712337
106	0x3eaea1a8	0.3410771
107	0xbdda4b3e	-0.106588826
108	0xbda3f757	-0.08006161
109	0x3daf00ed	0.085450985
110	0x3e35598e	0.17709944
111	0xbe9ebd6b	-0.3100389
112	0x3ea666e0	0.32500362
113	0x3e0055eb	0.12532775
114	0x3c132f52	0.00898345
115	0x3d3d541e	0.0462228
116	0x3cbff8f0	0.023434132
117	0x3d13a173	0.03604264
118	0xbd20125d	-0.039080013
119	0x3d9b10f9	0.07571597
120	0x3d7a0e49	0.06104878
121	0xbe083eb4	-0.1330517
122	0x3e94d6e5	0.29070202
123	0xbe2e01d0	-0.16992879
124	0x3da0ccd0	0.07851565
125	0x3e025bea	0.12730375
126	0x3e14905b	0.14508192
127	0x3e92ee38	0.2869737
128	0xbd13d5ab	-0.03609244
129	0x3da2825f	0.079350226
130	0x3e43089c	0.19046253
131	0x3d6105e2	0.05493725
132	0xbce5cfa1	-0.028053107
133	0x3bfdfe2d	0.0077512474
134	0x3cb8ae11	0.022543939
135	0xba946a87	-0.0011323252
136	0xbb74c7d4	-0.0037350552
137	0xbc96f41d	-0.01842695
138	0xbe8cd7df	-0.27508447
139	0xbd947346	-0.07248549
140	0xbe83737c	-0.25674045
141	0x3d003f2c	0.031310245
142	0x3d4f1257	0.0505546
143	0x3da1c4a4	0.07898834
144	0xbc9a0052	-0.01879898
145	0x3d4fb4a3	0.050709378
146	0xbb32900d	-0.0027246505
147	0xbbfe218c	-0.007755464
148	0xbd9c25e9	-0.07624418
149	0x3e3f95f0	0.1870954
150	0x3e0a868a	0.13527885
151	0x3dc0148b	0.09378918
152	0xbd5cd0b2	-0.053909965
153	0xbe365132	-0.17804411
154	0x3ddbe784	0.107375175
155	0x3e1dd3f7	0.1541289
156	0x3cec08f7	0.028812869
157	0xbe245df9	-0.16051473
158	0x3ed03793	0.406674
159	0xbdc79023	-0.09744289
160	0xbe43ff44	-0.19140345
161	0xbe86e502	-0.26346594
162	0x3e04f9f6	0.12985978
163	0xbe36674d	-0.17812844
164	0x3ce95836	0.028484445
165	0xbcd75734	-0.026286699
166	0xbda86f1d	-0.08224318
167	0xbb577e69	-0.0032881743
168	0x3e16a30f	0.1471064
169	0x3c904068	0.017608836
170	0xbd109a71	-0.035303537
171	0x3d9cfa74	0.07664958
172	0x3da1c491	0.0789882
173	0xbd542587	-0.0517936
174	0x3ccf7411	0.0253239
175	0x3cf5f3b1	0.030023428
176	0xbd8e5bac	-0.06951079
177	0x3e7089a3	0.23490004
178	0xbdca5475	-0.0987939
179	0x3e14fa8b	0.145487
180	0x3d0ecbd5	0.034862358
181	0x3c2a3dcc	0.01039071
182	0xbd3b50a2	-0.045731194
183	0x3c0d4a01	0.008623601
184	0xbdb06404	-0.086128265
185	0xbde7e237	-0.11322444
186	0x3dd26852	0.10273804
187	0x3e948570	0.29008055
188	0x3c781993	0.015142816
189	0xbcb132a9	-0.021630602
190	0x3ed07dcf	0.40720984
191	0xbe2d1fd1	-0.16906668
192	0xbce45f7e	-0.027877565
193	0x3d8482bd	0.06470249
194	0xbe3f1d76	-0.18663582
195	0xbe133802	-0.14376834
196	0x3eac1a3e	0.3361377
197	0x3e37c7bf	0.17947291
198	0xbe07f30f	-0.13276313
199	0xbe14d148	-0.1453296
200	0xbd28aaa4	-0.04117836
201	0x3d3c7de2	0.04601849
202	0xbec97ea5	-0.39354435
203	0x3dc16ba7	0.09444361
204	0xbe6ac9fd	-0.22928615
205	0x3cf86978	0.030323729
206	0xbe554d03	-0.20830159
207	0x3dffedc0	0.12496519
208	0xbe218caf	-0.15776323
209	0x3d774746	0.060370706
210	0x3d17e157	0.037080135
211	0x3d4fb5de	0.05071055
212	0xbe62820b	-0.2211992
213	0x3e061de5	0.13097341
214	0xbe1daa35	-0.1539696
215	0xbe126d31	-0.14299466
216	0x3e0a47ed	0.13504
217	0xbe0c8727	-0.13723432
218	0xbd642112	-0.0556956
219	0x3e80fcc7	0.25192854
220	0x3d4bd1ac	0.049760506
221	0xbd8dacf7	-0.06917756
222	0xbd299303	-0.041399967
223	0x3e44b54a	0.19209781
224	0xbc70ceb2	-0.0146977175
225	0x3e76d7fc	0.24105829
226	0x3d817624	0.06321362
227	0xbc9089f0	-0.017643899
228	0xbdfac2e0	-0.12244201
229	0x3d9ec8a1	0.07753111
230	0x3e65c498	0.22438276
231	0xbbfde555	-0.007748286
232	0x3e3d2b69	0.18473591
233	0xbceb87b8	-0.02875124
234	0xbdbf1bbe	-0.09331463
235	0x3d1879ce	0.037225537
236	0xbc7a4890	-0.015276089
237	0x3e22bd71	0.15892579
238	0x3ca4dc5f	0.020124612
239	0xbb90a627	-0.004414338
240	0x3d1b1342	0.037860163
241	0xbd759ce5	-0.05996408
242	0x3d3f4735	0.046698768
243	0x3e4b4a65	0.19852598
244	0xbe5749ea	-0.2102429
245	0xbd9377b8	-0.07200569
246	0xbd888d8b	-0.06667622
247	0xbd2d7d72	-0.042355962
248	0xbd79ed2a	-0.061017193
249	0xbd0807fb	-0.033210736
250	0xbdc81fb0	-0.09771669
251	0xbd807b0f	-0.062734716
252	0xbdc0683a	-0.0939488
253	0xbe2750c2	-0.163394
254	0xbdc6e1cc	-0.09711036
255	0xbddd322c	-0.10800585

net.0.bias f4 [60]
0	0x3b18d3a5	0.002331951
1	0xbe018b39	-0.12650765
2	0xbe24ca19	-0.16092719
3	0x3d2b26eb	0.041785162
4	0xbe1e5297	-0.15461193
5	0xbd2e3331	-0.04252929
6	0xbce88e1d	-0.028388077
7	0xbdf81f08	-0.12115294
8	0xbe112a95	-0.141764
9	0xbe2c620d	-0.16834278
10	0xbe3fca0e	-0.18729421
11	0xbde48696	-0.11158483
12	0x3dd05e02	0.101741806
13	0x3b8d5af2	0.00431382
14	0x3e0f9445	0.14021404
15	0x3e02b027	0.1276251
16	0x3dcd1175	0.10013095
17	0xbd8ade85	-0.067807235
18	0xbe0bb9e4	-0.1364513
19	0xbd7d019b	-0.06176911
20	0xbe2d04e7	-0.16896401
21	0xbd01e9ad	-0.03171699
22	0x3dfa50b6	0.12222426
23	0x3b41f7f7	0.0029597261
24	0xbe10cfd7	-0.14141785
25	0x3dfe0f88	0.12405306
26	0x3da57165	0.08078269
27	0xbd592897	-0.053017225
28	0x3e1e00ea	0.15430036
29	0x3db61f8c	0.08892736
30	0x3de42397	0.11139601
31	0x3c82b7bb	0.01595675
32	0x3dbc2e89	0.091885634
33	0x3dbc2b89	0.09187991
34	0xbd55f0fd	-0.052231777
35	0xbccfbcf2	-0.02535865
36	0x3e306d20	0.17229128
37	0xbd777c19	-0.060421083
38	0xbca0f4fd	-0.01964807
39	0xbb516899	-0.0031953214
40	0x3ca4b881	0.02010751
41	0xbd7bb3f5	-0.061450917
42	0x3e1524da	0.14564839
43	0xbe061ec9	-0.13097681
44	0xbcfb9b07	-0.030713571
45	0xbc675a53	-0.014120656
46	0xbd8750ac	-0.06607184
47	0x3d76c510	0.060246527
48	0xbb9b5b12	-0.004741081
49	0x3d0aa751	0.03385097
50	0x3d97f5fc	0.07419965
51	0xbe1799d8	-0.1480478
52	0x3cd92f89	0.026511924
53	0x3df5c6fb	0.12000843
54	0xbdb976b1	-0.09055842
55	0xbd210f29	-0.0393211
56	0xbdd6006a	-0.10449298
57	0xbe125215	-0.14289124
58	0xbe198267	-0.14991151
59	0xbde72197	-0.11285704

net.2.weight f4 [60, 60]
0	0xbdf98ab9	-0.12184662
1	0x3d007b69	0.031367693
2	0xbdeb22fc	-0.11481282
3	0x3e458392	0.19288471
4	0xbd9dfe95	-0.07714573
5	0x3cdee351	0.027208002
6	0xbc597f57	-0.013274989
7	0x3cf3d061	0.029762449
8	0xbd7c30f8	-0.061570138
9	0x3bbdb77d	0.005789696
10	0x3d3f473e	0.0466988
11	0x3d7c96a0	0.061667085
12	0xbe03ffaa	-0.12890497
13	0xbde04c2b	-0.10952028
14	0x3d6c8991	0.05774838
15	0x3e236f1b	0.15960352
16	0xbd4c4a06	-0.04987528
17	0xbd4db743	-0.0502236
18	0x3e9833b2	0.2972694
19	0xbe8d7f65	-0.27636257
20	0x3e143450	0.1447308
21	0x3de920cc	0.11383209
22	0xbcd8e652	-0.026477013
23	0x3df61263	0.12015226
24	0xbd4a9cbe	-0.049465887
25	0xbd1026cf	-0.03519326
26	0xbd25f261	-0.040514354
27	0x3d8a6957	0.06758373
28	0xbde5b5b4	-0.11216298
29	0x3d0c7ece	0.034300618
30	0xbd1a0d87	-0.037610557
31	0xbe0b9adb	-0.13633291
32	0x3dd1f813	0.102523945
33	0x3e47ff90	0.19531083
34	0xbe86f765	-0.26360622
35	0xbe388002	-0.18017581
36	0xbd978116	-0.07397668
37	0xbe1e3ce4	-0.15452915
38	0xbe0e5dc2	-0.13902953
39	0xbd82efed	-0.063934185
40	0xbe2fa0e0	-0.17151213
41	0xbcd23bd3	-0.025663292
42	0x3e625166	0.22101364
43	0xbd3e389c	-0.046440706
44	0x3dd15b19	0.102224536
45	0xbe09d9c5	-0.13461979
46	0x3e071ad5	0.1319383
47	0x3dc0bec9	0.094113894
48	0xbceeb409	-0.029138582
49	0x3defe9ef	0.11714541
50	0xbd55826b	-0.05212633
51	0xbdb79cfc	-0.08965489
52	0x3daa4ccb	0.08315428
53	0xbe8161db	-0.2526997
54	0x3d5c553c	0.053792223
55	0xbe20ffbc	-0.15722555
56	0x3d6cac7b	0.057781678
57	0xbd2a88d6	-0.041634403
58	0x3ce87540	0.028376222
59	0x3e06e919	0.13174857
60	0xbd9ff697	-0.07810705
61	0x3c8c2912	0.017109428
62	0xbd9c08b1	-0.07618845
63	0xbe296482	-0.16542247
64	0xbdef4062	-0.11682202
65	0x3d891dca	0.06695135
66	0xbe256ed1	-0.16155554
67	0xbdebf3c2	-0.115211025
68	0xbe1fd61e	-0.15609023
69	0xbc516b2f	-0.012781902
70	0xbc862cc2	-0.016378764
71	0xbd0a1323	-0.033709656
72	0xbe610645	-0.21975048
73	0x3d68d5b1	0.056844417
74	0xbd1e300c	-0.03862004
75	0xbdab55e3	-0.08365991
76	0x3e15641c	0.1458897
77	0xbe2e3a85	-0.17014511
78	0xbddf04cf	-0.10889589
79	0x3dafd1a6	0.08584909
80	0xbd9cca24	-0.07655743
81	0x3e2b602e	0.16735908
82	0x3c9431ca	0.018090148
83	0x3da5347c	0.08066651
84	0xbe8d9619	-0.27653578
85	0x3e1334b8	0.1437558
86	0xbd3af271	-0.045641366
87	0xbd486a0e	-0.048929267
88	0x3d9fa136	0.077944204
89	0x3c7002b6	0.014649084
90	0x3db55ffd	0.08856199
91	0xbe0e7843	-0.13913064
92	0xbd14a974	-0.036294416
93	0xbdd48be1	-0.10378242
94	0x3d443c70	0.0479092
95	0x3d38e798	0.04514274
96	0xbc0f8c43	-0.008761468
97	0x3ddb2830	0.107010245
98	0x3a049872	0.00050581165
99	0xbb456e7b	-0.0030125666
100	0xbe0c302d	-0.13690253
101	0xbe0698f4	-0.13144284
102	0x3c6bf815	0.014402409
103	0xbc18262c	-0.009286445
104	0x3d696e65	0.056990046
105	0x3e19c346	0.15015897
106	0x3d7d7f53	0.061889004
107	0x3c921717	0.017833276
108	0x3dc5148b	0.09623059
109	0x3d042d83	0.032269966
110	0x3d123f15	0.03570469
111	0xbd81307f	-0.06308078
112	0x3de5e916	0.11226098
113	0x3d6f0721	0.058356408
114	0xbba65d65	-0.0050770515
115	0x3e26ba16	0.16281924
116	0x3e21434e	0.15748331
117	0x3d6b1630	0.057394207
118	0x3dbe6738	0.09297031
119	0x3e15ea0c	0.14640063
120	0x3e4b0ba5	0.19828661
121	0xbce9e893	-0.028553283
122	0xbd056a46	-0.032572053
123	0xbe09bcee	-0.13450977
124	0x3d3d88d1	0.046273056
125	0xbd81e2e5	-0.06342105
126	0x3dacc8ef	0.084367625
127	0x3dd3a17c	0.10333535
128	0x3d87ea94	0.06636539
129	0xbd976dd6	-0.073939964
130	0x3d326982	0.04355765
131	0xbe83f061	-0.25769332
132	0xbda7cc75	-0.08193294
133	0xbd8eed62	-0.06978871
134	0x3dc113bf	0.094275944
135	0xbe7844ef	-0.24245046
136	0xbd7d6801	-0.061866764
137	0xbcc7cbe2	-0.024389211
138	0x3d26f286	0.040758632
139	0x3e19c76f	0.15017484
140	0x3ddf38b8	0.1089949
141	0x3e36ea3c	0.17862791
142	0xbe85f68f	-0.26164672
143	0xbe0f87cf	-0.1401665
144	0x3c59491a	0.013262058
145	0xbe5a5f38	-0.21325386
146	0x3d2c0052	0.041992493
147	0x3cb754eb	0.02237936
148	0x3d42e5a2	0.047582276
149	0x3d02d951	0.03194553
150	0x3c6bc018	0.01438906
151	0xbe49e310	-0.19715524
152	0x3e2a5cf5	0.16637023
153	0x3e3b7bf2	0.18309
154	0x3aac8893	0.0013163261
155	0xbd8a8055	-0.06762759
156	0x3da0e0a8	0.0785535
157	0xbcae8589	-0.021303909
158	0x3d7a8438	0.06116125
159	0x3bd01932	0.0063506598
160	0x3e5186cd	0.20461579
161	0x3e11e286	0.14246568
162	0xbdadf9e5	-0.08494929
163	0x3b0221c7	0.0019856559
164	0x3d87b949	0.06627137
165	0xbdfc72d8	-0.12326592
166	0x3d93de88	0.07220179
167	0xbcbe6e6e	-0.023246016
168	0xbd3aaf7d	-0.045577515
169	0x3dea45a1	0.11439062
170	0x3e7beb0b	0.2460138
171	0xbb001a91	-0.0019547085
172	0xb8f12b64	-0.00011499858
173	0xbe10e5f3	-0.14150219
174	0x3de86011	0.11346448
175	0x3dd1649f	0.1022427
176	0xbe33a09a	-0.17541733
177	0x3ddc0eec	0.107450336
178	0x3e2c4d27	0.16826306
179	0x3e3e534b	0.18586461
180	0x3c8e9166	0.017403316
181	0xbbdd4762	-0.0067528943
182	0x3e1b6746	0.15176114
183	0xbde19aae	-0.11015831
184	0x3d1a03f8	0.03760144
185	0xbcd79016	-0.026313823
186	0x3e55e931	0.20889737
187	0x3d209534	0.03920479
188	0x3d61e627	0.05515113
189	0x3d84f8f6	0.06492798
190	0x3d86e9fc	0.06587598
191	0x3e158cb2	0.14604452
192	0x3dad6675	0.08466808
193	0xbd5c2e52	-0.053755112
194	0x3e08a2b0	0.1334331
195	0xbdd0d6c9	-0.10197217
196	0xbdb73143	-0.08944943
197	0x3e2a2c6b	0.16618507
198	0xbd2719fa	-0.040796258
199	0xbd48ece2	-0.049054034
200	0xbddd762e	-0.108135566
201	0x3e0e9b29	0.13926376
202	0xbd2226aa	-0.039587654
203	0xbce84326	-0.028352331
204	0x3d83fd85	0.064448394
205	0xbac6817b	-0.0015144789
206	0xbd940aea	-0.07228644
207	0xbdbda41a	-0.092598155
208	0xbd4547b0	-0.04816407
209	0xbd8de016	-0.069275066
210	0xbe7df705	-0.24801262
211	0x3d39b3e1	0.04533756
212	0x3db5e743	0.08882
213	0xbe64b43e	-0.22334382
214	0xbdd60ef4	-0.10452071
215	0xbc182698	-0.009286545
216	0x3da4109f	0.08010983
217	0x3d6ff060	0.05857885
218	0xbd3222fc	-0.043490395
219	0x3e2d56b2	0.16927603
220	0xbe348f87	-0.17632876
221	0xbe27e122	-0.16394475
222	0x3d042b91	0.03226811
223	0xbd5245f8	-0.05133626
224	0xbd69e5e8	-0.05710402
225	0x3e340833	0.17581253
226	0xbdb0dc00	-0.08635712
227	0xbe5abb88	-0.213606
228	0x3e360da5	0.17778642
229	0xbe3207c0	-0.17385769
230	0x3df01021	0.11721826
231	0xbe58c1f2	-0.21167734
232	0xbcb49d0c	-0.022047542
233	0xbd5ef50d	-0.054432917
234	0xbdaeecae	-0.08541237
235	0x3c692c5b	0.014231767
236	0xbd9c6366	-0.07636146
237	0x3dd8539e	0.10562824
238	0x3dd0086e	0.10157858
239	0xbdb313f9	-0.08744044
240	0x3df2cb89	0.118552275
241	0x3d9a940b	0.07547768
242	0x3c89be18	0.016814277
243	0xbe3e4415	-0.18580659
244	0x3d25c5e5	0.04047193
245	0xbc94402f	-0.018097011
246	0xbc194040	-0.009353697
247	0xbd9ffde7	-0.078121
248	0x3cf0b554	0.029383339
249	0x3e7fe912	0.24991253
250	0xbd94c426	-0.07263975
251	0x3e6c7fc2	0.2309561
252	0x3d71a287	0.05899289
253	0xbd188fe9	-0.03724662
254	0x3ced3445	0.028955588
255	0xbd4079c3	-0.04699112

net.2.bias f4 [60]
0	0x3de8b23b	0.1136212
1	0x3c9ab216	0.018883746
2	0xbd4fbaf7	-0.050715413
3	0xbd99481d	-0.07484458
4	0xbdd1e3e4	-0.10248545
5	0x3dd00585	0.10157303
6	0x3c4d4b0d	0.0125301005
7	0xbde218fb	-0.11039921
8	0xbd6438a8	-0.055718094
9	0xbc6d7eab	-0.014495532
10	0xbd613cff	-0.05498981
11	0x3c992353	0.018693602
12	0xbbaf09ae	-0.00534173
13	0x3d3db28e	0.04631286
14	0x3dd69d8b	0.10479268
15	0x3db4f18a	0.088351324
16	0xbd28e6b8	-0.041235656
17	0x3ddd6a72	0.108113185
18	0x3cda16ab	0.026622137
19	0x3c18a6b3	0.009317088
20	0x3c337b7e	0.010954736
21	0x3ca9b221	0.020714821
22	0x3deeae6c	0.11654362
23	0x3db43535	0.08799211
24	0x3cad404c	0.021148823
25	0xbdfe086d	-0.12403951
26	0xbdd822e8	-0.10553533
27	0xbd412508	-0.047154456
28	0x3ded72a8	0.115941346
29	0x3d0fd448	0.035114557
30	0x3dffec09	0.12496192
31	0x3c8294c0	0.01594007
32	0xbd3f53dc	-0.046710834
33	0x3dbc8bf9	0.09206385
34	0x3c8022ab	0.015641531
35	0xbd6d95c5	-0.05800416
36	0xbce11b79	-0.02747892
37	0xbc8563ef	-0.016283004
38	0xbcf3873d	-0.029727573
39	0x3deffe0e	0.11718379
40	0x3cfc55b4	0.030802585
41	0xbc844d42	-0.01615012
42	0x3d5b453c	0.053532824
43	0xbd91fcac	-0.071282715
44	0x3db367fe	0.08760069
45	0x3dc4b4f0	0.096048236
46	0x3dd8a273	0.1057786
47	0xbd3d64c9	-0.046238694
48	0xbd850590	-0.064952016
49	0xbdb216a5	-0.08695725
50	0xbd2a2b3c	-0.041545138
51	0x3d5bed1b	0.05369292
52	0xbd743161	-0.059617404
53	0x3cf5aacb	0.029988667
54	0xbd01db5e	-0.031703345
55	0x3d64aa5b	0.055826526
56	0xbb6ce636	-0.0036147959
57	0x3d82cbd3	0.06386533
58	0xbd42e8f1	-0.04758543
59	0xbd9b3ffd	-0.07580564
