results analysis/processed results/PINN/NASA results/2-2/Experiment3/model.pth (torch, 59646 bytes, 14 tensors)

encoder.net.0.weight f4 [60, 17]
0	0xbe5ddd8e	-0.21666548
1	0xbed05804	-0.4069215
2	0x3df2ce7b	0.11855789
3	0x3e86f35b	0.2635754
4	0xbe455e34	-0.19274217
5	0xbdb98d6b	-0.090601765
6	0x3d3c759c	0.0460106
7	0x3cc8287b	0.024433365
8	0xbe0b0e81	-0.13579752
9	0xbe39590f	-0.1810038
10	0xbe4ebae6	-0.20188484
11	0xbde6198a	-0.1123534
12	0xbd9440ec	-0.07238945
13	0x3c522aae	0.012827558
14	0xbd85cde3	-0.065334104
15	0x3e5cb418	0.21553075
16	0x3cac86c1	0.02106035
17	0xbf04072e	-0.51573455
18	0x3e4be88d	0.1991293
19	0x3e8f856d	0.28031483
20	0xbe90a066	-0.28247374
21	0xbb7a0b1f	-0.0038153601
22	0x3e67c657	0.22634254
23	0xbd139d39	-0.03603861
24	0xbbd0046b	-0.006348183
25	0xbddcf6d0	-0.10789263
26	0x3de1bef1	0.11022747
27	0xbe6fa8df	-0.23404263
28	0xbd31bd5b	-0.043393474
29	0xbebb0c08	-0.36532617
30	0x3cde991f	0.027172623
31	0xbe7906ff	-0.24319075
32	0xbd085a43	-0.033289205
33	0x3d72b3c9	0.059253488
34	0x3e55d9d8	0.20883882
35	0xbdb4df8b	-0.088317
36	0x3eaa93e0	0.33315945
37	0x3cf99300	0.030465603
38	0xbe85790a	-0.26068908
39	0xbe9c2996	-0.30500478
40	0xbe7e8250	-0.24854398
41	0xbda2af0a	-0.07943542
42	0x3cd7fee8	0.026366666
43	0x3eee752b	0.46573767
44	0x3e624bca	0.22099224
45	0xbd69599a	-0.056970216
46	0x3ea9eec4	0.33189976
47	0x3d2982b1	0.041384403
48	0x3e9a4aa9	0.30135086
49	0xbd877584	-0.06614211
50	0xbd3abec0	-0.04559207
51	0x3e3d5f6c	0.18493432
52	0x3e282778	0.16421306
53	0xbd4bc425	-0.049747605
54	0x3d10e1ce	0.035371594
55	0xbdcc625a	-0.099796966
56	0xbe8c26a2	-0.27373224
57	0xbdddc74c	-0.108290285
58	0x3de61652	0.11234726
59	0x3ebfd54e	0.37467426
60	0x3e25e520	0.16200686
61	0x3e9c0ff3	0.30480918
62	0x3de34852	0.110977784
63	0xbd62a993	-0.0553375
64	0x3e6a7ee1	0.22899963
65	0xbd138d4a	-0.036023416
66	0x3e79d5de	0.2439799
67	0xbddd491d	-0.10804961
68	0xbe61dae2	-0.22056153
69	0x3e193d69	0.14964832
70	0xbd08f24f	-0.03343421
71	0xbd487390	-0.048938334
72	0xbe293990	-0.16525865
73	0xbc87e319	-0.01658778
74	0xbe75b689	-0.23995413
75	0xbd0e491d	-0.034737695
76	0xbd129299	-0.035784338
77	0x3e4899c4	0.19589907
78	0x3e53a6c1	0.2066908
79	0x3cd11ebb	0.025527349
80	0xbd97d130	-0.07412946
81	0xbdb9d7e8	-0.09074384
82	0xbd280939	-0.04102442
83	0xbe74ac80	-0.23893929
84	0x3d3e23d5	0.04642089
85	0xbd3093df	-0.04310977
86	0x3e1b3386	0.15156373
87	0x3ec4c29c	0.38429725
88	0xbddd91d7	-0.10818832
89	0x3d8e2e86	0.069424674
90	0x3e4b538d	0.19856091
91	0x3de67ce0	0.11254287
92	0x3e8769f9	0.26448038
93	0x3d79d4ab	0.06099383
94	0x3e798ec7	0.24370871
95	0x3dd46883	0.103714965
96	0xbe104b61	-0.14091255
97	0xbe0bb78f	-0.13644241
98	0x3e69a93d	0.22818466
99	0x3e3d6748	0.1849643
100	0xbe0ca71b	-0.1373562
101	0x3e13dde7	0.14440118
102	0xbd644a70	-0.05573505
103	0x3d920af5	0.07130996
104	0x3d64461f	0.055730935
105	0xbca256ba	-0.019816745
106	0xbd33a923	-0.043862473
107	0x3e5d711b	0.21625178
108	0xbd9a1bf3	-0.07524862
109	0x3db2c9df	0.0872991
110	0xbd356d6d	-0.04429381
111	0xbe273a6b	-0.16330878
112	0xbd8cdd33	-0.06878128
113	0x3db7c2e5	0.0897272
114	0xbcc59c66	-0.024122428
115	0xbe01f382	-0.12690547
116	0x3cde3c75	0.027128438
117	0x3dad450b	0.084604345
118	0x3e29df0f	0.16588996
119	0x3dad7a62	0.08470608
120	0xbe00e2f2	-0.12586573
121	0xbc80e0a8	-0.015732124
122	0xbdad1fc1	-0.08453322
123	0xbe970f76	-0.29503983
124	0xbdaeb935	-0.08531419
125	0x3da2df27	0.07952719
126	0xbdf2f3a3	-0.11862876
127	0xbd5f7327	-0.054553177
128	0x3cf8fd13	0.030394113
129	0xbd75c5ac	-0.060002968
130	0xbe2ea27d	-0.17054172
131	0x3dc7e0fb	0.097597085
132	0xbe011755	-0.12606557
133	0x3edef3d0	0.4354539
134	0x3e4561ee	0.19275638
135	0x3de80ead	0.11330924
136	0x3d85fe25	0.06542615
137	0xbdfde0ba	-0.12396379
138	0x3d3b3fba	0.04571507
139	0xbdbe02e7	-0.09277897
140	0x3e320695	0.17385323
141	0x3e5352b0	0.20637012
142	0x3e25ebdd	0.16203256
143	0xbd52220a	-0.051301993
144	0x3cfdc571	0.030977936
145	0xbe8f7463	-0.28018484
146	0xbe26ec68	-0.1630112
147	0x3d0bb795	0.034110624
148	0x3e102b90	0.14079118
149	0x3e060101	0.1308632
150	0xbd1b50a7	-0.037918713
151	0x3d87d2ec	0.06632027
152	0x3e1deb18	0.15421712
153	0xbeaf68f3	-0.34259757
154	0x3e485e61	0.19567253
155	0x3cb58b2a	0.022161085
156	0xbe564964	-0.20926434
157	0xbd705180	-0.058671474
158	0x3d925f37	0.07147067
159	0xbe11f8b1	-0.14255024
160	0xbe6ced8f	-0.23137496
161	0xbd5d9a9c	-0.054102525
162	0x3d4747e3	0.04865254
163	0x3e0543b1	0.13014103
164	0xbe606479	-0.21913327
165	0xbe0422b6	-0.12903866
166	0xbc89e890	-0.016834527
167	0x3d33415d	0.043763507
168	0xbd4ca79e	-0.04996454
169	0xbd8e49cf	-0.069476716
170	0xbe166003	-0.14685063
171	0x3e5531fb	0.20819847
172	0x3e174fd1	0.14776541
173	0x3ca8b070	0.020591944
174	0x3e6a9184	0.22907072
175	0xbd0d597c	-0.034509167
176	0xbb206e11	-0.0024479667
177	0xbdbb66af	-0.09150445
178	0xbe808b24	-0.25106156
179	0xbe98f531	-0.29874566
180	0xbe2e2553	-0.17006426
181	0xbe838b4e	-0.2569222
182	0x3b86aa61	0.004109666
183	0xbe1c6186	-0.15271577
184	0x3dcac882	0.09901525
185	0xbe9a4528	-0.30130887
186	0xbe120140	-0.1425829
187	0x3dbef991	0.09324945
188	0xbe922dc0	-0.2855053
189	0xbe02d845	-0.12777813
190	0xbcebce5d	-0.028784925
191	0xbe168130	-0.14697719
192	0x3e0f9ba4	0.14024216
193	0xbcf6accb	-0.030111691
194	0x3de6672b	0.112501465
195	0xbd835295	-0.06412236
196	0xbbbbb707	-0.0057286057
197	0xbd84a0e0	-0.06475997
198	0xbe7426f3	-0.23842983
199	0xbdc5ec31	-0.096641906
200	0xbe4407b8	-0.1914357
201	0xbc8c0c12	-0.0170956
202	0xbe0be6c7	-0.13662253
203	0x3eddf063	0.43347463
204	0xbe7397dd	-0.237884
205	0x3ea38219	0.31935194
206	0xbe92cd62	-0.2867232
207	0xbe8900d4	-0.26758444
208	0xbe802937	-0.25031444
209	0x3e215297	0.15754162
210	0x3ddb0ee3	0.10696199
211	0xbda3c8b4	-0.079972655
212	0xbad28f75	-0.0016064482
213	0x3e5eb689	0.21749319
214	0xbd13ed81	-0.036115173
215	0x3dcf2a54	0.10115495
216	0xbe8787fd	-0.26470938
217	0x3d07f8cb	0.03319625
218	0xbc0cd63d	-0.008596
219	0x3dfe4e5e	0.12417291
220	0xbe155e6d	-0.14586802
221	0x3e038ecf	0.12847446
222	0xbe06df32	-0.1317108
223	0x3de83653	0.113384865
224	0x3ea44ae8	0.320884
225	0x3e0b4051	0.13598754
226	0xbd9a08d1	-0.07521213
227	0xbe301488	-0.17195332
228	0xbcbd27a1	-0.023090186
229	0xbd509855	-0.050926525
230	0x3c2b6f86	0.010463601
231	0xbd9ee5e6	-0.077586934
232	0xbda73f37	-0.08166354
233	0xbc97b1fd	-0.018517489
234	0x3e36c3ca	0.17848125
235	0xbe38fa08	-0.1806413
236	0x3cca34f7	0.024683459
237	0x3bd75552	0.0065714503
238	0x3eab8231	0.33497766
239	0x3eba6c67	0.3641083
240	0xbe97d016	-0.29650944
241	0x3e6faa3d	0.23404785
242	0x3c493822	0.0122814495
243	0x3e5bb283	0.21454816
244	0x3e86ec24	0.26352036
245	0x3e1a185b	0.15048353
246	0xbdf5f1e7	-0.1200903
247	0xbdae4bb1	-0.08510531
248	0xbe93efb5	-0.2889382
249	0x3e2cc380	0.16871452
250	0xbd00398c	-0.03130488
251	0xbd1d3d0f	-0.03838831
252	0x3e828a4a	0.2549613
253	0x3d214595	0.039373
254	0xbc878640	-0.016543508
255	0xbe938bfc	-0.28817737

encoder.net.0.bias f4 [60]
0	0x3cff8a1e	0.03119379
1	0x3d874881	0.06605626
2	0xbd75b913	-0.059990954
3	0x3da21a05	0.07915119
4	0x3d830537	0.06397479
5	0x3d4cf8e0	0.050042033
6	0x3d23f3de	0.04002749
7	0x3d48fb41	0.04906774
8	0xbcd0d8d3	-0.025494015
9	0x3e082a88	0.13297474
10	0xbd91d910	-0.071214795
11	0x3d0081ea	0.031373896
12	0x3d9c871e	0.07642959
13	0xbda13e31	-0.0787319
14	0x3d970bd9	0.07375307
15	0x3d7c618b	0.06161646
16	0xbd17616e	-0.03695815
17	0xbd4cedbc	-0.05003141
18	0xbd8e7f80	-0.069579124
19	0x3d358ebd	0.04432558
20	0xbd3493df	-0.044086333
21	0x3c7fc719	0.015611433
22	0x3db746cf	0.089490525
23	0xbd8a6846	-0.0675817
24	0x3d90c4f3	0.07068815
25	0xbd73548a	-0.059406795
26	0x3d992850	0.07478392
27	0x3c683580	0.014172912
28	0x3da62986	0.08113389
29	0xbd88961c	-0.06669256
30	0x3d9a4383	0.07532408
31	0x3dcbcb0b	0.09950837
32	0x3d818c06	0.063255355
33	0x3d360ea7	0.044447567
34	0x3d72cca9	0.05927721
35	0xbdd9b667	-0.106304936
36	0x3d1d70b8	0.038437575
37	0xbd8828f8	-0.06648439
38	0x3d7f182a	0.062278904
39	0x3d7bbddb	0.061460357
40	0x3da25ecc	0.07928237
41	0x3c98e6ea	0.018664796
42	0x3d82d587	0.06388383
43	0xbd59b9c4	-0.053155676
44	0x3d5fc0a3	0.054627072
45	0x3d27334f	0.040820416
46	0x3d169e38	0.036771983
47	0x3cfd7816	0.03094105
48	0x3d657540	0.05602002
49	0xbddc6cd4	-0.10762945
50	0x3dee2337	0.116278104
51	0x3d758b4c	0.059947297
52	0xbd6eaf70	-0.05827278
53	0x3d84ea94	0.06490055
54	0xbbc13724	-0.005896466
55	0xbc4fe89e	-0.012689738
56	0xbd6829d9	-0.056680534
57	0x3cb2854f	0.021792082
58	0x3d558075	0.05212446
59	0xbd8cabfa	-0.068687394

encoder.net.2.weight f4 [60, 60]
0	0x3e648095	0.22314675
1	0xbdec09f6	-0.115253374
2	0xbdcd6e2b	-0.100307785
3	0xbe6365f2	-0.22206858
4	0x3d26fcb9	0.04076836
5	0x3dea6baa	0.114463165
6	0x3e3480f7	0.17627321
7	0x3dc0afcb	0.0940853
8	0x3cffa99e	0.03120881
9	0x3d3b602e	0.04574602
10	0x3c9533fd	0.018213267
11	0xbba71eeb	-0.0051001213
12	0x3d9288c7	0.071549945
13	0x3d990f8e	0.0747367
14	0xbe511307	-0.20417415
15	0x3d7a0315	0.061038096
16	0xbddc2703	-0.107496284
17	0xbddd7379	-0.1081304
18	0xbdf99c73	-0.121880434
19	0xbb3886d8	-0.0028156545
20	0x3c01f03b	0.007930811
21	0x3d8b189f	0.067918055
22	0xbe483a75	-0.1955355
23	0xbc2d42e8	-0.010575034
24	0x3d7edb14	0.062220648
25	0x3bf1480b	0.0073633245
26	0xbe818375	-0.25295606
27	0x3d47b310	0.04875475
28	0xbd127b3b	-0.035762053
29	0x3defb9ec	0.11705384
30	0x3cde1fb1	0.027114721
31	0xbe11c9a3	-0.14237075
32	0xbdd6cbfb	-0.10488125
33	0x3d043e9f	0.032286283
34	0xbd24cab6	-0.040232383
35	0xbe6878c3	-0.22702317
36	0xbd2f1f44	-0.042754427
37	0xbd9349bc	-0.07191798
38	0x3d8ec9c4	0.069720775
39	0x3c9e6aa1	0.019337954
40	0xbddf73f8	-0.10910791
41	0x3d32980c	0.043602034
42	0x3da77cf8	0.08178133
43	0xbd663b42	-0.056208856
44	0xbd2bbd36	-0.041928492
45	0x3d8afa8a	0.06786068
46	0x3e7cb190	0.2467711
47	0xbc9de678	-0.019274935
48	0x3d911f47	0.07086044
49	0xbc2639a2	-0.010145577
50	0x3e421783	0.18954282
51	0xbe73d9be	-0.23813531
52	0xbbd0ba3f	-0.0063698585
53	0xbbd2c81e	-0.0064325472
54	0x3c033c82	0.008010032
55	0x3ca29e0f	0.019850759
56	0x39d528d7	0.00040656954
57	0xbc5982fa	-0.013275856
58	0x3d15a541	0.03653455
59	0xbe696815	-0.2279361
60	0x3e4baaac	0.19889325
61	0xbd826fa5	-0.06368951
62	0x3d1e35e1	0.0386256
63	0x3d5a78aa	0.05333773
64	0xbe502afb	-0.20328896
65	0x3d32c757	0.043647137
66	0x3d561af8	0.052271813
67	0x3df3ec70	0.11910331
68	0xbe94ff64	-0.29101098
69	0xbc7de5c0	-0.015496671
70	0xbe4140fd	-0.18872447
71	0xbdf57ae4	-0.1198633
72	0x3e001f46	0.1251193
73	0x3d16eeb9	0.036848757
74	0x3deb8657	0.11500233
75	0x3d5d2b12	0.053996153
76	0x3e61fb5c	0.22068542
77	0xbe977b32	-0.29586178
78	0xbd445c21	-0.047939423
79	0x3e322349	0.17396273
80	0x3db7dd94	0.089778095
81	0x3e1872ea	0.14887586
82	0x3d75271c	0.05985175
83	0x3d5d33a0	0.05400431
84	0x3d9d254b	0.07673129
85	0xbdc6bf4f	-0.09704458
86	0xbe1d5c46	-0.15367231
87	0x3c3f7a9c	0.011686947
88	0x3cb9c834	0.022678472
89	0xbd173533	-0.03691597
90	0xbd72b5eb	-0.05925552
91	0xbd9a8b2a	-0.07546075
92	0xbd8026ce	-0.062574014
93	0x3e93f250	0.28895807
94	0xbe3a28c4	-0.18179613
95	0x3a4a4696	0.00077162066
96	0xbe2937a2	-0.16525128
97	0x3d7104dd	0.05884253
98	0xbc3b60d6	-0.011436662
99	0xbcac128e	-0.021004941
100	0xbdf12bfb	-0.11775967
101	0xbd17e3d0	-0.037082493
102	0x3c20eb2e	0.009821696
103	0xbd0aedba	-0.03391812
104	0x3e229e0d	0.15880604
105	0x3dc2efba	0.095183805
106	0x3e9373fe	0.28799433
107	0x3df1eb2b	0.11812433
108	0x3e7bb434	0.24580461
109	0x3997662f	0.00028877097
110	0xbc9d58a9	-0.019207316
111	0xbd999c80	-0.07500553
112	0xbda0fd3d	-0.07860801
113	0xbdae37fd	-0.08506773
114	0x3cdce53a	0.026964772
115	0x3b8d1c9f	0.0043063904
116	0xbd8cc779	-0.06873984
117	0x3c64fd1a	0.01397636
118	0x3d9e9793	0.07743754
119	0x3d1b76d1	0.03795511
120	0x3e30bf10	0.17260385
121	0xbba3cf68	-0.00499909
122	0x3e29526d	0.16535349
123	0xbd2e6c19	-0.04258356
124	0x3db88de8	0.090114415
125	0x3d8005a9	0.062510796
126	0x3da8e69a	0.08247109
127	0xbe0d8f16	-0.13824114
128	0x3bf0afd7	0.0073451805
129	0xbe2e6284	-0.17029768
130	0x3e3bebfc	0.1835174
131	0xbe9a438c	-0.3012966
132	0x3d208fe8	0.03919974
133	0xbb5046fe	-0.0031780596
134	0xbe8fe291	-0.28102544
135	0xba1d99d2	-0.0006011996
136	0xbe26a50b	-0.16273896
137	0xbdb3c1ab	-0.087771736
138	0xbe4cb1d0	-0.19989705
139	0xbdc22267	-0.09479218
140	0xbd093ef5	-0.033507306
141	0xbdb12471	-0.08649529
142	0x3d63ce10	0.05561644
143	0xb98680cc	-0.00025654433
144	0xbe17d93c	-0.14828962
145	0xbcf915de	-0.030405935
146	0xbdfc1090	-0.123078465
147	0x3ce95e10	0.028487235
148	0x3dbd7360	0.09250522
149	0x3d959c4f	0.07305204
150	0xbc8c9722	-0.01716191
151	0xbd8c9e2c	-0.068661064
152	0xbd8ffd5b	-0.070307456
153	0x3cba94c4	0.022776015
154	0x3befa155	0.0073129334
155	0xbd02e439	-0.03195593
156	0xbd7ac929	-0.061226998
157	0xbd5ebdf7	-0.054380383
158	0xbdc3fa4b	-0.09569224
159	0xbdd3bcb1	-0.103387244
160	0x3e1244d4	0.14284068
161	0x3d917c3f	0.07103776
162	0xbc14c16c	-0.0090793185
163	0x3de16066	0.11004715
164	0xbe066af2	-0.13126734
165	0x3d36569b	0.044516187
166	0xbe2b3188	-0.16718113
167	0xbe66c77d	-0.22537036
168	0xbe1961fd	-0.14978786
169	0xbd302efe	-0.043013565
170	0x3cc36a9f	0.023854552
171	0xbda13294	-0.07870975
172	0xba46f79b	-0.00075899967
173	0x3dfd7af7	0.12376969
174	0xbe2e8eed	-0.1704671
175	0xbc36f2d8	-0.011166297
176	0xbd97b5c7	-0.07407718
177	0x3b0f5551	0.002187092
178	0x3b09e996	0.002104377
179	0xbdb22461	-0.08698345
180	0xbdb92347	-0.09039932
181	0xbe49b96c	-0.19699639
182	0x3e4eb6db	0.20186941
183	0x3e17d6e4	0.14828068
184	0xbd37a7dc	-0.044837818
185	0x3dbcb925	0.09215001
186	0xbdaa0e3b	-0.083034955
187	0xbe4bfeef	-0.19921468
188	0xbd354485	-0.0442548
189	0x3e162709	0.14663328
190	0x3d996906	0.07490735
191	0xbe085758	-0.13314569
192	0xbe2aa81d	-0.16665693
193	0xbe9e10e6	-0.30872267
194	0x3e1c8b20	0.15287447
195	0x3e0434cb	0.12910764
196	0x3dbcdd31	0.092218764
197	0x3d1e50b3	0.03865118
198	0xbd72ac67	-0.059246447
199	0xbde2ec75	-0.11080257
200	0xbd132841	-0.03592706
201	0x3da01f0e	0.07818423
202	0xbaa3b4dc	-0.0012489813
203	0xbd2e9769	-0.042624865
204	0xbc531bc3	-0.012885037
205	0xbe49db22	-0.19712499
206	0x3db9c130	0.09070051
207	0x3c5a82ec	0.013336878
208	0x3d6d412a	0.057923473
209	0xbe071c73	-0.13194446
210	0xbc7e2484	-0.015511636
211	0x3bdf5279	0.0068152514
212	0xbd9c12ab	-0.07620748
213	0x3daf2cf7	0.08553498
214	0xbc9fb1d3	-0.019493973
215	0xbd0c785f	-0.034294482
216	0xbd24242b	-0.040073555
217	0xbdeb4155	-0.114870705
218	0xbca4f2c9	-0.0201353
219	0xbc4481be	-0.011993824
220	0xbd177343	-0.036975157
221	0xbe31468f	-0.17312072
222	0x3c89fcba	0.016844142
223	0x3e15c353	0.14625292
224	0x3d664761	0.056220416
225	0xbdf3ad16	-0.11898248
226	0xbd76a168	-0.060212523
227	0xbdc74eea	-0.097318485
228	0xbbd7eccb	-0.006589507
229	0xbe12b75c	-0.14327759
230	0xbde5a29f	-0.11212658
231	0x3d64e375	0.055880982
232	0x3cc6eb9c	0.02428227
233	0xbddc32cb	-0.107518755
234	0xbdbacc88	-0.091210425
235	0xbe547f7b	-0.20751755
236	0x3ddb6d7e	0.10714243
237	0xbda00cf1	-0.078149684
238	0x3d2da29d	0.04239141
239	0xbe5b53a8	-0.21418631
240	0xbe10cd44	-0.14140803
241	0xbdd56d5e	-0.10421251
242	0xbc01264a	-0.007882664
243	0xbc64fe2d	-0.013976616
244	0x3ddd5e68	0.10809022
245	0x3e321b46	0.17393216
246	0x3e18bb6b	0.14915244
247	0x3cc87d44	0.024473794
248	0xbe1353f4	-0.14387494
249	0xbd1f6ad2	-0.03892023
250	0x3d024e48	0.031812936
251	0xbd8cb7b6	-0.068709776
252	0x3e580bb6	0.21098217
253	0xbe3b16d0	-0.18270421
254	0xbd1ee52b	-0.03879277
255	0xbc9ddc9c	-0.019270234

encoder.net.2.bias f4 [60]
0	0xbd166907	-0.036721256
1	0x3cb1ff8b	0.021728298
2	0xbd8e721c	-0.069553584
3	0x3d9d09cc	0.07667884
4	0xbd9dcc45	-0.07704977
5	0x3d8e912f	0.06961285
6	0x3d5e6e64	0.054304495
7	0xbd901559	-0.07035322
8	0x3d68ea89	0.056864295
9	0xbd999544	-0.07499173
10	0x3d3db145	0.046311636
11	0xbdbd58c7	-0.092454486
12	0xbd977688	-0.07395655
13	0xbd8023cb	-0.06256827
14	0xbd93cd13	-0.07216849
15	0x3c3b3a22	0.011427434
16	0xbd82601f	-0.0636599
17	0xbda269f3	-0.079303645
18	0xbd6846f7	-0.056708302
19	0x3d81e587	0.06342607
20	0x3d964981	0.073382385
21	0xbda12630	-0.07868612
22	0x3d6f427b	0.05841301
23	0xbd73c572	-0.05951447
24	0xbb539a21	-0.0032287913
25	0xbd9dc3c8	-0.07703358
26	0xbd5eb4db	-0.054371696
27	0x3d90b3e9	0.07065565
28	0xbdc63841	-0.09678698
29	0xbd9704e8	-0.07373983
30	0xbd4d8e56	-0.05018457
31	0xbdbda079	-0.09259123
32	0xbd8c8752	-0.06861748
33	0x3d8a8175	0.06762973
34	0xbd92b84b	-0.07164057
35	0xbd97c960	-0.07411456
36	0xbca1e197	-0.01976089
37	0xbda0d171	-0.07852448
38	0x3d66fe8f	0.05639511
39	0x3d48529f	0.04890692
40	0xbd8fb03d	-0.07016037
41	0xbdcbe2ab	-0.09955343
42	0xbdde2839	-0.108475156
43	0xbd9a576f	-0.07536208
44	0x3d7e0c2e	0.062023334
45	0x3d2a1ae3	0.041529547
46	0xbd8a3b95	-0.067496456
47	0x3d9c1123	0.07620456
48	0x3d0f071e	0.034918897
49	0x3d8e823e	0.069584355
50	0x3d87d7f8	0.0663299
51	0x3d642c64	0.055706397
52	0x3d9e2092	0.07721056
53	0xbd8276fc	-0.06370351
54	0x3d8cffc2	0.068847194
55	0xbd8424e0	-0.06452346
56	0x3d79a128	0.060944706
57	0xbd7b4954	-0.061349228
58	0xbd4fb79b	-0.05071221
59	0x3d73846c	0.05945246

encoder.net.5.weight f4 [32, 60]
0	0xbc76e1c1	-0.015068472
1	0x3d359577	0.044331994
2	0xbd005876	-0.031334363
3	0xbe555e56	-0.20836768
4	0x3e4c2c42	0.19938758
5	0xbe20ec66	-0.15715179
6	0x3e9d33bf	0.30703542
7	0x3d7b5563	0.061360728
8	0x3c4d6a2f	0.012537523
9	0xbd5e8ec7	-0.05433538
10	0xbe0c2a79	-0.13688077
11	0xbe6847ad	-0.22683592
12	0x3e488492	0.19581822
13	0x3c4b4768	0.012407161
14	0xbe25b2b2	-0.16181448
15	0xbdc8eea9	-0.09811146
16	0xbce45dfb	-0.027876845
17	0xbd134b98	-0.035960764
18	0xbdb45420	-0.08805108
19	0xbe9340a1	-0.28760245
20	0xbcb01c00	-0.021497726
21	0xbe294fef	-0.16534398
22	0x3e857b65	0.26070705
23	0x3d50d959	0.05098853
24	0xbda623c5	-0.08112291
25	0x3e195416	0.14973482
26	0xbe38dbc6	-0.18052587
27	0xbca1f936	-0.019772153
28	0x3b6d18e3	0.0036178164
29	0xbd0c383a	-0.03423331
30	0x3d3628f5	0.044472653
31	0xbdb5c66b	-0.08875736
32	0xbd21d2d1	-0.03950769
33	0x3d866b01	0.06563378
34	0x3c7ad61b	0.015309836
35	0xbde0c73a	-0.109754995
36	0xbdb1c5d2	-0.08680309
37	0xbe866ae3	-0.26253423
38	0x3cdaf179	0.026726471
39	0x3e236d1b	0.15959589
40	0x3e66a2a0	0.22522974
41	0xbe0a6dfa	-0.13518515
42	0x3db45f53	0.08807244
43	0x3d0a934f	0.03383189
44	0x3c90908a	0.017647047
45	0x3e982abc	0.29720104
46	0xbe75cd55	-0.24004109
47	0x3e5a1cfa	0.21300116
48	0xbe403a06	-0.18772134
49	0x3e3a5eae	0.1820018
50	0xbd0201b2	-0.031739898
51	0x3cceec28	0.025259092
52	0xbdc8535e	-0.09781526
53	0xbd105ba7	-0.035243656
54	0xbc0e6499	-0.008690977
55	0xbd56b744	-0.05242087
56	0x3d745dbb	0.0596597
57	0xbe19f9bf	-0.15036677
58	0x3b3ed002	0.0029115682
59	0xbd9aa304	-0.07550624
60	0xbda161f8	-0.07880014
61	0xbddb3d6c	-0.10705075
62	0x3e1b2480	0.15150642
63	0xbe9037e1	-0.28167632
64	0xbdb0b478	-0.08628172
65	0xbdfb16a6	-0.12260179
66	0x3dccf6e1	0.10008026
67	0xbd576909	-0.052590404
68	0xbe82b13e	-0.2552585
69	0xbe3e30e9	-0.18573345
70	0x3d22a12e	0.039704494
71	0xbd1200a9	-0.03564516
72	0xbe583a29	-0.21115936
73	0x3e8ac6e1	0.27104858
74	0x3ba2d3a7	0.0049690786
75	0xbe30cc8d	-0.1726553
76	0xbdbb1e45	-0.09136633
77	0xbde9fb87	-0.11424928
78	0xbe2b2ef4	-0.1671713
79	0xbd18e351	-0.03732616
80	0x3e25a561	0.16176368
81	0xbe2dda09	-0.16977705
82	0x3df1fdbf	0.11815976
83	0x3d071875	0.03298231
84	0x3d98c5af	0.0745958
85	0x3e597098	0.21234357
86	0x3e065312	0.13117626
87	0x3e106efc	0.14104837
88	0xbe399749	-0.18124117
89	0x3d23df58	0.04000792
90	0xbe143736	-0.14474186
91	0xbd76d7b1	-0.060264293
92	0x3dfe7139	0.12423939
93	0x3d69550f	0.056965884
94	0xbdbe814a	-0.09302004
95	0x3e7b8469	0.24562229
96	0x3ea58864	0.3233062
97	0x3da62d3b	0.08114096
98	0x3e831ef2	0.25609547
99	0x3dfe89f0	0.12428653
100	0x3e2bce5d	0.1677794
101	0xbd9b9720	-0.07597184
102	0x3af2ff5b	0.0018539237
103	0xbdc59e5c	-0.09649345
104	0x3e44edd8	0.19231355
105	0x3e2a4435	0.16627581
106	0x3c58dd94	0.013236422
107	0xbd11ee01	-0.03562737
108	0xbd88c84f	-0.06678831
109	0x3d0d8881	0.03455401
110	0x3dabcc6d	0.083886005
111	0xbd7c3f24	-0.061583653
112	0x3e05b52b	0.13057391
113	0x3e71e8a2	0.23623899
114	0x3d740653	0.059576344
115	0xbd3b2b13	-0.045695376
116	0xbefce044	-0.4938985
117	0x3e150e12	0.14556149
118	0x3d21f9b5	0.03954478
119	0xbe91b85b	-0.28460965
120	0x3e9c01ec	0.30470216
121	0xbdddcb45	-0.10829786
122	0xbdf241f9	-0.118289895
123	0xbc61f04a	-0.0137901995
124	0x3c2e9e5e	0.010657875
125	0x3d85ea03	0.06538775
126	0x3c613f6a	0.013748029
127	0xbecb0ef9	-0.3965986
128	0xbb7e34d0	-0.0038788803
129	0x3d9a3a95	0.07530705
130	0x3cafa058	0.021438763
131	0x3ce6016d	0.028076852
132	0x3d1aa16b	0.037751596
133	0x3dfcf202	0.12350847
134	0xbe76259d	-0.24037786
135	0x3e3b9df4	0.18321973
136	0x3ea94926	0.3306362
137	0xbdc38dfd	-0.095485665
138	0xbd3a40cc	-0.04547195
139	0xbbaee76e	-0.005337647
140	0x3e0a72a5	0.13520296
141	0xbe126242	-0.14295295
142	0x3cfd9a0e	0.030957248
143	0x3c9dcf1d	0.019263798
144	0x3cd675c5	0.026179204
145	0xbd28b574	-0.041188672
146	0x3de09c15	0.1096727
147	0xbb7f4396	-0.0038950196
148	0xbeb165f6	-0.34648103
149	0x3e0adc19	0.13560523
150	0x3c9d9dea	0.019240338
151	0xbeba0c53	-0.36337528
152	0xbdc3410b	-0.0953389
153	0xbd61e182	-0.0551467
154	0x3cd35969	0.02579947
155	0xbdb425ea	-0.08796294
156	0x3db495f7	0.08817666
157	0xbe0bc496	-0.1364921
158	0x3ea02de0	0.31285
159	0x3d1848b7	0.03717872
160	0xbcb31c16	-0.021863978
161	0x3e942494	0.28934157
162	0x3c62b87f	0.013837933
163	0x3d19d446	0.037555955
164	0x3ca64b54	0.020299591
165	0xbd9ccbe7	-0.07656079
166	0x3d5e6170	0.054292142
167	0x3d918beb	0.07106765
168	0xbd882a67	-0.066487126
169	0x3dd040d9	0.10168619
170	0x3e98bb70	0.29830503
171	0xbe14bd82	-0.14525416
172	0xbdc4e787	-0.09614473
173	0x3db718f8	0.08940309
174	0x3da7b4b2	0.08188762
175	0xbb9f922d	-0.0048697204
176	0x3daad07d	0.08340547
177	0x3d0ef9ca	0.034906186
178	0x3e5b58bb	0.21420567
179	0x3e297dd2	0.16551903
180	0xbe8d91b7	-0.27650234
181	0x3de3118e	0.11087333
182	0x3d153db2	0.03643579
183	0xbd14ba12	-0.036310263
184	0x3dbf5901	0.09343148
185	0xbdb70f01	-0.08938409
186	0x3e8d9baa	0.27657825
187	0xbdd5a6b5	-0.104321875
188	0x3dbe4e50	0.09292281
189	0xbc3710ae	-0.01117341
190	0x3e507b50	0.2035954
191	0xbdb75326	-0.08951406
192	0xbe8b58d3	-0.27216205
193	0x3e891dcf	0.26780555
194	0xbea830bd	-0.32849684
195	0xbe625e29	-0.22106232
196	0xbad6a142	-0.0016374963
197	0x3d5e36de	0.054251544
198	0x3e3250e2	0.17413667
199	0x3e4d0c55	0.20024236
200	0x3e7aa14e	0.24475595
201	0x3d8e8d11	0.069605
202	0x3d674e69	0.056471262
203	0x3d4260b3	0.0474555
204	0xbd27ed1e	-0.040997617
205	0x3de35520	0.11100221
206	0xbe7352a9	-0.23762001
207	0xbd10cb3b	-0.035350066
208	0x3da43be8	0.08019239
209	0xbe241b67	-0.16026078
210	0xbe476700	-0.19472885
211	0x3e4e8a74	0.20170003
212	0x3dc66efb	0.096891366
213	0xbc6cfeaa	-0.0144650135
214	0xbe31ea85	-0.17374618
215	0xbc99bd44	-0.018767007
216	0xbde3ef49	-0.111296244
217	0x3e1f629a	0.15564957
218	0x3d675e7c	0.05648659
219	0xbe51b27a	-0.2047824
220	0xbd96b7e6	-0.073592946
221	0x3e0dc723	0.13845496
222	0xbdbd7c12	-0.0925218
223	0xbcde3971	-0.027127
224	0x3d0782ae	0.03308361
225	0x3c82b12a	0.015953619
226	0xbe095726	-0.1341215
227	0x3e3e2780	0.18569756
228	0xbb9a81ef	-0.0047151963
229	0xbe5cfa3e	-0.21579835
230	0x3e671633	0.22567062
231	0xbd894541	-0.06702662
232	0xbd33ee34	-0.04392834
233	0xbdb6a3d8	-0.089179695
234	0x3db313fa	0.087440446
235	0x3c1998dc	0.009374823
236	0xbe0316cf	-0.1280167
237	0xbe47df9f	-0.19518898
238	0xbdeb845a	-0.114998534
239	0x3d134b67	0.03596058
240	0x3e0846a0	0.13308191
241	0x3d0a6bc0	0.033794165
242	0xbd521a1a	-0.051294424
243	0xbb28d27b	-0.0025760222
244	0x3d6ce109	0.057831798
245	0x3e2633fb	0.16230766
246	0xbd93d6df	-0.07218718
247	0xbda1a9cf	-0.078937165
248	0xbe3d7804	-0.18502814
249	0x3d93227d	0.071843125
250	0xbc97ec7f	-0.018545387
251	0xbc437c6b	-0.011931519
252	0x3e92dc1f	0.28683564
253	0xbd4b3d05	-0.04961874
254	0x3c7c6386	0.015404588
255	0xbd2892cc	-0.04115562

encoder.net.5.bias f4 [32]
0	0x3d99515e	0.07486223
1	0x3da2fc8d	0.079583265
2	0x3d9f594c	0.07780704
3	0x3d89577a	0.06706138
4	0x3d9b9253	0.075962685
5	0xbd9b5ab9	-0.07585663
6	0x3da34139	0.079714246
7	0x3d65015f	0.05590951
8	0x3e044fe1	0.12921096
9	0xbdabddad	-0.08391891
10	0xbd9ba579	-0.07599921
11	0xbda1dac8	-0.07903057
12	0x3d5241ae	0.05133217
13	0x3d8d9473	0.0691308
14	0x3da56a2d	0.08076892
15	0x3ddc5632	0.10758628
16	0xbd58359b	-0.052785497
17	0xbdead1a0	-0.11465764
18	0xbda549d2	-0.08070721
19	0x3dc9ab96	0.098471805
20	0xbd8e1cda	-0.06939097
21	0xbd92641b	-0.07148
22	0x3d09b6be	0.033621542
23	0xbd8ce509	-0.068796225
24	0xbda9f7a3	-0.08299186
25	0x3da55357	0.080725364
26	0x3dcb052f	0.09913098
27	0xbd9c0161	-0.076174505
28	0xbd51e844	-0.051246896
29	0xbd77c1f3	-0.0604877
30	0xbdb7c58f	-0.08973228
31	0xbd4092ce	-0.047015004

predictor.net.1.weight f4 [32, 32]
0	0x3d426b23	0.047465455
1	0x3e2a1f36	0.16613469
2	0xbebcb847	-0.36859342
3	0xbda4808d	-0.080323316
4	0xbdf6a111	-0.1204244
5	0x3da4f227	0.080539994
6	0xbdc63fcb	-0.09680136
7	0x3dba00b4	0.09082165
8	0x3e5dace3	0.21647982
9	0x3da96613	0.08271422
10	0xbc125d07	-0.008933312
11	0x3d6c3255	0.057665188
12	0x3dcac0b1	0.09900034
13	0x3e1b8ca8	0.15190375
14	0x3ef5e59d	0.48026744
15	0xbe459a84	-0.19297224
16	0x3d956d80	0.07296276
17	0xbe3712f6	-0.17878327
18	0x3e662fdb	0.22479193
19	0xbe082699	-0.13295974
20	0x3ea42820	0.32061863
21	0x3ec5275d	0.38506594
22	0xbb2afecc	-0.0026091812
23	0xbd4e6e31	-0.050398055
24	0xbb6dc345	-0.003627972
25	0x3d8b2fa4	0.06796196
26	0xbcf36ed2	-0.02971593
27	0xbd02ed55	-0.03196462
28	0x3d9c4fe4	0.076324254
29	0xbe1c92be	-0.15290353
30	0xbd8d3ab8	-0.06895965
31	0xbdbdac1a	-0.092613414
32	0x3e2aef99	0.16692962
33	0xbd603a95	-0.05474337
34	0x3d808a6f	0.06276404
35	0x3e96650b	0.29373965
36	0xbd9d4efd	-0.076810814
37	0xbd860202	-0.06543352
38	0x3e798793	0.24368124
39	0xbe15034c	-0.14552039
40	0x3de05a33	0.10954704
41	0xbe83cae6	-0.25740737
42	0x3e2d69e5	0.16934927
43	0xbddba35e	-0.10724519
44	0xbed63289	-0.4183543
45	0x3c8bae3c	0.017050855
46	0xbdab08ec	-0.08351311
47	0x3d54ab22	0.051921017
48	0xbe438b20	-0.1909604
49	0xbdf4dc1b	-0.11956044
50	0xbe749e5f	-0.23888539
51	0x3db61c89	0.088921614
52	0x3d25acf3	0.04044814
53	0x3d986c77	0.07442563
54	0xbdc59203	-0.0964699
55	0xbdc34638	-0.095348775
56	0x3e23ddb2	0.16002539
57	0xbe29a58e	-0.1656706
58	0xbd101bd1	-0.035182778
59	0x3d0ac174	0.033875898
60	0x3de1ab6f	0.110190265
61	0xbcbce431	-0.023058029
62	0xbdac6eac	-0.084195465
63	0xbd473dc4	-0.04864289
64	0x3ee0e8a7	0.439275
65	0xbd44fe3b	-0.048094016
66	0xbdd5fe19	-0.10448856
67	0x3cfdefef	0.030998198
68	0x3cd4bd96	0.025969308
69	0xbad39fbd	-0.0016145628
70	0x3e8203fb	0.25393662
71	0x3daf125e	0.08548425
72	0xbeb81fbf	-0.3596172
73	0x3d6699b4	0.056298926
74	0xbd931a78	-0.07182783
75	0x3d8856bf	0.066571705
76	0x3f12098d	0.57045823
77	0x3b986d5b	0.004651708
78	0x3e1dc70d	0.15407963
79	0x3db879f1	0.090076335
80	0x3e3f3419	0.18672217
81	0xbc059f38	-0.0081556365
82	0xbd095ddf	-0.033536788
83	0x3e2cc4c5	0.16871937
84	0xbcec734f	-0.028863577
85	0xbe607c50	-0.21922421
86	0x3da1d2b2	0.07901515
87	0xbdc1e5d7	-0.094676666
88	0x3b26515a	0.002537808
89	0x3e856895	0.26056352
90	0x3d343d60	0.044003844
91	0xbe1699ca	-0.14707103
92	0xbe426de3	-0.18987231
93	0x3da90d1e	0.08254455
94	0x3a6b5f5a	0.0008978747
95	0xbd5ce3a7	-0.053928044
96	0xbe016844	-0.1263743
97	0xbda8d22e	-0.082432136
98	0xbe0cbb04	-0.13743216
99	0x3ea4aa5c	0.32161224
100	0xbc627d50	-0.013823822
101	0x3eb0d869	0.34540108
102	0x3d11a533	0.035557937
103	0xbd021844	-0.031761423
104	0x3cc8b57c	0.024500601
105	0x3db886d8	0.090100944
106	0xbe181238	-0.148507
107	0x3dccd9a3	0.100024484
108	0x3ead3a5f	0.33833596
109	0x3e7257a4	0.23666245
110	0xbc936ab4	-0.017995216
111	0xbe62e0d4	-0.22156078
112	0x3d46f4da	0.048573352
113	0x3c4a141b	0.012333895
114	0x3dd2ca3e	0.10292481
115	0xbe4af4de	-0.19819972
116	0x3e23624d	0.15955468
117	0xbe4d5c16	-0.20054659
118	0x3db0061f	0.085949175
119	0xbea58241	-0.32325938
120	0x3c02aba3	0.007975492
121	0x3e9ce467	0.30643007
122	0x3ddd2edf	0.107999556
123	0xbf0a6600	-0.5406189
124	0x3cc1f141	0.02367461
125	0x3e02d17f	0.12775229
126	0x3ce07d63	0.027403539
127	0xbe1c5e03	-0.15270238
128	0xbe8d2cc1	-0.27573207
129	0xbb25c0f0	-0.0025292002
130	0x3d03c612	0.032171316
131	0xbda1a1d3	-0.07892194
132	0x3d66cda7	0.05634847
133	0x3e918e01	0.28428653
134	0x3e255cb6	0.16148648
135	0xbe14b79b	-0.14523165
136	0x3dc91b63	0.09819677
137	0x3e0060c1	0.12536909
138	0xbdeaf17b	-0.1147184
139	0x3d6c62a3	0.057711255
140	0x3db7a392	0.089667454
141	0x3dfacad5	0.122457184
142	0x3e3f5ec0	0.18688488
143	0xbd1c62c9	-0.038180146
144	0x3d55baef	0.052180227
145	0xbcfaeeb1	-0.030631395
146	0x3e6f73d9	0.23384036
147	0xbe9a7ec0	-0.30174828
148	0xbe50d9d1	-0.2039559
149	0xbd6b69c9	-0.05747393
150	0x3dfa21e8	0.12213498
151	0x3d41172c	0.04714124
152	0x3d4a69e7	0.049417403
153	0x3d83ef26	0.06442098
154	0xbce72dfc	-0.02822017
155	0xb9db3100	-0.00041807443
156	0xbdb368e3	-0.0876024
157	0xbe6efb52	-0.23338059
158	0x3c8f1b7e	0.017469164
159	0x3dd8a3f4	0.105781466
160	0xbd086aa7	-0.033304837
161	0x3ddf5ae8	0.10906011
162	0x3ee1a25f	0.44069192
163	0x3d340c94	0.043957308
164	0x3eadd4d1	0.3395143
165	0xbdc96651	-0.098339684
166	0xbdc6b551	-0.09702552
167	0x3becfe29	0.0072324467
168	0xbe10e786	-0.14150819
169	0x3e7707c2	0.24124053
170	0xbe01117b	-0.12604325
171	0xbe889470	-0.2667575
172	0x3db671a4	0.08908394
173	0xbe6ec286	-0.23316392
174	0xbdde840f	-0.10865032
175	0xbc8d5393	-0.017251765
176	0x3d9b1946	0.0757318
177	0xbc81759b	-0.015803149
178	0xbb347e5b	-0.0027541134
179	0xbe69a908	-0.22818387
180	0x3be2f815	0.0069265463
181	0x3cb6922f	0.022286503
182	0x3d6aef83	0.057357322
183	0xbe0e8052	-0.13916138
184	0x3d06cce6	0.03291025
185	0xbf0fd059	-0.5617729
186	0x3e9aef77	0.30260822
187	0x3da27531	0.07932509
188	0x3e7f3cd3	0.24925546
189	0x3e041dbd	0.12901969
190	0xbec03efb	-0.3754805
191	0x3e008ca1	0.12553646
192	0x3ae05d31	0.0017117617
193	0xbe0f7fb5	-0.1401356
194	0x3e7851e3	0.24249987
195	0x3e1673e3	0.14692645
196	0x3d15a700	0.036536217
197	0xbd1be725	-0.038062233
198	0xbd8413f5	-0.06449119
199	0x3edb1fa1	0.42797568
200	0xbdab44fd	-0.08362768
201	0xbdf6aa83	-0.12044241
202	0x3d2a1532	0.04152412
203	0x3d214df1	0.03938097
204	0x3d50e9e2	0.051004298
205	0xbe14a018	-0.14514196
206	0xbe8d7364	-0.276271
207	0xbe339e69	-0.17540897
208	0xbded4da0	-0.115870714
209	0xbe2cabd6	-0.16862425
210	0xb9a08694	-0.00030617847
211	0x3d3100e9	0.04321376
212	0xbdbb47d6	-0.09144561
213	0x3deb8668	0.11500245
214	0xbcc7aef5	-0.024375418
215	0xbe31b594	-0.17354423
216	0x3ddf3c8b	0.109002195
217	0x3e99eede	0.30065054
218	0x3dd24ac6	0.10268168
219	0xbe2258cf	-0.1585419
220	0x3b2ddb7a	0.0026528523
221	0xbe59c497	-0.212664
222	0xbc8bd21a	-0.017067958
223	0x3df67cc6	0.120355174
224	0x3e04e51b	0.12978022
225	0x3e964344	0.29348195
226	0xbd23487f	-0.03986406
227	0x3e5b5bc5	0.21421726
228	0xbdb3366c	-0.087506145
229	0xbcbef81a	-0.023311663
230	0xbdfaca00	-0.1224556
231	0xbcadd3a7	-0.021219088
232	0x3eaff574	0.34366953
233	0xbe1d8ef2	-0.1538656
234	0x3dab84f9	0.08374972
235	0x3dbac212	0.09119047
236	0xbe3a8e84	-0.18218428
237	0x3e253b83	0.16135983
238	0x3dc29ab3	0.09502163
239	0x3be1d339	0.006891635
240	0xbcda6c01	-0.026662828
241	0x3e04737e	0.12934682
242	0x3e11ecae	0.14250442
243	0x3e9df781	0.30852893
244	0xbdd14eb6	-0.10220091
245	0xbdaa7c85	-0.083245315
246	0xbdf6cc89	-0.12050731
247	0xbc9cc726	-0.01913793
248	0x3d73337e	0.05937528
249	0x3e4a79a8	0.1977297
250	0xbe6aec59	-0.22941722
251	0xbe03b48a	-0.12861839
252	0x3da25bcb	0.07927664
253	0x3e3ba72d	0.18325491
254	0xbc227d7c	-0.009917613
255	0x3d90cb50	0.07070029

predictor.net.1.bias f4 [32]
0	0x3dd99132	0.10623397
1	0x3dcf5117	0.101228885
2	0xbe0e2934	-0.13882905
3	0xbe00a21b	-0.12561838
4	0x3dbd6b19	0.09248943
5	0x3ddabed1	0.106809266
6	0x3dbdb7b6	0.09263556
7	0xbdea7507	-0.114481024
8	0xbdcef9ad	-0.101062156
9	0xbddd5917	-0.10808008
10	0x3ddd4540	0.10804224
11	0x3df759e4	0.12077692
12	0xbdd97127	-0.10617285
13	0xbdd142c5	-0.102178134
14	0x3d8feab3	0.07027187
15	0xbdcf5a07	-0.10124593
16	0x3ddb087c	0.10694978
17	0x3dbbe6fa	0.09174915
18	0xbdd3751e	-0.10325073
19	0x3dda6dfd	0.1066551
20	0x3de078a5	0.10960511
21	0x3defe34c	0.11713275
22	0x3ddd0248	0.10791451
23	0xbddb47dc	-0.107070655
24	0xbddeff35	-0.10888521
25	0x3dba99f5	0.09111396
26	0xbde24c12	-0.110496655
27	0x3ddacc2a	0.106834725
28	0x3e5357b3	0.20638923
29	0x3dc9cd97	0.09853666
30	0x3de87a23	0.11351421
31	0xbdde919a	-0.10867615

predictor.net.3.weight f4 [1, 32]
0	0x3eba4819	0.3638313
1	0x3ee23bc9	0.44186237
2	0xbd6b7679	-0.05748603
3	0xbe0b5769	-0.13607563
4	0x3c234a71	0.009966479
5	0x3e24127c	0.16022676
6	0x3d4fe96c	0.050759718
7	0xbdf6f979	-0.12059302
8	0xbe9ee70d	-0.31035653
9	0xbe30970a	-0.17245117
10	0x3e9adae1	0.30245116
11	0x3e23789a	0.15963975
12	0xbea19c5d	-0.31564608
13	0xbda7ffbd	-0.08203075
14	0xbcca876e	-0.024722781
15	0xbe9b3f3d	-0.30321684
16	0x3e5409b8	0.20706832
17	0x3ea38d27	0.31943628
18	0xbf1429d7	-0.5787634
19	0x3ddecd2f	0.108789794
20	0x3e77df6a	0.2420632
21	0x3e7a36e4	0.24435002
22	0x3e2a2454	0.1661542
23	0xbe8da0c6	-0.27661723
24	0xbea35186	-0.31898135
25	0x3ef7e192	0.48414284
26	0xbe95b6ea	-0.29241115
27	0x3e92c813	0.2866827
28	0x3d3cc7d9	0.046089027
29	0x3ea5cce0	0.3238287
30	0x3e82228b	0.2541698
31	0xbe6b91aa	-0.23004785

net.0.weight f4 [60, 35]
0	0x3e3a1d23	0.18175177
1	0x3e48d234	0.19611436
2	0x3d8fa87f	0.0701456
3	0xbd9ba64a	-0.076000765
4	0xbd93dc1b	-0.07219716
5	0x3da18587	0.078867964
6	0x3d93fcd0	0.072259545
7	0xbdfa2a4e	-0.122151
8	0x3d6bc449	0.05756024
9	0xbe4a96d8	-0.19784105
10	0xbc6a7f95	-0.0143126445
11	0xbe1e4e7c	-0.15459627
12	0x3cfe1102	0.03101397
13	0xbe8162a6	-0.25270575
14	0xbd389211	-0.045061175
15	0xbe2e7fdb	-0.1704096
16	0xbe2011fb	-0.15631859
17	0xbdd13047	-0.10214286
18	0x3e209aef	0.15684102
19	0xbdb3fb8f	-0.08788215
20	0xbd915224	-0.07095745
21	0xbb94ed69	-0.004544903
22	0xbc3a97a1	-0.01138869
23	0xbd17c89b	-0.037056547
24	0xbce7f142	-0.028313283
25	0x3cd26504	0.025682934
26	0xbb8e4b11	-0.0043424447
27	0x3e4d9a54	0.20078403
28	0xbdbe7861	-0.09300304
29	0x3e33a5c5	0.17543705
30	0x3bdc4a81	0.0067227487
31	0xbd95f99b	-0.07322999
32	0xbd0afac8	-0.03393057
33	0xbe2cd60b	-0.16878526
34	0xbdeebc8f	-0.116570584
35	0x3d63f5d1	0.05565435
36	0x3d0c6beb	0.034282606
37	0x3e1a4235	0.15064318
38	0xbd95033f	-0.0727601
39	0x3dc222dc	0.09479305
40	0xbe4c5747	-0.19955169
41	0xbe58a6ed	-0.21157427
42	0x3c9f8bbf	0.019475816
43	0x3e5ad53b	0.21370403
44	0xbd96dce0	-0.07366347
45	0x3c6c761c	0.014432456
46	0xbb99043c	-0.004669694
47	0xbb8de0da	-0.004329783
48	0x3c8385a7	0.016054941
49	0xbd924923	-0.07142856
50	0xbea7901e	-0.3272714
51	0xbebdbc39	-0.37057665
52	0xbd864775	-0.06556598
53	0x3cc55f0a	0.02409317
54	0x3d03ec83	0.032207977
55	0xbd53ae5c	-0.051679954
56	0x3bdf177d	0.00680822
57	0x3d190cd5	0.037365753
58	0x3e3b2899	0.18277206
59	0x3da98df5	0.08279029
60	0xbbe25d32	-0.0069080824
61	0x3e0a385e	0.13498065
62	0x3df57f27	0.11987143
63	0xbcbe6411	-0.023241075
64	0xbccab492	-0.024744306
65	0xbe897fcb	-0.2685531
66	0x3d8c62f3	0.068548106
67	0xbe774fc3	-0.2415152
68	0xbd687b9f	-0.05675852
69	0x3b32f5b0	0.0027307086
70	0xbe64ba0f	-0.223366
71	0x3ca11ac2	0.01966608
72	0xbe140650	-0.14455533
73	0x3cda230f	0.026628045
74	0xbd64f747	-0.055899885
75	0xbe265d58	-0.16246545
76	0x3da9c4aa	0.08289464
77	0xbc393810	-0.01130487
78	0x3dba6feb	0.09103378
79	0xbe297486	-0.16548356
80	0xbccf1e17	-0.025282903
81	0xbe0d1c50	-0.13780332
82	0xbe38a1ab	-0.18030421
83	0x3d99b926	0.075060174
84	0x3de7c526	0.113169
85	0xbecb3c04	-0.39694226
86	0xbd08958e	-0.03334575
87	0x3d5e88ca	0.05432967
88	0x3d79ed0a	0.061017074
89	0xbd97cf8a	-0.07412632
90	0xbe3ef079	-0.1864642
91	0xbe4b5dd6	-0.19860014
92	0x3e083cbf	0.13304423
93	0x3bae69a3	0.0053226515
94	0x3e1851ff	0.14875029
95	0x3d6de890	0.058083117
96	0x3deb7870	0.11497581
97	0x3cf12ddf	0.029440818
98	0xbc56287f	-0.013071178
99	0x3db801e4	0.089847356
100	0x3c7d6ff1	0.015468583
101	0xbd276246	-0.040865205
102	0x3e68d6f6	0.22738251
103	0x3ccd9980	0.025097609
104	0xbe0ced74	-0.13762456
105	0xbdd3b163	-0.10336568
106	0xbe722508	-0.23646939
107	0xbdd00250	-0.10156691
108	0x3c04010a	0.008056888
109	0x3df448b9	0.11927933
110	0x3d759355	0.05995496
111	0x3ef275c3	0.4735547
112	0xbdc5b8dc	-0.096544
113	0xbce86d4e	-0.028372433
114	0x3e08ae81	0.13347818
115	0x3e4f7f34	0.20263368
116	0xbcae288c	-0.021259569
117	0x3d78ab3f	0.060710188
118	0xbd7d9b3e	-0.06191563
119	0x3e2db05e	0.1696181
120	0x3e2b11ff	0.16706084
121	0xbc084de1	-0.008319349
122	0xbe17dcb3	-0.14830284
123	0x3cafa35d	0.021440202
124	0xbdd894a6	-0.105752274
125	0x3d4696e0	0.04848373
126	0xbbd55ade	-0.0065110764
127	0x3d4d33d1	0.050098244
128	0x3f045c44	0.51703286
129	0xbe36fb83	-0.17869382
130	0xbe651588	-0.22371495
131	0xbdb4aa5f	-0.08821558
132	0xbe7db6fe	-0.24776837
133	0x3df9a6ee	0.121900424
134	0x3c8897f8	0.016674027
135	0x3d86500d	0.06558237
136	0x3df9c709	0.12196166
137	0x3d489e30	0.048978984
138	0xbe546e16	-0.2074512
139	0xbe9dd53b	-0.30826744
140	0x3d96495f	0.07338213
141	0xbe69ea05	-0.22843178
142	0xbe3cdde4	-0.1844402
143	0x3d7deff5	0.06199642
144	0xbd9d2d54	-0.07674661
145	0xbd963ac6	-0.07335429
146	0xbcd2a4c6	-0.025713336
147	0x3d8bd255	0.06827227
148	0x3db5f564	0.08884695
149	0x3d893364	0.06699255
150	0x3ab9042d	0.0014115624
151	0xbd018f0b	-0.031630557
152	0xbe70c271	-0.23511674
153	0xbd413df4	-0.047178224
154	0xbccf1903	-0.025280481
155	0x3e075178	0.13214672
156	0xbca60d19	-0.020269917
157	0x3e15ba4d	0.1462185
158	0xbddb5e04	-0.107112914
159	0x3dbb466b	0.091442905
160	0xbc18772a	-0.009305755
161	0x3d3d0d96	0.046155535
162	0xbe960fa0	-0.29308796
163	0xbdf410db	-0.119172774
164	0xbda65683	-0.081219696
165	0x3cbb1c7d	0.022840733
166	0x3dca0b64	0.09865454
167	0xbe24d636	-0.1609734
168	0xbe682f3c	-0.22674268
169	0x3c9657a7	0.018352343
170	0xbcef39b9	-0.029202329
171	0xbc8ff3f7	-0.017572386
172	0xbe5bcb84	-0.21464354
173	0x3dda6034	0.106628805
174	0xbdc31619	-0.09525699
175	0x3e54e02c	0.2078864
176	0x3dd2a70a	0.102857664
177	0xbcb12e88	-0.021628633
178	0xbd420e6b	-0.04737703
179	0xbc0bc858	-0.008531652
180	0x3e2d9da0	0.1695466
181	0xbc313811	-0.01081659
182	0x3d4888ca	0.048958577
183	0x3e49d4a8	0.19710028
184	0x3e8d62ea	0.27614528
185	0xbc0ebe79	-0.008712404
186	0x3e5fe5e5	0.21865042
187	0xbe27e30b	-0.16395204
188	0xbe3e0e02	-0.18560031
189	0x3dd49d02	0.10381509
190	0x3dcd9bcd	0.10039482
191	0x3d2ba186	0.041902088
192	0x3e863d64	0.26218712
193	0xbc304a28	-0.010759868
194	0x3beb5107	0.00718129
195	0xbbca7524	-0.006178515
196	0x3e7bc6c1	0.24587537
197	0xbd86ce99	-0.06582374
198	0x3e1c5c35	0.15269549
199	0x3e87eb67	0.26546785
200	0xbe8d2d53	-0.27573642
201	0x3d17464b	0.03693227
202	0xbd61d3a6	-0.055133484
203	0xbe33a2bd	-0.17542548
204	0xbe3353be	-0.17512414
205	0xbd85073e	-0.06495522
206	0x3d704b47	0.05866554
207	0x3cd4e8bf	0.025989888
208	0xbcdf9505	-0.027292738
209	0x3e4c3055	0.19940312
210	0x3d32baf4	0.043635324
211	0x3dbd4fee	0.09243761
212	0xbd5d161e	-0.05397617
213	0x3d77828b	0.06042723
214	0xbeca53c9	-0.39517048
215	0xbc88bc04	-0.016691215
216	0xbeb86e18	-0.36021495
217	0xbe29bc64	-0.16575772
218	0xbe9a2bad	-0.30111447
219	0x3d9fd14b	0.07803591
220	0x398e249b	0.00027111624
221	0x3d17aa3b	0.03702758
222	0xbd8425d5	-0.064525284
223	0xbd81e17d	-0.063418366
224	0x3dc4c1f7	0.09607308
225	0xbe374bab	-0.17899959
226	0xbd7e5962	-0.06209696
227	0xbc8aeb1c	-0.016957812
228	0xbb8fecfa	-0.0043922635
229	0xbdd9d2e1	-0.10635925
230	0xbdff712b	-0.12472757
231	0x3bfbb473	0.0076814233
232	0xbd2b194e	-0.04177218
233	0xbe14376f	-0.14474271
234	0xbdc3a95f	-0.09553789
235	0xbe460409	-0.19337477
236	0x3de30b9e	0.110862
237	0x3e6ac321	0.22925998
238	0xbe455a2a	-0.19272676
239	0xbe29331f	-0.16523407
240	0xbe1a7067	-0.1508194
241	0x3e08fb17	0.13377033
242	0x3c6900ca	0.0142213795
243	0x3e4cc1de	0.1999583
244	0x3d090eab	0.033461254
245	0xbd0b4b89	-0.034007583
246	0xbda71752	-0.08158745
247	0xbe3d33ba	-0.18476763
248	0xbe97686c	-0.29571855
249	0x3e07460c	0.13210315
250	0x3d5e91c4	0.05433823
251	0xbe4c7c69	-0.19969334
252	0xbcbac8c6	-0.022800814
253	0xbb5a6dff	-0.0033329723
254	0xbd8b2182	-0.067935005
255	0xbe902330	-0.28151846

net.0.bias f4 [60]
0	0x3e1dc4c5	0.15407093
1	0x3dbe55e5	0.09293727
2	0xbcb65825	-0.022258827
3	0x3d3de7b2	0.04636354
4	0xbe03038b	-0.1279432
5	0xbe14e545	-0.14540584
6	0x3e0b19d4	0.13584071
7	0x3e2459c3	0.16049866
8	0x3e299db4	0.16564065
9	0x3e137954	0.14401752
10	0xbe0ca7cb	-0.13735883
11	0xbc295324	-0.010334764
12	0xbdfe507b	-0.12417694
13	0x3db8d69e	0.0902531
14	0xbe172edf	-0.14763974
15	0xbe13fc40	-0.14451694
16	0xbd65b352	-0.056079216
17	0xbcfc1169	-0.03077002
18	0x3dcd3b0a	0.100210264
19	0xbd02cd4a	-0.03193406
20	0xbe143aed	-0.14475603
21	0x3de62d00	0.11239052
22	0xbe1d14c4	-0.15339953
23	0x3d787f19	0.060668085
24	0x3dfedf1a	0.12444897
25	0x3d838a1d	0.064228274
26	0x3de678ed	0.112535335
27	0xbc344fb3	-0.01100533
28	0x3e20bb5f	0.15696476
29	0xbd985942	-0.074388996
30	0xbd7cdc88	-0.061733752
31	0xbd857b60	-0.065176725
32	0x3e3b91b9	0.18317308
33	0xbe15d4bf	-0.14631937
34	0x3c26c431	0.010178612
35	0xbdd44c6b	-0.10366138
36	0xbe17a713	-0.14809828
37	0xbd4ee8cd	-0.050514985
38	0x3d80815c	0.06274673
39	0xbdeff79e	-0.11717151
40	0x3e17fddd	0.14842935
41	0xbdbef670	-0.09324348
42	0x3df7daa6	0.12102251
43	0x3dfe581d	0.1241915
44	0xbdebf849	-0.11521966
45	0x3e18294e	0.14859506
46	0xbe0639d0	-0.13107991
47	0x3d6a18b5	0.05715247
48	0xbb526d2b	-0.0032108526
49	0xbe27a480	-0.16371346
50	0x3be6e352	0.0070461417
51	0x3e16d932	0.14731291
52	0x3e12e410	0.14344811
53	0xbd7949e0	-0.06086147
54	0x3e2c2b4b	0.1681339
55	0x3d95d6e9	0.073163815
56	0x3df0fd93	0.117671154
57	0x3b49c906	0.0030789985
58	0x3c68e51c	0.01421478
59	0x3e16c29e	0.14722678

net.2.weight f4 [60, 60]
0	0xbb551d96	-0.0032518855
1	0xbc88de05	-0.01670743
2	0x3e11c8c4	0.14236742
3	0xbc341a43	-0.010992589
4	0x3dc3f6f2	0.095685855
5	0x3e577fc3	0.21044831
6	0xbde59483	-0.11209967
7	0xbd502e88	-0.050825626
8	0xbe8cee51	-0.2752557
9	0x3da99525	0.082804
10	0x3c5d37e2	0.013502093
11	0x3d1f1286	0.038836025
12	0xbe1cb132	-0.1530197
13	0xbe6ac7a1	-0.22927715
14	0x3d8545f4	0.06507483
15	0xbd0ab868	-0.03386727
16	0x3e3c1f56	0.18371329
17	0xbde5b1eb	-0.11215576
18	0xbe69b506	-0.22822961
19	0x3de8c919	0.11366481
20	0x3e8f9e69	0.28050545
21	0x3cf97925	0.030453274
22	0x3e3d6d20	0.18498659
23	0xbbe055ac	-0.0068461504
24	0x3e2786ea	0.1636006
25	0x3d02487f	0.03180742
26	0x3de08165	0.1096218
27	0xbcaad700	-0.020854473
28	0xbe372519	-0.17885245
29	0xbd9d474e	-0.07679616
30	0xbe17fdd3	-0.1484292
31	0xb884bbd4	-6.329236e-05
32	0xbe81fae5	-0.2538673
33	0x3e01cc65	0.12675627
34	0xbe21caf9	-0.15800084
35	0xb8b71784	-8.7305e-05
36	0xbd0d71ed	-0.034532476
37	0xbe70eebc	-0.2352857
38	0x3db44279	0.08801741
39	0xbe585e84	-0.21129805
40	0x3cef2ab4	0.029195167
41	0xbcc51426	-0.02405746
42	0xbc3e1e73	-0.011603939
43	0x3d21eadb	0.039530616
44	0x3d947d9c	0.072505206
45	0x3c2ba2be	0.0104758125
46	0xbe308e5f	-0.1724181
47	0xbd77c621	-0.060491685
48	0x3dad04fd	0.08448217
49	0xbdc3e33d	-0.09564827
50	0xbd592acb	-0.053019326
51	0xbc955ad9	-0.018231796
52	0xbe39b392	-0.18134907
53	0xbd8ea0d6	-0.06964271
54	0xbdd662d3	-0.10468068
55	0x3da58f4a	0.08083971
56	0x3df2b2c3	0.11850502
57	0x3d0eb2ff	0.034838673
58	0x3d8be62f	0.068310134
59	0x3df1c165	0.11804465
60	0xbd2001a6	-0.039064072
61	0x3d4a0eab	0.049330395
62	0xbddc0e80	-0.10744953
63	0xbb09fed2	-0.0021056426
64	0xbd8cba50	-0.06871474
65	0x3baa3e98	0.00519545
66	0x3daf7163	0.08566549
67	0x3ad24696	0.0016042765
68	0xbce43c3f	-0.027860759
69	0xbdccc93b	-0.09999319
70	0x3d1a0e05	0.037611026
71	0xbe6f3714	-0.23360854
72	0xbd651aad	-0.055933643
73	0x3d357f2f	0.044310745
74	0x3eb20651	0.34770444
75	0xbde13bd0	-0.109977365
76	0xbcf52caa	-0.029928524
77	0x3d39e624	0.045385495
78	0x3d7cfa25	0.061761994
79	0x3ddaea6e	0.10689245
80	0x3e02f076	0.12787041
81	0x3e887da2	0.2665835
82	0xbca0dc73	-0.019636368
83	0xbd99ed3d	-0.07515953
84	0xbdb5a408	-0.08869177
85	0xbd8365bc	-0.06415889
86	0xbd45cee7	-0.04829302
87	0xbbcf9424	-0.0063347984
88	0x3daec22b	0.08533128
89	0x3d12dbdd	0.03585421
90	0xbc8ea8fb	-0.01741456
91	0x3e26f996	0.16306147
92	0xbddb89de	-0.107196555
93	0x3d947585	0.072489776
94	0x3db2712e	0.087129936
95	0xbd2eb445	-0.042652387
96	0xbd304ed7	-0.043043938
97	0xbe13fb85	-0.14451416
98	0x3e68eaef	0.2274587
99	0x3dc9ace8	0.098474324
100	0x3c88b968	0.016689971
101	0x3e045d4a	0.12926212
102	0xbbee3493	-0.007269451
103	0x3d4f39ec	0.050592348
104	0xbe291eba	-0.16515628
105	0xbddcd8b0	-0.10783517
106	0x3d8c61de	0.06854604
107	0x3d6cc8a3	0.05780853
108	0x3e9dd6c4	0.30827916
109	0x3d1e68d3	0.038674187
110	0x3e77666d	0.24160166
111	0x3df67908	0.12034804
112	0xbe06962a	-0.1314322
113	0x3d1a05cd	0.03760319
114	0x3e236008	0.15954602
115	0x3db9878a	0.09059055
116	0xbd144d6d	-0.03620665
117	0x3e46e739	0.19424142
118	0x3e274cab	0.1633784
119	0x3d9aec03	0.07564547
120	0x3cd4c57c	0.025973074
121	0xbdcc1e9e	-0.09966777
122	0x3cc22da1	0.023703398
123	0x3dec87cb	0.11549338
124	0x3e3d88e1	0.18509246
125	0xbe13c857	-0.14431892
126	0xbeadebba	-0.33968908
127	0x3de6a625	0.11262158
128	0x3cecec08	0.028921142
129	0xbd12a9cd	-0.035806466
130	0x3d94183a	0.07231183
131	0xbdb2bd49	-0.087275095
132	0xbe39d6ff	-0.18148421
133	0x3d92b66b	0.071637
134	0xbcc082f9	-0.023499953
135	0xbd877ac7	-0.06615215
136	0xbe922dd3	-0.28550586
137	0xbe655d57	-0.22398888
138	0xbd024d5f	-0.031812068
139	0x3d29da3a	0.041467883
140	0xbea67122	-0.32508188
141	0x3e0a1a94	0.13486701
142	0xbe0d55ad	-0.13802214
143	0x3cfda1e3	0.030960983
144	0x3d980b16	0.074239895
145	0x3df6bbab	0.120475136
146	0x3e75e385	0.24012573
147	0x3de42255	0.11139361
148	0xbe281794	-0.16415244
149	0x3d18428d	0.037172843
150	0x3e18a3a3	0.14906172
151	0xbd589ccf	-0.05288392
152	0xbc49d089	-0.012317785
153	0xbdb8a4d1	-0.09015811
154	0xbe10c1c5	-0.14136417
155	0x3e420d27	0.1895033
156	0xbd0ff40d	-0.035144854
157	0xbc98645c	-0.018602543
158	0x3be06bce	0.006848789
159	0xbcea48ab	-0.028599104
160	0xbe2a87b8	-0.16653335
161	0xbd9cc3d1	-0.076545365
162	0xbd4ad589	-0.04952005
163	0x3d8e74a4	0.06955841
164	0xbd90e233	-0.07074394
165	0xbdfc198b	-0.123095594
166	0x3e39d2b4	0.18146783
167	0xbd856cf4	-0.06514922
168	0x3d44c57c	0.0480399
169	0x3e36ed90	0.1786406
170	0x3e4162d8	0.18885362
171	0x3e467d6c	0.19383782
172	0xbe126da2	-0.14299634
173	0xbd08f2a1	-0.033434514
174	0xbe335390	-0.17512345
175	0xbcd58b72	-0.02606747
176	0x3c1cc729	0.009568968
177	0x3df00150	0.11719
178	0x3e3975c0	0.18111324
179	0xbe00db79	-0.12583722
180	0xbe857c2c	-0.26071298
181	0x3e3b9cc8	0.18321526
182	0xbce1be26	-0.02755649
183	0x3e2b2a56	0.16715369
184	0x3da11ad2	0.07866444
185	0x3e34a564	0.17641217
186	0xbd838d77	-0.06423467
187	0x3e0d6c08	0.13810742
188	0x3dc0b0c9	0.09408719
189	0xbcc0f0a7	-0.023552252
190	0xbe5c6965	-0.2152458
191	0x3dbededc	0.09319851
192	0x3d4b5694	0.049643114
193	0x3e463b77	0.19358622
194	0x3e4dcae2	0.20096925
195	0xbe33254d	-0.17494698
196	0x3e0a0e45	0.13482006
197	0xbbaa2215	-0.005192051
198	0x3d61f4ee	0.055165224
199	0x3e723fd4	0.23657161
200	0x3e3a4a96	0.18192515
201	0xbb1cbee2	-0.0023917486
202	0xbe99e340	-0.3005619
203	0xbe46b748	-0.19405854
204	0xbe154437	-0.14576803
205	0xbdf15871	-0.11784447
206	0x3ddb9030	0.10720861
207	0xbdb6e080	-0.08929539
208	0xbce385a5	-0.027773688
209	0xbcaa187e	-0.020763632
210	0x3dafdb88	0.08586794
211	0xbd0ca22a	-0.03433434
212	0xbd61672b	-0.05503003
213	0x3e598620	0.21242571
214	0xbd570fa6	-0.052505158
215	0x3e9373de	0.28799337
216	0x3e3add06	0.18248376
217	0xbdd5cd9f	-0.1043961
218	0x3c83052e	0.01599368
219	0x3d88d845	0.06681875
220	0xbdae9df9	-0.08526225
221	0x3d347dea	0.044065394
222	0x3e1a299f	0.1505494
223	0x3e459a48	0.19297135
224	0xbdba4376	-0.090948984
225	0x3eb947d0	0.361876
226	0x3d8cd577	0.06876653
227	0x3bd1cdc7	0.0064027044
228	0xbe210e70	-0.15728164
229	0x3dd786ef	0.105237834
230	0x3d0fae1f	0.035078164
231	0x3e77c2f5	0.24195464
232	0xbd80efaf	-0.06295716
233	0x3dcb0672	0.09913339
234	0xbdc48ca1	-0.09597135
235	0x3dca09c3	0.09865143
236	0xbe3305cc	-0.1748268
237	0xbd34a2db	-0.044100624
238	0xbe0307e3	-0.12795977
239	0xbc42e976	-0.011896482
240	0x3e06b7ce	0.13156053
241	0xbd73ad7e	-0.059491627
242	0x3de676e9	0.11253149
243	0xbd013e6c	-0.03155367
244	0x3d46cbb4	0.04853411
245	0x3d7965dd	0.06088816
246	0x3e47f197	0.19525753
247	0xbc64afa7	-0.013957894
248	0x3e1a608e	0.15075895
249	0xbea791ae	-0.32728332
250	0xbe1cf2a0	-0.15326929
251	0xbc8edc26	-0.01743896
252	0xbda6ffc7	-0.081542544
253	0x3d909db3	0.07061329
254	0x3d52cc81	0.05146456
255	0xbe6d5229	-0.23175873

net.2.bias f4 [60]
0	0x3d31be34	0.043394282
1	0xbd2afa91	-0.041742865
2	0x3dc2d06e	0.09512411
3	0x3debf8de	0.11522077
4	0xbd997ec3	-0.07494881
5	0x3d866e4a	0.06564005
6	0x3dd3f8ad	0.103501655
7	0x3d448787	0.04798081
8	0xbe00c3a5	-0.12574632
9	0xbdee2e52	-0.11629929
10	0x3de947cb	0.113906465
11	0xbd9ca96b	-0.076495014
12	0xbda03cc1	-0.07824088
13	0xbda3005c	-0.07959053
14	0x3d45a452	0.04825241
15	0xbe06a491	-0.13148715
16	0xbb748e41	-0.0037316235
17	0x3d82db53	0.06389489
18	0xbc422dea	-0.011851767
19	0xbdced19b	-0.10098573
20	0x3db9ba17	0.09068697
21	0xbd180217	-0.037111368
22	0xbcfe0344	-0.031007417
23	0xbdab8b3e	-0.08376168
24	0xbdaf429f	-0.08557629
25	0x3dd144bf	0.102181904
26	0xbb9d2fc1	-0.0047969525
27	0xbd3894c0	-0.045063734
28	0x3dbb5303	0.091466926
29	0xbda2f8d9	-0.0795762
30	0xbd197589	-0.037465606
31	0x3d14ccb3	0.03632803
32	0xbde1f354	-0.11032739
33	0xbdb5a5cc	-0.08869514
34	0xba105ed2	-0.00055072934
35	0x3d16c931	0.036812965
36	0x3dc8aa59	0.09798116
37	0xbdf86323	-0.12128284
38	0xbd18f1ea	-0.037340082
39	0x3d8eb1be	0.069674954
40	0x3de9a989	0.114092894
41	0xbe01dc22	-0.1268163
42	0xbd95a918	-0.07307643
43	0x3ddcd82c	0.10783419
44	0x3da41d19	0.080133624
45	0x3d8b8848	0.06813103
46	0x3dbbe961	0.09175373
47	0x3d955e05	0.072933234
48	0xbc962360	-0.018327415
49	0xbe001e08	-0.12511456
50	0xbdec252a	-0.11530526
51	0x3c8474c0	0.016168952
52	0x3de221d5	0.11041609
53	0xbdb18952	-0.0866877
54	0xbd90c280	-0.07068348
55	0x3ca2f0fa	0.019890297
56	0xbcefbca4	-0.029264756
57	0xbd47a5b2	-0.048742004
58	0x3c6b5cbc	0.014365371
59	0xbcc9ab80	-0.02461791
