results analysis/processed results/PINN/NASA results/2-2/Experiment10/model.pth (torch, 59646 bytes, 14 tensors)

encoder.net.0.weight f4 [60, 17]
000000 84 12 c8 bb a0 b8 af 3d f1 62 b4 3d 1c 61 d4 3d
       -0.006105723 0.08580136 0.08807934 0.10370085
000010 a8 77 07 be 71 27 34 3c 3d 1a 48 3e 62 9a d4 3d
       -0.13229239 0.010995732 0.19541259 0.10381009
000020 8f 30 87 3d 51 9a 9a bd c6 39 bb bd 94 f5 5b bd
       0.06601059 -0.07548965 -0.09141879 -0.053701
000030 e2 5d 8d 3e f9 1e 65 3c a6 f8 3f be 04 25 7a be
       0.2761069 0.013984435 -0.18747196 -0.24428183
000040 f5 c8 86 be a1 b9 86 be 99 28 23 be da 5b 7f 3e
       -0.26325193 -0.263135 -0.15933456 0.24937382
000050 1b 4d 06 bd a3 75 a9 3e 6a fd c9 bd 6a 0a 17 3d
       -0.032788377 0.33097562 -0.09862788 0.036875166
000060 b5 f4 6f be 88 40 5a 3e f2 5d a5 3e 41 f5 c2 bd
       -0.23433192 0.21313679 0.32298237 -0.09519435
000070 e5 f9 b1 bc 4e 28 40 3e 52 4e 4a be c9 34 e9 bd
       -0.021725604 0.18765375 -0.1975644 -0.11387021
000080 c9 fc c8 bc ef 75 a0 bd 5b f5 43 bd 7e cc 22 3e
       -0.0245346 -0.07834994 -0.04784141 0.1589832
000090 32 88 65 3e a7 51 f4 3d 6c 42 f8 bd fd 89 ea bd
       0.22415236 0.119296364 -0.12122044 -0.114521004
0000a0 94 ab 0c be 1e df 8b bc 87 2b ec bd 9a 23 9a bd
       -0.13737327 -0.017074164 -0.1153174 -0.07526322
0000b0 e6 01 03 bd 55 48 5b be a5 65 6e 3e 17 c1 be 3d
       -0.031984232 -0.21414311 0.23280962 0.09314173
0000c0 4a 60 17 be f9 5f 9f 3c aa c8 61 3e af d9 15 3d
       -0.14782825 0.019454943 0.22049204 0.036584552
0000d0 20 4e a3 3d b5 9f 46 bd a9 8c 6a bc 51 14 65 3e
       0.079738855 -0.048492152 -0.014315763 0.22371031
0000e0 2f 1e 1b be 59 96 43 3e 51 f2 ae bd 32 d7 8e be
       -0.15148233 0.19100322 -0.08542312 -0.27898556
0000f0 c7 d5 15 3e 19 5d 30 bd 2c 6c 97 bd 30 e8 1f be
       0.14632331 -0.043057535 -0.07393679 -0.15615916
000100 4e 39 21 3e 36 ec 98 3d 60 3b 00 3e c4 9c a2 bc
       0.15744516 0.07466929 0.1252265 -0.019850142
000110 3d ce f2 bd b5 64 7e ba f6 1d b0 3d 9b 16 12 3e
       -0.11855743 -0.00097043376 0.085994646 0.14266436
000120 9e 7b 61 bd 9e 40 9d bd e3 d5 9c 3e a7 18 32 bd
       -0.05504953 -0.076783404 0.30631933 -0.04348054
000130 ca b6 88 3d b3 1b 58 3e 39 7e 00 3d 9d e6 51 bd
       0.06675489 0.21104316 0.031370375 -0.05124532
000140 b3 90 ae be d4 93 92 3d d5 d9 37 be e1 8c d0 bd
       -0.34094772 0.07157102 -0.1795419 -0.101831205
000150 ca 8a ea bd 16 24 3c 3e 0b b3 bc bd aa c8 38 3e
       -0.11452253 0.1837314 -0.09213837 0.18045297
000160 72 69 9b bc b3 b4 99 bc e4 b1 0e be 6f a1 9d 3d
       -0.018971179 -0.018762922 -0.13935047 0.07696807
000170 a3 89 a5 3d 7d 7f 28 3d 45 31 51 bc 5c 96 f4 3c
       0.08082893 0.041137207 -0.012768094 0.029856853
000180 a0 6a 0a bd 54 9f 5f 3d 19 97 88 3d 9b dd 68 be
       -0.03379309 0.054595307 0.066694446 -0.22740786
000190 8e 17 32 bc 24 db de bc 91 31 5c be a3 61 03 3d
       -0.010869874 -0.027204104 -0.21503283 0.032075536
0001a0 9c 3d ae 3c 68 40 42 bd a9 8e f1 bd 6e 45 85 bd
       0.021269612 -0.047424704 -0.117947884 -0.06507383
0001b0 bc 3a e0 3c 31 ab 89 3d 0b 65 73 3e 11 04 5a 3e
       0.027371757 0.06722105 0.23769014 0.21290614
0001c0 33 af ce 3e 3c 94 28 be e1 1f 03 3e 93 07 87 bd
       0.4036804 -0.16462797 0.1280513 -0.065932415
0001d0 c7 15 0c be 50 13 01 be 12 48 a4 3d 58 c8 a8 bd
       -0.13680182 -0.12605023 0.08021559 -0.082413375
0001e0 38 74 ed 3d 26 86 91 bc 03 ff 1e 3e d2 dc 5f be
       0.115944326 -0.017764162 0.15526967 -0.2186158
0001f0 2e 69 c9 3c 73 82 8b 3e c6 6d 57 be 8d f0 37 bb
       0.024586286 0.27247962 -0.21037969 -0.0028066963
000200 a2 25 20 3d f6 c3 27 be 6a 29 14 bd c3 99 ab bc
       0.03909839 -0.16383347 -0.036172308 -0.020947343
000210 cc a0 44 3c b5 93 29 3e 9c 8c 45 bd 2c bc 7a bd
       0.012001228 0.16560252 -0.0482298 -0.06121461
000220 9a da f4 bd 72 8a ba 3b 9f 62 42 be eb 51 2a bd
       -0.119557574 0.0056927735 -0.18982933 -0.04158203
000230 0e ed 71 be 0d 5e 81 bd 5c a0 20 3e 93 f2 86 3d
       -0.23625585 -0.06316767 0.15686172 0.06589236
000240 a2 17 13 be 37 fe 3f 3e f2 3c b5 3c 54 55 1d 3d
       -0.14364484 0.18749319 0.022123788 0.038411453
000250 c3 c4 16 3d 56 b9 cb bd f1 05 a1 3d 5c e9 3a 3d
       0.03680874 -0.099474594 0.07862461 0.045632705
000260 95 bc 0c 3e 1a 5b 50 bc b2 58 09 be 88 26 f5 bd
       0.13743813 -0.012717033 -0.13412741 -0.1197024
000270 80 0a 83 bc c6 c2 0a 3d 1a 88 06 be 8d 47 88 3c
       -0.015996218 0.033877157 -0.13137856 0.01663568
000280 5d 77 99 3d 61 8d 8c 3d a6 47 27 be 20 fd f1 bd
       0.0749347 0.068629034 -0.16335925 -0.11815858
000290 8f 19 05 3e 2f 5c a5 bd 27 37 23 3e f9 5b fc bd
       0.12998031 -0.08074223 0.15939008 -0.1232223
0002a0 df 93 8d bd b5 12 b0 3d 7a 3e 54 3e 56 84 33 be
       -0.0691297 0.08597318 0.20726958 -0.17530951
0002b0 ea 46 8e be af 48 d3 3c 4e ae 36 be 03 f0 bc 3e
       -0.27788478 0.025791494 -0.1783993 0.36901864
0002c0 36 51 93 be 6a 73 9c bd bf ab c7 bd cf 14 24 3e
       -0.28772897 -0.07639201 -0.09749555 0.16023563
0002d0 7f 15 48 bd f0 10 8c 3d 6d a4 28 be 43 cb c2 bd
       -0.048848625 0.06839168 -0.16468973 -0.09511425
0002e0 0e f3 7a bd 36 20 92 3d b3 5f 2c be 19 00 98 3e
       -0.06126695 0.0713505 -0.16833381 0.29687575
0002f0 18 9e 69 be 34 e0 f1 3d 53 ff 03 3e ef 6d d3 be
       -0.22814214 0.118103415 0.12890367 -0.4129481
000300 7b e6 f7 bd 89 c7 32 3e 69 e0 0b be 95 fb c3 bc
       -0.121045075 0.17458929 -0.13659824 -0.023923675
000310 4b 2e 42 3d ec d2 7c 3d 44 1f ec 3d 28 be a2 bd
       0.04740743 0.06172459 0.11529401 -0.07946426
000320 8c ac 08 be fd cd d0 be 1f 59 5b 3e bb bd fb bd
       -0.13347071 -0.40782157 0.21420716 -0.122920476
000330 2f ee d9 3d c1 d3 ae bd 6c 2a 10 3e 49 be 7f be
       0.10641133 -0.085364826 0.14078683 -0.24974932
000340 ab 0b b4 bd 7a 82 9c bd 9f 75 7e 3d e5 0c 42 3d
       -0.08791288 -0.07642074 0.06212389 0.04737558
000350 84 77 90 3d cd 9c 4e 3e dd 91 58 be f5 cf bb 3d
       0.07054046 0.20177002 -0.21149392 0.09170524
000360 0f cb b4 3d fc 6e 67 3c 64 31 77 bd 45 f7 ad 3e
       0.08827793 0.014125582 -0.060349837 0.33977714
000370 4d de fe bd 98 1e ba bc d1 b1 1f 3e 59 ef 67 3d
       -0.12444744 -0.022719666 0.15595175 0.056624744
000380 20 b8 5f 3e ec c8 99 bd 1f d9 6f 3e 5b 40 3f 3c
       0.21847582 -0.07509026 0.23422669 0.011673058
000390 35 bb 51 3d 7b fb e3 bd d1 ae d7 3d 5d c8 82 be
       0.051203925 -0.111319505 0.105313905 -0.2554349
0003a0 6a ab 4f 3e 99 d6 74 bd 1d 2d 30 3d da 10 55 be
       0.20280233 -0.05977497 0.043011773 -0.2080721
0003b0 29 e6 e5 bd 9c 0c 25 3e 48 24 00 3d 55 8f 08 3d
       -0.1122554 0.16118091 0.0312846 0.033339817
0003c0 f8 24 72 3e 16 52 d5 bd fa 74 86 3d 5e be 6f bd
       0.23646915 -0.10416047 0.0656528 -0.058531158
0003d0 5e 45 72 3c 13 35 8c be ab d0 7c 3d 55 41 47 be
       0.014787046 -0.27384242 0.06172244 -0.19458516
0003e0 b6 bf 22 3d 14 fa d2 bd cd 25 0b 3e b4 63 05 be
       0.03973361 -0.10301605 0.13588639 -0.13026315
0003f0 55 7a 60 3e b6 3a 12 bd cc 16 c9 3d 03 81 9d 3d
       0.21921666 -0.035700522 0.09818801 0.07690623

encoder.net.0.bias f4 [60]
000000 27 80 79 3d 95 07 57 3d f5 dd c4 3c 26 43 35 3d
       0.06091323 0.052497465 0.024031619 0.04425349
000010 38 c9 c1 3d fe 48 46 bd c8 49 86 bd 44 96 9f 3d
       0.094622076 -0.048409455 -0.065570414 0.07792333
000020 5b 0f ca 3d 7e 1e b0 bd 4a 99 f3 bc 01 a9 87 bd
       0.0986621 -0.08599566 -0.02973618 -0.06624032
000030 dc f6 98 3d bf d5 ed bc e3 39 9d 3c 44 9a 72 bc
       0.0746896 -0.029032586 0.019192642 -0.014807288
000040 2f 78 7b bd d1 76 a9 3d b8 f5 a9 bd 16 94 cc ba
       -0.061393913 0.082746156 -0.0829882 -0.0015608098
000050 c4 6d 87 3d bb 83 8b 3d b3 39 b9 3d 40 1c a0 3d
       0.06612733 0.06812235 0.090442084 0.07817888
000060 20 7c 99 bd 46 40 ad bd 43 3e 92 bd 58 7e 63 bd
       -0.07494378 -0.08459525 -0.07140782 -0.055540413
000070 4e 5c c2 3d 1a a2 90 bd 59 ec 7c 3d 4f a7 01 3c
       0.09490262 -0.070621684 0.061748836 0.007913425
000080 96 f3 ae 3d c1 08 18 bd e7 dd bf bc 82 36 45 bd
       0.08542554 -0.037117723 -0.023421241 -0.048147686
000090 65 a7 ce 3d fd 45 ce bc 66 b0 a9 bd 72 6a 18 bd
       0.10090522 -0.025179857 -0.082855985 -0.03721089
0000a0 ab ce 9d bd 0a 53 03 3d 0c 14 67 bd 08 7e 94 3d
       -0.077054344 0.032061614 -0.056415603 0.07250601
0000b0 67 e1 b1 3d 50 2d 84 3d 36 03 86 3d 60 e6 35 3d
       0.0868557 0.06453955 0.06543581 0.044409156
0000c0 57 e8 24 bd 68 71 57 3d 3c 6e 8c 3d 55 60 aa bc
       -0.04026064 0.052598387 0.06856963 -0.020797888
0000d0 0e d6 8a bc 8e 50 78 3d be ae 74 3d 63 4d 8b bd
       -0.016947772 0.060623698 0.05973696 -0.0680187
0000e0 9f 60 1e 3d f2 86 b3 3d 6e 28 dc 3d a4 0f ae 3d
       0.038666364 0.08765973 0.10749899 0.08499077

encoder.net.2.weight f4 [60, 60]
000000 c9 bf 2e 3e 07 64 31 be ec ac 79 3d 77 77 f8 bd
       0.17065348 -0.17323314 0.060955927 -0.12132161
000010 90 4d b6 3d 5a 1d 83 3e 24 f5 df 3c 04 e0 02 be
       0.089015126 0.2560833 0.027338572 -0.12780768
000020 7e dc 54 be f2 fc f8 3d ea 2e 7d 3d c8 e6 f6 3b
       -0.20787236 0.121576205 0.06181232 0.0075348355
000030 95 a3 f0 bc cd 06 4e bd 18 dc a1 bc be de a8 bc
       -0.029374877 -0.050299454 -0.01975827 -0.020614024
000040 9d 7d 58 3d 0e 60 c7 3d e0 e4 86 3e b8 ff 65 bd
       0.05285417 0.09735118 0.26346493 -0.056152076
000050 54 8a 35 be 24 ec ed bd 90 6d 31 bd 97 5a c5 bd
       -0.17728549 -0.11617306 -0.043317378 -0.09636419
000060 b1 58 00 be f1 15 ec bc 0c a6 71 3d c0 84 2a 3c
       -0.12533833 -0.028819056 0.058996245 0.010407627
000070 cf 8d 32 3e ec ed f4 bd 03 3f 34 be 32 a7 67 3d
       0.17436908 -0.119594425 -0.17602162 0.056555934
000080 06 ee ac bd 2c 7a 4a 3c e7 2c 3e be ec 43 4c bd
       -0.08443837 0.01235823 -0.18571816 -0.049869463
000090 15 27 be bd 20 c9 f1 3d 3a 61 43 bc ec e3 b5 bd
       -0.09284798 0.1180594 -0.011925036 -0.08881363
0000a0 00 bb e7 3d f0 af 01 3d 0a fa e6 3d 12 d0 98 bd
       0.11314964 0.031661928 0.1127816 -0.07461561
0000b0 7f 90 f1 bc de 13 09 be 7c 07 2a bb f7 34 23 be
       -0.029487846 -0.13386485 -0.0025944402 -0.15938173
0000c0 42 d5 dc 3d 0d 08 89 3c ef c5 ce bd 03 5b 58 3c
       0.10782863 0.016727472 -0.100963466 0.013205293
0000d0 bf 00 84 3e 43 f6 85 3d dc ae 74 3e 83 7e 86 3d
       0.2578182 0.06541111 0.23894829 0.06567099
0000e0 5f 78 b8 bd e4 2b 34 be 63 f1 7f bd 85 ab 41 bd
       -0.09007334 -0.17594868 -0.062486064 -0.047282714
0000f0 15 11 22 3d bc c0 17 bd 75 43 63 bd 61 de 3d 3e
       0.039567072 -0.03704904 -0.055484254 0.18541862
000100 d6 09 8c 3e f0 7e 10 bc 9f fc 2f be c0 ef 3a be
       0.27351254 -0.008819327 -0.17186211 -0.1825552
000110 90 60 ed 3c 1f 14 c4 bd f5 12 59 bc 55 b8 e8 bc
       0.028976709 -0.0957415 -0.013249149 -0.028408209
000120 e6 37 07 bd 03 f8 a8 bd fb 32 9c bb 61 62 b6 3d
       -0.033012293 -0.082504295 -0.0047668195 0.08905483
000130 8f 85 36 3d 60 19 19 3d 76 5d de bd 0f 0a 45 bc
       0.044560965 0.037377715 -0.1085767 -0.012026324
000140 0d 11 4e 3e d5 9e 33 be 50 e8 20 3d 3a f6 53 be
       0.20123692 -0.17541058 0.03928405 -0.20699397
000150 66 3e 04 3c ca 1f c6 bd 1f 0d 63 3c e4 da 57 3c
       0.008071518 -0.09674032 0.013858109 0.013174746
000160 ab 9a 3f 3d b1 ef 16 3d 35 be 2d 3d 5f 49 3e be
       0.046778362 0.03684968 0.042417724 -0.18582676
000170 7f a9 29 bd 99 a7 bb 3b 78 4e bd bd 38 8d da bd
       -0.04142141 0.0057267663 -0.09243482 -0.106714666
000180 de 45 ad bd ee 74 e3 bd 64 35 0f be 3e ba 5e bd
       -0.08460592 -0.11106287 -0.1398521 -0.054376833
000190 dd 9c 89 3c 7b 1d a5 3c 2c bd ca bd 2e 4b 16 3d
       0.016798431 0.020155659 -0.09899363 0.03669279
0001a0 29 f7 4f bc d4 d3 37 be 4e 85 42 3d bf ce d1 bc
       -0.012693205 -0.179519 0.04749041 -0.02561128
0001b0 d9 77 20 be 37 bb a4 bc 26 70 84 bd d8 a7 b7 bc
       -0.15670718 -0.020108802 -0.06466703 -0.022418901
0001c0 72 d2 38 3d a5 fc 5c 3d c1 dd 44 bd a2 b6 85 3d
       0.04512257 0.053951878 -0.048063044 0.06528975
0001d0 ed 7c 4e bc 0d 47 8f be 5e de 84 3d b4 19 99 bd
       -0.012603027 -0.27983895 0.06487726 -0.074756056
0001e0 3c d8 97 3b f5 52 94 bd 42 d8 f2 3c 5f e4 89 bd
       0.0046339314 -0.07242385 0.029644135 -0.067330115
0001f0 1c 45 db bc e4 7d 6e be 09 97 0c bd be 08 14 3d
       -0.026766352 -0.23290211 -0.034323726 0.03614115
000200 bf 00 a5 bd 31 f0 0f 3e 62 54 2c 3e 5c 8a cf bd
       -0.08056783 0.1405647 0.16829064 -0.10133812
000210 73 08 65 3c 0d 8a e8 3d 73 0c ad 3c 0d cd aa bd
       0.013979065 0.11354456 0.0211241 -0.083398916
000220 34 81 ad bd 03 b1 c9 bd 86 32 0f be c6 30 20 3d
       -0.08471909 -0.098482154 -0.13984117 0.039109014
000230 96 78 0c 3a ae 0a 1b 3e 08 a0 0c bc d7 7b 11 be
       0.0005358545 0.15140793 -0.008583076 -0.14207397
000240 c8 be 18 3e 0e 86 58 be 1c 05 e4 3b 30 23 f5 bc
       0.14916527 -0.21144888 0.006958617 -0.029924005
000250 c8 ab d1 3d 23 9c 6d bd 23 37 c1 3d 1c 07 0a 3d
       0.10237843 -0.05801023 0.094343446 0.033698186
000260 87 dc 7a 3d 2f f9 30 bd 66 cf 1e 3d fa 89 65 3c
       0.061245468 -0.04320639 0.03877201 0.014009947
000270 ad 86 40 3e 96 de 16 3c c1 36 fc bd 53 8a 63 be
       0.18801375 0.009208342 -0.12315131 -0.22220735
000280 cb ab 82 bd 32 fc c7 bc 64 61 28 be 93 d0 f6 bd
       -0.06380423 -0.024412248 -0.16443402 -0.12051501
000290 ea 27 4e 3d e2 2d 51 be 74 9f 3a 3e ca db d9 bd
       0.050331034 -0.20427659 0.18224889 -0.106376246
0002a0 58 16 87 be b7 da c5 3d ec 85 19 be 72 3f a8 3d
       -0.26384234 0.09660857 -0.14992493 0.08215226
0002b0 a7 a1 43 bd c7 91 31 be 6c d6 7c 3b fa a7 1f bd
       -0.047761586 -0.17340766 0.0038579954 -0.038978554
0002c0 a3 2c 9c be 71 46 54 bc 9b 3b 92 bd 0d 9e 30 be
       -0.30502805 -0.012956248 -0.07140275 -0.17247792
0002d0 13 e6 81 3d af d9 16 3e d6 e5 40 be 34 24 ad 3e
       0.06342711 0.14731477 -0.18837675 0.33816683
0002e0 f8 e1 1a bd 5e 51 6b bd be 76 0c be ef b3 ce bd
       -0.037813157 -0.057450645 -0.13717172 -0.10092913
0002f0 94 37 46 bd f8 67 16 3d e4 5e aa 3d cc 82 27 bc
       -0.048392847 0.036720246 0.0831888 -0.0102240555
000300 d1 40 b0 be 52 12 4c be b1 fa 57 3e ba e6 ef bd
       -0.3442445 -0.19928864 0.21091725 -0.117139295
000310 c5 92 d1 3c 75 3b 99 bd a2 6a b4 bd 79 d0 41 be
       0.02558268 -0.07482044 -0.08809401 -0.18927182
000320 f3 6c fb bc 38 3d f8 bd 0f e6 f0 bc e9 c9 22 be
       -0.0306916 -0.121210515 -0.029406575 -0.15897335
000330 90 58 cc bc 18 6c 01 be 03 d9 86 bb 33 76 1f 3e
       -0.024944574 -0.1263889 -0.0041152253 0.15572433
000340 92 ce 3c be 56 ea 16 3d a3 26 f0 3d 01 0a 0c be
       -0.18438175 0.036844574 0.11726119 -0.13675691
000350 50 f0 cc bd dd 40 f2 bd 3f 1f 58 bc c8 b4 1e bd
       -0.100067735 -0.11828778 -0.013191043 -0.038746625
000360 cf 71 f9 bd 4c 28 3b 3e 91 2f c0 bc 2f b2 0c bd
       -0.121799104 0.18277091 -0.023460181 -0.034349617
000370 e4 38 ba 3d 59 09 91 3d 81 a4 81 bd 10 cf d9 bb
       0.09092882 0.07081861 -0.06330205 -0.006646998
000380 a3 66 f9 3d f9 8f 13 3e e0 43 ac 3d 07 4b 8d 3e
       0.121777795 0.1441039 0.08411384 0.27596304
000390 f3 7d 95 bd 79 ce a3 3b ca ae dc bd 6d bd cf bc
       -0.072994135 0.0049989787 -0.10775526 -0.02535888
0003a0 61 4d d4 bd a2 ca b4 bd 0e bb 8b 3d a6 9e 0e bd
       -0.10366321 -0.08827712 0.06822787 -0.034819268
0003b0 83 76 6f be 0d b4 56 3c 28 08 ba 3b 2c 47 85 3c
       -0.23385052 0.013104451 0.005677242 0.016269289
0003c0 3f cf 60 be 85 d5 d2 3c b4 9b ee bd 76 1d 52 be
       -0.21954058 0.02573658 -0.11650792 -0.20519051
0003d0 bb 8e 1a bd 16 42 1f be c3 ab 0a 3d 47 77 92 bd
       -0.037733775 -0.15552554 0.03385521 -0.071516566
0003e0 12 81 9e bd 5c 11 87 bd d4 59 54 3d 46 0d 0f be
       -0.07739462 -0.06595108 0.05184348 -0.13969907
0003f0 6b 29 9f bd c8 11 1b 3e cf bc 12 be 80 34 28 bc
       -0.07771572 0.15143502 -0.14329837 -0.010266423

encoder.net.2.bias f4 [60]
000000 8b a9 9b bd d1 d3 20 3d 59 cd 9f 3d 2f 0e c1 bd
       -0.07600697 0.039264504 0.07802839 -0.094265334
000010 ab ff 0b bd 1a a1 8a bd 90 be 88 bd 01 d6 b2 bd
       -0.03417937 -0.06769009 -0.06676972 -0.08732224
000020 41 02 a8 bd 5b 3e a6 bd 6a e7 3c bd 0e d7 84 3d
       -0.08203555 -0.08117362 -0.04611913 0.06486331
000030 84 81 12 3d ba 4e 65 3d 32 61 7f bd 56 1a 09 3d
       0.035768047 0.055983283 -0.062348552 0.03347238
000040 26 47 7c bd 69 f0 b2 3d a6 7e 8e 3d 29 8c 51 bd
       -0.06159129 0.08737261 0.0695775 -0.051159058
000050 b6 c8 34 bc 09 48 24 bc f0 a7 81 3d 44 3a 39 3d
       -0.011034181 -0.01002694 0.0633086 0.045221582
000060 0e 92 73 3d 7a 47 8a 3c 05 b3 81 bd 47 90 84 3d
       0.05946546 0.016879786 -0.063329734 0.06472831
000070 5c 4e bb 3d e7 e8 1a 3d 34 7d a2 bd a0 7d 99 3d
       0.09145805 0.03781977 -0.07934037 0.07494664
000080 94 f9 92 3d 13 fb 67 bd 9b cb 7f 3d b2 2b 96 3d
       0.071765095 -0.056635927 0.062450033 0.07332553
000090 14 02 f0 3d 28 bd 96 bd c2 70 7d 3d 03 4a 9a 3d
       0.11719146 -0.073602974 0.061875112 0.07533648
0000a0 8d b7 97 3d 40 fe ee 3d 8c c3 0c bd 33 f8 ad bd
       0.074080564 0.11669588 -0.034366176 -0.08494606
0000b0 61 ce c0 bd 3b 06 95 3d 9b 7b ae 3d 88 d9 97 3d
       -0.09414364 0.07276579 0.085196696 0.07414538
0000c0 82 a1 a8 bd 6d 83 a4 bd fd 96 7b 3c f9 18 e1 bd
       -0.0823393 -0.0803288 0.015355823 -0.10991091
0000d0 da 49 d0 bd 74 c4 83 3d 6b ab 6c bc 66 32 ad bd
       -0.10170336 0.06433955 -0.014445166 -0.08456878
0000e0 2c f1 b1 bd 46 aa af bd 75 55 9a bd 13 6b 5d bd
       -0.08688578 -0.08577399 -0.07535831 -0.054057192

encoder.net.5.weight f4 [32, 60]
000000 c4 68 46 bd 9c 2d 5c 3e 81 fc 89 be 7d 4d 42 be
       -0.048439756 0.21501774 -0.26950458 -0.18974872
000010 5c 19 69 be 6d 3c 0a 3e 07 28 67 bd a1 83 1e be
       -0.2276358 0.13499613 -0.056434657 -0.154799
000020 39 16 87 3e 1d c9 1f 3e 84 23 0b 3e 75 3e 2e 3e
       0.26384142 0.15604062 0.13587767 0.17016013
000030 4f e7 00 3d 07 85 92 3e 84 4e 86 bc 59 bf 3c 3d
       0.031470593 0.28617117 -0.016394861 0.04608092
000040 9e 9e 47 3e b4 47 9d bd 97 c3 1e 3e 99 67 ce bd
       0.19494101 -0.07679692 0.15504299 -0.100783534
000050 2b 89 86 3d 2d 31 78 3d 74 13 2e 3d 96 24 14 be
       0.065691315 0.060593773 0.04249902 -0.14467081
000060 72 b0 7b bd fe 91 0c bd fc e0 b6 3d 38 93 99 3e
       -0.06144757 -0.034318916 0.08929631 0.29995131
000070 59 b7 cb bb 1f 61 3e bd c6 d7 c8 bd 6f bb dc 3c
       -0.006216925 -0.04647934 -0.098067805 0.026944844
000080 d8 59 95 3e f1 b2 56 bc 4c 1d f8 3d a1 0a 00 be
       0.29170108 -0.013104186 0.12114963 -0.12504055
000090 c3 fb d7 bd 4c 6f 21 3e 57 8a 22 3d ab 8b af 3e
       -0.105460666 0.15765113 0.039682712 0.34286246
0000a0 2d 0a ce 3c 80 03 d8 bc 11 df 34 bd 17 5c d3 bd
       0.025151337 -0.026368856 -0.044158045 -0.10320299
0000b0 a3 c7 d7 bc 95 b2 54 bd 76 bd 23 be 6b 93 9e bc
       -0.026340311 -0.05192812 -0.15990242 -0.019357404
0000c0 fa 6d 80 3e 76 5d 29 3c 37 2b de 3d 95 ea c8 bc
       0.25083905 0.010337224 0.10848086 -0.02452592
0000d0 4d 24 ec bd 2a 28 77 3e c6 01 57 be 15 b4 e4 bd
       -0.11530361 0.24136415 -0.2099677 -0.111671604
0000e0 79 60 b8 3d 56 a6 9c 3e 17 3f 92 bc c8 de 2c be
       0.09002776 0.30595654 -0.01785235 -0.1688186
0000f0 e2 4b 39 3d 26 35 82 3e f4 27 50 3e 86 88 10 be
       0.045238383 0.25431174 0.20327741 -0.1411458
000100 49 11 7f 3d 39 30 7c 3e 61 84 08 be d5 09 88 be
       0.062272344 0.2462777 -0.13331749 -0.2657
000110 4f 63 89 be 07 68 5b 3e 3b e1 87 bd d4 41 0d be
       -0.2683358 0.21426402 -0.06634756 -0.13794643
000120 82 36 3d 3e bc ac c4 3d 40 be 92 3d 6f de 54 be
       0.18477824 0.09603259 0.071651936 -0.20787977
000130 0c 8c f5 bd 0b f6 26 3d c5 3c 8b 3d 57 21 98 be
       -0.119896024 0.04076199 0.067987 -0.29712936
000140 8c 7e 2d 3d d4 61 58 3e 19 08 8c bd e5 de 47 be
       0.042357013 0.21131068 -0.06837482 -0.19518621
000150 28 b8 6c bd 52 e5 88 3e 2f be 81 be 42 e0 9c bd
       -0.057792813 0.26737458 -0.2534041 -0.07659961
000160 b8 62 40 3e b1 e8 7c bd 5e 76 2e be f0 50 41 3e
       0.18787658 -0.06174535 -0.17037341 0.18878531
000170 30 1f 5a be ae 4f 5b bd d9 99 af bd 92 4c 90 bc
       -0.2130096 -0.053542785 -0.08574266 -0.017614637
000180 36 94 97 3d 09 c2 1d 3e 6d 94 aa bd 22 17 8c be
       0.07401316 0.1540605 -0.08329091 -0.273614
000190 55 54 25 be d4 04 1a 3e d2 54 b1 3d e9 06 ee bd
       -0.16145451 0.15040904 0.08658756 -0.11622412
0001a0 c7 f1 f6 bc 81 b2 30 3e a9 0d 92 3d a5 80 a7 bd
       -0.030144585 0.17255594 0.07131512 -0.08178834
0001b0 c6 ee 4f bd 4c be 36 be b0 61 90 3c b3 7d da bd
       -0.05076482 -0.1784603 0.017624706 -0.106685065
0001c0 77 fa 4d 3e 11 e2 d9 bd eb f8 a5 3d 51 3d 97 bd
       0.20115076 -0.10638822 0.08104118 -0.07384742
0001d0 00 2b ce be 30 21 b5 3e 7f a5 db 3d c5 86 9b bd
       -0.4026718 0.35376883 0.10724925 -0.075940646
0001e0 29 bf 3c be 4a bb 6d 3b b2 e8 da be c9 bc b2 bb
       -0.18432297 0.0036274963 -0.42755657 -0.005454634
0001f0 40 50 48 bd 7f cb 53 bd 79 d2 83 3e 6e df 13 be
       -0.048904657 -0.05170774 0.25746515 -0.144407
000200 0c f8 e6 bd ce 99 1e 3e 66 45 b0 bd 1a 4f 3b bd
       -0.1127778 0.1548836 -0.08606987 -0.045729734
000210 89 a8 01 3d eb c3 4c bd eb 07 9b 3d c8 39 d6 bd
       0.03165487 -0.04999153 0.075698696 -0.1046024
000220 ea 44 8b 3d df 7c ba 3b c9 3a 1a 3e a9 b8 eb bd
       0.06800254 0.0056911553 0.15061487 -0.115098305
000230 27 7a 72 3e 2d df d6 bd ec b7 6e be ac eb 95 3d
       0.2367941 -0.10491786 -0.23312348 0.073203415
000240 1c 0a ae 3d 69 f8 9c be 25 f3 8e be b7 33 16 3e
       0.08498022 -0.30658272 -0.2791988 0.14668165
000250 ab b2 43 bd 3f 9d 5d 3e 45 7b b1 bd 58 86 82 be
       -0.047777813 0.21642016 -0.0866609 -0.2549312
000260 20 83 52 3e 98 95 f7 bd 16 ca cf bd 04 98 d9 3c
       0.20557833 -0.120890796 -0.10145967 0.026561745
000270 67 b7 f3 3d 65 82 38 3e 88 1e 88 3e f4 84 a3 bb
       0.119002156 0.18018492 0.26585793 -0.0049902145
000280 69 07 1d be 62 fd 45 bd 4d 7a 4a be 17 f6 87 3e
       -0.15334858 -0.048337348 -0.19773217 0.2655494
000290 bf c9 ab 3c d2 38 54 be 33 da a0 3c 08 0c c3 bc
       0.020970223 -0.207248 0.019635295 -0.023809448
0002a0 ce ca 49 be 07 ac 48 3e be 67 0e be bd 70 85 be
       -0.1970627 0.19596873 -0.13906762 -0.26062575
0002b0 8d b9 9f 3d 7c 84 cd bd 34 42 91 3e 8f f5 b5 3d
       0.07799063 -0.10035035 0.2837082 0.08884727
0002c0 c5 61 6b 3e 8b f8 1f be 3e 26 23 3e 70 95 cf 3d
       0.22986515 -0.15622155 0.15932557 0.10135925
0002d0 20 62 f3 3d f5 3d fe 3c fc eb 1f 3d 94 aa d3 bd
       0.1188395 0.031035403 0.03904341 -0.103352696
0002e0 6d c8 85 3e 80 ab f9 3c c8 8e ea bd d6 0d 0e be
       0.26129475 0.030477285 -0.114530146 -0.13872465
0002f0 c9 23 82 3d b7 9d 31 3d db a4 b4 3d fc 7d 0a be
       0.06354482 0.0433633 0.08820506 -0.13524622
000300 89 17 97 be ca 6c 82 bc 6d 4e 9f 3d 5c 39 d9 3d
       -0.29510143 -0.015921015 0.077786304 0.106066436
000310 17 57 6a 3c 16 d0 c2 3d 9c a6 9e 3d 28 e0 f1 3d
       0.01430299 0.095123455 0.07746622 0.118103325
000320 b6 73 cc bd e6 d4 f5 3d d9 45 ea 3d 6f dd 23 3d
       -0.099830076 0.12003498 0.11439104 0.040006097
000330 3f 29 ef bd cb 49 f4 bd 1f 2a 24 3e 1b 43 70 3e
       -0.11677789 -0.119281374 0.16031693 0.23463099
000340 e1 fb b7 bd f9 d5 56 bd 9c 7f dd 3d c8 ec 77 bd
       -0.08983589 -0.052450154 0.10815355 -0.060528547
000350 43 81 f0 bd 83 34 2f 3c 26 cd e8 bd dc d4 85 be
       -0.11743405 0.010693672 -0.11367254 -0.2613896
000360 a8 33 97 bd e8 e3 a5 3d e9 85 37 3d c5 1c 88 be
       -0.073828995 0.0810011 0.04480544 -0.2658445
000370 c9 e1 9d be e1 c3 12 bd 29 16 96 bd 00 a5 37 be
       -0.30836323 -0.035831336 -0.073284455 -0.17934036
000380 49 c7 15 3d 72 2a 04 3e a4 06 19 3e 48 2e 96 3d
       0.036567006 0.12906817 0.1494394 0.07333046
000390 0b 28 7b 3c 8a 47 25 3d 56 ce 02 3e 64 2c 7c 3b
       0.015329371 0.040351428 0.12774023 0.0038478607
0003a0 aa 21 9f 3e b5 6a 12 be c1 49 49 be 43 26 0a 3d
       0.3108037 -0.14298518 -0.19657041 0.033727895
0003b0 45 bb 73 3e 34 8c 0e 3e 4d ff f0 3d 37 74 5d be
       0.23801906 0.13920671 0.11767445 -0.21626364
0003c0 2b 51 07 be b5 2c d5 bd 11 55 9e 3d 24 2a 52 3c
       -0.13214557 -0.10408918 0.07731069 0.01282743
0003d0 ab 46 4c bd 67 c8 6d 3e 2e eb 78 bd 2f 79 5c 3e
       -0.04987208 0.23220979 -0.06077116 0.21530603
0003e0 3d 94 d1 bc dc a9 0d be 7b 7e da 3d 1f 02 46 be
       -0.02558338 -0.13834327 0.106686555 -0.19336747
0003f0 22 a3 35 be 70 ce 33 be f9 80 bf 3d d5 83 6a bc
       -0.17738011 -0.17559218 0.093507715 -0.014313658

encoder.net.5.bias f4 [32]
000000 0d b5 68 3d da 5d e9 3d 14 27 58 3d fc 4d 9a bd
       0.05681329 0.11394854 0.052771643 -0.075344056
000010 b2 ac 63 bd e0 cf b8 bc c4 3b c0 3d 31 e1 a0 bd
       -0.055584617 -0.02256006 0.093863994 -0.07855452
000020 8b 5a c6 bd 5d 8d a5 bd 35 e0 ab 3c 3a 32 6f bd
       -0.096852385 -0.080836035 0.020980934 -0.05839751
000030 e0 f6 b9 3d 49 42 af 3d 01 0e b0 3d f0 e1 a6 3d
       0.09080291 0.08557565 0.08596421 0.08148563
000040 1c 38 07 3e 31 a2 a1 3d bb 33 bd 3d 3b 69 79 3d
       0.13204998 0.07892264 0.092383824 0.06089137
000050 53 bd 8d bd 3b 32 31 bd ba 33 aa bd b1 49 6a 3c
       -0.06920876 -0.043260794 -0.08310647 0.014299796
000060 f2 1e 48 bd af 92 98 bd 33 2d a8 3d 32 fd a3 bd
       -0.048857637 -0.07449853 0.08211746 -0.080072775
000070 2b 3d 99 3d d9 60 85 bd 81 16 0d be 13 e4 aa bd
       0.0748237 -0.06512613 -0.13778116 -0.08344283

predictor.net.1.weight f4 [32, 32]
000000 ec e9 6a 3d b6 e8 c2 3d 96 c8 02 3e e9 b3 4e be
       0.05735199 0.09517042 0.1277183 -0.20185818
000010 1c af 90 3e ca 23 30 3e 8d fc 6d be a4 93 5c bd
       0.28258598 0.17201152 -0.23240872 -0.05385174
000020 1d 9d 86 be f9 db 85 be 75 3d 6e bc 93 b1 eb 3d
       -0.26291743 -0.26144388 -0.01454102 0.11508479
000030 a4 3a af bc 31 e4 f4 bd 8d 95 02 3d 5f 2d 6a 3d
       -0.021390267 -0.119575866 0.031880904 0.057172175
000040 57 c5 be 3e 33 1c da bb 82 ab 66 be c4 66 a4 3d
       0.37259933 -0.0066561936 -0.22526363 0.080274135
000050 ba 2f d2 3e a6 9e 84 3d 1d 95 b7 3d 6b e9 cc 3d
       0.41052037 0.06475572 0.08963988 0.100054584
000060 75 14 4f 3e 63 c3 c6 bd 29 be 1b 3e cc 9b 8f bd
       0.20222647 -0.09705236 0.15209259 -0.07012138
000070 8c 09 c9 bd 38 50 43 3d 76 22 8e be 5b bd 28 3e
       -0.09816274 0.047683924 -0.27760667 0.16478483
000080 af 5b 1b 3e 52 b2 7c be 14 1b 95 bd 87 25 23 3d
       0.15171693 -0.24677399 -0.07280555 0.03983071
000090 ee 18 35 3d 53 a8 4c 3e ce 4f 9d 3d f8 be 02 bd
       0.044213228 0.19986086 0.07681237 -0.031920403
0000a0 c6 d0 aa 3e f9 f8 af bd 22 c3 c5 3d 60 66 a4 3d
       0.33362406 -0.0859241 0.09656359 0.08027339
0000b0 b8 80 42 be 48 61 67 bb fe 2b 74 3b e4 ef 7f 3e
       -0.18994415 -0.0035305787 0.0037257667 0.24993855
0000c0 0e 92 b4 bd d9 dc 85 bd 2c 06 ba be b6 d1 fa bd
       -0.0881692 -0.06536264 -0.36332834 -0.122470304
0000d0 1b 4f ac bc 7e 2b 61 3e c6 fd 36 3d 83 57 db bd
       -0.021033814 0.21989247 0.04467561 -0.10710051
0000e0 d8 30 71 3d 7e 1a 17 be 46 74 43 3d 12 b2 87 3d
       0.05888447 -0.147562 0.04771831 0.06625761
0000f0 3c 63 94 bd d4 b1 e8 bd 74 53 4d 3e 04 2e c9 bd
       -0.0724549 -0.11362043 0.20051366 -0.0982323
000100 7f 5d 65 bd 3f bf 17 bd 2b f0 d4 3d 00 ed 0a 3e
       -0.055997368 -0.03704762 0.10397371 0.13566971
000110 81 44 0f 3e dc 3f c1 bd 8a 65 45 3d de 1d 76 bd
       0.13990976 -0.09436008 0.04819254 -0.060087077
000120 23 c1 a3 be e2 4a 09 be 9a fb 9d 3d 24 80 2d 3e
       -0.3198329 -0.13407472 0.07714005 0.16943413
000130 02 40 70 be 90 64 a5 3d 9a 0c f8 bb 05 77 a0 be
       -0.23461917 0.080758214 -0.0075698616 -0.31340805
000140 e1 3d 1d bd 42 41 c3 bd db ca d7 bc 0e 54 da bd
       -0.03838909 -0.09533931 -0.026341846 -0.106605634
000150 6c 4b b3 3d e4 aa 96 bd e5 20 ba 3e 49 1b 81 be
       0.0875462 -0.073568135 0.36353222 -0.2521613
000160 d9 7c 4e bc 60 fd 02 3e 7b 60 d1 bd a7 a9 fb bb
       -0.012603008 0.12791967 -0.1022348 -0.0076801362
000170 75 06 32 3e 8b 35 90 3e 2f d8 8d be a1 be 57 3e
       0.17385276 0.2816585 -0.27703997 0.21068813
000180 e8 43 64 3e 4b f5 4a 3d d1 92 bc bd a4 14 3e bd
       0.22291529 0.049550336 -0.092076905 -0.046406403
000190 67 49 71 3e 65 87 23 be 43 fc 8c be a6 29 46 3e
       0.23563157 -0.15969618 -0.2753621 0.19351825
0001a0 8a 02 94 be 0c 60 2b be 6c c7 45 be 89 5b 9f 3e
       -0.28908187 -0.16735858 -0.19314355 0.31124523
0001b0 9e 1b b7 3d 4f e3 e7 3c 10 ea e1 3d f6 30 d2 ba
       0.089408144 0.028306631 0.11030972 -0.001603632
0001c0 b6 56 3b 3d 3c c5 15 bd 56 59 75 be 3c ea 8b bd
       0.04573699 -0.03656505 -0.2395986 -0.06831786
0001d0 b2 43 f4 bc ab 32 06 3d 23 cd 24 3e c0 66 4b 3e
       -0.029817436 0.032763164 0.16093878 0.19863415
0001e0 33 65 8d bd a7 a5 aa 3d e8 dd fe bd 62 e4 92 bd
       -0.06904068 0.08332377 -0.12444669 -0.07172467
0001f0 2f 5c 9c 38 5d 0c 1c bd 89 81 02 bc 8f 23 8c bd
       7.45583e-05 -0.038097728 -0.007965454 -0.0684272
000200 9c 0c 26 3d 93 af 27 be e7 a2 06 3e a2 1f 9e 3d
       0.04053937 -0.1637557 0.1314808 0.07720877
000210 ad 02 b7 bd 86 f1 6f be ab 1c 16 3e 6b 03 a3 be
       -0.08936057 -0.23431978 0.14659373 -0.31838545
000220 3f ad ba bc 7d 4d 1c bd 53 36 58 3d 30 5e 38 be
       -0.022787688 -0.038159836 0.052786183 -0.1800468
000230 e0 0a 01 3e 70 b2 52 3d f0 0d 8d be 0c ce 41 3e
       0.12601805 0.051439703 -0.27549696 0.18926257
000240 26 5b 45 bd 8a 84 71 3e f5 6c 6d bd 91 0b 92 3e
       -0.04818263 0.23585716 -0.057965238 0.2852445
000250 ca c4 a8 3d d8 94 97 be 3a c1 41 be 7a 95 d9 bd
       0.082406595 -0.29605746 -0.18921366 -0.106242135
000260 93 40 86 3e 9c 2d ce bd 83 71 8f 3e 5a 35 5b be
       0.2622114 -0.10067293 0.2801629 -0.21407071
000270 45 2c 7b be 35 19 8e be fd b6 58 be f8 f2 4c be
       -0.24528606 -0.27753606 -0.21163554 -0.2001456
000280 e0 8f 7d 3e 09 8a 22 3d 25 7a a0 be 2f 08 14 3e
       0.24761915 0.03968242 -0.3134319 0.14456247
000290 29 73 af bc 42 1f 02 be 06 a1 8f 3e ab 97 28 bd
       -0.021417217 -0.12707236 0.2805254 -0.041160267
0002a0 67 0d 20 bc 2b 75 cd bb 79 cd 95 bd 4e 5a 3d bd
       -0.00976882 -0.006270071 -0.073145814 -0.0462287
0002b0 5f 91 6d bd 91 9d 59 bd a1 9d bd be 74 e0 41 3d
       -0.057999965 -0.053128783 -0.37034324 0.047333196
0002c0 6f 84 db 3d 73 c7 f8 ba 33 67 3c 3e 70 5a 83 be
       0.10718619 -0.0018980339 0.18398742 -0.25654936
0002d0 19 3c 34 bd c6 54 7b 3e 18 ec e9 3b 79 68 e7 3e
       -0.044002626 0.24544057 0.0071387403 0.45196894
0002e0 3e 61 f4 bd 9e 9f 6d be 04 2d cd bb ba 66 8d 3e
       -0.1193261 -0.2320542 -0.00626147 0.27617437
0002f0 f1 09 8e 3e 11 52 3f 3e 29 7e 4c bc b5 cd 20 3e
       0.2774196 0.1868365 -0.012481251 0.15703471
000300 40 0f bd be 5b e8 64 3d 83 19 fb bd 74 10 9c bd
       -0.36925697 0.055885654 -0.12260725 -0.07620326
000310 03 74 09 3e 4c e3 58 3e d5 bd a4 bd ff 42 d7 3d
       0.13423161 0.21180457 -0.0804402 0.10510825
000320 a6 1e 9e bd 82 f3 d1 bd 45 b9 d2 3b 1a a7 97 3d
       -0.077206895 -0.102515236 0.0064307773 0.07404919
000330 af 15 02 bd 0e 44 61 be 25 a5 f7 3d 30 39 02 be
       -0.03175896 -0.21998617 0.12092046 -0.12717128
000340 2c af 33 3e fd 48 1d 3e d6 36 2b bd fa 1c ff bd
       0.17547292 0.15359874 -0.041800343 -0.12456699
000350 9d 05 88 3e 1f b4 4a 3d d4 ba c3 3d 9f 0f d2 3d
       0.26566783 0.049488183 0.09557119 0.10256886
000360 64 63 ff bc 33 86 56 bd d0 9d 46 3d ce 87 25 be
       -0.031175323 -0.052374076 0.048490345 -0.16165087
000370 3d 19 38 be c5 ed 1c 3e e0 ff bf bd cc b1 30 bb
       -0.17978378 0.15325077 -0.09374976 -0.0026961444
000380 1f d1 6b 3c f7 9a 15 be 72 a5 75 3e 31 76 8a be
       0.01439312 -0.14609896 0.23988894 -0.27043298
000390 7e cb 4d 3e b8 07 cb bb 64 b5 33 be 0e 15 13 3e
       0.20097157 -0.0061959885 -0.17549664 0.143635
0003a0 d8 9c 53 bd fd a7 9e 3d e8 ea 07 be 34 57 e6 3d
       -0.05166325 0.07746885 -0.13273203 0.112471014
0003b0 83 00 25 3d 1c 9e 1e be 18 af 4a bd 0d 18 7a be
       0.04028369 -0.15490001 -0.04948339 -0.24423237
0003c0 55 51 00 3e 09 8a 4e 3e a6 16 89 be 61 79 22 bd
       0.12531026 0.20169844 -0.26775092 -0.039666537
0003d0 21 1b 33 3e 44 e6 b7 bb 4f 17 1c 3e 3c 54 98 bd
       0.17490818 -0.0056121666 0.15243267 -0.074379414
0003e0 ae af a9 be ed 0a cc be ad 6b 1b be 80 2b c1 bd
       -0.33141845 -0.39852086 -0.15177794 -0.09432125
0003f0 1f fb a7 bd 45 f6 88 3d dd f4 a9 bd aa 8e 13 bd
       -0.082021944 0.06687597 -0.08298657 -0.036024727

predictor.net.1.bias f4 [32]
000000 98 ed c1 bd e6 93 c4 3d 0b 6e 09 3e 02 66 c9 3d
       -0.094691455 0.09598522 0.13420884 0.098339096
000010 59 89 05 be fb d0 dc 3b ae 8c c7 3d 8a 37 cc bd
       -0.13040675 0.0067387796 0.097436294 -0.09971531
000020 24 e7 d2 bd 83 2e be bd eb a4 b8 3d 6d da fe 3d
       -0.10297993 -0.09286215 0.090158306 0.12444005
000030 40 73 c4 bd fa 23 de 3d 4d 28 d3 3d f9 27 01 3e
       -0.09592295 0.10846706 0.10310421 0.12612905
000040 ba 8c c5 bd 36 69 c3 bd ee 20 d7 3d 68 2d a4 3d
       -0.09645982 -0.09541552 0.10504328 0.08016473
000050 3e ea cc bd 94 1b d9 bd aa 93 be 3d 12 a0 cc 3d
       -0.10005616 -0.10600963 0.093055084 0.099914685
000060 dc c5 d4 bd b0 81 d3 3d 42 88 da 3d d9 21 ca 3d
       -0.10389301 0.1032747 0.1067052 0.09869737
000070 e3 00 bf 3d f7 f8 cf 3d 1e 0e da bd 4b 57 c2 bd
       0.09326341 0.10154908 -0.10647224 -0.09489306

predictor.net.3.weight f4 [1, 32]
000000 56 fb 8b bd e3 08 cd 3d 6b da 13 3d 90 76 a0 3d
       -0.06835048 0.10011461 0.03609697 0.07835114
000010 54 35 8e bd f5 9c 55 bc ff b1 33 3e 05 c0 a3 bd
       -0.06943765 -0.01303791 0.17548369 -0.07995609
000020 be 4d 23 be 50 28 19 be 35 a2 34 3d cb 18 b8 3d
       -0.15947625 -0.14956784 0.044100005 0.08989104
000030 a9 93 a7 be 8d bb 3a 3f db f3 c1 3e 9b a2 18 3d
       -0.32729843 0.7294243 0.3788136 0.037264448
000040 ca e7 12 be 1c d1 94 bd 0d 61 aa 3c 2a b6 78 3c
       -0.14346233 -0.07266447 0.02079823 0.01518015
000050 8d 1b 8a be c5 51 8a bd 19 99 7f 3d d9 ac db 3e
       -0.26974145 -0.067538776 0.062401865 0.4290531
000060 65 74 57 bd d2 32 a7 3e 61 37 1c 3d d4 80 c0 3d
       -0.052601237 0.3265596 0.03813875 0.09399572
000070 cf ac 1f 3e 24 8a 24 3d a7 b9 84 be 20 d3 a9 bd
       0.15593265 0.040170804 -0.25922891 -0.08292222

net.0.weight f4 [60, 35]
000000 f7 f9 96 3b 38 e9 47 bc 43 a3 1f be f5 8a ae 3d
       0.004607435 -0.0122016 -0.15589623 0.08522598
000010 32 20 0a be 27 98 7a be ee e3 0f be 3e 10 7b bd
       -0.13488844 -0.24472104 -0.14051792 -0.061294787
000020 48 9f bf 3d cc 85 a8 3e a6 87 eb bd d1 1c d1 3d
       0.09356552 0.3291458 -0.11500482 0.102105744
000030 ad 6a 7c 3e 79 33 a0 be a2 10 e5 be ef 66 0b be
       0.24650069 -0.3128927 -0.44739252 -0.13613485
000040 64 25 0b be 1c 7c cd be a9 48 7a bd 54 cc c4 bc
       -0.13588482 -0.4013375 -0.06110445 -0.024023212
000050 81 cb 99 bd 7e 61 31 3e e2 83 36 3e df 85 13 bd
       -0.075095184 0.17322347 0.17823747 -0.03601634
000060 e2 21 c7 ba fd 70 61 be d4 c4 19 3d 21 28 f2 bc
       -0.0015192593 -0.22015758 0.037541226 -0.02956015
000070 11 27 9e 3e 9f 16 01 3e 88 b8 2a be 74 dd 12 3c
       0.3088918 0.12606286 -0.16671956 0.008963931
000080 21 4c f4 bd 6b 7c 27 3e 5b 28 1b 3e b0 c7 16 3e
       -0.11928583 0.16356055 0.15152113 0.14724612
000090 64 b4 39 3e fa de 68 be 4e 89 d5 3c 56 07 2b 3e
       0.1813522 -0.22741309 0.026066449 0.16702017
0000a0 0a 06 ea bd d0 9f 27 bd cc 4f e3 3c 66 78 09 bd
       -0.11426933 -0.040923893 0.027748011 -0.033562087
0000b0 5f ea 1b be bc 65 21 3e 0f 7c ca 3e 6e db d3 bd
       -0.15226124 0.15761465 0.39547774 -0.10344587
0000c0 50 20 1b 3e 96 de da 3e 17 91 00 be c8 79 07 3e
       0.15149045 0.42747945 -0.12555347 0.1323005
0000d0 d1 db 83 bd 9f b8 12 3d 8c c1 00 bd 66 85 01 bd
       -0.06438411 0.0358206 -0.03143458 -0.03162136
0000e0 d9 06 fe 3d 95 ed 34 bd 0c 38 17 3d af 53 d6 bc
       0.1240365 -0.04417189 0.036918685 -0.02616295
0000f0 a1 8c dc 3d 47 28 93 3e f8 fe ea bd fe 25 85 3e
       0.1076901 0.28741667 -0.11474413 0.26005548
000100 56 a0 a3 3d 51 eb d4 3d 2a 9f a2 bd 4b f1 07 3e
       0.07989566 0.103964455 -0.079405144 0.1327564
000110 17 6a 34 3e ea ea 9f bc 41 da 84 be 5c 74 ce 3d
       0.17618595 -0.019521195 -0.25947765 0.100807875
000120 8a ae 9a 3e dd 60 54 3e dd c2 ea bd d6 a3 99 be
       0.30211288 0.20740075 -0.114629485 -0.3000781
000130 30 37 9f 3d ed f3 1b 3d b7 86 ef bd cb de b2 3d
       0.07774198 0.038074423 -0.11695617 0.08733901
000140 9c 96 a5 bd cd 7c 87 3d 9b ee 17 be d6 d7 c6 3e
       -0.08085367 0.06615601 -0.14837115 0.38836545
000150 6c 84 9c bc f7 44 e7 3d ed c2 86 3b 59 a6 e4 bd
       -0.019106112 0.11292451 0.0041125924 -0.11164541
000160 ff 56 3b 3d 44 9d 24 bd 2e dc 09 3d 9a 16 ff 3d
       0.045737263 -0.040189043 0.033657245 0.12455483
000170 a8 d9 85 be 9e 60 84 bd d7 b7 a7 be ef 89 6e bd
       -0.2614262 -0.06463741 -0.32757446 -0.058237012
000180 98 96 58 3d df d3 b6 3c c0 f4 a6 bd fb 32 32 3e
       0.052877992 0.022317825 -0.08152151 0.1740226
000190 72 cd 09 be 5b 3c 27 be 32 c2 35 bd e8 d7 a3 bd
       -0.13457277 -0.16331618 -0.044374652 -0.08000165
0001a0 98 6c 7a bd 64 94 32 3e 45 8c 10 be 70 3d 10 be
       -0.06113872 0.17439419 -0.14116009 -0.14085937
0001b0 99 36 1e be 81 03 fd bd 0f b9 72 be 80 87 4d bd
       -0.15450515 -0.12354184 -0.23703407 -0.05017805
0001c0 e0 0d aa bd d1 46 27 be 4e e7 1a 3c d9 63 16 bd
       -0.08303428 -0.16335608 0.009454561 -0.036716316
0001d0 31 5c a4 be bc e8 51 bd fe 74 04 be 4a 0c 4a bc
       -0.32101586 -0.051247343 -0.12935254 -0.0123320315
0001e0 45 8b 13 be 4a 69 34 bd 5b a6 88 3c 8d 87 e5 3d
       -0.14408596 -0.044045724 0.016680887 0.11207495
0001f0 fe b0 28 be 42 52 45 3e 88 57 83 3e 3d 14 ba bd
       -0.16473767 0.1926966 0.2565272 -0.090858914
000200 4f d7 2a bd 04 5e 0b bf 23 72 70 bd 3e 69 bd 3d
       -0.04170924 -0.5444033 -0.0587026 0.09248589
000210 b0 45 d7 bd 9f b6 78 3d ea d4 57 3e b6 ee 4b 3e
       -0.10511339 0.060721036 0.21077314 0.1991528
000220 cc 58 18 3e 0c 7e f7 bd fa bb 28 be 5f 1d 4f 3e
       0.14877623 -0.120845884 -0.16477957 0.20226048
000230 e0 7d d6 be 5a c0 c4 3e ff 93 6e be 64 b9 80 3e
       -0.4189291 0.38428003 -0.23298644 0.25141442
000240 ac 5b bc bd f1 12 be bd c9 bc 39 be 2b 0f 17 be
       -0.091971725 -0.092809565 -0.18138422 -0.1475188
000250 2d 2b be 3d e2 3f 6a bc 89 a7 d1 3d 60 eb 05 be
       0.09285579 -0.014297457 0.10237033 -0.1307807
000260 b7 1b 0d 3c a2 fa 27 3d 89 69 32 3e df f8 9d bd
       0.008612565 0.041010506 0.17423071 -0.07713484
000270 97 bf 26 bc 0d 64 45 be 90 ad 60 3e 86 bb 16 3e
       -0.0101775145 -0.19276448 0.21941209 0.14719972
000280 df 3d 29 bd 89 37 1f bd 31 74 28 ba f0 7e f8 bd
       -0.04131877 -0.03887132 -0.0006426005 -0.121335864
000290 6b 28 0c 3e 14 33 99 3d 39 60 76 be a0 a6 d9 3d
       0.13687293 0.074804455 -0.24060144 0.10627484
0002a0 40 54 31 3b c0 78 07 3e c2 98 05 bd 43 80 e7 3d
       0.0027058274 0.13229656 -0.032616384 0.11303761
0002b0 fb f3 65 be af 04 a2 39 4f 50 20 be 3f 7c 51 3d
       -0.22456352 0.00030902537 -0.15655635 0.05114388
0002c0 86 a0 96 3b d0 d5 20 be 6f 29 89 3e 38 73 94 bd
       0.0045967726 -0.15706563 0.26789424 -0.07248539
0002d0 e4 47 8b be a9 5d 76 be 4d f6 92 3b 7b 5b d4 bd
       -0.27203286 -0.24059166 0.0044849277 -0.10369011
0002e0 4a 57 86 3d 8c 6b a0 be bb ce f4 3d b1 96 09 bd
       0.06559618 -0.31332052 0.11953493 -0.033590976
0002f0 41 10 b5 3d a5 a0 b2 be b2 dd 24 3e 84 95 79 3d
       0.08840991 -0.34888187 0.16100195 0.060933605
000300 d9 63 3b be 65 c2 d5 bb 54 cc 9a be 60 db 95 3c
       -0.18299808 -0.006523418 -0.30234015 0.018293083
000310 87 78 84 bd a7 80 a1 3d 7e a8 03 3e be c9 6e 3d
       -0.06468301 0.078858666 0.12857243 0.058297865
000320 75 18 75 be 29 31 f0 bd 6b a7 e3 bc ca 5a cb bd
       -0.23935111 -0.117281266 -0.027789792 -0.09929426
000330 ea c1 7f 3d 00 b5 d9 3d 21 45 bf bd 16 82 8a 3e
       0.06244079 0.10630226 -0.09339357 0.27052373
000340 77 d4 d8 3d e7 a2 f0 bd b8 bb 84 be 87 7b b3 3c
       0.105873995 -0.11749821 -0.25924468 0.021909488
000350 5b 66 5d bd cd ef 39 bd d6 ec b2 3d 69 c6 90 3c
       -0.054052692 -0.045394707 0.08736579 0.017672734
000360 26 ab 88 bd b4 f5 39 be dc f0 f0 3d f5 37 63 3c
       -0.06673269 -0.18160135 0.1176469 0.013868322
000370 2d 9b ae bd a8 4e 62 be 53 57 35 3d 81 9a 54 be
       -0.08525691 -0.22100317 0.044272732 -0.20762064
000380 55 80 52 bd 05 85 b3 3d 97 3e 21 3e 68 17 db bd
       -0.05139192 0.08765606 0.15746532 -0.10697824
000390 d7 be 13 3c df 1a d1 bd 0e 45 47 be c8 0d 4b be
       0.009017668 -0.102102034 -0.19459936 -0.19829476
0003a0 90 54 10 bd b8 5f 89 bd c4 50 af 3d 80 2e d4 3d
       -0.035236895 -0.0670771 0.08560327 0.10360432
0003b0 02 b2 e7 3d c0 d1 2a 3e 99 09 c1 bd 6e bb 87 be
       0.11313249 0.16681576 -0.09425659 -0.26510185
0003c0 d5 8f 01 3e ef c1 b6 3d 4e b7 b8 bd 10 ea 0c 3e
       0.12652524 0.08923709 -0.090193376 0.13761163
0003d0 38 1e 50 3e c7 16 0f bd 7f 6f 2b be 55 cd 6c 3d
       0.20324028 -0.03493383 -0.16741751 0.057813007
0003e0 88 61 07 bd 05 e2 3d bd f7 d9 20 3e e1 f1 10 be
       -0.033051997 -0.046358127 0.15708147 -0.1415477
0003f0 ad 38 80 be 15 5d b9 3e bf cf 3e bd 74 d3 ea bc
       -0.2504324 0.36203828 -0.04658484 -0.028665282

net.0.bias f4 [60]
000000 64 f2 08 3e 9c da fe 3d a3 81 06 3e 61 23 c5 3c
       0.13373715 0.1244404 0.1313539 0.024064722
000010 41 f1 f1 bd af 94 b9 bd 55 6b c1 3d 46 91 cd 3c
       -0.11813594 -0.09061562 0.094443 0.025093686
000020 64 78 da 3b 6e d0 e9 bd 03 82 9d 3d 8b 13 e8 3d
       0.0066671837 -0.11416708 0.076908134 0.113318525
000030 6a 7c ff 3d a1 bf 05 be 9b be 55 3d 6c 41 1f 3e
       0.12474902 -0.13061382 0.05218373 0.155523
000040 88 ba 28 be cb a3 1f be f4 0b f8 3d f8 5f fb 3d
       -0.16477406 -0.15589826 0.12111655 0.12274164
000050 14 89 b2 3d 9c 0f d2 3d ef 82 2d bd 6d ec 95 bd
       0.08717552 0.102568835 -0.042361196 -0.07320485
000060 d2 41 f8 3c 4f 43 89 bd 68 07 16 be dd 82 89 3d
       0.030304823 -0.06702291 -0.14651263 0.06714413
000070 74 14 23 be 53 17 33 be c0 c5 3f 3d 18 38 65 bc
       -0.15925771 -0.17489366 0.04681945 -0.013990425
000080 5a 97 a8 bd 04 8b 51 bc ce f1 5f bd 6d 86 01 be
       -0.08231993 -0.012789492 -0.054673962 -0.12648936
000090 c6 ca 05 3d 27 37 0c 3c cb 34 14 be e6 d3 d4 3d
       0.032664083 0.008558071 -0.14473264 0.10391979
0000a0 d1 34 eb 39 04 92 d6 bc c4 fd 0d be 4d 6c 81 bc
       0.00044862044 -0.026192673 -0.13866335 -0.015798712
0000b0 4d ec e4 bc aa 7b a2 bd b7 56 da 3c bf 9a eb bd
       -0.027944708 -0.07933743 0.026652677 -0.11504125
0000c0 60 9a b4 bd 22 63 c6 3d 4a e2 a3 3d da 6f 16 be
       -0.08818507 0.09686877 0.080021456 -0.14691105
0000d0 e5 c9 ff bc 93 a5 9d bd 21 26 bb 3d 4c 3e d3 bd
       -0.0312242 -0.076975964 0.09138132 -0.103146166
0000e0 74 e1 97 bc 07 6c 79 bd 1c b3 0f be 63 4d 8e 3d
       -0.018540122 -0.06089404 -0.14033169 0.06948354

net.2.weight f4 [60, 60]
000000 63 84 c6 bd 11 99 8d bd c2 a2 66 3e 5c 8d 35 3d
       -0.096932195 -0.06913961 0.22523025 0.044324264
000010 b5 95 4a bb 26 4e 5d 3e 74 30 79 ba 33 6e d6 3c
       -0.0030911986 0.21611843 -0.0009505816 0.026175594
000020 65 ab 19 be 88 45 49 3d 40 5e 29 bd d6 6c 0e 3e
       -0.15006788 0.049138576 -0.04134965 0.13908705
000030 b2 74 98 3d f9 0f a3 be b0 ff 20 bc a4 a4 21 be
       0.07444133 -0.31848124 -0.009826586 -0.15785462
000040 fd 34 07 bd ac 3b 73 be b5 6f da bd ae 8e 46 3b
       -0.033009518 -0.23753232 -0.10665838 0.0030297446
000050 f1 47 57 3e 3f 3b dc bd 8b ad d1 bc 71 7f 8e 3d
       0.21023537 -0.10753488 -0.025595447 0.06957901
000060 b1 b5 4f be 30 d4 b9 bc 54 70 80 bc 9b 4a fb 3d
       -0.20284154 -0.022684187 -0.015678562 0.12270089
000070 f6 d3 3c 3c a1 8c 23 3e 1c f4 94 bc 91 d4 9e 3c
       0.011525145 0.15971614 -0.018182807 0.019388469
000080 e8 5b d0 3d 4b 91 ba bd d4 64 88 be 05 6c fd bc
       0.1017378 -0.09109744 -0.26639426 -0.030935297
000090 c3 01 de 3d 55 c9 61 3c 49 d3 d4 3d a2 cb f2 ba
       0.1084018 0.013780911 0.10391862 -0.0018523822
0000a0 76 57 40 be 23 26 6e be bb 4e 89 be f4 2a 28 bc
       -0.18783364 -0.23256736 -0.2681788 -0.010264147
0000b0 29 e1 00 bd 16 62 bb 3c ed b1 83 bc e2 93 23 be
       -0.03146473 0.02287392 -0.016076053 -0.15974382
0000c0 34 c5 63 be fd 4f 05 bd 5e d2 8b bd 8c 24 82 bc
       -0.22243196 -0.032546986 -0.06827234 -0.015886568
0000d0 d4 75 9e bd 21 c0 be 3d c5 d3 a9 3d b4 73 76 3c
       -0.07737318 0.093139894 0.08292345 0.015042234
0000e0 51 62 54 3d 74 fc df 3d 27 3e 92 bc 92 10 14 bd
       0.051851574 0.109368235 -0.017851902 -0.036148615
0000f0 ef 39 ff 3d 25 3c 09 bd fc 2f 1f 3e b6 73 9d 3c
       0.12462222 -0.033504624 0.15545648 0.019220214
000100 c0 57 2a bd cd 25 33 bd 86 28 64 3d 69 63 0d be
       -0.04158759 -0.04373722 0.05570271 -0.13807453
000110 12 9a ac bd 8b 94 a8 bd 0b 59 0e be a5 aa 08 3d
       -0.08427824 -0.08231457 -0.13901155 0.033365864
000120 0b fb 18 bd ab 9b 7f 3d af e0 31 3e eb cd a8 bd
       -0.03734879 0.062404316 0.17370866 -0.08242401
000130 a5 7b 56 bd 7a 9a 97 3d 8d fc 7e 3d 94 cc e1 3d
       -0.05236401 0.07402511 0.06225257 0.11025348
000140 ef 91 db bd 82 4b a9 bd b9 a9 14 3e b4 64 01 3d
       -0.10721194 -0.08266355 0.14517869 0.03159018
000150 ee 54 cd bc 16 78 28 3e c7 68 1b 3e a2 2a 0c 3e
       -0.025064912 0.16452059 0.15176688 0.13688138
000160 75 d9 56 3e a8 9e 0d 3b 36 42 a7 bd f9 eb 57 3d
       0.20981391 0.002160946 -0.081669256 0.052715275
000170 05 4a 4b 3e 90 73 df 3d e2 ea 07 3e c9 7e 68 bd
       0.19852455 0.10910714 0.13273194 -0.056761537
000180 b3 c7 28 be 87 89 08 3e bb 32 14 3e 9f a7 2c 3d
       -0.16482429 0.13333713 0.14472477 0.042152043
000190 f3 a0 37 be 7c 56 d9 3c 1c e3 9b 3d cc 4d 80 bd
       -0.17932491 0.026530497 0.07611677 -0.062648386
0001a0 46 b9 0a 3d 82 81 e0 bd 5e 8f 05 3d dd 27 b2 3d
       0.033868097 -0.10962202 0.03260743 0.086990096
0001b0 f8 39 43 be 92 39 0f be b6 bc bd bd 21 a4 0b 3e
       -0.19065082 -0.13986805 -0.092645094 0.13636829
0001c0 b7 1b 0b be 4c 7f a7 bc bf 93 2d 3d 72 1c bc 3d
       -0.13584791 -0.020446442 0.04237723 0.09185113
0001d0 41 d2 66 3e 19 a2 72 bd 8f 84 74 3c 01 65 d9 3d
       0.22541143 -0.05923662 0.014924183 0.10614968
0001e0 fc 8b ef 3c 6d 4f 02 3e df b3 fe bd 56 a6 4e 3e
       0.029241554 0.12725611 -0.124366514 0.2018064
0001f0 5c 44 1a be 00 3b 06 be 16 de ed 3d 51 0a 58 be
       -0.1506514 -0.13108444 0.11614625 -0.21097685
000200 df 01 04 3b c7 5b 8b 3d 8c 6e 40 bd 23 dd 7f be
       0.0020142717 0.068046145 -0.046980426 -0.249867
000210 ca 60 69 be e7 9b 5c 3e 6e 32 fb bc d4 14 0c 3e
       -0.22790828 0.21543847 -0.030663695 0.1367982
000220 21 85 05 3d 36 1c bf bc 6f 46 29 be 94 2c 0e 3e
       0.032597665 -0.023328882 -0.16530775 0.13884193
000230 42 b1 3f bd d2 f1 0f 3c 03 d7 9d bb 6a 63 a0 3c
       -0.046799906 0.008785682 -0.004816891 0.019578654
000240 ee 60 50 3c ad 87 71 bd 21 7b 50 be ed ad f2 3d
       0.012718422 -0.05896728 -0.2035947 0.1184958
000250 6d 8e 9a bd b9 82 db bd 8f c1 d3 bd 48 33 c0 bc
       -0.07546697 -0.10718293 -0.10339653 -0.023461953
000260 77 4e cd 3c e9 f7 49 be db 52 88 3c 85 f4 80 3e
       0.025061829 -0.19723476 0.016641071 0.25186554
000270 5d 3c 8f be ad 0d 5d be 19 7e 79 3d 3c 99 4b 3e
       -0.2797574 -0.21587248 0.06091127 0.19882673
000280 ab 0f 39 3e c1 89 a9 3d ab a7 c2 3d 7f 4f d1 bc
       0.18072383 0.082782276 0.095046364 -0.025550602
000290 29 bd 43 bd a6 50 25 3e f1 5a de bd 05 0f 45 be
       -0.04778782 0.16144046 -0.108571894 -0.19244011
0002a0 33 e3 c3 3d ee 88 0a be e3 46 25 3e d0 12 25 be
       0.09564819 -0.13528797 0.16140322 -0.16120458
0002b0 7a 9f 21 3e 87 1c 90 bd 0b ad 0a bd 0a 09 14 be
       0.15783492 -0.07036691 -0.033856433 -0.14456573
0002c0 2f d7 d4 bc 67 97 d0 3c 60 e3 38 3c 70 48 6c 3d
       -0.025981514 0.02546282 0.011284679 0.05768627
0002d0 7b 57 d9 bd 5c 8f 79 bd d8 3a 9a 3e 11 9a 5f 3d
       -0.10612389 -0.060927734 0.3012302 0.05459029
0002e0 78 32 39 3e 8f d7 76 be f9 2b 0c 3e ec b2 50 3c
       0.18085659 -0.24105667 0.13688649 0.012737971
0002f0 33 72 13 3e 63 cb 00 bd 42 17 cf bc fb b5 e0 bd
       0.14399032 -0.031443965 -0.025279645 -0.1097221
000300 1c 88 df bd 0d 75 9a 3d c0 5a 58 be 26 c7 ce bc
       -0.10914633 0.07541857 -0.21128368 -0.025241446
000310 72 80 f8 3d 00 d5 cd b4 fb 5c a8 3d b3 48 26 be
       0.12133874 -3.8339203e-07 0.082208596 -0.1623867
000320 60 e4 01 be d5 93 e7 3d ad 1f 9b bc 92 fb c9 bc
       -0.12684774 0.113074936 -0.018936003 -0.02465609
000330 90 7f e9 bb 61 fd af 3c 08 5e 8f 3c 6f 0f 14 3d
       -0.0071258023 0.021483125 0.017500892 0.03614753
000340 ff f7 17 3e ef 4d 55 be 0b c4 db 3a 00 c0 90 bd
       0.14840697 -0.2083051 0.0016766799 -0.07067871
000350 79 87 7c 3d df 80 df 3c 75 ea d4 bd 12 e9 04 be
       0.061652634 0.02728313 -0.10396282 -0.12979534
000360 e5 3c c7 be a4 45 89 3c c6 8e d0 bc 32 9a bf 3c
       -0.38913646 0.01675684 -0.025458705 0.023388956
000370 a6 f2 8e be ee c2 1b 3e 79 99 a4 be c3 a9 42 3e
       -0.279195 0.15211079 -0.3214834 0.19010071
000380 cb de 52 3d 1a 52 ca bb 02 96 36 3e ce 8c b8 bd
       0.051482003 -0.006174338 0.17830661 -0.09011231
000390 f3 3e f3 3d e4 99 77 3c ec 89 0f be f7 63 4a 3e
       0.11877241 0.015112374 -0.14017457 0.19764696
0003a0 9e bd dc bd 8b 96 8f bd 75 b7 11 be 3d 90 8f 3e
       -0.10778354 -0.07011136 -0.1423014 0.28039733
0003b0 58 e8 09 3c 56 d9 38 bc 91 50 f7 bd 42 b3 2d be
       0.0084172115 -0.011282286 -0.12075914 -0.16962913
0003c0 b0 d9 dd 3d df f1 65 3d 34 b2 13 bc 20 4a 03 be
       0.10832536 0.05613887 -0.009014655 -0.12821245
0003d0 34 71 4f bd 78 16 34 bd ce 61 a3 bd b4 bf ef bc
       -0.05064507 -0.04396674 -0.07977639 -0.029266216
0003e0 e1 23 2c 3e cd cd a9 3d b2 a2 41 bc 6e 7d fb 3d
       0.16810562 0.082912065 -0.011818575 0.12279783
0003f0 c5 1f 47 be f6 a9 01 3e 11 5a 18 be 94 e7 59 bc
       -0.19445713 0.12662491 -0.14878108 -0.013299841
