results/PINN/NASA results/2-2/Experiment7/model.pth (torch, 59646 bytes, 14 tensors)

encoder.net.0.weight f4 [60, 17]
00000000: 1ffa cbbd c258 7dbe ffea 933d 7402 d63d
00000010: 5843 aabe 4f0c 793d 0c69 2cbc 0d2a 923d
00000020: ad6e 9d3e e55f 9bbd 558a e33d 3a17 5a3d
00000030: 5d97 533e 414f eebd 99a4 493e e892 e43d
00000040: 0a45 ea3d afc4 9f3d 1127 17be b308 6bbd
00000050: 2558 86be 9e08 c13d 7a8d 7ebe 8619 a3bd
00000060: 5c68 703d 0526 67be b4f0 073b 4e6f fbbc
00000070: bcac 45be 2e0e 0ebe 29c9 c63d 75a8 103e
00000080: cd10 f73c 7cd1 e93d ff00 84be 8305 8a3c
00000090: 1b88 a3bd b772 44be 1481 553e 5bf9 403c
000000a0: 667f ee3e b039 113e 95e8 193e 8a0c c33d
000000b0: ebba 7d3d 438a a23d 8284 32bd f2d9 db3d
000000c0: daff 763b e180 a3bd b396 63bd 8b0e f7bc
000000d0: 19be 553e f351 babd 00b4 543e 7dac bebc
000000e0: 15a4 01be 5705 8abd babd a4be 1ad3 efbd
000000f0: ad3e 16be 9f28 4bbe 91d6 cebc 8cff 2fbe
00000100: d34a b43c bf58 5abd 5341 2d3d 08c0 723d
00000110: a9bc 743d a7ec cd3d 8055 243d 07cc 1e3e
00000120: 1a78 82bc 6fac 813e 978a 1abd a1aa 59bc
00000130: 3613 6dbe 6df5 28bd 12e6 19be b90c edbc
00000140: fd71 8cbd 3be3 1b3e 09f8 563e 883b 963e
00000150: 3703 2a3c b06f 4d3e 7b9e b4bd 60ea a23e
00000160: 92c1 14be ae8b 463e 79a2 75bd 425a 52bd
00000170: 5131 883e 8460 ea3d 5c58 1abd ac86 f3bd
00000180: 3d3f 923d 9b5d 9a3e cb3c d2bd 4616 62be
00000190: 3e2f e9bd 8586 a23c a911 043e eb80 ec3d
000001a0: 0c84 23be de08 333d 20b4 c7bd b354 33be
000001b0: 98b6 0fbd a9b8 003c 0437 113d 8d5a 553e
000001c0: 75af a03b e4e6 983e d6a4 1dbd 1bca 313e
000001d0: 9021 de3d 4898 03be b709 c53d 3725 b1bd
000001e0: 9894 b5be 7115 9a3d 7fa8 a5be 38e3 46be
000001f0: 8051 103e da1f d13d 782d 6d3d 3620 20be
00000200: 29d7 313d c289 a8bd 5829 273e 4bf9 51bd
00000210: 6d4e debd b646 d5bc cde2 2f3e d2c8 8d3b
00000220: c1c6 e4bd 988b 9bbd e3c9 cb3e 1c64 dfbe
00000230: db0a 573e 8896 7fbd 46ff e9bd d7aa 12be
00000240: f45b 113e ff1a 04bc 568a 9a3e 8766 69be
00000250: 6289 a2bd 5e6b c13e 410e ebbd 3a80 24be
00000260: 7437 963e 8219 b23d 737f 223e be3a 45be
00000270: 76d0 323e 84dc d93e 3c5f 103e acd2 1ebc
00000280: f65c 353e a493 55bd 1aab 1f3e df91 343d
00000290: 69fc cfbe 9a55 7c3d e060 fdbc 8d10 4ebe
000002a0: d629 8f3e 56d1 1abc d973 213d 1a8a 973e
000002b0: 89c3 b13c 7dce d8bd 6c7b 7c3e 30d7 90bd
000002c0: a8f0 a1bd f384 05be cb56 9d3c 23f2 b7bd
000002d0: a73d 0bbe d0bc ec3d d2ae 4e3d 017c 1dbd
000002e0: fd1f 963e bfc2 4e3e c5b1 9fbe 6b9e 46be
000002f0: d6fc b9be d811 f4bd 25da 42be 3b34 9ebd
00000300: ba8b acbb 0c7e f9bd 41ff 003e c45a 91be
00000310: 910e 613e 8edc d23d f852 6c3b eadf cfbc
00000320: 16cd 0abe 83fc d63d 8ea9 cdbd ec62 c2bc
00000330: c9cf e53c bcc7 9bbc 7991 e43c a350 ae3d
00000340: e242 c6bd 1fca a93d c838 3ebe c16a a63d
00000350: 3abb 2cbe b4de f1bc 4b0b 363e 0e81 38be
00000360: 2950 773e 7b8e 0fbe a19f 4d3e f012 b13e
00000370: 2eb8 6e3d 37b6 923d 0c90 1dbe cfe0 4f3e
00000380: bcf1 6d3d e56a 013e 8e6f 89be a232 45be
00000390: ddee bf3c 50b8 a2bd 18cb 66bc 6373 063e
000003a0: 12f3 65be 3708 a73d aba2 83bd 11e9 bdbd
000003b0: 2fef 69bd a3c8 e33d 4df6 383e 4de6 233d
000003c0: ca00 4f3d df9d c73c 1678 2c3e 5191 4a3e
000003d0: c428 603e ff24 cc3d f08a bf3d ba9d 443d
000003e0: 9a93 3b3e 7704 a5bd 86ba dbbe c916 8c3d
000003f0: dda2 c8bd dd1a 493d 8df1 0f3e 2183 f93d
-0.09959816 -0.2474089 0.07222556 0.10449687 -0.33254504 0.060802754 -0.010523092 0.07136927
0.307485 -0.0758665 0.11110369 0.053244807 0.2066321 -0.1163621 0.19691695 0.11160833
0.114389494 0.07801186 -0.14760996 -0.057381343 -0.26239124 0.09425472 -0.24858657 -0.079638526
0.058693275 -0.22573097 0.0020742835 -0.030692723 -0.19304174 -0.13872597 0.09706337 0.14126761
0.030159378 0.11416909 -0.2578201 0.016848331 -0.079849444 -0.19184385 0.2085002 0.011778201
0.46581572 0.14182162 0.15030129 0.09523876 0.061945837 0.079365276 -0.0435834 0.10734929
0.003768912 -0.07983566 -0.05556364 -0.030158302 0.20873298 -0.09097662 0.2077179 -0.023275608
-0.12660249 -0.067393 -0.32176 -0.11710186 -0.14672346 -0.19839714 -0.025248798 -0.17187327
0.022008335 -0.05330729 0.042298626 0.059265167 0.059750233 0.100549035 0.0401206 0.15507518
-0.01592641 0.2532687 -0.037729826 -0.01328531 -0.2315186 -0.04124968 -0.15029171 -0.02893673
-0.06857679 0.152234 0.20993055 0.29342294 0.010376743 0.20062137 -0.0881929 0.3181944
-0.14526966 0.19389221 -0.0599694 -0.051355608 0.26600125 0.1144419 -0.037681922 -0.11890921
0.07140968 0.3014954 -0.102655016 -0.22078809 -0.11385964 0.019839535 0.12897362 0.11548027
-0.1596834 0.04370963 -0.09751153 -0.17512779 -0.035086244 0.007856526 0.035452858 0.20835324
0.0049037286 0.29863656 -0.038487278 0.17362253 0.10846245 -0.1285106 0.096209936 -0.08649676
-0.3546493 0.07523621 -0.32355115 -0.19422615 0.1409359 0.10211153 0.05790469 -0.15637287
0.043418083 -0.082294 0.16324365 -0.051263135 -0.10854802 -0.026034694 0.17176361 0.004326918
-0.11170722 -0.07594985 0.39802465 -0.43631065 0.21000235 -0.062399417 -0.11425643 -0.14322983
0.14195234 -0.008063077 0.30183667 -0.22793017 -0.0793636 0.37777227 -0.11477328 -0.1606454
0.29339182 0.086962715 0.1586893 -0.1926069 0.17462334 0.42551053 0.14098829 -0.009693783
0.17711243 -0.052142754 0.15592614 0.044084426 -0.4062226 0.061605074 -0.030929983 -0.20123501
0.27961606 -0.009449324 0.03941712 0.2959755 0.021699684 -0.105862595 0.24656457 -0.07072294
-0.0790723 -0.13038997 0.019206425 -0.08981731 -0.13597737 0.115594506 0.05045969 -0.038448337
0.2932128 0.20191477 -0.31190315 -0.19396369 -0.3632571 -0.11917466 -0.19028528 -0.07724806
-0.00526568 -0.12182245 0.12597372 -0.2838956 0.21978213 0.10295974 0.0036060195 -0.025375325
-0.13554797 0.104973815 -0.100421056 -0.02372881 0.028053181 -0.01901614 0.027901398 0.08511474
-0.09680726 0.08290505 -0.18576348 0.081258304 -0.16868296 -0.029525138 0.17777745 -0.1801798
0.24151672 -0.14019196 0.20080425 0.3458476 0.058281116 0.07163661 -0.15386981 0.20300601
0.058091864 0.12638433 -0.26842922 -0.19257596 0.023429329 -0.07945311 -0.014086507 0.13129954
-0.22456005 0.08155864 -0.06427511 -0.092729695 -0.05711287 0.11122253 0.18062706 0.040014554
0.050537862 0.024367271 0.16842684 0.19781996 0.21890551 0.09967994 0.09352672 0.048001982
0.18318024 -0.08057492 -0.42915744 0.068402834 -0.09796689 0.049097884 0.14056988 0.12183214

encoder.net.0.bias f4 [60]
00000000: c3ea d1bd f3d6 a0bd 305e 52bd 2c07 143d
00000010: 7eff 963d 3a55 433d 7c02 833d 5785 94bd
00000020: 01c4 a0bd fb85 55bd fdd5 a63c 4a04 8bbd
00000030: af17 963d 9b0d 92bd 9040 77bd df05 8ebd
00000040: cf78 83bd 7e82 723d 534f b03c 2457 8e3d
00000050: 443a 80bd 8607 893d 4500 87bd 7c15 88bd
00000060: 8e2b 5b3d c802 433d 4a0b 1e3d 6025 803d
00000070: 8579 833d 5b06 7bbd 7f36 83bd ee20 953d
00000080: b02d 203d bd5d b63d 9215 abbd c190 40bd
00000090: 238e 983d b09d 9a3c 91a8 993c 7121 833d
000000a0: c8cb 9d3d 6ac2 8f3d 0605 65bd b867 67bd
000000b0: 5c97 53bd 5a53 643d f3fd 8abd 1da9 943d
000000c0: 31e1 7a3d a8ce cdbc 50e9 6b3d c139 a23d
000000d0: e269 863c 6cbc 8abd c3d6 babd ec57 8a3d
000000e0: 5ade 42bd 5f3f 233d f9cd 893d 1059 843d
-0.10249855 -0.07853498 -0.051359355 0.036139652 0.0737295 0.0476887 0.06396958 -0.07251995
-0.07849885 -0.052129727 0.02036571 -0.067879274 0.07328736 -0.07131501 -0.060364306 -0.069347136
-0.06419527 0.05920648 0.0215222 0.069502145 -0.06261113 0.06690888 -0.06591848 -0.06644723
0.053508334 0.047610074 0.038584985 0.06257129 0.064196624 -0.061285358 -0.06406879 0.072816715
0.03910607 0.08904598 -0.083537236 -0.047013048 0.074489854 0.01887402 0.018757137 0.06402863
0.07704884 0.070195034 -0.055912994 -0.0564954 -0.05165802 0.055743553 -0.06786718 0.07258818
0.061249916 -0.025122955 0.05759555 0.07921172 0.01640791 -0.0677422 -0.09122994 0.06755051
-0.047575332 0.039855357 0.06728739 0.064623

encoder.net.2.weight f4 [60, 60]
00000000: 833f 0cbe f2b9 2a3c ea9a 403d 1fe7 2cbd
00000010: 8302 68be 84cb 503d 156c 26bc c768 09bc
00000020: 9467 d8bb 6046 953e 9d6d 403e a1f5 52bd
00000030: 81ac d4bc 852c 093e 8890 503d 3b3f 383d
00000040: e4b5 263e 96eb 573d daa4 963c a188 5a3d
00000050: 4646 80be d0c0 103d f666 29bd 08a4 563c
00000060: 8ee0 f73d 151c b5bc df18 7f3e 626f 0ebe
00000070: 08e0 4f3e 861b 463e 2f28 883d 8181 293e
00000080: 1165 8fbc 89e4 e5bc 6c01 1f3e 194b 2abe
00000090: cc0b 86bc 1079 423d 6605 cbbd 10a9 6dba
000000a0: 7d10 0cbe 59e7 9fbe ebfb 3fbe 11b2 583e
000000b0: 5f1f c2bd 04fa 98bd 8d82 c53d 8056 87bd
000000c0: 0101 f0bd aad8 d63d b974 4fbc 45e5 9abd
000000d0: 9c04 fd3c c8f8 03be bad4 d7bd f711 fdbc
000000e0: ced5 f63c 4430 0e3e 0d6d d4bd ae1c ee3c
000000f0: 811d ef3d f3ff c4bd 5bd6 273e 5ffd 953e
00000100: 6600 273d b8f9 39be 19f4 2c3d 8144 dabd
00000110: ffb0 5fbd 6d17 2dbe 4481 07be 1d1d f23d
00000120: 392a 133d 01dc 783d 4658 333d 2d56 35be
00000130: a736 5fbd da00 58be 7b6b ec3c a3e7 cebd
00000140: 1d02 4fbd c125 213e bf11 f63c 46b4 f4bb
00000150: 5521 303d d497 91bd 13da 643e 0dcf f93b
00000160: 0681 723d 98ce d13d 1de2 a9bd c096 36be
00000170: 8c3a 033d d9e3 15bd 237b 2b3d 0197 a8bd
00000180: fef6 31be 76ac ba3d cf15 1dbe d720 2f3e
00000190: 728d 03be 9833 a73d c8f4 71bd 17e8 ab3d
000001a0: 755f 483e c30a 92bd 1d0b 143d 39d4 b23d
000001b0: 26cd f23d bbdb 993d 2b6c 223d 4276 12be
000001c0: 268f c3bd fb0f f1bc e098 01bd fe5f 07bd
000001d0: b530 12be 44e1 ecbd 8b66 0c3d 27da 15be
000001e0: a6dd 683e 0275 4cbe 890c 8cbe 3557 573e
000001f0: 3d73 123e fb83 083c 250b 7bbe bffe 943d
00000200: 37ca 483e eed2 863d deda 20bd d978 083e
00000210: 9db8 863d 8387 c53d 3272 aabc d39a 1c3d
00000220: 0734 4fbe 6a60 89bd aadb 353e 0395 673e
00000230: 3bcc 8ebd c453 a6bb 0265 693c 0c50 813e
00000240: 3036 a0bd 80b1 75ba 08c4 36be 8c39 1dbd
00000250: e520 f53c 1112 1abd 3f6b 093d 71c6 3dbd
00000260: a9ee a8bd e69c 18be eb79 003e 6daa 853d
00000270: fa6e bc3d a0f2 06be bbd5 cc3c 0b95 d1bd
00000280: 57de 4ebe 39ed 12be 065c da3c 2167 2a3e
00000290: c2c1 a0be a593 2ebc ead8 fdbc 28c3 68be
000002a0: 9715 23bd 67b8 083b 49bf 59be 5dfa 93bd
000002b0: 0971 f3bd fb6c 943e 9dbd a33d b1f8 7fbe
000002c0: dd82 fb3d 2951 d6bd 555a 95bd 9a37 bcbd
000002d0: 49ab 853d 15bd b03d 6f70 ec3c 9712 1cbe
000002e0: d7d1 bb3d 6d2b 4abe 17dc 2dbd 9765 cd3d
000002f0: 5e40 e3bd 9e08 8fbd 7486 4d3d bf25 dbba
00000300: 83b6 953e 39b9 863e abbb 8abd 33be 313c
00000310: fbfc 103e 5d8d b73c d8c9 5cbd 58cc 61bd
00000320: 6eac cfbe d780 213e 4f76 0cbe bd09 24bd
00000330: fb17 efbd 1495 f6bd b11c b93d 3c3d 5b3e
00000340: 628f fc3d 33e8 293e 3c61 5fbe 7608 cabd
00000350: 23ae a6bd 82c0 a3be 5caf 9d3c d2e1 54be
00000360: 7122 a63e 631d 8a3e 24c3 3abe 9c23 afbd
00000370: 6724 c93d 6365 8c3d 9eee ad3c fa42 783c
00000380: 6ce3 883d 5d4c f6bd aa5b 80bc 498e 63bd
00000390: 8c90 b8be 049a 593e 511f 4b3e db38 d9bd
000003a0: f94a 9cbc 7424 a5be 08a5 0b3e e737 803c
000003b0: 89f3 cb3d 77e4 833d 5559 163d 0a0a da3b
000003c0: 68d2 db3d 8fb0 7e3d a8fe 17bd be84 1fbe
000003d0: be47 39be f7f9 0e3e b223 3abd b150 8e3e
000003e0: 5317 083e 5191 c23c b9f2 523e b312 873a
000003f0: 071c 0dbe 17a1 6cbd e233 02be 7163 21be
-0.13696103 0.010420309 0.047022738 -0.0422126 -0.22657208 0.050975338 -0.010157605 -0.008386797
-0.0066041443 0.29155254 0.18791814 -0.05150378 -0.025961163 0.13395889 0.050919086 0.044982176
0.16280323 0.052714907 0.018389154 0.053352956 -0.25053614 0.03534013 -0.041357957 0.013100632
0.12103377 -0.022108117 0.24911831 -0.13909677 0.20300305 0.19346437 0.066482894 0.16553308
-0.017504247 -0.028063076 0.15527886 -0.1663021 -0.016363047 0.047478735 -0.09913139 -0.0009066025
-0.13678165 -0.31231192 -0.18748443 0.21161677 -0.0947864 -0.07469562 0.09644041 -0.066082954
-0.117189415 0.10490544 -0.012662106 -0.07563261 0.030885987 -0.12887871 -0.10538621 -0.030892355
0.030131247 0.138856 -0.10372362 0.02906641 0.11675549 -0.09619131 0.16390364 0.2929487
0.040771864 -0.18161666 0.042224977 -0.10657597 -0.054612156 -0.16903467 -0.13232905 0.11821959
0.03592894 0.060756687 0.043785356 -0.17708655 -0.05449548 -0.21094075 0.028859844 -0.10102775
-0.050539125 0.15737058 0.030037759 -0.0074677793 0.043000538 -0.07109037 0.22348814 0.0076235593
0.059205078 0.10244483 -0.08295081 -0.17830944 0.032038257 -0.036594246 0.04186548 -0.08231927
-0.17379376 0.091149256 -0.1534035 0.17102371 -0.12846926 0.081641376 -0.059071332 0.08393877
0.19567664 -0.07130959 0.03614341 0.087318845 0.11855535 0.075126134 0.03965394 -0.14302924
-0.09548788 -0.029426565 -0.031639934 -0.03305053 -0.14276393 -0.115664035 0.03427748 -0.14634
0.22740802 -0.1996651 -0.27353314 0.2102936 0.14301772 0.008332248 -0.2451597 0.072751515
0.19608389 0.065832004 -0.039271228 0.1332735 0.06578181 0.096449874 -0.020806406 0.03823359
-0.2023469 -0.06707843 0.17759576 0.22615437 -0.069725476 -0.0050759036 0.014245274 0.25256383
-0.078228354 -0.0009372458 -0.17848217 -0.03838496 0.029922912 -0.037614886 0.033549543 -0.046331827
-0.08248646 -0.14903602 0.12546508 0.06526647 0.092008546 -0.13178492 0.025004258 -0.10233506
-0.20202003 -0.14348306 0.026655208 0.16640903 -0.31397825 -0.010655318 -0.030987222 -0.22730696
-0.03981551 0.0020861865 -0.21264376 -0.072254874 -0.11886794 0.28989395 0.0799515 -0.24997212
0.122808196 -0.10464699 -0.0729262 -0.09190293 0.06526811 0.086298145 0.028862206 -0.15241466
0.09170883 -0.19743128 -0.042446222 0.10029142 -0.110962614 -0.069840655 0.050177053 -0.0016719623
0.29240808 0.2631319 -0.06774076 0.01084857 0.14159004 0.022406274 -0.05390343 -0.055126518
-0.4056124 0.15771805 -0.13717006 -0.04004835 -0.11674496 -0.12040153 0.090386756 0.21410078
0.123320356 0.16592483 -0.21814436 -0.09864895 -0.08138683 -0.3198281 0.019248657 -0.20789269
0.32448152 0.26975545 -0.18238503 -0.08551714 0.09821396 0.068552755 0.021231946 0.015152687
0.06684002 -0.12026284 -0.015668709 -0.055555616 -0.3604778 0.21250159 0.19836165 -0.106065474
-0.019078718 -0.32254374 0.13637173 0.015651656 0.0995856 0.064400606 0.036706287 0.006654029
0.10733491 0.0621801 -0.037108094 -0.15577981 -0.18093774 0.13962542 -0.045444198 0.27795938
0.13290147 0.023750933 0.20600404 0.0010305255 -0.13780223 -0.057770815 -0.12715104 -0.1576059

encoder.net.2.bias f4 [60]
00000000: 36a2 a2bd bae0 653d 9245 8ebd 88f8 36bd
00000010: fb77 79bd 7f94 82bd 0901 89bd f8ff 9c3c
00000020: 10bf 853d dcc2 82bd afc3 8dbd fd9a 8f3d
00000030: c7b5 a6bd 6e10 a3bd 8841 99bd d9d1 83bd
00000040: cfde 063d 0b29 b03d 70d6 883d 48b1 6b3c
00000050: 6199 9e3d 8879 9bbd 840b 4f3d e947 5c3d
00000060: 6cba 49bd c87c 9d3d 14b0 83bd 1b1a 093d
00000070: ff2d 71bd 131e 6bbd f736 70bd 5e68 74bd
00000080: ccf7 83bd c6d4 1d3d d082 a23d 46ad cb3d
00000090: 27ff 91bd c07d 813d 661c a73d 9ec0 5a3c
000000a0: 45e0 f2bc a9c5 893c e274 9bbd fbbb 263d
000000b0: 84c7 403d 77c7 46bc 7321 9c3d 191a 873d
000000c0: 6272 f63c c5cd 83bd f324 bbbc 8bcb f5bb
000000d0: 4187 ca3d f1fa aebd ebc6 35bd 363e 8fbd
000000e0: a127 92bd 57bc 7bbd d1c6 abbd 938b 9f3d
-0.079410955 0.05612252 -0.06946863 -0.04467061 -0.060905438 -0.0637598 -0.066896506 0.019165024
0.06530583 -0.06384823 -0.06922089 0.070119835 -0.0814014 -0.07962118 -0.07483202 -0.0643651
0.03292733 0.08601578 0.06681526 0.014385529 0.077440985 -0.075915396 0.05054809 0.053779516
-0.04925005 0.07689816 -0.064300686 0.03347216 -0.058881756 -0.057401728 -0.05864617 -0.059669845
-0.06443748 0.038532995 0.07935107 0.09945159 -0.071287446 0.06322813 0.081597134 0.013351588
-0.029647956 0.016817885 -0.07590653 0.040706616 0.047065273 -0.012132517 0.076235674 0.065967746
0.030083839 -0.06435732 -0.022844767 -0.007501071 0.09889079 -0.08543957 -0.044379156 -0.06994288
-0.07136465 -0.06145891 -0.083875306 0.077902935

encoder.net.5.weight f4 [32, 60]
00000000: 5290 1cbe ffad f5bb 58db 633c dbce e6bc
00000010: 8c84 963d 7ae2 78be 49df 2e3e eaba fa3d
00000020: a590 3e3b 57c6 113e 37c8 50bb a265 513e
00000030: bcea d23d 0d6d c73c 1380 cd3d 3f72 ba3c
00000040: 62c4 38be f04b 08bd d511 573e 1a52 fe3b
00000050: dcee adbd 3ae1 b23c c43d cd3d 871c 253e
00000060: 94ac f33d 236e b83d 733a eb3d 697e 07be
00000070: 0559 1c3d 71e1 b83d f3ff 0abe 9be1 d73d
00000080: 64ed cc3c 6cc0 f93d ec62 053e 8a0c 053e
00000090: 2438 e3bd 386e 793d 29b3 213e e4c5 4f3e
000000a0: 09d9 013c e003 b13b 8b68 fa3d 3081 2abd
000000b0: 7ab3 fabd 40d6 06be 4c21 58be 3330 6dbc
000000c0: 037f df3e 7a9d f4bd a344 493d 4eee 2e3e
000000d0: 8c5c 2b3a f81a b4bd 876c 9e3d 6fde bfbd
000000e0: f5d7 47be bb54 fdbd 1192 d23d 524e bdbd
000000f0: fe3f ea3d ea90 37be 8973 2ebd 543d 033d
00000100: 627e 833e 931e 91bd 8d18 b13c 6ba1 24bb
00000110: a1c6 5e3e ab95 0b3d b1eb 21bb 2ddb ed3d
00000120: d5cf ac3c 57e2 6f3d 672c 1f3e bf80 1b3d
00000130: 73d9 023e c069 1fbe e2da b8bd bae1 8dbe
00000140: b3c9 bcbd 093c bd3a 52a2 4d3e e0db edbd
00000150: 151b d4bd a235 953d 7978 4ebe 13dd 88bd
00000160: 5eaa a23d 8d2b 8cbe 65e7 553e e623 a0be
00000170: 2985 ce3d c10f 493d 2659 28bd 4a9f a03d
00000180: 7469 893a ead2 9a3e 16c6 93be 295c d63d
00000190: 4828 213e aa26 d93c 5b73 90be cbf8 6dbd
000001a0: e97a de3c c66d 14be 21aa 73bd f9ec 90be
000001b0: 3bd9 633b b9bc 083e b62b febd a125 e6bb
000001c0: 8f5b 853e d20a a63d c765 13be 0442 d93d
000001d0: 62b0 843d 3eb4 863e da12 1c3e 7e9e 82bd
000001e0: 6df9 c1bc 7238 933c bb21 2a3d e7b6 8e3d
000001f0: 0e49 c1bd de45 273e 6637 043e c3b3 fbbc
00000200: 76dc 7c3e 669c b5bd 6c08 ec3d a9c4 e6bd
00000210: 7162 793e f9bf 483e cc24 ac3e fb60 71bd
00000220: 90d4 7abd b59f 22be 6594 7ebe f2fb 1b3c
00000230: e530 8bbe fe84 2fbd 5ca8 7bbc c7b7 27bd
00000240: feb7 303e 92fd 953d 3749 bdbd fa1b 803e
00000250: c60b 7fbe cecb a0bd f5cf f6bd 4dce bf3c
00000260: f76f 63bd fbf7 2abe 4302 09bd 9790 2ebe
00000270: 9dad 5fbd 157d 16be 225b 9ebe dd85 8b3d
00000280: 43e0 99be 2f6d 0b3e a966 5b3d acc4 e6bc
00000290: d4ab afbc b942 713e 0566 543e 2f34 58be
000002a0: 6e21 8dbc 8f6e a6bc 0bf4 333e acda 2dbc
000002b0: 64d8 eb3d 14ff 643d 663a 8f3d 981f fa3d
000002c0: 11c4 713c f605 3cbd 52c2 ddbc d4a8 cf3c
000002d0: 1a01 383e a60d 5d3e 9375 f5bd a284 bd3d
000002e0: 08aa 0abe 241c b83d 1e12 07be 6a2c 343c
000002f0: 41fc 1ebe 73b2 ebbd 37a8 123e ebc6 64bb
00000300: 3e00 cbbd 6ff6 c93d f45e 293e 0b30 5dbd
00000310: aff9 67be b2ca cc3d 6354 ca3d c9e3 773e
00000320: 3167 40be fe68 5d3d b8fe a7bb ab1a 01be
00000330: 7f43 aa3e 4ab5 21be a6f4 4dbd 52ef a4bd
00000340: ad65 3e3e 707d b93d 3721 cfbd 13fc 6dbe
00000350: 6328 ff3d 40e0 4a3d 21a0 23be b644 f73a
00000360: 8ff4 8d3d 2508 5d3c 7f02 48be b346 0a3d
00000370: 5567 863d 1ad3 2e3c c8dc a93d c26e 263d
00000380: 09cd 7b3e 6da3 12be 8350 6abc 8e9f 5f3e
00000390: af24 47be 57f4 d53d d2a9 80bd 59c8 be3d
000003a0: de0a 25bd 1f92 5b3c f1dd 423e e05f 983c
000003b0: 7b75 09bd 106f 29be cbdf 283e 8362 bbbd
000003c0: b5f6 733d 53bd b33d a355 22bd 7052 4a3e
000003d0: 7937 23bc 1e16 1f3e bea2 2a3e bda6 a2be
000003e0: a9b7 373e 82c9 f3bd d2ca 4f3c 8b9b 0d3e
000003f0: 8cae 7a3c b0c0 033e 4a6d e2bd 8e49 c43d
-0.15289429 -0.0074975486 0.013907276 -0.028174808 0.073495 -0.24305144 0.17077364 0.12242682
0.0029077914 0.14235817 -0.0031857619 0.20448926 0.10298678 0.024343992 0.10034194 0.022759555
-0.18043664 -0.033275545 0.21002896 0.007761252 -0.084928244 0.021835912 0.100215465 0.16124164
0.11898151 0.09005382 0.11485758 -0.13231815 0.038170833 0.090273745 -0.135742 0.10541078
0.02501554 0.12194905 0.13026017 0.12993065 -0.11094692 0.06089613 0.15791 0.20290333
0.00792528 0.0054020733 0.12226971 -0.04162711 -0.12241264 -0.13167667 -0.21106452 -0.014476824
0.4365159 -0.11944099 0.049137723 0.17083094 0.0006536923 -0.087942064 0.07735544 -0.09368598
-0.19515975 -0.12369677 0.10281766 -0.09243454 0.11437987 -0.17926374 -0.04259065 0.03204091
0.2568236 -0.0708591 0.021618152 -0.0025120627 0.21755458 0.03407828 -0.0024707133 0.1161407
0.021095196 0.058565464 0.15544282 0.03796458 0.12778263 -0.15567684 -0.090261236 -0.27711278
-0.092181586 0.0014437448 0.20081452 -0.116142035 -0.10356728 0.0728562 -0.20163144 -0.066827916
0.07942651 -0.27376977 0.20889051 -0.31277388 0.10083992 0.04908729 -0.041100644 0.07842882
0.0010483698 0.3023904 -0.28862065 0.10466797 0.15738022 0.026507694 -0.2821301 -0.058098596
0.027158218 -0.14495 -0.05948842 -0.28305796 0.003476693 0.13353242 -0.12410681 -0.0070235287
0.26046416 0.081075326 -0.14394294 0.106082946 0.06478955 0.2630939 0.15241566 -0.06377886
-0.023678506 0.017971251 0.041536074 0.069684796 -0.09437762 0.16335246 0.12911758 -0.030725366
0.24693474 -0.08867721 0.11525044 -0.11267979 0.24353959 0.19604482 0.33621824 -0.05893038
-0.06123787 -0.15881236 -0.24861296 0.009520518 -0.2718574 -0.04285144 -0.015359964 -0.040946748
0.17257687 0.07323755 -0.0924248 0.25021344 -0.24906835 -0.07851373 -0.120513834 0.023413802
-0.0555267 -0.1669616 -0.033449423 -0.17047344 -0.05460893 -0.14696153 -0.30928904 0.06812642
-0.3005391 0.13615869 0.0535647 -0.028169952 -0.021444239 0.23560609 0.20742042 -0.21113656
-0.017227855 -0.02031639 0.17573564 -0.0106112175 0.115158826 0.055907324 0.069935605 0.12213057
0.0147562185 -0.045904122 -0.027070198 0.025349058 0.1796917 0.21587238 -0.11985316 0.09253813
-0.13541424 0.089897424 -0.13190505 0.010996917 -0.15525915 -0.11508646 0.14321981 -0.0034908603
-0.099121556 0.098614566 0.16540128 -0.054000895 -0.2265384 0.099995986 0.09879377 0.24207987
-0.18789364 0.054055206 -0.0051268004 -0.1260783 0.3325462 -0.15791813 -0.050282143 -0.08053459
0.18593474 0.090571284 -0.10113757 -0.2324069 0.12458875 0.049530268 -0.15979053 0.0018865082
0.069314115 0.013490711 -0.19532202 0.03375883 0.06562678 0.010670448 0.08294064 0.04063297
0.24589933 -0.14320154 -0.014301422 0.21838209 -0.19447587 0.10446995 -0.06282391 0.09315557
-0.040293567 0.013401537 0.19029976 0.018600404 -0.033559304 -0.16546273 0.1649162 -0.09149649
0.05956145 0.08776345 -0.03963245 0.1975801 -0.009961956 0.15535781 0.16663644 -0.31767836
0.17941155 -0.11903669 0.0126826335 0.13828866 0.015300404 0.12866473 -0.110560015 0.09584342

encoder.net.5.bias f4 [32]
00000000: 7d74 883d dd01 d3bd b568 95bd eef0 b0bd
00000010: dbeb b5bd 4add c6bd b90a 8fbd 9416 d7bc
00000020: c304 91bd 0aa6 94bd 2ef5 a1bd 012a ddbc
00000030: ae7c 48bd f2af 833d 0aa6 90bd 2895 523d
00000040: 2b32 93bd 9f54 d23d 4671 973d 7eea 923d
00000050: 299f 90bd 94ed 52bd 2307 abbd 120e ebbd
00000060: 6f2c 1a3d d637 9a3d 8b55 a3bc c6ce 89bd
00000070: b109 943d 8b7c 55bd 3913 cf3d 470b 8ebd
0.066628434 -0.1030309 -0.07295362 -0.08639704 -0.088828765 -0.09710176 -0.06984467 -0.026255883
-0.07080986 -0.07258232 -0.079080924 -0.026997568 -0.04894703 0.06430043 -0.070629194 0.051411778
-0.07187303 0.102700464 0.07394652 0.07173632 -0.070616074 -0.051496103 -0.083509706 -0.11477293
0.03764003 0.07530181 -0.019938251 -0.06728892 0.07228411 -0.052120727 0.10111088 -0.06935745

predictor.net.1.weight f4 [32, 32]
00000000: 9810 b2bd 1ef1 443e dfa7 f4bd db90 e93c
00000010: a866 e23d cd72 4d3e 6b2a 0fbe 525f d33b
00000020: 98ae 90be a0e0 bb3b 46e4 b9bd 2f48 49bd
00000030: 92d4 363e cdef b5bd 5b25 af3e 3759 df3d
00000040: 98a4 3a3d e60c c2be 6ad8 dd3e 1daa a63e
00000050: f67b 083e a346 bc3d bc1a 0e3c ca8e 0d3d
00000060: e303 b83b aa04 96bd 70d0 5a3e fb41 563e
00000070: 63ab 053e 955b 5bbd 68fc 7d3c 656b d43c
00000080: 338e d7bd 4609 62bd 9ea6 99bd f3e4 3ebe
00000090: cb8a 9d3d aade bb3d 907b 693c 7890 a33c
000000a0: 2d72 6dbe af8c 9fbd d9c4 8d3e 77ce 82bd
000000b0: 99c0 863d c3d5 f23d 86b3 ccbd 4f3d 173e
000000c0: 7d4e 79be ec79 82ba de24 a53e ed9a 813e
000000d0: 0180 d73d d478 02be f126 58bc 9c50 be3c
000000e0: 665f a33e b4e1 3e3c 7cfd 69be d675 a43e
000000f0: ab27 8f3e 03a8 2e3e 79da 66be 703f 1cbe
00000100: a998 7e3d ec90 583d cb7b c7bd 6055 63be
00000110: 1cb1 1f3e e125 60be 14c6 81bd 20b9 24be
00000120: 1662 aabd f8bd 813d ada9 dcbd 82ca 543e
00000130: bca3 a1bd 8cd0 77be 2d80 88be 0b7f c03e
00000140: a18d 0bbe aec9 8f3d 3491 cdbd f7a5 bf3e
00000150: 8191 3f3e dae9 873e e666 6f3e 90bf 5ebe
00000160: 1b5e a73e 16df 0cbd ec92 993e 021a adbd
00000170: 41f1 2b3e 0339 603e 011c b4be 7e5e 193d
00000180: c63a f33d 8f2d f6bc 5c18 843e 572e b7bd
00000190: 8f1d 02be 44f1 adbc 64bb 823e d00b 55bd
000001a0: 5b6f 903b 6606 24be 5bd0 513e c59a 10be
000001b0: 5450 863c f5bc 753e af4d f53c 20a9 35be
000001c0: 9857 893e 69e1 5c3d 362d b13d 5683 2cbd
000001d0: 7b76 4ebd 609e 21be f2c5 24be eca1 52bc
000001e0: 742b 6e3e b252 6a3e f673 cebe 029f 13be
000001f0: 3da4 90bd 5a51 403d b7d5 28be 4083 0abd
00000200: 713c 94be 92c0 19be 1784 013d 9a91 7e3d
00000210: 4717 a4bd c0c6 da3d 0234 46be b154 81be
00000220: e876 933d ba0f ec3c 7f00 23be 5977 71be
00000230: a30b 053e f133 e6bd e520 403e e974 a03d
00000240: f874 fd3d 7223 2dbe 18c8 573e 5516 413e
00000250: dc3f ecbd f419 ad3d 4237 cfbe 33f5 4abd
00000260: 7ede 5f3b 30a7 5d3d d3db 083e 1737 05be
00000270: 9bc6 7ebc d8b4 843d 14cd 983e bd2a 403e
00000280: 243a a1be 78ba 71be 7187 49be e09a 5bbe
00000290: 7164 c2bd 8579 8e3e 74cd e1bc 3954 9dbe
000002a0: 33dd 843e 4521 80bc 6c40 a23e 1509 eabd
000002b0: 611e b93e eac0 9c3d 60c5 8d3d cc6f 9dbb
000002c0: 293e 4fbe 4a44 8bbd 43c8 11be f801 ec3d
000002d0: 8d4c 893e eb41 da3d cf97 18be 0afe bfbd
000002e0: 4951 2dbe 2d04 05be 8db7 bd3d 8a98 33bd
000002f0: d29d b33d 442c 753e 168d 46bd fbb0 0fbe
00000300: 5b17 093d d745 99bc 6f1f 793e 87b4 d1bd
00000310: abcc 5b3c e163 09be c2bf 71bd 505a 03be
00000320: c6a0 b93d 8b13 42be 42e5 c43d 2c00 193e
00000330: a708 0f3d a976 a8bd 76f6 223d dd79 0b3d
00000340: 8181 09be 649b 0a3f bd5c 593d d159 d53a
00000350: 8041 a83c bdfa 703d b142 233e 9603 0ebe
00000360: b324 fbbe 9fb1 053e 1053 483e b648 203e
00000370: a141 683e 17cd b0bd 36f2 dc3e 0595 d33d
00000380: 8571 ebbd b045 76bc 6566 e1bd dba8 593e
00000390: e8ca 8fbd 422c ee3d ecde e5bd aec1 a53d
000003a0: 35f0 ec3d c73a 34bd e9b1 203e 03fe 3f3e
000003b0: 725b ae3e fe82 01be 8e74 96be 8987 58bb
000003c0: 8ef6 16be 54d8 ed3e fe7f d13e 6e91 7bbe
000003d0: 147c dcbc bab5 8c3d 1eee 143f c8e1 e9bd
000003e0: e3b8 193e 5a87 423e 4bcc c13e 795d 4dbd
000003f0: d8e8 1e3c 7a78 59bb f855 c7bd 8ce1 de3d
-0.08694571 0.19232604 -0.11946081 0.028511455 0.110547364 0.20063324 -0.13981025 0.006450572
-0.28258204 0.0057335645 -0.09076743 -0.049141105 0.17854527 -0.08883629 0.34208187 0.10905688
0.045567125 -0.37900466 0.43329173 0.3255166 0.13328537 0.091931604 0.008673366 0.034560002
0.0056156977 -0.07325108 0.21368575 0.20923607 0.1305366 -0.053554136 0.015502073 0.025930116
-0.10525169 -0.055184625 -0.07502483 -0.18642025 0.07692488 0.09173329 0.014250651 0.019966349
-0.23188086 -0.07790505 0.27689245 -0.06387036 0.06579704 0.11857178 -0.09995179 0.14769481
-0.24346347 -0.0009954548 0.3225469 0.25313511 0.10522462 -0.12741405 -0.013192878 0.023231797
0.3190872 0.0116504915 -0.22850603 0.32121152 0.27959952 0.17056279 -0.22544278 -0.15258574
0.062157307 0.052872583 -0.097404085 -0.22200537 0.15594906 -0.2188945 -0.063366085 -0.16086245
-0.0831949 0.06335062 -0.107745506 0.20780376 -0.07892558 -0.24200648 -0.2666029 0.37596926
-0.13628246 0.07020889 -0.10037461 0.3743131 0.18707849 0.26545602 0.23379096 -0.21752763
0.32688984 -0.03439244 0.29994905 -0.08452226 0.1679125 0.21896748 -0.35177615 0.03744363
0.118764445 -0.03005102 0.25799835 -0.089443855 -0.12706588 -0.021233208 0.25533593 -0.05201322
0.004407806 -0.16018066 0.20489638 -0.1412154 0.016395725 0.23997863 0.029944269 -0.17740297
0.2682464 0.053925905 0.086512014 -0.04211744 -0.05040596 -0.15783072 -0.16091135 -0.012855988
0.23258764 0.22883108 -0.40322846 -0.14416125 -0.07062576 0.046952583 -0.16487776 -0.033816576
-0.28952363 -0.15014866 0.03162011 0.062150575 -0.08012252 0.1068244 -0.19355777 -0.25259927
0.07200414 0.028816093 -0.15918158 -0.23580684 0.1299272 -0.11240376 0.18762548 0.07834799
0.12375826 -0.16908053 0.21072423 0.18856175 -0.11535618 0.08452216 -0.40471846 -0.049550246
0.0034159715 0.05411452 0.13365106 -0.13009296 -0.015550281 0.06479806 0.29843962 0.18766303
-0.3148967 -0.23606288 -0.19680573 -0.21445799 -0.09491814 0.27827087 -0.027563788 -0.3072832
0.25950012 -0.015640864 0.31689775 -0.114275135 0.3615599 0.07653983 0.06922412 -0.004804587
-0.20238556 -0.068001345 -0.1423655 0.11523813 0.26816216 0.10657104 -0.1490166 -0.09374626
-0.16925539 -0.12989874 0.09263525 -0.043846644 0.08770336 0.23942667 -0.048474394 -0.14032356
0.03346954 -0.01871006 0.24328397 -0.10239511 0.013415496 -0.13417007 -0.059020765 -0.1282742
0.09063868 -0.18952768 0.0961404 0.14941472 0.03492036 -0.08225758 0.039785825 0.034051765
-0.13428308 0.5414336 0.053066958 0.0016277378 0.020539045 0.058832873 0.1594341 -0.13868555
-0.49051437 0.13056038 0.19562936 0.15652737 0.22681285 -0.08632868 0.43153542 0.103311576
-0.114962615 -0.015031263 -0.11005858 0.2125582 -0.07021123 0.11629535 -0.112241596 0.08093582
0.11569253 -0.044001367 0.15692867 0.18749242 0.34054142 -0.12647626 -0.293858 -0.003303977
-0.1474249 0.46454108 0.40917963 -0.24567196 -0.026914634 0.06870599 0.5817584 -0.114200175
0.15011935 0.18996945 0.37851176 -0.05013797 0.009699069 -0.0033183382 -0.09733194 0.108828634

predictor.net.1.bias f4 [32]
00000000: 7618 bd3d 8330 173c 8f91 c9bd 00bb b43d
00000010: 8303 bb3d bad9 c83d f5f1 b3bd ac12 ba3d
00000020: db3e bc3d 6e2c c93d 6ff6 b93d f18d 35ba
00000030: 4fe3 c43d e0c6 b93d 7bc3 bbbd 3645 d93d
00000040: d6b1 b53d bdc0 af3d 5834 b8bd 78ff d4bd
00000050: a58e c63d 07ff bcbd 5f24 c73d 2827 c33d
00000060: 311a b7bd 630d b7bd bed9 c5bd 4fbb a13d
00000070: 7dd1 b63d 2fb9 bfbd d17a e13d bacd d0bd
0.09233181 0.009227875 -0.09842216 0.0882473 0.09131529 0.09807153 -0.08786384 0.09085593
0.09191676 0.098229274 0.090802066 -0.0006925753 0.09613668 0.090711355 -0.09168144 0.10608904
0.0887181 0.08581684 -0.08994359 -0.10400289 0.09695176 -0.0922833 0.09723734 0.09528953
-0.089405425 -0.089381 -0.09660672 0.078970544 0.089266755 -0.09361493 0.110097535 -0.10195489

predictor.net.3.weight f4 [1, 32]
00000000: 8986 af3e 8bb8 81bc a4ee 3ebe f5f1 bf3d
00000010: 988f 053e 9e3c 913d 2735 babd 087c 283e
00000020: 15f8 da3e f199 4b3e 6c0e a13d de4a 9a3c
00000030: 856e ed3d 8a62 d23e e966 d8bd dde5 2d3e
00000040: 0e45 203e a59b c73d 37b8 10bf a07b 83be
00000050: b6d1 2f3f b141 72be 793d 5f3e 485a a93e
00000060: e388 2bbd e90c a1bd e36c 50be 25f2 a73c
00000070: 7535 113e 0102 cabd 1397 c53b 3c51 8bbe
0.3428233 -0.015835067 -0.18645722 0.093723215 0.13043058 0.0709164 -0.09092169 0.16453564
0.42767397 0.19882943 0.07864079 0.018834528 0.115933456 0.41090804 -0.105665036 0.16982217
0.15651342 0.09746484 -0.5653109 -0.25680256 0.6867937 -0.23657872 0.21800794 0.33076692
-0.041878592 -0.078637905 -0.20354037 0.020501206 0.14180548 -0.098636635 0.0060299723 -0.27210414

net.0.weight f4 [60, 35]
00000000: 92e5 4b3e 1735 8dbe c07a 7b3c 3f01 28be
00000010: 07a3 503e cab2 50bc 1c5d bb3d dcc8 abbc
00000020: 4409 73be 6a17 c1bd 9d17 83bc f42c 18be
00000030: a62f 463d ca11 e73d f6a5 073e c3f3 2bbc
00000040: 1f1c 25be 772e 1cbe e5de ae3e 4fff b53d
00000050: e463 45be db09 1f3d f78c bf3d 2b6f 5dbb
00000060: 9e99 1ebd 4ed8 a93e 235e 80be 9098 80bd
00000070: e83f 84bd 7b36 6b3e 0cc3 61bd e955 103e
00000080: 35e3 82bd 2d8e 833e 3b14 a13e 7486 3f3e
00000090: 209d 813e 2270 573e 006c 183e 10dd e53d
000000a0: e133 1fbe 04ab 9cbd 5800 523e d891 a2be
000000b0: e69b e0bd d623 17bd e56d d4bd 7ee7 583d
000000c0: 88f6 183e cd64 a03d 846e 24bd 0eb7 e4bd
000000d0: 3fef 9239 6e7e b53c 7123 b23d bcbc b03d
000000e0: f267 c2bd ba1a eabc ff5f 483e 75e7 10be
000000f0: 6dfd 06be 806f cfbd f717 d4bd ad14 7c3e
00000100: 475c 93bd 486c bc3d f061 1ebd 1ca4 18bc
00000110: 20cc d03c ed22 313d f926 6d3c 9f3a 233e
00000120: 5cfa 55be 4d1e 0dbe aeb7 dabd c0f1 5dbe
00000130: 53ab 173c 7981 b13d 6d44 1d3e b7c9 a93d
00000140: 5955 883d dc1d 67bd c604 afbd d0b6 053d
00000150: 7ed4 8a3e c62c 7e3d 17cd 0bbe d07d 9bbd
00000160: ff1e 603d e82a a93d d14d 09bc 59a1 debc
00000170: 3bbe 80be e40d 07be 129c 9f3d efc0 eebd
00000180: e21c 0f3e 5f6c 26bc 5355 7a3d c88b ae3d
00000190: fb5b 103e 2821 2a3d c492 8bbe b4b6 78bd
000001a0: b0f6 d3bd 4490 dc3c acbf 65be 1011 a43d
000001b0: 0c19 5c3e 0ae5 253e c077 243e 9992 bdbd
000001c0: 5a22 75bd 507c 443e 8368 dabd 9c1c 9e3d
000001d0: f190 743e 41ab 85bd 17ea 0ebe 458c 91bd
000001e0: 1bf4 72be 05ff c9bb ce36 64bd 9b4e 243e
000001f0: c708 21bd 3820 ab3b aa25 9ebc 97dc 29be
00000200: 08e4 603c 7ffa b9bd a81e 3dba 3f19 2b3e
00000210: 4b1a eebc ac92 533d 57f6 e5bd fd0a c3bd
00000220: 20b3 8cbd 2c13 ef3c d886 d1bc 657e f63d
00000230: 674a 543e 475e 663d 5207 72bd 3e50 8bb9
00000240: 588e 59be 8d81 c63c e52e 19be fcc1 9abd
00000250: 24c1 01be 7536 9f3d 99b6 343c da26 b93c
00000260: d5c4 a93d caf1 073e e003 2abd 3bdf a63c
00000270: b48e d13c 5ea3 183e b80c 95bd 69b9 ccbd
00000280: d063 a33d 4ed0 24bc da16 debd 09f3 573b
00000290: 677a 513e 31e0 f0bc 998a b53d 5520 14bd
000002a0: 72c2 8f3d 308e e23d 8522 793c ba6b 50be
000002b0: 42d7 32be a395 ea3c 7788 06be 1f62 713d
000002c0: 2c7f 22bd ab86 333e 0f09 82be ec79 863b
000002d0: 4758 e23d 390d 2f3e 74c4 443e 29c7 6ebe
000002e0: c907 013e 59f5 e2bd a8f0 fe3d ea08 ff3c
000002f0: 60ec 8d3d cccd 03bc ee5b dbbd db4a 47bd
00000300: 72c4 dd3a 6c51 123e d508 3ebe 4f18 eabd
00000310: 13c6 ac3c 55f3 31be 1abf 833d 45e8 27bd
00000320: 9178 993d ee13 61bd ebbb 823d b9af bd3c
00000330: bb47 f53d 076b e7bd 738e 79be b7b5 ee3d
00000340: c352 343d f622 293e dec9 e43d 53fb 51be
00000350: 2e82 5dbe fc20 2dbe 4dc0 02be f7db 253e
00000360: 94b6 61be 117d 2a3e 06f0 88bd 262b b4bd
00000370: 66fa 983c 4b8a 80be 3632 0c3c 2248 ab3c
00000380: 96a9 1d3b 4fd9 dc3d 39cb 0fbe 1e59 35be
00000390: 8ea6 6cbe ad0d 66be fbfc 763d d441 863e
000003a0: 9b68 3ebd 7413 f2bd e7ae 0f3e 98e0 b03d
000003b0: e2c4 463b c41b 4b3d 2397 1c3e c2e6 1fbe
000003c0: bdce 24bd 16f5 bf3d 7024 653e 04a1 17be
000003d0: 5a31 ac3d 6032 95be c84c 993d 0128 ecbd
000003e0: ca42 dcbd 0453 0abe 95b7 953e b3da a7bb
000003f0: d30a 283e 9ad4 eebe dbb9 10be 7930 e23d
0.19911793 -0.27579567 0.01534909 -0.16406725 0.2037469 -0.012737939 0.091486186 -0.0209698
-0.23734003 -0.09428294 -0.01600247 -0.14860898 0.048385285 0.1128269 0.13246903 -0.010495129
-0.16124009 -0.152521 0.3415443 0.08886587 -0.19276386 0.03882776 0.09353059 -0.0033788185
-0.03872072 0.3317284 -0.2507182 -0.06279099 -0.06457502 0.22970001 -0.05511765 0.14095272
-0.063909926 0.2569441 0.31460747 0.18703634 0.2531519 0.21038869 0.14884949 0.11223805
-0.15547134 -0.07649806 0.20507944 -0.31751895 -0.10967235 -0.03689941 -0.10372523 0.052955143
0.14937794 0.07831726 -0.04014446 -0.111677274 0.00028025542 0.022155013 0.08698166 0.08629748
-0.09492482 -0.028577197 0.1956787 -0.14150794 -0.13182612 -0.10128689 -0.103561334 0.24617262
-0.07195335 0.092003405 -0.03866762 -0.0093164705 0.02548796 0.0432462 0.014474624 0.15940331
-0.20896286 -0.1378109 -0.10679565 -0.21674252 0.0092571555 0.08667273 0.15358134 0.08290427
0.06656904 -0.05642496 -0.08545832 0.032645047 0.27115244 0.062054418 -0.13652454 -0.07592356
0.05471706 0.08260137 -0.008380369 -0.027176546 -0.25145134 -0.13188893 0.0779344 -0.11657893
0.13975862 -0.010157674 0.061116528 0.08522755 0.14097588 0.041535527 -0.2726041 -0.060721114
-0.10349786 0.02692426 -0.22436398 0.08011067 0.2149393 0.16200653 0.16061306 -0.09256477
-0.059847213 0.19188046 -0.10664465 0.077203006 0.23883416 -0.06526805 -0.13956486 -0.071068324
-0.23725931 -0.006164434 -0.05571633 0.1604561 -0.03931501 0.0052223466 -0.019305069 -0.16588055
0.013726242 -0.090809815 -0.0007214346 0.1670885 -0.029065272 0.05165355 -0.11228626 -0.0952358
-0.06870103 0.029183947 -0.025576994 0.120358266 0.20731507 0.056242254 -0.059089012 -0.0002657193
-0.21245706 0.024231697 -0.14959295 -0.07556531 -0.12671334 0.07774059 0.011029863 0.022601534
0.08289496 0.13275829 -0.0415076 0.020370116 0.025580741 0.1490607 -0.072778165 -0.09996302
0.07978022 -0.010059429 -0.10844202 0.0032951257 0.20456849 -0.029403778 0.08864326 -0.036163647
0.070195094 0.11062276 0.015205984 -0.20353594 -0.17464927 0.028635805 -0.13137995 0.058931466
-0.03967206 0.1753184 -0.25397536 0.0041038897 0.11051994 0.17094888 0.19215566 -0.23318161
0.12600626 -0.110819526 0.12448245 0.03113218 0.069298506 -0.008044671 -0.107108936 -0.048655372
0.0016919507 0.14288872 -0.18558057 -0.11430418 0.021090543 -0.1737798 0.06432934 -0.040992994
0.07493699 -0.054950647 0.06383499 0.02315508 0.11976572 -0.11299711 -0.24370746 0.11655753
0.04402424 0.16517243 0.111713156 -0.20506029 -0.21631691 -0.16907114 -0.1276867 0.16197191
-0.22042304 0.16649272 -0.06686406 -0.087972924 0.018674087 -0.2510551 0.008556893 0.020908419
0.002405738 0.10783636 -0.14042367 -0.17709777 -0.2311041 -0.22466154 0.060299855 0.26222098
-0.04648648 -0.11820117 0.14031564 0.08636588 0.0030329754 0.049587026 0.15292029 -0.15615371
-0.040236223 0.09372918 0.22377181 -0.14807516 0.084078506 -0.29139996 0.07485348 -0.11531068
-0.107549265 -0.1350823 0.29241624 -0.0051225065 0.16410379 -0.46646577 -0.14133398 0.11044402

net.0.bias f4 [60]
00000000: abd6 22bd 6f66 8e3d 19e4 cd3c 5f50 8b3d
00000010: d827 4abe 61ce 2abd 6ee3 aebd 746d f1bb
00000020: d4d6 80bd 030f 383e 89a7 0dbd e41a 01bc
00000030: 796a 023d f895 ce3d f69f b8bd cbb2 25be
00000040: 415b 14be 5823 4f3d 9269 0a3e 0b63 3b3d
00000050: d0ba d1bb 414e 44bd 918c 18be f966 123d
00000060: 8979 4c3d 8c03 ca3d 9a44 193e f7de af3d
00000070: 6c09 e5bd 2570 8cbc 1398 b2bd cff2 1cbe
00000080: 7374 06be 8828 9fbd 5a94 9fbc 5e64 d03d
00000090: bee2 37bd 7aa8 373e 0dbd 51bc afd6 eebd
000000a0: dd02 f43c d96e e73d ed24 bc3d 97b5 b63d
000000b0: d003 5cbc 67f3 59bd 4a64 893d d40e 0e3e
000000c0: c0c7 423d 8968 c53d c8f5 04be 7466 d33d
000000d0: 76ba 993d 5ad7 673d 9955 3a3e e44e 3cbe
000000e0: b8a8 17bb 02c6 a4bd 8b01 ccbd 959b b93d
-0.039755505 0.069531314 0.02513318 0.06802439 -0.19741762 -0.041700725 -0.085394725 -0.007367784
-0.06290975 0.17974477 -0.034583602 -0.007879946 0.03183982 0.10087198 -0.09014885 -0.16181485
-0.14487936 0.050570816 0.13516834 0.04574875 -0.0064004436 -0.04792619 -0.14897372 0.035742734
0.049920592 0.09863958 0.14967576 0.08587449 -0.11183438 -0.017143318 -0.08720412 -0.15326999
-0.1313036 -0.077714026 -0.01947992 0.101753935 -0.044893973 0.17935362 -0.012801421 -0.116620414
0.029786522 0.113004394 0.091867305 0.08921354 -0.013428643 -0.053210642 0.06708582 0.13872844
0.047553778 0.09639079 -0.12984383 0.10322276 0.07506268 0.05660186 0.18196715 -0.1838947
-0.0023141336 -0.080455795 -0.09961232 0.09062878

net.2.weight f4 [60, 60]
00000000: 28da 2b3d 4337 13be 09af d43d 5e09 103d
00000010: a774 953d a89d 133a d0c7 15bd 5fde aabd
00000020: c13c 0e3e 3623 1e3e 5600 363e 9bee 08bc
00000030: 6bd6 1f3e d132 bfbd e920 a83e 69c4 be3c
00000040: a1b6 123e c62a dabd 29e1 a0bc b0ec edbd
00000050: 8f33 e83c 75c1 aa3c 58b0 37be a3b9 5b3d
00000060: 84b1 f8bd 11c0 c4bd 0f59 8bbc 17bc 09be
00000070: e96b 0c3d b040 0a3e ab81 883d 82be c23d
00000080: 8d22 56be 64f5 353d bc7d 28be e21a d63c
00000090: 9d21 edbc 48ac 0c3e edf7 bfbc a960 f5bd
000000a0: 00e1 e0bd 3ead ca3b a308 603d 2357 d0bd
000000b0: 665c fc3d c2c0 5cbd 86cc 4ebd e6d0 963d
000000c0: 65f2 6a3d 31bf a6bd 6fb9 5cbd fba8 be3d
000000d0: 620a 42be 7c0f 7b3d 6915 4bbe a9ae d13d
000000e0: 1da4 34bd 1e4f 51be c653 1abd 03d8 143d
000000f0: cade 213c 5a1e 9bbc 6340 973d eac1 45bd
00000100: c574 f1bd 3554 5d3d 1189 e73d 4de1 8abd
00000110: cf4d b43e ccd0 fe3d 58f5 a8bd c7c5 993d
00000120: d30c 173e fca9 1abe dea3 ab3d aab7 cfbd
00000130: 34a0 a3bd f534 6ebc 4ac3 093e b0b1 523e
00000140: cc4c a83d 453a 36be 05a7 6ebe 9a98 49bd
00000150: b8d4 0ebe 8dde 973c 9eb0 20be ef2c 3fbd
00000160: ae8a dd3b c8f0 0b3e e8b3 803e 7103 5d3e
00000170: 2df1 f3bd 74f0 4e3d 0770 163e 5526 793e
00000180: 9fb1 0f3e 55f4 e0bd 59fe d23d 85ce 203e
00000190: 4add 0a3e 302d 553c eb7f 0a3e 1354 30be
000001a0: f978 723e 7fbd a13c 2586 9e3d fcab efbc
000001b0: 0617 d0bd 023e 85be db22 c83d 11f1 843e
000001c0: 98ee 103e 7ed9 6b3c 9265 5ebd 2852 1dbe
000001d0: 302c 76be 17eb 1d3d b165 44bd d59b 10be
000001e0: 13c4 8ebe a709 ec3c e54d 13be 9858 c3bd
000001f0: 7548 f53d c459 c3bd 077c de3b b45c d3bd
00000200: c875 35be bdc1 9cbd bd0a edbd a19e 773d
00000210: 29c4 033e 38d7 65bd d114 5abd ef0c 043d
00000220: 65fd 9bbc 4843 81bd bf2f c13d 63e4 fdbd
00000230: eadd 6dbd e9bd debd efd6 433d 9a77 76be
00000240: 3b76 3a3d c153 2ebe 9e63 49be 6863 163d
00000250: c688 c8bd 83d4 68be b60f e83d 0cd7 87bd
00000260: f9f9 893d fbbd f4bd 91c8 0b3e b872 efbd
00000270: 7623 273e 7f17 a73c fb66 4b3d 9b8c e0bd
00000280: 73d8 30be 0914 623e c7ce 89be a463 92bc
00000290: 289e 3cbb cb6b 04be 335b eabc c4c8 53bd
000002a0: 6ddb 54be bf44 35bd 3d75 25bd 175d 84be
000002b0: 511e 05be 7485 463d d556 2d3e 411a d0bd
000002c0: 852c 883d daf3 283e d137 dcbc c57f 903d
000002d0: 60f8 40be 6b88 363e e694 aa3d cdb0 853e
000002e0: 3318 f73c 3372 0ebe da45 aabe e92c 963d
000002f0: 6c5d cabc 601e 113e a18d 843e 29c6 98be
00000300: c2ea f63d fd52 5a3d a9ce 15bc 3cb5 0e3e
00000310: c7bf 14bd bc41 3ebd 3e30 d4bd 301a 793e
00000320: ee1c bb39 559d 1f3d d70b 2dbe 88f8 0ebe
00000330: 0d4c 74bd 32be b53d 27bb f13c 8519 b9be
00000340: 62cf 813d 9662 023e ea84 5f3c 0679 e33d
00000350: 0e8a d43c 61b2 aebc 13d2 c43d bcd6 52be
00000360: 7f5c cebd 2fe5 093e c434 223e e4a6 f9b9
00000370: 12d1 08be 0bb8 443d cf71 dabd b3db 703d
00000380: b7f8 283e 6764 89bd 8b11 e0bd 0123 093b
00000390: dc81 9abd 0f6e bbbc 74b4 7cbd cec2 10bd
000003a0: b78f a5bc 9832 c4bc 0a3e 103e e45f 8b3d
000003b0: 8abd 3cbd cd4b 273e 2f4f c8bd e620 2e3e
000003c0: e8e6 acbd fe7a f03c 8086 423c cdfc 093e
000003d0: 0f07 353e 57cc 72bd 2f26 9abc e562 aebc
000003e0: eeff dbbd def9 92ba 9b9a d93d d2a0 c0bd
000003f0: c098 20be 75c9 023e 5cf4 873d 3626 2cbe
0.041956097 -0.1437655 0.10384948 0.035165183 0.0729764 0.00056310976 -0.03656751 -0.08343195
0.13890363 0.1544312 0.17773566 -0.008357669 0.15609138 -0.09335864 0.32837608 0.023287015
0.1432748 -0.1065269 -0.019638615 -0.1161741 0.028344898 0.0208442 -0.17938364 0.053643834
-0.121432334 -0.09606946 -0.01701024 -0.13450657 0.0342826 0.13501239 0.06665357 0.09508993
-0.20911618 0.044423476 -0.16454214 0.026135866 -0.028946692 0.13737595 -0.02343365 -0.11981327
-0.10980415 0.006185203 0.054695737 -0.1017287 0.12322311 -0.053894766 -0.050488017 0.07364063
0.05736007 -0.081419356 -0.05388778 0.09309574 -0.18949273 0.061294064 -0.19832386 0.10238392
-0.044101823 -0.20440337 -0.03767755 0.036338817 0.009879777 -0.018935371 0.07385328 -0.048280634
-0.1178985 0.054035384 0.1130544 -0.06781254 0.35215613 0.124421686 -0.082499206 0.07508426
0.14750986 -0.15103906 0.083808646 -0.10142453 -0.07989541 -0.014538993 0.13453403 0.20575595
0.08217773 -0.17795666 -0.233059 -0.049217798 -0.13948333 0.018538738 -0.15692374 -0.04667371
0.0067609167 0.1366607 0.25137258 0.21583344 -0.11911235 0.050522283 0.14691173 0.24331029
0.14032601 -0.10984103 0.10302419 0.15703781 0.13560978 0.013011262 0.1352536 -0.17219572
0.2367896 0.01974368 0.0774043 -0.029256813 -0.10160641 -0.2602387 0.09772273 0.2596517
0.14153516 0.014395116 -0.054296084 -0.15363371 -0.24040294 0.038554277 -0.047948543 -0.14121945
-0.27883968 0.028813196 -0.14385183 -0.09538382 0.11976711 -0.09538606 0.0067896876 -0.10320416
-0.17720711 -0.0765414 -0.11574314 0.060454015 0.12867798 -0.05611345 -0.05324251 0.032238897
-0.019041726 -0.06311661 0.09432935 -0.12397077 -0.058072962 -0.10876066 0.0478124 -0.24069062
0.04552291 -0.17024137 -0.19666907 0.036715895 -0.097917125 -0.22737317 0.113311216 -0.06632814
0.067371316 -0.119502984 0.13650729 -0.11691803 0.16322121 0.020396946 0.049658757 -0.10964318
-0.17270069 0.22077955 -0.2691557 -0.017869778 -0.0028780792 -0.12931745 -0.02860794 -0.051705137
-0.2078683 -0.044255015 -0.04039501 -0.25852272 -0.12999846 0.048467115 0.16927655 -0.101612575
0.066491164 0.16499272 -0.026882084 0.0705562 -0.18844748 0.17825477 0.083291814 0.2611145
0.030162906 -0.13910751 -0.33256418 0.07332785 -0.02470275 0.14171743 0.25889304 -0.29838684
0.12056495 0.0533018 -0.00914351 0.13936323 -0.036315706 -0.046449408 -0.10360764 0.24326396
0.00035688974 0.038968403 -0.16899048 -0.13961995 -0.05964284 0.088741675 0.029508187 -0.36152282
0.06338383 0.1273292 0.013642529 0.11107068 0.025944736 -0.021325292 0.09610381 -0.20589727
-0.10076236 0.13466333 0.15840441 -0.00047617324 -0.13361004 0.04802708 -0.106662385 0.05880327
0.16501127 -0.06708603 -0.10940846 0.0020925405 -0.075443 -0.022879628 -0.06169553 -0.03534203
-0.02021013 -0.023949906 0.14086166 0.06805399 -0.046079196 0.1633751 -0.09780728 0.17004737
-0.08442479 0.029355522 0.011872888 0.13475342 0.17678474 -0.059276905 -0.018817035 -0.021287391
-0.10742174 -0.0011213382 0.10625192 -0.09405674 -0.1568327 0.12772162 0.06638405 -0.16811451

net.2.bias f4 [60]
00000000: c46a de3d db5c 8c3d 7afe 4a3c d1c2 babd
00000010: fcf5 3c3d 2d17 e3bd 6b62 e4bd 0d30 9dbd
00000020: 2ea8 64bc 1226 5abc b15f febd 8adc dfbd
00000030: 51a7 d9bd 9ffa e83d 8b4f b8bd 79c2 773d
00000040: a136 d7bd c0e1 3abd a36d cfbc 6741 693d
00000050: bddc 183d 8c54 8c3d 4da6 94bb a424 a7bd
00000060: 49e6 e9bd d455 c9bd e5a9 f33d 682f ebbd
00000070: e0e0 ae3d d08a db3d d829 103d a7ca e9bc
00000080: 3462 b43d 2a06 ca3c 2ec7 e33c 1abb 1f3d
00000090: 6b49 1ebb e74d 943d 623f 1e3b 7531 0c3d
000000a0: 7a9f bbbd 80cc e9bc 125e db3c cb68 753d
000000b0: 76ad 38bd 926b c6bd f1bc a0bd 0d74 8b3d
000000c0: 91d8 bd3d f363 9c3b 626c 2c3b 3a87 553d
000000d0: 5c9f 18bb 062a f2bd 2de1 ae3d 233e b13d
000000e0: dfe3 af3d dc9b a9bd f7da d43c 149c 943c
0.10860208 0.06853648 0.0123897735 -0.091191895 0.046133026 -0.11088405 -0.11151584 -0.076751806
-0.013956113 -0.013314741 -0.124205954 -0.10930736 -0.10627616 0.11375927 -0.089995466 0.060488198
-0.105084665 -0.04562545 -0.025320834 0.05694714 0.037319887 0.068520635 -0.004536426 -0.081612855
-0.114208765 -0.098308235 0.11897639 -0.114836514 0.08538985 0.10719836 0.035196155 -0.028539015
0.08807793 0.024661142 0.027804937 0.038996793 -0.0024152647 0.07241421 0.0024146666 0.034226853
-0.09161277 -0.028539896 0.026778255 0.05991439 -0.0450873 -0.09688486 -0.07848538 0.06809244
0.092698224 0.004772657 0.0026309718 0.052130915 -0.0023288345 -0.118244216 0.085390426 0.0865443
0.08588385 -0.08281681 0.025983317 0.01814083

net.5.weight f4 [1, 60]
00000000: 4a0b 9e3d 70b2 1d3e aac9 243e 4201 cdbd
00000010: 16a5 e1bc e326 d8bd 1d49 3ebe 3d9f 24bd
00000020: 41a2 cd3d e54d 3b3d 6d58 d53d a9ae e83d
00000030: 99fe 5dbd e18c 98bd a53e 6bbe ca36 133e
00000040: 55cb 7b3e 9255 aebb 779f ef3c c95c a93c
00000050: 789e 64be 8315 883d e777 843e e93c 533e
00000060: efdc 3abc beb5 c4bd f5b4 df3a 2225 0b3e
00000070: 6d27 ce3b 76a9 a6be cd99 e03c f3cb 113e
00000080: e7c5 d9bc d329 68be d9ec 7dbd c7b0 45be
00000090: fe7e 3abe dc91 27bd 2d6c 243d eb34 263e
000000a0: dab6 b1bd 1d5a 21bd a840 a0be 7d27 13be
000000b0: 7d7b 1b3e 5bf7 27bd 845a 37bd 28fa 9d3d
000000c0: 6a76 493e 1242 d1bd 425e 09be 570d d63e
000000d0: 2ba1 cbbd dbd1 19be 0867 7bbd bd04 8f3c
000000e0: af09 113e 69d0 0bbe 7eeb 0b3e 5a1d 6ebe
0.07716997 0.154001 0.16092554 -0.100100055 -0.02754454 -0.10554292 -0.18582578 -0.040190924
0.10040713 0.045728583 0.104172565 0.11361439 -0.05419788 -0.074487455 -0.22973116 0.14376369
0.24589284 -0.0053202594 0.029250843 0.020674126 -0.22326076 0.06644728 0.25872728 0.20628704
-0.011405214 -0.09604977 0.0017067479 0.13588384 0.006291321 -0.32551163 0.027417088 0.14237957
-0.026583625 -0.22672205 -0.061993454 -0.19305716 -0.18212506 -0.040910587 0.040142227 0.16231124
-0.08677454 -0.03939258 -0.3129933 -0.14370532 0.15183826 -0.04100738 -0.044764057 0.07713729
0.19674078 -0.1021768 -0.13414863 0.41807052 -0.0994285 -0.1502146 -0.061377555 0.017458314
0.1416385 -0.13653721 0.13664052 -0.23253384
