results analysis/processed results/PINN/NASA_dqdv results/1-1/Experiment1/model.pth (torch, 61182 bytes, 14 tensors)

encoder.net.0.weight f4 [60, 18]
000000 d2 b4 0f bc 03 71 b7 3d 67 57 de 3d 86 4f 15 bc
       -0.008771138 0.08957102 0.108565144 -0.009113198
000010 57 73 30 3e b9 d1 3a bd ee cd 08 3d 25 01 40 be
       0.17231499 -0.045610163 0.033399515 -0.18750437
000020 8a e7 a2 bd 8f 09 04 3e 0c 2e 83 be 6c e6 14 3e
       -0.07954319 0.12894271 -0.25621068 0.14541024
000030 a0 8d c3 3d c3 1d cf bb 8c ea 7a bc 64 31 8a 3d
       0.09548497 -0.0063206865 -0.015314709 0.06747702
000040 01 b7 34 bd 8d 9f f6 3c 02 bc 46 bd b5 c6 40 bd
       -0.04411984 0.030105377 -0.048519142 -0.0470645
000050 d5 19 9d 3c eb b2 1a bd ce 68 43 3e 86 d4 4a 3e
       0.019177357 -0.037768286 0.19082949 0.19807634
000060 97 64 10 bd f3 20 61 3e 36 8e 44 3e cb a7 de 3c
       -0.03525218 0.21985225 0.19194874 0.02717962
000070 4c 11 79 bd 50 11 66 3e e6 25 34 3e 86 68 b4 3d
       -0.06080751 0.22467542 0.17592582 0.08808999
000080 fd c0 08 3e a5 86 7e bd 6b 28 4c 3d 8c 92 51 be
       0.13354869 -0.062140126 0.049843233 -0.2046606
000090 5b 03 8f bd 52 d0 e9 bd 84 fa 81 3e a9 b9 2d be
       -0.06983062 -0.11416687 0.2538644 -0.16965355
0000a0 2a 42 33 be 39 da 85 3d 36 fe 15 bd 8e 19 85 bc
       -0.17505708 0.06535763 -0.036619388 -0.016247537
0000b0 b2 ef e4 bc 40 5a 57 3e b5 ce b3 bd c2 20 20 3d
       -0.027946327 0.21030521 -0.087796606 0.03909374
0000c0 48 0e 5c bd 96 a8 c9 bd 4a 17 a4 bc c0 60 07 be
       -0.053724557 -0.09846608 -0.020030636 -0.13220501
0000d0 83 83 31 3d 2b 43 38 bd 52 a6 3a bd e0 b8 ac 3e
       0.04333831 -0.04498593 -0.04556877 0.33734798
0000e0 9a e8 91 3e 8e 86 9d be 96 b7 78 be d0 e5 6c bd
       0.28497773 -0.3076672 -0.24288782 -0.057836354
0000f0 b3 11 63 be 9e 80 c3 bd 68 8e 07 bf 30 76 af 3d
       -0.2217472 -0.09546016 -0.5295167 0.08567464
000100 e6 cf 22 bc 67 38 f2 3d 34 82 84 3e 90 d2 b1 3d
       -0.009937262 0.11827164 0.25880587 0.0868274
000110 f2 50 df 3b 67 6f 4c 3d c3 74 1f 3e a7 0f d1 3c
       0.0068150694 0.04991093 0.15571885 0.025520159
000120 41 12 2f bc a2 76 bd bd 04 21 6e 3e 03 9e 23 3d
       -0.010685504 -0.09251143 0.23254782 0.039945614
000130 dc 68 ca be 68 b2 07 bc 3b b3 c0 3d cb 7e 69 be
       -0.39533126 -0.008282281 0.094091855 -0.22802274
000140 ad df 10 be 70 58 07 be 2f 22 76 be 66 32 f0 3d
       -0.14147826 -0.1321733 -0.24036478 0.11728363
000150 e6 5b 16 3e 15 17 25 3e c1 1d 6f be 26 5c 69 bc
       0.14683494 0.16122086 -0.23351194 -0.014243161
000160 9d d4 e8 3d 23 11 59 bd 73 57 2b 3d 48 25 f5 3d
       0.11368678 -0.05299486 0.041831445 0.119700015
000170 53 c1 05 be f2 e1 62 be 58 29 30 bd 16 38 3d be
       -0.13062029 -0.22156504 -0.04300818 -0.18478426
000180 81 06 a3 3d 34 8e c1 bd b3 f8 97 3d ed d9 d3 bd
       0.07960225 -0.09450951 0.074204825 -0.103443004
000190 f6 c0 8c bd 12 5d 79 bd af 18 96 bc 9c f4 e0 bd
       -0.06872742 -0.060879774 -0.018322317 -0.109841555
0001a0 d8 ec 53 be df a1 11 be f7 84 38 be 45 4d 93 bc
       -0.20695817 -0.14221905 -0.18019472 -0.01798118
0001b0 76 5b 81 3d 88 ce cb 3d 41 d7 08 bd d0 68 e0 bd
       0.06316273 0.09951502 -0.033408407 -0.109574914
0001c0 14 17 3a be e1 04 47 be 54 e2 d3 3d 9d f6 29 be
       -0.18172866 -0.19435455 0.10345903 -0.16597982
0001d0 85 6a c9 bd 56 cb fd bd 65 d5 c6 bd 95 a5 8c 3d
       -0.0983477 -0.12392299 -0.097086705 0.0686752
0001e0 a9 48 80 3e d9 40 95 3d 91 93 88 3d 1b 2c b2 bd
       0.25055435 0.07287759 0.06668771 -0.08699819
0001f0 f0 f2 01 bc 55 87 22 3e 2d 21 35 3c 05 0c c6 bd
       -0.007931456 0.15871938 0.011055273 -0.09670261
000200 ed 99 9a 3e 45 d0 79 be e9 c4 84 3d 43 9d 0c 3e
       0.3019556 -0.24395855 0.0648287 0.13731866
000210 77 00 24 3e 00 a0 2a 3d bb ff f1 3d f4 f8 82 bd
       0.16015802 0.041656494 0.11816355 -0.0639514
000220 78 90 22 3e 4b a0 7a 3e f4 57 77 3e 92 c8 06 bb
       0.15875423 0.2447521 0.24154645 -0.0020566327
000230 67 f3 e1 bd 24 6a 22 3e 71 ad a0 bd 39 55 5a 3e
       -0.110327534 0.15860802 -0.07845581 0.21321572
000240 15 db 21 3d 0e 0d 0e be aa 9d d5 bd bd cb 6f bd
       0.039515574 -0.13872167 -0.10430463 -0.05854391
000250 e5 48 49 3d 6a bb 58 3d 56 b0 ef 3d 7b fc 99 3e
       0.049141783 0.052913107 0.11703555 0.3007544
000260 df 3c 27 3e bb e3 00 bd d7 d1 85 3e 61 eb 2f 3e
       0.16331814 -0.03146718 0.26136658 0.17179634
000270 10 90 c1 3d ed 3b f3 3c 61 ff c6 3d cb 71 34 3e
       0.09451306 0.02969166 0.097166784 0.17621534
000280 a8 63 87 be dd 3c 0f bc e8 94 51 bc 23 63 2d 3e
       -0.2644322 -0.008742538 -0.01279185 0.16932349
000290 4c c5 46 be 82 fa d6 bd 7f 3c d2 bd 1e 23 22 bd
       -0.194112 -0.10496999 -0.10265445 -0.03958427
0002a0 b5 14 4c 3e 1e 54 01 bd 98 3e 20 be bc ea 11 be
       0.19929774 -0.03157436 -0.15648878 -0.142497
0002b0 e8 b8 c0 3c 9e 6e e8 bd 31 b4 1d bd 08 4e 9f bd
       0.02352567 -0.113492236 -0.038501922 -0.07778555
0002c0 8b ae 51 bd 66 f6 82 3d 82 b0 10 be 2d 3f b9 3d
       -0.051191848 0.06394653 -0.14129832 0.09045253
0002d0 ac 8f 15 3e 89 16 e3 3d 0a 1c 19 be ea e3 84 bd
       0.14605588 0.110882826 -0.14952102 -0.06488784
0002e0 a4 5a 9f 3e 55 bc 40 3e e3 3f 8d 3c a8 de 91 3d
       0.3112384 0.18821843 0.017242378 0.071225464
0002f0 60 4c 1b 3e 7e de 43 3e 69 ad 2a be 31 75 ef 3d
       0.15165854 0.19127843 -0.16667713 0.11692274
000300 d2 0f ee bc 3a 74 68 3e 29 7a 66 3e 7b 27 b1 be
       -0.029060278 0.22700587 0.22507538 -0.34600434
000310 55 64 bc 3d 4b 0c 13 3e 74 1a 11 3d 15 35 2a bc
       0.09198824 0.14360158 0.03542562 -0.010388632
000320 12 28 1c 3c 18 f7 b2 3d fe 06 5f 3e 04 70 88 3e
       0.009531038 0.08738536 0.21780011 0.2664796
000330 b0 2c 8c be 40 1c 87 bd 68 60 06 be 56 79 b5 3d
       -0.27377844 -0.06597185 -0.13122714 0.088610336
000340 7b b4 b5 3d 81 8d 13 be 8e 7b 83 be aa 9c b6 bc
       0.088723145 -0.14409448 -0.25680202 -0.0222915
000350 41 80 9a bd cc ca 02 3c 9a 1b 80 be 03 c2 ab 3d
       -0.07543994 0.007982921 -0.25021058 0.08386614
000360 d5 0a 85 be 4e 97 23 3e d9 de 1f 3d cf 36 95 bd
       -0.25984827 0.15975687 0.039030883 -0.072858445
000370 44 65 16 be e1 f3 d8 3d 01 74 88 3b ff 16 84 be
       -0.14687067 0.10593391 0.0041642194 -0.25798795
000380 4a f3 a6 3e dd e1 a4 3c 30 35 ba bb 41 40 cb bd
       0.3260749 0.020127231 -0.00568261 -0.09924365
000390 0b a9 19 3e 83 57 e0 bd 5d a2 d1 3d 2b b5 c0 bd
       0.15005891 -0.109541915 0.102360465 -0.09409555
0003a0 f4 2f 97 3d ac c6 29 3d d5 ac 57 be 7c 11 09 be
       0.07382193 0.041449234 -0.21062024 -0.13385576
0003b0 41 af 20 bd fe a6 b8 3d fc 58 a1 3d d3 67 a3 3e
       -0.039229635 0.09016226 0.078783005 0.3191515
0003c0 0b 64 89 3c e8 2b c7 bc 2c 73 c4 3d d2 ab 42 be
       0.016771337 -0.024312928 0.0959228 -0.19010857
0003d0 b3 3b 97 bd 46 30 7e bd 97 35 c0 3d 60 7c 1c 3e
       -0.073844336 -0.062057756 0.093852215 0.1528182
0003e0 c2 61 9e bd 85 99 04 bd 73 bf 96 3e 63 bc f3 3d
       -0.077334896 -0.03237297 0.2944294 0.11901166
0003f0 f7 e8 9f 3d c1 d7 c0 3e d4 2d 47 3c 1b a2 d2 bc
       0.078081064 0.37664607 0.012156922 -0.025712064

encoder.net.0.bias f4 [60]
000000 71 ad 9c bd 07 56 46 bd 37 4b 75 bc 2d 5f 2f 3d
       -0.07650269 -0.048421886 -0.014971546 0.042815376
000010 0f 80 f1 3c 84 09 a7 3d fc d3 39 3d 0a 72 64 bd
       0.029480008 0.08156112 0.04536818 -0.05577282
000020 81 56 32 3d 01 dd 6c 3d 94 bb 25 bd 04 37 69 3d
       0.043539528 0.057827953 -0.04046209 0.056937233
000030 b7 c7 77 bd ba 8e 2b bd 6d 79 26 bd 33 ad 14 bc
       -0.060493197 -0.04188416 -0.040643144 -0.009074497
000040 34 27 c6 bb 1c b3 a0 bd 65 3e 0f 3d 9a f6 3a 3d
       -0.006047154 -0.078466624 0.034971613 0.045645334
000050 7f 6f b4 bd 87 ac 89 bd 94 52 97 bc bb 81 15 bd
       -0.08810329 -0.0672236 -0.018471994 -0.036500674
000060 17 78 7c 3d 63 b6 08 bd 3d 18 4c bd 8c f5 95 bd
       0.061637964 -0.033377063 -0.049827803 -0.07322225
000070 4a f0 c5 bd c8 d7 25 bd 6a 2c 68 3d 30 09 11 3d
       -0.09664972 -0.04048899 0.05668298 0.035409153
000080 45 75 2c bd 93 2d 1f bd 1c cd 4f 3d 2c 23 2d bd
       -0.042104024 -0.038861822 0.050732717 -0.04226987
000090 a4 e3 fe bc fb 9c 32 bd 95 37 9e bd 4a a7 ac 3c
       -0.031114407 -0.04360674 -0.07725445 0.021075863
0000a0 08 99 ac 3c 80 f9 08 bd 60 1b a6 bd da d9 8d 3d
       0.021069065 -0.033441067 -0.0811069 0.069263175
0000b0 76 99 c4 3c 61 3f ab bd 5f 23 98 bc d9 f9 52 bd
       0.023998957 -0.08361698 -0.018571554 -0.051507805
0000c0 62 64 56 bd eb b9 7a 3d 62 49 6b bd e3 a7 ad bd
       -0.052341826 0.06121246 -0.05744303 -0.084792875
0000d0 cf 2c f2 3c 6a 82 8f bc e3 ea 66 bd d7 f4 59 3d
       0.029562382 -0.017518241 -0.05637635 0.053212013
0000e0 5f 61 52 bd 31 73 50 bd d0 17 ec bc d6 f3 ce bc
       -0.05136239 -0.050891105 -0.028819948 -0.025262754

encoder.net.2.weight f4 [60, 60]
000000 6f f0 66 bd be e2 15 bc e8 78 9e be 5d 05 06 be
       -0.05638164 -0.009148298 -0.3095162 -0.13087983
000010 86 01 ee 3d fe 9d ae 3d 6d d2 07 3d 92 f9 06 3e
       0.11621384 0.08526228 0.033159662 0.13181141
000020 3c 91 58 be 13 73 1a be 7f 3e 0a be 3c 69 02 3c
       -0.21149153 -0.1508296 -0.13500403 0.00795966
000030 e3 90 7d 3e e0 8e 09 be 03 df 0b bd 4e 34 3c 3e
       0.24762301 -0.13433409 -0.034148227 0.18379328
000040 f8 3e d8 3c 95 68 70 bd cc f2 93 bd c9 ae 02 3e
       0.026397213 -0.058693487 -0.07224044 0.12761988
000050 47 15 2f 3e 0c b7 2c 3d 25 37 af 3d 8f 10 8f bc
       0.1709796 0.042166755 0.0855544 -0.01746395
000060 aa 8d 6d be 43 58 14 3d 58 e3 14 be 9a 49 17 be
       -0.23198572 0.036216985 -0.1453985 -0.1477417
000070 45 7f a8 bc e8 40 45 be 7d a2 9e bc 69 96 1d bd
       -0.0205685 -0.19263041 -0.01936459 -0.03847352
000080 e8 9a 21 bd 22 7d 8a 3d 92 b0 06 3e 2e c2 92 3c
       -0.03945437 0.067621484 0.13153294 0.017914858
000090 db f1 17 3d b7 d7 b7 be 16 75 98 3e 0d c2 2f 3d
       0.037095886 -0.35906765 0.2977683 0.04290967
0000a0 76 e7 33 3d 61 34 09 3d 14 a7 bb 3c 14 7b 66 3e
       0.04392191 0.033497218 0.022906817 0.22507888
0000b0 73 09 55 3d 74 17 06 3e 08 c1 01 be 0a 9d 26 be
       0.052010965 0.13094884 -0.12671292 -0.16270843
0000c0 7a 91 19 3e 4b d0 34 ba e9 13 d8 3c de ad 31 3d
       0.14996901 -0.0006897493 0.026376681 0.043378703
0000d0 df ab 82 3c 35 61 85 3d 58 c0 a7 bd b1 e5 72 be
       0.015951095 0.065126814 -0.081909835 -0.23720433
0000e0 fb c0 38 be d6 6c ed bc cd d1 dd 3d f4 89 5f 3d
       -0.18042366 -0.028982561 0.10831032 0.05457492
0000f0 62 cc 54 3e 14 69 af 3c b3 22 f1 3d 63 f8 d2 bd
       0.20781091 0.02141241 0.117741965 -0.10301282
000100 d5 b0 b4 bb 89 35 90 be 8b 4a 02 be 14 b8 6e 3d
       -0.005514244 -0.28165844 -0.12723748 0.05828102
000110 86 af 6d be 98 26 61 3c 1c d2 43 bd 7c c9 10 3e
       -0.23211488 0.013742112 -0.047807798 0.1413936
000120 c8 21 dd 3c 9b 49 9f bd 29 99 04 be fb 07 5e be
       0.026993647 -0.07777711 -0.12949051 -0.21682732
000130 a0 03 ad bd 4e bc 49 bd d4 33 5d 3d 5c b6 6f 3e
       -0.08447957 -0.049251847 0.054004505 0.23409408
000140 06 01 82 bd b5 2c 18 3e de 34 c8 3d 49 10 89 be
       -0.063478515 0.14860804 0.097757086 -0.26770237
000150 cd 68 8b 3d a3 e4 99 3b 92 f2 32 be 22 d1 36 3e
       0.068070985 0.004696445 -0.17475346 0.17853215
000160 76 66 37 3d d4 a1 e3 3d 46 ca 07 be 3e 8d df bd
       0.04477545 0.11114851 -0.13260755 -0.10915612
000170 28 b9 b7 bd b3 d2 10 be 01 72 38 3e 20 12 f8 3c
       -0.089708626 -0.14142875 0.18012239 0.03028208
000180 8f 1d af 3d ea fd 5a 3d c7 e1 bc 3e 09 91 54 3d
       0.0855056 0.053464808 0.36891004 0.05189613
000190 4e f2 6c bc 8d a6 7b bd cd 46 60 be bd b8 a8 bd
       -0.014462067 -0.061438132 -0.21902008 -0.08238361
0001a0 d4 5c 81 3e 00 00 8d 3d 55 52 bf bc d3 4d e7 bd
       0.25266135 0.068847656 -0.023354689 -0.11294141
0001b0 5d ae a8 bd b1 de 19 3d 0b 24 1e 3c 42 c4 0a 3d
       -0.08236382 0.03756589 0.009652148 0.033878572
0001c0 38 71 3a 3c 38 59 ea 3d b6 2b d4 bd da d7 09 3e
       0.0113795325 0.114427984 -0.103599 0.13461247
0001d0 61 fa f4 3b 96 7b a2 3d 5a 56 4a be 5f 3f 10 bd
       0.0074761366 0.079337284 -0.19759503 -0.035216685
0001e0 70 f9 fb 3d 9b bb a2 bd 22 7d 04 be 2d 99 d0 3d
       0.12303436 -0.07945939 -0.1293836 0.10185466
0001f0 26 29 59 3d 95 2a 2e bd 6d 54 be 3d 38 d2 24 3d
       0.053017758 -0.04252108 0.09293447 0.040239543
000200 64 fa 86 be b4 0e 42 3d 16 e8 50 be 68 b5 50 3e
       -0.26362908 0.047377303 -0.20401034 0.20381701
000210 19 d4 6a bc 42 29 05 3e c1 9a 5a be ac c9 c9 3d
       -0.014332795 0.1300402 -0.21348096 0.09852919
000220 7d 57 d8 3d 4c f8 10 3d a5 8c e9 bd c8 9a b9 bc
       0.10563562 0.035393044 -0.11403779 -0.022656813
000230 7d 1b 7e be 89 74 a2 bd 87 d7 1b 3d 04 f0 85 3d
       -0.24815173 -0.079323836 0.03804734 0.0653992
000240 ee d1 35 bd 7b a2 5c be 08 41 7d be 7c d4 d1 3d
       -0.044389658 -0.21546356 -0.24731839 0.10245606
000250 47 40 42 bd e8 f8 17 3e 42 b4 bc 3e af 9d 53 bd
       -0.04742458 0.14841044 0.36856276 -0.05166405
000260 09 9c 1b 3d c7 9b 72 be b8 8d 4b 3d 82 d0 2c 3e
       0.037990604 -0.23692237 0.0496957 0.16876414
000270 bf cf b8 bc 56 4c 63 bc c9 73 a5 be a2 5a f8 bd
       -0.022559999 -0.01387318 -0.323149 -0.12126662
000280 dc da f5 bd dd 47 09 3c 40 c9 30 3e 41 51 68 3d
       -0.12004635 0.00837895 0.17264271 0.056718115
000290 02 d1 26 3d 33 ed db bd 28 d4 5d bd 7f 09 fa 3d
       0.04072667 -0.107386015 -0.054157406 0.122088425
0002a0 d6 af 6d bd 8f 6b 2e be b0 f7 17 be e7 5a a9 3c
       -0.05802902 -0.17033218 -0.14840579 0.020673228
0002b0 7b 55 ab bd 7d 5a ec 3d f2 80 27 3e 09 98 86 3d
       -0.083659135 0.11540697 0.16357782 0.06571967
0002c0 31 44 c4 bd d9 b4 0f be ce 5d 1f be 00 40 89 3d
       -0.09583319 -0.14033832 -0.15563127 0.0670166
0002d0 6c a5 1d 3d 66 1a d4 bd 17 d8 28 be 16 33 d9 bd
       0.038487837 -0.103565976 -0.16488682 -0.10605447
0002e0 74 ad 47 3e 01 b8 56 be 38 84 64 be e4 20 40 3e
       0.19499761 -0.2096863 -0.22316062 0.18762547
0002f0 fa f8 9f be 18 51 09 3e ea 3f cc 3c b1 20 f0 bd
       -0.31244642 0.13409841 0.02493282 -0.117249854
000300 68 be 42 be 54 1e 61 be 02 cb ea 3d 0c 26 97 3c
       -0.19017947 -0.21984226 0.11464502 0.01845076
000310 2c 24 36 3e 60 05 e2 bd 47 fb 36 be 9d 10 a1 bd
       0.17787236 -0.110361814 -0.17869292 -0.07864497
000320 4b 2f 91 bd b3 5c 08 3c 56 90 34 3d f5 6e 8c be
       -0.070890985 0.0083228825 0.044082962 -0.27428403
000330 25 e1 db 3a 5d a1 be 3d 6d cc c0 3d 32 51 51 be
       0.0016775472 0.09308121 0.09413991 -0.2044113
000340 45 1a 88 bd 54 c6 1f 3e fd cf 7d 3d 29 c5 45 3e
       -0.066456355 0.15603 0.06196593 0.19313492
000350 82 f4 65 be 41 df 7c 3d 54 2d 29 3e 33 6f 5a 3e
       -0.22456554 0.06173635 0.16521198 0.21331482
000360 0a 04 7d 3e 9e 11 ad bd cd e4 a2 3d e5 f3 6a 3e
       0.24708572 -0.08450626 0.079537965 0.22944601
000370 70 de c7 bd a2 88 5b be fc 08 cb 3d 5c 5a 8e 3d
       -0.097592235 -0.2143884 0.09913823 0.069508284
000380 fd 18 a8 bd 10 5b 7c bd 83 53 3a be 33 1c e5 bd
       -0.08207891 -0.06161028 -0.1819592 -0.11187019
000390 2b e5 00 3e 55 12 b0 3d a9 49 7e bd e6 91 47 be
       0.1258742 0.085972466 -0.062081967 -0.1948925
0003a0 cf 99 81 3d 6a 91 46 3c 13 94 15 3d 10 75 85 be
       0.06328165 0.01211963 0.036518168 -0.26065874
0003b0 87 21 ec 3d cb d8 e9 bd c4 84 42 3e fe 35 24 bd
       0.11529832 -0.11418303 0.18995959 -0.040090553
0003c0 25 8f 59 be c0 a6 29 3d 61 02 97 bb 4b 8d 94 bd
       -0.21246012 0.04141879 -0.004608438 -0.07253512
0003d0 d8 a5 fd bd 2c 26 75 3e 78 f8 42 be 9a ae ca 3d
       -0.12385148 0.23940343 -0.19040096 0.09896584
0003e0 22 dc 1d be db ce d1 3c 79 67 15 3d 9a 9f b0 bd
       -0.15416005 0.025611332 0.036475632 -0.086241916
0003f0 3b 0c 5e 3e ee 8e a9 3d f0 46 ee 3c 4c fd 6f 3e
       0.21684353 0.08279215 0.02908656 0.23436469

encoder.net.2.bias f4 [60]
000000 b6 3c 29 3d bb ab 86 bd fe 8e 80 3d 36 87 9f 3d
       0.041317664 -0.06575724 0.062772736 0.07789461
000010 1f 3b 48 3c 86 6f b6 3d 4c 1c 33 bc 52 f8 c1 3c
       0.012221127 0.0890799 -0.0109320395 0.023677979
000020 bf e8 49 3d 47 ae 60 bd 64 68 d4 bd 54 06 a1 bd
       0.04929423 -0.054853704 -0.103714734 -0.07862535
000030 74 ea 29 bd 68 b0 2e bd 2f 71 12 bd d5 16 85 bd
       -0.041483358 -0.042648703 -0.03575247 -0.064984955
000040 ec de 70 bd 80 49 8c 3d 94 f5 49 bd 0e 0e 92 bc
       -0.058806345 0.068499565 -0.049306467 -0.017828967
000050 af 4b 8e 3c 4a bd 87 3d 90 6d 99 3d 39 24 5a 3d
       0.017370073 0.06627901 0.074916005 0.0532572
000060 26 9f 48 bd f1 d7 96 3d 99 ef c8 bc 03 78 f0 bc
       -0.0489799 0.07365406 -0.024528312 -0.029354101
000070 b0 e5 34 3d 68 8b 56 bd de df 9d 3d 90 72 5d bd
       0.04416436 -0.052379042 0.07708715 -0.054064333
000080 2e 37 12 3d 2c 38 52 3d 72 a3 47 bd ea 7d 57 bd
       0.035697155 0.0513231 -0.048739858 -0.052610315
000090 b8 58 93 bd 8f 6d 16 3d cf 6d c3 bc 7e 73 5b bd
       -0.07194656 0.036725577 -0.023856072 -0.05357694
0000a0 46 c4 42 bd 10 00 2d bc 63 0a e0 3c ae e9 65 bd
       -0.047550462 -0.010559097 0.027348703 -0.056131057
0000b0 4f 86 56 bd 42 bc 5a bc 43 07 80 3d fd 05 62 3d
       -0.05237418 -0.013350548 0.06251385 0.055181492
0000c0 30 6b 30 bd 79 ef 27 bd 74 c2 71 bc 99 e4 80 3d
       -0.043070972 -0.040999863 -0.014755834 0.062936015
0000d0 03 8e 2e bd e5 51 30 bd 14 b8 8c bd c6 01 8e 3d
       -0.0426159 -0.04304685 -0.068710476 0.06933932
0000e0 ac 8b 73 bd 09 a2 81 bd 48 88 7d bd 9c b7 15 bb
       -0.059459373 -0.06329734 -0.061897546 -0.0022845035

encoder.net.5.weight f4 [34, 60]
000000 5c 1e 58 3e 2c 2a 46 3d c4 10 2b 3c 8f 93 7d 3d
       0.21105331 0.048380062 0.010441009 0.0619083
000010 a1 4c f3 3d 6e 30 39 be ab 72 94 be 6b df 1d 3c
       0.1187985 -0.1808488 -0.28993735 0.0096357865
000020 d8 f4 92 bd 81 0d a4 3c 14 40 9f be 87 2b f3 bd
       -0.071756065 0.02002597 -0.31103575 -0.118735366
000030 92 4f cf 3d 6e 43 b6 bd 9e 35 9c 3e d5 99 e4 bb
       0.10122599 -0.0889958 0.30509657 -0.006976346
000040 26 82 5c 3d e9 3d e5 bc 46 cd 33 3d 3b e8 96 bd
       0.053835057 -0.027983623 0.043896936 -0.07368513
000050 c2 be 22 be 88 47 e1 bb c5 53 d8 3d f9 e9 2b be
       -0.15893081 -0.0068749823 0.10562853 -0.16788472
000060 9a 09 63 bb 9a 19 81 be 02 8b 06 be b8 60 c5 bd
       -0.0034643174 -0.25214845 -0.13138965 -0.09637588
000070 2c a1 76 3d a1 52 0f be fa 09 82 3d ca 1f 0f 3e
       0.0602123 -0.13996364 0.06349559 0.1397697
000080 b4 7e 4f be 9b aa d2 bd ed b3 16 be ab 14 07 3d
       -0.20263177 -0.10286447 -0.14717074 0.032978695
000090 bc f1 83 3e 8c c9 aa 3d 3d 87 b4 3e 3f 38 8c 3e
       0.25770366 0.08339223 0.3525943 0.27386662
0000a0 a1 71 09 3d 59 fb 07 bd 8e fd c8 bd 59 c5 35 be
       0.03355563 -0.03319869 -0.09813987 -0.17751063
0000b0 6d 18 ae bd 44 1c 5b 3c 56 69 8d bd 91 1c de bd
       -0.085007526 0.013373438 -0.06904857 -0.10845292
0000c0 2b 2d 39 bd d1 a1 6e bd 42 b9 ca 3d 2a fe 43 3b
       -0.04520909 -0.05825979 0.098986164 0.0029906132
0000d0 23 1c b6 bc 9e 16 9c 37 70 5d ae 3d 1f 19 af 3d
       -0.022230214 1.8607181e-05 0.085139155 0.08549713
0000e0 26 14 17 3e 88 44 09 3e 63 62 bb bd 16 68 d2 3d
       0.1475378 0.13405049 -0.09149625 0.10273759
0000f0 10 2e 6c bc d6 89 5f bd e0 2b 2c 3c 78 79 b2 be
       -0.014415279 -0.05457481 0.0105085075 -0.34858298
000100 e6 4e bc bd 0c 4b 3d bd 18 43 3b 3e 5c e4 b0 bd
       -0.09194736 -0.04621415 0.18287313 -0.08637306
000110 c7 e1 18 bd 66 6c 84 3c 12 40 79 3d a2 e1 5d bd
       -0.037324693 0.01616497 0.060852118 -0.05417026
000120 b7 ac 91 bd e6 0b ba 3d 1b 83 97 be 96 a0 1e bd
       -0.07113021 0.09084301 -0.29592213 -0.038727365
000130 da e8 7f be bc 65 a2 3d 7a d5 20 be 41 37 be bd
       -0.2499117 0.079295605 -0.15706435 -0.092878826
000140 0e 07 31 bd fb 3d 90 bd 50 00 11 3d 61 d0 28 bd
       -0.04321962 -0.07043072 0.03540069 -0.04121435
000150 f8 5c b8 bd 7b 0a 25 3e cd 50 33 ba 2d 20 ef bd
       -0.090021074 0.16117279 -0.00068403484 -0.11676059
000160 55 ae c8 3d 6c 52 72 be ba 7b 31 bd 7c 6c 14 3e
       0.09798876 -0.23664254 -0.043330885 0.14494509
000170 79 7f 12 3e 46 9d a3 bd e6 c7 5e be da 9d 3e be
       0.1430644 -0.07988982 -0.21755943 -0.18614903
000180 ba 98 27 bd 22 d7 5b 3e b6 d3 f5 bd bc 8e 94 3c
       -0.040917136 0.21468785 -0.12003271 0.018134467
000190 d3 89 95 3e 32 9b 94 3d 3d 71 07 bb 48 c7 a7 3d
       0.29206714 0.07256164 -0.002066686 0.08192307
0001a0 e9 2b 57 bd 78 1b 74 bd 72 13 39 be 60 fb ca bd
       -0.05253211 -0.05959651 -0.18073824 -0.09911227
0001b0 46 d6 30 3e d7 fe 3b 3c 3e a7 94 3d 0f 01 4b be
       0.17269239 0.011474333 0.072584614 -0.19824623
0001c0 98 d5 42 3d 7a 02 1d 3c 88 92 0d 3e cf e3 88 be
       0.04756698 0.00958311 0.13825428 -0.26736304
0001d0 3e b8 8c 3d eb 24 11 be bd 6e 7e bd c4 bd 01 3e
       0.06871079 -0.1417424 -0.062117327 0.12670046
0001e0 c0 55 f9 3d 02 df fa b9 3e 5a a6 3e d1 50 bc bd
       0.12174559 -0.0004784987 0.32490724 -0.09195102
0001f0 14 9e 68 bd d2 06 78 be 4f 16 0c bd 6f 89 c9 3d
       -0.05679138 -0.24221352 -0.034200963 0.098406665
000200 90 c3 20 be c2 3a 99 bc 9f 76 30 3e d4 85 b0 3d
       -0.15699601 -0.018704776 0.1723275 0.08619276
000210 a6 5f ab bc 57 10 24 be d6 a4 9d bc 18 5b 8b 3d
       -0.020919632 -0.16021858 -0.019243639 0.06804484
000220 3d cb 2b 3d 21 c2 6d bd 04 81 a6 3e e1 e5 44 3e
       0.04194187 -0.058046464 0.32520306 0.19228317
000230 c2 fa 69 3d 00 52 d4 3d 82 57 4f be fc 15 01 3e
       0.057123907 0.10367203 -0.20248225 0.12606043
000240 5f c2 c0 bd 3d 88 80 bd 18 da 3c 3e 30 70 06 be
       -0.09412073 -0.062759854 0.18442571 -0.13128734
000250 2c 46 bb bd 73 37 c9 bd 49 47 17 bd 7c 91 80 bd
       -0.091442436 -0.09825029 -0.036933217 -0.06277749
000260 35 58 c7 3d b1 c2 bf bd c1 32 a1 3e 7a 97 e4 3c
       0.09733621 -0.09363306 0.31484035 0.02790426
000270 93 90 80 be 0f 4b ee 3d 67 a9 1d 3e 96 ed bb bd
       -0.251103 0.1163541 0.15396653 -0.09176175
000280 b2 2d db bc 15 f1 1d 3d 07 64 b0 3d 64 63 fc bd
       -0.026755188 0.038559992 0.08612829 -0.12323645
000290 c8 d5 23 bc ac de c6 bd 99 d7 21 be 5d 50 2c 3d
       -0.0099997 -0.0971044 -0.158049 0.042068828
0002a0 5c 6d bd bd e0 92 fc bd c7 ce 1f 3e 89 4e 0e 3e
       -0.09249374 -0.12332702 0.15606223 0.13897146
0002b0 da 18 27 3d 49 e7 6b bd 57 2f 56 bd ab 78 68 bd
       0.040795185 -0.057593618 -0.05229124 -0.056755703
0002c0 34 cc 2c 3d ad 0d a3 be 22 74 dd bc b1 65 0b be
       0.04218693 -0.3184637 -0.027032916 -0.13613011
0002d0 99 ee 97 3d 2e 5f d8 bc b8 81 88 3d f3 10 b0 bc
       0.07418556 -0.026412573 0.06665367 -0.021492457
0002e0 50 75 98 3d 18 0a 04 3e 24 a6 98 3d e1 f7 9a bd
       0.074442506 0.12894475 0.07453564 -0.075668104
0002f0 f1 67 1c 3e 65 4b 06 be 89 2b 4b 3e 55 33 a9 3e
       0.15274025 -0.13114698 0.19840826 0.33046976
000300 67 4a 10 3e 2a 63 25 3e 96 e5 9d 3e d0 3f 32 bc
       0.14090882 0.1615111 0.30839223 -0.010879472
000310 4e 99 58 3e 70 c3 08 3e c5 85 5b bd 29 78 2e be
       0.21152231 0.13355803 -0.05359437 -0.17038025
000320 2f 89 98 3d 91 a1 dd 3e 81 c0 fd bc a3 09 c0 3e
       0.07448041 0.43287328 -0.030975582 0.37507352
000330 13 8f 2a 3e 37 a5 00 be ad 96 39 3e 54 52 ab bd
       0.16656141 -0.12563024 0.18123884 -0.08365312
000340 be 2b 4f bd 3f ba 03 3e 97 20 06 3d 4b ad a6 bd
       -0.050578825 0.12864016 0.032745924 -0.08138522
000350 52 30 b2 3d 5d 83 83 bd e7 c4 cb bd 25 97 41 3e
       0.087006226 -0.0642154 -0.099496655 0.18905313
000360 a5 f8 78 bd 91 cf 15 3e af 8a cd be 8d 24 c2 3c
       -0.060784 0.14629962 -0.4014487 0.02369907
000370 57 25 e7 bd 70 4d 7a bb 3d d9 79 3e f5 a9 c7 3c
       -0.11286419 -0.003819313 0.24399276 0.024373034
000380 a6 65 2f 3c c6 df 25 3d 3b 2e 56 bc 43 90 4a be
       0.010705387 0.04049661 -0.013072546 -0.19781594
000390 23 7b 85 bd 7a 13 66 bd 53 07 21 bd a6 b1 01 3e
       -0.06517627 -0.056170918 -0.039313626 0.12665424
0003a0 9a 76 a9 3c 92 86 3a bd c7 98 01 be 57 8f b4 bd
       0.020686436 -0.045538493 -0.12655936 -0.088164024
0003b0 5d e7 ef bd 05 72 00 3e 90 05 51 be ac ef 04 bc
       -0.11714051 0.12543495 -0.20412278 -0.008113783
0003c0 e1 bf 00 3e cf 72 cf bd dd 93 23 be d1 cc 83 bd
       0.12573196 -0.1012932 -0.15974374 -0.0643555
0003d0 72 07 6f bd 1a 9b 0a 3d 19 76 a0 3d af 60 67 3b
       -0.05835671 0.033839323 0.07835025 0.003530543
0003e0 0b b4 33 be 1a 26 48 3e 04 b2 97 bd c2 ec 9d bd
       -0.1754915 0.19545785 -0.07407001 -0.077111736
0003f0 f2 26 e3 bd 4d 49 4a 3d 48 55 35 be 28 1e aa 3d
       -0.110914126 0.04938631 -0.17708313 0.08306533

encoder.net.5.bias f4 [34]
000000 3b a8 82 bd 39 24 2a bd 1d 1d 84 bd cb 2c 8d bd
       -0.06379744 -0.04153845 -0.064508654 -0.06893309
000010 c4 46 72 3d 6a 8d 44 bd 09 7b 9f bd e8 a0 50 bd
       0.05914952 -0.047986425 -0.07787139 -0.050934702
000020 25 c0 92 3d 23 27 00 bd 25 78 85 3d 23 c5 68 bd
       0.07165555 -0.031287324 0.065170564 -0.05682863
000030 b6 56 4c bd a8 01 ae bd c5 3a 60 bd 04 a7 71 bd
       -0.04988738 -0.0849641 -0.054743547 -0.05899717
000040 be 86 5e 3d 77 fa 82 bd 9d c8 b2 3d d0 d3 65 3d
       0.05432772 -0.06395429 0.0872967 0.056110203
000050 f6 09 89 bd fe 5d 7e bd 68 f5 9a 3d 41 c1 06 3b
       -0.06691353 -0.062101357 0.07566339 0.0020561966
000060 69 f0 15 3c 1d b0 c7 3d c3 d7 84 3d 63 50 8f 3d
       0.0091515565 0.09750388 0.06486466 0.069977544
000070 84 eb db bd 02 fe 66 3d 6e bf 5d bd ad 8b a2 bd
       -0.107382804 0.056394584 -0.05413764 -0.07936797
000080 4c 23 a0 bd c7 a2 32 3d
       -0.07819232 0.043612268

predictor.net.1.weight f4 [32, 34]
000000 f7 79 58 3e 5e cd 1e 3e 4e 0b 86 3e e0 3e 36 3d
       0.21140276 0.15508029 0.261805 0.044493556
000010 b1 61 5d 3c 67 e8 de bc a2 ae 87 3e f0 f1 87 3d
       0.013512061 -0.027210427 0.26500422 0.06637943
000020 a0 3e 0a be d5 89 26 bd 0c 71 d3 be 13 d8 87 3e
       -0.13500452 -0.04065879 -0.41297185 0.2653204
000030 9a fe 12 bd e7 53 8d 3e 52 40 69 3e d9 a5 fb 3d
       -0.03588734 0.27603075 0.22778443 0.12287492
000040 cb 09 fd bd 5e c6 e2 3e 63 c8 e7 3c 7a 6b 7d 3d
       -0.123553835 0.44291967 0.028293794 0.061870076
000050 1b c1 85 3e b7 ac d2 3e 17 29 cc 3d e4 0e d3 3d
       0.2612389 0.41147396 0.09968775 0.103055745
000060 6e 22 87 3e 4b 47 f5 bd 10 a3 d5 bd 9d 19 b2 be
       0.26393455 -0.11976489 -0.10431492 -0.34785166
000070 2a c8 0c 3e 9b d1 30 be 51 47 65 3e 24 5c 03 3e
       0.13748232 -0.17267458 0.22390486 0.12828118
000080 3d ed 84 3d 5b 99 42 3e c8 9c d7 bd 38 88 d4 3d
       0.06490562 0.19003813 -0.105279505 0.10377544
000090 1f e6 0c be 39 7f 60 bd 3f 2d 85 3d d9 35 98 3e
       -0.13759659 -0.05480883 0.06502771 0.29728583
0000a0 51 f9 16 3e c3 8c ce bd 95 95 e5 3d 9c 4f ce 3d
       0.14743544 -0.10085442 0.11210171 0.10073778
0000b0 99 92 c2 bd 38 ae 8a 3e 67 da 2e be d9 e6 08 3c
       -0.095006175 0.27086043 -0.17075501 0.00835582
0000c0 ca 3a 98 be ff 8f eb bd 34 94 43 3c 0b aa 19 bd
       -0.29732352 -0.115020745 0.01193719 -0.03751568
0000d0 8b c7 52 bc 5f c7 d9 bd b3 f0 8a bc d6 19 2e 3e
       -0.012864958 -0.1063373 -0.016960477 0.17002043
0000e0 98 fd e5 3d 90 b7 01 be a4 c7 51 3d c4 63 a0 3e
       0.1123001 -0.1266768 0.051215783 0.31326115
0000f0 45 db c7 3d 9d 9b c0 3e 49 22 97 bd 24 ed 9b 3e
       0.09758619 0.37618724 -0.07379586 0.3045436
000100 08 fa f2 bc be e5 8b 3e a8 83 10 be cb 1a 1e be
       -0.02966024 0.27323717 -0.14112723 -0.15439908
000110 7a ab ae be f3 92 14 3d 8d 80 4d bc 4a 45 14 3e
       -0.341152 0.036272954 -0.012542856 0.14479557
000120 61 97 57 be 33 9c 0a 3e f4 27 b5 bd fa 63 9d bd
       -0.2105384 0.13536148 -0.08845511 -0.07685085
000130 8f e7 dc bc 99 62 59 be ff c9 f3 ba 63 2e af 3d
       -0.026965884 -0.21229018 -0.0018599628 0.085537694
000140 94 11 03 3e 24 bc da 3d cb 50 03 3d 62 bc 8e 3d
       0.12799674 0.10680416 0.032059472 0.06969525
000150 ef e9 37 be 44 db 78 bd 28 8d 17 be 12 c7 c5 bd
       -0.17960332 -0.060755983 -0.1479994 -0.0965711
000160 41 40 e1 bc 17 88 e1 3d 52 28 49 3e 22 da 00 3e
       -0.027496459 0.11012285 0.19644287 0.12583211
000170 22 a5 1a 3e 66 fe e1 bc 39 c6 8f 3e 02 ac a0 3e
       0.15102056 -0.027587127 0.2808092 0.31381232
000180 9b 60 6a be 97 d5 4e 3e aa a3 35 3e cd 2b d0 3e
       -0.22888415 0.20198666 0.17738214 0.40658417
000190 d5 2b 1f be f5 31 25 3d 4d 15 89 3e 1a d3 be bb
       -0.15544064 0.040330846 0.26774064 -0.005823505
0001a0 32 a6 b4 3c c4 e3 b5 bd a9 0c 67 3e d5 fe c2 3d
       0.022051904 -0.088813335 0.22563423 0.095212616
0001b0 f9 2f 5c be b8 5d 90 be 59 26 f8 3c 2f 2b 7b bc
       -0.21502675 -0.28196502 0.030291723 -0.01533012
0001c0 32 91 28 3e ed 5c d7 bc ea 7c c3 bd 7f c0 bc bd
       0.16461638 -0.026289428 -0.0954531 -0.09216403
0001d0 fd b7 7f bd e2 47 99 3d 33 9e 08 3d 52 55 2d 3e
       -0.062431324 0.07484414 0.033353996 0.16927078
0001e0 65 f2 ac 3b db 3b 92 bc f4 11 08 be ee 38 ec 3c
       0.005277919 -0.017850807 -0.13288099 0.02883574
0001f0 be ce ee 3d 9d 63 72 3e 5e 78 95 3e 0f f9 6d bd
       0.11660527 0.23670812 0.29193395 -0.05809885
000200 5e f2 6a 3e 08 e3 4a 3e 0f 9d 8d 3e 2a b3 4a 3e
       0.22944018 0.19813168 0.2765889 0.19794908
000210 c1 c1 b7 3d 03 ca 8b bd 72 fc 27 3e 55 f7 60 be
       0.089725025 -0.0682564 0.16404894 -0.2196935
000220 87 0a ee bd e7 f9 19 3e b7 f4 ab 3d 47 d9 3a 3d
       -0.11623102 0.15036736 0.08396285 0.045617368
000230 e6 cc d6 3c c3 f5 a3 be 8f 26 a9 be c6 45 61 3d
       0.02622075 -0.3202344 -0.3303723 0.05499818
000240 90 3d 9b 3e 5e df 83 3e 2f 9c 99 3c 71 74 02 3e
       0.30320406 0.25756353 0.018751232 0.12739731
000250 7d f8 1a be 53 7e b1 3c dc 5f 2a 3e 93 1d 4b be
       -0.15133853 0.021666681 0.1663813 -0.198355
000260 43 b9 23 3d e9 a9 11 be a8 2a 81 be c6 fa 9a 3e
       0.0399716 -0.14224972 -0.25227857 0.3026945
000270 9c 87 4c be 0f a2 37 3e 11 e7 86 bc 8d 1a ea 3d
       -0.19973606 0.17932914 -0.016467603 0.114308454
000280 9c ff 7f bd ad 3a 7a 3e 61 12 f0 3d 79 d9 bb 3e
       -0.062499627 0.24436446 0.117222555 0.36689356
000290 69 de 49 3d 48 5a 04 bd f5 82 bb 3c 16 f7 68 be
       0.049284372 -0.03231266 0.022889594 -0.22750506
0002a0 d1 bc 97 bd ef 94 ca bd e0 10 14 be 21 f9 bd 3e
       -0.07409061 -0.09891688 -0.14459562 0.37104133
0002b0 c8 98 04 3e b7 c8 74 3d bc 5e 2c 3e 2d af 31 3e
       0.12948906 0.05976173 0.16833013 0.1735198
0002c0 05 ad 85 3e 72 e7 29 bd d4 23 84 3e 14 a0 90 bd
       0.26108566 -0.04148049 0.25808585 -0.070617825
0002d0 ba 0f 36 3d 9c f0 23 be 52 17 e5 bd 73 a1 69 bc
       0.04444859 -0.16009754 -0.111860886 -0.014259684
0002e0 41 41 98 3d 9e 1c d1 be 07 37 f8 3c e7 32 3f be
       0.07434321 -0.40842146 0.030299677 -0.18671761
0002f0 0a ce ad bc de 3d 07 be 02 68 76 be 87 2d a4 3d
       -0.021216411 -0.13207194 -0.24063113 0.08016496
000300 59 2d e9 bd 15 78 84 3d c7 8b 60 bd 4a e4 e3 3c
       -0.113856025 0.06468216 -0.054820802 0.027818818
000310 5d 1f 74 3d 4b 0e af 3c fa 2e 27 bb ea be 84 3d
       0.059600223 0.02136912 -0.0025510178 0.064817265
000320 37 30 06 3c 99 40 9a 3d 51 48 9b 3c 37 d9 06 3e
       0.008190206 0.07531852 0.018955382 0.13168798
000330 d2 f2 2d be 31 67 1d 3e ea 37 90 3c f2 0b 8b 3b
       -0.1698716 0.15371396 0.017604787 0.0042433674
000340 03 d7 eb bd 75 a0 ed 3c e3 97 fe 3d 69 64 a9 3d
       -0.115156196 0.029007176 0.12431314 0.08271105
000350 44 2c 77 3e 1a bd f6 bd 96 17 fe 3c 3e db a7 3d
       0.2413798 -0.12047787 0.031017106 0.08196114
000360 5f eb 32 3e fb e8 1b 3e fa 13 08 be b8 83 c9 3d
       0.174726 0.15225594 -0.1328887 0.098395765
000370 1d 51 55 3c 17 97 56 3e e0 7b 00 3e e3 7c a0 3c
       0.013019827 0.20956074 0.12547255 0.0195908
000380 85 cb 60 3d 34 6f 3d be 8f 9a af be b0 7d 19 3e
       0.05488159 -0.18499452 -0.34297606 0.14989352
000390 19 f7 5a bd ca 55 c6 3e 3e 54 32 be 18 ca 48 3e
       -0.053458307 0.38737327 -0.17414948 0.19608343
0003a0 d5 04 14 3e c9 a3 12 be cf c2 83 3e e3 5b 66 3c
       0.14454968 -0.14320292 0.25734565 0.014059993
0003b0 c9 95 00 3e 1d 9e 03 be 2c 5d 1e bc ce 7b 53 3d
       0.12557139 -0.12853284 -0.009665769 0.05163174
0003c0 0b 3e 7a ba cf 3e 1e be 3c 41 f7 3d 0a da ba bd
       -0.0009545988 -0.15453647 0.12072989 -0.09123619
0003d0 87 a4 b8 3e 9b 7f 62 3d bf f7 3f 3d 35 47 dd 3d
       0.36063024 0.055297475 0.04686713 0.10804597
0003e0 73 22 26 3e 52 7f ba 3d 9d 13 be 3a 5e 70 9f bd
       0.16224079 0.09106316 0.0014501695 -0.07785104
0003f0 08 ff c5 bd c1 b1 95 3e b6 59 3a 3d 11 ad e3 3d
       -0.09667784 0.29237178 0.04549571 0.11116994

predictor.net.1.bias f4 [32]
000000 13 6d b8 bd 16 44 ab bd fe f7 b0 3d 27 26 90 3d
       -0.09005179 -0.08362596 0.08641051 0.07038527
000010 87 00 ad 3d ad 58 a6 3d 3b 44 aa bd 1f f0 b9 bd
       0.08447366 0.08122382 -0.08313795 -0.090790026
000020 06 ea a9 bd b2 d5 c0 3d 03 10 a5 bd 07 59 a4 3d
       -0.082965896 0.09415759 -0.080596946 0.08024793
000030 37 e1 ac 3d fa 1e a0 bd 9f a5 a9 bd d8 3c a6 3d
       0.08441394 -0.07818408 -0.08283543 0.08117074
000040 85 94 ae 3d ec 8e a9 3d 20 22 bc bd c8 ca aa 3d
       0.085244216 0.08279213 -0.09186196 0.08339459
000050 63 63 b3 3d 40 81 af 3d 61 0e 36 be 7a 38 be 3d
       0.08759191 0.08569574 -0.17778923 0.09288116
000060 1b 54 9d 3d 79 18 ad 3d 2e bb 66 3d ea e3 ae 3d
       0.076820575 0.084519334 0.056330852 0.08539565
000070 b9 4c ad 3d e7 69 af bd e6 79 ae bd fd 3a b8 3d
       0.08461899 -0.08565121 -0.08519344 0.08995626

predictor.net.3.weight f4 [1, 32]
000000 11 e6 68 be c1 71 c0 bd 76 3f 51 3e 96 80 2e 3d
       -0.22744013 -0.09396697 0.20434365 0.042603098
000010 51 63 a0 3d 0e 97 6b 3e b5 81 cb be 01 58 98 be
       0.07831443 0.23006842 -0.39747396 -0.29754642
000020 ac a1 a1 be 8d e8 92 3e 8b e2 18 be ab dc 06 3e
       -0.31568658 0.28693047 -0.1493017 0.13170116
000030 c4 d8 9a 3e 7e 71 d1 bd b5 cf 72 be 53 29 59 3e
       0.30243504 -0.10226725 -0.23712046 0.2120717
000040 02 73 3e 3e 91 0d 89 3e 2f cd 43 be 91 08 10 3e
       0.1859856 0.26768163 -0.1912124 0.14065768
000050 5d 00 10 3e 9d 43 a8 3d e7 35 09 bd 72 62 94 3d
       0.14062639 0.08216021 -0.03349867 0.072453395
000060 8f 40 7a 3c 4c d4 81 3b ef 1d 83 3c 66 44 dc 3e
       0.015274181 0.0039620753 0.016005484 0.43020934
000070 2f 83 52 3e 91 7b 89 be 3a dd a3 bd 95 a4 56 3e
       0.20557855 -0.26852086 -0.0800118 0.2096122

net.0.weight f4 [60, 37]
000000 a5 2d 99 3c bd 97 00 3e c4 45 c1 3d 7e 14 24 3e
       0.018698523 0.12557884 0.09437135 0.16023442
000010 4e ac bc bd d0 51 55 be 2a a9 99 bd 50 59 ab 3d
       -0.09212552 -0.2083199 -0.075029686 0.083666444
000020 b3 39 fd 3d 09 09 37 be 50 7e 4b 3e c2 1c bb bd
       0.12364521 -0.1787454 0.19872403 -0.091363445
000030 e4 f7 3f 3e 55 66 bf 3d c7 78 cb bd d5 23 f8 bd
       0.18746907 0.0934569 -0.09935146 -0.121162094
000040 3b e5 dd bd 4c 47 78 3e 67 b9 b7 bc 75 16 aa bd
       -0.10834738 0.24245948 -0.022427274 -0.083050646
000050 84 4a 89 be 44 1a 92 3e 5a 8b 03 3e 98 b6 71 bc
       -0.26814663 0.28535664 0.12846127 -0.014753006
000060 6d e5 13 be 3c 79 b0 bd 6f 1a 61 3d e4 3e 9f bd
       -0.14442988 -0.086168736 0.05495685 -0.07775667
000070 b7 ea 8b 3d e3 02 b7 ba 7f 3e 58 3e 6a 8d 20 be
       0.06831878 -0.0013962652 0.2111759 -0.15678945
000080 23 3a 04 3e aa 66 bb bd 58 8c e5 3d 95 1e ea 3d
       0.12912802 -0.09150441 0.11208409 0.11431614
000090 c9 60 84 3c 2a c0 97 3b c5 50 bc 3d f4 3c dc 3c
       0.016159432 0.004631062 0.09195093 0.026884533
0000a0 c3 47 6b be fc be 90 3e 1d 70 cc 3c 56 0f b4 bd
       -0.22976594 0.2827071 0.024955804 -0.087919876
0000b0 ed 80 09 3e 00 c0 48 3e a5 06 cb bb 57 53 ee bd
       0.13428088 0.19604492 -0.0061958604 -0.116369896
0000c0 99 b4 8e 3e ca d3 01 3e c2 b5 cb bc 51 06 5a be
       0.2787216 0.12678447 -0.024866942 -0.21291472
0000d0 e8 94 db 3c 92 cd c8 bd 0d c9 98 ba c5 38 83 3d
       0.026804402 -0.098048344 -0.0011656597 0.06407312
0000e0 bd 93 72 3e 62 03 80 bd 6d fd 2a be 5b fd aa bd
       0.2368917 -0.06250645 -0.16698237 -0.08349105
0000f0 67 38 3d 3c 13 94 ec bd 25 f4 40 3d c2 55 23 be
       0.011549092 -0.115516804 0.047107834 -0.15950683
000100 4a bd a4 3e 4d 59 69 be c1 2b 3d be aa 6f 24 be
       0.32175666 -0.22787972 -0.18473722 -0.16058221
000110 00 89 05 bd b0 72 ea bd e9 81 77 be c1 b5 11 be
       -0.032601357 -0.11447656 -0.2417065 -0.1422949
000120 ed bf 3e bd 46 bb ae 3c 04 c4 d6 3e e6 72 c9 3d
       -0.046569753 0.021329533 0.41946423 0.09836368
000130 f8 57 2c be 62 7f 62 3e db 7a 69 be 00 f0 3e 3e
       -0.16830432 0.22118905 -0.22800772 0.1864624
000140 dd 45 17 3e 97 30 0b be fb ed 9e 3d 35 9b c3 bc
       0.14772744 -0.13592754 0.07760235 -0.02387772
000150 9a e5 12 be 10 5c 85 3e 69 cd 88 be 52 f8 b7 bd
       -0.14345399 0.260468 -0.26719216 -0.0898291
000160 ed 9a 2c be f0 00 09 be 71 61 29 be d1 86 9f 3b
       -0.16855974 -0.13379264 -0.16541077 0.0048683663
000170 39 29 9c be 1a cc 03 3e 71 8a 6a 3d 42 94 07 3e
       -0.305002 0.12870827 0.057260934 0.1324015
000180 2a 9c 46 3e 5c fd a5 bd e1 3c ce bd 0f 18 27 3e
       0.1939551 -0.08104965 -0.100702055 0.16317771
000190 eb f0 7a be 87 7b 83 bd 58 61 24 be 77 95 47 bd
       -0.24505965 -0.06420045 -0.16052759 -0.048726525
0001a0 fb 17 ed bd 34 61 83 bc c9 c9 07 3e 6e d6 c1 bc
       -0.115768395 -0.016037561 0.13260569 -0.023661818
0001b0 77 46 40 bc ff cd 73 be 7c 43 f1 b8 34 7a c4 3d
       -0.01173555 -0.2380905 -0.000115043455 0.09593621
0001c0 13 26 02 3d be e8 0c be ba ae f0 bd df 9f b6 bc
       0.03177459 -0.13760659 -0.117520764 -0.02229303
0001d0 e7 a4 9a be b0 0d e3 be 57 95 75 bd 30 34 0e bd
       -0.30203936 -0.4434638 -0.059956875 -0.03471774
0001e0 c3 f4 94 3e 6b a7 34 3e ed e7 09 be 2c fb 2d 3e
       0.29092988 0.1764199 -0.13467379 0.16990346
0001f0 f3 82 76 3d fe 3f a4 3d 76 d7 54 3e 32 ad 8f 3e
       0.060183477 0.08020018 0.20785317 0.28061825
000200 35 a9 1a 3d 52 1b 68 3c 59 85 a9 3c 45 26 07 be
       0.037759025 0.01416667 0.020693468 -0.13198192
000210 4d 26 42 3d f2 8c 0e bc 9a 5c bb 3c be b6 e2 3c
       0.047399808 -0.008700596 0.022871304 0.027675029
000220 c5 35 39 3e 89 43 cc bd a4 f1 65 3e b3 b1 83 3e
       0.18086918 -0.09973819 0.2245546 0.2572151
000230 b2 8d 4a 3d f6 1d 15 be e9 e2 65 be 6d 97 47 be
       0.049451537 -0.1456221 -0.2244984 -0.19491358
000240 a1 f2 e6 bd 01 65 e0 bc b6 8b ed bd 97 7e 83 be
       -0.112767465 -0.027391912 -0.11598913 -0.25682518
000250 6e e0 d2 bc 9c 30 4e 3e f1 34 88 3e 20 be 65 bc
       -0.025741782 0.2013573 0.2660289 -0.01402238
000260 06 51 e3 3d a3 45 1c 3e 00 41 8c 3e 9b c6 35 3e
       0.11099438 0.1526094 0.2739334 0.17751543
000270 dc 5c 99 3c 2b 14 9e 3d e2 87 a9 bd d9 c9 6b bd
       0.018721037 0.077186905 -0.08277871 -0.057565544
000280 1c 0d dd bd 1c d1 2f 3d 6b 93 21 be de f5 df bd
       -0.10793516 0.04292403 -0.15778892 -0.10935567
000290 aa b7 22 bd 02 dc 85 bd 36 b1 43 3e ae d3 06 3e
       -0.039725937 -0.06536104 0.1911057 0.13166687
0002a0 5e 4e b0 bd 10 d7 a5 bd 26 08 58 bd 8f dc 0e be
       -0.08608697 -0.080976605 -0.052742146 -0.13951324
0002b0 3e 92 4a be f0 eb 14 3e d2 76 14 3e 84 b2 ee 3c
       -0.1978235 0.14543128 0.14498451 0.029137857
0002c0 a6 6a ad ba 64 8a c7 bd b5 da bc 3c ab 40 13 3c
       -0.0013230636 -0.09743193 0.023053506 0.008987586
0002d0 d9 73 1e bc 9b e2 71 bd c9 c0 5c 3e 95 6c b0 be
       -0.009671175 -0.059054 0.21557917 -0.34457842
0002e0 a6 74 84 3e 88 14 e4 3c 41 b6 fb bb 4c 5d a1 bd
       0.25870246 0.027841821 -0.0076816385 -0.07879123
0002f0 8f 82 64 3c da 91 ef bd ff cb 14 bd 00 ad e9 bd
       0.013947143 -0.11697741 -0.03632736 -0.1140995
000300 f6 2d 02 3e 78 2b 41 be c9 ad 35 be 3c 06 c7 3b
       0.12712845 -0.18864238 -0.17742075 0.0060737412
000310 a3 a0 8b 3e 0c a6 d5 3b bf 32 0e be f8 b0 65 bd
       0.27270994 0.0065200385 -0.13886546 -0.056076974
000320 ee ae 1d 3b 45 8b 19 3e 81 65 68 be 5f 46 c8 3d
       0.0024060565 0.14994533 -0.2269497 0.09779047
000330 fa 1b 10 be c9 9b 27 3c df 0f fa 3c 28 7a 65 3b
       -0.14073172 0.010230013 0.030525146 0.0035015438
000340 be 2a 99 3e b2 3e 47 bd 9c fe 1c 3e 82 55 50 be
       0.29915422 -0.048643775 0.15331501 -0.20345119
000350 7b ba 04 be 71 7e e7 bd 5e 54 9c be 3b 08 10 be
       -0.12961762 -0.11303414 -0.30533117 -0.1406564
000360 d3 00 87 bd 68 55 6a 3d 11 50 4d 3e ad ef d6 3c
       -0.06591954 0.057210356 0.20050074 0.026237333
000370 51 9e 0d 3d 96 e3 03 be 17 4a 67 3d e0 ba 13 3c
       0.03457481 -0.12879786 0.056467142 0.009016722
000380 e3 e4 e7 3d 7a 52 42 be b9 b7 8e 3b 86 fc cb 3c
       0.113229536 -0.18976775 0.0043553975 0.024900686
000390 f8 ad a6 bd 9e b5 b4 bd 47 31 26 be 1b e5 a1 bd
       -0.08138651 -0.08823703 -0.16229735 -0.079050265
0003a0 31 60 04 3e b4 54 a2 3d 26 f8 28 3d ca be 14 be
       0.12927319 0.07926312 0.041252278 -0.14525905
0003b0 a0 70 ce bd 5d 46 c6 bd 86 b1 f8 bc 56 a2 8d 3e
       -0.10080075 -0.096813895 -0.030358087 0.27662915
0003c0 da 60 8a bd 13 8b ac bd 46 c6 61 3e 8d 2a e0 3b
       -0.06756754 -0.08424964 0.22048292 0.00684101
0003d0 65 2b 9b bc 14 c9 aa be a4 b3 1e 3e fb e8 e2 3d
       -0.01894159 -0.33356535 0.15498215 0.11079594
0003e0 8f db d0 3d 18 65 8d 3b 50 d3 3c be a2 54 ce 3c
       0.101981275 0.00431503 -0.18439984 0.02518684
0003f0 1f 04 72 be 07 ea 8d bd 2e bc 61 be 4d 9a 38 bd
       -0.23634385 -0.06929403 -0.22044441 -0.045069028

net.0.bias f4 [60]
000000 9e e1 df 3d 13 ba d9 3c bb 55 ba 3d 1b 43 05 bd
       0.10931705 0.026577985 0.09098383 -0.0325347
000010 a9 75 2b 3c 9b 43 9a bc 39 bc 2a 3e ee ce 95 3c
       0.010465064 -0.018831065 0.16673364 0.018287148
000020 34 9c 3e be 61 63 86 bc 62 e3 06 be d5 26 44 bd
       -0.18614274 -0.01640481 -0.13172677 -0.047888596
000030 1e 3c d2 3d 11 f5 d1 3c 80 22 cc bd 39 3f 08 be
       0.10265373 0.025629552 -0.09967518 -0.13305368
000040 f3 48 95 bb 29 76 4c bd ff 8e ab bd 82 38 97 bd
       -0.0045558154 -0.049917374 -0.08376884 -0.07383825
000050 3f 45 87 3d 37 7a c6 bd 6f f0 f7 bb 15 82 ce bd
       0.066050045 -0.096912794 -0.0075665037 -0.10083405
000060 3b 55 b2 3b 2e 19 1b be df 96 48 bc 9e b9 64 bd
       0.005442289 -0.15146324 -0.012243002 -0.05584108
000070 7b 3b c9 3a 2c a2 09 3e a1 63 81 3d ca 63 f3 bc
       0.001535281 0.1344077 0.06317831 -0.02971067
000080 bf 25 b7 3d ac 20 bb bd 3a fd 63 3d 5a a1 33 bc
       0.08942746 -0.09137091 0.055661418 -0.010963762
000090 97 29 31 3e 7f f3 e7 bd b4 2c 6d bd bd 4f 2e 3e
       0.17301022 -0.1132574 -0.05790396 0.17022605
0000a0 60 55 83 3c 59 7b 72 3d c4 92 01 3e e1 f8 0d be
       0.01603192 0.059199665 0.12653643 -0.13864471
0000b0 cd b8 d5 3d b1 4a 18 3e 71 66 e5 bd f1 fc 13 3e
       0.104356386 0.14872243 -0.1120118 0.14451958
0000c0 2b 05 3c 3d c9 0f b5 bb f8 c7 5a 3c 1f 9b 12 3e
       0.045903366 -0.0055255634 0.01335334 0.14316987
0000d0 58 76 e1 3c 92 12 c9 bd 57 6a 6e 3a 7b 58 e0 bc
       0.027522251 -0.09817995 0.00090948254 -0.02738594
0000e0 73 af 0f be 8c 42 00 3d 15 97 11 3e 1d a0 1d 3e
       -0.14031772 0.031313464 0.1421779 0.1539311

net.2.weight f4 [60, 60]
000000 98 ca 3a be 5b 52 71 3d c1 e8 01 be 24 60 ac bc
       -0.18241346 0.05891643 -0.12686445 -0.021041937
000010 ec 64 52 3e 34 bb 93 be 95 46 49 3e d7 1b d7 3d
       0.20546311 -0.28853762 0.19655831 0.10503357
000020 15 e2 b4 bc 77 d5 1e 3d 50 1c 0c bd f0 c3 6d bd
       -0.02208046 0.038777795 -0.03420669 -0.05804819
000030 08 2a 5a be 1e e0 54 3a 07 81 09 bd da ea 3d be
       -0.21305096 0.0008120554 -0.033570316 -0.1854662
000040 e1 a5 84 be 75 2c 8e bd 0b 35 dc bc 88 c5 de bd
       -0.25907806 -0.06942073 -0.026880762 -0.1087752
000050 4e d5 73 3e cf 03 54 3d e1 3d 99 bd 80 5f 09 be
       0.23811838 0.051761445 -0.074825056 -0.13415337
000060 ad 1f 2c be 92 b1 c4 3d c0 9c 12 be 16 a1 ff 3d
       -0.16808958 0.09604181 -0.14317608 0.124818966
000070 09 5a 9a bc e8 ca 18 3d 39 e5 cd bd f3 3c 06 3e
       -0.01884176 0.03730288 -0.100534864 0.13109188
000080 d4 32 e6 bd 54 11 50 bd 4b 5e b6 be 12 91 e5 3c
       -0.112401634 -0.050797775 -0.35618815 0.028023276
000090 fb 31 8d 3d a8 11 40 be 39 16 25 3e 4d b3 db 3d
       0.06894299 -0.18756735 0.16121759 0.10727558
0000a0 71 a6 1f be 47 dd 87 bb 39 7e 8d bd f1 54 88 3d
       -0.15590836 -0.0041462514 -0.06908841 0.06656826
0000b0 5e 2a 0f bd d9 7d 45 3e 45 63 75 bd 11 72 a8 3d
       -0.034952514 0.19286288 -0.059909124 0.082248814
0000c0 a7 91 5e 3c 2b a4 c2 bd 25 de 10 3e 7f 7e 6c 3c
       0.013584531 -0.09503969 0.14147241 0.014434456
0000d0 24 16 1b bd f1 1e bd bd 78 30 de 3d 92 fb f5 3d
       -0.03786291 -0.09234417 0.108490884 0.12010874
0000e0 b8 23 ab 3c 2f e4 0e bd f0 0a df bc 9c 10 1f be
       0.020891055 -0.03488558 -0.027226895 -0.1553368
0000f0 54 a6 f2 bd 9a 14 bd 3d 87 69 0d 3e 4c 6b 72 bd
       -0.11848131 0.09232445 0.13809787 -0.059184358
000100 8f 52 77 3e c2 2c 41 be 15 f7 8a 3d 55 3f a0 bd
       0.24152587 -0.1886473 0.067854084 -0.078245796
000110 90 01 5b 3c a7 c1 b2 bc 2a 90 69 3e 3b dd 64 3d
       0.013367072 -0.021820856 0.228089 0.055875044
000120 5f 9d 35 be de 40 3f 3e 2a aa 58 3d de 41 b2 bd
       -0.17735814 0.18677089 0.052896656 -0.087039694
000130 16 65 a9 3d 90 d4 c9 3d a0 40 33 3e 79 4c ff bd
       0.08271234 0.09854996 0.17505121 -0.12465758
000140 0f 12 1f 3e 3d 8e 00 3e 02 8a 5d be a1 35 67 3e
       0.15534233 0.1255426 -0.21634677 0.22579052
000150 a4 31 a7 3d 9f 1c 9b be 28 1a fe 3c 87 6e 3b 3e
       0.08163765 -0.30295274 0.031018332 0.18303882
000160 d4 d7 2d bd 40 f1 0a bd b5 c8 30 3c 49 84 62 3d
       -0.042442158 -0.03392148 0.01079004 0.05530194
000170 92 e9 b7 3c 16 34 0f 3e 5a 5d 24 3d fd bb 43 be
       0.022450242 0.13984713 0.04012809 -0.1911468
000180 26 b9 6e 3e 7c bc 04 3e 91 c6 ba bd a8 e3 49 3b
       0.23312816 0.12962526 -0.09119905 0.003080586
000190 70 3d 27 3e 08 e6 19 3e 5b 33 38 be 14 36 e5 3b
       0.1633203 0.15029156 -0.1798834 0.006994972
0001a0 96 a0 ee 3d f4 e6 b0 bd fd 66 77 3d a4 97 4c be
       0.11651723 -0.08637801 0.06040095 -0.19979721
0001b0 80 f9 90 bd 0a 28 96 3e 96 b5 1c be 00 4f 0b bd
       -0.07078838 0.29327422 -0.15303645 -0.034010887
0001c0 9f d4 52 3d 43 71 3e 3d 16 89 ac bd 4c 2d 2b bd
       0.051472303 0.046494734 -0.084245846 -0.041791245
0001d0 6c ee c2 bd dd 9a 49 3e 00 46 1d bd b5 f3 d0 3d
       -0.095181316 0.19687982 -0.038396835 0.102027334
0001e0 8e 24 b0 bd 79 aa 99 bd 33 6b a8 bc 3d 2e 56 be
       -0.08600722 -0.07503218 -0.02055893 -0.20916076
0001f0 29 ae 4f 3d 54 ca f6 3d 3e 69 66 bd 42 98 e5 bd
       0.0507032 0.1205031 -0.05625271 -0.112106815
000200 51 56 30 bd 74 be b2 bd a4 b0 9e bd 32 fa f1 3c
       -0.043051068 -0.08727732 -0.07748535 0.029538248
000210 ae 4c 26 bd 2c 6e 37 bc 8c c0 d2 bc 00 3b 95 3e
       -0.04060047 -0.011195701 -0.02572658 0.29146576
000220 63 f2 3e 3e 28 67 76 be 5b 16 e9 3c 3d 66 69 3d
       0.1864715 -0.24062788 0.028453043 0.056982268
000230 ca 2a 88 be a3 48 1a 3e e7 b7 23 be 12 2e a5 bd
       -0.26595145 0.15066771 -0.15988122 -0.08065428
000240 f7 a9 77 3e c6 72 8e bd 32 1e 85 be a3 62 9a 3e
       0.2418593 -0.06955485 -0.259996 0.3015338
000250 44 51 99 bd 1f e8 0a 3e 93 4e e2 bd b3 9a 12 3e
       -0.07486203 0.1356511 -0.11050143 0.14316826
000260 4f 44 bc 3e 1b b7 00 be 20 c9 05 be 6b b9 d2 3d
       0.36770865 -0.12569849 -0.13065004 0.10289272
000270 53 bd 39 bd 74 7d 73 be 4b ef dc bb dc 26 b4 bb
       -0.04534657 -0.23778325 -0.006742393 -0.0054977965
000280 88 68 0d 3e 07 76 75 be b8 3f c8 bd 33 fa 9a 3d
       0.13809407 -0.23970805 -0.097777784 0.07567253
000290 0f 55 e2 bc e2 3f c5 bd 04 8d 8d be 1b cf 7a 3d
       -0.02762845 -0.09631325 -0.2764665 0.061232667
0002a0 d7 fd af bd b3 b6 0c be a3 a4 fb bd 94 1a d4 bb
       -0.08593338 -0.13741569 -0.12287261 -0.006472895
0002b0 24 17 36 3e 59 dc 1e 3e 5e 95 4e 3e 1e 0d 67 3c
       0.17782265 0.15513743 0.20174167 0.0141022485
0002c0 62 9e 68 bd e8 50 a4 3d b9 7d 4a 3e a9 79 bb 3c
       -0.05679167 0.08023244 0.19774522 0.02288516
0002d0 04 2c 1d be b2 94 80 be 2d dd 95 3d bb 57 79 3e
       -0.15348822 -0.25113446 0.073175766 0.24349873
0002e0 6c 6e 2d be ac 79 5d 3e bf 95 20 be b9 fd 30 be
       -0.16936654 0.21628445 -0.15682124 -0.17284288
0002f0 ad c8 b7 bd 29 dd b3 bb 84 b2 5e bb 5d 5a 5b ba
       -0.08973823 -0.005489011 -0.0033980915 -0.0008367652
000300 0f 69 f2 3c fb b8 0d 3d 7f 20 99 be 7e c1 f3 3b
       0.029591111 0.03460024 -0.29907605 0.0074388376
000310 79 c3 f7 bc f6 65 a5 3e 5a db 5e bc 35 52 41 be
       -0.030244576 0.32304353 -0.013602102 -0.18879016
000320 1a dc 83 bd 24 f1 c7 bc cb c9 b2 be ba 6e 02 3d
       -0.064384654 -0.024406977 -0.3491958 0.03184388
000330 b9 f7 63 3d 63 44 5e bd 79 e7 ca 3d 16 04 1a 3d
       0.05565617 -0.054264437 0.09907431 0.037601553
000340 f7 75 0b be 5e 8b a7 be 7b 39 ae 3e c7 99 36 3d
       -0.13619219 -0.32723516 0.3402823 0.044580247
000350 b1 21 12 3e 4e 30 af 3c 58 e4 f5 3b d0 7a d9 bc
       0.14270665 0.021385338 0.0075040273 -0.02654782
000360 04 c3 0b bd 3c 51 0a be 34 81 fb 3d 33 22 3b 3d
       -0.03412153 -0.13507551 0.12280503 0.04568691
000370 1d 85 69 3d 1f 63 40 3d c7 52 c3 3e f5 b3 91 bd
       0.057011712 0.04696953 0.38149092 -0.07114402
000380 97 d3 86 bd c1 25 4f bd 7a f3 3c be 16 d0 1f 3e
       -0.06583326 -0.050573114 -0.18452254 0.15606722
000390 6b f1 f5 bc 35 80 99 3d ab c9 00 be 67 de 7a be
       -0.030022344 0.07495157 -0.1257693 -0.24498902
0003a0 39 0e 08 3e dc 91 44 bd f6 dd 72 bd 2f 6e 08 be
       0.13286676 -0.047990665 -0.05929371 -0.13323282
0003b0 fa 4a 24 3d 27 fe f1 bd 17 40 51 bd 15 81 55 bc
       0.040110566 -0.11816054 -0.05108651 -0.013031264
0003c0 f4 18 75 3e df 03 8c 3e 1d 6f 94 3e 20 a3 35 3c
       0.239353 0.27346703 0.28991023 0.011086255
0003d0 b2 de 2c 3d 1a b0 3f bd 36 62 82 3d c5 bb ec 3d
       0.042204566 -0.046798803 0.063663885 0.11559252
0003e0 1a 46 11 be b8 ae c3 bd e6 a7 8e bb 13 f4 c1 3d
       -0.14186898 -0.09554809 -0.004353511 0.094703816
0003f0 3d 8f c6 bd f4 40 ba 3d fc a5 19 be 00 18 e4 bd
       -0.09695289 0.0909442 -0.15004724 -0.1113739
