results analysis/processed results/PINN/NASA results/5-5/Experiment1/model.pth (torch, 59646 bytes, 14 tensors)

encoder.net.0.weight f4 [60, 17]
00000000: b4f7 333e e461 83bd a6d2 583e bea8 2ebd
00000010: 3f4e 02be 3095 17be 2031 edbd eced 3c3e
00000020: 6583 97bd 16a9 893d 4e8e 55be 8524 ff3d
00000030: 1289 58bd 96ba d63d 7209 11be 5309 cfbd
00000040: 7577 3f3e fc7a 033d 82bb 51bd ebb1 b33e
00000050: 2a6e fa3e f588 ecbc c567 ddbb 4418 f13d
00000060: 5c49 75bd 9aac 653d 98c3 27be 02e6 0c3e
00000070: a00a 4cbd 694b 08be e323 34be 1b80 e23d
00000080: af91 83bd 8c1e e43d 8c4f 3b3d 8f0e cebc
00000090: 6904 c9be 077c 97bd eb62 e3be b220 a43e
000000a0: f96e 34bd 8be6 763d 97b0 b33d 0228 c73d
000000b0: 448d 393d f77e a8be 2f27 1f3e e10d cf3d
000000c0: 2830 183d 8a70 80bd 6ebb 5cbe cd00 863d
000000d0: d70c 973e ae52 c93b a9af d7bc 0954 75be
000000e0: ffa0 c73d cf8e 42be a520 eb3d 87f1 ef3c
000000f0: 3440 52bd 3c16 15be f8c9 4fbe 0b2e 343e
00000100: e715 0b3e e2ac 0f3e 4fae ad3d cdb0 0f3e
00000110: 5745 4fbe 0694 463e 8a07 4e3e 1d13 c1bd
00000120: 9211 fb3c a946 25bd aeaa 2bbd 4d87 80be
00000130: 678c 92bd d97f 01bb d13a 91bd adad 243d
00000140: eed4 62ba 5206 c1bd c235 a13d 0f68 84bd
00000150: 5b39 01bd 3ca2 083e 8233 813d fd75 873e
00000160: b026 5c3e b128 d2bd 507e e5bd 24af 8dbd
00000170: 4dc8 e6bd 50db d3bd c395 a5bc 917a 033e
00000180: bdcb 67be 04a3 1c3d dd80 2a3e 3279 2a3d
00000190: 6913 b2bd 9441 1f3e 3423 68be 6132 a3be
000001a0: e8ed fe3d 6040 bfbd 0a9a a53e c78c 15bd
000001b0: 1db7 8ebd be55 5abb ac70 d8bd 4a2d 103e
000001c0: 7b7c 2e3e 459d 373e 99c5 0b3e 2ae7 a6bd
000001d0: 1fc5 f4b9 d26b cc3d 0293 143e 2e4d f4bc
000001e0: 920f cfbd b56d 1abe 07b3 01bc bc0b 9fbe
000001f0: 4043 87be ac63 bf3e 3c1e 823e b8e2 7e3e
00000200: 63e9 ddbe 026b ccbd 7809 62be d22b 633e
00000210: 9d96 933d 2cea ea3d d7be 20bd a604 bbbd
00000220: ef3d 6d3e 72d1 27be 55cd d6bc 10a8 993e
00000230: a0bc b13e 323f 163d fd42 9bbe 07a6 353d
00000240: b4eb 94bd a77c 823d a195 853e f721 0c3d
00000250: dfbf 20be 08c7 2b3e 8d38 32be d721 94bd
00000260: bfce ec3e 7a4d a5be 182d 803e cbcd 59bd
00000270: 7880 cc3d 44b0 d8bd 7b5f f4bd fcc7 3a3d
00000280: 50cd dabd 0abf 2b3d 5bc5 d8bc 5c3d a43d
00000290: 3d6f b8bc 730f 4cbe 3811 d7bb d731 403e
000002a0: 75f7 ea3d d93f f2bd aece cabe 00cf 073e
000002b0: 9e16 7ebb 1599 ab3d 2c44 2abd c0f6 66bc
000002c0: 6b68 c7bd e5d4 483e 1e91 373e b93b 35be
000002d0: 807e c4bd 7882 053e 6cef 37bd 013e b83d
000002e0: 4889 f03d a969 123e 4a0a 8dbd f79c 1fbe
000002f0: 960e 91bd 3dc3 323d 0a6b 8a3d ecbc 51bd
00000300: 3e28 ab3e 1e52 4b3d e39c dbbd 5178 2abd
00000310: f7b7 3dbd 1599 86bd 728e bcbd 69be 0b3c
00000320: 762d db3d d21e e13d 5e3b 10be 3064 893c
00000330: 6d97 19bc 36fc 11be 69f9 dfbd c885 c2be
00000340: 9865 3d3e 3ed6 11be cb67 283a 0496 993d
00000350: 1fba bcbd 8aef c13d 3f7b 5e3e 7b10 16bd
00000360: e7b2 82bb 1f8e 80bd 4605 3cbe c130 343e
00000370: a49c 71bd 7dac 0f3e 0d93 273c 7fa2 c7bd
00000380: 8eec 053e 559f ff3b 0865 1dbd dc2e 923e
00000390: 574e e83d e0a9 00be 8e74 81be b6c7 a6bc
000003a0: ae52 173e f248 cfbd df98 033d 6967 453d
000003b0: 9abf 163e 09cf 03be f456 213e 0d78 00be
000003c0: 402b 06be 4089 89bd a4ea 0aba 50cb 1a3e
000003d0: a3ce bf3e 6d25 813d b057 3bbe 1d4d 59be
000003e0: e02e a03d 9b38 313e a584 f3bd ce70 4b3e
000003f0: d763 86be e917 d13e cb8a 79bc c515 38bd
0.1757496 -0.064151555 0.21174106 -0.042641394 -0.12725161 -0.14803004 -0.115816355 0.18450135
-0.073981084 0.06721704 -0.20855066 0.124581374 -0.052865095 0.10484807 -0.1416376 -0.101092
0.18697913 0.03209971 -0.051204212 0.35096678 0.48912174 -0.0288739 -0.006756755 0.117722064
-0.059884414 0.05607281 -0.16383207 0.13759616 -0.04981482 -0.13310017 -0.17591815 0.110595904
-0.06424271 0.11138639 0.04573016 -0.025153426 -0.39261177 -0.07396703 -0.44411406 0.32056195
-0.044051144 0.060278457 0.08773916 0.09724428 0.045300737 -0.32909366 0.15542291 0.10110069
0.0371553 -0.06271465 -0.21555874 0.065431215 0.29501984 0.0061438894 -0.026328878 -0.23957838
0.097475044 -0.1899979 0.11480836 0.029289974 -0.05133076 -0.14559263 -0.20291889 0.17595689
0.13582574 0.14030793 0.08480512 0.14032288 -0.20241295 0.19392404 0.20120063 -0.09427474
0.030648027 -0.04035059 -0.04191082 -0.25103226 -0.07155686 -0.001976004 -0.070912965 0.040204693
-0.0008652945 -0.09425034 0.078715816 -0.0646516 -0.03154884 0.13343138 0.063086525 0.26457205
0.21499133 -0.102616675 -0.11205733 -0.06918171 -0.11268673 -0.10344565 -0.020213014 0.12839724
-0.22636314 0.0382414 0.1665072 0.041619487 -0.086951084 0.1555236 -0.22669679 -0.31874374
0.12447721 -0.093384504 0.32344085 -0.03651121 -0.0696852 -0.0033315266 -0.105683655 0.14079776
0.17039673 0.17931087 0.13649596 -0.0814956 -0.00046686173 0.099815026 0.14509204 -0.029821958
-0.10110392 -0.15080912 -0.007916219 -0.3106364 -0.26418495 0.3738073 0.25413692 0.24891174
-0.43342122 -0.099813476 -0.22073925 0.22184685 0.072064616 0.11470446 -0.0392445 -0.09131746
0.23168157 -0.16388491 -0.026220957 0.30011034 0.34714222 0.03668136 -0.30324546 0.04434779
-0.07271519 0.06371432 0.2609072 0.03421208 -0.15698193 0.16775143 -0.17404385 -0.07233017
0.46251485 -0.32285672 0.25034404 -0.053174775 0.09985441 -0.10580495 -0.11932274 0.045600876
-0.106836915 0.041930236 -0.026461294 0.08019516 -0.02251398 -0.19927768 -0.006563332 0.18769012
0.1147298 -0.11828584 -0.3961081 0.13262558 -0.0038770805 0.083788075 -0.04156892 -0.014096916
-0.09736713 0.19612463 0.17926452 -0.17698564 -0.095944405 0.13038051 -0.044906065 0.08996201
0.11744934 0.14298119 -0.06886728 -0.15587221 -0.0708286 0.043643225 0.06758697 -0.05120556
0.3342914 0.04963886 -0.10723283 -0.04161865 -0.04631802 -0.06572167 -0.09206857 0.008529284
0.1070203 0.10992207 -0.14085147 0.016771406 -0.009374482 -0.14256367 -0.10936243 -0.37992692
0.18495786 -0.14241883 0.0006424158 0.07499316 -0.09215187 0.094695166 0.21726702 -0.03663681
-0.003988612 -0.062771074 -0.18361387 0.17596723 -0.058987275 0.14030643 0.010227931 -0.097477905
0.1307852 0.0078009763 -0.03842643 0.28551376 0.11343067 -0.12564802 -0.25284237 -0.020358901
0.14777634 -0.10121335 0.03212821 0.048194323 0.14721528 -0.12871946 0.15755826 -0.12545796
-0.13102436 -0.067156315 -0.00052992464 0.1511662 0.3746234 0.063059665 -0.18295169 -0.21220823
0.07821441 0.1730675 -0.11890534 0.1986725 -0.26248047 0.40838555 -0.015230845 -0.044942636

encoder.net.0.bias f4 [60]
00000000: dd7b 483d aaee 80bd 9be9 913d 9c94 833d
00000010: 0b21 943d 4034 26bd a54a 363d 4d20 463d
00000020: 5535 7bbd 140a 6e3d e71b 7bbd e19d 843d
00000030: 1143 843d d532 18bd 91e8 79bd 835f 453d
00000040: 2abf 9fbc 41be 583d ae17 f0bb 84bb 833d
00000050: 0f3f 8c3d ef05 61bd faf7 873c 959e 05bd
00000060: 59f2 21bd f5b6 86bd 7eed 77bd 4d09 54bd
00000070: 11eb fc3c 371f 86bd 5e3f 9fbd dcac 65bd
00000080: 63a5 813d 0807 81bd 59dc 07bd 1328 df3c
00000090: 951b 483d 05a7 663d a726 a3bd 27bd 85bd
000000a0: 3193 a2bd 0439 953d f4c9 3ebb 960c aabd
000000b0: 5462 8f3a 06e1 a4bc 4fd0 653d fd93 46bd
000000c0: 24e1 d7bc 6e06 03bd b0b7 81bd 3288 f9bc
000000d0: e1e4 743d cd1f 853d e0a6 3b3d b99b 343c
000000e0: bd73 76bc b4dc 603d d5be 83bd cbb2 39bd
0.04894625 -0.062955216 0.07124635 0.06424829 0.07232865 -0.040577173 0.04450478 0.04837065
-0.06133016 0.05811508 -0.061305907 0.064754255 0.064581044 -0.037157852 -0.06101281 0.04818679
-0.019500334 0.052915815 -0.0073270416 0.0643225 0.06847965 -0.0549373 0.016597737 -0.03262194
-0.03953776 -0.06577865 -0.060529225 -0.051766682 0.030873807 -0.065489225 -0.07775758 -0.056073055
0.06330373 -0.06300169 -0.033169124 0.027240789 0.04885443 0.056311626 -0.07966357 -0.065302186
-0.07938231 0.072862655 -0.0029112073 -0.08303182 0.0010939338 -0.02012683 0.05610686 -0.048480976
-0.026352473 -0.031988554 -0.06333864 -0.03046045 0.05978859 0.06500206 0.04581344 0.011023455
-0.015042243 0.05489798 -0.06432883 -0.045336526

encoder.net.2.weight f4 [60, 60]
00000000: 3b81 013e 479d 433c ea0b 5a3e 9879 a93e
00000010: 281b 0cbd d7d7 063d 0335 8d3e c143 e8bd
00000020: 5d93 b63d a6bd 48bd 4dc2 38be 47b7 90bd
00000030: 237f be3c cab2 3d3e 08ac 9cbb d518 e7bd
00000040: c02f e83d 3b1d 8c3c 1cb4 7fbe 22b3 a33c
00000050: 9a3a aa3d d314 c6bd 5d75 5a3d 8e74 6b3c
00000060: dec3 cdbd b17c 9bbd 7a85 11be ea22 ae3d
00000070: 2b5a 083d f18b 60be 9209 1bbd 4838 b9bd
00000080: 3867 83bb 4e25 d5bd 8ddd 673e 8669 e23d
00000090: 76be 97bd 42d2 313c 9a9b 96be 22a5 30bd
000000a0: 728c 8bbc 000b 843d b305 88bd ca3b 153e
000000b0: 92c4 5abc a966 0c3d bcae f33c 9411 a73c
000000c0: 59c1 6dbe 957d 823e 30c5 a0bd 4552 103c
000000d0: 12b2 a83e c8d7 0f3e 3358 083e 9541 2d3e
000000e0: 4bff 0abe 9c7f f23d 377e 34be 135e d7bc
000000f0: 5f13 4e3e 67f1 173d 0de3 b4bd 41c5 46bd
00000100: a3ce 2fbd 7a13 a5bd 5fbe 20be 3ba0 d1bd
00000110: 511b 84be b1bb 99bc aff4 b23d e64c 6b3d
00000120: 5c76 1c3d 579f 8d3d 0622 ae3c 2da7 b7bc
00000130: e18e 5cbe 091e fe3d a8d5 a93d f7f2 9f3d
00000140: bd9f 2cbe f2ae b3bc 49d9 d03d e0bd 143e
00000150: 1718 58be 0de2 a8bd 05b2 c4bd 2e17 58be
00000160: 510f eb3c 18bb 123d 622b fabd 404e bf3b
00000170: ba9e 873d eb6a 83bd 72fd 9e3b d509 8ebd
00000180: 9517 d6bd 9e72 da3d 9d27 14bd ce46 b8bd
00000190: e45a 813d 6841 5e3e 32ef a43d b236 8bbd
000001a0: 4371 9cbd 9ea0 1fbe 47f2 c3bd 9976 cb3d
000001b0: ecf0 83bd 1f73 b53d e7b9 183d 32f1 90be
000001c0: 5925 5e3d dd8d b3be 1b31 1bbe 5564 9f3e
000001d0: 6a22 2ebe d0b3 933e 1826 c73d 5c64 acbd
000001e0: c8fb b13d cf62 f73c 12e0 70bc 0a4b d43d
000001f0: 118f b5bd 8625 02bd 9d24 1f3d 885a cdbd
00000200: 1f7c 3f3d 2db3 463e eccc f2bd efc7 b2be
00000210: c004 a43c b3f7 a3bd 6034 b5bc d773 10bc
00000220: ae79 8a3e fabf 21be 255f 173e ff66 953e
00000230: 7dc5 d3bd 189f 7c3c 2b34 84be efa4 593e
00000240: 1dcd cd3d 9f18 033e eb37 3ebe 1582 07be
00000250: cda3 13be 385a 093e d927 083d e7a1 0f3e
00000260: 08ac 843c 615b 43be 0185 08be 1845 bf3d
00000270: cfe6 193d 9cf0 f03d e857 e1bd 89d7 89bd
00000280: 5f4b 8cbd 7138 99bc b4c7 3cbe b801 1cbe
00000290: a2ad d93d 7d6d 693d b30f e2bd 9389 0b3d
000002a0: e067 2ebc 975b 423e fe1b 23bc ac93 0a3d
000002b0: 8e60 59bd 50be 283e 067d 48bd e1e4 943d
000002c0: bf18 a13d 6ca6 d1be da29 a83d bf79 d23c
000002d0: 0a51 ca3d d82d 893e 6ee9 053e caaf 803e
000002e0: 2ba5 99bd 846a 7c3d d900 c3bb c231 0b3e
000002f0: 9d3f fb3d 06fe 983d ea90 40bd e7e7 fa3c
00000300: 5ad7 39bc 93a3 4e3e d42f 7ebd 6771 b03d
00000310: 0cb0 5e3e 11a1 2abd c8d2 3b3d c614 23bd
00000320: e9c9 583d 6cab 163e 61c9 3cbd 5a53 9bbd
00000330: 8740 9a3e d9fa e33c bba7 93be a658 31be
00000340: a122 f83d 688d 403d a9fc cc3d e9be 553e
00000350: 2471 eabd 569a 893c 67a7 2dbd 9f05 efbd
00000360: c26b 8b3d c00c 9fbd 65e6 9c3d 99b4 2abe
00000370: 1c5f 883e 8940 06bd f64e 343c 357c 54bd
00000380: 0e4b adbd acaa 933d 2053 293e 83c9 d0bd
00000390: e92e a6bd 21ad 8ebd 8e58 213e 853a 22be
000003a0: 665d 00bd 36fd e7bc 2f3b 11bd 1c25 4f3e
000003b0: a589 173d f5fb 3c3c ba1e e5bd d318 6dbe
000003c0: 7913 05be 454d 76bd ffc8 22bc 0d1b b63d
000003d0: 20f6 73bc 6876 e43d ff25 15bd eedb e63d
000003e0: 53dc 023e 27e7 65bd f9af 7b3d c2a4 063e
000003f0: c8b2 86bd bd74 a73e 8f35 7f3d c484 7a3e
0.12646954 0.011939353 0.21293607 0.3310058 -0.034205586 0.032920685 0.27579507 -0.11341048
0.08914826 -0.049008988 -0.1804287 -0.070662074 0.023253983 0.18525234 -0.00478125 -0.11284033
0.113372326 0.017103782 -0.2497105 0.019982878 0.083119586 -0.09671941 0.053334583 0.0143710505
-0.10047124 -0.075921424 -0.14211074 0.08502753 0.033289116 -0.21928383 -0.037850924 -0.09043938
-0.0040101074 -0.10407506 0.22643109 0.11055283 -0.074093744 0.010853352 -0.2941559 -0.043126233
-0.017034743 0.064474106 -0.06641712 0.14573589 -0.01335253 0.03427759 0.029746406 0.020394124
-0.23218288 0.25486436 -0.078501105 0.008808677 0.32948357 0.14047158 0.13314895 0.16919549
-0.13573949 0.11840746 -0.17626272 -0.026289975 0.20124577 0.037095454 -0.08832369 -0.04852796
-0.042921674 -0.080603555 -0.15697621 -0.1023564 -0.2580209 -0.018766256 0.08738076 0.057446383
0.038198814 0.06915157 0.021256458 -0.022418583 -0.21538879 0.124080725 0.08292705 0.07810014
-0.1685781 -0.021934006 0.10197694 0.14525557 -0.2110294 -0.08246241 -0.09604267 -0.21102592
0.028693827 0.035822958 -0.12215306 0.0058381855 0.066220716 -0.06416877 0.0048519904 -0.06935469
-0.10453717 0.10666393 -0.03617059 -0.0899788 0.06316164 0.21704638 0.080534354 -0.06797542
-0.076387905 -0.15588614 -0.09567695 0.0993473 -0.064424366 0.08859848 0.037286665 -0.28309017
0.054234836 -0.3506917 -0.15155451 0.31131235 -0.17005315 0.28848124 0.09724063 -0.084175795
0.086906016 0.030198483 -0.01470186 0.10365875 -0.088651784 -0.031774066 0.038853277 -0.10027033
0.04674923 0.19404288 -0.11855492 -0.34918162 0.020021796 -0.08006229 -0.0221197 -0.008816681
0.2704596 -0.1579589 0.14782389 0.29180142 -0.10340402 0.01541879 -0.2582105 0.21254323
0.10048888 0.12802361 -0.18576019 -0.13233216 -0.14417954 0.13413322 0.033241127 0.14026605
0.016195312 -0.19077827 -0.13331987 0.093393505 0.03757363 0.117646426 -0.11003095 -0.06730563
-0.068503134 -0.018703671 -0.18435556 -0.1523503 0.10628821 0.05698918 -0.11038151 0.034066748
-0.010644883 0.18980251 -0.009955404 0.033832237 -0.053070597 0.16478848 -0.048947357 0.07270218
0.07866048 -0.40947282 0.082111076 0.025692819 0.09878738 0.26792789 0.13077328 0.25134116
-0.075022064 0.06162502 -0.005951029 0.135932 0.12267993 0.07470326 -0.0470132 0.030628158
-0.011342848 0.20179586 -0.06205733 0.0861538 0.21746844 -0.04165751 0.045855314 -0.039814733
0.05292693 0.1471383 -0.046090487 -0.075842574 0.30127355 0.027829574 -0.28838906 -0.17318973
0.1211598 0.047009856 0.100091286 0.20873608 -0.11447361 0.016797226 -0.042395975 -0.11670994
0.068076625 -0.07766104 0.07661132 -0.16670455 0.26635063 -0.03277639 0.011005154 -0.051876266
-0.08461581 0.072102875 0.16535616 -0.10194685 -0.08114416 -0.069666155 0.15756437 -0.15842636
-0.03133907 -0.028318983 -0.035456832 0.20229 0.036996502 0.011534681 -0.11187501 -0.23154001
-0.1299571 -0.060132284 -0.0099356165 0.08891878 -0.014890224 0.11155397 -0.03641319 0.11272417
0.1277936 -0.056128647 0.061447117 0.13148788 -0.065770686 0.32706252 0.062306937 0.24464709

encoder.net.2.bias f4 [60]
00000000: f971 7d3d 156c 793d 2972 a8bc 4aa9 283c
00000010: bb0b 8f3d 1551 8dbd b8ef 573d 6233 4c3d
00000020: a376 95bd d4b9 06bd fd8b 9d3d 1fcf 3c3d
00000030: 7916 cd3d 32c0 87bd 4f15 c0bc 190b 74bd
00000040: de3d 8a3d 0173 1c3d 2368 633d bec7 90bd
00000050: e215 393d da0a 943d 622d 853d 3820 a0bd
00000060: 556d b53d 14bd 83bd 62e4 8f3d fa1a 833d
00000070: 9143 923d 36da 56bd 0a24 11bc bf5a 8a3d
00000080: 593e a0bd 64e1 57bd 2243 863d c9d1 763d
00000090: 5512 1bbd 4353 a3bd 4641 9e3d b048 853d
000000a0: b215 6dbd 3bac cf3b e2e1 20bd 842c a9bc
000000b0: fd1e 863d c76a 683d ee4f 8cbd da11 1e3d
000000c0: b1ba 15bd 71a6 833d be20 213d 733e 9dbd
000000d0: 180e 963d 85c2 8abd 1c36 36bd 0544 a2bd
000000e0: 6dd3 4d3d c0e0 6dbd 7ade 5a3d 4dbf 7b3d
0.06187627 0.06089409 -0.020562248 0.010294268 0.06984659 -0.06900231 0.052718848 0.04985369
-0.07298019 -0.032892063 0.07692716 0.046095964 0.10014052 -0.06628455 -0.02344766 -0.059580896
0.067500815 0.038195614 0.055519234 -0.07069348 0.045186885 0.07228632 0.06502797 -0.07818645
0.08858744 -0.06432548 0.070259824 0.0640163 0.071417935 -0.052454196 -0.00885869 0.0675559
-0.07824392 -0.052705184 0.06555773 0.06025866 -0.03785928 -0.07974865 0.07727294 0.06508005
-0.05788202 0.00633767 -0.03927792 -0.02065111 0.06548879 0.056742456 -0.06851183 0.038591243
-0.036554996 0.064282306 0.039337866 -0.07677927 0.07326907 -0.06775383 -0.044485196 -0.0792313
0.05025046 -0.058075666 0.053434826 0.061461736

encoder.net.5.weight f4 [32, 60]
00000000: 5901 60be 06b3 dfbd cfe5 23bd 91a7 03be
00000010: 91c4 25be 9001 8f3e 67c8 5d3e 997d 3dbd
00000020: cd97 56bd 0a40 ae3d a850 b93e 91c3 3dbd
00000030: 76b2 18be 759b 6dbe a11d 203d bc7a 753d
00000040: f53a 003e d3ee 6a3e 94ad 79be f9c1 f13d
00000050: 8b61 51bd a4e2 d1bc 1efc 263c fb51 883c
00000060: c31d 2e3e 2d4b 5e3e baa7 4d3d c64f c83d
00000070: 0df4 b1bd 0ea1 d2bd e8c0 cb3d 01cd 9c3d
00000080: 099c debc d4f5 613d ea77 373d 4b34 6d3d
00000090: 937e 023e 052f df3a 2555 6ebd ed6a 433c
000000a0: 9d7e 143e e652 f83d 7bb5 513d b49d f73c
000000b0: 6fc5 5f3d 0024 ae3c 743f 9d3e c87b 8b3d
000000c0: 05db ba3d b016 923e 6d09 03be d137 5cbe
000000d0: 8243 4c3d 4385 19bd bf5a a0be fa67 44bd
000000e0: a31d 0d3d 78b2 c23d 21b8 803e bcb0 ba3c
000000f0: 0bb3 8dbe ee68 1cbc ac52 5dbd ce07 12bd
00000100: 9e51 0c3e 5bff a13d 8c7e 90ba 10e6 ecbc
00000110: a95a 23bd 6098 183d 57e5 e0bb 8f01 9d3d
00000120: 6396 4b3e 79e8 b7bd 0543 b83d e272 c5bd
00000130: 6c05 a8bd a261 1e3e 47de 15bd 3bc7 243e
00000140: ade4 f2bd 8695 113e 78a5 b9bc 462d b43d
00000150: fa85 58bd 7b6c 34be 803d 053e 2040 bc3d
00000160: 6107 c4bc 277a a1be fa93 873d f16b 6ebe
00000170: ae66 cdbd 5796 ccbd c269 da3c 291c 6dbd
00000180: eae4 9bbc 3f06 c63c d70d f43e 96dd cebc
00000190: d8cf 953e 1ea9 bf3c 0a7d ba3b f872 c7bd
000001a0: 0f08 94bd 36c9 e3bd 25d9 08be 6fe2 eb3b
000001b0: 3d47 fdbc ab55 debc 0da9 00be 70d9 31be
000001c0: 7e8b d43d 54da 03bd f649 0e3e 2b95 69be
000001d0: d210 24be b8c9 023e 3c9c 95bd 2fdf 7d3d
000001e0: b955 d03d 06b6 89be 9530 c7be 606a 3f3d
000001f0: d807 2dbe 9ac8 a53d 6bff 233e 4804 84bd
00000200: 7206 aa3c 4898 00be f899 28be 13d3 823c
00000210: 23f3 243e a3d4 2b3e b8b8 2cbe 86bc 973d
00000220: ba16 603e 9d74 aabe d40b aabc 91ff 2dbd
00000230: f217 66bc ee56 e63d 49a1 a03c 3ccc 3e3e
00000240: a457 3f3e fd62 a03d 6cbf 9c3e 023b 813e
00000250: e8b1 253e 0324 00be 8527 de3c 28e1 4ebd
00000260: 43f0 3e3d 9d1a 3bbd beba 75be ae8b 59be
00000270: 8c6a aebd 20a4 3e3e 0db6 e13d 7415 8dbd
00000280: a75e 2d3e 6496 babd 265d 8bbd 466b 7f3c
00000290: b0ed 4fbe 40dd 9abd 8592 cabc 2dee 6bbd
000002a0: c46b 6f3d b55f 8fbd 905b 8c3e 570c 61bd
000002b0: 0dd7 083e 4eac 45bd f754 e13d 2018 e3bd
000002c0: 02a1 ddbd 0b15 1cbe 23e4 69be 69ff 813e
000002d0: 6f97 393e 28af 713c 10b4 f83d fbca 5f3e
000002e0: bee7 4d3d 93c7 383e 2876 c3bd e5b5 7b3e
000002f0: 5d60 0e3d 0a09 4cbd 5783 2b3e e702 143e
00000300: 6aaa 6bbe 2b24 9ebe 2108 113d 04f4 5fbe
00000310: 6238 023e f1e5 123e 42b2 95bc a8be 163e
00000320: 7bdd f73d 42ad 093e 21c0 6b3d a98b fa3d
00000330: 5446 d8bd ebbd d6bd edad 9a3a e600 843e
00000340: 3f52 9ebe 3232 80be 9c25 cf3d 2c90 56bc
00000350: fca1 433c a63a 0b3d d890 31bc 6af9 de3d
00000360: 4cd9 06be 4496 953d a5b8 003d 823c 38be
00000370: 9088 a0be 532f b33d 2f8f 003e 8e58 1c3d
00000380: 296a 48bb 4095 48bd 5302 9dbb 429b 1bbe
00000390: ea9e cf3c 73b5 023e dd65 503e fe13 9ebd
000003a0: f3ac e0bb 6cdc 56be c72a 9fbd 4018 383e
000003b0: 7ed9 2f3e 2476 8bbc 2557 1b3e 8033 c93d
000003c0: e0dc e33d 6fdb 38be 46db 723e 0dee 1b3e
000003d0: 9935 81bd 5f9d 473e d1f4 babd 0435 1bbe
000003e0: 80ba 953e db56 81bd 99ee 9d3d a354 4f3b
000003f0: 00c3 81be d86d f03c 4044 f43c b6cd 5f3e
-0.21875514 -0.10922818 -0.040014084 -0.1285689 -0.16188265 0.2793088 0.21658479 -0.046262357
-0.052390862 0.08508308 0.36194348 -0.046329085 -0.14911827 -0.23203833 0.039090756 0.0599315
0.1252249 0.22942667 -0.24382621 0.118045755 -0.051118415 -0.025620766 0.010191945 0.016640654
0.1700354 0.21708365 0.050208785 0.097808406 -0.08689127 -0.10284625 0.09948903 0.07656289
-0.027174013 0.05516608 0.044792093 0.0579112 0.12743597 0.0017027563 -0.05818667 0.011927349
0.14501424 0.121251866 0.051198464 0.030226566 0.054631647 0.0212574 0.30712473 0.06810719
0.09123806 0.28532934 -0.12796564 -0.21505667 0.049869068 -0.037480604 -0.31319234 -0.047950722
0.034452092 0.095066965 0.2514048 0.022789352 -0.2767566 -0.009546502 -0.05403392 -0.035651974
0.1370301 0.07910033 -0.0011024042 -0.028918296 -0.039881382 0.03725469 -0.006863277 0.07666313
0.19881587 -0.089798875 0.08997158 -0.09641053 -0.08204159 0.15466931 -0.036588933 0.16091625
-0.11860023 0.14217195 -0.02266191 0.08797698 -0.052862145 -0.17619507 0.13011742 0.091919184
-0.0239293 -0.31538507 0.06620021 -0.23283364 -0.1002935 -0.099896125 0.026661757 -0.057888184
-0.019030053 0.0241729 0.4766681 -0.025252145 0.29260135 0.023396071 0.0056911753 -0.097387254
-0.072280996 -0.11122362 -0.13364084 0.007198624 -0.030917758 -0.027140459 -0.12564488 -0.17368102
0.103781685 -0.032190636 0.13895401 -0.2281081 -0.16022041 0.12772262 -0.0730519 0.061980423
0.101726 -0.26896685 -0.38904253 0.046732306 -0.16897523 0.08094902 0.16015403 -0.06446129
0.020755026 -0.1255809 -0.16464984 0.015969789 0.16108374 0.16780333 -0.1686734 0.07409005
0.2188367 -0.33292094 -0.020757593 -0.042480055 -0.014043795 0.11247049 0.019608157 0.18632597
0.18685776 0.078313805 0.30614793 0.25240332 0.16181147 -0.12513737 0.027118454 -0.050507694
0.04661585 -0.045679677 -0.23997018 -0.2124469 -0.08516416 0.18617296 0.110210516 -0.068888575
0.16930638 -0.09110716 -0.06804876 0.015589541 -0.20305514 -0.07561731 -0.02472807 -0.05760019
0.058452383 -0.070006765 0.27413607 -0.05494341 0.13363285 -0.048260026 0.11002534 -0.11088586
-0.108217254 -0.15242402 -0.22840934 0.25390175 0.18124174 0.014751233 0.12143719 0.21854775
0.050269835 0.18044882 -0.09544021 0.24581106 0.034759868 -0.049813308 0.16749321 0.14454232
-0.23014227 -0.3088697 0.035408143 -0.21870428 0.12716821 0.14345528 -0.018273477 0.14721167
0.12102791 0.13444999 0.057556275 0.12233669 -0.10560289 -0.10485443 0.0011801102 0.25781935
-0.30922124 -0.25038296 0.10114595 -0.013095897 0.011940476 0.03399148 -0.010837756 0.10887416
-0.1316883 0.073040515 0.03142609 -0.17991832 -0.3135419 0.08749261 0.1255462 0.03817039
-0.0030580855 -0.04897046 -0.004791537 -0.15195945 0.02534433 0.1276453 0.20351358 -0.07718657
-0.0068565547 -0.20982522 -0.07771831 0.17978 0.1717281 -0.017024107 0.15169962 0.09824276
0.11126113 -0.18052457 0.23716459 0.15227528 -0.06309051 0.19493626 -0.09128726 -0.15156943
0.2924385 -0.063153945 0.077115245 0.003163614 -0.25344086 0.029349253 0.0298177 0.21855816

encoder.net.5.bias f4 [32]
00000000: 3293 93bd a988 afbb 731c 52bd 6391 3b3d
00000010: c74c 6dbd 8808 9fbd 4ca8 933d 9a07 61bd
00000020: dcbf 963d 682c 803d ae29 aebd d6b9 99bd
00000030: 3475 573d 481c 96bd 0cff 4dbd 42e5 55bd
00000040: 7ec2 84bd 6ffe 85bd adaa bd3d fb89 a6bd
00000050: be58 b3bd 893b 343d 5360 86bd db86 8fbd
00000060: df64 cfbd 8244 43bd 0dfa 7fbd e17c 0a3d
00000070: 8f46 83bd 7384 a53d 8284 c43d b14b 9f3d
-0.0720581 -0.0053568673 -0.051296663 0.04579295 -0.05793455 -0.07765299 0.072098345 -0.05493889
0.07360813 0.0625847 -0.085040435 -0.075061485 0.052602008 -0.07329613 -0.05029206 -0.05222059
-0.06482409 -0.0654267 0.092610694 -0.081317864 -0.087571606 0.04400209 -0.06561341 -0.070081435
-0.101266615 -0.047672756 -0.062494326 0.0338105 -0.06409942 0.08081903 0.09595586 0.07778109

predictor.net.1.weight f4 [32, 32]
00000000: de74 0c3e 140b 553e cc69 b5bd 91c5 5d3d
00000010: 0eb3 67be 86d6 473d de83 113c d73f 79be
00000020: 221d 8d3e 2db0 07bd 13b0 8c3e 2b30 b4be
00000030: 2be7 bdbc 874a 21be 03fc 36be 503a b7bd
00000040: 0874 283d 57e1 8d3e ad18 ebbc 00d5 a63d
00000050: 9754 a43b 4314 eabd 0e47 32be f168 39bd
00000060: 7106 683e 291b 573d d003 ce3d 78bf 7d3e
00000070: 0bfa 8cbd da1e c33c 1a0d 133d 5ae0 91be
00000080: f3b9 8f3e 6a07 d3bc fe02 9a3c 9f19 1fbd
00000090: eae9 2fba ffbd 4c3d a573 1fbd 3942 3a3e
000000a0: 606d 083e f611 133d 2eb5 0b3e 31dd 893d
000000b0: 7693 6abe 457e 1dbb 9d31 123e 7044 5dbe
000000c0: 47a2 96be c42f 253d 34d1 bebc bafd 0a3e
000000d0: 06a5 593c e40f 4c3d 598b 52be d1b6 813d
000000e0: 2141 9cbd 3497 22be a624 6e3e d21f 5f3e
000000f0: 87a9 4d3d 0a7c f1bd 0b58 073d 3e62 7e3d
00000100: 579b 09be 4681 463e 74eb 373d c769 0c3e
00000110: bee5 a33d d0d0 9abd c13c e2bc 32d5 d53d
00000120: 48f4 88bd e14d 833e 1d40 87bc 1eaa 0e3d
00000130: 9593 e03d 4433 aabe 2aed 0f3e 296f b23e
00000140: 9cae 163e b547 ec3d 81be 943d 5382 913c
00000150: 03e7 84bc bcec 8f3e a4c4 cebd 9ae5 a33d
00000160: cd67 833d 9973 153d 3316 4f3e fcec b43b
00000170: 0657 4ebe 55fe 4bbe f1f7 96be e855 d23d
00000180: 19bc 32bd 13d7 58bd 4eb0 6ebe 47c9 6f3e
00000190: de79 f23d a5cf 2d3e d5ed d03e 4b2e 153e
000001a0: 2aaf d7bc 04fc 5d3d 638f 913d d066 f2bd
000001b0: 738c 96be b487 e13c b032 62be 5983 a3bc
000001c0: a464 7fbe 38bd 2ebd 32f6 353e 28d6 d9bc
000001d0: 5470 3cbc b8c9 79bd d9ff d2bd 2bf4 7ebd
000001e0: e10a e53c 12ac ec3c be56 a9bb 5185 67bd
000001f0: c304 083e 3025 873d 02b7 57be c206 76be
00000200: 9349 c43d 53d7 eabd 022f 46bd 956b b9bc
00000210: bb4a e53d 4a44 81be 0896 07bd fc66 213d
00000220: 7b45 9bbe 02ba e1ba 849a d8bc c54e 60be
00000230: 2859 053c c39b 073e cc3d 273e 7cf1 04be
00000240: 81f3 bc3d 5f69 8b3d de3f 0c3c 42d6 82bc
00000250: 37b4 acbe b6c2 be3d 38da ef3d d352 25be
00000260: b636 51be d7ef 6bbe 5154 043d 33c1 12bf
00000270: 4100 96be 9f98 e5bd 98ff bd3d b84f 0ebc
00000280: b6ea 893d a352 b8bd 9a04 943b 8d37 b93d
00000290: fda7 47be 4bd1 4dbd b508 1a3e 64b9 dabd
000002a0: 6a19 c5bc e997 e3bd 0695 6c3d 75c1 dcbe
000002b0: 85c9 a43e a71a 64be 3cfc 073e 975f 943e
000002c0: 2335 b03d 667c 2ebe 52a7 e3bb 2555 503d
000002d0: fb44 d9bd 6f58 4bbd 364d 053e 024b 483d
000002e0: c26e d73c 6933 1bbd a77b 323e 1ef5 1bbe
000002f0: eaf6 10be aab8 06bd 4dc9 fbbc bc9f 803e
00000300: 967d 35bd c539 01be 2f93 dbbd 1edf 543e
00000310: 4df2 22be b333 063d 2ac7 f03d 5653 903e
00000320: 4fcf acbc ced2 c3bb 9492 07bd 6875 95bd
00000330: d57e a1bd d7b4 1e3e 6218 1ebd 215b 10be
00000340: f143 863c bfb9 163b ee12 91bc 37fb 203e
00000350: 5fa1 97be e090 8abc 911e 2b3e c701 e23d
00000360: 6331 75be 0d08 1fbe ae49 a9be 2a8b 223e
00000370: 96d0 4ebe ba26 bdbd fa34 3e3e 26ed 483e
00000380: aaa8 1a3e 51e0 7abe e2b4 53bd dd7c d93c
00000390: b437 febd adb2 23be 7145 0fbd 394a 7b3d
000003a0: aebd a53d aa61 6abe 6edc 713e 36e3 2bbe
000003b0: 5796 9e3c 6a88 a83d 1999 49be c021 97bd
000003c0: 4903 e43d f4a8 f5be 5f4e ec3d 6399 41bd
000003d0: 5d38 e7bd 8090 053d e453 cb3d 377f 86bd
000003e0: 904c be3e 3f90 89be b447 973e 12d8 c83d
000003f0: 510b 6abe b892 e7bd c5aa c7bd 8349 793d
0.13716456 0.20805007 -0.0885807 0.054143492 -0.22626898 0.04878857 0.008881537 -0.24340759
0.2756129 -0.033127 0.27478084 -0.35193 -0.023181519 -0.15751086 -0.17869572 -0.08946669
0.04112628 0.27710983 -0.02869829 0.08146095 0.0050149667 -0.11429646 -0.17409918 -0.045266096
0.22658707 0.052516136 0.10059321 0.24780071 -0.068836294 0.023818422 0.035901166 -0.2849148
0.28071555 -0.025760371 0.018800255 -0.038842794 -0.0006710576 0.049985882 -0.038928647 0.18189324
0.13322973 0.0359058 0.13643333 0.06731642 -0.22907814 -0.0024031561 0.14276738 -0.21608138
-0.29420683 0.040328756 -0.023293115 0.13573352 0.013283974 0.049819842 -0.2056097 0.063336976
-0.0762961 -0.15877992 0.23256168 0.21789482 0.050210502 -0.11791237 0.03304295 0.06210541
-0.13438164 0.19385251 0.04490228 0.13712226 0.08002804 -0.07559359 -0.02761686 0.104410544
-0.06687218 0.25645354 -0.016510064 0.034830205 0.10965649 -0.33242238 0.14055315 0.34850433
0.14715046 0.115371145 0.07262898 0.017762339 -0.016223436 0.28110301 -0.100961 0.080027774
0.06416283 0.036487196 0.20223312 0.005521415 -0.20150384 -0.19921239 -0.2948604 0.102702916
-0.043636415 -0.052939486 -0.23309442 0.23416625 0.118396506 0.16973741 0.4080645 0.1456844
-0.026328642 0.05419542 0.07107427 -0.11836016 -0.2940403 0.027530529 -0.22089648 -0.019960092
-0.24940735 -0.04266092 0.17769697 -0.026591375 -0.0115013905 -0.06098339 -0.10302705 -0.062244575
0.027959289 0.028890643 -0.005167811 -0.056523625 0.13283066 0.0659889 -0.21065906 -0.24026015
0.09584346 -0.11466851 -0.048384674 -0.022634307 0.11195894 -0.25247413 -0.033102065 0.039404854
-0.30326447 -0.0017221572 -0.026440866 -0.21905048 0.008138932 0.13243012 0.16332167 -0.12982744
0.09226132 0.06807207 0.008560149 -0.015971307 -0.33731243 0.09314482 0.11711544 -0.16144876
-0.20431027 -0.2304071 0.032306973 -0.5732605 -0.2929707 -0.11210751 0.09277266 -0.008685999
0.06734221 -0.09000137 0.00451715 0.090437986 -0.19497676 -0.050248425 0.15042384 -0.10679892
-0.02405997 -0.11112959 0.057759307 -0.43116346 0.32184997 -0.22275792 0.13279814 0.2897918
0.08603885 -0.17039642 -0.0069474364 0.05086245 -0.1060886 -0.049644884 0.13017735 0.048899658
0.02629793 -0.037890825 0.17429982 -0.15230224 -0.1415669 -0.032890953 -0.030735636 0.25121868
-0.04430922 -0.12619694 -0.107214324 0.20788237 -0.15912743 0.032764148 0.117567375 0.2818858
-0.021094946 -0.0059760576 -0.033098772 -0.07297784 -0.078855194 0.15498672 -0.038597472 -0.14097263
0.016389819 0.0022998897 -0.017709222 0.15720831 -0.29615304 -0.016914785 0.16710879 0.11035495
-0.23944621 -0.15530415 -0.33064026 0.158734 -0.20196757 -0.09235902 0.18574896 0.19621715
0.15103403 -0.24499632 -0.051686175 0.026548797 -0.12412968 -0.15986128 -0.034978334 0.06135008
0.08092819 -0.22888818 0.23619244 -0.16785893 0.019358797 0.08229144 -0.19687308 -0.07379484
0.11133439 -0.47980464 0.115383856 -0.04726542 -0.11290047 0.03260851 0.0992811 -0.06567233
0.37167788 -0.26867864 0.29546893 0.09806837 -0.2285588 -0.11307281 -0.097493686 0.060861122

predictor.net.1.bias f4 [32]
00000000: 7a0e 79bd f0ed cb3d 865a c3bd f602 d2bd
00000010: 0328 d43d 118a b93d 42b7 d6bd 627f c3bd
00000020: 8e28 89bd fb70 bbbd c7a5 d23d e873 c7bd
00000030: b2c9 c0bd 711b cdbd d686 ccbd a629 e33d
00000040: 19b0 d43d a47d da3d 4fbd d53d e27b d03d
00000050: f955 d0bd 74f0 bfbd 4a97 debd 1c88 cfbd
00000060: a090 c4bd b88c d23d 5833 143e 378a c73d
00000070: ca8d c9bd f701 e1bd e9e8 cfbd 9d74 ab3d
-0.06080482 0.09957492 -0.0953875 -0.10254471 0.10359194 0.09059537 -0.104841724 -0.09545781
-0.06697188 -0.09152409 0.10285526 -0.09738904 -0.0941347 -0.10015 -0.099866554 0.11091928
0.103851505 0.10668495 0.104364984 0.10179879 -0.10172648 -0.09372035 -0.108687 -0.10133383
-0.095978975 0.10280746 0.14472711 0.09743159 -0.09841497 -0.10986703 -0.10151846 0.083718516

predictor.net.3.weight f4 [1, 32]
00000000: 108f 063d 7280 d53e 1cba 3dbe 8257 78bd
00000010: 5412 5c3e cb81 263e a906 cebe 42c5 26be
00000020: ea75 dcbe fee6 f4bc 88ea 933e 11c5 5dbe
00000030: 95cd 91be 2211 8ebe 908b dfbc da59 c33e
00000040: 702d be3d 6923 d93d 3fbd 6f3d 21a9 513e
00000050: 2aa4 86be b0aa 07be d392 d4bd 5de9 94be
00000060: 8384 c7be 0ab5 453c b4b7 573d 72f6 8e3e
00000070: a985 46be 361c bdbd db35 61be 41e4 763c
0.03285128 0.41699558 -0.18528026 -0.06063033 0.21491367 0.1626045 -0.40239456 -0.16286185
-0.4305871 -0.029895302 0.2888987 -0.21657206 -0.2847716 -0.27747446 -0.027288228 0.3815449
0.0928601 0.10602457 0.05853009 0.20474674 -0.26297122 -0.13248706 -0.10379567 -0.29084292
-0.38968286 0.012067089 0.052665427 0.27922398 -0.19386925 -0.092338964 -0.219932 0.015069068

net.0.weight f4 [60, 35]
00000000: 62b1 d93d 5b56 e33d 8508 ee3d 4e21 2b3e
00000010: 553e 163e 05d7 acbd 51e1 043e 21db 713e
00000020: 235b 39bd 6a3b 993e 0f84 953d 1908 02be
00000030: e474 d8bc 197a 0b3e 83aa 63bc 18d0 093e
00000040: 91a1 0e3c be6d 0e3e 24f3 e53c f9ca c8bc
00000050: 2068 c2bd 178e 183e 66b3 cb3c c86f 35be
00000060: fe97 b63b 8c7c 453e 0409 743e 83e2 0cbe
00000070: 170d 1a3e 367f da3b f570 543e ffba 783d
00000080: 15cd 223e f4f1 853a 4898 9bbd 485b c73d
00000090: d0a9 0dbd 6f25 a43e 2570 9dbc c546 90be
000000a0: dad8 d1bd ff2f 2cbe e81c 3a3d b37c 833d
000000b0: 58f8 44be 2047 ccbd 05c4 5dbd 60a2 51be
000000c0: 2ab4 48be a051 733e 9c37 ddbd 299a 043d
000000d0: cc52 713c 9bec b23d 04e1 9dbd 2b18 b7bd
000000e0: 61fa 223e d6df d93c 7b44 3fbe 9f49 d9bd
000000f0: 41d7 aabc b1a6 863d db30 74bd b0c6 d2b9
00000100: d20c 0c3e 6655 a33d 8ca3 cbbb da96 ef3c
00000110: 7fae f03d b499 4c3e ab71 a83d 14f9 ebbd
00000120: 4b02 bb3c 1254 01bd a9a0 c83d 48f4 6ebb
00000130: fa5e 193d 45eb 70bd 88d3 0b3d 005a 4ebd
00000140: 08eb 8f3d 0155 ecbd 2f2c c2bb 3496 90bb
00000150: 9198 af3d b0f1 8d3d 9257 78bd e605 bd3e
00000160: b33a 523e d83d 8dbd 25eb 26be b7a6 373d
00000170: 6213 a93c e92e 0f3e f288 953d f268 393e
00000180: b4d6 723e 5e5c 04be 2b48 833e 6f1b 8a3e
00000190: 1f28 693e 0919 1cbe 82e3 a23e 46e8 abbe
000001a0: fa10 f3bc 7f64 8cbc 5cac 04be f2c5 6bbe
000001b0: ad74 bb3d 506d 143e bacb 363c b886 42be
000001c0: 1adb 54be bdaf 89bb 20ae 2f3d 526a 53bc
000001d0: 7cc3 9f3d 8455 533c 80b5 1b3e e399 5d3e
000001e0: f504 2fbe 8942 9f3d 5a5e fb3d b67f 523e
000001f0: 0dc0 b9bb 8647 3ebe be38 58be 486c 83bd
00000200: dfe6 613d d5d3 46be abac f03d d8fc ac3e
00000210: 3c87 c33e 3525 ad3d 0ae0 7b3d 2001 c63b
00000220: 9e78 38be f7cb 2abe 79c5 9dbe 1115 54be
00000230: e72e fa3d 3773 053e 849f 503c e9bd 433b
00000240: d76c 0e3e 989a b2bd 7ca2 493e 4852 1a3e
00000250: c756 4e3d 9da4 b93d 6f52 003d 3868 963c
00000260: 4c3f 1abe 350b be3d e6b2 3cbe 47ca f83c
00000270: 22b0 23bb aea5 9a3c b25f 863d d530 dbbd
00000280: 7960 dfbd 0eeb ac3d 1166 6bbe eba0 b2bd
00000290: bc52 34be 7255 413e 15e2 51bd a510 41bd
000002a0: cfe3 3b3d ab85 81bd 99c9 023e 6279 b3bb
000002b0: 4816 053e 61b0 7dbe 80d5 b6bd c10d f83d
000002c0: d8a0 123e 9163 e63c 1f9c 42bc 6676 0b3e
000002d0: 3de9 4a3e 5e30 013d df47 663d 17ff b13d
000002e0: d9bb 353d a794 dabc 9fd8 4dbd 2032 ce3d
000002f0: 20de 5bbe 94cb f13c 0e16 3abe 7a1f 433e
00000300: 9e1f 04be a170 14be 4e0d 45bd 6295 e43c
00000310: 98cf 0ebe 1be4 a73e c9bf 273e ef1a dcbd
00000320: f629 203d be34 603d 0204 2a3c be2a 1c3e
00000330: 1c83 5abe 6d7e b13d 3b10 9b3c 6b2c 133d
00000340: 3e47 acbd 53ff 97bc 94fd d4bc 285f a0bd
00000350: b3ec 1cbe 8eee 21be dfa6 ca3d b47c fc3d
00000360: 3764 b5bb aec0 13be cc49 92be 2037 943e
00000370: 2fb9 623e 5bd3 a63d 7fb9 f2bc 74cf a0bd
00000380: 486d c53d 205b dc3c 1c0c b8bc 0bdf 083d
00000390: 6e7e 0d3c 1f2c 4c3e 35de 6d3d 7ff0 16be
000003a0: e9d6 383d 7672 263d c919 343e e419 043e
000003b0: f95d 8d3e 83b2 afbb 6965 933d 052a 51be
000003c0: 0244 0f3e 2181 123e c130 033c 0c98 17bd
000003d0: 5d74 87bc 9c6d 323e c84f a9bd 7900 8a3c
000003e0: 8af9 62be 0e65 8e3d bbe8 07be fe82 30be
000003f0: d62b 51bd 1b23 a33e ceba edbd 986b 70bd
0.10629536 0.111004554 0.11622719 0.16711923 0.14672215 -0.08439449 0.12976576 0.23618747
-0.04525293 0.29928142 0.07300579 -0.12698402 -0.026422925 0.13620795 -0.013895634 0.13458288
0.008705513 0.13909051 0.02807004 -0.024510847 -0.094925165 0.14897953 0.024865817 -0.17718422
0.005572318 0.19285792 0.23831564 -0.13758282 0.15044056 0.0066679968 0.20746215 0.06072521
0.15898545 0.0010219202 -0.07597405 0.097342074 -0.034585774 0.3205981 -0.019218514 -0.28178993
-0.10246439 -0.16815184 0.045437723 0.06420269 -0.1923536 -0.099745035 -0.054142017 -0.20472097
-0.19599977 0.23761606 -0.10801622 0.03237358 0.014729213 0.08736535 -0.07708934 -0.089401565
0.15915824 0.026595991 -0.18678467 -0.10609745 -0.020854594 0.065747626 -0.059616905 -0.00040202355
0.13676766 0.07975273 -0.0062145647 0.029246736 0.117520325 0.19980508 0.082248054 -0.11522117
0.022828242 -0.031574316 0.097962685 -0.003646152 0.037444092 -0.05881812 0.03413728 -0.0503788
0.070272505 -0.11539651 -0.0059256773 -0.004412437 0.085740216 0.06930864 -0.06063039 0.36918563
0.20530204 -0.068965614 -0.16300638 0.044836726 0.020639125 0.13982739 0.07301511 0.1810644
0.23714715 -0.1292586 0.25640997 0.26974055 0.22769211 -0.15243925 0.318142 -0.33575648
-0.029671181 -0.017137764 -0.12956375 -0.23024729 0.091531135 0.14494824 0.011156971 -0.18996704
-0.20786706 -0.004201858 0.042890668 -0.012903767 0.078009576 0.0128988065 0.15205956 0.21640734
-0.17091735 0.077763624 0.122738555 0.2055653 -0.005668646 -0.18581972 -0.21115395 -0.064171374
0.055151816 -0.19416745 0.11751684 0.33786654 0.38189113 0.08454362 0.061492957 0.0060426146
-0.18014762 -0.16679369 -0.30814722 -0.20711161 0.12215977 0.13032232 0.012733344 0.0029867834
0.13908707 -0.08720893 0.19690889 0.1507045 0.050375726 0.090646006 0.031328615 0.018360242
-0.15063208 0.09279481 -0.1842762 0.03036989 -0.002497681 0.01887783 0.06561221 -0.10702673
-0.109070726 0.084432706 -0.22988154 -0.08722099 -0.17609686 0.18880251 -0.051241 -0.047135014
0.045871552 -0.06324323 0.12772216 -0.0054771164 0.12996781 -0.24774314 -0.08927441 0.12111998
0.1431917 0.028123649 -0.0118780425 0.13619384 0.19815536 0.031540267 0.056220885 0.08691233
0.0443686 -0.026682211 -0.050255414 0.10068154 -0.21471453 0.029516019 -0.18172476 0.19054976
-0.12902686 -0.1449609 -0.04810839 0.027903263 -0.13946378 0.32791218 0.16381754 -0.10747325
0.039102517 0.0547378 0.010376932 0.1525068 -0.21339077 0.08666692 0.018928638 0.035931032
-0.08412026 -0.018554365 -0.025999822 -0.078306496 -0.15324669 -0.15813658 0.098951094 0.12328473
-0.005535628 -0.1442897 -0.28571928 0.28948307 0.22140954 0.081457816 -0.029629467 -0.078520685
0.09639984 0.02689892 -0.022466712 0.033415835 0.0086361 0.19938706 0.05807324 -0.1474018
0.04512683 0.040636502 0.17587961 0.12900501 0.27610758 -0.0053618564 0.07197077 -0.20426185
0.13990787 0.14307071 0.008007229 -0.037010238 -0.016534979 0.17424625 -0.0826717 0.016845929
-0.22165504 0.069528684 -0.13272373 -0.1723747 -0.051067196 0.3186272 -0.11607896 -0.05869636

net.0.bias f4 [60]
00000000: 859c bcbd 4421 1b3e c776 2fbe 78bc d0bd
00000010: bd15 f0bd 7cc7 ff3b 8368 1fbe fd60 ac3c
00000020: ccb7 0dbe dc88 7d3b a1eb 1cbd e49a 743d
00000030: 4f7e bc3c d626 8ebd cc96 88bd 0ea6 9ebc
00000040: ef1b 1fbe d947 0bbd bb9b bd3c 9c4a c23d
00000050: 60b0 4b3c 4d55 14be 1365 793c bc86 dc3b
00000060: d031 143e cd00 f6bc d16f cd3d 970a 6f3d
00000070: 1a98 b83c dd2c a63c b1e4 1a3e da26 84bd
00000080: a17b 003e cbdf 4cbd ad5a 533d cf41 f2bd
00000090: cff5 32be 3de5 113e 3a45 ab3d 0170 bc3d
000000a0: 9d4e 223e c732 9ebd 65ab 273e 0e93 d4bd
000000b0: 6c0e 8fbd 789e a5bc 0b43 803d 3038 a73d
000000c0: 1bd5 5fbd 95c5 12be ce0a 16be db91 4fbd
000000d0: 7abd 95bd f76e 7a3c 0964 1dbd fa2e 113c
000000e0: ca05 3c3c f3c3 d5bd 3d62 133e 63d1 d0bd
-0.09209541 0.15149409 -0.17135154 -0.101921976 -0.11722896 0.007805763 -0.15567212 0.021042341
-0.13839644 0.003868631 -0.03831065 0.059718028 0.023009447 -0.06941001 -0.06669387 -0.01936629
-0.15538 -0.034004066 0.023145547 0.09486887 0.012432188 -0.14485665 0.015221852 0.006729929
0.14472127 -0.030029679 0.10031093 0.05835971 0.022533465 0.020285064 0.15126301 -0.06452723
0.1254716 -0.050018113 0.051600147 -0.11828958 -0.17476581 0.14247604 0.08362813 0.092010505
0.15850301 -0.07724529 0.16373976 -0.10379611 -0.06985173 -0.020217165 0.062627874 0.08165014
-0.054646593 -0.14333184 -0.14652559 -0.050676208 -0.073115304 0.015285245 -0.03842548 0.008861298
0.01147599 -0.10437765 0.14392944 -0.10196187

net.2.weight f4 [60, 60]
00000000: 089d 233d 08c9 bdbd 06f5 043e d123 c03b
00000010: e020 0ebe c19e 22be 9814 d43d c01a ed3b
00000020: 64f2 273e e020 8fbd c844 d73d d64b 2c3d
00000030: c08a 07be 18d7 d23c 91c7 babd b8b3 143d
00000040: cdce 8a3e f3af 923d d680 073e dbf9 033e
00000050: 0902 8dbd d250 a23d ee71 e3bb 89e9 cfbc
00000060: d618 a13d 290f 523d ebb5 fbbd 27ee eebc
00000070: e95c c23e 1ec7 da3d d933 4b3e 8c1a fb3c
00000080: e21c 473a 8544 ecbd e25e 9b3d a601 dabc
00000090: 2251 9d3b 5ec2 70bd a4fb db3d 24b6 1b3d
000000a0: d8e5 99bc ba4b db3d 2ba7 c73d 9d0d 26bd
000000b0: 74ee d53d 441b 52be 4ddf ccbd 5075 80bd
000000c0: bf6e e43d ea7e b83d 5ccd 503e 1b25 063d
000000d0: 1893 413d e08d 5c3e 70dc 523e b487 c6bd
000000e0: 21fe c83d 0cb2 83bc 3949 95be df0f 173e
000000f0: 2dfb 8c3d 13a0 6b3d 8501 663d d675 c93c
00000100: b078 e1be b6e9 2cbd 15a6 573d 3fc7 88be
00000110: 1763 02bd 86fc 133d 81ba 463e 2473 743e
00000120: 87b4 23be d8f1 6fbe 0a65 503d 4145 bbbd
00000130: fbfa 64bc a844 4abd 3afd 71be 5a2d 3b3e
00000140: 7e1c 103c 69d0 903d dd0f 903e 40a2 59bd
00000150: 54e1 903d f50f 9cbd 6875 84bc 662c 843d
00000160: 1117 ac3c 31d4 c9bd 80ea 163d ee70 5cbd
00000170: 8ffc 593d 1b39 413e f13f 52bd 9240 2cbe
00000180: 8245 843d d1b4 b83d 3dc9 593d 8259 10bd
00000190: 743f 013e 9719 34be 46be e0bd 3cc4 3c3e
000001a0: 971e 003e f640 a5bd e844 adbd 8eef 01be
000001b0: 2144 7ebd e466 f0bd 3626 06be 5c58 2dbd
000001c0: 39cd ed3d 981d be3d d971 32bc 18cd b33d
000001d0: 026b 093e 51bf 423d 551f 23be 2201 133e
000001e0: 3706 0fbe 2b54 3abe 6302 7abd 4233 febd
000001f0: 8850 a1bd c43e 9e3e d72b dfbc 6c0e b03d
00000200: f8f6 0abd 1fbd 3dbe 3017 f93c 45b6 77bd
00000210: c06c 9abc da7b 773e e2ca 0b3e 02a2 debc
00000220: cd41 253b 0d42 9fbb 2845 ddbc 753b d2bd
00000230: 3356 d5bd 7d1f 4dbd 5cf0 abbc 0453 883e
00000240: cf72 47be 2eed d03d b60f d43d 068a a8bd
00000250: b81f 613d db1b 00be 2a29 ef3c ec6f 653d
00000260: 8aee f23d 4ff6 0f3e 50d9 89bd a410 a0bd
00000270: df59 773c 12c1 873d a3f6 993d 7541 39be
00000280: 3c96 53bd 9464 ba3d ac5e 403d 101e 463d
00000290: 94ee 48bb 4151 c9be 76c9 c7bd 3b34 063d
000002a0: b78a ff3d ed32 fa3d b2da 04be 04c0 783d
000002b0: ead2 f0bd bca4 ef3d 8a8c 2e3e 1c9a 1a3d
000002c0: c1fc 393e 549e 363c 1104 153d 0cd5 d83d
000002d0: ca82 2fbe be08 06bd 4ff0 ccbd 1801 0c3e
000002e0: 824b 4b3d 72cf ccbb 69b1 eebd aea7 44bd
000002f0: 9189 873d 8d40 0b3e 4b9e 203c 5ad2 75be
00000300: 8c10 f1bc fa2b cf3d 0fc6 643d 8367 a9bc
00000310: b4ec 463c a2d5 fe3d abf5 b3bd f444 86be
00000320: c836 1e3e d75f 5a3b 3780 833d 271a d0bd
00000330: 8a08 86bc 7918 be3d ed89 caba 7a5a 9d3d
00000340: 338e 19be c602 593c 8621 d63d c090 bd3d
00000350: 86fe 103e 8eaf 1ebc a574 b83d d809 0c3d
00000360: 1539 ea3d 6f2b e63d e7ec 9c3d 0bf7 91bd
00000370: 9ded 2e3d af76 05be 6f61 69bc 1722 ea3d
00000380: 5418 753d d90e 2d3e b406 3abd c723 99ba
00000390: d991 1c3e 1c44 bc3d f388 e73d b9ae a13c
000003a0: ee5e 273e f821 87bd b9d9 4ebd 26cf a0bd
000003b0: edd6 bb3d c1bc bcbd 26e0 ffbd f829 b5bd
000003c0: 0d12 dabd cec2 f1bd 7fcd 81bc 8906 64be
000003d0: 2f76 9abc 0e28 823e 8b98 25be 3299 62be
000003e0: 9056 c4bd 731e 013e 1664 58be a8c7 19bc
000003f0: 053e 0f3a 9470 2e3e a529 173e c60f 823e
0.03994468 -0.09266859 0.12984094 0.0058636446 -0.13879728 -0.15880872 0.103554904 0.007235855
0.16401058 -0.06988692 0.10511166 0.04206451 -0.13236523 0.02573733 -0.091200955 0.036304206
0.271109 0.07162466 0.13232741 0.12888281 -0.06885154 0.079255715 -0.0069410717 -0.025379913
0.07866065 0.05128399 -0.122905575 -0.029166294 0.3796151 0.1068251 0.19843997 0.030652307
0.00075955514 -0.115365066 0.07586457 -0.026612114 0.0048009316 -0.058779113 0.10741356 0.0380155
-0.018786356 0.10707803 0.09748682 -0.040540326 0.10445872 -0.20518214 -0.10003529 -0.062723756
0.11153936 0.09008582 0.20390838 0.03275023 0.04725942 0.21538496 0.20591903 -0.09693852
0.09814096 -0.01607611 -0.29157427 0.14752148 0.068838455 0.057525706 0.056153793 0.024592321
-0.4403739 -0.04221507 0.052648623 -0.26714513 -0.03183278 0.036129497 0.19407083 0.23872048
-0.15986834 -0.234321 0.05087761 -0.091440685 -0.013975854 -0.049381882 -0.23631755 0.18279019
0.008795856 0.07071001 0.28137103 -0.05313325 0.07074228 -0.07620231 -0.016169265 0.06453781
0.021007093 -0.098549254 0.03684473 -0.053818636 0.053219374 0.1886944 -0.05133051 -0.16821507
0.0645857 0.09018863 0.05317043 -0.03524161 0.12621862 -0.17587887 -0.10973792 0.18434232
0.12511669 -0.08069031 -0.084604084 -0.12689039 -0.06207669 -0.11738375 -0.13100514 -0.042320594
0.11611409 0.09282988 -0.010891401 0.08779353 0.13419726 0.047545735 -0.15929921 0.14355901
-0.13967215 -0.1819617 -0.061037432 -0.124121204 -0.07876688 0.3090726 -0.027242584 0.08596501
-0.033926934 -0.18529175 0.030406564 -0.06047656 -0.018850684 0.2416834 0.13651612 -0.02717686
0.0025216222 -0.004860169 -0.027010515 -0.10265247 -0.10416832 -0.050078858 -0.020988636 0.26625836
-0.1947739 0.102014884 0.10354559 -0.08229451 0.05496189 -0.12510626 0.029194433 0.05601494
0.11861904 0.14058803 -0.06730902 -0.07815674 0.0150971105 0.06628622 0.07517745 -0.18091376
-0.051656947 0.09101215 0.046965286 0.048368514 -0.0030659782 -0.39319804 -0.097552225 0.032764655
0.1247763 0.122167446 -0.1297405 0.060729995 -0.11758979 0.117013425 0.17045799 0.037744626
0.18162824 0.011146147 0.03638083 0.105875105 -0.17139736 -0.03272318 -0.10006773 0.13672292
0.049632557 -0.0062503153 -0.11654932 -0.048011474 0.066180356 0.13598843 0.009803365 -0.24006024
-0.029426835 0.1011581 0.055852946 -0.020679241 0.012141395 0.12443091 -0.08787092 -0.26224482
0.15450585 0.0033321285 0.064209394 -0.10161238 -0.016361494 0.092820115 -0.0015452482 0.07683273
-0.14995651 0.01324529 0.10455613 0.092561245 0.14159593 -0.00968541 0.09006623 0.034189075
0.11436669 0.11238753 0.07662373 -0.07127198 0.042707074 -0.13033555 -0.014244421 0.11432283
0.059837654 0.16900195 -0.04541655 -0.0011683636 0.15290011 0.09192678 0.11305418 0.019736635
0.16344807 -0.06598276 -0.050500605 -0.078520104 0.09171853 -0.092156895 -0.12493925 -0.088458955
-0.10647974 -0.11804734 -0.015845058 -0.22268118 -0.018855182 0.25421184 -0.16171472 -0.22128752
-0.09586823 0.12609272 -0.2113193 -0.009385981 0.0005464259 0.17035133 0.1476198 0.2540266

net.2.bias f4 [60]
00000000: 90a1 9fbd 2f87 793c 5cbe 4bbd 9f16 cfbc
00000010: 3680 6dbc 78e2 c03d e4ba 53bd 5a21 c3bd
00000020: 45a5 d5bb 6d8c 5fbd f7fc d1bd dbd4 8bbd
00000030: 4b56 b93d 51dc 91bd ac6d a7bb 1dfb 273d
00000040: b1a5 643c 82fe 9ebc 16f9 fa3d 7047 ba3d
00000050: f295 d33c 78c8 a5bd 44d7 d7bd 634c 043d
00000060: 48a7 f8bd 186a 873d b48e 5f3d f09b 853d
00000070: 27e2 94bd 56af 1f3d 5fb6 8abd 77b7 383d
00000080: 572e bb3d c4ab bebc b1b2 febd 8cd1 b53c
00000090: 17ff 4b3d ceeb 69bc fc50 08bd 5f54 4bbd
000000a0: a26a f0bc 8f9d e93d eece 8cbc 9e32 033e
000000b0: 3ebb b63c 0410 abbd 5c2b 8cbd 9f89 d63d
000000c0: e56d 043e 4f35 0d3d 9e6d e8bd b8e4 023e
000000d0: 703a 433d f287 6b3d db11 26bd 18ef aa3d
000000e0: eb87 a93d 431e 25bd 05ca a13d a637 e93d
-0.077944875 0.015229984 -0.049742088 -0.025279341 -0.0144959 0.094181955 -0.051691905 -0.09527846
-0.006519946 -0.05457728 -0.10253327 -0.06827708 0.09049662 -0.071221 -0.0051095095 0.041010965
0.01395552 -0.019408468 0.122545406 0.09095657 0.025828335 -0.08094877 -0.105391055 0.03229941
-0.12141281 0.06612033 0.05457945 0.06523883 -0.07269698 0.038985573 -0.06773066 0.04509684
0.09139698 -0.023275264 -0.124364264 0.022194646 0.04980382 -0.014277412 -0.033280358 -0.04964101
-0.029347721 0.11407005 -0.017188516 0.12812278 0.02230608 -0.08352664 -0.06844208 0.10475468
0.12932546 0.034474667 -0.11349033 0.12782562 0.047663152 0.057502694 -0.040544372 0.08346385
0.082778774 -0.040312063 0.0789986 0.11387567

net.5.weight f4 [1, 60]
00000000: 9f54 3dbd a501 95be 003e a3be 12f0 d83e
00000010: f05c 6b3d a0d9 393c ab8b b6be 0896 263d
00000020: 8d1c 4c3e 74f4 523d d24c d13d 3843 b43c
00000030: 5a47 373e b70d 4a3d d0ab 4e3e e027 4abe
00000040: a5b3 e83d 22b1 8e3e 526e 7f3e 2bd9 2f3e
00000050: edc5 6fbd 9bc3 c73d a3a6 2ebe 3be4 b9bd
00000060: 5be0 963d 1d42 a73d 45bd 803e 38a0 63be
00000070: b584 ec3b c74d 3a3e d413 11be f740 3cbe
00000080: 8702 ccbd 2d76 253e 2369 473b 860e 813d
00000090: b58f e73c 46c2 b23c b5cb d13c e92a 64be
000000a0: b430 b3be 46cb 4fbe dfa1 313e dd8e 02bd
000000b0: 4acf 6c3e 1b45 113c 259c 8abc 362d a13e
000000c0: f26f 2abe 7684 213d c302 c2bd 85f1 313e
000000d0: 8c15 acbd 42a3 343d c807 d4ba 2729 2fbe
000000e0: 142a 683c 51d9 883b 6ab7 033e 1ec1 393d
-0.04622328 -0.29102817 -0.3188324 0.4237066 0.05746168 0.01134339 -0.35653433 0.040670425
0.19932766 0.05150266 0.102197304 0.022004709 0.17898312 0.049329486 0.20182729 -0.19741774
0.113623895 0.27869517 0.24944428 0.17172687 -0.058538366 0.09754106 -0.17055754 -0.09076735
0.07367011 0.08166907 0.251444 -0.22229087 0.0072179683 0.18193732 -0.1416772 -0.18384157
-0.099614196 0.16158362 0.0030427657 0.06301598 0.028266767 0.021821152 0.02560983 -0.22281994
-0.34998095 -0.20292386 0.17346905 -0.031874526 0.2312595 0.008866574 -0.016920159 0.31479806
-0.16644266 0.039432965 -0.09473183 0.17377289 -0.08402547 0.044101007 -0.0016176635 -0.17105542
0.014170188 0.0041762968 0.12862936 0.045350187
