results analysis/processed results/PINN/NASA_dqdv results/1-1/Experiment2/model.pth (torch, 61182 bytes, 14 tensors)

encoder.net.0.weight f4 [60, 18]
00000000: 0ede 05be 23d0 30be c099 f0bd 953b 033e
00000010: 0b88 9f3e 5e90 08be b40e 39be e825 f23c
00000020: fce4 8e3d 8942 a1be 3b34 b63e 996c 03be
00000030: 6906 b93d dc7f ec3c f1d4 283d 0fb4 003e
00000040: 353f 083d 722c 51bd 5a99 35be 00fd a6be
00000050: 9562 4b3e c219 25bd 3202 b0bd 4490 3abe
00000060: 726b c53e 3d01 2cbe d6b6 edbd 965e c8be
00000070: dcef 693e 41d2 09be 0d29 dbbd 2862 67be
00000080: e5c6 e6bd 2928 913d 3f86 983d bf4b 483b
00000090: 3556 a1bd c004 62be 28b5 c23d 4fda 2d3e
000000a0: 9365 c139 53ed 4dbc aeef 4a3e 537f 5dbc
000000b0: 851c 433e b0c7 e63d 41cd a23e 429a 783e
000000c0: 5c6d 203e 9422 44bd e0c3 d9bd 1721 ac3d
000000d0: e449 91be cb86 903d 80f0 fdbd fd0d 463e
000000e0: b2f5 b3bd 929f 83bd de6b 8b3e 26b0 cb3d
000000f0: ec9f c2bd 466c c63d 4b30 c43e e021 653b
00000100: c01b 363e 1825 e33d 1b77 2dbe 266f 653a
00000110: 5f14 2e3e 6ebd 56be 10c3 e73c 1aa9 8bbe
00000120: 8ed8 c1bd 31ef a1bd d4ca 1dbe a715 83bd
00000130: 64cf 2dbd 8390 8cbe 2f8d d5bd 436f 80be
00000140: e9ee 303d 5da8 91bd 9466 df3d 9398 bbbd
00000150: 6ef5 03be 6d33 b3bd e586 9ebe 1a5c 433e
00000160: 5184 b5bc 94f5 833c a0f2 b0bd 760c 0bbe
00000170: e883 3c3d 3b24 e2bd b29e 2e3e 8e65 63be
00000180: 6cdc 0dbc 38be 2cbe 93a9 72be 2a18 93be
00000190: 8d25 ffbb 9f62 19be dbcf 843d 6b90 b6be
000001a0: 8b65 fabd ac91 7abd 4509 d73d c82f 643d
000001b0: 3099 8b3e 3511 b03b 397e c9be f055 7d3d
000001c0: b816 4e3e 47bb dcbb dca2 f3bc e826 c5bd
000001d0: f042 80be 310e 1fbd 9553 12bd aed0 e23c
000001e0: a395 2bbd 61e1 3f3e 6666 5d3b eab7 43be
000001f0: c5c8 14be 9bc9 cabb 74c2 8c3d 8c1b b83e
00000200: 8346 3d3e 5e79 24be ea60 2ebe 62cc ecbb
00000210: 3edd de3d 08a4 293e c74b 9c3d 36f6 edbc
00000220: 7bd6 a0be 2735 ba3d 3d1b 11be 7069 883d
00000230: 51b0 27be fc04 20be 2b5f 4f3e 9986 de3d
00000240: aa14 8cbd 3899 883e 82a8 e7bd 9354 963e
00000250: 6efa c43d 8079 9cbc 6337 c1bc 45c2 bdbd
00000260: c162 4d3d 49ec 0f3d 3d3f 313e 5244 373c
00000270: 4609 8d3d f1ea 233e a625 3bbe 6616 0e3c
00000280: 2f83 fb3d 4c6a fe3c b8e8 8d3d 226a 70bd
00000290: d045 943d 054c 9e3d 8bba 9a3b 9895 93bd
000002a0: 9678 2b3e c21d a3bd 235c dd3e 73c8 e6bd
000002b0: d957 95bd 02f0 13bd b476 64bd 5483 073e
000002c0: 2bf4 04be b464 acbd 7506 8a3d fb66 a43d
000002d0: 8706 bfbd bdd8 133e d2b0 67bd 8b22 903d
000002e0: f52e 25be a18b 13be 924d 863b 7531 62be
000002f0: 36d6 e8bc 4a97 1abe a7af 33bd b50e 15be
00000300: 4632 c53d 189f be3d 2733 9cbc 0148 a93b
00000310: 4966 01be 9415 41be 23b8 58bd ec96 ae3d
00000320: ae43 843d fd89 44be b58b 6d3c 9a77 f23d
00000330: 3ad7 263e 9ecd 823e 81ff 8b3d c872 cb3e
00000340: 1c68 893e f412 8f3e 45d2 e73d d2d5 913d
00000350: a0e0 1e3c e6c0 17be 7cbf a2bd 5399 18be
00000360: 9dc3 bfbd b593 b7bc 18ca 1a3e 9bf4 863e
00000370: 71e8 383e cdb1 26be ab68 3abd 05b0 f33a
00000380: 10fe 71be 3538 70be bb22 8c3d 7f2c 00be
00000390: 14ff 66be c55e 733d ad9e 163d af2c 1e3d
000003a0: 37d6 3cbd 9d24 60be 08a6 eb3d f1b7 e83c
000003b0: 6e69 893e 9483 0c3e 620a 82be 390f 6e3d
000003c0: 73b8 1bbe fe12 a0be 833b a83d bffe 4fbc
000003d0: fb91 0c3d b4ca 40be 1112 bb3e 2cdb 0e3e
000003e0: 762a ecba 3915 97bd 3a15 70bd 06de 2fbc
000003f0: d135 6a3e a87d 833c df44 263d 9421 383e
-0.13072988 -0.17266898 -0.117480755 0.12815697 0.3115848 -0.13336322 -0.18072015 0.02955909
0.06977269 -0.31496075 0.35586724 -0.12834395 0.09034426 0.028869562 0.0412187 0.12568687
0.033263404 -0.051067777 -0.1773428 -0.326149 0.19861825 -0.040307768 -0.08594169 -0.18219095
0.38558537 -0.16797347 -0.11607139 -0.39134663 0.22845405 -0.13459112 -0.10701189 -0.22596037
-0.11268405 0.07087738 0.074474804 0.0030562726 -0.07877771 -0.22072124 0.09507209 0.1697781
0.00036887507 -0.0125687895 0.19817993 -0.013519126 0.19053848 0.11268556 0.3179722 0.24277595
0.15666717 -0.04788454 -0.10633063 0.08404749 -0.28376687 0.0705696 -0.12399387 0.19341274
-0.08787097 -0.0642692 0.27230734 0.09945707 -0.09503159 0.0968862 0.38318095 0.0034962818
0.17784023 0.110910594 -0.16939966 0.0008752219 0.16999958 -0.20970699 0.028291255 -0.27277452
-0.09465133 -0.0790695 -0.15409404 -0.06400614 -0.04243411 -0.27454004 -0.10427319 -0.25084886
0.043196592 -0.07112191 0.10908237 -0.091599606 -0.12886593 -0.08750043 -0.3096229 0.19078103
-0.02215782 0.016108312 -0.08640027 -0.13578972 0.046024233 -0.11042067 0.17052725 -0.22206709
-0.00865851 -0.16869438 -0.236975 -0.28729373 -0.007786459 -0.14979027 0.06484958 -0.35657057
-0.12226399 -0.06117408 0.10499815 0.05570963 0.2726531 0.005373145 -0.39354113 0.061849535
0.20125854 -0.0067361924 -0.029740743 -0.096265614 -0.2505107 -0.038831893 -0.03572424 0.027687397
-0.04189075 0.18738319 0.0033782958 -0.19113126 -0.14529712 -0.006188584 0.068730265 0.35958517
0.1848393 -0.16061923 -0.17029157 -0.007226513 0.10882042 0.16566479 0.07631641 -0.029048067
-0.31413636 0.09092169 -0.14170547 0.066607356 -0.16375853 -0.15626901 0.20251147 0.10865516
-0.06839879 0.26679397 -0.11311437 0.293614 0.09618078 -0.019100904 -0.02358598 -0.092655696
0.050143007 0.03513745 0.1730928 0.011185722 0.068865344 0.16007592 -0.1827608 0.008672332
0.12280881 0.031056546 0.06929153 -0.058694966 0.07239878 0.07729343 0.0047219447 -0.07206267
0.16745219 -0.0796466 0.43234357 -0.112687014 -0.07292146 -0.03611756 -0.055777267 0.13233691
-0.12983768 -0.08417645 0.06739513 0.080274545 -0.09327417 0.14438148 -0.056565113 0.070378385
-0.16131194 -0.14408733 0.0040986026 -0.22089179 -0.028422456 -0.15096775 -0.043868687 -0.14556392
0.096287295 0.093076885 -0.01906736 0.0051660542 -0.12636675 -0.18855888 -0.05290998 0.0852488
0.064582214 -0.19193263 0.014498641 0.118392184 0.1629304 0.25547498 0.06835843 0.3973601
0.26837242 0.27944148 0.113194026 0.07120861 0.009697109 -0.14819679 -0.07946679 -0.14902239
-0.09363482 -0.0224093 0.15116155 0.26358494 0.1805742 -0.16278763 -0.045509975 0.0018591887
-0.23632073 -0.23458941 0.06842562 -0.12516974 -0.22558242 0.05941655 0.03677242 0.038616832
-0.04610273 -0.21888967 0.11506277 0.028408023 0.2683825 0.13722068 -0.25398546 0.058119986
-0.1520708 -0.3126449 0.08214476 -0.012695014 0.034318905 -0.18827325 0.3653722 0.13950795
-0.0018018025 -0.07377095 -0.058613993 -0.010734087 0.22872092 0.016051129 0.040593024 0.17981559

encoder.net.0.bias f4 [60]
00000000: 0566 6bbd 2ab2 a2bc 401c 5ebd b8dd 6bbd
00000010: 70cd 4fbd 3734 263d f5c7 ae3d 3958 553d
00000020: d2f2 653d c3c1 b13c 05df c43c bab7 64bd
00000030: f936 183d 7a5b 5d3d 501f 853c 3e92 59bd
00000040: 82b4 94bd 8e4d 3d3d bdb9 833d 096f 5f3d
00000050: da99 993c 86a2 f23c 0775 4b3c 27ac 303d
00000060: 5aa7 0f3d d7a2 53bd 3e5d 2e3d 8fb3 723d
00000070: d3c8 a4bd dd17 123d 03ab 2f3d cbad 18bc
00000080: 32f5 20bd e1df edbc 5886 b3bc 081c 1cbd
00000090: 0896 14bd 99dc 72bd d986 263d e47d 9e3d
000000a0: 0230 40bd 0121 25bd 2c67 5fbd ecdf 463d
000000b0: 6a64 55ba a93e 223b e286 d33c 6a73 553d
000000c0: bb4e 053d 8dd2 54bd 48ca 87bc 2ca0 68bd
000000d0: ac6a 69bd f43e 2bbb 5dd9 77bd 2cc0 563d
000000e0: 6b6e 8cbd a435 c1bc cfa9 15bd b3ea 4dbd
-0.05747034 -0.019860346 -0.05422616 -0.057584494 -0.05073303 0.04057714 0.085342325 0.05208609
0.056139775 0.021698838 0.024032125 -0.055839278 0.0371618 0.054042317 0.016250283 -0.053117983
-0.07260992 0.04621654 0.06431911 0.05454925 0.01875012 0.029618513 0.012418038 0.043132927
0.03507171 -0.051668968 0.04256939 0.05925327 -0.08046117 0.03566729 0.0428877 -0.009318779
-0.039296336 -0.029037418 -0.021914646 -0.03811267 -0.036275893 -0.05929241 0.040655944 0.077388555
-0.046920784 -0.040314678 -0.05454175 0.048553392 -0.0008140268 0.0024756587 0.025821153 0.05211202
0.032545786 -0.05195861 -0.016575947 -0.056793377 -0.056986496 -0.0026130052 -0.06051003 0.052429363
-0.06856998 -0.023585148 -0.036538895 -0.050272655

encoder.net.2.weight f4 [60, 60]
00000000: 7fb8 cabd 62c6 8e3b b321 d7bd dd93 debd
00000010: 3dcf 8a3e ec05 0bbe 23d7 6abd 3c1b b2be
00000020: 5a64 8a3d a85e 83be 80c0 8bbd e21b ac3d
00000030: ef32 01bd 86c5 30be 33fa a1bc deac f73d
00000040: 42f1 19bc 8c4c b6bc 9d67 8ab9 9282 63bd
00000050: 5cdb 583d 7422 2fbd 235d 193e 17ab a7bc
00000060: 8309 92bd aa7f 7ebd 76f7 e93c 89fa 52be
00000070: b942 e53d 26c7 02be 4d19 573d 0a17 2b3e
00000080: a7b7 24be 523e b9bc 113b d53d 947e 68be
00000090: 7631 983e 0b27 0e3e 5c8d 953c d254 0c3e
000000a0: 6aed 50bd 6815 8b3b b09b 98bd 032f a2bd
000000b0: 0368 1fbd 8c91 b03c 27f7 0fbe 3f08 af3d
000000c0: 4ba5 7a3d bed4 903e e5b5 123e e17a 6e3d
000000d0: 3141 063e 9673 04bc 5f13 533d f0a2 c0bd
000000e0: de7c 0d3e 3aa2 f2bd 4bec 873b b304 75bd
000000f0: 45e9 203e 8e44 31be 383d a73d d135 0a3e
00000100: ef4f d3bd d13f 4e3c 197b 153e f475 053e
00000110: 144c 1b3e f397 ba3d a9a6 5f3d 0351 b6bd
00000120: 2687 303e 2412 e63d dd11 a4bd a62a d83d
00000130: 2547 12bb cc2f f1bd a49f aa3d 2d4e 2a3d
00000140: bbca ad3d 473b f3bd 7565 98bd 67e0 9fbd
00000150: 789e 06be e5df 92be 9850 8abe 07c1 623c
00000160: 7125 2e3d cc70 183e f5fd 11bd 529d c33d
00000170: 0002 033d 2bb4 cf3a e13c 43bd 331e b1bd
00000180: 7c76 b8bd 7aa3 82be 1fe1 31be d98a 053d
00000190: e81f e4bd 59d2 47be 5384 a83c a45e 40bd
000001a0: 82a2 10be 962d cbbd caee 88be 7da1 1d3e
000001b0: 62ef d23c 5d25 e5bc d8a5 cbbd 777d dfbd
000001c0: 4daa 56be ad67 8cbe a133 113d bc67 b3bc
000001d0: f9bb 983d 9dd9 123e dc2a 16bd f0e2 b5bd
000001e0: be9a debd 4c16 093e 3426 28bd 6843 efbb
000001f0: e290 f03d f8e9 98bd 76fc 383e a3c9 763d
00000200: 5452 8cbd d246 fcbc 89d9 86be 0537 67bd
00000210: 50e7 803d 12fe a83d 238e 0c3d 9a54 143d
00000220: 56cd c9bd ff61 fa3d 86f5 4c3e 1cec 78bd
00000230: d113 66bd b166 08bb f0a4 a5bd b7df a4bd
00000240: 7882 02be 1170 b83d 373e 99bc 2f03 4ebe
00000250: 3c77 1bbe 81da 94be 8e19 003e cc5b a03c
00000260: bfd4 d3bd 78f2 b63d a2ce 04be 08ce 35be
00000270: b203 383e f6db cd3d cc6b bdbd 7118 b5be
00000280: e759 0b3b 8faf 89bc 4d6c 2dbe 77fb 88bd
00000290: 93d3 50be b74c bbbb e19a 31be 6fe2 10bd
000002a0: a74b 0abd f96e 613d b79b 993d f094 31bd
000002b0: 5f88 2e3e 0b9b 64bd f562 07bc e226 a33c
000002c0: 91d4 013d 1d65 393c 328b c53d 5b05 c33d
000002d0: 9765 2c3e 08b5 0bbe c559 e63d 73d1 a23e
000002e0: 4edf 51be 42c7 6c3e 6eaa bebd 5554 4f3e
000002f0: f710 053e b0fa 7b3e 50e5 593d 165f 3fbe
00000300: 56b1 f83d 8148 5a3e a0d3 223e c87f 43bd
00000310: 0664 eb3d b15d 093d abd0 02be 76fb 77bd
00000320: fbae 82be 8878 b73d db0e 6d3e fad0 98bd
00000330: 4e87 9cbe 455d f4bd 4a1e 8e3d 6ba2 853d
00000340: e04f a03e ec92 40bd 058c 0cbe a8a8 39bd
00000350: 9e26 9cbd a0f5 4a3e 4832 75be f88a 5c3d
00000360: 772d 0b3c e4de 2bbe 9ca1 833d 294f 2bbe
00000370: 94a0 a13c 8875 afbd 6036 ce3d c6c7 403e
00000380: 35d2 173e d442 d73d 5593 fabd 703a a23d
00000390: 1ae0 a4bd cbac 08bd 82c8 5abd a501 1f3d
000003a0: 5ce7 1cbe 9f4a 6d3e 441a a03d 7850 9dbc
000003b0: 2096 1b3d 0fbb 353e 2a10 aebd 3d9c f43b
000003c0: c8db 9cbd 2480 843d 34f5 503d 29b8 24be
000003d0: 1ef4 023e e2ba e3bc df81 893e ab08 f8bd
000003e0: ec7a 3d3d b7e9 103d f456 c1bd bce3 1b3d
000003f0: 5f8c 8e3d 4a68 8b3e 51c7 27bd d383 1cbe
-0.09898471 0.004357145 -0.105044745 -0.108680464 0.27111235 -0.13576478 -0.057334077 -0.34786403
0.06757422 -0.25658154 -0.06823826 0.08403756 -0.031542715 -0.17262849 -0.019772625 0.12093519
-0.009395899 -0.022253297 -0.0002639861 -0.055544443 0.052943572 -0.042757466 0.14976935 -0.020467324
-0.071307205 -0.06213347 0.028560381 -0.20603384 0.11194367 -0.12771282 0.052514363 0.16708007
-0.16085683 -0.022612724 0.10411657 -0.22704536 0.29725236 0.13882081 0.018255882 0.13704231
-0.051007666 0.004244495 -0.0745157 -0.07919123 -0.038917553 0.021553777 -0.14059125 0.08546495
0.061192792 0.2828731 0.143272 0.058222655 0.13110806 -0.008084198 0.051532146 -0.09406078
0.13817164 -0.118473485 0.0041480414 -0.059818935 0.15713985 -0.17311308 0.081659734 0.13497092
-0.103179805 0.012588457 0.1459774 0.13033277 0.1516574 0.09111013 0.0546023 -0.089021705
0.17239055 0.11233929 -0.0801122 0.105550095 -0.0022320237 -0.11776695 0.0833123 0.04157846
0.084859334 -0.11876541 -0.074412264 -0.07806473 -0.13146389 -0.28686443 -0.27014613 0.013839967
0.042516176 0.14886779 -0.035642583 0.09551491 0.03198433 0.0015846541 -0.04766548 -0.08648338
-0.09006974 -0.25515348 -0.17371033 0.03260312 -0.11138898 -0.19513835 0.02057091 -0.046965256
-0.14124492 -0.09920804 -0.26744682 0.15393634 0.025748912 -0.027971918 -0.099437416 -0.109126024
-0.20963402 -0.27422848 0.035449628 -0.02190005 0.07457728 0.14340825 -0.036661968 -0.088811755
-0.108693585 0.13387412 -0.04105206 -0.0073017366 0.11746384 -0.07466501 0.18065056 0.06025089
-0.0685164 -0.030795489 -0.2633784 -0.056448955 0.06294119 0.08251585 0.03431524 0.036213495
-0.09853618 0.122257225 0.20015535 -0.060772046 -0.056171242 -0.0020813162 -0.080881 -0.08050483
-0.12745082 0.0900575 -0.018706424 -0.20118402 -0.15182203 -0.29072955 0.12509748 0.019575022
-0.103433125 0.08932966 -0.12969449 -0.17754376 0.1797016 0.1005172 -0.09249076 -0.3537021
0.0021263303 -0.016807346 -0.16935845 -0.06688588 -0.20393209 -0.005715932 -0.17344238 -0.035372194
-0.033763554 0.055037472 0.075004034 -0.04335493 0.17044209 -0.055811923 -0.008263339 0.019916002
0.03169686 0.011315611 0.0964569 0.09522506 0.16835628 -0.13643277 0.11247591 0.31800422
-0.2049534 0.23122886 -0.09309851 0.20247014 0.12994753 0.24607348 0.053197205 -0.18688616
0.12143199 0.2131672 0.15901041 -0.047729284 0.11493687 0.033536617 -0.12774913 -0.060542546
-0.25524125 0.089585364 0.23150198 -0.07461734 -0.3057198 -0.11931852 0.06939371 0.065251194
0.3131094 -0.047015116 -0.13725288 -0.04532686 -0.07624553 0.19820261 -0.23944962 0.05384347
0.008494726 -0.16784245 0.06427309 -0.16729416 0.01972989 -0.08567339 0.10068965 0.18826208
0.14826281 0.10510793 -0.122351326 0.07921302 -0.080505565 -0.033367913 -0.053413875 0.038819928
-0.15322632 0.23172997 0.0781751 -0.01920341 0.037984967 0.17747138 -0.08499177 0.007464914
-0.076591074 0.064697534 0.051015094 -0.16085877 0.12788436 -0.027799074 0.26856896 -0.12111028
0.046259806 0.035379138 -0.09440413 0.03805898 0.069603674 0.27228004 -0.040961567 -0.15284662

encoder.net.2.bias f4 [60]
00000000: 732d 1abd 85a8 0cbd 85a5 823d d3bc 8fbd
00000010: 76ae 8b3d 513d 54bd 3f94 18bd 66eb 0cbd
00000020: 14bd 5fbd e232 4ebd 42b2 4d3d 4fcc 363d
00000030: ec40 113d bdb5 c0bd 0d61 69bd 06e1 48bd
00000040: 602e 9b3d 2027 733d c008 a6bc d9bb 1e3d
00000050: 69b4 77bd 71d6 533d 71f2 5abd 5c7a 4c3d
00000060: 0386 63bd 1da2 3a3d 5bde 3dbd e62f 3b3d
00000070: f678 583d bef3 7a3d 1547 a6bd a46f b1bc
00000080: 836d adbc 414e 12bd 10ab 3cbd 773c 03bd
00000090: 99d4 e93d 04eb 1bbd ac27 47bd d8d1 14bd
000000a0: f42e a43c 6695 643d e65c 543d 2311 e5bc
000000b0: f23c eabc d58f 023d 4a67 183d d02c 4bbd
000000c0: c3e7 46bd e002 8bbd 1d83 733d 4ca2 4c3d
000000d0: 2e18 6ebd 339e c63c 1ee9 4cbd a378 5abd
000000e0: fce9 413d 5784 573d b708 8fbd 3ce0 42bd
-0.037641 -0.0343404 0.063792266 -0.07018437 0.06820385 -0.05181629 -0.037250753 -0.03440418
-0.05462368 -0.050341494 0.050218828 0.044628438 0.035462305 -0.09409664 -0.05697732 -0.049042724
0.07577205 0.059363484 -0.020267844 0.038753364 -0.060474787 0.05171818 -0.053453866 0.04992138
-0.055547725 0.04556476 -0.046354633 0.045699976 0.052849732 0.061267607 -0.081190266 -0.02165968
-0.021170383 -0.03571916 -0.046061575 -0.032040086 0.11417503 -0.038065925 -0.04862182 -0.036332935
0.02004192 0.05580654 0.051846407 -0.027962273 -0.028593514 0.03187545 0.03720788 -0.049603283
-0.04856087 -0.06787658 0.05945121 0.049959466 -0.05812853 0.024245357 -0.050027005 -0.053337704
0.047342286 0.052616443 -0.06984084 -0.047577128

encoder.net.5.weight f4 [34, 60]
00000000: 8d6e cfbc 69d8 923c 7a02 ddbd 46d8 003d
00000010: abd4 86be 8482 2e3e 2ded 8b3d 9995 f9bd
00000020: d6a2 813d 6d2a 1ebd 2242 56bc df8b 873e
00000030: 3de1 ef3d 0203 51bd 89ef 20bd 762c edbe
00000040: b296 633c fead 5dbe 6047 f03e 1c40 2fbd
00000050: fdd2 ab3d 1a64 8e3d a2f0 eebd ac17 803d
00000060: 98e2 38bd 6a10 61bd ef53 d83d 3fc1 87bd
00000070: c47f 6b3d 2a46 4d3d be76 a53d 48b6 303e
00000080: 5a8e c8bd c6c9 1abe 43f6 7cbe df0d acbd
00000090: 0c0c f3bd 038e 20bd d880 85bd fc51 15bd
000000a0: b61a 813e b8b1 a3bd 925a b5bd da43 f9bd
000000b0: 4c16 5dba babd 7bbd c7d8 a23d fc61 14bc
000000c0: 068e eabc 7503 90bc f2c9 3d3e 8f45 3ebe
000000d0: 8df4 c1bc 1770 5c3e d47c 7b3d 8b64 f73d
000000e0: 08bd 433d 80f4 00bd 42c0 a1bd d2fb fa3d
000000f0: d110 7a3e eec1 f8bc 6c36 80bd 1b3b c4bd
00000100: 80b8 a33c 2010 a2bc 5efd ec3d f553 2d3e
00000110: f468 103e 187c 8fb9 9c94 acbc 3845 8d3e
00000120: 3d78 4d3e c38b 35bd 0701 26be 542e f03d
00000130: 5652 99bd f4f5 a83d e963 83be 0f69 403c
00000140: 6c54 d73d df80 173e 59af c43e bb88 483e
00000150: 2b06 563d c13d a9bd 50d8 463d 0ae1 4d3c
00000160: 2377 493d ca1b 253e dfea b0bd 0dd5 18be
00000170: d1dd 483c 2cae dcbd 241e a03d 0f41 81be
00000180: 31af 24be 6693 abbe c1d1 95bd c69e 8c3c
00000190: 4339 d53d d1e6 ea3b 0b74 6a3d de7b 82be
000001a0: 345a d93b da91 1fbd 566a efbd 23cc 02bd
000001b0: 5740 f73d 222d b4bc fed3 c8bd ce84 b23d
000001c0: 018e 493e d94d 51bd 612e 06be 0087 f5bd
000001d0: 1762 2f3d 4c90 ffbd c07b 633d 42dd a6bd
000001e0: ef33 2d3e b157 0bbc 3d03 e43d 6593 7bbe
000001f0: 0aef 91be f222 15be 318b f33d eac6 b6bd
00000200: e905 843d 580f d53d 4a07 b43d 1c41 96bd
00000210: 1bf8 8d3d 530e c0bd cb16 143e a496 eebb
00000220: f005 abba d4c5 693e 3180 223d 4dd7 ffbc
00000230: c364 103d a530 c6be 08ce e93d fb0d 1c3d
00000240: 64dd 023e 8d01 90bd 4b58 90be 3bbb e03d
00000250: fc3f 803d da67 65bd 1c0e 0d3e 4031 613c
00000260: a359 fd3d b79a eebd e0d5 003e 5659 c53c
00000270: e265 cf3c af0b 18be ea18 a03d 744c 9e3d
00000280: 597f 87be e6d1 4a3e 2a24 183e ca74 533e
00000290: 31d8 25be 7803 cfbd 5caf e4bd 5fb5 4dbd
000002a0: 6750 b93d ddde 533e 6320 293e 5a20 a83d
000002b0: 5085 063e 1cc6 83bb 8dff 8c3e 39a8 623c
000002c0: ccd5 603b c3fb b73c 92ec debc e08b d3bd
000002d0: 2688 7dbd 30f6 eb3d 3517 d5bd 59bf 2bbe
000002e0: 58f3 043d b555 e3bd 8bd6 b73e c50e 1ebe
000002f0: 96d9 15be a71a e03d 9fa7 583e 8143 90bd
00000300: 94ff 443d 6ded 0f3e fdff b93d 238d 933d
00000310: bf85 3b3e bfc1 22bc c701 88be a751 7fbd
00000320: 752b 07be c7f5 b23d b481 c33d dff0 bd3d
00000330: 4976 bbbc 69cc c5bd b415 3d3e 0828 3dbe
00000340: 3ce6 183e 1b27 a5be cd6f d23c e09d 28be
00000350: 027d a7bc a050 c43d c98b bb3d 16a9 ef3d
00000360: cd50 d4bd e859 1cbe ff79 fcbc 0953 13be
00000370: 0728 9fbd c605 433d c914 cbbc 1c25 f43c
00000380: ed8c ab3d e70c f6bd ee14 14bd fc17 c6bd
00000390: 457a 873e 58d6 723d c048 7c3e 10fa a43c
000003a0: 93ee fbbd 2b32 82ba facb 13be d644 d93d
000003b0: b2eb 7e3e c4c0 70bd f46d 443c 0c2c 49bd
000003c0: 8c68 313e 0f98 3dbd 6b6c ddbd ca6b 0e3d
000003d0: bca5 89be 2b41 15bc 9451 8f3a e26d 6c3c
000003e0: 70bd 7cbd f2aa 8dbe f195 513e 794c d2bc
000003f0: 946a f9bd ac67 093e e503 623e 3d0d f43b
-0.02532127 0.017925458 -0.10791488 0.031456254 -0.26334128 0.17041975 0.06832347 -0.121867366
0.063298866 -0.03861468 -0.013077291 0.264739 0.11712883 -0.05102826 -0.03929094 -0.46322984
0.013890909 -0.21648404 0.46929455 -0.04278575 0.08389852 0.069526866 -0.11666991 0.06254515
-0.04513797 -0.054947294 0.10562884 -0.06628656 0.057494894 0.05011574 0.08079289 0.17257035
-0.097927764 -0.15116033 -0.24703316 -0.08401083 -0.11867532 -0.039197933 -0.065187156 -0.03645514
0.2521569 -0.079928815 -0.088551655 -0.12171145 -0.00084338035 -0.061460234 0.07951503 -0.009056564
-0.028632175 -0.017579773 0.18534067 -0.18581222 -0.023676181 0.21527134 0.061398342 0.12079724
0.047787696 -0.031483173 -0.078979984 0.12255062 0.24420477 -0.03036591 -0.0626038 -0.09581586
0.019985437 -0.01978308 0.115717635 0.16926558 0.14102536 -0.00027367542 -0.021066956 0.27591872
0.20065399 -0.04432274 -0.1621133 0.117275864 -0.074864075 0.08250037 -0.25662163 0.011743798
0.10514149 0.14795254 0.3841503 0.19583409 0.052251976 -0.08263732 0.048546135 0.0125658605
0.049185883 0.16123882 -0.08638548 -0.14925022 0.012259916 -0.10775408 0.07818249 -0.25244948
-0.16082455 -0.33510894 -0.07315398 0.017165553 0.104113124 0.0071686287 0.057239573 -0.25485128
0.0066330675 -0.038957454 -0.11690204 -0.03193296 0.12072819 -0.021994177 -0.09806059 0.08716737
0.19683076 -0.051099632 -0.1310363 -0.1198864 0.042818155 -0.12478694 0.05553794 -0.0814767
0.16914342 -0.008504794 0.1113343 -0.24567945 -0.28502685 -0.14564112 0.11891783 -0.089246586
0.0644644 0.10403317 0.08790453 -0.073366374 0.06932088 -0.09377732 0.1446182 -0.0072811414
-0.0013048034 0.22829372 0.039673034 -0.031230593 0.035252344 -0.38708988 0.114162505 0.03809927
0.12779766 -0.07031546 -0.28192362 0.109732114 0.06262204 -0.056007244 0.13774914 0.013744652
0.123706125 -0.11650603 0.12581587 0.02409045 0.025317136 -0.14848207 0.07817252 0.07729426
-0.26464346 0.19806632 0.14857545 0.2065002 -0.16195752 -0.101080835 -0.1116626 -0.050221797
0.09048539 0.20690484 0.16516261 0.082092956 0.13136792 -0.004021419 0.2753872 0.013834053
0.003430712 0.022458917 -0.027212415 -0.103294134 -0.06189742 0.11521566 -0.10404817 -0.16772212
0.032458633 -0.11100332 0.3590587 -0.15435322 -0.14633784 0.109425835 0.21157692 -0.07044125
0.0480953 0.14055414 0.09082029 0.07204654 0.18312739 -0.009933888 -0.26563856 -0.06233373
-0.13200171 0.087382846 0.09546223 0.09274458 -0.022883551 -0.09658129 0.1846531 -0.18472302
0.14931577 -0.32256398 0.025688076 -0.16466475 -0.02044535 0.095856905 0.09157521 0.117021725
-0.10366974 -0.15268672 -0.030819891 -0.14387144 -0.077713065 0.047612928 -0.024790185 0.029802851
0.08376489 -0.1201418 -0.036152773 -0.096725434 0.26460472 0.059286445 0.24637127 0.02013877
-0.12301364 -0.0009933164 -0.1443328 0.106088325 0.24894598 -0.058777586 0.0119891055 -0.049114272
0.17325038 -0.046287593 -0.10811695 0.034770764 -0.26884258 -0.009109776 0.0010934346 0.014430495
-0.0617041 -0.27669483 0.20467354 -0.02567123 -0.12178531 0.13418454 0.22071798 0.007447867

encoder.net.5.bias f4 [34]
00000000: 8369 fe3c 9d64 f5bd ef96 6bbd f4a7 603d
00000010: c833 79bd 8da3 843d b682 6e3d 5d02 99bd
00000020: 53b9 783d d8e8 5cbd c13f 7e3d 160d 73bd
00000030: 34ef bfbb 3ec6 45bd bd33 723d 1b3f 85bd
00000040: 7c65 86bd 3cef 4f3d 8b64 7cbd 5d95 a13d
00000050: 2f58 7ebd c0be 9dbd 9ef0 923d bab5 283d
00000060: fbae 58bd 0832 813d 6a13 73bc f770 3d3d
00000070: b7a2 783d 04da 443d d014 81bd 9195 e0bd
00000080: 959e 623c 0c9e 86bd
0.031056171 -0.11982081 -0.05751699 0.054847673 -0.060840398 0.06476507 0.058230124 -0.07471154
0.060723614 -0.053932995 0.06207252 -0.05933865 -0.0058573727 -0.04828476 0.059131373 -0.06506177
-0.06562325 0.05076526 -0.061619323 0.07889817 -0.062095817 -0.07702398 0.071748 0.041188933
-0.05290125 0.06308371 -0.014836172 0.04625031 0.060702052 0.04805948 -0.06302798 -0.109660275
0.013831754 -0.06573114

predictor.net.1.weight f4 [32, 34]
00000000: 94a9 783d 38c2 51be 4f1b 1dbe a01c a9bc
00000010: 0e17 a13d 2191 843e df49 d3be d67c 9bbd
00000020: 91b3 433e 36a3 e7bd 70d9 12be 8f8b bcbd
00000030: 98f5 24be 67d5 d5bc 6be8 283e 3e4b 5e3d
00000040: 4cf4 483e 3d8d df3d 873e b9bd db3b 4bbe
00000050: 1bb7 0a3e f1d0 16be f77f 4bbc 4707 3a3d
00000060: 3d57 b5be 56bf 8d3c 5e0b 0cbe 0c82 8e3d
00000070: c352 63be 2541 163e 8129 953e a5ba 11be
00000080: 5f89 93bd 265c 713e 4957 99be c9e3 6dbc
00000090: c3a6 b73d f59c 493e 407f 0a3e 3513 07be
000000a0: b6ed 343e 6c85 963e a519 f93d ebb7 933d
000000b0: 35c6 c4bd ff5f 3fbe 67ee 1cbd ffae b1bb
000000c0: f088 033e 0e70 793e dc87 57bd c771 5b3e
000000d0: c5a2 bdbe e2b4 3cbe a5f4 2dbe c041 c13d
000000e0: 11b2 8c3e b705 49bd 7f5c 5abe d267 b5bd
000000f0: 95cb 47bc 87c8 343c fde8 0dbe 18db 343e
00000100: 01a0 973e 7021 233e b259 1fbe c6b1 7fbe
00000110: 1960 42be 5f15 473e 4ff3 9e3d 1a72 aa3d
00000120: 0457 503e f3c2 183d 64a5 bcbd 1acd a8be
00000130: c33e 9c3e 386a 50be 8c29 203e eb07 dd3b
00000140: 3d03 9cbd 3865 be3d 152a 2ebd 2297 383e
00000150: d8dd d43e 0aed c73d 6faf 5abe 6efc 093e
00000160: 1f23 8abe 11fd b83c 8e51 0d3e f304 0ebd
00000170: 63af 11bd e9cd b3bc 4112 8f3e 986d 08be
00000180: b1d9 6c3e 0b01 97be d31f 4e3d 551a 50bd
00000190: 9bfc 603e 4f0f 46be ef6f eabd 3b6c 2bbe
000001a0: 536d d6bc 88ad 38be d227 55be bf58 293e
000001b0: 0f0d 68bd 34b3 133e 386a dcbc 6313 ebbd
000001c0: 1925 7b3e ae1e 49be c0a5 a13e 22f8 de3d
000001d0: eebf 243e 2bf5 7ebe 5786 163e 4b1b fe3d
000001e0: 2c93 19be 3e19 993d 1f70 ddbd b4f3 40bc
000001f0: 5627 6a3e 4688 153e 3c78 82be 3374 1dbe
00000200: 1ce2 953d a2c6 bdbd 3017 153d 97a8 24be
00000210: 8423 38be 80a7 71be b754 c7bd 8f37 3dbe
00000220: a827 e4bd 3519 943e 2356 ba3c 7866 073e
00000230: d559 67bc 05ba 823d 3e19 923c 1cea 353e
00000240: af96 583c c602 f9bc a623 6f3e 03de 85bd
00000250: 2406 bf3e d312 11be 2245 1c3f 72f8 03be
00000260: 4ce7 5f3e c492 413e 4472 d6bd c04a 4438
00000270: 1d1c 01be ba43 4c3e 7c38 0e3d b0c1 09bd
00000280: 9684 31be 09e5 58be 4bdc bd3d f325 cfbc
00000290: cede f33c 9f22 97bc 1e7f 3cbe 9e22 123e
000002a0: d41a 683e 58c7 1dbe 2fc2 a9bd c132 74bc
000002b0: aa96 323d 6431 01be 75f3 63bd 48bf b4bd
000002c0: b960 0bbe 2662 31be 656e 55bc 886e a0bd
000002d0: 750a 753e f979 84bd c415 033e a24e d3be
000002e0: 01ad 3f3c 1907 1f3e a978 6bbe 71a3 05be
000002f0: aab0 793e 7520 b8bd c375 b0be 9974 a63c
00000300: 1547 4abe b440 0fbd b70d 2e3f eee8 efbb
00000310: fe90 12bd 6d04 75be bfc7 1a3d aa8b 693e
00000320: fa47 0d3d 204b 9fbd f1bf 683e c5f0 96be
00000330: 889f 44bd 11bd 113e 17c9 3dbe 6298 07bd
00000340: 1e14 95bd c993 f43d 5bb5 213d a958 aabe
00000350: 4716 0a3e 7449 82be 8010 033d 9bb6 58be
00000360: d4a2 603e d0f7 6e3d d6ab 083e d491 913e
00000370: a6c5 4cbe 90e0 bebd e066 453e 31f4 42be
00000380: 6288 0fbe 7a3a 50be 5e58 2ebe 2618 b8bd
00000390: 7634 943e cd55 0dbd 2f54 0a3e e557 42be
000003a0: 5d8e 6a3d bf26 163e d7d1 38be 9596 5e3e
000003b0: 3f91 9f3e 8599 953e 75d6 fc3d 4474 7fbe
000003c0: 6520 89bd ad32 54be b0f5 76bc 9d9a 24be
000003d0: 60fe 6a39 b46c 723e f86e 0dbe 9db4 4a3d
000003e0: 02ee 18bd 5038 abbd 6ebc edbc 0917 90bd
000003f0: de21 bfba 3f12 69bd 97fa 71bd 23ca e2bc
0.060708597 -0.20484245 -0.15342449 -0.020643532 0.078657255 0.25891975 -0.41267297 -0.0759217
0.19111468 -0.11310427 -0.14340758 -0.09206306 -0.16109312 -0.026102735 0.1649491 0.054270975
0.19624442 0.10915611 -0.09045129 -0.19847052 0.13546412 -0.14728142 -0.012420646 0.045417096
-0.3541812 0.01730315 -0.13676211 0.06958398 -0.2219954 0.14673288 0.29133227 -0.14231355
-0.07203936 0.23570308 -0.29949406 -0.01451964 0.08967354 0.1968878 0.13525105 -0.1319092
0.17668805 0.29398668 0.121630944 0.07212814 -0.096081175 -0.18688963 -0.038313296 -0.0054224725
0.12845206 0.24359152 -0.0526198 0.21430121 -0.37038246 -0.18428376 -0.16987856 0.09436369
0.27479604 -0.049077716 -0.21324347 -0.08857693 -0.012194534 0.011034138 -0.13858409 0.17661703
0.2961426 0.15930724 -0.1556156 -0.24970159 -0.18981971 0.19441746 0.07761251 0.083225444
0.20345694 0.037295293 -0.09211233 -0.3296898 0.30516633 -0.20353019 0.15640849 0.0067453287
-0.07617805 0.0929665 -0.0425206 0.18026403 0.41575503 0.097620085 -0.21355985 0.134752
-0.2697992 0.022581609 0.13800642 -0.03467269 -0.035567652 -0.021948772 0.27943614 -0.13323057
0.23129918 -0.29492983 0.05032332 -0.050806362 0.21971361 -0.19341777 -0.11447131 -0.16740505
-0.026175177 -0.18034947 -0.20815971 0.1653776 -0.05665308 0.1442383 -0.026906118 -0.11478307
0.2452587 -0.1964061 0.3157177 0.10887171 0.1608884 -0.24898212 0.14699684 0.124075495
-0.14997548 0.07475518 -0.10812401 -0.011776853 0.22866568 0.14602765 -0.25482357 -0.15376358
0.073185176 -0.09266402 0.036399066 -0.16079937 -0.17982298 -0.23599052 -0.09732955 -0.18478225
-0.11140376 0.2892548 0.022746151 0.13222682 -0.014120539 0.06383137 0.017834302 0.17765087
0.0132195195 -0.03039683 0.23353443 -0.06536486 0.37309372 -0.14167337 0.6104299 -0.12887743
0.21865577 0.18903643 -0.10471013 4.6799658e-05 -0.1260838 0.1994771 0.034721836 -0.03363198
-0.17335734 -0.2118112 0.09270533 -0.02528665 0.029769327 -0.018449126 -0.18407866 0.14271018
0.22666484 -0.15408075 -0.08288991 -0.014904679 0.043600716 -0.12616497 -0.0556521 -0.088255465
-0.13611116 -0.17322597 -0.013026808 -0.07833582 0.2392977 -0.06468577 0.12801272 -0.4127093
0.011698962 0.15530051 -0.22995247 -0.13050629 0.24383798 -0.08990566 -0.34464845 0.02031927
-0.19753678 -0.034973815 0.6798968 -0.0073214686 -0.035782807 -0.2392747 0.03778815 0.22807184
0.03449247 -0.07778001 0.2272947 -0.29480568 -0.048003703 0.1423228 -0.18533741 -0.033104308
-0.07279228 0.1194225 0.039479595 -0.33270767 0.1348506 -0.25446665 0.031998158 -0.21163408
0.21937114 0.0583418 0.133468 0.2843157 -0.19997272 -0.09320176 0.19277525 -0.19038464
-0.1401687 -0.20334807 -0.17025897 -0.08988981 0.28946275 -0.034505654 0.13508676 -0.18978842
0.057264674 0.14663218 -0.18048798 0.2173713 0.311655 0.2921869 0.12345592 -0.24946696
-0.06695632 -0.20722456 -0.015073225 -0.16074605 0.00022410741 0.2367428 -0.13811862 0.049488652
-0.037336357 -0.0836035 -0.029020514 -0.070356436 -0.0014582237 -0.056902166 -0.05907687 -0.027684277

predictor.net.1.bias f4 [32]
00000000: 50a6 c5bd b25a b53d 7925 b6bd 9eaa c93d
00000010: e90e e3bd 366b c5bd 5055 b43d 7271 acbd
00000020: 7ca1 c2bd 639d aebd 2702 e93d 0bf8 543d
00000030: 217e 31be 5b46 c9bd fa00 d0bd 1136 d53d
00000040: 9867 b2bd ac0e b93d 611c c3bd 5725 b63d
00000050: 622e babd 9cbc b8bd 514e c83d dac7 b6bd
00000060: 1c65 a63d 5cc0 d43d 7ec4 bfbd 18a6 d8bd
00000070: 769f bbbd d34a bfbd 4fd0 c1bd fa24 c5bd
-0.09650862 0.088551894 -0.08893866 0.09846996 -0.11086828 -0.096395895 0.088053346 -0.084200755
-0.09503457 -0.08526113 0.11377364 0.051994365 -0.1733327 -0.09827872 -0.10156436 0.10410703
-0.08711165 0.090360016 -0.09526897 0.08893841 -0.09090878 -0.090203494 0.09780563 -0.089248374
0.08124754 0.10388252 -0.0936365 -0.10578555 -0.09161274 -0.093404435 -0.0946356 -0.09626193

predictor.net.3.weight f4 [1, 32]
00000000: 0e8b a4be e812 003e 955f 65be 7628 f63e
00000010: f641 b2bd 4d2a 6cbe cbdf 763e d8fe 0ebe
00000020: d41a 3cbe 49f2 34be 85a2 293e a95f ef3b
00000030: 075a 39bd 6dcc 16be 92cc 4abe bbc1 9d3e
00000040: 8420 73bd 969c 093d 864b 92be ed21 393d
00000050: 15eb 57bd e9a7 fdbe 01bf a83e 68a0 04be
00000060: 280b 673d 325b 033d bac5 e2bd 7591 c2bd
00000070: d711 b0be fdf0 81be a170 d5be 2af2 91be
-0.3213734 0.12507212 -0.22399743 0.48077744 -0.08703987 -0.23063011 0.24108808 -0.13964403
-0.18369609 -0.1767055 0.16565903 0.0073051048 -0.045251872 -0.1472642 -0.198046 0.30811867
-0.05935718 0.033596598 -0.28573245 0.04519837 -0.052714426 -0.49542168 0.32958224 -0.12951815
0.056407124 0.032069393 -0.110728696 -0.095004 -0.3438861 -0.25379172 -0.41687492 -0.2850507

net.0.weight f4 [60, 37]
00000000: c656 5f3d c8a6 5f3d 9a5c 56be 8a1b 2b3e
00000010: 29e2 2e3d b5a9 ad3d 0362 fb3d b482 69bc
00000020: 1a2f 3abe 5890 543d a25d ea3c 0399 703d
00000030: 9752 b93d eef4 fd3d b676 353e 8ec1 79be
00000040: c44f 773e ad4b f83d ecea 853d 6189 4ebc
00000050: cea6 64bd 66eb a03d fd2f be3c 8498 e1be
00000060: 9bff 01bd 2a57 e93c 9a82 c2bd 7265 52be
00000070: d6e2 2f3d adc3 473e a49a 863d 94c9 413d
00000080: ee0d 233e baf4 39be a5c6 86bc 9a09 5dbe
00000090: 9cd2 70bd 9c6d 7b3c c88a 3ebd bb87 8bbd
000000a0: 3f7f fd3d b6d6 b0bd c671 4d3e 496e 6ebb
000000b0: ee19 273e a182 9c3c d144 18be 39c3 ba3e
000000c0: 6897 9bbd e95b f33d 3a83 413d af38 853e
000000d0: cf66 1a3e 3071 5d3d efa4 aebd 439e b0bc
000000e0: dd3b 483e b0c8 d63d 6a9d 81be 2c4d 9b3c
000000f0: 7e07 243e df2e d93d fcad 5c3d 93fb 473e
00000100: 6626 2c3e 0fca 193e 2541 57be fc54 05be
00000110: 38ed b83d 5550 993e 150a 1fbe 640e 093c
00000120: cc0b 0e3e 87c0 89bc 72dc 0ebd aa78 d13d
00000130: 496c 433e 283d cb3d f237 283e 86d7 1b3e
00000140: f786 a2bd 7b28 84bd 459a b0bd 1e03 b6bd
00000150: 8df9 953d 7a12 28be 9701 d7bd e59b 533d
00000160: a3be ab3d 5684 5fbd 869c 01be 9434 54be
00000170: 9cff fbbd 3df4 af3d 3749 163e a064 99bd
00000180: 8783 5cbc c8fe c2bc a82d 733e 9c5b 1a3d
00000190: 1ec3 96bd dc02 65be b038 8b3c 2e98 073e
000001a0: e558 453e d4bf 1fbe 5389 a8be 0a2c 14be
000001b0: 758c 38bd 5242 aebd e570 ee3d f217 7fbd
000001c0: 81d2 013d bad7 a83d 3d26 61be 6588 853e
000001d0: f50c 003e 9b5b 953d 99a2 8dbe 8ec8 583d
000001e0: 27e3 6ebd d54f 533e e620 3b3e 3ee8 c23e
000001f0: 15d2 3ebe 3c79 5e3c 9be2 263d d41d 093e
00000200: 00ec 8dbd 9fb9 e63c 909b debd ec3a 29be
00000210: 47da 3e3d 4f5d edbd 487c 19bd ade3 823c
00000220: b1af 7cbd 65ba 8abe 257e 08be f7d4 d23d
00000230: f769 463e d7ec a4be 02fa 2abc abdf 04be
00000240: 834c c13d 6684 61bd 6650 3d3d 6682 bcbd
00000250: 4a8a 013d 3e3d 853c 3a5c 8d3d 5577 753e
00000260: d3fa 9a3d f654 8d3d 44ea 673d 72d7 22be
00000270: b354 393e 1ee8 803e 9f57 30be 5203 fbbd
00000280: 7869 bebd e4a6 923d f2c3 c4bc 1bdf 01be
00000290: 4e10 af3d 3362 1a3e 602c f1bd e67e 173e
000002a0: 999e 84be 309b 503e 4430 bf3d 4a63 5b3d
000002b0: a24d 603d 0147 743d 2b78 dfbc 7813 2e3e
000002c0: d5f4 48bd d4ba 5f3d 5081 653e 6d30 f4bd
000002d0: 753d e33e bafe a4bd 9229 90be f2ed 4e3d
000002e0: 9435 03bd bed0 b4bc 2fe4 973e 8798 f5bd
000002f0: c924 89ba 8e47 353c 111a 71bb 999e aa3d
00000300: 36d9 f3bd fde2 0b3e 378e 3c3e 1f10 413e
00000310: a382 a0bc 44fa 90bd e48e a23e 2802 17be
00000320: 05d7 15be 2050 d1bd cd02 59be 3203 303e
00000330: 19dd c93d 2405 163e cc5a 38be ea95 0d3e
00000340: bd6b 4d3e 8a1d 173d d88b bc3c 5884 6bbc
00000350: a2c6 973e 43ae 8bbe 635f bb3d 963d ddbb
00000360: 47df b43d d44f f4bd 13a2 1dbd 6778 d13d
00000370: c337 fb3c 8ad5 a83c 29cf d73c 70f4 233d
00000380: f950 5dbd f1bb e33c dd96 00bc 7faf a8be
00000390: 2a5d 513e 7275 37bd dc0c b7bd 9c03 6cbd
000003a0: acd5 e93d 4bf2 98be d33a 3f3e 5bc5 2b3e
000003b0: d089 003d 8fed e83c bd8b 7dbe c725 25be
000003c0: ceb3 6f3e 824c b3bd f2bd d6bd 93ce d3bc
000003d0: f06d 29bd 755b 033e 4e48 ad3e cf02 a5bc
000003e0: 904c a43c 7464 533c 4350 50be 73f0 d13d
000003f0: 9563 9dbd f972 50bd 41ce 0cbe 726d 4abd
0.054526113 0.054602414 -0.20933762 0.16709724 0.042696152 0.08479635 0.122745536 -0.014252353
-0.1818203 0.05189547 0.0286091 0.058739673 0.09048956 0.12400232 0.17721066 -0.24390242
0.24151522 0.12123809 0.065389484 -0.012605996 -0.05582314 0.07857399 0.023216242 -0.44061673
-0.031737905 0.028483946 -0.094975665 -0.20546511 0.042940937 0.19508238 0.06572464 0.04731138
0.15923283 -0.18159762 -0.016452143 -0.21585694 -0.058794603 0.015345957 -0.04651907 -0.06812998
0.12377786 -0.08634703 0.20062932 -0.0036381653 0.16318485 0.019105257 -0.14870001 0.36477068
-0.07597238 0.11882765 0.047244288 0.2601981 0.15078281 0.054063022 -0.08527552 -0.02155984
0.19554086 0.10487497 -0.2531541 0.018957697 0.16018483 0.10604643 0.053876862 0.19529562
0.16811523 0.15018485 -0.21020944 -0.130207 0.09029621 0.299441 -0.1553119 0.008365247
0.13871688 -0.016815437 -0.0348782 0.10228093 0.19084276 0.09923774 0.16427591 0.15218934
-0.07935899 -0.064530335 -0.086231746 -0.08887313 0.07322989 -0.16413298 -0.1049835 0.051662344
0.083859704 -0.054569565 -0.12657365 -0.20723182 -0.12304613 0.08591507 0.14676367 -0.07489896
-0.013459093 -0.02380313 0.23747885 0.03768502 -0.073614344 -0.22364372 0.016994804 0.13241646
0.19272192 -0.1560052 -0.3291727 -0.14469925 -0.045055825 -0.08508743 0.11642627 -0.062278695
0.031694893 0.082442716 -0.21987243 0.26080623 0.12504943 0.07292863 -0.27663115 0.05292564
-0.058322098 0.20635922 0.18274269 0.38067812 -0.18634827 0.013578709 0.04074345 0.13390285
-0.06929779 0.028164683 -0.10869515 -0.16526383 0.046594884 -0.11590063 -0.03747204 0.015977705
-0.06169099 -0.27095333 -0.1332937 0.10294526 0.1937636 -0.32211944 -0.010435583 -0.12975948
0.094384216 -0.055057906 0.046219252 -0.09204559 0.031626023 0.016264554 0.069023564 0.23971303
0.07567372 0.06900971 0.056619897 -0.15902498 0.18098716 0.2517709 -0.17220925 -0.12256493
-0.0929746 0.07160738 -0.024019215 -0.12682764 0.08548032 0.15076523 -0.11776042 0.14794502
-0.2590225 0.203717 0.09335378 0.053561486 0.054761536 0.059638027 -0.02727898 0.16999614
-0.049061615 0.054621533 0.2241261 -0.11923299 0.44382825 -0.08056398 -0.28156716 0.05051989
-0.032033518 -0.022072192 0.29666278 -0.11991983 -0.0010463233 0.011064423 -0.0036789218 0.08331031
-0.11906664 0.13660808 0.18413626 0.18853806 -0.019593542 -0.070789844 0.31749642 -0.14746916
-0.14632805 -0.10220361 -0.21192475 0.17188719 0.09856624 0.14650398 -0.18003386 0.13826719
0.2006063 0.036893405 0.023015901 -0.014374815 0.29643732 -0.2728139 0.09149053 -0.0067517264
0.08831649 -0.119292885 -0.038484644 0.10228043 0.030666238 0.020609636 0.026343899 0.040028036
-0.0540323 0.027799578 -0.007848469 -0.32946393 0.20445696 -0.04478974 -0.089379996 -0.05762063
0.11417708 -0.29872355 0.18674783 0.16774504 0.03138143 0.02843359 -0.24760337 -0.16127692
0.23408434 -0.08754827 -0.10485448 -0.025855338 -0.04136461 0.12827857 0.33844227 -0.02014294
0.02005604 0.012902368 -0.20343117 0.1025094 -0.076850094 -0.050890896 -0.13750555 -0.04942078

net.0.bias f4 [60]
00000000: 00bc 673d 889a 6a3d 848b 903d e7c3 e03b
00000010: 06fe f73d 868b 38bd a63a 38be dd2a 61bd
00000020: 88a0 c03c 64f4 f93d 29d7 56bc 1950 10bd
00000030: 7392 60bd cca6 a3bd 90be 7d3b 9e0e a53d
00000040: 8e82 a6bd 521b 163e 3126 5b3d 2a61 c7bd
00000050: 59f8 44bd f05c aa3d 9c32 943d 9ef1 0d3e
00000060: 13a9 aebd 6c3c 8cbb 3b69 54bb 130b 4ebd
00000070: e26d 793d 9f18 0cbe 9794 3eba a4b1 f1bd
00000080: 92c1 ccbd f6c5 c33d 9510 023d 3ebb 13be
00000090: 91ad bdbc eea2 9abd 94fc 4abc a6d2 dabd
000000a0: 988b 323e 7fa3 153e 33f3 92bd 253b 093e
000000b0: 4ee4 e33d 9799 07be 4d2f debd b461 d63d
000000c0: 3324 06be 2ff8 d4bd 1200 96bd 817e 04bb
000000d0: baf2 a03d 8d73 023e 02c2 2abe 974c 23be
000000e0: 5244 55bd 780c b63d 9f88 0c3e 8837 f73d
0.056575775 0.05727628 0.070578605 0.006859291 0.12108998 -0.045054935 -0.17991123 -0.05497252
0.023514047 0.12204817 -0.013112822 -0.035232637 -0.054827165 -0.07990798 0.003871832 0.08059429
-0.0813037 0.1465886 0.05350322 -0.097353294 -0.048088405 0.08318508 0.072362155 0.13861701
-0.08528342 -0.004279664 -0.0032411355 -0.05030353 0.060895808 -0.13681267 -0.00072700664 -0.118014604
-0.09997858 0.095592424 0.031754095 -0.14426896 -0.023154052 -0.075506076 -0.012389321 -0.10684709
0.17436063 0.1461315 -0.07175293 0.13401468 0.1112753 -0.13242184 -0.10848866 0.10467854
-0.13099746 -0.103989 -0.07324232 -0.0020217004 0.078587964 0.12739392 -0.1667557 -0.15947185
-0.05206711 0.08889097 0.13723992 0.120711386

net.2.weight f4 [60, 60]
00000000: 8596 4b3d 669c dcbd 71ba 94bd f970 f53d
00000010: d293 6a3e 2d4b 83be f8e3 b33d b7a4 2c3e
00000020: 2ff6 5a3d 3547 4abe 65f1 c23d e916 7c3e
00000030: 71c1 45be f597 b23d 55f3 acbd 26ae 79be
00000040: adc0 c73d e351 7fbe 89b6 b73d beea d43d
00000050: 3373 a4bd 43fd 8ebd 5d7a ad3d 9753 a83b
00000060: 5fff 423e cba9 04bc 707e 863e 8fcb b3bd
00000070: a01c ebbc ba5c e03b 5efa 613e 1ce2 44bc
00000080: eb16 953e ef08 583e c84e 29be 0ea0 3d3d
00000090: 34ab 4dbd d5eb 81bd 6282 08bd 7c1d 4cbe
000000a0: 2090 443e b1e8 413d e4fd 663e 5c07 5f3d
000000b0: 405d 1ebe 56d7 9abd 9e21 5dbd f04b a0bb
000000c0: 74dc 053e 7c65 003d 1505 0e3e eff4 0cbc
000000d0: 6a95 303e f9e1 143e f1ce b9bd 71f3 1e3d
000000e0: 5048 43be b100 a0bd d588 183e 977e a0bd
000000f0: 2bb0 ccbd 29a8 9abd 8768 7a3d bad1 74bd
00000100: 1568 a6bd bc1a 363e b32b 02be 0231 1abe
00000110: dba2 e9bc e581 5abe 9ff6 e6be 86e9 fd3d
00000120: a91b 6cbe e9a1 a23d 48e7 183d 2c24 ccbd
00000130: 7234 23bd ff16 503d 114f 053d b9b0 12bd
00000140: 332e 8d3d ead4 1dbe 72a7 723e f7bc 2e3e
00000150: 43e5 1e3d 8ad5 3ebe 9171 86bd 3e23 3e3d
00000160: d040 edbd 3651 4c3c b2a1 153e 240c cdbd
00000170: 885d 65bc ee6a 1b3d 5b2c e2bd 859f c43d
00000180: 5df1 09be 73a2 55bc c0b2 6abd dff9 89b9
00000190: 030a 8dbe 0a34 44be a9ce 1abe 26af d0bd
000001a0: 9238 b93c 5ed1 b33d 666a 85bd 4514 4b3d
000001b0: f004 d03d f43e 4e3e 9d74 12be a450 28bd
000001c0: adfb 753d 5313 e2bd 3354 d7bd fe8b 303c
000001d0: ce1d 2b3b 7d52 9fbd fc38 9fbd 3be5 5e3e
000001e0: 8a79 b5bd 9841 a13d b5ca 233d d171 95bd
000001f0: 72cc fbbd 0d80 4bbd dd31 afbd ad34 e1bd
00000200: 9140 0a3e 5989 8e3d f3ba cb3b 5d0f f73c
00000210: be0e 00be 9077 44be d450 913d 0b34 af3d
00000220: 77fe c73c 6364 9e3d ced4 2cbe dfe3 acbe
00000230: fc9e 613c a7bf ad3d 5da7 3c3c bb33 f93d
00000240: 563b ee3d bbe3 94bd 85b8 3b3d 6f08 033e
00000250: bd2d 1e3e 74ac 863e 4d5e 0f3e b9bc 2a3e
00000260: f5e7 43be 30ed 0e3e 3260 48bc e903 123e
00000270: 377f 48be e352 91be be2e b13b 39e9 9e3d
00000280: 823c 8f3d 55cf 5c3c 686c 96bd 620e 463d
00000290: 6d38 a4bb 796c d9be c7fb 63be 0530 10be
000002a0: 837d b93d dbce 073e f864 a43d a968 123e
000002b0: ee5c 91be 0fca 75bd 5742 443c 54a8 423e
000002c0: 5f64 c93d 10e2 bcbe 563d d138 a474 483d
000002d0: 8058 e4bd 67bb bb3c 4f7a 0bbe 71f0 0c3d
000002e0: d3f0 c8bd b2d3 513e f876 c3bc 2c4b 463e
000002f0: bcfb a9bd b169 533d 57eb 6dbd 6244 57be
00000300: f340 683e c306 a33d eab3 5c3b 66ab 96bd
00000310: c764 49be 4223 e33d 2295 b9bd 1d60 153d
00000320: 1e69 353c 560f af3d f9f0 893d 614b 27be
00000330: b7ec 053e cde2 8cbc 8db4 36bb 1b2b 373e
00000340: 7e8b 00be 7bbc cbbc 7387 513c 0440 c4bd
00000350: f179 8ebd 76bf 31bc 8bbd debd 1bac 45be
00000360: 79c4 32be 876b 76bd 0ad4 85bc b9e8 09be
00000370: fe63 3a3e af41 fc3d cedf 623e c92c 8ebe
00000380: 78b9 813e 9170 ffbd c342 2abe 998a cd3d
00000390: b9b7 6d3c 521a b8bd 4743 203d 669a 293c
000003a0: e520 6e3d f608 e2bd ece1 5b3e 73a0 0c3d
000003b0: 357f 913d b817 3ebe 5e88 6b3e 435b b9bd
000003c0: 67b1 393e 008a 233e 950d 5e3e 668f 3e3e
000003d0: 67e9 8a3d 6b01 eb3c fc15 9f3e 35aa 64bc
000003e0: cd18 733d 327c 6bbe 8d0c 1a3e 3eed 113e
000003f0: cdea 8d3e 9a55 243e b6db 30bd 1520 3e3e
0.049704093 -0.10772018 -0.072621234 0.119844384 0.22907951 -0.25643292 0.08783716 0.16859709
0.053457435 -0.19753726 0.095186986 0.24618115 -0.19312073 0.0872039 -0.084448494 -0.24382839
0.09753547 -0.24933581 0.08970363 0.10396336 -0.08029785 -0.069818996 0.084706046 0.005136918
0.19042729 -0.008097122 0.2626834 -0.0877906 -0.028700173 0.0068469914 0.22068164 -0.012016799
0.29119048 0.21097158 -0.16533959 0.04629522 -0.0502121 -0.063438095 -0.033327468 -0.19933122
0.19195604 0.047341052 0.22557789 0.054450378 -0.1546526 -0.07560603 -0.053987138 -0.004891865
0.13072377 0.031346783 0.13869126 -0.008603319 0.17244497 0.14539327 -0.09072674 0.038806383
-0.19070554 -0.07812632 0.14895947 -0.07836645 -0.09994539 -0.07551605 0.06113484 -0.059770323
-0.08125321 0.17783636 -0.12711982 -0.15057757 -0.028520038 -0.21338613 -0.45110032 0.12398057
-0.23057427 0.07941038 0.037329942 -0.09967837 -0.039844938 0.05080318 0.032546107 -0.035813067
0.068935774 -0.15413252 0.23696688 0.17064272 0.03879286 -0.18636146 -0.0656463 0.04642033
-0.11584628 0.012470534 0.14612463 -0.10012081 -0.01399935 0.037943773 -0.110436164 0.096007384
-0.13470979 -0.013039219 -0.057299376 -0.00026316845 -0.275467 -0.19160476 -0.15117897 -0.10189657
0.022609983 0.08780168 -0.065144345 0.049579877 0.10157192 0.20141202 -0.14302297 -0.04109253
0.06005447 -0.11038842 -0.105141066 0.010775564 0.0026110294 -0.07779405 -0.07774541 0.21767132
-0.08861072 0.07873839 0.03998824 -0.072970994 -0.12294854 -0.049682666 -0.085544325 -0.10996375
0.13501193 0.06959791 0.0062173544 0.030158693 -0.12505624 -0.19186234 0.07095495 0.08554848
0.02441333 0.07733991 -0.16878054 -0.33767602 0.013770815 0.084838204 0.011514512 0.1216807
0.11632411 -0.07269999 0.04583027 0.12796186 0.15447135 0.26303446 0.14000817 0.16673554
-0.19131453 0.13957667 -0.012229966 0.14259304 -0.19579779 -0.2838355 0.0054071834 0.077593274
0.06993963 0.013477166 -0.073448956 0.04835356 -0.0050116093 -0.4246557 -0.22264014 -0.14080818
0.090571426 0.13262503 0.08027071 0.14297737 -0.28391212 -0.06000715 0.011978707 0.19009525
0.098335974 -0.36891222 9.977321e-05 0.048939362 -0.111496925 0.022916509 -0.13620876 0.03440899
-0.098115586 0.20490912 -0.02386044 0.19364613 -0.08299968 0.051614467 -0.058085766 -0.2102218
0.22681026 0.07960274 0.0033676573 -0.073569104 -0.1966735 0.11090709 -0.09061648 0.036468614
0.011072425 0.08547847 0.06735415 -0.16337349 0.13078581 -0.01719799 -0.0027878613 0.17887537
-0.12553212 -0.024870148 0.012788641 -0.095825225 -0.06956852 -0.0108488705 -0.10875996 -0.19303934
-0.17457761 -0.06016114 -0.01633646 -0.13467683 0.18202206 0.12317216 0.22155687 -0.27768543
0.25336814 -0.12472642 -0.1662703 0.10036201 0.014509135 -0.08989395 0.03912666 0.010351753
0.05813684 -0.110368654 0.21472901 0.034332704 0.07104341 -0.18563735 0.23001239 -0.0905061
0.1813408 0.15970612 0.21684869 0.1860939 0.06782799 0.0286872 0.3107146 -0.013956596
0.059349824 -0.22996596 0.1504385 0.14250657 0.277182 0.1604828 -0.043178283 0.18566926

net.2.bias f4 [60]
00000000: ba00 303d 5b0d 723c be7c 70bd 5f77 58bd
00000010: 1558 3a3d 519a b63c a2b7 0e3d 4aae 033e
00000020: 9a0b b63d 1403 05be 0478 c03c b750 97bb
00000030: 71c7 87bc a5e1 d03d 8d75 aebd 4685 a8bd
00000040: 2055 69bd 473e 713d 9790 3abd 122c b1bd
00000050: 4f7f ecbd cbc9 89bd 373d 82bc b1e2 843d
00000060: f523 863d 8c0a aebd a6a2 c3bd 7246 673d
00000070: ceea 043b 275c 5cbd 9a9f f9bc 7dc7 99bd
00000080: 3964 96bd 7846 93bd 7cb7 0e3e 76fb 0f3d
00000090: 106d b9bd b655 dd3c 9fd6 793d 5977 5a3d
000000a0: 853d 0abd af6e 15bd 2c6a fdbc 3278 bb3d
000000b0: bc09 b1bd 4b54 e4bd 654a f23d a263 ffbc
000000c0: a706 8fbd 5173 c4bd bbc3 373c dab9 f73c
000000d0: fdbe 0dbd 564f c8bd bc5a b83d dca5 4e3c
000000e0: a602 37bd 9ed9 b93d 4a94 87bd 863f babd
0.042969443 0.014773692 -0.058712713 -0.052848216 0.045494158 0.02229038 0.034843095 0.12859455
0.088889316 -0.12989455 0.023494728 -0.0046177763 -0.016574593 0.10199288 -0.08518515 -0.08228545
-0.056965947 0.058897283 -0.045548048 -0.08650984 -0.1154772 -0.06727942 -0.01589833 0.064885505
0.06549827 -0.084981054 -0.09552507 0.056463666 0.0020281556 -0.05379882 -0.030471612 -0.075087525
-0.07343335 -0.07191175 0.13937181 0.03515192 -0.09054005 0.02701841 0.060995694 0.053336475
-0.033750076 -0.03648251 -0.030934416 0.09153785 -0.08644435 -0.1114889 0.11830596 -0.031175438
-0.06983691 -0.09592307 0.011216099 0.030239988 -0.03460597 -0.09780757 0.09001681 0.012612786
-0.04468026 0.0907471 -0.06620081 -0.090941474

net.5.weight f4 [1, 60]
00000000: c2fe d03b 2df6 bdbe 861e e73d 5621 60be
00000010: 5055 68be 5206 b2bd 4211 863e e6dd a1bc
00000020: 36a7 7dbd 1b43 7d3d 1085 92bd 474f b53d
00000030: 61ce 41be 529b 803d 4cca d63d 7362 89be
00000040: 1a0c 203e 5087 6fba 5233 b1be 3a4a 4a3d
00000050: 6702 abbb bf8c c3bd f28c 7dbd 9f70 723b
00000060: 0a71 7b3e 13e2 a43e d283 22bd b214 b8bd
00000070: c0c1 7ebd c8f3 a4bd 88d6 57bb 6283 a13e
00000080: 905b abbc b6aa 913e b6d3 87bd 1687 c43c
00000090: dd6c 863c 263c 76bd f8c6 6cbd 5071 663d
000000a0: 7731 603e 9d03 9bbd 161b 233e b495 283e
000000b0: 2b28 6dbd 2087 383d 160c 123d 9bd1 693e
000000c0: 97d6 d1bc fc4d efbc 166f 063e 9354 54bc
000000d0: f8c2 c53d c372 6a3e eaa9 973e fb6f aa3e
000000e0: 0378 743e 02da 1d3d 8d07 b73c 3053 76bd
0.0063780257 -0.3710188 0.11285119 -0.21887717 -0.22688794 -0.08692612 0.26185042 -0.01975913
-0.061927043 0.061831575 -0.07154286 0.088530116 -0.18926384 0.06279625 0.10487804 -0.26832923
0.15629616 -0.00091372896 -0.34609467 0.049387194 -0.0052187922 -0.095483296 -0.061901994 0.0036993397
0.2455484 0.3220373 -0.039676495 -0.08988322 -0.062196493 -0.0805431 -0.0032934267 0.3154555
-0.020917684 0.28450555 -0.066321775 0.023990195 0.016409332 -0.060115956 -0.05780694 0.056260407
0.2189387 -0.075690486 0.15928301 0.16463357 -0.057899635 0.04505074 0.035656057 0.22833864
-0.02561502 -0.02921199 0.13128313 -0.012959617 0.09656328 0.2289534 0.29621822 0.3328856
0.23873906 0.038537987 0.022342468 -0.060137928
