results/PINN/NASA results/2-2/Experiment1/model.pth (torch, 59646 bytes, 14 tensors)

encoder.net.0.weight f4 [60, 17]
0	0xbea44dce	-0.3209061
1	0x3e733995	0.23752435
2	0x3e2d7055	0.16937383
3	0x3d6950ea	0.05696193
4	0x3e168a49	0.14701189
5	0xbe21b5b7	-0.15791975
6	0x3e10dc70	0.1414659
7	0x3e14a916	0.14517626
8	0xbde4142a	-0.111366585
9	0xbead8f0b	-0.33898196
10	0x3d942bf6	0.072349474
11	0x3e666c79	0.22502317
12	0xbe57b6f6	-0.21065888
13	0x3e220bac	0.15824765
14	0x3d9aac05	0.07552341
15	0xbde8abdd	-0.11360905
16	0x3d196a45	0.037454862
17	0xbea4f03e	-0.3221454
18	0xbec63bb6	-0.3871743
19	0x3e709a9d	0.2349648
20	0x3e254678	0.16140163
21	0x3d9a532c	0.07535395
22	0xbebccc29	-0.36874512
23	0x3dfa0329	0.12207634
24	0x3d7f987a	0.062401272
25	0x3d05225a	0.032503463
26	0x3d98bc32	0.074577704
27	0x3de6ed5a	0.1127574
28	0xbe7c771d	-0.24654813
29	0x3e816f63	0.25280294
30	0xbe1aca44	-0.1511622
31	0x3e9efbfd	0.31051627
32	0x3ebe9207	0.37220785
33	0x3e0b205f	0.13586567
34	0x3e662cda	0.22478047
35	0xbd8c3d1b	-0.068475924
36	0xbee36cfa	-0.4441908
37	0xbc9798f0	-0.018505543
38	0xbc41dc66	-0.011832332
39	0xbc290f8a	-0.010318646
40	0xbde86722	-0.11347796
41	0xbd887f85	-0.066649474
42	0xbc85472d	-0.01626929
43	0x3d2972d5	0.041369278
44	0xbeb5926e	-0.3546328
45	0xbd97408d	-0.07385359
46	0xbe12b0f6	-0.14325318
47	0xbc8e1961	-0.017346086
48	0x3d000640	0.03125596
49	0xbe7047bd	-0.23464866
50	0xbd80c04e	-0.06286679
51	0xbd19fc0b	-0.037593883
52	0x3d8ed0b2	0.06973399
53	0xbe2f3db1	-0.17113377
54	0xbe64fefb	-0.22362892
55	0x3d3ceebe	0.04612612
56	0xbecf111d	-0.40442744
57	0x3e040a10	0.12894464
58	0x3e177929	0.14792313
59	0xbcdf6eb5	-0.027274469
60	0xbdeddc3d	-0.11614273
61	0x3e3a8f69	0.18218769
62	0x3d9f036d	0.07764325
63	0x3e755540	0.23958302
64	0x3e99d1d6	0.30042905
65	0xbd18cece	-0.0373066
66	0xbe5d41c8	-0.21607125
67	0xbe46f428	-0.19429076
68	0x3e76f855	0.24118169
69	0x3df84725	0.12122945
70	0xbe51e4e0	-0.20497465
71	0x3d307ee1	0.04308975
72	0xbdb5b2af	-0.08871972
73	0x3d7e773a	0.062125422
74	0x3d160c13	0.03663261
75	0xbdbaefd1	-0.091277726
76	0x3db75533	0.08951797
77	0xbed3b491	-0.413487
78	0xbdb3e64b	-0.08784159
79	0xbe9f657f	-0.31132123
80	0x3e16691f	0.14688538
81	0x3d6e57c0	0.058189154
82	0x3d9dc9c7	0.077045016
83	0x3dd7a4b7	0.10529464
84	0x3e34b7aa	0.17648187
85	0xbc37b525	-0.011212622
86	0xbc814cd8	-0.015783712
87	0x3d3862d0	0.04501611
88	0x3dd72de5	0.105068006
89	0x3d5a61cc	0.053315923
90	0x3db7772d	0.08958278
91	0xbdc8b022	-0.0979922
92	0x3dd0eda2	0.10201575
93	0x3db15ace	0.08659898
94	0xbdee358d	-0.11631308
95	0xbde2c97f	-0.110735886
96	0xbd82dc6a	-0.06389697
97	0xbc9cb737	-0.019130332
98	0x3dae3a05	0.0850716
99	0x3b612229	0.0034352636
100	0x3cdf7303	0.027276522
101	0x3d0a8a60	0.03382337
102	0xbe565160	-0.2092948
103	0x3c149425	0.0090685235
104	0x3dae365b	0.08506461
105	0x3ce00e66	0.027350616
106	0x3e275ff0	0.16345191
107	0x3dba7be3	0.09105661
108	0xbd73d09d	-0.05952512
109	0x3dd5d903	0.10441782
110	0xbe82faff	-0.2558212
111	0xbcbcab12	-0.023030791
112	0x3dc589f2	0.096454516
113	0xbdb67fff	-0.08911132
114	0xbd403de3	-0.04693402
115	0x3e013210	0.12616754
116	0xbea2309b	-0.31677708
117	0x3e1f1421	0.15535022
118	0x3de6ab06	0.11263089
119	0x3e0186ac	0.1264903
120	0x3d051dd0	0.032499135
121	0xbd97ef91	-0.074187405
122	0xbe8ffc6d	-0.28122273
123	0xbe0fd205	-0.1404496
124	0xbd8023f2	-0.06256856
125	0x3e189f84	0.149046
126	0xbe84af75	-0.25915113
127	0xbd2a76f7	-0.04161736
128	0x3e9699db	0.29414257
129	0xbe25d5fb	-0.16194908
130	0xbe6867cf	-0.2269585
131	0xbcc0166c	-0.023448192
132	0xbd762820	-0.06009686
133	0xbeb538c3	-0.35394868
134	0xbe9d6474	-0.30740702
135	0xbd47906f	-0.048721727
136	0xbe86f4c7	-0.26358625
137	0x3de40e7a	0.11135574
138	0xbd902d0d	-0.07039843
139	0x3d866ac9	0.065633364
140	0xbebbfc87	-0.367161
141	0x3e536ff4	0.20648175
142	0xbc0e9f49	-0.008704969
143	0x3e50f9ed	0.20407839
144	0x3de65b70	0.11247909
145	0xbe24f5da	-0.1610941
146	0xbdc1d6b1	-0.09464777
147	0xbd6bb78a	-0.057548083
148	0x3e87fed6	0.26561612
149	0x3e38031c	0.17969936
150	0x3d2f5df1	0.0428142
151	0xbecebe48	-0.40379548
152	0xbd7f25c3	-0.06229187
153	0x3d90bd41	0.07067347
154	0xbd92198a	-0.071337774
155	0x3e7a6e44	0.24456125
156	0x3e5332e2	0.20624879
157	0x3e4173fc	0.18891901
158	0xbe1bd57a	-0.15218154
159	0x3d896e7f	0.067105286
160	0xbb0d858a	-0.0021594488
161	0x3dcad922	0.09904696
162	0xbe86cc3a	-0.26327688
163	0xbdd856fd	-0.10563467
164	0xbea43567	-0.32071993
165	0x3de6c703	0.11268427
166	0xbe00ff18	-0.1259731
167	0xbe6ab607	-0.22921
168	0xbeaa8e49	-0.3331168
169	0x3d38be1f	0.04510319
170	0x3ddac3a5	0.106818475
171	0x3e22db11	0.1590388
172	0x3e0fbf10	0.14037728
173	0xbdfb5170	-0.12271392
174	0x3d0dc2c6	0.03460958
175	0xbdaf092a	-0.0854667
176	0xbd794116	-0.060853086
177	0x3e1f0658	0.15529764
178	0x3df86a83	0.121296905
179	0xbce536f6	-0.027980309
180	0xbe0f3e5b	-0.1398863
181	0x3dc654b6	0.09684126
182	0xbe80101b	-0.25012287
183	0x3e6c59fc	0.23081201
184	0xbda558fc	-0.08073613
185	0xbd91c966	-0.07118492
186	0x3d6c4131	0.05767936
187	0xbce0bd07	-0.027433885
188	0x3e151f7d	0.14562793
189	0x3df0c6e9	0.11756689
190	0x3ce74685	0.028231869
191	0x3e0a2f3e	0.13494584
192	0xbdad01a2	-0.08447577
193	0x3e1c5fb7	0.15270887
194	0xbe4c98d4	-0.19980174
195	0x3d80eae9	0.062948056
196	0xbcbdb78f	-0.023158817
197	0x3e188e74	0.14898092
198	0xbd62f726	-0.05541148
199	0xbd8a2e49	-0.067471094
200	0x3ddaee3d	0.106899716
201	0x3dc31bde	0.095267996
202	0xbe38e07a	-0.18054381
203	0x3e0769e0	0.13223982
204	0xbd028682	-0.031866558
205	0x3d88e6af	0.066846244
206	0xbbe532ed	-0.006994596
207	0xbd1d49c9	-0.038400445
208	0xbdd44c3d	-0.10366104
209	0x3d47242d	0.048618484
210	0x3dfa9166	0.12234764
211	0x3e946330	0.28981924
212	0x3dfc70bb	0.12326189
213	0xbddf8b94	-0.10915294
214	0xbd5122cf	-0.051058587
215	0xbd19d6ff	-0.037558552
216	0xbc840146	-0.016113888
217	0x3db5e121	0.088808306
218	0xbdec1ce1	-0.11528946
219	0x3d557955	0.052117664
220	0xbdbb83df	-0.09156012
221	0x3de807e3	0.11329629
222	0x3c23d564	0.009999607
223	0x3e81addc	0.25327957
224	0xbe1ea919	-0.15494193
225	0x3e93ff07	0.28905508
226	0x3d87cf70	0.066313624
227	0xbab8fc90	-0.0014113355
228	0xbb28ece2	-0.0025775959
229	0x3e396f1e	0.18108794
230	0xbd7b233b	-0.061312895
231	0x3c7fb428	0.015606917
232	0xbe9e0f2b	-0.30870947
233	0xbe23b75d	-0.15987916
234	0x3e41e181	0.18933679
235	0xbdbea75a	-0.093092635
236	0xbd9a44fd	-0.0753269
237	0x3e6830f7	0.22674929
238	0x3deb1f6e	0.11480604
239	0x3c615d08	0.013755091
240	0x3dc12bcb	0.09432181
241	0x3e460afa	0.19340125
242	0x3e403be4	0.18772846
243	0xbe590645	-0.21193798
244	0xbe552114	-0.208134
245	0x3e1b2451	0.15150572
246	0xbd9a6f39	-0.07540745
247	0xbe426d01	-0.18986894
248	0xbcf9929c	-0.030465417
249	0xbdda1397	-0.10648268
250	0xbe4ce0e6	-0.20007667
251	0x3e423322	0.18964818
252	0xbe0823e3	-0.1329494
253	0xbc22ee91	-0.009944574
254	0xbda7d864	-0.0819557
255	0xbd6cfb81	-0.05785704

encoder.net.0.bias f4 [60]
0	0x3d80cf0a	0.062894896
1	0x3d621569	0.0551962
2	0x3d2d084d	0.042244244
3	0xbd2878c6	-0.041130804
4	0x3d78c406	0.060733818
5	0x3d33de6b	0.043913286
6	0xbd23a6e7	-0.039954092
7	0x3db9eaa5	0.09077958
8	0x3da45473	0.0802392
9	0xbdff7a84	-0.1247454
10	0xbd2f17fb	-0.04274748
11	0xbdb6cb66	-0.08925514
12	0x3d92397d	0.07139871
13	0xbdbef043	-0.0932317
14	0xbd926ab8	-0.07149261
15	0xbd652246	-0.05594089
16	0x3dabf64e	0.08396588
17	0x3d8e69e4	0.06953791
18	0xbd991143	-0.074739955
19	0x3dcc3ef1	0.099729426
20	0x3df49bae	0.11943756
21	0xbd9c3bb0	-0.07628572
22	0xbdb4ace6	-0.0882204
23	0xbd6686a0	-0.056280732
24	0xbca0e09c	-0.019638352
25	0x3dc115c5	0.0942798
26	0x3d6fdacc	0.05855827
27	0x3d53458a	0.05157999
28	0xbd020e73	-0.03175206
29	0x3da2dcfb	0.07952305
30	0xbd98910c	-0.074495405
31	0x3dc41698	0.09574622
32	0xbd8e379d	-0.06944201
33	0x3d90e5a0	0.070750475
34	0x3cc00d16	0.02344374
35	0xbcc1d2a0	-0.023660004
36	0xbd5bd3fd	-0.053668965
37	0xbd63e883	-0.055641662
38	0x3d97f79c	0.074202746
39	0xbd39bdfa	-0.04534719
40	0x3dd1d6a9	0.10246021
41	0x3dc6da11	0.097095616
42	0x3d13e568	0.03610745
43	0xbd256bb5	-0.04038592
44	0x3dee52b4	0.11636868
45	0xbc93bf80	-0.01803565
46	0x3d18d31f	0.037310716
47	0xbd1e6498	-0.038670152
48	0xbd71a652	-0.058996506
49	0x3d5dbe6d	0.054136682
50	0xbdb479f6	-0.08812325
51	0x3d4bac02	0.049724586
52	0xbda03421	-0.07822443
53	0x3da75bb4	0.08171788
54	0xba5b007e	-0.00083542604
55	0xbdc5a590	-0.09650719
56	0x3d9fb2a4	0.07797745
57	0x3bcd7038	0.006269481
58	0x3decd6b7	0.11564391
59	0x3cc9c68e	0.024630811

encoder.net.2.weight f4 [60, 60]
0	0xbdf996b2	-0.12186946
1	0xbd953dd2	-0.07287182
2	0xbd0736f3	-0.033011388
3	0xbdaa9bc7	-0.083304934
4	0xbd7c93f3	-0.061664533
5	0xbdcf5307	-0.10123258
6	0x3cb00b3c	0.021489732
7	0xbdebb177	-0.11508458
8	0xbde033a8	-0.10947353
9	0xbdde6417	-0.108589344
10	0x3c8b914e	0.01703706
11	0xbea00cfe	-0.31259912
12	0x3e42b951	0.19016005
13	0xbe81d648	-0.25358796
14	0x3d635cb2	0.055508323
15	0xbc8b4013	-0.016998326
16	0xbe472aeb	-0.19449966
17	0x3d090c2a	0.033458866
18	0x3dba9c16	0.09111802
19	0xbd7e5482	-0.06209231
20	0x3d20d5cf	0.039266404
21	0xbcf072a8	-0.029351547
22	0xbc01dea6	-0.007926619
23	0xbd849ce1	-0.06475235
24	0x3d987c7c	0.074456185
25	0x3cee5118	0.029091403
26	0xbdf1f007	-0.1181336
27	0x3e9359fb	0.28779587
28	0x3bebfa94	0.007201502
29	0xbe18024b	-0.14844625
30	0x3d80bf34	0.06286469
31	0x3bbeb57c	0.0058199745
32	0x3e71b74c	0.23605078
33	0xbd921f60	-0.071348906
34	0x3de2dec3	0.11077645
35	0x3dbd857c	0.09253976
36	0xbe2aeba7	-0.16691457
37	0xbe96bef2	-0.29442555
38	0x3e864897	0.26227257
39	0xbad100c0	-0.0015945658
40	0x3d82795b	0.06370803
41	0x3e134d9b	0.14385073
42	0xbc0f24e6	-0.008736825
43	0xbe258124	-0.16162544
44	0x3dcd475a	0.10023375
45	0xbd21d7f1	-0.03951258
46	0xbdcaf95d	-0.099108435
47	0x3c1d5d7c	0.009604808
48	0xbdedc7c8	-0.11610371
49	0xbc5977d2	-0.013273196
50	0x3e252726	0.16128215
51	0x3e54bd76	0.20775399
52	0xbcde6286	-0.027146589
53	0x3daee1a6	0.08539133
54	0xbe346323	-0.17615943
55	0x3d2a7790	0.04161793
56	0xbdce77a8	-0.10081416
57	0x3e13f245	0.14447887
58	0xbe8432eb	-0.25820097
59	0xbe14d03d	-0.14532562
60	0xbcfd2ddb	-0.030905655
61	0xbd3ba188	-0.045808345
62	0xbcc3809f	-0.023865042
63	0xbdea63c7	-0.11444812
64	0xbdd8448c	-0.10559949
65	0x3e15076e	0.14553615
66	0xbd0b5318	-0.03401479
67	0xbac1974e	-0.0014769824
68	0xbd244cfc	-0.04011248
69	0x3e7f72de	0.24946162
70	0x3e313ce2	0.17308381
71	0x3d83fa1a	0.064441875
72	0x3e68a5d9	0.22719516
73	0xbe077573	-0.13228397
74	0x3d07d6d2	0.033163853
75	0xbd9a0f6b	-0.07522472
76	0xbe069487	-0.13142596
77	0xbdfc5820	-0.12321496
78	0x3e17b658	0.14815652
79	0xbd113213	-0.035448145
80	0x3de1613e	0.110048756
81	0x3e3fbfb9	0.1872548
82	0xbd403e46	-0.04693439
83	0x3e190e70	0.14946914
84	0xbcfa9eae	-0.030593242
85	0x3da942b9	0.082646795
86	0xbcd99fe7	-0.026565505
87	0xbeb25dd3	-0.34837207
88	0xbe557026	-0.20843562
89	0xbe32842e	-0.17433235
90	0x3de696b0	0.1125921
91	0x3ecf1b9f	0.4045076
92	0x3e53fa10	0.2070086
93	0xbe318873	-0.17337207
94	0xbdbc7bf7	-0.09203332
95	0x3e2ddd1a	0.16978875
96	0xbddc1cae	-0.10747658
97	0xbdaf84cf	-0.08570253
98	0xbc7465a9	-0.014916816
99	0x3d6200f6	0.055176698
100	0x3cc76e7c	0.024344675
101	0xbe3c8307	-0.18409358
102	0x3d7a534f	0.061114606
103	0x3e593b73	0.21214084
104	0xbdafb16d	-0.08578763
105	0x3d8f813e	0.07007073
106	0xbdde4499	-0.10852928
107	0xbdad2087	-0.0845347
108	0xbe8ac59e	-0.27103895
109	0xbd02ecc1	-0.031964067
110	0x3c8c7401	0.017145159
111	0xbd097fe5	-0.033569235
112	0x3e93a11e	0.2883386
113	0x3c20da3b	0.009817655
114	0xbbf19c50	-0.00737337
115	0xbe7548d0	-0.23953557
116	0xbe1a4f00	-0.15069199
117	0x3de4fbce	0.111808404
118	0xbe2f8ea6	-0.1714426
119	0x3e47783d	0.19479461
120	0x3d8a19fc	0.067432374
121	0x3baf8c7b	0.0053573227
122	0x3e4a193c	0.19736189
123	0xbe3bdcb7	-0.18345915
124	0x3cbae3fd	0.022813791
125	0xbc224da4	-0.009906206
126	0x3d8bf9b4	0.068347365
127	0x3db2b051	0.08725036
128	0xbe2d7ec7	-0.16942893
129	0x3e71e024	0.23620659
130	0x3dd0fe17	0.10204714
131	0xbc27305e	-0.010204403
132	0xbe3ace13	-0.18242674
133	0xbd89b948	-0.06724793
134	0x3c9f30ab	0.019432386
135	0x3d86be4e	0.065792665
136	0x3d586364	0.05282916
137	0x3e3bd789	0.18343939
138	0x3d53290b	0.051552814
139	0xbe05dc12	-0.13072231
140	0x3e3e21cd	0.18567581
141	0x3e988e5f	0.2979612
142	0x3de39246	0.11111884
143	0xbe6a7d1d	-0.2289929
144	0xbcc5b183	-0.024132496
145	0xbe4e89b7	-0.20169722
146	0x3e33c6a9	0.17556252
147	0x3e4c5e79	0.19957913
148	0x3d9960f0	0.074891925
149	0x3df978ef	0.121812694
150	0x3e358435	0.17726214
151	0x3dcecfcc	0.10098228
152	0xbabc5828	-0.0014369534
153	0xbe144329	-0.14478745
154	0xbe787d7b	-0.24266617
155	0x3de64bd6	0.11244933
156	0x3d9648d7	0.07338112
157	0x3c388a14	0.011263389
158	0xbe51a69a	-0.2047371
159	0x3e1f2327	0.15540753
160	0xbd306882	-0.043068416
161	0xbdd57cc0	-0.10424185
162	0x3d1ac3eb	0.0377845
163	0xbe03813f	-0.12842272
164	0x3e380c8f	0.1797354
165	0xbe077a9e	-0.13230368
166	0x3e036646	0.12831983
167	0xbd245e4b	-0.040128987
168	0x3baa0a04	0.0051891822
169	0xbd4fb021	-0.05070508
170	0xbe670f83	-0.22564511
171	0xbdede532	-0.11615981
172	0x3d0846ef	0.033270773
173	0xbcb9e79e	-0.022693451
174	0x3de61c2d	0.11235843
175	0xbd916b6b	-0.071005665
176	0x3deb51bc	0.11490199
177	0x3e2acae4	0.16678959
178	0xba1bea77	-0.0005947719
179	0x3d99ba60	0.07506251
180	0x3d869928	0.06572181
181	0x3d848c8d	0.064721204
182	0xbc35527a	-0.011067027
183	0xbdd01ffe	-0.10162352
184	0xbd3fd438	-0.046833247
185	0x3cb43ff4	0.022003151
186	0x3e3b720e	0.18305227
187	0x3e711145	0.23541744
188	0x3de96bac	0.1139749
189	0x3c853b98	0.016263768
190	0x3e3b99e0	0.18320417
191	0xbe17a9c7	-0.14810859
192	0x3d60f80c	0.054924056
193	0xbe18d2a6	-0.14924106
194	0x3dde574c	0.10856494
195	0xbcbe101f	-0.023201047
196	0x3bb57da3	0.0055386587
197	0xbc4c725e	-0.012478439
198	0xbd1b0dfe	-0.03785514
199	0x3d965587	0.07340532
200	0xbc72a0ad	-0.014808816
201	0xbe1df397	-0.15424953
202	0xbded9830	-0.11601293
203	0x3d9d18d7	0.076707534
204	0xbdcaad71	-0.098963626
205	0x3e8a134d	0.2696785
206	0x3e0c8414	0.13722259
207	0xbde7e19d	-0.11322329
208	0xbe8b9226	-0.2725994
209	0xbcfccb30	-0.030858606
210	0x3d70ac17	0.058757868
211	0xbdd7aa8e	-0.105305776
212	0x3dd46c0b	0.1037217
213	0xbe304e77	-0.17217432
214	0x3c98a743	0.018634444
215	0x3dac7d6a	0.08422358
216	0xbcb56930	-0.022144884
217	0xbdf1ed30	-0.11812818
218	0xbd6bc4ce	-0.057560734
219	0xbbf84be9	-0.0075774086
220	0xbe2c4e5e	-0.1682677
221	0x3e3c9814	0.18417388
222	0x3e284ff3	0.16436748
223	0x3ebb57ac	0.36590326
224	0x3b6efc13	0.0036466166
225	0x3e47bd4c	0.19505805
226	0x3da8f86f	0.0825051
227	0x3c265fc9	0.010154673
228	0x3e2155bd	0.15755363
229	0x3d945b6e	0.07244001
230	0xbd38f4c3	-0.045155298
231	0xbe188e2b	-0.14897983
232	0x3d15e0e7	0.036591437
233	0xbdd612d6	-0.104528114
234	0x3d8d3c97	0.06896322
235	0x3e16e9c3	0.1473761
236	0xbe622ca7	-0.22087346
237	0xbd2a3a7c	-0.04155968
238	0x3a6075ec	0.00085624936
239	0x3be44106	0.006965759
240	0x3d55a845	0.052162427
241	0x3cd9fe53	0.026610529
242	0x3cc1ac1b	0.023641637
243	0xbe0779d0	-0.13230062
244	0xbdab48c9	-0.08363492
245	0x3e07fb3d	0.13279434
246	0x3e23d958	0.16000879
247	0x3e397246	0.18109998
248	0x3e852e3f	0.26011845
249	0x3d975640	0.07389498
250	0x3e17d912	0.148289
251	0x3d72fc26	0.0593225
252	0xbe66e150	-0.22546887
253	0x3e86fa5e	0.2636289
254	0x3e75aacf	0.2399094
255	0x3d3c21c8	0.045930654

encoder.net.2.bias f4 [60]
0	0x3d621c39	0.055202696
1	0x3d958593	0.07300868
2	0x3d250e66	0.040296935
3	0x3dcb46f4	0.099256426
4	0xbd64d0d0	-0.0558632
5	0x3da8c77e	0.08241175
6	0x3d8d5768	0.06901437
7	0xbd070ef4	-0.032973245
8	0xbd8ed2f2	-0.069738284
9	0xbbb002f4	-0.005371446
10	0x3d0a0a0a	0.03370098
11	0xbd813191	-0.06308282
12	0xbd8ae7f4	-0.06782523
13	0x3da4d644	0.080486804
14	0xbda100b1	-0.0786146
15	0xbd76cf3a	-0.06025622
16	0xbd9d6ee5	-0.07687167
17	0xbda70a70	-0.08156288
18	0x3d6e4b95	0.05817755
19	0xbd7eae49	-0.06217793
20	0x3cbbb2f4	0.02291248
21	0x3d277f6a	0.040892996
22	0xbd746288	-0.05966428
23	0xbd9474d1	-0.072488435
24	0x3d5d78fa	0.05407045
25	0x3dafa291	0.08575929
26	0x3d72a095	0.059235174
27	0x3c477a13	0.012175101
28	0xbdaa7a92	-0.0832416
29	0x3d9d5689	0.07682521
30	0x3dd83a63	0.105580114
31	0x3dbffb92	0.09374155
32	0xbd04da0f	-0.03243452
33	0xbdb6abc8	-0.089194834
34	0xbde80da3	-0.11330726
35	0x3d18c0af	0.037293132
36	0x3de14a8f	0.11000549
37	0xbd9ba6ab	-0.07600149
38	0xbd87cdb5	-0.066310324
39	0xbd75b58b	-0.059987586
40	0xbd8e4685	-0.06947044
41	0x3dd22590	0.10261071
42	0xbd916bef	-0.07100665
43	0xbde02bbc	-0.10945842
44	0xbd3b619a	-0.045747377
45	0x3d9e49fa	0.07728954
46	0xbb4fb341	-0.0031692537
47	0xbceeb8ce	-0.029140856
48	0xbd45538b	-0.048175376
49	0xbd88be6e	-0.066769466
50	0x3d8c23ae	0.06842743
51	0x3d58d830	0.052940547
52	0xbd173692	-0.036917277
53	0xbd9c08e2	-0.07618882
54	0xbd942490	-0.07233536
55	0x3d951e7b	0.07281204
56	0x3da7f0ca	0.08200224
57	0xbd452bfd	-0.048137654
58	0x3d2f9b0b	0.04287247
59	0xbdaa996e	-0.08330046

encoder.net.5.weight f4 [32, 60]
0	0x3cd379b6	0.025814872
1	0xbc542708	-0.012948759
2	0x3c689604	0.014195923
3	0x3d435e47	0.04769733
4	0x3e4ed3e5	0.20198019
5	0xbeef8470	-0.4678073
6	0x3e2474bc	0.16060156
7	0x3dd45a40	0.10368776
8	0x3d664ba4	0.05622448
9	0x3e346116	0.1761516
10	0x3e1f9022	0.15582326
11	0x3dedd812	0.11613478
12	0xbe28fc00	-0.1650238
13	0xbd13ab78	-0.036052197
14	0x3d012c9f	0.031536695
15	0xbdae269b	-0.08503457
16	0x3dc1c5dc	0.09461567
17	0x3db10e21	0.08645273
18	0x3e1fc76c	0.15603417
19	0xbe9de747	-0.30840513
20	0xbe21de8d	-0.15807553
21	0x3d438f60	0.047744155
22	0xbc27e6aa	-0.010247866
23	0x3e06b43a	0.13154688
24	0x3dbbdcbf	0.09172963
25	0x3d200835	0.039070327
26	0xbdfc3a27	-0.12315779
27	0x3cb1f3f1	0.021722766
28	0xbda3940b	-0.07987221
29	0xbcd2d377	-0.0257356
30	0xbe96785a	-0.29388696
31	0x3d0a5d06	0.03378012
32	0xbdb65656	-0.08903186
33	0xbe3e4d8c	-0.1858427
34	0xbe2a452f	-0.16627954
35	0xbeaf3059	-0.34216574
36	0xbdcb3fd7	-0.09924286
37	0xbcb8e3b8	-0.022569522
38	0xbe9cf9e8	-0.30659413
39	0x3d46f4da	0.048573352
40	0x3db58506	0.08863263
41	0xbe4b5f63	-0.19860606
42	0x3e660e75	0.22466452
43	0x3da1e12b	0.079042755
44	0x3de2e61e	0.110790476
45	0xbe3f1457	-0.18660103
46	0x3ebb2e00	0.36558533
47	0xbe0703c9	-0.13185038
48	0x3e17570b	0.14779298
49	0x3e31dda0	0.173697
50	0x3e0641b9	0.13111009
51	0xbd7e2361	-0.06204546
52	0xbd9a2c60	-0.07527995
53	0xbcc0e58f	-0.023546962
54	0x3e116f86	0.14202699
55	0xbd426224	-0.047456875
56	0xbd2a2cc8	-0.041546613
57	0xbd8f6caa	-0.07003148
58	0xba320341	-0.0006790646
59	0x3daa4080	0.08313084
60	0xbe6c529c	-0.23078388
61	0x3dbbbc68	0.09166795
62	0xbd9c52a5	-0.07632951
63	0x3d2948d1	0.04132921
64	0xbe5eec83	-0.2176991
65	0x3e2aebf9	0.16691579
66	0x3d3ea900	0.04654789
67	0x3cb0a8b8	0.021564826
68	0x3e2e240a	0.17005935
69	0xbe819e84	-0.2531625
70	0xbde12870	-0.10994041
71	0x3c3d9172	0.011570321
72	0xbd3a2651	-0.045446698
73	0x3d801deb	0.062557064
74	0x3d0f6797	0.0350109
75	0x3c51a218	0.012794994
76	0x3c70bb99	0.014693164
77	0xbd279ef4	-0.040923074
78	0x3e77b8b7	0.24191557
79	0x3d69699c	0.056985483
80	0xbe27e9d2	-0.16397789
81	0xbb0007ec	-0.0019535972
82	0x3d835532	0.06412734
83	0x3e44a98b	0.192053
84	0xbdab02dd	-0.083501555
85	0x3e141ae2	0.1446338
86	0x3e2fbaee	0.17161152
87	0x3cdf3d6e	0.027250972
88	0xbe3dbba2	-0.18528607
89	0x3dd80184	0.10547164
90	0x3b197ddf	0.0023420972
91	0x3e1a552b	0.15071552
92	0x3dd128b2	0.1021284
93	0xbd27ba75	-0.040949304
94	0xbe866176	-0.26246232
95	0x3de85ea3	0.113461755
96	0x3d3a565d	0.04549252
97	0x3c3218f1	0.010870204
98	0x3b83d3f1	0.004023068
99	0xbd07f8ab	-0.033196133
100	0xbbbb0571	-0.005707436
101	0xbd64f2b0	-0.055895507
102	0x3c189962	0.009313913
103	0x3c66d287	0.01408828
104	0x3dadf0b9	0.0849318
105	0x3e60c014	0.21948272
106	0x3e20d435	0.1570595
107	0x3e1180b1	0.14209248
108	0xbd0f119c	-0.034928903
109	0x3eb2413f	0.34815404
110	0xbc34a740	-0.011026204
111	0x3ca01b6e	0.01954433
112	0xbd9fb641	-0.07798434
113	0xbd363675	-0.044485528
114	0x3b4e88f5	0.0031514738
115	0x3bc68baa	0.0060591297
116	0xbdff88aa	-0.124772385
117	0x3d301486	0.042988323
118	0x3d827aee	0.06371103
119	0xbe52b4d0	-0.20576787
120	0xbdd5d2cf	-0.10440599
121	0xbe98f70a	-0.29875976
122	0x3e5e4af2	0.21708277
123	0x3d90532a	0.07047112
124	0x3e80c7ba	0.2515238
125	0x3d7fe791	0.0624767
126	0x3dd1a1fc	0.10235974
127	0xbe601264	-0.21882015
128	0x3d59df0d	0.053191233
129	0xbbec4c7a	-0.007211265
130	0x3e380e65	0.17974241
131	0x3e09cdf3	0.1345747
132	0x3c04fe75	0.008117308
133	0x3d077a80	0.03307581
134	0x3db98d07	0.09060102
135	0xbc94d356	-0.01816718
136	0x3e3fbaac	0.18723553
137	0xbe4d5262	-0.20050958
138	0xbd657a03	-0.056024563
139	0xbdbf9d9e	-0.09356235
140	0x3d773f8e	0.060363345
141	0xbe238a68	-0.15970767
142	0x3df8b973	0.12144747
143	0x3de3e7a6	0.11128168
144	0xbe0b1549	-0.13582338
145	0x3df71db7	0.120662145
146	0xbd7135fb	-0.05888937
147	0xbe142596	-0.14467463
148	0x3da6c076	0.08142178
149	0x3e75fdbd	0.24022575
150	0xbe09897e	-0.13431355
151	0xbd152fe0	-0.03642261
152	0x3d56f382	0.05247832
153	0x3de269f1	0.11055363
154	0xbd94782f	-0.07249486
155	0xbd382156	-0.044953667
156	0x3e53e797	0.20693813
157	0x3e2dcbaa	0.16972223
158	0x3e0e2cc8	0.1388427
159	0x3df42f64	0.119231015
160	0xbd6043ae	-0.054752044
161	0x3db755fc	0.08951947
162	0xbda1e3a9	-0.07904751
163	0x3d218f68	0.039443403
164	0x3e1b1c60	0.15147543
165	0x3d4075fc	0.04698752
166	0x3b02ef3d	0.0019979023
167	0x3dcad594	0.09904018
168	0xbe8e15a9	-0.277509
169	0x3eb312ef	0.34975383
170	0x3e454a5b	0.19266646
171	0xbe903a90	-0.2816968
172	0xbda21b0b	-0.07915314
173	0x3c93cf2f	0.018043129
174	0x3dde225b	0.108463965
175	0x3db9d8c7	0.0907455
176	0xbe25fd61	-0.16209938
177	0xbcf3f05a	-0.029777694
178	0xbb14ebe7	-0.0022723617
179	0x3dacb816	0.08433549
180	0x3d0083fc	0.03137587
181	0xbdfb7f69	-0.12280161
182	0xbe4438e0	-0.19162321
183	0x3eae27fb	0.34014878
184	0x3e13647e	0.14393803
185	0x3db51e63	0.088436864
186	0xbd1b584b	-0.037926
187	0xbe49f4ae	-0.19722244
188	0xbd996fb1	-0.074920066
189	0x3dccb972	0.099963084
190	0xbdd24e50	-0.10268843
191	0x3dd79f1d	0.10528395
192	0xbd2dde40	-0.042448282
193	0xbd20f8a6	-0.03929963
194	0x3e956cbc	0.2918452
195	0xbe469f75	-0.19396766
196	0xbe763738	-0.24044502
197	0xbe454f76	-0.19268593
198	0xbbe6257a	-0.0070235105
199	0xbdb58a16	-0.088642284
200	0xbca71ced	-0.020399535
201	0xbd76a89d	-0.060219396
202	0xbd4e1f26	-0.050322674
203	0x3e5f8589	0.21828283
204	0x3c74fa42	0.014952244
205	0x3be37f65	0.006942677
206	0x3e3cb653	0.18428926
207	0xbb17d0f6	-0.0023165322
208	0xbcc61c18	-0.024183318
209	0x3e85782d	0.2606825
210	0x3d1a2a90	0.037638247
211	0x3d4cfbdd	0.050044883
212	0x3d8ce566	0.06879692
213	0x3e591d11	0.21202494
214	0x3e2c389b	0.16818468
215	0x3e2cf887	0.1689168
216	0xbd10bf5f	-0.035338756
217	0x3d27d871	0.0409779
218	0x3e1f865d	0.155786
219	0xbd425ed3	-0.047453713
220	0x3e149582	0.14510158
221	0x3e232dad	0.15935393
222	0xbe015498	-0.12629926
223	0xbd510c25	-0.051036973
224	0x3e07810b	0.1323282
225	0x3d8aca99	0.06776924
226	0xbcd20d30	-0.025641054
227	0xbe292d43	-0.16521172
228	0xbdb7da56	-0.08977191
229	0xbeb35bd4	-0.35030997
230	0xbdea9f38	-0.1145615
231	0x3eb5a0ee	0.35474342
232	0x3e2846bd	0.16433235
233	0x3c384f1f	0.011249333
234	0x3dceceab	0.100980125
235	0xbdbc0202	-0.091800705
236	0xbe69da97	-0.22837292
237	0xbe41445b	-0.18873732
238	0x3da19cf3	0.07891264
239	0x3e8b0f1f	0.27159974
240	0x3d5c3c4b	0.053768437
241	0xbbd9754a	-0.0066362964
242	0x3d2306ae	0.039801292
243	0xbe91e80e	-0.28497356
244	0x3dfb59bb	0.12272974
245	0xbe50730b	-0.20356385
246	0xbe14c6d7	-0.14528976
247	0xbdc98357	-0.09839504
248	0xbd8251f8	-0.063632905
249	0x3ce57909	0.028011816
250	0x3ddb0691	0.10694612
251	0xbdc7a5f6	-0.097484514
252	0xbe64cda0	-0.22344065
253	0xbdf1e8bb	-0.11811968
254	0x3de9c79c	0.114150256
255	0xbd13b8a1	-0.036064748

encoder.net.5.bias f4 [32]
0	0xbdcc507c	-0.09976289
1	0x3db2f6cc	0.08738479
2	0xbd98566f	-0.07438361
3	0xbd6da1f2	-0.05801577
4	0xbd0de32c	-0.034640476
5	0x3daed823	0.085373186
6	0xbda4fc52	-0.08055939
7	0x3d1bf40a	0.03807453
8	0x3d63d5b3	0.05562372
9	0x3d484888	0.048897296
10	0x3d8d4e42	0.06899692
11	0xbe05e18f	-0.13074325
12	0x3d835c44	0.06414083
13	0x3df1c50f	0.11805164
14	0xbd811b16	-0.06303994
15	0xbda76d6d	-0.08175168
16	0xbb8ad0f7	-0.0042363363
17	0x3d90a6bd	0.07063053
18	0x3d66928c	0.0562921
19	0xbd9c1986	-0.07622056
20	0x3db210ee	0.08694635
21	0xbd9d974f	-0.076948754
22	0x3d92f02c	0.071747154
23	0x3da50ecf	0.08059465
24	0x3d968fe9	0.073516674
25	0xbdb9ffb5	-0.09081975
26	0x3d8a3c3d	0.06749771
27	0xba8859b6	-0.0010402713
28	0x3da4e644	0.08051732
29	0xbd87069d	-0.06593058
30	0xbd9c94d1	-0.07645572
31	0x3dda3e74	0.10656443

predictor.net.1.weight f4 [32, 32]
0	0xbb96b3ae	-0.004599056
1	0x3dcec1c2	0.1009555
2	0xbe35c3ec	-0.1775052
3	0x3e4a0a8e	0.19730589
4	0xbe8be9aa	-0.2732671
5	0x3c8ef365	0.017450044
6	0xbe93be51	-0.28856137
7	0x3e2d8308	0.16944516
8	0xbdade041	-0.08490039
9	0xbd057e07	-0.032590892
10	0xbde9b061	-0.11410595
11	0x3b831039	0.0039997366
12	0xbe96f023	-0.29480085
13	0xbe5c005f	-0.21484517
14	0xbcd4144b	-0.025888583
15	0xbe875aef	-0.26436564
16	0x3d98e2d7	0.07465141
17	0x3d58c340	0.05292058
18	0xbd2438e8	-0.040093333
19	0x3e01c04c	0.12671012
20	0x3dd3cdb1	0.10341967
21	0x3b4cfb78	0.0031277817
22	0xbe02308c	-0.12713832
23	0xbdf01213	-0.117221974
24	0x3cbcb9c3	0.023037797
25	0xbe286ec0	-0.16448498
26	0x3e5b4ab8	0.21415222
27	0x3e9f2654	0.3108393
28	0x3adfc366	0.0017071783
29	0x3e921afb	0.2853621
30	0xbdbcae5e	-0.092129454
31	0xbc46464c	-0.012101721
32	0x3e80cbb6	0.2515542
33	0x3eb45ff5	0.3522946
34	0xbe2d3731	-0.16915585
35	0xbead45ad	-0.3384222
36	0xbe82c17e	-0.25538248
37	0xbe154505	-0.1457711
38	0x3d09a9dd	0.03360926
39	0xbe13e2b3	-0.14441948
40	0x3d2a9095	0.04164179
41	0xbda2b573	-0.07944765
42	0x3dafa350	0.08576071
43	0xbe3e08d4	-0.18558055
44	0xbdbbcd82	-0.09170057
45	0xbdb16c88	-0.08663279
46	0xbd94b920	-0.07261872
47	0xbd938ee0	-0.072049856
48	0xbebdae3f	-0.37047002
49	0x3e5a522f	0.21320413
50	0x3dcae920	0.09907746
51	0x3e805d6e	0.2507128
52	0x3e0ec500	0.13942337
53	0xbc90fe60	-0.01769942
54	0xbd3e6cae	-0.046490364
55	0xbe3f3635	-0.18673022
56	0x3da379d2	0.0798222
57	0xbdf0b527	-0.11753302
58	0x3e54ac3d	0.20768829
59	0x3e67797c	0.22604936
60	0xbdd82af2	-0.10555066
61	0xbdd0eb8b	-0.10201176
62	0xbd04d0d5	-0.03242572
63	0x3e8b7ad4	0.27242148
64	0xbd6fbce8	-0.058529764
65	0xbd3db75d	-0.046317447
66	0xbddef3b8	-0.108863294
67	0x3e99a9f5	0.3001248
68	0xbe382a54	-0.17984897
69	0x3d1d82b8	0.03845474
70	0x3daac8b9	0.08339066
71	0x3cb1f58b	0.02172353
72	0x3d837582	0.06418897
73	0x3e2acd1f	0.1667981
74	0xbd82fa33	-0.06395378
75	0x3e36df81	0.17858697
76	0xbe813ba8	-0.25240827
77	0xbe328388	-0.17432988
78	0xbeba4b6f	-0.36385676
79	0x3d268c16	0.04066094
80	0xbf05f529	-0.5232721
81	0xbd0b31b2	-0.03398294
82	0xbb98bef9	-0.0046614376
83	0x3d985ef2	0.074399844
84	0x3da0c39a	0.07849808
85	0xbe1e5550	-0.15462232
86	0xbd5aa581	-0.053380493
87	0xbe807925	-0.25092426
88	0x3e1cd88b	0.1531698
89	0xbe3205a0	-0.17384958
90	0xbe8899ac	-0.26679742
91	0xbe174fe5	-0.14776571
92	0x3da63ff1	0.081176646
93	0x3bc82bc3	0.0061087324
94	0xbda07505	-0.0783482
95	0x3d195dfb	0.037443142
96	0x3d8deea0	0.0693028
97	0xbdc90107	-0.09814649
98	0xbd2e29ff	-0.04252052
99	0x3d927e42	0.07152988
100	0x3e3e4dcb	0.18584363
101	0x3da7c179	0.08191199
102	0x3c322af7	0.010874501
103	0xbe6de4f2	-0.23231867
104	0xbd1728ad	-0.036904026
105	0xbbec551d	-0.0072122947
106	0xbe438ad3	-0.19095926
107	0x3e98b6ce	0.2982697
108	0x3ce282e6	0.027650308
109	0xbcf708e2	-0.030155603
110	0x3e747c02	0.2387543
111	0xbe893088	-0.2679484
112	0x3cfaae09	0.030600565
113	0x3e1be1ab	0.15222804
114	0x3b2b97c5	0.002618299
115	0x3e54b555	0.20772298
116	0xbc97ca1d	-0.018528992
117	0xbea0d0af	-0.31409213
118	0xbd7dc1cb	-0.061952394
119	0xbe3edcf4	-0.18638974
120	0xbd8fd233	-0.07022514
121	0x3cb720f1	0.022354575
122	0x3e026e9f	0.12737511
123	0xbed2ddb6	-0.41184777
124	0x3e8300fd	0.25586691
125	0xbdfd6dfb	-0.12374493
126	0xbe2c11ea	-0.16803709
127	0x3d312624	0.043249264
128	0x3db7cbcb	0.08974417
129	0x3da5bc1a	0.08092518
130	0xbdee7201	-0.11642838
131	0xbd622d85	-0.055219192
132	0x3df32e4a	0.11874063
133	0x3e95ee45	0.29283348
134	0xbd2c1d92	-0.042020388
135	0xbdbe498e	-0.09291373
136	0x3e5c796f	0.21530698
137	0x3dd44c27	0.103660874
138	0x3d1ab565	0.037770648
139	0xbe1a9b19	-0.15098228
140	0x3e3dfe4b	0.18554036
141	0xbe456aa3	-0.1927896
142	0xbc880278	-0.01660274
143	0xbdfd4291	-0.12366212
144	0x3e6b474d	0.22976418
145	0x3e82834d	0.254908
146	0x3c38b616	0.011273881
147	0x3dec88d0	0.115495324
148	0x3d31b172	0.043382116
149	0xbcb9793f	-0.022640822
150	0x3dcd0970	0.10011566
151	0xbcca2a90	-0.024678499
152	0xbe809312	-0.25112206
153	0xbd85bdbc	-0.065303296
154	0x3dad4889	0.084611006
155	0xbd4bcc71	-0.049755517
156	0xbc22ae30	-0.009929225
157	0x3ccfa5b5	0.02534757
158	0x3e91c5cf	0.28471228
159	0xbe0fc329	-0.14039291
160	0xbe909db6	-0.28245324
161	0xbcee5702	-0.029094223
162	0xbbad933a	-0.005297092
163	0xbd9fcd01	-0.07802773
164	0xbd005458	-0.031330436
165	0x3d884579	0.06653876
166	0x3d0f6935	0.035012443
167	0xbf0ca1d0	-0.54934406
168	0xbeafa934	-0.3430878
169	0xbd5aa736	-0.05338212
170	0x3e31d0b5	0.17364772
171	0xbdf275f2	-0.118389025
172	0x3e226aa6	0.15860996
173	0xbe652962	-0.22379068
174	0x3d54c7ea	0.051948465
175	0xbdacc210	-0.08435452
176	0xbe82b77e	-0.25530618
177	0x3d815b91	0.06316293
178	0xbdc0896a	-0.0940121
179	0x3d8f004a	0.06982477
180	0x3e903c4e	0.2817101
181	0x3df02a50	0.117268205
182	0x3e35887a	0.17727843
183	0xbe05fe93	-0.13085394
184	0x3dd238f9	0.10264773
185	0xbe2f91cf	-0.17145465
186	0x3cea3aa2	0.028592411
187	0xbddeea67	-0.108845524
188	0xbd8ecdf4	-0.06972876
189	0xbdec11e5	-0.115268506
190	0xbed22764	-0.41045678
191	0xbe04ba86	-0.12961778
192	0x3e143a97	0.14475475
193	0xbc4ccb65	-0.012499665
194	0xbdf4c535	-0.11951677
195	0x3ea25a51	0.3170953
196	0xbe501a6d	-0.2032258
197	0x3db02f64	0.08602789
198	0xbdcb569e	-0.0992863
199	0xbe7736f0	-0.2414205
200	0xbd6bc4ec	-0.057560846
201	0xbe571a3b	-0.210061
202	0xbd3a6aef	-0.045512136
203	0xbe393888	-0.18087971
204	0xbde51cd0	-0.11187136
205	0x3e99b9ea	0.30024654
206	0x3e924e52	0.2857538
207	0x3e6b1af4	0.229595
208	0xbd5dac4a	-0.054119386
209	0xbc11e061	-0.008903594
210	0xb8378f32	-4.376396e-05
211	0xbdfca50b	-0.12336167
212	0xbe0ec15f	-0.13940953
213	0x3e0e6f18	0.13909566
214	0xbddb10db	-0.10696574
215	0x3cd876b6	0.026423793
216	0x3a081229	0.00051906944
217	0x3d47de07	0.048795726
218	0xbe5d4d5a	-0.21611539
219	0x3ddc1717	0.107465915
220	0x3d838835	0.06422464
221	0xbdae0933	-0.08497848
222	0x3d9c6423	0.07636287
223	0x3c7a9322	0.015293868
224	0xbed797ac	-0.42107904
225	0x3ce7f995	0.028317252
226	0x3c212e48	0.0098376945
227	0x3d226ef3	0.03965659
228	0xbe54b1bc	-0.20770925
229	0x3d8cf53e	0.06882714
230	0xbe5e0068	-0.21679842
231	0x3e01eb9e	0.12687537
232	0xbd820b10	-0.06349766
233	0xbca7f428	-0.020502165
234	0xbeb6bd80	-0.35691452
235	0x3e2231db	0.15839331
236	0x3c66d355	0.014088471
237	0xbe4da1ab	-0.20081203
238	0xbe51616c	-0.2044732
239	0xbc66bbe9	-0.014082887
240	0xbe140714	-0.14455825
241	0x3db10a2c	0.08644518
242	0x3c595409	0.013264664
243	0x3db625a3	0.088938974
244	0x3cbe53b3	0.02323327
245	0xbee375f2	-0.44425923
246	0x3e7b9029	0.24566711
247	0x3e756822	0.23965505
248	0xbe8aef83	-0.27135858
249	0xbe3a4832	-0.18191603
250	0x3df28661	0.11842037
251	0x3e7372ae	0.23774216
252	0xbb1eeb41	-0.002424911
253	0x3e0d2ce5	0.13786657
254	0xbb13a40c	-0.00225282
255	0xbe21c0d5	-0.15796216

predictor.net.1.bias f4 [32]
0	0x3dbfee63	0.093716405
1	0xbdebfda2	-0.11522986
2	0x3dc45567	0.09586602
3	0xbdb34c49	-0.087547846
4	0x3dc638a9	0.09678776
5	0x3c2966b1	0.010339425
6	0xbdbd523a	-0.09244199
7	0x3db43cf5	0.08800689
8	0xbdc8ed63	-0.09810903
9	0x3dcc4901	0.09974862
10	0xbd9cc2d7	-0.0765435
11	0x3dc005a1	0.09376074
12	0x3dbe753d	0.09299705
13	0x3dc4f96d	0.09617887
14	0xbdc5097b	-0.09620949
15	0xbddd46b0	-0.10804498
16	0x3d481e3c	0.04885696
17	0x3dca1bf5	0.09868614
18	0x3dc503e5	0.096198834
19	0xbdd89da7	-0.10576945
20	0xbdbe893a	-0.09303518
21	0x3da5cc0c	0.080955595
22	0x3dbad882	0.09123327
23	0x3dd2633d	0.102728345
24	0x3db858f9	0.09001345
25	0x3dbeaf2b	0.093107544
26	0x3dcaedd1	0.09908641
27	0xbdd94bae	-0.10610138
28	0x3dbc8656	0.0920531
29	0x3d8bb8ed	0.06822381
30	0xbddda331	-0.10822142
31	0x3dbcaefe	0.092130646

predictor.net.3.weight f4 [1, 32]
0	0x3eb57015	0.35437074
1	0xbcf72d84	-0.03017307
2	0x3dc95a11	0.09831632
3	0xbcf9473b	-0.030429473
4	0x3e7e0b1c	0.24808925
5	0xbc8cedd5	-0.01720325
6	0xbed4a701	-0.41533664
7	0x3ddad11d	0.106844164
8	0xbe651582	-0.22371486
9	0x3bb01916	0.005374084
10	0xbcbae8e3	-0.022816127
11	0x3e8b0938	0.2715547
12	0x3e8d697a	0.27619535
13	0x3dd606e0	0.1045053
14	0xbe57f43d	-0.21089263
15	0xbcd22daf	-0.02565655
16	0xbcba4f32	-0.022742841
17	0x3e8b5b66	0.2721817
18	0x3f123279	0.57108265
19	0xbd9b5f33	-0.07586517
20	0xbec8d708	-0.39226556
21	0x3d1c78b3	0.038201045
22	0x3e8a9eb1	0.27074197
23	0x3e1d903a	0.1538705
24	0x3e5bf6ec	0.21480912
25	0x3ebafeb9	0.36522463
26	0x3ed2930d	0.41127816
27	0xbd5d538c	-0.054034755
28	0x3e8e8cc0	0.2784176
29	0xbc2ad1e6	-0.01042602
30	0xbdbb12dd	-0.09134457
31	0x3d630bb6	0.05543109

net.0.weight f4 [60, 35]
0	0xbdd29373	-0.1028203
1	0xbd2f5e7a	-0.04281471
2	0xbdcc712e	-0.09982525
3	0x3b728a7f	0.003700882
4	0xbd8d15fc	-0.06888959
5	0x3c4871b1	0.012234137
6	0xbdece969	-0.11567957
7	0xbe06aebf	-0.13152598
8	0xbd21f2b4	-0.0395381
9	0x3c464557	0.012101493
10	0xbea416d2	-0.3204866
11	0x3ead79a6	0.33881873
12	0xbe6472d7	-0.22309433
13	0xbd416845	-0.04721858
14	0x3e3b89cc	0.18314284
15	0xbd10138d	-0.035174895
16	0x3e513838	0.20431602
17	0x3d8aa651	0.067700036
18	0xbe15bd32	-0.14622954
19	0xbd1dcbdf	-0.038524505
20	0xbd8c618d	-0.06854544
21	0xbd63845f	-0.05554616
22	0xbda79d80	-0.081843376
23	0xbec3a3be	-0.38210863
24	0xbd0b3ad8	-0.033991665
25	0x3d3bf609	0.045888934
26	0xbcaeddeb	-0.021346053
27	0x3e30c27f	0.17261694
28	0xbea04f20	-0.31310368
29	0x3e2a9378	0.16657817
30	0xbd7f0742	-0.06226278
31	0x3e9c499d	0.30524912
32	0x3cdbc976	0.026829462
33	0x3df1daa5	0.11809281
34	0xbe4dfe16	-0.20116457
35	0xbe1112e7	-0.14167367
36	0xbc276ed4	-0.010219295
37	0x3dc07890	0.093979955
38	0x3e4ce3c6	0.20008764
39	0x3ceca9c0	0.028889537
40	0x3e1e73b5	0.15473826
41	0x3d86803d	0.06567428
42	0xbe4077b3	-0.18795662
43	0xbdb5e703	-0.088819526
44	0xbe8902cf	-0.26759955
45	0xbe4b532b	-0.19855945
46	0xbe358dcd	-0.17729874
47	0x3b9e4a6a	0.004830648
48	0xbdc7cecb	-0.097562395
49	0x3dca97ef	0.0989226
50	0xbd1b8624	-0.037969723
51	0xbc4efb4c	-0.012633156
52	0xbe43e8c1	-0.19131757
53	0xba10154f	-0.0005496339
54	0xbd5431b1	-0.051805202
55	0x3e512444	0.2042399
56	0x3e398349	0.18116488
57	0x3e46f274	0.19428426
58	0x3e15d646	0.1463252
59	0xbdddc44e	-0.10828458
60	0x3c0b50ba	0.008503133
61	0xbd1affb3	-0.03784151
62	0xbe8bdc38	-0.2731645
63	0xbcf968ed	-0.03044554
64	0xbe144958	-0.14481103
65	0xbde07ae0	-0.109609365
66	0xbd9a9052	-0.07547058
67	0xbe3fc5ce	-0.187278
68	0x3ca52357	0.020158453
69	0xbd8b67ed	-0.06806932
70	0xbe30b833	-0.17257766
71	0xbe841a0c	-0.25801122
72	0x3e11c712	0.14236096
73	0x3e439fbb	0.19103901
74	0xbd87a70a	-0.06623657
75	0x3d5b11c0	0.053483725
76	0x3e2a0f8d	0.16607495
77	0x3e2721ae	0.16321442
78	0x3e21a8b7	0.15787016
79	0x3d866a82	0.065632835
80	0x3e83aff2	0.25720173
81	0xbda2929d	-0.079381205
82	0xbdbd4653	-0.09241929
83	0xbd45af02	-0.048262604
84	0x3da4fe7d	0.08056352
85	0x3dd52285	0.10406975
86	0x3bfe1ef5	0.007755155
87	0x3d0789fa	0.03309057
88	0xbd198fe9	-0.03749076
89	0xbd74dfe4	-0.05978383
90	0x3e7b9bf4	0.2457121
91	0xbe14f4fa	-0.14546576
92	0x39a4679e	0.00031357718
93	0x3dc78292	0.09741701
94	0x3de31ce1	0.110894926
95	0x3dc61ed0	0.09673846
96	0xbce2cefa	-0.027686585
97	0x3d0db5a9	0.034597073
98	0x3e183fb7	0.14868055
99	0xbca8716b	-0.020561894
100	0x3e708a2e	0.23490211
101	0x3d85b7b9	0.06529183
102	0x3e1f5ae5	0.15562017
103	0xbd5f5f6c	-0.05453436
104	0x3e3634ad	0.17793532
105	0x3e0a0c50	0.1348126
106	0x3e71dd3c	0.2361955
107	0x3e7e2a29	0.2482077
108	0x3bda3a67	0.006659794
109	0xbe71853f	-0.23585986
110	0x3da9408c	0.082642645
111	0xbdf1dcd3	-0.11809697
112	0xbcdf2a17	-0.02724175
113	0xbd422478	-0.04739806
114	0x3d99c3d6	0.07508056
115	0x3e21e188	0.1580869
116	0x3d4db0b3	0.05021734
117	0xbcc8cd57	-0.024511976
118	0x3e064688	0.13112843
119	0xbe6ed344	-0.23322779
120	0x3e259b14	0.16172439
121	0xbe437915	-0.19089158
122	0x3db4532a	0.08804925
123	0x3dfcb219	0.12338657
124	0x3dd70074	0.10498133
125	0xbe2bcc73	-0.1677721
126	0x3d9fe8c9	0.07808072
127	0x3e84edad	0.25962582
128	0x3e1ffc43	0.15623574
129	0xbd2345fb	-0.03986166
130	0xbc468e2c	-0.012118857
131	0x3e2f195e	0.1709952
132	0x3ce2803f	0.027649043
133	0x3d80a73a	0.06281896
134	0x3e4bd7df	0.19906567
135	0xbea4b0c3	-0.32166108
136	0xbd7bce50	-0.06147605
137	0xbdfed53b	-0.12443014
138	0xbdaec650	-0.08533919
139	0x3e10ec8d	0.14152737
140	0xbcd33fc9	-0.025787251
141	0x3c1f452d	0.009721083
142	0x3eac47d3	0.33648548
143	0xbcfefbef	-0.03112599
144	0xbe508765	-0.20364149
145	0xbbe3e001	-0.0069541936
146	0x3d483df8	0.048887223
147	0xbba42e0f	-0.0050103734
148	0xbe690e19	-0.22759284
149	0x3db7fdc2	0.08983947
150	0xbde45be4	-0.11150339
151	0xbd19cae2	-0.037547
152	0x3cd78307	0.026307596
153	0xbe09c331	-0.13453366
154	0x3db5d6b8	0.08878845
155	0xbdf466b8	-0.119336545
156	0xbde691cb	-0.112582766
157	0xbceaa417	-0.028642697
158	0x3bea6722	0.0071534077
159	0x3df17d30	0.11791456
160	0x3c1fe802	0.009759905
161	0x3d0c419c	0.034242257
162	0xbd8a37bc	-0.06748912
163	0xbdfd96fb	-0.12382313
164	0x3e2a1dda	0.1661295
165	0xbe70d173	-0.23517399
166	0x3ecb82ef	0.39748332
167	0xbe70ca48	-0.23514664
168	0xbd9ec0e7	-0.07751637
169	0xbd3b2439	-0.04568884
170	0xbcf23256	-0.029565018
171	0xbeae5bd4	-0.34054434
172	0xbde74440	-0.112923145
173	0x3da063c0	0.07831526
174	0x3e665956	0.22495016
175	0x3cd5e7f0	0.026111573
176	0xbdb9d69e	-0.09074138
177	0x3c1e0337	0.009644321
178	0x3c81c6e2	0.015841905
179	0x3d033619	0.032034013
180	0x3d79f9b2	0.061029144
181	0xbe4bc919	-0.19900931
182	0x3d1a9793	0.03774221
183	0x3d9fd141	0.07803584
184	0x3e688fb5	0.2271107
185	0xbd293f60	-0.041320205
186	0xbe589bec	-0.2115323
187	0xbd4a0309	-0.0493193
188	0xbded406c	-0.11584553
189	0xbbc4ff93	-0.006011912
190	0x3e8ce671	0.27519563
191	0xbc1e0ec9	-0.00964708
192	0x3c337949	0.01095421
193	0xbd9ac30d	-0.07556734
194	0x3e184bc9	0.1487266
195	0xbdbdf748	-0.09275681
196	0xbdfe037e	-0.1240301
197	0x3d7f7da8	0.062375695
198	0xbee38322	-0.44435984
199	0xbe466459	-0.19374217
200	0x3dbc4c94	0.091942936
201	0x3dcbaf0f	0.09945499
202	0x3e6641d2	0.22486046
203	0x3cd8ec92	0.026479993
204	0xbcdb89d4	-0.02679912
205	0xbc73cd42	-0.01488048
206	0xbdc6cc3c	-0.09706923
207	0x3ce032dc	0.027368002
208	0xbdf0205e	-0.117249236
209	0x3da4e35f	0.0805118
210	0xbcc7fed5	-0.024413506
211	0xbc4721ef	-0.0121540865
212	0xbe0a3b6b	-0.13499229
213	0x3e9d76b2	0.3075462
214	0xbdcced43	-0.100061916
215	0x3d5fbc0e	0.054622702
216	0x3e07eb54	0.13273364
217	0x3d4d207f	0.05007982
218	0xbe346703	-0.17617421
219	0xbd1592d1	-0.03651697
220	0x3e1a1955	0.15048726
221	0x3dccbd85	0.099970855
222	0x3e42c693	0.19021063
223	0x3dcfadf1	0.101405986
224	0x3d908cc3	0.07058098
225	0xbe1c09d9	-0.15238132
226	0xbdc01ce9	-0.09380514
227	0xbd23d69e	-0.039999597
228	0xbbd9a8e1	-0.0066424464
229	0xbddb6b45	-0.107138194
230	0xbd707e38	-0.05871412
231	0x3d74de1b	0.05978213
232	0xbd565908	-0.052331
233	0x3e94c984	0.29059994
234	0x3e9762e9	0.2956765
235	0x3e2b2e71	0.16716935
236	0x3c0957ae	0.008382721
237	0x3d76ff5d	0.060302127
238	0xbdfacc9d	-0.12246058
239	0x3c6d9c17	0.014502547
240	0x3e45f377	0.19331156
241	0x3e607af7	0.21921907
242	0x3d39a855	0.04532655
243	0x3ea4769e	0.32121748
244	0xbe3356e9	-0.17513622
245	0xbe793ebe	-0.2434034
246	0x39ebf0ea	0.00045002188
247	0x3e7fa217	0.24964176
248	0x3e0dd613	0.13851194
249	0xbdbf3c90	-0.09337723
250	0x3cb49164	0.022041984
251	0x3e41979a	0.18905488
252	0xbda451d0	-0.08023417
253	0x3df0ca78	0.11757368
254	0x3e73e5e1	0.2381816
255	0xbe5b2b54	-0.21403247

net.0.bias f4 [60]
0	0xbe191c9d	-0.14952321
1	0xbdb278e7	-0.087144665
2	0x3dd82f1c	0.105558604
3	0xbdbd0fe0	-0.092315435
4	0xbd3cf2d6	-0.046130024
5	0xbc47f1d1	-0.01220365
6	0x3dbe6dbc	0.09298274
7	0xbdff487d	-0.12464998
8	0xbde25b3c	-0.11052558
9	0xbd46d7ac	-0.048545524
10	0xbda06bc8	-0.07833058
11	0xbc0e0167	-0.0086673265
12	0xbd20a451	-0.039219204
13	0xbdc7183e	-0.09721421
14	0xbe16e9fd	-0.14737697
15	0xbe09af9d	-0.13445897
16	0x3c937bc3	0.01800335
17	0x3d759a1b	0.05996142
18	0x3e043b0f	0.12913154
19	0x3e1bf573	0.1523035
20	0x3caf04a1	0.021364512
21	0xbdd1965f	-0.10233759
22	0x3c851f03	0.01625014
23	0x3da7d9b5	0.08195821
24	0xbe00c794	-0.12576133
25	0x3dc9baca	0.0985008
26	0xbccb16dc	-0.024791174
27	0x3d1e15a0	0.038594842
28	0xbaff8b82	-0.0019496533
29	0xbe032ef8	-0.12810886
30	0xbd6a7042	-0.057235964
31	0x3bee8818	0.0072794072
32	0xbd6be6d4	-0.05759318
33	0xbca8ccb0	-0.020605415
34	0xbe2aa974	-0.16666204
35	0x3d019b76	0.0316424
36	0x3e06c4ec	0.13161057
37	0xbe274b5c	-0.16337341
38	0xbd5895ff	-0.052877422
39	0x3d8071cb	0.06271704
40	0xbdf7c800	-0.12098694
41	0x3d975154	0.07388559
42	0xbd81636c	-0.06317791
43	0x3d965d51	0.073420174
44	0xbd5090e9	-0.050919447
45	0x3d8997ea	0.067184284
46	0x3e0d06f8	0.1377219
47	0x3e1bd929	0.15219559
48	0xbdf6ea53	-0.120564125
49	0x3d468601	0.04846764
50	0xbc4ab132	-0.012371348
51	0xbe1f2c52	-0.1554425
52	0xbd2917f0	-0.041282594
53	0xbe1731dd	-0.14765115
54	0x3da9ce44	0.08291295
55	0x3cafebc1	0.02147472
56	0xbde1a124	-0.11017063
57	0x3e082551	0.13295485
58	0xbe10ea4b	-0.14151876
59	0xbd9091b1	-0.070590384

net.2.weight f4 [60, 60]
0	0xbe82a23e	-0.25514406
1	0xbcf17c9c	-0.029478364
2	0x3c6c619e	0.014427571
3	0xbd0bdc0f	-0.03414541
4	0xbe2be400	-0.16786194
5	0x3df1c132	0.11804427
6	0xbd2e1663	-0.04250182
7	0xbc8ba636	-0.017047029
8	0xbba7e2ea	-0.005123486
9	0xbe09931a	-0.13435021
10	0x3d827cdc	0.06371471
11	0xbe9857ba	-0.2975443
12	0x3e22a566	0.15883407
13	0xbd8d924e	-0.06912671
14	0x3e13bfe2	0.14428666
15	0xbd16b8ba	-0.036797263
16	0x3dab10e4	0.08352831
17	0x3d377a41	0.044794325
18	0xbaae41bf	-0.001329474
19	0x3e7d3540	0.24727345
20	0x3e3485be	0.17629144
21	0x3b46707b	0.0030279446
22	0xbbf03455	-0.007330457
23	0xbceccd33	-0.02890644
24	0x3e8840a1	0.26611808
25	0xbd9e439c	-0.07727739
26	0x3e39cd0f	0.1814463
27	0xbea3ea88	-0.3201487
28	0x3d817568	0.063212216
29	0x3d2fc9c7	0.04291704
30	0xbd948e53	-0.07253709
31	0x3d9a2825	0.07527188
32	0x3e496911	0.19668986
33	0x3e45e5b8	0.19325912
34	0xbd8355e7	-0.06412869
35	0x3dc0fde7	0.09423428
36	0xbcbff6bb	-0.02343308
37	0x3e10bd35	0.14134677
38	0x3de33790	0.11094582
39	0xbc0510b6	-0.00812166
40	0xbe168aec	-0.14701432
41	0x3d853c6d	0.06505666
42	0x3d7b12d2	0.061297245
43	0x3d0d73ae	0.03453415
44	0x3e17c051	0.14819457
45	0xbde7a3c2	-0.11310531
46	0xbe1785c2	-0.14797118
47	0x3d1a6ce8	0.037701517
48	0x3da1d27c	0.07901475
49	0xbdc991b5	-0.098422445
50	0x3e15c1c7	0.14624701
51	0x3d436f6b	0.04771368
52	0x3dac5dce	0.08416329
53	0x3e722b89	0.2364942
54	0xbe807c7c	-0.25094974
55	0x3e104e5d	0.14092393
56	0xbd03e64d	-0.032202054
57	0xbc2d0ca0	-0.010562092
58	0xbe92873a	-0.28618795
59	0xbcc53e65	-0.024077604
60	0xbd5604c3	-0.052250635
61	0x3cadf7a2	0.021236245
62	0xbcb2b2c0	-0.02181375
63	0x3d0870ef	0.033310827
64	0xbe7b93c6	-0.2456809
65	0x3e4c2c9d	0.19938894
66	0x3ba73ae1	0.0051034545
67	0x3a9dfcb8	0.0012053465
68	0x3e30f32e	0.17280266
69	0x3e45a9b8	0.19303024
70	0x3df1c17b	0.118044816
71	0xbd3ec987	-0.04657891
72	0xbd94a271	-0.07257546
73	0x3bac5535	0.005259181
74	0xbdc89306	-0.097936675
75	0xbd106e59	-0.035261486
76	0xbd175779	-0.036948655
77	0xbce03b0d	-0.027371908
78	0x3d3c3c58	0.045955986
79	0x3d4e67e3	0.050392043
80	0x3dccce92	0.10000338
81	0xbd986cd5	-0.07442633
82	0xbe86b975	-0.26313367
83	0xbce843db	-0.028352669
84	0xbd9f28a2	-0.07771422
85	0x3c21068b	0.00982822
86	0xbd5e41c4	-0.054261938
87	0xbd6ebfaa	-0.058288254
88	0xbe389a48	-0.18027604
89	0x3e8f4edb	0.2798985
90	0xbe80215f	-0.2502546
91	0x3e4deb83	0.20109372
92	0x3e336123	0.17517523
93	0xbd8fe93c	-0.07026908
94	0xbdbee98e	-0.09321891
95	0x3cb47650	0.022029072
96	0xbeac101e	-0.33606046
97	0xbe01be88	-0.12670338
98	0xbe16e978	-0.14737499
99	0xbbd2161d	-0.0064113275
100	0x3dbea37e	0.093085274
101	0x3dbe980c	0.093063444
102	0x3e2536c6	0.16134176
103	0xbdfeba77	-0.12437909
104	0xbe0e3b26	-0.13889751
105	0x3e32f129	0.17474808
106	0xbdf2a667	-0.11848145
107	0xbddce82a	-0.10786469
108	0x3e2e181c	0.17001384
109	0x3e3b744e	0.18306085
110	0x3d062239	0.03274748
111	0xbc9eb167	-0.019371701
112	0x3e0f5811	0.13998438
113	0xbdb4b9f3	-0.088245295
114	0xbc4720e4	-0.012153838
115	0xbdb48347	-0.08814102
116	0x3d386903	0.045022022
117	0xbe200550	-0.15627027
118	0xbda3f934	-0.08006516
119	0xbdf7ac84	-0.120934516
120	0x3cf2c025	0.029632637
121	0xbc905087	-0.017616523
122	0x3cd1ef92	0.025626931
123	0x3d4ded7b	0.050275307
124	0xbd0a5bbb	-0.033778887
125	0x3d384d58	0.044995636
126	0xbc5c552a	-0.013448039
127	0xbd390a89	-0.045176063
128	0xbe13dcb6	-0.14439663
129	0x3de0fba3	0.10985496
130	0xbcd1e598	-0.025622174
131	0xbdc07ad7	-0.0939843
132	0x3e44819a	0.19190064
133	0xbdb5a4f7	-0.08869355
134	0xbc4e3854	-0.012586672
135	0xbe8dba0a	-0.27681
136	0x3c872c6d	0.016500676
137	0x3e032ea9	0.12810768
138	0xbd3e892e	-0.046517543
139	0xbd220750	-0.039557755
140	0x3d1addf3	0.037809324
141	0x3d204fc1	0.03913856
142	0x3dbad16f	0.091219775
143	0x3d8f0636	0.069836065
144	0x3e6ccf03	0.23125844
145	0x3d3cb5e1	0.04607189
146	0xbde9825e	-0.11401819
147	0x3ecb84f3	0.3974987
148	0x3d54342a	0.05180756
149	0x3b3c10ee	0.0028696614
150	0x3e3ecd5b	0.18633024
151	0x3cff5f12	0.031173263
152	0xbe6e99e7	-0.23300897
153	0x3d90aa88	0.07063776
154	0xbd09f094	-0.0336767
155	0x3e039d2f	0.1285293
156	0x3cc5fec0	0.024169326
157	0x3d0ab759	0.03386626
158	0xbd08930d	-0.033343364
159	0x3d1f2674	0.03885503
160	0xbd4182d3	-0.047243904
161	0xbc71ab95	-0.014750381
162	0xbd0a6fc8	-0.03379801
163	0x3debc757	0.115126304
164	0xbe870209	-0.2636874
165	0x3ced11a9	0.028939085
166	0xbe0ead44	-0.13933283
167	0x3eb609e5	0.35554424
168	0xbd979b4f	-0.0740267
169	0x3d50bbd4	0.050960377
170	0x3e567775	0.20944007
171	0xbe19bdc8	-0.15013802
172	0xbd5fce5c	-0.05464016
173	0x3e131ede	0.14367244
174	0x3c71356c	0.014722209
175	0x3cee9004	0.029121406
176	0x3e16dbd8	0.14732301
177	0xbdb0f6ed	-0.08640847
178	0xbe064dd9	-0.13115634
179	0x3d923270	0.071385264
180	0xbd98b33e	-0.07456063
181	0xbe1ee2f8	-0.15516269
182	0x3d9e932e	0.07742916
183	0xbd152119	-0.036408518
184	0xbd352ea4	-0.044233933
185	0x3c2113ff	0.009831428
186	0x3e084e8e	0.13311216
187	0xbdf395a3	-0.11893775
188	0x3e61b2b6	0.22040829
189	0x3e0528de	0.13003871
190	0xbdd06ba6	-0.10176782
191	0xbb8e417c	-0.0043413024
192	0xbe99cd9e	-0.30039686
193	0x3d65b77c	0.056083187
194	0x3d8d7d44	0.06908658
195	0xbc60032d	-0.013672632
196	0x3e5f433b	0.2180299
197	0x3d416e8d	0.04722457
198	0xbd36d025	-0.044632096
199	0xbd818882	-0.06324865
200	0x3dd1f9fd	0.102527596
201	0xbcdae949	-0.026722567
202	0x3d8f0559	0.06983442
203	0xbd331449	-0.043720517
204	0x3cb3df70	0.02195713
205	0x3e163782	0.14669612
206	0xbda5c211	-0.08093656
207	0xbe1fcbd7	-0.15605102
208	0xbdad66de	-0.08466886
209	0x3ce86336	0.02836762
210	0xbe737a9b	-0.23777239
211	0xbdb357ae	-0.08756958
212	0x3e30e282	0.17273906
213	0xbe3014b0	-0.17195392
214	0xbe47cb6e	-0.19511196
215	0xbdeebfc3	-0.116576694
216	0x3dafb81f	0.0858004
217	0x3df0be13	0.11755004
218	0x3e21280b	0.15737931
219	0xbcbc4b88	-0.022985235
220	0xbe78ae96	-0.24285349
221	0xbd1520d1	-0.03640825
222	0x3dbbad3b	0.091639005
223	0xbd039671	-0.032125894
224	0xbcb43fa4	-0.022003002
225	0xbb428015	-0.0029678394
226	0xbdf14875	-0.11781398
227	0x3cd8fbaa	0.02648719
228	0x3e1fa9d5	0.1559213
229	0x3e53143a	0.20613185
230	0x3e838839	0.25689867
231	0xbe1e268c	-0.15444392
232	0xbe1862c0	-0.1488142
233	0xbd59e0cc	-0.0531929
234	0xbe479df1	-0.19493844
235	0x3e114e5e	0.14190051
236	0x3bfadebb	0.007655946
237	0x3d494a50	0.049143136
238	0x3ddd81c7	0.10815769
239	0x3e0d6f2d	0.13811941
240	0xbe0aabee	-0.13542148
241	0x3d786dc0	0.06065154
242	0xbd7b4cd2	-0.06135256
243	0xbdb7ec67	-0.08980637
244	0xbdc9d4dc	-0.09855053
245	0x3e675340	0.22590351
246	0x3dc1eee9	0.094693966
247	0xbe913d70	-0.28367186
248	0x3e06d98a	0.13168922
249	0xbe9910ba	-0.29895574
250	0x3d99eec4	0.07516244
251	0x3d893da4	0.0670121
252	0xbe186ec7	-0.14886008
253	0xbe2dd9ac	-0.16977566
254	0x3e71311f	0.23553894
255	0x3dcdeb12	0.10054602

net.2.bias f4 [60]
0	0x3dd38056	0.103272125
1	0x3deef193	0.116671704
2	0xbd8932f0	-0.06699169
3	0x3d081381	0.033221725
4	0xbd35ab86	-0.04435303
5	0x3dd8b95f	0.10582232
6	0xbd9851e4	-0.074374944
7	0x3df35879	0.11882109
8	0xbdd3e107	-0.10345655
9	0xbd880bdb	-0.06642886
10	0xbdb7781b	-0.08958455
11	0xbd1a8c44	-0.037731424
12	0x3e0b2f3e	0.1359224
13	0xbcfa7e5b	-0.03057783
14	0x3d490534	0.049077228
15	0x3dbd4db7	0.092433386
16	0xbc9b42f5	-0.018952826
17	0x3d1080d3	0.035279106
18	0xbd10ab38	-0.035319537
19	0xbdd27155	-0.102755226
20	0x3d0f22f7	0.034945454
21	0x3d425ae3	0.047449958
22	0xbda5f2b9	-0.08102936
23	0xbdcadf82	-0.09905912
24	0xbc956b93	-0.018239772
25	0xbdce1274	-0.100621134
26	0xbde1f363	-0.110327505
27	0x3d49d519	0.04927549
28	0x3cce30f3	0.025169825
29	0x3d5e9368	0.054339796
30	0x3e14029e	0.14454123
31	0xbd235291	-0.039873663
32	0x3d6969e2	0.056985743
33	0x3ddf6cc2	0.10909416
34	0x3d0f9d5f	0.03506219
35	0x3d165381	0.03670073
36	0xbc3c1afa	-0.011481041
37	0x3de3b00f	0.11117565
38	0x3d47040f	0.048587855
39	0xbdf2410c	-0.11828813
40	0xbdbfed64	-0.093714505
41	0x3d1ed960	0.038781524
42	0xbda200c9	-0.07910306
43	0xbdf1142f	-0.11771428
44	0xbda54489	-0.08069713
45	0x3c11ea97	0.008906028
46	0xbcf9f9e5	-0.030514667
47	0xbe0162b3	-0.12635307
48	0xbdbb7ce3	-0.091546796
49	0xbdbe8a50	-0.09303725
50	0xbddf54d1	-0.10904849
51	0xbd2dc52a	-0.04242436
52	0xbdd8989a	-0.105759814
53	0x3db3b336	0.08774416
54	0x3d4950f2	0.04914946
55	0xbd9f81f1	-0.07788456
56	0x3c102eba	0.008800203
57	0x3df9fe3f	0.12206697
58	0xbd8feba1	-0.070273645
59	0xbd4c47e1	-0.049873237
