results/PINN/NASA results/1-1/Experiment5/model.pth (torch, 59646 bytes, 14 tensors)

encoder.net.0.weight f4 [60, 17]
0.096310124 -0.3616539 0.043088004 0.15014651 0.056345392 0.13457493 0.07979922 -0.24392302
-0.035562728 -0.18825284 -0.015244979 -0.1855909 0.046502266 0.11230481 0.16289485 0.24804807
0.061384372 -0.031338617 0.26095575 0.034629885 0.24169688 -0.29609606 0.123918176 0.09697238
-0.031209446 -0.42168772 -0.095601596 0.04944474 -0.029875906 -0.016420724 -0.047177423 -0.0102955485
0.05764105 -0.06507168 0.094242185 0.051073246 0.24337138 0.033385348 0.009351419 0.2953567
-0.20112771 -0.063073054 0.024155956 -0.0046476945 -0.11036282 -0.10132769 -0.08712605 0.20047306
0.31861922 0.039852634 -0.07804571 0.03336873 -0.31683695 -0.11674066 -0.12621893 0.01320266
0.019254215 -0.10536685 0.22834429 0.0785308 0.014796746 -0.25018096 0.06685483 0.07859308
0.032457903 0.011292292 -0.016657142 0.0013247819 -0.05467345 -0.0740426 -0.07532599 0.011080901
0.1295414 0.12536782 -0.072860405 -0.09300238 -0.014124756 0.17957504 0.009412386 0.008209649
0.03711766 -0.0706219 0.11545663 -0.03952866 -0.020697933 -0.04147002 0.24183428 -0.114522025
-0.013637512 0.044372458 0.14854509 -0.019284505 -0.25022265 0.023605604 0.39260626 0.028678333
0.12150426 -0.03771297 0.112277105 -0.20184998 0.22761145 -0.46565273 -0.23091187 -0.26650164
0.0037913243 0.21732163 -0.09534833 0.1212255 -0.083149366 -0.11093367 0.050425146 -0.000679668
0.2455748 0.043129962 0.13576151 0.05023 -0.057644073 0.03726928 -0.12919621 -0.20423739
0.22890678 -0.062016398 0.07991034 -0.18395859 0.057561293 -0.20491171 -0.33341432 0.32099664
-0.18893357 -0.09076302 0.23891744 0.046713833 0.20077188 0.2109959 0.11772278 0.04796503
0.009709421 -0.08443332 -0.33638614 -0.4223983 -0.11567644 -0.13296822 -0.019861411 -0.04567303
-1.5712831e-06 0.34921974 -0.33449686 0.06541871 0.13987447 -0.026704226 0.11762445 -0.029280081
0.08801084 -0.12043613 0.100280166 -0.24547762 0.118497945 -0.07042285 0.12833624 -0.18340206
0.15373315 0.0012859432 -0.05117831 0.112348124 0.08197204 -0.11109236 -0.102560386 0.2508943
0.06810467 -0.16674781 0.10697165 0.12553766 -0.23992452 -0.04903927 0.068954036 -0.050767954
-0.08576929 0.07117908 0.13804564 0.19346675 0.22342663 -0.18346503 0.10052832 -0.47690192
0.086612016 0.1384567 -0.17802894 0.22123009 -0.19919376 -0.081035726 0.14809524 0.12179309
0.018039739 0.03240278 0.018768372 0.23952292 -0.2338123 -0.10824999 0.12127053 -0.15906325
0.030928452 -0.15912387 0.059948675 -0.0076109963 0.039301224 -0.12168332 0.2194084 0.20919435
-0.02237906 0.10174602 -0.16352892 0.077699706 -0.03352022 0.10412882 0.08643485 -0.2660087
0.07950651 -0.12993741 -0.08039533 0.024914062 0.011084807 0.18230695 -0.09506104 -0.18669154
-0.059098665 0.03175215 -0.0038297505 -0.09395551 -0.08473289 -0.052908238 0.11231235 -0.022796161
0.0441001 -0.017107245 0.122110315 0.20055279 0.008745204 -0.19967984 -0.0066982643 0.22848088
-0.20873566 0.108166695 -0.101902105 0.16278554 -0.19212203 0.08003765 -0.026406636 -0.24457145
-0.042636834 -0.18514667 0.059804678 -0.069336265 -0.1286531 -0.17019373 -0.07187155 -0.039616313
00000000: 3e3e c53d b32a b9be 0c7d 303d 02c0 193e
00000010: 6dca 663d 03ce 093e c66d a33d f5c6 79be
00000020: 39aa 11bd 5ac5 40be 14c6 79bc 8a0b 3ebe
00000030: 2979 3e3d 1000 e63d e8cd 263e 5000 7e3e
00000040: 2e6e 7b3d ec5c 00bd fe9b 853e 11d8 0d3d
00000050: 637f 773e e799 97be d0c8 fd3d 7599 c63d
00000060: f4aa ffbc 74e7 d7be c5ca c3bd 9186 4a3d
00000070: 51be f4bc c184 86bc 1d3d 41bd a9ae 28bc
00000080: 0619 6c3d 4d44 85bd 0c02 c13d 2e32 513d
00000090: 5936 793e 13bf 083d b236 193c fe38 973e
000000a0: 6cf4 4dbe 722c 81bd b6e2 c53c b04b 98bb
000000b0: e705 e2bd e484 cfbd 246f b2bd cf48 4d3e
000000c0: 0f22 a33e 843c 233d 6ed6 9fbd a6ad 083d
000000d0: 7438 a2be ba15 efbd 893f 01be f84f 583c
000000e0: 04bb 9d3c 93ca d7bd 16d3 693e c2d4 a03d
000000f0: 0d6e 723c b817 80be 2feb 883d 69f5 a03d
00000100: 94f2 043d 4e03 393c 8f74 88bc 4ea4 ad3a
00000110: 44f1 5fbd a6a3 97bd 8344 9abd ab8c 353c
00000120: 80a6 043e 6c60 003e d637 95bd 0878 bebd
00000130: 856b 67bc 85e2 373e 6936 1a3c c381 063c
00000140: b008 183d 37a2 90bd 8774 ec3d cee8 21bd
00000150: b68e a9bc 78dc 29bd 68a3 773e 868a eabd
00000160: df6f 5fbc e5bf 353d 341c 183e 8afa 9dbc
00000170: 2f1d 80be 8a60 c13c b003 c93e d3ee ea3c
00000180: 3ad7 f83d ea78 1abd 8af1 e53d c3b1 4ebe
00000190: fa12 693e 096a eebe 2974 6cbe e772 88be
000001a0: de77 783b 9089 5e3e fc45 c3bd 1345 f83d
000001b0: 374a aabd 3131 e3bd 998a 4e3d bf2b 32ba
000001c0: f677 7b3e 0ba9 303d 1105 0b3e f9bd 4d3d
000001d0: 311c 6cbd aca7 183d 034c 04be 9b23 51be
000001e0: 8a66 6a3e e804 7ebd 08a8 a33d a45f 3cbe
000001f0: 64c5 6b3d 60d4 51be 48b5 aabe ac59 a43e
00000200: cd77 41be f6e1 b9bd c6a6 743e 0157 3f3d
00000210: 2597 4d3e 4f0f 583e a418 f13d fb76 443d
00000220: 4314 1f3c 60eb acbd ce3a acbe 9744 d8be
00000230: c5e7 ecbd d228 08be 66b4 a2bc a513 3bbd
00000240: e0e4 d2b5 eecc b23e 2c43 abbe 3ffa 853d
00000250: 413b 0f3e d2c2 dabc 16e5 f03d c8dc efbc
00000260: 073f b43d 38a7 f6bd b05f cd3d 7c5e 7bbe
00000270: 0daf f23d db39 90bd 936a 033e c0cd 3bbe
00000280: 396c 1d3e 188d a83a 59a0 51bd c616 e63d
00000290: f5e0 a73d 6484 e3bd 2e0b d2bd 3875 803e
000002a0: 767a 8b3d f0bf 2abe f413 db3d f28c 003e
000002b0: c6ae 75be 67dd 48bd c637 8d3d 0ff2 4fbd
000002c0: cfa7 afbd 56c6 913d d65b 0d3e 261c 463e
000002d0: f3c9 643e 42de 3bbe cbe1 cd3d 7d2c f4be
000002e0: a461 b13d 98c7 0d3e 384d 36be 248a 623e
000002f0: 73f9 4bbe 0ff6 a5bd 47a6 173e a86e f93d
00000300: 13c8 933c c7b8 043d 21c0 993c 7f45 753e
00000310: 7e6c 6fbe 2cb2 ddbd af5c f83d 7ae1 22be
00000320: aa5d fd3c 5ef1 22be be8c 753d aa65 f9bb
00000330: 52fa 203d 1b35 f9bd 98ac 603e 0b37 563e
00000340: 4a54 b7bc 3860 d03d 2074 27be 0621 9f3d
00000350: 804c 09bd 7e41 d53d c104 b13d 4b32 88be
00000360: 4fd4 a23d 500e 05be 4fa6 a4bd 9318 cc3c
00000370: 0d9d 353c acae 3a3e 5daf c2bd 112c 3fbe
00000380: 7111 72bd 8b0e 023d 8dfc 7abb bf6b c0bd
00000390: 7088 adbd 4fb6 58bd 0404 e63d 04bf babc
000003a0: 4ea2 343d 7e24 8cbc f914 fa3d b65d 4d3e
000003b0: 0b48 0f3c df78 4cbe 1d7d dbbb e4f6 693e
000003c0: cdbe 55be 8086 dd3d 0db2 d0bd 41b1 263e
000003d0: a3bb 44be c8ea a33d bb52 d8bc f070 7abe
000003e0: f6a3 2ebd 1797 3dbe c0f5 743d 2c00 8ebd
000003f0: a3bd 03be 4447 2ebe 6431 93bd b744 22bd

encoder.net.0.bias f4 [60]
-0.054332457 0.06936719 -0.041475635 -0.014718865 -0.07209433 -0.044226132 0.040748123 0.04247577
0.022441998 0.07508507 -0.038886596 0.042211387 0.08216009 0.046182483 0.05653804 0.045243554
0.0834437 0.0207037 -0.06296731 0.005646332 -0.07354247 0.066799335 0.04274575 -0.048512172
-0.015476133 0.0048840707 -0.034917872 -0.08810097 0.0018789863 -0.03128149 -0.05867694 -0.044542998
0.03356601 0.053217135 0.013790672 -0.0058583026 -0.04274924 -0.038261484 0.029702608 -0.046858586
-0.0895341 -0.05558698 -0.052580792 -0.04601047 0.060173668 -0.04686248 0.038434047 -0.04851487
-0.04769859 0.04370168 -0.023058755 -0.019505452 -0.071594335 0.045475826 0.07243394 0.050145496
-0.06839899 -0.046228148 -0.05468153 -0.032980952
00000000: b68b 5ebd 6310 8e3d 5be2 29bd 6527 71bc
00000010: 31a6 93bd 7626 35bd 81e7 263d 13fb 2d3d
00000020: 48d8 b73c 34c6 993d 8d47 1fbd d9e5 2c3d
00000030: 8d43 a83d d829 3d3d 6f94 673d 4e51 393d
00000040: 88e4 aa3d ce9a a93c 01f5 80bd de04 b93b
00000050: 6f9d 96bd 17ce 883d 2b16 2f3d b3b4 46bd
00000060: 9b8f 7dbc 8e0a a03b 0b06 0fbd 486e b4bd
00000070: 5148 f63a 0521 00bd 3b57 70bd b872 36bd
00000080: 837c 093d 36fa 593d 45f2 613c 01f7 bfbb
00000090: d419 2fbd 13b8 1cbd e252 f33c caee 3fbd
000000a0: a75d b7bd 2caf 63bd f55e 57bd 7975 3cbd
000000b0: aa78 763d dff2 3fbd 056d 1d3d 87b7 46bd
000000c0: 995f 43bd 8800 333d b7e5 bcbc e6c9 9fbc
000000d0: 0da0 92bd dc44 3a3d 3f58 943d 5d65 4d3d
000000e0: c514 8cbd ba59 3dbd bdf9 5fbd 0917 07bd

encoder.net.2.weight f4 [60, 60]
-0.16071978 -0.29994506 0.12280493 -0.0042850035 0.004987948 -0.07437447 0.18314272 0.018911632
0.17659123 -0.12097556 0.011408146 -0.1592836 0.05421086 0.07321042 -0.028349323 -0.12567216
-0.030773833 0.119416945 0.25202826 -0.2396099 -0.123412214 0.23493385 -0.048442245 -0.0017982557
0.21800089 -0.05781545 -0.031924415 -0.0625188 -0.2567144 0.0797026 -0.11335687 -0.15410207
-0.005912881 0.05612415 0.030724917 0.07606058 0.059759744 -0.03485185 0.15602352 -0.093075484
-0.063901946 0.023320142 0.112903975 -0.11675558 -0.011153051 0.08531174 0.022087837 0.06330507
0.010110982 -0.062309556 0.029885354 -0.091446176 -0.09436449 0.0792945 -0.10393433 -0.08648488
-0.06285286 0.17132695 0.048017025 0.12266575 -0.10012695 -0.18358433 0.12176702 -0.014536998
-0.11847027 -0.16373944 0.16055635 0.29152054 -0.20178089 0.1148405 0.074054934 -0.084746435
-0.30739933 0.032343034 -0.038608532 -0.058880944 0.0586174 -0.041020107 0.14828444 -0.16724774
-0.28206235 0.057610556 0.057978544 -0.16649298 -0.02608573 -0.018997226 0.011890057 0.26662073
-0.010745621 -0.20945181 -0.0860801 0.041102674 -0.046402883 0.011686981 0.023386287 -0.038512174
-0.15993887 0.104388215 -0.09012009 -0.09497054 0.12587932 -0.08439197 -0.04898127 -0.047171634
-0.06899497 -0.179617 0.005160603 -0.10171141 0.15798195 0.0050548567 -0.03713624 -0.08392227
-0.062602565 0.092065305 0.055162866 0.06394027 0.2331958 0.13162929 -0.01459108 -0.08279201
0.27855524 0.19154787 0.05138692 -0.17652896 -0.14519943 0.23397592 0.0049414556 -0.042371184
-0.22931722 -0.19955191 0.0756466 0.10378661 0.048411958 0.05284118 -0.12140253 -0.09250988
-0.120280184 0.030922076 0.023761969 -0.08387169 0.07304732 0.081484884 0.13475882 0.12029123
0.04265198 0.1024052 -0.20025387 0.17109922 0.06678489 0.044083286 -0.17645101 -0.030600296
0.0015925363 0.17072266 -0.12618563 0.06221893 0.13742335 0.06796299 -0.23994708 0.039034277
0.11294221 -0.012993431 -0.09184493 0.096104056 -0.14016248 -0.10248505 0.11977334 0.08932527
-0.20679204 0.2401147 0.11295215 -0.151244 0.08243501 0.02686604 0.04783238 0.09187777
0.17978452 0.05905865 -0.020226214 0.09249287 -0.2694136 0.109470956 0.25713825 0.06487992
0.22215538 -0.121909946 -0.21672513 -0.033945788 -0.08672881 0.094156764 0.045698732 0.03602472
-0.15159501 -0.001572124 0.2379913 -0.21636204 0.003035653 0.06001824 0.2963728 0.08138489
0.17107506 -0.13161057 -0.14717984 0.038457803 0.044434853 -0.15454328 0.014006098 0.013256568
0.11930008 0.2792626 0.13214731 -0.064435884 0.026838036 -0.21557768 -0.12194453 -0.05032606
0.04178817 -0.013820261 -0.046260238 -0.098649554 -0.012914613 -0.033949234 0.023957072 0.005019231
0.20571436 -0.23325072 -0.096709624 -0.021430373 -0.115967624 -0.003826929 0.058962572 -0.05989367
0.19521597 0.021015448 0.036633085 -0.047308467 -0.11533965 0.03701877 -0.018638255 -0.051889386
0.10583935 -0.009930477 0.15744343 0.03365859 -0.061269175 -0.06872227 0.055086818 0.001805712
0.063916184 -0.051834356 -0.0640706 -0.22647968 -0.08134497 0.10245654 0.15773703 0.07713483
00000000: ba93 24be 6692 99be 2781 fb3d 3769 8cbb
00000010: f171 a33b a451 98bd c489 3b3e 91ec 9a3c
00000020: 55d4 343e 09c2 f7bd 3be9 3a3c 3d1b 23be
00000030: 350c 5e3d 58ef 953d d73c e8bc 34b0 00be
00000040: 6819 fcbc df90 f43d d909 813e 4c5c 75be
00000050: 8bbf fcbd 8092 703e 606b 46bd 73b3 ebba
00000060: a03b 5f3e e5cf 6cbd 2dc3 02bd db09 80bd
00000070: 1270 83be 1e3b a33d a627 e8bd efcc 1dbe
00000080: d7c0 c1bb 70e2 653d d2b2 fb3c a6c5 9b3d
00000090: a2c6 743d d0c0 0ebd a1c4 1f3e 5c9e bebd
000000a0: 06df 82bd e209 bf3c 333a e73d 8d1d efbd
000000b0: 49bb 36bc ecb7 ae3d 8df1 b43c 17a6 813d
000000c0: 88a8 253c 4e38 7fbd 21d2 f43c 2248 bbbd
000000d0: 2b42 c1bd 2865 a23d 86db d4bd fc1e b1bd
000000e0: 00b9 80bd 5570 2f3e 80ad 443d 2e38 fb3d
000000f0: 5c0f cdbd 88fd 3bbe fd60 f93d 972c 6ebc
00000100: 8aa0 f2bd 50ab 27be e268 243e 2e42 953e
00000110: a69f 4ebe 7f31 eb3d 1daa 973d 8a8f adbd
00000120: 7263 9dbe 217a 043d fb23 1ebd 252d 71bd
00000130: cc18 703d b304 28bd e0d7 173e fe42 2bbe
00000140: 7a6a 90be 0cf9 6b3d e97a 6d3d 237d 2abe
00000150: beb1 d5bc 12a0 9bbc 83ce 423c 8382 883e
00000160: 670e 30bc 897a 56be c34a b0bd 475b 283d
00000170: f310 3ebd c07a 3f3c 9994 bf3c f1be 1dbd
00000180: 04c7 23be 7dc9 d53d e290 b8bd ea7f c2bd
00000190: 82e6 003e b2d5 acbd 96a0 48bd 0b37 41bd
000001a0: 3c4d 8dbd 85ed 37be 471a a93b 124e d0bd
000001b0: 05c6 213e 36a3 a53b 2c1c 18bd 70df abbd
000001c0: c635 80bd bc8c bc3d 75f2 613d 1ef3 823d
000001d0: e1ca 6e3e d4c9 063e 6d0f 6fbc db8e a9bd
000001e0: cb9e 8e3e 2025 443e 177b 523d 02c4 34be
000001f0: 29af 14be 6297 6f3e efeb a13b 688d 2dbd
00000200: 22d2 6abe 5657 4cbe 9bec 9a3d 138e d43d
00000210: 9e4b 463d fe6f 583d e4a1 f8bd d275 bdbd
00000220: 7555 f6bd 4b50 fd3c 76a8 c23c ecc4 abbd
00000230: d599 953d 8ce1 a63d 37fe 093e 405b f63d
00000240: d8b3 2e3d d1b9 d13d 5a0f 4dbe a234 2f3e
00000250: 84c6 883d ad90 343d 93af 34be 79ad fabc
00000260: a7bc d03a ecd1 2e3e ce36 01be 47d9 7e3d
00000270: b5b8 0c3e 2e30 8b3d b0b4 75be 68e2 1f3d
00000280: 3f4e e73d 66e2 54bc 3219 bcbd 34d2 c43d
00000290: c186 0fbe afe3 d1bd ba4b f53d 2bf0 b63d
000002a0: 4bc1 53be a1e0 753e 7553 e73d b5df 1abe
000002b0: b0d3 a83d 2b16 dc3c e3eb 433d 6a2a bc3d
000002c0: 6f19 383e 7ce7 713d 72b1 a5bc e76c bd3d
000002d0: 94f0 89be 4f32 e03d a0a7 833e c3df 843d
000002e0: b37c 633e ecab f9bd 31ed 5dbe bd0a 0bbd
000002f0: e09e b1bd 43d5 c03d 982e 3b3d a88e 133d
00000300: b93b 1bbe ba0f ceba feb3 733e 038e 5dbe
00000310: cef1 463b b0d5 753d 2dbe 973e 1fad a63d
00000320: 4d2e 2f3e ecc4 06be 50b6 16be ee85 1d3d
00000330: 5201 363d 9840 1ebe d579 653c 1432 593c
00000340: 9a53 f43d 82fb 8e3e a051 073e f6f6 83bd
00000350: 71db db3c 65c0 5cbe 0ebe f9bd b322 4ebd
00000360: 122a 2b3d 606e 62bc 607b 3dbd c708 cabd
00000370: d097 53bc 5a0e 0bbd 9f41 c43c 5c78 a43b
00000380: c9a6 523e 47d9 6ebe b20f c6bd c08e afbc
00000390: 6f80 edbd 37cd 7abb bd82 713d 1153 75bd
000003a0: b2e6 473e 9728 ac3c 930c 163d 86c6 41bd
000003b0: 3237 ecbd fea0 173d 41af 98bc f789 54bd
000003c0: 4dc2 d83d 70b3 22bc da38 213e 97dd 093d
000003d0: 63f5 7abd 43be 8cbd b7a2 613d a4ad ec3a
000003e0: 7de6 823d 4350 54bd 7237 83bd 4aea 67be
000003f0: 3198 a6bd bcd4 d13d d185 213e def8 9d3d

encoder.net.2.bias f4 [60]
-0.044204418 -0.052729648 0.027410436 -0.05294029 0.050293516 0.06483952 -0.05947477 0.061386935
-0.009128906 0.06435946 0.05186945 0.05336367 -0.054365035 0.059082005 -0.041750707 -0.052859884
-0.07298861 0.04814261 -0.049005635 0.073573165 0.043159135 -0.10113666 0.042568307 0.049059268
-0.058089156 -0.073218025 0.055843133 -0.065834194 -0.055901892 0.03893291 0.05397577 -0.037067287
0.052866556 0.02189112 0.08426234 -0.05009993 0.08372189 0.05875208 -0.045638103 0.07461606
-0.039062127 -0.053566307 -0.067540474 0.046803784 -0.07723826 -0.04529599 0.05261456 0.061260644
0.0009883964 -0.12767851 -0.026742572 -0.047781464 -0.06767531 0.049142163 -0.0013834327 -0.03390266
0.02261809 -0.051878717 -0.05745293 -0.050053105
00000000: b10f 35bd 0bfb 57bd da8b e03c ebd7 58bd
00000010: 9300 4e3d 95ca 843d d19b 73bd de70 7b3d
00000020: 6891 15bc e4ce 833d 0f75 543d dd93 5a3d
00000030: dfad 5ebd f9ff 713d ca02 2bbd 9b83 58bd
00000040: 0d7b 95bd 2f31 453d 22ba 48bd 87ad 963d
00000050: a2c7 303d bd20 cfbd 1b5c 2e3d 5ff2 483d
00000060: e5ee 6dbd 55f3 95bd c5bb 643d 14d4 86bd
00000070: 62f9 64bd 1d78 1f3d b215 5d3d ded3 17bd
00000080: 9a8a 583d 0255 b33c bc91 ac3d 9635 4dbd
00000090: 6276 ab3d 05a6 703d 05ef 3abd 4ed0 983d
000000a0: 9cff 1fbd 5868 5bbd a952 8abd 53b5 3f3d
000000b0: 182f 9ebd 4a88 39bd 5d82 573d 71ec 7a3d
000000c0: 148d 813a 28be 02be 3d13 dbbc 7fb6 43bd
000000d0: 5a99 8abd 4b49 493d 4c54 b5ba 84dd 0abd
000000e0: 9349 b93c c77e 54bd c353 6bbd 7c04 4dbd

encoder.net.5.weight f4 [32, 60]
0.04497651 0.2664013 -0.10220451 0.25290477 0.17089903 -0.021007014 -0.024944887 0.062677726
0.17030792 -0.020493384 0.16607523 -0.12848635 -0.23089804 0.0013685058 0.1117201 0.093648255
-0.06590903 0.067986414 0.08926261 0.037405998 0.040687416 0.030265955 -0.17589478 0.017323507
0.114987925 -0.03419038 -0.1901189 -0.034845475 -0.08387104 0.08183339 -0.052867323 0.11922035
0.041519687 0.055982597 -0.1024585 -0.26111197 0.18461002 0.023196975 0.21449694 0.26111507
-0.04522763 0.12458505 -0.20594664 0.12423459 0.051863063 0.12205036 0.14485691 0.045401543
-0.019869188 -0.0061653936 0.069569096 -0.047554836 0.1169548 -0.1353376 -0.24699931 -0.03879092
0.1416482 -0.010042477 -0.06924251 -0.034870517 -0.07983366 0.067925595 0.11332681 0.017625108
0.23130842 -0.08466712 0.081502974 0.30694446 -0.004516181 0.15412493 -0.12501119 0.081631936
-0.012897337 -0.06878765 -0.20200406 -0.11176258 0.15228747 0.25649232 0.053964183 0.01161351
-0.1590806 -0.18103327 -0.23149359 -0.099968426 -0.23256047 0.19785507 0.13068591 -0.18277866
0.11744956 -0.15066548 -0.12736976 0.119815275 -0.06879177 -0.124898195 0.008297567 -0.14988288
-0.043219626 0.0020828475 0.10161754 0.15754685 0.02879969 -0.04923707 -0.06016817 -0.26988092
0.0045009586 -0.24097852 0.12468537 0.071606256 0.17212448 -0.15896173 -0.119790085 0.17427202
-0.24851736 -0.29812402 0.1520954 -0.014289032 0.18997896 -0.12103074 -0.12303938 0.25377983
0.012294789 -0.24309455 -0.128886 -0.23477235 -0.018479675 -0.0285294 0.090122476 0.26125845
-0.2819259 0.07540856 0.10198143 0.013617773 -0.08816154 0.025795346 0.09858573 0.18376239
0.07832652 0.1407278 0.36881265 -0.07671888 -0.024748446 -0.124708995 -0.00867805 0.16977246
0.22422376 0.04653253 0.23583557 -0.19995372 -0.14259228 -0.1780752 0.09358574 0.09614854
0.031442616 -0.08750235 -0.0044045188 -0.19832112 -0.2211816 0.17254983 -0.19314362 -0.10424218
-0.06603259 0.021332292 0.10685888 -0.07446197 -0.18514211 -0.07578762 0.038551047 0.32656574
-0.0699208 -0.16019908 0.054451074 0.046445485 -0.028125137 -0.006549478 -0.21157598 -0.07571359
-0.02463763 -0.01266192 0.114470385 -0.03945598 -0.22968477 -0.07323369 -0.2611542 -0.35468397
0.068614505 -0.18907306 0.090118274 0.18018144 -0.017984467 -0.0826032 0.13460353 0.055359565
-0.28452942 0.13382697 0.14161041 -0.13140291 -0.27156305 0.08427434 -0.0009305819 -0.12705453
-0.0016102814 0.2752909 0.0027986492 0.19060372 -0.30597797 0.020927032 0.19081943 0.05018471
0.052268483 -0.18078178 -0.016169436 -0.05363086 -0.1301229 -0.1152108 0.119804904 -0.1915015
-0.11520796 0.1920959 0.10978085 0.2314498 -0.13703997 0.022132669 0.23978022 0.18602507
-0.06585449 -0.13960002 0.08640636 -0.17268568 0.13174796 0.11611259 0.018240977 -0.19201173
0.0948703 0.08645624 -0.001893183 0.23637475 0.15459539 0.017068228 -0.1866384 0.0541414
0.086790785 0.23161413 -0.022001259 0.016224511 0.020093836 -0.116794735 0.14624567 -0.21193825
-0.2297142 -0.0841776 0.1324019 0.015751116 -0.1628469 0.009407726 -0.05195706 0.081363335
00000000: 4a39 383d c065 883e 9950 d1bd bc7c 813e
00000010: 2800 2f3e e716 acbc 3859 ccbc 2e5d 803d
00000020: 3365 2e3e bee1 a7bc a00f 2a3e ed91 03be
00000030: 8970 6cbe 6f5f b33a 82cd e43d a8ca bf3d
00000040: 50fb 86bd 763c 8b3d 51cf b63d 0837 193d
00000050: d9a7 263d 4ff0 f73c c31d 34be 07ea 8d3c
00000060: ca7e eb3d 360b 0cbd 87ae 42be 21ba 0ebd
00000070: 94c4 abbd 4498 a73d 688b 58bd cd29 f43d
00000080: 8c10 2a3d 024e 653d c3d5 d1bd 78b0 85be
00000090: 690a 3d3e 9507 be3c 16a5 5b3e e0b0 853e
000000a0: 9b40 39bd 7226 ff3d ade3 52be b46e fe3d
000000b0: 5d6e 543d 8af5 f93d 5f55 143e f8f6 393d
000000c0: b5c4 a2bc 1207 cabb 3e7a 8e3d dcc8 42bd
000000d0: 0086 ef3d f195 0abe 63ed 7cbe 3ae3 1ebd
000000e0: 3a0c 113e 3489 24bc 04cf 8dbd 63d4 0ebd
000000f0: d47f a3bd 931c 8b3d e317 e83d 8862 903c
00000100: 1ddc 6c3e f465 adbd 08eb a63d d327 9d3e
00000110: 79fc 93bb edd2 1d3e ef02 00be a52e a73d
00000120: 5a4f 53bc 8ae0 8cbd 27da 4ebe c8e3 e4bd
00000130: 3ff1 1b3e f652 833e 8c09 5d3d 9746 3e3c
00000140: 06e6 22be c960 39be a80c 6dbe 3fbc ccbd
00000150: 5524 6ebe 859a 4a3e 87d2 053e 542a 3bbe
00000160: 6589 f03d 0d48 1abe 386d 02be b661 f53d
00000170: b3e2 8cbd a0ca ffbd 85f2 073c e67a 19be
00000180: 1007 31bd 6280 083b db1c d03d f653 213e
00000190: 54ed eb3c cfac 49bd e672 76bd d52d 8abe
000001a0: c77c 933b 13c3 76be 0b5b ff3d 4da6 923d
000001b0: 6641 303e ddc6 22be 8154 f5bd 5d74 323e
000001c0: 567b 7ebe b6a3 98be e6be 1b3e 8b1c 6abc
000001d0: d889 423e f7de f7bd 12fc fbbd 6eef 813e
000001e0: 1570 493c c7ed 78be b1fa 03be 2a68 70be
000001f0: b062 97bc 7db6 e9bc 2292 b83d abc3 853e
00000200: 9758 90be ce6f 9a3d a4db d03d 141d 5f3c
00000210: 0a8e b4bd c350 d33c 51e7 c93d 352c 3c3e
00000220: a869 a03d f31a 103e 03d5 bc3e ca1e 9dbd
00000230: 41bd cabc 6e67 ffbd 612e 0ebc d5d8 2d3e
00000240: ea9a 653e e598 3e3d e17e 713e abc0 4cbe
00000250: b603 12be 5859 36be e1a9 bf3d 87e9 c43d
00000260: f9c9 003d 6f34 b3bd c853 90bb b114 4bbe
00000270: 6e7d 62be e7b0 303e 71c7 45be ed7c d5bd
00000280: 183c 87bd 0fc1 ae3c d4d8 da3d 847f 98bd
00000290: e595 3dbe 8a36 9bbd b4e7 1d3d a033 a73e
000002a0: a332 8fbd 3a0b 24be 1708 5f3d 9f3d 3e3d
000002b0: b066 e6bc 019d d6bb 60a7 58be ba0f 9bbd
000002c0: dbd4 c9bc f173 4fbc 736f ea3d 989c 21bd
000002d0: 7c32 6bbe 8bfb 95bd 01b6 85be 2399 b5be
000002e0: c385 8c3d 5e9c 41be ee8f b83d 7c81 383e
000002f0: 2954 93bc de2b a9bd 82d5 093e b6c0 623d
00000300: d7ad 91be f009 093e 5202 113e 7c8e 06be
00000310: 500a 8bbe 0698 ac3d 4bf2 73ba 951a 02be
00000320: 1410 d3ba eef2 8c3e 8b69 373b 9f2d 433e
00000330: 25a9 9cbe 2b6f ab3c 2b66 433e 7c8e 4d3d
00000340: 7a17 563d dc1e 39be c475 84bc 08ac 5bbd
00000350: f03e 05be a4f3 ebbd 465c f53d f818 44be
00000360: 27f2 ebbd cab4 443e c8d4 e03d 2d01 6d3e
00000370: 3554 0cbe 924f b53c f288 753e 5b7d 3e3e
00000380: b8de 86bd 4ff3 0ebe d1f5 b03d 84d4 30be
00000390: f0e8 063e 70cc ed3d 1a6e 953c b99e 44be
000003a0: 5c4b c23d f80f b13d ae24 f8ba 390c 723e
000003b0: 414e 1e3e abd2 8b3c 231e 3fbe 5fc3 5d3d
000003c0: 5ebf b13d 412c 6d3e fc3b b4bc 44e9 843c
000003d0: d49b a43c 1432 efbd 6dc1 153e 5706 59be
000003e0: 333a 6bbe 4e65 acbd 5d94 073e 7c08 813c
000003f0: 56c1 26be dd22 1a3c edd0 54bd d2a1 a63d

encoder.net.5.bias f4 [32]
0.07818102 -0.04060093 0.066122405 0.054981146 -0.069443196 0.070697725 0.04321544 0.07258485
0.06302495 -0.14259277 -0.050816562 0.07188495 0.05993307 0.05505516 -0.054178633 -0.048674133
0.017221645 -0.068948664 -0.043476958 0.065199636 0.06940849 -0.05864467 -0.059146404 -0.06642808
0.03289573 -0.0041152295 -0.06119069 0.116912775 0.02759242 -0.15139925 0.074179 -0.07828351
00000000: 5f1d a03d 294d 26bd 2f6b 873d e933 613d
00000010: 3c38 8ebd f8c9 903d ac02 313d 5ea7 943d
00000020: 3a13 813d d703 12be 0725 50bd 6b38 933d
00000030: 617c 753d 8581 613d 6aea 5dbd 875e 47bd
00000040: 6814 8d3c f534 8dbd e514 32bd 6387 853d
00000050: 0a26 8e3d 6535 70bd 8043 72bd 720b 88bd
00000060: acbd 063d 0cd9 86bb 17a3 7abd f76f ef3d
00000070: 8009 e23c 6808 1bbe 29eb 973d 1b53 a0bd

predictor.net.1.weight f4 [32, 32]
-0.05917375 -0.22079511 0.07197171 0.0019851723 -0.24938107 -0.20309801 0.020825734 0.14141712
0.018175455 -0.09601495 0.16836159 0.2952143 0.12841122 -0.27580178 0.14764756 -0.11703337
0.104011364 0.03467513 -0.1850883 -0.2936935 0.10300517 -0.20710257 0.2794031 -0.21517818
-0.092424616 0.18679489 -0.13268696 0.07942713 0.19043136 -0.15265013 0.11112997 0.14928906
0.035103727 0.20167822 -0.042588953 0.12597233 0.12497802 -0.0328631 0.14839578 0.013909937
0.22040288 -0.100825034 -0.17412381 0.07619196 -0.027600171 0.2581262 0.03274621 -0.12634926
0.18547875 -0.1332127 -0.36118254 0.033846345 0.16365772 -0.025006736 -0.10504953 -0.014523455
-0.028340437 -0.06915692 0.24646156 0.04973738 0.18544932 0.26949003 -0.0076599456 0.23035443
-0.17591858 0.2425739 -0.25537097 -0.06504817 0.09149279 0.12486921 0.22562428 0.2586979
-0.049464483 -0.086220786 -0.027621605 -0.17115459 0.17910129 -0.114545874 0.1012248 -0.27819085
0.017852664 -0.026675068 0.027690098 0.0037393414 0.02482876 -0.344463 0.22871383 -0.006665251
-0.1366939 -0.011390961 -0.1430421 -0.06408092 0.17464805 0.21613559 -0.07153587 -0.1640927
-0.29742116 0.09242318 -0.0471486 -0.13746473 -0.015049637 0.12761179 0.14647259 0.02176814
-0.039656647 0.23475628 0.1514152 0.047404245 -0.121760145 0.09737102 -0.29596466 0.2849514
-0.2200796 0.027561141 0.08216541 0.18904278 0.27879825 -0.09598367 -0.015012762 0.1292787
-0.19968104 0.06141017 0.03024379 0.016366618 -0.08121659 -0.08072977 0.0475494 -0.05185256
-0.21583414 -0.35010603 -0.26611832 0.029167969 -0.38355565 -0.02876293 0.09046319 0.04919489
0.05094701 -0.06471216 0.015026537 -0.17807412 0.064073086 -0.17376675 -0.067082435 -0.20345727
0.09591892 0.23733196 -0.106819324 -0.0015998171 -0.029697469 0.024744663 -0.025162721 0.2937918
0.11258877 0.28842506 -0.19594534 0.3648332 -0.13096665 0.34736025 -0.04646263 -0.2908143
0.24345288 -0.16716737 0.19397789 0.08601672 -0.058570046 0.0728542 -0.17718662 -0.02994454
0.13993628 0.011846698 -0.20760064 0.19943187 -0.028526729 0.01890152 -0.33058402 0.13838185
-0.25710106 -0.1569675 -0.051335596 0.025744066 -0.065431446 -0.121856935 0.066008225 -0.16647403
-0.05872567 0.18681803 -0.13517867 -0.05512906 0.29924208 -0.13399035 0.13261327 0.12636507
-0.0044064852 -0.15133528 0.16563357 -0.12654273 0.06501863 0.09065158 0.07082393 -0.07458131
-0.3968195 -0.31140804 0.2419041 -0.4018201 0.18704718 0.05377679 -0.00671491 0.093697526
0.027670275 0.05232735 0.03168429 0.16102572 0.005696801 -0.0010470973 0.05288914 0.15801623
-0.087824106 0.20029537 0.27420348 -0.050511587 -0.12185737 0.00091475213 0.033338327 -0.0850303
0.23856823 0.045870796 -0.14937137 -0.08941665 0.0363882 -0.01976409 -0.12828612 0.20521775
-0.066122346 -0.025799429 -0.09753951 0.12075221 0.017979328 -0.10184919 -0.15921244 -0.001611091
0.17522018 -0.0097396765 -0.18233597 -0.061313417 0.44639942 -0.11963671 -0.012630181 -0.12744552
-0.07663339 0.3200317 0.13700034 0.3776594 -0.04570007 -0.20348102 -0.08980804 -0.13672781
00000000: 2d60 72bd 1d18 62be e765 933d aa19 023b
00000010: c05d 7fbe edf8 4fbe bb9a aa3c a6cf 103e
00000020: b1e4 943c 7ca3 c4bd fb66 2c3e 5426 973e
00000030: 3b7e 033e e435 8dbe ec30 173e 31af efbd
00000040: e903 d53d 8207 0e3d ca87 3dbe ff5e 96be
00000050: 60f4 d23d b212 54be ec0d 8f3e ab57 5cbe
00000060: 1e49 bdbd 2947 3f3e 17df 07be b1aa a23d
00000070: 7000 433e 5150 1cbe 1c98 e33d 3bdf 183e
00000080: edc8 0f3d bc84 4e3e c171 2ebd e4fe 003e
00000090: 7af4 ff3d 759b 06bd 10f5 173e 81e6 633c
000000a0: 4bb1 613e 5b7d cebd 834d 32be 880a 9c3d
000000b0: c119 e2bc 1e29 843e e420 063d b361 01be
000000c0: 24ee 3d3e e968 08be ebec b8be 77a2 0a3d
000000d0: e495 273e edda ccbc 3524 d7bd c9f3 6dbc
000000e0: 342a e8bc 25a2 8dbd 6b60 7c3e 6cb9 4b3d
000000f0: 6de6 3d3e 99fa 893e 4800 fbbb 08e2 6b3e
00000100: 0024 34be 4b65 783e fcbf 82be fa37 85bd
00000110: 9260 bb3d 6ebb ff3d 0d0a 673e 0d74 843e
00000120: 459b 4abd 8694 b0bd b446 e2bc 2643 2fbe
00000130: 5466 373e 0797 eabd f34e cf3d 086f 8ebe
00000140: c03f 923c ac85 dabc 58d6 e23c bd0f 753b
00000150: af65 cb3c 745d b0be f533 6a3e 2e68 dabb
00000160: 7cf9 0bbe 27a1 3abc a179 12be db3c 83bd
00000170: f0d6 323e a652 5d3e 6681 92bd eb07 28be
00000180: 9647 98be 5d48 bd3d e41e 41bd 8ec3 0cbe
00000190: c192 76bc aaac 023e e9fc 153e 1953 b23c
000001a0: 026f 22bd f363 703e 960c 1b3e f42a 423d
000001b0: 625d f9bd 756a c73d ae88 97be 26e5 913e
000001c0: 8c5c 61be e7c7 e13c 5746 a83d 6e94 413e
000001d0: a5be 8e3e 1693 c4bd 16f8 75bc a361 043e
000001e0: 3079 4cbe 3b89 7b3d d3c1 f73c 4913 863c
000001f0: e254 a6bd a655 a5bd 29c3 423d 5a63 54bd
00000200: a003 5dbe 1941 b3be a940 88be aaf1 ee3c
00000210: 6861 c4be 3ca0 ebbc c444 b93d 9580 493d
00000220: d0ad 503d cf87 84bd dd31 763c 1059 36be
00000230: c038 833d e9ef 31be 8462 89bd 1a57 50be
00000240: 2471 c43d 2607 733e 17c4 dabd f4b0 d1ba
00000250: 1b48 f3bc 52b5 ca3c 0d22 cebc e16b 963e
00000260: f194 e63d 73ac 933e e5a5 48be 6bcb ba3e
00000270: 1f1c 06be 34d9 b13e 994f 3ebd 9de5 94be
00000280: b64b 793e ec2d 2bbe 24a2 463e 8929 b03d
00000290: 25e7 6fbd 9534 953d 6970 35be 404e f5bc
000002a0: 754b 0f3e a718 423c 4395 54be de37 4c3e
000002b0: e3b0 e9bc 5cd7 9a3c 4f42 a9be f9b3 0d3e
000002c0: c0a2 83be 17bc 20be 4645 52bd 38e5 d23c
000002d0: ec00 86bd 2190 f9bd 522f 873d 2b78 2abe
000002e0: 548a 70bd 3a4d 3f3e 476c 0abe 02cf 61bd
000002f0: 4236 993e c434 09be c6cb 073e d865 013e
00000300: 4764 90bb a3f7 1abe d99b 293e 6b94 01be
00000310: 7d28 853d 89a7 b93d 230c 913d 16be 98bd
00000320: ed2b cbbe e070 9fbe b5b5 773e 5dbb cdbe
00000330: 4c89 3f3e 0d45 5c3d bf08 dcbb 7de4 bf3d
00000340: c6ac e23c 3455 563d 63c7 013d ede3 243e
00000350: 3bac ba3b c13e 89ba 48a2 583d 02cf 213e
00000360: 20dd b3bd 3b1a 4d3e 6664 8c3e 3de5 4ebd
00000370: 5b90 f9bd facb 6f3a c58d 083d 5e24 aebd
00000380: 3b4b 743e 04e3 3b3d cff4 18be 1420 b7bd
00000390: cb0b 153d 4de8 a1bc 705d 03be 9a24 523e
000003a0: 276b 87bd 5359 d3bc cbc2 c7bd ef4c f73d
000003b0: 6249 933c 4f96 d0bd 9608 23be 3e2b d3ba
000003c0: eb6c 333e 2a93 1fbc 48b6 3abe c723 7bbd
000003d0: 778e e43e 1704 f5bd d2ee 4ebc 1481 02be
000003e0: f7f1 9cbd 32db a33e d149 0c3e 935c c13e
000003f0: ff2f 3bbd 545d 50be 47ed b7bd 6002 0cbe

predictor.net.1.bias f4 [32]
-0.08444134 -0.0893383 0.09695126 -0.07969796 -0.0993415 -0.10683391 -0.08970763 -0.08956728
0.10194645 0.09070793 0.09653828 0.082014784 -0.106122606 0.16386904 -0.08874568 0.09157781
-0.09817132 0.0988284 -0.016917964 -0.09705041 -0.19295847 0.09605377 0.090796694 -0.07094541
0.10153906 -0.09214453 -0.091996424 0.090062976 -0.076296546 0.09135961 0.092119955 -0.10096419
00000000: 95ef acbd 00f7 b6bd 628e c63d af38 a3bd
00000010: 8e73 cbbd bdcb dabd a2b8 b7bd 0d6f b7bd
00000020: 4dc9 d03d 14c5 b93d ddb5 c53d 5ef7 a73d
00000030: cf56 d9bd 49cd 273e 4cc0 b5bd 268d bb3d
00000040: 0c0e c9bd 8b66 ca3d 8b97 8abc 5ec2 c6bd
00000050: e896 45be d7b7 c43d 9ef3 b93d d44b 91bd
00000060: b6f3 cf3d 45b6 bcbd 9f68 bcbd f072 b83d
00000070: 5d41 9cbd bf1a bb3d 63a9 bc3d 50c6 cebd

predictor.net.3.weight f4 [1, 32]
-0.07528485 -0.14874442 0.20816298 -0.08238028 -0.121029556 -0.15442696 -0.28817067 -0.14595664
0.2204344 0.2122677 0.41185674 0.1829832 -0.22864035 0.05744074 -0.17420933 0.17946167
-0.20723626 0.16913857 0.022035811 -0.1892756 -0.025299538 0.14173508 0.43579763 -0.02648529
0.07435703 -0.030151859 -0.11927935 0.16156003 -0.025465405 0.4354191 0.042824488 -0.3127279
00000000: f22e 9abd 7550 18be ad28 553e feb6 a8bd
00000010: 58de f7bd 1a22 1ebe 1b8b 93be a875 15be
00000020: 8eb9 613e b45c 593e e3de d23e f35f 3b3e
00000030: b220 6abe fb46 6b3d ee63 32be cdc4 373e
00000040: be35 54be a932 2d3e 7284 b43c 76d1 41be
00000050: fa40 cfbc 0023 113e de20 df3e aef7 d8bc
00000060: 8048 983d 0801 f7bc bb48 f4bd fe6f 253e
00000070: d39c d0bc 41ef de3e bb68 2f3d df1d a0be

net.0.weight f4 [60, 35]
0.12774529 0.10386509 -0.13085847 0.1760065 0.08069112 0.17204146 -0.001787091 -0.08959346
-0.030076632 -0.21850063 0.21042237 0.051404208 -0.1303405 0.06432883 -0.106542654 -0.003098842
-0.16860466 -0.22272947 -0.05089866 0.13144971 0.032804772 0.18181933 0.18997732 0.0747925
-0.25660792 -0.17391588 -0.23905453 -0.14994833 0.068043545 0.029742798 0.066437386 0.10000197
0.054442044 0.057453312 0.03497621 -0.09332893 0.19447774 0.08307202 -0.02959698 -0.0902116
0.23374484 -0.10327303 0.09331438 0.084637426 0.02588519 -0.17471799 -0.19139187 -0.01778936
-0.074530974 -0.097235546 -0.31452653 -0.11096758 0.26974255 0.18025988 0.08306851 -0.0117004225
0.2254555 -0.010357518 -0.22071439 0.014549417 0.15446864 0.042993683 -0.20574923 -0.12438238
0.14602141 -0.23597129 -0.06138023 -0.060515843 0.1176907 0.15573004 0.040514678 0.20512074
0.09033121 0.20076981 0.14100331 -0.19627975 0.14486305 0.16323325 0.061405376 0.14264777
0.3119891 -0.031167977 -0.12030471 0.094868414 0.12360933 0.15916388 -0.08503492 0.0007204309
0.070207946 -0.12562713 0.047996335 -0.14294325 -0.34891832 0.24188654 0.055316042 -0.29033202
-0.090924226 0.28463647 0.03653337 0.0908604 0.03924466 -0.2029671 0.070477 0.06615061
0.12239984 -0.025025217 0.0093694525 -0.070815906 -0.30633336 -0.140378 0.084705435 -0.1362394
0.1881932 -0.028429352 0.16619986 -0.23026855 0.048829995 -0.072240576 -0.017941713 0.112988636
-0.16298927 0.08861427 0.094961345 0.16072702 -0.16420977 0.032432277 0.013333767 0.0798779
0.08287147 -0.22812866 0.116827525 -0.06430365 0.020699345 0.18511923 -0.17675664 -0.24367368
0.03218096 0.030463137 -0.11916717 -0.19303228 0.042036984 0.24956505 -0.0029180679 0.1673782
0.13065909 -0.121650666 0.06547837 0.02734081 0.0034961617 0.032104816 0.039792974 0.05496916
0.074965194 -0.053830013 0.20279436 0.0074367453 -0.17662297 -0.22988418 0.09915428 0.11766278
0.11452853 0.15666623 -0.042221207 -0.018562788 0.1261776 -0.044775847 0.26641566 0.21650635
0.08496956 0.07191317 0.048952896 -0.06715279 -0.32763577 -0.3607133 0.15563592 0.13662891
0.08500876 0.046461098 -0.100221984 -0.08349838 -0.16360785 0.08827383 -0.101479925 0.13683788
-0.08045912 -0.04293439 -0.053249575 -0.028128294 -0.0194832 0.035995122 0.036359236 0.2347863
0.16635942 0.0006030169 0.11298321 0.086488515 -0.0029685989 -0.14603396 0.3276758 0.19181818
0.0063623143 -0.20880146 0.07772643 -0.23144667 0.09242515 0.1413467 0.010390054 0.082887225
0.089598194 -0.05931095 0.0359877 -0.009324878 -0.16231312 -0.31418264 -0.07007337 0.103926234
0.28919196 -0.0024234415 -0.01927574 -0.17865053 0.021416748 0.1137506 -0.10018149 0.1986612
-0.1299957 0.09287021 0.11396828 0.08759757 -0.0014088273 0.061041575 0.051774353 0.0016166182
0.094378434 0.08322472 -0.0010905263 -0.06436159 0.018539537 -0.06965253 -0.041296978 0.15228933
-0.028545773 0.17625435 -0.10144366 -0.26855925 -0.04988742 0.07978874 0.0024586977 -0.15661255
-0.04493468 0.3236343 -0.030696362 0.065450415 -0.17289992 -0.022397 0.15835832 -0.1682383
00000000: a9cf 023e 38b7 d43d c3ff 05be 0c3b 343e
00000010: 6341 a53d a32b 303e d33c eaba c77c b7bd
00000020: 4563 f6bc a1be 5fbe f678 573e 388d 523d
00000030: fb77 05be d5be 833d 0933 dabd f115 4bbb
00000040: b3a6 2cbe 3213 64be 1d7b 50bd c19a 063e
00000050: 4c5e 063d d92e 3a3e 6a89 423e cf2c 993d
00000060: 1d62 83be 0117 32be b6ca 74be 0e8c 19be
00000070: 6a5a 8b3d 2ba7 f33c 5310 883d d5cd cc3d
00000080: 9ffe 5e3d 2a54 6b3d 3743 0f3d 3d23 bfbd
00000090: 2c25 473e aa21 aa3d 5e75 f2bc dcc0 b8bd
000000a0: cf5a 6f3e cf80 d3bd 9c1b bf3d 6356 ad3d
000000b0: 2e0d d43c 46e9 32be 3bfc 43be feba 91bc
000000c0: b2a3 98bd 6e23 c7bd 9f09 a1be f842 e3bd
000000d0: b21b 8a3e 0c96 383e d31f aa3d 21b3 3fbc
000000e0: cedd 663e 94b2 29bc f402 62be ae60 6e3c
000000f0: 072d 1e3e 251a 303d edaf 52be 30bc febd
00000100: a386 153e 75a2 71be d669 7bbd 76df 77bd
00000110: d207 f13d b277 1f3e b8f2 253d 2c0b 523e
00000120: 92ff b83d 9a96 4d3e 2c63 103e 8ffd 48be
00000130: fb56 143e 9e26 273e 3484 7b3d 4212 123e
00000140: 09bd 9f3e fc53 ffbc 5162 f6bd 5f4a c23d
00000150: e326 fd3d dbfb 223e ca26 aebd 4ddb 3c3a
00000160: 2fc9 8f3d 66a4 00be ce97 443d b75f 12be
00000170: 6ca5 b2be 1bb1 773e 1393 623d 66a6 94be
00000180: 7b36 babd dfbb 913e 04a4 153d 0415 ba3d
00000190: 02bf 203d 9cd6 4fbe 3f56 903d f979 873d
000001a0: c4ac fa3d af01 cdbc 5582 193c ee07 91bd
000001b0: bad7 9cbe 40bf 0fbe 0b7a ad3d 5782 0bbe
000001c0: b8b5 403e ace4 e8bc 4c30 2a3e 85cb 6bbe
000001d0: f601 483d def2 93bd 80fa 92bc 9666 e73d
000001e0: a9e6 26be 667b b53d 187b c23d a095 243e
000001f0: 9b26 28be b5d7 043d df75 5a3c 0697 a33d
00000200: 84b8 a93d 8f9a 69be 4543 ef3d a2b1 83bd
00000210: ac91 a93c e58f 3d3e b1ff 34be 9885 79be
00000220: 2fd0 033d d48d f93c eb0d f4bd 41aa 45be
00000230: f92e 2c3d fb8d 7f3e 0e3d 3fbb 3165 2b3e
00000240: 7fcb 053e fc23 f9bd 8619 863d d6f9 df3c
00000250: dc1f 653b 5780 033d f5fd 223d 5827 613d
00000260: 5a87 993d dc7c 5cbd 53a9 4f3e f1af f33b
00000270: a7dc 34be c266 6bbe 6611 cb3d 2ff9 f03d
00000280: ef8d ea3d 1d6d 203e 25f0 2cbd fd10 98bc
00000290: b334 013e e166 37bd a267 883e d7b3 5d3e
000002a0: 8504 ae3d 3647 933d d582 483d 6787 89bd
000002b0: e0bf a7be 6aaf b8be 065f 1f3e 73e8 0b3e
000002c0: 1319 ae3d fe4d 3e3d 2f41 cdbd 3301 abbd
000002d0: d188 27be e9c8 b43d b5d4 cfbd 3b1f 0c3e
000002e0: c0c7 a4bd f9db 2fbd 3a1c 5abd 4f6d e6bc
000002f0: 3b9b 9fbc 9f6f 133d 6ced 143d d26b 703e
00000300: 205a 2a3e c713 1e3a be63 e73d e420 b13d
00000310: d38c 42bb ed89 15be 1fc5 a73e fc6b 443e
00000320: f67a d03b 0dd0 55be 092f 9f3d 5b00 6dbe
00000330: 6649 bd3d 30bd 103e 0c3b 2a3c c7c0 a93d
00000340: 427f b73d 0af0 72bd d767 133d 60c7 18bc
00000350: 6935 26be 8cdc a0be a182 8fbd 47d7 d43d
00000360: f810 943e 9ad2 1ebb 28e8 9dbc 2af0 36be
00000370: 2d72 af3c 13f6 e83d f42b cdbd d76d 4b3e
00000380: 981d 05be bd32 be3d 3468 e93d 5b66 b33d
00000390: 66a8 b8ba bb06 7a3d 5811 543d b5e4 d33a
000003a0: 7b49 c13d b971 aa3d feef 8eba 02d0 83bd
000003b0: 3ae0 973c fca5 8ebd 0527 29bd bcf1 1b3e
000003c0: d3d8 e9bc 057c 343e b2c1 cfbd 9980 89be
000003d0: c056 4cbd 4768 a33d 1a22 213b 0a5f 20be
000003e0: 6d0d 38bd 65b3 a53e f076 fbbc de0a 863d
000003f0: ad0c 31be ea79 b7bc af28 223e a946 2cbe

net.0.bias f4 [60]
0.10044032 0.03348233 0.15282486 -0.029929297 0.16075991 0.13474883 -0.048867542 -0.09262761
0.030149559 0.13291402 -0.027237842 -0.016692638 0.15556917 0.090072036 0.007143184 -0.13468319
0.025863668 0.0802971 -0.13946494 -0.15150778 0.05774725 0.0068446943 -0.06476702 -0.11151068
-0.1723096 0.07618293 0.06941131 -0.1400904 -0.08515058 -0.16475172 -0.004323446 0.05981939
0.14101245 0.031264625 -0.09979203 0.098443076 -0.028478166 0.0007722521 -0.012385888 -0.09146015
0.17911395 0.05194676 0.12148484 -0.12077412 0.1645066 -0.044620574 -0.03298555 -0.038791537
-0.101482175 0.12518896 0.015495684 0.13692844 0.15774678 -0.098946944 -0.14297175 0.16311295
0.11273811 0.024387432 -0.05522676 -0.04162762
00000000: a8b3 cd3d c524 093d 1f7e 1c3e 492e f5bc
00000010: 3f9e 243e 99fb 093e 5529 48bd 8bb3 bdbd
00000020: 35fc f63c 9d1a 083e e521 dfbc 00bf 88bc
00000030: 864d 1f3e b077 b83d 5f11 ea3b 64ea 09be
00000040: 0be0 d33c ce72 a43d e6cf 0ebe db24 1bbe
00000050: 6188 6c3d 7549 e03b 92a4 84bd b65f e4bd
00000060: ee71 30be cc05 9c3d 8427 8e3d dc73 0fbe
00000070: 6d63 aebd adb4 28be b2ab 8dbb 2d05 753d
00000080: 9165 103e 560f 003d c45f ccbd 869c c93d
00000090: 0b4b e9bc f670 4a3a 2eee 4abc 764f bbbd
000000a0: a669 373e 20c6 543d 0bcd f83d 6c58 f7bd
000000b0: 6b74 283e 10c4 36bd db1b 07bd e0e3 1ebd
000000c0: e3d5 cfbd 8931 003e 9ce1 7d3c f836 0c3e
000000d0: 5f88 213e b2a4 cabd 3067 12be 1507 273e
000000e0: 3de3 e63d 27c8 c73c 7535 62bd b981 2abd

net.2.weight f4 [60, 60]
-0.021599412 0.074549876 -0.040885765 0.04958658 0.16239291 0.2277953 -0.077606484 0.023802584
0.058639307 -0.34460655 0.14760064 -0.17262843 0.20684059 0.029460419 -0.1915708 0.12551428
-0.13233565 -0.25545084 -0.03845687 -0.08378431 -0.032905113 0.0062735854 -0.022819754 -0.13528527
0.138631 0.19233784 0.13495125 -0.17010786 -0.13571864 0.17463726 0.008561062 -0.14172265
0.1292364 -0.06645162 -0.038747136 0.10864656 0.05669624 0.14967075 -0.15367033 0.039607424
-0.027627356 -0.035510764 -0.077770665 -0.112105116 0.16341615 -0.02152121 0.008917485 0.08682721
0.084584825 -0.07845501 -0.19085032 -0.049246613 0.028460935 -0.011092635 -0.014459382 -0.088418566
0.15771371 0.00031193008 0.082214296 -0.10851114 0.107171275 -0.20169978 0.053744383 0.09217022
-0.021927103 -0.24055527 0.09529194 -0.21893251 -0.015647031 -0.055852346 -0.043660592 0.07379552
-0.11053579 -0.11264226 0.026296936 -0.1494539 0.02351354 0.053788256 0.15587823 0.35546833
-0.2122938 -0.12057505 0.020694919 -0.14370833 -0.033809196 -0.132795 0.23209763 0.21595918
-0.09099006 0.04064908 -0.054142796 -0.19243567 0.0981494 0.15982467 -0.02190358 -0.06694971
-0.07727393 0.19778305 0.016655596 -0.046548236 0.08882707 -0.2765036 0.03512204 0.20058283
-0.0925282 0.1819156 0.12541519 0.03211298 0.005967956 -0.123883225 -0.016276034 0.18842949
0.016923001 0.09759062 -0.11431352 -0.03106701 0.106358685 -0.05355902 -0.06617863 0.13894236
0.0019814298 -0.10116734 0.08323261 -0.10437431 0.12064547 -0.16968001 0.038182177 0.06871368
-0.02427832 0.09286744 -0.042461697 0.06894907 -0.051632196 -0.035993434 0.023333646 -0.12936127
-0.042853866 -0.1790295 -0.07336726 -0.0884866 -0.12716658 0.11856054 0.0417225 -0.12818483
0.066355556 -0.16470921 0.06836176 -0.010428333 0.05881617 0.09664048 0.08028389 0.019706253
0.10988502 -0.037934635 -0.12836814 0.124379195 0.18773712 0.041538082 -0.0636199 0.15565301
0.105809055 0.1054016 0.15362218 0.26365128 0.10938833 0.22329669 0.2769077 -0.20813316
0.09631083 0.11292534 -0.03519864 -0.2986233 -0.1406175 0.010960602 0.24415833 -0.23663954
-0.07558763 -0.05070027 0.058062796 0.058587376 0.07878921 0.0048175505 -0.18436404 -0.16763143
-0.274877 0.042859856 0.2563513 0.1745381 0.24711505 -0.04572004 -0.22293106 -0.020033967
0.016796509 -0.18706825 -0.29533252 0.35579562 0.091410264 -0.040721722 -0.055649724 -0.113098085
-0.13646245 -0.044813104 -0.09876506 0.13851833 0.2868547 0.20299348 0.18934852 0.050068755
0.20081662 -0.08939617 0.17984153 -0.047712673 0.188018 0.026883278 0.0048170923 -0.073959224
0.2139084 0.19512893 0.11319423 0.25099894 0.060004596 -0.2767616 -0.055740543 0.014073616
0.021655561 0.13597812 0.06855024 0.14182086 -0.08935501 -0.0933315 -0.00525429 0.038238928
0.024396157 0.3162238 0.116333395 -0.16722533 0.24933425 0.1641838 0.12969953 0.06611352
-0.10552822 -0.118238814 -0.011044517 -0.029360542 -0.31384218 0.11517927 -0.054992996 -0.20059338
-0.021415917 -0.13725007 -0.12680486 0.030262748 0.038074832 0.15870114 -0.036732946 -0.09220814
00000000: 40f1 b0bc 9bad 983d d577 27bd 4c1b 4b3d
00000010: 544a 263e 2c43 693e 26f0 9ebd a3fd c23c
00000020: c52f 703d 4570 b0be 9f24 173e 82c5 30be
00000030: 05ce 533e fa56 f13c 232b 44be d186 003e
00000040: ff82 07be 74ca 82be f384 1dbd 1c97 abbd
00000050: 83c7 06bd a692 cd3b 7ef0 babc 3988 0abe
00000060: 49f5 0d3e 36f4 443e a930 0a3e c130 2ebe
00000070: d4f9 0abe 1cd4 323e b243 0c3c be1f 11be
00000080: 8c56 043e c917 88bd 51b5 1ebd 1682 de3d
00000090: 513a 683d 4a43 193e c15b 1dbe 653b 223d
000000a0: c452 e2bc bc73 11bd 3a46 9fbd 5e97 e5bd
000000b0: 9056 273e 404d b0bc a51a 123c 77d2 b13d
000000c0: cf3a ad3d 05ad a0bd 446e 43be d1b6 49bd
000000d0: e826 e93c e2bd 35bc 0be7 6cbc cb14 b5bd
000000e0: b47f 213e 8c8a a339 f85f a83d 173b debd
000000f0: 9d7c db3d 638a 4ebe 1223 5c3d bec3 bc3d
00000100: 78a0 b3bc 1f54 76be 6c28 c33d d82f 60be
00000110: 342e 80bc 6ec5 64bd 73d5 32bd 1b22 973d
00000120: 9760 e2bd fcb0 e6bd ac6c d73c 710a 19be
00000130: 789f c03c 1351 5c3d 8b9e 1f3e f2ff b53e
00000140: 8c63 59be 0df0 f6bd 6488 a93c 4728 13be
00000150: 837b 0abd 6afb 07be 00ab 6d3e 6724 5d3e
00000160: ff58 babd a67f 263d d6c4 5dbd db0d 45be
00000170: 8d02 c93d 14a9 233e 236f b3bc ee1c 89bd
00000180: cb41 9ebd a487 4a3e 5171 883c 5da9 3ebd
00000190: f8ea b53d e191 8dbe 21dc 0f3d 9665 4d3e
000001a0: 6d7f bdbd 1548 3a3e d76c 003e e688 033d
000001b0: d88e c33b 7db6 fdbd 5155 85bc a9f3 403e
000001c0: 1ba2 8a3c 97dd c73d 351d eabd 3e80 febc
000001d0: 95d2 d93d b460 5bbd a988 87bd e846 0e3e
000001e0: e0da 013b d330 cfbd dc75 aa3d 33c2 d5bd
000001f0: f914 f73d 99c0 2dbe ea64 1c3d c2b9 8c3d
00000200: 54e3 c6bc 4931 be3d 51ec 2dbd 2c35 8d3d
00000210: 487c 53bd da6d 13bd 3426 bf3c 4877 04be
00000220: 8987 2fbd 8253 37be 9341 96bd 7638 b5bd
00000230: f537 02be decf f23d 36e5 2a3d e242 03be
00000240: 6ce5 873d 88a9 28be 4001 8c3d 99db 2abc
00000250: 39e9 703d 72eb c53d e16b a43d 026f a13c
00000260: 660b e13d 5961 1bbd f072 03be 85ba fe3d
00000270: 293e 403e d623 2a3d 264b 82bd 8163 1f3e
00000280: 6bb2 d83d cbdc d73d 224f 1d3e 4dfd 863e
00000290: fd06 e03d e3a7 643e d9c6 8d3e dc20 55be
000002a0: 9d3e c53d 6745 e73d 732c 10bd 27e5 98be
000002b0: 09fe 0fbe 1994 333c a404 7a3e a351 72be
000002c0: b0cd 9abd 16ab 4fbd 41d3 6d3d 51f9 6f3d
000002d0: 3d5c a13d 8bdc 9d3b edc9 3cbe 93a7 2bbe
000002e0: aebc 8cbe d18d 2f3d 7a40 833e 1eba 323e
000002f0: ba0b 7d3e f044 3bbd 0a48 64be 461e a4bc
00000300: d598 893c d28e 3fbe d335 97be d82a b63e
00000310: 4e35 bb3d d2cb 26bd f7f0 63bd f89f e7bd
00000320: d0bc 0bbe f28d 37bd 5645 cabd c0d7 0d3e
00000330: 9fde 923e 86dd 4f3e 94e4 413e e514 4d3d
00000340: dfa2 4d3e 5715 b7bd 6128 383e 5d6e 43bd
00000350: ca87 403e 523a dc3c b3d8 9d3b ef77 97bd
00000360: ce0a 5b3e e1cf 473e 60d2 e73d ef82 803e
00000370: 61c7 753d b2b3 8dbe 3250 64bd 0695 663c
00000380: 0167 b13c d93d 0b3e 1164 8c3d 7d39 113e
00000390: c2ff b6bd 9624 bfbd 2e2c acbb 6ca0 1c3d
000003a0: 73da c73c 16e8 a13e 3440 ee3d 1e3d 2bbe
000003b0: 7a51 7f3e cc1f 283e f4cf 043e 8666 873d
000003c0: 2e1f d8bd 3127 f2bd 10f4 34bc 8585 f0bc
000003d0: ecaf a0be 1ce3 eb3d 5640 61bd 5a68 4dbe
000003e0: 6f70 afbc 488b 0cbe 22d9 01be 95e9 f73c
000003f0: 5bf4 1b3d 8d82 223e 4975 16bd 9fd7 bcbd

net.2.bias f4 [60]
-0.030047033 -0.08013672 0.121466935 0.08765326 0.01658868 -0.07074188 -0.111137554 -0.10046692
-0.040225793 -0.05672353 -0.07685188 -0.06963755 -0.041707847 -0.009320773 -0.05490695 -0.009234699
0.10862364 0.09637603 0.03339085 -0.0042865025 0.12382193 0.08441695 -0.09753853 0.06998025
-0.08037088 0.11194862 0.06353767 0.015681267 0.09019992 0.106003016 0.0015917984 -0.074345395
-0.094475485 0.009233246 -0.014618314 0.11017643 0.046950992 -0.038814634 0.09964581 -0.060080417
-0.014347693 -0.10116079 0.0010033147 -0.11802943 0.028320586 0.09813372 -0.11231721 0.017195366
0.033483844 0.025845507 0.0283315 0.021487739 -0.05221934 0.09931558 0.11106892 0.103227995
-0.047376033 -0.0443269 0.0806204 0.068840265
00000000: 3225 f6bc b81e a4bd a8c3 f83d 8d83 b33d
00000010: fce4 873c 1ee1 90bd 169c e3bd 9ac1 cdbd
00000020: cdc3 24bd ef56 68bd 8564 9dbd 229e 8ebd
00000030: d9d5 2abd 28b6 18bc 1ce6 60bd 234d 17bc
00000040: 1276 de3d cc60 c53d d8c4 083d ca75 8cbb
00000050: 5a96 fd3d cbe2 ac3d 48c2 c7bd ce51 8f3d
00000060: 7d99 a4bd 5145 e53d 0a20 823d 0076 803c
00000070: bcba b83d 1c18 d93d e4a3 d03a 6642 98bd
00000080: 5d7c c1bd 0a47 173c a781 6fbc 2ea4 e13d
00000090: af4f 403d 18fc 1ebd 1a13 cc3d e216 76bd
000000a0: 9612 6bbc 632d cfbd a881 833a 6ab9 f1bd
000000b0: 9300 e83c 55fa c83d 9106 e6bd 4cdd 8c3c
000000c0: 5b26 093d f5b9 d33c 7617 e83c 0e07 b03c
000000d0: f2e3 55bd f865 cb3d 1a78 e33d 3369 d33d
000000e0: 5f0d 42bd 2090 35bd 4f1c a53d 20fc 8c3d

net.5.weight f4 [1, 60]
0.12442035 -0.1661098 -0.12026177 0.13694051 0.18759152 0.50006723 0.04182958 -0.30031434
-0.11037671 0.056787677 -0.42104486 0.13092768 0.021187922 0.10216141 0.18676275 0.018977286
-0.107564084 -0.18615253 -0.1648386 -0.06517336 0.12891065 0.13215473 0.12520441 -0.00916606
0.004221138 -0.21027075 -0.16078965 0.28123963 -0.117240466 0.0018250145 -0.33235943 0.25522554
-0.058786537 0.24144518 0.15186833 -0.076465756 -0.28967735 0.29900286 0.049149886 -0.078189775
0.2452749 0.29098347 0.32023677 0.10261235 0.033788968 -0.038771186 -0.101361215 -0.07790409
0.15047938 -0.15775762 0.13757674 0.17343844 0.26945317 0.0018884867 0.083355844 0.232439
-0.048650306 -0.16100167 -0.053873852 -0.09189938
00000000: 19d0 fe3d b018 2abe ce4b f6bd 223a 0c3e
00000010: fe17 403e 6804 003f 7e55 2b3d cdc2 99be
00000020: 2f0d e2bd 329a 683d 3193 d7be e811 063e
00000030: 4b92 ad3c 003a d13d bc3e 3f3e 4176 9b3c
00000040: 8f4a dcbd c59e 3ebe 73cb 28be 9c79 85bd
00000050: 2701 043e 9253 073e 9635 003e 3e2d 16bc
00000060: 7951 8a3b 3751 57be 0ba6 24be a4fe 8f3e
00000070: c51b f0bd 5335 ef3a 042b aabe ecac 823e
00000080: 27ca 70bd 683d 773e 5f83 1b3e 149a 9cbd
00000090: 9750 94be e716 993e 6451 493d f621 a0bd
000000a0: 5829 7b3e c9fb 943e 13f6 a33e 6c26 d23d
000000b0: 4d66 0a3d 89ce 1ebd 7896 cfbd 2e8c 9fbd
000000c0: 4417 1a3e 378b 21be ebe0 0c3e d999 313e
000000d0: c4f5 893e 1987 f73a 78b6 aa3d 7d04 6e3e
000000e0: 8b45 47bd 9fdd 24be d4aa 5cbd be35 bcbd
