results/PINN/XJTU results/0-0/Experiment3/model.pth (torch, 60271 bytes, 14 tensors)

encoder.net.0.weight f4 [60, 17]
00000000: 5401 e8bc b79c 253e e0a9 273c e558 bebc
00000010: b9a7 aa3c 3e1c debd 95fe f3bd 92cb b13c
00000020: 005e 73be 7e5e b23e 1e69 dabd 8a89 d33c
00000030: e398 0f3e 2350 e2bb d798 e8bd ef79 08bd
00000040: bb89 47bd 0f25 8ebc bdea 8d3d dd2c 43bd
00000050: 6219 a7be 44b3 efbd 4438 503e 4aa2 b7be
00000060: 6f9e c8bc 7905 043e c3b5 08bd 2194 b33d
00000070: e0cd 44be f0ca a23e 3514 42be dbc7 2a3e
00000080: c175 48bd 788a 553c 1df2 27bd e0d4 9bbd
00000090: b33b d33d 49e5 87be cadc 99be 575f dc3d
000000a0: 731a 51be 3503 e83d c6e0 6d3d 6e38 c23c
000000b0: e0ca afbd 53c6 7b3e 67cd 8abd 149c 8dbc
000000c0: 692d 03be 5df4 653e ed78 673d 823c 393d
000000d0: 5e12 2cbe a93e 86be d1f6 16be 14ba 70be
000000e0: c0c9 9c3e ed2e 333e 4383 4abe df58 92be
000000f0: e667 5cbc e665 213b 3568 e1bd 3366 88be
00000100: 7783 f7bd d8a7 0c3d 6f94 d13d dd5f ba3d
00000110: ba8e b6be bd3d 4f3d 47db 0a3d fe17 65bd
00000120: ed87 283e 9211 f0be c443 b3bd 9218 c4bd
00000130: 1709 d33d 6164 4a3d 7587 0ebd bed5 cb3d
00000140: fd4a c1bd 33df 953e 8cac 8abd 528e 7fbd
00000150: 35c4 4f3e 1bd8 223d 2d36 8bbc aa6c d2bd
00000160: 274e 04be a630 f83c e1eb 2e3d b3ad c2bd
00000170: 3b5d ecbd 9a10 92be 9b7d 673c 56ec e2bc
00000180: cc90 04ba 4126 8f3d 7c0a 53be ba32 efbd
00000190: c279 b83d 4bf5 7a3e 7ab2 23bd 7321 77be
000001a0: 79e3 b5bd 70ef f13d 4b03 04be 4b76 eabd
000001b0: 3e79 8c3c 47f0 613e 4043 12be 4144 abbe
000001c0: 132e cebd c116 2e3e ef14 56bd ca27 1cbd
000001d0: 0ac6 d53e 2a5e 57bc b551 14bd 5f23 c93d
000001e0: 3115 a8bb 4976 a3bd 896a f3bd 3f91 703d
000001f0: 41a5 883e 2621 a93d b546 6c3e 9882 62be
00000200: 73e0 b8be fb1c 963c a603 47be a573 ebbd
00000210: 661a 0fbe adec 243e dd96 91be bfeb 113e
00000220: b06b 1b3e 60db da3d aa0d 0abc 8645 86bd
00000230: c960 513e 23d4 e93d dcfe 22bb 511c ee3d
00000240: 9389 983e ccca 583e 78ae 0bbd c302 e73e
00000250: e99e 7f3d 89e2 2abe a03a c53d fd33 2abd
00000260: 3ed3 0bbc 5fda 033e cf71 51be ccb4 393d
00000270: 4f36 523c cb6d ca3d a2fb 35bd e1a4 9bbb
00000280: 9e95 1dbd 8ef7 2bbe 37de ab3d d86d 9dbe
00000290: 52c5 0fbd 258e 1abc 3c00 113e 3d23 29be
000002a0: db4a acbb 606a 043e ca5d 083e 5325 893e
000002b0: 0f9d c23d 1c8a 8b3d 98d1 87be f89a 263c
000002c0: 9423 293e 62fa f23d 9e69 6c3d b92a d73d
000002d0: 12e4 f2bd 7960 8bbe 7eba 7a3d 8f22 2d3d
000002e0: 4b0e b2bd 8e05 34be f134 ccbd 993d e2bd
000002f0: 8c36 383e feca 603e 82d1 14bd a3b9 6fbd
00000300: 2572 afbe bb74 303b fd32 fb3d a5c2 fd3d
00000310: 4abe fcbd 1389 783e 61b5 8ebd 91a9 893d
00000320: d118 583d 3a22 2bbd 4c4b 103d 9c5e 7b3d
00000330: d907 f53d 3bc4 6e3e 1e91 e33d 958b 26bc
00000340: 1bf3 8b3e 1737 d8bd 550f c23e 884d 7cbc
00000350: 6a36 443e fccf 353e cb64 283e f52a c3bd
00000360: 83bb 393e 17db 4b3e 8b13 a43d fc39 9cbc
00000370: 2789 a23d a118 5d3c 11de 8c3d d431 803c
00000380: fe65 633e fd9c 5f3e 28f1 2cbd b36f 05be
00000390: 928c 5dbe c0f7 64bc 4857 663b 4725 7d3d
000003a0: a1b1 24be 3899 18bd afcc 5ebe 3951 b9bb
000003b0: 8410 35be 50e6 8d3d 4c7d cfbc 45f9 dd3d
000003c0: c7ee 8dbe 5c60 dfbd 88dd 923c 7ba9 e6bd
000003d0: b318 903e 517f b3bd 4ed9 c33d 68c3 953c
000003e0: 61e8 a23c a263 d4bd 7414 82bd 25ed c73e
000003f0: 7555 dd3d 5d18 873e bc5a 98bd 73da 1e3d
-0.028320946 0.16173063 0.010233372 -0.023235748 0.02083193 -0.108452305 -0.11913792 0.021703515
-0.23766327 0.34837717 -0.10664581 0.02582242 0.14023165 -0.0069065257 -0.11357277 -0.03331941
-0.048715334 -0.017351655 0.069295384 -0.047650207 -0.32636553 -0.11704114 0.20333964 -0.35866004
-0.02448961 0.12892713 -0.033376466 0.08768488 -0.1921916 0.31795454 -0.18953021 0.16677801
-0.048940424 0.013033502 -0.04100238 -0.07608962 0.10314121 -0.26542118 -0.3005126 0.10760372
-0.20420246 0.11328737 0.05807569 0.023708548 -0.08583617 0.24587373 -0.06777459 -0.017286338
-0.12810291 0.22456498 0.05651181 0.04522372 -0.16803882 -0.2621968 -0.1474259 -0.23508483
0.30622673 0.1749837 -0.19776635 -0.28583428 -0.013452506 0.0024627387 -0.11006204 -0.26640472
-0.12085622 0.034339756 0.102333896 0.09100316 -0.35655767 0.050595988 0.033900525 -0.055931084
0.16458102 -0.46888405 -0.0875316 -0.09574999 0.10304468 0.049412135 -0.03479715 0.099528775
-0.09438131 0.2927185 -0.06771192 -0.062391587 0.20289691 0.039756875 -0.016993606 -0.10274632
-0.12920438 0.030296635 0.04270542 -0.09505787 -0.1154122 -0.2852829 0.014129068 -0.027700584
-0.0005056977 0.06989718 -0.20609468 -0.11679597 0.090075985 0.24507634 -0.03996513 -0.24133854
-0.088812776 0.11813247 -0.12891881 -0.11448344 0.017147657 0.22064315 -0.14283466 -0.3345051
-0.10067382 0.17000867 -0.052266058 -0.038123883 0.41752654 -0.013145009 -0.036210734 0.098211996
-0.0051294793 -0.079815455 -0.11885554 0.058732267 0.2668858 0.08258276 0.23073848 -0.2212013
-0.3610874 0.018324366 -0.19434986 -0.11496667 -0.13974914 0.1610591 -0.28435412 0.14250086
0.15177798 0.10686374 -0.008426109 -0.06556229 0.20447077 0.11417415 -0.0024871146 0.11626495
0.2979246 0.21171111 -0.034101933 0.45119295 0.062407408 -0.16687979 0.096303225 -0.041553486
-0.008534251 0.1287627 -0.20453571 0.045338437 0.012830331 0.098842226 -0.04442943 -0.0047498797
-0.038472764 -0.16793653 0.083919935 -0.30747867 -0.03510029 -0.009433304 0.14160246 -0.16517349
-0.005257947 0.12931204 0.13317028 0.2678629 0.09502613 0.06813452 -0.26527095 0.010168783
0.16517478 0.11864163 0.057717912 0.105061956 -0.11859907 -0.2722204 0.06121301 0.042269286
-0.086941324 -0.17580244 -0.09971035 -0.11046905 0.17989558 0.21952435 -0.036332615 -0.058526646
-0.34266773 0.0026925046 0.122655846 0.12390641 -0.12340982 0.2427104 -0.06968189 0.06721795
0.05275804 -0.041780688 0.03522806 0.061369523 0.119643874 0.23317043 0.11111663 -0.010165115
0.27333912 -0.105573826 0.37902322 -0.015399344 0.19161382 0.17755121 0.164447 -0.09529678
0.18137936 0.19907795 0.0801154 -0.019070618 0.07936316 0.0134946415 0.06878293 0.01564876
0.22206876 0.2183723 -0.042222172 -0.13030891 -0.21635655 -0.013975084 0.0035147239 0.06180313
-0.16083385 -0.037255496 -0.21757768 -0.0056554344 -0.17682081 0.06928694 -0.0253283 0.1083856
-0.27721235 -0.10907051 0.0179279 -0.112627946 0.28143844 -0.08764518 0.09562932 0.018281654
0.019886198 -0.10370566 -0.063515574 0.39048114 0.10807315 0.26385775 -0.07439181 0.03878255

encoder.net.0.bias f4 [60]
00000000: 18fd 4abd a81f 3abb 7f76 6b3c 8496 42bd
00000010: da20 4abd 2ddb 94bd 58de 6d3d d9f3 c73d
00000020: 5695 c43c c500 83bd 375d 853d cddd 473d
00000030: 98c1 2ebd 6709 023d 8f92 153d 2641 bd3d
00000040: 6835 fc3c aff6 db3c ddf0 afbd 0607 993d
00000050: 908a 2abd 1e91 e9bc 466d 13bd 0195 42bc
00000060: d6bf 913c 29cb 1b3d 4e69 a93c e074 4c3d
00000070: 2cf9 1fbd 8d7a 8f3d 299c 9d3d 1448 98bd
00000080: efe5 0a3d 6b5f 8a3d 36c9 2b3d 9782 dbbc
00000090: 145e 303c a640 a93b 5ed2 d23c eea2 27bc
000000a0: 0605 babd 15d6 fd3c 087c 913d ef4a 4ebd
000000b0: 694a 69bd 07c6 c1bc a9cf 0c3d 5c23 233d
000000c0: 9dfc 533c 32a2 923d 6cff e7bc e91f 0dbd
000000d0: d157 11bd fb50 44bc 3ad0 2ebd 4d70 eabd
000000e0: ca40 983d bcf8 1ebd 9c7a c53c 1c50 93bc
-0.049557775 -0.0028400216 0.014371513 -0.047506824 -0.049347736 -0.07268367 0.05807337 0.09763307
0.02399699 -0.06396631 0.0651192 0.04879551 -0.042665094 0.031747248 0.036516722 0.09240942
0.030787185 0.026851026 -0.08590863 0.07472043 -0.04163605 -0.02851158 -0.035992883 -0.011876346
0.01779167 0.038035545 0.020680096 0.04991615 -0.03905599 0.070057966 0.07695801 -0.07435623
0.033910688 0.06756481 0.041939937 -0.026795669 0.0107646175 0.0051651774 0.025735077 -0.010231717
-0.090829894 0.030985871 0.07103735 -0.05036443 -0.05695573 -0.023653997 0.034377728 0.039828643
0.012938646 0.071598426 -0.028320037 -0.03445426 -0.03548414 -0.011982198 -0.04267905 -0.11447201
0.074342325 -0.03881143 0.024106316 -0.017982535

encoder.net.2.weight f4 [60, 60]
00000000: 861f 3ebe bbd0 533d c78d 993d d524 b9bd
00000010: ea71 d03b 3378 25bb bb27 b7bd 87e9 5b3e
00000020: 79a2 d1bc c1e2 dc3c 4fa7 583c 375f 263e
00000030: 9f81 253e 9f47 16be 4ad1 3fbe a94e f3bc
00000040: 029b b2be 9be1 2fbe c316 a23d e52a 56bd
00000050: 1f0e 0e3e 70cf a2be a4d4 aabd 5f35 fd3d
00000060: 9fc6 c0bd 1507 8f3d 2133 a7bd 86ba 553c
00000070: fe9c c6bc a13f 8f3d fe57 76bd 96f4 41bd
00000080: daa9 92bd c184 323e 5db9 253e 0a6e 58be
00000090: fe62 2abd fba7 ec3c fc6d 453e b1e8 8a3d
000000a0: 1bbe e03d 3123 9f3d b3c8 1b3e 56d5 ae3d
000000b0: c7cc 81bd 73ce 80be 9964 b03d 673b 1f3e
000000c0: 9859 523e abc2 523e 5778 b0bd 8522 6abc
000000d0: 6658 663e 7780 d13d d062 adbe b878 0dbe
000000e0: 8f26 04be 2845 193e fd29 d33d ca8a b53b
000000f0: f5c6 373e ddb6 f73d 659c 273d c665 fd3d
00000100: e40c 253e e1d2 44be ada0 5e3e 33b3 c2bd
00000110: c28b 693d 6a72 333e a27f d4bd bba7 f43d
00000120: d5b4 b33c 86ce f93c 1aea c53d b372 90bc
00000130: ca5b 043e 265b 9bbe 8249 a0bd 8b0d f63c
00000140: 2fd5 0bbe 8a21 9ebd 66a9 403e ceea 3cbd
00000150: c2c8 993d 4b49 6e3e 3c8e 493c 4593 8d3c
00000160: 44b6 01bd 520f 26be 9261 6c3d 4045 3c3d
00000170: 0148 8f3e 7874 5d3d b8c4 72bd b489 b6bd
00000180: be50 57be 58d8 74bc 4091 d1bd 6022 44bd
00000190: 487f 2c3e a1d9 163e e249 b93b 62e3 ba3c
000001a0: b2ec 65bd a364 b83a 4ffa 48be e0d2 9fbd
000001b0: 6d43 91bd 7aa8 a3be d679 c5bd e57e 00be
000001c0: 1a27 efbd 105e 00be 8b08 aa3c 5ea7 5f3d
000001d0: 896e 2a3d 620f 8cbc 8a18 003d b296 283e
000001e0: 5fd3 193d 7047 09be 8486 993c 5d43 87bc
000001f0: a10f aabd 0a9c 0d3e 9947 d0bb b0a4 2fbd
00000200: 6799 81bd d115 023e a09e af3d a9f7 033d
00000210: be68 903e 30a4 493d cc49 4ebd 3126 afbd
00000220: fac8 dcbd a298 0cbe b4bf be3d e5db 0e3e
00000230: c2cb e1bd ec65 723e 5b66 7e3e c132 12bd
00000240: 0c10 12be 1b71 f23d 80de f0bd 084a 89bd
00000250: ea17 31ba 1c19 183e 535a fa3c 3766 d9bc
00000260: 48da c3bd cb90 5bbe 1e07 113d 7dd8 6a3e
00000270: c929 8e3d 86a6 45bd d994 04be d02f 88be
00000280: 96e6 a93c a657 de3d e010 c63d b9a9 123e
00000290: 390c 9f3d 241d 4abe 4e8c 8a3d 911a 98be
000002a0: b270 343c 8d3a 83be 18c4 d63c 7ceb 4e3e
000002b0: 58f6 91be c95a 453e 6f40 4a3e f547 db3d
000002c0: 512f 88bd 2dfa 72bb 25b8 953c 8eee 9fbd
000002d0: 4278 8c3d 90e9 a13c 3f86 50bd 2a83 39be
000002e0: 8494 80bc 0485 123d 41b6 b8bd d021 273e
000002f0: 820a 39be 094d 24be ba80 02be b064 13be
00000300: 84e1 f7bd 8bd0 ebbd a947 15bb 33db 67ba
00000310: bce8 53bd ae12 5f3e 4034 933d 0dce 06bd
00000320: 2e5e 173d 64a0 6cbe 161a 283c 4d1f 3bbd
00000330: 2401 93be 147d ac3d ab2b bc3d 3db1 0d3c
00000340: 1ba2 cfbd 6e8f a2bd 343b 9b3c 160e 43be
00000350: 6a58 d2bc 9658 2ebd 7427 033c 471c e7bd
00000360: 565d 06be 01f8 f23c 0691 8abd 6b0e 0ebe
00000370: ea5b 093e 6ea8 043e 226b f0bc c146 ba3d
00000380: 8282 0dbb 4eb0 313d 60f0 eebd 09b7 99be
00000390: 4e14 843d 0748 89bd ed42 3d3c 5e8a 58bc
000003a0: bf4e 94bd 58ad b33e f89a 5fbd 54e9 73be
000003b0: b6d5 3ebe 88f6 f4bd 4288 f53b b8e2 fdbd
000003c0: e1d0 e0bd f2e1 343e df1d 4b3e e331 dd3d
000003d0: 3848 b5bd 4d84 53bb a47e a5bd e6c6 6ebe
000003e0: 7713 75be 9158 ad3d 0853 cf3d 2874 3f3e
000003f0: b6c9 09bd 3730 9b3e c849 7dbe 047f 173d
-0.18566713 0.051712733 0.07497745 -0.09040228 0.006361236 -0.0025248646 -0.08943125 0.21475802
-0.025590168 0.026963593 0.013223483 0.16247259 0.16162728 -0.14675759 -0.18732181 -0.029700594
-0.34883887 -0.17175905 0.07914498 -0.052287 0.13872574 -0.31798887 -0.08341339 0.12363695
-0.09412884 0.06983773 -0.08164049 0.013044959 -0.024244782 0.06994558 -0.06014251 -0.047352396
-0.07161303 0.17433454 0.16183992 -0.21135727 -0.041598313 0.028888693 0.19280237 0.067826636
0.1097376 0.07770384 0.1521328 0.08536784 -0.06337886 -0.25157508 0.086129375 0.15550004
0.2054199 0.20582072 -0.08616703 -0.014290457 0.22494659 0.10229581 -0.3386445 -0.13815582
-0.12905334 0.14967787 0.10310743 0.0055402266 0.1794699 0.12095425 0.040920634 0.12372927
0.16118199 -0.19221069 0.2174098 -0.09506836 0.05701805 0.17524114 -0.103759065 0.119460545
0.021936813 0.030493986 0.09663792 -0.017632818 0.1292564 -0.30342978 -0.078265205 0.030035755
-0.13655542 -0.07721241 0.1881462 -0.046122365 0.07508995 0.23270147 0.012301978 0.017282138
-0.031667963 -0.16216782 0.057710238 0.04596448 0.27984622 0.05406615 -0.059269637 -0.089129835
-0.21026894 -0.0149441585 -0.10232782 -0.047884345 0.16845429 0.14731456 0.0056545595 0.022813503
-0.056133933 0.0014068078 -0.19626735 -0.07803893 -0.070929386 -0.31964475 -0.09642379 -0.12548406
-0.1167738 -0.12535882 0.020756027 0.054602973 0.04160932 -0.017097179 0.031273402 0.16463736
0.037555095 -0.13406157 0.0187409 -0.016511614 -0.08303762 0.13829055 -0.0063561914 -0.042881668
-0.06328087 0.12703635 0.08575177 0.03221861 0.28204912 0.049228847 -0.050363347 -0.08552206
-0.10780521 -0.137301 0.09313908 0.1395107 -0.11025192 0.23671693 0.24843733 -0.035692934
-0.14263934 0.118379794 -0.117611885 -0.067035735 -0.00067555776 0.14853328 0.030560648 -0.026537998
-0.09563118 -0.21441953 0.035407178 0.22934146 0.06941564 -0.048254512 -0.12947406 -0.26598978
0.020739835 0.10856561 0.096711874 0.14322557 0.07766003 -0.19737679 0.06765042 -0.2970777
0.011013197 -0.25630608 0.026216552 0.20207018 -0.28508258 0.19272913 0.19751142 0.10707084
-0.0664965 -0.0037075386 0.018276284 -0.078091726 0.06858875 0.019764692 -0.050909277 -0.18116441
-0.015695818 0.035771385 -0.09019137 0.16321492 -0.18070415 -0.16045012 -0.12744418 -0.14393878
-0.121035606 -0.11514386 -0.0022778308 -0.0008844614 -0.051735625 0.2178447 0.071877 -0.03291135
0.03695505 -0.23108059 0.010260126 -0.045684148 -0.28711808 0.08422294 0.091880165 0.008648214
-0.10138341 -0.07937513 0.018949129 -0.19048342 -0.025676925 -0.04256495 0.008005012 -0.1128469
-0.13121542 0.029659273 -0.06765942 -0.13872688 0.13413969 0.12954876 -0.02934796 0.090955265
-0.0021592681 0.043381028 -0.11666942 -0.30022457 0.06449185 -0.06703191 0.011551601 -0.013216583
-0.07241582 0.35093188 -0.05459115 -0.23819476 -0.18636212 -0.119610846 0.00749305 -0.12396759
-0.109773405 0.17664316 0.19835614 0.10800531 -0.08851665 -0.0032274902 -0.080807954 -0.23318061
-0.23933206 0.08464158 0.10123259 0.18696654 -0.033639632 0.30310223 -0.24735177 0.036986366

encoder.net.2.bias f4 [60]
00000000: b96b 333d 27c4 22bc 2b68 0fbd aa47 2bbd
00000010: 0a81 26bd 5822 5dbd d7b2 8dbd 49df 6c3d
00000020: 72f9 373d 1bdb 7ebd 1203 64bd 2b9a 4a3d
00000030: eb71 1ebd dac4 78bd 0bf6 3cbd 814d f5bd
00000040: a5ea 03bc d349 7dbd feb9 2cbd 0b58 383d
00000050: 6d05 cd3c 3e69 eabc 0bef 16bd 3228 65bd
00000060: acbe 82bd a7f7 393d 41f6 e13c f5c3 573d
00000070: 7bbd cebb 62e4 98bd dfce 3ebd 5326 bcbd
00000080: 6f42 84bd 15f7 91bd dde8 3abd 3e70 4d3d
00000090: c6f6 22bd db6b 3c3d 126c 77bd 7618 5fbd
000000a0: beb7 2b3d 8dd7 0c3d 316d 483d e86d 27bd
000000b0: 1906 15bd 5bb9 34bd e955 5fbd 3308 35bd
000000c0: 8607 19bd 39f2 16bd c51c 9c3d d225 debd
000000d0: a8c8 0ebd 9a33 debc a9f2 8dbd aced 473d
000000e0: 917d 7e3d 66ce 43bd 8761 9abd 09cf 1d3d
0.043803904 -0.009934462 -0.03501145 -0.04181639 -0.040650405 -0.05398783 -0.069188766 0.05783013
0.044915624 -0.062220674 -0.05566699 0.049463432 -0.03868286 -0.060734607 -0.046133082 -0.11977673
-0.008051549 -0.061837982 -0.042169563 0.04500584 0.025027001 -0.028614637 -0.036849063 -0.055946536
-0.06384024 0.045402195 0.027583243 0.052677114 -0.006309209 -0.074654356 -0.046584006 -0.09186997
-0.06457984 -0.07127205 -0.045632232 0.05015587 -0.039786123 0.046001296 -0.0604058 -0.054466687
0.041923277 0.034385253 0.048932258 -0.0408763 -0.03638277 -0.04412208 -0.05452529 -0.044197273
-0.03736069 -0.036852095 0.07622675 -0.108470574 -0.03485933 -0.027124215 -0.069310494 0.048810646
0.06213147 -0.04780426 -0.07538133 0.038527522

encoder.net.5.weight f4 [32, 60]
00000000: 3d6a 3abd 0bf8 30be 5a19 f33c fc86 13be
00000010: e468 06be 45cd a8bd 83f1 72be d7e3 063e
00000020: 4e7d 913e 1a37 1fbe 57ee 873d 8a3f 0e3e
00000030: 5879 b3bd 71ca 20be 604b 73bd 9006 493e
00000040: f98c 303e f413 ab3d fca2 19bd 62df 6b3d
00000050: 564e b0bd fbb4 53bb 43f7 1fbd 06de 57bd
00000060: f287 2cbe db33 023e cf13 9cbd 49bc 05be
00000070: f3a0 953c ef82 01bd e989 c4bd 02c1 ae3b
00000080: a6f2 3abe cee8 5d3e 297b 963d 1451 35be
00000090: bf17 9ebd 8fac 843e a0ec 2bbe 831e 4abc
000000a0: 8fef 22be b93c 7dbc 1c64 7c3e 6fbd 813e
000000b0: d32c a2bd c001 eabc 742c c3bd f93d 2f3d
000000c0: b347 e53b 3f42 8fbd 5069 e0bd 1f16 e23d
000000d0: 1c1a 2f3d e61a 023e ccc5 ec3d 62f3 0bbe
000000e0: ebab 88ba 3012 093d a4f2 f63d 9afd f83d
000000f0: bc7b 07be c5a6 61bb fd50 063e 9449 5abd
00000100: 5100 1e3e e9a1 7d3e eb89 f0bd dc5e c8bd
00000110: 8d6c 743e 5098 85bd 5a6f c03d 59b3 15be
00000120: c7fa 863e 77ba 223e a0d6 2bbe cde7 84bd
00000130: d42f 45bd c489 31bd 9c31 32be 3f5b 573e
00000140: c4c8 34be dc29 3cbc 8e50 463e 12dd b6bb
00000150: 6eef 0b3c 491d 323e 6b25 9bbe f56e 06be
00000160: 7265 54be f492 383d bca2 eb3d e010 333e
00000170: 23ff 013e 39f3 12be 9e2d fa3d e46f 0c3e
00000180: 336a 0d3e e8c6 4bbd 0faf f83d 2b0c dfbd
00000190: c76b 96bd 513e b9bd a84d 66bb 6e2f b5bd
000001a0: 556a b5bd 712a 30bc f442 3e3e ec01 3c3e
000001b0: 235d 2d3e 9981 18be d581 a73c 0bba 33bd
000001c0: b919 7bbd 0fa3 dd3d a9a7 71bd 77e6 6cbe
000001d0: fc8b 98bd 38e1 1abe 0174 683c 26bc 1ebe
000001e0: 4921 a4bc fa8e 4d3e 22b3 c23d cd46 133e
000001f0: 65d3 823e 3919 b33d 1f48 0e3e e453 533d
00000200: 28a4 d33d 1eb0 5fbe 0a51 abbd 6852 8a3c
00000210: a12c 203e 55d8 6f3d 706d ea3d efd9 dc3d
00000220: da10 16be 417d 7bbd 8e63 dcbd c552 b0bd
00000230: dcc4 4e3e dbf5 df3d 28c7 1ebd 801e 3dbe
00000240: 65fe fc3c c8a6 1a3e 2ec1 e83d e268 bf3c
00000250: 33ba 193e 3b7b 043e 3a7c b63d f258 ac3c
00000260: dc4b 2abd 9621 ddbc d4f3 643d 1f36 2b3d
00000270: f495 d5bd bd15 303d 036e 8cbe a2af 1dbc
00000280: 232c d6bd 6dee 04be 8bf8 28bd f6fc 06bd
00000290: f477 093e 2589 9b3c 9959 213e eef5 80be
000002a0: 698d 86bd aec6 ad3d a1b0 89be 0a52 9f3e
000002b0: 3c3b 973e 20df 1abd 2649 0c3e 3ffd 373e
000002c0: 5764 b6bd cb33 33be 7cb8 debd 2c5d 80be
000002d0: a31c 703d 598f 933d bc66 0cbe 1f91 7c3d
000002e0: 9ecb a23d 01d4 ff3d 1a59 5f3e 3b5b 0d3c
000002f0: edcb 5d3d 3c44 52be 31a5 0abe a70b 053d
00000300: 7eaa 893e 80d2 5c3b e59c a4be 884d cd3b
00000310: efee e2bc a2fb 863d 138a c4bd 6373 1e3d
00000320: 4ff5 cdbc c2bf 623c efa2 bb3e 0244 75be
00000330: f5c6 89bd d783 c8bd ed56 78be 1b66 1ebe
00000340: d5c8 c9bd bc20 d8be e7ae 8a3c deb3 bcbd
00000350: b50e 29bc 260a 7fbd 0005 debd e0de d03d
00000360: 2b05 5d3e f633 7bbd 276c 0dbe 6e5e 283e
00000370: 4c7b 4bbc 61ce cfbd 83ca 373e 8f6f 6e3e
00000380: b110 033e e34e 08be 8fdb 833c aa4d 103e
00000390: d317 97be 071d 853e d3a8 36bd 19ee 8ebd
000003a0: 4d16 dc3d ecf0 3bbc fe8e dabd e678 823d
000003b0: 2860 4d3e feb5 253e b286 cabc d697 863c
000003c0: b1e2 973d c6a4 20be 8588 3f3d 9a44 1abd
000003d0: 14e9 a8bd d0e0 11be 129d 76bc ac5f 993b
000003e0: e294 983d cb5f f1bc 3059 03be c45f 9dbd
000003f0: 3209 3abe 9424 863e fa03 f03d e9c1 c8bd
-0.045511473 -0.17282121 0.029675175 -0.14406961 -0.1312595 -0.08242277 -0.23724942 0.13172852
0.28415912 -0.15548363 0.066372566 0.13891426 -0.08763379 -0.15702225 -0.059398055 0.1963141
0.17241277 0.08353415 -0.03750895 0.05758608 -0.086086914 -0.0032303918 -0.039054167 -0.052701972
-0.16848734 0.12715094 -0.07620966 -0.13060106 0.018265223 -0.03161901 -0.09596617 0.005333067
-0.18256626 0.21670839 0.0734771 -0.1770671 -0.07719373 0.25912902 -0.16789484 -0.012336376
-0.15911697 -0.015456372 0.24647564 0.2533984 -0.07918706 -0.028565288 -0.09529963 0.04278371
0.0069970726 -0.06995057 -0.10957587 0.110393755 0.04274951 0.12705573 0.11561164 -0.13667062
-0.0010427212 0.03346461 0.12057999 0.12157746 -0.13230795 -0.0034431678 0.13116832 -0.053292826
0.15429808 0.24768795 -0.11745056 -0.09783718 0.23869534 -0.06523192 0.093962386 -0.14619197
0.26363203 0.15891443 -0.16781092 -0.06489525 -0.048141316 -0.043344274 -0.17401737 0.21030901
-0.17654711 -0.011484589 0.19366667 -0.005580553 0.008540971 0.17393984 -0.30301985 -0.13128264
-0.20741823 0.04506202 0.115056485 0.17486906 0.12694983 -0.14350595 0.12215732 0.13714558
0.13810043 -0.04975024 0.12142765 -0.10890993 -0.07344776 -0.09045089 -0.0035141502 -0.08846937
-0.08858172 -0.010752306 0.18580228 0.18360108 0.1693006 -0.14893188 0.02044765 -0.043878596
-0.061303828 0.108221166 -0.058997784 -0.2313479 -0.07448575 -0.15124977 0.014187814 -0.1550146
-0.020035403 0.20074072 0.09506823 0.14382477 0.25551906 0.08745045 0.138947 0.051593676
0.10334045 -0.21844527 -0.08365066 0.016884997 0.15642025 0.05855592 0.11446655 0.10783755
-0.14654866 -0.06139875 -0.10761176 -0.08609537 0.20192283 0.10935565 -0.03876415 -0.18468666
0.030883024 0.15102684 0.11364971 0.023365442 0.15012436 0.12937634 0.08910413 0.021038506
-0.04157625 -0.026993554 0.055896595 0.04179966 -0.10428992 0.04298948 -0.27427682 -0.009624394
-0.10457637 -0.12981577 -0.041252654 -0.032956086 0.13424665 0.018986294 0.15756835 -0.2518763
-0.065699406 0.08485161 -0.2689257 0.31117278 0.2953738 -0.037810445 0.13699779 0.179677
-0.08905857 -0.17500226 -0.10875031 -0.25071084 0.05862106 0.07205076 -0.13711065 0.061661836
0.07948993 0.124916084 0.21811333 0.008627708 0.054149557 -0.20533842 -0.13539578 0.032481816
0.26887888 0.0033694804 -0.3215095 0.006265346 -0.027701823 0.06590964 -0.09596648 0.03868426
-0.025141386 0.013839664 0.36647746 -0.23951724 -0.06727401 -0.097907715 -0.2425191 -0.15468638
-0.09852759 -0.42212474 0.016929103 -0.092139944 -0.010318448 -0.062265538 -0.108407974 0.1019876
0.21584003 -0.06132885 -0.13810788 0.16442272 -0.012419533 -0.101467855 0.17948346 0.23284744
0.12799336 -0.13311343 0.016095905 0.14092126 -0.29510364 0.2599871 -0.044594597 -0.06979007
0.10746441 -0.0114710145 -0.10671805 0.06370716 0.20056212 0.16182706 -0.02472243 0.016429823
0.07416285 -0.15687856 0.046761055 -0.03766308 -0.08247581 -0.14245915 -0.015052097 0.0046805944
0.07450272 -0.029464623 -0.12826991 -0.076842815 -0.1816757 0.26199782 0.117195085 -0.098026104

encoder.net.5.bias f4 [32]
00000000: 617c 6d3d b8e5 35bb 3d25 b03b f077 8f3d
00000010: f586 793d 3df4 4e3d 2baa 79bd 5560 c9bc
00000020: 38e2 63bd be76 563d 4ff7 53bd 35c1 963d
00000030: dfd2 8a3d b093 6c3d b9a0 48bd 8d05 ba3d
00000040: 4e30 0a3d d531 b3bd a470 82bd 7911 46bd
00000050: 6da8 803d 4b57 803d 9e58 733d 6b73 9d3d
00000060: df1a 59bd 8031 973d 36fb 6dbd f607 7abd
00000070: b680 843c 8342 4cbd 39dd 93bd e583 89bd
0.057979945 -0.0027755331 0.005375533 0.07005298 0.06091972 0.050525893 -0.0609533 -0.024582068
-0.05563566 0.052359335 -0.051749524 0.0736107 0.06778502 0.057758033 -0.048981402 0.0908309
0.033737473 -0.08749739 -0.06369141 -0.048356507 0.06282125 0.0626665 0.059410684 0.0768803
-0.053004142 0.07382488 -0.0581009 -0.06104275 0.016174655 -0.049868118 -0.07219929 -0.0671461

predictor.net.1.weight f4 [32, 32]
00000000: 8704 313c e118 0d3e 8645 87be b64d b7bd
00000010: b473 e43d df7c 9ebd 0004 3b3e ef82 853e
00000020: 1d53 553e 85fe 5fbe f145 063e 64c6 7fbe
00000030: f3cf 7a3e 7a22 ddbd aa69 a73e 755b 9c3e
00000040: d82b bb3c efae 953d 21a8 563e ffbe 44be
00000050: 5bcd 99be e964 d23d 1b4a c63d 860b 12be
00000060: b8b3 c73e 6b36 1f3e 4ce2 03bd 3fab 673e
00000070: c549 07be 5997 8ebd 41af 15be 44d0 323d
00000080: f6e3 a33e 4998 83bd 13a3 193d de93 263e
00000090: 2faf 2f3d d970 bbbd 3285 29be 6a4f d43d
000000a0: 15f5 0cbe 9585 7f3d 34cc 65bd 82dd 6ebe
000000b0: b914 0cbe 4db8 efbd e50f 9f3d 3632 11be
000000c0: 5837 1cbf 8bfb a1b9 e6a9 8fbe 504c af3d
000000d0: 52aa 85be db23 eabc c711 d73b 2c4c 2d3c
000000e0: 413a 8cbe 0eb5 29be 3730 8b3d aec5 e33c
000000f0: b45b 55bd 8449 3bbc 2ebb 36bd 962a 873e
00000100: 64d9 be3e afd2 16be 3bae 833c bdd3 c53d
00000110: fd92 943c ad29 c13b 50b0 d3bd f44e 583d
00000120: 7333 95be 7672 753d a48a 203e 114b 473d
00000130: 6da6 8abe 5f52 0e3e 07cd 79be fad9 c7bd
00000140: e542 cd3d c7ff 2abe 79fa a23d e3a9 093e
00000150: 7bfe 98be e00e 7bbe 60ba 2abd f437 0fbd
00000160: 6565 263d db3f 933d 5dbf cc3c ab96 78bd
00000170: 5721 9dbd 4fc7 57bd 1660 dbbd 14ab dbbd
00000180: 8944 4dbe 8518 a13d e18e 1cbe a895 b33e
00000190: 0e09 203d 5ad6 513d 066b 1a3e 3dd9 d83e
000001a0: 4694 263c 5d96 50be 307d 033e 8fd2 a93a
000001b0: 2e1e d5bc 45b8 2bbc a8e5 31be 449e bcbe
000001c0: 72e5 49be d767 813d 1285 42be 7d8b 083e
000001d0: b6d0 ca3d ae5a 633e 72e1 223c f1e3 2c3e
000001e0: a395 0fbb 2687 8f3d 2cfa f93d aed5 aebb
000001f0: afd0 023e 703f 81be 112e b8bb bc4f f03d
00000200: 8e55 113e 974b c3bd 57f1 a9bd e4f0 dd3d
00000210: ab66 ab3c d326 823d edc9 52be 1bf5 96be
00000220: 4dea f83b 0183 503e d266 70be 64e3 a63d
00000230: 56ef a73e fc2a 933e 0706 97bc 272d 163e
00000240: 0c96 f3bd 70fa 7fbe 7a42 6ebe 83c6 e53d
00000250: e857 5d3e d07c 893e dd22 1f3e c137 843e
00000260: 46a2 49be 481b 403e 93ab 63be 88c0 3dbe
00000270: b18e b7be b5c6 8dbd 6875 32be 9ca6 8abe
00000280: 609b c2bd 330b adbe 7296 6bbc 26ef 95be
00000290: ebc7 923d b4e8 803d be17 aebe 2e69 93be
000002a0: 3775 debd ceae 8e3e c3ee d93d 31aa f4bd
000002b0: 66c5 00bd 90b1 a23d 1b42 58be c30f babd
000002c0: 53df a8be 2c3b a0bd bcba 893d 46aa 2c3d
000002d0: 168c 7a3d 0c95 7a3d 8be8 8dbe 6a15 9ebd
000002e0: aa92 7f3d 0d44 323e 1c98 d23a 171f 78be
000002f0: 1c96 6e3e d035 88bd cc11 32be 8266 4b3e
00000300: d769 18be b94a ba3e 8cf3 e73d ad1b 83be
00000310: 338b 03be e2ed cb3e d812 62bd 4034 75bc
00000320: 10bc 96be 0f1d 2cbe 92a1 023e 3e3a 2a3c
00000330: b3c3 37be e9ff 90bd 82aa ecbd aad2 e1bd
00000340: e875 943d cd54 1dbe ca24 c7bd 5ec6 42bd
00000350: c951 9bbe 564b 85be 4286 4a3e 8695 a6bc
00000360: 2318 353e d6b1 8d3e f576 803e ca5e e63d
00000370: 005a 333e 34fc 323c b013 5f3e 37aa 44bd
00000380: c326 9abe bd8c ae3e 10df a2bd fd00 4cbc
00000390: 68a0 f1bc b053 163e ab28 81bd 8d56 2a3c
000003a0: 7519 f5bc 7242 453d 42f4 843c 38df 18bd
000003b0: a0b4 5b3d 8ac3 353e 5ed0 34be a4ef f1bc
000003c0: 7df4 3fbd fc1a dbbd 4b3d 26be 5d26 2abd
000003d0: e0fa 7d3e e2d1 4d3d 9398 573e 10d6 183d
000003e0: f409 8cbd 4435 343e 839e 94bd 1073 79bc
000003f0: 9b90 753e 115d 83be b4ea 60bd 98d0 24be
0.010804302 0.13779022 -0.2642023 -0.08950369 0.11154881 -0.07738661 0.18263245 0.26076457
0.20832486 -0.21874435 0.13112618 -0.24978024 0.24493389 -0.107975915 0.32697803 0.30538526
0.022848055 0.073087566 0.20962574 -0.19213484 -0.30039486 0.10273153 0.09682103 -0.14262208
0.39004302 0.15548103 -0.032198235 0.22623919 -0.13211735 -0.06962461 -0.14617635 0.04365565
0.32009858 -0.064255305 0.037509035 0.16267344 0.042891677 -0.09152383 -0.16554716 0.103667095
-0.13765366 0.062383253 -0.056102946 -0.23326686 -0.1367978 -0.117050745 0.077667035 -0.1417931
-0.6102195 -0.00030895727 -0.2805931 0.08559477 -0.26106507 -0.02858155 0.0065633985 0.010577243
-0.27388194 -0.16572973 0.067963056 0.027804222 -0.052089408 -0.011431102 -0.044612102 0.26399678
0.3727523 -0.14728807 0.01607429 0.096595265 0.018136496 0.0058948607 -0.10336363 0.05280967
-0.29140815 0.05992361 0.15677887 0.048655573 -0.27080098 0.1389861 -0.24394618 -0.097583726
0.10022525 -0.16699134 0.0795793 0.13443713 -0.29881653 -0.24517393 -0.041681647 -0.03496547
0.04062404 0.07189914 0.024993593 -0.060690563 -0.07672375 -0.05268031 -0.10711686 -0.1072599
-0.20045675 0.07866005 -0.15288879 0.35075116 0.039071135 0.051229812 0.15079889 0.4235324
0.010167187 -0.20369859 0.12840724 0.0012956428 -0.026015367 -0.010480945 -0.17372763 -0.36839497
-0.19716433 0.06318634 -0.18996075 0.1333446 0.0990309 0.2220256 0.009941446 0.16883828
-0.0021909259 0.070081994 0.122059196 -0.005335531 0.12774919 -0.2524371 -0.005620726 0.11733958
0.14192793 -0.09535902 -0.08297985 0.10836962 0.02092298 0.063550614 -0.20584841 -0.29483876
0.00759629 0.20362474 -0.23476723 0.0814884 0.32799786 0.28743732 -0.018435491 0.14665662
-0.118938535 -0.24997878 -0.23267546 0.11219504 0.21615565 0.26853037 0.15540643 0.25823787
-0.19690809 0.18760407 -0.22233419 -0.18530476 -0.35851052 -0.06922666 -0.174276 -0.27080238
-0.09502292 -0.33797607 -0.014379131 -0.29284018 0.071670376 0.062943846 -0.3400249 -0.28791183
-0.10862201 0.2786774 0.10641243 -0.11946524 -0.031438254 0.079440236 -0.21118967 -0.090850376
-0.32982883 -0.07823786 0.0672507 0.042154573 0.061168753 0.0611773 -0.2771648 -0.07718928
0.06239573 0.17408772 0.0016067061 -0.2423061 0.2329945 -0.06650889 -0.17389601 0.19863322
-0.14884125 0.36385134 0.1132575 -0.25607052 -0.12846069 0.39829928 -0.055193752 -0.014966071
-0.29440355 -0.1680796 0.12756947 0.010389863 -0.17945747 -0.07080061 -0.11555959 -0.11026509
0.07249051 -0.1536438 -0.09723814 -0.04755246 -0.30335835 -0.2603404 0.19777778 -0.02033497
0.17684989 0.2767474 0.25090757 0.11248548 0.17514801 0.010924388 0.21784854 -0.048013892
-0.30107698 0.3409175 -0.07952702 -0.0124514075 -0.029495433 0.14680362 -0.06306585 0.010396612
-0.029919365 0.04815907 0.016229752 -0.037322253 0.053639054 0.17750373 -0.17657611 -0.029533215
-0.04686402 -0.10698506 -0.16234319 -0.041540492 0.24802732 0.050248988 0.21054296 0.03731352
-0.06837836 0.17598444 -0.07256796 -0.015225187 0.23980944 -0.25656942 -0.05491133 -0.16095197

predictor.net.1.bias f4 [32]
00000000: 6c23 0b3e d35c df3d ed66 d6bd d4b5 d3bd
00000010: 4dd1 f73d 2fc0 d0bd 0b1f dc3d f96e 78be
00000020: e5a4 bb3d 1e1f c3bd f9cf bbbd d34d bfbd
00000030: f7a3 f63d 9c96 cd3d dce7 373e 10d5 c9bd
00000040: 5d8b bfbd aa94 d63d 138e 07be a8ad cc3d
00000050: 55fb 9c3d cf7c 94bd a042 cdbd 291f ca3d
00000060: 3913 cd3d dba7 b43d bf26 0b3e 3eae bebd
00000070: fa08 fabd 63bf babd 1c04 bebd 6ec2 d7bd
0.13587731 0.10906377 -0.1046885 -0.10337415 0.12100468 -0.10192906 0.107481085 -0.24261083
0.091623105 -0.095274195 -0.09170527 -0.09341016 0.120429926 0.10038492 0.17959541 -0.098550916
-0.09352753 0.10477574 -0.13237791 0.0999406 0.07665125 -0.07250368 -0.10022473 0.098692246
0.10013432 0.088210784 0.13588999 -0.09310578 -0.122087434 -0.09118535 -0.092781276 -0.105351314

predictor.net.3.weight f4 [1, 32]
00000000: 6d0d e53d a09c 343e f70f 59be 239c 0dbe
00000010: c02d 993e 12fd 43be a58b 493e aff8 3fbe
00000020: a27b 803d e24a 32bd f3ee eebd 4d60 35be
00000030: 2411 0b3e 0c8c 723e d706 0d3e 8cad 7abe
00000040: a6b0 84be 348c 0a3e ad19 2bbe 361f 0b3f
00000050: 24af 643d 1a78 35bd 0705 fbbd d34f db3e
00000060: 657e 913d cb4c cc3d b636 1b3e d217 1cbe
00000070: 04e8 2ebd 3832 13be 7dd1 27be 36b1 04be
0.111842014 0.17637873 -0.21197496 -0.13829093 0.29917717 -0.19139507 0.19682176 -0.18747209
0.06273581 -0.043528445 -0.1166667 -0.17712517 0.13580757 0.23686236 0.1377214 -0.24480265
-0.25916022 0.13530046 -0.16709013 0.543445 0.05583109 -0.04430399 -0.12256818 0.4283434
0.07104186 0.099755846 0.1515759 -0.15243462 -0.042701736 -0.14374626 -0.16388507 -0.12958226

net.0.weight f4 [60, 35]
00000000: 5d51 cfbd 86f4 96bd 2ab3 0a3e 314f c7bd
00000010: d1dd 833d f91f 05bd 41c7 9f3c 817b c43b
00000020: 79b9 bbbd 491a 2a3e bbb2 85bd 3bf6 b8bd
00000030: 7e67 ac3d 663e 29be 761a 073e fa46 c43e
00000040: e6c3 283d 3f7d bcbd 63ba 25be 2086 1cbe
00000050: cf3e 78bd d9d4 c5be 07c1 81bc c2ee 1e3e
00000060: 1ac8 3c3e f92c 833e 0ee0 d8bc 07f6 503e
00000070: d427 20be 4faa a63d 920c 2a3e aa52 d7bd
00000080: a18a efbc 68e5 8bbd f338 0dbe 33f8 273d
00000090: 1083 b13b ad4b 8e3e c994 38be b3d7 3a3e
000000a0: 1064 e5bd 6b9a ff3d 5599 09be 64ae 043d
000000b0: bc21 82bd 05bd 023e 09b4 cfbd 3687 cc3d
000000c0: bc73 e83d 735c 38bd f75f e33d 95d0 3c3d
000000d0: 595f 5cbd 29a9 d0bd 5022 97bd 274f 8e3d
000000e0: fe25 80be ad71 14bd ea35 f33e 82dd 9a3d
000000f0: 7a37 503e f0a6 61bd 355f 86b9 37c1 37bd
00000100: 662f adbd e7f3 5ebe 2822 913e 2677 a83c
00000110: 8e41 9b3c c26a d33d 3c85 493e 901d 893d
00000120: 4ab2 403e 34c2 eb3b 5d02 2c3e 54f6 2f3d
00000130: 0073 3d3e 779f 8f3d a274 223d e064 2bbe
00000140: d6cf 033e 9de1 543e 4497 0b3e 3fd2 b03e
00000150: 472d 8a3c 20ab f3bd 700a 023e e0f3 e1bc
00000160: 659b 2d3d a4a5 02bd 05f7 f7bd ebde 683e
00000170: c787 0cbe 93a9 043e 9ad2 15be ccfb bdbc
00000180: c55a 84be f9ac 10be c302 79be ae3d 35be
00000190: a428 113b 5df9 4bbe cd93 33be d6a8 fa3b
000001a0: e26c 49bd 3b2d 123e 2c2d 0a3e 0d2e 07be
000001b0: 4e61 323e 319f acbe 3e57 193e ffa6 233c
000001c0: 0710 0f3e 5f22 e23c b683 ddbd 7596 883d
000001d0: f3c7 fb3d 445a 1fbd c5ad 54be 91d1 593e
000001e0: defb 8b3c fc50 5bbe 1d0a af3c 9c9a da3d
000001f0: e17b 0ebe ec16 073d e13f ee3d f098 9c3d
00000200: ee51 873d 6618 b33c eaad b8bd c573 073e
00000210: 2229 1fbe 814d 87bc c730 00be c9c0 adbd
00000220: 3049 9e3d cf64 0a3e 514d 38be 623d a7bd
00000230: 998b 093e b772 61bd a5a2 0dbe 28be 53be
00000240: 6fc9 153e bcb9 92be 7657 fa3d 65f6 32bd
00000250: 37d0 81bd 114d 033d cc99 37bb a360 24be
00000260: 81b1 b33d 5a86 17bd c736 b93d 6ce3 6abc
00000270: 0fe8 74bb 1642 32be f6ac 7fbd 4867 193e
00000280: fd30 c03d 9c18 4d3e 4744 13be b23a a8bd
00000290: d99f ed3d c7d3 87bb 1efb 9a3c f476 2e3e
000002a0: 0f9c 653d 8ea7 e4ba 75b1 ab3d e131 46bd
000002b0: b197 ee3a c246 2bbd 8397 833d 3a1a 27bc
000002c0: 1793 1a3c 924f 013e 6c44 eabc bbd3 6ebc
000002d0: 594a 00bc da83 9dbd b0c7 51bd edd8 223d
000002e0: 9da7 c8bc d253 3f3e b496 b0bd 0f60 eabd
000002f0: c720 203e 7e19 783d 9104 d43d f8fd f03d
00000300: 8056 3d3c 0d8f 04be 1082 aabc 9c8d e43c
00000310: fc6c 663c bf93 97bd 4603 1fbe dc83 0e3d
00000320: a0be 593e 6226 64bc 5c18 063e cf75 cc3c
00000330: ed87 723d b5c9 59bd 1b02 d0bb 64b9 3abc
00000340: e474 4b3e 4733 033d 8456 cbbd f5a5 b83b
00000350: 73de 49be 4229 01be b283 32be 6050 66be
00000360: 4c9f 4ebe ace4 123d 881a f63c 74e6 183e
00000370: 7990 d63d f0ba 53be 86d7 5cbe ad3b 04bd
00000380: e992 703e 6a36 09be d762 ea3c ff26 3c3c
00000390: 6434 96bd 2c06 03be a660 123e 4e9b 29bd
000003a0: 43ec 313e 520e bf3d ff95 823e b359 a83d
000003b0: 2e14 09bd 893e d4bd 39d5 123e 1f0e 113e
000003c0: 4b59 1dbc fa07 e7bc b6a5 163e d03f 11be
000003d0: 61f0 22be a380 8a3d 7bd2 71bd b893 0a3e
000003e0: 3f02 5fbd ff32 a83d 514d ecbd 9b56 91bd
000003f0: 76f0 dcbd 2c33 643e e399 7f3d 4830 e2bd
-0.10122941 -0.07370858 0.13544908 -0.097319014 0.064387925 -0.032501195 0.019504191 0.005996168
-0.091662355 0.1661159 -0.06528231 -0.0903134 0.08418177 -0.1652771 0.13193688 0.383354
0.04120245 -0.09203576 -0.16184382 -0.1528554 -0.060606774 -0.38638952 -0.015839113 0.15520766
0.18435708 0.2562025 -0.026474025 0.20406352 -0.15640193 0.081379525 0.16606358 -0.10513814
-0.029240908 -0.06830865 -0.13791256 0.041008186 0.005417235 0.2779211 -0.18025507 0.18246345
-0.11200726 0.12480625 -0.13437398 0.032392874 -0.063540906 0.12767418 -0.10141761 0.09986727
0.113501996 -0.04501004 0.11102288 0.046097357 -0.053801868 -0.10188515 -0.073795915 0.06948691
-0.25028986 -0.036241222 0.4750207 0.075617805 0.20333663 -0.055090845 -0.00025629406 -0.044862
-0.08456306 -0.21772729 0.28346372 0.020564627 0.018952157 0.10323097 0.19679731 0.06695092
0.18818012 0.0071947817 0.16797777 0.042959526 0.185009 0.070128374 0.03966201 -0.167377
0.12872252 0.2078919 0.13631922 0.34535405 0.016867293 -0.11897874 0.12699294 -0.027582109
0.042384524 -0.03189625 -0.12107662 0.22741286 -0.1372367 0.12955312 -0.1463112 -0.023191355
-0.25850502 -0.14128484 -0.2431746 -0.1769931 0.0022149468 -0.19919343 -0.1753685 0.0076495213
-0.049176104 0.14275067 0.13493794 -0.1320116 0.17419931 -0.33715203 0.14974687 0.009988545
0.13970958 0.02760428 -0.108161375 0.066693224 0.12293997 -0.038904443 -0.20769413 0.2127135
0.017087873 -0.21417612 0.021367127 0.10674021 -0.13914444 0.032980844 0.11633278 0.07646358
0.06607424 0.02186222 -0.090175465 0.13227756 -0.15543035 -0.016516449 -0.12518607 -0.084840365
0.07728803 0.13515018 -0.17998244 -0.08166005 0.13432159 -0.05504104 -0.13831575 -0.20678008
0.14627622 -0.2865733 0.12223713 -0.04369201 -0.06338542 0.032055918 -0.0028015254 -0.16052489
0.087740906 -0.036993362 0.09043651 -0.014336448 -0.0037369763 -0.17408022 -0.062420808 0.14980805
0.09384344 0.20028919 -0.14381514 -0.0821432 0.11602754 -0.004145119 0.01891857 0.17037565
0.056057032 -0.0017444955 0.083834566 -0.048387412 0.0018203167 -0.041815527 0.06425383 -0.010199124
0.009434483 0.1262801 -0.02859708 -0.014576848 -0.007830226 -0.07691164 -0.051215827 0.039757658
-0.024493987 0.18684319 -0.08622494 -0.11444103 0.15637504 0.060571186 0.103524335 0.11767191
0.011556268 -0.12945195 -0.020813972 0.027899556 0.01406407 -0.07401227 -0.15528592 0.03479372
0.21264124 -0.013925167 0.1309523 0.02495852 0.05921166 -0.05317088 -0.0063479072 -0.01139674
0.19868809 0.032031324 -0.09928611 0.005635018 -0.19713764 -0.12613395 -0.1743305 -0.22491598
-0.20177954 0.03586261 0.030041948 0.14931661 0.10476775 -0.2067678 -0.2156659 -0.032283474
0.23493542 -0.13399664 0.028611584 0.011483907 -0.073342115 -0.12795323 0.14294681 -0.041407876
0.17375283 0.09328903 0.25505063 0.08220234 -0.03346651 -0.1036349 0.1433915 0.14165543
-0.009603809 -0.028202046 0.14711651 -0.14184499 -0.1591201 0.06762817 -0.05903862 0.13532913
-0.0544455 0.08212852 -0.115381844 -0.07096597 -0.10788052 0.22285146 0.062402617 -0.11044365

net.0.bias f4 [60]
00000000: 9b43 7bb8 961a 1f3e e418 69bd 5643 d8bd
00000010: 6f58 b4bc 34dc c43d e19f 72bd 767a 223e
00000020: 81c8 c8bd 7a5f 513c 54d2 1a3e 0c0b a53d
00000030: 9f10 e93d 17fa 803c 7961 16bc 6b4f 8dbd
00000040: 3816 1abe af33 70bd 5aad d1bd 3438 07be
00000050: c8fa 0fbd ffdb 9b3d 08f1 ce3d 036f bc3d
00000060: e01c 80bc 3ecf 60bd a896 b1bd d53c f0bd
00000070: 8efe 72bd 296f da3d 647f 9a3d 3e54 40bd
00000080: 732a c53d 1695 2d3e f18b fa3c c211 033e
00000090: a30d cf3d ccc5 d93d 2acc cebd 6e60 06bd
000000a0: 3e6f f1bd b711 203d 7614 e53d 2e02 5b3d
000000b0: 0b7f b6bd f254 1a3e 411b 773c ff4d 953b
000000c0: 3b9d 9a3d 30b8 183d 0ed8 0f3e 2758 06be
000000d0: 9234 b2bd 6095 02bd 919b e13d 356d 293e
000000e0: 4af0 0ebe 538b fd3c 845e eebd e54e 0e3c
-5.9906026e-05 0.15537485 -0.056908503 -0.10559718 -0.022014825 0.09612313 -0.059234504 0.15867028
-0.09803868 0.012779111 0.15119296 0.08058748 0.11380123 0.015744252 -0.009178513 -0.068999134
-0.15047538 -0.05864304 -0.10238142 -0.13205034 -0.035151273 0.0761032 0.10104567 0.09200861
-0.015638769 -0.05488514 -0.086713135 -0.11730353 -0.059324794 0.10665733 0.07543829 -0.04695534
0.09627237 0.16951403 0.030584307 0.12799743 0.10110023 0.1063343 -0.10097535 -0.032806806
-0.11788796 0.039079394 0.11185543 0.053468876 -0.0891095 0.15071467 0.015082181 0.004556417
0.075495206 0.03728503 0.14047262 -0.13119565 -0.08701433 -0.031880736 0.11016 0.16545565
-0.1395885 0.030950224 -0.11639121 0.008685802

net.2.weight f4 [60, 60]
00000000: 9715 033d f63f b03d 24af d03c 71c7 c73c
00000010: b6ca 33bd d56f 2ebd f1d2 31bb 7f51 ef3d
00000020: 63f3 cebb 8f2e ebbd e300 3a3d d50b c1bd
00000030: 0e15 7f3d f8ea 263e 716d c73d f620 f8bd
00000040: 4281 87bd e333 983c 0e4b 943d d6aa 643d
00000050: 5bb3 c2bc ff8b 193e 318b 82be 3134 40bc
00000060: 0a63 58bd a872 8bbe f740 1f3e 1aa0 98bd
00000070: 5157 c93c 3d45 613d 949f 1f3d 1b5e 96bd
00000080: 6dcc d7bd c6cb fabd 0f16 823c 7346 873d
00000090: bea2 833d 4015 a7bc a8db 54bd 05d9 21be
000000a0: dc89 a6bc 1b45 bfbd 741b f13d 8f02 263e
000000b0: b4fb 9ebd 3d3e 743d a07a a2bd 7579 ff3b
000000c0: 0121 d6be 2cbb 053e ad9c 2bbe 956e 05bd
000000d0: 8f1a 2d3e f2e2 c03d 723b 2ebe a369 823d
000000e0: d977 03bd c0df e83d 511a a53d 31fc 9f3d
000000f0: 2b82 a93d cd89 bf3d 5fd0 cb3b d09d 30bd
00000100: ed78 77bd f850 f3bb e28b 88bd 36bc 973e
00000110: 2fe7 33be a33c d43c 26fc f83d 50be 193e
00000120: 0eaa 5e3d 70d2 dd3c 4560 0ebd 871e ca3d
00000130: cdd1 44be fc49 0f3c 4024 c1bd 4e1d 603e
00000140: fae3 d63c cfd2 f83c 3ce6 0bba 7106 1abe
00000150: c746 4ebe df82 fa3c 0e1e a3be 48f3 a33d
00000160: 9970 b1b9 daad 7b3e d0d6 f53d 94d8 b7bc
00000170: a68c 7abd cacb cf3d c1d8 f2bd fb0f 523c
00000180: ac29 c1bd 5f14 70bd 88ca 9dbd 9b86 e23d
00000190: ac0c 893d e350 a3bb 7d8d c33d eb22 2cbe
000001a0: 2198 8c3e f578 843e f232 ee3d 6cb0 00bd
000001b0: 8df2 9f3d 66a4 463d accd f93d 5eb1 c53d
000001c0: 2576 5a3c 90bb 02bd cfa6 55bc b525 823e
000001d0: cb1c 8e3e fbef 16be b52e 523e dd2d 76bc
000001e0: e901 043e daf9 1d3c 6d56 893e abf7 20bc
000001f0: e0d8 a6bd 629d 30be 42b8 59bc a057 123e
00000200: 54c7 3cbd f736 873e a996 f73d 3608 9b3e
00000210: 3f9b 2a3e 37dc cbbd db8e 66bd 6541 26bd
00000220: d0fa a4bd 78ec 883e 556b 5ebe 53f5 a5be
00000230: bb1c 83bd b745 303e 2bd3 10bd 14df 203e
00000240: 25ce 7b3e 09cf 303e 1610 0c3e e7dd 1f3d
00000250: d310 e33d fdfe 28bd 5063 f73d 834d a83d
00000260: 6320 4fbc 99d5 1ebd f8b9 c03d e03e 4b3d
00000270: 5a6c 063e fbbf 26bd cb2b d13c 2c9d d43d
00000280: 7ae2 b33d 2305 7c3c 45da 62bd 5d7f 0a3e
00000290: 1090 13be 2a3e 653e ee5b 65be 8aaa 373e
000002a0: 6032 18be 31bf 533e 49b7 813d 5c21 bf3c
000002b0: 08c3 99bc b24b f73d a6e4 1d3d a38e aabd
000002c0: d9cf 0b3e 1dbc 423e 240f 153e 71c2 c93d
000002d0: a0b0 94be 1d31 543e e713 a43c eb4d 3e3e
000002e0: 3900 1b3e 4eb7 493e 77aa 1bbe cf33 133d
000002f0: e72c fa3c 0195 a83e a591 fc3d 8ab9 12bd
00000300: cb63 223d 07e9 793e dcdf a03d 5d3b 44be
00000310: 38a9 3ebe 500a 2f3e bed7 b03d 2438 4abe
00000320: cb5f 1fbe 7db7 79bd d356 65bd b073 2c3d
00000330: f3a8 b0bd 8674 973d 6aff 2ebe c5f7 4f3e
00000340: f0b6 1abe 6d46 03be 2e95 77bd d286 e23c
00000350: 5db4 95bd ece7 edbb 85c1 413c 6b69 2a3e
00000360: 8cba bcbd ea88 6d3c 5b30 f8bc aebe 033e
00000370: 5b28 23bd f1d6 143d 93f9 663e a601 1fbd
00000380: 20d9 ec3b 2db7 a93c 1c82 2f3d 6c7f 0a3e
00000390: 53f4 94be 2a5d 7e3d d515 87bd 89db 273e
000003a0: 1dae 653e e536 833d 909f 26be 3e1d 3d3d
000003b0: ab63 8fbe 4ef1 473d a80b 063e 9ac6 51bd
000003c0: 2f9c 0d3e 8912 663d b66d 93bd 22d0 89be
000003d0: 41e3 63be 170f aebd 3c2f ee3d 5d09 263e
000003e0: f502 6f3e 668d c03d 3155 963d c7a5 c8bd
000003f0: 7b02 133e 5d1c a93e 0265 ed3d c270 903e
0.03200301 0.086059496 0.025474139 0.024387093 -0.043894492 -0.04258712 -0.0027133788 0.11685466
-0.006315635 -0.1148349 0.045411002 -0.09426085 0.06227594 0.16300571 0.09737671 -0.12115662
-0.06616451 0.018579429 0.07240878 0.055826984 -0.023767164 0.1499481 -0.2549682 -0.011731193
-0.052828826 -0.27235913 0.15552126 -0.07452412 0.024577769 0.05499767 0.038970545 -0.07342168
-0.10537038 -0.12245898 0.015879659 0.06605234 0.06427525 -0.020395875 -0.051967293 -0.15805443
-0.020329408 -0.09339353 0.117728144 0.16211914 -0.07762852 0.059629668 -0.07933545 0.007796461
-0.41822055 0.13059682 -0.16758986 -0.032576162 0.16904663 0.094182864 -0.17014864 0.06367805
-0.032096718 0.11370802 0.0806166 0.078117736 0.08276781 0.09352455 0.006219908 -0.04311925
-0.06041806 -0.0074254237 -0.066673055 0.2963578 -0.17568658 0.02590782 0.121574685 0.15014005
0.054361396 0.027077883 -0.03475978 0.09869104 -0.19220658 0.008745667 -0.09430742 0.21886179
0.026231755 0.030373959 -0.0005336737 -0.1504152 -0.20144187 0.030579982 -0.31858867 0.080053866
-0.00033843963 0.24578038 0.12003863 -0.02244214 -0.06116929 0.101462916 -0.11857749 0.012821193
-0.094317764 -0.058613177 -0.077046454 0.1106083 0.0669187 -0.0049840077 0.09548471 -0.16810195
0.27459815 0.25873533 0.11630811 -0.03141825 0.07809935 0.048496626 0.12197432 0.09652971
0.013333832 -0.031917155 -0.013040259 0.25419393 0.27756342 -0.14739983 0.2052563 -0.015025583
0.12891354 0.009642089 0.2682375 -0.009824674 -0.081468344 -0.17247537 -0.013288559 0.14291239
-0.04608853 0.26409122 0.12089283 0.30279702 0.16660784 -0.09954112 -0.05628858 -0.04058971
-0.08055651 0.2674291 -0.21720631 -0.3241373 -0.06401964 0.17214094 -0.035357635 0.15710098
0.24590357 0.17266478 0.13678011 0.039029982 0.11087193 -0.0412588 0.12079489 0.08217909
-0.012641999 -0.03877792 0.09410471 0.04962051 0.1312727 -0.04071043 0.025533577 0.10381541
0.08783431 0.015382084 -0.05538394 0.13525148 -0.14410424 0.22386995 -0.2239835 0.17936149
-0.14862967 0.20678402 0.06333787 0.023331337 -0.018769756 0.120749846 0.038548134 -0.08327987
0.13653506 0.19017072 0.14556557 0.0985154 -0.29041004 0.2072186 0.020029021 0.18584411
0.15136804 0.19698831 -0.15201746 0.03593808 0.03053899 0.3292618 0.12332467 -0.035821475
0.03964595 0.24405299 0.07855198 -0.1916327 -0.1861924 0.17093778 0.086348996 -0.19747978
-0.15563886 -0.060966004 -0.055991005 0.042102516 -0.086259745 0.07395272 -0.1708962 0.2030936
-0.15108848 -0.12819834 -0.060445003 0.027652178 -0.07309792 -0.0072603133 0.011825924 0.16641776
-0.092152685 0.014497975 -0.030296495 0.12865707 -0.039833408 0.036337797 0.22556143 -0.03881993
0.0072280318 0.020717228 0.04284869 0.1352517 -0.29092655 0.062100567 -0.06595961 0.1639234
0.224297 0.06406955 -0.16271806 0.046170466 -0.28005728 0.04881411 0.13090384 -0.05121479
0.1382911 0.05617002 -0.0719866 -0.26916605 -0.22254659 -0.08498972 0.11630103 0.1621451
0.23340972 0.094019696 0.07340468 -0.097972445 0.14356415 0.33029452 0.11591531 0.28211027

net.2.bias f4 [60]
00000000: 6009 b13c b858 babd 7e4a 963d f555 e1bd
00000010: 6ccb fabb a710 aabd 2a03 4f3b 0bc4 b9bd
00000020: cf6a a1bd a217 01bd e3f0 2abb 45b9 533d
00000030: 28af b6bd 499a 5cbd c2be fbbd e099 a4ba
00000040: e3aa 323d 0abd ccbc 402b 0dbe 6176 71bd
00000050: c30d 1fbd d64d 7cbd 33ff b3bc 4895 b5bd
00000060: 6633 4d3d d291 913d ea17 a2bb ab3e f73a
00000070: a633 02bd 5230 823d 9be3 7cbd 5d10 bdbd
00000080: 6857 e9bc c103 1c3d eeff babd 20e7 8cba
00000090: e7bc 3bbd 9895 b63c 27f5 b93d abf1 0d3e
000000a0: 8857 a23d 5ebb e13d 165b 943c d57a 023d
000000b0: c489 3dbc 54ba ad3c a2ad ddbd 1275 df3c
000000c0: 66a7 e73d 3697 dcbd a930 ad3d 3cdf acbd
000000d0: 1123 ecbd 165b 19bd f873 a8bd b194 d03d
000000e0: 3fc6 d63d d1b2 60bd 607e 6a3d d566 cdbc
0.021610916 -0.09098953 0.07338427 -0.11002723 -0.0076536443 -0.083039574 0.003158758 -0.09070595
-0.078817 -0.03151668 -0.002608352 0.05169036 -0.08920127 -0.053858075 -0.122922435 -0.0012558065
0.04362 -0.024992485 -0.1378603 -0.058950786 -0.038831484 -0.061597668 -0.021972274 -0.08866364
0.050097845 0.07107891 -0.0049466984 0.0018863281 -0.031787537 0.063568726 -0.0617405 -0.09231637
-0.028484061 0.038089518 -0.09130846 -0.0010750033 -0.04583445 0.022288129 0.09079962 0.1386172
0.079268515 0.110220656 0.01810984 0.031855423 -0.01156849 0.021207012 -0.108241335 0.027277503
0.113112256 -0.10771029 0.08456547 -0.08441016 -0.11530126 -0.037440382 -0.08225244 0.10184611
0.10487031 -0.054858033 0.057249427 -0.025073448

net.5.weight f4 [1, 60]
00000000: 381c 403e bf95 973c fbdd aebb e75a 4c3b
00000010: c0d1 de38 a924 b23c d297 913a 424b 053e
00000020: a896 ac3c dcd8 5c3e 87b5 17be 35fe 48be
00000030: cd6c ce3c 0259 afbb 8023 443e 1060 263e
00000040: 2ea1 1bbe ccb4 5e3e 5f93 4ebd 09fe 9abd
00000050: c22f c7bd d544 5abd 5132 853c 8f57 ec3a
00000060: 7017 093c a0b6 afbd f851 c9be 3372 933e
00000070: 4ff4 3cbb a55a d8bd e979 4bbd c68f 00bc
00000080: 7fa2 963d 8517 3abe 2581 8c3d e3b3 81bd
00000090: ed1d 223d 8b78 c43d 2171 de3d 0110 383e
000000a0: 3914 05bd b2a0 0c3e fb4a de3c 5702 a1be
000000b0: 23de c5bd 848c 2fbe 8b95 5dbe 563b 363e
000000c0: 876a 8b3b 44bb 99bd dedd 23bd 0f42 e33d
000000d0: 615e 22bd 3be3 753d 99f8 52be 00b1 953e
000000e0: a96e aa3e 837e 423d 27cb 053d 2911 f03c
0.18760765 0.018504022 -0.0053365207 0.0031182112 0.00010624854 0.021745997 0.0011107868 0.1301699
0.021067932 0.215671 -0.14815341 -0.19628222 0.025198365 -0.0053511867 0.19154167 0.16247582
-0.15198204 0.21748656 -0.050433513 -0.075679846 -0.09725906 -0.0532883 0.016259344 0.0018031466
0.008367404 -0.08579755 -0.3932035 0.28798065 -0.0028832143 -0.10564164 -0.04967681 -0.007846778
0.073552124 -0.18173034 0.0686057 -0.06333139 0.03957932 0.09593304 0.108614214 0.17974855
-0.03248999 0.13733175 0.027135363 -0.31447098 -0.0966151 -0.17143446 -0.21639077 0.17796072
0.0042546424 -0.07506421 -0.04000651 0.11096584 -0.039640788 0.060031157 -0.20602645 0.29236603
0.33287552 0.047483932 0.032664444 0.029305058
