results/PINN/NASA_dqdv results/2-2/Experiment3/model.pth (torch, 61182 bytes, 14 tensors)

encoder.net.0.weight f4 [60, 18]
0.021625396 -0.15133426 -0.18887123 0.2504421 0.22736867 -0.015370564 -0.23908949 -0.048202742
0.14698187 -0.008622735 0.18032308 0.19315568 -0.20406565 -0.1234805 0.18197425 -0.026217937
-0.16759476 -0.13584155 -0.0907844 -0.098792486 0.24816841 0.24275863 0.21898945 -0.07056254
0.05662859 0.1324733 0.0762116 -0.112717934 -0.19186442 0.21792996 -0.038516473 0.0022238733
-0.15120617 0.06786765 0.21537882 -0.262256 0.033406217 0.012077786 -0.24127312 0.0638754
0.18385133 0.021137737 -0.054042943 -0.053552765 0.091860175 -0.105284445 -0.10852083 0.09256956
0.18714663 -0.22524637 -0.14919992 -0.15388168 0.2989917 -0.064335935 0.046117038 -0.048021074
-0.06231583 0.18231018 0.033928104 0.14990549 0.16143928 -0.029262293 0.1750136 0.063467085
0.16546717 0.0044604777 -0.21010298 -0.15861206 -0.043389443 -0.055568874 -0.09762549 0.061156414
-0.10764593 -0.11611301 -0.17569792 -0.04053767 -0.24670754 -0.07159818 0.032039754 -0.008228691
0.230701 -0.030080749 -0.09831965 0.2196212 -0.16353089 0.02622698 0.06633597 0.08024061
0.07490271 -0.107951544 0.18203662 -0.22750816 -0.14424261 -0.16337204 -0.019025587 0.03214327
0.03751646 -0.047008127 0.0234028 -0.17684852 -0.1785609 -0.18604988 -0.23768768 0.019925399
-0.05129683 -0.21663344 -0.30854964 0.24408355 -0.17936085 0.16560864 -0.14878674 0.020708762
0.32747278 -0.076349586 0.007273244 0.31330758 0.020094011 -0.04774173 0.20406045 -0.15849991
0.05540212 -0.0010901989 -0.25737432 -0.11218823 0.12856174 0.015433798 0.15071394 -0.32659715
0.062364705 -0.06781238 -0.051462144 0.07128106 -0.037086934 0.13482122 -0.003108461 -0.2261321
-0.219462 -0.19150834 0.14890061 0.16313256 -0.13158438 -0.14918832 0.154163 0.23653384
0.04895103 0.15225834 -0.05444541 0.009994573 -0.12406145 -0.16071834 -0.20621154 -0.20902435
0.0303148 -0.1658192 0.21732451 -0.01299922 -0.020563837 -0.040259063 0.020217286 -0.19922757
0.110864155 -0.053489838 -0.040465035 -0.009566596 0.07991917 -0.071749516 0.28762507 0.088319436
0.10657105 -0.09612517 -0.013745219 -0.19680344 0.26786187 -0.04832819 0.060875777 0.17635515
0.07346132 0.047608286 -0.14427413 0.022682479 -0.11136015 -0.27266413 0.27683848 0.12424934
-0.0931626 -0.03300323 0.17696461 0.23323362 0.2959013 -0.108565226 -0.08356105 -0.0712311
0.40518022 -0.079462096 -0.14077291 0.2534486 -0.21968257 -0.19319019 -0.026993098 -0.085675575
-0.19968778 -0.25521442 0.17801793 0.19357356 -0.0295369 -0.22579418 0.105349645 -0.08501975
0.0509922 0.34201628 -0.0831491 -0.034388077 -0.091618136 -0.080259554 -0.3828992 -0.07514014
-0.1952398 0.024602685 -0.3458373 0.03168165 0.16137151 0.066205256 -0.13306731 0.2088118
0.0008249242 0.24395974 0.013611584 -0.02997965 -0.04708939 0.058589824 -0.062114056 -0.014804878
-0.052907858 -0.049992062 -0.099288136 0.033509534 0.12908068 0.15346369 -0.056687478 -0.0035842126
-0.004461668 0.11424097 -0.010721646 -0.12659526 -0.22037877 0.0035092498 0.17837279 0.14426613
0.2683194 0.25388247 -0.011032774 -0.10559759 -0.071167745 -0.03350059 -0.23729795 0.19674225
00000000: be27 b13c 5ef7 1abe 7667 41be f239 803e
00000010: 55d3 683e d1d4 7bbc e0d3 74be 3d70 45bd
00000020: 6a82 163e 5f46 0dbc 9da6 383e 9aca 453e
00000030: 96f6 50be 58e3 fcbd 7557 3a3e 00c7 d6bc
00000040: f69d 2bbe 0c1a 0bbe 2ced b9bd b753 cabd
00000050: dc1f 7e3e b895 783e c53e 603e 1883 90bd
00000060: 61f3 673d 15a7 073e d414 9c3d a9d8 e6bd
00000070: 1b78 44be 0829 5f3e 73c3 1dbd 67be 113b
00000080: cad5 1abe 32fe 8a3d 448c 5c3e 6b46 86be
00000090: f5d4 083d e8e1 453c 4d10 77be 1bd1 823d
000000a0: 8643 3c3e 0c29 ad3c 225c 5dbd 255a 5bbd
000000b0: 3021 bc3d 5f9f d7bd 2b40 debd 1c95 bd3d
000000c0: 5ea3 3f3e fca6 66be ddc7 18be 2993 1dbe
000000d0: 7115 993e 8fc2 83bd 38e5 3c3d bfb1 44bd
000000e0: e23e 7fbd 85af 3a3e 32f8 0a3d d380 193e
000000f0: 5750 253e 7ab7 efbc c436 333e 08fb 813d
00000100: 3a70 293e 3329 923b 3c25 57be 336b 22be
00000110: 21b9 31bd 309c 63bd dfef c7bd 267f 7a3d
00000120: 7875 dcbd a8cc edbd 28ea 33be d40a 26bd
00000130: e7a0 7cbe 11a2 92bd 1e3c 033d a2d1 06bc
00000140: e23c 6c3e e76b f6bc d05b c9bd 61e4 603e
00000150: a474 27be f7d9 d63c 27db 873d 3055 a43d
00000160: 9866 993d b315 ddbd cf67 3a3e e6f7 68be
00000170: 56b4 13be 004b 27be 8cdb 9bbc a9a8 033d
00000180: dcaa 193d 988b 40bd 3bb7 bf3c c717 35be
00000190: abd8 36be dc83 3ebe 6664 73be 973a a33c
000001a0: a01c 52bd 28d5 5dbe 38fa 9dbe 0af1 793e
000001b0: 5faa 37be 5095 293e 8d5b 18be 6ca5 a93c
000001c0: 83aa a73e 2c5d 9cbd 6554 ee3b da69 a03e
000001d0: 329c a43c d58c 43bd 39f5 503e cd4d 22be
000001e0: 55ed 623d 01e5 8eba 91c6 83be f1c2 e5bd
000001f0: b0a5 033e 0ade 7c3c c154 1a3e be37 a7be
00000200: 2272 7f3d 38e1 8abd f8c9 52bd cefb 913d
00000210: 78e8 17bd 930e 0a3e 52b7 4bbb 2c8f 67be
00000220: a6ba 60be c31a 44be 6779 183e 390c 273e
00000230: 0ebe 06be d3c4 18be e8dc 1d3e ed35 723e
00000240: e080 483d 9ce9 1b3e 2602 5fbd 47c0 233c
00000250: ee13 febd 5993 24be 1e29 53be 7b0a 56be
00000260: be56 f83c 82cc 29be 518a 5e3e aefa 54bc
00000270: 7e75 a8bc b0e6 24bd b99e a53c 5002 4cbe
00000280: bf0c e33d 2918 5bbd aabe 25bd 36bd 1cbc
00000290: a9ac a33d 69f1 92bd 9843 933e d2e0 b43d
000002a0: ec41 da3d 46dd c4bd a133 61bc d786 49be
000002b0: 3125 893e c8f3 45bd e158 793d 7296 343e
000002c0: e372 963d e800 433d 99bc 13be 9bd0 b93c
000002d0: ca10 e4bd a29a 8bbe c6bd 8d3e 7076 fe3d
000002e0: 09cc bebd 652e 07bd 3636 353e cbd4 6e3e
000002f0: 6080 973e 7257 debd 0e22 abbd 9ce1 91bd
00000300: c873 cf3e 06bd a2bd c626 10be 04c4 813e
00000310: 78f4 60be a6d3 45be a120 ddbc ad76 afbd
00000320: f47a 4cbe 77ab 82be 554a 363e 2638 463e
00000330: 5ef7 f1bc 9736 67be 8ec1 d73d d61e aebd
00000340: 32dd 503d c21c af3e 134a aabd 83da 0cbd
00000350: 4aa2 bbbd 1f5f a4bd 5d0b c4be 13e3 99bd
00000360: f1ec 47be 928b c93c 9611 b1be 9ec4 013d
00000370: 933e 253e 9f96 873d cc42 08be c3d2 553e
00000380: ba3f 583a 95d0 793e 1f03 5f3c e297 f5bc
00000390: cee0 40bd e2fb 6f3d 4f6b 7ebd 2990 72bc
000003a0: e9b5 58bd 7ac4 4cbd 9457 cbbd 4b41 093d
000003b0: ba2d 043e 9625 1d3e 2131 68bd 1ce5 6abb
000003c0: 2f33 92bb 2bf7 e93d d8a9 2fbc 30a2 01be
000003d0: f9aa 61be 71fb 653b 5ba7 363e 80ba 133e
000003e0: 2961 893e e2fc 813e cfc2 34bc 8d43 d8bd
000003f0: 65c0 91bd ea37 09bd 3cfe 72be cd76 493e

encoder.net.0.bias f4 [60]
0.027414057 -0.13815267 0.057040013 0.05241733 0.11569244 0.082942545 -0.0909773 0.040689796
0.040483866 -0.08989675 -0.023551274 0.091439605 0.01937348 -0.06398537 0.049539994 0.009237844
-0.049662534 -0.02930358 0.074306175 -0.091670066 -0.060969003 -0.062155176 -0.070555784 0.061762452
0.08598824 0.009631482 -0.069013715 -0.013595269 -0.092927136 -0.081578344 0.009936454 -0.013614981
0.04904691 0.15142408 0.05731157 0.14129722 -0.031873446 -0.06404107 0.039143004 -0.030636514
-0.06465524 -0.060438 -0.05427049 0.06253723 -0.039561626 -0.08483058 -0.036739428 0.07185309
-0.049430236 0.0067699812 0.03620096 0.08938537 -0.08186842 0.036693364 0.07517039 0.07686276
0.07598721 0.034745574 0.05601896 0.13445435
00000000: 7293 e03c e577 0dbe caa2 693d 8eb3 563d
00000010: 28f0 ec3d c8dd a93d 4f52 babd 58aa 263d
00000020: 69d2 253d ca1b b8bd 9aee c0bc b044 bb3d
00000030: 22b5 9e3c c30a 83bd 73ea 4a3d 535a 173c
00000040: f16a 4bbd 100e f0bc d62d 983d 84bd bbbd
00000050: a2ba 79bd 6d96 7ebd 8d7f 90bd a0fa 7c3d
00000060: 9a1a b03d 5dcd 1d3c 1057 8dbd b1be 5ebc
00000070: 9550 bebd 8c12 a7bd 82cc 223c 5f11 5fbc
00000080: 6ae5 483d ea0e 1b3e 89bf 6a3d 38b0 103e
00000090: bb8d 02bd f727 83bd 6a54 203d 6df9 fabc
000000a0: f769 84bd d68d 77bd bc4a 5ebd 8513 803d
000000b0: 5f0b 22bd a8bb adbd 157c 16bd b627 933d
000000c0: 5c77 4abd b8d6 dd3b 7547 143d ad0f b73d
000000d0: a1aa a7bd c84b 163d eff2 993d 396a 9d3d
000000e0: 2f9f 9b3d 6051 0e3d 2374 653d 67ae 093e

encoder.net.2.weight f4 [60, 60]
0.10461794 0.32986745 -0.06206173 -0.20755906 -0.17554155 0.056108173 0.01108612 0.04106526
-0.039427336 0.0141499415 0.0031696581 0.12618898 0.006503058 0.01263556 0.0022298861 -0.02405491
-0.09469489 0.004172158 -0.07428523 0.04160846 -0.064431705 0.031045752 -0.15887663 0.050490767
-0.04770005 0.02203444 -0.09112761 -0.15380687 -0.04260493 0.09774421 0.017456058 0.0066310377
0.13400784 -0.07071268 0.024245383 -0.027093174 -0.15859492 -0.06834742 -0.18325809 -0.1019086
0.008685993 -0.08717422 -0.15046781 0.0047352323 -0.092996314 0.033570196 -0.008286918 0.10127538
0.025973104 -0.06061039 0.111124426 -0.2005177 -0.20871317 0.16415116 -0.38485157 -0.025584506
-0.015011224 -0.0628169 -0.07358763 0.059733737 -0.087149955 0.15617414 -0.19964184 0.019818135
-0.12420193 0.23110136 0.07246029 0.019365275 0.29157573 -0.010100293 -0.048060015 -0.118877135
0.03413676 0.17542006 0.0632148 -0.14126493 0.1236693 -0.20941617 -0.008456843 -0.024795245
-0.013301548 -0.17950207 -0.15734838 0.047311604 -0.15626647 0.09136298 -0.09007527 0.08667751
0.16457835 0.25648186 -0.016456144 -0.014704844 -0.023543745 -0.1995974 0.17008668 0.2169735
-0.1742304 0.03999338 0.22125965 -0.016716443 0.22406478 0.09422672 -0.036692668 -0.017345428
0.2651487 0.096249096 0.0041974303 0.15490614 0.21752736 -0.091590255 0.08466601 0.025839703
0.021667982 -0.13631286 -0.13641101 -0.12962854 -0.008565231 0.017391952 0.091545984 -0.06684951
0.08160017 0.06855798 0.19174495 0.23027325 -0.12370127 -0.26895455 0.018969262 -0.2636061
0.088740915 0.0343668 -0.099954486 -0.009399618 0.14299709 -0.20099743 -0.0024557847 0.092261896
0.105222434 -0.13446027 -0.033755656 0.10873488 0.31522346 -0.12915134 0.12893945 0.018067194
-0.07795268 0.21473463 0.061081864 -0.07733529 -0.06135741 -0.15010624 -0.0077466504 0.051158994
-0.027132893 -0.25133315 -0.05222264 0.11355996 0.12883103 -0.16311844 0.18213046 -0.16506279
-0.026430657 0.3073737 -0.16287515 -0.1055721 0.1267043 -0.23436843 -0.07608 0.14063142
0.18856569 -0.013788628 -0.21921022 0.07281342 0.022287093 -0.036984142 -0.11318693 0.058351554
-0.20120747 0.0769766 0.07316308 0.017280923 0.15996334 -0.050797008 -0.16226085 -0.078634985
-0.027045509 -0.0043129046 -0.062343728 -0.15542413 -0.025431216 -0.21026623 -0.07035463 -0.09579496
0.31507605 -0.0869059 -0.035574667 0.057199445 0.15221058 -0.07232355 0.2007345 -0.003087617
-0.23066044 0.057618726 -0.107881874 0.2200672 0.23752375 -0.070761904 -0.13828316 -0.18415508
0.10371264 -0.24869052 -0.19953491 0.13189396 0.2141674 0.30111364 -0.17315978 0.015627839
0.20811184 -0.12602898 -0.06152513 -0.09512189 -0.061683737 -0.13969299 -0.1344412 -0.1575297
-0.056654807 -0.12858412 -0.008994108 0.1534935 -0.11967407 0.16180982 0.053743314 -0.011262257
-0.0750466 -0.1892744 -0.03282612 -0.043587144 0.02848911 -0.23281386 0.21120234 -0.018848844
0.11348031 0.058339242 0.012370255 -0.2195212 -0.08696824 0.19796701 -0.08408574 -0.0030306792
0.107044175 -0.12011371 -0.099644065 0.060988158 0.0052256216 0.18409178 0.11177681 -0.0054687946
00000000: ee41 d63d 63e4 a83e 7134 7ebd 5d8a 54be
00000010: 2ac1 33be afd1 653d 8fa2 353c 0c34 283d
00000020: 8f7e 21bd 28d5 673c 0aba 4f3b af37 013e
00000030: 9b17 d53b 6105 4f3c 4823 123b cd0e c5bc
00000040: 65ef c1bd 99b6 883b db22 98bd a26d 2a3d
00000050: c5f4 83bd a953 fe3c 8eb0 22be 68cf 4e3d
00000060: 2161 43bd 9281 b43c 1da1 babd 8c7f 1dbe
00000070: 8282 2ebd 1e2e c83d 0200 8f3c 2d49 d93b
00000080: 5a39 093e cfd1 90bd 419e c63c 81f2 ddbc
00000090: b566 22be bbf9 8bbd 02a8 3bbe 75b5 d0bd
000000a0: b24f 0e3c 6688 b2bd 3c14 1abe 022a 9b3b
000000b0: da74 bebd e780 093d dac5 07bc 7769 cf3d
000000c0: 8cc5 d43c 9a42 78bd 3495 e33d 8354 4dbe
000000d0: e8b8 55be 3e17 283e 440b c5be 9996 d1bc
000000e0: a3f1 75bc 26a6 80bd 1db5 96bd 5dab 743d
000000f0: ad7b b2bd 1dec 1f3e e96e 4cbe a459 a23c
00000100: 955d febd d6a5 6c3e 0f66 943d eda3 9e3c
00000110: 6a49 953e b37b 25bc 94da 44bd db75 f3bd
00000120: fdd2 0b3d 51a1 333e c376 813d c1a7 10be
00000130: 5446 fd3d 3171 56be 928e 0abc 661f cbbc
00000140: bcee 59bc 64cf 37be ef1f 21be d0c9 413d
00000150: 5104 20be 841c bb3d 6279 b8bd fa83 b13d
00000160: 3a87 283e 9751 833e 09cf 86bc 96ec 70bc
00000170: d0de c0bc 4363 4cbe 342b 2e3e 4d2e 5e3e
00000180: 7469 32be 19d0 233d e491 623e ecf0 88bc
00000190: 3d71 653e f0f9 c03d 0d4b 16bd 0018 8ebc
000001a0: 92c1 873e 3f1e c53d 998a 893b b79f 1e3e
000001b0: 7ebf 5e3e ac93 bbbd 6065 ad3d c9ad d33c
000001c0: 0d81 b13c 9995 0bbe 54af 0bbe 58bd 04be
000001d0: 2f55 0cbc 9179 8e3c 767c bb3d 65e8 88bd
000001e0: fd1d a73d 2068 8c3d ca58 443e c0cc 6b3e
000001f0: 1757 fdbd 69b4 89be 6d65 9b3c 61f7 86be
00000200: ccbd b53d 34c4 0c3d f0b4 ccbd db00 1abc
00000210: d46d 123e 45d2 4dbe 3bf1 20bb cef3 bc3d
00000220: dc7e d73d f4af 09be 5f43 0abd 65b0 de3d
00000230: f864 a13e 4040 04be b408 043e a701 943c
00000240: a8a5 9fbd 65e3 5b3e fa30 7a3d f761 9ebd
00000250: e851 7bbd 73b5 19be 9dd7 fdbb 188c 513d
00000260: cd45 debc bdae 80be 68e7 55bd 2092 e83d
00000270: 48ec 033e 8508 27be 6880 3a3e 3806 29be
00000280: 1b85 d8bc 1660 9d3e bec8 26be 2f36 d8bd
00000290: c6be 013e 47fe 6fbe d5cf 9bbd af01 103e
000002a0: 5d17 413e b3e9 61bc a578 60be 341f 953d
000002b0: 6c93 b63c af7c 17bd 8dce e7bd 0a02 6f3d
000002c0: 5509 4ebe e8a5 9d3d 86d6 953d b990 8d3c
000002d0: 6ecd 233e 8610 50bd b527 26be 610b a1bd
000002e0: 8b8e ddbc 4453 8dbb 235c 7fbd 8127 1fbe
000002f0: 2055 d0bc 0850 57be 1716 90bd 2630 c4bd
00000300: a651 a13e b8fb b1bd beb6 11bd f749 6a3d
00000310: 17dd 1b3e 5f1e 94bd 588d 4d3e 9e59 4abb
00000320: 4032 6cbe 9d01 6c3d 2cf1 dcbd 4c59 613e
00000330: 6d39 733e 9eeb 90bd 1a9a 0dbe 2693 3cbe
00000340: 4b67 d43d baa8 7ebe e152 4cbe 360f 073e
00000350: b34e 5b3e 912b 9a3e cc50 31be f405 803c
00000360: 451b 553e be0d 01be c601 7cbd 44cf c2bd
00000370: 16a8 7cbd ae0b 0fbe f4aa 09be 774f 21be
00000380: df0e 68bd 8eab 03be 065c 13bc 662d 1d3e
00000390: ae17 f5bd 79b1 253e f321 5c3d 5485 38bc
000003a0: 08b2 99bd 26d1 41be ae74 06bd 6f88 32bd
000003b0: fe61 e93c c266 6ebe 6d45 583e e468 9abc
000003c0: 5d68 e83d 21f5 6e3d 9cac 4a3c 2aca 60be
000003d0: 681c b2bd ddb7 4a3e 2535 acbd 5c9e 46bb
000003e0: fa39 db3d 2dfe f5bd 3012 ccbd b8ce 793d
000003f0: b13b ab3b 8e82 3c3e 3deb e43d 9333 b3bb

encoder.net.2.bias f4 [60]
-0.118009515 -0.06086948 -0.02767249 0.07677878 0.08362684 0.063733816 0.061796516 0.09815357
0.050890353 0.09911003 -0.043455712 0.11541426 0.09155769 -0.10424912 0.13343364 -0.097327955
-0.08018304 -0.07794245 0.0774387 0.0812847 0.049535915 0.019350471 -0.10018002 -0.088353656
-0.015628705 -0.08847311 0.04472162 0.053781006 -0.06621833 -0.07247517 -0.019833436 0.070209436
0.04626813 -0.061464097 -0.07233154 0.08022002 0.04903019 -0.02162691 -0.043853685 -0.024561346
0.090776905 0.045700967 0.07682265 0.069706395 0.039147153 0.06721899 -0.059307527 -0.043828372
0.0903102 -0.04998404 -0.14903629 -0.06766247 0.09148938 0.051826768 0.049820647 0.054290798
0.08745557 -0.06712531 -0.095340945 -0.045283057
00000000: f9ae f1bd 4752 79bd 6bb1 e2bc 313e 9d3d
00000010: 8c44 ab3d e086 823d 581e 7d3d bd04 c93d
00000020: 6772 503d 33fa ca3d 9efe 31bd 505e ec3d
00000030: 9982 bb3d 9080 d5bd d4a2 083e e153 c7bd
00000040: 0137 a4bd 4ba0 9fbd 2e98 9e3d 9878 a63d
00000050: 2ce6 4a3d e184 9e3c 2f2b cdbd c3f2 b4bd
00000060: c507 80bc 6431 b5bd 042e 373d 7949 5c3d
00000070: 7a9d 87bd dd6d 94bd bb79 a2bc f7c9 8f3d
00000080: a783 3d3d c7c1 7bbd 8f22 94bd 654a a43d
00000090: e1d3 483d eb2a b1bc ec9f 33bd e034 c9bc
000000a0: 3ee9 b93d f030 3b3d 3255 9d3d 3ac2 8e3d
000000b0: c458 203d 1caa 893d 73ec 72bd 6185 33bd
000000c0: 8ef4 b83d 11bc 4cbd f89c 18be 9f92 8abd
000000d0: c95e bb3d 4e48 543d bc10 4c3d 0760 5e3d
000000e0: e81b b33d ff78 89bd 1d42 c3bd ba7a 39bd

encoder.net.5.weight f4 [34, 60]
0.14659132 0.0526385 0.10472244 -0.017401362 -0.07096559 -0.08541764 0.07647685 0.037223794
0.2223943 0.13385326 0.28722996 0.01736753 0.104333445 -0.04732577 0.1551916 -0.15960008
0.19331169 0.13190845 -0.19114614 0.314094 -0.30803397 0.087918326 0.20043048 -0.00037216302
-0.14110857 0.11763314 0.069543004 -0.027591318 -0.022373224 -0.16199142 0.017469982 0.2006657
-0.09280279 0.07642245 0.12494136 0.046676528 0.18734358 0.122226305 -0.15686125 -0.10647813
0.2431471 -0.07776649 -0.052002154 0.13183191 -0.09652658 -0.25282007 0.039373975 0.13437177
0.0904302 -0.048251417 0.06101431 -0.3369103 0.16155994 0.023071425 0.2275438 0.034982383
0.07136305 -0.09283257 0.12619095 0.124988265 0.010008273 0.27392748 0.08833383 0.06083118
0.08338425 -0.10132963 -0.117536254 -0.010214757 -0.16487107 0.021239404 0.03743047 -0.14297296
-0.13980247 -0.27558112 0.13921739 -0.009948262 0.06182752 -0.34761465 -0.21569222 0.032488227
-0.11581958 0.07648447 -0.15529306 0.087762356 -0.12507175 -0.2369668 -0.09629964 0.06273776
0.1792252 0.0037997668 -0.19654785 0.10926018 -0.21068165 0.09240816 -0.027798818 -0.075772345
0.011565889 0.1544974 0.33557704 -0.0005336683 -0.2219299 -0.017619409 0.0020136435 0.22345313
0.09799496 -0.05963779 -0.08285023 -0.1643366 0.25476626 0.10236342 0.10433095 -0.08757928
0.038406435 0.08959556 -0.18888481 0.07171716 0.056857564 -0.049942493 -0.08195845 0.08367317
-0.07420952 0.024426112 -0.011858126 0.05734762 0.13916326 -0.12224084 -0.07210895 -0.033989962
0.14044623 0.227329 0.09979758 -0.11212133 0.011594863 -0.20182027 0.20355888 0.199235
-0.018497009 -0.03811659 -0.042639393 -0.080687344 0.005446474 -0.12820101 -0.113792256 -0.051150266
-0.2763603 -0.017442012 -0.02533912 -0.08569901 0.030826775 -0.06270285 -0.12974125 0.07975594
-0.053473666 -0.0011335667 -0.058758587 0.11990655 -0.34063685 -0.14983377 -0.25020143 0.10827603
0.023655042 -0.38067016 -0.24889565 -0.072983615 -0.19629559 0.012556518 -0.03789586 -0.07302449
-2.3210305e-09 0.037453298 0.29678965 -0.118373185 0.039371643 -0.004313176 -0.06612445 0.07663629
0.038095165 0.008586163 -0.07308787 -0.1841799 0.15774256 0.022860156 -0.12951702 -0.09377384
0.19909588 -0.25691643 -0.0938334 -0.20609333 -0.16104247 0.14031415 -0.070230246 -0.10248451
-0.030499617 0.058336176 -0.18537886 -0.075152785 0.18576926 0.21034914 -0.19365351 -0.043012056
0.0076944926 0.021841228 -0.09716518 0.05979082 0.114575796 -0.14657225 -0.039123964 0.022619547
0.11436196 0.09043853 0.005738951 0.11605734 -0.017793383 -0.35061353 -0.022042578 -0.17996772
-0.123408675 -0.118999146 0.0015871598 -0.19841687 0.17836607 0.08660409 -0.0060753827 0.16583192
0.20899752 0.1391736 0.027382787 0.18317173 0.12741277 0.044357333 0.076818734 -0.047566943
-0.03844901 -0.01950453 0.034446273 0.039079882 0.14427856 0.068141684 0.27435216 -0.03625725
-0.083611734 -0.09599267 -0.089576624 -0.20101702 0.073780045 -0.26570302 -0.012059451 0.18905155
-0.09501347 0.083983935 -0.36621872 -0.20613429 0.15427981 -0.18314606 -0.14284226 -0.10521639
00000000: 091c 163e 789b 573d b878 d63d 4d8d 8ebc
00000010: 6856 91bd 72ef aebd e59f 9c3d fa77 183d
00000020: 55bb 633e d410 093e ce0f 933e 5a46 8e3c
00000030: c6ac d53d abd8 41bd 8cea 1e3e 346e 23be
00000040: 80f3 453e 0213 073e d0bb 43be eed0 a03e
00000050: a1b6 9dbe 860e b43d a63d 4d3e e01e c3b9
00000060: c47e 10be a5e9 f03d 906c 8e3d 3007 e2bc
00000070: 0d48 b7bc 14e1 25be 351d 8f3c 4f7b 4d3e
00000080: 640f bebd 6083 9c3d 41e1 ff3d e32f 3f3d
00000090: ffd6 3f3e c951 fa3d 3ca0 20be 3511 dabd
000000a0: 8efb 783e 0a44 9fbd 3600 55bd f2fe 063e
000000b0: baaf c5bd a271 81be 9b46 213d c198 093e
000000c0: 7833 b93d 47a3 45bd 24ea 793d 827f acbe
000000d0: f86f 253e 4900 bd3c 3e01 693e b049 0f3d
000000e0: ca26 923d 011f bebd 3338 013e d9f9 ff3d
000000f0: bdf9 233c 3940 8c3e 5ee8 b43d 1e2a 793d
00000100: 5dc5 aa3d e985 cfbd d9b6 f0bd cc5b 27bc
00000110: f6d3 28be 42fe ad3c b150 193d 8167 12be
00000120: 6128 0fbe f818 8dbe 018f 0e3e 09fe 22bc
00000130: db3e 7d3d 8cfa b1be 6cde 5cbe 6012 053d
00000140: d132 edbd e4a3 9c3d 2505 1fbe c0bc b33d
00000150: cf12 00be 6da7 72be bf38 c5bd a87c 803d
00000160: d086 373e 8205 793b d743 49be cdc3 df3d
00000170: eebc 57be 7d40 bd3d 59ba e3bc 882e 9bbd
00000180: db7e 3d3c 9134 1e3e c1d0 ab3e e0e5 0bba
00000190: 9741 63be 9456 90bc 55f7 033b e6d0 643e
000001a0: 95b1 c83d c146 74bd 62ad a9bd db47 28be
000001b0: b970 823e eaa3 d13d 77ab d53d c45c b3bd
000001c0: 1150 1d3d e17d b73d 056b 41be 72e0 923d
000001d0: 7ae3 683d 8090 4cbd d5d9 a7bd d75c ab3d
000001e0: 29fb 97bd 4519 c83c 9648 42bc 57e5 6a3d
000001f0: d080 0e3e 6859 fabd dbad 93bd 0f39 0bbd
00000200: 23d1 0f3e efc8 683e ac62 cc3d de9f e5bd
00000210: 61f8 3d3c f9a9 4ebe bd71 503e 4304 4c3e
00000220: 0a87 97bc 2420 1cbd a5a6 2ebd 683f a5bd
00000230: 5678 b23b 2047 03be ea0b e9bd f182 51bd
00000240: 197f 8dbe 8de2 8ebc fc93 cfbc f682 afbd
00000250: 6f88 fc3c 5a6a 80bd e4da 04be 1557 a33d
00000260: 3407 5bbd 3094 94ba d8ac 70bd 9191 f53d
00000270: f467 aebe 066e 19be 671a 80be d3bf dd3d
00000280: 38c8 c13c 33e7 c2be 80de 7ebe 6f78 95bd
00000290: b601 49be dbb9 4d3c b038 1bbd dd8d 95bd
000002a0: 0080 1fb1 a168 193d d0f4 973e a46d f2bd
000002b0: 2944 213d 8b55 8dbb 416c 87bd 7df3 9c3d
000002c0: ad09 1c3d faac 0c3c 18af 95bd a899 3cbe
000002d0: 4487 213e 3945 bb3c 1ca0 04be 800c c0bd
000002e0: cadf 4b3e 8d8a 83be ba2b c0bd 210a 53be
000002f0: 51e8 24be 83ae 0f3e e0d4 8fbd 66e3 d1bd
00000300: 55da f9bc eaf1 6e3d f5d3 3dbe b4e9 99bd
00000310: 4c3a 3e3e c465 573e 1b4d 46be 692d 30bd
00000320: 1522 fc3b 60ec b23c 8afe c6bd 38e7 743d
00000330: b7a6 ea3d 0917 16be 7340 20bd a14c b93c
00000340: 9a36 ea3d d637 b93d cf0d bc3b 78af ed3d
00000350: 6ec3 91bc 9e83 b3be a392 b4bc 7549 38be
00000360: b0bd fcbd d3b5 f3bd 3f08 d03a cb2d 4bbe
00000370: 98a5 363e 7c5d b13d 0114 c7bb d8cf 293e
00000380: 7203 563e 8683 0e3e de51 e03c 5f91 3b3e
00000390: 7e78 023e 09b0 353d 2453 9d3d 8ed5 42bd
000003a0: b67c 1dbd f7c7 9fbc 8917 0d3d 3a12 203d
000003b0: c2bd 133e de8d 8b3d e377 8c3e 7b82 14bd
000003c0: a13c abbd ce97 c4bd f373 b7bd 68d7 4dbe
000003d0: fe19 973d 3a0a 88be 0195 45bc bb96 413e
000003e0: 6c96 c2bd c5ff ab3d 0581 bbbe de14 53be
000003f0: 87fb 1d3e a48a 3bbe 3e45 12be b17b d7bd

encoder.net.5.bias f4 [34]
0.080410965 -0.047793552 0.08827231 -0.13687408 0.0654384 0.07871215 0.03763025 -0.060364228
-0.08825473 0.067442134 -0.090734325 -0.0043920726 -0.080002114 0.074340634 -0.013742999 0.0826112
-0.046299484 0.1800203 -0.073593095 -0.06423043 0.05174667 -0.06965881 0.08050637 0.11329151
0.015826434 -0.10163932 0.08710543 0.07102639 -0.005296339 0.06895838 -0.06968782 0.050260965
-0.049583975 -0.1040508
00000000: 81ae a43d 2cc3 43bd 1dc8 b43d b828 0cbe
00000010: 9104 863d d633 a13d 2d22 1a3d 7b40 77bd
00000020: e5be b4bd 1a1f 8a3d ebd2 b9bd 60eb 8fbb
00000030: 26d8 a3bd e73f 983d 512a 61bc 1030 a93d
00000040: 87a4 3dbd 3e57 383e fab7 96bd 3e8b 83bd
00000050: 51f4 533d 47a9 8ebd 86e0 a43d 6105 e83d
00000060: 70a6 813c 4728 d0bd 5564 b23d 4976 913d
00000070: e98c adbb 0d3a 8d3d 7db8 8ebd 71de 4d3d
00000080: 9118 4bbd 9618 d5bd

predictor.net.1.weight f4 [32, 34]
-0.10574642 0.024852704 -0.019831853 -0.028862527 -0.27869612 0.165578 0.34390303 -0.07477115
-0.066733 -0.17695351 -0.07455734 0.049478076 0.07684763 -0.2738007 -0.15506351 0.005153207
-0.2444232 0.16657442 -0.1394765 -0.23621896 0.029201794 0.0155555075 0.036853585 -0.103462584
-0.09846298 0.12927471 -0.44923186 -0.35375023 0.43940878 0.052200858 -0.21939519 -0.24420932
0.47153893 -0.14953561 0.09042664 -0.13668808 -0.13098793 -0.09968619 -0.026229061 0.09174469
0.08740287 0.34580588 -0.15026082 -0.114899494 -0.13348842 -0.19327147 0.103354305 -0.22906692
-0.023013342 -0.21171875 0.25813657 0.1485115 0.19837224 0.13137907 0.20501457 0.34811443
-0.047703475 0.008604498 -0.14707105 0.145263 -0.09555174 0.11419776 0.035560295 -0.16384135
0.00106249 0.043927576 -0.10887482 -0.25217152 -0.0044110795 0.21129918 -0.09801113 -0.07885118
0.016682344 0.13458657 0.18806878 0.04048072 -0.15701513 -0.25468493 -0.112045616 -0.2762234
-0.121017076 -0.017467868 -0.093980126 -0.18944259 -0.14686988 0.06308956 -0.071487285 0.18390524
-0.18661346 -0.23194112 0.0068797986 0.025991289 -0.077408 0.023349853 -0.1740552 -0.16833816
-0.15488775 0.029700097 0.06396086 -0.048604254 0.07856947 -0.037122868 0.022913123 -0.007788843
0.32054922 -0.010745141 0.15913358 -0.055861562 0.09116382 -0.33510903 -0.05629035 -0.29990828
-0.02586537 -0.019971637 0.15398787 0.05872221 0.008628854 0.0038043407 0.17599545 0.04041908
-0.24156977 -0.0034903202 -0.079149574 -0.032770094 0.09738597 -0.03470519 0.44573468 -0.15605776
-0.15504442 0.059459623 -0.23497894 -0.29026356 -0.0688073 -0.021565413 0.271437 0.25685757
-0.06606534 -0.09634615 0.07706726 0.096820585 -0.23286702 -0.05363403 0.22704136 -0.24444877
0.18266822 -0.32090673 -0.45039427 0.26887882 -0.2228866 0.0984229 -0.052699298 0.17091689
0.015862804 0.09789807 -0.100697115 0.2883332 0.11476748 0.1621941 0.16326341 0.19818358
-0.02270511 -0.119265005 -0.0038525427 -0.18008888 0.10030537 -0.053839657 0.17775476 -0.1808569
-0.043703597 0.13510484 0.24019957 -0.009138368 0.22352168 0.08034728 -0.027344827 -0.1859257
0.18051018 -0.039772745 0.31588116 0.03262337 -0.037931196 0.25591534 0.0011703421 0.12403439
-0.08774948 0.32936472 -0.1585044 -0.0029706429 0.040169027 -0.0072863954 0.11253571 0.0048754015
-0.11678833 0.07041619 -0.2019672 -0.026292108 0.11176495 0.16553465 -0.044714183 -0.10743704
0.20455548 -0.14219697 0.12724473 -0.0031974125 0.22538005 0.3282228 0.072907366 -0.18608536
0.10339213 0.22364578 -0.1207601 -0.31359953 -0.04929691 -0.06675409 -0.034305304 -0.04463096
-0.100785375 -0.10517563 0.21984895 -0.22117183 0.34053233 0.08698935 0.029940985 -0.114004254
0.076164335 0.10893548 -0.18301618 0.038660344 0.32792723 -0.32641843 -0.28657132 0.16889796
-0.05161582 -0.039221674 -0.09130602 -0.14156193 -0.14361708 0.31618923 -0.17675358 -0.116444565
0.44611195 -0.0025802949 0.38054487 -0.454018 0.18674046 -0.39238256 -0.1135306 -0.17862709
0.041138835 -0.013293707 -0.017448261 -0.050534155 0.062320177 -0.110398725 -0.0023005935 -0.26611862
00000000: 9491 d8bd e697 cb3c 6976 a2bc 1b71 ecbc
00000010: 42b1 8ebe 478d 293e 0f14 b03e 9e21 99bd
00000020: 50ab 88bd 4d33 35be 85b1 98bd 86a9 4a3d
00000030: 4a62 9d3d 9b2f 8cbe f8c8 1ebe 3cdc a83b
00000040: 134a 7abe 7c92 2a3e edd2 0ebe 62e3 71be
00000050: 9a38 ef3c 87dc 7e3c c9f3 163d 31e4 d3bd
00000060: f5a6 c9bd 9760 043e b801 e6be c01e b5be
00000070: 30fa e03e 91d0 553d 22a9 60be 0212 7abe
00000080: 8d6d f13e dd1f 19be 9a31 b93d f6f7 0bbe
00000090: b321 06be 4628 ccbd 54de d6bc a4e4 bb3d
000000a0: 4700 b33d 780d b13e f9dd 19be 6d50 ebbd
000000b0: 30b1 08be f5e8 45be 6cab d33d 8590 6abe
000000c0: 7a86 bcbc cdcc 58be 7a2a 843e 6613 183e
000000d0: 1822 4b3e 3c88 063e 57ef 513e 0e3c b23e
000000e0: b864 43bd e1f9 0c3c cb99 16be d3bf 143e
000000f0: a1b0 c3bd 84e0 e93d aca7 113d 07c6 27be
00000100: 4043 8b3a 67ed 333d c3f9 debd a01c 81be
00000110: d18a 90bb d05e 583e 0fba c8bd ba7c a1bd
00000120: 69a9 883c 10d1 093e 1a95 403e 1dcf 253d
00000130: 93c8 20be 1066 82be 2c78 e5bd 276d 8dbe
00000140: cdd7 f7bd c618 8fbc a778 c0bd 3dfd 41be
00000150: 0f65 16be 1935 813d ed67 92bd a851 3c3e
00000160: 9917 3fbe f981 6dbe ef6f e13b afeb d43c
00000170: 1688 9ebd 3148 bf3c 873b 32be d760 2cbe
00000180: e59a 1ebe 9e4d f33c e9fd 823d 4115 47bd
00000190: 08e9 a03d 260e 18bd 4db4 bb3c 8d39 ffbb
000001a0: 071f a43e 630c 30bc eaf3 223e 18cf 64bd
000001b0: 19b4 ba3d 6993 abbe b690 66bd 948d 99be
000001c0: 9de3 d3bc 8f9b a3bc ffae 1d3e b386 703d
000001d0: 0960 0d3c 3f52 793b 2738 343e 7a8e 253d
000001e0: 115e 77be dbbd 64bb 2c19 a2bd ef39 06bd
000001f0: 4c72 c73d 0827 0ebd 5637 e43e 9bcd 1fbe
00000200: f7c3 1ebe ef8b 733d 529e 70be 6d9d 94be
00000210: d7ea 8cbd f3a9 b0bc caf9 8a3e d682 833e
00000220: 444d 87bd 2151 c5bd 71d5 9d3d df49 c63d
00000230: b174 6ebe 5baf 5bbd 887d 683e c750 7abe
00000240: 610d 3b3e e34d a4be 149a e6be 7caa 893e
00000250: 633c 64be f291 c93d 38db 57bd d604 2f3e
00000260: b6f2 813c c97e c83d 4a3a cebd 69a0 933e
00000270: 360b eb3d 3616 263e 862e 273e a3f0 4a3e
00000280: 1100 babc 3641 f4bd f17a 7cbb 3869 38be
00000290: e76c cd3d f986 5cbd 5805 363e 8d32 39be
000002a0: 8b02 33bd ec58 0a3e e0f6 753e 18b9 15bc
000002b0: dee2 643e 1d8d a43d 4202 e0bc 4f63 3ebe
000002c0: a9d7 383e bfe8 22bd 2dbb a13e 15a0 053d
000002d0: be5d 1bbd 5607 833e 2a66 993a be05 fe3d
000002e0: 00b6 b3bd 7ea2 a83e fa4e 22be 1eaf 42bb
000002f0: 4788 243d b7c2 eebb 1f79 e63d d5c1 9f3b
00000300: b82e efbd 5d36 903d 7dd0 4ebe 8c62 d7bc
00000310: 06e5 e43d ea81 293e 3826 37bd f307 dcbd
00000320: fe76 513e 159c 11be 714c 023e ae8b 51bb
00000330: 07ca 663e d20c a83e 7550 953d 298d 3ebe
00000340: 41bf d33d 6603 653e 1251 f7bd 1e90 a0be
00000350: 8feb 49bd 5eb6 88bd b883 0cbd f4ce 36bd
00000360: 9068 cebd 5266 d7bd 1520 613e de7a 62be
00000370: 415a ae3e 7927 b23d cc46 f53c 107b e9bd
00000380: 0cfc 9b3d 9119 df3d 9868 3bbe 4f5a 1e3d
00000390: 14e6 a73e 5120 a7be 7ab9 92be 96f3 2c3e
000003a0: 1c6b 53bd e8a6 20bd a7fe babd 9cf5 10be
000003b0: 5b10 13be 8ee3 a13e e4fe 34be 7d7a eebd
000003c0: c968 e43e 2a1a 29bb c7d6 c23e 0c75 e8be
000003d0: e438 3f3e 5ee6 c8be bb82 e8bd 05ea 36be
000003e0: 3281 283d d9cd 59bc a8ef 8ebc e7fc 4ebd
000003f0: 7143 7f3d ba18 e2bd 8ec5 16bb b340 88be

predictor.net.1.bias f4 [32]
0.10757954 0.1356874 -0.10971886 -0.1047322 -0.08891728 0.0952412 0.11212047 -0.123018906
0.0993777 0.119462304 0.14636266 0.11233123 0.11079973 -0.11439429 0.26949048 -0.109582074
0.1058428 0.118796945 -0.11236742 0.11511517 -0.11401687 -0.0948433 0.11893444 -0.11147789
-0.12190178 -0.11409384 -0.108582206 0.101243116 0.105410464 -0.11386785 -0.10930594 -0.11497238
00000000: a952 dc3d a3f1 0a3e 48b4 e0bd d67d d6bd
00000010: 431a b6bd d10d c33d 6b9f e53d 56f1 fbbd
00000020: 8986 cb3d a7a8 f43d 18e0 153e ea0d e63d
00000030: f8ea e23d 8e47 eabd a8fa 893e 916c e0bd
00000040: 1cc4 d83d d04b f33d e420 e6bd 81c1 eb3d
00000050: ad81 e9bd 343d c2bd e693 f33d 854e e4bd
00000060: a4a7 f9bd 08aa e9bd 5960 debd 8d58 cf3d
00000070: 71e1 d73d 8c33 e9bd cbdb dfbd a476 ebbd

predictor.net.3.weight f4 [1, 32]
0.35940826 0.09908866 -0.12517245 -0.08639457 -0.019677177 0.49773544 0.49376577 -0.04755072
0.23632969 0.21642679 0.1860206 0.17194165 0.37142336 -0.15677279 0.09047014 -0.15528819
0.0324103 0.3610984 -0.45217028 0.08436729 -0.13228744 -0.059012957 0.11191471 -0.12060002
-0.23443925 -0.17263074 -0.30310908 0.06367669 0.16367128 -0.22968657 -0.21397531 -0.38990957
00000000: 5c04 b83e ffee ca3d 352d 00be a3ef b0bd
00000010: 0832 a1bc 2ed7 fe3e dece fc3e 8bc4 42bd
00000020: 6900 723e fc9e 5d3e 2f7c 3e3e 7911 303e
00000030: 342b be3e 0c89 20be 6948 b93d de03 1fbe
00000040: aac0 043d e4e1 b83e dd82 e7be c2c8 ac3d
00000050: 5c76 07be 92b7 71bd 8a33 e53d 25fd f6bd
00000060: d810 70be 1dc6 30be 1d31 9bbe ed68 823d
00000070: 7299 273e f532 6bbe 581c 5bbe 3aa2 c7be

net.0.weight f4 [60, 37]
-0.16831365 -0.07633831 -0.15278491 0.0076157935 0.07423144 -0.15248558 0.09620029 -0.12948717
0.089225315 0.16431034 -0.12201102 -0.054085225 -0.043567523 -0.07299437 -0.016101275 -0.08551204
-0.29524732 -0.18852007 -0.033017833 0.18363136 0.0019918578 0.033179853 0.115624 0.060427777
-0.1251291 0.15776698 -0.2229866 0.120647915 -0.00529301 0.13305037 0.19901808 -0.12057721
0.18170075 0.020380791 0.06137737 0.0015849882 0.10060046 -0.03338907 -0.09639495 -0.064407274
0.08627243 -0.029773463 -0.2049038 0.0034549134 0.08740444 -0.037770595 0.010700622 0.00445786
0.08448911 0.066246085 0.21532266 0.031096578 0.002404499 -0.0035457015 0.25516742 0.064398505
-0.2102935 -0.07330124 -0.16499135 0.14069569 0.0020084132 0.07582275 0.11026016 0.15564254
0.10148659 -0.09521735 -0.2815675 0.102549344 0.15368892 -0.14857817 -0.13196912 -0.115597494
-0.1113466 -0.040627025 0.02069166 -0.23791537 0.09286872 0.058714174 0.03064433 0.11110528
0.15249158 0.17961462 0.19668558 -0.012600961 -0.030905245 -0.07839397 0.04251658 -0.118113205
0.08604625 0.08628914 -0.1206392 0.0018096596 0.18530078 -0.053377237 -0.027623132 -0.20130828
0.049906697 -0.065423414 -0.08313563 -0.06758758 -0.036007512 0.17960486 0.010545397 0.1297451
0.15229696 -0.17775628 0.04897222 -0.16502155 -0.043269314 0.12869821 -0.06504937 0.042258985
0.12609275 -0.114583515 0.06603004 -0.123566896 -0.29612884 -0.106748514 -0.16424666 0.09405515
0.023777962 -0.1374536 -0.19055325 0.1407169 -0.21552315 0.12518516 -0.047588065 -0.13146187
0.33746284 -0.06367297 0.040859602 -0.049271345 -0.3038287 -0.050227255 -0.018780863 -0.12159553
-0.22335584 -0.008669968 -0.042773385 0.16517933 0.10078776 -0.09756147 -0.19417235 0.04731119
-0.12769344 -0.11183322 -0.07505414 0.0012847881 0.20744874 -0.166446 0.11036242 -0.064207025
-0.15909874 -0.08976396 0.112236775 -0.12556626 0.30050018 -0.010239241 0.038518205 0.018686654
-0.009727553 -0.11608306 0.070147865 0.03452521 -0.06691464 0.06869277 0.15727906 -0.16576476
-0.06390766 -0.085268505 0.21308745 0.18254596 0.115233965 -0.04386864 -0.1063073 0.28046003
-0.04893203 0.013320701 -0.13793544 0.23341325 0.027302276 0.0980307 0.23293306 0.10534494
-0.18319571 -0.3557957 -0.19034985 0.062836364 0.04786715 -0.12266256 0.18295668 0.107113585
0.10633055 0.1525421 0.35447186 0.007805016 -0.1402117 -0.08699657 0.017859204 0.07203068
0.04539371 -0.2106904 0.25463977 -0.019515326 0.06354617 0.06376305 -0.0126713775 -0.06336388
-0.00052861223 0.1333137 -0.04018791 0.014130703 0.10269113 0.010132728 -0.020945909 0.03369982
-0.09829298 0.2521611 -0.06436779 0.23134507 -0.02913488 0.3328996 -0.09985206 -0.14625697
-0.035063826 -0.120912984 -0.32721147 0.10470018 0.052114103 0.12046919 0.13572049 -0.1820102
-0.26977342 -0.023960298 -0.06453851 -0.19909687 0.15866517 -0.049743135 0.033125695 0.005612293
-0.007454403 -0.09340183 -0.13677046 -0.19230016 0.036398593 -0.168497 -0.060004476 0.07390735
-0.08006628 -0.18749198 -0.17523335 0.14095633 0.1422261 -0.04239645 -0.08653473 0.17538953
00000000: 6a5a 2cbe 4357 9cbd a673 1cbe e88d f93b
00000010: a706 983d 2e25 1cbe a804 c53d 4998 04be
00000020: c3bb b63d f840 283e eae0 f9bd 7888 5dbd
00000030: dc73 32bd 127e 95bd d2e6 83bc f020 afbd
00000040: a82a 97be 680b 41be b53d 07bd dc09 3c3e
00000050: d489 023b 99e7 073d 47cc ec3d 1e83 773d
00000060: d821 00be ab8d 213e 9956 64be 4116 f73d
00000070: fc70 adbb 5b3e 083e 65cb 4b3e 2ff1 f6bd
00000080: c30f 3a3e 9ef5 a63c d666 7b3d 61bf cf3a
00000090: 9d07 ce3d fac2 08bd b76a c5bd f6e7 83bd
000000a0: 9aaf b03d 7ae7 f3bc 4dd2 51be d46b 623b
000000b0: 1901 b33d 57b5 1abd a951 2f3c 3d13 923b
000000c0: a008 ad3d 07ac 873d 8b7d 5c3e 40be fe3c
000000d0: cd94 1d3b 005f 68bb 4ea5 823e 5de3 833d
000000e0: 2e57 57be f61e 96bd 7ef3 28be 8812 103e
000000f0: 959f 033b f548 9b3d 14d0 e13d c260 1f3e
00000100: 34d8 cf3d 5001 c3bd 9e29 90be 6405 d23d
00000110: a160 1d3e e024 18be ea22 07be 61be ecbd
00000120: b009 e4bd 8668 26bd 8e81 a93c 16a0 73be
00000130: f531 be3d 467e 703d d109 fb3c 2a8b e33d
00000140: c126 1c3e e5ec 373e f267 493e 4374 4ebc
00000150: ff2c fdbc 058d a0bd de25 2e3d 56e5 f1bd
00000160: 0439 b03d 5cb8 b03d af11 f7bd 1a32 ed3a
00000170: 7dbf 3d3e 17a2 5abd e849 e2bc c223 4ebe
00000180: f76a 4c3d b6fc 85bd 0343 aabd 5b6b 8abd
00000190: 9d7c 13bd 56ea 373e 9ac6 2c3c e6db 043e
000001a0: bcf3 1b3e be05 36be 1897 483d 69fb 28be
000001b0: 2a3b 31bd 77c9 033e 9b38 85bd c217 2d3d
000001c0: 751e 013e c3aa eabd c23a 873d a410 fdbd
000001d0: 339e 97be f79e dabd 4730 28be fd9f c03d
000001e0: 00ca c23c a3c0 0cbe 6420 43be 1718 103e
000001f0: 1ab2 5cbe 8a30 003e b4eb 42bd f19d 06be
00000200: eec7 ac3e f966 82bd 665c 273d c0d0 49bd
00000210: 6f8f 9bbe 18bb 4dbd 53da 99bc 1407 f9bd
00000220: 65b7 64be 7b0c 0ebc 2533 2fbd c524 293e
00000230: d069 ce3d 4fce c7bd 1ed5 46be 61c9 413d
00000240: 12c2 02be d108 e5bd fcb5 99bd 5666 a83a
00000250: 716d 543e d270 2abe b105 e23d f97e 83bd
00000260: c8ea 22be 2bd6 b7bd 65dc e53d 7194 00be
00000270: 29db 993e 7dc2 27bc 44c5 1d3d c114 993c
00000280: 5160 1fbc f5bc edbd afa9 8f3d 4e6a 0d3d
00000290: 8b0a 89bd ccae 8c3d c30d 213e 3dbe 29be
000002a0: 05e2 82bd 41a1 aebd 9933 5a3e 54ed 3a3e
000002b0: c9ff eb3d 9aaf 33bd a4b7 d9bd 7598 8f3e
000002c0: f46c 48bd 123f 5a3c f33e 0dbe e203 6f3e
000002d0: 06a9 df3c 52c4 c83d 0186 6e3e 17bf d73d
000002e0: a897 3bbe db2a b6be 12eb 42be 5ab0 803d
000002f0: 5810 443d 8236 fbbd ff58 3b3e 5e5e db3d
00000300: d5c3 d93d ff33 1c3e 567d b53e 38c1 ff3b
00000310: a893 0fbe 422b b2bd 774d 923c d284 933d
00000320: c1ee 393d 39bf 57be 2560 823e 9bde 9fbc
00000330: 7f24 823d 3496 823d 9c9b 4fbc ecc4 81bd
00000340: 9192 0aba 6383 083e 149c 24bd 7784 673c
00000350: ba4f d23d be03 263c c196 abbc d308 0a3d
00000360: d44d c9bd 421b 813e 43d3 83bd b9e5 6c3e
00000370: 46ac eebc d171 aa3e 3d7f ccbd 63c4 15be
00000380: 169f 0fbd 3aa1 f7bd 4388 a7be 0c6d d63d
00000390: 9975 553d 8db8 f63d 50fa 0a3e e260 3abe
000003a0: be1f 8abe 6348 c4bc c42c 84bd 0de0 4bbe
000003b0: 1f79 223e 75bf 4bbd cfae 073d 53e7 b73b
000003c0: 1144 f4bb 7549 bfbd 8e0d 0cbe 55ea 44be
000003d0: b116 153d 7a8a 2cbe 41c7 75bd bd5c 973d
000003e0: caf9 a3bd e6fd 3fbe 5f70 33be db56 103e
000003f0: b8a3 113e e6a7 2dbd 1f39 b1bd 5099 333e

net.0.bias f4 [60]
-0.10242813 0.06435877 -0.0035330611 -0.1351612 -0.06711011 0.15734614 0.07681008 0.048183996
-0.11065922 -0.04516668 -0.04413729 0.1428454 0.13870151 0.028741984 -0.06927989 0.139952
0.13347217 -0.021088246 0.12040878 0.10800373 -0.034957234 -0.11443351 0.12012971 0.15206712
-0.07157559 0.09710847 0.14556704 -0.04914098 -0.07778993 0.13022003 0.12857117 0.124856785
0.115314625 0.12051964 -0.00088153 -0.050607182 -0.035065405 -0.098303124 0.068960905 0.06988621
-0.051175237 0.03875472 0.055523053 -0.14028557 -0.052336324 0.023801463 -0.09969328 0.036613327
0.12511067 -0.08251635 -0.06855124 0.0025333478 0.04257618 0.06577873 -0.14752226 -0.02999854
-0.070535794 0.0023522584 0.037849702 0.1323526
00000000: d7c5 d1bd 88ce 833d ee8a 67bb b367 0abe
00000010: 0671 89bd 591f 213e 9a4e 9d3d 955c 453d
00000020: 4da1 e2bd b200 39bd 4ec9 34bd 1146 123e
00000030: c507 0e3e 4f74 eb3c 9de2 8dbd 944f 0f3e
00000040: eeac 083e 42c1 acbc e198 f63d 0f31 dd3d
00000050: 512f 0fbd 1e5c eabd 9106 f63d 7cb7 1b3e
00000060: 3996 92bd cee0 c63d 870f 153e 0d48 49bd
00000070: 5450 9fbd 6658 053e 29a8 033e eab4 ff3d
00000080: 132a ec3d 00d3 f63d 7a16 67ba 7a49 4fbd
00000090: bea0 0fbd 2653 c9bd 603b 8d3d 8020 8f3d
000000a0: 209d 51bd 45bd 1e3d 246c 633d 05a7 0fbe
000000b0: 9d5e 56bd 49fb c23c fe2b ccbd dbf7 153d
000000c0: 031d 003e 55fe a8bd 9864 8cbd 8606 263b
000000d0: 5c64 2e3d 00b7 863d 1310 17be 80bf f5bc
000000e0: 1275 90bd 5928 1a3b 4a08 1b3d 7187 073e

net.2.weight f4 [60, 60]
0.12164646 -0.073028184 0.06897307 0.1831125 0.12945922 -0.07178109 0.04879845 -0.17650893
0.06594746 0.08772066 0.13415958 0.10450431 -0.1578045 0.08172683 0.19370276 -0.15489624
0.062080074 0.16905062 -0.29343632 -0.035630077 0.02339374 0.09438197 -0.073452845 -0.057824794
-0.06369192 -0.031727403 0.2435898 -0.09706161 0.31998613 -0.049649082 0.17021088 0.1413953
-0.16994242 0.23610424 -0.039459188 -0.15613091 -0.006027697 -0.19018926 0.052748445 0.0806876
-0.057092648 0.076877415 0.01444937 0.03366162 0.038460873 0.050732005 -0.26070517 -0.16786422
-0.037257925 -0.016736725 0.07405148 0.051450156 -0.0175444 -0.07953694 -0.12228785 -0.27128416
0.054617383 -0.034450393 -0.082529366 0.13922353 -0.00044119297 0.11210538 -0.028152542 0.06957658
-0.07196478 -0.12324323 -0.12279312 -0.19798537 -0.033260424 0.1733151 0.11831198 -0.15852009
-0.010510921 0.18050313 -0.13424928 0.10952914 0.053789355 -0.05889074 -0.23913081 -0.16771734
0.26021588 0.24310863 -0.046485547 -0.15402642 -0.12233145 -0.026843267 -0.0021594877 -0.01986525
-0.089531824 -0.0020877453 0.13388179 -0.29210314 -0.09737925 -0.05205496 0.1511716 -0.0056088082
0.030138548 -0.31180394 0.20935903 -0.037337665 -0.12820002 0.09384065 0.1374479 0.11111426
-0.18211344 -0.14440818 0.04206942 -0.030715568 -0.08981835 0.054624625 0.025641354 -0.08008113
-0.17017688 -0.15609182 -0.094798796 0.11058501 0.04287539 -0.22421595 -0.03335133 0.016050631
-0.014995283 0.06079861 -0.14974837 0.0039001768 -0.32737893 0.06241746 -0.07830574 -0.08979459
0.2226307 0.26904353 0.0986005 -0.2854024 0.048383474 0.010611466 0.13649277 0.040130734
0.19844244 0.09817943 0.18302688 -0.08188855 0.090183295 0.028676338 0.017941 0.19200845
-0.06789843 -0.1934104 0.11315892 0.11775803 -0.11078448 -0.15530366 -0.1587665 -0.031712823
-0.13560256 -0.1369567 -0.07268458 -0.07502494 -0.13093281 -0.09878456 -0.23401038 -0.03116557
-0.011437708 0.058891706 -0.07042976 0.05357919 -0.13669933 0.10001515 -0.02581626 0.075083345
0.00047572562 -0.12991743 -0.19172883 -0.033940468 -0.1328402 -0.128248 -0.22084211 0.07685112
0.106190205 -0.12325094 -0.053699818 -0.052960478 0.013343355 -0.11552944 -0.13764465 -0.018977348
-0.19756475 -0.1695707 -0.0063284887 0.026401052 -0.017395748 0.08942681 -0.022238798 0.10271039
-0.12966815 -0.10580274 0.1013389 -0.059516553 -0.14515148 0.082264274 0.06148314 -0.08025922
-0.09311263 0.29730204 -0.049119703 -0.11526441 0.016301364 0.06414665 -0.20975845 -0.13911586
0.1072136 0.056813363 0.16402069 -0.16308625 0.0050583505 -0.12639056 0.10402847 0.16492712
-0.020922728 0.023374395 -0.039027642 -0.09839188 -0.00919246 -0.0654428 0.030186635 -0.06667897
0.04516481 0.09292666 -0.04253744 0.051386125 0.19902979 0.12849468 -0.010123775 0.11597008
-0.061792396 -0.12102563 0.077997975 0.048281476 0.022051811 0.0012192446 0.1154217 -0.17256092
-0.14956354 0.1495341 0.21605483 -0.060567014 -0.06203621 0.09795542 0.40879065 -0.16869523
0.03472835 -0.19830257 -0.20875882 0.21026325 -0.19710529 0.18060775 -0.278896 0.062406678
00000000: c721 f93d cd8f 95bd c141 8d3d d881 3b3e
00000010: f590 043e f701 93bd e2e0 473d c2be 34be
00000020: 760f 873d e4a6 b33d 2161 093e 5b06 d63d
00000030: 8197 21be 6560 a73d 045a 463e 1f9d 1ebe
00000040: ad47 7e3d 9b1b 2d3e 493d 96be d8f0 11bd
00000050: 3ba4 bf3c 564b c13d 726e 96bd b1d9 6cbd
00000060: e970 82bd 98f4 01bd 9b6f 793e 3dc8 c6bd
00000070: 39d5 a33e d65c 4bbd c34b 2e3e eec9 103e
00000080: 6305 2ebe 4fc5 713e f59f 21bd c8e0 1fbe
00000090: fd83 c5bb f9c0 42be c10e 583d 8a3f a53d
000000a0: fbd9 69bd e871 9d3d 0dbd 6c3c c4e0 093d
000000b0: 2689 1d3d 5dcc 4f3d 267b 85be 99e4 2bbe
000000c0: c49b 18bd 751b 89bc 4da8 973d 66bd 523d
000000d0: 46b9 8fbc 43e4 a2bd 0d72 fabd c2e5 8abe
000000e0: 7ab6 5f3d db1b 0dbd 2805 a9bd 9d90 0e3e
000000f0: eb4f e7b9 8197 e53d 29a0 e6bc 2a7e 8e3d
00000100: 4562 93bd f266 fcbd f67a fbbd adbc 4abe
00000110: 153c 08bd 8379 313e 8d4d f23d 1753 22be
00000120: ff35 2cbc d0d5 383e a578 09be d050 e03d
00000130: 3a52 5c3d 6b37 71bd b5de 74be 18be 2bbe
00000140: 043b 853e 78f1 783e a167 3ebd 1ab9 1dbe
00000150: e988 fabd 69e6 dbbc 3186 0dbb 73bc a2bc
00000160: 765c b7bd 8ed2 08bb 4f18 093e 8b8e 95be
00000170: c66e c7bd 9537 55bd bacc 1a3e 18ca b7bb
00000180: 1ee5 f63c c4a4 9fbe 3762 563e 61ef 18bd
00000190: de46 03be 872f c03d 24bf 0c3e e08f e33d
000001a0: f27b 3abe bddf 13be fc50 2c3d 379f fbbc
000001b0: aff2 b7bd 12be 5f3d d10d d23c 9301 a4bd
000001c0: d942 2ebe 89d6 1fbe df25 c2bd 657a e23d
000001d0: 1b9e 2f3d de98 65be 679b 08bd 9d7c 833c
000001e0: c7ae 75bc f707 793d a357 19be 1c9a 7f3b
000001f0: 369e a7be 73a9 7f3d c35e a0bd 3ae6 b7bd
00000200: 4df9 633e 13c0 893e 0fef c93d 4320 92be
00000210: c02d 463d b7db 2d3c c3c4 0b3e 2060 243d
00000220: 7f34 4b3e 4c12 c93d 666b 3b3e 2fb5 a7bd
00000230: 05b2 b83d a4ea ea3c 01f9 923c dd9d 443e
00000240: 550e 8bbd 600d 46be ddbf e73d 1f2b f13d
00000250: f9e2 e2bd ec07 1fbe af93 22be 4ee5 01bd
00000260: 66db 0abe 613e 0cbe a7db 94bd ada6 99bd
00000270: 4013 06be 8f4f cabd 6ba0 6fbe f04e ffbc
00000280: 3965 3bbc 6e38 713d 7a3d 90bd da75 5b3d
00000290: e9fa 0bbe bed4 cc3d 9f7c d3bc 4cc5 993d
000002a0: d06a f939 1309 05be 9054 44be 2905 0bbd
000002b0: 4307 08be 7253 03be 6f24 62be 1f64 9d3d
000002c0: 407a d93d fd6a fcbd 57f4 5bbd 16ed 58bd
000002d0: 169e 5a3c b39a ecbd b8f2 0cbe 6276 9bbc
000002e0: 6a4e 4abe f1a3 2dbe 365f cfbb 0547 d83c
000002f0: 8781 8ebc 6725 b73d 242e b6bc d359 d23d
00000300: bac7 04be 1baf d8bd c58a cf3d a1c7 73bd
00000310: 97a2 14be 2c7a a83d bfd5 7b3d f25e a4bd
00000320: d6b1 bebd f937 983e be31 49bd bf0f ecbd
00000330: 708a 853c 525f 833d ebca 56be 6374 0ebe
00000340: ce92 db3d 21b5 683d 0af5 273e 1500 27be
00000350: 85c0 a53b 876c 01be e10c d53d a8e2 283e
00000360: 2466 abbc a97b bf3c 73db 1fbd af81 c9bd
00000370: f99b 16bc e006 86bd f649 f73c fc8e 88bd
00000380: bcfe 383d 5550 be3d bd3b 2ebd 427a 523d
00000390: 77ce 4b3e 1c94 033e 31de 25bc b981 ed3d
000003a0: 061a 7dbd 49dc f7bd 67bd 9f3d ccc2 453d
000003b0: 00a6 b43c 0fcf 9f3a 3662 ec3d cfb3 30be
000003c0: 2f27 19be 781f 193e 7a3d 5d3e 1e15 78bd
000003d0: ae19 7ebd da9c c83d 024d d13e 71be 2cbe
000003e0: 503f 0e3d d40f 4bbe dfc4 55be 404f 573e
000003f0: f8d5 49be 3df1 383e 75cb 8ebe 259e 7f3d

net.2.bias f4 [60]
0.050888713 0.017488366 -0.105981305 0.022065474 0.08986864 0.05601495 -0.02946939 0.0353728
-0.043811847 -0.103774026 -0.12640406 0.09195067 0.12872222 0.011601181 -0.06421956 -0.02972756
-0.07889869 -0.10811402 0.04358281 0.06356992 -0.088385314 -0.072835214 -0.06370789 -0.06681347
0.024969969 -0.12564963 0.10142724 0.12404906 0.058077864 0.09675442 -0.11568934 0.062467434
-0.061980356 0.043938942 -0.10085669 -0.040114567 0.035654314 -0.06981194 0.0016825829 -0.103395104
-0.0222022 0.12457172 -0.03496493 0.057769593 -0.11081663 -0.055433072 0.05133974 -0.08872008
0.035794355 0.072331674 -0.01641468 0.015519965 0.08115622 -0.10915937 0.01504277 0.035009693
0.0032495253 0.048911266 -0.111185424 0.052905418
00000000: af70 503d c343 8f3c ba0c d9bd a7c2 b43c
00000010: 0d0d b83d ef6f 653d ca69 f1bc 12e3 103d
00000020: 0d74 33bd 7a87 d4bd 1170 01be a250 bc3d
00000030: c2cf 033e e112 3e3c 8b85 83bd 3687 f3bc
00000040: a395 a1bd e26a ddbd e383 323d f230 823d
00000050: 5c03 b5bd a12a 95bd 4879 82bd 80d5 88bd
00000060: d28d cc3c 4caa 00be 16b9 cf3d 6f0d fe3d
00000070: 0ee3 6d3d 2e27 c63d 88ee ecbd dadd 7f3d
00000080: 1ddf 7dbd 52f9 333d f48d cebd 2c4f 24bd
00000090: 420a 123d 90f9 8ebd 1d8a dc3a d0c0 d3bd
000000a0: 63e1 b5bc 751f ff3d 6337 0fbd cf9f 6c3d
000000b0: d4f3 e2bd ca0d 63bd 9f49 523d e0b2 b5bd
000000c0: 1a9d 123d a122 943d 1478 86bc 7447 7e3c
000000d0: 3b35 a63d f38e dfbd f375 763c 5366 0f3d
000000e0: fdf5 543b 2e57 483d 2fb5 e3bd 5ab3 583d

net.5.weight f4 [1, 60]
0.20612405 -0.038701463 0.07812598 -0.10989438 -0.11139827 0.068264835 0.04343185 -0.029252077
-0.30733088 -0.23991881 -0.15540332 -0.33257762 -0.010588103 -0.18179397 -0.39983085 0.0849599
0.01763959 0.121321104 0.22082649 0.21610549 -0.07435061 0.0072202994 -0.16776384 -0.062232528
-0.18155675 -0.24488153 0.20248953 0.043129843 -0.012508226 0.23419248 0.08061835 0.0011140914
-0.23244089 -0.08395001 -0.3559422 -0.14608121 -0.025020694 -0.070967615 0.12234557 -0.047573477
-0.12535594 -0.09645796 -0.09118428 -0.04491919 -0.057034854 -0.19980103 0.06901865 0.10105613
0.16836883 0.1427272 0.03260003 0.18349494 0.024186192 -0.082461394 0.020544043 -0.045375064
0.09492744 0.061236482 -0.12225984 -0.19491045
00000000: 2f12 533e 6d85 1ebd 8400 a03d 4e10 e1bd
00000010: c724 e4bd 6fce 8b3d 98e5 313d 0da2 efbc
00000020: 795a 9dbe 47ad 75be 0c22 1fbe 9d47 aabe
00000030: b979 2dbc 3328 3abe a1b6 ccbe 75ff ad3d
00000040: e780 903c 3377 f83d 5720 623e c24a 5d3e
00000050: 2245 98bd 4398 ec3b 49ca 2bbe 89e7 7ebd
00000060: 03ea 39be 39c2 7abe 6a59 4f3e eba8 303d
00000070: 4def 4cbc 27d0 6f3e 3c1b a53d b406 923a
00000080: fc04 6ebe fced abbd 0e3e b6be 5096 15be
00000090: 33f8 ccbc 7857 91bd 5090 fa3d 68dc 42bd
000000a0: 4f5d 00be c08b c5bd d3be babd 2ffd 37bd
000000b0: 619d 69bd a498 4cbe a659 8d3d 84f6 ce3d
000000c0: e168 2c3e 1427 123e 9c87 053d 19e6 3b3e
000000d0: 1f22 c63c 85e1 a8bd fb4b a83c 34db 39bd
000000e0: 5169 c23d 1bd3 7a3d 5e63 fabd 9b96 47be
