results analysis/processed results/PINN/NASA_dqdv results/8-8/Experiment3/model.pth (torch, 61182 bytes, 14 tensors)

encoder.net.0.weight f4 [60, 18]
0	0x3de430c9	0.111421175
1	0x3e63ffba	0.2226552
2	0x3d9545a1	0.07288671
3	0x3d07e3be	0.033176176
4	0x3df44997	0.11928099
5	0x3d686e71	0.05674595
6	0xbdd4cc7a	-0.10390563
7	0x3c657238	0.014004283
8	0x3d5e6c42	0.05430246
9	0xbbb77c9e	-0.0055995723
10	0x3e2c3d23	0.16820197
11	0x3db21b5a	0.08696623
12	0xbd70543a	-0.058674075
13	0xbe41be77	-0.18920313
14	0x3dcdcd88	0.100489676
15	0x3d74fce3	0.059811484
16	0xbe4edefc	-0.2020225
17	0x3cb34912	0.021885429
18	0x3e9869cd	0.2976822
19	0x3e2266ca	0.15859523
20	0x3def2092	0.11676134
21	0xbd0d23b8	-0.034457892
22	0xbcb586ca	-0.022158999
23	0x3e206871	0.15664841
24	0x3ce37999	0.027767943
25	0xbdb3fe88	-0.08788782
26	0xbe5fd74c	-0.21859473
27	0xbdfe289a	-0.12410088
28	0xbc9aa451	-0.01887718
29	0xbd3398d4	-0.04384692
30	0x3e3b911f	0.18317078
31	0x3d47eac7	0.048807885
32	0x3c792dce	0.015208675
33	0x3e53c34e	0.20679972
34	0x3e2d6a92	0.16935185
35	0x3e502acc	0.20328826
36	0xbd9ed661	-0.07755733
37	0x3c75ce40	0.015002787
38	0xbd62048c	-0.055180117
39	0xbde3c3ec	-0.111213535
40	0xbd18a931	-0.03727073
41	0x3e293015	0.16522248
42	0x3e04a177	0.12952219
43	0xbd78b735	-0.060721595
44	0x3eae02ce	0.33986515
45	0x3e12a2e0	0.14319944
46	0xbe24ecd4	-0.16105968
47	0x3eb2d0ac	0.3492483
48	0x3dda543a	0.10660596
49	0xbe14587a	-0.14486876
50	0xbd6aa6ab	-0.057287853
51	0xbdbe7211	-0.092991
52	0xbe2d6033	-0.16931228
53	0xbd4db696	-0.050222956
54	0x3e15249e	0.1456475
55	0x3e442148	0.19153321
56	0xbed64464	-0.41849053
57	0x3dca8359	0.09888334
58	0xbe201962	-0.15634683
59	0xbce5d976	-0.028057795
60	0xbe5bb675	-0.2145632
61	0x3ccaa028	0.024734572
62	0xbdc7d644	-0.09757665
63	0x3e230882	0.15921214
64	0xbea60cca	-0.32431632
65	0xbc9d7052	-0.019218598
66	0xbd0e302e	-0.034713916
67	0x3e368773	0.17825107
68	0x3c5eacc3	0.013590994
69	0xbd93bbe7	-0.07213574
70	0x3bead31e	0.0071662804
71	0xbdad5cf1	-0.08464993
72	0x3be93d6c	0.0071179178
73	0x3c9c9087	0.019111885
74	0xbe3d2901	-0.18472673
75	0xbe3e1b17	-0.18565021
76	0x3e1d087e	0.15335271
77	0x3d949560	0.072550535
78	0xbdbc80b9	-0.092042394
79	0xbe6b644c	-0.22987479
80	0xba6a5f3e	-0.0008940584
81	0xbe3f2169	-0.18665089
82	0xbdf80cc7	-0.12111812
83	0xbe103b63	-0.14085154
84	0x3c39031c	0.011292245
85	0x3df215f1	0.11820591
86	0xbca61502	-0.02027369
87	0x3de7db66	0.11321144
88	0xbe15fb52	-0.14646652
89	0xbe09f1c6	-0.13471135
90	0x3d1445a9	0.036199246
91	0xbd0b28c8	-0.03397444
92	0x3eb053f9	0.34439066
93	0xbe2a8e43	-0.16655831
94	0x3e912717	0.28350136
95	0xb98ab805	-0.00026458516
96	0xbe5800e9	-0.21094097
97	0x3de95660	0.11393428
98	0xbca01b3d	-0.019544238
99	0xbd7d4056	-0.061828934
100	0xbd95306f	-0.072846286
101	0xbe16ddd3	-0.14733057
102	0xbef5262f	-0.47880694
103	0x3dc29412	0.095008984
104	0xbec8a673	-0.3918949
105	0x3de0cacf	0.10976183
106	0x3e65c42c	0.22438115
107	0xbe4edc1f	-0.20201157
108	0x3dcfe7f8	0.101516664
109	0xbe40612f	-0.18787073
110	0x3db1bc45	0.08678488
111	0xbe3120ba	-0.1729764
112	0xbe3ee691	-0.18642642
113	0xbe17759b	-0.14790957
114	0x3e5c6c4b	0.21525685
115	0x3c936802	0.01799393
116	0xbe287831	-0.164521
117	0x3e18f1dd	0.14936014
118	0xbd2b3b5b	-0.041804653
119	0xbd65496b	-0.05597822
120	0xbab937f9	-0.0014131061
121	0xbe989f36	-0.29808968
122	0xbd8ae4a2	-0.067818895
123	0xbc892454	-0.016740955
124	0xbd85d823	-0.065353654
125	0xbe3dd2fd	-0.18537517
126	0xbd9d2747	-0.07673507
127	0x3d286119	0.041108225
128	0x3e5d5c2c	0.21617192
129	0x3bc622a3	0.0060466095
130	0xbd290e3e	-0.041273348
131	0xbed82d3c	-0.4222201
132	0xbe0fc8d3	-0.14041452
133	0x3d090d36	0.033459865
134	0xbe61b988	-0.22043431
135	0x3d87c1f1	0.06628788
136	0x3e926506	0.285927
137	0xbe99ac37	-0.30014202
138	0xbe29112a	-0.16510454
139	0xbd897ad6	-0.06712882
140	0xbe861822	-0.26190287
141	0xbe27f96f	-0.16403745
142	0x3e26653e	0.16249558
143	0xbc9a45f6	-0.018832188
144	0xbe0a5c6b	-0.13511817
145	0xbda5fdfd	-0.08105085
146	0x3d46d62f	0.048544105
147	0x3d67cadf	0.056589957
148	0xbbf82a37	-0.007573392
149	0xbbecd975	-0.0072280713
150	0x3dbc75ce	0.09202157
151	0xbc00d68d	-0.007863653
152	0xbdb3cdf2	-0.08779515
153	0x3dc88424	0.09790829
154	0x3db0fd1d	0.086420275
155	0x3c40c91d	0.011766699
156	0x3cf0be30	0.029387563
157	0xbd0990ab	-0.03358523
158	0xbe54c331	-0.20777585
159	0xbcc3b21d	-0.023888642
160	0x3d32facd	0.043696214
161	0xbd521cb4	-0.051296905
162	0x3e307c09	0.17234816
163	0xbdda99c7	-0.10673862
164	0x3e211610	0.15731072
165	0xbe7f320a	-0.24921432
166	0xbe2067c1	-0.15664579
167	0xbc89ef30	-0.016837686
168	0xbc7f85b5	-0.015595843
169	0x3dce17c8	0.1006313
170	0xbd269bec	-0.040676042
171	0xbc2ddb81	-0.010611416
172	0xbec201c8	-0.37891984
173	0x3e083aad	0.13303633
174	0x3d8b1d60	0.06792712
175	0x3e1652d0	0.14680028
176	0xbe082b52	-0.13297775
177	0x3d305515	0.04304989
178	0x3decd523	0.1156409
179	0x3cd01df8	0.025404915
180	0x3da86224	0.08221844
181	0x3e18e9e9	0.1493298
182	0x3d350cdb	0.044201713
183	0xbc0f17ce	-0.008733703
184	0x3dd91779	0.1060018
185	0x3e756db4	0.2396763
186	0x3ec637db	0.3871449
187	0xbcb81b09	-0.022473829
188	0xbe942229	-0.28932312
189	0x3e81af4f	0.25329062
190	0x3e3fd7f7	0.18734728
191	0x3d2c57af	0.04207581
192	0xbe8a913c	-0.2706393
193	0xbe14cea8	-0.14531958
194	0xbcca1936	-0.024670225
195	0x3eae2e77	0.34019825
196	0x3df8bd99	0.12145538
197	0xbd65089f	-0.055916425
198	0x3d151f6d	0.036406923
199	0xbdf7c858	-0.120987594
200	0xbe0fa364	-0.14027172
201	0xbd8ea605	-0.069652595
202	0xbd9f138b	-0.077673994
203	0xbe1f5f23	-0.15563636
204	0xbbcb2542	-0.00619951
205	0xbe671dd7	-0.22569977
206	0x3dc0d3b7	0.094153814
207	0x3de4f48c	0.11179456
208	0x3cd10a44	0.02551759
209	0x3c7a014f	0.015259101
210	0xbe81527a	-0.25258237
211	0x3e807f78	0.2509725
212	0x3d875a50	0.066090226
213	0x3c051559	0.008122765
214	0xbccc889c	-0.024967484
215	0xbe67d09d	-0.22638173
216	0xbc8edcc1	-0.017439248
217	0xbe74c4a7	-0.23903142
218	0x3c22f79c	0.00994673
219	0xbe88afc6	-0.26696604
220	0xbd488b5e	-0.048961036
221	0xbdc2d914	-0.095140606
222	0x3e15ba19	0.14621772
223	0xbdcd3c3d	-0.10021255
224	0x3a2e238c	0.000664287
225	0x3e1f9522	0.15584233
226	0x3def1ea9	0.1167577
227	0x3e89ba12	0.26899773
228	0x3e3c7d5f	0.184072
229	0xbde79466	-0.11307602
230	0x3df39d99	0.11895294
231	0x3da6bd35	0.08141557
232	0x3d76f54c	0.060292527
233	0xbdb93fe7	-0.090453915
234	0x3dbfc222	0.093632
235	0x3d836380	0.064154625
236	0xbe396600	-0.18105316
237	0x3c055d7d	0.008139965
238	0xbdd030fe	-0.101655945
239	0x3cecc811	0.028903993
240	0xbe80f1c7	-0.2518446
241	0xbc591ebd	-0.0132519575
242	0xbe768edc	-0.24077934
243	0xbe67a0b1	-0.22619893
244	0x3e33bef0	0.17553306
245	0xbddd88a5	-0.108170785
246	0x3e65c63d	0.22438903
247	0x3e3db2f3	0.18525295
248	0xbf05f791	-0.5233088
249	0x3c4886e5	0.012239193
250	0xbe6c5983	-0.23081021
251	0xbdd008b7	-0.10157912
252	0x3da84d5c	0.0821788
253	0x3da1536b	0.07877239
254	0x3e2a283d	0.16616912
255	0x3d79236f	0.060824808

encoder.net.0.bias f4 [60]
0	0xbac00fec	-0.0014653183
1	0x3d341b04	0.043971077
2	0x3cf9424f	0.030427126
3	0x3c980b27	0.018560005
4	0x3c6e9b5d	0.014563409
5	0x3d42015b	0.047364574
6	0x3cffccd2	0.031225596
7	0xbd1e326d	-0.03862231
8	0xbcc0ef59	-0.02355163
9	0xbceb5630	-0.02872762
10	0xbd3c08aa	-0.0459067
11	0xbd611ad0	-0.05495721
12	0x3b87fa31	0.004149698
13	0xbcc64301	-0.024201872
14	0xbcb3ef27	-0.021964623
15	0x3c94f052	0.018181
16	0x3d857808	0.06517035
17	0xbccf8203	-0.02533055
18	0xbc3d3d3e	-0.011550246
19	0xbd14e5ce	-0.03635197
20	0x3cbdad0f	0.02315381
21	0xbae19ba6	-0.0017212525
22	0x3d0ec179	0.03485248
23	0xbd22785c	-0.039665565
24	0x3cdae0f4	0.026718594
25	0xbd2a8ffc	-0.04164122
26	0x3d47b563	0.04875697
27	0xbca6565a	-0.020304848
28	0x3d28b321	0.041186456
29	0x3cb0358d	0.02150991
30	0x3b0e9b02	0.0021759872
31	0xbbb2401f	-0.0054397727
32	0xbb50a1c8	-0.003183471
33	0x3d3e5b59	0.046473835
34	0x3c36a0c7	0.011146731
35	0x3d98d348	0.07462174
36	0x3ce92e33	0.028464412
37	0x3d9313fe	0.071815476
38	0xbd89c517	-0.06727045
39	0xbce67e02	-0.028136257
40	0x3a9bba0d	0.0011881009
41	0x3d01a77f	0.031653877
42	0xbca8bc56	-0.020597618
43	0xbcd7b6a6	-0.02633221
44	0x3afbd04a	0.0019211855
45	0xbb0bd702	-0.0021337871
46	0x3bdae3d5	0.0066799917
47	0x3d374733	0.044745635
48	0x3d80c7d5	0.06288115
49	0xbbfd70e0	-0.007734403
50	0xbd519e58	-0.0511764
51	0xbcdff2ef	-0.02733752
52	0xbc824443	-0.01590169
53	0x3c6c77e1	0.014432878
54	0x3cd04d37	0.025427444
55	0x3ca4f397	0.020135684
56	0x3bc6b860	0.0060644597
57	0xbd54d095	-0.05195673
58	0x3db4addb	0.08822223
59	0xbcbb92c0	-0.022897124

encoder.net.2.weight f4 [60, 60]
0	0xbb81214f	-0.0039407383
1	0x3d593f83	0.053039085
2	0xbd8a0f15	-0.06741158
3	0xbe876e3e	-0.26451296
4	0x3e18653e	0.14882371
5	0x3d9a6e3d	0.075405575
6	0x3cfb5388	0.03067948
7	0xbdaf75bf	-0.0856738
8	0xba376f40	-0.00069974735
9	0x3ca3729f	0.019952117
10	0x3e0a3f01	0.13500597
11	0x3d82a84b	0.063797556
12	0xbdd17e2f	-0.10229146
13	0xbbbb7e2f	-0.0057218294
14	0x3d852e65	0.0650299
15	0xbe114c3f	-0.14189242
16	0xbd5b5cf7	-0.053555455
17	0xbdb17336	-0.08664553
18	0xbccdfad9	-0.025144028
19	0xbbc9350d	-0.0061403573
20	0x3e21c18d	0.1579649
21	0x3d79cf60	0.060988784
22	0xbea24fe9	-0.31701592
23	0xbe2ebd32	-0.1706436
24	0x3dc4b8af	0.09605538
25	0xbc8ade07	-0.016951574
26	0xbe48d507	-0.19612513
27	0x3df4713b	0.119356595
28	0xbcbbfee9	-0.0229487
29	0xbd66edd4	-0.056379154
30	0x3e425533	0.18977813
31	0xbd8d4701	-0.068983085
32	0x3d8172b8	0.06320709
33	0xbe2d2497	-0.16908489
34	0x3e4c8091	0.19970919
35	0xbe6b4705	-0.2297631
36	0xbe27c518	-0.16383779
37	0xbcce9212	-0.025216136
38	0xbd8932ea	-0.06699164
39	0xbdb5ad85	-0.08870987
40	0xbe98ea7c	-0.29866397
41	0xbde18b40	-0.11012888
42	0x3e138bcc	0.14408797
43	0x3ddeff30	0.10888517
44	0xbc262e62	-0.010142894
45	0xbe84e0d2	-0.25952774
46	0xbd27a1c7	-0.040925767
47	0xbdaea06f	-0.08526694
48	0x3de7335f	0.11289095
49	0x3da14a14	0.078754574
50	0x3d2f8191	0.042848174
51	0xbe4ea322	-0.20179418
52	0xbdd1f4b9	-0.10251755
53	0xbd2e70a1	-0.04258788
54	0x3ea9db76	0.33175248
55	0x3e19a95b	0.1500601
56	0x3ceb3daa	0.028715927
57	0x3d48dc3e	0.049038164
58	0x3d2dfc5a	0.04247699
59	0xbc8cf7ea	-0.017208058
60	0xbe0883f5	-0.13331588
61	0xbc124e38	-0.008929782
62	0xbdc33e20	-0.09533334
63	0x3da22966	0.079180524
64	0x3e8aba8c	0.2709545
65	0xbc95c085	-0.018280277
66	0x3ccd7913	0.025082147
67	0x3d73193a	0.05935023
68	0x3c0eb150	0.008709267
69	0x3d344518	0.044011205
70	0x3ecbb71b	0.39788136
71	0xbe13d05e	-0.14434955
72	0xbcd6e2cc	-0.026231192
73	0x3db83fc7	0.089965396
74	0xbd8009e1	-0.06251884
75	0x3dbdec30	0.09273565
76	0xbe3c11ed	-0.18366213
77	0x3bf9435e	0.0076069077
78	0xbe3b0678	-0.18264186
79	0x3e0d3266	0.13788757
80	0xbda553cb	-0.08072623
81	0xbc970f33	-0.018439865
82	0x3da391a4	0.07986763
83	0xbd9affa7	-0.07568293
84	0x3e1560d8	0.14587724
85	0xbdc17490	-0.09446061
86	0x3d16b4a8	0.03679338
87	0xbd8ae742	-0.0678239
88	0xbe2bd761	-0.1678138
89	0x3d3f908c	0.04676871
90	0x3d911f20	0.07086015
91	0xbd45e6e2	-0.04831589
92	0xbd407f73	-0.046996545
93	0xbe02fde0	-0.12792158
94	0x3e7f5d5f	0.24937962
95	0xbcab6036	-0.0209199
96	0xbdfbe5a5	-0.122996606
97	0x3c5f1076	0.013614764
98	0xbe87d1ad	-0.26527157
99	0x3e682b68	0.22672808
100	0x3cb2b852	0.021816406
101	0x3d64b03d	0.055832136
102	0x3e38c0e9	0.1804234
103	0x3cafdd8b	0.021467945
104	0xbcec3b04	-0.028836735
105	0x3d47ac6b	0.048748415
106	0xbd73ada9	-0.059491787
107	0xbe14065f	-0.14455555
108	0xbe983e4e	-0.29735035
109	0x3d81a7b2	0.063308135
110	0x3cdb17c7	0.026744736
111	0xbdad9a16	-0.08476655
112	0xbe2bdf7f	-0.16784476
113	0x3dd1657e	0.10224436
114	0x3dc49808	0.0959931
115	0x3df45472	0.11930169
116	0xbd52dddc	-0.051481113
117	0x3db41091	0.08792222
118	0xbe1c2af8	-0.15250766
119	0x3e3ea48b	0.18617456
120	0xbd2ff399	-0.042956922
121	0x3dec806c	0.11547932
122	0x3eb99c30	0.36251974
123	0xbebd9540	-0.3702793
124	0x3a266df9	0.00063487847
125	0x3de82131	0.11334456
126	0x3cf9ea6d	0.03050729
127	0x3cc007d1	0.023441227
128	0x3e300b6e	0.1719186
129	0xbc2ae621	-0.010430844
130	0x3c1f4abf	0.009722411
131	0x3e2dcdaf	0.16972993
132	0x3d1a8f35	0.03773423
133	0xbd05028e	-0.03247314
134	0xbe2619a7	-0.16220723
135	0xbe773b35	-0.2414368
136	0xbe249486	-0.16072282
137	0xbd61375a	-0.054984428
138	0x3ca2ca63	0.019871896
139	0xbc29e176	-0.0103686955
140	0x3dc063e2	0.09394051
141	0x3dce5279	0.10074324
142	0x3d84c749	0.06483323
143	0x3c0e46ac	0.008683842
144	0xbd935383	-0.07193663
145	0xbd631502	-0.055439956
146	0x3d801431	0.06253851
147	0xbe2ce9e0	-0.16886091
148	0x3dbc6d91	0.09200586
149	0xbe1993f1	-0.14997841
150	0xbd070d65	-0.03297176
151	0xbdac7112	-0.08420004
152	0xbe31cac6	-0.17362508
153	0x3d1f25bb	0.038854342
154	0x3ce8333b	0.028344741
155	0x3c081873	0.00830661
156	0xbd4fed6d	-0.050763536
157	0x3e2e999a	0.17050782
158	0xbcb5a7e6	-0.022174787
159	0xbde4117c	-0.111361474
160	0xb8e32d37	-0.000108326254
161	0x3ddb07cc	0.106948465
162	0xbe38d471	-0.1804979
163	0xbdc0fdbf	-0.09423398
164	0x3dc231ef	0.0948218
165	0x3d4e1a3c	0.050317988
166	0xbe049aeb	-0.12949722
167	0xbab20b12	-0.0013583621
168	0x3e27efdf	0.16400097
169	0xbdf5ea7f	-0.12007617
170	0x3c4757e4	0.012166951
171	0xbd734702	-0.05939389
172	0xbdebb0dc	-0.115083426
173	0xbd6c9e14	-0.057767943
174	0xbce7ee77	-0.028311951
175	0xbd9bbf0c	-0.07604799
176	0x3c187812	0.009305971
177	0x3d695338	0.05696413
178	0x3e137e62	0.1440368
179	0xbdc3873e	-0.0954728
180	0xbde16a8d	-0.11006651
181	0x3e9599c2	0.2921887
182	0xbccad964	-0.024761863
183	0x3d45dd65	0.04830684
184	0xbdebd266	-0.1151474
185	0x3daee097	0.08538931
186	0x3c06e5b6	0.008233478
187	0x3ca95109	0.020668523
188	0x3cbdce75	0.023169735
189	0xbd8839fa	-0.06651683
190	0x3d12ee4b	0.035871785
191	0x3e3b7fea	0.18310514
192	0xbe05f0ac	-0.1308009
193	0xbe14d8a6	-0.1453577
194	0xbe203f03	-0.15649037
195	0xbd9cdf5b	-0.07659789
196	0x3d892224	0.06695965
197	0x3db6270c	0.08894166
198	0xbe494e3c	-0.1965875
199	0x3e530bd1	0.20609976
200	0x3d320165	0.04345836
201	0xbe2962d9	-0.16541614
202	0x3e277689	0.16353811
203	0xbe255e33	-0.16149215
204	0xbdd1106d	-0.10208211
205	0xbd8b0235	-0.0678753
206	0x3e87eb07	0.265465
207	0x3da169f6	0.078815386
208	0x3d8361d3	0.06415143
209	0xbcdee0fd	-0.027206892
210	0x3e62374a	0.22091404
211	0xbe26215f	-0.16223668
212	0xbdd6bc57	-0.10485142
213	0x3e03d8d2	0.12875679
214	0xbc9db61a	-0.019251872
215	0xbdae2643	-0.085033916
216	0xbd2f8ed8	-0.042860836
217	0xbcb071ee	-0.0215387
218	0x3def82b3	0.11694851
219	0xbc3c97fb	-0.011510844
220	0xbd90f3d5	-0.07077757
221	0xbdbb9611	-0.09159482
222	0x3d40fd06	0.047116302
223	0x3db7de24	0.08977917
224	0x3d0095b0	0.031392753
225	0xbc9cd5b0	-0.019144863
226	0xbc947ff7	-0.018127425
227	0x3ca60319	0.020265149
228	0xbe04bc4e	-0.12962458
229	0x3e04fc3e	0.12986848
230	0x3e588f24	0.21148354
231	0x3cabdd60	0.020979583
232	0x3c65fb0d	0.014036906
233	0xbdc47acf	-0.095937364
234	0x3c04f39b	0.008114721
235	0x3e442fbb	0.19158833
236	0xbe897d25	-0.2685329
237	0x3cf19cd3	0.029493725
238	0xbe249311	-0.16071726
239	0xbe0f0604	-0.13967139
240	0xbd80c0f1	-0.06286801
241	0xbdeb1e24	-0.11480358
242	0xbc519c12	-0.012793558
243	0x3d6180ca	0.055054463
244	0x3c641a29	0.013922253
245	0xbdade0a7	-0.08490115
246	0xbd859b35	-0.06523744
247	0x3e209df7	0.15685259
248	0x3dd228ec	0.102617115
249	0x3d06a7c6	0.032874845
250	0x3d1a0df1	0.03761095
251	0x3e16e994	0.1473754
252	0xbe0ed8f2	-0.13949946
253	0x3d81a323	0.06329944
254	0x3e2bc1d6	0.16773161
255	0x3d667b14	0.05626972

encoder.net.2.bias f4 [60]
0	0x3d40173a	0.04689715
1	0xbd32f984	-0.043694988
2	0x3d1ae517	0.037816133
3	0xbcec720d	-0.028862977
4	0xbd3cf0a1	-0.04612792
5	0x3d908373	0.07056322
6	0x3d0cba13	0.03435714
7	0xbd2d389b	-0.04229031
8	0xbd0347c5	-0.032050867
9	0x3d2f29fe	0.042764656
10	0xbd058f8b	-0.032607596
11	0x3ced1405	0.02894021
12	0xbcb70383	-0.022340542
13	0x3c64b93e	0.013960181
14	0xbd57d2a7	-0.052691128
15	0x3d0d7f36	0.034545146
16	0xbc5ca145	-0.013466184
17	0xbd96c1fc	-0.07361218
18	0x3d2812ae	0.04103344
19	0x3ce79698	0.02827005
20	0x3bef7f5d	0.007308884
21	0x3d0798ea	0.033104815
22	0xbd6a9811	-0.057273928
23	0x3d2188a8	0.039436966
24	0xbd302bca	-0.04301051
25	0x3d027c29	0.03185669
26	0xbd55b170	-0.05217117
27	0x3d454e72	0.048170514
28	0x3ce59f15	0.028029958
29	0xbccbdb4d	-0.024884844
30	0xbc122e16	-0.008922121
31	0xbcefa794	-0.029254712
32	0xbd0cb3e3	-0.03435124
33	0x3d419056	0.04725679
34	0xbc1b4f0b	-0.0094792945
35	0x3ca39311	0.019967588
36	0xbcaa1a2e	-0.020764437
37	0x3d666a34	0.056253627
38	0xbc262ee4	-0.0101430155
39	0x3d3f9015	0.046768267
40	0xbcd86807	-0.026416792
41	0xbb7b3bb6	-0.003833515
42	0x3d0da55e	0.034581535
43	0x3c9c177e	0.01905417
44	0xbad91562	-0.0016562159
45	0x3cb1ceac	0.021704994
46	0xbc773c23	-0.015090021
47	0xbb0c711c	-0.0021429723
48	0xbd48a067	-0.048981097
49	0x3d0fafc4	0.035079733
50	0xbccd023a	-0.025025476
51	0x3b9219fd	0.0044586645
52	0xbd313c27	-0.043270256
53	0xbd4e452f	-0.050358947
54	0x3b542f5d	0.0032376864
55	0xbd774c98	-0.06037578
56	0xbc873e99	-0.016509341
57	0xbd55799d	-0.052117933
58	0xbcc9ef00	-0.024650097
59	0xbd42ea30	-0.04758662

encoder.net.5.weight f4 [34, 60]
0	0x3cfa96a3	0.030589407
1	0x3d962a08	0.073322356
2	0x3cd1b69b	0.025599768
3	0xbe09b40b	-0.13447587
4	0x3cefafec	0.02925869
5	0xb9356e65	-0.0001730263
6	0x3d25fac3	0.040522348
7	0xbd9ff7bb	-0.07810923
8	0x3e593f51	0.2121556
9	0xbcdff8b6	-0.027340274
10	0xbacba7f6	-0.0015537727
11	0xbe2a1820	-0.16610765
12	0x3ae2fe7a	0.0017318272
13	0xbd391726	-0.04518809
14	0x3e9dd23c	0.3082446
15	0xbb5246c5	-0.003208564
16	0xbeaeb84d	-0.34124985
17	0x3a7a241f	0.00095421256
18	0x3e721b4e	0.23643228
19	0x3e03e535	0.12880404
20	0xbdf84315	-0.1212217
21	0x3e9b7e9f	0.30370042
22	0x3e13318c	0.1437437
23	0xbd8231cf	-0.063571565
24	0x3ccfb4a0	0.025354683
25	0xbd803f2c	-0.06262049
26	0xbd70cc70	-0.058788717
27	0x3e38a8fe	0.18033215
28	0xbd3e9715	-0.0465308
29	0xbe8a58b3	-0.27020797
30	0x3d513815	0.051078875
31	0xbdede135	-0.116152205
32	0xbe7394fe	-0.23787305
33	0x3d76f127	0.060288575
34	0x3da530a9	0.08065922
35	0xbe6d7c0a	-0.23191848
36	0x3ea44719	0.32085493
37	0xbe4ab058	-0.19793832
38	0xbdc97599	-0.09836883
39	0xbda35e07	-0.07976919
40	0xbd95cd63	-0.07314565
41	0x3dde1871	0.108445056
42	0xbe1d8129	-0.15381302
43	0xbd070423	-0.03296293
44	0x3e7aa6fb	0.2447776
45	0xbe5243fd	-0.20533748
46	0x3cb84bf1	0.02249715
47	0x3d92515b	0.071444236
48	0xbe0dc0fa	-0.13843146
49	0xbbab6bc5	-0.005231353
50	0x3e0e7d52	0.13914993
51	0xbe6f9a60	-0.23398733
52	0xbc876fec	-0.01653286
53	0xbcc23ebb	-0.023711553
54	0x3e30857f	0.17238425
55	0xbea00f56	-0.312617
56	0x3e298272	0.16553667
57	0x3cb1c6f0	0.021701306
58	0xbd082d1b	-0.03324614
59	0xbd11a989	-0.035562072
60	0xbe2db181	-0.16962244
61	0x3df41e63	0.11919858
62	0x3d00796c	0.031365797
63	0x3e101fbd	0.14074607
64	0xbd9d2d39	-0.07674641
65	0x3d42ffa1	0.047607068
66	0xbcf91882	-0.030407194
67	0xbded48f1	-0.11586178
68	0x3d395744	0.04524924
69	0xbdcac117	-0.0990011
70	0xbd90a4cb	-0.07062682
71	0xbdf16ef0	-0.11788738
72	0xbda6392d	-0.08116374
73	0x3d95097f	0.07277202
74	0xbcbbb765	-0.022914598
75	0xbe86fe34	-0.26365817
76	0x3e74dc69	0.23912205
77	0x3e4ab35f	0.19794987
78	0x3c998b01	0.01874304
79	0xbd12c283	-0.035830032
80	0xbdfedd4a	-0.12444551
81	0xbd5f4ef4	-0.054518655
82	0xbe630d8f	-0.22173141
83	0xbdea9002	-0.114532486
84	0x3e630b04	0.22172171
85	0x3c295291	0.010334627
86	0x3e8cf4f6	0.2753064
87	0xbe1ed6be	-0.15511605
88	0x3d956918	0.07295436
89	0xbc291f6a	-0.010322431
90	0xbe380af3	-0.17972927
91	0x3e143f6b	0.14477317
92	0x3d8ccf30	0.068754554
93	0x3e150352	0.14552048
94	0xbe001abf	-0.12510203
95	0x3e03c599	0.12868346
96	0x3e2cd7bb	0.1687917
97	0xbd4cd511	-0.050007883
98	0xbdac59af	-0.08415543
99	0xbd126261	-0.035738353
100	0xbe0021af	-0.1251285
101	0x3dc458aa	0.09587224
102	0x3e09beed	0.13451739
103	0xbe0f1dbe	-0.1397619
104	0x3e120099	0.1425804
105	0x3df25a59	0.11833639
106	0xbd94afe7	-0.07260113
107	0x3dff5ffc	0.124694794
108	0xbcdb52da	-0.026772905
109	0x3d20a348	0.039218217
110	0xbd59e1a4	-0.053193703
111	0x3c9f2431	0.019426437
112	0x3d8a8279	0.06763167
113	0xbe0bd2f3	-0.1365469
114	0xbe1eaaa0	-0.15494776
115	0x3e0f01be	0.13965508
116	0x3d8ef663	0.06980588
117	0x3d617b97	0.055049505
118	0x3eae3c9e	0.34030622
119	0x3c7670c9	0.0150415385
120	0x3da2b606	0.079448745
121	0xbe806eb3	-0.25084457
122	0xbd434951	-0.04767734
123	0xbdbfaa23	-0.09358623
124	0xbbda338f	-0.0066589783
125	0xbdc3ec3b	-0.09566542
126	0xbe8979f7	-0.26850864
127	0x3e808526	0.25101584
128	0xbd913838	-0.07090801
129	0xbdb9debb	-0.090756856
130	0x3dae5f51	0.08514274
131	0x3d636539	0.055516455
132	0x3e31bc89	0.17357077
133	0xbe8119f3	-0.2521511
134	0xbe52a7f9	-0.20571889
135	0x3e1062c1	0.14100172
136	0xbe6bebac	-0.2303912
137	0x3dba72fc	0.09103963
138	0x3e516218	0.20447576
139	0xbe30ce38	-0.17266166
140	0x3e3ab6b7	0.18233763
141	0xbce52b38	-0.02797471
142	0x3cd03b23	0.025418824
143	0xbdccbffa	-0.09997554
144	0xbd1de346	-0.038546823
145	0x3ccd4a23	0.025059765
146	0x3e48af43	0.19598107
147	0xbc5e3e6d	-0.013564688
148	0xbd070133	-0.032960128
149	0xbd6f6969	-0.058450136
150	0xbc789587	-0.015172369
151	0xbe199028	-0.14996397
152	0xbe2a550f	-0.1663401
153	0xbe17076b	-0.14748923
154	0xbe7f9f8b	-0.24963205
155	0xbd8c65fe	-0.06855391
156	0xbd305715	-0.043051798
157	0xbdac2b35	-0.084066786
158	0xbda959c1	-0.08269072
159	0xbd7b3676	-0.061331235
160	0xbe51b565	-0.20479353
161	0x3e63f841	0.2226267
162	0x3da7ea08	0.08198935
163	0x3d4b5c4a	0.04964856
164	0xbd17d945	-0.03707244
165	0xbd35fb28	-0.044428974
166	0xbd9c525c	-0.07632896
167	0x3e1a0d95	0.15044244
168	0xbe649287	-0.22321521
169	0xbe8172ce	-0.25282902
170	0x3e12c6bb	0.14333622
171	0x3e8847ee	0.26617378
172	0xbd644920	-0.0557338
173	0x3db8991b	0.090135776
174	0xbe92671a	-0.28594285
175	0xbc90e7d4	-0.01768867
176	0xbe1c3d66	-0.15257797
177	0x3dca97a9	0.09892208
178	0xbd8f7102	-0.070039764
179	0xbe2ba802	-0.16763309
180	0xbea11f36	-0.31469125
181	0x3dc961ca	0.09833105
182	0xbeb3f511	-0.35147908
183	0x3d363649	0.044485364
184	0x3d12483d	0.035713423
185	0xbdedeb2e	-0.116171226
186	0xbe019da8	-0.12657797
187	0x3ea5ced4	0.3238436
188	0x3d04c2dc	0.032412395
189	0xbbc58b85	-0.006028595
190	0xbb8b09d9	-0.0042431173
191	0xbe1d8223	-0.15381674
192	0x3ce09e48	0.027419224
193	0x3e30542c	0.17219609
194	0x3e11f67c	0.14254183
195	0x3d8ebfb9	0.06970162
196	0x3e15dd8c	0.14635295
197	0x3c460f26	0.012088573
198	0xbe4447a9	-0.19167961
199	0xbc798b4d	-0.015230966
200	0xbd2d0aec	-0.042246744
201	0x3de950c6	0.113923594
202	0xbdd5a114	-0.10431114
203	0x3e01ac0c	0.12663287
204	0x3d4ad32f	0.049517807
205	0xbdd0e326	-0.10199575
206	0x3cd03f83	0.02542091
207	0x3e516054	0.20446903
208	0xbdbda35d	-0.09259675
209	0x3e564b27	0.20927106
210	0x3e6c50ce	0.230777
211	0xbdbd66e2	-0.09248139
212	0x3e05304d	0.13006707
213	0xbdc56312	-0.09638037
214	0x3d49defa	0.049284913
215	0xbbd91c98	-0.006625723
216	0xbdd474a7	-0.10373812
217	0xbed89242	-0.42299086
218	0xbc7d427a	-0.015457744
219	0x3c974dec	0.018469773
220	0xbd4d8a03	-0.050180446
221	0xbeb7683e	-0.35821718
222	0xbdfd69d4	-0.12373701
223	0x3e3edd61	0.18639137
224	0xbde4326b	-0.11142429
225	0x3d7731ae	0.060350113
226	0xbe43271e	-0.19057891
227	0xbe1ce732	-0.15322569
228	0xbe84b79e	-0.2592134
229	0xbe1fa976	-0.15591988
230	0xbe3d283b	-0.18472378
231	0xbc835840	-0.016033292
232	0xbdf1f983	-0.11815169
233	0xbc14126c	-0.009037595
234	0xbdd8306e	-0.10556112
235	0xbdfab19c	-0.122409075
236	0xbd965b2f	-0.07341611
237	0xbd2766be	-0.040869467
238	0xbe086c3c	-0.13322538
239	0x3e44c09b	0.19214098
240	0x3d573bfe	0.052547447
241	0x3d9eb423	0.07749202
242	0xbe0789a3	-0.13236098
243	0x3df90892	0.12159838
244	0xbcdc9993	-0.026928699
245	0x3dde9500	0.10868263
246	0x3b4073a4	0.0029365802
247	0xbe028ca3	-0.12748961
248	0xbce5e98b	-0.028065464
249	0x3e2f210f	0.17102455
250	0xbea14430	-0.31497335
251	0xbce7c3a3	-0.028291529
252	0xbd681d1e	-0.056668393
253	0x3d29ef23	0.041487824
254	0xbdb5fabe	-0.08885716
255	0x3e161da5	0.14659746

encoder.net.5.bias f4 [34]
0	0xbcd51cb4	-0.026014663
1	0xbd37cdf7	-0.044874158
2	0xbd439fae	-0.047759704
3	0xbd17d58d	-0.037068892
4	0x3d03831a	0.03210745
5	0xbc274dd1	-0.010211424
6	0x3cb28f9d	0.021796996
7	0x3d59cb31	0.053172294
8	0x3d632ecc	0.05546455
9	0xbd987bcb	-0.07445487
10	0x3d7b27c6	0.061317228
11	0x3d2af1ef	0.041734632
12	0xbc42884e	-0.011873318
13	0xbd4c8f3d	-0.04994129
14	0xbd334ebb	-0.043776255
15	0xbd1e8dcd	-0.03870945
16	0x3d0f95b3	0.035054874
17	0xbd72b80c	-0.059257552
18	0x3cb47b6e	0.022031512
19	0x3d2ec750	0.042670548
20	0xbd38c8bb	-0.045113306
21	0x3d0da303	0.03457929
22	0x3d03b459	0.032154415
23	0xbcb4581e	-0.022014674
24	0xbd93c3af	-0.07215058
25	0xbd15ff4e	-0.03662043
26	0x3d0074ea	0.031361498
27	0xbcad44d1	-0.021150978
28	0x3d25deac	0.04049556
29	0xbd2593e7	-0.040424254
30	0xbdc40b9d	-0.095725276
31	0xbcbed8a2	-0.023296658
32	0xbcece021	-0.028915467
33	0xbbafb635	-0.005362297

predictor.net.1.weight f4 [32, 34]
0	0xbdd9eea1	-0.10641218
1	0xbdba0e33	-0.090847395
2	0xbe2022cf	-0.15638278
3	0x3da8b62a	0.0823787
4	0xbdb6f888	-0.08934122
5	0x3ed3cce6	0.41367263
6	0x3e146109	0.14490141
7	0x3e3bf0e0	0.18353605
8	0xbd8fe085	-0.070252456
9	0xbe72f1a1	-0.23724987
10	0xbe4276a1	-0.18990566
11	0xbe0e17ab	-0.13876216
12	0xbd480dbf	-0.048841234
13	0x3e6d6523	0.23183112
14	0x3e064e3d	0.13115783
15	0x3d3758d0	0.044762433
16	0x3e017c9f	0.12645195
17	0x3c74d1e2	0.014942618
18	0x3e126459	0.14296092
19	0x3d01920a	0.031633414
20	0x3d55992d	0.052148033
21	0xbe5839b9	-0.2111577
22	0xbd13fae2	-0.036127932
23	0xbe04458b	-0.12917154
24	0x3c498afc	0.012301203
25	0xbd280135	-0.041016776
26	0xbd08dbfb	-0.033412915
27	0xbda4f1f9	-0.08053965
28	0xbe131f36	-0.14367375
29	0x3d954aed	0.072896816
30	0xbda9edc8	-0.08297306
31	0xbd75444d	-0.05987959
32	0xbd1c09ee	-0.038095407
33	0xbc8eb8a7	-0.017422033
34	0x3df48b18	0.119405925
35	0xbdf72f1f	-0.120695345
36	0xbe37d754	-0.17953235
37	0x3dbe462b	0.09290727
38	0xbc4b1a90	-0.01239647
39	0xbeb4772c	-0.3524717
40	0x3e5b8e10	0.21440911
41	0xbbc84835	-0.0061121234
42	0xbdfafd0a	-0.122552946
43	0x3e164208	0.14673626
44	0x3dcfe12c	0.1015037
45	0x3df1b9c7	0.11803012
46	0x3efc4cf2	0.49277455
47	0xbdeaf29d	-0.11472056
48	0xbd9256c6	-0.07145457
49	0xbc717388	-0.014737017
50	0x3ee89260	0.45424175
51	0x3c89a7ab	0.016803583
52	0x3dbbb54e	0.091654405
53	0x3e74ea05	0.23917396
54	0x3e0e53b8	0.13899124
55	0x3d493c40	0.049129725
56	0xbdf139e0	-0.11778617
57	0xbd816105	-0.06317333
58	0x3cc9984e	0.024608757
59	0xbe962459	-0.29324606
60	0xbd1c9542	-0.03822828
61	0x3d95e8e0	0.07319808
62	0x3e6624bb	0.22474949
63	0x3ead7779	0.33880213
64	0xbded9f84	-0.11602691
65	0x3d2ae5b8	0.041722983
66	0x3cc8f954	0.024532951
67	0x3e2dfb55	0.16990407
68	0x3e9ef9ec	0.3105005
69	0x3b4c2343	0.0031148947
70	0xbe0660d5	-0.13122876
71	0xbe11f42d	-0.14253302
72	0x3caeb86b	0.021328172
73	0xbe717849	-0.23581041
74	0x3ea552b8	0.32289672
75	0x3dcf56e0	0.10123992
76	0xbf034d65	-0.5128997
77	0x3d4a4f52	0.049392052
78	0x3deff9bf	0.11717557
79	0x3e83ca53	0.257403
80	0x3e452760	0.19253302
81	0xbe41fed9	-0.18944873
82	0xbdf9bcb2	-0.12194194
83	0x3e90b95c	0.28266418
84	0xbe081b16	-0.13291582
85	0xbef0aa9a	-0.4700516
86	0x3e52a560	0.20570898
87	0x39372e6e	0.00017469536
88	0xbe0bc2ed	-0.13648577
89	0xbe35f71c	-0.17770046
90	0x3e657eaa	0.224116
91	0x3daeef96	0.08541791
92	0x3d65f5e9	0.05614272
93	0xbe25df83	-0.16198544
94	0xbd24ac57	-0.04020342
95	0x3e9ce133	0.30640563
96	0x3e1b1310	0.1514399
97	0xbe85dcfc	-0.2614516
98	0x3d6dd0ca	0.058060445
99	0xbe6732b3	-0.22577934
100	0xbccd2b51	-0.025045069
101	0x3c514212	0.0127721
102	0xbd586eb5	-0.052839953
103	0xbc372d70	-0.011180267
104	0x3e679c8d	0.22618313
105	0xbe547b54	-0.20750171
106	0x3d188540	0.037236452
107	0xbdf0c413	-0.11756148
108	0xbe3ca3d3	-0.18421869
109	0x3d1a0e29	0.03761116
110	0x3dd31341	0.10306407
111	0x3db24e7f	0.08706378
112	0xbc0462f4	-0.008080233
113	0x3df51dfd	0.119686104
114	0xbe46263b	-0.19350521
115	0xbe554ffb	-0.20831291
116	0x3e516b06	0.20450982
117	0x3c28275b	0.010263289
118	0xbe6ddb57	-0.23228203
119	0xbd79b1b0	-0.06096047
120	0xbde431af	-0.11142289
121	0xbe5502d5	-0.20801862
122	0xbe556684	-0.20839888
123	0x3e3718fa	0.17880622
124	0xbda64425	-0.08118466
125	0x3ec2fc8f	0.38083312
126	0xbcf082ef	-0.029359309
127	0xbdd2dfe3	-0.10296609
128	0x3d377266	0.044786833
129	0xbe05e157	-0.13074242
130	0xbe44f928	-0.1923567
131	0x3e54ab27	0.20768414
132	0xbcea2599	-0.028582381
133	0xbdf8c3fb	-0.12146755
134	0xbdcfdabb	-0.101491414
135	0x3ea48a28	0.32136655
136	0x3e641d68	0.22276843
137	0x3d549f91	0.051909987
138	0xbe1fcd63	-0.15605693
139	0xbe917880	-0.28412247
140	0xbc2728a2	-0.010202559
141	0x3e680934	0.2265976
142	0x3da36b21	0.079794176
143	0x3ea56524	0.32303727
144	0x3d282a17	0.041055765
145	0xbe0bff4a	-0.13671604
146	0x3e67fcec	0.22655076
147	0xbe4edd27	-0.2020155
148	0x3dec25c7	0.11530643
149	0xbe4b71f1	-0.19867684
150	0xbd2e5c69	-0.042568598
151	0xbd460af0	-0.048350275
152	0x3d9dda08	0.07707602
153	0x3e061ab5	0.13096125
154	0xbdb3845a	-0.087654784
155	0xbd6b543a	-0.05745337
156	0xbe9e2f8f	-0.3089566
157	0x3e7c5771	0.24642731
158	0xbda55315	-0.08072487
159	0xbd7356b6	-0.059408866
160	0xbe06d7ab	-0.13168208
161	0x3d0944b4	0.033512786
162	0x3dea079d	0.11427233
163	0xb913ab5c	-0.00014082849
164	0xbebe39d4	-0.37153494
165	0x3e9aa713	0.30205593
166	0x3eba9476	0.36441392
167	0xbcba3af5	-0.022733191
168	0x3ec5d1bc	0.38636577
169	0x3e428ddb	0.18999426
170	0x3e1374ce	0.14400026
171	0x3ea7f82a	0.32806522
172	0x3d1ce911	0.038308207
173	0xbde82b51	-0.11336387
174	0x3d5e1138	0.05421564
175	0xbc2bbf58	-0.010482632
176	0xbe599c55	-0.21251042
177	0x3e11e5e5	0.14247854
178	0x3eac15ac	0.33610284
179	0x3e43d63f	0.19124697
180	0xbb309ee4	-0.0026950175
181	0xbd9fc07c	-0.07800385
182	0x3d10fdc9	0.03539828
183	0x3e0c8084	0.137209
184	0xbe025438	-0.1272744
185	0x3e360d9e	0.17778632
186	0xbbff98d4	-0.007800201
187	0x3e7f25b3	0.24916725
188	0xbd27b9ec	-0.040948793
189	0x3cba252f	0.022722809
190	0x3e4749f5	0.19461806
191	0x3dec63af	0.11542451
192	0x3ea9267b	0.3303717
193	0xbd12ae25	-0.03581061
194	0x3d24b39e	0.04021036
195	0xbed480a6	-0.415044
196	0x3e445c03	0.19175725
197	0x3d41a9a7	0.047280934
198	0x3e9c1a45	0.30488792
199	0xbe3c85bc	-0.1841039
200	0xbe126537	-0.14296423
201	0x3e84c6c3	0.25932893
202	0x3df3810a	0.118898466
203	0x3e5d57a4	0.21615463
204	0x3d4e37c8	0.050346166
205	0x3daf7d7a	0.08568855
206	0x3d4b8531	0.049687568
207	0xbe2ace35	-0.16680224
208	0x3d81f584	0.063456565
209	0x3d15dda4	0.036588326
210	0x3b239391	0.0024959783
211	0xbdc0ccf8	-0.09414095
212	0xbdaa9905	-0.083299674
213	0xbdcc8f03	-0.09988215
214	0xbe856db4	-0.2606026
215	0xbe93bd30	-0.28855276
216	0xbe8b809b	-0.27246556
217	0xbe04217c	-0.12903398
218	0xbd6de012	-0.05807502
219	0xbc4ab49f	-0.012372165
220	0x3cc79ab8	0.024365768
221	0xbc276f4d	-0.010219407
222	0x3e079866	0.13241729
223	0x3e6782de	0.22608516
224	0xbdb52515	-0.088449635
225	0xbd299f2b	-0.04141156
226	0xbd980857	-0.07423466
227	0xbde5f740	-0.112288
228	0x3d85f969	0.06541712
229	0xbd9353ff	-0.07193755
230	0xbe1c5fe5	-0.15270956
231	0x3da97b4b	0.082754694
232	0xbd451dfa	-0.04812429
233	0x3e0f0073	0.13965015
234	0xbeb15732	-0.34636837
235	0xbe2ce251	-0.16883208
236	0xbedb4a62	-0.42830187
237	0xbc811ed0	-0.015761763
238	0xbe78b40d	-0.24287434
239	0x3e45b6c4	0.19308001
240	0xbd8e1ac9	-0.069387026
241	0x3e214bf7	0.15751635
242	0xbe1dbeb8	-0.15404785
243	0xbe330b49	-0.17484774
244	0x3e9fb22a	0.31190616
245	0xbf1288fe	-0.57240283
246	0x3e73381f	0.23751877
247	0xbe034ed5	-0.12823041
248	0xbe03a383	-0.12855344
249	0xbec3d35a	-0.38247186
250	0x3c6e4f5c	0.014545288
251	0xbd670f89	-0.0564113
252	0xbee2527b	-0.44203553
253	0xbee41ea2	-0.4455462
254	0xbd514355	-0.051089603
255	0x3d5bb95a	0.053643562

predictor.net.1.bias f4 [32]
0	0x3dabcaf0	0.08388317
1	0xbd6c26e1	-0.057654265
2	0xbd8fb4b3	-0.070168875
3	0x3db7c35a	0.08972807
4	0x3d6f3a30	0.0584051
5	0xbd995775	-0.07487384
6	0x3d8a3135	0.06747667
7	0x3d957806	0.07298283
8	0xbd5c234b	-0.053744595
9	0x3db38009	0.08764655
10	0xbc919b37	-0.017774208
11	0x3d535179	0.05159137
12	0x3da35e5d	0.07976983
13	0xbd842989	-0.06453235
14	0x3d863e4d	0.06554852
15	0x3d877586	0.06614213
16	0x3d85d196	0.06534116
17	0x3d9db585	0.07700638
18	0x3d93f74a	0.07224901
19	0x3c76bc51	0.015059547
20	0xbd3486a2	-0.04407371
21	0xbdc58c85	-0.096459426
22	0x3d8b7089	0.06808574
23	0x3d4f6114	0.05062969
24	0x3d084d92	0.0332771
25	0x3db3268e	0.08747588
26	0x3cf8660f	0.030322103
27	0xbd6c6e4c	-0.057722375
28	0xbd868246	-0.065678164
29	0x3d64c95a	0.055856086
30	0xbd8a178b	-0.06742772
31	0x3d8f8cde	0.0700929

predictor.net.3.weight f4 [1, 32]
0	0x3e62c88a	0.22146812
1	0xbe67796d	-0.22604914
2	0xbd3babfe	-0.04581832
3	0x3e1d6e46	0.15374097
4	0x3e0a3e8d	0.13500424
5	0xbd8db8f7	-0.06920045
6	0x3db67893	0.089097165
7	0x3d91928d	0.071080305
8	0xbd610bf9	-0.05494306
9	0x3ebbedcd	0.36704865
10	0xbe6b4894	-0.22976905
11	0x3e1464a6	0.1449152
12	0x3e9932a1	0.2992144
13	0xbe41a437	-0.18910299
14	0x3d3631ca	0.044481076
15	0x3e56e04f	0.20984004
16	0x3e38a091	0.18030001
17	0x3dde385a	0.10850592
18	0x3eec163b	0.4611071
19	0x3b9e652f	0.0048338394
20	0xbe86be43	-0.26317033
21	0xbdfcda60	-0.12346339
22	0x3e4c34c0	0.19941998
23	0xbc9a19c0	-0.018811107
24	0x3e00cf58	0.12579095
25	0x3c5d3d35	0.013503362
26	0xbb6d2547	-0.003618555
27	0xbec1855e	-0.37797064
28	0xbe3ceeb0	-0.18450427
29	0x3e985013	0.29748592
30	0xbdab74ce	-0.08371888
31	0x3f0819b3	0.53164214

net.0.weight f4 [60, 37]
0	0xbccc7ed2	-0.024962816
1	0x3d39b702	0.045340545
2	0xbe9a0cd7	-0.3008792
3	0x3e74faea	0.23923841
4	0xbe0b2f5b	-0.13592283
5	0xbedeb33f	-0.4349613
6	0x3e08f5f7	0.13375078
7	0xbd0870e1	-0.033310775
8	0xbd724435	-0.05914708
9	0x3d8b3881	0.06797887
10	0x3da4af7e	0.08041285
11	0xbd165800	-0.036705017
12	0x3f1d88b0	0.61536694
13	0xbd1704bd	-0.036869753
14	0xbdcb9786	-0.0994101
15	0x3db03226	0.08603315
16	0xbc4cb8f6	-0.01249527
17	0xbee3fcbe	-0.44528764
18	0x3bedc61e	0.0072562834
19	0xbde8dfe6	-0.1137083
20	0xbe1b3507	-0.15156947
21	0x3ca63487	0.020288719
22	0xbb6ecc91	-0.003643785
23	0xbda349f3	-0.07973089
24	0x3d8507e9	0.06495649
25	0xbe807065	-0.2508575
26	0x3d8b61e5	0.06805781
27	0xbd07d5dc	-0.033162937
28	0x3e7373ed	0.23774691
29	0xbc9935ad	-0.018702352
30	0x3d921e7a	0.07134719
31	0x3e512d26	0.20427379
32	0xb7d4286a	-2.5291189e-05
33	0x3d91318a	0.07089527
34	0x3db87220	0.090061426
35	0x3e61f40c	0.22065753
36	0xbe9cb79a	-0.30608827
37	0xbb45d0b8	-0.003018422
38	0xbebb6189	-0.3659785
39	0x3d7af66f	0.061270174
40	0x3d38e7c1	0.045142893
41	0x3dc674ea	0.09690268
42	0x3bcbb605	0.006216767
43	0xbe52fa1b	-0.2060322
44	0x3c7d3162	0.015453668
45	0xbe386e44	-0.18010813
46	0x3d2af620	0.04173863
47	0x3da24e28	0.07925063
48	0x3d8e238c	0.06940374
49	0xbd8b90b4	-0.06814709
50	0x3e294ff9	0.16534413
51	0xbc8a7b61	-0.016904535
52	0x3d091a92	0.033472605
53	0x3e4b4555	0.19850667
54	0x3e24c52a	0.16090837
55	0xbe565ddc	-0.20934242
56	0x3de60369	0.11231119
57	0x3e623f12	0.22094372
58	0xbd854985	-0.06508163
59	0xbe0310e6	-0.12799415
60	0xbe1768af	-0.14786027
61	0x3e837f53	0.25683078
62	0x3c782e05	0.015147691
63	0xbd12b532	-0.035817333
64	0xbea380e0	-0.3193426
65	0xbea1a071	-0.3156772
66	0x3cced393	0.02524737
67	0x3e02f87e	0.12790105
68	0x3e0b9db0	0.13634372
69	0xbd245b93	-0.040126394
70	0x3e5e7ca0	0.21727228
71	0xbe548db3	-0.20757179
72	0xbdb603f7	-0.08887475
73	0xbeacdc36	-0.33761758
74	0xbe17a31e	-0.14808318
75	0xbe8b05cd	-0.27152863
76	0xbda2c378	-0.07947439
77	0x3de67089	0.11251933
78	0x3ec8d30d	0.3922352
79	0x3a9226ce	0.0011150481
80	0x3db11094	0.0864574
81	0x3d452bf4	0.04813762
82	0xbd932374	-0.071844965
83	0xbd98055b	-0.074228965
84	0xbdd76441	-0.10517169
85	0x3dd4e897	0.103959255
86	0xbe1438c2	-0.14474776
87	0xbcbe093e	-0.023197766
88	0x3e73717a	0.23773757
89	0x3e60571d	0.21908231
90	0x3e2f20a7	0.171023
91	0x3df90ba2	0.12160422
92	0x3e5757c3	0.21029572
93	0x3ceb4708	0.028720394
94	0xbdb2e7d2	-0.087356225
95	0xbe388ab4	-0.18021661
96	0xbe53c0e7	-0.20679055
97	0xbd2bc7c3	-0.041938554
98	0x3d99f307	0.07517057
99	0xbd9828f3	-0.074296854
100	0xbe783dad	-0.24242277
101	0xbdb227cd	-0.08698998
102	0x3e35fc16	0.17771944
103	0x3dfa8020	0.12231469
104	0xbcc3c5d1	-0.023898037
105	0xbb836555	-0.0040098825
106	0xbc31b77b	-0.010846968
107	0xbd18dfe2	-0.037322886
108	0x3d202513	0.039097857
109	0x3d7713cd	0.060321618
110	0x3dd354ea	0.103189304
111	0xbe371e5e	-0.17882678
112	0x3d723fc8	0.059142858
113	0x3d622727	0.05521312
114	0x3d1065fc	0.03525351
115	0x3ddfd244	0.10928777
116	0xbd50322b	-0.050829094
117	0xbe9472ba	-0.2899378
118	0xbdb57095	-0.08859364
119	0x3d5247ff	0.051338192
120	0x3e89df4d	0.26928177
121	0x3e412eaa	0.18865457
122	0xbe064422	-0.13111928
123	0x3e014d73	0.12627201
124	0x3e27ca9a	0.1638588
125	0x3db39910	0.08769429
126	0xbe2fb5b1	-0.17159154
127	0x3d4ff4a6	0.050770424
128	0x3e4ff09f	0.20306633
129	0x3dbed328	0.093176186
130	0xbda5995c	-0.080858916
131	0xbe9b5aff	-0.30342862
132	0xbd90aec3	-0.07064583
133	0xbce9db88	-0.028547063
134	0x3c9d1738	0.01917611
135	0xbdcd0dd3	-0.100124024
136	0xbe3ad359	-0.18244685
137	0xbe3c14bf	-0.18367289
138	0xbde4443a	-0.11145826
139	0xbe4afa3b	-0.19822018
140	0x3e915365	0.28383937
141	0x3d71f448	0.059070855
142	0x3bfe09b4	0.0077526215
143	0x3cd949e1	0.026524486
144	0x3c6f0cc6	0.014590448
145	0x3dd67271	0.10471047
146	0xbe20648c	-0.15663356
147	0xbe1b5e43	-0.15172677
148	0xbc75004c	-0.014953684
149	0x3df4d5c5	0.11954836
150	0x3d35c353	0.04437573
151	0xbdfbf641	-0.123028286
152	0xbe827271	-0.25477937
153	0x3e166959	0.14688624
154	0xbe0ef914	-0.13962203
155	0xbdef2459	-0.11676855
156	0xbda6171c	-0.081098765
157	0xbe05ef82	-0.13079646
158	0xbde263e3	-0.11054208
159	0x3e2643a1	0.16236736
160	0x3e195827	0.14975034
161	0x3d866244	0.065617114
162	0x3eb5ca00	0.35505676
163	0x3e06afb1	0.13152958
164	0x3d418ec2	0.047255285
165	0x3e53e2c1	0.20691969
166	0x3d1aaae3	0.037760627
167	0xbd463d83	-0.048398506
168	0x3dcf413b	0.101198636
169	0x3c6d88d4	0.014497954
170	0xbe6c0b91	-0.23051287
171	0xbe3a64f2	-0.1820257
172	0x3e150319	0.14551963
173	0xbee3ef5d	-0.44518557
174	0xbdcb575b	-0.09928771
175	0x3dc2555a	0.09488936
176	0xbe1c8ab7	-0.1528729
177	0x3ce6c0fb	0.028168192
178	0xbe7b29df	-0.24527691
179	0xbe7e32d0	-0.24824071
180	0x3e5802db	0.2109484
181	0xbd5ef375	-0.054431397
182	0x3d9bea1e	0.07613014
183	0x3d26c867	0.040718462
184	0x3edfbb12	0.4369741
185	0xbdcb756c	-0.09934506
186	0xbd727f3f	-0.059203383
187	0xbdf3b3a9	-0.11899502
188	0xbd45893a	-0.048226573
189	0x3dec1a15	0.11528412
190	0xbe04380b	-0.12912004
191	0xbe53ab20	-0.20670748
192	0xbce24f2e	-0.027625646
193	0x3de96933	0.11397018
194	0x3be47cfd	0.0069729076
195	0x3e801b67	0.25020906
196	0x3c8434e9	0.01613851
197	0xbc56d042	-0.013111176
198	0x3cdbe9c3	0.026844865
199	0x3df8ee96	0.12154882
200	0xbe6716c7	-0.22567283
201	0xbdc3b0d9	-0.095552154
202	0xbcb9fcbd	-0.022703523
203	0xbdf1af61	-0.11801029
204	0x3dc7ed1f	0.09762024
205	0x3e3be24e	0.18348047
206	0xbd196a11	-0.03745467
207	0xbcad163d	-0.021128768
208	0xbe132b3c	-0.14371961
209	0xbdf543fe	-0.11975859
210	0xbe497160	-0.19672155
211	0xbde4d9f6	-0.11174385
212	0xbd817711	-0.06321538
213	0x3cf9ad93	0.030478274
214	0xbddd9f80	-0.10821438
215	0xbe5a4626	-0.21315822
216	0x3e8f1008	0.27941918
217	0xbe0cb6df	-0.13741635
218	0x3d9b1d0e	0.07573901
219	0x3d9d3f80	0.07678127
220	0x3be5f9b7	0.0070182937
221	0xbcfe1b98	-0.031019017
222	0x3e0eebcb	0.13957135
223	0x3dd071e4	0.10177973
224	0x3e303460	0.1720748
225	0x3d9b7320	0.07590318
226	0x3e15ab64	0.14616162
227	0xbe7815a8	-0.24227011
228	0xbdabf61d	-0.08396552
229	0x3e574564	0.21022564
230	0xbe3cf1a3	-0.18451552
231	0xbc6ec294	-0.014572758
232	0xbdeeff91	-0.11669839
233	0x3e1b54ea	0.15169111
234	0xbe6790d9	-0.22613849
235	0xbdf142d0	-0.117803216
236	0x3dcb663d	0.0993161
237	0xbe18fe9e	-0.14940879
238	0x3d00f172	0.03148026
239	0xbd9514b4	-0.072793394
240	0xbd54907e	-0.05189561
241	0xbb38c265	-0.002819204
242	0xbd50c453	-0.05096848
243	0xbdbffeb0	-0.0937475
244	0x3c00f3b9	0.007870608
245	0xbcaba905	-0.020954618
246	0x3e033929	0.12814774
247	0xbced889d	-0.028995806
248	0xbda71432	-0.08158149
249	0x3c79ca35	0.015245964
250	0x3e18a9eb	0.14908569
251	0xbe8761d7	-0.26441833
252	0x3e8c3bc8	0.2738936
253	0xbd9595a8	-0.07303935
254	0x3e4f7d7d	0.20262714
255	0x3dada0d1	0.08477939

net.0.bias f4 [60]
0	0xbe12a84f	-0.14322017
1	0x3da82521	0.08210207
2	0x3dd70cd8	0.105004966
3	0x3dd50370	0.10401046
4	0xbe11423b	-0.14185421
5	0x3d9af24d	0.075657465
6	0x3db2626d	0.087101795
7	0x3d1ee68b	0.03879408
8	0x3c310c82	0.010806205
9	0xbe1d42df	-0.1535754
10	0xbe12dc2c	-0.14341801
11	0xbd2af275	-0.04173513
12	0xbe0e6c8a	-0.13908592
13	0xbde954f1	-0.113931544
14	0xbe0eef21	-0.13958408
15	0x3e104c2f	0.14091562
16	0x3dc541a0	0.096316576
17	0x3dd75426	0.10514097
18	0xbe27eed2	-0.16399696
19	0x3d81fd95	0.06347195
20	0xbe1afa95	-0.15134652
21	0xbda92b5c	-0.08260223
22	0xbdb8c75f	-0.09022402
23	0xbd84cec4	-0.0648475
24	0x3c38f24f	0.01128824
25	0x3de3b4c8	0.11118466
26	0x3c2d9743	0.010595146
27	0x3d54ebe6	0.051982783
28	0xbddc7641	-0.10764743
29	0x3dfbdc88	0.122979224
30	0xbe15467b	-0.14577667
31	0xbe1dc44d	-0.15406914
32	0x3d3e6d51	0.04649097
33	0x3ccde8af	0.025135366
34	0xbc635111	-0.013874308
35	0xbbdc9857	-0.0067320275
36	0x3ddb7434	0.10715523
37	0xbdecfc85	-0.11571602
38	0x3dc923d3	0.09821286
39	0xbd8595b9	-0.06522698
40	0x3e08da42	0.13364509
41	0x3daedb13	0.08537879
42	0x3ba0768b	0.004896944
43	0xbd854583	-0.06507399
44	0xbd3ccf22	-0.046095975
45	0x3d6d2233	0.057893943
46	0x3e044c0a	0.12919632
47	0x3d7d3754	0.061820343
48	0x3daadcb8	0.0834288
49	0xbd1d2ee7	-0.038374808
50	0xbde55f1b	-0.111997806
51	0xbe204661	-0.15651847
52	0x3e2913d8	0.16511476
53	0x3d465850	0.048424065
54	0xbd2c74a9	-0.042103443
55	0x3e2afb5d	0.1669745
56	0xbd5ae5cd	-0.05344181
57	0xbdf78d21	-0.12087465
58	0xbd042d8e	-0.032270007
59	0x3e19384f	0.14962886

net.2.weight f4 [60, 60]
0	0x3cb1455c	0.021639518
1	0x3ebc7c0f	0.368134
2	0xbe1e43e9	-0.15455593
3	0xbd8f2415	-0.06989304
4	0x3d0f7bd8	0.035030216
5	0x3d6b100a	0.057388343
6	0x3da151ec	0.078769535
7	0x3c8a44a2	0.01687843
8	0xbc733066	-0.014843082
9	0x3e95b8fe	0.292427
10	0x3de448df	0.111467116
11	0x3e05cea2	0.13067105
12	0x3e630ac9	0.22172083
13	0x3e2a1009	0.1660768
14	0x3e79da2f	0.24399637
15	0x3d4a5514	0.049397543
16	0xbb6c2e47	-0.0036038326
17	0xbcb79371	-0.022409173
18	0x3d433088	0.047653705
19	0x3d989065	0.07449416
20	0xbd8695ff	-0.06571578
21	0xbe652d4f	-0.22380565
22	0xbd8eeb47	-0.06978469
23	0xbe13fdef	-0.14452337
24	0xbd85474f	-0.06507742
25	0xbd8c4264	-0.068486005
26	0x3d186eb0	0.037214935
27	0xbc8d63a1	-0.01725942
28	0xbd8d84e2	-0.06910111
29	0x3e10dcb6	0.14146695
30	0xbe1d1196	-0.1533874
31	0xbdc5f181	-0.09665204
32	0xbe48c5a0	-0.19606638
33	0x3d1b2ef1	0.037886564
34	0x3d6eace8	0.058270365
35	0xbb07ee0c	-0.0020741252
36	0xbdd1d8f6	-0.1024646
37	0xbd25d7cf	-0.040489014
38	0x3df6a78a	0.12043674
39	0xbe581e43	-0.21105294
40	0x3dc26020	0.09490991
41	0x3d563b14	0.052302435
42	0x3e38592b	0.18002765
43	0xbe9a3141	-0.30115703
44	0xbe50f2d4	-0.20405132
45	0xbab7818a	-0.0014000398
46	0x3cbc7474	0.023004748
47	0xbdcb4abe	-0.09926365
48	0xbc75db0f	-0.015005841
49	0xbdd04da1	-0.101710565
50	0x3d6b47b0	0.057441413
51	0xbe8a2f14	-0.26989043
52	0xbd0f6ff1	-0.035018865
53	0x3e849aba	0.25899297
54	0xbd0db5dd	-0.034597266
55	0xbc83cb04	-0.016088016
56	0xbe061f17	-0.13097797
57	0x3e18d0c9	0.14923395
58	0x3e949fa0	0.29028034
59	0xbc20949a	-0.009801054
60	0x3d708653	0.05872185
61	0xbd2f00c0	-0.042725325
62	0x3e6d3781	0.23165704
63	0xbd698538	-0.057011813
64	0x3d12acf5	0.035809476
65	0xbce7a8e5	-0.028278777
66	0xbd86bcc4	-0.06578973
67	0xbe735df2	-0.23766306
68	0xbd4a3b41	-0.049372915
69	0xbe0317ac	-0.12801999
70	0xbcbbdff4	-0.022933938
71	0xbe4537aa	-0.19259515
72	0xbda18e39	-0.07888455
73	0x3decb7c4	0.11558488
74	0x3e7f07d6	0.24905333
75	0x3d1a3d59	0.037656162
76	0x3e0f4f86	0.1399518
77	0xbbada640	-0.0052993596
78	0xbd075f1a	-0.03304968
79	0x3e034a28	0.12821257
80	0xbcb37aef	-0.021909205
81	0xbe1cc81b	-0.15310709
82	0x3ce9cdf2	0.028540585
83	0xbdf60d6d	-0.120142795
84	0x3e01475b	0.12624876
85	0x3e7acaaa	0.24491373
86	0x3e5b6a11	0.2142718
87	0x3df53aed	0.1197413
88	0x3df0e4fb	0.117624246
89	0x3dbefb1c	0.09325239
90	0x3e33a404	0.17543036
91	0xbc887301	-0.0166564
92	0x3e78430b	0.24244325
93	0xbe82c93d	-0.25544158
94	0x3bfe31e3	0.007757412
95	0x3c221995	0.009893795
96	0x3ca9c7a3	0.020725077
97	0x3e89761a	0.26847917
98	0x3d8be5c7	0.06830936
99	0xbe1bf2a5	-0.1522928
100	0x3d4cb36c	0.049975798
101	0xbde87f03	-0.113523506
102	0x3d16a40e	0.03677755
103	0x3dd4c426	0.10388975
104	0x3d75a4e9	0.059971724
105	0xbe60198e	-0.21884748
106	0x3e1c47d5	0.15261777
107	0x3c4841e6	0.012222743
108	0x3cb955c7	0.02262391
109	0x3b57a287	0.003290327
110	0x3e73efaf	0.23821901
111	0xbe044781	-0.12917902
112	0xbde14897	-0.110001735
113	0x3e20b1a2	0.15692762
114	0x3d4961e2	0.049165614
115	0x3d22c135	0.039735038
116	0x3d341c57	0.04397234
117	0x3e031e9f	0.1280465
118	0xbe0fc346	-0.14039335
119	0x3deb5ddf	0.11492514
120	0xbc94b577	-0.018152935
121	0x3d6a8c9e	0.05726301
122	0x3da8acc8	0.082360804
123	0xbe87a16e	-0.2649035
124	0x3cbe30b4	0.023216583
125	0xbd6a96d7	-0.05727276
126	0x3de2b6d2	0.110700265
127	0x3cc5f161	0.02416295
128	0x3d8d194d	0.06889591
129	0x3db877b8	0.090072095
130	0xbe771d16	-0.24132189
131	0x3d15731a	0.036486723
132	0xbd5d5f84	-0.05404617
133	0x3cd12557	0.0255305
134	0x3e2ce783	0.1688519
135	0x3e9cef7e	0.30651468
136	0x3de5c625	0.11219434
137	0x3d299497	0.041401472
138	0x3d4d1bbb	0.050075274
139	0x3e3d2e54	0.18474704
140	0xbd077ff3	-0.033081006
141	0x3c97248f	0.01845005
142	0x3cca182d	0.024669731
143	0x3cc8e518	0.024523303
144	0x3d2f559c	0.042806253
145	0x3e379435	0.1792763
146	0xbd9e9f77	-0.07745259
147	0xbd001b99	-0.03127632
148	0x3ca32b36	0.019918066
149	0xbc0c7463	-0.008572671
150	0x3d2409d7	0.040048447
151	0x3e309f14	0.17248183
152	0x3b506262	0.0031796922
153	0x3dc1f08a	0.09469707
154	0x3c80e9c1	0.015736463
155	0x3dd8195b	0.10551711
156	0xbead0279	-0.3379095
157	0xbd0b5955	-0.03402074
158	0xbe0cf57a	-0.13765517
159	0xbe25a0be	-0.161746
160	0xbe82ac42	-0.25522047
161	0x3d76b140	0.060227633
162	0x3e449ec9	0.19201197
163	0xbe99da18	-0.30049205
164	0xbd57471b	-0.052558046
165	0x3dd37e16	0.10326783
166	0x3e5c6e75	0.21526511
167	0x3e12daf8	0.14341342
168	0x3d03f7df	0.03221881
169	0x3e0cb2ec	0.13740128
170	0xbd29e3ee	-0.041477136
171	0x3cb7ca80	0.022435427
172	0xbe35bd2e	-0.17747948
173	0xbd4a1fcf	-0.04934674
174	0xbe15e4a3	-0.14637999
175	0xbd9fa536	-0.07795183
176	0x3e30d6d9	0.17269458
177	0xbe5886a8	-0.21145117
178	0xbedb4fbc	-0.4283427
179	0xbd3911a0	-0.045182824
180	0xbe392fda	-0.1808466
181	0x3e21156a	0.15730825
182	0xbc4e30c0	-0.012584865
183	0x3e1be4d6	0.15224013
184	0x3b7c8b97	0.003853535
185	0xbdcfd139	-0.10147328
186	0x3e0044db	0.12526266
187	0x3cf8e915	0.03038458
188	0xbcc96b5c	-0.024587326
189	0xbd2e7c05	-0.042598743
190	0x3c5518d9	0.013006412
191	0xbd1b7cfc	-0.03796099
192	0x3e225363	0.15852122
193	0x3c018695	0.007905622
194	0xbc6fe5b9	-0.0146421725
195	0xbdd3d2f4	-0.103429705
196	0x3e07d695	0.1326545
197	0xbd1a0c63	-0.03760947
198	0xbba76a16	-0.005109082
199	0xbe6e23f8	-0.23255908
200	0xbd97c2a3	-0.07410171
201	0x3d758709	0.059943233
202	0x3d9035aa	0.070414856
203	0xbd0bda81	-0.03414393
204	0xbdad6833	-0.0846714
205	0x3c812e28	0.01576908
206	0x3dce11f8	0.10062021
207	0x3e7321b3	0.23743324
208	0x3d2cac1f	0.042156335
209	0xbc185e03	-0.009299758
210	0xbdb0164e	-0.08598004
211	0xbe12d1fb	-0.14337914
212	0xbddbd1ce	-0.107333764
213	0x3dd28a58	0.10280293
214	0x3c96ca55	0.018407026
215	0xbd861c13	-0.065483235
216	0xbdc6d3fd	-0.09708402
217	0x3c95d0e9	0.018288093
218	0xbc25227b	-0.010079022
219	0xbe86eb88	-0.2635157
220	0x3b88ed0d	0.0041786493
221	0xbd0c2492	-0.034214564
222	0xbdd620ec	-0.10455498
223	0xbc8a6cd3	-0.016897595
224	0xbde04817	-0.1095125
225	0x3d31fae2	0.04345215
226	0x3e1d4f19	0.15362205
227	0xbd27da8d	-0.04097991
228	0xbbed8a76	-0.007249172
229	0x3da11338	0.07864994
230	0xbe987aff	-0.2978134
231	0x3e80443c	0.2505206
232	0xbe3db69e	-0.18526694
233	0x3e47c549	0.19508852
234	0x3e48d0c4	0.19610888
235	0xbc7883c0	-0.01516813
236	0xbd92f775	-0.07176105
237	0xbe41b62d	-0.18917151
238	0xbda32270	-0.07965553
239	0xbdde384a	-0.1085058
240	0x3ac3638f	0.001490699
241	0x3da9176c	0.082564205
242	0x3e16b0f3	0.14715938
243	0x3dee0487	0.11621957
244	0x3cdded59	0.027090715
245	0xbe021f6e	-0.12707302
246	0x3dd18f75	0.102324404
247	0x3e390efa	0.1807212
248	0xbe064baa	-0.13114801
249	0xbde5fd70	-0.1122998
250	0x3d8785ad	0.066172935
251	0x3cf93d90	0.030424863
252	0xbd6a1537	-0.05714914
253	0xbe455e93	-0.19274358
254	0xbe062956	-0.13101706
255	0xbe001224	-0.1250692

net.2.bias f4 [60]
0	0xbc94bad1	-0.018155487
1	0xbd67018f	-0.05639797
2	0x3d8f3aa7	0.06993609
3	0xbb8acd57	-0.004235904
4	0xbd2748ef	-0.04084104
5	0xbdb40227	-0.08789473
6	0xbcff1feb	-0.03114315
7	0x3db2cd12	0.0873052
8	0x3d6b16d6	0.057394825
9	0xbdce9a79	-0.10088057
10	0xbd8126ba	-0.06306215
11	0x3c7a0591	0.015260116
12	0xbcd32986	-0.025776636
13	0xbdbabd6d	-0.09118161
14	0x3ddb9367	0.10721474
15	0xbda16f07	-0.07882505
16	0xbd257e53	-0.040403675
17	0xbdc28c76	-0.09499447
18	0xbc6de847	-0.014520711
19	0xbd3edcfa	-0.04659746
20	0xbda281e5	-0.07934932
21	0x3d857f19	0.065183826
22	0x3d9b7d9d	0.07592318
23	0xbd8e5807	-0.06950384
24	0xbd9178d3	-0.071031235
25	0xbdb6322e	-0.0889629
26	0x3d53b9ce	0.05169087
27	0xbd68b878	-0.056816548
28	0xbda5c3b8	-0.08093971
29	0xbbca1e19	-0.0061681387
30	0xbd9d110b	-0.07669266
31	0xbd9b2e77	-0.07577222
32	0xbc496ba6	-0.012293732
33	0x3e004f39	0.12530221
34	0xbdc02384	-0.09381774
35	0xbd3bd093	-0.04585321
36	0x3da1ddab	0.07903608
37	0xbd29453b	-0.04132579
38	0x3df250dc	0.11831829
39	0x3d988645	0.07447485
40	0x3d9ea7aa	0.07746823
41	0xbdacc48c	-0.08435926
42	0x3c3e57f5	0.01161765
43	0x3c2f3528	0.010693826
44	0x3d5da6c0	0.054114103
45	0xbc7c3fbd	-0.015396056
46	0xbdad2499	-0.08454246
47	0x3d99dd6e	0.075129375
48	0x3de7f951	0.1132685
49	0x3ce29876	0.02766059
50	0x3d9d44f0	0.076791644
51	0x3d8796e0	0.06620574
52	0x39761bae	0.000234707
53	0xbdbe6209	-0.092960425
54	0xbd852c90	-0.0650264
55	0x3d46b9a7	0.048516896
56	0x3d873167	0.066012196
57	0xbd90b3c9	-0.07065541
58	0x3d715f2a	0.058928646
59	0xbdb5da5c	-0.08879539
