results/PINN/XJTU results/4-4/Experiment5/model.pth (torch, 60271 bytes, 14 tensors)

encoder.net.0.weight f4 [60, 17]
0.24086341 0.009031247 0.16286458 0.12676194 0.03207327 -0.019376565 0.07879015 0.060025845
0.15218797 0.027709372 0.021112718 -0.008098245 -0.13891177 -0.006516131 0.13893856 0.1755483
-0.30050206 -0.039912425 0.008706067 -0.08709483 -0.050285265 0.0012647782 -0.337759 0.19667912
-0.059288945 0.26006332 0.04157639 -0.023344956 -0.020930907 -0.18261716 0.1028462 0.10816376
0.33623442 0.24239187 -0.06531196 -0.12319248 0.10081517 0.3714383 -0.20915283 -0.011098573
0.12768029 0.054308534 0.04021381 0.25564614 0.014971758 -0.06646238 0.13252436 -0.14074664
-0.0003901086 0.15643962 -0.23318034 -0.10406468 -0.10751372 0.21220674 -0.016783398 0.0943678
0.12210071 0.11485647 -0.0075403787 0.3064504 -0.17655617 0.03216028 0.06805129 -0.058883768
0.061339278 -0.11072696 0.16576676 -0.12780134 -0.084752575 -0.0004076325 -0.029525999 0.18673159
0.1052079 -0.10042231 -0.04556922 -0.09977936 0.0007405206 0.07775033 0.05313166 0.11437945
-0.119170606 -0.15577966 0.18498442 0.14471947 -0.11905872 0.027303243 -0.42262167 0.004062971
-0.088855796 0.03967723 -0.31996796 0.029818429 -0.072423875 0.020488055 -0.09687786 0.008879014
0.0017719285 -0.18115397 -0.18330686 -0.12855907 0.03241574 -0.11396946 -0.022479108 -0.1237567
-0.0040440476 0.061345976 0.16844496 0.039174143 0.010496923 0.046413183 -0.020397112 -0.10493699
-0.18808858 0.075157456 0.13674305 -0.14147288 -0.2833181 -0.0068068393 0.011619223 0.026996277
-0.042841263 0.13104135 -0.047116455 -0.099289365 -0.30296424 -0.07055188 0.015763972 0.07927503
0.22141458 0.082883686 -0.07635494 -0.22231588 0.10559581 0.4614159 0.027448313 -0.3164604
0.16615286 0.34013912 0.10488867 -0.0723982 0.14126286 0.17490084 -0.06971788 -0.14640653
-0.091511115 0.19254176 -0.100010194 0.26526245 -0.0019658806 -0.2996985 0.15446347 -0.2459721
-0.14673735 0.004058077 -0.043662854 -0.112853825 -0.04231365 0.24473585 0.19242796 -0.22654736
0.28732285 -0.3989702 -0.117387064 -0.09374347 0.25784057 0.16871117 0.06225377 -0.1899708
0.019305203 0.13376674 0.016465662 0.13136794 0.038598385 -0.14346562 -0.40887886 -0.22621971
0.04917304 -0.122171946 -0.17365973 0.052297838 -0.0641016 0.1044367 0.015968094 -0.11045012
0.19440886 -0.14355177 -0.0054147854 0.04132768 0.036092967 0.08107809 0.07223511 -0.11073163
-0.3328978 0.30134106 0.092798516 0.18453337 0.0045394762 -0.07021918 -0.01653019 0.10294195
-0.050899476 -0.2457771 0.1842121 -0.11332114 0.004454491 -0.020288637 0.19231878 -0.08357828
0.14163843 -0.040833555 -0.18269472 0.07844464 -0.10661157 -0.29813227 -0.058494903 0.010049649
-0.07712952 0.30523798 -0.16712432 -0.14543219 -0.10293867 -0.19875653 0.02536351 0.0042581474
0.097749844 0.028178623 0.06294857 -0.36883557 -0.120435454 -0.39333 0.12084073 -0.104862854
-0.024161607 0.12800282 -0.08391523 0.16872309 0.16551758 -0.17319688 -0.060792096 -0.26920575
-0.28735152 -0.09726415 0.19969207 0.13920908 -0.23973925 -0.22224951 0.08023104 -0.06951055
0.01874637 0.108414635 -0.0266716 -0.38070273 -0.0651505 0.1723485 0.065556236 -0.030192044
00000000: e6a4 763e ccf7 133c f9c5 263e e2cd 013e
00000010: 435f 033d 9abb 9ebc bb5c a13d a9dd 753d
00000020: 2ad7 1b3e c4fe e23c 94f4 ac3c 80ae 04bc
00000030: e33e 0ebe 4585 d5bb e945 0e3e efc2 333e
00000040: 68db 99be 367b 23bd e4a3 0e3c c65e b2bd
00000050: ecf7 4dbd eac6 a53a bfee acbe 4066 493e
00000060: f7d8 72bd 0527 853e 014c 2a3d ec3d bfbc
00000070: 4b77 abbc feff 3abe 07a1 d23d f684 dd3d
00000080: eb26 ac3e 9335 783e 47c2 85bd 574c fcbd
00000090: 2f78 ce3d 292d be3e 292c 56be cad6 35bc
000000a0: 9fbe 023e a072 5e3d 3cb7 243d 0de4 823e
000000b0: 1b4c 753c 6e1d 88bd 77b4 073e e31f 10be
000000c0: 7d87 ccb9 b531 203e d4c6 6ebe dd1f d5bd
000000d0: 2730 dcbd b94c 593e 567d 89bc e843 c13d
000000e0: f00f fa3d de39 eb3d 4815 f7bb 11e7 9c3e
000000f0: 24cb 34be 7fba 033d 7a5e 8b3d 1b30 71bd
00000100: e53e 7b3d d1c4 e2bd c3be 293e 5bde 02be
00000110: c292 adbd 82b7 d5b9 82e0 f1bc 9136 3f3e
00000120: 3d77 d73d 36aa cdbd caa6 3abd 1f59 ccbd
00000130: 7f1f 423a 913b 9f3d 95a0 593d c63f ea3d
00000140: b80f f4bd b484 1fbe 8e6c 3d3e 5731 143e
00000150: 0fd5 f3bd 0dab df3c de61 d8be ac22 853b
00000160: 07fa b5bd 9784 223d d7d2 a3be c745 f43c
00000170: f852 94bd 91d6 a73c e667 c6bd 4979 113c
00000180: 0e40 e83a 6d80 39be cbb4 3bbe fda4 03be
00000190: 5ec6 043d d268 e9bd 1b26 b8bc 2774 fdbd
000001a0: ee83 84bb eb45 7b3d d67c 2c3e 1175 203d
000001b0: 49fb 2b3c c01b 3e3d d817 a7bc 34e9 d6bd
000001c0: 4b9a 40be 27ec 993d 5f06 0c3e 44de 10be
000001d0: 120f 91be e80b dfbb 8e5e 3e3c 4c27 dd3c
000001e0: 527a 2fbd b42f 063e 2ffd 40bd 3958 cbbd
000001f0: 211e 9bbe 817d 90bd 7223 813c f25a a23d
00000200: 81ba 623e ecbe a93d fb5f 9cbd c6a6 63be
00000210: 9e42 d83d b43e ec3e 49db e03c 1907 a2be
00000220: fa23 2a3e b726 ae3e dfcf d63d 8245 94bd
00000230: 36a7 103e 3519 333e 3fc8 8ebd 98eb 15be
00000240: 2e6a bbbd ab29 453e 25d2 ccbd 7bd0 873e
00000250: 01d6 00bb 1572 99be ac2b 1e3e 1ce0 7bbe
00000260: 5142 16be 9ef9 843b d2d7 32bd e81f e7bd
00000270: 1451 2dbd 099c 7a3e d60b 453e 08fc 67be
00000280: fb1b 933e d245 ccbe a168 f0bd 94fc bfbd
00000290: ae03 843e 9fc2 2c3e cffd 7e3d b587 42be
000002a0: f225 9e3c 26fa 083e ffe2 863c 5185 063e
000002b0: 5719 1e3d a7e8 12be 9258 d1be 24a6 67be
000002c0: ab69 493d 4935 fabd dbd3 31be 4236 563d
000002d0: b347 83bd e9e2 d53d 85cf 823c ac33 e2bd
000002e0: 1e13 473e 3cff 12be 836e b1bb 3747 293d
000002f0: 38d6 133d 450c a63d 00f0 933d 44c7 e2bd
00000300: 9571 aabe 6049 9a3e 260d be3d 51f6 3c3e
00000310: e3bf 943b 13cf 8fbd 526a 87bc 3bd3 d23d
00000320: f87b 50bd feac 7bbe 19a2 3c3e ea14 e8bd
00000330: fbf6 913b 5b34 a6bc 37ef 443e 172b abbd
00000340: aa09 113e 1641 27bd 5314 3bbe 95a7 a03d
00000350: 2b57 dabd cba4 98be 5a98 6fbd 48a7 243c
00000360: 15f6 9dbd 2748 9c3e a322 2bbe 2dec 14be
00000370: 82d1 d2bd d586 4bbe 23c7 cf3c ee87 8b3b
00000380: 1231 c83d dbd6 e63c 2eeb 803d 04d8 bcbe
00000390: dda6 f6bd 8d62 c9be 587b f73d 56c2 d6bd
000003a0: 90ee c5bc 2c13 033e c0db abbd bfc5 2c3e
000003b0: 717d 293e 865a 31be 2201 79bd 56d5 89be
000003c0: bd1f 93be 6d32 c7bd 147c 4c3e d38c 0e3e
000003d0: 357e 75be 6095 63be 2c50 a43d 8c5b 8ebd
000003e0: fd91 993c 7e08 de3d 667e dabc 78eb c2be
000003f0: a06d 85bd 207c 303e 5942 863d 4e55 f7bc

encoder.net.0.bias f4 [60]
-0.006589265 0.048887465 -0.049360093 -0.054571413 -0.025161896 0.06848707 0.012291503 -0.042908136
0.03172139 -0.046275932 0.050891213 0.002025086 0.00079655845 -0.025114452 0.096317954 0.0302161
-0.045764092 0.005853013 0.046426732 -0.027991073 -0.071748555 0.046435922 0.028847452 -0.0071914317
-0.037175864 -0.06958465 0.060268298 0.042139467 0.046087213 -0.06928359 0.013171717 -0.0050903675
-0.057517048 0.04020333 -0.05824487 0.018413648 0.067121685 -0.037399996 -0.04615161 0.04665217
-0.0074323188 0.030629514 0.08386082 -0.091287486 -0.08073143 0.01205338 -0.045418445 -0.027996281
-0.054269023 -0.04681017 -0.0118884705 0.048273563 0.04856524 -0.025964336 -0.063862056 0.053259525
0.051275406 0.043993685 -0.036768183 -0.0059693223
00000000: c3ea d7bb 393e 483d cf2d 4abd 4686 5fbd
00000010: 5220 cebc f342 8c3d 4d62 493c 71c0 2fbd
00000020: 4aee 013d d58b 3dbd 4e73 503d 4eb7 043b
00000030: 22d0 503a d3bc cdbc 5942 c53d c187 f73c
00000040: 2173 3bbd a2ca bf3b f529 3e3d 894d e5bc
00000050: e8f0 92bd 9833 3e3d 7e51 ec3c 1aa6 ebbb
00000060: b845 18bd 6682 8ebd e4db 763d 6f9a 2c3d
00000070: f2c5 3c3d 8ee4 8dbd 2fce 573c 19cd a6bb
00000080: ff96 6bbd 3fac 243d 2c92 6ebd 38d8 963c
00000090: 1877 893d bd30 19bd 7809 3dbd 5916 3f3d
000000a0: cf8a f3bb bfea fa3c 39bf ab3d eff4 babd
000000b0: 8556 a5bd 8a7b 453c b108 3abd 7558 e5bc
000000c0: 3249 5ebd 05bc 3fbd dcc7 42bc 80ba 453d
000000d0: 58ec 463d 29b3 d4bc 1cca 82bd a926 5a3d
000000e0: 2906 523d b932 343d 3c9a 16bd 4e9a c3bb

encoder.net.2.weight f4 [60, 60]
0.009971751 0.016264455 -0.03273962 0.24267843 0.15978707 0.115365654 0.16537935 -0.20289405
0.053253256 -0.33083272 0.027368112 0.03558903 0.13887456 0.08742493 -0.070596986 -0.03260864
-0.009259321 0.091202326 -0.04468975 0.066360906 -0.07833508 0.21418688 0.041047268 0.08553124
-0.0070347474 0.046160266 0.04404094 0.055413708 0.005752938 -0.09142804 -0.105568275 0.09125756
-0.2543856 0.21633008 0.21636152 0.20140596 0.20058674 -0.041849427 0.027258327 0.05117858
-0.06317171 0.17710839 0.22643858 0.029992564 0.024629334 0.09243637 0.03376806 0.13322678
0.08751596 0.16157755 0.08116461 -0.045410797 -0.23213635 -0.06131345 0.08758699 -0.11777176
-0.024260307 0.0032030232 0.07239764 -0.045025457 0.060803626 -0.090288475 0.0579047 0.14985763
0.04433375 0.15540293 0.00782982 0.06943736 0.09863754 -0.113649406 -0.013463772 0.009354937
0.11086655 -0.11290201 0.07552052 0.11610013 0.074262716 -0.1576874 0.2927244 -0.13400324
0.10299997 0.031540476 -0.11276135 -0.10841807 0.22473429 -0.034448553 -0.0059558386 -0.22000492
-0.013614746 -0.15032364 -0.011349562 -0.06809248 0.0056440434 -0.12578739 -0.08732514 0.038501244
-0.15372008 -0.15103722 -0.068226494 0.021648634 0.03775448 -0.06548018 0.04011701 0.1843281
-0.26787823 0.0024984714 -0.05414133 0.24522759 -0.07377353 0.0014080066 0.053493995 0.008801933
0.012139975 -0.15798983 0.0030168667 0.005782415 -0.055196416 0.13029267 0.17414612 0.11070588
0.108291514 0.12597878 0.20451556 0.06189383 -0.20333774 0.0036463623 0.058187813 -0.17632578
-0.0336408 -0.13267767 -0.11545614 -0.054689076 -0.07358051 -0.02174951 -0.014530401 0.061169147
0.10151529 -0.006459746 0.25433132 -0.10895814 -0.18892479 -0.23485202 0.094173096 0.16872269
-0.075563714 -0.18734588 -0.034016334 -0.06747748 0.055181455 -0.0515107 -0.00566832 0.10959126
-0.31669366 -0.003967452 -0.028048782 -0.10122212 -0.05442374 -0.011315622 0.2334068 0.067532785
0.35257843 -0.164103 -0.019116057 -0.3765085 -0.1181502 -0.07822099 0.12215123 -0.11433453
-0.09677041 -0.074317224 0.11973745 -0.12080847 0.02173504 -0.1930098 -0.19312234 0.193188
0.06705251 0.263021 -0.0019178072 0.08565606 0.13103618 -0.10268312 -0.09678409 -0.1893041
-0.03256845 -0.11559527 0.035526615 0.12454854 -0.0593619 0.16016498 0.11168706 -0.110944115
0.026217118 0.08701188 0.019592503 0.16021338 -0.018201783 -0.13579191 -0.07942699 0.106598236
0.22293729 0.1009781 -0.0717328 0.028906027 0.023237525 0.08733026 0.02740967 -0.06892093
0.05983786 -0.101396 0.041400183 -0.059015457 0.08785596 0.008806259 -0.108524404 0.20633692
0.09167743 0.11595613 -0.061214555 -0.016815048 -0.074574366 0.033462655 0.059523772 0.12043454
0.045509133 -0.109818846 0.10493371 -0.049549434 0.06300406 0.085680336 0.0084777195 0.019586585
0.12148889 0.023678157 0.05506447 -0.11679699 -0.09275228 -0.07869967 0.077504806 -8.077458e-05
-0.07241518 0.072461925 0.13331535 0.11543698 -0.15318556 0.14103343 -0.10958319 0.27411556
0.010245023 0.15271102 -0.23712255 -0.105718285 0.11234712 0.07223524 0.3004584 -0.00012587642
00000000: 8e60 233c 093d 853c fb19 06bd b280 783e
00000010: 399f 233e d444 ec3d 3459 293e 75c3 4fbe
00000020: 1620 5a3d e862 a9be 1733 e03c cdc5 113d
00000030: 2235 0e3e d70b b33d 2795 90bd a390 05bd
00000040: 68b4 17bc 49c8 ba3d 990c 37bd 3ae8 873d
00000050: 246e a0bd ce53 5b3e 2e21 283d 012b af3d
00000060: bd83 e6bb 8c12 3d3d 4664 343d 7cf9 623d
00000070: 2483 bc3b a03e bbbd 2e34 d8bd 3ee5 ba3d
00000080: d43e 82be a285 5d3e e08d 5d3e 5d3d 4e3e
00000090: 9c66 4d3e 4e6a 2bbd db4c df3c a1a0 513d
000000a0: 2b60 81bd e75b 353e 84df 673e f7b2 f53c
000000b0: 75c3 c93c 484f bd3d 6150 0a3d 9a6c 083e
000000c0: 913b b33d 9674 253e a239 a63d ac00 3abd
000000d0: 27b5 6dbe d023 7bbd cf60 b33d 5232 f1bd
000000e0: 8dbd c6bc d0e9 513b 3745 943d 9d6c 38bd
000000f0: 390d 793d 2ae9 b8bd 7b2d 6d3d 4774 193e
00000100: 4e97 353d f221 1f3e a548 003c 2d35 8e3d
00000110: 7b02 ca3d 05c1 e8bd 2797 5cbc 7345 193c
00000120: 000e e33d 2b39 e7bd 81aa 9a3d e8c5 ed3d
00000130: 0d17 983d ce78 21be f9df 953e 2538 09be
00000140: a6f1 d23d 9630 013d 6cef e6bd 4b0a debd
00000150: bf20 663e ed19 0dbd 3229 c3bb f848 61be
00000160: 6210 5fbc 71ee 19be 83f3 39bc 1274 8bbd
00000170: abf1 b83b 69ce 00be 86d7 b2bd 7bb3 1d3d
00000180: cc68 1dbe 80a9 1abe 55ba 8bbd 7a58 b13c
00000190: 71a4 1a3d 791a 86bd bc51 243d 81c0 3c3e
000001a0: 5627 89be 65bd 233b 4dc3 5dbd f11c 7b3e
000001b0: 9416 97bd dd8c b83a 851c 5b3d fc35 103c
000001c0: bfe6 463c 16c8 21be a0b6 453b 6a7a bd3b
000001d0: a315 62bd 716b 053e 5c53 323e c4b9 e23d
000001e0: f1c7 dd3d 9500 013e 876c 513e 6284 7d3d
000001f0: c537 50be cff7 6e3b 5856 6e3d bf8e 34be
00000200: efca 09bd a8dc 07be 4574 ecbd a701 60bd
00000210: 61b1 96bd 072c b2bc eb10 6ebc 808c 7a3d
00000220: 40e7 cf3d 47ac d3bb b737 823e 7225 dfbd
00000230: 8075 41be 0c7d 70be d3dd c03d a4c5 2c3e
00000240: 26c1 9abd 99d7 3fbe b654 0bbd a231 8abd
00000250: f305 623d e2fc 52bd 51bd b9bb 6271 e03d
00000260: ac25 a2be 6601 82bb 8fc6 e5bc 8b4d cfbd
00000270: 6deb 5ebd 2965 39bc 3102 6f3e a14e 8a3d
00000280: 2985 b43e 9e0a 28be 4799 9cbc b9c5 c0be
00000290: bbf8 f1bd 5432 a0bd 6d2a fa3d 3928 eabd
000002a0: 912f c6bd a133 98bd e838 f53d 6e6a f7bd
000002b0: af0d b23c 5ca4 45be ddc1 45be 13d3 453e
000002c0: d452 893d b0aa 863e ee5e fbba 726c af3d
000002d0: 592e 063e 874b d2bd bd36 c6bd efd8 41be
000002e0: 7f66 05bd 37bd ecbd 5b84 113d 4e13 ff3d
000002f0: 7725 73bd 4a02 243e 2fbc e43d ab36 e3bd
00000300: 48c5 d63c 4933 b23d 7580 a03c fa0e 243e
00000310: e81b 95bc 090d 0bbe 9eaa a2bd 2d50 da3d
00000320: ac49 643e 9bcd ce3d a5e8 92bd 55cc ec3c
00000330: 9f5c be3c 35da b23d 3f8a e03c 6b26 8dbd
00000340: 8b18 753d b5a8 cfbd 3d93 293d 31ba 71bd
00000350: d3ed b33d 2148 103c 0b42 debd fc49 533e
00000360: 60c1 bb3d 687a ed3d 1dbc 7abd b6bf 89bc
00000370: 72ba 98bd 2310 093d 33cf 733d 62a6 f63d
00000380: c967 3a3d b4e8 e0bd 7ce7 d63d 59f4 4abd
00000390: 4608 813d 2c79 af3d 22e6 0a3c 0c74 a03c
000003a0: 2bcf f83d b2f8 c13c 488b 613d 4333 efbd
000003b0: e8f4 bdbd 4b2d a1bd d7ba 9e3d 8665 a9b8
000003c0: 694e 94bd eb66 943d d283 083e 396a ec3d
000003d0: addc 1cbe 116b 103e 276d e0bd e058 8c3e
000003e0: beda 273c 4760 1c3e 41d0 72be d482 d8bd
000003f0: 3f16 e63d 12f0 933d afd5 993e b2fd 03b9

encoder.net.2.bias f4 [60]
-0.054198198 0.036443625 0.114076845 -0.065811016 -0.04411529 0.12856063 0.024794716 -0.028611233
0.05018675 -0.042034723 0.048597436 0.06799116 -0.011438704 0.07751974 0.01595423 -0.045459494
-0.046892073 0.009641482 -0.08180523 -0.059939507 0.049558297 -0.033105705 0.06302452 0.047554195
0.045951754 -0.04817383 0.0938017 0.121294 -0.04353392 0.040453214 -0.0106778 -0.015914377
-0.020034635 0.058559634 -0.07936676 0.0442108 -0.09103863 -0.002053361 -0.06929569 -0.015652802
-0.08526291 -0.07018026 -0.073799506 0.050095428 0.053771984 -0.025708886 0.012639699 0.04499551
-0.06097659 0.031654056 0.04885986 0.041675318 -0.06846968 -0.051156856 0.07031131 0.039553214
0.028252216 -0.041317057 -0.050688464 -0.0736233
00000000: eefe 5dbd e945 153d 1fa1 e93d edc7 86bd
00000010: 3cb2 34bd 66a5 033e 4a1e cb3c 1b62 eabc
00000020: 9f90 4d3d 9a2c 2cbd 1b0e 473d f33e 8b3d
00000030: 6769 3bbc abc2 9e3d 72b2 823c bc33 3abd
00000040: e711 40bd 4ef7 1d3c 8089 a7bd 2183 75bd
00000050: a4fd 4a3d d999 07bd 0013 813d 30c8 423d
00000060: e837 3c3d ec51 45bd 1b1b c03d fd68 f83d
00000070: a050 32bd 45b2 253d f0f1 2ebc de5e 82bc
00000080: ad1f a4bc 3adc 6f3d 0a8b a2bd 6216 353d
00000090: 7672 babd ae91 06bb e6ea 8dbd 4e3a 80bc
000000a0: 529e aebd abba 8fbd 3224 97bd dd30 4d3d
000000b0: 0340 5c3d 719b d2bc bd16 4f3c 364d 383d
000000c0: 97c2 79bd afa7 013d 4721 483d bdb3 2a3d
000000d0: d539 8cbd da89 51bd 60ff 8f3d 8d02 223d
000000e0: 3171 e73c 133c 29bd b59e 4fbd d0c7 96bd

encoder.net.5.weight f4 [32, 60]
-0.111377284 -0.276716 -0.01918765 0.07276713 -0.14896923 -0.061302777 0.07210183 0.036865767
-0.04634718 0.020252742 -0.07984126 0.034419224 -0.1028582 0.12166524 -0.062876165 0.100060806
0.069696315 -0.22502176 0.27530414 0.10025588 0.09315123 -0.17424665 0.16961733 -0.2563672
0.11536291 -0.042383995 0.3291774 0.24668446 -0.1936855 -0.037831187 -0.116514176 -0.044453163
0.15612845 -0.089970715 -0.10355955 -0.17440195 0.08312926 -0.024205 -0.096760705 -0.21378776
0.11598319 0.1567462 -0.05678577 0.016492369 0.14408186 -0.05014416 -0.010405988 0.04012717
0.14498101 0.21173117 0.008541038 0.5004774 -0.106233306 0.07590169 -0.02690442 -0.010498113
-0.0035932178 0.28015178 0.007826611 0.092158034 -0.018053392 -0.09582085 -0.08004517 0.4416155
-0.031497784 -0.030265521 0.031776927 0.02819034 -0.027049638 -0.019090898 0.04831741 -0.13358428
0.030112647 -0.009154119 0.06332899 -0.037299085 0.032221086 -0.019182479 -0.16347864 -0.15668266
0.05940785 0.09187005 -0.03463713 0.23969422 -0.09605805 -0.27830002 -0.03817489 -0.21207424
0.13570344 -0.097840995 0.21762483 -0.1444364 0.049387675 -0.06252748 -0.020510297 0.0014588191
-0.0878703 0.121348806 -0.018967705 0.036709923 0.058255717 -0.105556674 -0.08689157 0.25328627
0.080490194 0.32479978 0.06574442 0.13823955 0.026530989 0.22705062 -0.0160832 0.038492214
-0.1520395 -0.09615163 0.29995465 0.09644226 -0.041649077 -0.09424913 -0.032822724 -0.33600956
-0.035442404 0.077530555 -0.05401086 -0.023810918 0.093675196 0.26643312 -0.078543045 0.13488682
0.15703103 0.098971866 -0.23501094 0.05937189 0.16571128 -0.108512364 -0.016507246 0.08765485
0.011345716 0.085327 -0.095001906 -0.12310853 -0.012628691 0.22924411 0.069025576 -0.15511185
0.15004681 0.09439256 -0.08853402 0.0135806585 0.116822295 -0.035889115 0.026501605 0.08481151
0.01797451 -0.16711622 0.04614994 0.0025220562 -0.021249058 -0.2125487 0.04398234 0.15846914
-0.033743422 -0.17978077 0.087705165 -0.07534081 0.065678686 0.29980567 0.09423335 0.21748598
-0.045058947 0.2598894 -0.036781568 -0.05922755 -0.00013664475 0.24811654 -0.2377294 0.027691342
-0.05749285 0.11180466 -0.12385377 -0.1437449 0.117924154 -0.07600529 -0.12268349 -0.028156964
0.10132811 -0.28338394 -0.23520075 0.14654204 0.095469855 0.14501579 0.08938255 0.06250796
0.012372451 0.018689409 -0.14667451 -0.009474515 -0.025895474 -0.12353679 0.19692174 0.1287458
0.07463858 -0.18874305 -0.32053977 -0.062623434 0.19166908 0.17495684 -0.1003715 -0.08398328
0.15744501 0.020914506 -0.14241703 -0.15066512 -0.10704378 0.0017123088 0.13264385 -0.13379668
-0.12314867 0.05372468 -0.015883375 -0.08103155 0.11294916 -0.18662043 0.17916629 0.032999225
-0.23583119 0.0955786 0.21978107 0.03251064 0.10832387 0.042546324 0.15713948 -0.06434874
-0.15745156 0.19332594 0.025786394 0.045707263 0.012541314 0.15348643 0.3617137 -0.052100696
0.08502342 0.25067267 -0.12625703 0.035193097 -0.1850718 0.07082509 -0.11095836 -0.08017785
-0.029022617 0.11679805 -0.02423616 0.111330464 -0.2802951 0.2613377 -0.026589006 0.096125044
00000000: c619 e4bd b8ad 8dbe 6b2f 9dbc ef06 953d
00000010: 648b 18be 9f18 7bbd 20aa 933d 8f00 173d
00000020: 8ad6 3dbd 14e9 a53c d183 a3bd 2cfb 0c3d
00000030: 52a7 d2bd a02b f93d 38c5 80bd aeec cc3d
00000040: f1bc 8e3d 1b6c 66be aaf4 8c3e f452 cd3d
00000050: 12c6 be3d b76d 32be 2ab0 2d3e 9042 83be
00000060: 6443 ec3d d79a 2dbd f189 a83e da9a 7c3e
00000070: 7e55 46be e0f4 1abd fc9e eebd 8514 36bd
00000080: 23e0 1f3e 9142 b8bd 0817 d4bd 6d96 32be
00000090: ac3f aa3d 9049 c6bc 7a2a c6bd 2eeb 5abe
000000a0: 9888 ed3d 1382 203e 3298 68bd 011b 873c
000000b0: 328a 133e f663 4dbd e17d 2abc 635c 243d
000000c0: e775 143e 0ed0 583e b6ef 0b3c 491f 003f
000000d0: d990 d9bd 5872 9b3d a966 dcbc 4700 2cbc
000000e0: 317c 6bbb 0e70 8f3e 303b 003c 5abd bc3d
000000f0: b5e4 93bc b93d c4bd b9ee a3bd 6d1b e23e
00000100: d203 01bd 66ef f7bc 8628 023d 6eef e63c
00000110: 3497 ddbc 8464 9cbc 7ae8 453d 51ca 08be
00000120: ccae f63c 28fb 15bc a1b2 813d edc6 18bd
00000130: 42fa 033d 9324 9dbc f266 27be 6b71 20be
00000140: a555 733d 5d26 bc3d aadf 0dbd 6772 753e
00000150: 15ba c4bd 577d 8ebe 465d 1cbd fd29 59be
00000160: d8f5 0a3e dc60 c8bd 0bd9 5e3e 23e7 13be
00000170: bb4a 4a3d 680e 80bd 3605 a8bc d935 bf3a
00000180: 58f5 b3bd b985 f83d 2962 9bbc 255d 163d
00000190: 8c9d 6e3d 192e d8bd 35f4 b1bd bdae 813e
000001a0: 0bd8 a43d 284c a63e 03a5 863d ab8e 0d3e
000001b0: 8457 d93c f57f 683e eac0 83bc 03aa 1d3d
000001c0: 3eb0 1bbe 25eb c4bd a893 993e 8583 c53d
000001d0: 3998 2abd b005 c1bd 1f71 06bd 7209 acbe
000001e0: 0e2c 11bd 57c8 9e3d 7e3a 5dbd 1d0f c3bc
000001f0: c8d8 bf3d ec69 883e 2ddb a0bd c51f 0a3e
00000200: becc 203e c3b1 ca3d b5a6 70be f02f 733d
00000210: 38b0 293e bb3b debd 343a 87bc 6384 b33d
00000220: 62e3 393c ecbf ae3d 5c90 c2bd 5320 fcbd
00000230: 92e8 4ebc f8be 6a3e 485d 8d3d a4d5 1ebe
00000240: dfa5 193e e350 c13d 5351 b5bd 6981 5e3c
00000250: 8740 ef3d 7700 13bd e519 d93c a8b1 ad3d
00000260: 483f 933c 8420 2bbe b807 3d3d 1549 253b
00000270: 8112 aebc 5ea6 59be d326 343d bc45 223e
00000280: 8b36 0abd 7318 38be c49e b33d 484c 9abd
00000290: 8c82 863d 2180 993e 6afd c03d a5b4 5e3e
000002a0: bb8f 38bd 3910 853e 45a8 16bd 9698 72bd
000002b0: 4c48 0fb9 4312 7e3e 566f 73be f4d8 e23c
000002c0: 9f7d 6bbd d7f9 e43d 0ca7 fdbd dd31 13be
000002d0: 3882 f13d a9a8 9bbd 7b41 fbbd 6fa9 e6bc
000002e0: 1d85 cf3d b317 91be 77d8 70be 1e0f 163e
000002f0: b385 c33d 057f 143e 330e b73d 2c04 803d
00000300: d2b5 4a3c 881a 993c d831 16be ff3a 1bbc
00000310: bf22 d4bc db00 fdbd daa5 493e f0d5 033e
00000320: 1ddc 983d dc45 41be ca1d a4be b740 80bd
00000330: e644 443e e327 333e 938f cdbd 6dff abbd
00000340: 4439 213e e654 ab3c c5d5 11be f547 1abe
00000350: c539 dbbd 8d6f e03a cad3 073e ff01 09be
00000360: 5f35 fcbd 690e 5c3d da1d 82bc dff3 a5bd
00000370: e451 e73d 6d19 3fbe 5e77 373e 322a 073d
00000380: bb7d 71be b7be c33d 4a0e 613e e029 053d
00000390: e8d8 dd3d 0e45 2e3d 2ce9 203e 46c9 83bd
000003a0: fb3a 21be 3cf7 453e fd3d d33c 8a37 3b3d
000003b0: 157a 4d3c 8c2b 1d3e 8a32 b93e 8a67 55bd
000003c0: c220 ae3d 2b58 803e 8649 01be a326 103d
000003d0: 7683 3dbe bf0c 913d 233e e3bd 4934 a4bd
000003e0: d7c0 edbc d133 ef3d e98a c6bc 3a01 e43d
000003f0: d782 8fbe 0ece 853e 30d1 d9bc 35dd c43d

encoder.net.5.bias f4 [32]
-0.055360142 0.057421077 -0.045646727 -0.057074822 -0.047700834 -0.056528766 -0.062337454 -0.055438
0.064319566 0.064543895 -0.031921983 -0.077379525 -0.0021842283 0.011291591 -0.019562885 -0.056317456
0.048546076 -0.21377568 0.06171789 -0.036878195 0.051427584 0.06378511 -0.08038415 0.062390015
0.02110819 0.041835587 -0.0479064 -0.053706314 -0.03858252 -0.05628906 -0.055692375 -0.042265967
00000000: 51c1 62bd 5d32 6b3d 10f8 3abd 4ac7 69bd
00000010: f361 43bd b58a 67bd 8f55 7fbd f512 63bd
00000020: fab9 833d 972f 843d a0c0 02bd 2879 9ebd
00000030: 4525 0fbb 5e00 393c 5842 a0bc 22ad 66bd
00000040: 40d8 463d 03e8 5abe e6cb 7c3d 970d 17bd
00000050: bba5 523d c5a1 823d 72a0 a4bd ac8c 7f3d
00000060: 15eb ac3c cb5b 2b3d 8039 44bd 27fb 5bbd
00000070: b408 1ebd 5b8f 66bd b01d 64bd 141f 2dbd

predictor.net.1.weight f4 [32, 32]
-0.33955938 0.03080601 -0.054089498 0.04948602 0.20064065 -0.20732231 0.11809714 -0.057625655
0.09415893 0.10468483 -0.066080615 0.14129137 0.16903594 -0.111542955 -0.17993675 0.13049686
-0.076584674 0.14703774 -0.00094588875 -0.11699102 0.16662098 0.07101794 -0.016319893 -0.091682404
-0.25633377 0.22983384 0.078203924 0.058899958 -0.39969754 0.04690994 -0.029693516 0.02577175
0.12032407 -0.00295402 -0.10883857 -0.057641912 0.13559885 0.1105378 0.15815453 0.1541828
-0.1329982 -0.29143506 -0.05401746 0.0039552758 0.12368859 -0.10949692 0.057920724 -0.087407574
0.22172916 -0.10947766 -0.07261667 0.15593831 -0.0639405 0.20001245 -0.16597627 -0.030612493
-0.25269747 0.072652176 0.09335395 0.12621744 0.12630403 0.11075246 -0.3414344 0.102431156
0.1399419 -0.0584441 -0.11524514 -0.23281041 0.1204315 0.022245297 0.06721711 0.09470355
0.15636645 0.16334723 0.11957495 -0.14647484 0.39879358 -0.08750247 -0.08066721 0.15486352
0.04501827 -0.12674296 -0.012180565 0.23857376 0.09497925 -0.058151513 0.06199047 0.05966786
0.102097385 -0.12729406 0.15615882 -0.13612592 0.13023573 -0.13348228 -0.28847814 -0.12023308
0.33820745 0.14371882 -0.17677481 0.05173379 -0.107028104 -0.0030813164 0.18589213 0.24550068
-0.47399095 0.12853374 -0.0006447432 -0.07851757 -0.1897793 -0.09851737 -0.12267595 0.020363964
0.23677033 0.013737245 0.28274417 0.004230836 0.0696574 0.008740495 0.27077988 -0.005491779
-0.015363013 0.34880733 -0.119514264 -0.11892729 -0.0012299577 -1.1459398e-05 0.10052692 0.15509434
-0.05688341 -0.0022661842 0.05510131 -0.003211296 0.31290174 0.15569897 -0.13579406 -0.063286625
0.16595796 -0.0021359394 -0.14805594 -0.05610611 -0.10647282 -0.0678285 -0.24212968 -0.10756523
0.09177494 0.2116306 0.07418379 0.12814465 0.14016524 0.13584816 0.24915783 -0.097806014
0.2758471 -0.068464175 -0.29162017 0.17766383 -0.4832116 -0.25410005 0.33076417 -0.15350786
0.2959109 -0.011552811 -0.011228012 -0.10964593 0.035293512 0.14231613 0.11173077 -0.102916166
0.103118464 0.026043486 -0.08920069 0.08484287 -0.27830744 -0.30381772 -0.2401034 -0.049862277
-0.0074612703 0.098935165 0.5504981 0.06757413 -0.13894448 0.109414905 -0.123596564 0.03523983
-0.4709559 0.24394874 -0.054580793 0.08655168 0.0322245 -0.18341023 -0.07724317 0.21900898
-0.19961223 0.036198802 0.06346524 0.056253284 -0.07401977 0.31024846 -0.3284981 0.25374612
0.10643803 -0.09365052 0.17232123 -0.02818921 -0.18599369 0.08774899 -0.14182425 0.008121189
0.046700377 -0.11034825 -0.16977113 -0.16682883 0.09366914 -0.14377277 0.24281232 0.38051504
-0.20681144 0.11947382 0.06816497 -0.27521357 0.11596024 -0.1222913 -0.06916244 -0.09588492
0.2601448 -0.031833105 0.02343198 -0.14671147 0.22036783 0.27596387 0.23708382 0.11654455
0.18527624 0.15069307 -0.35622138 -0.026225315 0.23795381 0.18640599 0.09031229 0.1670822
0.05300386 -0.3322126 -0.1802873 -0.19664115 0.05277496 -0.119568095 -0.030282045 0.21590658
0.015682282 0.4012534 0.14854088 0.26717138 -0.004216058 -0.14209472 0.18948653 -0.18763773
00000000: bada adbe e35c fc3c f38c 5dbd dab1 4a3d
00000010: be74 4d3e 4d4c 54be eadc f13d e108 6cbd
00000020: 66d6 c03d 0065 d63d 4655 87bd afae 103e
00000030: c217 2d3e a270 e4bd 5741 38be f8a0 053e
00000040: 6dd8 9cbd 1091 163e 85f5 77ba fd98 efbd
00000050: b19e 2a3e db71 913d 4cb1 85bc fcc3 bbbd
00000060: 2e3e 83be 9059 6b3e 6129 a03d 1541 713d
00000070: 28a5 ccbe a324 403d d13f f3bc 471f d33c
00000080: 776c f63d 3b98 41bb c2e6 debd ed19 6cbd
00000090: 6dda 0a3e a461 e23d 43f3 213e 19e2 1d3e
000000a0: ae30 08be fa36 95be 6a41 5dbd 429b 813b
000000b0: 7250 fd3d ec3f e0bd 483e 6d3d be02 b3bd
000000c0: f80c 633e d335 e0bd 0cb8 94bd 4bae 1f3e
000000d0: 3df3 82bd 10d0 4c3e aff5 29be 0dc7 fabc
000000e0: 9061 81be aaca 943d 5b30 bf3d 253f 013e
000000f0: d855 013e 30d2 e23d 7dd0 aebe 6dc7 d13d
00000100: ee4c 0f3e 1563 6fbd a505 ecbd da65 6ebe
00000110: caa4 f63d c53b b63c 20a9 893d eff3 c13d
00000120: 871e 203e 7f44 273e b6e3 f43d 80fd 15be
00000130: ac2e cc3e 7f34 b3bd da34 a5bd 8b94 1e3e
00000140: 1465 383d e8c8 01be fe90 47bc ae4c 743e
00000150: 7b84 c23d 4830 6ebd b8e9 7d3d 4966 743d
00000160: 6f18 d13d 6059 02be 19e8 1f3e 9864 0bbe
00000170: 845c 053e 94af 08be 68b3 93be c33c f6bd
00000180: 8729 ad3e 072b 133e 7504 35be d0e6 533d
00000190: 8d31 dbbd e9ef 49bb 825a 3e3e 8864 7b3e
000001a0: f1ae f2be 599e 033e fc03 29ba d2cd a0bd
000001b0: 8155 42be 7ac3 c9bd 873d fbbd 54d2 a63c
000001c0: ec73 723e 2f12 613c d8c3 903e d3a2 8a3b
000001d0: 8aa8 8e3d 4b34 0f3c a9a3 8a3e 62f4 b3bb
000001e0: 26b5 7bbc e096 b23e e5c3 f4bd 2790 f3bd
000001f0: 8836 a1ba bd41 40b7 0fe1 cd3d 0dd1 1e3e
00000200: 94fe 68bd 4384 14bb e9b1 613d 9b74 52bb
00000210: a834 a03e 8d6f 1f3e 990d 0bbe 6b9c 81bd
00000220: e2f0 293e 1efb 0bbb fa9b 17be 85cf 65bd
00000230: 6c0e dabd abe9 8abd d8f0 77be 294b dcbd
00000240: 80f4 bb3d b1b5 583e aced 973d 5a38 033e
00000250: 7a87 0f3e c81b 0b3e 3b23 7f3e 854e c8bd
00000260: d53b 8d3e f236 8cbd 3d4f 95be 82ed 353e
00000270: 8367 f7be 6719 82be ec59 a93e 2a31 1dbe
00000280: a281 973e 0048 3dbc b2f5 37bc 0c8e e0bd
00000290: ee8f 103d 52bb 113e 1ad3 e43d b6c5 d2bd
000002a0: c62f d33d 2659 d53c daae b6bd 19c2 ad3d
000002b0: 507e 8ebe ff8d 9bbe aadd 75be 633c 4cbd
000002c0: ac7d f4bb 859e ca3d 72ed 0c3f 4e64 8a3d
000002d0: 7647 0ebe ec14 e03d 3220 fdbd a457 103d
000002e0: 2221 f1be b3cd 793e 1c90 5fbd 0242 b13d
000002f0: d6fd 033d e4cf 3bbe ab31 9ebd e443 603e
00000300: 2667 4cbe 3245 143d 10fa 813d d869 663d
00000310: ad97 97bd e3d8 9e3e e730 a8be 03eb 813e
00000320: 2ffc d93d d8cb bfbd fa74 303e 0fed e6bc
00000330: 2175 3ebe beb5 b33d 603a 11be bc0e 053c
00000340: e548 3f3d 43fe e1bd 7cd8 2dbe 2dd5 2abe
00000350: 9bd5 bf3d 2b39 13be cba3 783e ded2 c23e
00000360: 61c6 53be b1ae f43d 139a 8b3d cbe8 8cbe
00000370: 907c ed3d dc73 fabd 0aa5 8dbd 505f c4bd
00000380: b331 853e 6e63 02bd 6cf4 bf3c 883b 16be
00000390: 1ba8 613e 234b 8d3e 1ac6 723e e9ae ee3d
000003a0: 0eb9 3d3e 494f 1a3e a662 b6be 79d6 d6bc
000003b0: 2aaa 733e 36e1 3e3e a6f5 b83d 9917 2b3e
000003c0: 931a 593d c517 aabe 3c9d 38be 4c5c 49be
000003d0: 8e2a 583d 1ee0 f4bd 0d12 f8bc 9d16 5d3e
000003e0: 2178 803c 1671 cd3e 1a1b 183e b0ca 883e
000003f0: dc26 8abb 4781 11be c208 423e 1b24 40be

predictor.net.1.bias f4 [32]
-0.097892165 -0.09797585 -0.09338589 -0.04064269 0.09262418 -0.10238235 0.03846077 -0.08328466
-0.09776167 0.12202604 -0.10722684 0.106108084 -0.11886405 0.09987376 -0.09815633 0.106895894
-0.102119274 0.09045558 -0.09846311 -0.09546434 0.1245273 0.09653915 0.09159179 0.10796988
0.09657939 0.09706366 0.11194212 -0.12467147 0.09648285 0.0907426 -0.10303359 -0.09698515
00000000: b07b c8bd 90a7 c8bd 1a41 bfbd f378 26bd
00000010: bfb1 bd3d d6ad d1bd 0a89 1d3d 2691 aabd
00000020: 4537 c8bd cae8 f93d bf99 dbbd 324f d93d
00000030: ff6e f3bd 9d8a cc3d 3006 c9bd 3cec da3d
00000040: e923 d1bd c640 b93d 07a7 c9bd cf82 c3bd
00000050: 2b08 ff3d 51b6 c53d 7a94 bb3d 501f dd3d
00000060: 6acb c53d 50c9 c63d e941 e53d c153 ffbd
00000070: cd98 c53d 42d7 b93d 4603 d3bd 26a0 c6bd

predictor.net.3.weight f4 [1, 32]
-0.43553457 -0.22186239 -0.18116547 -0.006997251 0.1812335 -0.34127483 0.0025784597 -0.1006363
-0.10384778 0.062842794 -0.20680211 0.34257206 -0.17110935 0.2650714 -0.32672048 0.26162177
-0.2974479 0.0490524 -0.064236134 -0.11269671 0.083930224 0.2825073 0.10653115 0.10498216
0.07845968 0.22581637 0.60907763 -0.113435715 0.20618947 0.16747507 -0.50112 -0.3570151
00000000: 63fe debe e52f 63be 7183 39be 3249 e5bb
00000010: 4695 393e 93bb aebe 60fb 283b 681a cebd
00000020: 25ae d4bd b9b3 803d efc3 53be 9b65 af3e
00000030: 4a37 2fbe 70b7 873e e847 a7be 4af3 853e
00000040: 174b 98be 2beb 483d 3c8e 83bd 88cd e6bd
00000050: 9ce3 ab3d cca4 903e 012d da3d e300 d73d
00000060: 78af a03d 683c 673e 83ec 1b3f fc50 e8bd
00000070: 5523 533e 967e 2b3e 6649 00bf afca b6be

net.0.weight f4 [60, 35]
-0.018276427 0.012505084 0.09793108 0.19063824 0.18504167 0.06411747 0.048707984 -0.11918517
-0.04719216 0.041859552 -0.31091112 0.036287647 -0.1716352 -0.06221639 0.13092786 0.28537446
0.076509215 -0.08784709 -0.04718215 0.14999396 -0.09821015 -0.04712979 0.099350154 0.10101502
-0.13313994 -0.23060173 0.10141655 0.025867261 0.13448292 -0.06401403 -0.006173409 0.11494222
0.45497596 0.03043552 0.068806626 -0.20242815 0.005144862 -0.12581669 0.19806378 -0.19039887
-0.23598468 -0.17755793 -0.09964015 -0.111150615 0.026858466 -0.09174833 0.062328678 0.22169514
-0.22011638 0.08051327 -0.15067726 0.10597429 0.14317897 0.032080133 -0.101439476 0.08273218
-0.27918702 -0.0018727505 -0.08847889 -0.11059792 0.0065819 -0.17940891 -0.02840399 0.07631771
0.08825943 -0.04983558 -0.14754748 0.007300264 0.090047434 -0.046854723 0.29149 -0.051791128
0.21661994 -0.16694969 0.10804541 0.0022852113 0.26902252 0.1433633 0.19740872 0.09417851
0.00854591 -0.01272983 -0.117782734 -0.1377228 -0.067970835 -0.010718102 0.02365863 -0.16515313
0.27525693 -0.09829039 -0.11285165 -0.12235248 -0.048682917 -0.08446603 0.054096717 0.25488284
0.13276586 0.15111384 -0.42236418 -0.036322754 0.28749132 -0.14828484 0.15405658 -0.05825058
0.17675869 -0.012886749 -0.028783198 0.13542956 0.2769223 -0.09504459 -0.086375415 -0.019164126
0.19701134 -0.112123236 0.2243609 -0.07673118 -0.15521027 0.3054859 0.042345505 -0.08586681
0.08398548 -0.08294751 -0.15962282 -0.20828626 -0.042559396 0.29644012 -0.18294264 -0.012218926
-0.12274214 0.21364874 -0.07416542 -0.052475803 0.28463072 -0.010271177 -0.07916382 -0.06177213
-0.06341827 0.084520146 -0.0010658628 0.10207609 -0.15322973 -0.07453878 0.027469829 0.06869501
-0.013857819 -0.12972802 -0.043153208 -0.004891358 0.031372305 -0.10188625 0.12792332 0.20447005
-0.101980664 -0.057047803 -0.11097555 0.07653425 0.06332087 -0.323036 0.07660246 -0.087631024
0.42877585 0.0341113 -0.02953774 0.064501755 -0.009101458 -0.029126741 -0.06693291 0.074854106
0.015764045 0.3065567 -0.013515984 0.21074986 -0.040161863 0.041358285 0.050974037 -0.06386026
-0.046041373 0.01195972 -0.21037759 0.09117422 -0.11128964 -0.04555131 -0.0142866 0.04100984
-0.065951854 0.21210575 -0.04456365 0.020632744 -0.02822365 -0.030174524 -0.21372871 0.20834419
-0.10063433 -0.19008034 0.11557127 0.012486481 0.113598384 -0.044616807 0.03294176 0.002327921
-0.028140329 -0.19372767 -0.12555444 -0.049730446 -0.021398034 0.020570619 0.12112768 -0.18896994
-0.08350469 0.026043976 0.021200273 0.34237418 0.13482967 -0.035247266 0.076353185 -0.2859768
-0.055758994 0.028246496 -0.010040356 -0.0003112446 -0.05075751 -0.35333863 0.0132684205 -0.18318094
-0.113943934 -0.27026278 -0.07617997 -0.012145487 -0.2031595 -0.091900975 0.06718657 0.008327972
0.020691209 0.37209585 0.0017454791 -0.0014770394 -0.038037114 -0.057034206 -0.20160455 0.21591233
-0.07611336 -0.09678398 0.23679152 -0.0600526 -0.20972772 -0.19609752 -0.075659 -0.13135238
-0.2002484 0.09616009 -0.09152005 0.13766941 -0.31288034 0.12813689 -0.13146286 0.04468199
00000000: 72b8 95bc 20e2 4c3c 1790 c83d ac36 433e
00000010: 907b 3d3e 0550 833d 0682 473d 5b17 f4bd
00000020: 914c 41bd ec74 2b3d be2f 9fbe 5ba2 143d
00000030: 23c1 2fbe 9dd6 7ebd f411 063e 9a1c 923e
00000040: ddb0 9c3d 2de9 b3bd 1242 41bd 0498 193e
00000050: 6722 c9bd 2b0b 41bd 1878 cb3d f6e0 ce3d
00000060: d655 08be dc22 6cbe 7bb3 cf3d 94e7 d33c
00000070: e4b5 093e ca19 83bd 4f4a cabb d466 eb3d
00000080: 9cf2 e83e e953 f93c 7dea 8c3d 5349 4fbe
00000090: 3b96 a83b 17d6 00be 3bd1 4a3e ecf7 42be
000000a0: f8a5 71be bfd1 35be 2310 ccbd efa2 e3bd
000000b0: 4906 dc3c 8ce6 bbbd 5b4c 7f3d 0d04 633e
000000c0: 3066 61be 24e4 a43d 244b 1abe 0c09 d93d
000000d0: 829d 123e 7566 033d 80bf cfbd 7d6f a93d
000000e0: 9af1 8ebe 1477 f5ba 6c34 b5bd 2a81 e2bd
000000f0: fbac d73b f8b6 37be 7caf e8bc 764c 9c3d
00000100: 5cc1 b43d 6520 4cbd b016 17be 0e37 ef3b
00000110: ca6a b83d bdea 3fbd 2d3e 953e ef22 54bd
00000120: 9ed1 5d3e dcf4 2abe e946 dd3d 7cc3 153b
00000130: 52bd 893e d4cd 123e 8325 4a3e aae0 c03d
00000140: 2504 0c3c c790 50bc 1338 f1bd 3507 0dbe
00000150: 4b34 8bbd fa9a 2fbc becf c13c e71d 29be
00000160: 7aee 8c3e 794c c9bd c41e e7bd f093 fabd
00000170: bd67 47bd 87fc acbd 8594 5d3d 0180 823e
00000180: c6f3 073e 96bd 1a3e 1e40 d8be 2bc7 14bd
00000190: 1032 933e fbd7 17be 02c1 1d3e 2998 6ebd
000001a0: 3b00 353e f122 53bc beca ebbc 0cae 0a3e
000001b0: c2c8 8d3e bda6 c2bd 98e5 b0bd 16fe 9cbc
000001c0: 57bd 493e dea0 e5bd ddbe 653e 3d25 9dbd
000001d0: 71ef 1ebe a668 9c3e 7b72 2d3d f0da afbd
000001e0: 9400 ac3d 62e0 a9bd 2a74 23be fe48 55be
000001f0: c352 2ebd 00c7 973e 5155 3bbe e431 48bc
00000200: 3b60 fbbd bcc6 5a3e 0ae4 97bd def0 56bd
00000210: 1ebb 913e 7048 28bc a420 a2bd c604 7dbd
00000220: 70e1 81bd e618 ad3d 6cb4 8bba 450d d13d
00000230: 41e8 1cbe caa7 98bd 6808 e13c f8af 8c3d
00000240: e80b 63bc 6cd7 04be 6bc1 30bd af47 a0bb
00000250: 3f80 003d bda9 d0bd 55fe 023e 9960 513e
00000260: 3ddb d0bd f5aa 69bd 2647 e3bd fdbd 9c3d
00000270: 5fae 813d f964 a5be c0e1 9c3d e577 b3bd
00000280: 8288 db3e 4ab8 0b3d 21f9 f1bc 7f19 843d
00000290: 481e 15bc 349b eebc 1f14 89bd 1c4d 993d
000002a0: 9923 813c 00f5 9c3e 2572 5dbc d0ce 573e
000002b0: c480 24bd 4e67 293d 27ca 503d 2bc9 82bd
000002c0: e195 3cbd b4f2 433c 396d 57be 8db9 ba3d
000002d0: d3eb e3bd 0394 3abd 5812 6abc eff9 273d
000002e0: c411 87bd 4032 593e 6088 36bd 0006 a93c
000002f0: 4935 e7bc 9030 f7bc b3db 5abe 2e58 553e
00000300: 5f19 cebd 6ca4 42be a1b0 ec3d 1994 4c3c
00000310: 45a6 e83d 1dc0 36bd f0ed 063d 0990 183b
00000320: 8c86 e6bc 8c60 46be 5891 00be 27b2 4bbd
00000330: ee4a afbc b783 a83c ca11 f83d 5681 41be
00000340: 8204 abbd 2d5a d53c 32ac ad3c ab4b af3e
00000350: ca10 0a3e 705f 10bd 0f5f 9c3d 8d6b 92be
00000360: 8b63 64bd 3265 e73c 4e80 24bc 8b2e a3b9
00000370: 1be7 4fbd cde8 b4be ca63 593c c993 3bbe
00000380: 705b e9bd e25f 8abe 3e04 9cbd ddfd 46bc
00000390: 0b09 50be 9436 bcbd 1d99 893d 0c72 083c
000003a0: 9c80 a93c 5983 be3e 8fc8 e43a 3899 c1ba
000003b0: cecc 1bbd b39c 69bd 6c71 4ebe 1f18 5d3e
000003c0: 52e1 9bbd ae36 c6bd 7a79 723e b7f9 75bd
000003d0: ddc2 56be cacd 48be 1bf3 9abd 3d81 06be
000003e0: eb0d 4dbe 95ef c43d dd6e bbbd 36f9 0c3e
000003f0: da31 a0be 5136 033e 339e 06be 7604 373d

net.0.bias f4 [60]
0.13171431 0.03619081 -0.07346654 0.12977043 0.04293543 0.030967325 -0.036700618 -0.029468246
0.011113395 -0.06079791 -0.04847055 0.105582535 0.034305736 -0.0051500634 0.020705651 0.12893926
-0.051304594 0.12858397 -0.06553742 -0.104267046 -0.12705877 -0.0036662056 -0.028670473 -0.028700626
0.13037387 -0.11426425 -0.023600603 0.08588281 -0.067807235 -0.1652529 0.10154391 0.17294817
0.16291495 -0.03771763 -0.032644637 -0.05548315 -0.02821689 0.15098387 -0.04709517 0.12860829
-0.000569908 -0.15025897 -0.111389495 -0.033430908 -0.13233499 0.15514511 -0.057182737 -0.16822623
-0.0070275166 0.0144783165 0.15301473 -0.13248204 -0.10375209 0.119036965 -0.041826572 -0.13630325
0.036197897 -0.05269041 0.14048013 0.061246652
00000000: 1ee0 063e d13c 143d a075 96bd 8ae2 043e
00000010: 10dd 2f3d 30af fd3c 6353 16bd 6467 f1bc
00000020: f514 363c 3b07 79bd 0e89 46bd a83b d83d
00000030: 2c84 0c3d ddc1 a8bb e69e a93c a708 043e
00000040: c424 52bd 84ab 033e 7c38 86bd f689 d5bd
00000050: b21b 02be b944 70bb 57de eabc 931d ebbc
00000060: ba80 053e 6003 eabd 0d56 c1bc 54e3 af3d
00000070: 85de 8abd 0e38 29be 41f6 cf3d 5319 313e
00000080: 2dd3 263e cd7d 1abd 62b6 05bd 4d42 63bd
00000090: 1b27 e7bc 849b 1a3e dde6 40bd e4b1 033e
000000a0: e165 15ba 7ddd 19be 2d20 e4bd d9ee 08bd
000000b0: d382 07be 5cde 1e3e 7238 6abd 7f43 2cbe
000000c0: 1547 e6bb 7636 6d3c e5af 1c3e 5fa9 07be
000000d0: fa7b d4bd a7c9 f33d 5752 2bbd 1493 0bbe
000000e0: 3f44 143d e6d1 57bd 06da 0f3e c5dd 7a3d

net.2.weight f4 [60, 60]
-0.12380742 0.038294036 -0.043097924 -0.15446986 0.09859446 0.012278206 -0.04840994 -0.24707754
0.17527194 0.053758956 0.089733735 -0.123772636 0.053875614 -0.09061955 -0.038121734 -0.044866428
0.011583321 -0.0201965 0.024440883 0.20742957 -0.026904618 -0.18094285 0.15832013 -0.084199965
0.14459923 -0.15721178 -0.07345493 -0.018179456 -0.02506852 -0.015859507 0.14148961 0.0991435
-0.15744881 -0.13829072 0.23653343 -0.1072782 -0.030095436 -0.12563068 -0.01152503 0.17248665
0.033028807 -0.017568607 -0.025045017 -0.09338424 -0.16697408 0.21000141 -0.098017395 -0.032580066
0.25810158 -0.083673716 0.09448448 0.11416011 0.30059293 0.049586833 -0.055090986 -0.06710491
-0.1428823 0.009748592 -0.052272238 0.116507776 0.11810125 0.19494766 -0.06762428 0.09747243
-0.027098695 -0.070229575 0.07408021 0.15261644 0.18441173 -0.13846374 0.023548312 0.21233858
0.025038278 0.14396946 0.1467584 -0.063480355 -0.20607725 -0.14685768 -0.15658577 -0.26662403
0.029361932 0.3023781 0.010687077 -0.004236926 -0.19182378 0.055804845 0.15840405 0.09795757
0.061840188 -0.012541617 0.027245231 -0.14275864 0.110136405 -0.060633797 0.022589488 -0.13250767
-0.025793886 0.19065864 -0.06492774 0.030989267 0.06634304 0.21023813 0.16483536 0.11968361
-0.11074737 0.07094444 0.08579033 0.09115762 0.070265576 -0.115071654 -0.037522357 -0.31634378
-0.13702826 -0.012495052 -0.058208026 0.046837095 -0.06247145 0.05440661 -0.41994628 0.082587704
-0.10492218 0.0077220276 -0.020625418 0.19302288 0.12349377 0.020739084 -0.12798548 0.025565518
-0.084102854 0.09410938 -0.16141123 -0.19493946 -0.0039189416 0.033733863 0.02128168 0.09104628
-0.0028481942 0.08005109 0.13614203 -0.16376023 0.03392739 0.033070944 -0.20848477 -0.07224112
0.13293394 -0.27662128 -0.078870855 0.01078388 0.0034573714 0.07464849 -0.1581193 0.08572511
0.035571784 -0.060998913 -0.1935746 0.08345304 -0.20211205 0.25203466 0.119932845 -0.08369582
-0.027945612 0.014498778 -0.199889 0.3207125 -0.06035663 0.15808432 0.021130877 -0.031231072
0.15111777 -0.07481119 0.0075137755 0.06220935 0.08996467 0.12458259 0.01670719 -0.05931857
0.2116591 0.06663226 -0.11344585 -0.11202592 0.13787526 -0.0294117 -0.0068324376 0.29587498
-0.100036345 -0.06502239 0.10130216 0.20279978 -0.040421184 -0.25470266 0.012849262 -0.29916215
-0.16166656 0.11304076 0.094163924 0.19832101 0.031321876 -0.23025551 0.01517269 -0.14149928
0.09067505 0.032850247 0.09653481 -0.1775378 0.102985695 -0.005099145 0.026792942 0.072057985
-0.031573348 -0.28427455 -0.08071504 -0.13188556 -0.22104676 -0.19638643 -0.05133066 -0.026967298
0.10625516 -0.047576547 0.106759585 -0.019139698 0.11367658 0.093260735 -0.07884069 -0.00062894786
0.1262231 0.16495767 -0.060164113 -0.08170765 0.1749134 -0.015740683 0.17903419 -0.39048514
0.09610403 0.0027490912 0.08493013 0.26505053 0.017147424 -0.3269144 0.009798403 -0.052752886
-0.20528992 0.12716396 -0.099154785 -0.35886195 -0.059884857 -0.0831178 -0.16745108 -0.044446185
-0.08033888 -0.06961182 0.1939447 0.1332717 0.065347314 0.1819312 -0.14954203 0.120832436
00000000: bf8e fdbd 35da 1c3d 7387 30bd 592d 1ebe
00000010: e4eb c93d 872a 493c 8049 46bd e501 7dbe
00000020: 7d7a 333e 5a32 5c3d 52c6 b73d 827c fdbd
00000030: adac 5c3d be96 b9bd 8925 1cbd dcc5 37bd
00000040: f8c7 3d3c 2173 a5bc 3f38 c83c 6b68 543e
00000050: 1367 dcbc 1549 39be ac1e 223e 0871 acbd
00000060: d211 143e 20fc 20be 8a6f 96bd 15ed 94bc
00000070: 7f5c cdbc cceb 81bc a7e2 103e bf0b cb3d
00000080: 433a 21be 159c 0dbe d235 723e acb4 dbbd
00000090: b48a f6bc 54a5 00be 7bd3 3cbc 57a0 303e
000000a0: 3749 073d 0aec 8fbc 352b cdbc 3d40 bfbd
000000b0: 41fb 2abe 9c0a 573e 58bd c8bd ad72 05bd
000000c0: e425 843e 205d abbd 1481 c13d c7cc e93d
000000d0: 51e7 993e 901b 4b3d 16a7 61bd 4d6e 89bd
000000e0: bd4f 12be 8fb8 1f3c 6a1b 56bd a19b ee3d
000000f0: 11df f13d 5ca0 473e 997e 8abd a09f c73d
00000100: 15fe ddbc 86d4 8fbd 5db7 973d 7c47 1c3e
00000110: 6ed6 3c3e 70c9 0dbe 64e8 c03c 496f 593e
00000120: 131d cd3c bb6c 133e d647 163e fd01 82bd
00000130: ea05 53be dc61 16be 0558 20be f282 88be
00000140: 6f88 f03c 4dd1 9a3e da18 2f3c e9d5 8abb
00000150: 746d 44be 9f93 643d ac34 223e fa9d c83d
00000160: 234c 7d3d 5b7b 4dbc 6431 df3c 522f 12be
00000170: 328f e13d 255b 78bd 970d b93c 17b0 07be
00000180: b34d d3bc 053c 433e d6f8 84bd 34dd fd3c
00000190: dcde 873d aa48 573e 9aca 283e ae1c f53d
000001a0: 84cf e2bd 524b 913d d7b2 af3d d9b0 ba3d
000001b0: 66e7 8f3d b0aa ebbd 0bb1 19bd d0f7 a1be
000001c0: 2351 0cbe 0cb8 4cbc 8a6b 6ebd 41d8 3f3d
000001d0: 10e2 7fbd 77d9 5e3d 3303 d7be be23 a93d
000001e0: 71e1 d6bd 1009 fd3b a3f6 a8bc caa7 453e
000001f0: 4dea fc3d 03e5 a93c a00e 03be c76e d13c
00000200: 1e3e acbd 6bbc c03d fc48 25be 369e 47be
00000210: 776a 80bb 852c 0a3d eb56 ae3c 7976 ba3d
00000220: c5a8 3abb d3f1 a33d d168 0b3e c3b0 27be
00000230: 72f7 0a3d 6675 073d 087d 55be 27f3 93bd
00000240: d61f 083e 4ea1 8dbe 0b87 a1bd dfae 303c
00000250: 1195 623b 4fe1 983d 07ea 21be a590 af3d
00000260: b8b3 113d ffd9 79bd 6c38 46be 6de9 aa3d
00000270: 76f6 4ebe b00a 813e 5a9f f53d b768 abbd
00000280: 32ee e4bc 488c 6d3c b4af 4cbe 6e34 a43e
00000290: 8338 77bd dbe0 213e a91a ad3c 4ed8 ffbc
000002a0: 9ebe 1a3e 9c36 99bd 1e36 f63b 3bcf 7e3d
000002b0: 663f b83d 2825 ff3d 84dd 883c 07f8 72bd
000002c0: 2abd 583e 7f76 883d 4c56 e8bd d86d e5bd
000002d0: 2c2f 0d3e cef0 f0bc a4e2 dfbb ed7c 973e
000002e0: dbdf ccbd 752a 85bd 8277 cf3d bfaa 4f3e
000002f0: af90 25bd 6368 82be b685 523c c82b 99be
00000300: eb8b 25be ea81 e73d 04d9 c03d aa14 4b3e
00000310: 5e4b 003d 1ac8 6bbe e096 783c 30e5 10be
00000320: d7b3 b93d fb8d 063d 0bb4 c53d 78cc 35be
00000330: 2aea d23d bb16 a7bb df7c db3c 2393 933d
00000340: 0e53 01bd 6f8c 91be ed4d a5bd 020d 07be
00000350: 155a 62be 8619 49be 1940 52bd 86ea dcbc
00000360: 4e9c d93d a0df 42bd c5a4 da3d dbca 9cbc
00000370: 44cf e83d 7cff be3d 3a77 a1bd fadf 24ba
00000380: a140 013e aaea 283e a56e 76bd 5756 a7bd
00000390: 801c 333e 9bf2 80bc bd54 373e abed c7be
000003a0: 31d2 c43d 192a 343b d9ef ad3d b4b4 873e
000003b0: c178 8c3c 5361 a7be 7b89 203c 6913 58bd
000003c0: 8537 52be 4537 023e aa11 cbbd c1bc b7be
000003d0: d349 75bd aa39 aabd 4c78 2bbe 340d 36bd
000003e0: b688 a4bd a490 8ebd 7099 463e 6078 083e
000003f0: d0d4 853d 2c4c 3a3e 8c21 19be ff76 f73d

net.2.bias f4 [60]
-0.02236112 0.021740472 -0.033406135 0.010581992 -0.047188204 -0.025233451 -0.104498915 0.06697865
-0.050022736 0.11104795 0.11926833 0.07764364 -0.065512836 -0.003043753 0.03255318 -0.06031915
0.056206137 -0.05130485 0.07513785 0.10831964 -0.05961461 0.09001631 -0.078367464 -0.071263485
-0.114164345 -0.13123484 -0.10536425 0.1000151 -0.060382005 -0.04956096 0.0050297375 -0.062122583
0.0007687024 -0.062426634 -0.11244419 0.11105288 0.1230549 -0.028726839 0.10110995 0.014834922
-0.03731872 -0.13198523 0.06419176 0.10784011 -0.033759557 -0.10981288 -0.050737973 0.0659205
-0.0053906105 -0.033230145 0.112518825 -0.09680425 0.00029252484 -0.024798369 0.024448788 -0.041148752
-0.07566136 -0.032973357 0.0349142 -0.050355937
00000000: ab2e b7bc 1319 b23c dfd4 08bd 1760 2d3c
00000010: 6b48 41bd 62b6 cebc 8703 d6bd 1a2c 893d
00000020: a4e4 4cbd 1c6d e33d f442 f43d a103 9f3d
00000030: 982b 86bd b479 47bb 7c56 053d 3711 77bd
00000040: 6838 663d 0925 52bd e0e1 993d b0d6 dd3d
00000050: 732e 74bd 795a b83d 1f7f a0bd 97f2 91bd
00000060: ffce e9bd 6d62 06be 36c9 d7bd b7d4 cc3d
00000070: 1f53 77bd 6f00 4bbd 7fd0 a43b 4074 7ebd
00000080: bf82 493a 12b3 7fbd 2449 e6bd b16f e33d
00000090: 3504 fc3d 8c54 ebbc bc12 cf3d 2c0e 733c
000000a0: 84db 18bd 2327 07be f876 833d 47db dc3d
000000b0: 7647 0abd 93e5 e0bd 9fd2 4fbd 5401 873d
000000c0: b8a3 b0bb 551c 08bd 4570 e63d 4e41 c6bd
000000d0: 055e 9939 f325 cbbc d348 c83c 988b 28bd
000000e0: 58f4 9abd 120f 07bd 3102 0f3d 0742 4ebd

net.5.weight f4 [1, 60]
0.022956068 -0.012970063 0.21133162 0.2536035 -0.0023567746 0.060848456 -0.12718245 0.07725705
0.080361806 -0.012439222 0.080434866 -0.00314546 0.09839827 0.14439571 -0.06818817 -0.0028891037
0.023960656 -0.1705948 0.044712566 -0.26148573 0.06353468 -0.20140181 0.21878235 0.009366985
-0.15047441 0.0011075764 -0.06401307 -0.14245407 -0.062204964 -0.043685075 -0.023647327 0.16112839
-0.30784267 -0.08728389 -0.04774047 0.21220464 -0.005252978 0.04971136 0.01272591 0.10437492
0.3442038 -0.17585957 0.21530207 -0.035481907 -0.05409745 0.20048384 0.36484626 0.1415613
-0.019925758 0.16413295 -0.010403888 0.05530048 -0.028607061 -0.010208597 -0.17742513 -0.00876956
-0.12009449 -0.05376302 -0.13948934 0.24571775
00000000: 5d0e bc3c 6380 54bc 5167 583e 51d8 813e
00000010: 1e74 1abb 3b3c 793d 1e3c 02be f238 9e3d
00000020: bb94 a43d e1cd 4bbc 09bb a43d 1024 4ebb
00000030: 0885 c93d 78dc 133e 3da6 8bbd 1e57 3dbb
00000040: 2349 c43c 67b0 2ebe 8624 373d 75e1 85be
00000050: 781e 823d 473c 4ebe 7b08 603e fc77 193c
00000060: f715 1abe 192c 913a 4919 83bd 7bdf 11be
00000070: a2ca 7ebd 1fef 32bd 0ab8 c1bc d7fe 243e
00000080: 8e9d 9dbe e5c1 b2bd 838b 43bd 2c4c 593e
00000090: 2c21 acbb 249e 4b3d 5680 503c 85c2 d53d
000000a0: 7b3b b03e 8814 34be 2578 5c3e 7a55 11bd
000000b0: 4a95 5dbd a34b 4d3e 21cd ba3e 72f5 103e
000000c0: 583b a3bc 7812 283e 1275 2abc c282 623d
000000d0: 5b59 eabc f641 27bc efae 35be 33ae 0fbc
000000e0: 1af4 f5bd 9d36 5cbd 4bd6 0ebe 6f9d 7b3e
