results analysis/processed results/PINN/NASA_dqdv results/3-3/Experiment2/model.pth (torch, 61182 bytes, 14 tensors)

encoder.net.0.weight f4 [60, 18]
00000000: fa10 8e3d a26e 95be e30f f1bd fe3b 86be
00000010: 3e7f 71bd 0381 4cbd f9a8 773c 1f38 f8be
00000020: 52a9 503d ee52 2cbd 0cc4 10bd ca7e 82be
00000030: 8b15 613e 2d09 66be eada 46bd 2bc8 d33d
00000040: c862 74be 1671 a03d bbc6 5abb 920c 093e
00000050: b400 92bd 6967 3dbe 283f 173e 29ee 3cbe
00000060: 5cb9 373e b61a 2c3e 6db3 ca3d 99f0 d7bc
00000070: 3fbc 4b3e 806c babe c5df 37bd fd1b 22be
00000080: d676 36be b284 9ebc 83a0 9e3d acb7 be3e
00000090: 03cb 033e 2cbc e23d b4c6 753e 8ce9 403c
000000a0: fd33 23be bcb0 9f3d e609 02bd 94c5 873d
000000b0: 695a b2bd 1a35 9f3c a01d 14bd 44c1 0c3e
000000c0: bfda 7dbd a06d 28be be80 f5bd d63b b23d
000000d0: b414 8cbe b0f7 0a3e f1e4 2c3e f0cb f73d
000000e0: 07bd 10be d388 07be f1bf 313e 982e 05be
000000f0: 6909 dd3d 2c93 92bd 20f9 b7bc 847e 5b3d
00000100: c9a9 a4bd 72fd dfbd 77bd 15be b18d 2b3e
00000110: a6ad aa3a 7ddc bd3c e448 913d 86c3 7abd
00000120: 84ba cb3d ec0f 883e 70e2 2fbe 5279 37be
00000130: d9bd e43c 9dcf 473c b454 e43d 7ca7 38bc
00000140: e468 05bf 409a 433e 06ac 89bd ba62 c73b
00000150: a6b8 6e3c 5859 1c3e 0696 6cbd ca56 ce3e
00000160: 3035 083d 10c3 d8bb a1ac dc3c 7949 233e
00000170: 1243 8d3e 7233 cd3b ceb8 6b3e 797c 1cbe
00000180: c5a3 35be 7c93 9b3d 9c7f be3c d392 863d
00000190: 0f9a 343e 98e6 a33d 2bd7 6b3e 86b0 28be
000001a0: be17 db3c 5560 b93b c92d 7ebe 5ea4 2fbd
000001b0: f1c7 2ebd b56a 833d 3232 2fbd 3eb7 dabd
000001c0: 0b9f c8be 6ec4 d33d dc38 733e 6b43 d63c
000001d0: 9917 93bd 7411 3ebd b4b8 f03c 9f3c 11be
000001e0: 5013 e83d b1aa a23d b9b4 8fbd 4cec e13c
000001f0: 23ba 54be 19f4 063e 78ea b93c 503e c2bd
00000200: c2da af3e 7ed2 16be d972 81bd d4ee 713e
00000210: 5025 b7bc 3c75 fd3c 1d09 983e 7d92 cfbd
00000220: f707 803e d3f1 1ebe 3e78 a3bc ecd8 3a3e
00000230: 9589 163e 7091 8cbc 5dbf 9dbe 0009 f03d
00000240: 6eaf 21be 784f 3e3d 5ff3 8dbe 767c bc3d
00000250: facd 35be 7cae 29bd 9e74 48be 7302 b8bd
00000260: d697 8b3c d525 5b3e b705 2c3e b119 b4be
00000270: dc61 323e b6f4 3cbe 2445 623e a37c 283e
00000280: f66e a13d 76dd 4cbd e3e2 293e 1423 2fbe
00000290: 3fc1 c63e c0ed 2ebe 200b d8bc e872 49bd
000002a0: 406d 483e 3038 943e 4d10 5e3e 7500 8b3d
000002b0: 9170 59be 421d 883d 0acf 3cbc b3f4 86be
000002c0: a7a8 c8bd f2eb ac3d d374 71be a787 96bc
000002d0: a5de 993e 3edf 9cbb daf8 833d 63b1 383d
000002e0: 5501 633d df33 cc3d ec73 a1be c393 853e
000002f0: 88f4 11bc 6214 1f3e 468f 92be 5b4d abbd
00000300: 1f15 aabe dab3 9e3b 4ff5 31be 9e4e b4be
00000310: 18bf 92be ffad 02be 4462 1b3e 0009 bc3e
00000320: 7a98 33be e83c 913b 1fe2 7d3c 53d2 39be
00000330: bd6f 053e 2793 3a3e dc5b ad3a 056c f43d
00000340: ac5c c8bd cfaa 3abd d56a c33d bde7 733e
00000350: 7179 30be b9b8 733d d71a c4bd bb37 3a3d
00000360: c2ae 1a3c a19f 06be 3314 c0be 8ae0 4abe
00000370: e02b f8bd 5da4 343e 5f5a 3b3e 1c29 b3bb
00000380: a3ab bf3d 06b7 1b3d e4b8 b839 b6ef 943e
00000390: 20b6 0b3e b107 16be 9110 913d 7c2f b73d
000003a0: 6ffe 84be e508 fabd bb6c 15be 7e39 4bbe
000003b0: 5688 093d 1b6f bbbd 63c4 c5bd 0e0b 603d
000003c0: dc3f 913d 19a9 163d 2b1f 70bd 2606 6a3b
000003d0: 4108 823e 605b 89bd 0065 f5bc 4d50 56be
000003e0: 5360 8abc 61b6 043d b67f f8bc fd54 993d
000003f0: 2193 233d 22f4 dc3c d7e6 8cbd fe03 b1be
0.06936832 -0.2918597 -0.11770608 -0.26217645 -0.05895924 -0.049927723 0.01511597 -0.48480317
0.050942726 -0.042071275 -0.035343215 -0.25487357 0.21980874 -0.22464438 -0.048548616 0.103409134
-0.23865807 0.078340694 -0.0033382613 0.13383701 -0.0712904 -0.18496479 0.14770186 -0.18450226
0.17941803 0.16807064 0.09897504 -0.026359843 0.19896029 -0.36410904 -0.044891138 -0.15830989
-0.1781877 -0.019350383 0.07745459 0.37249506 0.12870412 0.11071047 0.2400158 0.011774432
-0.159378 0.07797381 -0.03174772 0.06629482 -0.087086506 0.0194345 -0.036161065 0.137456
-0.06197619 -0.16448069 -0.11987446 0.08702819 -0.27359545 0.13571048 0.16884209 0.12099445
-0.14134608 -0.13235788 0.17358376 -0.13006055 0.107928105 -0.07156977 -0.02245766 0.05358745
-0.080401964 -0.10937013 -0.14623056 0.1675327 0.0013021722 0.023176426 0.07093981 -0.061221622
0.099476844 0.26574647 -0.17176223 -0.17917374 0.027922558 0.012195495 0.11148968 -0.0112704
-0.52113175 0.1910181 -0.06722264 0.006084767 0.014570391 0.15268457 -0.05776026 0.4030059
0.03325385 -0.00661505 0.026937785 0.15945996 0.27590233 0.0062622363 0.23019716 -0.15281858
-0.17738254 0.0759649 0.023254208 0.06570973 0.17636894 0.08002967 0.23031299 -0.16473588
0.02674472 0.0056572356 -0.24822153 -0.042881362 -0.042671148 0.06416837 -0.04277248 -0.10679482
-0.3918384 0.103402 0.23752159 0.026155194 -0.07182235 -0.046403363 0.029384948 -0.14183281
0.113318086 0.07942713 -0.07016892 0.027578495 -0.2077413 0.13179053 0.022694811 -0.094845414
0.34346586 -0.14728734 -0.063207336 0.23626262 -0.02235666 0.03093969 0.29694453 -0.10135362
0.25006077 -0.15521936 -0.019954797 0.18246812 0.14700921 -0.017159194 -0.3081006 0.117204666
-0.15789577 0.046462506 -0.2772474 0.092034265 -0.17754355 -0.041426167 -0.19575736 -0.08984842
0.017040174 0.2140115 0.16799055 -0.3517585 0.17420143 -0.18452725 0.22096688 0.16453795
0.07882492 -0.05001589 0.16590457 -0.17103225 0.3881931 -0.17082882 -0.026372492 -0.04918185
0.19572926 0.28949118 0.21685906 0.067871965 -0.21234347 0.066462055 -0.011523971 -0.26358566
-0.09797793 0.084434405 -0.23579721 -0.018375231 0.30052677 -0.0047873547 0.06443949 0.045091044
0.055421192 0.09970831 -0.31533754 0.26089296 -0.008908398 0.15535119 -0.28624934 -0.08364364
-0.3321924 0.0048432173 -0.17378734 -0.3521623 -0.28661418 -0.12761687 0.15174204 0.36725616
-0.17538634 0.0044323094 0.015495806 -0.18146639 0.13030906 0.18220197 0.0013226229 0.119346656
-0.09783301 -0.045573052 0.09541861 0.2381887 -0.17233826 0.059502337 -0.09575432 0.045463305
0.00944108 -0.13146831 -0.3751541 -0.19812217 -0.121177435 0.17640825 0.18296193 -0.005467547
0.09358909 0.03801634 0.0003523297 0.29089135 0.13643694 -0.14651372 0.07083238 0.08944604
-0.25975367 -0.12208728 -0.14592259 -0.1984615 0.033577286 -0.09152051 -0.096565984 0.054698043
0.07092258 0.036782358 -0.058623474 0.003570923 0.25396922 -0.067068815 -0.029955387 -0.2092907
-0.016891634 0.032400493 -0.030334335 0.07486913 0.039935235 0.02697188 -0.06879967 -0.34573358

encoder.net.0.bias f4 [60]
00000000: 638a b53d 9e26 1e3d 5f17 703d 858e 163d
00000010: dafd 95bc b0a7 4abd ddc3 8f3d a8f0 96bd
00000020: 71eb 4abd ffdb a43d e00e ab3d f417 81bd
00000030: 624b 523d 2fd6 91bd edcd 5e3d ac35 773d
00000040: 11d5 3e3d 71e6 8d3d d0e7 40bd eb52 313d
00000050: d215 88bd 6640 aebd 685b a3bd 4325 543d
00000060: 78c2 593c 7299 4cba b9c5 6fbd 7617 b8bc
00000070: 1643 28bd b8c3 b43d 6ecb 663d be93 3cbd
00000080: f54e d83d a48d 763d 6d02 043d 4661 a43d
00000090: c2a6 9b3d 37a7 bd3c a827 85bd ae28 513d
000000a0: e04b 88bd 7e9a 51bc 1b84 fbbc 5058 90bd
000000b0: 884e 00bb 922b a33d a774 613d fdbc f5bc
000000c0: 57fd 1dbd 3516 d03d bca2 8d3d 1a4a 5e3d
000000d0: 505d 653d a15b 543d 4741 5ebd 5d7d 873d
000000e0: 100e dabd 717a b5bd 1056 90bd aa84 783d
0.08864286 0.038611047 0.05861604 0.03675701 -0.018309522 -0.049476326 0.0701978 -0.0737012
-0.04954094 0.080497734 0.083524466 -0.06303397 0.051341422 -0.071209304 0.054395605 0.06035392
0.046589915 0.06928719 -0.047096074 0.043291967 -0.06644787 -0.08508377 -0.07976419 0.051793348
0.013290994 -0.00078048476 -0.058538172 -0.022472125 -0.041079603 0.08826393 0.05634635 -0.046039335
0.10561935 0.060193673 0.032228876 0.08026366 0.07600166 0.023151023 -0.065017045 0.051064186
-0.06655097 -0.012793181 -0.030702641 -0.07048094 -0.0019578058 0.07967295 0.05504289 -0.029997343
-0.03857168 0.10160486 0.06915805 0.054269888 0.055997193 0.051845197 -0.054261472 0.06615708
-0.106472135 -0.088612445 -0.07047665 0.060673393

encoder.net.2.weight f4 [60, 60]
00000000: 8a14 3e3d d2d5 8d3c 0349 15be 6a61 8fbd
00000010: 650f 023e d5db 4e3d 6da7 623e bed7 da3d
00000020: 4a51 c3bc 3b87 51be c77c 73bd 26cc 613d
00000030: 05d3 a13e fdc8 80bd ee68 e1bc 8016 c13d
00000040: 2c26 b63d 5209 6dbd 38de 45bd 4fa2 86bc
00000050: 1978 16bc 9775 99bd b754 a4bd 9819 103c
00000060: c267 3c3e b9d0 8fbe 1c76 90bd 4093 55be
00000070: b4a5 cebd a7bf cb39 b538 01bd 1987 1bbe
00000080: 2450 4f3e 1f96 223e 44f7 d43d c06a 8cbd
00000090: 524f febd 89b4 383e b2ce ebbd e4d5 8ebc
000000a0: bdd6 b6bd d946 e6bc 8ab0 17be 1ca7 96bd
000000b0: 49ac a5bd 69b2 9b3d 6d2d 3e3e a6e9 a93d
000000c0: 6b57 7e3e e90b bdbd 65a2 1cbe f572 c53d
000000d0: 27ce 20be 880d 7c3d a557 53be 6f75 1dbe
000000e0: 1d56 5bbd 2425 d0bd 9e0b 8f3d e2d7 bdbc
000000f0: ff4c 94be 9d17 c8bd 68ed 683d 863c 093e
00000100: eedf 453e 462f 9b3c 5864 763c 4596 84bd
00000110: a1cf e3bd 97f9 7f3d d4ab 46be 55ed 41be
00000120: 9d44 0dbe 5626 fc3d ee22 8ebe ee71 33be
00000130: a2b6 62bd 1bdc b93c e4d3 85bd 0139 a5bd
00000140: 356a 1bbe f6ac 83bd 4238 efbc edc3 04be
00000150: 5821 5f3d 0944 bb3c a0cc 143e 2016 863d
00000160: 734c b23d 0793 f1bd de78 3aba df4e bf3d
00000170: 61a9 ce3c 1466 63bd 7242 d6bd 69f4 e33d
00000180: 5efe fdbc 7ade 9d3d ff3d 8fbd ca1a 43be
00000190: 73ed 8abc 44e0 b03c 7b71 b43d 10e7 a13c
000001a0: 83e9 0b3d 1198 653c ba95 b33d 3e5f c73e
000001b0: b3bb 2bbe 5475 963e a905 2d3e 7e76 fcbd
000001c0: 5639 04bd e03b 093e 0b80 c4bc 1531 2bbe
000001d0: f0ea 263e 387e c3bd fb4b 423d 1faf 12be
000001e0: 6d13 0cbe 72c3 be3d a251 863d 1587 8abd
000001f0: 7c84 8fbc f430 bebd 46ee 393e 44ef ea3d
00000200: 979b 73bc 00b1 b5bd e56d a4bc 4c9a f4bc
00000210: f9cb 333d b988 81bd 17fd 99bb 5097 bf3d
00000220: 8e1e 883e 3080 c5bc 68c4 13bd 5abb c23d
00000230: 6c1c 813c c05b 9dbd cb51 a13e e98a 2ebe
00000240: 3ddf b13b 45d5 aebd e9a0 ea3d 7496 0c3e
00000250: e881 e1bd fc30 93bc dfe7 c33d bc68 ee3d
00000260: 54d5 0dbe 36ae 093e 871c f5bd 7136 443d
00000270: 1276 4cbd 998a d93d 0908 b2bb 52f1 833c
00000280: 7216 723e 2348 22be fd02 88bd c148 66bd
00000290: 682a b43d f732 37bd 1a6a 71bc fe96 683e
000002a0: 79be cdbb 0d6b 6ebc 1dbd 70bd 8ffb 9cbd
000002b0: 4f06 dbbd 57c1 163d 7dd9 67be c9e2 61bd
000002c0: 079c b5bd c127 4a3e 71b9 ef3c 6a85 1b3c
000002d0: ad43 a03d 4dff 80be 3d3c 43be d598 cabd
000002e0: bd9e fd3d 4d4c 273c 4e2f 48be ebe1 0f3d
000002f0: a18b bc3c 03f9 75be c1a0 a2bc f9f3 05be
00000300: 0e22 43bd 3b53 1ebb da1c ad3b d71c 98bd
00000310: bac3 d23d 6525 e2ba b179 0f3d 4980 1ebd
00000320: ea88 2f3e cd7d b13c 3e94 093d d2fa 6bbd
00000330: 1be0 f83c 4dcd d0bd 2e4e 8abd 43f1 81bc
00000340: f184 6f3b 9229 80be fa0b 283c 47dc d53d
00000350: 54c0 7dbd dc5c 06be 48be 4f3d 4dc7 b0bd
00000360: d943 dfbc a6aa a53a 2494 13be f7a5 c8bc
00000370: 72f2 13be f641 01be 76fe b0bc 2ed7 17bc
00000380: 4d24 f83c 23bb 923d c59a ad3d 3ee4 1fbe
00000390: ff7b 60bd 5142 833c 1979 19be 826d e5bd
000003a0: 7285 ee3c 390e 3ebc 4e80 14bd fe7b 823c
000003b0: e438 e93c 7982 b9bc 3822 203e 9d57 86b9
000003c0: 7c29 f03d 7261 cabd 6685 fb3d 9dd6 51bd
000003d0: dc3e 683d 8d85 42be b52e 77bd d368 80be
000003e0: 4c04 40bd db36 fc3b 0ed3 f8bc f530 aabd
000003f0: a85a 70be b76c 35bd 7107 133e 4a70 5fbe
0.046406306 0.017313872 -0.14578633 -0.07001002 0.12701185 0.050502617 0.2213418 0.10685681
-0.023842473 -0.20461743 -0.05944517 0.05512633 0.31606308 -0.062883355 -0.027515855 0.0942812
0.088939995 -0.057870217 -0.048307627 -0.016434817 -0.009183907 -0.074931316 -0.080239706 0.0087951645
0.18398955 -0.2808893 -0.070537776 -0.20856953 -0.10090199 0.0003886197 -0.03154822 -0.15188254
0.20245415 0.15877579 0.10398725 -0.068562984 -0.12417473 0.18037619 -0.115140334 -0.017435975
-0.08927677 -0.028109955 -0.14813438 -0.07356092 -0.080895014 0.076023884 0.18572016 0.08296518
0.24838035 -0.09230787 -0.15296324 0.09641067 -0.15703641 0.061536342 -0.20638902 -0.15376829
-0.05354892 -0.10163334 0.06984638 -0.02317423 -0.28964993 -0.09770129 0.056867033 0.13401994
0.19323704 0.01894344 0.015038572 -0.06473974 -0.111235864 0.062493887 -0.19401485 -0.18938191
-0.13795705 0.123119995 -0.27761024 -0.1752393 -0.055349953 0.022687962 -0.065345556 -0.08067513
-0.15177234 -0.06429474 -0.02920163 -0.12965365 0.05447516 0.02285959 0.14531183 0.06547189
0.08705988 -0.11795621 -0.00071133475 0.09341215 0.02522725 -0.05551727 -0.10461892 0.11130602
-0.03100508 0.0770845 -0.06994247 -0.19053188 -0.016958928 0.021591313 0.08810707 0.0197635
0.03415824 0.014013306 0.087687925 0.38939852 -0.1677082 0.2938639 0.1689669 -0.12327288
-0.032281242 0.13401747 -0.023986837 -0.16717942 0.16300559 -0.09545559 0.047435742 -0.14324616
-0.13679285 0.09314622 0.06558539 -0.06764046 -0.017519228 -0.09286681 0.181573 0.114714175
-0.0148686385 -0.08871651 -0.020071933 -0.02985873 0.043895695 -0.06324906 -0.00469936 0.093550324
0.2658581 -0.024108976 -0.03607598 0.09508391 0.015760623 -0.076835155 0.31507716 -0.17045178
0.0054282234 -0.08536772 0.114564724 0.13729268 -0.11011106 -0.017967694 0.0956571 0.1164107
-0.1385091 0.13445362 -0.11968332 0.047903482 -0.049917288 0.106221385 -0.005433087 0.016106281
0.23641375 -0.1584783 -0.06641195 -0.056221727 0.08797151 -0.04472634 -0.014734769 0.22713849
-0.0062788096 -0.01455189 -0.058774102 -0.076651685 -0.10694563 0.036805477 -0.22641559 -0.05514792
-0.088676505 0.19741727 0.02926323 0.009492258 0.07825408 -0.2519478 -0.19065948 -0.09892432
0.123837925 0.010211063 -0.19549295 0.03512756 0.023015799 -0.24020772 -0.019852044 -0.1308135
-0.0476399 -0.0024158496 0.0052829804 -0.07427376 0.10291238 -0.0017253576 0.035028163 -0.03869656
0.17142072 0.021666432 0.03358864 -0.057612248 0.0303803 -0.10195408 -0.06753193 -0.015862113
0.0036547745 -0.25031716 0.010256762 0.10442405 -0.061950997 -0.1312136 0.050718576 -0.086317636
-0.027254032 0.0012639358 -0.1441198 -0.0244932 -0.14447954 -0.12622818 -0.021605711 -0.009267611
0.030290747 0.071646 0.084767856 -0.15614411 -0.054805752 0.016022833 -0.14987601 -0.112025276
0.029116366 -0.011600071 -0.036255173 0.015928265 0.02846951 -0.022645222 0.15638053 -0.0002562375
0.117266625 -0.098818675 0.12281303 -0.05123006 0.056700572 -0.18996258 -0.060347278 -0.25079975
-0.046879098 0.007696969 -0.030374076 -0.08310119 -0.23472083 -0.04429313 0.14358307 -0.21820179

encoder.net.2.bias f4 [60]
00000000: b6ec 65bd b22b 4bbd fd5c 80bd 9854 9bbd
00000010: 8b65 843d 72e1 7c3d 0c8c 8abd 2ab5 91bd
00000020: 2226 403d fe7b 9a3d d0f2 403d 9b0d a8bc
00000030: 2d84 4cbd 07b3 23bd 39bd 763d 6876 8cbd
00000040: ed11 c2bd f3e3 79bd 7fbf a9bd 3ef3 1e3d
00000050: c171 b73d 88de 67bd d844 673d 867a 873d
00000060: 54e6 04bd 4f80 b23d 78b0 65bd e559 79bd
00000070: c017 733d 66b8 3d3d 9ec6 05be b995 943d
00000080: 88b0 783d 6bce 853d d222 993d 5dc5 543d
00000090: c19b 513d f687 65bc e9c9 e33d 4a86 5c3d
000000a0: 591e 04bd 5666 6cbd 6565 56bd bb4e d9bd
000000b0: e13f 983d c0aa a73d 61c8 903d 4ec8 993d
000000c0: bb01 82bd 3a1d ebbd 8622 72bd d0de 86bd
000000d0: 9f81 95bd 15cb 873d c693 833d 7905 2dbd
000000e0: 876a 9c3d aa33 4a3d 872d c83c c78f bdbd
-0.05613395 -0.049602218 -0.06267736 -0.07584494 0.0646468 0.06173844 -0.06764993 -0.071146324
0.046911366 0.07543181 0.047106564 -0.0205143 -0.04993074 -0.039965656 0.06023905 -0.06858522
-0.09476075 -0.061008405 -0.08288478 0.038806193 0.08957244 -0.056608707 0.05646214 0.06615166
-0.03244622 0.08715879 -0.056076497 -0.060876746 0.05934882 0.046318434 -0.13064048 0.0725512
0.06071523 0.06533512 0.074773446 0.051946033 0.05117393 -0.014009466 0.11122496 0.053839006
-0.032255504 -0.057714783 -0.05234279 -0.1061072 0.07434059 0.08186865 0.07069469 0.07508908
-0.06347986 -0.11480184 -0.059114955 -0.06585467 -0.07300114 0.06630532 0.0642467 -0.042241547
0.07637506 0.049365677 0.024435772 -0.09255939

encoder.net.5.weight f4 [34, 60]
00000000: 69d5 05bd e858 87bd 7315 4c3d 0fa7 4f3e
00000010: 017f 963c 4534 5a3e 716b 0dbe 77dc af3d
00000020: 397d a93e 0141 28be 95c3 803d 0ba7 75bc
00000030: 5b0e 5fbe 8905 58be 61a5 043d 94ae e6bd
00000040: e9c8 36bd 6579 e0be a207 913e eab3 74bc
00000050: 8c92 9d3e fa4b 6dbe 2641 583c 70b8 783e
00000060: 20d0 4d3e f145 c93c 6f7f 83bd b7ae 1ebe
00000070: 8452 0ebd 3f76 05be 0682 5d3c da41 13bd
00000080: 6ef5 cd3c f2bd 533e db4b c83c 2669 fdbd
00000090: a7ba bc3c 41e3 9abc 5ab0 42bd c4a2 47be
000000a0: 2caa 1cbe bd32 a03e a029 9b3d ab30 2fbe
000000b0: 4804 81bd 92dc 8e3e a597 943d 55e2 87be
000000c0: 05bc 853b c96e afbd a5fc 103e 4803 b3be
000000d0: d2ba e83c b0b9 6a3d 7e37 503d 7074 05be
000000e0: 248a 6ebe 3322 513d 8fdb 203e 0534 9c3d
000000f0: 4e18 c03d 8423 5f3e 87f1 f2bc 8f49 65be
00000100: 5ff5 f1bc e166 2d3d 426c 7dbe bf92 c6bd
00000110: f573 3fbc aeb1 7a3e c54b 1fbd 6fdc ed3d
00000120: b95f 01bd 3b09 24bd 4fc1 733c 1e2e 6dbe
00000130: 8703 593e 5e87 6dbd f517 b9bd fb20 6ebe
00000140: 870f b53e ef05 183e bdd8 1fbe 6994 55bd
00000150: e631 133e 46f8 0e3e 454c b83e 6bb5 1d3e
00000160: f487 b43d 3155 eabc c962 b0bd 2742 2fbe
00000170: 729f 6cbd 55b7 803e ee6d 593e cc92 39bd
00000180: d7b1 f83c 38d4 d7bd 3a41 d1bd 32d7 87bd
00000190: 6478 65bd 584b 443d c857 103e 1f34 bfbd
000001a0: a596 cf3d 763b 14bd ae9a e4bd 25aa 8fbd
000001b0: 2d81 223e 525c 8b3d e08e 4ebd 2073 c63d
000001c0: e846 593d e6fd 833e 83f7 b83c e644 79be
000001d0: 6d86 9ebe e5d8 b8be 1f96 a83d 9205 8c3c
000001e0: 27c0 48bd c83f 5d3d 2db7 92bb f7d5 4bbd
000001f0: 1882 01bb 5361 d63c 7a92 8dbe 35b5 333e
00000200: 8a95 51be 8118 ebbd a178 95be 67ef 753e
00000210: 01de 4fbe 739e 0b3d 0d7b 1cbe 962e 643d
00000220: bdf6 9c3e cb27 8bbd 9f8c 343e d61c a4bc
00000230: 846a c3bd e922 a53d ac30 323d 7996 b33e
00000240: 5ac7 973d 0af2 87be d217 39be 803f 36bd
00000250: e0d0 963d 3b9c a13d 6e0b 8b3d 351a 13bd
00000260: c3d4 253e f86c 1abb aaae bf3c feaf b33d
00000270: f209 19be ec4e 7e3c 5e52 efbc 64cc 043e
00000280: abb7 ff3d 0e6b a1bd 07ce 9fbd e678 3cbe
00000290: 8a82 1ebe c270 59be 866d 1d3e 2a6f 0e3e
000002a0: b899 9c3d 08bf e33d 97af b83b 7dab 703e
000002b0: 88be 70bd baba 04be 8e99 9abe b6bb 06be
000002c0: 3ebd 903e 325e 98bc bb5e 683d f88b 1b3c
000002d0: e5ff 9f3e 9613 303e ab1f 9d3e 39e6 74bd
000002e0: 00b7 b93d 7676 723d 8cae 8f3c e308 86bb
000002f0: fab9 c63d 3853 093e 661b 803d 200a 093e
00000300: de0d 603e 3c71 793d 5c40 e9bc 4df9 1fbd
00000310: 958c 0ebe 066b 063e b2fa 42be 5a4a f8bb
00000320: 3558 8a3c 1127 113d ccc2 d33d 7e00 5d3d
00000330: 719b 2b3e 558a 1bbe 5577 ae3d 815d fe3c
00000340: d8e9 94bd 8ffc b2bb 088b 693c b869 a5bd
00000350: d028 26bb 9c17 023e e2a2 5a3c cfb3 d03d
00000360: 5b11 933d 956c 1dbd 6ad1 cfbd 0e87 2c3e
00000370: 6444 81be 98ad dcbc c61d a7bd fccc 8d3d
00000380: ffc3 e2bb fcf8 0dbe 7550 2bbd 6a51 2a3e
00000390: 779c c73d a86a 77be c7e8 043e 7f2f 22bd
000003a0: fbda 933d 3edb 80be c725 76bd 2036 393e
000003b0: fa05 ec3d 3fce 843d c58b 1e3e 7b9c b03c
000003c0: 0098 47bc fc50 2a3d 9ea7 57be 7514 073e
000003d0: 45c1 58be e4db fd3c a8b3 32be b5cf c5bd
000003e0: 157f 083e 79d2 563d 59ea ae3d d8c2 173e
000003f0: 152f 33be ae7b 32bd c8a4 12be d5b9 25bd
-0.032674227 -0.066087544 0.049825143 0.20278572 0.018371107 0.21309002 -0.13810517 0.08586972
0.3310335 -0.16431047 0.06287304 -0.014993439 -0.2178282 -0.21095861 0.03238428 -0.11263767
-0.044625197 -0.43842617 0.28326136 -0.014935473 0.3077587 -0.23173514 0.013199126 0.24289107
0.20098925 0.024569483 -0.064207904 -0.15496336 -0.03474666 -0.13033389 0.01351977 -0.035951473
0.025141444 0.20677927 0.024450233 -0.12373571 0.023038222 -0.018907191 -0.047531463 -0.19495684
-0.1529929 0.3128871 0.07576299 -0.17108409 -0.06299645 0.27902657 0.072554864 -0.26539865
0.0040812516 -0.085660525 0.14158876 -0.3496344 0.028409395 0.05730599 0.05083417 -0.13032699
-0.23294884 0.051058006 0.15708755 0.076271094 0.09379636 0.21790892 -0.029656185 -0.22391342
-0.029535947 0.04233444 -0.24748328 -0.09695958 -0.011685361 0.24481842 -0.03889062 0.1161431
-0.03158543 -0.040047865 0.014877631 -0.23162124 0.21192752 -0.057990424 -0.090377726 -0.23254769
0.3536341 0.14846013 -0.15610023 -0.052143488 0.14374503 0.13961896 0.3599569 0.15401237
0.088149935 -0.028605076 -0.08612592 -0.17115079 -0.057769246 0.2513987 0.21233341 -0.045306012
0.030358238 -0.105385244 -0.10217519 -0.06632842 -0.056023017 0.047923416 0.14095986 -0.09336113
0.10136155 -0.03618952 -0.11162315 -0.07014874 0.15869589 0.06804718 -0.050429225 0.09689927
0.053046137 0.25779647 0.02257896 -0.24342689 -0.30961934 -0.36102977 0.08231758 0.0170925
-0.049011376 0.054015905 -0.0044774027 -0.0497646 -0.001976138 0.026169455 -0.27650815 0.17549594
-0.20467201 -0.11479283 -0.29193595 0.24017106 -0.20299532 0.034086656 -0.15281315 0.05570849
0.30656996 -0.06794699 0.17631768 -0.020033281 -0.095418006 0.08063299 0.04350345 0.3507574
0.0741107 -0.2655185 -0.18075493 -0.044494152 0.073640585 0.07891127 0.067892894 -0.035913665
0.16194443 -0.0023563486 0.023398716 0.08773802 -0.149452 0.015521746 -0.02921408 0.12968594
0.12486204 -0.07881747 -0.078029685 -0.18405494 -0.15479484 -0.2123442 0.15373811 0.13909593
0.07646507 0.11120421 0.0056361663 0.23502918 -0.058775455 -0.12961856 -0.30195278 -0.13157544
0.2826938 -0.018599603 0.056730967 0.00949382 0.3124992 0.17194971 0.30688223 -0.05978987
0.090681076 0.059195004 0.017539285 -0.004090415 0.09703441 0.13410652 0.06255226 0.13382769
0.2188029 0.060899004 -0.028473072 -0.03905611 -0.13920815 0.13126764 -0.19040945 -0.007577223
0.016887764 0.035437647 0.10339889 0.053955548 0.16758515 -0.15189488 0.085188545 0.031050446
-0.07271165 -0.0054622362 0.014254339 -0.08076805 -0.0025353916 0.12704319 0.013344498 0.10190546
0.07181045 -0.03843363 -0.101473644 0.16848394 -0.2524749 -0.026938245 -0.08159976 0.06923863
-0.006920337 -0.13864511 -0.041824777 0.1663262 0.0974664 -0.2416178 0.12979423 -0.039596077
0.072195016 -0.2516727 -0.06009462 0.18087053 0.115245774 0.06484651 0.15483005 0.02155899
-0.012182236 0.04158114 -0.21060035 0.13191397 -0.21167476 0.030988641 -0.17451346 -0.096587576
0.13329728 0.052446816 0.08540792 0.1482042 -0.17498429 -0.04357498 -0.14320672 -0.040460426

encoder.net.5.bias f4 [34]
00000000: bbf4 623d 3aff e93d 44d1 a2bd e9be b33d
00000010: 471c b23d 7332 a93d 6e5c afbd c800 f6bd
00000020: 697f 913d 0b5b 94bd 4b81 d43c c59d 77bb
00000030: 68b4 a1bd 9ef4 52bd a523 58bc 9887 62bd
00000040: acec 8fbd 2230 873d 55dd bebd f994 f0bd
00000050: b780 debd 8aad a73d 5221 823d bca8 6bbd
00000060: 7db9 06bd 8045 b73d 8b63 8a3d 2479 873d
00000070: ca45 ad3d 7796 d8bd 7cbe 9e3d c6ef 5cbd
00000080: df60 823d 1a2a 8d3d
0.055409174 0.11425634 -0.079500705 0.087766476 0.086968 0.082615755 -0.085625514 -0.12011868
0.0710438 -0.072439276 0.025940558 -0.0037783247 -0.07895738 -0.051502816 -0.013192092 -0.055305094
-0.070275635 0.066009775 -0.093195595 -0.11747164 -0.10864394 0.08187397 0.063540116 -0.057533965
-0.03289174 0.08948803 0.067572676 0.066149026 0.08460577 -0.10575574 0.07751176 -0.053939603
0.06366133 0.06892796

predictor.net.1.weight f4 [32, 34]
00000000: ae36 0e3d bbf9 91bd 6c87 42bd 972a ab3e
00000010: 5bf2 7f3e a349 143d 5b58 04be c0a9 15be
00000020: e31f 6abe 8f23 eb3c 24d0 39bd aeb1 87be
00000030: 2df5 2d3e 7907 e23c 9471 d0bd cb82 80be
00000040: 26ed 2d3e 4301 b3bc 8be3 53bc 23d9 903e
00000050: 62f2 2c3e 6c9c a1be cfc5 da3d 637e 8c3e
00000060: b155 cebd 13cd 04be 4653 64be f1de e83a
00000070: b7af 13bd a8ab 4c3d d0da 85bd 5083 27bd
00000080: dec1 6b3e 6114 81bd 5361 593c 8266 23be
00000090: 5427 07be 4cfc b9be 7ad0 5c3e 423b 9f3e
000000a0: a61e 8b3e 89da 883d a4e8 7a3d b9e7 3a3c
000000b0: 01a3 0ebe b1df b5bd 9cff 34bc 9e61 f4bd
000000c0: 0846 aa3c a951 f73d 425b 733d 465d 263e
000000d0: c933 61be 83eb b5bd e949 10be 4d61 5f3e
000000e0: f0a6 d93e 21f3 18be edf2 14be b7a3 4c3e
000000f0: 9f54 9f3d 3c38 9b3d 4232 ad3e 4c58 11bc
00000100: e676 0fbe bb4d 51bc 350d a33d 7889 883e
00000110: 2999 c5bd 9206 113e 1f40 4a3d aab9 213d
00000120: 851a b9bd 0483 e4bd 4804 2dbc ecb2 283e
00000130: 8426 41bd 819e 563e abd5 75bd ae33 81bd
00000140: e101 58bd b0be 903d 6bd2 a33e 1d0c 04bc
00000150: 3e8d 843e 788f 133e 6546 b3bc 87df 4fbe
00000160: 7728 fbbc 7cb4 45bd 3777 8fbd 1efa d6bd
00000170: 0e6a dfbd 2bda 81be 73db 98be c25f 7dbe
00000180: 2c55 a7bd ade9 e9bd 6ff6 15bd df61 983e
00000190: 30c3 c5bd 7ef8 ae3c cd1e b7be efbe eabd
000001a0: a2ac 6dbe 855f e33d 5d1d c1bb b364 30bd
000001b0: 4207 a23e 091b 3fbd d0e7 a4bc f988 27bf
000001c0: 67fd 223e 4264 a43e 7aca 4b3e d26a 8bbe
000001d0: a48e a6be 70a2 32bd c654 fc3d dffb 733d
000001e0: 09d5 333e eeef 13bd 1453 01be c43c a2be
000001f0: 9969 383b a3ec bcbc c820 78be 6ce7 023d
00000200: 0a00 b33e 2ec9 36be da85 26bd 3403 e5bd
00000210: 51a0 dabe fa6a 573d 1736 93be 4be6 5abe
00000220: d341 d5bd b0d3 0f3e cb92 4a3e e5a9 e23c
00000230: a6f1 56be 25c7 27be bf9f 243e 6f54 f63d
00000240: 18e7 923b 1a5e 993c 69bc d83d 45ff e2bd
00000250: 6759 3c3e 3dfc 463d 3f13 0c3d 5d71 233e
00000260: ce43 39bc f7f8 7d3d 542b dd3d 288d 7c3e
00000270: a505 f3bc ac68 ecbd 7585 963e c725 383b
00000280: 1a5e 10be f1f5 10be 1d27 dd3d c810 08bd
00000290: 647a 15be edd3 4a3e 7860 5ebd 1736 e6bd
000002a0: 2477 63be d92b afbe d061 23bc 7435 8e3e
000002b0: be14 223e 288a 9ebe 24aa a83e 53d3 24bd
000002c0: a046 83be 588f 153b 92ca beba 8a99 c5bd
000002d0: 68fb 993e 41d3 5d3d fabd 35be 11ff a13d
000002e0: 9a24 5bbe fff2 98be 3940 a4be f8a9 f13c
000002f0: 89ab d8bc 469d 623e 3a6a 613e 5426 973e
00000300: b31d b4bb ab48 8bbc 84da e4bd 79cb 93bd
00000310: 3dd9 903d a9b1 11be 8be7 cabb 227f d23d
00000320: 106c 873e a4fe 0f3e d22e 03be d811 49bd
00000330: 272c 40be a644 3cbe 464b eebc d831 1e3d
00000340: c83e eb3c c6c8 043f c37f 983e 6d75 913c
00000350: c6e9 4ebe 3972 693e d50b c83d 0652 8fbd
00000360: 08d2 90be 4eaf a13d 2a18 ad3b 74b9 fe3d
00000370: 2e4c c43d 7af5 c5bc 8a95 563e 800f 873d
00000380: f02d 8e3d 74ff 85be 4aad 95bd 1ad1 803e
00000390: 3b72 4fbe 8d41 4abe 407c 28be c2bc 0a3e
000003a0: a64c fdbd 7044 aabe 4938 c33e 2c49 013f
000003b0: f6fa b2bc d111 debd f8bd dc3d 19ae 77be
000003c0: 9ab3 863e 0fbe 07bd 109d f7bd f65c 063e
000003d0: 8697 c93d 6fb2 1dbe 52b9 803e 9ed3 b43d
000003e0: ba17 ec3d a1f5 a6be ce73 013e 7f41 adbd
000003f0: bce8 8bbe 57c9 533c 259f afbe 60d9 bc3d
0.034720115 -0.071277104 -0.04749243 0.3343093 0.24994795 0.036203038 -0.1292433 -0.14615536
-0.22863726 0.02870348 -0.045364514 -0.26502746 0.16988058 0.027591454 -0.10177913 -0.25099787
0.16984996 -0.021851188 -0.012932668 0.28290662 0.16889337 -0.31564653 0.1068226 0.27440175
-0.10074938 -0.12968855 -0.22297391 0.0017766637 -0.036056247 0.04996839 -0.06535876 -0.040896714
0.23023173 -0.06302715 0.013267833 -0.15957072 -0.13198596 -0.363253 0.21563902 0.31099898
0.2717182 0.06682307 0.06125702 0.011407786 -0.13929369 -0.088805564 -0.01104727 -0.119326815
0.020785347 0.12076122 0.059413202 0.16246518 -0.2199241 -0.08882811 -0.14090694 0.21814461
0.42510176 -0.14936496 -0.14545794 0.19984327 0.07779812 0.07579085 0.33827406 -0.008871149
-0.140102 -0.01277488 0.079615034 0.2666738 -0.096483536 0.14162663 0.049377557 0.039483704
-0.09038261 -0.11157802 -0.010560103 0.16474503 -0.047155872 0.20958902 -0.060018223 -0.06308685
-0.052736167 0.07067621 0.31996474 -0.008059529 0.2588901 0.14410198 -0.021884153 -0.20300113
-0.030658944 -0.048267826 -0.0700516 -0.10496925 -0.109089 -0.2536176 -0.29854926 -0.2474356
-0.08170542 -0.11421523 -0.03661197 0.2976217 -0.0965637 0.021358725 -0.35765687 -0.11462199
-0.23210385 0.11102203 -0.005893393 -0.043064784 0.31646162 -0.046656642 -0.020130068 -0.6544338
0.15916978 0.3210774 0.19901457 -0.27229935 -0.325307 -0.043611944 0.12320857 0.059566375
0.17561735 -0.036117487 -0.12629348 -0.31686985 0.0028139113 -0.023062056 -0.24231255 0.031958982
0.34960967 -0.17850181 -0.040654995 -0.111822516 -0.42700437 0.052592255 -0.28752205 -0.21376912
-0.104129456 0.14045596 0.1978256 0.027668903 -0.20990619 -0.16384561 0.16076563 0.12027823
0.004483115 0.018721629 0.105828114 -0.11083845 0.1839348 0.048580397 0.034198042 0.15961213
-0.01130767 0.06200501 0.1079928 0.24663222 -0.029665777 -0.11543402 0.29398695 0.002809869
-0.14098397 -0.14156319 0.10798476 -0.03321913 -0.1459747 0.19807406 -0.05429122 -0.112407856
-0.22213417 -0.3421314 -0.009972051 0.27775156 0.15828225 -0.3096478 0.32942307 -0.040240597
-0.2563982 0.0022821035 -0.001455622 -0.09648426 0.3007462 0.054156546 -0.17748252 0.07909978
-0.21400681 -0.2987289 -0.32080248 0.029499993 -0.026448982 0.22130308 0.22013178 0.2952143
-0.0054967045 -0.017002424 -0.11174491 -0.07216544 0.07072685 -0.14227928 -0.006192153 0.10278155
0.26449633 0.14061981 -0.1281083 -0.049089283 -0.18766843 -0.18385562 -0.029088628 0.038621753
0.02871646 0.51868856 0.29784974 0.017756188 -0.20206365 0.22797479 0.09767882 -0.069980666
-0.2828524 0.07894765 0.0052824216 0.12437716 0.095848426 -0.024164904 0.20955482 0.06594753
0.06942356 -0.26171458 -0.07308443 0.25159532 -0.20258419 -0.19751568 -0.16453648 0.13548568
-0.12368135 -0.3325534 0.3812888 0.50502276 -0.021848183 -0.10843242 0.10778421 -0.24187507
0.263089 -0.03314024 -0.12090504 0.131214 0.09843354 -0.15400098 0.25141388 0.08829425
0.11527963 -0.32609275 0.12641832 -0.08459758 -0.27326 0.012926421 -0.34301105 0.092211485

predictor.net.1.bias f4 [32]
00000000: 5c0a bfbd 1498 dfbd 8cd5 b9bd 5f4d 153e
00000010: 1151 c8bd 9973 c0bd 3162 bdbd 2573 c6bd
00000020: a7a3 b9bd ff92 bebd b302 b7bd b7b4 bdbd
00000030: fdd5 c0bd 92e8 953d 615c b5bd d687 60bd
00000040: cdc7 b1bd ae1d c73d 0b96 b33d fa62 e7bd
00000050: 62e5 c63d 6394 abbd cc75 cbbd 7294 c93d
00000060: e6b6 e8bb 9e3d de3d 5b70 c4bd 527a c33d
00000070: 266e b3bd 721f bfbd 3434 bebd abba f9bd
-0.09328148 -0.109176785 -0.09073934 0.14580296 -0.09781087 -0.093970485 -0.09247244 -0.09689931
-0.09064417 -0.09305381 -0.08936062 -0.09262984 -0.09415815 0.0731975 -0.088555105 -0.054817043
-0.08680687 0.09722458 0.08768853 -0.11298175 0.0971172 -0.08377912 -0.09934577 0.09842767
-0.0071018813 0.10851596 -0.095917426 0.09544815 -0.087612435 -0.093321696 -0.09287301 -0.12193807

predictor.net.3.weight f4 [1, 32]
00000000: 517e 1bbe bd88 f3bd b448 43be f2dc 143d
00000010: 9ca9 b2be 1779 e2bd 409b e0bd 348a ddbe
00000020: 290c 4abe 13ac 2ebe d79a 8bbc 3c26 43be
00000030: cd19 cfbd 3249 d73b 5389 36bc 2414 373c
00000040: ef88 2bbe 24f0 fc3e e619 9e3d 330b d6bd
00000050: 8278 9c3e de85 57bc d447 a6bd 051b 423e
00000060: a6b9 9cbc fbd6 633e bf52 25be 587e c03d
00000070: 4a9b 07be 820d 99bd 0a98 32be 3cc8 a0bd
-0.15184905 -0.11891315 -0.19070703 0.036343522 -0.34895027 -0.11058252 -0.109671116 -0.43269503
-0.19731201 -0.17057829 -0.017041607 -0.19057554 -0.10112343 0.006570005 -0.011141139 0.0111742355
-0.16751455 0.49401963 0.077197835 -0.10451355 0.3056069 -0.013154475 -0.08119169 0.1895562
-0.019131493 0.22249977 -0.16144846 0.09399098 -0.13242832 -0.074732795 -0.17440811 -0.07850692

net.0.weight f4 [60, 37]
00000000: f4c2 eebc 04ca b13b 9a5b 04be 0b84 d4bd
00000010: 2a95 eabd 5aeb aa3d 8a1b d8bd b8a6 de3d
00000020: 27d8 b2be 4444 3a3e 5873 29be b1ac 353e
00000030: f1bc 3a3e 29cf ac3d d92e c5bd b1c9 d5bc
00000040: 87bc c83c 2fdf 483d e239 9fbd 24cf 933d
00000050: 3e26 1a3e 8809 a8bd 965e 903d f70e 0e3e
00000060: 28d2 983d 1947 913c 90a7 47be 802c 5fbd
00000070: d051 9a3d 810a 853d a495 c33e 097d 8fbd
00000080: 17ba 83be f1d0 09be f124 bbbd c21b 873d
00000090: 2390 52bd bde9 4f3d da7f 70bd 6083 9c3e
000000a0: b118 2bbb 6d3b dbbd 634e 14be 28c2 c8bd
000000b0: b60a b73d 6246 5f3e 45e4 04bd 8d4d 80be
000000c0: d33f 223c 229b 5c37 f7f1 ce3d ac24 e5ba
000000d0: 5161 513b c49f bfbc aa37 c7bd 3c05 83bd
000000e0: 5991 d9bd cfc1 033e 9f4a 8abe e234 97bd
000000f0: b5fd d1bd 301d 16bd 5961 223b b07e f2bd
00000100: d39a 64bd e562 923e 43c0 13bd 55a6 1a3d
00000110: d0b8 173e 8309 5b3d f5ca afbe 9178 e13c
00000120: 5ecc 393d d3c1 2fbc b009 313b 2d94 943d
00000130: 6135 453e 3b11 083e 9640 c83d 72e9 38bc
00000140: 9748 8d3e ce37 403e d2f8 9a3d e6be a33d
00000150: e40e 0fbe 33a5 233d f49e 063e 55de 533d
00000160: 3eae 1abe 4ffb ae3c 4c69 1b3e 6752 b93d
00000170: 897d b2be ad52 74be 351e b5bd bf03 4ebe
00000180: db9e c63b 5274 8ebd 501c 353e 4e2f 14be
00000190: 2753 64be 8040 16bd c1dc 10be e76e 0abd
000001a0: 4caf 8fbd 825f 8abe 417f 91bd bb75 843e
000001b0: b35c c1bd c76a 76bd 96dc 1dbc 6ab1 2e3d
000001c0: 0e7b 433e 1f7e eb3c 36c7 1abe ff83 3c3d
000001d0: ecec 3b3d 2fe6 7e3e 6333 333e 3095 3e3e
000001e0: 17ef e23d b036 a83d c226 d03e 2970 71bd
000001f0: 8dde b7bc 37ac debd 4bce a3bd dabd 23bd
00000200: efc1 c23d bf69 a3bd f000 b83d 18eb dcbd
00000210: ad56 3a3e f614 013d 17ba 8dbe 280d 213c
00000220: 3bb7 12bd 7ee8 7e3e 7163 323e 9412 36be
00000230: 11f0 a1bc 8d41 19bd 548e 803d 96f7 a33e
00000240: c0d7 c53d d6c9 c9bd 8d03 f73c b0fd 0e3e
00000250: e00b f7bc 2945 713e c552 2a3a 21bd 063d
00000260: 257d 3ebd ffdd 153e f4a0 9f3d a53a 1cbe
00000270: 2cc6 873d 83a6 93bc 5d3c 053e 827b d9bd
00000280: 9307 e93e 1700 9b3d f8d3 9bbd e8de 0cbe
00000290: 4bf5 54be 8ddf b13d 2ea9 533e b1ef 6c3d
000002a0: c456 0c3e 0277 543c 4e70 833e 3818 fe3d
000002b0: 5419 493c 0f6a 423e ecd3 913e b45c adbd
000002c0: 75fd 05bd 7014 cb3d 2cf8 dabd 681c ef3d
000002d0: 7e3c 19be e90e b4bd 081e 19bc f6c9 d8bd
000002e0: e887 e3bd 5b21 f4bd 5da1 88bd 6944 633e
000002f0: d750 d03d 55f2 22be 3598 b73d 31af 4f3d
00000300: e31e 41bd f2cc 93bd 6e57 2c3d 25fc 2dbe
00000310: 98c9 453e 7ffe 08bd 90a9 793e ee57 d63d
00000320: 627f ebbd c98f b43d 608c 7ebd 8a0d d53d
00000330: e2b7 e33d 74e0 eabd 3ebc a5bd 5bf4 10bd
00000340: a53f d3bc 6b07 b93d e17b a63c 9e19 4d3d
00000350: 8594 03be da1f 1c3e 9657 0ebe ae4f 633e
00000360: b7c4 283e f149 43be 13f3 523d c01e 0c3e
00000370: 56c5 563e 95b7 23be acbd 883c babd 47bd
00000380: 6469 11be b01f 96bb 1e77 84bd dea1 04bd
00000390: 9db3 cb3d 2182 143e 328f 81ba 0da6 4a3e
000003a0: 210c b1bd 693b 50be 6f36 47bc 681d 243d
000003b0: fa8f 01be c553 9b3d 47ec 553e 9f9e 073e
000003c0: b7b5 303e 10a2 28be 9cdc 1c3d d115 a2bd
000003d0: 06e2 5abd 05c7 aa3e 47a4 983e 5cab 30be
000003e0: 2b87 f5bd 7b17 a3bd 0c85 9cbc 8f0d 03bd
000003f0: abc0 9bbd 1f20 eb3d e236 24bd 9661 243e
-0.029145695 0.0054256935 -0.12925568 -0.10376748 -0.11454232 0.08345671 -0.10552128 0.10871643
-0.34930536 0.18190104 -0.16547906 0.17741658 0.18236138 0.0843795 -0.09628076 -0.02609715
0.02450396 0.04904097 -0.07774712 0.07217243 0.1505365 -0.08204943 0.07049291 0.13872896
0.07461959 0.017734097 -0.19497514 -0.054485798 0.07535136 0.06496144 0.38200104 -0.070062704
-0.25727913 -0.13458611 -0.091379054 0.06597091 -0.05140699 0.05076002 -0.05871568 0.3056898
-0.0026107247 -0.10704694 -0.14483027 -0.09802657 0.0893759 0.21804193 -0.032444257 -0.25059167
0.009902912 1.31491415e-05 0.10104745 -0.0017482243 0.0031948874 -0.023391612 -0.09727414 -0.06397483
-0.10623426 0.12866901 -0.27010056 -0.073831335 -0.10253469 -0.03664893 0.0024777262 -0.1184057
-0.055811714 0.28591076 -0.036072027 0.037756283 0.14816594 0.053475868 -0.3433453 0.02752331
0.045360915 -0.010727364 0.002701383 0.07254825 0.19258644 0.13287823 0.09777944 -0.011286126
0.27594444 0.18771288 0.0756699 0.07995395 -0.13970524 0.039952468 0.13146573 0.051725704
-0.1510553 0.021360068 0.15176886 0.0904892 -0.348614 -0.23859663 -0.08843652 -0.20118617
0.0060614175 -0.0695578 0.17686582 -0.1447117 -0.22297345 -0.036682606 -0.14146711 -0.03379717
-0.07015857 -0.27025992 -0.0710435 0.2587107 -0.09441509 -0.060160425 -0.009635111 0.042649664
0.1908991 0.028746663 -0.15115055 0.04602432 0.045880243 0.24892496 0.17500071 0.18611598
0.11080759 0.08213556 0.4065457 -0.058944855 -0.022444988 -0.10872691 -0.07998332 -0.03997598
0.09509646 -0.07979154 0.08984554 -0.10787028 0.18197127 0.03151413 -0.27681038 0.009829797
-0.035819273 0.24893376 0.17420746 -0.17780524 -0.019767793 -0.03741603 0.06277147 0.3202483
0.09660292 -0.0985295 0.03015306 0.13963962 -0.03015703 0.23561539 0.0006497319 0.03289521
-0.046506066 0.14635466 0.07794371 -0.15256746 0.06629595 -0.018023735 0.13011308 -0.1061926
0.4551359 0.075683765 -0.07608789 -0.13756907 -0.20796697 0.08685217 0.20670006 0.057845775
0.13704973 0.012967827 0.2567162 0.12406963 0.012274105 0.1898577 0.28481996 -0.08464947
-0.03271242 0.099160075 -0.10691866 0.1167534 -0.14964482 -0.087919064 -0.009345539 -0.10585396
-0.111099064 -0.119204246 -0.066714026 0.22194065 0.10171669 -0.15912755 0.08964578 0.050704185
-0.047148596 -0.072168246 0.042075567 -0.16990717 0.19315183 -0.03344583 0.24381089 0.1046599
-0.11498906 0.08816487 -0.06214559 0.10402973 0.11119057 -0.11468592 -0.08092545 -0.035389286
-0.025787184 0.09034618 0.020322742 0.05007326 -0.12849624 0.15246525 -0.13900599 0.22198364
0.16481291 -0.19071175 0.051501345 0.13683605 0.20973715 -0.15988 0.016692005 -0.04876492
-0.1420036 -0.004581414 -0.06468032 -0.03238093 0.09946368 0.14502765 -0.0009884594 0.19789906
-0.086448915 -0.20335163 -0.012158974 0.040067106 -0.12652579 0.07584337 0.20890914 0.13244103
0.17256819 -0.16468072 0.038296327 -0.079143174 -0.05343821 0.33354965 0.29812834 -0.17252868
-0.11988672 -0.07963463 -0.01910641 -0.031995352 -0.07605108 0.11480736 -0.040091403 0.16052851

net.0.bias f4 [60]
00000000: a316 a0bd c5f7 243d 9051 253e 5252 80bc
00000010: c578 df3c 4743 e5bd 91de c73c 5040 0bbe
00000020: c3ea 193e 6cb4 98bd 75c9 d23d 1c06 c03d
00000030: ddbc e4bd 6203 07be 2298 07bd c951 1abd
00000040: e15c d1bd f657 143e 7cca 24be 50de e0bb
00000050: a11c 4ebc bc0c d03c c458 fabd 5cb0 183d
00000060: 0da2 113d aded 80bd 7131 eabc e0cc e7bc
00000070: 2476 89bd 12fd 78bd 23fb 1ebd 3380 7f3d
00000080: 15c8 f7bd 1d57 c8bd 6e33 a43d 3f37 9cbc
00000090: eaff 473d 5d00 8fbb caad 263d c39e e1bb
000000a0: f1a5 093e 1fb0 013e 84ba 04be 02ad 7a3d
000000b0: 96cd 8ebd 0ab2 d53d f7b1 aebd cee3 193e
000000c0: c29b d7bd 43b5 05be c39e a5bd 1abe 783d
000000d0: dcc5 95bd 8803 86bc bf5e 0d3e 20d6 4b3d
000000e0: 7703 fabd 3967 8d3d 01fd 28bd 5c66 0b3e
-0.078168176 0.040275354 0.16144395 -0.015664253 0.027279267 -0.11194473 0.02439812 -0.13598752
0.1503096 -0.07456288 0.10292331 0.09376165 -0.11168835 -0.13184884 -0.03310407 -0.037675653
-0.10222793 0.1448668 -0.16092867 -0.006862439 -0.012580068 0.025396697 -0.12223962 0.037277564
0.035554934 -0.06295333 -0.028588029 -0.028295934 -0.06711987 -0.06078822 -0.03881372 0.06237812
-0.120987095 -0.097822405 0.08017622 -0.019069312 0.048828043 -0.004364057 0.040693082 -0.006885381
0.13442208 0.12664841 -0.12961775 0.06120015 -0.06972806 0.10434349 -0.08530038 0.15028307
-0.10527755 -0.13057427 -0.08086922 0.06072817 -0.07313129 -0.016359106 0.13805674 0.049764752
-0.12207692 0.06904454 -0.04125691 0.13613266

net.2.weight f4 [60, 60]
00000000: 5bf1 eabd 9ef4 27be f2e7 233e e3e0 dbbd
00000010: 692f 353e 4f5e 31be 54bb 943d e128 e7bc
00000020: a1ad 9cbd cbe7 4bbe d693 a73d 496b b7bc
00000030: 2fc5 1e3e d451 b33d a629 1abe 42e2 45bd
00000040: 9dce 77bd 6e25 813c 1a75 5dbd 9af8 0a3e
00000050: 5075 41be 3e46 b43d 37b2 523b 985c e23d
00000060: 230c 653c c542 903c 5431 b23d 7c53 fd3b
00000070: d346 613d 5a52 27be ccf7 7bbc 9e44 553d
00000080: 2f2b 323e 2eba 7dbd c5f0 fcbc c3e6 113d
00000090: 37cb 39bd 110f ddbb c22d 193e 8d25 a33c
000000a0: a37b 6b3e 8198 993d d01d 1dbe 42e5 11bc
000000b0: 0a74 f3bd a4e2 aebd efbd 763c 68c8 c1bd
000000c0: 8a58 35be 50d9 c9bc 462a 243e 809b 773c
000000d0: 267d 273e 3465 1b3e ab00 b83b 9249 8d3d
000000e0: 7eb4 b83e 4bd8 c63e b46e 183c e869 f1bd
000000f0: 469d b3bd ebe7 4ebe 58df 8e3d 1a10 853d
00000100: e117 323e f6bb fa3d b413 2c3d 70f5 af3e
00000110: 407c 413d 3d29 603c 4887 ec3d b7eb aebd
00000120: 534d a93e 319c 6cbd cbfb 863d e9c7 adbc
00000130: 7295 3a3d fb21 d53d 2d88 883d d3db 24be
00000140: 16db 61bd 4b40 653d 7f78 193e fd21 91bd
00000150: dd26 8f3e 769e 413c 989a 203e 5522 2dbe
00000160: df1f 4abc d330 00bd 1019 aebd 4e5c 1b3c
00000170: 882c 84be e8f6 a6bd 654a 57bd 954a 9dbd
00000180: 6819 62be 71cb 843d c493 ab3d 7715 cdbc
00000190: 3dbb 013e f149 9f3b afd7 c1bd 67db b9bd
000001a0: 38b3 073e 0a71 683d 2140 353e bf67 333e
000001b0: aeff d33d 3a9c b93c 4010 3f3e cf22 d4bd
000001c0: 3627 4bbe 9e8e fdbd ffce d63d 500e fd3c
000001d0: 15c4 24be 8cb4 00bd eb83 75bd 05c7 52be
000001e0: 55ce 81be 5e6a 9cbd 5a51 6a3d 11a6 22be
000001f0: fd0c 3cbd 07f4 a83d 1366 8f3d 5bd2 91be
00000200: 527a 4dbe 4967 9c3b dd2d 31be 5152 08bd
00000210: 3fe8 8d3b 1de2 76bd cd20 203d c91e 9e3d
00000220: cf47 09be 2746 65bd 657a 383e cb9f a53d
00000230: 4223 253e c457 c5bd 88c0 0d3e d832 19bd
00000240: ec6c 653d 278a f0bd 9bc2 00be f4f9 833d
00000250: 369e e0bc 255b f43d b147 c13c df9f adbd
00000260: 52dc 473c 2b11 c1bd 5219 023c b131 dcbd
00000270: 6368 36be b677 553e ef9f cb3c cc51 b8bc
00000280: 415c cdbe b8f8 d13d 95a0 44bc b276 313e
00000290: 25fb abbd 2175 6cbd 3d4b f33d 723a dabd
000002a0: 5926 33bd 39a8 733d 68d9 df3d ca19 3ebd
000002b0: 2a5a 2e3d a38e 61bd 6684 4b3d e5a3 2bbd
000002c0: 8c60 4e3e 05dc 3d3e 40de f33d 5564 973d
000002d0: 445c d63d 0e01 a53d 75dc 5ebe f804 d1bd
000002e0: 360a 69bd b6c6 fdbd 17fb 7fbd 8423 a73d
000002f0: 7400 40be 3d6b 35be a91b f8bd 095c 38bd
00000300: a733 873d 55d9 443e 110f ccbd ee46 1abe
00000310: 19e3 07bc cdf4 593e da27 083e 7156 fc3d
00000320: 19e8 4f3e ccaa d5bc e55b 963e 725a 17bd
00000330: 767e 443d e785 f03d 7970 633e 68a7 8ebd
00000340: c39a 4ebe f526 68bd 4c94 88bd 849a 823c
00000350: 110e 83bd 37d5 b13d ac16 0abe 0e32 77be
00000360: 3f39 523e 81ad 973d 94b3 1b3e 4d2e 69be
00000370: 9fd0 7a3e e529 adbc f4fe 5dbd 6685 21be
00000380: deff 533d 5ef1 a53e 241d f7bd b604 9bbd
00000390: af48 2b3e f478 09bd c339 b8bb 60e8 68bc
000003a0: 6535 a83d 39a4 103e 9662 9b3d e280 323e
000003b0: 48d6 bc3d 5b37 9c3d 521e 893e 7820 3b3d
000003c0: 9374 003d ad6d 4ebd 223f 61be abf6 803d
000003d0: 4753 553c 20dd d4bd 8d57 d6ba da1b 00bc
000003e0: 5511 15be 6d7e 7abe 394b 36be 40e9 f53d
000003f0: 83f0 01be 7324 c5be f77c 37be 1b25 69be
-0.11471816 -0.16401908 0.16006449 -0.10736253 0.17693867 -0.17321132 0.072622925 -0.028217735
-0.076503046 -0.19912641 0.08182494 -0.022390025 0.15504907 0.08755842 -0.1505495 -0.04831148
-0.060499776 0.015764918 -0.054066755 0.13571396 -0.18892407 0.0880246 0.0032149681 0.11052817
0.013979944 0.017609963 0.08700815 0.0077308994 0.054999184 -0.16340008 -0.015378904 0.05206739
0.17399286 -0.061945133 -0.030876527 0.035620462 -0.045359816 -0.006746181 0.14958861 0.019915367
0.22996382 0.07499791 -0.15343404 -0.008904757 -0.11887367 -0.08539322 0.015059932 -0.094620526
-0.17709556 -0.024639755 0.16031751 0.015112758 0.16356334 0.15175325 0.005615314 0.06898798
0.36075205 0.38836893 0.009303737 -0.11787778 -0.08770232 -0.20205657 0.06976193 0.06497212
0.17391922 0.12242882 0.042010978 0.3436694 0.047237635 0.013681707 0.1154924 -0.08541053
0.33066806 -0.057766143 0.065909944 -0.021213489 0.04555268 0.10406872 0.066665985 -0.16099481
-0.055140577 0.055969518 0.14987372 -0.07086561 0.27959338 0.011817565 0.15683973 -0.16907628
-0.0123367 -0.031296562 -0.08500874 0.009482456 -0.25815225 -0.081525624 -0.052561183 -0.07680241
-0.22080004 0.06484116 0.083777934 -0.02503465 0.12669082 0.0048611094 -0.094649665 -0.09075051
0.1325196 0.056748427 0.17700244 0.17520045 0.103515014 0.022657502 0.18658543 -0.10358202
-0.19839177 -0.12380718 0.104887 0.030890614 -0.16090424 -0.031422183 -0.05994026 -0.20583732
-0.2535273 -0.076374754 0.05720649 -0.15883662 -0.045910824 0.082496695 0.07001891 -0.284808
-0.20066193 0.0047730547 -0.17302652 -0.033281628 0.0043306644 -0.060274232 0.03909378 0.077207156
-0.13406299 -0.055975106 0.1801544 0.08087119 0.16126731 -0.096358806 0.13842976 -0.037402004
0.05601208 -0.117451005 -0.12574236 0.06444159 -0.02741919 0.11931447 0.023593755 -0.084777586
0.012198525 -0.09427103 0.007940607 -0.107516654 -0.17813258 0.20846447 0.024856536 -0.022499941
-0.40109447 0.102525175 -0.012001176 0.17330435 -0.083975114 -0.05772889 0.11879585 -0.10655679
-0.043737743 0.0594866 0.10930139 -0.046411313 0.042566456 -0.05506767 0.049686812 -0.04190435
0.20154017 0.18540962 0.11907625 0.07392184 0.10466817 0.08056842 -0.21763785 -0.10206026
-0.056894504 -0.12391417 -0.062495317 0.08161071 -0.18750173 -0.1771669 -0.12114651 -0.045009647
0.06601649 0.1922353 -0.09963811 -0.1506612 -0.00829389 0.2128479 0.13296452 0.12321175
0.20303382 -0.026082419 0.29366985 -0.03695149 0.047972165 0.1174429 0.22210874 -0.06965524
-0.20176224 -0.056677777 -0.066689104 0.01594282 -0.06399167 0.08683246 -0.13485211 -0.24140188
0.2052965 0.0740614 0.15205222 -0.22771569 0.24493645 -0.021138141 -0.05419822 -0.15773544
0.051757686 0.3241071 -0.12066105 -0.07569258 0.16726945 -0.033562616 -0.00562212 -0.014215559
0.08213309 0.14125146 0.07587163 0.17431977 0.092205584 0.07627746 0.26780945 0.04568526
0.031361174 -0.050397564 -0.2199674 0.06297048 0.013020343 -0.10393739 -0.0016352996 -0.00781914
-0.14557393 -0.2446229 -0.17802133 0.120073795 -0.12689404 -0.3850437 -0.17918764 -0.22768061

net.2.bias f4 [60]
00000000: 68be a1bd 0717 e5bd 4686 183d b6c2 a63d
00000010: 7c15 ff3d 849a f13d d26b 24bd f70f f5bc
00000020: c6db 09be d288 3f3d 63b0 40bc 7227 00bd
00000030: 54c4 c63d dc3c aa3d b099 663d 2564 b43d
00000040: 547f 9e3d c340 9abd 33e2 b23d 4144 77bd
00000050: d583 d53d 4dc6 453c 296e 8abd 944c 323d
00000060: 58d8 46bd ec01 ee3c 0249 12bc e8f3 a93d
00000070: 3de4 d63d c5b4 833c 0481 e23c 280e 83bd
00000080: 7396 873d 5008 8a3d 8a86 5a3b 87b8 f03c
00000090: 12d0 46bd b65e c83c daf9 1e3b 5f0c e13c
000000a0: afa4 6bbd 82e1 87bd 342d 21bd d4d5 ca3d
000000b0: 738a 8fbc c6cf 1bbd fca3 3a3d 1041 36bd
000000c0: ebc7 db3d e8e5 a53d a70c 893c da1d 9bbd
000000d0: e366 083e 20d9 d7bd 9cb6 6d3d 022c 033e
000000e0: f75b eebd f527 533c e59b 91bd ef88 8b3b
-0.07897645 -0.11186033 0.037237428 0.08142607 0.1245527 0.1179705 -0.040141888 -0.02991484
-0.13462743 0.04676134 -0.011760804 -0.031287618 0.09705415 0.08312389 0.05629891 0.088081636
0.0773913 -0.075318836 0.0873455 -0.060367826 0.104255356 0.012071204 -0.06759293 0.04353006
-0.048546165 0.02905365 -0.008928539 0.082984746 0.10492752 0.016077409 0.02764941 -0.063991845
0.06620493 0.06739867 0.0033344352 0.029384864 -0.048538275 0.024459224 0.002425781 0.02747172
-0.0575301 -0.06634809 -0.03934975 0.09904066 -0.017522072 -0.038039945 0.045566544 -0.044495642
0.10731491 0.08100492 0.016729666 -0.07574053 0.13320498 -0.1053946 0.058035478 0.12809756
-0.11638635 0.0128879445 -0.07109813 0.004258267

net.5.weight f4 [1, 60]
00000000: 4567 aabc cb5d 40bd fac9 4a3e 14f4 153e
00000010: 49e7 62bb 9173 e43d f6ac b73d 8ab0 31bd
00000020: ed0c 4e3d 9604 30ba 8a95 52be 8a4e ab3e
00000030: 1313 813e 9549 aabe be20 2b3d ac9e f4bd
00000040: 5057 6cbd 9010 1bbe 4817 f4bc c642 c23c
00000050: d1f8 253e c69c 28be 9629 303e b238 1b3e
00000060: d8d3 453d 5679 993e e9d7 83be b0b0 48be
00000070: 2226 a8bc 2acc 153e c0ae 2d3e 9f96 5ebd
00000080: a57d 313e 48f3 e83d 51c9 0a3e 4281 253e
00000090: 25e4 703b 2b08 143e 656f 053d cf48 093d
000000a0: 48b7 1e3b 9713 05bd 8d63 11be 9db7 d2bd
000000b0: 058c ee3d 2409 ba3e f3d0 1d3e 62d6 8a3d
000000c0: c62a bdba 6b52 5a3e 65c0 0e3e 172d 0abc
000000d0: e7c9 f7bb b46e b73d 1496 ac3c d632 74bd
000000e0: cd28 e83c 7e90 863b 67d8 e13d b27f 803c
-0.020801196 -0.046964448 0.1980361 0.1464389 -0.003462272 0.11154855 0.089685366 -0.04338125
0.050305296 -0.00067145505 -0.20564857 0.33458358 0.25209865 -0.33259264 0.041779272 -0.11944327
-0.057700455 -0.15143037 -0.029796258 0.02371348 0.16208197 -0.16466054 0.17203364 0.15158346
0.048297733 0.29975384 -0.25750664 -0.19598651 -0.020525996 0.14628664 0.16961193 -0.054342862
0.17333086 0.11374527 0.13553359 0.16162589 0.0036757078 0.14456241 0.032576937 0.0335167
0.002421813 -0.032489385 -0.14198132 -0.10288928 0.116478 0.363351 0.15411739 0.067791715
-0.0014432303 0.21320502 0.1394058 -0.008433602 -0.0075619104 0.08956662 0.021067657 -0.059618793
0.028339768 0.0041065803 0.110276036 0.01568589
