results/PINN/NASA_dqdv results/3-3/Experiment8/model.pth (torch, 61182 bytes, 14 tensors)

encoder.net.0.weight f4 [60, 18]
0.14113832 -0.050625104 -0.09358473 0.03415745 0.26938176 0.1792041 0.049733162 0.045358293
-0.080916435 -0.029678842 -0.039987575 0.08334457 0.19717644 0.24224679 0.023696218 -0.039355572
0.26188552 0.04498786 -0.00036042833 -0.0032720037 -0.25873488 0.23104182 -0.0481703 0.07272207
0.038696606 -0.116427414 0.19026805 -0.0147315385 0.29923108 0.060994696 0.11977188 -0.02361783
0.0103059895 0.27141678 0.10948688 0.0041606203 -0.19699301 -0.03679619 0.10555734 0.13412158
0.21932979 0.24476328 -0.10247212 -0.11463019 0.18748592 -0.23554848 -0.108147696 -0.12652631
-0.08235614 -0.053359225 0.075933196 -0.18998884 0.21065074 0.0059160152 0.22901629 0.032463707
-0.10057471 0.028018763 -0.2056941 -0.041120667 0.14903922 0.053903677 0.26030397 -0.06389794
0.14576559 -0.044881765 0.17805155 -0.020093463 -0.022140315 0.23234707 0.057480138 0.09324179
-0.026215874 -0.007621068 0.026153103 0.07419119 0.29387528 0.027121652 0.1776829 -0.086110644
-0.05654299 -0.14421827 -0.001161292 0.27014795 -0.14636396 0.14157708 -0.01033181 -0.061299477
-0.03097553 -0.12531598 -0.13337684 -0.12822717 0.22232674 -0.019207655 -0.104886904 -0.39081666
-0.0750767 0.177069 0.088671766 -0.071113676 -0.020625876 -0.021400956 0.1707839 -0.009610924
0.08156226 0.04084292 0.112695135 -0.16130452 0.033140004 -0.12543781 -0.37146315 0.05019738
0.092418306 0.15127258 -0.008149914 -0.18233931 -0.15948106 -0.1163648 -0.15075383 -0.2995862
0.016781578 0.0054014972 -0.2812258 -0.17873895 -0.042846207 -0.1350139 -0.09142978 0.07729753
0.20496924 0.098224714 0.006159974 -0.14219932 0.26966915 0.123726994 -0.11372918 0.14874119
0.043418612 -0.091161184 0.21335033 0.15397958 -0.12600578 0.10635901 0.2868288 -0.08182761
-0.13546976 -0.047973905 0.1037634 -0.1395675 -0.13047077 -0.116854325 0.21730766 -0.15481111
-0.11375093 0.18764059 -0.11012331 0.22487153 0.02522682 -0.10117076 -0.014463833 0.041259978
-0.028220627 -0.05500533 -0.02553863 0.16474165 0.018521061 -0.18224582 0.05074098 0.17637339
0.101583645 -0.14252366 0.19324493 -0.22431128 0.10005207 -0.10569142 -0.14305876 -0.057958737
0.023887686 0.32463157 -0.13077433 -0.13531448 -0.005219206 0.064900674 0.08637373 -0.12106627
-0.23095809 0.118207015 0.0031027237 0.13092941 -0.021331681 0.15484223 0.03355331 -0.32449707
0.011314532 -0.014329855 -0.036572877 -0.04242823 -0.03109542 -0.11655108 0.090571135 0.019784993
-0.2031027 -0.10607602 -0.05111062 0.23627885 -0.022057362 0.010797516 0.09725335 0.096347556
0.21299727 -0.113064826 0.17988402 0.047327656 0.2346176 -0.27817816 -0.17971672 0.3178416
0.29569966 0.1661237 0.20426331 0.26382184 0.035628233 0.121400245 0.18800864 -0.07861365
-0.2235765 -0.11500628 -0.08725009 0.011382379 -0.22006029 0.009468182 -0.1294524 0.045889553
0.016105695 0.05577466 0.01592565 -0.045052294 -0.08569792 -0.017360315 -0.21602379 -0.17076133
-0.017621236 0.23949683 -0.12972233 0.18081276 0.22028665 0.11674784 -0.029371036 0.12108118
0.15473145 0.10038088 -0.11635642 -0.055125143 -0.15117225 0.108398154 -0.1685272 0.028882708
00000000: 9086 103e 455c 4fbd 5aa9 bfbd afe8 0b3d
00000010: 68ec 893e 4881 373e 00b5 4b3d 9ec9 393d
00000020: 84b7 a5bd 0b21 f3bc 03ca 23bd 8fb0 aa3d
00000030: 9fe8 493e 8b0f 783e 921e c23c 4f33 21bd
00000040: dc15 863e 3145 383d dff7 bcb9 1d6f 56bb
00000050: e678 84be 3a96 6c3e 384e 45bd 4fef 943d
00000060: 5580 1e3d 7f71 eebd a1d5 423e 8d5c 71bc
00000070: d134 993e 93d5 793d f64a f53d 2e7a c1bc
00000080: 74da 283c 24f7 8a3e a83a e03d d055 883b
00000090: 89b8 49be 9ab7 16bd 722e d83d 2b57 093e
000000a0: fd97 603e 3aa3 7a3e e7dc d1bd 3cc3 eabd
000000b0: 4ffc 3f3e 9f33 71be 8a7c ddbd 1d90 01be
000000c0: 56aa a8bd 348f 5abd dd82 9b3d 6f8c 42be
000000d0: d4b4 573e 22db c13b 3f83 6a3e aaf8 043d
000000e0: 1dfa cdbd 9b87 e53c 79a1 52be 256e 28bd
000000f0: bd9d 183e 1aca 5c3d 9046 853e ecdc 82bd
00000100: 9343 153e f1d5 37bd 2553 363e 0c9b a4bc
00000110: 9b5f b5bc 64ec 6d3e 4b70 6b3d 8df5 be3d
00000120: acc2 d6bc 27ba f9bb 083f d63c 8df1 973d
00000130: d276 963e 3a2e de3c 82f2 353e c75a b0bd
00000140: 9f99 67bd f4ad 13be 7e36 98ba d550 8a3e
00000150: 6fe0 15be 95f9 103e c146 29bc 2915 7bbd
00000160: 65c0 fdbc d552 00be f093 08be fc4d 03be
00000170: 9fa9 633e 5f59 9dbc f2ce d6bd 1f19 c8be
00000180: d0c1 99bd 9351 353e 8b99 b53d 0ca4 91bd
00000190: 99f7 a8bc 0f51 afbc fae1 2e3e 2377 1dbc
000001a0: 1d0a a73d e84a 273d b5cc e63d 032d 25be
000001b0: d0bd 073d c572 00be 6b30 bebe c59b 4d3d
000001c0: cf45 bd3d 33e7 1a3e 3887 05bc 28b7 3abe
000001d0: 014f 23be ab50 eebd 365f 1abe 5d63 99be
000001e0: 8579 893c 0bff b03b d4fc 8fbe 5807 37be
000001f0: 817f 2fbd 1541 0abe 893f bbbd 2b4e 9e3d
00000200: 75e3 513e 0a2a c93d 9bd9 c93b b39c 11be
00000210: 1312 8a3e 9464 fd3d d8ea e8bd 9c4f 183e
00000220: b7d7 313d b7b2 babd 8278 5a3e d3ac 1d3e
00000230: a907 01be c1d2 d93d 39db 923e 3c95 a7bd
00000240: 96b8 0abe 4980 44bd e881 d43d c8ea 0ebe
00000250: 219a 05be 5251 efbd e685 5e3e ce86 1ebe
00000260: 3ff6 e8bd db24 403e 5488 e1bd b944 663e
00000270: 7aa8 ce3c 9e32 cfbd b6f9 6cbc 3900 293d
00000280: f22e e7bc 454d 61bd 6436 d1bc 09b2 283e
00000290: 7bb9 973c a69e 3abe c6d5 4f3d 3a9b 343e
000002a0: 160b d03d b9f1 11be 00e2 453e dbb1 65be
000002b0: 1ae8 cc3d be74 d8bd ff7d 12be 2466 6dbd
000002c0: 1cb0 c33c 1c36 a63e b5e9 05be e18f 0abe
000002d0: e005 abbb a5ea 843d b6e4 b03d 98f1 f7bd
000002e0: 4780 6cbe 8516 f23d 1157 4b3b 5c12 063e
000002f0: c7bf aebc f68e 1e3e 326f 093d 7b24 a6be
00000300: 9660 393c c5c7 6abc 71cd 15bd 39c9 2dbd
00000310: d2bb febc 55b2 eebd 5c7d b93d 2314 a23c
00000320: 27fa 4fbe 623e d9bd 5f59 51bd 15f3 713e
00000330: a4b1 b4bc 11e8 303c c42c c73d de51 c53d
00000340: f51b 5a3e 888e e7bd 8433 383e a5da 413d
00000350: 993f 703e 5e6d 8ebe a907 38be 22bc a23e
00000360: f265 973e 551c 2a3e 672a 513e a813 873e
00000370: e9ee 113d b1a0 f83d 5685 403e 3100 a1bd
00000380: 3df1 64be 6a88 ebbd 2db0 b2bd 287d 3a3c
00000390: 7c57 61be 6f20 1b3c 2c8f 04be aff6 3b3d
000003a0: 17f0 833c f873 643d 8276 823c c188 38bd
000003b0: 6482 afbd 3837 8ebc 5735 5dbe 0fdc 2ebe
000003c0: 695a 90bc a83e 753e eed5 04be fb26 393e
000003d0: d392 613e 7e19 ef3d 879b f0bc 69f9 f73d
000003e0: ec71 1e3e 7e94 cd3d 464c eebd e7ca 61bd
000003f0: e6cc 1abe daff dd3d 6592 2cbe 6e9b ec3c

encoder.net.0.bias f4 [60]
0.026890991 -0.095925175 0.03832453 0.04438187 -0.006281643 -0.021286478 0.07724058 -0.049536943
0.01870115 -0.062027257 -0.009531529 -0.071287364 -0.09118384 0.048394468 -0.05627895 0.04996127
-0.06395724 -0.044787176 -0.006619599 0.05600986 -0.09024117 -0.07571436 0.055802952 0.060343795
-0.09216862 0.07897414 0.0618325 -0.058339342 0.04966428 0.084656745 -0.0060656774 0.14290412
0.07078199 -0.026474832 0.008976983 -0.018364029 0.055382255 -0.060789313 0.064705834 -0.017262341
0.055368755 0.07506279 0.0751923 -0.07131078 0.06232941 -0.07364457 0.0020748249 0.07873008
0.03855202 0.021814734 -0.052375376 0.08200977 0.026705772 -0.051557094 0.045448434 -0.08379034
0.1108907 -0.056031812 -0.045540538 0.050512716
00000000: 7f4a dc3c 6b74 c4bd 2ffa 1c3d c4c9 353d
00000010: 3ed6 cdbb fb60 aebc 4f30 9e3d 40e7 4abd
00000020: 2733 993c 4b10 7ebd 212a 1cbc 1cff 91bd
00000030: 98be babd 4739 463d c284 66bd 30a4 4c3d
00000040: 03fc 82bd c272 37bd 39e9 d8bb 986a 653d
00000050: 5dd0 b8bd 2110 9bbd a391 643d 0e2b 773d
00000060: e7c2 bcbd 32bd a13d 1344 7d3d 3cf5 6ebd
00000070: c66c 4b3d 8460 ad3d 97c2 c6bb 7555 123e
00000080: 26f6 903d bfe1 d8bc 3214 133c 2970 96bc
00000090: 81d8 623d 37fe 78bd 7e84 843d c169 8dbc
000000a0: 59ca 623d 85ba 993d 6cfe 993d 630b 92bd
000000b0: 204d 7f3d f7d2 96bd c9f9 073b 3c3d a13d
000000c0: b9e8 1d3d d0b4 b23c 9087 56bd bdf4 a73d
000000d0: 10c6 da3c 882d 53bd 2328 3a3d 459a abbd
000000e0: aa1a e33d 9d81 65bd b788 3abd 6ce6 4e3d

encoder.net.2.weight f4 [60, 60]
0.015311565 -0.071658574 0.010185133 0.0061514555 -0.122591816 -0.20705043 -0.09675681 -0.19810797
0.019372018 -0.013653153 0.08917564 -0.060604986 -0.016213112 0.17481159 0.16256739 0.124128915
-0.05148644 -0.15269002 0.2339826 0.0073317317 -0.13143985 -0.15821144 -0.012415109 -0.05027659
0.09158582 0.19765721 0.2069211 -0.18982427 0.28635752 0.04265756 0.022338979 -0.04420887
0.15527514 0.20548914 0.06373846 0.12295358 -0.06153332 0.0951466 0.17553353 0.16305178
-0.11509112 -0.2763932 -0.2175306 -0.2410598 -0.045187604 -0.3090231 -0.0428105 0.057130873
-0.08308492 -0.14310299 -0.08712696 0.3265521 -0.029014006 -0.3227934 0.13766336 -0.115261264
0.088282034 -0.14386676 0.15110278 -0.081618294 -0.080086045 -0.080979936 0.08556636 0.07635387
0.40761605 0.10905926 -0.074301854 0.017419243 0.26656997 -0.118027404 0.18428345 -0.09324287
0.07100345 0.21798861 0.23012422 -0.1034617 -0.21248242 -0.010964627 0.00833647 -0.10559787
0.035345666 -0.18323334 0.15978204 -0.14406666 0.05035993 -0.087453164 0.122562885 -0.023038618
0.08897327 -0.14493588 0.0004948195 0.17451175 0.13348609 0.08899828 0.20703621 0.101814926
-0.15096463 -0.23142792 0.08747896 -0.10944735 -0.10575527 0.084756166 -0.0816487 -0.008679028
-0.13577443 -0.019654026 0.21665025 0.14540237 0.046713255 -0.17151526 0.14289911 -0.048389368
0.016486742 -0.10018695 -0.2241263 -0.12549347 0.01312673 -0.22940592 0.072852984 -0.23900147
-0.0085031865 0.06786345 0.015906736 0.10506144 -0.20436712 0.087504685 0.20608568 -0.085263096
0.022033805 -0.15033695 -0.36255497 -0.06105884 -0.10424388 -0.1817022 0.024965113 -0.0853343
0.26084107 0.060275227 0.09008904 0.026872123 -0.06105899 -0.18031389 -0.066580154 0.24662006
0.023639409 0.106540225 0.23692691 -0.08805499 0.29941425 0.028127596 0.036594458 -0.13314353
-0.130912 0.08175064 0.011900931 -0.24283881 -0.08679468 -0.14392376 -0.115885064 -0.054738004
-0.11459183 -0.10789033 -0.004514018 -0.015453073 -0.20888264 -0.12791114 0.1381528 0.32999486
-0.15802462 -0.06388452 -0.033791665 -0.14013596 -0.06990305 0.132302 0.08947774 -0.14056325
0.077742815 -0.022976343 0.0562985 -0.07582286 -0.102954246 -0.2658241 0.14058301 0.0052429074
0.05290828 -0.07211828 -0.087574184 -0.19535592 0.038156044 -0.019615924 -0.0364705 0.29694712
-0.070261024 -0.15654084 -0.028655497 0.028786136 0.10756596 0.12415395 0.2153462 0.080632575
-0.017813176 0.20856094 0.075035326 -0.21167943 0.17596464 -0.033206068 0.1155715 -0.034737162
-0.01439689 0.0998908 -0.08513205 0.33811665 -0.13250828 -0.005832956 -0.05184345 -0.08966189
0.15470386 0.0943241 0.031119587 -0.17146331 0.10189997 0.030123709 0.03754235 0.16093248
0.01659331 -0.27800563 0.005479223 0.28569025 0.15738334 -0.080233276 -0.17072971 0.025329743
0.03364387 0.05125182 0.0078698695 -0.012383098 -0.115315035 0.16652486 0.03907102 -0.18033914
0.20800868 0.10955775 -0.06866873 0.2541238 -0.09488395 -0.048224553 0.015286723 0.10700961
0.07522689 -0.07450287 0.061897997 0.23867531 -0.24091454 0.20898467 -0.065799125 -0.1787521
00000000: 5cdd 7a3c bbc1 92bd 8bdf 263c 2692 c93b
00000010: 6b11 fbbd 0705 54be 6f28 c6bd d1dc 4abe
00000020: 11b2 9e3c 79b1 5fbc b8a1 b63d ef3c 78bd
00000030: 5cd1 84bc cf01 333e 1178 263e 4d37 fe3d
00000040: 72e3 52bd c65a 1cbe 2299 6f3e 063f f03b
00000050: 2b98 06be 2e02 22be be68 4bbc d3ee 4dbd
00000060: 5991 bb3d a766 4a3e 20e3 533e 4b61 42be
00000070: 749d 923e b2b9 2e3d 3c00 b73c 5c14 35bd
00000080: 7200 1f3e bf6b 523e 4f89 823d 16cf fb3d
00000090: 5d0a 7cbd 38dc c23d 10bf 333e 0cf7 263e
000000a0: e5b4 ebbd 6983 8dbe 57c0 5ebe 61d8 76be
000000b0: a316 39bd 4738 9ebe 105a 2fbd 1002 6a3d
000000c0: 6d28 aabd 9789 12be 9f6f b2bd d631 a73e
000000d0: c8ae edbc 2d45 a5be a0f7 0c3e 190e ecbd
000000e0: 36cd b43d cf51 13be b0ba 1a3e 7e27 a7bd
000000f0: 2704 a4bd cfd8 a5bd 6a3d af3d 6b5f 9c3d
00000100: 0db3 d03e 765a df3d 922b 98bd cdb2 8e3c
00000110: dc7b 883e 5ab8 f1bd cdb4 3c3e 1ef6 bebd
00000120: 426a 913d 6838 5f3e afa5 6b3e bae3 d3bd
00000130: fe94 59be fba4 33bc b195 083c b243 d8bd
00000140: 9ec6 103d 85a1 3bbe e79d 233e 3686 13be
00000150: 3746 4e3d a51a b3bd 4002 fb3d 7cbb bcbc
00000160: 9e37 b63d 126a 14be c6b6 013a 35b3 323e
00000170: 94b0 083e bb44 b63d 4d01 543e 5884 d03d
00000180: 7996 1abe 71fb 6cbe 2b28 b33d ef25 e0bd
00000190: 3896 d8bd a494 ad3d 6f37 a7bd 7b32 0ebc
000001a0: 7408 0bbe 7b01 a1bc 90d9 5d3e 5ce4 143e
000001b0: 6656 3f3d b2a1 2fbe 2554 123e ee33 46bd
000001c0: 340f 873c d12e cdbd 5d81 65be 5c81 00be
000001d0: 7f11 573c 63e9 6abe f233 953d cdbc 74be
000001e0: f350 0bbc fefb 8a3d d84e 823c 742a d73d
000001f0: 9d45 51be a835 b33d 2008 533e 6b9e aebd
00000200: 3d80 b43c eef1 19be cea0 b9be d618 7abd
00000210: d17d d5bd 2410 3abe a383 cc3c c0c3 aebd
00000220: f68c 853e 28e3 763d 9a80 b83d ed22 dc3c
00000230: fe18 7abd 34a4 38be 2d5b 88bd f889 7c3e
00000240: 6fa7 c13c c331 da3d f89c 723e 2d56 b4bd
00000250: d34c 993e d86b e63c 12e4 153d c756 08be
00000260: cc0d 06be e16c a73d 1ffc 423c bdaa 78be
00000270: 69c1 b1bd c060 13be 2655 edbd f534 60bd
00000280: 1faf eabd 9bf5 dcbd 54ea 93bb e32e 7dbc
00000290: 55e5 55be 23fb 02be ed77 0d3e 16f5 a83e
000002a0: 35d1 21be e3d5 82bd 2169 0abd cd7f 0fbe
000002b0: 5529 8fbd 2d7a 073e 1b40 b73d d0ef 0fbe
000002c0: a037 9f3d e238 bcbc 4299 663d 0449 9bbd
000002d0: add9 d2bd 191a 88be fef4 0f3e b2cc ab3b
000002e0: 5ab6 583d c0b2 93bd 185a b3bd 620b 48be
000002f0: 8349 1c3d 93b1 a0bc 1762 15bd 7409 983e
00000300: 03e5 8fbd 3e4c 20be efbe eabc e7d0 eb3c
00000310: 8b4b dc3d 6d44 fe3d b783 5c3e b122 a53d
00000320: f0ec 91bc 0091 553e 1fac 993d 7ec2 58be
00000330: 1330 343e 1603 08bd c0b0 ec3d 8e48 0ebd
00000340: efe0 6bbc 8c93 cc3d b659 aebd a01d ad3e
00000350: 40b0 07be 6222 bfbb cc59 54bd a7a0 b7bd
00000360: b06a 1e3e fe2c c13d 81ee fe3c 1494 2fbe
00000370: eeb0 d03d ffc5 f63c 02c6 193d 7ccb 243e
00000380: b1ee 873c c156 8ebe 0e8b b33b fe45 923e
00000390: 1929 213e 5851 a4bd c5d3 2ebe 5280 cf3c
000003a0: 28ce 093d 6eed 513d a0f0 003c 7ae2 4abc
000003b0: 4a2a ecbd 7e85 2a3e ef08 203d d3aa 38be
000003c0: 3a00 553e d05f e03d 31a2 8cbd 841c 823e
000003d0: 8452 c2bd 1c87 45bd 2a75 7a3c db27 db3d
000003e0: 8e10 9a3d f694 98bd c188 7d3d 4d67 743e
000003f0: 4db2 76be 1400 563e b1c1 86bd ca0a 37be

encoder.net.2.bias f4 [60]
0.06780136 0.070537545 0.056503005 -0.060894802 0.11472576 -0.074067846 0.099026546 -0.023605665
-0.03445109 0.066493414 0.053953253 0.06245088 -0.0019807199 0.10184223 -0.05563113 -0.06170432
-0.041836947 -0.065779485 -0.027171236 0.005154788 0.04824404 0.05332709 0.004286913 -0.033060562
0.06514219 -0.0931698 -0.07094264 0.06727219 -0.062077634 -0.05326618 -0.058242742 0.060841117
-0.09150842 -0.067086145 -0.04924672 -0.03533847 0.07125277 0.08336226 -0.071336634 0.07569794
0.07325137 -0.030614544 0.05404937 -0.048749942 0.045125596 0.08143373 0.05827906 -0.060496584
0.11221604 0.004286171 -0.0595572 0.07082135 0.08176364 0.004519718 -0.07933401 -0.037956063
0.013724621 0.033927895 -0.09862944 0.044175293
00000000: 70db 8a3d fd75 903d b26f 673d d46c 79bd
00000010: 57f5 ea3d e2b0 97bd 6ece ca3d ab60 c1bc
00000020: 961c 0dbd b32d 883d 16fe 5c3d 7ecc 7f3d
00000030: f7ce 01bb a992 d03d 78dd 63bd abbd 7cbd
00000040: 385d 2bbd 65b7 86bd 3696 debc 7fe9 a83b
00000050: 8b9b 453d 826d 5a3d 3c79 8c3b 836a 07bd
00000060: 4569 853d cfcf bebd 604a 91bd 00c6 893d
00000070: 1e45 7ebd a32d 5abd f18f 6ebd 8934 793d
00000080: c468 bbbd 7664 89bd eeb6 49bd 12bf 10bd
00000090: f9ec 913d d5b9 aa3d f118 92bd 8607 9b3d
000000a0: d004 963d 5acb fabc df62 5d3d 05ae 47bd
000000b0: 9ed5 383d bac6 a63d 06b6 6e3d 44cb 77bd
000000c0: 86d1 e53d 0273 8c3b 40f2 73bd c90a 913d
000000d0: b273 a73d 241a 943b df79 a2bd d177 1bbd
000000e0: 3cdd 603c faf7 0a3d 3bfe c9bd 27f1 343d

encoder.net.5.weight f4 [34, 60]
0.24969618 -0.027763795 -0.031321064 -0.07657321 0.033057258 0.08857926 0.07269122 -0.048021045
0.022779172 0.08806066 -0.004301497 0.03215693 0.10530246 0.29101565 0.16073054 0.06935024
-0.09148664 -0.17125283 -0.054834206 0.12652664 0.23116815 0.08423657 -0.06562318 -0.015298976
0.05075989 -0.09043611 -0.12543933 0.098925486 -0.06792668 0.0210477 0.0956411 -0.09183834
0.03948777 0.07251302 -0.06261498 -0.029678997 -0.061430108 0.22031324 -0.07360672 0.28297624
0.12598214 -0.26711905 -0.14673184 -0.009578976 -0.031997476 -0.04324498 -0.020134605 -0.036056176
0.057926707 -0.053741254 0.014988463 -0.40198407 0.045493335 -0.06965784 -0.15311119 0.113850005
0.08881411 0.13722937 -0.08200928 -0.028994747 -0.13873683 -0.12727284 -0.05871508 0.08332673
0.11402844 -0.021782666 0.18173489 0.02405579 -0.17554483 0.03049387 0.13540778 0.22576655
-0.03745665 0.13949274 -0.19678889 0.054325365 0.024452522 0.19703193 -0.18752143 0.023242276
-0.17744525 0.071040384 0.22731164 0.01584989 -0.15003672 0.20315717 0.19612731 0.09053577
-0.13078715 0.040892173 -0.044387825 -0.023247514 0.122449994 0.008464189 0.04268131 0.36636317
0.04148542 -0.05097441 -0.18449438 -0.06096384 -0.0299581 0.069602616 -0.13226897 0.20477283
-0.13729437 0.051452693 -0.04138258 0.1453817 -0.021844301 -0.026047487 0.07103745 0.07754671
-0.20795667 -0.2026784 0.050546374 -0.02422107 -0.133998 0.09225584 0.02573741 0.1245784
-0.077581234 -0.05232017 -0.182431 0.17358401 0.09066834 -0.03564927 -0.07125614 -0.13447294
0.05668515 0.18427871 -0.082178526 0.05281085 -0.1319122 -0.07346054 0.101459764 0.15979274
-0.031681307 0.10461775 0.112118825 -0.1877671 0.005758833 -0.03503231 -0.17800927 -0.0005292369
-0.08904483 -0.053830825 -0.24934964 -0.099557936 0.16615205 -0.13827518 0.17845696 -0.20246485
-0.23512273 0.0007919645 -0.007912406 -0.0020325698 0.1020318 -0.11042359 0.019448962 -0.036915053
0.17183287 -0.031198949 0.02833167 0.10732066 -0.043422148 0.19323054 -0.046530332 0.13397335
0.06440818 -0.07333973 0.00302609 0.07072543 0.066003524 -0.3377198 0.07344897 -0.16180767
-0.067445174 0.016948432 0.04955693 -0.04507924 0.018439937 -0.052271128 0.0052989926 -0.06172418
0.110789895 -0.10786015 0.13018243 -0.00349908 -0.06884301 -0.07815322 -0.2088266 0.20033567
-0.00794732 -0.15441513 -0.17693645 -0.07772665 -0.071966946 -0.0072970083 0.1133895 0.01860678
-0.048223868 -0.18874478 0.05070598 -0.12435281 -0.06802812 -0.017929189 0.025296355 0.01087121
-0.06369994 0.061656754 0.12344165 0.13388556 0.05226446 0.0906097 -0.0071374835 -0.123540305
0.089045875 0.27412957 -0.13037315 -0.084365845 -0.07254128 0.08264284 0.254715 -0.3312533
-0.123851 -0.19816901 0.037930597 -0.1420154 0.1509312 0.086915076 0.03657258 -0.07301082
0.23026036 -0.039651986 0.1841749 0.020212049 -0.024979876 0.025633145 0.21399805 0.09979527
0.030796023 -0.18753618 -0.0473885 -0.15555203 0.025244923 -0.08887225 0.027751056 0.18641539
0.040982593 0.118996486 -0.23031019 0.18113275 0.10199956 -0.152765 0.07153602 0.19050995
00000000: 5bb0 7f3e e670 e3bc 844a 00bd 6ad2 9cbd
00000010: 0c67 073d 0b69 b53d 22df 943d b7b1 44bd
00000020: 639b ba3c 2659 b43d 92f3 8cbb fcb6 033d
00000030: d1a8 d73d 0100 953e 8c96 243e 8007 8e3d
00000040: 595d bbbd e75c 2fbe d599 60bd 3390 013e
00000050: 58b7 6c3e 3984 ac3d 7265 86bd 8ea8 7abc
00000060: 9ae9 4f3d 9136 b9bd 2b73 00be 7299 ca3d
00000070: 251d 8bbd 3a6c ac3c 7bdf c33d bd15 bcbd
00000080: eebd 213d b581 943d 483c 80bd 5e21 f3bc
00000090: 239e 7bbd cb99 613e 1fbf 96bd 43e2 903e
000000a0: 7601 013e d4c3 88be df40 16be 23f1 1cbc
000000b0: c90f 03bd a621 31bd 54f1 a4bc a4af 13bd
000000c0: 8e44 6d3d ca1f 5cbd 2c92 753c dbd0 cdbe
000000d0: 3857 3a3d c5a8 8ebd 2ec9 1cbe 312a e93d
000000e0: 2ce4 b53d db85 0c3e 7bf4 a7bd 6486 edbc
000000f0: 0711 0ebe d053 02be 397f 70bd 34a7 aa3d
00000100: be87 e93d 9071 b2bc b618 3a3e a610 c53c
00000110: 06c2 33be 48ce f93c 56a8 0a3e 592f 673e
00000120: 256c 19bd 2fd7 0e3e 0783 49be 4684 5e3d
00000130: a850 c83c bdc2 493e 9e05 40be 9666 be3c
00000140: 35b4 35be 9f7d 913d 62c4 683e a1d7 813c
00000150: 3aa3 19be 6f08 503e 99d5 483e d16a b93d
00000160: 11ed 05be 8d7e 273d 02d0 35bd 9271 bebc
00000170: 10c7 fa3d 62ad 0a3c 99d2 2e3d f493 bb3e
00000180: 9eec 293d 8bca 50bd 18ec 3cbe 38b5 79bd
00000190: b06a f5bc d18b 8e3d 8471 07be f8af 513e
000001a0: e596 0cbe 0fc0 523d c880 29bd f1de 143e
000001b0: d2f2 b2bc 8a61 d5bc 157c 913d cfd0 9e3d
000001c0: 98f2 54be ed8a 4fbe b709 4f3d 446b c6bc
000001d0: c636 09be a1f0 bc3d 43d7 d23c f622 ff3d
000001e0: e9e2 9ebd ad4d 56bd 31cf 3abe 02c0 313e
000001f0: 53b0 b93d f804 12bd bdee 91bd 46b3 09be
00000200: b02e 683d 8fb3 3c3e 374d a8bd 3150 583d
00000210: fe13 07be 7b72 96bd 23ca cf3d b5a0 233e
00000220: 42c4 01bd d541 d63d 8e9e e53d 0546 40be
00000230: 98b4 bc3b 0a7e 0fbd 1048 36be 7dbc 0aba
00000240: 235d b6bd b67d 5cbd 8355 7fbe 08e5 cbbd
00000250: c323 2a3e 0298 0dbe 6cbd 363e f252 4fbe
00000260: 03c4 70be d79b 4f3a 09a3 01bc dd34 05bb
00000270: 0cf6 d03d c325 e2bd 6e53 9f3c 3d34 17bd
00000280: f5f4 2f3e f094 ffbc d217 e83c efca db3d
00000290: 6cdb 31bd 3ade 453e 9796 3ebd 4f30 093e
000002a0: 70e8 833d 2433 96bd 5e51 463b 7fd8 903d
000002b0: db2c 873d 9ce9 acbe 6a6c 963d e9b0 25be
000002c0: b220 8abd 70d7 8a3c 35fc 4a3d 02a5 38bd
000002d0: 5a0f 973c 401a 56bd 2ca3 ad3b 7ed2 7cbd
000002e0: d0e5 e23d c8e5 dcbd 8b4e 053e d250 65bb
000002f0: 90fd 8cbd cc0e a0bd a4d6 55be cb24 4d3e
00000300: 7a35 02bc 001f 1ebe d42e 35be 262f 9fbd
00000310: 6863 93bd be1b efbb c138 e83d 3f6d 983c
00000320: 6486 45bd 5046 41be 13b1 4f3d b0ac febd
00000330: 5452 8bbd 3ce0 92bc 4d3a cf3c 291d 323c
00000340: 1d75 82bd cb8b 7c3d face fc3d 4c19 093e
00000350: 4213 563d 9491 b93d 8de1 e9bb b302 fdbd
00000360: af5d b63d b65a 8c3e 8a80 05be 00c8 acbd
00000370: 8690 94bd a640 a93d 016a 823e 089a a9be
00000380: 98a5 fdbd d1ec 4abe 1d5d 1b3d 7c6c 11be
00000390: b58d 1a3e 8800 b23d 21cd 153d b286 95bd
000003a0: 5fc9 6b3e 1f6a 22bd 5898 3c3e bd93 a53c
000003b0: 99a2 ccbc 9afc d13c 4e22 5b3e 7661 cc3d
000003c0: f147 fc3c 7c09 40be 721a 42bd 0849 1fbe
000003d0: 71ce ce3c a702 b6bd 2f56 e33c ade3 3e3e
000003e0: 5ddd 273d 6eb4 f33d 6fd6 6bbe dd7a 393e
000003f0: 25e5 d03d 6e6e 1cbe 7a81 923d 0a15 433e

encoder.net.5.bias f4 [34]
0.05696904 0.031684004 0.13094765 -0.038247377 0.06569028 0.084824786 -0.06944321 -0.07303234
0.07571102 0.06063175 -0.07374149 0.1103554 -0.09347706 -0.06735576 -0.08403516 0.061312478
-0.086232096 0.073515296 -0.07633628 0.06866904 -0.060384974 0.06933476 0.11060486 -0.03229825
-0.093313955 0.09717912 -0.073551856 0.07193251 0.0731306 -0.07140253 0.07474062 -0.061058883
-0.09283356 0.07691073
00000000: 5e58 693d 16c7 013d 2417 063e 48a9 1cbd
00000010: a088 863d 9eb8 ad3d 3e38 8ebd fb91 95bd
00000020: 610e 9b3d ff58 783d c705 97bd 0302 e23d
00000030: e770 bfbd d1f1 89bd a01a acbd cb22 7b3d
00000040: 749a b0bd 308f 963d 3256 9cbd 5ba2 8c3d
00000050: 3c56 77bd 62ff 8d3d cd84 e23d 2b4b 04bd
00000060: 631b bfbd d905 c73d 5ba2 96bd 5a51 933d
00000070: 7fc5 953d 7d3b 92bd 9c11 993d e118 7abd
00000080: 861f bebd 5f83 9d3d

predictor.net.1.weight f4 [32, 34]
0.0306379 -0.008226283 -0.09398209 0.06732691 -0.06475039 -0.26356205 -0.13478167 -0.28258702
-0.016146429 0.07051065 -0.08354285 0.029312707 0.23311816 -0.30041152 -0.031442765 -0.0755627
0.24345763 0.08429388 -0.058700647 0.14848097 -0.14493532 -0.24075691 -0.19195925 -0.2636058
0.077191785 0.02278766 -0.0010449573 0.1138288 0.029379275 -0.08437302 0.2821777 0.09536145
-0.06230001 -0.1684564 -0.04261273 -0.0533871 0.11297038 -0.3019359 0.1554052 0.18787658
0.20934519 -0.17437895 0.2754806 -0.012312186 -0.0059685013 -0.1331756 -0.27344283 -0.07089667
-0.16623728 0.0066196946 0.048615932 -0.062508255 0.22345054 -0.055224124 0.027023524 0.2671721
-0.10856708 0.10780926 -0.32807872 0.084500544 -0.027318008 -0.19675726 0.18653546 -0.29542512
0.029322242 -0.02054256 0.028276535 -0.14020038 -0.30770814 -0.049600348 -0.062599115 0.044783432
-0.040669292 -0.107902154 -0.14875373 -0.14889564 0.19775115 0.14422983 0.09524738 -0.10334528
-0.12715794 0.073943846 0.16697067 0.13339949 0.16855854 0.09975515 0.08397741 -0.31899962
0.046871517 -0.006248619 -0.352352 0.23885433 -0.042460207 0.20202091 0.32143047 0.1019608
0.36003402 0.03854198 0.12276437 0.053467244 -0.17809173 0.28279904 -0.07224374 0.15013021
-0.12191194 -0.18026021 0.19158153 -0.19947895 -0.050423235 -0.055060793 -0.17279446 0.3350325
-0.026437553 0.21701597 0.18482336 0.043637384 0.26082975 -0.13247332 0.052735187 -0.05286698
-0.27681816 0.007102161 0.11342267 0.22755317 0.30160725 -0.033911355 -0.10711693 0.13663338
-0.023450168 -0.036266208 -0.14514247 0.113162115 0.25241986 -0.09809424 0.06278703 -0.030883538
-0.15357666 0.09761708 0.25767308 0.16612023 -0.030961042 -0.11765179 -0.06851614 0.17941761
-0.16032034 0.15851568 0.39645016 0.0019018636 0.09446515 0.37007686 0.014137608 -0.19187978
-0.008593894 0.06975849 -0.037592277 -0.2044502 0.3407139 -0.13468723 -0.18849097 0.20587024
-0.39565524 0.0028628742 0.0045556137 -0.083020344 -0.08636301 -0.15924095 -0.010578247 0.037646677
-0.21093778 0.09488142 -0.0025905883 -0.16157788 -0.2087381 -0.13253285 -0.13294964 -0.14018266
0.093211055 -0.15187323 0.19273515 -0.033305287 -0.15065396 0.14589152 -0.15169248 -0.066211514
0.1512305 -0.22168185 -0.41342646 0.18038991 -0.30381623 0.012613199 -0.2573488 0.011350267
-0.023373658 0.087598585 0.16519848 -0.069502056 0.12610206 -0.04196988 -0.016226023 -0.12803386
-0.2460863 -0.30239427 0.18244623 -0.06768676 0.019936118 0.102595486 -0.10244822 -0.06258196
-0.0866128 -0.13106981 0.10616509 -0.063738465 -0.023232404 0.2712482 0.084930874 -0.101063214
-0.14898677 0.24727705 0.11050719 0.026994267 0.18344434 0.29153398 -0.20002405 -0.2367354
-0.11025489 0.109326094 -0.14197567 -0.05399129 0.13507251 -0.03170028 0.16132724 0.17432152
-0.009626375 -0.13826613 0.16897178 0.13921778 0.19970894 0.00855156 -0.117941014 0.09712902
-0.03134026 -0.01780373 -0.010834657 -0.023581162 0.059206933 -0.22084142 0.13281278 0.012697964
-0.05964074 -0.096687704 -0.015091572 -0.07050352 0.05065021 -0.09355366 0.10810665 -0.09816859
00000000: 55fc fa3c 88c7 06bc af79 c0bd b1e2 893d
00000010: da9b 84bd 9bf1 86be 3504 0abe 3faf 90be
00000020: 8445 84bc e367 903d 8418 abbd 3421 f03c
00000030: 87b6 6e3e 8acf 99be 21ca 00bd 9ec0 9abd
00000040: f54c 793e 45a2 ac3d 1770 70bd 650b 183e
00000050: ed69 14be fb88 76be f790 44be 57f7 86be
00000060: ba16 9e3d 30ad ba3c f3f6 88ba 131f e93d
00000070: ceac f03c c3cb acbd 9879 903e dd4c c33d
00000080: 4c2e 7fbd d67f 2cbe b08a 2ebd 6fac 5abd
00000090: 045d e73d 5897 9abe 8a22 1f3e b862 403e
000000a0: 965e 563e 6590 32be cb0b 8d3e 0db9 49bc
000000b0: 6b93 c3bb 2f5f 08be b300 8cbe 4632 91bd
000000c0: 1b3a 2abe 06ea d83b 8021 473d 5404 80bd
000000d0: 38d0 643e b132 62bd 7060 dd3c c8ca 883e
000000e0: 6b58 debd 1acb dc3d eff9 a7be 9f0e ad3d
000000f0: 04ca dfbc bc7a 49be 2703 3f3e f641 97be
00000100: 3335 f03c df48 a8bc 31a4 e73c b090 0fbe
00000110: ec8b 9dbe bc29 4bbd f733 80bd d56e 373d
00000120: d894 26bd cefb dcbd e652 18be 1978 18be
00000130: 477f 4a3e fcb0 133e 0f11 c33d b1a6 d3bd
00000140: b135 02be df6f 973d 5cfa 2a3e e099 083e
00000150: 9c9a 2c3e 6e4c cc3d 59fc ab3d eb53 a3be
00000160: 59fc 3f3d 37c1 ccbb 7b67 b4be 3b96 743e
00000170: c1ea 2dbd 92de 4e3e 8992 a43e d3d0 d03d
00000180: 6156 b83e 32de 1d3d e36b fb3d 7800 5b3d
00000190: ae5d 36be 09cb 903e 87f4 93bd bcbb 193e
000001a0: f8ac f9bd 2296 38be f32d 443e 3644 4cbe
000001b0: 9888 4ebd 6d87 61bd 08f1 30be 6189 ab3e
000001c0: 9193 d8bc 6f39 5e3e 5642 3d3e 1dbd 323d
000001d0: 7a8b 853e 16a7 07be da00 583d 0c8b 58bd
000001e0: 1cbb 8dbe 3fb9 e83b 254a e83d b303 693e
000001f0: 446c 9a3e a2e6 0abd 1f60 dbbd 9fe9 0b3e
00000200: 911a c0bc e08b 14bd 3aa0 14be 8ac1 e73d
00000210: 2d3d 813e a2e5 c8bd 7d96 803d 79ff fcbc
00000220: 3343 1dbe 77eb c73d baed 833e 6c1b 2a3e
00000230: 03a2 fdbc 6cf3 f0bd 3152 8cbd 40b9 373e
00000240: 042b 24be ef51 223e 84fb ca3e f447 f93a
00000250: f276 c13d b77a bd3e 6da1 673c 227c 44be
00000260: 67cd 0cbc 8add 8e3d 5cfa 19bd 655b 51be
00000270: 0d72 ae3e 73eb 09be c703 41be a6cf 523e
00000280: 5393 cabe 0f9f 3b3b 4247 953b 9206 aabd
00000290: 17df b0bd 0f10 23be 6250 2dbc 6733 1a3d
000002a0: 1300 58be 3151 c23d dcc6 29bb ac74 25be
000002b0: 71bf 55be b1b6 07be f323 08be 0b8c 0fbe
000002c0: 70e5 be3d a884 1bbe 5d5c 453e 206b 08bd
000002d0: 0845 1abe 9664 153e 4655 1bbe e799 87bd
000002e0: 2bdc 1a3e 9100 63be a2ac d3be 22b8 383e
000002f0: cd8d 9bbe 97a7 4e3c 39c3 83be 78f6 393c
00000300: 1d7a bfbc e366 b33d ca29 293e 1857 8ebd
00000310: e620 013e 9ce8 2bbd 70ec 84bc 4f1b 03be
00000320: 0cfe 7bbe 6cd3 9abe 2fd3 3a3e 5b9f 8abd
00000330: 1251 a33c 951d d23d 5fd0 d1bd f82a 80bd
00000340: 0d62 b1bd 2a37 06be 156d d93d 5089 82bd
00000350: e251 bebc 0be1 8a3e 3df0 ad3d 3bfa cebd
00000360: fd8f 18be 3236 7d3e 9851 e23d 1523 dd3c
00000370: d5d8 3b3e f143 953e 1bd3 4cbe c46a 72be
00000380: 51cd e1bd 5ce6 df3d 1262 11be f925 5dbd
00000390: 7350 0a3e 27d8 01bd f832 253e 5781 323e
000003a0: f1b7 1dbc a395 0dbe f006 2d3e 1b8f 0e3e
000003b0: 8080 4c3e d81b 0c3c 0f8b f1bd 94eb c63d
000003c0: a55e 00bd 21d9 91bc d883 31bc 482d c1bc
000003d0: f882 723d 4124 62be 1300 083e 1f0b 503c
000003e0: d949 74bd 3404 c6bd a442 77bc 2664 90bd
000003f0: 9876 4f3d 1099 bfbd 0567 dd3d 9d0c c9bd

predictor.net.1.bias f4 [32]
-0.09850142 0.09330886 -0.10028475 -0.099241406 0.12302372 -0.086102724 0.09712386 -0.06898839
-0.10811069 -0.07329495 0.10404715 0.111283414 -0.10542503 0.08165134 0.08460051 0.0387491
0.0883842 -0.09941449 -0.09946981 -0.112221144 -0.10049539 0.09650098 0.086665034 0.08147771
-0.111689314 -0.10514463 -0.08573431 0.113521345 -0.09873128 0.10161507 -0.06418234 -0.09515424
00000000: 1dbb c9bd b718 bf3d 1762 cdbd 143f cbbd
00000010: dcf3 fb3d a056 b0bd e0e8 c63d c949 8dbd
00000020: 2369 ddbd aa1b 96bd ac16 d53d 8fe8 e33d
00000030: 14e9 d7bd d138 a73d 0843 ad3d 60b7 1e3d
00000040: c702 b53d d399 cbbd d4b6 cbbd 33d4 e5bd
00000050: 87d0 cdbd 4ea2 c53d 707d b13d c9dd a63d
00000060: 5ebd e4bd 1156 d7bd 7895 afbd e17d e83d
00000070: a033 cabd 901b d03d 0872 83bd 3ae0 c2bd

predictor.net.3.weight f4 [1, 32]
-0.10782017 0.24439931 -0.025011117 -0.15414329 0.06884057 -0.025892654 0.3109388 -0.014192392
-0.053222768 -0.008166618 0.3159331 0.12004581 -0.20826568 0.026885835 0.05303639 -0.029610576
0.3912128 -0.20580436 -0.17337956 -0.034238547 -0.48650274 0.31087184 0.37250966 0.08794688
-0.11979266 -0.13927734 -0.04007889 0.051606864 -0.34834927 0.37306914 0.0032367068 -0.32618028
00000000: d2d0 dcbd d043 7a3e 1de4 ccbc bdd7 1dbe
00000010: 49fc 8c3d d51c d4bc 5f33 9f3e 3587 68bc
00000020: 1e00 5abd 47cd 05bc fcc1 a13e 94da f53d
00000030: 9943 55be af3f dc3c b03c 593d e191 f2bc
00000040: 0b4d c83e 61be 52be 698a 31be b83d 0cbd
00000050: e316 f9be 982a 9f3e 96b9 be3e 7e1d b43d
00000060: db55 f5bd b89e 0ebe c329 24bd b861 533d
00000070: d65a b2be eb02 bf3e ee1e 543b 1a01 a7be

net.0.weight f4 [60, 37]
0.028272867 -0.20636961 -0.17045897 -0.14003749 0.15489411 -0.13374244 0.09267927 0.03555365
-0.24791357 0.15373835 0.08836009 0.023059865 -0.16788954 0.03472541 0.038610205 0.09706727
-0.039915487 -0.2798597 -0.097052366 0.13334802 -0.15374178 -0.028589576 0.12526499 -0.23055194
-0.14835754 0.039299324 -0.026221897 0.25679412 0.090458855 0.07922178 0.06649688 -0.041760903
-0.14383416 0.07029922 0.11705827 0.032480206 0.024587443 0.059243347 0.06773225 -0.00077224703
0.033072136 -0.16269787 -0.072233 -0.13721745 -0.009155756 -0.16039534 -0.23575854 -0.25063708
0.05750276 -0.27090424 0.14535615 -0.20536248 0.06604677 0.016186006 -0.20959383 -0.19198243
-0.0010663662 -0.23994172 0.1142383 -0.02416353 -0.06105172 0.04736626 -0.27298746 -0.23136611
0.2479579 0.1934079 0.037713777 -0.1397125 -0.0752844 0.32263663 -0.26112533 0.10703615
-0.06911205 -0.010729146 -0.22244391 -0.19052571 0.04741758 -0.28937128 0.011962265 -0.10550989
-0.082953654 0.058793794 0.13591713 0.16632551 -0.039847158 -0.047764063 -0.018012002 -0.039640833
-0.023996335 -0.17737931 0.15880685 0.060743053 0.11963451 0.3041448 -0.18829252 0.06391744
0.14186975 0.121581495 0.13319868 0.021835918 0.25416976 0.10967738 0.08233117 -0.11800035
0.13789423 -0.050011266 0.031562127 -0.1494963 -0.04593232 0.059902877 0.11769911 -0.06467139
-0.12704757 -0.29193258 -0.034287117 -0.039186593 -0.07858878 0.01996529 0.0644886 0.052242815
-0.011903907 -0.07393382 -0.018551132 -0.27144432 -0.052347098 0.114757866 -0.09888537 -0.103806615
-0.32408452 -0.13483913 0.3499705 -0.043035947 0.18876466 -0.446476 -0.14398697 -0.11629196
0.15907538 0.0778668 -0.052255493 0.052338343 -0.24251534 0.033622734 0.061483372 0.24823387
0.15377451 -0.054138444 -0.015905349 0.139678 -0.05493459 0.15145603 0.097343065 0.086527705
0.12936416 -0.11789971 0.1428949 0.2508374 -0.214412 0.16949421 -0.16140422 -0.121917754
0.28971022 0.015336 -0.0039602104 0.17210682 0.066950336 0.16825743 0.100661986 0.13712884
0.23010759 -0.03590525 0.037936132 0.086564586 0.027543688 -0.06908383 0.013958674 0.12896556
-0.20995419 -0.13561176 -0.078807235 -0.22560126 -0.07091605 -0.011835593 -0.07074043 0.05380955
-0.046181597 0.05243491 0.031859975 0.08149216 0.11792006 -0.06769631 0.005626899 0.24250448
0.2711599 0.15305991 0.08155968 -0.19027391 -0.124573804 0.13573402 0.10970196 -0.042716797
-0.043596286 -0.295003 0.20501441 0.1974532 0.042354614 -0.003862035 0.019483885 -0.18053742
-0.055043347 -0.10898918 0.25794595 0.021360079 -0.2334074 0.059626322 -0.104609594 0.21950324
-0.13058594 -0.07239257 -0.079928786 0.012071953 -0.23769371 -0.17749673 -0.3576842 0.42011288
-0.06658779 0.1375113 0.03681778 0.038085323 -0.046959024 -0.22382851 -0.07955213 0.0539499
0.20368491 -0.22265194 0.21567203 0.29342565 -0.14263536 -0.10579948 -0.013189384 0.11544348
-0.15444314 0.10263535 -0.048158824 -0.06319976 -0.18111038 -0.26027727 0.20830123 -0.1610325
0.031097703 -0.016020985 0.084715195 -0.017147932 -0.02620094 -0.15546693 -0.16294806 -0.0094538005
00000000: 809c e73c 8e52 53be cc8c 2ebe fd65 0fbe
00000010: 909c 1e3e c7f3 08be a1ce bd3d b4a0 113d
00000020: 0edd 7dbe 966d 1d3e 23f6 b43d 0be8 bc3c
00000030: 3ceb 2bbe 3b3c 0e3d bc25 1e3d 34cb c63d
00000040: 6c7e 23bd c549 8fbe 64c3 c6bd 628c 083e
00000050: 7c6e 1dbe b034 eabc 7745 003e cf15 6cbe
00000060: 0aeb 17be 54f8 203d 4ecf d6bc 857a 833e
00000070: 7e42 b93d 073f a23d 842f 883d 7b0d 2bbd
00000080: 4349 13be 0af9 8f3d 3fbc ef3d f709 053d
00000090: 9b6b c93c 27a9 723d 35b7 8a3d 9f70 4aba
000000a0: a676 073d 459a 26be e5ee 93bd bb82 0cbe
000000b0: 0602 16bc ad3e 24be b06a 71be 8153 80be
000000c0: 0488 6b3d f6b3 8abe 3ed8 143e 8b4a 52be
000000d0: 8743 873d 8498 843c c49f 56be 0b97 44be
000000e0: 50c5 8bba 48b3 75be c5f5 e93d 98f2 c5bc
000000f0: 5e11 7abd 2003 423d 03c5 8bbe 3deb 6cbe
00000100: ade8 7d3e b80c 463e c379 1a3d cb10 0fbe
00000110: b52e 9abd a130 a53e 38b2 85be c535 db3d
00000120: 9e8a 8dbd 4dc9 2fbc 56c8 63be 2c19 43be
00000130: f038 423d 7928 94be 60fd 433c 9215 d8bd
00000140: 9be3 a9bd c3d1 703d dc2d 0b3e 3c51 2a3e
00000150: c636 23bd 40a4 43bd e88d 93bc 6d5e 22bd
00000160: f693 c4bc eca2 35be 439e 223e b5cd 783d
00000170: f002 f53d deb8 9b3e c1cf 40be 26e7 823d
00000180: 4e46 113e b8ff f83d 3c65 083e 3de1 b23c
00000190: 8a22 823e 899e e03d 3f9d a83d 2baa f1bd
000001a0: 2534 0d3e 9dd8 4cbd 4a47 013d 8f15 19be
000001b0: 8723 3cbd b85c 753d 3b0c f13d 6f72 84bd
000001c0: c218 02be 3078 95be a670 0cbd 1f82 20bd
000001d0: 27f3 a0bd 3f8e a33c 9912 843d 90fc 553d
000001e0: 9b08 43bc 9d6a 97bd 8bf8 97bc c0fa 8abe
000001f0: e969 56bd 2c06 eb3d 6a84 cabd 9098 d4bd
00000200: 68ee a5be 4513 0abe 552f b33e 7646 30bd
00000210: 864b 413e 8198 e4be 5271 13be 7b2a eebd
00000220: a8e4 223e a178 9f3d db09 56bd bb60 563d
00000230: f155 78be feb7 093d fdd5 7b3d 0531 7e3e
00000240: 1177 1d3e 46c0 5dbd ef4b 82bc c007 0f3e
00000250: 1803 61bd 4a17 1b3e cd5b c73d 7035 b13d
00000260: 0a78 043e 6775 f1bd 0a53 123e c26d 803e
00000270: d28e 5bbe e48f 2d3e 2647 25be 04b0 f9bd
00000280: e654 943e d943 7b3c a7c4 81bb c53c 303e
00000290: 421d 893d ad4b 2c3e df27 ce3d 816b 0c3e
000002a0: 53a1 6b3e 6211 13bd eb62 1b3d c648 b13d
000002b0: 4da3 e13c d37b 8dbd ecb2 643c 8c0f 043e
000002c0: 3bfe 56be cfdd 0abe b065 a1bd 0404 67be
000002d0: 6f3c 91bd 13ea 41bc 5ce0 90bd 6767 5c3d
000002e0: ea28 3dbd fdc5 563d 9b7f 023d 5de5 a63d
000002f0: 1380 f13d 5da4 8abd da61 b83b 1853 783e
00000300: 78d5 8a3e bdbb 1c3e c308 a73d 2ad7 42be
00000310: 8d20 ffbd dcfd 0a3e 6cab e03d cff7 2ebd
00000320: 0592 32bd a20a 97be 4cef 513e 2c31 4a3e
00000330: 087c 2d3d 321a 7dbb ab9c 9f3c cdde 38be
00000340: 2275 61bd b835 dfbd 7e11 843e 55fb ae3c
00000350: 5902 6fbe bb3a 743d 8e3d d6bd 75c5 603e
00000360: 52b8 05be 8e42 94bd b4b1 a3bd 71c9 453c
00000370: fb65 73be b4c1 35be 6222 b7be 0919 d73e
00000380: 2e5f 88bd c3cf 0c3e 3ece 163d 5bff 1b3d
00000390: 1b58 40bd 4d33 65be 3aec a2bd 92fa 5c3d
000003a0: c792 503e dffe 63be 21d9 5c3e e33b 963e
000003b0: 010f 12be 66ad d8bd 4918 58bc a26d ec3d
000003c0: 5826 1ebe 7b32 d23d 3042 45bd e06e 81bd
000003d0: 0075 39be 1043 85be eb4c 553e b4e5 24be
000003e0: 9cc0 fe3c 713e 83bc 297f ad3d d279 8cbc
000003f0: 5ba3 d6bc b932 1fbe dbdb 26be 1de4 1abc

net.0.bias f4 [60]
-0.056871325 0.02779035 0.0066052857 -0.096115336 0.08177226 0.07607643 -0.13183235 -0.12048362
0.13457364 0.0021694284 0.025476139 0.055491976 -0.17074034 -0.037354946 -0.08719912 -0.14639644
0.0013971872 0.09224233 0.033579916 -0.10076736 -0.055855524 0.09853337 -0.090364486 -0.005918684
-0.08229908 -0.06498752 0.17949529 -0.1506699 0.07771752 -0.0037219643 -0.14100136 -0.031233922
0.10001852 -0.031068653 0.05342524 -0.036662824 0.06316654 -0.031271044 -0.059417054 -0.034058344
0.106512636 0.118102305 -0.024937809 -0.100073956 0.12536171 0.02258531 -0.06594697 0.031701747
-0.18252371 0.04169804 -0.053237706 -0.15389124 0.06725997 0.16096781 0.053317428 -0.028401239
-0.11727095 -0.074463174 0.05307838 -0.033458464
00000000: e8f1 68bd 97a8 e33c 2771 d83b 1ed8 c4bd
00000010: 3778 a73d f6cd 9b3d 0fff 06be 1ec0 f6bd
00000020: accd 093e f82c 0e3b 56b3 d03c 8e4b 633d
00000030: 8ed6 2ebe 8001 19bd 7495 b2bd f3e8 15be
00000040: d321 b73a 8ce9 bc3d 188b 093d 1e5f cebd
00000050: c3c8 64bd ddcb c93d 0411 b9bd 85f1 c1bb
00000060: 6c8c a8bd 2d18 85bd 9dcd 373e 3649 1abe
00000070: 5d2a 9f3d 33ec 73bb a962 10be 48de ffbc
00000080: 83d6 cc3d b083 febc 6dd4 5a3d c22b 16bd
00000090: 755d 813d 1116 00bd 4c5f 73bd c380 0bbd
000000a0: 4c23 da3d 9fdf f13d 604a ccbc 93f3 ccbd
000000b0: d25e 003e d404 b93c 340f 87bd b1d9 013d
000000c0: 7fe7 3abe 90cb 2a3d c80f 5abd aa95 1dbe
000000d0: 98bf 893d bfd4 243e 6063 5a3d b7a9 e8bc
000000e0: c02b f0bd 2680 98bd b768 593d be0b 09bd

net.2.weight f4 [60, 60]
0.076362945 0.0658014 0.15575153 -0.026744604 0.11775379 0.05421658 -0.052499 0.03961205
0.1776544 -0.04419852 -0.03494538 0.014782282 -0.087835975 -0.20232143 0.0139955925 0.07861658
-0.01772036 0.04474841 -0.0405615 -0.09686589 0.0021862106 0.047292396 -0.070485055 0.14220478
0.18975314 0.033222947 -0.06751455 0.012553965 -0.06331504 0.21426196 0.18485692 0.038010836
-0.0021305124 -0.026185144 0.1435598 -0.053935885 0.04386705 -0.099345885 0.0620141 0.14021388
0.10850142 0.1797586 -0.26502135 -0.048151407 0.20002216 0.11892626 0.036853347 0.06329171
-0.032054957 -0.14345513 -0.06234908 -0.15292919 -0.13215852 0.0902531 0.063042134 0.24570455
0.055539325 -0.031055957 -0.14562947 -0.10133981 -0.00089289993 -0.17042887 -0.052993555 0.18736771
0.026503412 -0.030340258 0.2656504 -0.19183223 0.25078434 -0.09786146 0.07529532 -0.122933395
-0.0039288113 -0.094925456 -0.1036613 -0.26923686 -0.0005372377 0.0677031 -0.23062006 0.09245732
-0.12632689 0.18658815 0.1798149 0.09271244 0.0116018355 0.10146383 0.020715548 0.10412292
-0.12933522 0.11255287 0.23652977 -0.15072547 0.018800242 0.16659726 -0.06259449 0.12669669
-0.0965088 0.23752451 0.3267547 -0.003016825 -0.07677676 0.22486657 -0.012192362 0.059340965
-0.013044154 -0.05783314 -0.062424153 -0.11842182 -0.05853047 -0.033682622 0.22890903 0.070076786
0.073700115 0.08605157 0.03734761 0.12826766 0.09279844 -0.25418255 0.09083928 -0.21623644
-0.24969424 -0.121777475 0.05050239 0.067863494 0.14824034 -0.010731999 -0.07085499 -0.15753314
0.026771104 0.08855644 0.2457445 0.061259124 0.00015241654 0.1711035 0.08722454 0.21979718
-0.03482092 -0.20042962 -0.08452682 0.03352068 0.05389905 0.037778534 -0.23819393 -0.055176288
0.096128196 0.057135515 -0.11388385 0.0025818774 -0.042487666 -0.07301099 0.042369436 -0.020953428
0.35251078 0.02707257 -0.14392778 0.049808092 0.13772695 -0.052481346 -0.33114365 0.029115561
0.0710236 -0.05595563 0.04732736 -0.017258791 0.105806716 -0.0891292 -0.107476845 0.19836682
0.1806111 -0.075415656 0.044631068 -0.15770666 -0.005205814 0.0014456704 -0.2668422 0.12563327
-0.19477238 -0.16790894 0.052928634 -0.009136842 -0.10615677 -0.22806397 0.2008405 -0.060178705
0.23218875 -0.022939757 0.17276987 -0.08320993 0.15443735 0.098414145 0.035369065 -0.34037247
-0.078904115 0.051613163 0.018989699 0.06851572 -0.1549879 -0.01000548 -0.18694383 -0.0432598
-0.017783463 -0.048031166 -0.08988542 -0.10685291 0.001403507 -0.33384332 0.07106315 0.061716918
0.2818309 0.047291197 0.013751117 0.24493496 -0.04758132 0.05678856 0.07396003 -0.08803403
-0.06191334 0.108350635 -0.14991768 -0.07226763 -0.026469018 -0.05405721 -0.002128247 -0.059066914
-0.0391809 -0.01739093 0.004292508 0.056703515 0.09302572 -0.18051073 -0.06506428 0.08838637
0.32898733 0.121155046 -0.14162843 0.024754247 -0.33269346 0.12488082 0.027792713 -0.108235456
0.16336347 -0.14000458 -0.1053355 -0.026668776 -0.16323271 -0.1191054 -0.2527997 -0.093848296
-0.05072051 -0.09053775 -0.042561244 -0.114216946 0.10726756 0.3235121 -0.034254164 -0.06016797
00000000: 2d64 9c3d e2c2 863d 547d 1f3e 8017 dbbc
00000010: e628 f13d 3412 5e3d 3109 57bd 3f40 223d
00000020: 09eb 353e 8209 35bd e322 0fbd 6231 723c
00000030: 59e3 b3bd 592d 4fbe c54d 653c bb01 a13d
00000040: 4a2a 91bc 1c4a 373d d123 26bd a061 c6bd
00000050: 8746 0f3b acb5 413d 785a 90bd 219e 113e
00000060: a64e 423e c914 083d 1245 8abd 25af 4d3c
00000070: 51ab 81bd 7d67 5b3e 224b 3d3e 40b1 1b3d
00000080: 11a0 0bbb 3a82 d6bc 5701 133e e0eb 5cbd
00000090: f0ad 333d db75 cbbd 7f02 7e3d 3a94 0f3e
000000a0: fe35 de3d a312 383e e1b0 87be 693a 45bd
000000b0: 9cd2 4c3e 9c8f f33d 89f3 163d 169f 813d
000000c0: 0f4c 03bd e7e5 12be c061 7fbd 7899 1cbe
000000d0: 9054 07be 9ed6 b83d 3c1c 813d f999 7b3e
000000e0: 347d 633d 1069 febc e41f 15be 3f8b cfbd
000000f0: 8011 6aba e884 2ebe c50f 59bd 52dd 3f3e
00000100: af1d d93c 228c f8bc 5403 883e ab6f 44be
00000110: ce66 803e 976b c8bd 6f34 9a3d 81c4 fbbd
00000120: 42bd 80bb 4768 c2bd 604c d4bd 6ad9 89be
00000130: 69d5 0cba eca7 8a3d aa27 6cbe 435a bd3d
00000140: d65b 01be f710 3f3e 6621 383e 05e0 bd3d
00000150: a015 3e3c 45cc cf3d a7b3 a93c 663e d53d
00000160: 7470 04be 1e82 e63d dc34 723e c757 1abe
00000170: f702 9a3c 7998 2a3e 8a31 80bd c7bc 013e
00000180: 68a6 c5bd a039 733e 644c a73e edb5 45bb
00000190: 223d 9dbd 6c43 663e 79c2 47bc 830f 733d
000001a0: 26b7 55bc 71e2 6cbd 78b0 7fbd 2487 f2bd
000001b0: a5bd 6fbd caf6 09bd 2167 6a3e 6b84 8f3d
000001c0: 16f0 963d ce3b b03d cff9 183d 9958 033e
000001d0: 1c0d be3d 3724 82be f209 ba3d 166d 5dbe
000001e0: d9af 7fbe 7866 f9bd 98db 4e3d 04fc 8a3d
000001f0: 51cc 173e 44d5 2fbc 6c1c 91bd 5e50 21be
00000200: 134f db3c 145d b53d 72a4 7b3e d9ea 7a3d
00000210: 01d2 1f39 c235 2f3e c8a2 b23d 8312 613e
00000220: 62a0 0ebd 6c3d 4dbe 661c adbd fb4c 093d
00000230: 40c5 5c3d aabd 1a3d 1ce9 73be 8800 62bd
00000240: dcde c43d ee06 6a3d f03b e9bd b734 293b
00000250: 8c07 2ebd c986 95bd 938b 2d3d 86a6 abbc
00000260: 4b7c b43e 4bc7 dd3c ce61 13be 9203 4c3d
00000270: 4b08 0d3e aef6 56bd a98b a9be c283 ee3c
00000280: d274 913d bb31 65bd 55da 413d 4f62 8dbc
00000290: 31b1 d83d 5f89 b6bd d21c dcbd ac20 4b3e
000002a0: 1ef2 383e 8673 9abd 11cf 363d db7d 21be
000002b0: 8895 aabb a67c bd3a 8a9f 88be 02a6 003e
000002c0: 6972 47be 52f0 2bbe b2cb 583d b1b2 15bc
000002d0: b868 d9bd 9a89 69be 22a9 4d3e f27d 76bd
000002e0: e3c2 6d3e 28ec bbbc 96ea 303e f869 aabd
000002f0: d324 1e3e 5b8d c93d 27df 103d 4d45 aebe
00000300: 7b98 a1bd 5368 533d 4990 9b3c f851 8c3d
00000310: 26b5 1ebe 06ee 23bc 346e 3fbe 3031 31bd
00000320: a0ae 91bc 54bc 44bd d915 b8bd b3d5 dabd
00000330: e1f5 b73a 83ed aabe 8f89 913d e1ca 7c3d
00000340: 244c 903e 6ab4 413d 5d4c 613c 3bd0 7a3e
00000350: a1e4 42bd 1f9b 683d 5b78 973d 2f4b b4bd
00000360: d898 7dbd f0e6 dd3d 0584 19be 0d01 94bd
00000370: 8ed5 d8bc 186b 5dbd 0f7a 0bbb 26f0 71bd
00000380: 277c 20bd 6c77 8ebc 2ba8 8c3b f241 683d
00000390: 4584 be3d ced7 38be 6c40 85bd ea03 b53d
000003a0: 0771 a83e 2320 f83d 0b07 11be 6bc9 ca3c
000003b0: cc56 aabe 84c1 ff3d 8bad e33c 8daa ddbd
000003c0: c148 273e 5c5d 0fbe 23ba d7bd 7a78 dabc
000003d0: 7a26 27be 88ed f3bd f66e 81be 8933 c0bd
000003e0: 4fc0 4fbd db6b b9bd b354 2ebd 93ea e9bd
000003f0: 18af db3d 61a3 a53e 184e 0cbd b072 76bd

net.2.bias f4 [60]
-0.040161688 -0.04747997 -0.070752844 0.052563295 -0.08716952 -0.077611834 0.018566066 0.057251595
0.10071555 -0.0401486 -0.10044024 -0.015182937 0.0576441 0.10054621 -0.04848598 0.110203914
0.06176761 0.009680096 0.02331079 -0.124694906 -0.107480265 0.046948597 0.056159943 0.0008198
0.06347221 -0.008403717 0.017534196 0.111226775 -0.076286934 0.080818444 0.07585532 -0.077950366
-0.070633054 -0.1187224 0.11711073 -0.06588337 0.08943496 0.05568516 0.07855728 0.08517265
-0.112366565 -0.11261208 -0.075327545 -0.06616938 0.04915237 -0.07660715 0.045755133 0.040372893
0.029008834 -0.067351945 0.07942721 0.017814022 0.07630414 0.04038125 -0.100670345 -0.0033267604
0.11237251 -0.037278738 0.036308303 -0.018299948
00000000: 9580 24bd 5b7a 42bd dee6 90bd 9c4c 573d
00000010: ef85 b2bd f4f2 9ebd dd17 983c a680 6a3d
00000020: f443 ce3d dc72 24bd 9db3 cdbd dac1 78bc
00000030: 381c 6c3d 2ceb cd3d 3c99 46bd 97b2 e13d
00000040: 0900 7d3d 4499 1e3c 45f6 be3c 0b60 ffbd
00000050: 9d1e dcbd 2c4d 403d f807 663d d9e7 563a
00000060: b8fd 813d beaf 09bc e0a3 8f3c ddca e33d
00000070: 533c 9cbd 2484 a53d 095a 9b3d 71a4 9fbd
00000080: 10a8 90bd bb24 f3bd c0d7 ef3d dced 86bd
00000090: ad29 b73d 1f16 643d a4e2 a03d 006f ae3d
000000a0: 7120 e6bd 2aa1 e6bd 5445 9abd d083 87bd
000000b0: ff53 493d 36e4 9cbd bc69 3b3d 0c5e 253d
000000c0: efa3 ed3c d1ef 89bd bcaa a23d b6ee 913c
000000d0: 5845 9c3d cf66 253d 412c cebd c705 5abb
000000e0: 8f23 e63d 97b1 18bd 04b8 143d c6e9 95bc

net.5.weight f4 [1, 60]
-0.0045314436 -0.111879535 0.13467103 0.11008801 0.35234746 0.21742591 -0.04150933 0.1426204
0.1165959 0.106893696 0.2108529 -0.28316462 -0.18926361 -0.3424026 -0.07163881 0.13438168
0.026204336 0.15349992 -0.043932777 -0.04440918 0.045682125 -0.15225142 0.058398403 0.059821088
-0.17225552 -0.120314464 -0.4035531 0.12576576 0.15830287 -0.1158156 -0.03236747 -0.07245528
-0.009350588 -0.14493941 0.1073108 0.144822 -0.06034552 0.021905055 -0.051070325 -0.011415757
-0.1681104 0.014246732 -0.14975554 0.09791272 0.12387313 -0.12418759 0.15710837 0.25682208
-0.008363415 0.5065017 -0.08523896 -0.24217495 -0.094795294 0.11034355 0.26740712 0.09611241
-0.19313884 -0.13339013 0.092966326 -0.021878764
00000000: 817c 94bb 1921 e5bd 34e7 093e d375 e13d
00000010: e366 b43e e6a4 5e3e b005 2abd 150b 123e
00000020: d5c9 ee3d 15eb da3d d3e9 573e f4fa 90be
00000030: 52ce 41be 654f afbe 5eb7 92bd 5a9b 093e
00000040: 7aaa d63c 152f 1d3e dbf2 33bd 66e6 35bd
00000050: 2e1d 3b3d cce7 1bbe 2a33 6f3d f506 753d
00000060: c063 30be 6e67 f6bd 839e cebe bdc8 003e
00000070: 261a 223e bb30 edbd c193 04bd 6f63 94bd
00000080: 3533 19bc ff6a 14be c4c5 db3d 384c 143e
00000090: dd2c 77bd 3b72 b33c 1e2f 51bd 2809 3bbc
000000a0: 2225 2cbe 206b 693c 8459 19be 7786 c83d
000000b0: 32b1 fd3d 1056 febd 04e1 203e 2f7e 833e
000000c0: b406 09bc 18aa 013f c491 aebd b6fc 77be
000000d0: 0924 c2bd cdfb e13d 96e9 883e 95d6 c43d
000000e0: 30c6 45be 6c97 08be 2165 be3d 183b b3bc
