results/PINN/XJTU results/5-5/Experiment7/model.pth (torch, 60271 bytes, 14 tensors)

encoder.net.0.weight f4 [60, 17]
0.10917677 -0.04185157 -0.08331159 -0.1254963 -0.0020015156 0.0021575848 -0.1215541 -0.07193772
-0.06578045 0.12915316 -0.10184737 0.07070779 -0.11650863 0.107956216 0.039768714 0.13395965
-0.0077949255 0.09256918 -0.015597091 0.2675783 0.07173298 -0.30070964 -0.06954281 -0.025488228
0.084026866 -0.063464925 0.2430257 -0.033338565 -0.07650557 0.20350596 -0.08009746 0.0067517674
0.019431414 0.0021933946 -0.059430063 -0.2540038 -0.0143986605 -0.1366656 -0.031142605 -0.1219794
-0.028858371 0.0069119525 0.045017656 -0.030796451 -0.17353325 -0.14869128 0.16058424 -0.19339414
0.15201768 -0.062065598 0.1990163 0.11983156 0.078925684 0.014399536 0.38114217 -0.31232476
-0.17949267 -0.18049198 -0.050544154 0.092299126 0.17489445 0.08158999 -0.12519409 0.10625296
0.03336386 -0.1759649 0.34890506 -0.14034212 -0.22727075 -0.18439208 -0.43915388 -0.114967585
0.124833755 -0.010797347 0.23842935 -0.22502367 0.11414546 0.035323042 0.033458423 -0.12952957
0.06780394 -0.06460009 0.3076088 -0.15792519 0.028473213 0.19192232 0.011759297 -0.050664723
0.14637263 0.035523295 -0.13904558 -0.060537968 0.15469594 -0.15801536 0.04626269 -0.0630108
-0.18187939 -0.05382857 0.2733519 -0.13892272 -0.10679268 -0.12792026 0.07118671 0.062402606
0.11969516 0.12077613 0.18315239 -0.08836317 0.054459445 -0.09595081 -0.05888465 0.03932027
-0.08788378 -0.08933163 0.17882387 0.060271166 -0.14918984 -0.08351654 -0.03477988 0.05621711
0.12063209 -0.1236638 0.09341719 -0.090793945 0.13486238 0.000641009 -0.20011501 -0.28676012
-0.1412671 0.07698054 -0.11031223 0.10565114 0.17968296 -0.2362026 0.14890464 -0.11886337
-0.346149 0.0018887761 0.1771029 -0.052993935 0.110212564 -0.067171715 -0.035029326 0.16943689
0.2342068 0.016620275 0.16458021 -0.13069494 -0.112996995 -0.01240882 0.102465376 0.1795103
-0.061810754 -0.24006586 -0.22510062 -0.052900307 -0.026108958 0.15658087 0.280543 0.28131783
0.10440671 0.023803348 -0.39984813 0.07548193 0.07529239 0.1556989 -0.08398561 -0.0676516
-0.050323967 0.15213922 -0.18047646 0.11472983 -0.060274 -0.045340262 -0.11159929 0.037752196
-0.1588348 0.36883688 -0.26916072 0.015204598 0.055012036 -0.19948164 -0.064837806 -0.10938569
0.061077192 0.21058753 0.18472487 -0.050560404 -0.085753836 0.021929305 0.16087373 -0.2586771
-0.09724077 0.30535227 0.09703011 -0.0007050308 0.089170516 -0.07172582 -0.058237772 0.0018852289
-0.097039685 0.46619403 -0.033801712 0.17391084 0.08733813 -0.021324407 0.12404909 0.22092545
-0.022367077 -0.16348967 -0.017028993 0.049079232 -0.041666776 -0.053663187 -0.17654486 -0.053247113
0.28407905 0.085693315 -0.11769195 0.053200908 -0.25559843 -0.19178113 -0.13493404 0.08300257
0.07475724 0.10761741 -0.04223718 -0.23583718 -0.08456497 0.08476309 -0.26789454 0.22537303
0.09337255 0.26726052 -0.20263377 0.3078911 0.14964522 0.07237018 -0.048358925 -0.055447955
-0.2663394 0.02064137 -0.001020992 -0.15965544 -0.12979811 0.13772401 0.06830736 -0.022012483
0.15606141 -0.009605778 0.23740481 -0.02654599 0.038745057 -0.15162648 0.069911115 0.07744023
00000000: 1298 df3d 8d6c 2bbd 449f aabd 1a82 00be
00000010: dc2b 03bb 4466 0d3b 5bf1 f8bd 1554 93bd
00000020: e7b7 86bd ba40 043e 5b95 d0bd 3fcf 903d
00000030: 149c eebd 2618 dd3d 85e4 223d b82c 093e
00000040: 936c ffbb e994 bd3d f18a 7fbc 0600 893e
00000050: bee8 923d 9df6 99be 766c 8ebd b0cc d0bc
00000060: 4716 ac3d e6f9 81bd bbdb 783e 058e 08bd
00000070: f4ae 9cbd de63 503e 230a a4bd ee3d dd3b
00000080: a12e 9f3c 0ebf 0f3b f06c 73bd c90c 82be
00000090: 5ce8 6bbc 11f2 0bbe c71e ffbc 56d0 f9bd
000000a0: 6468 ecbc a97d e23b 6f64 383d d748 fcbc
000000b0: b3b2 31be 8742 18be 3270 243e 1d09 46be
000000c0: 86aa 1b3e 7f38 7ebd eeca 4b3e 406a f53d
000000d0: caa3 a13d 08ec 6b3c 1125 c33e 08e9 9fbe
000000e0: edcc 37be e4d2 38be 6307 4fbd 5307 bd3d
000000f0: 8817 333e a718 a73d e132 00be 279b d93d
00000100: 8ba8 083d 2530 34be afa3 b23e d8b5 0fbe
00000110: aab9 68be 47d1 3cbe c7d8 e0be 2074 ebbd
00000120: d7a8 ff3d 5be7 30bc d326 743e 9b6c 66be
00000130: 18c5 e93d e5ae 103d b30b 093d 66a3 04be
00000140: cbdc 8a3d 0d4d 84bd e77e 9d3e 24b7 21be
00000150: a840 e93c 4987 443e 11aa 403c d085 4fbd
00000160: b5e2 153e e080 113d f761 0ebe a9f6 77bd
00000170: 9d68 1e3e c7ce 21be f27d 3d3d ce0b 81bd
00000180: 973e 3abe 597b 5cbd c8f4 8b3e c241 0ebe
00000190: 1fb6 dabd 87fd 02be 56ca 913d e099 7f3d
000001a0: bc22 f53d 7a59 f73d 4d8c 3b3e c0f7 b4bd
000001b0: de10 5f3d dc81 c4bd 0831 71bd 4b0e 213d
000001c0: 69fc b3bd 80f3 b6bd 9b1d 373e e6de 763d
000001d0: 39c5 18be b80a abbd 5975 0ebd ea43 663d
000001e0: f50d f73d 7243 fdbd 8351 bf3d 2df2 b9bd
000001f0: 5d19 0a3e 6309 283a f3ea 4cbe 39d2 92be
00000200: 53a8 10be f9a7 9d3d 61eb e1bd a05f d83d
00000210: cffe 373e 18df 71be 757a 183e a36e f3bd
00000220: 713a b1be cf90 f73a 765a 353e 2b10 59bd
00000230: 20b7 e13d 5391 89bd e97a 0fbd dd80 2d3e
00000240: e8d3 6f3e 3e27 883c b787 283e e5d4 05be
00000250: f86a e7bd 5d4e 4bbc 5ed9 d13d 8cd1 373e
00000260: 462d 7dbd d3d3 75be c780 66be fead 58bd
00000270: 74e2 d5bc bc56 203e 55a3 8f3e e408 903e
00000280: 2fd3 d53d 3dff c23c e5b8 ccbe 4596 9a3d
00000290: e632 9a3d 886f 1f3e a600 acbd ec8c 8abd
000002a0: 8120 4ebd 62ca 1b3e d2ce 38be 79f7 ea3d
000002b0: dfe1 76bd b6b6 39bd 2b8e e4bd 0ca2 1a3d
000002c0: 97a5 22be 30d8 bc3e 6fcf 89be b51c 793c
000002d0: 4d54 613d ea44 4cbe afc9 84bd 9b05 e0bd
000002e0: 142c 7a3d 42a4 573e 8428 3d3e 6d18 4fbd
000002f0: b59f afbd 16a5 b33c 15bc 243e 5371 84be
00000300: 2b26 c7bd 2257 9c3e b9b7 c63d d1d1 38ba
00000310: 089f b63d fde4 92bd bb8a 6ebd c919 f73a
00000320: bebc c6bd fcb0 ee3e aa73 0abd af15 323e
00000330: 55de b23d 86b0 aebc 730d fe3d 483a 623e
00000340: 293b b7bc d669 27be 6380 8bbc 4e07 493d
00000350: c8aa 2abd eecd 5bbd 2dc8 34be a519 5abd
00000360: cf72 913e fa7f af3d 7a08 f1bd 32e9 593d
00000370: ccdd 82be 4662 44be 262c 0abe 40fd a93d
00000380: 531a 993d 8466 dc3d e500 2dbd 4d7f 71be
00000390: 6630 adbd 4598 ad3d 7929 89be 30c8 663e
000003a0: 1c3a bf3d 5fd6 883e 3a7f 4fbe e7a3 9d3e
000003b0: 993c 193e d136 943d 0214 46bd 651d 63bd
000003c0: a35d 88be 1718 a93c ced2 85ba b77c 23be
000003d0: cce9 04be 8607 0d3e bbe4 8b3d 8653 b4bc
000003e0: 90ce 1f3e 8e61 1dbc 3f1a 733e fa76 d9bc
000003f0: 23b3 1e3d f943 1bbe 8f2d 8f3d fc98 9e3d

encoder.net.0.bias f4 [60]
-0.030065307 -0.028909342 -0.0051861564 0.0241455 -0.013811887 0.013992925 0.0030955381 0.022725314
-0.02690643 -0.01959966 -0.016431764 -0.017308656 0.013604796 0.028392673 -0.025537707 0.027294908
-0.008197836 -0.023385223 -0.020851843 -0.026505204 -0.024064215 -0.012515855 -0.016221954 -0.02421925
-0.002301749 -0.046411358 -0.032070618 -0.009746903 0.02186553 -0.034122694 -0.028288174 -0.02761936
-0.019269105 -0.030048149 0.010631544 0.031158067 -0.030330561 -0.0021041967 -0.027453544 -0.039270025
0.0150555475 -0.020937374 -0.023296911 0.03267841 0.028041048 0.028897699 0.020075135 0.021426195
-0.040572416 0.028637215 0.02267705 0.0015061897 -0.030814333 0.03205731 0.0042663408 -0.027627476
0.024609506 -0.014443883 -0.028534314 -0.022076024
00000000: 854b f6bc 49d3 ecbc a2f0 a9bb c9cc c53c
00000010: 414b 62bc 9542 653c 83de 4a3b 702a ba3c
00000020: e06a dcbc 778f a0bc e89b 86bc e2ca 8dbc
00000030: a6e6 5e3c c097 e83c 7434 d1bc 9299 df3c
00000040: 3750 06bc 5e92 bfbc 7cd1 aabc 7121 d9bc
00000050: 5122 c5bc 4d0f 4dbc e7e3 84bc 7367 c6bc
00000060: f1d8 16bb d619 3ebd 7b5c 03bd 79b1 1fbc
00000070: 571f b33c 3dc4 0bbd 9abc e7bc ff41 e2bc
00000080: 3eda 9dbc 8927 f6bc ed2f 2e3c 343f ff3c
00000090: cc77 f8bc 90e6 09bb 41e6 e0bc 9bd9 20bd
000000a0: 8bab 763c db84 abbc 2ad9 bebc ccd9 053d
000000b0: 57b6 e53c deba ec3c 9c74 a43c fd85 af3c
000000c0: 432f 26bd 9898 ea3c 39c5 b93c 576b c53a
000000d0: 576e fcbc 874e 033d a9cc 8b3b 0453 e2bc
000000e0: e099 c93c 09a6 6cbc cbc0 e9bc c7d8 b4bc

encoder.net.2.weight f4 [60, 60]
0.20959975 -0.019244272 0.20785066 0.00030495905 -0.0472037 0.0074760695 0.0080520855 0.04469082
0.10332703 0.27535108 -0.18524134 0.011844893 -0.023654709 0.072755046 -0.11669354 0.09454634
0.0024162414 -0.024039038 0.15785716 0.055156767 -0.050880875 0.09382307 0.01783595 0.0695162
-0.058595553 -0.06930005 -0.06613919 -0.0043064975 0.1447034 -0.29559457 0.017074168 0.20383205
-0.05399457 0.028806249 -0.06915617 -0.18443361 0.103519335 0.17911954 -0.14013064 -0.22397213
-0.028649399 -0.08093632 -0.057078093 -0.106793046 0.06915907 -0.0327074 0.10292943 -0.13706084
-0.06625414 -0.28007746 -0.028485838 -0.061677877 -0.012034662 -0.18387304 0.059631716 0.06076248
0.07844299 -0.14635645 0.035119414 0.06353881 0.025603468 -0.12416171 -0.016111087 0.06955425
-0.025330734 -0.025258714 0.20137617 0.07649071 -0.02422407 0.059137408 -0.221592 0.12586945
-0.13115302 0.16588503 0.086982936 0.16125578 -0.024077395 0.21249333 -0.030146755 -0.13814212
-0.050497994 -0.032845113 0.060141716 -0.0023553013 -0.28879982 -0.18111493 0.06989368 -0.20971295
-0.25725213 0.22121398 -0.08429085 0.18720621 -0.041365508 0.080402695 -0.06834316 -0.00016913329
-0.108023286 0.0954607 -0.008398649 -0.020528454 0.11453962 -0.23900597 0.14847486 0.0041666655
0.035099737 0.20381384 -0.0066588176 -0.022253068 0.045505952 0.09571628 -0.015197146 0.031728238
0.02185975 -0.031295836 -0.08536023 -0.1622723 0.2424403 0.06655519 -0.08430799 0.105423875
0.15355772 -0.018048879 -0.10412252 -0.2593805 0.09055911 -0.113603905 0.12493647 0.032949995
-0.19105633 -0.058335364 0.0013033849 -0.14987801 -0.10054618 -0.076609924 0.09618436 -0.14920299
-0.024460627 -0.106489696 -0.004310298 -0.13217054 0.12694843 -0.039919626 -0.12189571 0.17372146
0.029065682 0.09768691 0.08001942 0.2177159 -0.0038621866 -0.08221154 0.012646427 0.13746315
0.0342363 0.13804957 -0.10391195 -0.16106087 0.013750382 0.071931005 -0.22690716 -0.23224492
0.1839454 -0.2500006 -0.038098738 0.010327836 -0.15359442 -0.14714698 0.068555646 0.013528416
0.24020956 -0.14481582 -0.10429325 -0.17976099 -0.054786995 -0.07263787 -0.09997855 0.07785378
0.22838922 -0.27598405 -0.09207845 -0.058746852 0.06543068 0.032466464 -0.07509655 -0.23414068
0.30980664 0.03570723 0.013862333 0.048662078 0.049541 0.10036718 0.041320134 0.15676071
0.01385751 0.09073904 0.075517304 0.13318643 -0.041044373 -0.07354271 -0.3057415 0.011503028
-0.016667703 -0.09427405 0.05323835 0.026818233 0.01802734 -0.113597564 0.05357071 0.08605386
-0.10423355 0.08808631 -0.006971712 0.09474552 0.07825456 0.19325309 -0.013575645 -0.07345486
-0.052102413 -0.21737869 -0.03726381 -0.0047640684 0.05460458 -0.06864552 -0.0025004342 0.0520517
0.08572263 -0.04429184 0.100497715 0.15556777 -0.0071002515 -0.037265074 0.08894205 -0.043899238
-0.14469703 -0.12167695 0.18879418 -0.15514287 -0.16693655 -0.046244238 0.0875701 -0.26525873
-0.007246549 0.3039712 0.11558392 0.11338167 0.10700637 -0.08524924 0.13195054 -0.24393605
-0.123000585 -0.12310624 0.0077096527 0.06913644 -0.13696168 -0.114124514 0.22954847 0.03521554
00000000: 51a1 563e 2aa6 9dbc ced6 543e e9e2 9f39
00000010: ab58 41bd d1f9 f43b e5ec 033c b90d 373d
00000020: 1f9d d33d d1fa 8c3e e8af 3dbe 1511 423c
00000030: 85c7 c1bc 9900 953d 06fd eebd 83a1 c13d
00000040: ce59 1e3b 84ed c4bc 4fa5 213e 10ec 613d
00000050: 7768 50bd 4f26 c03d b31c 923c 825e 8e3d
00000060: e401 70bd 2fed 8dbd fc73 87bd 851d 8dbb
00000070: 212d 143e 2c58 97be 20df 8b3c 59b9 503e
00000080: 6929 5dbd 15fb eb3c c0a1 8dbd 2adc 3cbe
00000090: f201 d43d 1d6b 373e 687e 0fbe f358 65be
000000a0: 25b2 eabc f1c1 a5bd b8ca 69bd 50b6 dabd
000000b0: 45a3 8d3d 32f8 05bd aacc d23d ad59 0cbe
000000c0: 40b0 87bd 5066 8fbe 225b e9bc f1a1 7cbd
000000d0: 082d 45bc 3749 3cbe 6340 743d 14e2 783d
000000e0: b8a6 a03d 77de 15be 60d9 0f3d a320 823d
000000f0: 5dbe d13c 7f48 febd 66fb 83bc 7572 8e3d
00000100: 6682 cfbc 5deb cebc 8e35 4e3e 29a7 9c3d
00000110: 8f71 c6bc 113a 723d 03e9 62be ece3 003e
00000120: fa4c 06be c4dd 293e 1c24 b23d 3c20 253e
00000130: f53d c5bc da97 593e 54f6 f6bc 2175 0dbe
00000140: fcd6 4ebd 9988 06bd 2957 763d 665b 1abb
00000150: 92dd 93be 3176 39be 6b24 8f3d febe 56be
00000160: 8db6 83be eb85 623e aea0 acbd fcb2 3f3e
00000170: e16e 29bd 2baa a43d 80f7 8bbd 5f59 31b9
00000180: 503b ddbd e680 c33d 7d9a 09bc 4a2b a8bc
00000190: c093 ea3d fbbd 74be cb09 183e 8688 883b
000001a0: bec4 0f3d 93b4 503e 3632 dabb 114c b6bc
000001b0: 7364 3a3d e606 c43d 73fd 78bc 78f5 013d
000001c0: 3813 b33c 1030 00bd 58d1 aebd b62a 26be
000001d0: 4542 783e 164e 883d aba9 acbd 79e8 d73d
000001e0: 3c3e 1d3e 3edb 93bc 303e d5bd 85cd 84be
000001f0: 0e77 b93d 2aa9 e8bd b1de ff3d 93f6 063d
00000200: 45a4 43be 10f1 6ebd 57d6 aa3a 9f79 19be
00000210: 28eb cdbd aae5 9cbd 4efc c43d abc8 18be
00000220: a761 c8bc 4517 dabd 663d 8dbb b757 07be
00000230: c5fe 013e c382 23bd 75a4 f9bd 0ae4 313e
00000240: 271b ee3c 1310 c83d 39e1 a33d ebf0 5e3e
00000250: bd1c 7dbb 865e a8bd f632 4f3c 24c3 0c3e
00000260: 5d3b 0c3d de5c 0d3e cacf d4bd 24ed 24be
00000270: 4849 613c 9050 933d 5a5a 68be 9dd1 6dbe
00000280: 2f5c 3c3e 1400 80be 6c0d 1cbd 1536 293c
00000290: db47 1dbe b3ad 16be e766 8c3d 4aa6 5d3c
000002a0: 7ff9 753e 994a 14be b397 d5bd 4413 38be
000002b0: 5468 60bd 2ac3 94bd 8ec1 ccbd cd71 9f3d
000002c0: ddde 693e c84d 8dbe a093 bcbd 8aa0 70bd
000002d0: 8500 863d 8efb 043d 38cc 99bd 93c2 6fbe
000002e0: fa9e 9e3e bf41 123d d71e 633c e351 473d
000002f0: 81eb 4a3d 4f8d cd3d 4d3f 293d e185 203e
00000300: 9c0a 633c 64d5 b93d d1a8 9a3d 0662 083e
00000310: 251e 28bd 8f9d 96bd 268a 9cbe 3277 3c3c
00000320: b58a 88bc c112 c1bd 7510 5a3d e9b1 db3c
00000330: 12ae 933c d7a5 e8bd f66c 5b3d 023d b03d
00000340: 6678 d5bd 9866 b43d f672 e4bb f009 c23d
00000350: ed43 a03d 23e4 453e 626c 5ebc 806f 96bd
00000360: 5769 55bd 8598 5ebe f0a1 18bd e71b 9cbb
00000370: 0da9 5f3d 0696 8cbd 53de 23bb 2a34 553d
00000380: 598f af3d 5c6b 35bd bfd1 cd3d 284d 1f3e
00000390: 3aa9 e8bb 43a3 18bd 4027 b63d b0cf 33bd
000003a0: 752b 14be c431 f9bd 4353 413e c6dd 1ebe
000003b0: 6af1 2abe 996a 3dbd f457 b33d fecf 87be
000003c0: 7574 edbb 1da2 9b3e 43b7 ec3d a634 e83d
000003d0: 2826 db3d 2797 aebd 0b1e 073e 5fca 79be
000003e0: bbe7 fbbd 201f fcbd 41a1 fc3b 6897 8d3d
000003f0: af3f 0cbe 1dba e9bd c10e 6b3e 2c3e 103d

encoder.net.2.bias f4 [60]
-0.020768404 0.024720605 -0.030343134 -0.046538938 -0.029570628 0.022512699 0.009047536 -0.026597794
-0.028849134 -0.0018847623 0.02651236 -0.017227517 -0.021844966 -0.023891766 0.03405354 0.021861792
-0.003803748 0.028532045 0.024332967 -0.028969442 -0.023838347 -0.016597698 -0.018240063 0.016024323
-0.010761148 -0.03386498 0.029184546 -0.028668152 0.036101162 0.038551442 0.023285642 -0.02326463
-0.04259346 -0.031283505 0.01693639 0.023203405 -0.040311772 0.024869028 -0.0236818 0.023866659
0.026838101 0.023996001 0.033404663 0.031277277 -0.029052306 0.028331505 -0.031406574 -0.018662537
0.026018571 -0.036378767 0.023377972 0.02429065 0.023278857 -0.014357586 -0.017166689 -0.021828778
-0.010894403 -0.02872965 0.03127008 0.02672721
00000000: 8022 aabc de82 ca3c 2a92 f8bc 9d9f 3ebd
00000010: 1a3e f2bc 8d6c b83c 1e3c 143c 9ee3 d9bc
00000020: 0555 ecbc 210a f7ba 7330 d93c b920 8dbc
00000030: 37f4 b2bc aab8 c3bc ba7b 0b3d 8017 b33c
00000040: 4d48 79bb 09bc e93c ee55 c73c 5351 edbc
00000050: a348 c3bc e5f7 87bc 2f6c 95bc 7145 833c
00000060: 874f 30bc 01b6 0abd 6e14 ef3c 79d9 eabc
00000070: d0de 133d 1ee8 1d3d 88c1 be3c 7795 bebc
00000080: 7b76 2ebd 2223 00bd 2fbe 8a3c 1115 be3c
00000090: f51d 25bd 22ba cb3c 5600 c2bc 0384 c33c
000000a0: 94db db3c 4393 c43c 54d3 083d 9a1c 003d
000000b0: 1aff edbc 7917 e83c 2ea4 00bd 2de2 98bc
000000c0: e624 d53c e701 15bd 2983 bf3c 2ffd c63c
000000d0: 4db3 be3c 153c 6bbc 28a1 8cbc 44d2 b2bc
000000e0: 707e 32bc 715a ebbc 0e15 003d 06f3 da3c

encoder.net.5.weight f4 [32, 60]
-0.047456857 0.022378331 -0.12755397 0.053661566 0.040717974 0.014990915 -0.26074734 0.043110214
-0.03669511 0.12873611 0.16223583 0.10594955 -0.11798303 0.3404719 0.059192453 0.040044896
-0.13606127 0.009390885 -0.10194165 -0.17845027 -0.06595193 -0.3047578 -0.19353469 -0.046595626
-0.01092946 -0.18072599 0.19655336 -0.33726743 -0.029632952 -0.11135234 -0.14648731 -0.13790166
0.06848341 0.25208327 0.24371098 -0.17801404 0.10895873 -0.039542977 0.0129934875 -0.06223902
-0.13307607 0.09691562 -0.10895161 0.079732046 -0.16640306 -0.19857782 0.4188185 -0.1294511
0.058715828 -0.095858425 -0.12751855 -0.116079405 0.22005382 -0.1553338 0.01794707 0.11511204
0.013214091 -0.113452904 0.25021592 0.13532802 -0.12249909 0.024140617 0.19755962 0.0050900667
0.18343632 -0.06857438 -0.022782095 0.096481845 -0.09114622 0.0977463 -0.1832482 0.05274615
0.10872683 -0.023026964 0.09015192 0.100516625 -0.122582816 0.2926827 -0.02570374 0.03790285
0.23487227 -0.013963848 0.19362327 0.036781635 -0.07056485 -0.03314238 -0.06261672 0.25535586
0.11915194 -0.037043504 0.071563564 -0.07498948 -0.04352956 -0.029166061 -0.17010698 0.099183396
0.3498665 -0.14908443 -0.015488531 -0.04682888 0.06258378 0.08847704 0.020680362 -0.034482453
-0.123362534 -0.14120942 0.14547986 -0.02817531 0.14743507 0.1798972 -0.12556462 -0.075899504
-0.24234076 0.037344817 0.12425511 0.019832654 -0.018992715 0.1392113 0.21779966 0.11853943
0.07793986 0.016186384 0.12941368 0.025195139 0.19084024 -0.14161679 -0.13861328 -0.04499514
-0.07240074 0.042813215 0.00374123 0.28774768 0.22085944 0.12167189 0.10599431 -0.05932072
-0.07704549 -0.15256749 0.10368869 0.014554009 0.13715109 0.054909952 0.062013276 -0.1622894
0.044146165 -0.16474697 -0.08741725 -0.16498014 -0.12097815 -0.08190712 -0.0043445835 0.040275536
0.08874108 -0.085175104 0.007662622 0.027455384 0.025979917 -0.022141505 0.03877409 -0.19177672
0.15418391 -0.21654631 0.16838054 -0.32920638 0.22350855 0.005839337 0.06694229 -0.051659234
-0.07736804 -0.0057417867 -0.2632285 -0.07698657 -0.30710104 0.16625409 0.022798374 0.080716684
0.10434354 0.0018306398 -0.09661538 0.12583546 0.23985445 -0.30344394 0.2337792 -0.049151227
-0.086513646 0.18426065 -0.1476571 0.11069902 0.33008805 -0.050341766 -0.098741986 -0.30639842
0.17927071 0.037629064 -0.094846696 -0.31482112 -0.16212264 -0.07500464 0.08665525 -0.092921615
-0.0015080721 0.08717428 0.06111429 0.13533059 0.1668444 -0.06626321 -0.011317326 0.3557704
0.11841434 0.104918934 0.04139638 -0.14105287 -0.27326033 0.08219701 -0.25724727 -0.14980964
0.1736212 -0.030445147 -0.18532522 0.043075472 0.029433936 0.13499695 -0.18281995 -0.13942625
0.016106434 -0.039789338 -0.09383791 0.12873448 -0.1372017 0.09543315 -0.24067068 -0.013951435
-0.21533985 0.13012342 0.20590018 -0.13217972 0.0699002 -0.21148132 -0.058173735 0.18714759
-0.1297938 0.06848268 0.057183377 -0.10842462 0.02565025 -0.13412538 -0.07035751 0.3386196
-0.22631863 -0.101954296 0.001110983 0.29613706 -0.12892288 0.30076584 -0.29514387 0.10523471
00000000: 1f62 42bd c352 b73c 829d 02be 3bcc 5b3d
00000010: e4c7 263d 749c 753c ad80 85be 5694 303d
00000020: 9d4d 16bd 66d3 033e 2621 263e 14fc d83d
00000030: 16a1 f1bd 5552 ae3e c973 723d 1e06 243d
00000040: a553 0bbe 3adc 193c c9c6 d0bd abbb 36be
00000050: ce11 87bd 3709 9cbe f52d 46be 0edb 3ebd
00000060: 7a11 33bc 3c10 39be 4945 493e 51ae acbe
00000070: cec0 f2bc b20c e4bd c500 16be 1836 0dbe
00000080: 0841 8c3d 0f11 813e 5f8f 793e 5049 36be
00000090: c125 df3d d1f7 21bd a3e2 543c 58ee 7ebd
000000a0: 1845 08be b27b c63d 0622 dfbd 8e4a a33d
000000b0: 9065 2abe fc57 4bbe 616f d63e d48e 04be
000000c0: 0280 703d 6c51 c4bd 3994 02be 0abb edbd
000000d0: ca55 613e d30f 1fbe bc05 933c dcbf eb3d
000000e0: ea7f 583c ff59 e8bd 4d1c 803e 6e93 0a3e
000000f0: cee0 fabd 8bc2 c53c 124d 4a3e 93ca a63b
00000100: bbd6 3b3e b970 8cbd 84a1 babc 4698 c53d
00000110: dfaa babd 362f c83d 6ba5 3bbe 590c 583d
00000120: 2cac de3d 0ba3 bcbc 92a1 b83d a9db cd3d
00000130: b30c fbbd 82da 953e a690 d2bc 0540 1b3d
00000140: 5b82 703e a0c8 64bc 2e45 463e 57a8 163d
00000150: 4e84 90bd 4ec0 07bd 323d 80bd 01be 823e
00000160: ef05 f43d eeba 17bd eb8f 923d 1694 99bd
00000170: 0d4c 32bd aaed eebc 8630 2ebe aa20 cb3d
00000180: b421 b33e 97a9 18be 9cc3 7dbc a4cf 3fbd
00000190: ed2b 803d 7333 b53d dd69 a93c 793d 0dbd
000001a0: 7fa5 fcbd 3499 10be acf8 143e e8cf e6bc
000001b0: 38f9 163e f936 383e 0394 00be 3371 9bbd
000001c0: 2d28 78be e1f6 183d 7779 fe3d 1778 a23c
000001d0: 9c96 9bbc 688d 0e3e e006 5f3e cdc4 f23d
000001e0: ef9e 9f3d 4f99 843c 0585 043e 0966 ce3c
000001f0: a06b 433e fe03 11be a4f0 0dbe d34c 38bd
00000200: d746 94bd e95c 2f3d 6c2f 753b aa53 933e
00000210: fa28 623e 1d2f f93d 8b13 d93d 49fa 72bd
00000220: 07ca 9dbd a73a 1cbe bc5a d43d f073 6e3c
00000230: 5671 0c3e 42e9 603d a201 7e3d 312f 26be
00000240: 9cd2 343d 6eb3 28be d107 b3bd 8ef0 28be
00000250: 64c3 f7bd ecbe a7bd 025d 8ebb f6f7 243d
00000260: e2bd b53d 4970 aebd bb16 fb3b 1dea e03c
00000270: d6d3 d43c 1a62 b5bc 95d1 1e3d 1e61 44be
00000280: 63e2 1d3e 51be 5dbe f36b 2c3e bd8d a8be
00000290: 6ddf 643e e957 bf3b 0a19 893d a298 53bd
000002a0: 2373 9ebd 9925 bcbb e3c5 86be 23ab 9dbd
000002b0: 593c 9dbe 833e 2a3e a8c3 ba3c ca4e a53d
000002c0: 11b2 d53d 14f2 ef3a 49de c5bd 03db 003e
000002d0: 689c 753e 015d 9bbe d163 6f3e cc52 49bd
000002e0: 112e b1bd d3ae 3c3e 6c33 17be 2bb6 e23d
000002f0: 4d01 a93e 2b33 4ebd 3d39 cabd 41e0 9cbe
00000300: be92 373e ef20 1a3d fc3e c2bd 3c30 a1be
00000310: 7a03 26be 089c 99bd 4f78 b13d b04d bebd
00000320: 81aa c5ba 6e88 b23d fa52 7a3d 1a94 0a3e
00000330: 42d9 2a3e 01b5 87bd 4e6c 39bc 8a27 b63e
00000340: 3883 f23d bddf d63d 408f 293d 2a70 10be
00000350: c7e8 8bbe e856 a83d eab5 83be b367 19be
00000360: c1c9 313e 1a68 f9bc e5c5 3dbe e86f 303d
00000370: 701f f13c a43c 0a3e 2735 3bbe c1c5 0ebe
00000380: a4f1 833c 25fa 22bd 172e c0bd f9d2 033e
00000390: 9a7e 0cbe 7572 c33d 6072 76be 8f94 64bc
000003a0: 0d82 5cbe 133f 053e 7fd7 523e 1f5a 07be
000003b0: d627 8f3d 8f8e 58be 9547 6ebd 9ea3 3f3e
000003c0: aae8 04be a640 8c3d 1e39 6a3d ba0d debd
000003d0: 7920 d23c 2a58 09be 9917 90bd 8c5f ad3e
000003e0: 12c0 67be 6acd d0bd 679e 913a 479f 973e
000003f0: 5c04 04be fbfd 993e 191d 97be 4c85 d73d

encoder.net.5.bias f4 [32]
-0.023992896 -0.03526474 -0.031123098 -0.035959885 -0.042302225 0.03709459 0.036575433 0.023302212
0.053031266 0.059965257 -0.03860372 0.0534374 -0.07020878 -0.067439936 0.033300452 -0.0065365606
0.04936873 0.04021873 0.05448842 0.02397336 0.028612461 0.049103566 0.043950576 -0.03985299
-0.05040235 -0.053528305 0.034181815 -0.03961682 -0.031930786 -0.036269978 -0.07278701 0.039496392
00000000: c08c c4bc c371 10bd def5 febc ac4a 13bd
00000010: 1945 2dbd 7ff0 173d 1fd0 153d 48e4 be3c
00000020: 5037 593d 219e 753d ef1e 1ebd 2de1 5a3d
00000030: 9fc9 8fbd f31d 8abd 0e66 083d a530 d6bb
00000040: de36 4a3d 65bc 243d 402f 5f3d c863 c43c
00000050: ae64 ea3c d220 493d 8505 343d e43c 23bd
00000060: b272 4ebd 7f40 5bbd 3b02 0c3d 3f45 22bd
00000070: dbc9 02bd d48f 14bd 5b11 95bd f8c6 213d

predictor.net.1.weight f4 [32, 32]
-0.13227642 -0.13807988 0.0026481645 -0.26850832 -0.15058045 -0.18284148 -0.094367586 -0.12627155
0.10746685 -0.074379556 0.2566331 -0.06825343 0.15162872 -0.12081756 0.072973885 -0.38855508
0.23022854 0.2951866 0.24832232 0.14025173 -0.027213734 -0.01578057 0.13614638 0.08702135
-0.2706751 0.0041112974 -0.37614492 -0.15752444 0.09085472 -0.14138241 -0.15717079 0.05758949
0.038380235 0.07390482 0.2616001 -0.054583162 -0.14376025 -0.14056028 0.08324942 -0.10024376
-0.09142738 0.27922758 -0.3494579 0.16442579 0.16388959 -0.29141435 0.28213853 0.16506065
0.034544438 -0.090918824 0.17552222 0.11280846 -0.117693655 0.08899072 -0.25197282 -0.072846755
-0.025829518 0.028566465 0.08712494 0.024928363 -0.015762148 -0.19891727 0.050706156 0.304497
0.22395085 -0.014561064 -0.13817705 0.046320673 0.08416235 -0.027796118 -0.09186999 -0.04923078
0.10785769 -0.098023556 -0.06251201 -0.081883825 -0.1088699 0.035316255 0.10775184 0.12224874
-0.28479317 0.104798615 0.0044195703 0.014967986 0.15145159 -0.09709137 -0.12486213 -0.14329801
-0.121032 0.085865535 0.26090553 0.19667788 0.16497949 -0.15965523 -0.104478255 -0.11267958
-0.16344562 -0.2306807 -0.027321063 -0.18121812 -0.047695722 0.05768496 0.24391949 0.067956455
-0.10734511 0.049712032 -0.36822358 -0.029900406 -0.06092148 0.20317136 0.02240456 0.0064784246
-0.15377209 0.03367037 0.020266034 0.19767526 0.0784162 0.15032679 0.20048651 0.24506554
-0.044569526 -0.12677936 -0.22649926 0.0008905524 0.22123711 -0.21745345 -0.073767185 -0.07233233
0.053518727 -0.09266418 -0.08791776 0.16885723 -0.19517837 0.2489874 0.008188358 -0.2636956
-0.036925945 0.01271094 0.22958654 0.07579174 0.1324062 -0.0444006 -0.1476677 0.40304554
0.081256665 0.2334953 0.23867886 -0.4241668 0.3371369 -0.0033091507 -0.38370693 0.059370223
-0.07148226 -0.41931614 -0.18892772 0.015111838 -0.08417499 0.11320404 0.025438497 0.40521714
-0.05357382 0.17393422 0.051086545 -0.3666512 -0.0060315607 -0.22517087 -0.3198255 -0.0155298645
0.10680577 0.23514046 0.16109648 -0.29736134 -0.013728987 -0.4297033 0.05915679 -0.31391197
-0.0910181 -0.14007014 0.2060686 -0.33600387 0.07196736 -0.059369415 0.0061188433 0.058413036
0.14458466 -0.120158635 0.17785242 0.00502588 -0.14973602 -0.0015554883 -0.049100373 0.274927
-0.11018952 0.028455654 0.18494637 -0.12299249 -0.008896973 -0.047608137 0.042123258 -0.23959965
-0.0053805895 0.15731904 0.07310442 -0.08225682 -0.08851673 0.090130255 -0.27912274 0.12982766
-0.079789035 -0.059368633 0.15096144 -0.5206632 0.3584392 0.07464164 -0.21608515 0.20074932
-0.13700683 -0.117007844 0.048201103 -0.3057385 0.05170048 0.086160146 0.08591442 -0.13073847
0.13769352 0.25696406 -0.029795544 -0.19727287 0.042686407 0.14936697 -0.052518986 -0.13818955
0.22157043 -0.053288527 -0.19504227 0.032844618 -0.026648251 0.17011495 -0.03225098 0.22904803
0.14240912 0.17732196 0.14907226 0.29498073 -0.071030065 0.018637668 0.37986404 -0.013663091
-0.10650332 -0.17809506 0.13439168 0.073947676 0.1273455 0.18815513 0.022903802 0.1928488
00000000: 7873 07be d064 0dbe d48c 2d3b ec79 89be
00000010: c331 1abe cc3a 3bbe cb43 c1bd 544d 01be
00000020: 9417 dc3d 4f54 98bd 6a65 833e 74c8 8bbd
00000030: 8f44 1b3e 326f f7bd 5573 953d b1f0 c6be
00000040: 08c1 6b3e b322 973e 3548 7e3e 269e 0f3e
00000050: 56ef debc 4146 81bc f569 0b3e 4038 b23d
00000060: ed95 8abe 10b8 863b 1196 c0be 164e 21be
00000070: 0a12 ba3d 8dc6 10be 61f1 20be f5e2 6b3d
00000080: 9834 1d3d 695b 973d 73f0 853e 9892 5fbd
00000090: e335 13be 09ef 0fbe ac7e aa3d 9a4c cdbd
000000a0: 473e bbbd ebf6 8e3e 25ec b2be 3c5f 283e
000000b0: acd2 273e 4334 95be 7674 903e a905 293e
000000c0: 787e 0d3d a633 babd 19bc 333e 1f08 e73d
000000d0: 5f09 f1bd c440 b63d 9502 81be ae30 95bd
000000e0: 6d98 d3bc 3804 ea3c 8f6e b23d 9136 cc3c
000000f0: 9f1f 81bc f8b0 4bbe 42b1 4f3d 08e7 9b3e
00000100: 5f53 653e 8791 6ebc 497e 0dbe bfba 3d3d
00000110: 4f5d ac3d afb4 e3bc 5526 bcbd 37a6 49bd
00000120: 7ee4 dc3d 93c0 c8bd 4c06 80bd b5b2 a7bd
00000130: 2ff7 debd c7a7 103d ffac dc3d 8c5d fa3d
00000140: 69d0 91be a8a0 d63d 0bd2 903b 493c 753c
00000150: 2016 1b3e d7d7 c6bd b7b7 ffbd b7bc 12be
00000160: a0df f7bd 45da af3d 6995 853e ed65 493e
00000170: 62f0 283e a97c 23be b2f8 d5bd 8dc4 e6bd
00000180: 4a5e 27be 9037 6cbe 6cd0 dfbc 3e91 39be
00000190: 975c 43bd 1147 6c3d 08c6 793e c12c 8b3d
000001a0: c1d7 dbbd d89e 4b3d cd87 bcbe b2f1 f4bc
000001b0: cd88 79bd 270c 503e c589 b73c f748 d43b
000001c0: 6e76 1dbe f1e9 093d f404 a63c 626b 4a3e
000001d0: ac98 a03d 44ef 193e 564c 4d3e 76f2 7a3e
000001e0: 898e 36bd 73d2 01be 6cef 67be f673 693a
000001f0: fb8b 623e 1eac 5ebe 4013 97bd f922 94bd
00000200: 7436 5b3d b8c6 bdbd 3a0e b4bd e9e8 2c3e
00000210: d7dc 47be 8ef6 7e3e 7628 063c 1c03 87be
00000220: a93f 17bd 8c41 503c bc18 6b3e b338 9b3d
00000230: 7e95 073e 67dd 35bd 3436 17be fc5b ce3e
00000240: e569 a63d 6419 6f3e 3b68 743e 642c d9be
00000250: 359d ac3e 56de 58bb 3c75 c4be 312e 733d
00000260: 4b65 92bd 9bb0 d6be 4576 41be a497 773c
00000270: f063 acbd 85d7 e73d 6564 d03c 9f78 cf3e
00000280: 3970 5bbd d01b 323e 2040 513d b5b9 bbbe
00000290: 66a4 c5bb 3193 66be 2bc0 a3be f970 7ebc
000002a0: fcbc da3d a9c8 703e 7af6 243e bf3f 98be
000002b0: 8cef 60bc 1202 dcbe 644e 723d 12b9 a0be
000002c0: b367 babd 8c6e 0fbe a603 533e b308 acbe
000002d0: a063 933d 582d 73bd 9480 c83b 8242 6f3d
000002e0: 000e 143e bb15 f6bd f21e 363e 23b0 a43b
000002f0: 6654 19be 87e1 cbba 791d 49bd 3bc3 8c3e
00000300: 0bab e1bd d51b e93c 9562 3d3e 7de3 fbbd
00000310: 9cc4 11bc c000 43bd 7089 2c3d 9c59 75be
00000320: a84f b0bb 3e18 213e c5b7 953d 4376 a8bd
00000330: 4248 b5bd 3696 b83d 2de9 8ebe 8bf1 043e
00000340: 6f68 a3bd 862c 73bd a395 1a3e 2f4a 05bf
00000350: 5885 b73e b7dd 983d 6d45 5dbe 3b91 4d3e
00000360: 854b 0cbe cfa1 efbd 856e 453d c289 9cbe
00000370: e2c3 533d bb74 b03d e6f3 af3d 4ee0 05be
00000380: 88ff 0c3e cb90 833e c915 f4bc e601 4abe
00000390: f1d7 2e3d a8f3 183e 261e 57bd 9081 0dbe
000003a0: 5ce3 623e 1245 5abd 29b9 47be 1488 063d
000003b0: 6f4d dabc 9d32 2e3e 9b19 04bd 918b 6a3e
000003c0: b2d3 113e e393 353e 66a6 183e b707 973e
000003d0: 3678 91bd 06ae 983c 8a7d c23e 28db 5fbc
000003e0: 6a1e dabd 8d5e 36be f99d 093e e171 973d
000003f0: dc66 023e bdab 403e c1a0 bb3c 287a 453e

predictor.net.1.bias f4 [32]
0.09714417 0.10369387 -0.09589048 -0.109926276 -0.10069119 -0.099322855 0.101895094 0.08975769
0.10425577 0.09980451 0.096147396 -0.110424414 -0.09802468 -0.08529218 0.31242463 -0.10746501
0.10531499 0.14035338 0.112431936 -0.107655264 0.08059437 0.10059988 -0.096987166 -0.18494388
0.6356149 0.11299841 -0.11214033 0.0918233 -0.09621118 0.09523593 -0.08706871 0.119900204
00000000: 86f3 c63d 745d d43d 3a62 c4bd 0721 e1bd
00000010: 2f37 cebd c869 cbbd 60ae d03d e1d2 b73d
00000020: 0d84 d53d 4f66 cc3d ede8 c43d 3226 e2bd
00000030: 2ac1 c8bd abad aebd 1ff6 9f3e 9d16 dcbd
00000040: 63af d73d ccb8 0f3e b742 e63d 5d7a dcbd
00000050: a90e a53d 4f07 ce3d 35a1 c6bd ee61 3dbe
00000060: a8b7 223f b66b e73d d4a9 e5bd db0d bc3d
00000070: 5e0a c5bd 0e0b c33d 1451 b2bd 3d8e f53d

predictor.net.3.weight f4 [1, 32]
0.33623156 0.27273548 -0.1968733 -0.31703272 -0.35030797 -0.3703811 0.66079664 0.052272074
0.26960942 0.31699666 0.110658854 -0.16124113 -0.24189329 -0.092440926 0.10134066 -0.24705516
0.19087419 0.11261471 0.4019864 -0.30569592 0.114617296 0.15131259 -0.592907 -0.116079345
0.103551894 0.15343809 -0.04918992 0.2783492 -0.35266542 0.19774608 -0.04574164 0.13110635
00000000: 8b26 ac3e fca3 8b3e 2899 49be 1d52 a2be
00000010: 915b b3be 97a2 bdbe f829 293f 3e1b 563d
00000020: 3f0a 8a3e 634d a23e 1ca1 e23d 651c 25be
00000030: e0b2 77be ab51 bdbd b18b cf3d 07fc 7cbe
00000040: 8674 433e 8ba2 e63d 29d1 cd3e 2d84 9cbe
00000050: 79bc ea3d b0f1 1a3e c1c8 17bf 02bb edbd
00000060: 0413 d43d e01e 1d3e 5f7b 49bd c983 8e3e
00000070: 9090 b4be f37d 4a3e 965b 3bbd be40 063e

net.0.weight f4 [60, 35]
0.3755147 -0.14788024 0.19657722 0.11447104 0.05743369 -0.2860568 0.03566662 -0.13270943
-0.14670362 -0.06007284 -0.06656816 0.03789037 0.3870382 0.10980215 -0.098906666 -0.015776323
-0.02704175 0.03026846 -0.10941556 0.18447343 -0.035543934 -0.13856381 0.0009688778 -0.033076648
0.09160097 0.12900417 -0.24686143 -0.08382416 0.07044024 -0.0740776 -0.055995718 0.10235539
-0.060056232 0.16604526 0.037744258 0.15610547 -0.0042859954 0.036720306 0.023372278 -0.26636478
-0.03277739 0.19374923 0.12650874 0.0057474617 0.05157219 -0.033002675 -0.12989214 -0.06299224
0.07447746 -0.13995677 -0.082455546 0.12692451 -0.13624132 -0.055099867 0.040388193 0.098843895
0.034674615 -0.0022836651 0.13020253 0.032112192 0.28958458 -0.09779241 -0.06444902 -0.13517527
0.4776117 0.3186497 0.31793812 0.053907815 0.01221572 0.10876796 -0.030116813 0.003557244
0.013565828 -0.1730668 -0.23215142 -0.07676961 -0.15823771 0.12424347 -0.07357756 0.121480554
-0.13149919 0.050470885 0.014745402 -0.18777959 -0.054108333 -0.15607642 -0.13491377 0.14963968
0.06627537 -0.09144819 0.05243086 -0.10591401 -0.33098853 0.15872747 -0.20011307 0.16465303
-0.18179478 -0.10754358 0.036468413 0.041179664 -0.13820343 -0.09895584 -0.036795434 0.0034535085
-0.049836975 0.00077202613 -0.056511097 0.24963391 0.16891108 -0.04821315 0.03729467 -0.006906701
0.06202218 0.07593839 0.006491745 -0.14011851 -0.17864935 0.001029564 0.06625346 0.048624698
-0.084008925 -0.36653227 0.16742027 0.0034982646 0.09298348 -0.04354268 -0.04856 0.04740721
0.07875407 0.11856456 0.17914969 0.05141826 0.1531922 -0.052422307 -0.052960202 -0.014715148
-0.077257626 -0.05257735 0.055125143 0.11793313 0.19301473 0.250627 -0.18179722 0.13636754
-0.09287644 0.1071231 0.0793946 -0.016417645 -0.1407983 0.09068938 0.25135624 -0.010722863
-0.17181852 0.032313816 0.16198036 0.12638201 -0.021287458 -0.047656152 0.052096978 0.08452206
-0.17108689 0.08952016 -0.060292553 0.24458976 -0.048974887 -0.07769235 0.031134028 -0.026031652
-0.14178662 0.06543569 -0.10343017 0.09704093 0.23310687 -0.037115686 -0.29964125 -0.055667274
-0.19808593 -0.147655 0.23674099 -0.057946727 0.21342854 -0.08312217 0.18486084 0.12895349
-0.16100198 0.047280215 -0.077857584 0.11216593 -0.110661015 0.0021266362 -0.0128818415 -0.011652368
-0.021042757 0.099135675 -0.16562133 -0.17991456 -0.053996757 -0.03169744 0.1121608 -0.05140199
0.05412554 -0.032214604 0.1419475 -0.08269465 0.028403535 -0.070166126 0.10875158 -0.022885872
-0.15310436 -0.3005799 -0.070813864 -0.10929965 0.030874958 -0.12335459 -0.3481909 0.20028794
-0.018104352 -0.0314383 0.19987114 0.13128841 0.053554934 0.109819524 0.010424772 -0.017885678
0.031820178 -0.016892644 0.047263276 -0.049378637 -0.18129753 -0.07422954 -0.05681656 0.20244865
0.1906314 -0.118269876 -0.11116331 -0.0042658793 -0.2365485 0.06125687 -0.0028426955 0.25293645
0.20827626 -0.10253509 0.3305189 -0.26399907 -0.061544333 -0.05635907 -0.12757486 -0.3855781
-0.13697663 -0.10450827 -0.15671586 -0.016319666 0.08053446 0.15953666 -0.12079661 0.04459413
00000000: 7643 c03e eb6d 17be 8a4b 493e cb6f ea3d
00000010: 973f 6b3d 0976 92be 2917 123d fbe4 07be
00000020: 7939 16be f00e 76bd e354 88bd ef32 1b3d
00000030: df29 c63e f3df e03d 948f cabd 593d 81bc
00000040: a986 ddbc 90f5 f73c 4415 e0bd 9ae6 3c3e
00000050: 8496 11bd ace3 0dbe 4afc 7d3a 617b 07bd
00000060: 4a99 bb3d ab19 043e 3ec9 7cbe 00ac abbd
00000070: f942 903d ffb5 97bd c45b 65bd b49f d13d
00000080: 86fd 75bd c507 2a3e b999 1a3d 1dda 1f3e
00000090: 8971 8cbb 0868 163d 3877 bf3c f760 88be
000000a0: 9641 06bd 3366 463e 828b 013e 3455 bc3b
000000b0: 5c3d 533d d02d 07bd 7202 05be 1302 81bd
000000c0: a387 983d d450 0fbe 74de a8bd 80f8 013e
000000d0: d882 0bbe 66b0 61bd 176e 253d ab6e ca3d
000000e0: f806 0e3d 8ba9 15bb d053 053e 1388 033d
000000f0: 6e44 943e 6347 c8bd d9fd 83bd 636b 0abe
00000100: 8589 f43e 0e26 a33e c9c8 a23e 71ce 5c3d
00000110: 7124 483c bcc1 de3d 89b7 f6bc a720 693b
00000120: 3543 5e3c 6c38 31be 1ab9 6dbe 6339 9dbd
00000130: 1109 22be 5c73 fe3d d5af 96bd ccca f83d
00000140: b9a7 06be 8fba 4e3d b396 713c 4b49 40be
00000150: b3a0 5dbd 7fd2 1fbe d626 0abe 253b 193e
00000160: 62bb 873d 3049 bbbd bec1 563d 72e9 d8bd
00000170: 5477 a9be 7489 223e 71ea 4cbe ce9a 283e
00000180: 6928 3abe cf3f dcbd e75f 153d 02ac 283d
00000190: 3385 0dbe 5ca9 cabd cfb6 16bd 4254 623b
000001a0: db21 4cbd cc61 4a3a 2e78 67bd 08a0 7f3e
000001b0: 07f7 2c3e 277b 45bd 4cc2 183d 9b51 e2bb
000001c0: f80a 7e3d 9685 9b3d b4b8 d43b 3a7b 0fbe
000001d0: dbef 36be 6ff2 863a e5af 873d b12a 473d
000001e0: df0c acbd 1eaa bbbe 3870 2b3e 2443 653b
000001f0: 1f6e be3d cf59 32bd dae6 46bd 102e 423d
00000200: d049 a13d fad1 f23d 0473 373e f49b 523d
00000210: 6bde 1c3e c6b8 56bd ccec 58bd ce17 71bc
00000220: 3f39 9ebd 595b 57bd e7ca 613d ed86 f13d
00000230: a7a5 453e 2f52 803e 0d29 3abe efa3 0b3e
00000240: 0136 bebd 5b63 db3d a399 a23d 4c7e 86bc
00000250: 6e2d 10be 5bbb b93d c4b1 803e f2ae 2fbc
00000260: 32f1 2fbe 7e5b 043d 2ede 253e 496a 013e
00000270: 0963 aebc 1933 43bd a463 553d e719 ad3d
00000280: 6731 2fbe 5856 b73d 53f5 76bd bd75 7a3e
00000290: e499 48bd 2b1d 9fbd ca0c ff3c 5540 d5bc
000002a0: 8330 11be 2603 863d 32d3 d3bd 65bd c63d
000002b0: 91b3 6e3e 9e06 18bd 946a 99be 5e03 64bd
000002c0: 0ad7 4abe df32 17be 3b6c 723e 8c59 6dbd
000002d0: 038d 5a3e f53b aabd 294c 3d3e 620c 043e
000002e0: b4dd 24be e6a8 413d cc73 9fbd 40b7 e53d
000002f0: 3ea2 e2bd 095f 0b3b 5c0e 53bc 93e9 3ebc
00000300: dc61 acbc a507 cb3d a398 29be 863b 38be
00000310: b42b 5dbd 2dd5 01bd 90b4 e53d e58a 52bd
00000320: beb2 5d3d 76f3 03bd af5a 113e d05b a9bd
00000330: 88ae e83c 42b3 8fbd 26b9 de3d 277b bbbc
00000340: 64c7 1cbe 9ce5 99be dc06 91bd 7fd8 dfbd
00000350: 7bed fc3c 55a1 fcbd 1446 b2be 4818 4d3e
00000360: 944f 94bc 72c5 00bd 05ab 4c3e 7870 063e
00000370: 6b5c 5b3d 0fe9 e03d aacc 2a3c fc84 92bc
00000380: e055 023d 7162 8abc 2397 413d 4141 4abd
00000390: 0fa6 39be a805 98bd 7bb8 68bd b34e 4f3e
000003a0: e134 433e 7a37 f2bd 97a9 e3bd cac8 8bbb
000003b0: c539 72be 7ce8 7a3d 844c 3abb e380 813e
000003c0: 5f46 553e ebfd d1bd c639 a93e e32a 87be
000003d0: e915 7cbd c5d8 66bd fca2 02be 7e6a c5be
000003e0: 9a43 0cbe 6f08 d6bd 1f7a 20be d2b0 85bc
000003f0: 40ef a43d 945d 233e 3764 f7bd 56a8 363d

net.0.bias f4 [60]
0.105092175 -0.041919317 -0.08506345 -0.052737534 -0.11385169 0.14340995 -0.008723793 0.1544464
0.031019162 0.042784892 -0.10111247 -0.08795446 -0.014769632 -0.1333044 -0.025617821 -0.034075323
-0.06820961 0.008766677 -0.09785393 0.10901143 0.08185076 0.015738716 -0.01961815 -0.040585566
0.1535535 -0.00074922916 0.052414156 -0.09570813 -0.07506508 0.11392382 0.09653333 -0.114777654
0.044199973 -0.055329 -0.14254297 -0.029561158 0.16920793 0.073921226 0.03753485 -0.13410641
0.09217585 -0.077893436 0.05971993 0.0005585221 -0.031785302 -0.017686967 0.014374104 -0.030094633
-0.121655695 0.04161314 -0.14267258 0.011243026 0.04536333 0.015775878 -0.08428178 -0.11102198
-0.088347614 -0.09353711 -0.014832275 -0.025355939
00000000: 913a d73d 97b3 2bbd bf35 aebd 5003 58bd
00000010: 132b e9bd 0fda 123e 3dee 0ebc 3227 1e3e
00000020: e61b fe3c 363f 2f3d 0e14 cfbd 7821 b4bd
00000030: 54fc 71bc f380 08be 77dc d1bc 9192 0bbd
00000040: 7bb1 8bbd 1ca2 0f3c a467 c8bd 6241 df3d
00000050: 5fa1 a73d 7bee 803c 3eb6 a0bc 0d3d 26bd
00000060: 213d 1d3e eb67 44ba 3ab0 563d a002 c4bd
00000070: b8bb 99bd e450 e93d 44b3 c53d 8c10 ebbd
00000080: 080b 353d a9a0 62bd c9f6 11be 3e2a f2bc
00000090: d844 2d3e 0364 973d 25be 193d 3153 09be
000000a0: b1c6 bc3d 9886 9fbd e39c 743d c969 123a
000000b0: 4e31 02bd 42e4 90bc 5d81 6b3c 0589 f6bc
000000c0: 9f26 f9bd 8a72 2a3d c318 12be ab34 383c
000000d0: e6ce 393d 6a3c 813c ed9b acbd 7e5f e3bd
000000e0: 98ef b4bd 6290 bfbd 1203 73bc 42b7 cfbc

net.2.weight f4 [60, 60]
0.08556991 0.14005622 0.004933 0.016422227 -0.0922619 -0.049420252 0.26496518 -0.28236467
-0.069363534 0.19866079 -0.0156240435 0.088586286 -0.20886852 -0.02340432 0.18886526 -0.097878955
-0.021129131 -0.2398329 0.18560746 -0.08077599 -0.18114641 0.08581487 0.13814785 -0.09731368
-0.17927997 -0.05036891 -0.022175733 -0.03975855 0.034304142 0.13086589 -0.13179539 0.06463394
0.15545817 -0.2976759 -0.06566578 0.025310459 -0.0100965435 -0.071370415 -0.12373567 0.034783248
0.3212755 -0.0043260506 0.056905683 0.22763011 -0.06519657 -0.16209067 0.08464584 -0.042341433
-0.26657704 -0.100887865 0.11191178 0.063480265 0.07562837 -0.11433251 0.029614843 0.041106388
0.24426685 0.08415541 0.09182279 0.0013341533 -0.000543283 -0.13775097 0.11816169 0.060153753
0.23664674 0.069097415 -0.05325522 0.13542274 -0.05339231 -0.091210514 -0.0022488642 0.06127678
0.036004018 0.094419345 -0.047828935 0.0990329 0.17761335 -0.12871629 -0.02355526 0.028548077
0.0711785 0.06528803 -0.005952051 -0.045379788 -0.19883883 0.07246695 0.17032255 0.06811923
0.26999313 0.17913857 -0.16988774 -0.039184432 0.060543254 -0.15172286 0.08054026 -0.1277545
-0.009680454 0.07416708 -0.08725845 0.05579939 0.006734846 0.056063253 -0.24036068 -0.19755177
-0.11100919 0.008654214 0.10744538 -0.15078622 0.020329189 0.0070006014 -0.01017053 -0.11575807
0.045990042 -0.008762009 -0.044852056 -0.17279977 0.16029887 0.03998636 0.07103528 0.078315474
-0.1132958 -0.04835361 -0.11066772 0.108765036 -0.11093765 -0.08928565 -0.029963939 0.11372778
0.041426983 0.22514002 -0.17369843 -0.20154439 -0.004975553 0.069020875 0.1068015 -0.38032162
-0.004956358 -0.13979436 0.027663302 -0.05542018 -0.10565494 0.007935412 0.15682442 0.020997694
0.0914865 -0.004168403 -0.11122344 -0.019622508 -0.053591575 -0.014477645 -0.028248979 0.10105853
0.058409598 0.16739708 -0.098295964 -0.043924537 -0.01310345 0.115047276 0.08312363 -0.095722936
0.045006685 -0.04289725 0.042939827 0.035290286 0.07234793 -0.21764514 -0.109060094 0.014068172
0.07338454 -0.19623302 0.14159171 -0.019859828 0.050834008 0.07685896 0.008026853 0.092762604
-0.058382127 -0.013295139 0.14290583 -0.08841786 -0.0069265566 -0.039429806 -0.081716426 0.2046533
-0.12835711 -0.0058068656 -0.10659034 0.0831949 -0.079468876 0.000501365 -0.122677125 -0.09022048
0.30267304 -0.014680914 0.23286289 -0.11918016 -0.23077065 0.1625148 -0.0021895166 -0.038931582
-0.11381343 0.0150826285 0.029836366 0.024127878 -0.13879779 -0.119641826 0.06628366 -0.044113208
-0.03442926 -0.13115416 -0.14527309 0.116324864 0.0425074 0.0059568183 0.19194607 -0.076829344
-0.16849898 -0.029437669 -0.1902503 -0.085484564 0.057742227 -0.06758222 0.03295585 -0.103986345
0.00376231 -0.028786825 0.0061353794 -0.027505284 -0.0843569 -0.25782678 0.06225123 0.0309209
0.11317455 -0.01627922 0.15909158 -0.06456032 0.054879177 -0.10362298 -0.16022718 -0.04634985
-0.03920867 0.1461979 -0.18600486 -0.10940916 -0.15873207 -0.26594883 0.07464809 0.07815061
-0.11644023 -0.20036885 -0.012520374 0.15367372 0.15623872 -0.09250306 -0.2062996 -0.017906357
00000000: 473f af3d e66a 0f3e 01a5 a13b e887 863c
00000010: cff3 bcbd e46c 4abd 84a9 873e 1a92 90be
00000020: 780e 8ebd bc6d 4b3e fdfb 7fbc ba6c b53d
00000030: a1e1 55be 6bba bfbc e565 413e c374 c8bd
00000040: 0017 adbc c196 75be e20f 3e3e e26d a5bd
00000050: 727e 39be b5bf af3d a176 0d3e 654c c7bd
00000060: 2b95 37be a14f 4ebd e2a9 b5bc dcd9 22bd
00000070: 8082 0c3d b501 063e 5ff5 06be cd5e 843d
00000080: 6d30 1f3e fa68 98be c87b 86bd e157 cf3c
00000090: f96b 25bc a72a 92bd 2069 fdbd e178 0e3d
000000a0: 397e a43e 8bc1 8dbb ef15 693d de17 693e
000000b0: c785 85bd 19fb 25be cc5a ad3d 366e 2dbd
000000c0: c97c 88be 4c9e cebd 0132 e53d f101 823d
000000d0: 0ce3 9a3d 2a27 eabd d49a f23c 2c5f 283d
000000e0: 1721 7a3e ac59 ac3d 960d bc3d c2de ae3a
000000f0: 1b6b 0eba 970e 0dbe c2fe f13d c863 763d
00000100: 8653 723e f282 8d3d 2522 5abd 42ac 0a3e
00000110: e5b1 5abd 94cc babd ae61 13bb 5cfd 7a3d
00000120: f378 133d ee5e c13d 46e8 43bd c3d1 ca3d
00000130: 46e0 353e 34ce 03be f6f6 c0bc a8dd e93c
00000140: 09c6 913d bbb5 853d 6c09 c3bb 28e0 39bd
00000150: 689c 4bbe 8d69 943d 0969 2e3e 1882 8b3d
00000160: 8a3c 8a3e 1a70 373e 0df7 2dbe db7f 20bd
00000170: 34fc 773d 3d5d 1bbe 4bf2 a43d 13d2 02be
00000180: c49a 1ebc e9e4 973d 8fb4 b2bd e78d 643d
00000190: fcaf dc3b 95a2 653d 1c21 76be 034b 4abe
000001a0: c958 e3bd 68ca 0d3c 530c dc3d b467 1abe
000001b0: 6689 a63c 4d65 e53b 4ba2 26bc 9112 edbd
000001c0: 0e60 3c3d 888e 0fbc cab6 37bd 6cf2 30be
000001d0: 6325 243e bdc8 233d f27a 913d dd63 a03d
000001e0: a107 e8bd 6f0e 46bd c2a5 e2bd 34c0 de3d
000001f0: 4733 e3bd 65db b6bd ef76 f5bc 1cea e83d
00000200: 57af 293d 1b8b 663e 00de 31be a761 4ebe
00000210: f709 a3bb d15a 8d3d bfba da3d 84b9 c2be
00000220: f268 a2bb 4126 0fbe 269e e23c 4500 63bd
00000230: 9e61 d8bd 8803 023c 9596 203e 5b03 ac3c
00000240: 465d bb3d 1997 88bb 1dc9 e3bd 62bf a0bc
00000250: d782 5bbd a533 6dbc 676a e7bc c6f7 ce3d
00000260: e73e 6f3d 246a 2b3e 654f c9bd 37ea 33bd
00000270: daaf 56bc e89d eb3d b93c aa3d 630a c4bd
00000280: ee58 383d 07b5 2fbd ace1 2f3d 8c8c 103d
00000290: 272b 943d 5ede 5ebe e65a dfbd 317e 663c
000002a0: a24a 963d 4ff1 48be 6bfd 103e 14b1 a2bc
000002b0: 5237 503d 3b68 9d3d 1083 033c 52fa bd3d
000002c0: 1922 6fbd dbd3 59bc e855 123e 6c14 b5bd
000002d0: 2bf8 e2bb 2681 21bd f15a a7bd a290 513e
000002e0: 0c70 03be 8547 bebb 094c dabd 1662 aa3d
000002f0: 94c0 a2bd 096e 033a 253e fbbd 84c5 b8bd
00000300: f6f7 9a3e 3788 70bc 9c73 6e3e ba14 f4bd
00000310: 244f 6cbe 486a 263e fe7d 0fbb b976 1fbd
00000320: 0417 e9bd 211d 773c 656b f43c d4a7 c53c
00000330: 0221 0ebe c606 f5bd babf 873d 0db0 34bd
00000340: b205 0dbd 474d 06be 78c2 14be bb3b ee3d
00000350: 3d1c 2e3d 6a31 c33b 838d 443e b458 9dbd
00000360: ff8a 2cbe 4427 f1bc fad0 42be 8812 afbd
00000370: 1d83 6c3d 8c68 8abd b7fc 063d cbf6 d4bd
00000380: 1691 763b 59d2 ebbc 4b0b c93b c352 e1bc
00000390: 4fc3 acbd df01 84be 25fb 7e3d d44d fd3c
000003a0: 0fc8 e73d 005c 85bc e7e8 223e 3338 84bd
000003b0: fdc8 603d 4938 d4bd 9812 24be 57d9 3dbd
000003c0: 4599 20bd e7b4 153e 0f78 3ebe e911 e0bd
000003d0: a98a 22be 722a 88be 19e1 983d 6d0d a03d
000003e0: 3778 eebd 7e2d 4dbe 4122 4dbc a55c 1d3e
000003f0: 0bfd 1f3e 3f72 bdbd 3440 53be 5ab0 92bc

net.2.bias f4 [60]
0.14113316 -0.11283238 0.028160505 0.05919072 -0.11732033 -0.044559427 -0.10467051 0.041237816
0.03820565 -0.032951247 -0.016045233 -0.04251866 -0.038319785 0.02636898 0.049675506 0.0008625829
-0.01570287 -0.06666239 0.067937374 -0.016522098 0.067000866 -0.05250852 0.021119531 -0.09978903
0.08932757 -0.07691908 0.02989441 0.0812299 -0.0835371 0.021258181 0.05356646 0.00333855
-0.086991265 0.106516056 -0.081452556 -0.06963566 -0.06250364 0.025633087 -0.07641786 0.087525606
0.05740221 -0.040911287 -0.058128633 0.07218432 -0.10910603 -0.025555406 0.0053123673 -0.0636815
-0.0863259 0.06978089 0.116819605 -0.07495346 0.07232613 -0.06889013 0.043807615 0.032027554
0.084786355 -0.07721392 -0.05868861 -0.056612656
00000000: 3685 103e aa14 e7bd dcb0 e63c f871 723d
00000010: a445 f0bd f283 36bd 7e5d d6bd fce8 283d
00000020: 877d 1c3d e3f7 06bd 4b71 83bc 0c28 2ebd
00000030: 35f5 1cbd c203 d83c 8b78 4b3d f51e 623a
00000040: 4ea3 80bc 4b86 88bd c022 8b3d 5a59 87bc
00000050: c037 893d 2d13 57bd de02 ad3c 315e ccbd
00000060: 5ff1 b63d c087 9dbd 1fe5 f43c dd5b a63d
00000070: 8015 abbd a325 ae3c 8168 5b3d 93cb 5a3b
00000080: 7a28 b2bd 1725 da3d 99d0 a6bd 249d 8ebd
00000090: e901 80bd 7bfc d13c f880 9cbd a040 b33d
000000a0: 941e 6b3d 9892 27bd 4a18 6ebd 5fd5 933d
000000b0: fb72 dfbd 9259 d1bc 5e13 ae3b 726b 82bd
000000c0: a2cb b0bd 49e9 8e3d 1e3f ef3d 3381 99bd
000000d0: b91f 943d 4516 8dbd 9d6f 333d 532f 033d
000000e0: 78a4 ad3d 5522 9ebd 7863 70bd ace2 67bd

net.5.weight f4 [1, 60]
0.043711144 0.0773336 0.109641485 -0.1488611 0.16679148 0.05905226 0.082925186 -0.00039339947
-0.27677077 0.2985643 0.24378964 -0.09799189 0.004973992 0.16457082 0.25132325 0.14552763
0.003669674 0.02572153 0.0020890262 -0.23900075 0.18821137 -0.049350083 -0.19950712 -0.041742407
0.02310233 -0.0021240695 0.10231661 0.081762016 -0.08745965 -0.057782445 0.01414158 -0.13688184
-0.14046015 -0.030673936 0.16976857 0.019787207 0.049354397 0.18094766 -0.0017176839 0.10508279
-0.19448805 0.0016810937 0.016004514 0.08122646 0.027565021 0.005100956 0.16284849 0.31769294
-0.05915089 0.019420039 0.15580426 0.17134978 -0.16155586 0.13543093 -0.29965237 -0.023420114
0.13722585 -0.00040559916 -0.06040942 -0.0010919847
00000000: 750a 333d 1461 9e3d b78b e03d 0b6f 18be
00000010: 63cb 2a3e c8e0 713d aed4 a93d 2f41 ceb9
00000020: e6b4 8dbe 6cdd 983e fea3 793e f9af c8bd
00000030: defc a23b 4185 283e 71ad 803e 3205 153e
00000040: ea7e 703b f5b5 d23c 0be8 083b 9dbc 74be
00000050: 7bba 403e 5023 4abd 984b 4cbe 16fa 2abd
00000060: 1941 bd3c f933 0bbb 5f8b d13d d872 a73d
00000070: 0c1e b3bd 49ad 6cbd 16b2 673c c12a 0cbe
00000080: c9d4 0fbe e847 fbbc d0d7 2d3e c818 a23c
00000090: d627 4a3d 584a 393e e823 e1ba a535 d73d
000000a0: e027 47be 2558 dc3a e61b 833c 0f5a a63d
000000b0: 0ad0 e13c ec25 a73b c1c1 263e a6a8 a23e
000000c0: 3448 72bd c616 9f3c 278b 1f3e 5176 2f3e
000000d0: e66e 25be 68ae 0a3e 096c 99be 8adb bfbc
000000e0: ef84 0c3e 99a6 d4b9 de6f 77bd ed20 8fba
