results/PINN/NASA results/9-9/Experiment10/model.pth (torch, 59646 bytes, 14 tensors)

encoder.net.0.weight f4 [60, 17]
000000 11 2f c0 3b e9 46 68 be ed ed 75 bd 72 c0 dd bd
       0.0058649858 -0.226833 -0.060041357 -0.10827722
000010 ec 5b 54 3d 85 c0 6f 3e 26 bc 8d 3d 02 54 42 3e
       0.051845476 0.23413284 0.06920652 0.18977359
000020 02 c5 24 be 8d 94 0b be 6a 71 4f 3e b4 72 27 bc
       -0.16090778 -0.13630886 0.20258108 -0.010220218
000030 80 fc 00 36 cd d3 11 3e ae 2e 67 be 80 c0 40 bd
       1.922046e-06 0.14240952 -0.225764 -0.047058582
000040 d2 df da bd 86 8a dd bc 85 02 4d bc 6e fb f7 3d
       -0.106872216 -0.027043592 -0.012512808 0.12108503
000050 16 7f 9b 3e 32 69 8f bd d8 d5 81 be 25 61 ba 3e
       0.30370396 -0.07002486 -0.25358462 0.3640224
000060 f7 38 a2 be 09 f0 28 3e 09 c3 17 be 0e 5e 47 be
       -0.31684086 0.16497816 -0.14820494 -0.19469473
000070 7d 21 13 3e 3c 2c 69 be a6 77 56 3e 82 aa 23 3e
       0.14368244 -0.2277078 0.2094408 0.15983012
000080 7f a1 5e be c1 66 36 bd ea 5a 8f 3d 2a b8 72 be
       -0.21741293 -0.044531588 0.06999762 -0.23703066
000090 e0 db 9d 3d 60 f4 a3 3d f4 61 6f bd 86 5b f1 3d
       0.077079535 0.08005595 -0.058443025 0.11785035
0000a0 f5 f1 1f bd 3e 06 d5 3e 69 5c ec 3d 01 ea 36 3e
       -0.039049108 0.41606325 0.11541063 0.17862703
0000b0 d0 4a 0b 3e c0 46 df 3d 3f 6a b7 bd d1 c4 04 bd
       0.13602757 0.10902166 -0.08955812 -0.03241426
0000c0 8c 8a 65 be 5c 98 83 3e 37 da 96 bd e8 81 4c 3e
       -0.22416133 0.25702178 -0.0736584 0.1997143
0000d0 a5 f7 92 be f1 26 96 bd 4e 97 f9 3d 9b 06 b5 3d
       -0.28704563 -0.07331646 0.12187062 0.088391505
0000e0 10 1a be 3d 61 06 1a 3e ce 58 1d 3e 93 e8 a1 3d
       0.09282315 0.15041496 0.15365908 0.07905688
0000f0 02 96 10 3d c6 20 00 3e da 66 06 be 60 34 44 bc
       0.03529931 0.12512502 -0.13125172 -0.011975378
000100 43 84 9f bc c4 98 9c bd b3 e6 e8 bd 60 5a 08 be
       -0.019472247 -0.07646325 -0.113721274 -0.13315725
000110 6d bd 84 be c6 b5 1c 3e de 7a fd bc d3 ef a1 bc
       -0.2592577 0.15303716 -0.030942377 -0.019767677
000120 82 fa d7 be d5 ee 2f be 47 51 04 3e e8 0b 85 3e
       -0.4218331 -0.17180951 0.1292163 0.25985646
000130 74 fc f4 3d 56 80 7c be a1 6e b5 3d f3 24 13 3e
       0.11962214 -0.24658331 0.088589914 0.14369564
000140 f2 2b 44 be d9 a1 3e 3b f1 d9 1b bd da 8b 22 3e
       -0.19157389 0.0029088168 -0.038049642 0.15873662
000150 e1 6a 1a be e0 e8 64 be 3a 44 fe 3d f5 1a 06 3e
       -0.15079834 -0.2235446 0.12415357 0.13096221
000160 d1 85 31 3d ae 91 22 be 37 b9 a1 3e e8 2f 0d be
       0.043340508 -0.15875885 0.3158662 -0.13787806
000170 31 70 34 3d 5b f2 3d 3d 87 95 ac 3d 21 17 e5 3d
       0.044052307 0.046373706 0.084269576 0.11186052
000180 96 83 bf bb 70 48 bd bc 11 01 7b 3d f9 17 80 bd
       -0.0058445437 -0.02310583 0.061280314 -0.062545724
000190 4a 27 9d bd 38 6d be 3d a8 5e 5d 3e 1c e6 ba bd
       -0.076735094 0.092981756 0.2161814 -0.09125921
0001a0 bb b1 b0 3d 3c 14 a4 3d b0 ef 1a 3e ed 9f 8a be
       0.086276494 0.08011672 0.15130496 -0.2707514
0001b0 31 f6 37 3e 69 f6 37 bb 9b 65 03 3e 1f cd de 3d
       0.17965008 -0.0028070456 0.12831728 0.108789675
0001c0 dd 43 48 be 89 72 ec 3c 29 9b 1c bf 34 c1 91 3d
       -0.19557138 0.028863208 -0.61174256 0.07116929
0001d0 9c 8d 11 be 98 07 09 3c 63 7b 20 3e 2f 32 65 3e
       -0.14214176 0.008363627 0.15672068 0.22382425
0001e0 37 a8 81 3d 65 41 2f be b5 f1 0e be 8a 64 14 be
       0.063309126 -0.1711479 -0.13959391 -0.14491478
0001f0 8d 57 8e bd e3 2b c9 bc 58 25 8f bc f8 67 72 bd
       -0.06950293 -0.02455706 -0.017473862 -0.059181184
000200 34 01 37 3d dd d9 26 be 5e cd 8b bc a7 35 58 3d
       0.04467888 -0.16294046 -0.0170657 0.05278554
000210 e8 ab 70 bc 02 88 23 3d d3 0e 9a bd ed 25 26 3e
       -0.014689423 0.03992463 -0.07522359 0.16225405
000220 01 f7 54 be a2 e3 33 3e 12 5a 45 3e 3a eb 0f 3e
       -0.2079735 0.17567304 0.1927264 0.14054576
000230 87 9c a0 3d 91 5f 06 3d 88 ca 9f be 24 9c d4 bd
       0.07842355 0.032805983 -0.31209207 -0.10381344
000240 d3 e9 81 be f6 f4 f0 3d d5 a2 b7 bd 04 73 44 3c
       -0.25373706 0.117654726 -0.089666046 0.0119903125
000250 c3 67 a5 3d d5 35 05 3e 49 c2 75 3e b5 bf c9 3d
       0.080764316 0.13008817 0.23999895 0.09851018
000260 2b 67 02 be ec 27 33 bc c8 98 1a 3e 81 e1 aa bc
       -0.12734668 -0.010934811 0.15097344 -0.020859482
000270 95 ef 0f 3d 86 8c 3b bd 1a d1 52 3e 3f ad 7f 3d
       0.035140593 -0.04578831 0.20587578 0.06242108
000280 4c 2d 62 3e a6 e9 ad 3d d2 2e 50 3e cb 83 8b bd
       0.22087592 0.084918305 0.2033036 -0.06812247
000290 98 94 7e bd df 14 0d be a3 c4 cd 3d d1 28 0d 3e
       -0.06215343 -0.13777493 0.10047271 0.13785101
0002a0 4c 86 0c be d8 1e ee bd 40 0c 26 be e4 e2 36 be
       -0.13723105 -0.11626977 -0.1621561 -0.1785999
0002b0 82 a0 bc bd df 9f 00 3e 20 57 ed 3c 82 b5 3f be
       -0.09210302 0.12560986 0.028972208 -0.18721583
0002c0 9f c6 dc bd 67 50 18 be 88 70 68 be bd cc 39 3c
       -0.107800715 -0.14874421 -0.22699177 0.011340317
0002d0 58 78 f3 bd c1 35 1a 3e fa a2 9f 3b 7c ef e9 3d
       -0.11888188 0.15059568 0.0048717232 0.11422631
0002e0 e5 b2 36 bd 78 82 37 3d 19 c0 39 bd 03 8d 25 3e
       -0.0446042 0.04480216 -0.045349214 0.16167073
0002f0 95 3b 0d 3e 8c 7c 66 3c f4 d6 0c be 47 0e 89 be
       0.1379226 0.01406778 -0.13753873 -0.26768705
000300 55 cc 3d 3e ab 36 97 3b 7e ed 75 bd ee 10 97 3e
       0.18534978 0.004614671 -0.060040943 0.29505104
000310 b1 dc 89 bb ba c4 a8 3c 79 bb 51 be 16 59 11 3e
       -0.0042072167 0.020601619 -0.20481671 0.1419414
000320 bc 81 1f be fe dd e4 3d a6 4c 7c bd 4b be a3 bc
       -0.15576833 0.11175154 -0.061596535 -0.0199882
000330 20 4d 87 3e 13 e2 6c 3e b1 4a 08 bb 37 ce 06 be
       0.2642603 0.23133115 -0.0020796473 -0.13164602
000340 47 78 e8 3c a1 22 6c be db 0e 0c be 6f 1e 13 be
       0.028377665 -0.23060085 -0.13677542 -0.14367078
000350 25 fa 76 be a5 ae db bd 47 78 e0 3c c9 5c be bd
       -0.2411886 -0.1072667 0.027401103 -0.09295041
000360 63 83 8d 3d e5 38 e2 3c f2 80 4a be ba 0d 99 3d
       0.06909826 0.02761502 -0.19775751 0.07473321
000370 40 59 88 bd f3 42 31 3e eb 28 5e 3e e0 cf 52 be
       -0.06657648 0.17310695 0.21695296 -0.2058711
000380 30 4f 2b be 56 65 95 3d 48 67 c5 bd 68 22 61 3e
       -0.16729426 0.07294719 -0.0963884 0.21985781
000390 eb 17 e4 3d 64 2e 9d 3e fa d8 98 3e 93 43 e3 bd
       0.111373745 0.30699456 0.2985304 -0.11096873
0003a0 d9 65 db 3d 5a a8 b8 3e da 71 44 be 4c 0b df 3d
       0.10712785 0.36065942 -0.19184056 0.108908266
0003b0 31 54 9c bc fc f9 52 3e 9b 90 3e 3e df 94 8e bd
       -0.019083114 0.20603174 0.1860985 -0.06961989
0003c0 fe 79 eb 3d 2a 05 1b 3e 85 df 42 3e 5f 82 42 bd
       0.114978775 0.15138689 0.19030578 -0.047487613
0003d0 93 f4 8f be cd f8 ad 3b 27 fc 4b 3c 90 2a d9 bd
       -0.28116283 0.0053092004 0.0124502545 -0.10603821
0003e0 29 1b 02 3e d3 35 19 be fe cf 82 bd 14 f3 a8 bd
       0.12705673 -0.14961939 -0.063873276 -0.082494885
0003f0 0a cb 93 3b 8d ff 05 3e ee b0 2e be 71 6e d6 3c
       0.004510288 0.13085766 -0.17059681 0.02617571

encoder.net.0.bias f4 [60]
000000 7a 28 83 bb da ab 1d 3d a8 25 04 3d 66 8e eb 3c
       -0.004002628 0.03849397 0.032262474 0.028754424
000010 eb 4f 1a 3d f7 94 67 bd 0d d3 0b bd 61 cc 43 3d
       0.037673872 -0.05653855 -0.03413682 0.047802333
000020 ee 40 3b 3d 1b fe 35 bd 5d 88 00 bd 34 6b 27 3d
       0.04571622 -0.044431787 -0.031380046 0.04087372
000030 b9 e8 1d bd 4b 6f 9c bc de 78 28 bc 0f fa 6c bb
       -0.03855202 -0.019096037 -0.010282723 -0.0036159789
000040 7f 15 bb 3c c9 ce 92 3d 0c d7 b8 bc 06 d9 05 3d
       0.022837399 0.071683474 -0.02256348 0.032677673
000050 02 56 24 3d bb 6b 24 3c c2 33 f6 3c e2 48 2c 3d
       0.040121086 0.010035451 0.030053977 0.042061694
000060 28 23 0b 3d 11 df ad bb b9 49 14 3d c5 a6 08 3c
       0.033969074 -0.0053061326 0.03620312 0.008340542
000070 08 87 14 3d 68 5c 24 bd d3 8c 07 3c 55 72 1c 3d
       0.03626159 -0.040127188 0.008273321 0.038194973
000080 ce da ab 3c 20 55 d4 bc 0b a3 1f 3d 3d b0 3e bd
       0.020978358 -0.025919497 0.03897385 -0.046554793
000090 bb 9b e1 3c bd 41 04 3d 44 11 d7 bc ee c0 0c 3d
       0.027540078 0.032289255 -0.02625335 0.03436368
0000a0 05 de 27 3d 5d 2f 1a 3d 9b 93 75 3d 9f 08 11 3d
       0.04098322 0.037642825 0.05995522 0.035408612
0000b0 3b cc 3c bd 60 9b 22 3d e9 8a 15 3d c4 e9 7f bc
       -0.046093207 0.03969896 0.03650943 -0.015619699
0000c0 0b d0 19 3d a4 f2 0b 3d a8 fb 19 bd c3 78 f0 bc
       0.03755192 0.034166947 -0.037593514 -0.029354459
0000d0 e6 50 64 3d 5f d4 22 bd 5b a7 22 3d e3 86 13 bb
       0.055741213 -0.039753314 0.039710384 -0.0022510819
0000e0 42 08 a2 3c 55 03 90 3b 13 d7 14 3d cd 9b 09 3d
       0.019779328 0.0043949285 0.036337923 0.03359585

encoder.net.2.weight f4 [60, 60]
000000 7f d8 0f 3e f4 5b 6c 3d 0a 68 1c 3d c0 02 b3 bd
       0.1404743 0.05770488 0.038185157 -0.08740759
000010 a3 7f f5 bd 18 33 19 be d4 a9 04 bd d2 9f 63 bd
       -0.119872354 -0.14960897 -0.032388523 -0.05557234
000020 02 88 a1 3c a6 10 1d 3d ce d2 e5 3c 21 e2 57 3e
       0.019718174 0.038345955 0.028054621 0.21082355
000030 63 34 79 3d ae b7 66 3d e3 9b 44 be 46 07 3d 3d
       0.060840975 0.056327514 -0.19200091 0.046149515
000040 fc 3e 79 be 35 51 50 bd dd 0c bb bd c9 1a ea 3d
       -0.24340433 -0.050858695 -0.09133313 0.1143089
000050 16 fc 00 bb fc f5 8d 3d ec 6c a2 bd 64 b7 5b 3e
       -0.0019681505 0.069316834 -0.079309314 0.21456677
000060 e2 55 63 bb 89 94 8d be ab e9 c8 ba e4 71 7d be
       -0.0034688641 -0.27652386 -0.0015328428 -0.24750477
000070 d5 2b f0 3d 4f 34 68 3e cf 9a 1c 3e 6d 07 ce be
       0.1172711 0.22676204 0.1529343 -0.4024004
000080 fa 85 60 3e a7 99 85 3c d7 66 3b 3e dd 84 cd ba
       0.21926108 0.016308619 0.18300949 -0.0015679855
000090 c1 9e 51 3d 12 a2 a0 bd e6 26 51 bd 63 b7 82 3e
       0.05117679 -0.078434125 -0.051062487 0.25530538
0000a0 5d cf 24 3e d8 35 38 3e 9b a5 ab 3d a5 7e 61 3e
       0.16094728 0.1798929 0.08381196 0.22020967
0000b0 71 e1 21 be 08 89 35 3e 99 61 99 3e 86 27 ad bd
       -0.15808655 0.17728055 0.29957274 -0.08454804
0000c0 a8 dd 47 3e 2b 1c 88 bc 66 48 e4 bd a9 6f f5 ba
       0.19518149 -0.016614994 -0.111466214 -0.0018725294
0000d0 09 b6 a4 3d c3 8b 99 3d 22 07 2e bd 58 45 72 3e
       0.08042533 0.074973606 -0.04248727 0.23659265
0000e0 89 00 26 bd a9 73 5f bc 09 b7 3f be 4c 7b 68 bd
       -0.040527854 -0.013638415 -0.18722166 -0.05675821
0000f0 c3 d8 95 bd 98 5b 2d be ed 4a 60 be 36 04 05 3d
       -0.07316735 -0.16929471 -0.21903582 0.03247472
000100 8e 76 d1 bd de 3b 05 3e a5 af 4c 3d db 1b 04 be
       -0.10227691 0.13011119 0.049972195 -0.12901251
000110 4a 2e 46 3e de ef 93 3c 96 48 6c be 5f c6 72 3d
       0.19353595 0.018058714 -0.23074564 0.059271213
000120 23 d3 39 bc 35 62 2f 3d 64 8d e8 bc 29 99 c2 bd
       -0.011341843 0.042818267 -0.028387733 -0.09501869
000130 84 fb e8 bd 8a 7e 80 bc 36 40 e8 bc 2e 19 dc bd
       -0.11376098 -0.015685339 -0.02835093 -0.1074699
000140 bc e5 ae bb a3 bc cd ba 76 00 3a 3d 48 f7 c0 bd
       -0.005337445 -0.0015696477 0.045410596 -0.09422165
000150 b2 83 2f 3e 22 53 bd bd 02 23 da 3d 69 50 bd be
       0.17140082 -0.09244372 0.106512085 -0.3697541
000160 37 f0 35 3d e2 a5 4f bc 89 90 4a be 62 71 92 3c
       0.04441854 -0.012673827 -0.19781698 0.01787633
000170 00 99 b5 3c 50 81 30 bd 60 08 81 3e 7d 9c 2a bd
       0.022167683 -0.043092072 0.25201702 -0.041653145
000180 46 d0 f4 3c 09 03 42 3e a5 88 68 be 2d 56 db bd
       0.029884469 0.1894647 -0.22708376 -0.10709796
000190 4f 80 1b 3c e6 18 81 3d 25 2b 34 be 95 af d3 bc
       0.00949104 0.06303577 -0.17594583 -0.02584056
0001a0 23 20 0e be 79 8b 1c 3e 62 6b 91 3c e7 88 e8 3d
       -0.13879447 0.1528758 0.0177514 0.11354237
0001b0 f3 ca 04 be 65 98 73 bd 1f c8 72 be a6 a5 19 3e
       -0.12968044 -0.059471507 -0.23709153 0.15004596
0001c0 b1 9a a3 3b 6f 1b a1 bc 01 15 42 be 25 0b 00 bd
       0.004992806 -0.019666402 -0.18953325 -0.03126063
0001d0 77 78 50 3d bf 09 7a bc f7 18 de bc f9 6e 1d be
       0.050896134 -0.015261113 -0.027111514 -0.15374364
0001e0 12 0e 45 3e db fb 2d 3e 1e 59 08 be 81 aa 7d bd
       0.19243649 0.16990606 -0.13315246 -0.061930183
0001f0 5f 1b 3b 3d b7 41 27 be 03 50 99 bd 9d 22 50 be
       0.0456804 -0.16333662 -0.07485964 -0.20325704
000200 73 c7 54 be de 0c 9f bd a6 3f 37 3e db 3c b0 3d
       -0.20779209 -0.07766126 0.17895374 0.08605357
000210 fb 7e 72 bd cf 2b fb 3d aa 4b f8 3d d0 e8 59 3d
       -0.05920313 0.12264215 0.12123807 0.053200543
000220 c2 9b f5 3c ae 83 bc 3b 05 29 04 3d 18 84 e5 bb
       0.029981498 0.005753002 0.03226568 -0.007004272
000230 b5 35 83 be f5 41 d5 bb 51 db 80 be 70 ff dd bd
       -0.25626913 -0.006508107 -0.25167325 -0.108397365
000240 c2 a6 85 3e ae ac 04 bd de aa 7c 3e 1d 05 f4 3d
       0.2610379 -0.032391243 0.24674556 0.11915038
000250 53 a9 58 be 14 75 d8 bd 0c 50 fe 3d 47 61 87 3d
       -0.21158342 -0.10569206 0.124176115 0.06610351
000260 cd ac dc 3b 48 09 80 3e 41 e0 ef 3c ab a1 cf 3c
       0.0067344666 0.2500708 0.029281737 0.025345644
000270 84 b7 ad be c7 cb 1f 3e ef 42 70 bd 37 bb 6c 3e
       -0.33929074 0.15605079 -0.058657583 0.23118292
000280 4b 13 b1 be e8 31 b4 3d 97 77 0c 3e a5 ba 1e be
       -0.34585032 0.08798581 0.13717495 -0.15500887
000290 05 75 59 3e b6 cf cb 3d 4a 5b fc bb 1f c5 aa be
       0.21236046 0.09951727 -0.007701312 -0.33353516
0002a0 31 3a 08 bd 4d 45 11 3e 3b d4 46 bd ae 3a c7 3d
       -0.03325862 0.14186592 -0.048542242 0.09727989
0002b0 81 14 8d bd 10 92 5d 3e c0 13 e3 3c 74 1c ea bd
       -0.068886764 0.2163775 0.027719378 -0.11431208
0002c0 de 8e a8 bd f4 77 d2 3d bf 61 49 bd 02 08 03 3e
       -0.08230375 0.102767855 -0.049165484 0.12796023
0002d0 fe cb 52 be 19 c0 39 3e 14 8d 1c bd fa da 5f 3e
       -0.2058563 0.18139686 -0.03822048 0.21860877
0002e0 f9 c8 52 bd 92 9c a9 bd f2 e3 1d be dd 2a cb bd
       -0.051461194 -0.082818165 -0.15418985 -0.09920285
0002f0 71 a9 c4 3d da fb c6 3d f3 df fd 3d 39 e8 fc bc
       0.09602631 0.097160056 0.123962305 -0.030872451
000300 38 d5 79 3d d1 ce 95 3c b4 a1 77 3d 7e 1a a1 3e
       0.060994357 0.018287094 0.060456946 0.31465524
000310 b4 39 c8 bd d3 4c cc 3d 03 0e fc bd 2d d6 95 3d
       -0.09776631 0.099755906 -0.1230736 0.073162414
000320 bf c5 14 3e e3 6e d1 bd 5b 5c 34 be 68 89 46 3e
       0.14528559 -0.10226228 -0.17613356 0.19388354
000330 dc c0 a8 be 7c 22 b3 3d fe 90 1f be 54 0f bb bd
       -0.3295964 0.08746812 -0.15582654 -0.09133783
000340 d7 01 6f be 23 3c 7f bd 06 26 14 3d f7 68 be 3d
       -0.23340546 -0.06231321 0.036169074 0.09297364
000350 1d 06 e5 bd 22 81 e2 3d 37 4a 24 3e aa 41 26 3d
       -0.11182807 0.110597864 0.16043936 0.040589966
000360 f6 6e fe 3d 87 00 6d 3d 7a 26 31 bd cb 03 03 bd
       0.12423508 0.05786183 -0.043249585 -0.03198604
000370 6c 54 b2 bd 32 bf 21 bd 1a d8 13 3e 8a 7d 39 be
       -0.087075084 -0.03948898 0.14437905 -0.18114296
000380 21 bb f7 3c 05 6c c7 bd ee cd b0 3c 4d 53 b6 bd
       0.030240597 -0.097374 0.02158257 -0.08902607
000390 6d 6c 7f bd b9 85 fb 3c aa 5c 78 3c b3 a5 68 3c
       -0.062359262 0.030703412 0.015158812 0.014199662
0003a0 51 8c dc bd 62 9c 21 bd cb 92 44 be 12 b7 7d be
       -0.10768951 -0.03945578 -0.19196622 -0.24776867
0003b0 f7 c1 2d 3e df b3 d5 3c ae 15 3b 3d 73 9e 2e 3d
       0.16968523 0.026086746 0.045674972 0.042631578
0003c0 64 fa 4e be 18 d0 07 3d 72 eb 08 3d e5 c6 9b bc
       -0.20212704 0.033157438 0.033427663 -0.019015739
0003d0 ae 76 66 3e cb e1 ac bd 8c 64 8c 3c f2 02 ed 3d
       0.2250621 -0.08441504 0.017137788 0.115728274
0003e0 a5 4d ec bb e0 68 a5 be 43 0d 1e 3d ef 5b e1 3c
       -0.0072114044 -0.32306576 0.038586866 0.027509658
0003f0 79 36 04 bc 3d c7 60 3c ef 2a 27 3d 9c 4f c7 bd
       -0.008069628 0.013719377 0.04081243 -0.09731981

encoder.net.2.bias f4 [60]
000000 dc 6c 24 3d 8a 30 d6 3c 83 76 e3 bc 06 06 ed 3c
       0.04014288 0.026146192 -0.027766472 0.028933536
000010 83 e6 72 bc 10 60 1f 3d 74 fb e5 3c b0 7b 69 bd
       -0.014825466 0.03890997 0.028074004 -0.057002723
000020 24 c1 1f bd b0 e4 11 3d 86 8d 80 3d dd 87 bb bc
       -0.039002553 0.035618484 0.062769935 -0.022891933
000030 13 d6 a7 3d 26 0e 31 bd b3 d9 06 bd fa 38 02 3d
       0.08195128 -0.043226384 -0.032922458 0.03179262
000040 2b d5 64 bc 33 58 3a bd 37 7d 91 3c 1c 44 74 bd
       -0.013966839 -0.04549427 0.017759902 -0.059635267
000050 ba b0 62 3d 9d e1 b4 3b 93 25 d6 bc f5 96 c0 3c
       0.05534432 0.0055200593 -0.026140964 0.023509482
000060 b5 42 42 3d f3 63 02 bd f5 b4 16 3d 16 1a f5 ba
       0.047426898 -0.0318336 0.036793668 -0.0018699791
000070 aa af 34 bd 5b 71 31 bd 06 e9 0a bd 6a 3f 34 bd
       -0.04411284 -0.043320995 -0.033913635 -0.04400579
000080 fa d0 2a bd a0 eb 54 bb a7 bb 23 3d cc 65 a3 3c
       -0.0417032 -0.0032489076 0.03997388 0.019946001
000090 63 2f 3f 3d 1d 75 10 bd ca 14 0c bd 35 00 18 3d
       0.04667605 -0.035267938 -0.034199513 0.037109572
0000a0 a1 1b ef 3c 9e 31 7b bc c7 d1 85 bb ce 8e f6 3c
       0.02918798 -0.015331654 -0.0040838453 0.030097391
0000b0 ef 2d 35 3d de 75 3e 3d a4 02 4a bd 3b 65 29 3d
       0.04423326 0.046499126 -0.049318925 0.041356307
0000c0 cf da 36 3d 57 12 c9 bd eb 20 54 3d 35 9a 36 3d
       0.044642266 -0.09817951 0.051789206 0.044580657
0000d0 5a ca 8f 3d 5e 3a f3 bc a6 29 ed bc a9 0d a2 bc
       0.070210174 -0.029690918 -0.028950524 -0.019781904
0000e0 00 8d 38 bd bb 7d 31 3d e0 fd cd 3d 35 c1 7f bc
       -0.045056343 0.043332797 0.100581884 -0.015610029

encoder.net.5.weight f4 [32, 60]
000000 2b af 07 be a6 b0 25 be 7c 24 c9 3d 88 90 3f 3e
       -0.13250415 -0.16180667 0.09821412 0.18707478
000010 b1 5d 93 be 91 13 40 3e 72 63 bc bd 55 10 35 3c
       -0.28782418 0.18757464 -0.09198655 0.011051257
000020 8d 61 80 be 4b f5 b7 ba 56 1e f2 3d 8e 25 6c 3e
       -0.25074425 -0.0014034895 0.11822192 0.23061201
000030 49 cf 89 bc 78 7d bc bd e3 50 eb bd 40 d9 a4 3d
       -0.016822474 -0.09203619 -0.11490037 0.0804925
000040 04 ee 2f bd 75 fc 2a 3c fd 32 81 3d e1 df 10 3e
       -0.0429516 0.010436167 0.06308553 0.14147903
000050 71 28 1e 3e 1c 68 c2 3d 39 0f a6 3e ce 53 92 be
       0.15445115 0.094925135 0.3243349 -0.28579563
000060 fb 7b ac bd 4e fa 1e be f0 ae 00 bc 57 b5 22 3e
       -0.08422085 -0.15525171 -0.007854208 0.15889488
000070 80 1c f5 3d 65 c1 17 3d 70 b1 c1 3d ca f6 b8 ba
       0.119683266 0.03704967 0.09457672 -0.0014111635
000080 32 4a a8 bd b2 fd 3e 3e 03 0b 8b 3b b0 ec 63 bd
       -0.08217277 0.18651465 0.004243256 -0.055645645
000090 5f ac f0 bd 81 8c 7a bc 6c 75 6a 3d 49 2e f5 3d
       -0.11751627 -0.015292288 0.05724089 0.11971719
0000a0 19 2b f7 3d 18 7c 13 3e 1f 61 4f bc 45 92 4e 3d
       0.12068767 0.14402807 -0.012657433 0.050432462
0000b0 4c a0 39 3d 82 4a 10 3e 3a e6 97 3d cd bc 93 be
       0.045318887 0.14090922 0.07416959 -0.2885498
0000c0 45 dc 10 3c 81 d5 b2 3c 7c 4e 4c bd 3f ba 12 bc
       0.008841579 0.021830322 -0.049879536 -0.008955537
0000d0 62 bb b4 3d ad a1 e5 bc cc f9 e2 bd bc e5 ac bd
       0.08824803 -0.028031195 -0.11082801 -0.08442256
0000e0 bf ba bf 3d 3a 6a 5a 3e 33 a3 24 3d 27 fa 47 3c
       0.09361791 0.21329585 0.0401947 0.012205637
0000f0 d8 19 fa 3e a1 aa fa bc 93 5e 70 be dc 74 8c 3d
       0.48847842 -0.03059894 -0.23473577 0.06858227
000100 10 b7 71 3d 60 c5 d0 bc ff 34 14 bb b7 a1 15 3e
       0.059012473 -0.02548474 -0.0022614596 0.1461247
000110 17 34 02 3e a1 28 bc 3c ef 30 29 3d eb 8d 1a be
       0.12715183 0.022968592 0.041306432 -0.150932
000120 a6 ac c8 3d 41 90 3b 3e 5b c0 a5 3e 44 0f 56 3d
       0.09798555 0.18316747 0.32373318 0.052260652
000130 c4 15 ba 3d 33 7f 8d bd bd 92 b6 bd dd 5b 32 3d
       0.09086183 -0.06909027 -0.08914707 0.04354464
000140 1d d6 d3 bd 3f 2a 00 3e 73 2e ea 3c f5 8c a0 bd
       -0.10343573 0.12516116 0.028586602 -0.078393854
000150 bc b6 a7 bd ab 14 8f 3e d1 fb 50 3d 23 70 13 3d
       -0.08189151 0.27945456 0.0510214 0.035995614
000160 b6 ae 30 be 34 f3 f5 3c e4 c3 51 3e 5b ab d6 3d
       -0.17254147 0.030023195 0.20484883 0.10481902
000170 f1 4a dc bd d4 f6 b7 3b b4 91 0d 3e 01 c3 3b 3e
       -0.107564814 0.005614141 0.13825113 0.18336107
000180 a4 e1 f7 bd b6 f3 ad be 1f 29 fb 3d 64 da f6 bd
       -0.121035844 -0.33975 0.122637026 -0.120533735
000190 c9 6f 86 3d 85 3c 26 be 05 78 91 3d a0 31 94 bd
       0.0656429 -0.16234024 0.0710297 -0.07236028
0001a0 d2 88 a7 bd 05 97 de 3d c9 64 12 3e 88 28 67 3d
       -0.08180393 0.108686484 0.14296259 0.056435138
0001b0 4f 56 67 3d 76 bd 1b 3c a5 f5 85 3c ba 58 1c be
       0.056478795 0.00950562 0.016352484 -0.15268221
0001c0 b7 4f b5 3e 74 9c 1f be d9 39 1f be 4d 83 f3 bd
       0.3541238 -0.15587026 -0.15549411 -0.11890278
0001d0 6a f8 3d 3e 1a 09 38 be a4 b1 89 3d 7b f2 a3 3d
       0.18551794 -0.17972222 0.067233354 0.08005234
0001e0 94 4d ce 3e cd 0d af 3d 32 1e f5 bd f4 01 db bd
       0.40293562 0.08547554 -0.1196865 -0.10693732
0001f0 40 8b 10 3e 24 fc 12 3e cb 63 45 3d 49 60 46 3e
       0.1411562 0.14353997 0.048190873 0.19372667
000200 8a 67 16 3d ae 7f 34 be 40 18 85 3d 30 05 92 bc
       0.036719836 -0.17626831 0.06498766 -0.01782474
000210 68 dd 45 be a6 03 25 3d 73 2e 23 bd f5 1c e9 3d
       -0.19322741 0.040286683 -0.03983922 0.11382476
000220 94 80 03 bc 16 70 75 bd 6a 3b 0f bd e2 3f 81 3d
       -0.008026261 -0.059921347 -0.03496877 0.06311013
000230 a7 60 0c be f0 01 8b 3c e7 e0 a4 bd 69 23 5a be
       -0.13708745 0.016968697 -0.08050709 -0.2130257
000240 03 2c 08 be bd eb 2b be 41 91 88 bd 7f f7 b7 bc
       -0.13298039 -0.16789146 -0.0666833 -0.022456883
000250 20 85 e4 3d 8b e4 dd 3b 2d 1a 0a bc 7b ee 12 3b
       0.11158204 0.006771629 -0.008429092 0.0022419977
000260 e3 ba bd bb 7c 10 02 be 53 3e 4c be 60 80 5a bc
       -0.005790101 -0.12701601 -0.1994565 -0.013336271
000270 39 2b 41 bd 15 8d c5 bd 75 eb f7 38 15 82 0e bf
       -0.04716036 -0.0964605 0.00011821735 -0.5566724
000280 2a a7 5e 3e 67 4b 64 3e 15 32 c3 3d 12 ea 33 be
       0.21743456 0.22294389 0.09531037 -0.1756976
000290 01 8e 22 be 77 4f 42 3e ca b1 48 3e 19 01 16 3d
       -0.15874483 0.18975626 0.19599071 0.03662214
0002a0 e8 87 45 bd ae 43 07 be 36 2d ff 3c 4a 3e 0c 3e
       -0.048225313 -0.13209412 0.031149488 0.13695636
0002b0 29 24 c8 bd 04 72 d1 3d 63 95 03 3e 01 91 4e bc
       -0.09772522 0.10226825 0.12849955 -0.012607814
0002c0 45 d7 47 3e 7c d7 9f bd 81 5a f3 bd 09 40 00 be
       0.19515713 -0.07804772 -0.118824966 -0.12524427
0002d0 7b 94 99 bd 71 02 9f 3d 57 2e 51 bc 72 a2 80 be
       -0.074990235 0.077641375 -0.012767396 -0.25123936
0002e0 d4 9b 24 3e c9 af f7 bd 6c 50 a1 be 38 1d dd bd
       0.16075069 -0.12094075 -0.3150667 -0.10796589
0002f0 7f f9 05 3e fe f9 f0 bc 46 30 a8 3d 7d 76 4a 3e
       0.13083456 -0.02941608 0.082123324 0.19771762
000300 c6 4e 11 3e 8f 60 ba 3d 28 ae d5 bd 23 00 6c be
       0.14190206 0.09100448 -0.10433608 -0.23046927
000310 df b4 86 bc cd ce 31 3e d2 c0 52 3e be 23 2b bc
       -0.016443668 0.17364044 0.20581368 -0.010445533
000320 23 ce c4 bb 48 07 0e be b1 81 48 be 4e f8 cf bb
       -0.0060060187 -0.13869965 -0.19580723 -0.006346739
000330 38 8e 8a 3d dc 32 e3 3d c1 da 0f be 0e 4f 8d 3d
       0.06765407 0.11093685 -0.14048292 0.06899844
000340 ab 2b 0e bc 1f 8b c5 bd a1 a0 88 3e a6 7b 95 bd
       -0.008677403 -0.09645676 0.2668505 -0.07298975
000350 51 a0 0c 3e 11 5d 35 3d 03 4b 6f be 36 d5 97 3e
       0.13733031 0.04427821 -0.23368458 0.29654855
000360 3e 20 5c bd e5 5c 0e 3e 76 56 a8 bb 21 b7 54 be
       -0.053741686 0.13902624 -0.00513726 -0.20772983
000370 38 1a 82 3e 12 85 7f bd c6 ce a7 bc e5 a8 5d 3d
       0.25410628 -0.062382765 -0.02048434 0.05411615
000380 a8 bb 26 3d e6 77 15 be c7 07 cb 3d 19 df e7 bd
       0.040706307 -0.14596519 0.09913593 -0.113218494
000390 21 f5 f9 3c e1 07 93 3d f8 ef 63 bd f5 4e ff bc
       0.030512394 0.07179237 -0.055648774 -0.03116558
0003a0 a2 ec 3b be 15 17 41 3c 2c 05 20 3e e9 05 70 be
       -0.18351987 0.011785288 0.15626973 -0.23439755
0003b0 b5 5d 0f be e9 aa f3 3c 9c e9 10 3e 31 fe 00 bd
       -0.1400059 0.029744582 0.14151615 -0.031492416
0003c0 a5 28 62 3e 49 fe 2e 3e 0b fa e9 bd eb 51 55 3e
       0.22085817 0.1708919 -0.11424645 0.2083203
0003d0 a7 59 26 be 86 f2 1a bd 08 b5 04 3d 3c 9c bf bc
       -0.16245137 -0.037828945 0.032399207 -0.023389928
0003e0 7c e3 cf bd 12 24 e9 3d 2e 30 8e bd 75 4f a1 3d
       -0.10150811 0.11383833 -0.06942783 0.07876483
0003f0 ec a0 fa 3d d4 38 c2 bd 90 a6 81 be f6 e4 44 3d
       0.12237725 -0.09483495 -0.2532239 0.048069917

encoder.net.5.bias f4 [32]
000000 33 88 27 bd 33 c6 40 bd 72 9c e5 3c a9 bb 4c bd
       -0.040901374 -0.047064018 0.0280287 -0.049983654
000010 fb 3c 17 bb 62 dd 71 bd 7c 7e e7 3c ab de 33 bd
       -0.0023077119 -0.059049018 0.028258555 -0.043913525
000020 e8 9f 2c bd 9f b8 93 3d 9a fd 44 3d 01 a6 88 bd
       -0.042144686 0.07212948 0.048093416 -0.06672288
000030 a8 ae 8e 3d 85 77 71 3d 51 81 5c bd 09 97 88 3d
       0.06966907 0.058951873 -0.053834263 0.06669433
000040 c3 62 51 bd 70 ae 43 3d dd e9 33 bd b9 0c 36 3c
       -0.051119577 0.04777378 -0.0439242 0.011111432
000050 ab 0f c5 bb 0b cc 65 bd 65 7a 4a bd ee 54 0c bd
       -0.0060138307 -0.056102794 -0.04943313 -0.034260683
000060 da 80 a4 bd c1 6c 43 bd a0 a4 b1 3d 1a 6b 0e bd
       -0.08032389 -0.047711138 0.08673978 -0.03477011
000070 2f 9b 5c 3d 03 cd 27 bc c8 5f 42 bd 18 80 a2 3d
       0.053858932 -0.01024175 -0.047454625 0.07934588

predictor.net.1.weight f4 [32, 32]
000000 7b fa aa bd 92 a1 7f bd c9 56 c5 bd 24 89 47 bc
       -0.083485566 -0.062409945 -0.096356936 -0.012178693
000010 a1 88 e0 bc 69 14 00 bc 9b 04 66 3e 90 da 7a 3e
       -0.0274089 -0.007817366 0.22462694 0.24497437
000020 a2 17 73 3d 6b 8c ec 3c 52 b7 a8 3d 33 00 a8 bd
       0.05934871 0.02887555 0.082380906 -0.08203163
000030 72 df 4d 3d 0a 9a 8c bd 5c 33 da 3b 82 d8 65 be
       0.050261922 -0.06865318 0.0066589545 -0.22445872
000040 78 03 57 3e 3c 44 62 3e c1 98 64 3e f8 5e ec 3d
       0.20997417 0.22096342 0.22323896 0.11541551
000050 4e 41 15 be 9d fe a5 bc f3 a9 31 bd 87 61 81 3d
       -0.14575693 -0.02026301 -0.043374967 0.0631743
000060 38 b2 5f 3e 4c 12 59 3e ac 14 df 3c aa 14 8d be
       0.21845329 0.21198386 0.027231537 -0.27554828
000070 97 b4 2c be 9d 03 a7 bd 2b 66 21 3d f7 32 d3 3d
       -0.16865765 -0.08154986 0.039404076 0.10312455
000080 83 18 af bd 2d 4c 8a be 7b 44 2c 3e 7f f1 9b bd
       -0.08549597 -0.27011243 0.16822998 -0.07614421
000090 d0 0f c6 bd 37 de b8 3e de da 09 3e 92 c0 44 be
       -0.09670985 0.36107036 0.13462397 -0.19214085
0000a0 38 78 18 be 90 9e 61 3e bb cf 79 3d ca 42 e8 3d
       -0.1488961 0.22033143 0.060989123 0.11340864
0000b0 0d b0 10 bd fc 3e a3 3c d7 67 49 3e 29 76 9d 3d
       -0.035324145 0.019927494 0.19668518 0.07688553
0000c0 b2 19 84 be f6 81 13 be 82 16 2a be 3c 44 d9 3c
       -0.25800854 -0.14405045 -0.16610149 0.026521794
0000d0 e3 00 f6 3e 57 ae 6b bd 48 ba 9d bd 55 a1 b4 3d
       0.48047552 -0.05753931 -0.07701546 0.08819834
0000e0 87 dd f2 bd 3d a3 98 3d 83 2b ce bd 8a 6f ed bc
       -0.11858659 0.0745301 -0.10066893 -0.02898385
0000f0 1c 7e d8 3c a2 c3 4a bd 59 82 97 bd 2d e9 a6 be
       0.026427321 -0.049502976 -0.07397909 -0.32599774
000100 b6 61 84 3e 20 cb 4b 3e 1a e6 05 be 64 df 13 bd
       0.25855798 0.19901705 -0.13076058 -0.036101714
000110 05 20 1a 3c 15 dd ed 3e b2 c2 5a be 56 de 38 3e
       0.009407048 0.46457735 -0.21363333 0.18053564
000120 10 a0 2e 3e 77 a2 a2 bd 97 c0 1b 3d 46 b9 96 be
       0.17053246 -0.07941144 0.038025465 -0.29438227
000130 92 ec ed bd 3a ee 70 bd 70 76 93 bd 89 a1 a3 3e
       -0.11617388 -0.05882094 -0.072003245 0.3195918
000140 b3 7f 38 3e d5 76 b4 be 41 be e5 3d 29 5e 3f 3e
       0.18017463 -0.35246912 0.11217929 0.18688263
000150 33 3a ee bd ac e6 d2 bc a3 dc 04 3e d9 e2 af bd
       -0.11632194 -0.025744759 0.12974791 -0.0858819
000160 e0 9b 5a 3d c5 ee 20 3e 2d aa 11 3e 25 b7 62 be
       0.05337131 0.15716083 0.14225073 -0.22140177
000170 e6 15 15 be c1 d6 fc 3c ef dc 78 bc 49 ed 2f bd
       -0.14559135 0.030864121 -0.015189393 -0.042950902
000180 e3 65 1e be 6a fe 28 bc f3 b3 0d be 53 45 bf bd
       -0.15468554 -0.010314563 -0.13838176 -0.093393944
000190 f2 e2 ec 3d aa 8c fb bb d8 c5 90 be 04 39 b1 bd
       0.11566724 -0.0076766806 -0.28275943 -0.08653453
0001a0 d9 32 28 be 56 9b 4b 3e a8 d2 11 be dc 29 03 be
       -0.16425647 0.19883475 -0.14240515 -0.12808937
0001b0 3f 5a 97 3d 3b 57 34 be 68 e9 91 3e 44 68 df 3d
       0.0739026 -0.17611401 0.28498387 0.10908559
0001c0 78 94 c6 3e 78 e9 fd 3d 68 69 65 be 93 db 0d 3e
       0.38785148 0.12398046 -0.2240349 0.13853292
0001d0 6b 8e 75 be b6 52 e3 3d b4 8f 2d 3e 0d 39 0c bd
       -0.2398011 0.1109976 0.1694935 -0.034234095
0001e0 8b 4d 65 bd ca 78 cd 3d e2 bd e0 bd c9 d7 1a 3d
       -0.055982154 0.10032804 -0.10973717 0.037803445
0001f0 9b 48 ae bc ac 1a 13 3e 22 2f 2d be 13 db 70 3c
       -0.021274855 0.14365643 -0.16912511 0.014700669
000200 1d cf 7b be 09 79 dd bd 84 6d 34 bd aa c1 b5 bd
       -0.24590726 -0.10814101 -0.044049755 -0.08874829
000210 5f 96 bc 3d de 55 12 3d 18 07 66 be 1e fb ef 3a
       0.092083685 0.03572642 -0.22463644 0.0018309092
000220 76 a3 dd be ce a6 aa 3d 84 db b0 3d ab f6 34 3e
       -0.43288773 0.08332597 0.08635619 0.17672221
000230 20 19 98 bd 75 b9 06 3e f3 7c 2e 3d 14 40 44 bd
       -0.07426667 0.13156684 0.04259963 -0.047912672
000240 fb d2 47 bc 2a e1 c6 3d 44 00 23 3e 78 41 49 3e
       -0.012196298 0.097109154 0.1591807 0.1965388
000250 86 de 91 3c e1 10 82 bd c5 7f 39 3d f2 02 a9 be
       0.017806303 -0.06350876 0.045287866 -0.3301006
000260 69 cc 3b 3d e3 ea 59 bd 3e 53 17 3e f3 10 7a 3e
       0.045849238 -0.05320252 0.14777848 0.24420528
000270 f4 94 92 3d 9b 4c 6c bd a2 2c 34 bd 1a cc 98 bc
       0.07157317 -0.057690244 -0.043987878 -0.01865201
000280 6b 35 1e be eb c8 a8 bd 09 b5 9e 3d 7d 18 43 be
       -0.15450065 -0.08241447 0.077493735 -0.1905231
000290 00 d2 b6 3e be 9e 1b be 2e fa 1f 3e d2 b1 df 3e
       0.35707092 -0.15197274 0.1562278 0.43690354
0002a0 fe 3b 1c be ef 4f 7a bd 6f 9d cb bc 03 7a 43 be
       -0.1525726 -0.061111387 -0.024855344 -0.19089513
0002b0 04 4d 2e 3d 29 7b 0b 3e e2 d5 af be e9 ef b3 bd
       0.042553917 0.136212 -0.34342867 -0.087859936
0002c0 44 06 ca 3d fe 18 6e be ab 40 3a be bd 39 f4 bc
       0.09864476 -0.23251721 -0.18188731 -0.029812688
0002d0 3c 41 78 be b9 2c 19 be 53 77 10 bd 44 a3 71 3d
       -0.24243635 -0.14958467 -0.035270046 0.058993593
0002e0 65 ba af 3e ce 3d 8d be 72 9b 23 3d 0d fe c3 3d
       0.34321895 -0.27586216 0.039943166 0.09569941
0002f0 ac 01 84 3e 4c 3f 11 3e cd 3a 2c 3e c6 a8 d7 3d
       0.25782526 0.14184302 0.16819306 0.10530238
000300 15 3a f5 bc 9e f5 73 be b9 a6 ba be da c4 59 be
       -0.029934922 -0.23824164 -0.36455324 -0.21266499
000310 9a f2 28 3e 24 36 b1 bd 48 e4 11 bc f9 0e be 3c
       0.16498795 -0.08652905 -0.008904524 0.023200499
000320 a9 ac 46 3d d7 b5 d6 3d a7 f3 f9 3d 70 c5 e5 bc
       0.048504505 0.10483902 0.12204676 -0.028048247
000330 ec 7e bd 3e e1 c9 83 3e cf f5 46 3d 08 99 a2 bc
       0.37010896 0.2573996 0.048574265 -0.019848362
000340 ec 52 40 be 51 df 5f 3e fc 8d c0 bd ca 05 66 be
       -0.18781632 0.21862532 -0.09402081 -0.22463146
000350 2a 8c 8b 3e 2a 3f a3 bd ec db 2a be d0 6c 37 bd
       0.27255374 -0.07971032 -0.16685456 -0.044781506
000360 7a f3 87 3d 9b cd ac bd b2 22 ee bd 6e 56 a1 3c
       0.06638236 -0.08437654 -0.11627711 0.019694533
000370 59 45 c9 3d 23 4b 60 bb db e8 90 bd d6 63 81 3d
       0.0982768 -0.0034224472 -0.07075664 0.0631787
000380 e7 39 dc 3d 20 73 c9 bd 78 e0 ff 3d a7 2a 03 3e
       0.107532315 -0.098364115 0.12493986 0.1280924
000390 cf 8f dd 3d 15 70 7f 3e 51 61 47 be 48 99 50 3d
       0.10818445 0.249451 -0.19470717 0.05092743
0003a0 bb e4 1e 3e dd 88 97 3d 42 8d b6 3d b6 5d 4f bb
       0.15516941 0.073991515 0.089136615 -0.003164155
0003b0 44 b8 8d bd 04 80 b1 bd e4 8a 78 3e 10 67 39 ba
       -0.069199115 -0.08666995 0.24271733 -0.00070725475
0003c0 37 3e 08 be 64 4d b3 bd 96 dd c5 3e d5 5b 2f 3e
       -0.13304983 -0.087549955 0.3864562 0.17124875
0003d0 61 77 f6 bd 96 6f 31 3e b9 d0 30 3e 5c ce 49 3c
       -0.120344885 0.17327723 0.17267121 0.012317266
0003e0 f2 8b 94 be ce 78 ea bd e1 db c3 3e 55 59 ba 3e
       -0.2901302 -0.11448823 0.38253692 0.3639628
0003f0 00 ca 5a 3c d1 39 22 3e a4 89 ae 3e aa 94 12 3b
       0.013353825 0.15842368 0.34089386 0.0022366443

predictor.net.1.bias f4 [32]
000000 fa 9f 9e bd b2 c1 a7 bd d1 e1 b9 3d 5e 3e 9f 3d
       -0.07745357 -0.08191241 0.09076274 0.077755675
000010 1a a2 a3 3d c7 62 bf bd e6 62 b2 bd 14 f0 c9 3d
       0.07989903 -0.09345012 -0.0871027 0.098602444
000020 cb 8a 9e bd 74 cf 94 3d fc f5 8b 3d 6d 38 c2 bd
       -0.077413164 0.07266131 0.06834027 -0.094834186
000030 70 4a a6 3d 0d 72 9c 3d 42 78 b9 bd fb bf a1 3d
       0.081196666 0.07638941 -0.090561405 0.078979455
000040 69 17 9b bd 4a eb a0 bd 19 6d 90 3d f5 3a 56 bd
       -0.075728245 -0.07857378 0.07052059 -0.05230232
000050 13 dc 9b 3d 10 d7 ad bd 6c df 8c 3d ce 0a a0 3d
       0.07610335 -0.084882855 0.06878552 0.07814561
000060 de 9d 72 bd e6 ef 9b 3d 94 c7 a0 3d 6d 98 9a bd
       -0.059232585 0.07614116 0.078505665 -0.07548604
000070 71 72 99 3d 85 de 99 bd bc e5 9e bd 49 a5 8f bd
       0.07492531 -0.07513145 -0.07758662 -0.070139475

predictor.net.3.weight f4 [1, 32]
000000 0b 27 26 bf a3 66 c7 bc 7b b7 66 3e 19 fe 77 3e
       -0.64903325 -0.024340933 0.2253093 0.24218024
000010 c6 7d a3 3e 98 15 60 bc b7 1f 0c be ac 23 99 3c
       0.31931895 -0.013677023 -0.13683973 0.018693767
000020 b1 30 1e be e8 c9 20 3e e7 10 0e 3c 49 0a ad bd
       -0.15448262 0.15702021 0.008671022 -0.08449227
000030 83 3a d3 3e 1a 1f d6 3e 0e 9e d0 bd 9a cd 19 3f
       0.41255578 0.41820604 -0.101863965 0.6007935
000040 22 3c 3f be c2 d8 34 be ed 4e d7 3c 98 82 8f 3c
       -0.18675283 -0.17660812 0.026282752 0.017518327
000050 6b 12 1a 3e 7f 66 88 be 30 5a 99 3b 52 47 38 3e
       0.15046088 -0.26640698 0.0046799406 0.17995957
000060 a2 a1 7d bc b7 c3 9f 3d 5b fd 3a 3e b1 32 3d be
       -0.015480431 0.078010015 0.1826071 -0.18476368
000070 19 55 03 3e f0 ea c6 bd 12 d5 d4 be 57 e1 12 bd
       0.12825431 -0.097127795 -0.4156881 -0.035859432

net.0.weight f4 [60, 35]
000000 77 13 54 be 98 a7 2a 3c ba a0 a6 bd 85 21 ef bc
       -0.2071055 0.010415934 -0.08136125 -0.029190788
000010 1f 0a 1b 3e f2 16 15 3c b4 4a 6f bc 72 d6 94 3d
       0.1514058 0.009099709 -0.014605213 0.07267465
000020 7b 23 1c be ec 90 9b bd 24 1d 92 bd 3e 46 a0 3d
       -0.1524791 -0.07596001 -0.071344644 0.07825898
000030 93 7d 59 bd b3 80 d6 bd e5 a0 8d 3d ac 03 ae bd
       -0.053098273 -0.10473766 0.06915454 -0.08496794
000040 ef 67 4b 3d 5d cc c6 3d e7 96 44 3d 93 81 c4 3e
       0.049659666 0.09706948 0.047995474 0.38380107
000050 47 26 64 3e c9 6d ed bc 27 0b 4d be f4 24 fc be
       0.22280227 -0.028983014 -0.20023786 -0.49246943
000060 7d 40 30 bd b1 ea 55 be f6 ca 7f bd a9 bf 4e 3c
       -0.04303025 -0.20890309 -0.062449418 0.0126189375
000070 ee ad 95 3d 68 40 c8 3d 88 64 74 3d a3 a0 54 3e
       0.07308565 0.097779095 0.059666187 0.20764403
000080 27 03 21 bd 4d ef 92 be 3a 34 cf bd 91 94 df bc
       -0.039309647 -0.28698197 -0.10117383 -0.027292522
000090 f3 2b f3 3c 68 60 ac be cd 0a f3 bd 93 66 07 3e
       0.029684043 -0.33667302 -0.118672945 0.13222723
0000a0 3a d0 08 3e a1 72 8c 3e 07 df 86 bd 98 38 31 3e
       0.13360682 0.27431205 -0.06585508 0.17306745
0000b0 b0 8d 63 3a dd 93 d5 bd 1d 4e cd 3d 09 80 1e be
       0.0008680476 -0.10428593 0.100246646 -0.15478529
0000c0 e6 c5 97 bd 69 c9 16 be c5 d4 06 be ff 02 4f be
       -0.07410793 -0.1472527 -0.13167103 -0.20215987
0000d0 a8 8b 24 3e 27 86 55 be d1 62 b5 3d c5 4e 86 3d
       0.160689 -0.20851956 0.08856738 0.06557993
0000e0 5d 7e 50 be 61 d7 81 bc 1e 9f 69 bd b5 b8 3c 3d
       -0.20360704 -0.015849771 -0.05703651 0.046074588
0000f0 c4 53 05 be 5e ed 2f be 3f 59 85 bd 31 1d 95 bd
       -0.13020235 -0.17180392 -0.06511163 -0.072809584
000100 8a 41 29 3d 2a 15 32 be d3 84 4c be 9f 8d 2c 3d
       0.04132227 -0.17390886 -0.19972543 0.042127248
000110 94 8f 3d bd 11 23 8a bd 10 67 cd 3d 65 e8 49 be
       -0.046279505 -0.0674497 0.10029423 -0.19717558
000120 31 f9 8f bd d2 94 b4 3d a6 8a b6 bd 94 f6 9f bd
       -0.07029951 0.08817448 -0.08913164 -0.07810703
000130 a5 b3 11 3e 99 62 a4 3d e8 e2 68 3d 0f df 07 3e
       0.14228685 0.080266185 0.05685702 0.13268684
000140 42 ff b2 3c 14 6e 5e 3e ae a5 6e 3e 58 3c 29 bd
       0.021850232 0.21721679 0.2330539 -0.041317314
000150 7f f2 cc bd 85 08 e2 bd d2 7b b5 bd 12 61 39 3e
       -0.1000719 -0.11036781 -0.088615075 0.18103436
000160 01 d8 91 3e 34 c2 8b 3e 94 3b 3e be 0e b5 48 be
       0.2848511 0.27296603 -0.18577415 -0.19600317
000170 e2 fd 49 3d 2c e2 9c 3d d1 75 bc 3d f3 e7 66 3d
       0.049314387 0.07660326 0.09202159 0.056373548
000180 c0 39 b4 3e 68 b7 32 bd b9 f5 61 bd c8 8c b9 3e
       0.3520031 -0.04363194 -0.05516598 0.3624022
000190 2a e4 cc bd 7f ca 6b be 51 be 41 3d ff 33 6a 3c
       -0.10004456 -0.23026465 0.04730064 0.014294623
0001a0 55 1a 99 3e 2b ef 67 3c db 32 47 bd 34 a2 3e bd
       0.29902902 0.014156143 -0.048632484 -0.046541408
0001b0 79 fe fa ba 9b 16 22 3e 68 46 d7 3d 97 ea 32 3e
       -0.0019149325 0.15828936 0.10511476 0.17472301
0001c0 7b ce 8f 3e df 87 e9 3c 9c fa d9 bc cc 71 1c be
       0.2808722 0.028507171 -0.026608758 -0.15277785
0001d0 3b 11 7e 3d 2b 3f 8d be 0a 7e 42 3e ee 32 5a 3e
       0.06202815 -0.27587256 0.18993393 0.2130849
0001e0 3e 9d fb 3d 96 ba a5 3d 1e b7 0d bd 66 78 5f 3d
       0.12285851 0.08092229 -0.034598462 0.05455818
0001f0 cc f1 d2 bc d9 46 02 3d 98 38 b7 bd 2b 43 79 bd
       -0.025750063 0.031805847 -0.08946341 -0.060855072
000200 78 a7 31 3e ea 3e 71 3d 96 0c 7b bc 5c 07 d6 bd
       0.1734904 0.05889789 -0.015322825 -0.104506224
000210 6c 69 2d 3e 84 f1 27 3c 44 c9 0d be 1a 5c fc 3d
       0.16934747 0.010250453 -0.13846308 0.123222545
000220 b3 35 05 be 81 99 25 be af 70 03 bd 6a f5 cd 3d
       -0.13008766 -0.16171838 -0.032089885 0.10056575
000230 cf 79 53 bd c8 dd 1f be bc ec 17 39 a7 6b 5e 3e
       -0.051629838 -0.15611947 0.00014488673 0.21720754
000240 00 22 bc bc f1 2f 43 be 96 3c 49 be 34 8c 62 3d
       -0.022965431 -0.19061257 -0.19652018 0.05530949
000250 10 be 36 3e 8b 15 f5 bc 1d 8a 18 3d 6f e6 89 3e
       0.1784594 -0.029917499 0.03724109 0.2693362
000260 50 1f 98 bd 82 d8 ae 3d 48 79 74 3e e9 60 7a bd
       -0.074278474 0.08537389 0.2387439 -0.061127577
000270 7d 3c a2 be 96 b9 9e be 54 da a8 3d 8a d1 08 3d
       -0.31686774 -0.31000966 0.08244768 0.033402957
000280 62 bc b3 bd 52 04 3b be 7d 02 1f 3e d0 d4 72 3b
       -0.087761655 -0.18263367 0.15528293 0.0037053116
000290 0d 4c 0f bd d9 24 0c 3e 22 c5 80 3d 78 fa c9 bd
       -0.034984637 0.13685931 0.062876 -0.09862226
0002a0 6e 04 a6 3c e7 50 cc 3d 08 76 16 3d 24 b5 95 bd
       0.020265784 0.099763684 0.036733657 -0.073099405
0002b0 8e 5e 1a 3e 99 d6 4d 3d a3 f0 db bd c3 d4 73 bc
       0.15075132 0.050253484 -0.10739257 -0.014882269
0002c0 70 a6 13 be 30 5a e1 bd 11 12 33 be 4b 15 7f bc
       -0.1441896 -0.1100353 -0.1748736 -0.0155690415
0002d0 45 46 59 3e 41 a9 52 be 01 11 ec 3d 9c 7e dc 3d
       0.21218212 -0.20572378 0.11526681 0.10766336
0002e0 8f 54 2b be f4 54 f6 3c 98 ec 5a 3d a8 5f 23 be
       -0.16731475 0.030069806 0.05344829 -0.15954459
0002f0 2d eb 24 be b3 36 ab bd 7c c2 3b 3d 5c e6 8d 3d
       -0.16105337 -0.083600424 0.04583977 0.06928703
000300 cb 2c 80 be 90 61 fb 3d 12 0d e7 bd c3 58 c3 3d
       -0.25034174 0.12274468 -0.1128179 0.09538414
000310 9f 46 d4 3b 1f c5 db 3b de ed 03 3e e3 da 7e 3e
       0.0064781453 0.0067068483 0.12883708 0.24888186
000320 5e 2e cc 3e b3 04 56 3b bb 52 aa 3e 7a 11 55 3e
       0.39879125 0.003265661 0.33266243 0.20807448
000330 42 08 e0 bc ba 71 11 3e c2 10 d1 bd 5f 37 c7 bd
       -0.027347688 0.1420354 -0.102082744 -0.09727358
000340 24 f2 6b 3e 25 8b 7c 3d 65 51 e2 bc 93 6c 27 be
       0.23041588 0.061656136 -0.027626703 -0.16350012
000350 1a ec c2 3c a8 b8 97 3d 33 32 75 3e e4 47 d2 3c
       0.023794223 0.07408267 0.2394493 0.025669046
000360 05 f1 a3 3c 0a 0d 5a 3e d8 69 51 be b1 f5 20 bd
       0.020012388 0.21294037 -0.20450532 -0.03929681
000370 f4 8f e3 bd f5 90 9d 3e e8 bf af 3d fb d7 32 3d
       -0.11111441 0.30774656 0.08581525 0.043663006
000380 ad bb 16 be 01 65 65 bd 9e 76 dc bd ae c5 e3 3c
       -0.1472003 -0.056004528 -0.10764812 0.027804222
000390 07 e4 6d bc eb da 83 be c8 10 64 3e f6 2c 0f 3e
       -0.014519698 -0.2575296 0.22272027 0.13981995
0003a0 ee b6 38 3d 69 9a 67 bd bf 4b c5 be 96 a3 ad 3d
       0.04509633 -0.05654374 -0.38534352 0.08478467
0003b0 79 c5 a2 bd 16 cf 04 be 23 3f 9e be bb 6a 5a 3e
       -0.07947821 -0.12969622 -0.30907544 0.21329777
0003c0 dc d3 94 bd 7f 61 2a bd be b7 8c bd 24 8d 5c 3e
       -0.072669715 -0.041596886 -0.068709835 0.21538216
0003d0 f3 aa d5 3d 96 fb 78 bd 22 0a 25 3e 8a 73 2f 3e
       0.104329966 -0.060786806 0.16117147 0.17133918
0003e0 55 c0 b0 be ff c8 48 3e 07 9a 11 3e 52 4f 08 3e
       -0.34521738 0.19607924 0.14218913 0.13311508
0003f0 58 d4 f9 3d 8f 22 12 3d f4 6e 8c 3a 11 bc e7 bd
       0.121987045 0.03567749 0.0010714219 -0.11315168

net.0.bias f4 [60]
000000 ff fb 25 bd b2 b7 1d 3e 9d 5b 35 be 66 0d d7 3d
       -0.040523525 0.15402105 -0.17710729 0.105006024
000010 c9 ec 61 bd 50 a6 22 3d c3 3d 28 be 53 33 7f 3c
       -0.055157457 0.03970939 -0.1642981 0.0155762015
000020 38 45 94 bd 4d 84 bb bc f9 a8 8d bb 75 8e b2 bd
       -0.07239765 -0.022890234 -0.0043231216 -0.08718578
000030 c7 a3 d8 3c e6 91 c0 3c 99 1c 1b 3c 2e eb 02 3e
       0.026445283 0.02350707 0.009467267 0.12785026
000040 3e f0 b5 bc 0e 17 4c 3d 75 8a 13 3e 5d 7e f7 3c
       -0.022209283 0.049826674 0.14408286 0.030211622
000050 30 4a f2 3c 04 87 10 be e4 5d 01 bd 44 b3 c2 3d
       0.029576391 -0.14114004 -0.03158368 0.095068485
000060 04 72 14 3e 26 d8 07 3e 5e cd 3d bc 69 0c 45 3d
       0.14496619 0.13266048 -0.011584608 0.04810754
000070 c5 c8 96 3d eb d7 63 bd 17 70 36 bd b1 9e a5 3d
       0.073625125 -0.055625837 -0.04454049 0.080869086
000080 cc 59 10 3e e8 96 ab bd 08 c2 28 3d 84 52 11 3e
       0.14096755 -0.083783925 0.041200668 0.14191633
000090 48 13 b9 bd 47 55 b1 bd ec 3a b7 3c dd 7e df 3d
       -0.09036881 -0.086588435 0.022366963 0.10912869
0000a0 35 d7 ce bd 1d d6 14 3c 2a 2c 44 bc ee 24 33 be
       -0.10099641 0.009084252 -0.01197342 -0.17494556
0000b0 3a b6 91 3b c6 2b 04 3e 28 db 02 3c fd 1d 13 be
       0.004446772 0.12907323 0.007986821 -0.14366908
0000c0 6e 4c bf bc b8 35 34 3e 03 6e d2 bd 8c c0 bf 3d
       -0.023351874 0.17598617 -0.10274889 0.09362897
0000d0 3a 69 4a 3d 04 c6 8a 3c bd 61 0a 3e 92 68 2e be
       0.049416758 0.016940124 0.13513847 -0.17032078
0000e0 b3 ab fc bd 38 11 2a be a1 f5 f6 3d e9 4b d9 bd
       -0.123374365 -0.16608131 0.12058569 -0.10610182

net.2.weight f4 [60, 60]
000000 18 5d e6 bc 71 25 53 3c 3a 6b 60 be 54 eb 7e 3c
       -0.028120562 0.012887345 -0.21915904 0.015559036
000010 53 21 34 3e 01 f3 3c be da 8a 33 bd 6d 10 47 3e
       0.17590837 -0.18452074 -0.04383359 0.1943986
000020 37 41 28 3e ab 5d 42 3e ca 2e 1c 3d f9 5b 7d bd
       0.16431127 0.18981044 0.03813056 -0.06185529
000030 07 e7 9e 3d 08 b5 9c 3d ad dc 3a be 04 61 89 3d
       0.07758909 0.076517165 -0.18248244 0.067079574
000040 d9 33 79 bd 16 4b f8 bd 00 bf 19 3e 5c 8d 10 bd
       -0.06084046 -0.121236965 0.15014267 -0.03529106
000050 3e 40 df 3d dd 41 9a 3d 74 5b f4 3d 38 d5 16 bd
       0.10900925 0.07532094 0.11931506 -0.036824435
000060 d0 02 46 3a ad 26 91 3e a0 a4 a6 3c 9c 23 f0 bc
       0.00075535197 0.2834982 0.020342171 -0.029313855
000070 d2 59 4c be 5f b1 3a be fe 34 cf bd 12 8a a0 3d
       -0.19956139 -0.18231724 -0.10117529 0.07838835
000080 c3 ab 08 3d 17 7b 36 3c b8 94 11 be a9 2a 0f bc
       0.03336693 0.011137745 -0.14216888 -0.008738198
000090 79 27 c9 bc 65 00 26 be 51 c7 5f be 9e 33 38 bd
       -0.024554955 -0.16211088 -0.21853377 -0.0449711
0000a0 5d b3 46 3d 80 37 f6 3c b5 36 99 3d 8b cd 94 3e
       0.048510898 0.030055761 0.07481138 0.29063067
0000b0 b4 58 20 be 80 16 c4 bd eb 6e a3 be 2b db da 3d
       -0.15658838 -0.09574604 -0.3192056 0.10686334
0000c0 3b 68 be bd 9e 3f 13 3e 84 35 ea bd 7b d1 63 3d
       -0.09297224 0.14379737 -0.114359885 0.055619698
0000d0 0f ae d3 bd b4 21 db 3c 80 46 4d 3e 86 67 2a be
       -0.103359334 0.02674947 0.20046425 -0.16641054
0000e0 f1 28 13 bd c6 e1 4c 3e 9b b7 86 3e dd 00 0c 3c
       -0.035927717 0.20008 0.26311955 0.008545128
0000f0 cf e4 2e 3e 02 01 bd bb 40 4f 0f be d4 b0 d9 3d
       0.17079471 -0.0057679424 -0.13995075 0.106294304
000100 be 72 25 bd 0c 53 f2 bd d2 68 0b be 8b 8e 36 3e
       -0.04039263 -0.11832246 -0.13614205 0.17827813
000110 63 62 05 be dd 98 f0 bc 91 1a 99 3d 27 c4 50 3e
       -0.13025813 -0.029369766 0.0747577 0.20387326
000120 da df 05 bd 4e 11 4d 3e 02 a8 e8 bc f7 14 86 3e
       -0.032684185 0.20026132 -0.028400425 0.2618787
000130 b5 ef 5e 3e 62 a1 6b bd e5 40 fb bd 78 5b 78 bd
       0.21771128 -0.057526954 -0.12268237 -0.060634106
000140 c2 b0 cd 3c fc af ec bd ec 03 c8 bd f2 cd bc 3c
       0.025108699 -0.11557004 -0.09766373 0.023047421
000150 17 78 9e be dd b7 03 bd ae 5c b9 3d 79 e6 18 3d
       -0.30950996 -0.032157768 0.0905088 0.03732917
000160 e2 16 01 3e 67 6a be 3d c7 38 c2 bb 57 bb 92 bc
       0.12606385 0.092976384 -0.0059271785 -0.017911596
000170 71 89 a9 bd 0f fd 9d 3d 94 8e 53 be aa 15 f1 bd
       -0.08278168 0.07714283 -0.20659858 -0.1177171
000180 02 5f b3 bd ad 4f f8 bc e4 ed 4a 3e 2c 70 52 3e
       -0.08758356 -0.03031143 0.1981731 0.20550603
000190 a5 87 95 bc 99 79 0b be e1 19 e3 3d 8c d2 cb 3c
       -0.018253157 -0.13620605 0.110889204 0.02488067
0001a0 19 4a ec 3c e0 d7 93 3d 12 a4 2f 3d 0f 2f c4 bd
       0.028843926 0.07218909 0.04288108 -0.09579288
0001b0 15 da a7 bd cb ed 6e 3a d8 b4 09 3e 4f 20 9c bd
       -0.08195893 0.00091144134 0.13447893 -0.0762335
0001c0 4c 96 60 3d 1d 5d 3f be bf 5a ae bd ef ba df bd
       0.054830834 -0.18687864 -0.08513402 -0.10924327
0001d0 8a 2d 92 3d 02 98 e3 3d 3b 78 12 3e 09 c2 2e bd
       0.07137592 0.111129776 0.14303677 -0.042665515
0001e0 8e be 03 be 3e 77 34 3e f4 73 bd 3b ed 57 5e bd
       -0.1286566 0.17623612 0.005781645 -0.05428307
0001f0 ba 8c cd 3d 1a e5 ca 3c 9e bb a4 3d f4 72 15 bd
       0.10036607 0.024767447 0.08043598 -0.03648658
000200 f2 7f 21 3d 17 94 93 bd 92 bd ff 3d a6 7f 59 bc
       0.03942866 -0.0720598 0.124873295 -0.013275063
000210 54 f6 55 3d 64 63 e3 3c 10 65 27 3e cd 24 27 bd
       0.05223687 0.027757354 0.16347146 -0.04080658
000220 4c 7c 1e 3d a5 5c 25 3e 18 8e 3a 3d cb b7 21 be
       0.038692757 0.16148622 0.045545667 -0.15792768
000230 c9 ef 31 3e d6 41 30 bd 3d ce f6 3d 47 e2 60 3d
       0.17376627 -0.043031536 0.120510556 0.054903295
000240 fe de 63 be b3 6b d2 3d d3 05 2a 3e 42 67 63 3e
       -0.22253034 0.10274448 0.16603784 0.22207358
000250 15 32 91 3c 9d 1d e2 3d 81 ff 01 3e 7b bc 53 3c
       0.017724076 0.110408045 0.12695123 0.012923355
000260 50 45 46 be 7e ce 98 bd a1 53 65 bd 55 c5 95 3c
       -0.19362378 -0.0746126 -0.055987958 0.018282572
000270 ff d7 82 be a0 e8 a7 be 24 ef d7 bd 9b 70 14 3d
       -0.25555417 -0.32794666 -0.10543659 0.0362402
000280 5c 02 b5 3d 49 7e 13 3e 7e da 2e 3d 5b 88 58 bd
       0.08838341 0.14403643 0.04268884 -0.052864414
000290 78 f4 a0 bd 16 73 49 bd d6 7e 15 be 3c 7c 61 be
       -0.07859129 -0.04918202 -0.14599165 -0.22020048
0002a0 e1 6b 6d 3d af a3 c2 bd 45 83 85 3d 4c 00 b7 bd
       0.05796421 -0.095038764 0.06519178 -0.089356035
0002b0 4c 51 cc bd ce ce 1d be eb ef f0 3d d2 e6 10 3d
       -0.09976444 -0.15410921 0.11764511 0.035376377
0002c0 6a 9c 04 be ff 52 0d 3e b2 d0 c8 3d e3 c4 54 bd
       -0.12950292 0.13801192 0.098054305 -0.05194558
0002d0 96 67 a8 bb 6d da ae 3d 11 75 31 bd a3 72 ff bc
       -0.0051393015 0.08537755 -0.043324534 -0.031182593
0002e0 b1 bb 95 3d 13 5a ac bd 05 f7 4d 3d 64 77 8d bc
       0.0731119 -0.08415618 0.050284404 -0.017268844
0002f0 2b f8 28 3d b3 0f ff bd 6b 51 b9 3d ce e8 3f 3d
       0.041252296 -0.12454166 0.09048732 0.04685288
000300 bc e7 4e be 2d 1e 87 bd df 8e a9 bd 96 88 86 bd
       -0.20205587 -0.065975524 -0.082792036 -0.065690205
000310 cb 80 7a 3d 5b 4e d1 bc b4 cd 3d 3e d6 47 05 3e
       0.061157983 -0.025550058 0.18535501 0.13015684
000320 cb 36 00 3e 84 fb e2 3d 14 da f3 bd 04 40 33 3e
       0.12520902 0.11083129 -0.119068295 0.17504889
000330 2c e5 d4 bd 91 d2 50 3e 3b 67 03 3b b2 19 15 be
       -0.103952736 0.20392825 0.0020050544 -0.14560583
000340 9f c8 2b 3e 04 3f 05 3e 45 82 7e 3e 50 ee 27 be
       0.1677575 0.1301232 0.24854381 -0.16399503
000350 58 36 85 be b0 5f eb bd 72 f5 84 be a1 c0 ff 3c
       -0.26018023 -0.1149286 -0.2596851 0.031219782
000360 e6 6c 23 be 0a 9b 24 bd 2b 26 1e 3e bd ae 29 bc
       -0.1595951 -0.04018692 0.15444247 -0.010356602
000370 1d c4 91 3d 1a 8b ad bd 3d 2d 6c 3c e5 bc 07 bd
       0.07117484 -0.08473797 0.0144150825 -0.03313913
000380 56 60 0e 3e 85 cc b0 bb 7d 2e b7 bd 4d 13 59 3d
       0.13903937 -0.0053954744 -0.08944414 0.052996922
000390 99 ce 26 bc b5 2e 2f 3d 34 9f 13 3b fc af 8d 3d
       -0.010181093 0.042769153 0.0022525312 0.06918332
0003a0 72 37 3f 3b 86 3d 21 bd c5 ce e2 3c 0d e2 c4 3d
       0.0029177335 -0.039365314 0.027686486 0.09613428
0003b0 fa a9 e5 bd ef 91 7c be 2a c6 32 be 55 7b 86 3d
       -0.11214061 -0.24665044 -0.17458406 0.065664925
0003c0 c9 19 de 3d d1 62 09 3d cb 47 c1 3d a8 08 a9 bd
       0.10844762 0.033541504 0.094375215 -0.08253604
0003d0 28 71 be 3d e2 73 aa bc c3 3e 88 3d 07 a9 8c bd
       0.092989266 -0.02080721 0.06652596 -0.06868177
0003e0 59 10 d3 bc 49 52 b1 bd 6d 7d 2f be 72 8c 97 bd
       -0.025764631 -0.08658273 -0.1713769 -0.07399835
0003f0 45 3b 00 3e aa 9f 7b 3d ff 9b 9a 3d 70 a7 84 be
       0.1252261 0.061431564 0.07549285 -0.25908995
