results/PINN/XJTU results/3-3/Experiment10/model.pth (torch, 60271 bytes, 14 tensors)

encoder.net.0.weight f4 [60, 17]
0	0x3e4dbb8e	0.20091078
1	0x3e296ad1	0.16544653
2	0xbd99ce80	-0.0751009
3	0x3e450a0a	0.19242111
4	0xbd2038f6	-0.039116822
5	0x3cc93a9a	0.024564076
6	0xbd03d63c	-0.03218673
7	0x3e2fdd51	0.1717427
8	0x3e47934d	0.19489785
9	0xbc060fad	-0.008182448
10	0x3d124d21	0.035718087
11	0xbc7e0dd5	-0.0155062275
12	0x3dcb1541	0.09916163
13	0xbe474d57	-0.19463097
14	0xbd7e88f7	-0.06214234
15	0xbe61b25a	-0.22040692
16	0xbcc4ddc4	-0.024031527
17	0x3df88595	0.12134854
18	0x3ddba835	0.10725442
19	0x3e6ebf15	0.2331508
20	0xbe44d1bb	-0.19220631
21	0x3d0a9b5b	0.033839565
22	0xbe732ef4	-0.2374838
23	0xbdfcaf6d	-0.12338147
24	0xbe351f3a	-0.17687693
25	0xbc39d634	-0.011342574
26	0x3e027e4a	0.12743488
27	0x3dc1d8eb	0.09465202
28	0x3de4ae2f	0.111660354
29	0x3dd58ae8	0.10426885
30	0x3df58e5b	0.11990043
31	0x3df939fc	0.12169263
32	0x3c5b05d9	0.013368093
33	0xbd13d052	-0.03608734
34	0x3e057e41	0.13036443
35	0xbd88e30f	-0.06683933
36	0x39fc05b3	0.00048069432
37	0x3c95c47d	0.01828217
38	0x3e3531c1	0.17694761
39	0xbbb9a0a3	-0.0056649013
40	0x3d2ed7f0	0.042686403
41	0x3d9d0b5d	0.07668183
42	0xbd94c353	-0.07263818
43	0x3e1ace6e	0.15117809
44	0x3dff4fc2	0.124663845
45	0xbe19bee9	-0.15014233
46	0x3e234142	0.15942863
47	0x3e788bb3	0.24272041
48	0xbe88b004	-0.2669679
49	0xbd915707	-0.07096677
50	0xbe782f79	-0.2423686
51	0x3eaaa195	0.33326402
52	0xbdebf886	-0.115220115
53	0x3e5d9a2d	0.21640845
54	0x3e375c62	0.17906335
55	0x3d27095f	0.04078042
56	0xbdf7ea00	-0.12105179
57	0x3cfb1f9c	0.030654721
58	0xbc718a6c	-0.014742475
59	0x3e42a1ce	0.19007036
60	0xbe6dfa72	-0.23240069
61	0x3d16eac6	0.03684499
62	0xbde84b8f	-0.11342537
63	0x3e2cefb4	0.16888314
64	0xbe865ebc	-0.26244152
65	0x3e4adf16	0.19811663
66	0xbdf98f47	-0.12185531
67	0xbe41bf6b	-0.18920676
68	0x3ceaaec5	0.02864779
69	0xbe41cfdc	-0.18926948
70	0xbe31efb4	-0.17376596
71	0x3e4a817e	0.1977596
72	0xbdca3c4c	-0.09874782
73	0x3e00b97f	0.12570761
74	0xbe616670	-0.22011733
75	0xbd7f3825	-0.062309403
76	0x3e9353a0	0.28774738
77	0x3e9c0ece	0.30480045
78	0x3cb7701e	0.022392329
79	0x3daf5a07	0.08562093
80	0xbd898919	-0.067156024
81	0xbd607169	-0.054795656
82	0x3bdea3d0	0.0067944303
83	0x3c962a6e	0.018330779
84	0x3d1a90ff	0.037735935
85	0xbd0d0201	-0.03442574
86	0x3d932e5d	0.071865775
87	0xbd87d928	-0.06633216
88	0xbe25ef0a	-0.16204467
89	0xbc97981d	-0.01850515
90	0xbe7e3a95	-0.24827035
91	0xbdfbdaf0	-0.122976184
92	0xbd97e270	-0.074162364
93	0xbe79e6d6	-0.24404463
94	0xbe4c4a60	-0.19950247
95	0xbdd5bb5e	-0.10436128
96	0xbe3037da	-0.17208806
97	0x3ed26cbf	0.41098592
98	0x3cff5b1f	0.03117138
99	0x3db7dac5	0.08977274
100	0xbd86bb20	-0.0657866
101	0xbe6cf0dd	-0.23138757
102	0x3d528c1e	0.051403157
103	0xbec9f563	-0.39445028
104	0x3d2e3a3a	0.042535998
105	0x3ce0e016	0.027450603
106	0x3d4e22df	0.050326224
107	0xbd4be4e1	-0.049778823
108	0xbe75a28e	-0.23987791
109	0x3d33b72b	0.043875854
110	0xbdbb0a9a	-0.091328815
111	0x3d228de2	0.03968609
112	0xbe77ff43	-0.24218468
113	0x3e5e1ccf	0.21690677
114	0x3da64cc4	0.08120111
115	0x3d6d77f5	0.057975728
116	0xbe81c707	-0.25347158
117	0x3dfe3ff4	0.12414542
118	0xbe88d028	-0.2672131
119	0xbd8248ee	-0.063615665
120	0x3dc40e02	0.09572984
121	0xbdedec4e	-0.11617337
122	0x3d3473e2	0.044055827
123	0xbd2bdfb3	-0.041961383
124	0xbe77e45a	-0.24208203
125	0x3daf42b0	0.085576415
126	0xbd4220a8	-0.047394425
127	0xbdcbc3ee	-0.0994948
128	0x3b0a6d89	0.0021122417
129	0x3dddd5e8	0.10831815
130	0xbdfe339f	-0.1241219
131	0x3dfb847b	0.12281128
132	0x3d913b56	0.070913956
133	0xbd8404d9	-0.06446237
134	0xbe70857a	-0.23488417
135	0xbe223fe1	-0.1584468
136	0xbe4ea913	-0.20181684
137	0x3e0166f8	0.12636936
138	0x3e42ff80	0.19042778
139	0x3c9a80e1	0.018860282
140	0x3dbbb796	0.091658756
141	0xbd3fe7d8	-0.046851963
142	0xbe137b54	-0.14402515
143	0x3d2aa51c	0.041661367
144	0x3e1ec75e	0.1550574
145	0x3e9b9dcb	0.30393824
146	0x3dbd5aa4	0.09245804
147	0xbe52f157	-0.20599876
148	0x3e6ba122	0.23010686
149	0x3da9a721	0.082838304
150	0x3e9e5a1e	0.3092813
151	0xbecd9f45	-0.40160576
152	0xbd821b2e	-0.0635284
153	0x3d42c567	0.04755154
154	0x3eefffbb	0.46874794
155	0x3e169e4d	0.14708824
156	0xbd89c211	-0.06726468
157	0x3cda760b	0.026667615
158	0x3c1c1c97	0.009528301
159	0xbe92e6c9	-0.286917
160	0xbd80d4ed	-0.06290612
161	0x3d9b47f3	0.075820826
162	0xbe482b3f	-0.19547747
163	0xbe6245b5	-0.22096904
164	0x3ca182c8	0.019715682
165	0xbe813c02	-0.25241095
166	0x3e8ad858	0.27118182
167	0x3e41f5ed	0.1894147
168	0xbe573bf4	-0.21018964
169	0xbe05388b	-0.1300985
170	0x3e22f015	0.15911897
171	0xbcacaaac	-0.021077476
172	0xbe333b59	-0.17503108
173	0x3cefe9a5	0.029286215
174	0xbe46d0f3	-0.19415645
175	0x3da82d0f	0.08211719
176	0x3db5670b	0.088575445
177	0xbe3e55bf	-0.18587397
178	0x3df5ad34	0.119959265
179	0x3cf24d06	0.029577743
180	0x3df451ab	0.119296394
181	0xbe61a7c5	-0.22036655
182	0x3e916a2e	0.2840132
183	0xbd119ba2	-0.035548814
184	0x3e446647	0.1917964
185	0x3c561b08	0.013067968
186	0xbbb481e5	-0.0055086487
187	0xbe7c4976	-0.24637398
188	0xbe04af03	-0.12957387
189	0xbe42f485	-0.1903859
190	0xbe3edc58	-0.18638742
191	0x3e983141	0.29725078
192	0x3d878afc	0.06618306
193	0xbd9625d3	-0.07331433
194	0xbe42427d	-0.18970676
195	0xbd65a9f0	-0.05607027
196	0xbe3ede0a	-0.18639389
197	0xbea5c293	-0.3237501
198	0xbe372ed7	-0.17888962
199	0xbe2bf080	-0.16790962
200	0xbedc2046	-0.42993373
201	0xbe3d14dd	-0.1846499
202	0x3d9175e8	0.07102567
203	0xbd6f5c79	-0.0584378
204	0xbb12b73b	-0.0022387046
205	0x3dc35b6b	0.09538921
206	0x3e0aa6e5	0.13540228
207	0x3e996035	0.29956213
208	0x3e05d00c	0.13067645
209	0x3abecdf7	0.0014557232
210	0xbdcae60b	-0.099071585
211	0xbe5c8e28	-0.21538603
212	0x3d807e4d	0.0627409
213	0xbdd246c7	-0.10267406
214	0x3e097cbe	0.13426492
215	0xbd0dd467	-0.03462639
216	0xbdf8f415	-0.1215593
217	0xbed930d7	-0.42420074
218	0xbce7b0e0	-0.028282583
219	0x3db6dfb3	0.08929386
220	0xbe89d595	-0.26920763
221	0x3d05bd03	0.03265096
222	0x3e591c53	0.21202211
223	0xbe4a3c3a	-0.19749537
224	0x3d74c909	0.059762035
225	0x3cb617f4	0.022228219
226	0x3e300030	0.17187572
227	0x3e8fc635	0.28080907
228	0xbe2808df	-0.16409634
229	0x3d6680ad	0.05627506
230	0xbd7e42d9	-0.06207547
231	0x3dad17dd	0.08451817
232	0xbd0f69c7	-0.035012987
233	0x3da8532e	0.0821899
234	0x3e17e8a7	0.14834844
235	0xbe11e1da	-0.14246312
236	0xbd89c702	-0.06727411
237	0xbd918074	-0.071045786
238	0xbde83d68	-0.11339837
239	0xbd1bb5a5	-0.038015027
240	0xbe0da408	-0.13832104
241	0xbd170906	-0.03687384
242	0x3c8ddb96	0.01731662
243	0x3e069912	0.13144329
244	0xbee07084	-0.43835843
245	0xbe468e47	-0.19390212
246	0x3c52d149	0.01286728
247	0x3dedf1d4	0.11618391
248	0x3ba4532c	0.0050147977
249	0x3e23607a	0.15954772
250	0xbe131e83	-0.14367108
251	0x3e24c859	0.16092052
252	0xbeadf3f6	-0.3397519
253	0x3c13069a	0.008973742
254	0x3e131d5e	0.14366671
255	0xbd593e14	-0.053037718

encoder.net.0.bias f4 [60]
0	0xbccc93ef	-0.024972884
1	0x3c9b0f21	0.018928112
2	0xbd2a32d7	-0.04155239
3	0xbccc9019	-0.024971055
4	0x3c45d170	0.01207386
5	0xbc54ad62	-0.012980791
6	0xbd58742a	-0.052845158
7	0x3c2f21da	0.010689223
8	0xbd171c97	-0.0368925
9	0xbcfb24fd	-0.030657286
10	0xbce450c9	-0.027870553
11	0x3d088ed7	0.033339348
12	0x3d3f8051	0.04675323
13	0x3c6d9869	0.014501669
14	0x3c0bc40f	0.008530631
15	0xbc01ab49	-0.007914373
16	0x3cc04710	0.023471385
17	0x3d488a78	0.04896018
18	0x3cc84e11	0.024451287
19	0x3d383dc9	0.044980798
20	0x3ccfc3e0	0.025361955
21	0xbd2ff6be	-0.04295992
22	0xbc68b11f	-0.014202385
23	0x3cd89759	0.026439356
24	0xbcebffd1	-0.028808506
25	0xbd703d1c	-0.05865203
26	0x3cd39658	0.025828525
27	0x3d2cb086	0.042160533
28	0xbd2d623f	-0.042330023
29	0xbd12f75f	-0.035880443
30	0xbccd080a	-0.025028247
31	0xbd02c8a0	-0.031929612
32	0x3d87df10	0.06634343
33	0xbdd2f36d	-0.10300336
34	0xbb97e163	-0.0046350225
35	0xbc92abbe	-0.017904159
36	0x3d2471f5	0.04014774
37	0x3cf6ffc1	0.03015125
38	0xbcfabf04	-0.030608661
39	0xbd113d11	-0.035458628
40	0x3cf2fcc0	0.029661536
41	0xbcb677dc	-0.02227395
42	0xbd012c66	-0.031536482
43	0x3ca68abf	0.020329831
44	0xbc9a1b65	-0.01881189
45	0x3cadf026	0.021232676
46	0x3d2e5ee6	0.04257097
47	0x3d3a0355	0.045413334
48	0x3d06db41	0.03292394
49	0x3cca9c04	0.024732597
50	0xbcbde066	-0.02317829
51	0x3bc7f82d	0.006102583
52	0xbd00e49a	-0.03146801
53	0x3c9e5bd1	0.01933089
54	0x3bd2de12	0.0064351643
55	0x3d11e3c4	0.035617605
56	0x3bcee3f3	0.0063137948
57	0xbc6a8a05	-0.014315133
58	0xbcd2bccd	-0.025724793
59	0xbd32bdd6	-0.043638073

encoder.net.2.weight f4 [60, 60]
0	0xbcb505a9	-0.022097426
1	0x3e4f36ed	0.20235796
2	0xbde3fa94	-0.11131778
3	0xbc97feec	-0.018554173
4	0x3e63cac8	0.22245324
5	0xbdeda156	-0.11603038
6	0xbcb30924	-0.021854945
7	0xbd366de4	-0.044538394
8	0xbe221b40	-0.15830708
9	0x3e15481d	0.1457829
10	0x3da88bb2	0.0822977
11	0xbd12b849	-0.03582028
12	0x3d9f2ff9	0.07772822
13	0xbda782d9	-0.08179254
14	0xbc7d759d	-0.015469936
15	0xbdf08c79	-0.11745543
16	0xbde8e2dd	-0.11371396
17	0xbe604aa8	-0.21903479
18	0xbd1c3ab9	-0.03814194
19	0x3dc68a67	0.09694367
20	0x3df3df34	0.11907807
21	0xbbe442b1	-0.006965958
22	0x3df53075	0.11972133
23	0x3e0537f7	0.1300963
24	0x3d9882ca	0.07446821
25	0xbd1a4f2c	-0.03767316
26	0x3c2a2f89	0.01038731
27	0x3e367666	0.17818603
28	0xbd6faedf	-0.05851638
29	0x3db7c9ac	0.08974013
30	0xbce51d91	-0.0279682
31	0x3e3ad756	0.18246207
32	0x3e07d908	0.13266385
33	0x3c88a1ce	0.016678717
34	0x3e293f84	0.16528136
35	0xbe9e520c	-0.30921972
36	0xbe00fb4e	-0.12595865
37	0xbdef57db	-0.11686679
38	0x3e3f13bb	0.1865987
39	0x3e1b7115	0.15179856
40	0xbe71a6ad	-0.23598738
41	0x3e031826	0.1280218
42	0x3e277275	0.16352256
43	0xbda926bb	-0.082593404
44	0xbbc93904	-0.00614083
45	0x3d958613	0.07300963
46	0xbeb508b0	-0.3535819
47	0xbe4c0871	-0.19925095
48	0x3dc4378c	0.09580907
49	0xbe73e515	-0.23817857
50	0xbd96e4d6	-0.07367866
51	0x3e05113b	0.12994854
52	0xbd525274	-0.051348165
53	0x3db347e0	0.087539434
54	0xbd6480c8	-0.055786878
55	0xbe76922d	-0.24079199
56	0x3d60c506	0.054875396
57	0x3caa1c68	0.020765498
58	0xbd0aca6f	-0.033884462
59	0x3d0fd37d	0.0351138
60	0x3de31a67	0.1108902
61	0x3c83d582	0.01609302
62	0xbc9b0cc7	-0.018926991
63	0x3da1c3be	0.07898663
64	0xbe854ee2	-0.26036745
65	0x3e022873	0.12710743
66	0x3c7053e6	0.01466844
67	0xbcf29e2a	-0.029616434
68	0xbd7945b9	-0.06085751
69	0x3e85f93b	0.2616671
70	0x3debeeb6	0.1152014
71	0xbe5638a2	-0.20920041
72	0xbe4fa4da	-0.2027773
73	0xbcd10bae	-0.025518265
74	0x3db56b1e	0.088583216
75	0xbd07c5d3	-0.033147644
76	0xbd4835e5	-0.048879523
77	0xbd77eb4f	-0.060527142
78	0x3e1200fb	0.14258187
79	0xbd196897	-0.03745326
80	0x3e182e05	0.14861305
81	0x3de84fbb	0.113433324
82	0xbe1159b5	-0.14194377
83	0xbce80e78	-0.028327212
84	0xbe0bc3ff	-0.13648985
85	0xbb6f7d10	-0.003654305
86	0xbe946062	-0.28979784
87	0xbcf43a9e	-0.029813107
88	0xbc440e00	-0.0119662285
89	0xbe059cc5	-0.13048084
90	0x3cb96853	0.022632753
91	0xbe10a8ee	-0.14126942
92	0x3e3aa764	0.18227917
93	0xbe221d52	-0.15831497
94	0x3e381a72	0.17978838
95	0xbc8b6270	-0.017014712
96	0xbd9980d4	-0.07495275
97	0xbdc13b7b	-0.09435173
98	0xbdf43af0	-0.11925304
99	0x3d429e7b	0.04751442
100	0x3d9c43b9	0.076301046
101	0x3ca2ebcd	0.01988783
102	0xbdd9df69	-0.10638315
103	0x3de7b7b1	0.11314333
104	0xbd4ce00c	-0.050018355
105	0x3dd2eae5	0.10298709
106	0x3b8558b1	0.0040694107
107	0x3de7c676	0.1131715
108	0xbd7d9702	-0.06191159
109	0x3dbbba7a	0.09166427
110	0xbd91851f	-0.07105469
111	0xbe20dd6c	-0.15709466
112	0x3e219ebd	0.1578321
113	0x3e13edfe	0.14446256
114	0xbdf59f83	-0.11993315
115	0xbe19b809	-0.1501161
116	0xbe1a7ab0	-0.15085864
117	0x3e246ee7	0.16057931
118	0xbe0138c3	-0.12619309
119	0x3e18bb9f	0.14915322
120	0x3c21cd41	0.0098755965
121	0xbdcfd230	-0.10147512
122	0xbe3d013c	-0.18457502
123	0x3d9b65bc	0.07587764
124	0x3cc9567f	0.024577377
125	0xbd007ffb	-0.03137205
126	0x3d7e3c5b	0.06206928
127	0x3e1d0082	0.15332225
128	0x3d97a63d	0.07404754
129	0x3d99c606	0.07508473
130	0xbc884516	-0.016634505
131	0xbd68106f	-0.056656297
132	0x3d3f9905	0.04677679
133	0xbd022482	-0.031773098
134	0xbe4c8bf2	-0.1997526
135	0x3dd9094a	0.10597475
136	0xbdfae313	-0.12250342
137	0x3d195323	0.0374328
138	0x3d80334b	0.06259783
139	0x3d8aae81	0.06771565
140	0x3e32d45b	0.1746382
141	0x3e0b727f	0.13617896
142	0x3dfd2478	0.123604715
143	0x3d992996	0.07478635
144	0xbda4fffd	-0.080566384
145	0xbe78f95d	-0.24313875
146	0x3e996c54	0.2996546
147	0x3eb2c25e	0.34913915
148	0x3d2aeacf	0.041727837
149	0xbe4cb063	-0.19989161
150	0xbe403008	-0.18768322
151	0xbe3ce031	-0.18444897
152	0x3d1796a6	0.037008904
153	0xbc64e867	-0.013971425
154	0x3d5ffdd2	0.05468542
155	0x3df25f9f	0.118346445
156	0x3e0a2afa	0.13492957
157	0x3c1568e9	0.009119251
158	0xbdcd3b55	-0.10021082
159	0xbb8410c1	-0.0040303175
160	0x3dff228b	0.124577604
161	0x3d446b67	0.04795399
162	0xbe1de590	-0.15419602
163	0x3d9e7347	0.07736831
164	0x3bbe9386	0.005815926
165	0xbe3ae39b	-0.18250887
166	0xbdbaa14d	-0.09112797
167	0xbc6e113e	-0.014530478
168	0x3d255926	0.04036822
169	0x3ccd8c4f	0.025091318
170	0xbd12a652	-0.035803147
171	0xbe6ccb6d	-0.23124476
172	0xbcbe920d	-0.023263002
173	0x3da2a7bb	0.07942148
174	0xbe65d3ff	-0.22444151
175	0xbd3dd7b6	-0.046348296
176	0xbe125406	-0.14289865
177	0xbcd6a553	-0.02620188
178	0xbe7a5e49	-0.2445003
179	0x3d990af3	0.074727915
180	0xbe652f91	-0.22381426
181	0xbc8acc1a	-0.016943026
182	0x3dfaa57c	0.12238595
183	0xbe937306	-0.28798693
184	0xbd535cc0	-0.051602125
185	0xbdf5060e	-0.119640455
186	0xbe1524e9	-0.14564861
187	0xbe2b6bc1	-0.16740324
188	0x3cfc8643	0.03082574
189	0xbe0d9da7	-0.13829671
190	0xbddf383c	-0.10899398
191	0xbd5e4abc	-0.05427049
192	0xbc85da75	-0.01633952
193	0x3d79c65d	0.06098019
194	0xbceb30e1	-0.02870983
195	0xbe25f8fb	-0.1620826
196	0xbdaad474	-0.083413035
197	0x3c0af46a	0.008481124
198	0x3c38de98	0.011283539
199	0xbde2e1fa	-0.11078258
200	0xbe1dbfda	-0.15405217
201	0x3bcd9b0d	0.006274587
202	0xbe0ae2b6	-0.13563046
203	0x3dc3370e	0.09531985
204	0xbd7781f5	-0.06042667
205	0xbe218ed7	-0.15777145
206	0x3be76aac	0.007062277
207	0xbded61d0	-0.11590922
208	0xbdd3ac01	-0.103355415
209	0xbca3c91b	-0.019993355
210	0x3dc9aacf	0.09847032
211	0x3d7b67df	0.061378356
212	0x3e07b91c	0.13254207
213	0xbd8881cb	-0.06665381
214	0x3ec3e335	0.38259283
215	0x3d6b72e4	0.057482615
216	0x3cb2df45	0.021834979
217	0x3c9d6a44	0.01921571
218	0x3de34bf2	0.1109847
219	0x3e3496ff	0.17635725
220	0x3cffcf8a	0.031226892
221	0x3d969ee4	0.07354525
222	0xbdb174bf	-0.08664846
223	0xbe0051eb	-0.12531249
224	0x3e704cb3	0.23466758
225	0xbc3061b0	-0.010765478
226	0x3d32c918	0.04364881
227	0x3e51e72f	0.20498346
228	0xbb3f046f	-0.002914693
229	0x3e79cdc5	0.24394901
230	0x3e0857cf	0.13314746
231	0x3d98d228	0.07461959
232	0xbe22d89d	-0.15902944
233	0x3dcdd4b9	0.10050339
234	0xbd0cd144	-0.03437926
235	0xbac355ed	-0.0014902927
236	0x3d5cf7b0	0.05394715
237	0xbe93bb02	-0.28853613
238	0xbd04d0ab	-0.032425564
239	0x3cf3110b	0.029671213
240	0xbe47bbb8	-0.19505203
241	0xbda44d16	-0.080225155
242	0x3d863ea3	0.06554916
243	0x3e15586f	0.14584516
244	0x3e721643	0.23641305
245	0x3ea517c3	0.3224469
246	0xbdf93378	-0.1216802
247	0x3d14be1e	0.036314122
248	0xbe3482e5	-0.17628057
249	0xbe3498af	-0.17636369
250	0xbe869b11	-0.2629018
251	0xbb96d0d4	-0.004602531
252	0x3e05fb0f	0.13084053
253	0x3d17bbe3	0.037044417
254	0x3e811e26	0.25218314
255	0xbd8ce90f	-0.0688039

encoder.net.2.bias f4 [60]
0	0xbcfad91b	-0.030621102
1	0xbd308050	-0.04309112
2	0x3d323c0e	0.043514304
3	0x3d49d662	0.049276717
4	0xbd058cf8	-0.03260514
5	0x3d23c866	0.039986037
6	0x3cda75bb	0.026667466
7	0x3d0fe3ba	0.035129286
8	0x3d339d5e	0.04385125
9	0xbc80d4cd	-0.015726471
10	0xbd39b73b	-0.045340758
11	0xbcd2f3b3	-0.02575097
12	0xbc9a806d	-0.018860066
13	0x3cee5c2e	0.02909669
14	0x3d0d55c9	0.03450564
15	0x3d356945	0.044289846
16	0xbd024e44	-0.03181292
17	0x3d9c1100	0.0762043
18	0xbc827035	-0.015922645
19	0xbd2c9cf5	-0.042141873
20	0x3c5c2016	0.013435384
21	0x3cee4ad1	0.02908841
22	0xbd267bb0	-0.0406453
23	0x3d1c01b7	0.038087573
24	0xbd3b637d	-0.045749176
25	0x3d9ffec4	0.078122646
26	0xbd11f526	-0.035634182
27	0x3c7830e6	0.015148377
28	0x3ced3f23	0.02896077
29	0xbce56152	-0.028000508
30	0x3c6cee23	0.014461073
31	0x3ca7e7b4	0.020496227
32	0xbc194b24	-0.009356294
33	0xbca83caa	-0.02053674
34	0xbd277847	-0.04088619
35	0x3d2ccafd	0.042185772
36	0x3d2697db	0.040672164
37	0xbcd4f403	-0.02599526
38	0x3d03d139	0.032181952
39	0x3bc574ec	0.006025901
40	0x3d357fd0	0.044311345
41	0xbd94013b	-0.07226797
42	0xbd0d83bb	-0.034549456
43	0xbc1be3ac	-0.00951473
44	0xbc6c7944	-0.014433209
45	0xbcb448d8	-0.02200739
46	0x3cdc6d76	0.026907664
47	0xbd653833	-0.0559618
48	0xbd1398c2	-0.036034353
49	0x3d0abbe7	0.033870604
50	0x3d2e32b3	0.04252882
51	0x3cf6db29	0.0301338
52	0xbcfcde43	-0.030867701
53	0xbd2589eb	-0.040414732
54	0x3ce8a937	0.028401
55	0xbcee0f1d	-0.029059941
56	0xbd1edc8c	-0.03878455
57	0xbd0ad2f4	-0.033892587
58	0xbb900e1b	-0.0043962128
59	0x3d006b95	0.0313526

encoder.net.5.weight f4 [32, 60]
0	0xbe8afbab	-0.27145132
1	0xbe792bd1	-0.24333121
2	0xbde22f03	-0.11044123
3	0x3d25fed9	0.040526245
4	0xbd71f652	-0.0590728
5	0x3c4ec116	0.012619277
6	0x3e54e817	0.2079166
7	0xbdca6a61	-0.098835714
8	0xbe2f060a	-0.17092147
9	0xbcde398d	-0.027127052
10	0x3d0ad014	0.033889845
11	0x3e02eee0	0.12786436
12	0x3d1d3b1f	0.03838646
13	0xbea2ab88	-0.31771493
14	0xbdb5f2a3	-0.0888417
15	0x3d3715c0	0.044698477
16	0x3d6c0425	0.05762114
17	0x3d548395	0.0518833
18	0xbe27fb70	-0.1640451
19	0xbc15e930	-0.0091498345
20	0x3e79a3a9	0.24378838
21	0x3da25dca	0.07928045
22	0xbbb63106	-0.0055600433
23	0xbda3518e	-0.0797454
24	0x3d010587	0.031499412
25	0xbca9a6e8	-0.02070947
26	0x3e2678bf	0.16256998
27	0xbe496554	-0.1966756
28	0xbeda2218	-0.42604136
29	0xbcb6de2c	-0.022322737
30	0xbe3c537d	-0.18391223
31	0xbe091577	-0.13387094
32	0xbe2c08d6	-0.16800246
33	0xbdf4bc4b	-0.119499765
34	0xbd7f7b69	-0.062373552
35	0xbba4937d	-0.005022465
36	0xbe1b8c91	-0.1519034
37	0x3e57ff82	0.21093562
38	0x3dea2257	0.11432331
39	0x3e41f927	0.189427
40	0xbdd5ef26	-0.104460046
41	0x3e7a0798	0.2441696
42	0xbe6f7769	-0.23385395
43	0x3e008ace	0.1255295
44	0xbce9e733	-0.028552627
45	0xbd892941	-0.06697322
46	0xbe635a96	-0.22202525
47	0x3d99cc9e	0.07509731
48	0x3e43948d	0.19099636
49	0x3e152826	0.14566097
50	0xbe136056	-0.14392218
51	0xbe29952c	-0.16560811
52	0x3d883846	0.06651358
53	0x3db48ae3	0.08815553
54	0xbeaaa163	-0.33326253
55	0x3c4c775a	0.0124796275
56	0x3e4fcfb9	0.20294084
57	0x3e39a155	0.1812795
58	0xbd2f2743	-0.042762052
59	0x39a233e0	0.00030937698
60	0xbda53c11	-0.080680974
61	0xbdca6339	-0.098822065
62	0xbc98fd5b	-0.018675497
63	0xbe78daf4	-0.24302274
64	0x3ce75da3	0.028242892
65	0x3e2209be	0.15824029
66	0x3e447a10	0.19187188
67	0x3d32cca8	0.043652207
68	0xbe0b1203	-0.1358109
69	0xbe6248b3	-0.22098045
70	0xbdcce488	-0.100045264
71	0x3da547ba	0.080703214
72	0x3d656f17	0.056014147
73	0xbc6826f6	-0.014169445
74	0x3c8d9d41	0.017286899
75	0x3e146f0b	0.14495485
76	0xbe30fe26	-0.1728445
77	0xbe0e493b	-0.13895123
78	0xbdab387f	-0.08360385
79	0xbe169815	-0.14706452
80	0x3c9b2922	0.018940512
81	0x3db1ca60	0.08681178
82	0xbe9450e7	-0.28967974
83	0x3d712a7c	0.058878407
84	0x3e354d29	0.17705216
85	0xbd24ca22	-0.04023183
86	0xbce5e9cc	-0.028065585
87	0xbe0cc1af	-0.1374576
88	0xbe4b1172	-0.19830874
89	0x3dfc4d08	0.1231938
90	0x3cbba977	0.022907956
91	0x3dd0440f	0.10169231
92	0xbb94dda8	-0.004543025
93	0xbe2d9d94	-0.16954643
94	0x3c200692	0.0097671915
95	0x3d474176	0.048646413
96	0xbd9a816c	-0.075442165
97	0x3deb31a0	0.114840746
98	0x3e83efbf	0.2576885
99	0xbdba5668	-0.09098512
100	0x3de335e1	0.11094261
101	0xbd8fb978	-0.07017797
102	0xbe96ea5f	-0.29475686
103	0x3e0d371b	0.13790552
104	0x3d3ffbe3	0.046871077
105	0xbece4b4a	-0.40291816
106	0xbb050d8e	-0.0020302269
107	0xbe23f385	-0.16010864
108	0x3d989036	0.07449381
109	0xbdc94e36	-0.09829371
110	0x3d572199	0.052522276
111	0x3cc65319	0.024209546
112	0xbea26645	-0.3171865
113	0x3db16221	0.08661295
114	0x3ca87855	0.020565191
115	0x3be10636	0.0068671955
116	0x3d99cc8c	0.07509717
117	0xbe66401b	-0.22485392
118	0xbcac2cbc	-0.021017425
119	0x3c975ac4	0.018475898
120	0xbe806078	-0.250736
121	0x3d3f148f	0.046650466
122	0x3e613ddd	0.21996255
123	0xbc41ec81	-0.011836172
124	0xbd046910	-0.032326758
125	0x3b19f07a	0.0023489282
126	0x3dea8929	0.114519425
127	0xbd47f9bf	-0.04882216
128	0x3e325d76	0.17418465
129	0xbe9845f5	-0.29740873
130	0xbc66619a	-0.014061356
131	0xbd330322	-0.04370416
132	0x3c915d74	0.017744757
133	0xbe2ea04c	-0.17053336
134	0xbd900057	-0.07031315
135	0xbd2b4a6b	-0.041819017
136	0xbe090a1d	-0.13382764
137	0x3e0ebcea	0.13939252
138	0xbd590926	-0.05298724
139	0xbd088950	-0.033334076
140	0xbd99ec66	-0.075157925
141	0xbc3b398d	-0.011427295
142	0xbc37f161	-0.011226983
143	0x3e024bc2	0.12724212
144	0x3d9a1f6d	0.07525525
145	0xbe346005	-0.17614754
146	0xbe28deed	-0.1649129
147	0xbe568fbb	-0.20953266
148	0xbd89fe06	-0.06737904
149	0xbd36322d	-0.044481445
150	0x3e024679	0.12722196
151	0xbe52b8cf	-0.20578311
152	0x3e1c0147	0.15234862
153	0xbd96ed31	-0.073694594
154	0xbe856bb2	-0.26058728
155	0xbd8ffbae	-0.07030426
156	0x3db5417d	0.088503815
157	0xbd5ee4ff	-0.054417606
158	0x3d8a508c	0.06753644
159	0x3de1b21f	0.11020302
160	0xbd498c8f	-0.049206313
161	0xbc95f067	-0.01830311
162	0xbde023c7	-0.10944324
163	0xbdbebda8	-0.09313518
164	0xbdba2cb1	-0.090905555
165	0x3dcb20d7	0.09918373
166	0xbd04fa3b	-0.0324652
167	0xbd851d5e	-0.06499742
168	0x3bcbca62	0.0062191943
169	0xbe1747da	-0.14773503
170	0xbda2089c	-0.07911798
171	0x3c30a38c	0.01078118
172	0xbdb45be9	-0.08806593
173	0x3d8ed98e	0.06975089
174	0xbd9b8560	-0.07593799
175	0x3d33acdc	0.043866023
176	0x3d292315	0.041293222
177	0x3d6d9485	0.058002967
178	0x3db787eb	0.08961471
179	0x3ca81d02	0.020521645
180	0xbdbbddcd	-0.091731645
181	0xbce31c5d	-0.027723486
182	0x3dfa74ff	0.122293465
183	0x3e78a00b	0.24279802
184	0x3cbcaeb1	0.023032518
185	0xbd59c1fa	-0.053163506
186	0xbe042013	-0.1290286
187	0xbdf77973	-0.120837115
188	0x3e101df5	0.14073928
189	0x3cfc82eb	0.030824145
190	0x3d99f0b1	0.07516611
191	0xbe18edcb	-0.14934461
192	0x3d97f2b9	0.074193425
193	0xbe17e533	-0.14833526
194	0xbc06e525	-0.008233343
195	0xbdb2a8eb	-0.08723625
196	0xbe1c78bd	-0.15280433
197	0x3de38dda	0.111110404
198	0xbe6c8978	-0.23099315
199	0x3d547a35	0.05187436
200	0xbda88f1a	-0.082304195
201	0xbe22d132	-0.15900114
202	0xbc1f6b5f	-0.009730189
203	0x3ca6342f	0.020288555
204	0x3db35956	0.08757274
205	0xbebfb13a	-0.374399
206	0x3d088bec	0.033336565
207	0x3e9b5acf	0.3034272
208	0xbe0c99e6	-0.13730583
209	0x3e9115f7	0.2833707
210	0xbdf4a455	-0.11945406
211	0x3e58c151	0.21167494
212	0xbc5cc1b6	-0.013473919
213	0x3e6473ed	0.22309847
214	0xbd9bbe70	-0.076046824
215	0xbd3eeffe	-0.046615593
216	0x3e27ea14	0.16397887
217	0xbe442ae5	-0.19156988
218	0xbda611dc	-0.08108875
219	0xbd1cf84f	-0.038322743
220	0xbe7d094d	-0.24710579
221	0xbc7369a7	-0.014856732
222	0xbe257b9e	-0.16160437
223	0xbdab288a	-0.083573416
224	0xbcf67e91	-0.030089648
225	0xbdaa9813	-0.08329787
226	0xbe6f4aa6	-0.2336832
227	0x3cb220b3	0.021744108
228	0xbd96ae57	-0.073574714
229	0x3ddf374d	0.1089922
230	0xbdc624c1	-0.09674979
231	0xbeba5423	-0.36392316
232	0xbe554a61	-0.20829155
233	0x3dc4000d	0.09570322
234	0x3c3dd10e	0.011585487
235	0xbe5c7f9c	-0.21533054
236	0x3de1db1d	0.11028121
237	0x3dcfa61e	0.10139106
238	0x3ceb359b	0.028712085
239	0xbd0a3c1c	-0.03374873
240	0xbd106fd1	-0.035262886
241	0x3d6c9554	0.057759598
242	0xbdd236a8	-0.10264331
243	0x3dc73204	0.097263366
244	0xbe73d4eb	-0.2381169
245	0x3d09152b	0.033467453
246	0x3dfea0d3	0.124330185
247	0xbcfb7fcc	-0.030700587
248	0x3e4225b4	0.18959695
249	0xbe68ed21	-0.22746707
250	0xbddc1c2a	-0.10747559
251	0x3cbced2a	0.023062307
252	0x3c516f1a	0.012782836
253	0xbe42c815	-0.19021638
254	0xbc36fcc7	-0.011168665
255	0xbd9e51b0	-0.077304244

encoder.net.5.bias f4 [32]
0	0xbd403d7a	-0.04693363
1	0x3d333bb0	0.043758094
2	0xbe077fc1	-0.13232328
3	0x3d0f983d	0.035057295
4	0xbd084420	-0.033268094
5	0x3cfd4263	0.030915445
6	0xbcb931bc	-0.022606723
7	0x3d706a50	0.058695138
8	0xbb7c0e7d	-0.0038460784
9	0xbd88610a	-0.06659134
10	0xbd81da12	-0.06340422
11	0x3d33cd17	0.04389676
12	0xbd48534f	-0.048907574
13	0x3d667bfb	0.05627058
14	0xbd9c28af	-0.07624947
15	0x3c5ae751	0.013360814
16	0xbd1a82dc	-0.037722453
17	0xbd16fed2	-0.03686411
18	0x3d2b9d80	0.04189825
19	0xbd4243d1	-0.047427956
20	0xbd862521	-0.065500505
21	0x3ce829e6	0.028340291
22	0xbd5bca35	-0.053659637
23	0x3d01ec54	0.03171952
24	0x3d389128	0.045060307
25	0xbd33dbaa	-0.04391066
26	0x3d22b342	0.039721735
27	0x3ce12328	0.027482584
28	0x3ca65401	0.020303728
29	0x3d62dcbd	0.055386294
30	0xbdfc98f4	-0.12333861
31	0xbd5e279c	-0.054236993

predictor.net.1.weight f4 [32, 32]
0	0xbe705ba1	-0.23472454
1	0x3d9212e1	0.07132507
2	0x3e8137fb	0.25238022
3	0xbe268783	-0.16262631
4	0x3e375a19	0.17905463
5	0x3cb00f62	0.02149171
6	0xbcee4804	-0.029087074
7	0xbdea29ec	-0.11433777
8	0x3d1e48fb	0.03864382
9	0x3d2e68b8	0.042580336
10	0x3d34fa5c	0.044184074
11	0xbe0f9ca2	-0.14024594
12	0x3e6e5dd4	0.2327798
13	0xbdd1b67f	-0.102398865
14	0xbe992e8b	-0.29918322
15	0xbbf1cf9f	-0.0073794867
16	0xbe4dad75	-0.200857
17	0xbcfed8f7	-0.031109316
18	0xbd8bc096	-0.06823842
19	0x3e60b57c	0.21944231
20	0x3e6cf410	0.23139977
21	0xbec4975e	-0.38396734
22	0xbed3289f	-0.4124193
23	0xbe8eec89	-0.27914837
24	0xbb9457a7	-0.0045270505
25	0x3e279502	0.16365436
26	0xbd596607	-0.053075816
27	0x3e029c4c	0.12754935
28	0x3d97aacb	0.07405623
29	0xbd80de23	-0.06292369
30	0x3e3bbd36	0.18333897
31	0x3e78cf7c	0.24297899
32	0x3d8991bb	0.06717249
33	0xbdc407a9	-0.095717736
34	0xbde18f0f	-0.110136144
35	0x3ea375cf	0.31925818
36	0x3d11556f	0.035481866
37	0xbe72d79e	-0.23715064
38	0xbd9f8c6c	-0.07790455
39	0xbd6821d1	-0.056672875
40	0x3d2776a5	0.040884633
41	0xbcbe8492	-0.023256574
42	0x3e851e40	0.2599964
43	0xbc93985f	-0.018016992
44	0x3d9ba40d	0.075996496
45	0xbe871499	-0.26382902
46	0x3e0f9f7f	0.14025687
47	0x3e3fc312	0.18726757
48	0xbd5d574f	-0.054038342
49	0x3bb0b2ca	0.005392407
50	0xbd2c997a	-0.042138554
51	0xbd82c5e0	-0.06385398
52	0xbe8792a0	-0.26479053
53	0xbca497ad	-0.020091856
54	0x3ea2fad0	0.3183198
55	0xbd92cf3e	-0.071684346
56	0xbe262c0e	-0.16227743
57	0x3e3455d2	0.17610863
58	0xbdda47f9	-0.10658259
59	0xbd0489db	-0.03235803
60	0xbe071b7f	-0.13194083
61	0xbe3c5d74	-0.18395025
62	0x3d7d3635	0.061819274
63	0xbca2087a	-0.019779433
64	0x3dbdaf89	0.09261996
65	0xbcd7d1e4	-0.0263452
66	0x3e09deb7	0.13463865
67	0x3e5d903b	0.21637051
68	0xbd6dae1a	-0.058027364
69	0x3de45295	0.11148564
70	0x3d3a6bed	0.045513082
71	0xbe1764fb	-0.14784615
72	0xbd6e847c	-0.058231816
73	0x3d1f4eb0	0.0388934
74	0xbe84928b	-0.25893053
75	0x3cf1790d	0.029476667
76	0xbda145d3	-0.07874646
77	0x3d98c5d7	0.0745961
78	0x3a808e5f	0.0009808055
79	0x3e5d1c4c	0.21592826
80	0xbd824a9f	-0.06361889
81	0xbe162000	-0.14660645
82	0xbe6a8b2f	-0.22904657
83	0xbe1e5f5d	-0.15466066
84	0xbd7a4a1f	-0.061105844
85	0x3e0ca636	0.1373528
86	0x3e449a0b	0.19199388
87	0x3c0059f7	0.007833949
88	0xbe2a0f36	-0.16607365
89	0xbc563d66	-0.013076162
90	0xbd61bece	-0.055113606
91	0x3e97118b	0.29505572
92	0xbe6326bf	-0.22182749
93	0x3ddd6fcd	0.1081234
94	0x3e201a68	0.15635073
95	0x3e5400a4	0.2070337
96	0xbe845153	-0.25843295
97	0xbdaeb7b5	-0.08531133
98	0x3dba7932	0.091051474
99	0xbd99d47d	-0.07511232
100	0xbdc1ea1d	-0.09468482
101	0x3e236c25	0.15959223
102	0x3c119d66	0.008887624
103	0xbe19601c	-0.14978069
104	0xbdc342c1	-0.09534217
105	0xbc20d497	-0.00981631
106	0xbdeda47f	-0.11603641
107	0x3d63e9a0	0.055642724
108	0x3b1abcb4	0.002361101
109	0xbdb46193	-0.08807673
110	0x3d50c749	0.050971303
111	0x3dcc7c3c	0.09984633
112	0xbe20ee9f	-0.15716027
113	0xbea28476	-0.31741685
114	0xbe8517c6	-0.259947
115	0xbe6bb77d	-0.23019214
116	0x3d3c1ea2	0.04592765
117	0x3da40855	0.08009402
118	0xbe26c0d9	-0.16284503
119	0x3e81df8d	0.25365868
120	0xbcccbe36	-0.024993043
121	0x3dce00f9	0.10058779
122	0x3e62beac	0.22143048
123	0xbdf61f01	-0.12017632
124	0xbe1007b5	-0.1406544
125	0x3df1f323	0.11813953
126	0xbd3880d6	-0.045044743
127	0x3e7397f1	0.2378843
128	0xbe79fe71	-0.24413468
129	0xbde693da	-0.11258669
130	0xbe30c1a7	-0.17261373
131	0x3ca4f7aa	0.020137627
132	0xbe498fce	-0.19683763
133	0xbe16e3e7	-0.14735375
134	0xbd957a53	-0.07298722
135	0xbe94d31e	-0.2906732
136	0x3e139bc6	0.14414892
137	0x3d7e72a6	0.062121056
138	0xbe8cea4e	-0.2752251
139	0xbded7f1e	-0.11596511
140	0xbe86e031	-0.2634292
141	0x3e27d4fb	0.1638984
142	0xbe0e56ad	-0.13900252
143	0xbcea6553	-0.028612768
144	0x3cc57741	0.024104716
145	0x3e2ed4f8	0.17073429
146	0xbd731f6d	-0.05935614
147	0xbd2d1c4e	-0.04226332
148	0x3d8e6cac	0.06954321
149	0xbd7bd20d	-0.061479617
150	0xbe0fbe72	-0.14037493
151	0x3eaa4196	0.33253163
152	0x3d9693e1	0.073524244
153	0x3edf4989	0.4361079
154	0xbe628979	-0.22122754
155	0x3e595e55	0.21227391
156	0x3dd71c58	0.10503453
157	0x3d411fe2	0.047149546
158	0x3e152c4c	0.14567679
159	0x3c9f4d56	0.019446056
160	0x3b0e43b0	0.0021707825
161	0xbdbd7831	-0.0925144
162	0xbe6de205	-0.23230751
163	0x3dd5d4e8	0.10440999
164	0x3e7b1120	0.24518251
165	0xbe376722	-0.17910436
166	0x3deab275	0.11459819
167	0x3cf1f160	0.029534042
168	0xbd8710a0	-0.06594968
169	0x3d3ba568	0.04581204
170	0x3e915581	0.28385547
171	0xbde0e072	-0.109803095
172	0x3e95f4d3	0.2928835
173	0x3ce0cd52	0.027441654
174	0x3d9a6118	0.075380504
175	0xbe90e2bd	-0.28297988
176	0x3d8cf6f9	0.06883044
177	0x3dc63d1c	0.096796244
178	0xbcad674b	-0.021167418
179	0x3e1e14e3	0.15437655
180	0x3e3e74f1	0.18599297
181	0x3e249d8e	0.16075727
182	0xbe0393a7	-0.12849294
183	0xbde4d6ee	-0.11173807
184	0x3e630eb3	0.22173576
185	0x3abb507c	0.0014290954
186	0x3d8c7818	0.068588436
187	0x3d87d8fa	0.06633182
188	0xbe947823	-0.28997907
189	0xbc83c756	-0.016086262
190	0xbd1b024f	-0.037844
191	0xbe57647b	-0.21034424
192	0x3e51f64e	0.20504114
193	0x3deec925	0.11659459
194	0xbc896a61	-0.016774358
195	0xbdef9c51	-0.11699737
196	0xbcce5b2d	-0.02518996
197	0x3da02754	0.07820001
198	0xbdb1398b	-0.086535536
199	0xbe133580	-0.14375877
200	0x3e566552	0.20937088
201	0x3e4a98b4	0.19784814
202	0x3dac9733	0.084272765
203	0x3eb61bfc	0.35568225
204	0xbe555097	-0.20831524
205	0x3d3d5b08	0.046229392
206	0x3e0f6bda	0.14005986
207	0xbdece287	-0.11566644
208	0x3dbe586c	0.09294209
209	0x3e9bd2bb	0.30434212
210	0xbdd45f92	-0.10369791
211	0xbceb93bb	-0.028756967
212	0xbe342ec2	-0.17595962
213	0xbcdf82bf	-0.027284024
214	0x3eb4f777	0.3534505
215	0xbe540842	-0.20706275
216	0x3e858725	0.2607967
217	0xbe2d8ec7	-0.16948996
218	0x3e7a6eff	0.24456404
219	0x3c6e7b28	0.01455573
220	0xbe12e439	-0.14344873
221	0x3e148bdb	0.14506476
222	0xbe15f42e	-0.14643928
223	0xbe919109	-0.28430966
224	0x3d95f826	0.07322721
225	0x3e2ab7d0	0.16671681
226	0xbe053e2d	-0.13012
227	0xbd174cda	-0.036938526
228	0x3d816844	0.06318715
229	0xbe642b6e	-0.22282192
230	0xbd2e3cf8	-0.042538613
231	0x3e1bb025	0.15203913
232	0xbda4ca4b	-0.08046397
233	0x3e935491	0.28775457
234	0xbd2701f1	-0.040773336
235	0x3de8b41e	0.113624796
236	0xbc278430	-0.010224387
237	0xbbd9961c	-0.006640209
238	0x3cc34323	0.023835724
239	0x3db3c8b3	0.08778515
240	0xbceaa498	-0.028642938
241	0x3e6c75f4	0.2309187
242	0x3de1ad1f	0.11019348
243	0xbe71f949	-0.23630251
244	0xbda29bb4	-0.07939854
245	0x3d922e83	0.07137778
246	0x3ebca98a	0.36848098
247	0x3c939182	0.01801372
248	0x3dc490ca	0.09597929
249	0xbe2715b6	-0.16316876
250	0x3ddf4cfa	0.10903354
251	0x3bc305d7	0.005951624
252	0xbe4e7c1e	-0.20164534
253	0xbdf53dc6	-0.11974673
254	0xbe413fc3	-0.1887198
255	0x3cad5a29	0.021161156

predictor.net.1.bias f4 [32]
0	0x3dd4351f	0.103616945
1	0xbdda3369	-0.10654337
2	0x3dda0fcb	0.106475435
3	0xbdfe1a91	-0.12407411
4	0x3e5ee9f5	0.21768935
5	0x3df76018	0.12078875
6	0xbdb7182c	-0.08940157
7	0xbdbd2a17	-0.092365436
8	0x3dc8a8bf	0.09797811
9	0xbddde33e	-0.10834359
10	0x3d5fd6e2	0.054648288
11	0x3ddd6130	0.10809553
12	0xbdcbe107	-0.0995503
13	0x3dd12fbe	0.10214184
14	0xbdce0175	-0.10058872
15	0xbe14801a	-0.14501992
16	0x3dcda699	0.100415416
17	0xbf29f540	-0.66389847
18	0xbdd7e614	-0.10541931
19	0xbddb3bdb	-0.10704776
20	0xbdbff9de	-0.0937383
21	0xbdd6b7c2	-0.10484268
22	0x3de9ad7b	0.11410042
23	0xbdee44c2	-0.11634208
24	0x3dc9b9b0	0.0984987
25	0xbddf7c84	-0.10912421
26	0x3ddd172e	0.10795437
27	0x3db47356	0.08811061
28	0xbdd9ad20	-0.10628724
29	0xbdcc9e44	-0.09991124
30	0xbdf29f9d	-0.1184685
31	0xbddfb8d4	-0.10923925

predictor.net.3.weight f4 [1, 32]
0	0x3e8bdd4d	0.27317277
1	0xbec4acae	-0.38412994
2	0x3ec66a9d	0.38753214
3	0xbea22687	-0.3167002
4	0x3dc89b82	0.09795286
5	0x3d889ca5	0.066705026
6	0xbdc45e6d	-0.09588323
7	0xbe54d548	-0.20784485
8	0x3e92db8f	0.28683135
9	0xbe9e8936	-0.3096406
10	0x3d8449cc	0.06459388
11	0x3ddf8bf5	0.109153666
12	0xbd9c3f48	-0.076292574
13	0x3e9554e8	0.2916634
14	0xbe184fd8	-0.14874208
15	0xbdf4a1aa	-0.119448975
16	0x3de9d3e5	0.11417369
17	0xbde0176c	-0.10941967
18	0xbe479950	-0.19492078
19	0xbe8dad63	-0.27671346
20	0xbe9ae741	-0.30254558
21	0xbee4a485	-0.44656768
22	0x3e2babd3	0.16764764
23	0xbe8cc159	-0.27491263
24	0x3e373e40	0.1789484
25	0xbe218ac3	-0.1577559
26	0x3e1be68c	0.15224665
27	0x3d97b315	0.07407204
28	0xbed23886	-0.4105875
29	0xbcdbe6b7	-0.026843412
30	0xbe25c66f	-0.16188978
31	0xbf1c8bdf	-0.61150926

net.0.weight f4 [60, 35]
0	0xbcfa3a11	-0.030545266
1	0xbdb78719	-0.08961315
2	0x3e4f3656	0.20235571
3	0x3e8c7b89	0.27438
4	0xbe22dd60	-0.1590476
5	0xbdb5a4e0	-0.08869338
6	0x3da54990	0.080706716
7	0x3dc49ef9	0.09600634
8	0xbdc3b3eb	-0.09555801
9	0x3e106745	0.14101894
10	0xbe257942	-0.16159537
11	0x3e19cefd	0.15020366
12	0xbd88d65f	-0.06681513
13	0x3d55485d	0.052070964
14	0x3cfd09b6	0.03088842
15	0xbe0ddb86	-0.13853273
16	0x3c23159f	0.009953885
17	0xbe60af3b	-0.21941845
18	0xbd8856ab	-0.066571556
19	0x3de91ff1	0.113830455
20	0x3dc4cf83	0.09609892
21	0xbda5f111	-0.081026204
22	0xbe9fd387	-0.3121607
23	0xbdfd7bce	-0.123771295
24	0x3da46bee	0.080283985
25	0x3dd1b0ce	0.10238801
26	0xbd8eaa5e	-0.06966089
27	0x3c966ae7	0.018361522
28	0x3d877ecb	0.06615981
29	0xbd1aa41c	-0.037754163
30	0x3ea8f8fc	0.3300246
31	0xbe59fb83	-0.2128735
32	0xbc048ccf	-0.008090212
33	0x3e2d903c	0.16949552
34	0x3eadf221	0.33973792
35	0x3da494d1	0.08036197
36	0xbd925799	-0.07145614
37	0xbd39d0f7	-0.0453653
38	0xbe300804	-0.17190558
39	0x3e240f54	0.16021472
40	0x3e95be34	0.29246676
41	0x3dfe1a87	0.124074034
42	0xba799e80	-0.00095222145
43	0xbb80ca0f	-0.0039303373
44	0xbe415753	-0.18880968
45	0x3d0ab791	0.03386647
46	0x3d1ca859	0.038246486
47	0xbde192d1	-0.11014331
48	0xbdb0bd3c	-0.086298436
49	0x3e63b4fb	0.22237007
50	0x3dab42cd	0.083623506
51	0xbe02df21	-0.1278043
52	0x3e09977f	0.13436697
53	0xbcf47e15	-0.029845277
54	0x3e303d1b	0.1721081
55	0x3e0f6079	0.14001645
56	0xbd0a8f57	-0.033828106
57	0x3df4d9ff	0.11955642
58	0x3e005689	0.1253301
59	0x3e806775	0.2507893
60	0xbde456d1	-0.111493714
61	0xbd53713e	-0.051621668
62	0x3c116df6	0.008876314
63	0x3e0e388b	0.13888757
64	0xbc99e844	-0.01878751
65	0x3e5c67f9	0.21524037
66	0xbe551554	-0.20808917
67	0x3e0e78f9	0.13913335
68	0xbe642e97	-0.22283398
69	0x3e4c2433	0.19935684
70	0x3b149314	0.0022670673
71	0xbe7b7426	-0.24556026
72	0x3e761dc2	0.24034789
73	0xbcd26ee8	-0.02568765
74	0xbe045894	-0.12924415
75	0xbc642c04	-0.01392651
76	0x3bb63b7c	0.0055612903
77	0xbd8a2d13	-0.067468785
78	0xbd71ab0e	-0.05900102
79	0x3e38e7be	0.18057153
80	0x3e39f8e1	0.18161346
81	0xbe94c49f	-0.2905626
82	0x3ddfdb82	0.1093054
83	0xbce08fad	-0.02741226
84	0xbd986b5e	-0.07442354
85	0xbce14cfc	-0.02750253
86	0x3e6745c3	0.22585206
87	0x3d98f8ae	0.07469307
88	0x3e98594c	0.29755628
89	0x3ddc9321	0.1077025
90	0xbdb5839d	-0.08862994
91	0xbd85d823	-0.065353654
92	0x3e803e34	0.25047457
93	0x3e038753	0.12844591
94	0xbe19aa58	-0.15006387
95	0x3dabab94	0.08382335
96	0x3d634abc	0.055491194
97	0xbc86548b	-0.016397735
98	0xbb3595e7	-0.0027707757
99	0x3e9a05aa	0.30082446
100	0xbdb0909f	-0.08621334
101	0x3e69fc33	0.22850113
102	0xbde2ecde	-0.11080335
103	0x3e003f39	0.12524118
104	0x3dba3bd6	0.09093444
105	0x3c5ab247	0.013348169
106	0xbdd55178	-0.104159296
107	0x3defa2cd	0.11700974
108	0xbe8ea2f0	-0.27858686
109	0xbd9acc1e	-0.075584635
110	0x3e4dee20	0.20110369
111	0x3d457439	0.04820654
112	0xbe96da17	-0.29463264
113	0x3c7fe8b8	0.015619449
114	0x3e5aa19e	0.21350715
115	0x3e24bbd0	0.1608727
116	0x3eba72db	0.36415753
117	0x3d3e9b62	0.046534903
118	0x3e0a6288	0.13514149
119	0xbd25b215	-0.040453035
120	0xbe351f49	-0.17687716
121	0xbda1de69	-0.079037495
122	0x3be78990	0.0070659593
123	0x3d8fcaba	0.07021089
124	0xbda4d9b7	-0.08049338
125	0x3cac640e	0.021043804
126	0xbd6ea859	-0.058266018
127	0x3e7a494f	0.24442028
128	0xbc98d301	-0.018655302
129	0x3d181235	0.03712674
130	0x3c950859	0.018192457
131	0x39b31e31	0.00034164035
132	0x3dd13c4f	0.10216581
133	0x3d7a4f4b	0.061110776
134	0x3e838e5a	0.25694543
135	0xbd4940ca	-0.049134053
136	0xbe37246d	-0.17884989
137	0xbe4f793f	-0.20261095
138	0x3d2d946d	0.042377878
139	0xbe0856e4	-0.13314396
140	0xbe266c4f	-0.16252254
141	0xbe080b7d	-0.13285632
142	0xbdff1c69	-0.12456591
143	0xbd307840	-0.04308343
144	0x3ddfe608	0.10932547
145	0x3d69cf91	0.057082716
146	0x3e47356a	0.1945397
147	0x3e84f529	0.25968292
148	0xbd57045d	-0.052494396
149	0x3c1e51be	0.009663044
150	0x3e303039	0.17205895
151	0x3e313fcf	0.17309497
152	0xbcda6eb4	-0.026664115
153	0xbe259321	-0.16169406
154	0x3d9e6ab8	0.07735199
155	0xbd65fb26	-0.056147717
156	0xbc39bd20	-0.011336595
157	0xbe501391	-0.20319964
158	0x3c285ae2	0.010275574
159	0x3e266675	0.16250022
160	0xbe1600cd	-0.14648743
161	0xbd1ba501	-0.037999157
162	0xbe07761b	-0.13228647
163	0x3dcb465b	0.099255286
164	0xbe2149fd	-0.1575088
165	0xbe85ef2e	-0.26159042
166	0xbe4b4cfe	-0.19853589
167	0x3dcf2aff	0.10115623
168	0xbde53dac	-0.111934036
169	0x3cf6057c	0.030031912
170	0x3e56aab2	0.20963553
171	0xbdaff1d5	-0.08591048
172	0xbd0dd078	-0.03462264
173	0x3de1b122	0.110201135
174	0x3d0d5b32	0.0345108
175	0xbd90b5a4	-0.07065895
176	0xbe00e33a	-0.1258668
177	0x3d8f64af	0.07001626
178	0xbd535a61	-0.051599864
179	0x3e02180a	0.12704483
180	0x3c17b845	0.009260242
181	0x3bf46cad	0.007459244
182	0xbda052d0	-0.07828295
183	0x3d510106	0.051026367
184	0xbda546cd	-0.08070145
185	0xbbd6da09	-0.0065567535
186	0x3db1b41b	0.086769305
187	0xbca8169e	-0.020518597
188	0xbc89b43d	-0.016809577
189	0x3d352269	0.04422227
190	0x3e111253	0.14167146
191	0xbd902f85	-0.07040314
192	0x3e2853fa	0.16438285
193	0xbd73a8fe	-0.059487335
194	0xbe130d66	-0.1436058
195	0x3e312c95	0.17302163
196	0x3e21ef0d	0.15813847
197	0xbe7b133f	-0.2451906
198	0x3dfdcf85	0.12393097
199	0x3ec97e88	0.39354348
200	0x3e223a03	0.15842442
201	0xbd13221c	-0.0359212
202	0xbd0878ee	-0.033318453
203	0xbe05d39c	-0.13069004
204	0xbdd93aed	-0.10606942
205	0x3e7d43cf	0.24732898
206	0x3dc6fb67	0.0971592
207	0x3df617bc	0.12016246
208	0x3e73753e	0.23775193
209	0x3e9be485	0.30447784
210	0xbe99f3da	-0.30068856
211	0x3e7a1f12	0.24425915
212	0xbb0d10a2	-0.0021524807
213	0xbd991723	-0.07475116
214	0xbe4f1667	-0.2022339
215	0x3c96cff5	0.018409709
216	0xbe505fbd	-0.20349021
217	0xbcb374b4	-0.021906234
218	0x3e56e301	0.20985033
219	0xbce40a02	-0.027836803
220	0xbcd456ec	-0.025920354
221	0x3d8a6017	0.06756609
222	0xbc243bbc	-0.010024007
223	0xbe89d884	-0.26923
224	0x3c991e5a	0.01869123
225	0x3e854922	0.26032358
226	0x3e053a02	0.1301041
227	0x3dd590bf	0.10427999
228	0xbdc81bd1	-0.097709306
229	0xbe1b7060	-0.15179586
230	0x3e13b02a	0.1442267
231	0xbe9997d8	-0.2999866
232	0x3e9eb461	0.30996993
233	0x3dd360e3	0.10321214
234	0x3ddd92f1	0.108190425
235	0x3da003ce	0.07813226
236	0x3eb87915	0.36029878
237	0x3db0d946	0.086351916
238	0xbd1c4312	-0.0381499
239	0x3e31802a	0.17334047
240	0x3d3d0c93	0.04615457
241	0xbe4809a7	-0.19534932
242	0x3dd77bbf	0.105216496
243	0xbd4fad43	-0.050702345
244	0x3dd2ee49	0.102993555
245	0x3eb48039	0.35254076
246	0x3c1f0c22	0.0097074825
247	0x3ea330ac	0.3187307
248	0x3e03e38a	0.12879768
249	0xbcc34cd2	-0.023840342
250	0xbe1f6684	-0.1556645
251	0x3d626002	0.05526734
252	0xbcf44f92	-0.029823098
253	0xbd9422c9	-0.07233197
254	0x3e6389c6	0.22220525
255	0xbe428f34	-0.1899994

net.0.bias f4 [60]
0	0x3d1d142c	0.038349316
1	0x3cd1b23f	0.02559769
2	0xbcc6d04c	-0.024269246
3	0xbe00e0ea	-0.12585798
4	0x3da6ebe5	0.08150462
5	0x3d964bfa	0.0733871
6	0x3e6d9e2b	0.23204868
7	0x3d87944e	0.06620084
8	0x3ddb28d9	0.107011504
9	0xbde56c77	-0.11202329
10	0xbd3fe314	-0.046847418
11	0xbd4bc492	-0.04974801
12	0x3d723c4e	0.059139542
13	0x3ca2db21	0.01987988
14	0x3dabcac3	0.08388283
15	0x3cacdf27	0.021102501
16	0x3db4b5a2	0.08823706
17	0xbe19b1b7	-0.15009199
18	0x3ddd35fa	0.10801311
19	0xbd8d6ab3	-0.06905117
20	0xbda37d90	-0.079829335
21	0xbc489706	-0.012243038
22	0xbcde0e82	-0.027106527
23	0x3c65c333	0.01402359
24	0xbc8585fb	-0.016299238
25	0xbe134849	-0.14383043
26	0xbde0299a	-0.10945435
27	0x3d93d017	0.07217424
28	0x3e09c91c	0.13455623
29	0xbced11f2	-0.028939221
30	0xbd80dfad	-0.06292663
31	0x3de54304	0.11194423
32	0x3d1179c3	0.03551651
33	0xbe16d8d8	-0.14731157
34	0x3e105fce	0.14099047
35	0x3d1e6f9f	0.03868067
36	0x3dc8c21a	0.09802647
37	0xbdf1cff7	-0.11807244
38	0xbdef11bd	-0.11673305
39	0xbe07d697	-0.13265453
40	0xbdc6573b	-0.09684607
41	0xbdf0ebd8	-0.117637336
42	0x3de9e2d4	0.11420217
43	0x3aa812c3	0.0012822974
44	0x3dd92493	0.10602679
45	0xbe279b0f	-0.16367744
46	0xbe1a63bf	-0.15077113
47	0xbd89134b	-0.06693133
48	0xbd76da8d	-0.06026702
49	0xbe0be1c3	-0.1366034
50	0x3cde1327	0.027108742
51	0xbc2824cb	-0.010262678
52	0xbe09763b	-0.13424008
53	0xbe07c39c	-0.13258213
54	0xbd905a60	-0.07048488
55	0xbe04713a	-0.12933818
56	0x3dc206a8	0.09473926
57	0x3d503928	0.05083576
58	0x3d270889	0.040779624
59	0xbc3bf794	-0.011472601

net.2.weight f4 [60, 60]
0	0x3d3f6f63	0.046737086
1	0xbd0b6137	-0.03402826
2	0x3e891e16	0.26780766
3	0xbdd3f979	-0.103503175
4	0x3d1ffbab	0.03905837
5	0x3d9a1799	0.07524032
6	0x3e0dd4f6	0.1385077
7	0xbd91c51f	-0.07117676
8	0xbe085898	-0.13315046
9	0xbda7b7e5	-0.08189372
10	0x3c50ff76	0.012756219
11	0x3dcd5ae7	0.10027104
12	0x3da57bff	0.08080291
13	0xbd24e51b	-0.040257555
14	0x3e1fae56	0.15593848
15	0x3c3dd89d	0.011587289
16	0xbb325745	-0.0027212661
17	0xbe06e8a2	-0.1317468
18	0x3cdcee4c	0.026969098
19	0x3e5cfc52	0.21580628
20	0xbe376dbd	-0.17912956
21	0xbde7ca7b	-0.11317917
22	0x3da4e188	0.08050829
23	0xbd635f6c	-0.055510923
24	0xbd3d1b57	-0.04616865
25	0xbe36c2fc	-0.17847818
26	0x3db056d9	0.08610315
27	0x3e246ae9	0.16056408
28	0x3daac1e8	0.08337766
29	0xbd989080	-0.07449436
30	0xbe9c6c8c	-0.30551565
31	0xbe75bc89	-0.23997702
32	0xbd999155	-0.07498423
33	0x3df70ab2	0.12062587
34	0x3d3e52f3	0.046465825
35	0x3e2bf7b5	0.16793711
36	0xbd3ae9b6	-0.04563304
37	0x3c8b2e24	0.016989775
38	0xbe4f2ce9	-0.20231976
39	0x3cc475bb	0.02398192
40	0xbe1f0d39	-0.15532388
41	0xbdee53d9	-0.116370864
42	0xbd6ab315	-0.057299692
43	0x3cd64283	0.026154762
44	0x3db238a3	0.08702209
45	0xbd0ee725	-0.034888405
46	0xbeb3694e	-0.3504128
47	0x3d9cd1ec	0.07657227
48	0x3d5083a1	0.05090678
49	0xbc4eb874	-0.012617219
50	0x3d58d02e	0.05293291
51	0x3c5e2934	0.013559628
52	0x3e183f08	0.14867795
53	0xbbbf107e	-0.0058308234
54	0x3e163ee2	0.14672425
55	0x3e38fd61	0.18065406
56	0xbd8c1771	-0.068404086
57	0x3e34ad94	0.1764434
58	0x3e67e3e7	0.22645532
59	0xbc76c3d1	-0.015061335
60	0x3d23ca40	0.039987803
61	0xbc03f289	-0.00805343
62	0x3dd23a8d	0.10265074
63	0xbd5c11fb	-0.053728085
64	0xbca9c5a1	-0.02072412
65	0xbe7ba107	-0.24573146
66	0xbdb536f3	-0.08848371
67	0x3d47d800	0.048789978
68	0x3d6bca26	0.05756583
69	0x3d87100e	0.06594859
70	0x3c6d2a6a	0.014475444
71	0xbd3b8549	-0.045781408
72	0xbd9a03bf	-0.07520246
73	0x3e8ad955	0.27118936
74	0xbd15b3f7	-0.03654858
75	0xbd8fc1f9	-0.07019419
76	0xbdbe7b7c	-0.093008965
77	0x3df21499	0.11820335
78	0x3d31b540	0.043385744
79	0x3d40c8c1	0.047066454
80	0xbdc49319	-0.09598369
81	0xbdeb4619	-0.114879794
82	0x3d35eaf5	0.044413526
83	0xbc4274e5	-0.01186869
84	0x3e097529	0.134236
85	0x3deecab1	0.11659754
86	0xbe78bf5d	-0.2429175
87	0x3d5ebb0c	0.0543776
88	0xbdaaaf05	-0.083341636
89	0xbc9d5fd7	-0.019210739
90	0xbd8071d1	-0.06271709
91	0xbcb83e17	-0.022490544
92	0xbc8756f5	-0.016520957
93	0x3d103205	0.035203952
94	0x3d600aed	0.05469792
95	0x3dc31435	0.095253386
96	0x3e46edde	0.19426677
97	0x3bc31f38	0.0059546493
98	0xbdea3e17	-0.11437624
99	0xb985b7e3	-0.00025504743
100	0xbd8e8cb9	-0.069604345
101	0xbe89613e	-0.26832002
102	0xbd655e65	-0.055998225
103	0x3cffe01f	0.031234799
104	0x3d9ceac3	0.07661965
105	0x3d8e36a5	0.06944016
106	0xbba3daee	-0.0050004637
107	0xbc5d30cd	-0.013500405
108	0xbd9c9db0	-0.07647264
109	0x3c897c7f	0.016782997
110	0x3e06d0d7	0.13165604
111	0xbdee59de	-0.116382346
112	0x3e5edcaf	0.21763872
113	0xbe0f1b73	-0.13975315
114	0xbdad2aac	-0.08455405
115	0x3db81b2a	0.08989556
116	0x3de69c80	0.11260319
117	0x3e444962	0.19168618
118	0x3cc7abe5	0.024373958
119	0xbca18673	-0.01971743
120	0xbd4f96a8	-0.050680786
121	0xbddd4561	-0.108042486
122	0x3e4ca684	0.19985396
123	0x3c8e1e52	0.017348442
124	0x3d0db5e9	0.03459731
125	0xbd74cf04	-0.059767738
126	0xbd27b650	-0.04094535
127	0xbe438a0d	-0.19095631
128	0xbe54696e	-0.20743343
129	0xbd1b2693	-0.037878584
130	0x3db87009	0.09005744
131	0xbcb7b7ab	-0.022426447
132	0xbe4aadb1	-0.1979282
133	0x3d611fda	0.054962017
134	0xbdef85a6	-0.11695413
135	0x3d9a3b1c	0.075308055
136	0xbc0e4467	-0.008683301
137	0x3d4981d9	0.049196098
138	0xbd6b05de	-0.057378642
139	0xbdaee6c8	-0.08540112
140	0x3d8252fe	0.06363486
141	0xbe562d88	-0.20915806
142	0x3db3d445	0.087807216
143	0x3d8c754d	0.06858311
144	0xbdeaf25e	-0.11472009
145	0x3d2f7124	0.04283251
146	0x3e85f0e9	0.26160362
147	0x3e184bff	0.1487274
148	0x3d14fb4b	0.036372464
149	0xbcd34f65	-0.025794694
150	0xbe0f8fa0	-0.14019632
151	0xbe526a85	-0.20548446
152	0x3e0705b7	0.13185774
153	0x3dc8e59b	0.09809419
154	0x3e359b36	0.1773499
155	0xbd07fa70	-0.03319782
156	0x3e4d1f77	0.20031534
157	0x3d9bdfa7	0.07611018
158	0xbc958ee2	-0.018256608
159	0xbdeee024	-0.11663845
160	0x3ead842e	0.33889908
161	0x3c802cd7	0.015646381
162	0xbee6f5c4	-0.4510938
163	0xbe7b8b32	-0.24564818
164	0xbdc0b909	-0.09410293
165	0x3d31d6e4	0.043417826
166	0xbe0f0a93	-0.13968877
167	0xbd02d59d	-0.031942
168	0xbea421b6	-0.3205697
169	0x3af6727e	0.0018802432
170	0xbc97f334	-0.018548585
171	0x3d924c74	0.071434885
172	0xbe10f2e7	-0.1415516
173	0x3d6435de	0.055715434
174	0x3c95e447	0.018297328
175	0xbcced5e8	-0.025248483
176	0x3ddd5d48	0.108088076
177	0x3e7b48c3	0.24539475
178	0xbe254f93	-0.16143636
179	0x3e32df40	0.17467976
180	0xbd17749f	-0.036976453
181	0xbde58275	-0.11206523
182	0xbd0033e0	-0.03129947
183	0x3cadff67	0.02123995
184	0xbcf7ec6e	-0.030264106
185	0xbe259f65	-0.16174085
186	0xbdd856c8	-0.10563427
187	0x3d8a1a66	0.06743316
188	0xbce48925	-0.027897427
189	0xbddd5387	-0.10806947
190	0xbdc82fa9	-0.097747155
191	0xbdc9d14a	-0.09854372
192	0xbea36fc6	-0.31921214
193	0xbe9c39f8	-0.30512977
194	0xbd55743a	-0.052112795
195	0xbe895466	-0.26822203
196	0xbe95ed4d	-0.2928261
197	0xbddda92a	-0.10823281
198	0x3d6dc5e7	0.058050063
199	0xbe70848b	-0.23488061
200	0xbc90405a	-0.01760881
201	0xbd461ff3	-0.048370313
202	0xbcc06e07	-0.023489965
203	0x3abea920	0.0014546253
204	0xbc455634	-0.012044478
205	0x3d8d7cc7	0.06908565
206	0x3e3f88a6	0.18704471
207	0x3d77a7cd	0.06046276
208	0xbde1ae89	-0.11019618
209	0xbdd14bb5	-0.10219518
210	0xbd9faec6	-0.07797007
211	0x3cad30d6	0.02114145
212	0x3ea9002e	0.3300795
213	0x3c49dc97	0.012320659
214	0x3c9bad51	0.019003542
215	0xbe0ece23	-0.13945822
216	0xbd845160	-0.064608335
217	0xbe48ec31	-0.1962135
218	0xbcece93a	-0.028919805
219	0x3e141231	0.14460064
220	0x3dbff419	0.0937273
221	0x3e01e57c	0.12685198
222	0x3c9de031	0.019271942
223	0xbd51e5f5	-0.051244695
224	0xbd9bc7c2	-0.0760646
225	0x3cba5a91	0.022748264
226	0xbe5ab4dd	-0.21358056
227	0x3cc88b45	0.024480471
228	0x3dc9d1c1	0.098544605
229	0x3d875d9f	0.06609654
230	0x3e7bbce2	0.24583772
231	0xbd473552	-0.048634835
232	0x3dc42162	0.0957668
233	0xbd1b01f1	-0.03784365
234	0xbdd54de8	-0.1041525
235	0x3e11ebfb	0.14250176
236	0x3e7db758	0.24776971
237	0x3e6bcd42	0.23027518
238	0x3e2836f6	0.16427216
239	0xbc82f4e6	-0.015985917
240	0xbd4b4615	-0.049627382
241	0xbd21b30c	-0.039477393
242	0xbccebe70	-0.025237292
243	0xbd5705a9	-0.052495632
244	0xbe479e98	-0.19494092
245	0x3d4b0a0c	0.04957013
246	0xbddcfc38	-0.107902944
247	0xbca62200	-0.020279884
248	0x3ce6b952	0.02816454
249	0x3d67ada0	0.056562066
250	0x3e16d0e5	0.14728124
251	0x3caec9fd	0.02133655
252	0x3dd3daef	0.10344493
253	0xbd92cfd7	-0.071685486
254	0x3da9e290	0.082951665
255	0x39818303	0.0002470241

net.2.bias f4 [60]
0	0xbd4941aa	-0.049134888
1	0x3d056d39	0.032574866
2	0x3c79f673	0.015256512
3	0x3dbc209b	0.091859065
4	0xbdbbaa1c	-0.09163305
5	0x3d0afa53	0.033930134
6	0xbcdec85f	-0.027195154
7	0x3d6f3346	0.058398508
8	0x3dcc77bb	0.09983774
9	0xbd7c1b56	-0.061549507
10	0x3d54e812	0.051979132
11	0x3cd3bd4d	0.025847102
12	0x3db83a11	0.0899545
13	0xbcc898d6	-0.02448694
14	0x3ceb4ee7	0.028724147
15	0x3c61f5b4	0.01379149
16	0x3d4d4150	0.050111115
17	0x3d74d69b	0.059774976
18	0xbde9f3fc	-0.114234895
19	0x3e0ca71f	0.13735627
20	0xbd433bfb	-0.047664624
21	0xbd6c9630	-0.057760417
22	0xbceca2bc	-0.028886192
23	0x3d5f015f	0.054444667
24	0xbcf7c46c	-0.030245028
25	0x3cd9fad0	0.026608855
26	0xbd9d12a8	-0.07669574
27	0xbccdb01e	-0.025108393
28	0x3d826f5f	0.063688986
29	0xbd201c4b	-0.039089482
30	0x3cc0b4ab	0.02352365
31	0x3d7d8ee0	0.061903834
32	0x3d2a2e3e	0.041548006
33	0xbd09654d	-0.033543874
34	0xbd394b24	-0.045237675
35	0xbdab7f6c	-0.08373913
36	0x3ce34bb2	0.027746055
37	0x3def26ef	0.11677348
38	0x3bf6b2f7	0.0075286585
39	0x3d570183	0.052491676
40	0xbbc4fea2	-0.0060118
41	0xbbcddd27	-0.006282467
42	0xbd3f1cf5	-0.046658475
43	0x3b2b78da	0.0026164562
44	0xbb927b48	-0.0044702627
45	0xbd9e8381	-0.07739926
46	0x3d96f808	0.07371527
47	0xbd9a7ac9	-0.07542951
48	0x3d79edf4	0.061017945
49	0xbc3d3e0d	-0.011550439
50	0x3d8b63d5	0.06806151
51	0xbdab985e	-0.08378671
52	0x3ddcc05a	0.10778876
53	0xbd632dd7	-0.05546364
54	0xbd8310d4	-0.06399694
55	0x3dc0cd5c	0.09414169
56	0x3d2e68ac	0.04258029
57	0xbcbbe6d2	-0.022937212
58	0x3c97a3e0	0.018510759
59	0xbd98ce0b	-0.074611746
