results/PINN/XJTU results/0-0/Experiment7/model.pth (torch, 60271 bytes, 14 tensors)

encoder.net.0.weight f4 [60, 17]
0	0x3e4698b5	0.1939419
1	0xbdc5cd69	-0.096583195
2	0x3dbd7568	0.09250909
3	0xbe2b13f9	-0.16706838
4	0x3d0db966	0.034600638
5	0x3d4364eb	0.047703665
6	0xbdab1a27	-0.083545975
7	0xbe1a616f	-0.1507623
8	0x3df16ac2	0.117879406
9	0xbe2fcb6e	-0.17167446
10	0xbe169406	-0.14704904
11	0x3da4bed0	0.08044207
12	0x3e3fb79f	0.1872239
13	0xbdb55df4	-0.08855811
14	0x3da9f671	0.08298958
15	0x3e813521	0.25235847
16	0x3cc2a853	0.023761904
17	0xbdc8875a	-0.09791441
18	0x3d8faa53	0.07014909
19	0xbd2d8230	-0.042360485
20	0x3d9fd9e1	0.07805229
21	0xbda7f435	-0.08200876
22	0x3e241a39	0.16025628
23	0xbc04f33a	-0.00811463
24	0xbe454422	-0.19264272
25	0xbd921dbe	-0.07134579
26	0xbc76d7a0	-0.015066057
27	0xbdc41809	-0.09574897
28	0xbe9f1d39	-0.31076983
29	0x3e2519d1	0.1612313
30	0x3d86906b	0.06570514
31	0xbdcdac4d	-0.100426294
32	0xbc392475	-0.011300196
33	0xbbe4bd73	-0.006980592
34	0xbc70e5e7	-0.0147032505
35	0x3dd1bd10	0.10241139
36	0xbe695f9e	-0.22790381
37	0x3e8a3285	0.26991668
38	0xbe69506c	-0.22784585
39	0x3d21f503	0.039540302
40	0xbd0bb470	-0.034107625
41	0xbe85c2f0	-0.26125288
42	0xbd52bca0	-0.051449418
43	0xbc9ff05a	-0.019523788
44	0x3da1ecd9	0.07906503
45	0x3ba4179d	0.0050076977
46	0x3e2c1efa	0.16808692
47	0xbe615a5d	-0.22007127
48	0xbc1a76d4	-0.009427745
49	0xbd993006	-0.07479863
50	0x3d8bdbc3	0.068290256
51	0x3debbd4f	0.11510717
52	0x3d19bf19	0.03753576
53	0x3dc20e3f	0.094753735
54	0xbe32f7ab	-0.1747729
55	0x3ea39eaa	0.3195699
56	0xbe50e8a6	-0.20401248
57	0xbed14676	-0.4087407
58	0xbc6400c6	-0.0139162
59	0x3d2ad89a	0.041710474
60	0xbc7c258c	-0.015389811
61	0x3d5aa707	0.053381946
62	0xbd85155c	-0.064982146
63	0xbebe0fb8	-0.37121367
64	0x3e876ab1	0.26448587
65	0xbe060b55	-0.1309026
66	0x3c553c63	0.013014886
67	0x3e01eec9	0.12688746
68	0x3dd0e8da	0.10200663
69	0xbca59c6e	-0.020216193
70	0xbe20e7d7	-0.1571344
71	0xbd82f171	-0.063937075
72	0x3e28aabb	0.16471379
73	0x3e952282	0.2912789
74	0x3d48626a	0.04892198
75	0x3d8f2de6	0.06991176
76	0x3c5e3b44	0.013563935
77	0x3dbba652	0.091625825
78	0x3c3778f5	0.011198272
79	0xbef23512	-0.47306114
80	0x3ca970ad	0.02068361
81	0x3e3d2c6c	0.18473977
82	0xbda9a03c	-0.082825154
83	0xbdd67c88	-0.10472971
84	0x3d07efa6	0.03318753
85	0xbd8fe3d6	-0.07025878
86	0x3d2c9fb1	0.04214448
87	0x3e67b1e8	0.2262646
88	0x3d403d75	0.04693361
89	0xbe795bf3	-0.24351482
90	0xbd89f819	-0.06736774
91	0x3e72a75b	0.23696654
92	0x3e4ca544	0.19984919
93	0xbd80638c	-0.06268987
94	0x3de6db90	0.11272347
95	0x3da2708e	0.07931624
96	0xbde41bf1	-0.11138142
97	0xbe796cf8	-0.24357975
98	0x3dd98b6a	0.10622294
99	0xbd789302	-0.060687073
100	0x3e3fe7ef	0.1874082
101	0xbbf5b4c5	-0.007498356
102	0x3e915092	0.28381783
103	0xbcbbe419	-0.022935914
104	0x3d2feea7	0.042952206
105	0x3e4052e1	0.18781616
106	0x3d8082f7	0.062749796
107	0x3ddf7ba7	0.10912257
108	0xbd00515a	-0.031327583
109	0xbcd737aa	-0.02627166
110	0x3de7fbef	0.113273494
111	0x3d13e055	0.03610261
112	0x3db07c6d	0.08617482
113	0x3df9dfe9	0.122009106
114	0x3d905828	0.070480645
115	0x3cbdd463	0.023172563
116	0xbd84c562	-0.0648296
117	0x3dc964de	0.09833692
118	0x3d752bf8	0.059856385
119	0xbcd537fd	-0.026027674
120	0xbd54d0e5	-0.05195703
121	0x3e4e1a43	0.20127206
122	0xbe5a38b8	-0.21310699
123	0x3dd00e88	0.101590216
124	0xbe7ce34c	-0.24696082
125	0x3e6fdb0c	0.23423404
126	0xbd64f68a	-0.05589918
127	0xbd99462f	-0.074840896
128	0x3e200640	0.15627384
129	0xbe3122fd	-0.17298503
130	0xbe5b787c	-0.2143268
131	0x3e5ab064	0.2135635
132	0xbe636829	-0.22207703
133	0xbc5b0c7b	-0.013369675
134	0x3d37691e	0.044777982
135	0x3dd36a0c	0.10322961
136	0x3e774f01	0.24151231
137	0xbf09105f	-0.53540605
138	0x3e5b9ab2	0.2144573
139	0x3de81ce7	0.11333638
140	0x3d6fa81e	0.05850994
141	0x3ddd8aca	0.108174875
142	0xbddd4cdc	-0.108056754
143	0x3d917b8f	0.07103645
144	0x3dd8622b	0.10565599
145	0x3e91b953	0.28461704
146	0x3ce84faa	0.0283583
147	0x3dc77d9c	0.09740755
148	0x3e1856d0	0.14876866
149	0xbd8eb05d	-0.069672324
150	0x3ebaf502	0.3651505
151	0xbca1ea01	-0.019764902
152	0xbd105ae4	-0.03524293
153	0xbe9323fb	-0.28738388
154	0xbd4adb24	-0.049525395
155	0xbda4a879	-0.08039946
156	0xbe1a4c81	-0.15068246
157	0xbe32058c	-0.17384928
158	0x3e3be709	0.18349852
159	0xbd8165b8	-0.063182294
160	0x3d7620c9	0.06008986
161	0xbe7f914b	-0.24957769
162	0x3e282717	0.16421162
163	0xbdd6ecba	-0.10494371
164	0x3e5eceeb	0.2175862
165	0xbde8d825	-0.11369351
166	0x3ce791ae	0.028267708
167	0xbe075ab9	-0.13218202
168	0xbe10fc8a	-0.14158836
169	0x3e958ab6	0.2920739
170	0xbd27232a	-0.04080502
171	0x3e481609	0.19539656
172	0xbdd8ddf2	-0.10589208
173	0xbd907bf3	-0.070548914
174	0x3e133c7e	0.14378545
175	0xbe46c879	-0.19412412
176	0x3d004257	0.031313267
177	0xbe529472	-0.2056444
178	0xbdb7309a	-0.08944817
179	0x3deae1a5	0.114688195
180	0x3d2862fb	0.04111002
181	0xbdd5120d	-0.104038335
182	0x3d09d0eb	0.033646505
183	0xbd1b1cbe	-0.037869208
184	0xbcb7e886	-0.022449743
185	0x3d2f6f9f	0.04283106
186	0xbe08c330	-0.13355708
187	0xbde3bf01	-0.111204155
188	0x3d874d92	0.06606592
189	0xbc828e22	-0.015936915
190	0xbd1feddb	-0.039045196
191	0x3cd9fbf3	0.026609397
192	0xbe37d2b3	-0.17951469
193	0xbd9ae75f	-0.07563662
194	0x3cbd7b12	0.023129974
195	0xbe80a71d	-0.25127497
196	0xbeaebbc1	-0.3412762
197	0xbd209bde	-0.039211147
198	0xbe2a5436	-0.16633686
199	0x3ccb4a49	0.024815695
200	0x3d8d0705	0.068861045
201	0x3d87584e	0.0660864
202	0x3dce8495	0.10083882
203	0x3cc6ec6b	0.024282655
204	0xbe64f421	-0.22358753
205	0x3c80ed6c	0.015738212
206	0x3e0f2849	0.13980211
207	0x3ea83a9c	0.32857215
208	0x3d74d2c3	0.05977131
209	0x3b0ecef0	0.0021790825
210	0x3c9e8d76	0.019354563
211	0x3e420a78	0.18949306
212	0xbccc4de4	-0.024939485
213	0x3dc3da0a	0.09563072
214	0x3e0897c2	0.13339141
215	0xbbdd7dad	-0.0067593665
216	0x3b56f735	0.0032801155
217	0xbea291bc	-0.31751812
218	0xbd5a115b	-0.053239208
219	0xbcbc7783	-0.023006206
220	0x3cff4d5f	0.031164823
221	0xbcbcb2d8	-0.023034498
222	0x3e46e0a0	0.19421625
223	0xbe40c041	-0.18823339
224	0xbdc0e10d	-0.09417925
225	0x3db0a4dc	0.086251944
226	0x3ea2de1c	0.3181008
227	0xbe35d154	-0.17755634
228	0xbdfd5397	-0.12369459
229	0xbec3cf7e	-0.3824424
230	0xbd1a9071	-0.037735406
231	0x3bb2c080	0.0054550767
232	0xbc5c07da	-0.013429606
233	0x3e200a95	0.15629037
234	0xbda28796	-0.07936017
235	0x3e9235c1	0.28556636
236	0x3de591a9	0.11209423
237	0x3eaa2289	0.33229473
238	0xbe6f7ac4	-0.23386675
239	0xbcc4a5d1	-0.024004849
240	0x3d9a6f70	0.07540786
241	0xbeabf4f2	-0.33585316
242	0xbd97e7be	-0.07417248
243	0x3e0fed38	0.14055336
244	0x3cca7950	0.02471605
245	0x3b862aca	0.0040944563
246	0xbdbea9ef	-0.09309756
247	0x3d1face7	0.038983252
248	0xbf0394de	-0.5139903
249	0xbe09fbd2	-0.13474968
250	0x3df73725	0.12071065
251	0x3aef54fa	0.0018259578
252	0xbec56ff3	-0.38561973
253	0x3d497290	0.04918152
254	0x3ca5e297	0.020249648
255	0xbddace0d	-0.10683832

encoder.net.0.bias f4 [60]
0	0x3c0e70b0	0.008693859
1	0x3c9b5572	0.018961642
2	0xbd391005	-0.045181293
3	0xbd356bc4	-0.044292226
4	0x3cf4ef68	0.029899314
5	0x3d0ee645	0.03488757
6	0x3d304d16	0.043042265
7	0xbcf18ba4	-0.029485531
8	0x3d27d0ab	0.040970486
9	0xbd7bac14	-0.061443403
10	0x3c2c1196	0.01050224
11	0x3d50b210	0.050951064
12	0x3badf65a	0.0053089084
13	0x3d216651	0.039404217
14	0xbd1892c8	-0.037249357
15	0x3d926c31	0.07149542
16	0xbd3a1f41	-0.045439962
17	0x3d826599	0.063670345
18	0x3d38b738	0.045096606
19	0x3cb84517	0.022493882
20	0xbd18935f	-0.03724992
21	0xbd1d395f	-0.03838479
22	0x3c212959	0.009836518
23	0x3d66052c	0.056157276
24	0x3d7d9ff6	0.06192013
25	0xbd468660	-0.048467994
26	0xbc6c8148	-0.01443512
27	0x3d29906b	0.041397493
28	0xbd776504	-0.06039907
29	0xbd371b3e	-0.044703715
30	0xbd62e44e	-0.05539351
31	0x3cc90887	0.024540199
32	0x3d481e57	0.04885706
33	0xbd1c9227	-0.03822532
34	0xbd2d8a82	-0.04236842
35	0xbc342b37	-0.010996631
36	0x3d32b6cb	0.043631356
37	0xbbc117e5	-0.005892741
38	0x3c0d722d	0.008633179
39	0xbc2f0f46	-0.010684794
40	0x3daad9e5	0.08342341
41	0x3cfc1a05	0.030774126
42	0xbd5a2f0f	-0.053267535
43	0x3cfcfee0	0.030883253
44	0xbd1c161c	-0.038107023
45	0xbd16bc3e	-0.036800615
46	0x3d1f2046	0.038849138
47	0x3d0faefb	0.035078984
48	0x3d246b3e	0.040141337
49	0x3d5af37d	0.053454865
50	0x3d3efcf5	0.046627957
51	0xbd408737	-0.04700395
52	0xbd2dc359	-0.042422626
53	0xbd283706	-0.0410681
54	0xbd447f83	-0.047973167
55	0x3d40f81d	0.04711162
56	0xbd43e521	-0.047825936
57	0xbd7e7293	-0.062120985
58	0x3c9a2845	0.01881803
59	0xbd36bbe0	-0.044612765

encoder.net.2.weight f4 [60, 60]
0	0x3d949e53	0.072567604
1	0xbc8ce4e1	-0.017198982
2	0x3e30f7a9	0.17281975
3	0x3e55875c	0.20852417
4	0xbd3a0417	-0.045414057
5	0xbe0b2330	-0.13587642
6	0xbdd133d9	-0.10214967
7	0x3cb08a4c	0.02155032
8	0xbdc2cd28	-0.09511787
9	0xbdb7757d	-0.08957956
10	0xbc2df398	-0.010617159
11	0x3e1a37b8	0.15060318
12	0x3e8b7f92	0.27245766
13	0xbdd6011c	-0.1044943
14	0xbe65b34d	-0.22431679
15	0x3d1b483e	0.037910692
16	0x3e26cdd3	0.16289453
17	0xbd29988d	-0.04140525
18	0xbe101b88	-0.14073002
19	0xbe50ff9c	-0.20410007
20	0xbdd5deac	-0.10442862
21	0xbdaf0cc3	-0.08547356
22	0x3e4f55e6	0.20247611
23	0x3e2c44d4	0.16823131
24	0xbded4c8e	-0.11586867
25	0xbe08ed35	-0.13371737
26	0xbc767793	-0.015043157
27	0xbd2793ff	-0.040912624
28	0xbe3ff21b	-0.187447
29	0xbdf590d8	-0.119905174
30	0x3dcef74c	0.10105762
31	0xbe1ace0e	-0.15117666
32	0x3e10f62c	0.14156407
33	0xbdcc47ce	-0.09974633
34	0x3ad9847b	0.0016595268
35	0xbe0c741e	-0.1371617
36	0x3d606878	0.05478713
37	0x3d8d41ca	0.06897314
38	0xbb738049	-0.0037155321
39	0x3e581284	0.21100813
40	0x3d55c311	0.052187983
41	0x3ddc6f06	0.107633635
42	0x3baf2d1b	0.005345953
43	0xbc027a30	-0.007963702
44	0xbdb6af5c	-0.08920166
45	0x3e566b8f	0.20939468
46	0x3ccc27d0	0.024921328
47	0x3d2665de	0.040624492
48	0x3dc24799	0.094863124
49	0x3d2435e7	0.040090468
50	0x3d7bcaad	0.061472584
51	0xbdbf2167	-0.09332543
52	0xbda8ccf7	-0.08242219
53	0x3e49c713	0.19704847
54	0x3dba03ba	0.09082742
55	0xbca61819	-0.020275163
56	0xbe01ea27	-0.12686978
57	0xbd7daf60	-0.06193483
58	0xbc581e8b	-0.013190876
59	0xbd4a3326	-0.049365185
60	0x3db7b7a3	0.08970573
61	0x3d5b2e06	0.05351069
62	0xbdc667fb	-0.096878015
63	0x3cf4f816	0.029903453
64	0x3c68ea80	0.014216065
65	0x3c8840cf	0.016632466
66	0xbd8a5c11	-0.067558415
67	0xbe0473b9	-0.1293477
68	0x3cc7cdb7	0.024390085
69	0xbd940f9a	-0.07229538
70	0x3d443948	0.04790619
71	0xbd1229d1	-0.03568441
72	0x3d94abc2	0.07259323
73	0xbd87fe6b	-0.06640323
74	0x393f79b0	0.00018260512
75	0xbc4c7061	-0.012477965
76	0x3e3ee278	0.18641078
77	0x3dc5bc00	0.09654999
78	0x3e3752ae	0.17902634
79	0x3e81317b	0.25233063
80	0xbccd8509	-0.02508785
81	0xbc8b6043	-0.017013675
82	0xbe0b5bd5	-0.1360925
83	0xbc24ae91	-0.0100513855
84	0xbdb21b77	-0.08696645
85	0x3d901391	0.07034982
86	0x3e20d9e2	0.15708116
87	0x3deb0b73	0.11476793
88	0xbc54ae34	-0.012980986
89	0x3dec285b	0.11531135
90	0x3df08b18	0.1174528
91	0xbd934741	-0.07191325
92	0xbcadafc1	-0.02120197
93	0xbd764140	-0.06012082
94	0x3d865398	0.06558913
95	0xbcdcf09d	-0.026970202
96	0xbd804baf	-0.062644355
97	0xbd96b54f	-0.073588006
98	0x3db0f20c	0.08639917
99	0xbc49396b	-0.012281756
100	0x3e34e4db	0.17665426
101	0xbda12911	-0.07869161
102	0xbe900933	-0.28132018
103	0xbdaebe41	-0.08532382
104	0x3d490ee2	0.04908646
105	0x3e6d0ffc	0.23150629
106	0xbd10fce0	-0.03539741
107	0x3db0fc65	0.086418904
108	0xbdd1834b	-0.1023012
109	0x3dacb8b8	0.0843367
110	0xbcaf2d61	-0.021383943
111	0xbd784696	-0.06061419
112	0x3d46cdd8	0.04853615
113	0x3d224d44	0.039624467
114	0x3e5e19e3	0.21689562
115	0xbd2bb779	-0.04192302
116	0x3dde6f34	0.10861054
117	0x3e9413b1	0.28921273
118	0x3d55b970	0.0521788
119	0xbca237dc	-0.019802026
120	0xbe4ba409	-0.19886793
121	0xbc43dd14	-0.011954565
122	0x3dde2c6b	0.10848316
123	0x3e12eacb	0.14347379
124	0x3cd2179c	0.025646023
125	0xbe0ff42e	-0.14057991
126	0x3d8ef3b8	0.069800794
127	0xbe284ec7	-0.16436301
128	0xbdcf8ea7	-0.10134631
129	0x3d895dbf	0.06707334
130	0xbe0b3541	-0.13594534
131	0x3ea9676a	0.3308671
132	0xbcf090d7	-0.02936594
133	0xbbd3fbe9	-0.006469239
134	0x3b8d0005	0.004302981
135	0xbe7f9926	-0.24960765
136	0xbe1bb970	-0.15207458
137	0x3bf6a639	0.0075271395
138	0x3cedec7d	0.02904343
139	0xbd83f8a8	-0.06443912
140	0x3cc5d63b	0.024150005
141	0x3dac492f	0.08412396
142	0xbc900f03	-0.017585283
143	0x3e6b007b	0.22949402
144	0x3d87a82f	0.06623875
145	0xbe9d2288	-0.30690408
146	0x3e631dd0	0.22179341
147	0xbca42971	-0.020039292
148	0x3d167c3c	0.036739573
149	0x3e34f414	0.17671233
150	0xbe402cf5	-0.1876715
151	0x3d93f756	0.0722491
152	0x3c9f8db1	0.019476743
153	0xbd5401c7	-0.051759508
154	0x3d96496a	0.07338221
155	0xbcb2585d	-0.02177065
156	0x3e3e857c	0.18605608
157	0xbda3a8ea	-0.07991202
158	0x3de17bb6	0.11009924
159	0x3d718b9b	0.05897103
160	0xbdbcbd7d	-0.092158295
161	0xbc4db5a2	-0.012555512
162	0xbe734497	-0.23756634
163	0x3d6fde3c	0.05856155
164	0xbe605729	-0.21908249
165	0xbcc25d02	-0.02372599
166	0xbdb519a8	-0.08842784
167	0xbd31593b	-0.043297987
168	0xbd6f8f6a	-0.05848638
169	0x3d429ee4	0.04751481
170	0xbe71252b	-0.23549335
171	0xbca34c18	-0.019933745
172	0x3d228ed2	0.039686985
173	0x3e2363af	0.15955995
174	0x3db4a07d	0.08819673
175	0x3e213bef	0.15745519
176	0x3de626e2	0.11237885
177	0x3cf03925	0.029324124
178	0xbe0b0c0d	-0.13578816
179	0xbbff62f0	-0.0077937767
180	0x3d473b74	0.048640683
181	0x3db35859	0.08757085
182	0x3d509612	0.05092437
183	0x3dfa1b77	0.1221227
184	0xbe2b8675	-0.1675051
185	0xbdf15e1e	-0.117855296
186	0x3d5131b4	0.05107279
187	0x3d9d5016	0.07681291
188	0x3dc45e2e	0.09588276
189	0x3e329546	0.17439756
190	0xbda3d26a	-0.07999118
191	0xbd7dd8fe	-0.061974518
192	0xbe062319	-0.13099326
193	0x3e4d00e8	0.20019877
194	0xbd759d16	-0.059964262
195	0xbe91a500	-0.28446198
196	0x3cf3e417	0.029771848
197	0xbd460a89	-0.04834989
198	0xbdd0fe64	-0.10204771
199	0xbd627e25	-0.055296082
200	0xbbba6056	-0.0056877537
201	0x3c49f567	0.012326575
202	0x3e24112b	0.16022174
203	0xbde86e66	-0.11349182
204	0xbe51f2a4	-0.20502716
205	0x3de0b153	0.10971322
206	0x3e24adaf	0.1608188
207	0x3e1aadfc	0.15105432
208	0xbda0dabe	-0.07854222
209	0xbc877153	-0.01653353
210	0xbe1850d1	-0.14874579
211	0x3d7ccba0	0.06171763
212	0xbcf64f4e	-0.030067112
213	0xbcc1a9cf	-0.023640541
214	0x3cd0a961	0.025471391
215	0x3b9c771c	0.004774941
216	0xbc82f4dc	-0.015985899
217	0xbc5c05c7	-0.013429112
218	0xbdab7925	-0.08372716
219	0xbdc183de	-0.0944898
220	0x3d3ee91d	0.046609033
221	0x3d8f3e64	0.06994322
222	0x3d8bf0af	0.06833016
223	0xbe082ab3	-0.13297538
224	0x3d8c56c6	0.06852488
225	0xbcfe221b	-0.031022122
226	0xbd61a59a	-0.05508957
227	0xbd1f7b20	-0.03893578
228	0xbdaaa100	-0.083314896
229	0x3c305064	0.010761354
230	0x3e0180eb	0.12646835
231	0xbbeb73d1	-0.0071854373
232	0xbe8c0296	-0.27345723
233	0x3d144ce2	0.036206134
234	0x3d6b0a9e	0.057383172
235	0xbd801a1e	-0.062549815
236	0x3d9bdeb5	0.07610837
237	0x3e200322	0.15626195
238	0xbe07ff3f	-0.13280962
239	0xbd9d1287	-0.076695494
240	0xbd86dc54	-0.06584993
241	0xbca25eb0	-0.019820541
242	0xbd67dd0d	-0.056607295
243	0xbd9af939	-0.07567067
244	0x3c9d276b	0.019183835
245	0xbd437a36	-0.04772397
246	0xbd7ddbe0	-0.061977267
247	0xbdd429b6	-0.10359518
248	0x3d9ba553	0.075998925
249	0x3cff448b	0.031160614
250	0xbe211447	-0.15730391
251	0x3e008df7	0.12554155
252	0x3b9c84df	0.0047765817
253	0x3d0a2ec2	0.033735998
254	0x3ccf3e14	0.025298156
255	0xbd2bfdb8	-0.041990012

encoder.net.2.bias f4 [60]
0	0xbcdcc89c	-0.026951127
1	0xbd1091a5	-0.035295147
2	0x3cec9d47	0.02888359
3	0xbd192ce3	-0.037396323
4	0x3d4ecaa5	0.050486226
5	0x3d2921b9	0.041291926
6	0x3d2087f6	0.039192162
7	0x3d43b938	0.04778406
8	0x3dc4c61a	0.096080974
9	0xbd1ddac8	-0.038538724
10	0xbd3b2809	-0.045692477
11	0xbd183c89	-0.037167106
12	0xbccc7429	-0.024957733
13	0x3d0246e4	0.031805888
14	0x397a2de3	0.00023858952
15	0x3d7acd54	0.061230972
16	0xbc026e83	-0.007960918
17	0xbd8a32ea	-0.06747992
18	0xbc56e78b	-0.013116728
19	0x3d0c4153	0.034241986
20	0xbc5eeb8f	-0.013605966
21	0x3d9aed00	0.075647354
22	0x3d1cb052	0.03825409
23	0xbcfadd2c	-0.030623041
24	0x3d05cf51	0.032668415
25	0xbabb2ba2	-0.0014279971
26	0x3d0b18cb	0.03395919
27	0x3d377a13	0.044794153
28	0x3d5e190c	0.054223105
29	0xbd06744d	-0.032825757
30	0xbd63fdc4	-0.05566193
31	0xbd114df3	-0.03547473
32	0x3d2bbfef	0.04193109
33	0x3d170868	0.03687325
34	0x3d32efaa	0.043685593
35	0x3cca5fc3	0.024703866
36	0x3cf01ca2	0.029310528
37	0xbd361bd6	-0.04446014
38	0xbd13b7ab	-0.03606383
39	0x3d38bfd1	0.045104805
40	0xbcd79c50	-0.026319653
41	0xbd8566ad	-0.065137245
42	0xbd2d5cc3	-0.042324793
43	0xbd081a99	-0.03322849
44	0xbd67a6a4	-0.056555405
45	0xbd8fad8d	-0.07015524
46	0xbd23f802	-0.04003144
47	0x3d1fb62c	0.038992092
48	0xbd16067a	-0.03662727
49	0x3d4094c5	0.047016878
50	0xbc05097b	-0.008119936
51	0x3d4593c8	0.04823664
52	0x3d3e7a7b	0.046503525
53	0x3d0d8cc5	0.034558076
54	0xbd2b061a	-0.041753866
55	0x3d3ebea3	0.046568524
56	0x3cba03be	0.022706863
57	0x3cbd9fb8	0.023147449
58	0xbd0c6ef6	-0.034285508
59	0xbd5c7715	-0.053824503

encoder.net.5.weight f4 [32, 60]
0	0x3e596edd	0.21233697
1	0xbdb64d1a	-0.08901425
2	0xbd8aad7c	-0.06771371
3	0x3eb43fc5	0.35204902
4	0xbd9a9c37	-0.07549327
5	0xbe6648b0	-0.22488666
6	0xbd919189	-0.07107837
7	0x3e3f0ff6	0.18658432
8	0xbdce28a0	-0.10066342
9	0x3e4c7419	0.19966163
10	0xbd1499a8	-0.03627935
11	0xbe321b9e	-0.17393348
12	0xbe854933	-0.2603241
13	0xbdcbf1f8	-0.09958261
14	0x3dc1ea48	0.09468514
15	0xbe7a140a	-0.24421707
16	0xbe19ab37	-0.1500672
17	0xbd1f63f7	-0.038913693
18	0x3dc46365	0.095892705
19	0x3e3863b0	0.18006778
20	0xbd8af00d	-0.06784067
21	0xbe66d013	-0.22540312
22	0xbd2b2421	-0.041782502
23	0xbe119175	-0.14215644
24	0x3e3a5cc5	0.18199451
25	0x3d871f33	0.06597748
26	0x3c9f5b99	0.019452857
27	0xbe23fb0a	-0.16013733
28	0xbe2bd92b	-0.16782062
29	0x3e766e0c	0.24065417
30	0x3d41dd21	0.047330026
31	0x3e6eab68	0.23307574
32	0xbd158ae1	-0.0365094
33	0xbcfff03a	-0.031242479
34	0x3d75b749	0.059989247
35	0xbd6445ab	-0.055730503
36	0xbd85bdc9	-0.06530339
37	0x3c6df20f	0.014523043
38	0x3df60f9f	0.12014698
39	0x3e44616e	0.19177791
40	0x3dd70489	0.10498912
41	0x3e56df26	0.20983562
42	0xbd996daf	-0.074916236
43	0x3dae74a5	0.08518342
44	0xbda77e83	-0.08178427
45	0x3d23f2b1	0.04002637
46	0x3de663a1	0.112494715
47	0x3e8b7fba	0.27245885
48	0x3d074f6b	0.033034723
49	0x3b9a303d	0.0047054575
50	0x3de6a16d	0.11261258
51	0xbdcf36e6	-0.10117893
52	0xbd9362ef	-0.071966045
53	0x3e847b29	0.25875214
54	0x3d7b5cce	0.061367802
55	0x3db466bb	0.08808657
56	0x3c591e65	0.0132518755
57	0xbe054c2c	-0.13017339
58	0x3e865710	0.26238298
59	0x3e3ff708	0.18746579
60	0xbd77ab09	-0.060465846
61	0xbdbff6b7	-0.09373229
62	0x3e1081e4	0.1411205
63	0xbe51e94a	-0.20499149
64	0xbd4f0258	-0.050539345
65	0x3d83dd8a	0.064387396
66	0x3ddb1e93	0.10699191
67	0xbc408f0c	-0.011752855
68	0xbe4331ac	-0.19061917
69	0xba1c868c	-0.0005970977
70	0xbd9d2b5e	-0.07674287
71	0x3e62f235	0.22162707
72	0xbd05914d	-0.032609273
73	0x3df998f9	0.1218738
74	0x3d8fa0ba	0.07013078
75	0xbd9027af	-0.07038819
76	0xbe1559b9	-0.14585008
77	0x3d52746f	0.05138057
78	0x3c68fdfb	0.01422071
79	0x3d1a2b67	0.037639048
80	0x3e35645f	0.1771407
81	0xbb571bfb	-0.0032823074
82	0x3e7e102d	0.24810858
83	0xbea3a65f	-0.3196287
84	0x3eca3f50	0.3950143
85	0xbdf3cc94	-0.119042546
86	0x3dec7003	0.11544802
87	0x3d5eb9bb	0.054376345
88	0xbe49a588	-0.19692051
89	0x3e1e2f39	0.15447702
90	0x3dc689be	0.09694241
91	0x3dbfadb2	0.093593016
92	0x3df356a5	0.118817605
93	0x3e089b99	0.13340606
94	0xbd585824	-0.052818432
95	0xbe357b47	-0.17722808
96	0x3e8909b2	0.2676521
97	0x3e1da503	0.15394978
98	0x3b98e696	0.00466616
99	0xbd1c9d83	-0.038236152
100	0x3e0e2479	0.138811
101	0x3d2876bc	0.04112886
102	0xbcae782c	-0.021297537
103	0xbe0e7c13	-0.13914518
104	0x3df04dea	0.11733611
105	0x3e19d09d	0.15020986
106	0xbd834498	-0.064095676
107	0xbe4665f1	-0.19374825
108	0xbc8b5528	-0.01700838
109	0x3d769a5f	0.060205813
110	0xbdb7178a	-0.089400366
111	0xbb4cc9ca	-0.0031248205
112	0xbdc3e2b3	-0.09564724
113	0x3e16db6b	0.14732139
114	0xbcd21bca	-0.025648016
115	0xbe01881d	-0.1264958
116	0xbea0dea4	-0.3141986
117	0xbdaff717	-0.085920505
118	0x3bc6eae0	0.0060704798
119	0x3c39e87c	0.0113469325
120	0x3d4aa653	0.049475025
121	0x3dc2d240	0.09512758
122	0x3e1c35d6	0.15254912
123	0xbe7209ad	-0.23636504
124	0xbd55afa1	-0.052169446
125	0x3dfe8066	0.12426834
126	0xbd861041	-0.06546069
127	0x3ddadeda	0.10687037
128	0xbd89ff8a	-0.06738193
129	0x3d55ae9e	0.05216848
130	0xbe3c0778	-0.18362224
131	0xbe088bfe	-0.13334653
132	0x3e956301	0.29177096
133	0x3dde4c94	0.1085445
134	0x3db64459	0.08899755
135	0xbde0f0f5	-0.10983459
136	0x3bb6b328	0.0055755563
137	0x3d806bcf	0.06270563
138	0x3cda0b80	0.026616812
139	0xbe3462f3	-0.17615871
140	0xbe1b574d	-0.15170021
141	0xbe12db2f	-0.14341424
142	0xbd1f1744	-0.038840547
143	0x3e0c8a2e	0.13724586
144	0x3dac8c55	0.08425204
145	0xbe8c61b6	-0.27418298
146	0x3da8f62d	0.08250079
147	0xbd31de9d	-0.04342519
148	0xbe1e37e5	-0.1545101
149	0xbc4618f8	-0.012090914
150	0x3e972b7e	0.2952537
151	0xbe3f79b2	-0.18698767
152	0x3cf9bd8e	0.030485895
153	0x3cbceb91	0.023061546
154	0x3d7a586b	0.06111948
155	0xbde6f3fc	-0.11277005
156	0x3d224b65	0.039622683
157	0x3c0c9a43	0.008581701
158	0xbd85e2bf	-0.06537389
159	0xbd8568dd	-0.06514142
160	0xbcfd14d2	-0.030893717
161	0x3e37f540	0.17964649
162	0xbd97a9c7	-0.07405429
163	0x3e0f3aaf	0.1398723
164	0xbc830ab6	-0.015996318
165	0xbd2de91d	-0.042458642
166	0x3e244ece	0.16045687
167	0x3e0bb97b	0.13644974
168	0x3e11ff20	0.14257479
169	0x3d8312d0	0.064000726
170	0xbd8440dc	-0.064576834
171	0x3d233f1c	0.039855108
172	0x3c1a8122	0.009430202
173	0xbde14038	-0.10998577
174	0xbc8da4aa	-0.017290432
175	0xbe169234	-0.1470421
176	0x3d9763c2	0.07392074
177	0x3d8ab523	0.0677283
178	0xbd2881de	-0.041139476
179	0xbd2a09a2	-0.041513093
180	0xbc9a9f69	-0.01887484
181	0xbd0d8f15	-0.03456028
182	0xbdfe4376	-0.12415211
183	0xbe035c50	-0.12828183
184	0x3de90c60	0.113793135
185	0xbe6ae546	-0.22939023
186	0xbc1b2af5	-0.009470691
187	0xbc8d41ca	-0.017243285
188	0xbd023324	-0.031787053
189	0xbe7190e5	-0.23590429
190	0xbdf38157	-0.11889904
191	0xbd941872	-0.07231225
192	0xbd193302	-0.03740216
193	0xbdfb9f0b	-0.122861944
194	0xbdb32ed3	-0.087491654
195	0xbe037994	-0.12839347
196	0x3ddf202d	0.10894809
197	0x3e0efbe9	0.13963284
198	0xbd7f9ec7	-0.06240728
199	0x3d8398a7	0.064256005
200	0xbbb1a23d	-0.0054209516
201	0x3e30e811	0.17276026
202	0x3e34a72f	0.176419
203	0x3e818c05	0.2530214
204	0xbcdc3e9c	-0.026885323
205	0x3c8a6a4a	0.016896386
206	0xbdafde7e	-0.08587359
207	0x3c0092ea	0.007847527
208	0x3d3c60e7	0.04599085
209	0x3d5beaa4	0.053690568
210	0xbe52f1ca	-0.20600048
211	0xbd97dde4	-0.07415369
212	0x3dbfb63b	0.093609296
213	0xbd0d4207	-0.034486797
214	0x3ca44d8b	0.020056507
215	0xbcefe761	-0.029285135
216	0xbdf6130f	-0.12015354
217	0x3e28f20d	0.16498585
218	0xbd824a77	-0.06361859
219	0x3a0745ef	0.0005160262
220	0x3e148bc9	0.14506449
221	0xbe776bb9	-0.24162187
222	0x3dacae9b	0.08431741
223	0xbc943610	-0.018092185
224	0xbc2e9075	-0.010654558
225	0xbc4789d1	-0.012178854
226	0xbd890c2f	-0.06691777
227	0xbdfdaaa0	-0.1238606
228	0xbbd92dc1	-0.0066277687
229	0xbdff02d2	-0.1245171
230	0x3d8a395a	0.0674922
231	0x3e2f5acb	0.17124479
232	0x3d9bbebd	0.0760474
233	0x3d5db430	0.05412692
234	0x3d93d867	0.0721901
235	0xbd57b803	-0.05266572
236	0xbd88f52d	-0.066873886
237	0xbe2fbac5	-0.1716109
238	0x3e143bb9	0.14475907
239	0xbd5dad12	-0.05412013
240	0x3dab92b7	0.08377593
241	0xbd1e1181	-0.03859091
242	0xbe82085d	-0.25397006
243	0xbe01fe5b	-0.12694685
244	0xbd00a006	-0.03140261
245	0xbebf7535	-0.3739411
246	0x3e0f569e	0.13997886
247	0xbdecb4b2	-0.115579024
248	0xbd606176	-0.054780446
249	0xbdf9c04d	-0.121948816
250	0xbc217344	-0.009854142
251	0xbe9e581a	-0.3092659
252	0xbe8bc94a	-0.2730201
253	0xbca4124a	-0.020028252
254	0xbe7eace6	-0.24870643
255	0xbe8163ff	-0.25271603

encoder.net.5.bias f4 [32]
0	0xbd849cfe	-0.064752564
1	0x3d42e913	0.04758556
2	0xbdb4771c	-0.08811781
3	0x3e22e71e	0.15908477
4	0x3d2b9064	0.04188575
5	0xbc75ed98	-0.01501026
6	0x3d9851ee	0.07437502
7	0x3d36eaa2	0.044657357
8	0xbd650c34	-0.05591984
9	0x3d3230c7	0.04350355
10	0xbd516c43	-0.051128637
11	0xbd623149	-0.055222783
12	0xbde09909	-0.10966689
13	0xbd8f641e	-0.07001518
14	0x3d229468	0.039692312
15	0xbd2e605a	-0.042572357
16	0x3d98b341	0.07456065
17	0xbd3b1555	-0.04567464
18	0xbd6e9bba	-0.05825398
19	0x3d73ad7d	0.059491623
20	0x3dab89d9	0.08375902
21	0x3d48796b	0.04894392
22	0xbd7ff3d9	-0.06248841
23	0x3e02177d	0.12704273
24	0x3d7b7931	0.061394874
25	0xbd53b849	-0.05168942
26	0x3d2e1c5b	0.04250751
27	0x3d287986	0.04113152
28	0xbd9183e7	-0.071052365
29	0x3d2783e6	0.040897273
30	0xbcc6d311	-0.024270566
31	0xbd8af269	-0.06784517

predictor.net.1.weight f4 [32, 32]
0	0xbd5a4009	-0.053283725
1	0xbd593e6c	-0.053038046
2	0xbe27df5a	-0.16393796
3	0xbe9ee38d	-0.31032982
4	0x3d788c47	0.060680654
5	0x3e3cee23	0.18450217
6	0x3ce74150	0.028229386
7	0xbd6399d9	-0.055566642
8	0xbec72172	-0.38892704
9	0xbdd84728	-0.10560447
10	0xbc8593b2	-0.016305778
11	0x3e26dd71	0.1629541
12	0xbeb671be	-0.35633653
13	0x3ce4bc8e	0.027921941
14	0x3ccd0d2c	0.025030695
15	0x3e2d576a	0.16927877
16	0xbcb93002	-0.0226059
17	0x3e1ac39d	0.15113683
18	0xbe88bcee	-0.26706642
19	0x3e624561	0.22096778
20	0x3dd57d03	0.10424235
21	0x3c23dd2d	0.010001463
22	0x3c85ed84	0.016348608
23	0xbba1dfad	-0.0049399943
24	0xbe4b223e	-0.19837281
25	0xbd7133c2	-0.05888725
26	0x3e4e7fa3	0.20165877
27	0xbd8b0d47	-0.06789642
28	0x3e5cb280	0.21552467
29	0x3e0501f5	0.12989028
30	0xbe8723d3	-0.2639452
31	0xbdc047c2	-0.09388687
32	0xbcf994ee	-0.030466523
33	0x3e5e412d	0.2170455
34	0xbe90c481	-0.2827492
35	0x3e022596	0.1270965
36	0x3e46960b	0.19393174
37	0xbe1ccabd	-0.15311714
38	0x3dff836c	0.124762386
39	0xbab39739	-0.0013701684
40	0xbdf5fab4	-0.120107085
41	0x3da9f082	0.08297826
42	0x3dd018df	0.10160994
43	0xbc3f559e	-0.011678128
44	0x3ccfb510	0.025354892
45	0x3d72c171	0.05926651
46	0x3e3f3b6c	0.18675011
47	0x3c9999b3	0.018750047
48	0x3d7f4608	0.062322646
49	0x3d4ed0c1	0.050492052
50	0x3e9ae746	0.30254573
51	0x3e6e04c4	0.23244005
52	0xbe53c5e9	-0.20680965
53	0xbe36bbab	-0.17845027
54	0xbe13b65f	-0.14425038
55	0xbe4b81d9	-0.19873752
56	0x3e1dcd21	0.15410282
57	0x3ab13404	0.001351953
58	0xbe32c96b	-0.17459647
59	0x3ea16de3	0.3152915
60	0xbeba9168	-0.3643906
61	0xbcf4579b	-0.02982693
62	0xbcf2110f	-0.02954915
63	0xbdd5bc67	-0.104363255
64	0xbd96bb20	-0.0735991
65	0x3e3736dd	0.17892022
66	0xbdde251c	-0.10846922
67	0xbda24e39	-0.07925076
68	0x3d457276	0.04820486
69	0x3ce9a46d	0.028520787
70	0xbdabe56a	-0.08393367
71	0x3de20dc2	0.1103778
72	0x3e337371	0.17524506
73	0x3d150043	0.036377203
74	0xbe8caeee	-0.2747721
75	0xbdfc41c4	-0.12317231
76	0xbdc1f670	-0.09470832
77	0x3e23f03f	0.16009615
78	0xbe26f2d9	-0.16303577
79	0x3e24f866	0.16110381
80	0x3d32ba56	0.043634735
81	0x3ed137cd	0.40862885
82	0xbcbcd604	-0.02305127
83	0x3d27807d	0.04089402
84	0x3d86eb46	0.065878436
85	0x3e283bc3	0.16429047
86	0x3da8dc9d	0.08245204
87	0xbe7beb01	-0.24601366
88	0x3e300daa	0.17192712
89	0x3e21feb8	0.15819824
90	0xbe930371	-0.28713563
91	0x3e5a9da8	0.21349204
92	0x3e2a1b5c	0.16612
93	0xbe8f129d	-0.27943888
94	0xbe3b9126	-0.18317088
95	0x3cb7f09e	0.022453602
96	0x39400e14	0.00018315791
97	0x3de7b28e	0.113133535
98	0xbe01ee8e	-0.12688658
99	0xbe174bce	-0.14775011
100	0xbde0441e	-0.10950492
101	0xbee56cb4	-0.44809496
102	0xbe114ce6	-0.1418949
103	0xbd938e52	-0.0720488
104	0xbe8d1847	-0.27557585
105	0x3eacf74a	0.33782417
106	0x3e268026	0.16259822
107	0x3e4e8b86	0.20170411
108	0xbc807a1e	-0.01568323
109	0xbe6416d8	-0.22274339
110	0xbccc33c5	-0.02492703
111	0xbd027641	-0.031851057
112	0x3d30bc95	0.043148596
113	0x3d9b4c83	0.07582953
114	0xbd2f6ec1	-0.042830233
115	0xbd85b91b	-0.06529447
116	0xbc9cc040	-0.01913464
117	0xbc79afa9	-0.015239635
118	0xbdd29e83	-0.1028414
119	0x3e6ec4c6	0.2331725
120	0x3b6479c0	0.0034862608
121	0xbec50edb	-0.38487896
122	0xbd9cefa2	-0.07662894
123	0xb8acd297	-8.2408245e-05
124	0xbdb6b770	-0.08921707
125	0x3d6dfe62	0.058103926
126	0x3e167977	0.14694773
127	0x3e3df041	0.18548681
128	0x3e42a2f1	0.1900747
129	0x3d58c209	0.05291942
130	0xbdc1cc34	-0.09462777
131	0x3eac870b	0.3369678
132	0xbb33682f	-0.002737533
133	0x3e99e7ac	0.30059564
134	0xbebc8aa1	-0.36824515
135	0xbddca225	-0.10773114
136	0xbdf38344	-0.11890271
137	0xbde189a3	-0.1101258
138	0xbe18889a	-0.1489586
139	0xbe2b8897	-0.16751324
140	0xbe32adbd	-0.17449088
141	0xbdd64157	-0.10461681
142	0x3d011e89	0.03152326
143	0xbd0e91f0	-0.034807146
144	0x3e550a36	0.20804676
145	0x3c3e51dc	0.0116161965
146	0xbde5b538	-0.11216205
147	0xbe1df631	-0.15425946
148	0x3c4ab91f	0.012373238
149	0x3e847f51	0.25878385
150	0x3dcfd80f	0.10148632
151	0x3e062931	0.13101651
152	0x3d34825e	0.04406964
153	0x3b83a794	0.0040177796
154	0xbe5505ac	-0.20802945
155	0xbb3b1825	-0.0028548327
156	0x3e13d895	0.14438088
157	0xbe0e77db	-0.13912909
158	0x3d746ba3	0.059672963
159	0xbd6387bc	-0.05554937
160	0x3a9f18e7	0.0012138159
161	0xbd9f89f2	-0.07789983
162	0xbebb48d4	-0.36579
163	0x3d433cc9	0.04766539
164	0x3e960e8d	0.29307976
165	0x3e558525	0.20851572
166	0xbe2726f1	-0.16323449
167	0xbdaa48c7	-0.083146624
168	0x3d921007	0.07131963
169	0xbe5566b6	-0.20839962
170	0xbdcd20f5	-0.10016052
171	0xbc5554e4	-0.013020728
172	0xbd3f4e57	-0.04670557
173	0x3d62ac7e	0.055340283
174	0x3d3839f1	0.044977132
175	0xbe5124ab	-0.20424144
176	0xbe238bdf	-0.15971325
177	0xbe067b01	-0.1313286
178	0xbea8d319	-0.32973555
179	0x3e81009a	0.2519577
180	0x3e8049b3	0.25056228
181	0xbe9ce47b	-0.30643067
182	0x3bc6b804	0.006064417
183	0x3cfb0f62	0.030646984
184	0x3e0ae40f	0.1356356
185	0x3da3aa64	0.07991484
186	0x3d9a8ce1	0.07546402
187	0xbdeb5894	-0.11491504
188	0x3e3e5986	0.18588838
189	0x3e44416e	0.19165584
190	0xbc81dca4	-0.01585228
191	0xbd2da917	-0.042397585
192	0xbe396317	-0.18104206
193	0xbe6bcfa7	-0.23028432
194	0x3d6e5963	0.058190715
195	0x3e89bacd	0.2690033
196	0xbe1c0889	-0.15237631
197	0x3e3c47c4	0.18386751
198	0xbc044a36	-0.008074334
199	0x3dc42e73	0.09579172
200	0xbd87d80e	-0.06633006
201	0xbe887b54	-0.26656592
202	0x3e7df959	0.2480215
203	0xbe531f73	-0.20617466
204	0xbde3f863	-0.111313604
205	0x3e28d7b1	0.1648853
206	0x3d27d50e	0.04097467
207	0xbcf726bd	-0.030169839
208	0xbd899945	-0.06718687
209	0xbdabeed1	-0.0839516
210	0x3d9b0d63	0.07570913
211	0x3dab2624	0.08356884
212	0xbe4936dc	-0.19649833
213	0x3e2d32a7	0.16913854
214	0xbdcae8c7	-0.0990768
215	0x3e4d3f71	0.20043732
216	0xbe034323	-0.1281858
217	0x3e83b818	0.2572639
218	0xbe3a499d	-0.18192144
219	0xbed0f001	-0.40808108
220	0xbc1314d6	-0.008977136
221	0x3cc3e888	0.02391459
222	0x3e5cce9f	0.21563195
223	0x3ba7261b	0.005100978
224	0x3e0ac15a	0.1355032
225	0x3e1fbf54	0.1560033
226	0xbe46bace	-0.19407198
227	0xbdf14ac2	-0.11781837
228	0xbd743c11	-0.059627596
229	0x3ddf108d	0.10891829
230	0xbdcbd372	-0.09952439
231	0x3e40f3b1	0.18842961
232	0xbda7df41	-0.08196879
233	0xbd6d15b0	-0.05788201
234	0xbd805eb4	-0.06268063
235	0xbe745c8d	-0.2386343
236	0x3d71453a	0.05890391
237	0x3d1ef648	0.03880909
238	0xbcb91188	-0.022591367
239	0xbebed61c	-0.37272727
240	0x3e3a3400	0.18183899
241	0xbe210fc7	-0.15728675
242	0xbe5a99bd	-0.21347709
243	0x3dd0ab38	0.101889074
244	0x3d7e8483	0.06213809
245	0x3adb486b	0.0016729956
246	0x3e270924	0.1631208
247	0x3e8314df	0.2560186
248	0x3e7a2883	0.24429516
249	0xbe146c5e	-0.14494464
250	0x3e85d5f2	0.2613979
251	0x3d854c02	0.06508638
252	0x3d25a41f	0.04043972
253	0xbd899153	-0.067171715
254	0xbe4c3404	-0.19941717
255	0x3e55992e	0.20859215

predictor.net.1.bias f4 [32]
0	0x3dd9e055	0.10638491
1	0xbf09af36	-0.53782976
2	0xbdbdbd91	-0.092646725
3	0xbded631b	-0.115911685
4	0x3db38515	0.08765618
5	0xbdd29604	-0.102825195
6	0xbdc45137	-0.09585803
7	0xbf45793f	-0.7713813
8	0x3e66ccb8	0.22539032
9	0x3dc6c03c	0.097046345
10	0x3dcff781	0.101546295
11	0x3e11ad28	0.1422621
12	0x3ddfeca5	0.10933808
13	0x3e5aaa38	0.21353996
14	0xbdab911b	-0.08377286
15	0xbe32fc2c	-0.17479008
16	0x3df29fe9	0.11846907
17	0x3ddb0ba2	0.10695578
18	0xbdc1448b	-0.09436902
19	0x3dd7f600	0.10544968
20	0x3e00efd2	0.12591484
21	0x3e067166	0.13129196
22	0x3e1b8264	0.15186459
23	0x3dfae880	0.12251377
24	0x3de8867b	0.11353775
25	0x3dcdce51	0.10049117
26	0xbdf955b5	-0.121745504
27	0xbdc40513	-0.0957128
28	0x3e0101c1	0.12598325
29	0xbe0001ca	-0.12500682
30	0x3da925ea	0.08259185
31	0xbd8ef4f1	-0.069803126

predictor.net.3.weight f4 [1, 32]
0	0x3e1c019e	0.15234992
1	0xbdff267e	-0.12458514
2	0xbe4189d8	-0.1890024
3	0xbe66e82e	-0.22549507
4	0x3d92203f	0.07135057
5	0xbe37f455	-0.17964299
6	0xbead587b	-0.33856568
7	0xbe3af8db	-0.18258993
8	0x3da541e9	0.08069212
9	0x3e3958cf	0.18100284
10	0x3e8b5728	0.27214932
11	0x3e08bc71	0.13353135
12	0x3e3e7439	0.18599023
13	0x3d9fc0f0	0.07800472
14	0xbd45d6c8	-0.048300534
15	0xbdc5e36a	-0.096625164
16	0x3e76cffa	0.24102774
17	0x3dfc9a4b	0.123341165
18	0xbe8504d0	-0.25980234
19	0x3e1f1cda	0.1553835
20	0x3ec5161a	0.38493425
21	0x3db3dcaa	0.08782323
22	0x3e15037f	0.14552115
23	0x3d9beac2	0.07613136
24	0x3dac1ac3	0.08403542
25	0x3e8fc50f	0.2808003
26	0xbd306913	-0.043068957
27	0xbd691f8a	-0.056914844
28	0x3e24a0d4	0.16076976
29	0xbe5aa7ab	-0.21353023
30	0x3cfdfe75	0.031005124
31	0xbdb871db	-0.09006091

net.0.weight f4 [60, 35]
0	0x3e28fe89	0.16503347
1	0x3e8e1218	0.2774818
2	0x3e1e6edc	0.15471977
3	0xbd0b8440	-0.03406167
4	0xbd972d6a	-0.07381709
5	0x3c40017b	0.011719103
6	0x3d7fdbdf	0.062465545
7	0x3e02f6df	0.12789486
8	0xbdd05087	-0.10171609
9	0xbe731c6b	-0.2374131
10	0x3d8bb4f2	0.06821622
11	0xbdb1e442	-0.08686115
12	0xbe56dc58	-0.20982492
13	0x3e26a88f	0.16275238
14	0x3d6394c1	0.055561785
15	0xbcdb7de1	-0.026793422
16	0x3e141726	0.14461955
17	0xbe5de642	-0.21669868
18	0x3dcf2960	0.101153135
19	0x3de641bd	0.11243007
20	0xbd4f9060	-0.050674796
21	0xbdcc32ad	-0.09970603
22	0x3df3b07c	0.11898896
23	0x3d3a97ab	0.045554798
24	0x3e14d3db	0.14533941
25	0xbe38989d	-0.18026967
26	0xbdbde99a	-0.092730716
27	0x3d654b7d	0.055980194
28	0xbc75cae9	-0.015001991
29	0x3e9a1d46	0.3010046
30	0x3e668162	0.22510293
31	0xbd9b1c54	-0.075737625
32	0xbda50f41	-0.0805955
33	0xbd486ef2	-0.04893393
34	0xbdedda4c	-0.116139024
35	0xbde97585	-0.11399368
36	0x3e9bad9b	0.30405888
37	0x3d57ac2e	0.052654438
38	0xbe850511	-0.25980428
39	0x3dccccec	0.10000023
40	0xbea25e75	-0.3171269
41	0xbd4e9f76	-0.050445043
42	0xbdcacf33	-0.09902801
43	0xbe7296ad	-0.23690291
44	0x3e41d649	0.189294
45	0xbd5f9c1b	-0.054592233
46	0x3e80abec	0.25131166
47	0xbe56d02c	-0.20977849
48	0xbd585f9e	-0.052825563
49	0xbde3f9fe	-0.111316666
50	0x3e2dbe26	0.16967067
51	0x3db1b7a8	0.08677608
52	0x3bb28b0c	0.0054487046
53	0xbe3b1973	-0.18271427
54	0x3ebe7c54	0.3720423
55	0xbe421c74	-0.18956167
56	0x3e829c39	0.25509813
57	0x3e4c836a	0.19972005
58	0xbe1c66b5	-0.15273555
59	0x3e1a56b6	0.1507214
60	0x3c8e96fd	0.017405981
61	0x3c305c6e	0.010764224
62	0x3d938db9	0.07204766
63	0xbda1bbf2	-0.07897176
64	0xbc3e36c9	-0.0116097415
65	0xbe192789	-0.14956488
66	0x3d0c06ee	0.034186296
67	0x3df6e72f	0.120558135
68	0xbca2f12e	-0.019890394
69	0x3d3b55fb	0.045736294
70	0x3e18fb03	0.14939503
71	0xbdbb8fe7	-0.091583066
72	0x3e346238	0.17615592
73	0xbd2a19a5	-0.041528363
74	0x3d9128e8	0.070878804
75	0x3dee2aed	0.11629281
76	0xbe65b6ca	-0.2243301
77	0xbe7deb2d	-0.24796744
78	0xbd2232cc	-0.039599225
79	0x3d3f1d61	0.046658877
80	0x3a0906d0	0.00052271504
81	0xbe1c65c9	-0.15273203
82	0xbdfab032	-0.12240638
83	0xbd37a488	-0.044834644
84	0xbe567aed	-0.2094533
85	0x3ec352be	0.38149065
86	0x3dedf9c7	0.11619907
87	0xbd91e378	-0.07123464
88	0xbd5e0fba	-0.054214217
89	0xbe0acc10	-0.13554406
90	0xbcf70275	-0.030152539
91	0x3e32c1ff	0.17456816
92	0xbdfd49e0	-0.12367606
93	0x3e12e46b	0.14344947
94	0x3da09e83	0.07842734
95	0xbdb672ba	-0.08908601
96	0x3d8ca00c	0.06866464
97	0x3d7ba0c9	0.061432634
98	0xbe38cae7	-0.18046151
99	0xbde44e34	-0.111477286
100	0xbde8c50e	-0.1136571
101	0x3dd1043d	0.102058865
102	0x3d33e180	0.043916225
103	0x3dc99b20	0.09844041
104	0xbd858a13	-0.06520476
105	0x3dbf3fc1	0.09338332
106	0xbd3a7af2	-0.045527406
107	0x3d1f3042	0.03886438
108	0xbc82465a	-0.015902687
109	0x3dabe4e8	0.0839327
110	0xbe0eb68b	-0.13936822
111	0xbe030d06	-0.12797937
112	0x3e24a19c	0.16077274
113	0xbdcad76f	-0.09904372
114	0xbdd56624	-0.104198724
115	0x3c726670	0.014794931
116	0xba85584f	-0.0010173413
117	0xbd66c505	-0.056340236
118	0xbe54bebf	-0.20775889
119	0x3e4bbe4c	0.19896811
120	0x3e02e406	0.12782297
121	0x3d95e38f	0.07318794
122	0xbd6342ad	-0.05548351
123	0xbdde4e25	-0.10854749
124	0xbe93c553	-0.28861484
125	0xbd429635	-0.04750653
126	0x3e61c0dd	0.22046228
127	0x3d8b165b	0.06791373
128	0xbe7270e5	-0.23675878
129	0x3e5452d1	0.20734717
130	0xbe008214	-0.12549621
131	0x3d1f8a4e	0.038950257
132	0x3d97baf1	0.07408703
133	0x3d604b71	0.054759447
134	0xbdcd1b60	-0.10014987
135	0xbdc59de9	-0.096492596
136	0x3d286d98	0.04112014
137	0xbbde40b6	-0.0067826165
138	0x3de71624	0.1128352
139	0x3cd4af4c	0.025962494
140	0xbcab7a39	-0.020932304
141	0x3d9c17a8	0.076216996
142	0xbd09676b	-0.033545893
143	0x3d204894	0.039131716
144	0xbe2afb61	-0.16697456
145	0x3b9ea128	0.0048409887
146	0xbe2a0e28	-0.16606963
147	0xbe900d23	-0.28135023
148	0xbde5c2b8	-0.1121878
149	0xbe235545	-0.15950496
150	0x3e5fdaea	0.21860853
151	0x3dcb81e9	0.09936888
152	0x3dc1dfb8	0.09466499
153	0xbdf74ba8	-0.12074977
154	0x3e58bfff	0.2116699
155	0x3e6a49c9	0.2287971
156	0xbdaffffe	-0.085937485
157	0xbda7ea2c	-0.081989616
158	0xbe4d9a09	-0.20078291
159	0x3d9d9470	0.07694328
160	0xbe0f4548	-0.13991272
161	0x3e35a11e	0.17737243
162	0x3e216e6b	0.15764777
163	0x3e560ff0	0.20904517
164	0x3e75fae4	0.24021488
165	0x3dbec2f6	0.093145296
166	0x3e046826	0.12930354
167	0xbe5f2723	-0.21792273
168	0x3e2c9d8c	0.16856974
169	0xbd1fc1ab	-0.039003056
170	0xbc17c2c0	-0.009262741
171	0x3d82f81d	0.0639498
172	0xbe6bf24f	-0.23041652
173	0xbe3c4486	-0.18385515
174	0x3d77eed0	0.060530484
175	0xbb841e86	-0.004031959
176	0xbd210541	-0.03931165
177	0x3ca5c91d	0.0202375
178	0x3d537dcb	0.051633637
179	0xbdfe4755	-0.12415949
180	0xbca01075	-0.019539097
181	0xbe1e1420	-0.15437365
182	0xbddaa4e1	-0.106759794
183	0x3e1c94ef	0.15291189
184	0x3e591476	0.21199211
185	0x3de94f39	0.11392064
186	0x3e4b8d47	0.19878112
187	0xbd97d5e2	-0.07413842
188	0x3bccc64f	0.006249226
189	0x3df7d249	0.121006556
190	0xbd13a342	-0.036044367
191	0x3deba2fc	0.11505696
192	0xbd6852f4	-0.056719735
193	0x3eae8f97	0.34093925
194	0x3c06a99a	0.008219147
195	0xbd63ba49	-0.055597577
196	0xbdcae0d7	-0.09906166
197	0xbdb922d3	-0.09039845
198	0x3cf17ef1	0.029479476
199	0xbdc1129f	-0.0942738
200	0xbd357ab2	-0.044306464
201	0x3e0dbc07	0.13841258
202	0xbe3d3a9a	-0.18479386
203	0xbe0fc45c	-0.14039749
204	0x3e5a18be	0.21298501
205	0xbca5cce2	-0.020239297
206	0xbc643295	-0.013928075
207	0x3d3857ce	0.045005612
208	0xbe7c1755	-0.24618275
209	0x3dc88d41	0.09792567
210	0x3e01d21a	0.12677804
211	0x3dcf3acd	0.10118637
212	0x3d663f2b	0.056212585
213	0x3e15a93e	0.14615342
214	0x3dbbf6e4	0.0917795
215	0xbd60627f	-0.054781433
216	0xbda87fd4	-0.08227506
217	0xbc7f4a05	-0.0155816125
218	0xbdd96dff	-0.10616683
219	0x3db55d7f	0.088557236
220	0xbdaed3cd	-0.085364915
221	0xbe440aa0	-0.19144678
222	0x3e82d7f2	0.25555378
223	0xbddcb897	-0.10777395
224	0x3e35fe84	0.17772871
225	0xbd69c946	-0.057076715
226	0xbe2b47a5	-0.16726549
227	0xbe43d892	-0.19125584
228	0x3e0ad8d6	0.13559279
229	0xbe8954e9	-0.26822594
230	0x3d1e3305	0.038622875
231	0x3ebcc673	0.36870155
232	0x3cf5b955	0.0299956
233	0xbd91605e	-0.07098459
234	0xbe28a379	-0.1646861
235	0xbe0f65e7	-0.14003716
236	0xbea2aa41	-0.31770518
237	0xbd3634b1	-0.044483844
238	0xbd02b90a	-0.03191475
239	0xbcff994b	-0.031201025
240	0x3e3cdc06	0.18443307
241	0x3d448ef7	0.047987904
242	0xbdf02a02	-0.11726762
243	0x3d9a5d9c	0.07537386
244	0xbc1e64fd	-0.009667632
245	0x3c00172c	0.007818025
246	0x3e434569	0.19069447
247	0xbd1f2eec	-0.038863108
248	0xbe270bc9	-0.1631309
249	0x3d04e35a	0.03244338
250	0xbc5b0d23	-0.013369831
251	0xbd95aba0	-0.073081255
252	0xbc2d183e	-0.010564862
253	0xbea28b24	-0.3174678
254	0x3dd2e5f9	0.1029777
255	0xbe7d74d2	-0.24751595

net.0.bias f4 [60]
0	0x3daaaa82	0.08333303
1	0x3e144b0a	0.1448175
2	0x3dd26836	0.10273783
3	0x3db46fad	0.08810363
4	0xbc2bed2d	-0.010493559
5	0xbdea1c5f	-0.114311926
6	0x3d5f8237	0.054567542
7	0xbd4265a1	-0.047460202
8	0x3de96ebb	0.11398073
9	0xbd8168df	-0.06318831
10	0x3e021b8f	0.12705825
11	0xbe21a8aa	-0.15786996
12	0x3d3720d8	0.044709057
13	0x3cce1702	0.025157455
14	0x3d9a6c45	0.07540182
15	0xbe21c4a6	-0.15797672
16	0x3d067036	0.032821856
17	0xbd39a489	-0.04532293
18	0xbd566f29	-0.052352104
19	0xbcca3a2d	-0.024685943
20	0xbd9486ff	-0.07252311
21	0xbbe870ce	-0.0070935255
22	0xbe07430c	-0.1320917
23	0x3ccfd47d	0.025369877
24	0x3e2279f4	0.15866834
25	0xbd896db1	-0.06710375
26	0x3cbdaaa1	0.023152651
27	0x3d9c3323	0.07626941
28	0x3d020a0a	0.031747855
29	0x3e3958ab	0.1810023
30	0xbe0ef246	-0.13959607
31	0xbcbe1016	-0.02320103
32	0x3e1248dc	0.14285606
33	0xbdcc8428	-0.09986144
34	0xbc44f43a	-0.012021119
35	0xbd7db1f3	-0.061937284
36	0x3e19084f	0.14944576
37	0x3dd9e0f9	0.10638613
38	0x3d3e425a	0.046449997
39	0xbd66525c	-0.056230888
40	0x3de78c82	0.113060966
41	0xbe12d9c5	-0.14340885
42	0xbc800d6f	-0.015631406
43	0xbd5172eb	-0.051134985
44	0xbd746f8a	-0.059676684
45	0x3d917f7c	0.07104394
46	0x3dfa40e9	0.12219412
47	0x3d8df3d9	0.06931276
48	0xbdbad42e	-0.09122501
49	0x3db4fab6	0.08836882
50	0xbc5073e2	-0.012722941
51	0xbe086455	-0.13319524
52	0xbe2e0228	-0.1699301
53	0x3ca2e9cf	0.01988688
54	0x3d8de095	0.06927601
55	0x3e09c6f7	0.13454805
56	0xbbc91775	-0.0061368295
57	0x3d792923	0.060830247
58	0xbda9ebc0	-0.08296919
59	0x3ca7adfd	0.020468706

net.2.weight f4 [60, 60]
0	0x3d7fce53	0.062452625
1	0xbc300b64	-0.010744903
2	0x3caae221	0.02085978
3	0xbd096c8c	-0.033550784
4	0x3dac672a	0.084181145
5	0xbdf05503	-0.11734965
6	0xbe46663e	-0.1937494
7	0x3e072825	0.13198908
8	0xbdcc3264	-0.09970549
9	0x3df06011	0.11737073
10	0xbd8a68be	-0.06758259
11	0xbbaf5714	-0.0053509567
12	0x3e580cd6	0.21098647
13	0xbd0bb619	-0.03410921
14	0x3e35ea35	0.17765124
15	0xbdf7df68	-0.12103158
16	0xbe10b7f0	-0.14132667
17	0xbd6d8c29	-0.057994995
18	0x3de8686d	0.11348043
19	0xbe32f41e	-0.17475936
20	0x3de7b936	0.11314623
21	0x3d45c4b6	0.0482833
22	0xbdb3ecd3	-0.08785405
23	0xbd74da78	-0.05977866
24	0x3e178e04	0.14800268
25	0x3e47469d	0.1946053
26	0x3e808356	0.251002
27	0xbc1a75fc	-0.009427544
28	0xbca27e72	-0.019835684
29	0xbd946719	-0.07246227
30	0x3ddf8ac8	0.10915142
31	0xbda29f11	-0.07940496
32	0xbe05e83c	-0.13076872
33	0xbc0f9097	-0.0087625
34	0xbe681138	-0.22662818
35	0xbd5b7a1a	-0.053583242
36	0x3db06d11	0.08614553
37	0xbbc00890	-0.0058603957
38	0x3ad8fc87	0.0016554751
39	0x3d2a605b	0.041595798
40	0xbd9f1f8f	-0.07769691
41	0x3e913b40	0.28365517
42	0xbbe88e19	-0.0070970175
43	0x3bfec319	0.0077747223
44	0xbdb42c41	-0.08797503
45	0x3e623945	0.22092159
46	0xbdcbf243	-0.09958317
47	0xbe1872a9	-0.1488749
48	0xbdadada3	-0.08480384
49	0x3d47d47d	0.04878663
50	0xbe67fafd	-0.22654338
51	0x3d83220b	0.064029776
52	0xbe4de3ec	-0.20106477
53	0x3d90ae00	0.07064438
54	0xbe22031b	-0.15821497
55	0x3d328618	0.043584913
56	0x3e027325	0.12739237
57	0xbe6d6e46	-0.23186597
58	0x3b80111a	0.0039082887
59	0xbde71bf0	-0.112846255
60	0xbd14eba2	-0.03635753
61	0xbe1d7104	-0.15375143
62	0xbb9f8853	-0.004868546
63	0x3d219776	0.039451085
64	0x3e175cc5	0.14781483
65	0x3dc6c99d	0.097064234
66	0xbd05959f	-0.032613393
67	0x3e2e937e	0.17048451
68	0xbd63f7c3	-0.055656206
69	0xbd0f088c	-0.03492026
70	0xbda7c95c	-0.08192703
71	0xbd6c7b39	-0.0577347
72	0xbe271b08	-0.16318905
73	0x3c858062	0.01629657
74	0x3e5634b2	0.20918539
75	0x3d181e96	0.037138544
76	0xbb933525	-0.0044924193
77	0xbe6a84e2	-0.22902253
78	0x3e0e56f2	0.13900355
79	0xbebaaaa7	-0.36458322
80	0xbd3c2e78	-0.045942754
81	0xbe5cbd26	-0.2155653
82	0xbe0597ca	-0.13046184
83	0xbcb88bc4	-0.022527583
84	0x3d9518c9	0.07280118
85	0x3e4c5eff	0.19958113
86	0x3e41e373	0.18934421
87	0xbe84da33	-0.25947723
88	0xbc71a058	-0.014747702
89	0x3e5f9da1	0.21837474
90	0xbdcdbd5b	-0.10045882
91	0xbe21f82d	-0.15817328
92	0x3dca344f	0.09873258
93	0x3d779047	0.060440328
94	0xbe61206b	-0.21985023
95	0xbe6ee3a6	-0.23329028
96	0x3d2977af	0.041373905
97	0x3cfe36db	0.031032017
98	0xbe177989	-0.14792456
99	0x3e5a0c46	0.21293744
100	0x3db5b58d	0.08872519
101	0xbe6d07f6	-0.23147568
102	0xbd6ab3d1	-0.057300393
103	0x3dde0eee	0.10842691
104	0xbde3097b	-0.11085793
105	0xbc5c540d	-0.013447774
106	0x3e590457	0.21193062
107	0x3dcbb6a4	0.09946945
108	0xbbf8c02f	-0.0075912694
109	0xbe34be2d	-0.17650671
110	0x3c115705	0.008870845
111	0x3d2b6c54	0.041851357
112	0x3dab3ebb	0.08361574
113	0xbccebdb3	-0.02523694
114	0x3e35428c	0.17701167
115	0x3d8bdc6b	0.06829151
116	0x3c63815e	0.013885824
117	0x3e531d41	0.20616628
118	0x3d4d77ea	0.050163187
119	0xbe140682	-0.14455608
120	0x3e07e1a4	0.13269669
121	0x3def98ef	0.11699092
122	0x3dc9acf2	0.0984744
123	0x3e223c0d	0.1584322
124	0xbe26ff56	-0.1630834
125	0xbddf2738	-0.10896152
126	0xbd83ddea	-0.06438811
127	0xbda86392	-0.082221165
128	0xbe5a14cd	-0.21296997
129	0x3cb44606	0.022006046
130	0xbdab8427	-0.083748154
131	0x3cd1d852	0.025615845
132	0x3d8d11cc	0.0688816
133	0xbe468daa	-0.19389978
134	0x3d95ce17	0.07314699
135	0x3c316132	0.010826396
136	0xbe8613c8	-0.26186967
137	0xbd17abc7	-0.037029054
138	0xbc6e23be	-0.014534889
139	0xbd3ea471	-0.046543542
140	0x3e685aed	0.22690935
141	0xbde60a28	-0.11232406
142	0xbd2e5e96	-0.042570673
143	0x3dcdb6b1	0.10044611
144	0xbd76166b	-0.060079973
145	0xbe8ae0e4	-0.27124703
146	0xbd1a16e7	-0.037619498
147	0x3d9f2a94	0.07771793
148	0xbd2f7d24	-0.042843953
149	0x3cbbbc3a	0.022916902
150	0xbd918121	-0.071047075
151	0xbd004700	-0.03131771
152	0xbd0db938	-0.034600466
153	0xbd945696	-0.072430775
154	0xbe03cc15	-0.1287082
155	0x3e195c90	0.14976716
156	0xbd2c3f56	-0.04205259
157	0xbde1ef0b	-0.11031922
158	0x3e12e81b	0.14346354
159	0xbcda0f7f	-0.026618717
160	0xbb71dfb9	-0.003690703
161	0xbc7c5e23	-0.015403303
162	0xbe59d7dd	-0.21273752
163	0x3ea16630	0.31523275
164	0xbe14f42b	-0.14546268
165	0xbe1dd926	-0.15414867
166	0x3e0475cb	0.1293556
167	0x3da89faf	0.08233582
168	0x3e0d8b06	0.13822564
169	0xb9b3248d	-0.00034168773
170	0x3e54f2b5	0.2079571
171	0x3b3a8bab	0.0028464596
172	0xbe1036a8	-0.1408335
173	0xbe20dde5	-0.15709646
174	0xbe19546f	-0.14973615
175	0xbe123244	-0.14276987
176	0xbe67bbaa	-0.22630182
177	0x3d6f0d7a	0.05836246
178	0xbe096a18	-0.13419378
179	0x3da45965	0.08024863
180	0xbddfa235	-0.109196104
181	0x3cf99787	0.030467762
182	0x3a4eaaf9	0.0007883753
183	0xbdc59f78	-0.09649557
184	0xbb727f36	-0.0037002093
185	0xbc347b70	-0.011015758
186	0xbc749d4d	-0.014930082
187	0x3d8eb004	0.06967166
188	0xbe893dd8	-0.26804996
189	0x3e112ba3	0.14176802
190	0xbe2091dc	-0.15680641
191	0xbd15338c	-0.036426112
192	0xbc94a5c7	-0.018145455
193	0xbd0a5a0f	-0.033777293
194	0xbb0a1441	-0.0021069201
195	0xbe6d753e	-0.23189256
196	0xbd7b8ca0	-0.061413407
197	0x3ca4a827	0.020099713
198	0xbdea1606	-0.11429982
199	0x3e1b9a7c	0.1519565
200	0x3e272ae1	0.16324951
201	0xbe2e351d	-0.17012449
202	0x3c9117c4	0.017711528
203	0x3dad441b	0.08460256
204	0xbe05bb55	-0.13059743
205	0x3d97437c	0.073859185
206	0x3d3ddacf	0.04635125
207	0xbc489132	-0.0122416485
208	0x3e5f450b	0.21803682
209	0x3cc61d98	0.024184033
210	0xbd9ef82a	-0.07762177
211	0x3e00adc4	0.12566286
212	0xbe0f25e1	-0.13979293
213	0x3debb135	0.11508409
214	0x3df814db	0.12113353
215	0xbd877183	-0.066134475
216	0x3e39ac1c	0.18132061
217	0xbd8b303b	-0.067963086
218	0x3e0af8b0	0.13571429
219	0xbd556ded	-0.052106787
220	0xbd715e7e	-0.058928005
221	0x3e134c1c	0.14384502
222	0x3e6aaacb	0.22916715
223	0xbd5205df	-0.05127513
224	0x3dda30d7	0.10653847
225	0x3d501b15	0.050807077
226	0x3d286c28	0.04111877
227	0xbc149063	-0.009067628
228	0xbe0f93fd	-0.14021297
229	0x3cb88494	0.022524156
230	0x3de30383	0.11084654
231	0xbdc3b224	-0.09555462
232	0xbe56c72e	-0.20974419
233	0xbd75e334	-0.06003113
234	0x3d574a5f	0.05256116
235	0xbdd40f94	-0.10354534
236	0xbd9d7ec0	-0.07690191
237	0xbe4c97d2	-0.1997979
238	0x3e17b1df	0.14813946
239	0x3c76d126	0.015064513
240	0x3d3ade37	0.045622077
241	0x3db066e1	0.086133726
242	0x3db2f950	0.08738959
243	0xbb273488	-0.0025513489
244	0x3dc013d3	0.09378781
245	0x3dd94acc	0.106099695
246	0x3d1ecc36	0.03876897
247	0x3e2aa5eb	0.16664855
248	0xbdca368f	-0.098736875
249	0xbea7de48	-0.32786775
250	0x3cfbe961	0.030750932
251	0xbd9bbeee	-0.07604776
252	0xbb8444e7	-0.004036534
253	0x3dcb5476	0.09928219
254	0xbddf25bc	-0.10895869
255	0x3cb1343b	0.02163135

net.2.bias f4 [60]
0	0xbe1d8f31	-0.15386654
1	0xbdba3777	-0.0909261
2	0xbdfd1f94	-0.12359539
3	0xbd34cb50	-0.044139206
4	0x3d5d6276	0.054048978
5	0x3d29d484	0.041462436
6	0x3ca700d1	0.020386131
7	0x3d8b966d	0.06815801
8	0xbcb1fb15	-0.02172617
9	0x3d456035	0.048187453
10	0x3df5ff8b	0.120116316
11	0xbcc4a1b1	-0.024002882
12	0xbd9d363f	-0.07676362
13	0xbcce5ae4	-0.025189824
14	0x3cac96c5	0.021067986
15	0xbd52036a	-0.051272787
16	0xbd8340e2	-0.0640886
17	0x3dac2e21	0.08407236
18	0xbd5cb443	-0.05388285
19	0xbcc35b3e	-0.023847219
20	0xbdaba4c7	-0.08381038
21	0xbd07e99c	-0.03318177
22	0xbd8774c0	-0.06614065
23	0x3db26fd3	0.08712735
24	0x3d552155	0.05203374
25	0x3cd2af92	0.025718484
26	0x3d587f6f	0.052855905
27	0xbd38a04f	-0.045074757
28	0x3dba453a	0.09095235
29	0x3d9d6c11	0.07686628
30	0xbe0236f7	-0.1271628
31	0x3d4d92bf	0.050188776
32	0x3d8b50aa	0.06802495
33	0x3c88b57b	0.0166881
34	0xbc4f6dfb	-0.012660499
35	0xbda70532	-0.08155288
36	0x3dc5a783	0.09651091
37	0x3be5d52d	0.007013938
38	0xbd538115	-0.051636774
39	0x3cb4f59e	0.022089776
40	0x3d979ee1	0.074033506
41	0xbd0a0ee9	-0.033705626
42	0xbc9c92dc	-0.019112997
43	0x3d9d7308	0.07687956
44	0x3d116ce2	0.03550423
45	0xbd22eed3	-0.03977854
46	0xbd1d124b	-0.038347524
47	0xbdd63ea5	-0.10461167
48	0x3dcaf051	0.09909118
49	0x3d87ddcc	0.06634101
50	0x3d01577e	0.03157758
51	0x3c0d7cb8	0.008635692
52	0xbd5e1f4f	-0.054229077
53	0xbde9d599	-0.11417694
54	0xbda17f91	-0.078856595
55	0xbc89d31d	-0.0168243
56	0xbd0e057e	-0.034673207
57	0x3d870338	0.06592411
58	0xbba67602	-0.0050799856
59	0x3dd5cd77	0.1043958
