results/PINN/NASA_dqdv results/8-8/Experiment4/model.pth (torch, 61182 bytes, 14 tensors)

encoder.net.0.weight f4 [60, 18]
-0.110338315 -0.10336218 0.0047472836 -0.3324116 -0.1544766 -0.14160854 0.0681339 -0.06339002
-0.14749043 -0.09717851 0.09146077 -0.023654683 -0.09054899 -0.24497719 0.23124705 -0.19644617
0.30234113 -0.013515386 0.11079644 0.0024240757 -0.14478692 0.0029021238 0.4792512 0.038953193
-0.09525765 -0.025591824 0.014614814 -0.013563312 -0.058665473 -0.1863589 -0.013203927 -0.13016492
-0.22974803 -0.2469261 0.009762052 -0.08148209 0.29425228 -0.15349711 0.08845507 -0.06482802
-0.19381228 -0.011159768 -0.059688207 0.1563732 0.109642945 0.020234348 0.039897036 -0.097332254
0.18219836 0.0365188 0.21417908 -0.022704672 0.18463622 0.11551769 -0.09181405 0.16819704
-0.18111676 -0.11527117 -0.0661859 -0.23036645 -0.19604279 -0.10315327 -0.11727649 0.15768921
0.060062747 0.22324796 0.044903487 -0.18618426 -0.0042506256 -0.22360286 -0.08834206 0.06261064
-0.068675786 0.2559918 -0.19668615 -0.109329455 -0.0485305 -0.15205486 0.04416899 -0.036994077
-0.15633209 -0.031533506 0.074664265 0.11661022 -0.08394959 0.1188326 0.055222247 0.059150025
0.20294419 -0.2603091 -0.09061129 0.33693755 0.17408197 0.026722658 -0.09710169 0.10069041
-0.22755377 0.11657157 -0.0008334084 0.10762617 0.04433194 -0.071921945 -0.074328594 -0.14124338
0.12625217 0.1420961 -0.113885984 -0.19525322 -0.16819756 0.14990498 -0.060753457 -0.08342078
-0.045151487 -0.14629127 -0.06338277 -0.05618491 0.08973722 0.026202263 0.041623734 -0.091732405
0.07636995 0.20888057 -0.10562425 -0.085961156 0.11560057 0.095720954 0.11094601 0.08737039
-0.02241612 -0.15277644 0.08128552 0.13725692 -0.058326535 -0.35510856 0.05627733 0.120042495
0.23682159 0.10782215 -0.13062607 0.14937423 -0.06399159 -0.031954337 0.09198944 0.092439845
0.113544844 -0.03299441 -0.15353309 0.107595444 -0.011686667 -0.43742257 -0.113284394 0.09048756
-0.120926104 -0.14658915 -0.0045633065 0.14360191 0.038011886 -0.12817667 0.20432076 -0.08074587
0.07864966 -0.18236066 -0.035478577 0.089417726 0.08181938 0.12873511 -0.01096833 0.10170067
0.069228224 -0.08256236 0.41785458 -0.01689618 0.1538311 0.16725737 -0.110886835 0.09251211
0.045736894 0.020115472 -0.2864028 0.29531404 0.088932365 0.07096793 0.22712295 -0.05711063
0.13839437 -0.106065124 0.23165281 -0.09256826 -0.00723483 -0.085660234 -0.36365405 0.24310711
-0.12721519 0.0191932 -0.25694928 0.1452304 -0.21806823 -0.065058835 -0.24512158 0.45273712
-0.001194888 0.12647934 -0.34483224 -0.018193956 0.13511784 -0.17017403 -0.13622057 0.05664995
0.23438977 0.27908295 -0.13230385 0.22422346 0.24146883 -0.033807155 -0.102306455 -0.10729718
-0.04116354 -0.104208544 0.116693646 -0.0060501266 -0.03274827 -0.11781123 -0.04665497 -0.16784778
-0.1119852 -0.28353196 0.13919094 -0.24972664 0.27751672 -0.030485343 -0.16111742 0.013496147
0.15424962 0.10922256 0.030511513 -0.10733844 -0.17353982 0.2923504 0.07233635 -0.08690106
0.072310366 -0.027605351 0.33940688 -0.119623825 -0.144766 0.044396043 0.21787 0.13117173
0.067044325 0.16272973 0.13341205 -0.018199265 0.016301164 -0.06281878 0.1792441 -0.009094914
00000000: 0ef9 e1bd 8daf d3bd 1a8f 9b3b da31 aabe
00000010: 1d2f 1ebe d401 11be c989 8b3d a0d2 81bd
00000020: bb07 17be 8705 c7bd c94f bb3d 77c7 c1bc
00000030: c071 b9bd 4ddb 7abe 07cc 6c3e 2f29 49be
00000040: 75cc 9a3e a36f 5dbc 3ee9 e23d 3edd 1e3b
00000050: 0643 14be 8f31 3e3b 6a60 f53e 628d 1f3d
00000060: 7116 c3bd f2a5 d1bc f972 6f3c a738 5ebc
00000070: 354b 70bd ded4 3ebe 4955 58bc f449 05be
00000080: 1143 6bbe 32da 7cbe 04f1 1f3c 15e0 a6bd
00000090: 3ca8 963e 592e 1dbe ef27 b53d 8ec4 84bd
000000a0: ba76 46be 76d7 36bc 9f7b 74bd 4c20 203e
000000b0: 7b8c e03d 81c2 a53c 136b 233d 2256 c7bd
000000c0: 3592 3a3e bd94 153d c351 5b3e 26ff b9bc
000000d0: 4711 3d3e 8a94 ec3d 0109 bcbd d83b 2c3e
000000e0: ac76 39be 4b13 ecbd 798c 87bd 2fe5 6bbe
000000f0: 71bf 48be 0642 d3bd a82e f0bd 4879 213e
00000100: 5b04 763d 1d9b 643e b8ec 373d 16a7 3ebe
00000110: d548 8bbb 26f8 64be afec b4bd 023a 803d
00000120: e4a5 8cbd 5b11 833e 1868 49be 1fe8 dfbd
00000130: ebc7 46bd 45b4 1bbe 8bea 343d 1a87 17bd
00000140: 8515 20be 4729 01bd 94e9 983d 57d1 ee3d
00000150: c3ed abbd 825e f33d b930 623d 4c47 723d
00000160: 9ad0 4f3e 3c47 85be 6992 b9bd 1483 ac3e
00000170: 8b42 323e 7ae9 da3c 40dd c6bd c636 ce3d
00000180: db03 69be 13bd ee3d 1779 5aba 1c6b dc3d
00000190: 6995 353d d04b 93bd 9739 98bd 1ba2 10be
000001a0: 4048 013e a481 113e 0e3d e9bd 76f0 47be
000001b0: fb3b 2cbe b180 193e 9ed8 78bd 84d8 aabd
000001c0: c4f0 38bd 61cd 15be d3ce 81bd 2622 66bd
000001d0: 26c8 b73d 21a6 d63c a67d 2a3d 33de bbbd
000001e0: d967 9c3d cae4 553e 8751 d8bd 670c b0bd
000001f0: febf ec3d 5909 c43d a937 e33d 3fef b23d
00000200: 03a2 b7bc 6d71 1cbe 0679 a63d 148d 0c3e
00000210: cee7 6ebd cad0 b5be 0f83 663d d7d8 f53d
00000220: 5c81 723e dcd1 dc3d d7c2 05be 8ff5 183e
00000230: 060e 83bd 8de2 02bd f664 bc3d 1a51 bd3d
00000240: 338a e83d 2525 07bd c737 1dbe 005b dc3d
00000250: 6f79 3fbc daf5 dfbe a601 e8bd 8b51 b93d
00000260: 1ba8 f7bd 771b 16be ca87 95bb 610c 133e
00000270: 5ab2 1b3d bf40 03be 7639 513e 175e a5bd
00000280: 1313 a13d c1bc 3abe fc51 11bd a420 b73d
00000290: eb90 a73d 23d3 033e 83b4 33bc 7148 d03d
000002a0: 87c7 8d3d 7416 a9bd 09f1 d53e dc69 8abc
000002b0: e685 1d3e 8445 2b3e a318 e3bd fd76 bd3d
000002c0: 9c56 3b3d 34c9 a43c 63a3 92be 6733 973e
000002d0: 2c22 b63d a257 913d eb92 683e d6ec 69bd
000002e0: 41b7 0d3e ac38 d9bd 6536 6d3e 6e94 bdbd
000002f0: 2712 edbb a26e afbd dd30 babe 12f1 783e
00000300: b344 02be 0f3b 9d3c db8e 83be 47b7 143e
00000310: 474d 5fbe 913d 85bd 2701 7bbe 29cd e73e
00000320: ca9d 9cba cd83 013e da8d b0be 7e0b 95bc
00000330: 555c 0a3e 1a42 2ebe 687d 0bbe c709 683d
00000340: df03 703e f6e3 8e3e a97a 07be d69a 653e
00000350: 9b43 773e 5f79 0abd 0c86 d1bd a0be dbbd
00000360: 1a9b 28bd 4a6b d5bd 14fd ee3d 2440 c6bb
00000370: 0d23 06bd 0447 f1bd 4819 3fbd 4ae0 2bbe
00000380: 7f58 e5bd 1a2b 91be 1288 0e3e 57b8 7fbe
00000390: ac16 8e3e 66bc f9bc f7fb 24be f11e 5d3c
000003a0: 9df3 1d3e 14b0 df3d 48f3 f93c 42d4 dbbd
000003b0: 6cb4 31be f4ae 953e 1525 943d 2ff9 b1bd
000003c0: 7517 943d 9e24 e2bc bdc6 ad3e 56fd f4bd
000003d0: 8a3d 14be a0d8 353d 5019 5f3e e251 063e
000003e0: 894e 893d 9fa2 263e 2b9d 083e a016 95bc
000003f0: 058a 853c 22a7 80bd c48b 373e d602 15bc

encoder.net.0.bias f4 [60]
0.0115750125 0.03839992 -0.025860757 0.009381297 0.041120738 0.046342254 0.03612569 -0.009118581
-0.017287904 -0.00096712104 0.021282457 -0.034944743 -0.0016616986 -0.037503585 0.016688665 0.018543877
0.011380691 -0.057629835 0.003043069 0.001677101 0.019996746 -0.0722518 0.04292542 0.039663583
-0.03627082 0.0025595995 -0.03850661 -0.04380649 0.022990318 0.06064213 -0.04092103 -0.07538199
0.032077823 -0.037748173 0.06631725 0.012212857 0.047035985 -0.0054916847 -0.043314505 -0.012633991
0.02980285 -0.008110476 -0.026457142 -0.09146647 -0.064401634 0.025281023 -0.048108414 -0.036191016
-0.0095271785 0.037877403 -0.053635005 0.027331458 -0.01595552 -0.078666896 0.011761417 -0.02226631
-0.04498775 -0.038648225 -0.021403069 -0.0040278323
00000000: 1fa5 3d3c 3c49 1d3d f0d9 d3bc 03b4 193c
00000010: 386e 283d 60d1 3d3d 88f8 133d 1a66 15bc
00000020: 5d9f 8dbc 6586 7dba 8c58 ae3c 3822 0fbd
00000030: 5acd d9ba 5c9d 19bd abb6 883c 54e9 973c
00000040: 1476 3a3c 430d 6cbd 3a6e 473b 2cd2 db3a
00000050: 37d0 a33c c0f8 93bd 91d2 2f3d 4876 223d
00000060: b690 14bd f4be 273b 1bb9 1dbd 6f6e 33bd
00000070: 3156 bc3c e263 783d cf9c 27bd df61 9abd
00000080: 0964 033d d49d 1abd 57d1 873d 6f18 483c
00000090: cea8 403d 97f3 b3bb 8d6a 31bd cdfe 4ebc
000000a0: 1b25 f43c cde1 04bc a6bc d8bc c652 bbbd
000000b0: 01e5 83bd 261a cf3c 540d 45bd 083d 14bd
000000c0: e217 1cbc 5625 1b3d 61b0 5bbd 39e6 df3c
000000d0: 27b5 82bc 1c1c a1bd f5b2 403c d667 b6bc
000000e0: 1345 38bd 9a4d 1ebd 7d55 afbc e8fb 83bb

encoder.net.2.weight f4 [60, 60]
-0.17665644 0.17448168 -0.07091963 -0.10110529 -0.14170991 -0.19094566 0.09253484 0.12833747
-0.16925618 -0.04783513 -0.0053479974 -0.07423458 -0.15945746 0.14379111 0.072170846 -0.23027016
0.17589566 -0.0030529217 0.11029434 0.2486848 -0.078138076 -0.0058281263 0.14288673 -0.25947088
0.11770578 -0.041711386 -0.019097153 -0.027119637 0.1648342 -0.07317923 0.051927052 -0.08661245
0.017646775 0.087247126 -0.087196685 -0.06694878 0.04443128 -0.04143645 -0.09959293 0.044309195
-0.06689537 0.10829135 -0.1269544 0.1308654 -0.13785554 -0.06381911 0.0919375 -0.12854154
0.041953366 0.03360889 -0.09988587 -0.23045476 -0.05889603 -0.100498736 -0.10467987 0.2624307
-0.09306238 -0.17257647 -0.090997316 0.15302661 -0.18514505 -0.05757739 0.030742725 -0.018624598
-0.099838495 -0.2119674 0.010789382 -0.24511512 0.18934245 0.042367958 0.025109319 0.17726155
0.038408514 0.18923716 -0.06634346 -0.095197335 -0.015902128 -0.11605753 -0.1372584 -0.23326689
0.1595538 -0.14136659 0.09015721 0.3073871 0.14587514 -0.01563902 0.05266924 -0.26299298
0.2013959 0.007277985 -0.23234986 0.17801318 -0.08700714 0.024837783 0.07946104 0.045601655
0.06615954 -0.03495743 -0.022203086 -0.10220371 -0.14364679 0.1605488 0.24921884 -0.052222263
0.0016344609 -0.067247964 0.089542426 -0.033149164 0.11392306 -0.06151321 0.22463688 -0.24160565
0.059914496 -0.10112486 -0.06914859 -0.06247469 0.026442792 -0.12778369 0.06503166 -0.16498163
0.10070931 0.008036047 -0.052209716 -0.24687381 -0.19613564 0.04603091 0.32016116 -0.15734866
0.2955883 -0.055495735 0.027166104 0.082907304 0.059549008 0.036386147 -0.148886 -0.10459634
-0.044186834 -0.12013898 -0.01947011 0.10061764 0.1721022 0.15870331 0.053535577 0.09259517
0.06322513 -0.1279485 0.17469494 -0.3437163 0.046187166 0.0061597545 0.079715855 -0.016720623
0.21095648 -0.1440994 -0.18749258 0.15620609 -0.15915033 -0.26197138 0.3418605 -0.2647832
0.17884098 -0.03630533 -0.058820684 -0.032707717 0.07847165 0.06140107 0.02828821 -0.13431841
-0.17463525 -0.01840454 -0.017487528 0.22220193 -0.05550644 -0.07441208 -0.024266183 -0.07402778
0.018747278 -0.029787714 0.055916503 -0.07088093 0.10650813 -0.09930225 -0.062128812 0.18249995
-0.14652722 -0.060656123 0.014893567 0.17672999 -0.12267276 0.14893913 0.068657376 0.15785758
-0.10120928 0.032605667 0.15032554 -0.06693613 0.0250609 -0.051218733 0.15584192 -0.049579654
0.41198358 -0.10153646 0.008623542 0.05632361 0.036742114 0.063725546 -0.044334266 -0.001223699
0.123158835 0.16937211 -0.24388504 0.12529027 0.052963313 -0.123359405 0.13351157 -0.0063267555
0.15237205 0.022769207 -0.10906656 -0.1106764 0.112507716 -0.10664804 -0.0434939 0.009165788
0.23300879 -0.24614556 -0.087293655 0.054179564 0.083045766 -0.009675445 0.01591219 -0.15898195
-0.028208766 -0.16392948 0.20263305 -0.0007550051 -0.13555661 -0.06034159 0.120026074 -0.12996472
0.1356988 -0.2228254 0.26874045 0.023489246 0.008990713 0.23596299 0.043456465 0.07587229
-0.10157462 -0.02085694 0.085257955 0.118997216 0.23160924 -0.068459116 -0.21402799 -0.12933084
00000000: 6de5 34be 53ab 323e 503e 91bd 4a10 cfbd
00000010: 671c 11be 4287 43be e882 bd3d e66a 033e
00000020: 7e51 2dbe c5ee 43bd 413e afbb 4d08 98bd
00000030: d148 23be fa3d 133e 4fce 933d f1cb 6bbe
00000040: fe1d 343e 8713 48bb 00e2 e13d 3aa7 7e3e
00000050: db06 a0bd def9 bebb e650 123e 5ed9 84be
00000060: ba0f f13d 8fd9 2abd a271 9cbc 002a debc
00000070: 4cca 283e fede 95bd 76b1 543d de61 b1bd
00000080: f88f 903c 9fae b23d 2d94 b2bd 711c 89bd
00000090: 93fd 353d 44b9 29bd 61f7 cbbd 8f7d 353d
000000a0: 7100 89bd dbc7 dd3d 5600 02be 9401 063e
000000b0: 012a 0dbe 98b3 82bd ba49 bc3d 65a0 03be
000000c0: 4bd7 2b3d 7aa9 093d f790 ccbd 55fc 6bbe
000000d0: f73c 71bd 48d2 cdbd 6662 d6bd 515d 863e
000000e0: 7d97 bebd e3b7 30be cd5c babd 02b3 1c3e
000000f0: aa96 3dbe 45d6 6bbd 2bd8 fb3c 9d92 98bc
00000100: 2078 ccbd fb0d 59be f3c5 303c 75ff 7abe
00000110: fde2 413e 068a 2d3d 0fb2 cd3c 0d84 353e
00000120: 3f52 1d3d 63c7 413e 14df 87bd d2f6 c2bd
00000130: 2e45 82bc 92af edbd 778d 0cbe 84dd 6ebe
00000140: 1262 233e 67c2 10be 58a4 b83d d861 9d3e
00000150: 4b60 153e 671d 80bc b3bb 573d 04a7 86be
00000160: ba3a 4e3e 2a7c ee3b 1fed 6dbe 1649 363e
00000170: cd30 b2bd 9b78 cb3c 78bc a23d cdc8 3a3d
00000180: a77e 873d 862f 0fbd 3fe3 b5bc 2e50 d1bd
00000190: 2518 13be e866 243e 3933 7f3e 03e7 55bd
000001a0: 683b d63a 4db9 89bd 0562 b73d 6bc7 07bd
000001b0: 7e50 e93d 47f5 7bbd 3607 663e 7967 77be
000001c0: e768 753d 8d1a cfbd c79d 8dbd 76e5 7fbd
000001d0: 8e9e d83c bad9 02be 522f 853d f2f0 28be
000001e0: af40 ce3d a0a9 033c dbd9 55bd 7dcc 7cbe
000001f0: c8d7 48be e88a 3c3d 2aec a33e 0220 21be
00000200: 5a57 973e 7f4f 63bd 738b de3c 4ecb a93d
00000210: a9e9 733d a409 153d 9275 18be 9b36 d6bd
00000220: 41fd 34bd 6d0b f6bd c87f 9fbc 9f10 ce3d
00000230: 8f3b 303e 1f83 223e 1f48 5b3d 89a2 bd3d
00000240: 2d7c 813d ee04 03be 3be3 323e 95fb afbe
00000250: c12e 3d3d c4d7 c93b 1142 a33d b0f9 88bc
00000260: fa04 583e cb8e 13be 0efe 3fbe 7df4 1f3e
00000270: 4ef8 22be 1d21 86be 5708 af3e aa91 87be
00000280: 1722 373e e6b4 14bd f5ed 70bd 87f8 05bd
00000290: bfb5 a03d b07f 7b3d adbc e73c c48a 09be
000002a0: 95d3 32be 1ec5 96bc 0142 8fbc e788 633e
000002b0: b95a 63bd 5c65 98bd e0c9 c6bc e09b 97bd
000002c0: e493 993c 5d05 f4bc b408 653d 052a 91bd
000002d0: ef20 da3d fa5e cbbd c87a 7ebd 44e1 3a3e
000002e0: 3b0b 16be 8e72 78bd 2604 743c b5f8 343e
000002f0: db3b fbbd 8083 183e 3d9c 8c3d 6ba5 213e
00000300: d046 cfbd 858d 053d f0ee 193e cf15 89bd
00000310: 844c cd3c bcca 51bd 0695 1f3e 0914 4bbd
00000320: 83ef d23e 59f2 cfbd c249 0d3c 96b3 663d
00000330: e67e 163d 8a82 823d d997 35bd 8664 a0ba
00000340: b33a fc3d e26f 2d3e 00bd 79be 184c 003e
00000350: 0ff0 583d dba3 fcbd 42b7 083e ac50 cfbb
00000360: 6b07 1c3e 7d86 ba3c 4a5e dfbd 4faa e2bd
00000370: 726a e63d 4a6a dabd a926 32bd 1a2c 163c
00000380: db99 6e3e 950d 7cbe 04c7 b2bd 64eb 5d3d
00000390: e613 aa3d c285 1ebc 485a 823c 2acc 22be
000003a0: 1216 e7bc 21dd 27be 0a7f 4f3e 89eb 45ba
000003b0: 5acf 0abe be28 77bd 3bd0 f53d 7915 05be
000003c0: a0f4 0a3e 572c 64be 5998 893e 856c c03c
000003d0: c94d 133c 48a0 713e 68ff 313d ee62 9b3d
000003e0: 5b06 d0bd 2cdc aabc b99b ae3d d0b4 f33d
000003f0: f92a 6d3e 4b34 8cbd 272a 5bbe 4e6f 04be

encoder.net.2.bias f4 [60]
-0.037393775 -0.01444802 -0.05420779 -0.01329049 -0.046547085 -0.04182635 -0.010939471 -0.008039371
-0.03418747 0.00920223 0.05569156 -0.035954796 0.055357743 -0.030297192 0.03600651 -0.020652713
-0.084412806 0.014803966 0.004941145 0.03767322 -0.04138859 0.042406976 0.05455247 -0.0629283
0.009833504 0.02372079 -0.06293196 -0.054076895 -0.022736493 -0.044451427 -0.054434743 -0.00060351926
-0.022541896 -0.046278127 0.051257268 0.02610312 -0.03692115 0.0392244 0.06166247 0.0012429934
-0.03248511 -0.014935446 0.054962356 -0.036716107 -0.028413123 -0.039348356 0.043350138 0.050177544
-0.025166938 0.0055995174 0.012332759 -0.03199786 0.042484075 -0.0064864885 -0.044733558 0.015455191
-0.029357677 0.041821525 -0.013975226 0.033931077
00000000: 372a 19bd 63b7 6cbc fd08 5ebd 5bc0 59bc
00000010: 28a8 3ebd 1b52 2bbd 783b 33bc 91b7 03bc
00000020: 2908 0cbd f3c4 163c d51c 643d 5645 13bd
00000030: cdbe 623d d131 f8bc 907b 133d e12f a9bc
00000040: 9fe0 acbd 558c 723c 54e9 a13b 3c4f 1a3d
00000050: 1587 29bd f0b2 2d3d 6972 5f3d 8de0 80bd
00000060: b51c 213c 1a52 c23c 79e2 80bd bc7f 5dbd
00000070: e241 babc b312 36bd f7f6 5ebd 7e35 1eba
00000080: c8a9 b8bc 228e 3dbd 24f3 513d 36d6 d53c
00000090: a23a 17bd c4a9 203d c991 7c3d f0eb a23a
000000a0: 1b0f 05bd cdb3 74bc 3520 613d a163 16bd
000000b0: a3c2 e8bc be2b 21bd ea8f 313d f886 4d3d
000000c0: e52a cebc 287c b73b 570f 4a3c 3010 03bd
000000d0: c803 2e3d 9c8c d4bb 893a 37bd c537 7d3c
000000e0: 837f f0bc 0c4d 2b3d 59f8 64bc 50fb 0a3d

encoder.net.5.weight f4 [34, 60]
0.20661317 0.14092165 -0.10455503 -0.13452815 0.014609592 0.18205363 0.03166413 -0.029972458
-0.046207875 -0.15146789 -0.083520316 -2.0510255e-05 -0.0062260074 0.15741631 -0.16580023 0.103521645
-0.05545252 -0.14401619 0.01427961 -0.10586507 -0.109851025 0.024960719 -0.033478364 -0.10466479
-0.06340764 0.11842828 0.20144556 -0.21307905 0.0974778 0.103380844 -0.067201346 -0.06473274
-0.09003187 0.10577886 -0.08026067 0.16261841 0.11571022 0.08414303 -0.22865759 0.031552844
0.12869588 -0.07091085 0.072771646 0.05912476 0.21648811 0.08363922 -0.3177929 0.06319284
0.25482288 -0.08312248 -0.13122323 -0.23057924 -0.0746326 -0.36415434 -0.08867665 0.08445001
-0.03301841 -0.18777582 -0.07940756 0.06465645 0.12706985 -0.034693487 0.11279293 0.19557706
-0.12092783 -0.07820926 0.05274583 -0.118192926 0.018647023 0.145358 0.052519117 -0.09268437
-0.09860258 0.048807874 -0.051437993 -0.078602195 -0.04942963 -0.13686927 -0.0032919617 0.27350888
0.036480006 -0.020669552 -0.05967967 -2.0457403e-05 0.1063288 -0.04702647 0.019616656 -0.0062824185
-0.1395653 0.054970134 -0.15974098 0.12836695 0.07646917 -0.08156394 0.22071472 0.036670517
-0.017599499 -0.08769844 0.20113347 0.04361083 -0.078034535 -0.02088563 0.2074714 0.08822874
0.0335233 -0.06712034 0.038980704 0.27362558 0.020040577 -0.112001374 -0.19025022 -0.08290608
0.20133561 0.0013545625 -0.024223026 -0.19068602 0.03952055 0.09520757 0.13768218 0.14587836
0.11296099 0.06507914 0.02952849 -0.14615361 0.24938142 -0.18248968 -0.05151581 -0.19366828
0.052132256 0.13227057 0.079982825 0.03315857 -0.023084553 -0.12398935 0.16199888 -0.17178303
-0.09862556 -0.09687866 0.26691955 0.06354473 0.11508196 0.16994455 -0.05905903 0.20367113
0.11116989 -0.018843064 -0.0041588726 -0.09855554 0.09819406 0.02199818 0.07741953 0.04858758
0.12241251 0.13432653 -0.08175029 0.015444115 0.20476323 -0.17591244 0.047636893 -0.0750561
-0.17986465 -0.16063093 -0.16495885 0.26890495 -0.05377647 -0.1690754 -0.1702557 -0.11882321
-0.07048603 0.0016171227 0.054459136 0.058734346 0.14489858 -0.01478715 -0.12313704 -0.11992553
0.058656983 0.031923942 -0.058753468 0.17037833 0.21280324 -0.026554836 0.002522177 0.18909508
-0.008846307 -0.1468847 0.01405382 0.075332455 -0.13121206 0.11575862 -0.2696984 -0.13708103
-0.11603031 -0.07749039 -0.2361235 0.09655307 0.17495961 -0.108046636 -0.14803597 -0.051522646
0.16677715 -0.03515771 -0.162108 -0.111725256 0.015645435 0.08289301 -0.12004305 0.058881953
0.041635774 -0.24183168 0.080210984 0.20086096 0.05711756 0.2687305 -0.023546359 0.034968846
-0.025742246 -0.11191708 0.14807409 0.026302913 -0.1189155 -0.07555306 -0.12232587 0.28913704
0.058360107 -0.15173352 -0.040857952 0.014006566 -0.10496638 -0.14918102 -0.17063217 0.18643223
-0.011033317 -0.11862936 0.05551199 -0.21720137 0.05750656 -0.06646339 0.06726219 -0.15295707
0.049724564 0.30624515 0.06178328 -0.010298015 0.022118296 0.19149281 0.12278741 -0.18282957
-0.011372338 -0.2272367 0.054141846 -0.037407175 0.2348148 -0.110704765 0.055417813 -0.017650543
00000000: 6792 533e c44d 103e f320 d6bd bfc1 09be
00000010: 125d 6f3c 446c 3a3e 3fb2 013d cd88 f5bc
00000020: 7844 3dbd 661a 1bbe b30c abbd 700d acb7
00000030: 8903 ccbb be31 213e 89c7 29be 2803 d43d
00000040: 2e22 63bd fb78 13be 06f5 693c c9cf d8bd
00000050: 93f9 e0bd 6c7a cc3c 9c20 09bd 7e5a d6bd
00000060: dddb 81bd 878a f23d bf47 4e3e 6531 5abe
00000070: 71a2 c73d 56b9 d33d dca0 89bd 9992 84bd
00000080: a162 b8bd 96a2 d83d b55f a4bd 7185 263e
00000090: 7bf9 ec3d 2e53 ac3d 3725 6abe 8e3d 013d
000000a0: dac8 033e b539 91bd 4d09 953d ce2c 723d
000000b0: 0faf 5d3e 0a4b ab3d c0b5 a2be 3f6b 813d
000000c0: 2578 823e 1e3c aabd 625f 06be f71c 6cbe
000000d0: fad8 98bd 7072 babe 1a9c b5bd 20f4 ac3d
000000e0: 503e 07bd 4e48 40be 6ea0 a2bd 9a6a 843d
000000f0: 991e 023e c21a 0ebd fbff e63d 5a45 483e
00000100: 03a9 f7bd 2d2c a0bd 030c 583d 220f f2bd
00000110: a4c1 983c bad8 143e 491e 573d 4ed1 bdbd
00000120: 26f0 c9bd c4ea 473d a5b0 52bd 30fa a0bd
00000130: b976 4abd 7527 0cbe f4bd 57bb 5b09 8c3e
00000140: 0f6c 153d 3153 a9bc ab72 74bd f09b abb7
00000150: eac2 d93d d49e 40bd 1cb3 a03c bfdc cdbb
00000160: 35ea 0ebe 5d28 613d 2493 23be a072 033e
00000170: de9b 9c3d ff0a a7bd 0a03 623e d333 163d
00000180: d32c 90bc 3d9b b3bd eff5 4d3e 45a1 323d
00000190: 92d0 9fbd 5718 abbc 6273 543e 45b1 b43d
000001a0: ba4f 093d 6476 89bd 3baa 1f3d a718 8c3e
000001b0: 232c a43c fa60 e5bd f4d0 42be aaca a9bd
000001c0: ec2a 4e3e 938b b13a 5e6f c6bc 3243 43be
000001d0: 4de0 213d 30fc c23d 8ffc 0c3e 2361 153e
000001e0: 1758 e73d 3648 853d bbe5 f13c 4ba9 15be
000001f0: d85d 7f3e 93de 3abe 3e02 53bd fa50 46be
00000200: a288 553d f071 073e 09ce a33d 48d1 073d
00000210: d11b bdbc 21ee fdbd 09e3 253e e4e7 2fbe
00000220: 33fc c9bd 5268 c6bd aea9 883e bd23 823d
00000230: 17b0 eb3d f205 2e3e e2e7 71bd 2a8f 503e
00000240: 0aad e33d c55c 9abc 2747 88bb 7dd7 c9bd
00000250: f819 c93d 8735 b43c 218e 9e3d c503 473d
00000260: 69b3 fa3d e58c 093e b26c a7bd 5009 7d3c
00000270: 74ad 513e 6422 34be e71e 433d 03b7 99bd
00000280: 702e 38be 6f7c 24be f9ea 28be e9ad 893e
00000290: b744 5cbd 1a22 2dbe 8357 2ebe 9559 f3bd
000002a0: fb5a 90bd a2f5 d33a 8b10 5f3d 6d93 703d
000002b0: 4b60 143e cd45 72bc 462f fcbd 849b f5bd
000002c0: 4e42 703d aec2 023d 7aa7 70bd a877 2e3e
000002d0: 18e9 593e 8789 d9bc 1c4b 253b 24a2 413e
000002e0: 1af0 10bc f168 16be fe41 663c e747 9a3d
000002f0: 745c 06be db12 ed3d e915 8abe f85e 0cbe
00000300: 4da1 edbd 48b3 9ebd 5cca 71be 9ebd c53d
00000310: 9d28 333e 8e47 ddbd be96 17be 6909 53bd
00000320: a1c7 2a3e 8801 10bd a4ff 25be 36d0 e4bd
00000330: db2a 803c cfc3 a93d 21d9 f5bd 342e 713d
00000340: 468a 2a3d b9a2 77be a845 a43d 7fae 4d3e
00000350: 1af4 693d 0b97 893e 4be4 c0bc 7e3b 0f3d
00000360: 67e1 d2bc c834 e5bd bca0 173e 3579 d73c
00000370: f889 f3bd 90bb 9abd fc85 fabd c509 943e
00000380: 020b 6f3d 0860 1bbe ab5a 27bd cc7b 653c
00000390: 9df8 d6bd e9c2 18be 33ba 2ebe 17e8 3e3e
000003a0: 16c5 34bc f3f3 f2bd 8a60 633d 096a 5ebe
000003b0: 008c 6b3d f51d 88bd c2c0 893d c7a0 1cbe
000003c0: fcab 4b3d 2acc 9c3e 7710 7d3d 01b9 28bc
000003d0: 6e31 b53c b116 443e f777 fb3d ad37 3bbe
000003e0: 0b53 3abc bdb0 68be d7c3 5d3d 4438 19bd
000003f0: 4a73 703e 2eb9 e2bd cafd 623d df97 90bc

encoder.net.5.bias f4 [34]
0.049651388 0.06189732 0.004971774 -0.04965993 -0.06698163 0.098050125 -0.07027814 0.05276914
-0.020387284 -0.017572332 0.042421374 0.043355126 -0.023564532 0.03756438 -0.054171376 -0.07412861
0.019465908 0.07427318 -0.045801375 -0.026662253 0.07007343 0.070970766 -0.058787774 -0.0569732
0.009539625 -0.008240508 0.061592683 0.04484191 -0.060600962 0.057229746 -0.06395634 0.03391234
-0.0052930997 -0.08663356
00000000: 415f 4b3d 0b88 7d3d 43ea a23b 3668 4bbd
00000010: aa2d 89bd 81ce c83d fced 8fbd 7424 583d
00000020: 3c03 a7bc daf3 8fbc 09c2 2d3d 2595 313d
00000030: 680a c1bc 1bdd 193d cee2 5dbd bed0 97bd
00000040: f876 9f3c 891c 983d 399a 3bbd cc6a dabc
00000050: a982 8f3d 1f59 913d 73cb 70bd bb5c 69bd
00000060: 164c 1c3c 3203 07bc 9c48 7c3d 27ac 373d
00000070: b738 78bd bd69 6a3d 8bfb 82bd aae7 0a3d
00000080: bd71 adbb f06c b1bd

predictor.net.1.weight f4 [32, 34]
0.13775104 -0.02733486 0.010231211 -0.02595864 -0.24693668 0.110216856 -0.061594594 0.08591464
0.042198643 0.05714843 0.1320661 -0.06552964 0.34783036 0.1605035 -0.104025654 -0.32387617
-0.010839311 0.16867296 0.20226946 0.056116138 0.12066589 -0.1499035 0.12428471 -0.24467489
-0.41658968 0.10932073 0.22079663 0.07141018 -0.25005868 0.20713128 -0.06701113 -0.002890423
0.30507508 -0.2085854 -0.037537254 0.19472991 0.38287574 0.38098165 -0.07221967 0.19342233
0.24373321 -0.32454348 -0.0867685 0.18198736 -0.018866697 0.08258726 -0.13085139 0.19748412
-0.12038584 0.13755561 0.1322173 -0.053987037 0.06954381 -0.019756934 0.14159091 0.34207186
0.06228827 -0.0811512 -0.22951415 -0.15385072 -0.21017773 -0.012704538 0.069277 0.10665253
0.0868415 0.005650711 0.1691415 -0.04408687 0.010824479 0.023436401 0.028597247 -0.16675085
-0.14460085 -0.36628094 0.20941176 -0.01249726 -0.24216425 0.05203606 -0.12787694 0.022887122
-0.22397895 0.30669156 0.19716851 0.088640854 -0.022743318 -0.034678616 0.12421882 -0.24480945
-0.011158519 0.11599089 -0.013269387 0.47430193 0.056856975 0.08525232 0.24812636 -0.18312564
0.03501795 -0.11181478 0.14912234 -0.10399829 -0.0107688755 0.063544035 -0.18140917 0.30244184
0.05225799 0.0008229029 -0.20409067 0.039636824 0.058248673 0.14377047 0.15182745 0.18420868
-0.045846492 0.095731124 0.15180276 -0.13733879 -0.07186296 -0.12051052 -0.20712288 -0.10077975
-0.25855446 -0.06878702 0.19078104 0.16361295 0.13058083 0.07966742 -0.06545217 -0.28709954
0.034602668 -0.11983713 -0.23215762 -0.10503094 -0.0514066 -0.02325363 -0.0044585206 -0.010128511
0.14752959 0.093489215 -0.053183552 0.11592169 -0.36013943 -0.22105339 -0.101710595 -0.107347645
-0.10371973 -0.21720983 0.15620488 -0.12750389 -0.018818535 0.28900722 -0.013022106 -0.26725522
0.06935232 0.022869332 0.15361257 0.42156416 -0.22490633 0.30364653 0.3688072 -0.10839498
-0.21019375 0.05833812 0.08128003 -0.3755284 0.22681823 0.038065713 -0.21631354 -0.2853749
-0.30029908 0.12419332 -0.054386385 -0.019441554 0.10880061 -0.06295443 -0.034556735 0.50138974
-0.22224689 -0.075074576 0.006163438 -0.026829865 -0.018680464 0.32178557 0.2324619 0.27752516
-0.076503634 -0.048279498 0.002968995 0.20692156 0.20395777 0.17984536 0.0783421 0.014799117
-0.1567767 0.14023513 -0.06697311 -0.06797872 0.044475626 0.17134 0.10182544 0.24587357
-0.059273396 -0.019971272 0.13317873 0.07478902 0.0045004655 0.06754185 -0.14882825 0.3097981
-0.076777875 -0.06561045 0.2983884 0.1350271 0.15529288 0.33214438 0.24909231 -0.20877883
0.015060962 0.15970875 0.29884544 0.114706576 -0.13201329 0.2298499 -0.07061835 0.30800036
-0.1932789 -0.13751425 -0.12582709 -0.0016498204 -0.25284585 0.18478079 -0.08719168 -0.028424913
0.2956798 -0.14285962 -0.35322008 -0.022430222 0.15483902 0.286344 0.13416883 -0.03332529
-0.11043507 -0.022808967 -0.28616667 0.1928872 -0.06644379 -0.25550935 0.1571492 0.20519629
-0.13273263 0.111576736 -0.105473466 0.20625688 0.18557222 -0.21535291 0.072739325 -0.046930537
00000000: 9c0e 0d3e 5bed dfbc cfa0 273c 37a7 d4bc
00000010: f8dc 7cbe 60b9 e13d 9d4a 7cbd 04f4 af3d
00000020: 7cd8 2c3d 7914 6a3d 563c 073e 6734 86bd
00000030: d216 b23e 085b 243e 670b d5bd 19d3 a5be
00000040: 5e97 31bc 9bb8 2c3e ba1f 4f3e 09da 653d
00000050: ae1f f73d 4e80 19be fb88 fe3d 0e8c 7abe
00000060: 3e4b d5be 8ce3 df3d 8318 623e 803f 923d
00000070: b107 80be 391a 543e 223d 89bd 406d 3dbb
00000080: cd32 9c3e 6997 55be aac0 19bd 4767 473e
00000090: 4a08 c43e 0710 c33e e8e7 93bd 8110 463e
000000a0: 3395 793e 902a a6be afb3 b1bd e55a 3a3e
000000b0: 558e 9abc 8223 a93d e8fd 05be 4739 4a3e
000000c0: da8c f6bd 61db 0c3e f963 073e 8321 5dbd
000000d0: fc6c 8e3d 4bd9 a1bc 35fd 103e 0b24 af3e
000000e0: fc21 7f3d 9a32 a6bd c205 6bbe 0b8b 1dbe
000000f0: d538 57be b226 50bc 1ae1 8d3d a46c da3d
00000100: f5d9 b13d 9929 b93b 6e33 2d3e 6f94 34bd
00000110: 2859 313c b2fd bf3c c644 ea3c bcc0 2abe
00000120: 3f12 14be 2d89 bbbe 0970 563e 4fc1 4cbc
00000130: e8f9 77be c323 553d 2cf2 02be c67d bb3c
00000140: bd5a 65be ad06 9d3e 8be6 493e 5689 b53d
00000150: 3250 babc 2a0b 0ebd 7066 fe3d 54af 7abe
00000160: 39d2 36bc a28c ed3d d867 59bc b4d7 f23e
00000170: dce2 683d c598 ae3d d614 7e3e 4a85 3bbe
00000180: fb6e 0f3d 26ff e4bd 87b3 183e 0efd d4bd
00000190: f06f 30bc 6023 823d 53c3 39be a8d9 9a3e
000001a0: 790c 563d 14b8 573a 25fd 50be 395a 223d
000001b0: 2996 6e3d 9138 133e a878 1b3e 33a1 3c3e
000001c0: 88c9 3bbd ae0e c43d 2f72 1b3e 8aa2 0cbe
000001d0: e32c 93bd 38ce f6bd 0518 54be 9d65 cebd
000001e0: 4061 84be 36e0 8cbd 1b5c 433e 278a 273e
000001f0: fbb6 053e ac28 a33d ca0b 86bd b6fe 92be
00000200: 87bb 0d3d 2b6d f5bd baba 6dbe 761a d7bd
00000210: ba8f 52bd 667e bebc c818 92bb 0ef2 25bc
00000220: ff11 173e 4677 bf3d ffd6 59bd 5a68 ed3d
00000230: 3264 b8be d25b 62be a54d d0bd 15d9 dbbd
00000240: 036b d4bd 416c 5ebe 2cf4 1f3e 6190 02be
00000250: 5429 9abc c1f8 933e ac5a 55bc add5 88be
00000260: 9708 8e3d 7758 bb3c 9d4c 1d3e 42d7 d73e
00000270: d84d 66be 8f77 9b3e 4cd4 bc3e 30fe ddbd
00000280: 083d 57be f4f3 6e3d 2576 a63d 4245 c0be
00000290: 0a43 683e cbea 1b3d 4c81 5dbe a91c 92be
000002a0: cdc0 99be 1159 fe3d 42c4 5ebd e543 9fbc
000002b0: dbd2 de3d 41ee 80bd 5d8b 0dbd 145b 003f
000002c0: b094 63be b3c0 99bd aaf6 c93b 4eca dbbc
000002d0: c607 99bc 14c1 a43e 7e0a 6e3e c717 8e3e
000002e0: f0ad 9cbd b9c0 45bd 7893 423b 3fe3 533e
000002f0: 4eda 503e 6229 383e d371 a03d ff77 723c
00000300: 128a 20be cc99 0f3e 3329 89bd 6d38 8bbd
00000310: 132c 363d c173 2f3e db89 d03d 48c6 7b3e
00000320: a9c8 72bd cb9a a3bc 0160 083e fc2a 993d
00000330: a478 933b 6253 8a3d 6f66 18be db9d 9e3e
00000340: b83d 9dbd c65e 86bd 5dc6 983e 8b44 0a3e
00000350: 1905 1f3e d40e aa3e 0e12 7f3e 1eca 55be
00000360: 41c2 763c b18a 233e 4502 993e 48eb ea3d
00000370: 7e2e 07be c65d 6b3e 5aa0 90bd 39b2 9d3e
00000380: e7ea 45be 89d0 0cbe d1d8 00be c93e d8ba
00000390: 0375 81be 2d37 3d3e 8d91 b2bd 5ddb e8bc
000003a0: 5863 973e cb49 12be 43d9 b4be 96bf b7bc
000003b0: 1f8e 1e3e ae9b 923e 8e63 093e 1980 08bd
000003c0: c82b e2bd dfd9 babc 7084 92be 3984 453e
000003d0: af13 88bd 1fd2 82be b8eb 203e fa1e 523e
000003e0: 10eb 07be 5882 e43d 7902 d8bd 0135 533e
000003f0: a506 3e3e 7985 5cbe 5bf8 943d 3c3a 40bd

predictor.net.1.bias f4 [32]
-0.07531904 -0.09630019 -0.069506854 -0.053183515 0.071137056 0.065553695 0.07996303 -0.027714135
-0.06770271 -0.09578242 0.100929156 0.06087642 -0.03266023 0.09872764 0.09409428 0.048293177
0.04530323 0.09481752 -0.08259625 -0.07136574 -0.07205036 0.03470482 -0.08231273 0.049599014
-0.041220933 -0.036019552 0.0620683 0.05465192 0.06990603 -0.07753812 0.08338412 -0.06615024
00000000: de40 9abd 0939 c5bd 9c59 8ebd f5d6 59bd
00000010: 4eb0 913d 0441 863d a8c3 a33d c108 e3bc
00000020: b8a7 8abd 9329 c4bd f2b3 ce3d 8e59 793d
00000030: bcc6 05bd b831 ca3d 80b4 c03d 11cf 453d
00000040: e18f 393d b02f c23d 3928 a9bd 3328 92bd
00000050: 248f 93bd a426 0e3d 9493 a8bd 5628 4b3d
00000060: 48d7 28bd 3d89 13bd 543b 7e3d b1da 5f3d
00000070: e52a 8f3d 4ecc 9ebd 4bc5 aa3d c779 87bd

predictor.net.3.weight f4 [1, 32]
-0.22374944 -0.14071555 -0.04998445 -0.06429907 0.1997395 -0.002482174 0.08837271 -0.3666845
-0.22381026 -0.14527564 0.1473305 0.031449344 -0.012492561 0.5653839 0.17949964 0.074442804
0.0069764513 0.13563938 -0.2373097 -0.035188276 -0.009331548 0.026915368 -0.20597002 0.10585388
-0.24986139 0.02602793 0.2761509 0.4369218 0.16757107 -0.063452624 0.12796663 -0.50281066
00000000: 931e 65be bd17 10be 7fbc 4cbd 3baf 83bd
00000010: 8388 4c3e f8ab 22bb c0fc b43d 12be bbbe
00000020: 842e 65be 23c3 14be cedd 163e 07d1 003d
00000030: 99ad 4cbc 00bd 103f c1ce 373e 7875 983d
00000040: b79a e43b 0de5 0a3e 5001 73be 9521 10bd
00000050: 59e3 18bc 9e7d dc3c cee9 52be ebc9 d83d
00000060: aadb 7fbe 8738 d53c a763 8d3e 37b4 df3e
00000070: c097 2b3e 73f3 81bd af09 033e 33b8 00bf

net.0.weight f4 [60, 37]
0.1333326 -0.15986519 0.12195814 0.08868777 0.08916505 -0.16245168 0.15911242 0.09487939
-0.052023366 -0.017938461 -0.048772592 0.19405861 0.14336018 -0.06277956 -0.0023669947 0.0008125469
0.16602097 0.22476801 0.025258662 -0.039966203 0.07803657 0.20622541 0.052148685 -0.003094812
-0.14651072 0.16915682 -0.08278897 -0.0619102 -0.1193686 -0.18461485 -0.1432661 0.3386667
0.050181717 -0.01805188 0.048153594 -0.3032552 -0.09544611 0.035772555 -0.007125031 0.21459885
0.26422307 0.08916045 -0.14738563 0.26402152 0.12316729 -0.039173882 0.03492294 -0.07920236
-0.1218425 -0.5091116 0.029591728 0.11989436 0.19540645 0.06470076 0.17303832 0.048306797
0.16301058 0.15619563 -0.008141309 -0.055634018 -0.06578378 -0.18659888 -0.12681201 -0.074269034
-0.037108913 0.2019747 0.046744898 0.04611447 -0.103350334 0.006578662 -0.12211236 -0.13152644
-0.11887586 -0.090042196 0.018690525 -0.14070402 0.05296821 -0.024090374 0.20260096 0.08379919
-0.11932919 0.01857192 -0.09073591 -0.10624721 -0.21092786 -0.019174416 -0.28393587 0.089194655
0.18142563 0.07720541 -0.026691824 -0.06758507 0.05519301 -0.28709322 0.14474313 0.20921768
-0.043818742 0.17571965 0.0974263 0.052385617 -0.035243545 -0.09484064 0.06274513 0.15636194
0.038580935 0.056440085 -0.20257689 -0.23987436 0.12303768 0.12525466 -0.12620117 0.04885153
0.049555782 -0.06571277 -0.07802973 0.08024947 -0.22956294 -0.21303889 -0.08868454 0.33246082
-0.33449683 0.06387707 0.14481136 0.13069645 0.13684751 -0.2044505 0.07072253 0.09526526
-0.09079417 -0.18158561 0.031119632 0.012481869 -0.041820254 0.12654096 -0.06341626 0.049158078
0.25001585 0.21132445 0.2620592 0.31323338 -0.13985337 0.13690995 -0.10247443 -0.013181604
0.1913487 0.009239165 -0.19761544 -0.17078033 0.0113480035 0.18921238 -0.17314063 0.17378308
0.12958376 -0.09321924 -0.016229082 -0.0833245 -0.12960064 -0.06463547 0.21810596 -0.11100921
-0.28421533 -0.18958314 -0.06352702 -0.0019685272 -0.15892912 -0.1157825 0.09967585 -0.070386276
-0.14648125 -0.08902815 0.1753935 0.10982758 0.10650286 0.093205735 -0.05239771 0.08950807
0.077972926 0.19777341 -0.0075697107 0.19636767 0.27762932 -0.14056799 -0.20875026 -0.07478613
-0.0026545771 0.14887947 0.07424708 0.19289838 0.004348833 -0.052257437 -0.051614176 -0.17699113
-0.057917103 0.03927736 -0.015759988 0.02215994 0.22377098 0.035618227 -0.03340546 -0.15045008
-0.15644594 0.040195487 0.17139165 -0.044891924 -0.18408577 -0.109705366 0.36098072 0.08331676
0.13273656 0.08619623 0.16843495 0.15679441 0.124226935 0.05772088 0.107067876 -0.14565876
-0.12329337 -0.18701722 -0.1524155 0.09241221 0.07280758 0.37855753 -0.058928955 0.056959674
-0.19275247 0.026325522 -0.011638328 0.153899 -0.05715546 -0.05388748 -0.10107601 0.14239024
-0.074641496 0.4179823 -0.006182958 -0.09507049 -0.18116133 -0.122480795 -0.102461286 -0.15609471
0.12264318 -0.056740705 0.19337101 -0.105435565 0.10020517 -0.032299552 -0.13468036 0.074203305
-0.25047967 0.11941029 0.04919565 0.012491615 0.018950501 -0.16317666 -0.25597683 0.10433908
00000000: 5788 083e b3b3 23be 30c5 f93d efa1 b53d
00000010: 2a9c b63d bc59 26be 5eee 223e 2050 c23d
00000020: 7416 55bd aef3 92bc c5c5 47bd 4db7 463e
00000030: 03cd 123e 9292 80bd 951f 1bbb 1901 553a
00000040: 6701 2a3e 9629 663e 41eb ce3c 9ab3 23bd
00000050: a3d1 9f3d c12c 533e dc99 553d 54d2 4abb
00000060: e806 16be 7237 2d3e 438d a9bd 8d95 7dbd
00000070: 8677 f4bd ad0b 3dbe 59b4 12be b965 ad3e
00000080: 588b 4d3d 89e1 93bc b43c 453d 4444 9bbe
00000090: 4079 c3bd 3e86 123d 1879 e9bb cdbf 5b3e
000000a0: 3f48 873e c199 b63d 42ec 16be d42d 873e
000000b0: 223f fc3d cb74 20bd 5b0b 0f3d d934 a2bd
000000c0: 9088 f9bd 2355 02bf 5a6a f23c 2d8b f53d
000000d0: a118 483e d581 843d f530 313e 59dd 453d
000000e0: 3fec 263e bff1 1f3e 2063 05bc 7fe0 63bd
000000f0: a5b9 86bd c713 3fbe 02db 01be 5d1a 98bd
00000100: 84ff 17bd 75d2 4e3e 9477 3f3d 87e2 3c3d
00000110: 57a9 d3bd d191 d73b 0c16 fabd deae 06be
00000120: 3075 f3bd 0b68 b8bd df1c 993c b714 10be
00000130: 32f5 583d 2d59 c5bc a076 4f3e e99e ab3d
00000140: dd62 f4bd 2424 983c c0d3 b9bd 2398 d9bd
00000150: 79fd 57be aa13 9dbc 0b60 91be b0ab b63d
00000160: a4c7 393e df1d 9e3d d0a8 dabc 0b6a 8abd
00000170: 1112 623d e2fd 92be 8b37 143e 293d 563e
00000180: 487b 33bd daef 333e 7187 c73d 4d92 563d
00000190: 895b 10bd cf3b c2bd 8580 803d 581d 203e
000001a0: 0b07 1e3d b82d 673d 5170 4fbe a0a1 75be
000001b0: 2efb fb3d c242 003e e13a 01be 8b18 483d
000001c0: 01fb 4a3d 6b94 86bd 0dce 9fbd d659 a43d
000001d0: 8c12 6bbe de26 5abe 3da0 b5bd 4e38 aa3e
000001e0: 2b43 abbe fbd1 823d 6e49 143e 4ad5 053e
000001f0: c121 0c3e 795b 51be f9d6 903d 6f1a c33d
00000200: 4bf2 b9bd 94f1 39be 99ee fe3c c180 4c3c
00000210: b74b 2bbd f493 013e 62e0 81bd fb59 493d
00000220: 1402 803e 7065 583e a02c 863e 2060 a03e
00000230: b935 0fbe 1f32 0c3e 1dde d1bd a8f7 57bc
00000240: eaf0 433e de5f 173c b45b 4abe 0ae1 2ebe
00000250: faec 393c e4c0 413e c74b 31be 31f4 313e
00000260: 9bb1 043e bbe9 bebd daf2 84bc 09a6 aabd
00000270: 08b6 04be 9a5f 84bd 2b57 5f3e cc58 e3bd
00000280: ac84 91be 1522 42be 741a 82bd 6802 01bb
00000290: 51be 22be 601f edbd da22 cc3d ae26 90bd
000002a0: 2eff 15be 6454 b6bd 5b9a 333e 48ed e03d
000002b0: 2c1e da3d a6e2 be3d fb9e 56bd 0250 b73d
000002c0: 45b0 9f3d 1d85 4a3e 560b f8bb 9b14 493e
000002d0: 6e25 8e3e 0ef1 0fbe a1c2 55be 7829 99bd
000002e0: 6af8 2dbb dc73 183e da0e 983d 2787 453e
000002f0: a880 8e3b e50b 56bd 6369 53bd 2a3d 35be
00000300: 7c3a 6dbd 4ce1 203d 171b 81bc c388 b53c
00000310: 3824 653e 6be4 113d 2ad4 08bd 960f 1abe
00000320: 5d33 20be 06a4 243d 4b81 2f3e 98e0 37bd
00000330: fb80 3cbe 35ad e0bd 77d2 b83e faa1 aa3d
00000340: 18ec 073e a687 b03d 367a 2c3e b78e 203e
00000350: b16a fe3d bb6c 6c3d 6746 db3d 9227 15be
00000360: 3c81 fcbd 7181 3fbe cf12 1cbe 9d42 bd3d
00000370: 241c 953d 4bd2 c13e 7d5f 71bd 8c4e 693d
00000380: e760 45be 9fa8 d73c b0ae 3ebc b397 1d3e
00000390: d81b 6abd 1eb9 5cbd f000 cfbd bfce 113e
000003a0: a4dd 98bd c701 d63e 699a cabb 51b4 c2bd
000003b0: 5b82 39be 36d7 fabd 39d7 d1bd 4bd7 1fbe
000003c0: 592c fb3d f168 68bd 0d03 463e 9aee d7bd
000003d0: 5e38 cd3d 894c 04bd a6e9 09be e7f7 973d
000003e0: df3e 80be 628d f43d 6181 493d a1a9 4c3c
000003f0: 153e 9b3c c817 27be 650f 83be baaf d53d

net.0.bias f4 [60]
0.007739038 0.109850645 0.14358963 -0.1237851 -0.088464394 -0.055216093 -0.08616727 0.0569816
-0.13873875 -0.10664855 0.06779299 -0.1529163 0.009941215 0.09504113 0.05906245 -0.13809781
-0.050519757 -0.105055794 0.01766912 -0.13600953 -0.0954977 0.07833958 0.08967578 -0.0809459
0.10821124 0.12981832 0.055943474 0.05655799 0.14037958 -0.15290652 0.10564728 0.1676678
0.030410478 -0.13326062 -0.013668139 0.08012632 -0.15137853 0.14296483 0.042030774 0.022314938
0.11461605 0.07762582 -0.095542975 -0.09211286 0.03204406 -0.106835656 -0.026923636 0.11736645
0.15419601 0.011478927 -0.06971232 -0.067053206 -0.11878483 -0.06513103 0.12232391 -0.07860399
-0.005051344 -0.031312093 -0.047424853 -0.15050207
00000000: c297 fd3b 60f9 e03d 2909 133e 0b83 fdbd
00000010: d22c b5bd 452a 62bd 7778 b0bd 8a65 693d
00000020: 8811 0ebe 8e6a dabd 0dd7 8a3d 1796 1cbe
00000030: 7ae0 223c eda4 c23d 78eb 713d 8369 0dbe
00000040: ceed 4ebd 7e27 d7bd d5be 903c 1546 0bbe
00000050: 4c94 c3bd 8070 a03d efa7 b73d f7c6 a5bd
00000060: db9d dd3d 18ef 043e fc24 653d 5aa9 673d
00000070: aabf 0f3e 8793 1cbe 9a5d d83d 1cb1 2b3e
00000080: 651f f93c 7975 08be 55f0 5fbc 4519 a43d
00000090: f902 1bbe 5f65 123e 7628 2c3d d1cd b63c
000000a0: d2bb ea3d 49fa 9e3d 09ac c3bd aba5 bcbd
000000b0: a240 033d a7cc dabd f58e dcbc d25d f03d
000000c0: 8fe5 1d3e 1c12 3c3c 55c5 8ebd 3153 89bd
000000d0: 7645 f3bd 6b63 85bd f584 fa3d 21fb a0bd
000000e0: bf85 a5bb 1c41 00bd 9040 42bd 371d 1abe

net.2.weight f4 [60, 60]
0.15166654 -0.15771328 -0.22745186 0.0016817168 0.08228267 -0.024598991 -0.0733933 -0.116992936
0.05337298 0.0058544436 -0.114786975 0.27189335 0.2406199 0.0872268 0.103803046 -0.14780867
-0.22242181 0.2747633 -0.0024500806 -0.08783464 0.06436194 0.05972935 0.03006409 0.1583223
0.08448123 -0.08604589 0.039037824 -0.04251504 -0.008201213 0.014331601 0.03130155 -0.075993456
-0.20089449 -0.12644139 -0.13014977 0.11522747 -0.094757505 -0.25060388 0.09341521 -0.006829049
0.13777088 0.07875667 -0.07683029 0.08362245 0.16641712 -0.058312792 0.11084046 -0.0019096717
-0.22548707 -0.022502616 0.13754186 -0.1551428 0.055592332 0.1545216 0.081550255 0.15463679
-0.10116904 -0.21389306 -0.08600695 0.16116628 -0.14860496 0.19158003 -0.03680802 -0.2659555
-0.10924197 0.012090458 -0.32082725 -0.02545129 -0.02330057 -0.078265585 0.1185316 -0.0052258684
-0.09625016 -0.08599998 -0.13866168 -0.0935419 -0.124494135 -0.15585792 -0.07386206 -0.16906048
-0.09338875 -0.20327221 0.14654107 0.051023673 0.026776861 0.18762097 0.15337981 0.024835384
-0.06280328 -0.08471609 -0.09197094 -0.09556775 -0.13627183 -0.1244094 0.20983028 -0.08581167
0.038357742 0.015914736 0.024972452 0.15280402 -0.13777916 0.05045446 0.022554409 0.09644107
0.11911663 -0.2591846 -0.021180015 -0.31503165 0.2495457 0.1404026 -0.13451438 -0.11405203
-0.010064712 0.01008198 0.16264631 0.06393075 0.117396004 0.056430195 -0.10038603 -0.04993887
-0.02567975 0.10927631 -0.106882 -0.030723661 -0.019813165 -0.047517367 -0.17205574 0.18337053
0.111065246 0.044582065 0.13558248 0.13788739 -0.0011306693 0.115818284 0.30368692 0.0016881272
-0.049342945 0.05201058 0.10407732 -0.07183883 -0.06653625 -0.18280414 -0.003387761 -0.17342399
0.20191799 0.039723225 0.0067528905 0.109067015 0.11060079 0.094214305 -0.045935504 0.065204956
-0.14124607 -0.093500644 0.10688048 0.08386157 -0.10007617 -0.05771102 -0.18276274 -0.056535386
0.13185765 -0.2564782 0.046069343 0.12689494 0.102208726 -0.024662798 -0.13109761 0.18693084
0.16000089 0.19588718 0.07477307 0.07110606 -0.26028362 -0.05235013 0.08362217 -0.08041999
-0.26895565 0.037689988 0.056354847 -0.10735169 0.19297312 0.09231623 -0.08508807 -0.1509802
-0.022032568 -0.04279736 0.06708016 0.013844855 0.09342553 -0.1404341 -0.07759954 0.09598098
0.033003923 -0.08158475 0.08942818 -0.067461275 -0.069046736 -0.14325704 0.20841631 -0.22663671
0.043522608 0.10665834 0.068787105 0.0040038982 0.2907633 -0.007901845 -0.15608431 0.13709685
0.09227931 0.16282894 0.0946399 -0.115595445 0.041877605 0.18867297 -0.07560814 0.22424911
0.149351 -0.0018629051 -0.051844373 -0.17298344 -0.11040156 0.09868004 -0.017063161 -0.02680908
-0.0646669 0.027656507 -0.11439777 0.09552498 -0.028408611 -0.015740879 -0.3181384 -0.03344338
-0.095644675 -0.21464242 0.079517305 -0.16353424 0.10379585 -0.111757 -0.032632396 -0.06462713
0.09300124 -0.0066809882 0.065712765 0.21470346 -0.2065126 0.05103987 -0.021189291 0.18301482
-0.10900578 0.10233208 0.005506748 0.105033085 0.01776975 0.02803535 -0.27361694 0.15159096
00000000: 794e 1b3e 977f 21be 24e9 68be 0d6d dc3a
00000010: d183 a83d d383 c9bc 3a4f 96bd fe99 efbd
00000020: a09d 5a3d a2d6 bf3b 6f15 ebbd 9b35 8b3e
00000030: 1065 763e f7a3 b23d b196 d43d 285b 17be
00000040: 8bc2 63be c6ad 8c3e 8891 20bb a6e2 b3bd
00000050: 31d0 833d c3a6 743d f748 f63c 3e1f 223e
00000060: 7f04 ad3d d438 b0bd 20e6 1f3d 4024 2ebd
00000070: 615e 06bc 17cf 6a3c 0e36 003d 75a2 9bbd
00000080: 49b7 4dbe da79 01be fb45 05be 61fc eb3d
00000090: 3910 c2bd 274f 80be 7950 bf3d 37c6 dfbb
000000a0: cf13 0d3e 2d4b a13d 3359 9dbd 3f42 ab3d
000000b0: 4069 2a3e 65d9 6ebd 5300 e33d f34d faba
000000c0: 15e6 66be 6857 b8bc c6d7 0c3e c1dd 1ebe
000000d0: c9b4 633d e93a 1e3e d203 a73d 1b59 1e3e
000000e0: b731 cfbd c806 5bbe 6924 b0bd c608 253e
000000f0: e62b 18be 8e2d 443e 02c4 16bd 522b 88be
00000100: 41ba dfbd 0e17 463c 7843 a4be 397f d0bc
00000110: d6e0 bebc b549 a0bd b2c0 f23d c33d abbb
00000120: ce1e c5bd c220 b0bd 54fd 0dbe e592 bfbd
00000130: c8f6 febd 3899 1fbe fe44 97bd 311e 2dbe
00000140: 9a42 bfbd 9726 50be dd0e 163e 33fe 503d
00000150: 265b db3c b61f 403e 990f 1d3e 9373 cb3c
00000160: 029f 80bd a17f adbd 435b bcbd 06b9 c3bd
00000170: d88a 0bbe 5bca febd c0dd 563e 07be afbd
00000180: 021d 1d3d 9f5f 823c 0793 cc3c a878 1c3e
00000190: fb15 0dbe 56a9 4e3d 06c4 b83c e582 c53d
000001a0: 6bf3 f33d d8b3 84be b681 adbc d44b a1be
000001b0: e888 7f3e b3c5 0f3e 23be 09be 1c94 e9bd
000001c0: 76e6 24bc e42e 253c c18c 263e 20ee 823d
000001d0: 516d f03d 5923 673d 3197 cdbd b38c 4cbd
000001e0: 575e d2bc 42cc df3d f3e4 dabd 30b0 fbbc
000001f0: 384f a2bc 92a1 42bd 612f 30be 7cc5 3b3e
00000200: 2d76 e33d af9b 363d 22d6 0a3e 5a32 0d3e
00000210: f732 94ba 2332 ed3d da7c 9b3e 2644 dd3a
00000220: d41b 4abd 0c09 553d 7d26 d53d 3d20 93bd
00000230: 2844 88bd 0231 3bbe 3305 5ebb 0f96 31be
00000240: 97c3 4e3e d2b4 223d 5a47 dd3b 875e df3d
00000250: ab82 e23d 6ef3 c03d de26 3cbd 2d8a 853d
00000260: cfa2 10be 447d bfbd 27e4 da3d 9dbf ab3d
00000270: bcf4 ccbd 6462 6cbd 2826 3bbe a691 67bd
00000280: b105 073e 1c51 83be 35b3 3c3d bff0 013e
00000290: cf52 d13d a309 cabc 743e 06be cc6a 3f3e
000002a0: 46d7 233e a696 483e a022 993d 0ea0 913d
000002b0: e543 85be 176d 56bd 1a42 ab3d 3cb3 a4bd
000002c0: 8eb4 89be d160 1a3d 57d4 663d 34db dbbd
000002d0: bf9a 453e 4b10 bd3d a742 aebd 8e9a 1abe
000002e0: a57d b4bc 494c 2fbd 5361 893d 88d5 623c
000002f0: e255 bf3d f5cd 0fbe 82ec 9ebd ad91 c43d
00000300: 1f2f 073d e815 a7bd 1f26 b73d 2329 8abd
00000310: 6068 8dbd f9b1 12be 166b 553e 7413 68be
00000320: c344 323d b06f da3d 41e0 8c3d 2233 833b
00000330: edde 943e bd76 01bc 91d4 1fbe 1e63 0c3e
00000340: effc bc3d a1bc 263e 90d2 c13d 4ebd ecbd
00000350: da87 2b3d 7d33 413e 71d8 9abd 8fa1 653e
00000360: 78ef 183e b92c f4ba c45a 54bd 9222 31be
00000370: 371a e2bd c318 ca3d 0bc8 8bbc b79e dbbc
00000380: 1470 84bd e68f e23c 6149 eabd 9aa2 c33d
00000390: 2db9 e8bc 04f3 80bc 09e3 a2be edfb 08bd
000003a0: 5be1 c3bd 39cb 5bbe f8d9 a23d 8575 27be
000003b0: eb92 d43d dbe0 e4bd 8ca9 05bd 3b5b 84bd
000003c0: 6f77 be3d 31ec dabb 6a94 863d 39db 5b3e
000003d0: 0a78 53be 2f0f 513d 2a95 adbc 3d68 3b3e
000003e0: 6c3e dfbd 7b93 d13d f371 b43b 961b d73d
000003f0: de91 913c 64aa e53c 8517 8cbe a93a 1b3e

net.2.bias f4 [60]
-0.068362765 0.080702804 -0.039513726 0.032361954 0.051044818 -0.0595799 -0.101897486 -0.020478709
0.11117886 0.02117655 -0.029444488 -0.055396393 0.04917957 -0.007144403 -0.062377565 -0.03931601
-0.040178403 0.09629837 -0.017683439 -0.08858157 -0.00045221337 -0.08014153 -0.06488219 0.11998317
0.10740311 -0.06431096 -0.0020290099 0.07802157 0.032309897 0.0682159 0.11414393 0.118454576
-0.0544827 -0.12217122 -0.03472797 0.10311474 0.08812613 -0.10469468 0.11934019 -0.042200223
0.099690944 0.063551456 -0.028064426 -0.108585104 -0.0708233 0.10505427 0.10206715 -0.092820756
-0.10492405 0.11856243 0.06644561 -0.018742051 0.018290598 -0.0008736551 -0.026398843 -0.06736473
0.055265367 -0.091815665 -0.038360633 -0.121162884
00000000: c701 8cbd 8347 a53d 25d9 21bd f88d 043d
00000010: 5f14 513d 0e0a 74bd a1af d0bd f7c2 a7bc
00000020: beb1 e33d 727a ad3c 9135 f1bc 54e7 62bd
00000030: 8470 493d 991b eabb 9e7f 7fbd d309 21bd
00000040: 1c92 24bd 1438 c53d dcdc 90bc 416a b5bd
00000050: 0d17 edb9 3e21 a4bd f4e0 84bd bcb9 f53d
00000060: 29f6 db3d 77b5 83bd 23f9 04bb c6c9 9f3d
00000070: 6257 043d c7b4 8b3d 4bc4 e93d 5098 f23d
00000080: 4029 5fbd e834 fabd ea3e 0ebd d22d d33d
00000090: 797b b43d 2a6a d6bd a168 f43d 24da 2cbd
000000a0: c42a cc3d 4427 823d 5ee7 e5bc de61 debd
000000b0: ce0b 91bd b126 d73d 9508 d13d cf18 bebd
000000c0: 6ce2 d6bd dcd0 f23d a314 883d ee88 99bc
000000d0: 2ad6 953c 0006 65ba 6342 d8bc 85f6 89bd
000000e0: f05d 623d da09 bcbd 0a20 1dbd 3f24 f8bd

net.5.weight f4 [1, 60]
-0.058554117 0.045200832 0.24917786 0.29532695 -0.1498342 0.18560572 -0.13798024 0.036591433
0.06657893 0.1234978 -0.09765472 0.024537515 0.12980886 -0.071392156 -0.05086261 0.012879104
0.17241696 -0.25704736 -0.103018224 0.1392529 -0.1479623 0.21477601 0.21180992 -0.11681605
-0.084724456 -0.13792862 0.05440779 0.14801633 0.38055518 0.036100592 0.20344514 0.035810232
0.11902916 0.10316595 -0.16647692 0.19231081 -0.0007756702 0.17820631 -0.016750894 -0.06158194
0.086799994 -0.3249727 0.20518461 -0.20978752 -0.08176861 0.30781358 0.083835945 -0.09770988
0.0824399 -0.028996661 0.08066275 0.09270292 -0.21617746 -0.09295796 -0.11419066 -0.11770848
0.014368653 -0.035744607 -0.09470061 -0.24196182
00000000: 71d6 6fbd 8224 393d 7b28 7f3e 1835 973e
00000010: 236e 19be 6d0f 3e3e b14a 0dbe e6e0 153d
00000020: 895a 883d 6aec fc3d 33ff c7bd e602 c93c
00000030: 9dec 043e 0d36 92bd 5055 50bd e102 533c
00000040: 128e 303e b69b 83be 38fb d2bd 5098 0e3e
00000050: 6e83 17be 3eee 5b3e b3e4 583e 413d efbd
00000060: 0484 adbd 293d 0dbe b4da 5e3d 9891 173e
00000070: 21d8 c23e 37de 133d ec53 503e c0ad 123d
00000080: 8fc5 f33d ab48 d33d ed78 2abe 20ed 443e
00000090: 5956 4bba b77b 363e 2c39 89bc 583d 7cbd
000000a0: 32c4 b13d d262 a6be ea1b 523e 8ad2 56be
000000b0: 4d76 a7bd be99 9d3e 2eb2 ab3d 1e1c c8bd
000000c0: 40d6 a83d 688a edbc 8332 a53d 07db bd3d
000000d0: a05d 5dbe be60 bebd cbdc e9bd 2511 f1bd
000000e0: 806a 6b3c f068 12bd 65f2 c1bd d7c4 77be
