results/PINN/NASA results/1-1/Experiment8/model.pth (torch, 59646 bytes, 14 tensors)

encoder.net.0.weight f4 [60, 17]
000000 2c d6 2e bd c9 c6 f7 3d d7 12 a8 3d 1e c1 25 be
       -0.04268472 0.12098462 0.082067184 -0.1618695
000010 b9 44 bd bc f9 c3 dd 3d 2a 35 31 3d 16 00 a6 3d
       -0.023104059 0.108283944 0.04326359 0.08105485
000020 bc 3a 4c 3e fe 20 b9 bd 1b 48 8d 3d b0 30 92 bd
       0.1994428 -0.09039496 0.06898519 -0.07138193
000030 0e 99 14 3c 70 b1 1d be b2 d3 f3 3d b5 af c2 bc
       0.009069694 -0.15399718 0.11905612 -0.023765424
000040 5d b8 22 be 20 ad 7e bd 20 94 d5 3c d6 61 67 3c
       -0.15890642 -0.062176824 0.026071608 0.014122447
000050 03 f9 6a 3d 67 9e 01 be 6f 62 cb 3d 97 79 99 3e
       0.057366382 -0.12658082 0.09930884 0.29975578
000060 70 05 ad bd 8e 3d 4b bd d8 88 69 be b3 b1 aa 3d
       -0.08448303 -0.04961925 -0.22806108 0.08334675
000070 21 2d e8 3d 2e 70 ea bd 59 84 9b bd 78 e3 5b 3e
       0.11336733 -0.11447178 -0.07593603 0.21473491
000080 91 1c 8d 3e f8 df 93 bd d3 2d 6c 3d 4c 58 5d be
       0.27560857 -0.07220453 0.05766089 -0.21615714
000090 7f 96 bf 3d f5 5b 27 3e ac 17 7c bd d8 c6 92 3d
       0.09354877 0.16343673 -0.061546013 0.07166833
0000a0 a7 b3 cb be 03 c4 1a bd 46 90 3c 3d 9b f9 0b 3d
       -0.397855 -0.037784588 0.046036027 0.03417359
0000b0 a2 28 5e 3d 03 b5 5a be b6 dd f9 bd 12 4e 4b 3e
       0.05423797 -0.21358113 -0.12200491 0.19854
0000c0 14 a6 ca bd 2e 4c 84 3e 5d fa 8f 3e 1d 67 d5 3d
       -0.09894958 0.2583937 0.281207 0.10420058
0000d0 ff 8f 7f bd 09 ce 46 bd 33 7e a9 3e 8c 26 6e 3d
       -0.062393185 -0.048536334 0.33104095 0.05814223
0000e0 a6 bd 25 be 6f e9 51 3e 26 75 79 bc 58 eb 7b 3e
       -0.16185626 0.20499204 -0.015225684 0.24601495
0000f0 3b 92 5e 3d 5c a5 02 bd 83 39 d6 bb 6d 02 d0 bd
       0.054338675 -0.03189598 -0.0065376176 -0.10156713
000100 22 dc 97 be c6 8d 47 bd d0 95 c0 3d f1 88 96 3c
       -0.29660136 -0.04871919 0.094035745 0.018375846
000110 e5 91 4d be 59 c6 af 3b 78 b4 92 3d 10 41 46 be
       -0.20075186 0.005364221 0.07163328 -0.19360757
000120 8d af 30 be 91 db 58 be 03 84 ca bd cd 55 9b 3d
       -0.17254467 -0.21177508 -0.098884605 0.075847246
000130 e9 e2 23 3d 6f f6 57 bb 70 01 a3 3d ba dd 80 bc
       0.04001132 -0.0032953282 0.079592586 -0.015730727
000140 30 40 15 3d 58 83 21 be 53 0c 82 3e f3 b0 0a 3d
       0.036438167 -0.1577276 0.25400028 0.03386016
000150 20 fe 04 bd 65 55 c1 3e 8a ef db 3d 50 0b 92 3e
       -0.032468915 0.37760463 0.10739048 0.28524256
000160 e4 38 14 be 93 4d 84 bd 42 2a c4 bc 27 cf 96 3d
       -0.14474827 -0.064601086 -0.023945931 0.0736373
000170 25 02 9e 3d 19 eb f1 bd 19 b2 2e 3d fb 94 df 3d
       0.07715253 -0.118124194 0.042650316 0.10917088
000180 8f 2d dc bd ae 9e 0d be 01 8c 99 be 41 96 22 3d
       -0.10750877 -0.13830063 -0.29989627 0.039694075
000190 e6 fb 0b 3e d6 c7 1d be 60 d6 25 3d 4a 9a 02 bd
       0.1367031 -0.15408263 0.040487647 -0.031885423
0001a0 2d dc 55 be d3 4f fb bc 22 49 29 bd 5c e1 46 be
       -0.20884772 -0.030677712 -0.04132951 -0.19421905
0001b0 02 79 04 3d 7b bf a8 3d bb 72 11 3e 47 aa aa bd
       0.032341965 0.08239647 0.14203922 -0.08333259
0001c0 a8 03 a7 3d ae b2 0b 3e fc a5 36 bc 25 86 f5 bd
       0.08154994 0.1364238 -0.011147972 -0.11988477
0001d0 46 9b fa 3d e5 c6 35 3e 53 a9 e3 3d 21 93 11 be
       0.12236647 0.17751653 0.111162804 -0.14216281
0001e0 a6 a7 0a be 0c cf ca bd d3 a9 29 3e cc b9 0b be
       -0.13540515 -0.09902772 0.16568689 -0.13645095
0001f0 27 5c 22 3e 56 97 4c 3d d2 80 e3 3d cb 31 2b 3d
       0.15855466 0.049949013 0.11108555 0.041795533
000200 80 da a6 be d9 20 c5 bd ea 21 68 3d 36 17 01 bd
       -0.32588577 -0.09625406 0.056672968 -0.031516276
000210 94 b7 73 3c 06 72 56 be 23 fd 22 3e 69 dc d9 bc
       0.014875311 -0.20941934 0.15916876 -0.026594358
000220 6b 25 6b be fe 67 94 be 76 46 4c be 9f 2c 59 be
       -0.22963493 -0.2898559 -0.19948754 -0.21208428
000230 1a 9b 8c 3d 78 94 41 3e d0 5b a6 3d f0 a8 d2 bc
       0.06865521 0.18904293 0.081229806 -0.025715321
000240 27 c9 81 3d fa 25 d4 3d 79 c4 9c bc ee 9e 97 bd
       0.06337195 0.10358806 -0.019136654 -0.0740336
000250 fb bc 6e be 67 bf 06 be 54 66 91 bd b2 52 28 bc
       -0.23314278 -0.13158952 -0.07099596 -0.010273622
000260 3b 1c 46 bd 64 eb b4 bd 84 63 d8 bd f5 84 df 3c
       -0.048366766 -0.0883396 -0.10565856 0.027285079
000270 c3 3e 86 3c 83 59 f9 bd 81 a2 60 bd e6 38 51 3c
       0.016387349 -0.12175276 -0.054842476 0.012769913
000280 2f e1 ae bc 58 55 68 be 48 61 98 3d 9c a6 86 3d
       -0.02134761 -0.22688806 0.0744043 0.06574747
000290 cd 87 ac bd 6c 6f ee 3d 01 b5 1b 3d 82 69 84 bd
       -0.084243394 0.11642346 0.038014416 -0.064654365
0002a0 c1 15 bb bc 60 7e a3 3c 8d 0b 5e be 10 1e c1 bb
       -0.022837522 0.019957721 -0.21684094 -0.0058934763
0002b0 49 22 3a be fa 6e 3e 3d e6 08 a6 3e 4e 0f 23 be
       -0.18177141 0.046492554 0.32428664 -0.15923807
0002c0 a3 55 f2 bc 9d 79 19 3d 9f 0c fe bd 03 24 83 3c
       -0.02958185 0.037469495 -0.12404751 0.016008383
0002d0 55 29 f0 3c 8a ec 47 3e a0 5a 9d bd ab 28 99 ba
       0.029316584 0.19523826 -0.07683301 -0.0011685094
0002e0 b5 05 bb 3d d4 c9 c4 3d 12 58 2d be 4e 91 45 3e
       0.09131948 0.09608808 -0.16928127 0.1929371
0002f0 e7 8d 6a bd c3 e1 66 3d d8 31 15 bd 61 9a 1a be
       -0.057264235 0.056367647 -0.036424488 -0.15097953
000300 d1 38 5d be 21 f7 9e bd d3 f4 af bb c2 43 9f 3e
       -0.21603705 -0.0776198 -0.0053697615 0.31106383
000310 f6 6a f7 bd 8f e3 8e bd 24 51 87 3e 92 43 94 3d
       -0.12080948 -0.06976997 0.26429093 0.072394505
000320 ab 1c c5 bd b6 74 8f bd 2a 75 9c 3d ac e0 e4 3d
       -0.096246086 -0.07004683 0.07639535 0.11175665
000330 3e 3e 4e 3e 6e 94 1d bc 47 f2 1e be bd 81 31 3d
       0.20140931 -0.009617908 -0.15522109 0.04333662
000340 48 da b4 3e 11 30 84 3d f9 e1 8f 3e 7b a2 1b bc
       0.35322785 0.064544804 0.2810209 -0.009499188
000350 e1 86 20 3e 61 1f 9e be 32 c5 a8 be bf bc 9d 3d
       0.15676452 -0.30883315 -0.32962948 0.07702016
000360 d1 a8 91 3d 31 5e d7 bd ca e2 31 3d 7f 09 8b bd
       0.07112277 -0.105160125 0.043429174 -0.067889206
000370 eb 05 46 3e 47 33 1b bd 4a fa 91 3d 23 7d 21 3e
       0.19338195 -0.0378907 0.07127817 0.15770392
000380 54 50 a4 3c 6e fd cd bd 3e d3 ad bd 39 1f 73 be
       0.020057835 -0.100581035 -0.08487557 -0.23742379
000390 63 d1 aa bc 26 b4 36 3d 09 f6 9e 3d 5b d2 0a bd
       -0.020851796 0.044605397 0.07761771 -0.033892017
0003a0 62 dd 0a 3e b5 05 5f 3c 1b 15 0d be 64 6c fc 3d
       0.13561013 0.0136122005 -0.13777582 0.12325361
0003b0 43 ef 81 3d 72 1e 30 3e 34 4d bd 3d f0 3c 52 bc
       0.06344464 0.17199114 0.09243241 -0.012831911
0003c0 40 1e bf 3d 1f 02 ab bd fa 73 03 3d 44 75 fb bd
       0.093319416 -0.08350014 0.032093026 -0.12278226
0003d0 74 af 66 be 48 62 45 3e 44 31 03 3e 01 ec 95 3e
       -0.22527868 0.19275773 0.12811762 0.2928162
0003e0 14 cd 85 3d 3d b7 2d 3e 6a cb 83 be 91 9e ad 3d
       0.06533256 0.16964431 -0.2574113 0.0847751
0003f0 71 ce 71 3c 44 58 bb bc cf 1c 43 3e c8 11 80 3e
       0.014758692 -0.022869237 0.19053958 0.25013566

encoder.net.0.bias f4 [60]
000000 69 ca 23 bd 19 c4 3c 3d da bc 87 bd 60 18 3a 3d
       -0.039987955 0.04608545 -0.066278175 0.045433402
000010 85 60 78 3d 5c 18 46 bd 1d dc 5e 3d 98 9a 74 bd
       0.060638923 -0.048363075 0.054409135 -0.059717745
000020 d2 81 9c 3c c1 1d 3d 3d 2c dc 1d bd 08 7c 02 3b
       0.019104872 0.046170954 -0.03854005 0.0019910354
000030 33 16 38 3c bb 62 34 3d 9d f6 5f bd 68 fc 85 3d
       0.011235761 0.04403947 -0.054678548 0.06542283
000040 8e 41 37 bd 6c 37 7e bd e1 d1 d3 3c d9 22 80 3d
       -0.044740252 -0.062064573 0.025856914 0.06256647
000050 36 4f 50 bd e2 36 90 bd 7a 27 57 3d bc 75 55 3d
       -0.05085679 -0.07041718 0.052527882 0.052114233
000060 66 4c 12 bd 78 3e 9d 3d b2 29 74 3d 61 84 79 bd
       -0.03571739 0.076779306 0.059610076 -0.060917262
000070 77 06 43 3d f9 2a 31 bd e1 7a f4 3c 67 bb 9b 3d
       0.047613587 -0.043253873 0.02984375 0.076041035
000080 89 e3 6d 3d 72 11 f6 3c 33 23 89 3d 34 b7 e2 bc
       0.058078323 0.030037615 0.06696167 -0.027675249
000090 8b bc 48 bd 56 54 3f 3d 2c 19 98 bc e1 72 a3 bd
       -0.049007934 0.04671129 -0.01856669 -0.07980896
0000a0 53 4a 2c bd 83 a2 90 3d 1b 05 27 bd 34 41 3c bd
       -0.04206307 0.07062247 -0.040776353 -0.04596062
0000b0 b6 5b 90 bd 03 8d 83 3d 70 13 83 3d e2 bf 39 bd
       -0.070487425 0.0642338 0.06400192 -0.04534901
0000c0 b6 67 80 3d 6b fc 8c bb 63 54 01 bc 23 34 73 3d
       0.06269781 -0.0043025515 -0.0078936545 0.059375893
0000d0 d0 ad 80 3d 10 40 10 bc 82 c1 bc bd a1 48 1f 3d
       0.06283152 -0.008804336 -0.09216596 0.038887624
0000e0 07 aa 26 bd 4f 6d 50 bd 95 d2 ab 3d 94 86 76 bd
       -0.040689494 -0.050885495 0.08389775 -0.060186937

encoder.net.2.weight f4 [60, 60]
000000 a8 3f 9f bd 5a 3a 37 3d e6 a6 09 3c 39 5f a1 bd
       -0.07775813 0.044733383 0.008401608 -0.078794904
000010 cc 06 b0 3b ad 24 3e bd 74 84 09 be 7b 6e e4 3d
       0.005371904 -0.046421696 -0.13429433 0.11153885
000020 2e 20 43 3e 03 24 1e 3c b8 7f 1c bd 83 84 4d 3e
       0.19055244 0.009652141 -0.03820774 0.2007008
000030 8c e2 41 bd 27 35 c9 be e1 80 a4 3e d7 52 9e bc
       -0.047335193 -0.39298365 0.32129577 -0.01932661
000040 6c 62 8b bd 35 2d 84 bd ef e3 d4 bb 5a 15 8c bd
       -0.06805882 -0.06453935 -0.0064968984 -0.0684001
000050 4f 29 f3 bc a8 d4 cb bc ea 40 24 bd b8 6a 69 3d
       -0.029682783 -0.024881676 -0.04010097 0.05698654
000060 d9 c9 af 3d 69 f5 10 3d 0c 2a 8f 3c 6c 9e e1 bc
       0.08583421 0.03539029 0.017476104 -0.027541362
000070 4a 5f 86 3d cf aa d0 bc f1 e0 38 bd 26 4b 49 bd
       0.06561144 -0.025472073 -0.045136396 -0.049143933
000080 e2 ef a1 3d a0 da 7a be dc 6f 82 3e 86 19 27 be
       0.07907082 -0.24497461 0.25475967 -0.1631833
000090 01 c0 a0 bd 59 fd b7 3c cf 40 80 be eb c3 1b be
       -0.07849122 0.022459673 -0.25049445 -0.15211456
0000a0 9a 5b 8c be b9 fc 8a 3d 5d 11 7c be 59 24 b3 3b
       -0.27413636 0.06786484 -0.24615999 0.0054669795
0000b0 e8 08 dd bd 63 14 64 bd c5 ab c1 3c b3 77 97 bd
       -0.10792714 -0.055683505 0.023641476 -0.07395878
0000c0 37 ff 7f be 79 b5 01 3b 4c d5 ac 3d 4b a1 24 3d
       -0.249997 0.0019792004 0.08439121 0.040192883
0000d0 fa e4 61 3d ca af e1 3d 46 58 2a be c9 29 df bd
       0.05515001 0.11019857 -0.16635236 -0.10896642
0000e0 af 72 a3 bc 9c 1d 8f bd 40 67 ae 3a 76 bc ef bc
       -0.019952146 -0.069880694 0.0013305917 -0.02926467
0000f0 00 25 17 be f3 a2 48 3c 5c 37 8f 3d 9c e3 d9 3d
       -0.14760208 0.012245881 0.06992981 0.10639116
000100 e9 b1 bb bd 84 63 88 3c f1 b9 26 3b 56 89 26 3d
       -0.09164793 0.016649015 0.002544042 0.040658318
000110 da 0b cb bd 3c 72 e7 3d 0f 8e 08 bd b9 6a d0 3d
       -0.0991437 0.11301085 -0.033338603 0.10176606
000120 01 b6 2b 3e 9d 59 07 3e 8d 35 83 bd 9f 79 6f bd
       0.16768648 0.13217779 -0.064066984 -0.058465596
000130 4a ae ea 3d 4c fa 2c 3d ad 4a e8 bd a1 54 66 3e
       0.11459024 0.04223089 -0.11342368 0.22493221
000140 19 b1 8b 3c 54 fa 90 3d 28 74 e7 3c b2 d8 c9 3d
       0.01705222 0.07078996 0.02825363 0.098557845
000150 08 36 2b 3e 5f b1 14 be 04 0b 98 bd fb 44 02 be
       0.1671983 -0.14520787 -0.07423976 -0.12721626
000160 41 0e 18 3d a4 22 50 be 2a a8 51 3c be ce 88 bd
       0.03712297 -0.20325714 0.012796441 -0.06680058
000170 52 10 00 bd 35 67 76 be b9 f9 61 be 49 c4 dd 3d
       -0.031265564 -0.24062808 -0.22067918 0.10828454
000180 d4 24 13 be 05 6a c8 3d 8b 04 b1 3d 35 2c 37 3e
       -0.14369518 0.097858466 0.08643445 0.17887957
000190 72 74 3a 3e c9 d1 7d bd e8 e6 ef 3c 0e af 96 3e
       0.18208483 -0.061967645 0.02928491 0.2943043
0001a0 7f 99 6f 3e 4b 52 2f be f2 fd 19 bd 0f cd 13 be
       0.23398398 -0.17121236 -0.037595697 -0.14433692
0001b0 58 26 dc 3c 4b 2e 8d bd 26 77 2f 3e f8 e1 13 be
       0.026873752 -0.06893595 0.17135295 -0.14441669
0001c0 d1 1e 43 be d3 48 7e 3d 5d 9d 48 be cc f2 64 be
       -0.19054724 0.06208117 -0.1959128 -0.22358245
0001d0 05 aa 44 3d cf d0 6c bd 1f 9b 4e bd c5 83 47 3e
       0.048013706 -0.057816323 -0.050440904 0.1948386
0001e0 84 f8 3f be 2b 54 b6 3d 10 50 79 3e ec f4 b3 bd
       -0.18747145 0.089027725 0.24346948 -0.087869495
0001f0 85 c3 cd bd 32 c2 ec 3d d4 c4 f6 bd 49 04 e9 3d
       -0.10047058 0.11560477 -0.12049261 0.113777705
000200 f0 65 e1 ba 16 34 53 3e 2c a4 31 3e e6 96 65 bb
       -0.0017196517 0.20625338 0.17347783 -0.003503257
000210 a2 79 ee 3d ca 14 ad be ae 89 8d 3d 14 0a c7 bd
       0.11644293 -0.33804923 0.06911026 -0.09718719
000220 3a 0e 9a 3d a3 20 66 bd 2e 6d e2 3c ba a6 ca bc
       0.07522245 -0.05618347 0.027639952 -0.024737705
000230 42 fe 42 3e ef 2e 56 3e 0b 3e 27 bc 4c 9a 84 3d
       0.19042304 0.20916341 -0.010207663 0.06474742
000240 e0 b6 2e be 9b b4 37 3e f8 d7 4f 3e 7f cf 4c 3d
       -0.17061949 0.1793999 0.2029723 0.05000257
000250 76 18 8d 3c 39 f7 4d be d3 9b f9 bb e6 48 27 3e
       0.017223578 -0.20113839 -0.0076174526 0.16336402
000260 17 b6 27 bb 59 fb e0 bd aa c0 74 3d a9 60 08 be
       -0.0025590712 -0.10985441 0.05975405 -0.13318123
000270 63 2f d6 3d b1 1c 95 bd e0 f4 47 3d dc 40 2f 3e
       0.10458257 -0.07280863 0.048817515 0.17114586
000280 32 28 c4 3c 3c 7b 0c 3e 3a d6 bd 3d 1a df 0e 3e
       0.023944948 0.13718885 0.09269376 0.13952294
000290 30 8b a3 3d a3 7e 5c be 6b 0a d1 bc df d9 8e bc
       0.07985532 -0.21532683 -0.025517663 -0.017437873
0002a0 ce c3 15 be e8 14 06 3e 72 be 02 3b 6f 87 04 be
       -0.14625475 0.13093913 0.001994994 -0.12942289
0002b0 a0 38 c1 be 8e 88 bd bc 54 cb b8 3d 51 f0 01 3e
       -0.37738514 -0.023136403 0.09023157 0.1268933
0002c0 89 24 86 3d ab 90 07 3d 75 8f 02 bd 01 02 52 be
       0.06549937 0.03309695 -0.031875093 -0.20508577
0002d0 f3 48 34 3c 06 c7 03 bb 7b 6a 74 bd c0 82 36 3d
       0.011003721 -0.002010764 -0.05967186 0.044558287
0002e0 07 23 9e be b9 b9 cc be bd 49 7c 3d 80 5a 3c bb
       -0.308861 -0.39985445 0.06159376 -0.0028740466
0002f0 33 7e f4 3c 95 5f 6a 3e 1b d3 b5 3c 7a 70 27 3d
       0.029845333 0.22888024 0.02219539 0.04087875
000300 dd 55 01 bd f1 f9 56 be 82 3f 1a be b6 b7 8a bd
       -0.031576026 -0.20993783 -0.15063289 -0.06773321
000310 26 b9 2e 3d 22 fa 9e 3c 57 11 64 be f0 ab d7 3d
       0.04265704 0.019406382 -0.2227224 0.10530841
000320 25 8f fc bd c4 19 b5 bc 42 5f e7 bd 17 22 95 3e
       -0.1233199 -0.022107013 -0.11297466 0.2912757
000330 2f 08 b7 bd b6 34 80 be 74 b5 0c bc 37 bc c5 3d
       -0.08937108 -0.25040215 -0.008588184 0.0965504
000340 c4 fc 7c 3d 8b 28 9a 3c af 3f 96 bd 84 18 1c 3e
       0.061764494 0.01881816 -0.073363654 0.15243727
000350 c3 56 de 3d ba 89 6a 3d 23 c2 d9 3c e4 9f 7f 3d
       0.10856392 0.057260253 0.02658183 0.062408343
000360 1f d2 82 bb f8 b6 ee bd 65 e5 3e 3e d7 ac 82 bd
       -0.0039923335 -0.11655992 0.18642195 -0.06380623
000370 95 de 02 be 8d 7f c9 3d d1 d8 2e bd be 2e 54 be
       -0.12780221 0.098387815 -0.04268724 -0.20720956
000380 7d 35 70 3e 94 8a ea 3d 01 bc a8 bc 0b 33 33 be
       0.23457904 0.11452213 -0.02059746 -0.1749994
000390 23 80 06 be 0a 71 81 3b 4c ce b4 3d d6 81 7a be
       -0.13134818 0.003950243 0.088284105 -0.24463591
0003a0 74 a7 f9 bd c1 18 d7 3c 7c c6 25 3d 0b 0c 1e be
       -0.12190142 0.02625692 0.040472493 -0.15434282
0003b0 05 db 99 3c d3 d4 cb 3d 46 bc b5 bd 19 e5 1c 3d
       0.018781194 0.099527024 -0.08873801 0.038304422
0003c0 f7 31 e5 bd c9 33 91 3c 0e e9 0f bc 62 03 c2 bc
       -0.11191171 0.017724888 -0.008783592 -0.023683254
0003d0 3c c0 31 3e bf 9e 1d 3c d7 e1 53 be 14 1b ff 3d
       0.17358488 0.009620368 -0.2069162 0.124563366
0003e0 f0 da 16 3e ff 8c 8c bd 49 63 da bd ae d4 7b 3d
       0.14731956 -0.0686283 -0.106634684 0.061482124
0003f0 51 ce 8a be 11 fe 9a bd 8c b6 c4 bd 0d 12 4e 3e
       -0.27110532 -0.075679906 -0.096051306 0.20124073

encoder.net.2.bias f4 [60]
000000 ce 75 31 bd d5 28 82 bd 1e e7 77 bd 6c a0 fa 3c
       -0.043325238 -0.06355444 -0.060523145 0.030594073
000010 a4 b5 7a 3c 3d f4 81 3d db f3 b0 bd 75 34 5c bd
       0.015302096 0.06345413 -0.08640262 -0.053760964
000020 2f c1 84 3d 66 84 50 3c 23 9a 76 3d 5c 7e 1c 3d
       0.06482159 0.012726879 0.06020559 0.038206443
000030 58 46 88 bd b2 5b 41 3d 7a 03 ce bd 1e 17 87 bd
       -0.06654042 0.047206588 -0.10059257 -0.06596206
000040 a5 6d 96 3d 59 d1 82 bd 44 25 49 3d 6b 7c 3d bd
       0.07345132 -0.06387586 0.049107805 -0.046261232
000050 50 08 13 3d 2c 67 7c bd 1f 75 62 3d 3a c7 73 3d
       0.0358966 -0.06162183 0.055287477 0.05951617
000060 f9 2f c1 3d cc b9 46 3c e2 3b 81 bd 52 5b 8e 3d
       0.09432978 0.012129258 -0.0631025 0.06951012
000070 b9 94 b1 3d 34 1b ae bd ac 22 93 bd ab e7 82 bd
       0.08670945 -0.08501282 -0.071843475 -0.063918434
000080 06 5b e3 3d 0e c3 fb 3c ed d4 90 bd 77 ad ac 3b
       0.11101346 0.030732658 -0.07071862 0.005269702
000090 11 b9 86 3d ba 46 a3 bd 23 fe 3e bd f3 70 87 bd
       0.06578267 -0.079724744 -0.046629082 -0.0661334
0000a0 61 eb 95 3d 57 93 2c 3d 28 d6 49 bd 2e 24 80 bd
       0.073202856 0.0421327 -0.0492765 -0.06256901
0000b0 4c a1 f2 3c d3 48 98 3d 01 d6 4a 3d 3c 47 83 bd
       0.029617928 0.07435765 0.049520496 -0.06410071
0000c0 67 35 0c bd bd 0f 8b 3d 4e e4 89 3d f9 64 87 bd
       -0.034230616 0.06790111 0.06732999 -0.06611056
0000d0 0b bc 6c bd 25 25 75 3d c5 60 25 3b a1 25 40 3d
       -0.05779652 0.059849877 0.002523468 0.046910886
0000e0 ef d8 7c bd 38 71 ed bd 58 08 d8 3b 35 98 0a be
       -0.06173032 -0.115938604 0.0065927915 -0.13534625

encoder.net.5.weight f4 [32, 60]
000000 5d ea 62 be 26 38 f4 3c b2 ce 82 3e 4b fe a3 bd
       -0.22159715 0.02981193 0.2554832 -0.08007487
000010 15 58 b0 3d 60 78 3c 3e 90 c4 a2 3d db 37 0e 3d
       0.0861055 0.18405294 0.079476476 0.034721237
000020 fa 49 27 be 19 61 d9 3b 0f 07 95 bd ff bc 4b 3e
       -0.16336814 0.0066338894 -0.07276737 0.19896315
000030 00 75 3b be fd c5 ae bc d1 66 7f 3c a4 a0 e7 3d
       -0.1830635 -0.021334643 0.015588478 0.11309937
000040 89 ff 1f bd d9 6d 46 be a5 08 ef bc cc 22 c1 3d
       -0.039062057 -0.19377841 -0.029178927 0.09430465
000050 4b ec 21 3e 5d 4c 45 be 8c ef 24 3d dd 4b ef bc
       0.15812795 -0.19267412 0.040267512 -0.02921098
000060 dc ca c4 3d 12 f7 41 3d d2 24 75 3e c9 32 2d bd
       0.09609005 0.047354765 0.23939827 -0.04228476
000070 f5 c8 e7 bd b9 ea 1f 3e 1f ae 0c 3e 7b 0b 43 3c
       -0.113176264 0.15616883 0.13738297 0.011904593
000080 16 2e d8 bd 56 57 f9 3d 26 30 07 3c 7a 65 7a 3d
       -0.10555665 0.12174861 0.008251226 0.06113193
000090 ad 80 f4 3d 11 8d e9 3d 86 67 1d be 55 96 09 3d
       0.119386055 0.114038594 -0.15371522 0.033590633
0000a0 29 e8 68 be 07 21 e0 bd 24 7b 2e 3d 39 19 75 3d
       -0.22744812 -0.109437995 0.042597905 0.059838507
0000b0 31 a5 1c 3e 9e 89 35 3e b2 01 e1 bd 01 e5 25 3c
       0.1529739 0.17728278 -0.109866515 0.0101254
0000c0 ee 5a 0f 3e 7a fa 07 3e c6 28 ae 3d 02 f7 f3 bd
       0.1399953 0.13279143 0.08503871 -0.119123474
0000d0 71 3d df bd b8 16 77 bd d7 1c 80 3e 8b 85 85 bd
       -0.10900391 -0.0603244 0.25022003 -0.06519612
0000e0 34 91 bf bc 68 79 0a 3e b5 c1 51 3e c0 39 f4 bb
       -0.023384668 0.13522875 0.2048405 -0.0074531734
0000f0 f1 4e 3b be a1 08 3c bd 3b c3 56 3e 09 7f 09 3e
       -0.18291833 -0.045906667 0.20972912 0.13427366
000100 2e 4e 0b be 48 bb 14 3e 97 14 28 be 0d aa 8d be
       -0.13604042 0.14524567 -0.16414104 -0.276688
000110 0a 76 de 3d ea 8e e1 3d 6d 85 55 3d bc 0f fb bd
       0.10862358 0.11013587 0.052129198 -0.122588605
000120 3f a1 31 3e bd c7 97 bd 38 8f 02 be bb 3a 9b 3c
       0.17346667 -0.07411144 -0.12749946 0.018948903
000130 9c ac bd 3d ae 6a ea bd dd 82 bb 3e 01 52 98 3e
       0.09261438 -0.11446129 0.36623278 0.29750064
000140 8a dd 32 be 6f 32 67 bd 0c 24 f5 3d c1 49 d7 3d
       -0.17467323 -0.05644458 0.11969766 0.10512114
000150 30 49 9e be 45 29 3d bb 9c 6c ba bc 6d 38 fa bd
       -0.30915213 -0.002886371 -0.022756867 -0.122177936
000160 35 c8 5c be 13 2d 08 3e e0 77 cb bc 8c 4e 4d 3d
       -0.21560748 0.13298444 -0.024837434 0.050123736
000170 42 6c 6e be ac a2 cf bd 4b af 0c be 9a 09 98 bd
       -0.23283485 -0.10138449 -0.13738744 -0.07423706
000180 45 b5 f4 bd 3a cb a8 3e 61 1e 8b 3d 0e 69 86 3b
       -0.11948637 0.3296755 0.06792904 0.004101879
000190 2a dd 01 be b3 72 81 bd 4b 96 54 bd 86 78 6a 3d
       -0.12682024 -0.06320705 -0.051901143 0.057243846
0001a0 50 7b c8 3d 4f e0 83 bc f8 a2 c1 bc 05 7c 08 bc
       0.09789145 -0.01609817 -0.02363728 -0.00833035
0001b0 c7 1e 91 3c 09 93 cd bd 12 ac 70 3d 29 19 a5 bd
       0.017714871 -0.1003781 0.05875785 -0.080614395
0001c0 4f 11 d9 bb b9 98 86 3d 57 a9 bc bd ac 25 63 3e
       -0.006624378 0.06572098 -0.092119865 0.2218234
0001d0 d9 7a 52 3d 91 bd cc 3d 3d 9f cc 3d 04 7e 8a 3d
       0.051386688 0.099970944 0.0999131 0.06762317
0001e0 d4 a3 10 bd 1a b2 20 3e b7 51 9a 3e fe 39 7c b7
       -0.03531249 0.1569294 0.30140468 -1.5033873e-05
0001f0 b5 68 ac bd f0 46 1c bd 46 77 1e 3e 22 93 3a 3d
       -0.08418409 -0.03815359 0.15475187 0.045550473
000200 d6 59 af bd fa 6d 7c be e0 73 d0 bd a7 63 3b be
       -0.08562057 -0.24651328 -0.101783514 -0.18299733
000210 1f 94 2b bd e9 75 52 be a7 ec 4d 3e d7 dd 63 3e
       -0.041889306 -0.20552792 0.20109807 0.22252594
000220 58 8a 24 3d 37 6d 7e 3d 10 bc 82 3d de 5b 07 bd
       0.040170997 0.062115874 0.06383526 -0.033046596
000230 7c c8 8d 3d d6 15 89 bc 03 76 9c 3e 33 f2 3b 3d
       0.06923005 -0.016734045 0.30558786 0.045885276
000240 7a 1d 47 3d 53 83 cc bd b3 22 42 3e d2 76 5e 3e
       0.048612095 -0.099859856 0.18958549 0.21725014
000250 15 28 11 be b8 06 57 be 02 c6 99 bd 2c 10 8e 3d
       -0.14175446 -0.20998657 -0.0750847 0.06936678
000260 f5 54 0c be 19 60 e2 3c c8 19 85 3d 08 3e 49 bc
       -0.13704284 0.027633714 0.06499058 -0.012282856
000270 09 c2 1c ba ad 75 d8 bd a5 bb 58 bd d3 66 b1 bd
       -0.0005979841 -0.1056932 -0.052913327 -0.0866219
000280 9c f1 d8 bd bc cc dd 3d c4 33 0e 3e ee 10 d1 bd
       -0.10592958 0.108300656 0.13886935 -0.10208307
000290 6d e0 dc 3c 07 f9 f8 bc c0 37 1c 3c 12 1a e8 bd
       0.026962483 -0.030392183 0.009534776 -0.113330975
0002a0 4f 8a 28 3e 9e 04 d3 3c fe f4 83 3d e7 00 d8 39
       0.1645901 0.025759038 0.06443213 0.00041199403
0002b0 a7 c9 a7 3d b9 f7 18 3d 01 c6 a5 bd 8b da 12 be
       0.08192759 0.03734562 -0.08094407 -0.1434118
0002c0 d1 d8 b1 3c 62 d4 a5 3d 6d 33 62 3d d1 59 00 3e
       0.021709831 0.080971494 0.055224825 0.12534262
0002d0 1b e8 8f ba d9 87 7e bc dd 28 db bb fb ab df 3c
       -0.0010979207 -0.015535318 -0.006688221 0.027303686
0002e0 22 ba 78 3d fd f3 86 3e 13 dc 08 be a3 f6 9e 3d
       0.060724385 0.26358023 -0.13365202 0.07761886
0002f0 52 43 8c 3e b7 fd 93 bd 87 53 24 bd 81 96 8c bc
       0.2739511 -0.07226127 -0.04011872 -0.01716161
000300 9e 41 a9 3d 51 08 8d bd bf 7b 74 3e 57 82 bd 3e
       0.082644686 -0.06886352 0.2387533 0.37013504
000310 e5 5c 32 3e 8c d0 8c bd 88 c4 35 be 80 44 b2 3c
       0.17418249 -0.06875715 -0.17750752 0.021761179
000320 b7 96 bf bc 1e 7e 94 bd 8d 00 b3 3d 2f 1a 84 3c
       -0.023387296 -0.072506174 0.087403394 0.016125767
000330 84 9a 4b 3e b7 58 46 3e 01 c1 a1 bc 61 42 ca 3d
       0.19883162 0.1936978 -0.019745352 0.09875942
000340 f0 7f 93 3e 65 89 04 3e 3f 46 31 3e 0b 13 dc bc
       0.28808546 0.12943037 0.17311953 -0.02686455
000350 eb 8f 26 be 5a 60 47 3e d0 4f cf 3e c4 a9 3f 3e
       -0.16265838 0.19470349 0.4049058 0.18717104
000360 11 54 ea 3d 7a f2 32 be 2f ca eb 3d 1f c2 0f bd
       0.11441816 -0.1747531 0.11513173 -0.035097238
000370 8a 1e 0b 3d 38 17 e4 bd 89 82 12 bd 91 8e 5c 3c
       0.03396467 -0.11137241 -0.03576902 0.013461725
000380 a8 69 70 bd c4 00 73 be 0a b5 2d bd 3c d6 2c be
       -0.05869451 -0.23730761 -0.04240898 -0.16878599
000390 4b 18 c0 bd 56 20 02 3e d9 62 55 be b3 bb b4 bd
       -0.093796335 0.12707648 -0.20838489 -0.08824863
0003a0 b8 16 23 be 89 72 8e bc b6 8e c6 bd 0c 70 9f bc
       -0.15926635 -0.017388599 -0.09695189 -0.019462608
0003b0 eb e7 b0 3d 5d 3c 23 be 4a 88 f0 ba 1c 72 0c be
       0.08637985 -0.15940996 -0.0018351164 -0.13715404
0003c0 77 69 29 3e 33 c5 b1 bd 07 84 85 3a 8c e0 d8 bb
       0.16544138 -0.08680191 0.0010186442 -0.006618565
0003d0 98 4a c8 bd 61 f5 34 3e ec 39 21 bd 46 0a 84 bd
       -0.09779853 0.1767173 -0.03936188 -0.06447272
0003e0 f8 fa a2 3d 20 cd 51 3e f1 11 ca bd d9 8e 71 3d
       0.07958025 0.20488405 -0.09866703 0.05897412
0003f0 fc a5 4d 3e 3d e6 b8 3d 8b a2 7f 3c 08 47 1f 3e
       0.2008285 0.090282895 0.015602718 0.1555444

encoder.net.5.bias f4 [32]
000000 a7 9d a9 bd e3 8e af bd 17 19 a3 3d 4a ae 91 bd
       -0.08282023 -0.08572175 0.0796377 -0.07113321
000010 47 16 f5 3d a2 17 89 3d 8c 77 1c 3b f9 d0 83 3d
       0.1196714 0.06693961 0.0023874966 0.06436343
000020 63 81 90 3d 9e 40 63 bc f1 0b 9e 3d a2 77 4e 3d
       0.070559286 -0.013870386 0.077171214 0.05040706
000030 49 6e 8d bd b8 e2 f3 bc be 4a 6d bd 2b 68 be bd
       -0.06905801 -0.029771194 -0.057932608 -0.09297212
000040 0d be b4 bd dc d8 8b bd 92 87 9c 3d 4d 73 8d 3d
       -0.08825312 -0.06828472 0.076430455 0.069067575
000050 36 d4 2e be 44 b6 cf bd b8 17 bb bd a1 69 81 bd
       -0.1707314 -0.10142186 -0.09135383 -0.06318975
000060 ef 9e 28 3c 64 0c 83 bd 7a 9a 68 bd f0 29 95 bd
       0.010291799 -0.06398848 -0.056787945 -0.072833896
000070 87 2f a3 3d 63 a2 6a 3d c1 7a e9 3d 86 2d 8a 3d
       0.079680495 0.05728377 0.114003666 0.06746964

predictor.net.1.weight f4 [32, 32]
000000 4b 34 c7 3d 6d 23 83 3e fe 99 d7 bd 37 c1 8b be
       0.09726771 0.25612965 -0.105274186 -0.2729585
000010 75 59 68 bc a2 4d a3 3d 9f d1 02 bd 9d 79 a8 be
       -0.0141814845 0.07973792 -0.03193819 -0.32905284
000020 3e 36 9c bd 9a 2e 10 be 90 a6 c2 3d 37 b9 c7 bd
       -0.076275334 -0.14080277 0.095044255 -0.09752124
000030 5f 5f 6c 3d 73 55 b2 3b b9 35 04 3e 2b 2e de 3d
       0.05770814 0.0054423152 0.12911119 0.108486496
000040 4f 0f 22 be 17 72 61 3e b3 fe b1 3d 2b 0c e9 3c
       -0.15826152 0.22016178 0.08691158 0.028448185
000050 f8 ef ae ba 62 dd 72 3d 6b b1 de 3d 30 cf 82 bd
       -0.0013346663 0.05929316 0.108736835 -0.06387174
000060 23 48 4e 3d 3c 40 b2 bd 5b ae 64 bd d3 d5 17 3d
       0.050361764 -0.08703658 -0.05583034 0.037069153
000070 66 84 a9 3d 99 5d 08 3e ad 9f f9 3d 3e fc 37 3e
       0.08277206 0.13316955 0.12188659 0.17967317
000080 69 d1 b2 3c a4 ab 82 3c 47 9a 14 bd 43 14 ef 3c
       0.02182837 0.015950985 -0.036279943 0.029184466
000090 9a 21 c5 bd e8 de 0d bc 0c 14 04 3c 80 5a 47 be
       -0.096255496 -0.008659102 0.00806142 -0.19468117
0000a0 bd 69 d2 3d 2e 74 52 3c 35 99 50 bd ad 69 a8 3e
       0.10274074 0.012845082 -0.05092736 0.32893124
0000b0 9b 66 6e bd ef 6e 61 bd ae 4f 84 be f9 3e 8d 3e
       -0.05820332 -0.055037435 -0.2584204 0.27587107
0000c0 7e 70 20 3e c4 e2 42 be 10 78 10 be ae 74 8c 3e
       0.15667912 -0.19031817 -0.141083 0.2743277
0000d0 c1 d6 ab 3d ca e3 1c 3d 9d 2a db bd 3e c6 1d be
       0.083905704 0.038303174 -0.10701487 -0.15407655
0000e0 22 4b 9b 3e c8 a9 19 3e 19 18 14 3e f9 4a 18 be
       0.3033076 0.15006173 0.14462318 -0.1487235
0000f0 bf 09 9e bd 68 8c e7 bd 06 2e 39 3e 28 bb bf 3c
       -0.07716703 -0.11306077 0.18083963 0.023404673
000100 39 43 96 3d 31 64 87 bb 52 44 a2 3c 81 1c 33 3e
       0.073370405 -0.004131817 0.019807968 0.17491342
000110 d9 05 4b be fe c9 30 3e 2b 71 28 3e 6e a1 3f 3e
       -0.1982645 0.17264554 0.1644942 0.18713924
000120 ff 10 85 3e 11 ca 1a 3e 5e 27 b8 3e 57 1b 03 3d
       0.2598953 0.15116145 0.35967535 0.032008495
000130 bd 87 0f 3e dd 7b 92 3e aa 19 60 3e 81 07 a2 be
       0.14016624 0.28610125 0.2188479 -0.3164635
000140 1d 19 a6 3e 43 42 28 3e 6f a7 a3 3d 7e 85 25 be
       0.32441035 0.16431527 0.0799092 -0.16164204
000150 22 c0 a6 3e 79 62 c4 bc 05 3a 59 3d c5 b6 c1 bc
       0.3256846 -0.023972737 0.053033847 -0.023646722
000160 94 fd 5f 3e 10 e0 19 bd 8d 82 5d bd e7 b6 9c be
       0.21874076 -0.0375672 -0.05407958 -0.30608293
000170 cd f2 8b 3e 2d 46 3f bd fb 8a 81 3e 3c ed a6 3e
       0.2733368 -0.046697784 0.25301346 0.3260287
000180 c8 3b 90 bd 64 15 9d 3b 5f 8e 87 bd f6 f0 6c 3e
       -0.07042652 0.0047938097 -0.06618952 0.23138794
000190 85 9d b0 3c ff c0 ce bc 85 c3 00 be a6 e7 0d be
       0.021559486 -0.025238512 -0.12574585 -0.13857898
0001a0 64 b9 cd bd 63 9d 87 bc 94 4e a1 bd 6d 9d d9 bd
       -0.10045126 -0.01655454 -0.07876316 -0.1062573
0001b0 51 0f 90 3c 87 1b 96 be 4f fe e3 bd 61 80 35 3e
       0.017585428 -0.29317877 -0.1113249 0.17724754
0001c0 18 05 79 3e 7a 24 b8 bd f8 0f 15 3e d2 4d 58 bc
       0.2431835 -0.08991332 0.14556873 -0.013202148
0001d0 7c 65 96 3d f4 95 78 3e ec a8 c5 bc 7a 39 05 3e
       0.07343575 0.24275953 -0.0241284 0.13010207
0001e0 1c 90 ba 3d f7 be 3b 3d 8b 00 cf 3d 04 bd 04 3e
       0.09109518 0.045836415 0.101075254 0.12962729
0001f0 7e 98 05 b9 70 27 87 bd e3 d5 b2 3d d6 4e 2c 3e
       -0.00012740676 -0.06599319 0.08732202 0.16826949
000200 01 0c 84 3b 31 71 78 3d 47 98 2a 3b b9 0f 3a bd
       0.0040297513 0.060654823 0.0026030706 -0.04542515
000210 cd 9b 0b 3e 30 d8 8d 3e 21 2e f3 bd 5f 5a 62 3e
       0.13633652 0.27704 -0.11874033 0.22104786
000220 c8 3b ea bd 6e 04 b3 3c 16 44 99 3e 4d 1d f3 3a
       -0.114371836 0.021852698 0.29934758 0.0018548161
000230 2a 03 66 3e dd 75 2e bd bc 2b b0 bd f6 42 29 be
       0.22462144 -0.042592872 -0.08602092 -0.1652945
000240 10 5b e2 3c d6 c5 16 3e 72 2f c9 bd 9e 07 30 3d
       0.027631313 0.14723906 -0.098235026 0.042976014
000250 7b 9f 92 be 7b 87 aa bd e3 51 9f be ae 95 d0 bc
       -0.286373 -0.08326622 -0.31117162 -0.025461998
000260 b6 dd ef 3d 28 0e a1 3e 1a fd bb bd 4e ae 29 3e
       0.1171221 0.31456113 -0.09179135 0.16570398
000270 c7 96 2b bd 87 ca 93 3c b8 a3 57 be 2c 04 ab 3e
       -0.04189184 0.018040909 -0.21058547 0.3340162
000280 f5 f1 59 3e bd d2 df 3e 5f 3f 51 3e ab 94 6f 3d
       0.21283706 0.43715468 0.2043433 0.05849139
000290 e2 b6 61 be fb 2f 77 3d ba ac b7 bc 1e 61 4c bd
       -0.2204242 0.060348492 -0.02242123 -0.049897306
0002a0 c9 82 12 be ca 7a 95 3d 19 64 be bc 5a 67 95 3d
       -0.14307703 0.07298811 -0.02324109 0.07295103
0002b0 ef f4 df be 4c 9d 13 3e a8 0e ac be 63 44 07 3e
       -0.43741557 0.14415473 -0.33604932 0.13209681
0002c0 14 ed 34 3e fb f2 95 bd f4 da 2c 3e b3 8f 3d 3e
       0.17668563 -0.073217355 0.16880399 0.18511848
0002d0 91 39 e7 3c f4 3a 79 be 55 2a 8b 3e 97 60 10 3e
       0.028225692 -0.24338895 0.27180734 0.14099346
0002e0 2f 23 de 3d 66 3e 2c be 88 79 46 3e 53 14 d0 bd
       0.108465545 -0.16820678 0.19382298 -0.101601265
0002f0 c2 6b 17 be 04 df 24 bd a0 ee 1b bd 2b f2 b1 3d
       -0.147872 -0.040251747 -0.038069367 0.08688768
000300 9c 68 29 be bf 78 95 3d ff eb 9b be d2 09 53 bd
       -0.16543812 0.07298421 -0.30453488 -0.051523037
000310 c7 5b b3 3d b1 cd 8a 3d 26 bf d7 3d db 2a 6d bc
       0.087577395 0.06777514 0.105345055 -0.01447555
000320 d4 4d 5f 3e 4d f6 26 3c b3 90 83 3d 92 00 1d be
       0.21807033 0.010190559 0.064240836 -0.15332249
000330 c4 a7 37 3d bb 65 db bd bd 6d 47 3e 30 15 3d bd
       0.04483773 -0.10712763 0.19475456 -0.046162784
000340 49 33 38 3e 71 e8 96 3d cf ef 6d bd 9a 09 84 be
       0.17988314 0.073685534 -0.058090027 -0.25788575
000350 18 3a a8 bd 5d 64 2e 3d b7 2d 56 bd 1b 76 1e bd
       -0.082142055 0.042576183 -0.05228969 -0.038686853
000360 ae 2a 9e bd 81 08 4f bd f5 c8 18 be 82 02 44 3e
       -0.07722984 -0.05054522 -0.14920409 0.19141582
000370 0e 16 08 bd c5 d1 36 3d db 05 6b bd 5a 7b 12 3e
       -0.033224158 0.044633646 -0.05737863 0.14304867
000380 90 18 1e be 03 8d 86 bd 26 b9 89 bc 5d 36 8c be
       -0.15439057 -0.065698646 -0.016811918 -0.27385226
000390 8e 87 4a bc 86 6a b0 be 31 63 20 3e 23 d1 7d 3e
       -0.01236142 -0.3445627 0.15662839 0.2478681
0003a0 4c 47 a0 3d dc 60 2e be 8d 81 98 bc 19 f8 47 3e
       0.07826099 -0.17029136 -0.018616462 0.19528235
0003b0 79 01 d2 bd cf 65 9b 3e 7d 94 37 be 68 b3 81 bd
       -0.10254187 0.3035111 -0.17927738 -0.06333047
0003c0 76 7b 92 3e d1 3e d1 3d 03 6b 6c be 58 ba 75 3d
       0.28609818 0.102170594 -0.23087697 0.059992164
0003d0 04 bf 10 be f1 fe b0 bd 57 cd de ba da 98 eb 3d
       -0.14135367 -0.08642376 -0.0016998452 0.115037635
0003e0 d4 8b 97 3d 99 5f 50 3e 7e 3e 91 3c be 7e 6e 3c
       0.07399717 0.20348968 0.017729994 0.014556585
0003f0 60 fb 39 be 6a d4 90 3b e2 b2 3e 3e 37 77 6f 3d
       -0.18162298 0.004419853 0.18622926 0.0584633

predictor.net.1.bias f4 [32]
000000 63 3b dc 3d b7 f1 93 3d fd 20 c1 3d 69 8d c3 3d
       0.107535146 0.07223838 0.0943012 0.09548456
000010 d5 de dc 3d f8 cc cc 3d 0f 2b 17 bd ea e8 bb 3d
       0.10784689 0.10000032 -0.0369063 0.09175284
000020 b8 cf db bd 13 e3 d3 3d 24 ef d6 bd 58 c2 d0 3d
       -0.107329786 0.10346045 -0.10494831 0.10193318
000030 fb 70 81 bd df d5 b2 bd c3 4d cd 3d c5 3d d4 3d
       -0.063203774 -0.08732199 0.100245975 0.10363344
000040 96 43 e2 bd d5 a2 e9 3d bb a6 d3 bd 4a 57 d8 3d
       -0.11048047 0.11408011 -0.10334536 0.10563524
000050 b6 06 9e bd 03 07 d9 3d 4a 5f cd bd e9 ed ff 3d
       -0.07716124 0.105970405 -0.100279406 0.1249655
000060 45 e8 d5 bd c4 d4 cf bd ca 3f c2 bd e1 80 d2 3d
       -0.104446925 -0.10148004 -0.09484823 0.10278488
000070 09 0c ce 3d 8d 61 c7 3d 6d 8b 17 3e 8b d5 c9 3d
       0.10060889 0.09735403 0.1479928 0.09855183

predictor.net.3.weight f4 [1, 32]
000000 77 41 2d 3d af 11 22 3c 04 77 df 3d 95 c4 e9 3d
       0.04229876 0.009891911 0.10911372 0.11414448
000010 b2 b8 35 3e ed 7a a6 3e 80 e8 dd 3c 48 5a b8 3d
       0.17746237 0.3251566 0.027088404 0.09001595
000020 26 20 30 be 70 4e 9b 3e cf df 5c be 1b c1 7c 3e
       -0.17199764 0.3033328 -0.21569751 0.24683039
000030 9a 41 c9 3a 07 5d 50 bd f6 14 b2 3e de e4 31 3e
       0.0015354634 -0.050869968 0.34781617 0.17372462
000040 99 e7 36 be a7 26 5c 3e 4f 3a cc be 3c 7a d0 3d
       -0.17861785 0.2149912 -0.39888236 0.10179564
000050 32 6f c6 bc d1 83 e6 3d c2 e1 9f bd 04 0a fd 3d
       -0.024222944 0.11255611 -0.07806732 0.12355426
000060 7a f6 6b be 84 4f bf bd 1c 96 73 be 91 70 9f 3e
       -0.23043242 -0.09341338 -0.23787731 0.3114057
000070 65 e7 9a 3e a9 8e 9c 3e 0f 79 5e 3d 13 39 7f 3d
       0.30254665 0.3057759 0.05431467 0.06231029

net.0.weight f4 [60, 35]
000000 0b 47 51 be 35 3c 30 bd eb d7 9c be 6d 00 1c 3e
       -0.20437257 -0.043026168 -0.30633482 0.15234537
000010 d2 f4 6b 3c 55 9b 64 3d ba 43 48 3d cb 96 f0 3c
       0.014401631 0.0558122 0.048892714 0.029368779
000020 3a ee 0f 3d bd 9a aa bd ff 56 95 bb c6 b2 cd bd
       0.0351393 -0.08330295 -0.00455749 -0.10043864
000030 e6 a5 3f 3d 0b 0b ae bd d5 06 e1 3b ed a3 3e 3e
       0.046789072 -0.084982 0.0068672695 0.1861722
000040 49 41 80 bd 24 a1 89 3e 4e 69 b0 bd 8f 7c 1a be
       -0.06262452 0.26880753 -0.08613835 -0.15086578
000050 64 d3 03 3e 6f 7f 82 be 3a 82 e4 bd 89 8a c8 3e
       0.12873608 -0.2548785 -0.11157651 0.39168194
000060 97 96 7b 3b fd fa 56 be 27 53 30 3e b9 1c aa 3c
       0.003838932 -0.20994182 0.1721922 0.02076565
000070 e5 e3 cb bd bc a6 f6 bd fe f5 06 bd 6e 80 85 3e
       -0.09955577 -0.12043521 -0.03294944 0.26074547
000080 12 28 3b 3e a9 07 64 be 44 3c e0 bd 23 be 19 3e
       0.18277004 -0.22268547 -0.10948995 0.15013938
000090 04 f9 4e 3e 67 c6 31 3c 40 a1 4a 3e 37 85 07 be
       0.2021218 0.010850525 0.19788074 -0.13234411
0000a0 c4 45 54 be 5f 8f d7 bd d9 95 4b be ee db 14 3d
       -0.20729738 -0.10525393 -0.19881381 0.036342554
0000b0 98 80 a4 bd bd 5f 82 bd 5f 96 1d be c9 9d 27 3e
       -0.0803234 -0.06365917 -0.15389393 0.16368784
0000c0 ff de 0d 3b 4c ec 00 3e 69 02 86 3c 15 dd e8 bd
       0.0021647809 0.1259014 0.016358571 -0.11370293
0000d0 bc b8 44 be 94 79 46 be 41 f7 18 bb 30 e8 96 3c
       -0.19211096 -0.19382316 -0.0023340734 0.018421263
0000e0 cd c6 b1 bd 47 c7 2b be eb aa 51 bc 70 7f e0 bd
       -0.08680496 -0.16775237 -0.012797098 -0.10961807
0000f0 e5 b6 cd bc d1 6f 67 bd 6f c1 e1 3d 93 58 35 3e
       -0.025111625 -0.05650312 0.11023223 0.1770957
000100 10 8a ca 3d e8 f5 3a bd 13 70 a5 3d 3f 0c 64 3e
       0.098896146 -0.04564467 0.08078017 0.22270297
000110 20 ab 73 be cc 04 90 3d 4a 18 23 bd d5 3b 0c 3d
       -0.23795748 0.07032165 -0.039818086 0.034236748
000120 e0 42 ea bd 26 02 bc bd df 42 e2 bd 3c 78 17 be
       -0.11438537 -0.09180097 -0.11047911 -0.1479196
000130 06 28 fe 3c 05 0e 00 be e5 24 a8 bd 58 43 2f bd
       0.031024944 -0.12505348 -0.08210162 -0.042788833
000140 a5 f0 43 3d d8 eb bb 3c d4 79 52 3d 60 75 e7 bc
       0.04783692 0.022939608 0.051385716 -0.028254211
000150 31 67 f1 bd 2e 8b 82 3d 2a 29 52 bd da a0 a4 3d
       -0.1178726 0.06374203 -0.05130879 0.080384925
000160 55 e3 d2 3d 32 1f 21 3e ef ee df bd 34 c2 db bc
       0.102972664 0.15734556 -0.10934245 -0.026826002
000170 9b 2c b4 bc aa ce 53 bd 9f 2a 6c bc ba 8a a9 bc
       -0.021993926 -0.051710762 -0.014414459 -0.020696033
000180 c7 73 0f 3d f6 db 41 bd 2f 98 34 bd b3 aa df 3d
       0.035022523 -0.04732891 -0.044090446 0.1092123
000190 3e 96 06 be 65 ed 9d 3d ad b5 1e be 76 11 e3 be
       -0.1314325 0.07711295 -0.15498991 -0.4434926
0001a0 ba bd a7 bd 19 b1 b2 bd 25 36 9d bd fe 1d 3e be
       -0.08190484 -0.08725185 -0.07676343 -0.18566129
0001b0 f5 ec 52 bd f4 6d 2c bc 89 58 28 3d 02 b0 16 be
       -0.05149551 -0.010524262 0.04110006 -0.14715579
0001c0 be 55 a2 bd 7f 40 aa 3d 29 f0 7e be 72 f5 05 be
       -0.0792651 0.08313083 -0.24896301 -0.13081911
0001d0 3a c9 14 be c4 8e 0b be 08 18 d5 bc 89 73 3c bd
       -0.14529887 -0.1362868 -0.026012436 -0.04600862
0001e0 bd 27 6c bd a5 8e af 3d 92 47 24 bd b6 57 40 bd
       -0.057655085 0.08572129 -0.040107317 -0.046958648
0001f0 fa b8 e3 3d 7d e2 fd 3d ca 2e fd bd a1 71 01 be
       0.11119266 0.12396715 -0.1236244 -0.12641002
000200 70 5b 47 3e 8b 3d 13 3d f5 c4 f8 bd c8 ab 90 3d
       0.19468474 0.035947364 -0.121469416 0.07064015
000210 49 82 45 bc 59 c8 29 be 7d c9 c7 3c e9 19 75 3e
       -0.012054988 -0.16580333 0.02438807 0.23935665
000220 ee 50 0b be 36 70 8f be 4f ff eb bd e3 96 8f be
       -0.13605091 -0.28015298 -0.115233056 -0.28044805
000230 79 1e 31 3c 75 e1 0d 3e a3 81 d3 bd d7 45 a0 bd
       0.010810488 0.13855536 -0.103274606 -0.07825821
000240 85 9f 79 be b8 29 3b bc 23 95 e1 bd a0 05 05 3e
       -0.24377258 -0.011423521 -0.11014774 0.12990427
000250 81 2d e2 3d 07 8d b0 3e 41 36 bb 3c 44 6a 8b 3d
       0.110438354 0.34482595 0.022853019 0.06807378
000260 5c 0e 40 3e 3b 13 3f bd db ab d5 bc c0 bd 35 3e
       0.18755478 -0.0466492 -0.026082924 0.17748165
000270 b8 97 c4 3d 3b dc 4d 3e 00 45 3f bd f6 af 44 be
       0.095992506 0.20103543 -0.046696663 -0.19207749
000280 ce 7d 71 3e 08 36 91 3d 35 4d 21 3e ba 56 31 3c
       0.23583147 0.07090384 0.15752108 0.0108239
000290 cb af 7f bb 2e 0e c9 3d 85 2b 05 bd 63 20 19 bd
       -0.0039014693 0.09817158 -0.032512207 -0.037384402
0002a0 0c e7 cf 3d af 62 81 3e 1c 42 36 be 58 0f c5 3b
       0.101514906 0.25270602 -0.17798656 0.006013792
0002b0 01 80 93 3e ca c2 a0 be f3 c8 17 3d eb f6 da 3c
       0.28808597 -0.31398612 0.037056874 0.026729068
0002c0 d7 17 d0 3b 86 9c 48 3e af f1 13 be e4 7b 24 be
       0.006350498 0.19590959 -0.14447664 -0.16062886
0002d0 23 90 d6 bd 34 b6 a6 bd 2e 4a 38 bd 71 ae 6a be
       -0.10476711 -0.08140221 -0.04499262 -0.22918107
0002e0 95 74 81 3c 54 80 02 3e 63 d1 54 3e c0 d9 a6 3c
       0.015802661 0.12744266 0.20783 0.020367503
0002f0 ad 64 a4 be 89 13 24 bd 12 61 c0 3d fc 05 81 bd
       -0.3210806 -0.040057693 0.09393515 -0.062999696
000300 79 f2 da bc 68 15 02 be 79 47 0b 3e fc 31 c0 3d
       -0.026726948 -0.12703478 0.13601483 0.09384534
000310 ef 89 60 3e 59 d2 41 bc 5d 78 81 bd 15 65 2a 3d
       0.21927617 -0.011829936 -0.063217856 0.041600306
000320 58 0d 47 3d 13 fe ad 3d b6 98 83 3d 70 51 ee bc
       0.04859671 0.084957264 0.06425612 -0.029091567
000330 05 d6 20 bd 05 88 a9 bd 8f 28 62 be 29 21 66 3c
       -0.039266605 -0.08277897 -0.22085784 0.014045992
000340 ec 54 17 3e b0 0f 10 3e a9 3e 2c 3d 6d fc c1 3d
       0.14778489 0.14068484 0.042051945 0.094719745
000350 a2 a9 7b be 20 15 87 bd 9f 79 de 3d 59 58 d2 bc
       -0.24576429 -0.06595826 0.10863041 -0.025676893
000360 99 ee a6 bd 5e 46 d8 3c 0c 58 0e 3e 6b 96 8c bc
       -0.08150978 0.026400741 0.13900775 -0.017161569
000370 91 4b 0e 3e fc 3c 1e 3d ce e7 16 3c 84 aa 70 be
       0.13896014 0.038632378 0.00921054 -0.23502547
000380 8e a5 98 bd 25 53 32 bd 60 71 89 be b3 f3 34 3d
       -0.07453452 -0.043536324 -0.2684431 0.044177722
000390 87 26 b3 bc b8 ac 6b be f8 a3 3c be e2 d0 d3 3d
       -0.021868957 -0.23015106 -0.18421924 0.103425756
0003a0 4c 25 e6 bb 7b de aa 3d 0d e3 59 be 50 47 1d be
       -0.007023489 0.08343216 -0.21278019 -0.15359235
0003b0 0a 34 c1 bd ca d2 92 3e a5 c2 2b 3e ad fa 33 be
       -0.09433754 0.28676444 0.1677347 -0.17576094
0003c0 92 3d 32 3e 40 00 2e 3d 6a 76 6f be c5 b7 97 bc
       0.174063 0.042480707 -0.23385015 -0.018520245
0003d0 45 39 4f 3e c5 7b ef bc 5a aa ca bd 49 d5 cc bd
       0.2023669 -0.029233823 -0.09895773 -0.100016184
0003e0 1e 18 8e 3e 73 3e 41 be 2f b1 f1 3c db f1 47 3d
       0.27752775 -0.18871479 0.029503433 0.048814636
0003f0 cb ae eb bd fb 26 57 3d f2 e8 a1 3e e2 f4 c3 3d
       -0.115079485 0.05252741 0.31623036 0.09568192

net.0.bias f4 [60]
000000 43 70 09 bd 9d 00 52 3d ee 9d 02 be 3a 9c 7a bd
       -0.033554327 0.051270116 -0.12755558 -0.061184146
000010 96 94 29 3a 86 98 22 be 58 11 e1 bb 65 13 88 3d
       0.00064689794 -0.15878496 -0.0068685226 0.06644324
000020 22 19 d0 bc a5 c8 e4 bd 38 1e 64 bd a6 4b 06 be
       -0.02540261 -0.111710824 -0.05569288 -0.13114795
000030 36 8c df 3b d7 16 00 3d 9e e0 53 bd f6 79 ec 3c
       0.0068221344 0.03127178 -0.051727884 0.02886675
000040 ef f7 e7 3d 7c 0d 3b bd b3 70 03 3e 2a b0 a7 3d
       0.113265865 -0.045667157 0.1283596 0.081878975
000050 af 35 d2 3d ea d5 84 3d f2 1e af 3d 34 ab e3 3d
       0.102641456 0.06486113 0.08550824 0.11116639
000060 18 c9 aa 3d 42 50 a7 bc 4b eb ad 3d ae 56 04 be
       0.08339137 -0.020424012 0.08492144 -0.1292369
000070 db 68 8a bd 62 86 4a bd 8b bf 3d bd 12 2d a9 bc
       -0.06758281 -0.049444564 -0.046325248 -0.020651374
000080 44 08 77 bd d8 10 2e 3e e7 96 e7 bd 16 24 f5 3d
       -0.060310617 0.16998613 -0.11308079 0.119697735
000090 9c c9 86 3d 8c 16 15 ba c7 fa c6 bd ca 71 2f bd
       0.06581423 -0.00056872587 -0.09715801 -0.042833127
0000a0 9f 90 96 3c 82 2b fb bd 54 6d 01 be 0d 33 90 bd
       0.018379508 -0.12264158 -0.12639362 -0.07040987
0000b0 b1 5a 89 bd 7b c4 09 3e 22 0d 09 3d bb 72 f6 bd
       -0.06706751 0.13453858 0.03345979 -0.12033602
0000c0 fe 0c 6a 3d a2 b9 8d 3d 0a 7f 5f 3d c2 79 bc bd
       0.057141297 0.06920172 0.054564513 -0.09202911
0000d0 cf f1 12 3d 53 3a d0 3d 7c 49 0f 3e 2b 8c 92 bd
       0.035875138 0.101673745 0.13992876 -0.07155641
0000e0 9a 13 30 be 58 ca f8 3c 9d 35 2a 3d c9 48 4a bd
       -0.17194977 0.030369923 0.041555036 -0.04938582

net.2.weight f4 [60, 60]
000000 d9 c1 4b 3d e4 5d d5 bc 60 3b 26 be dc 81 38 3e
       0.049745414 -0.026045747 -0.16233587 0.18018287
000010 00 b5 0b 3c e2 59 28 be e5 4f b2 bd 15 82 b2 bd
       0.0085270405 -0.16440538 -0.08706645 -0.087162174
000020 7b d8 75 3e e1 d1 96 3d 91 0f e7 3d e2 63 36 be
       0.24008362 0.0736425 0.11282266 -0.1781154
000030 9c 52 d7 bd 33 e5 5a 3d 8b 97 6b 3d 23 81 96 3e
       -0.10513803 0.053441238 0.05751757 0.29395398
000040 39 ee 2d 3e 8b 4a 65 3d ce a5 f5 3c a8 65 29 be
       0.16985406 0.055979293 0.029986288 -0.16542685
000050 bd bc fd 3d a8 55 ac bd 5a ed 6c 3d 9b 5d ab 3e
       0.123895146 -0.08414775 0.057843544 0.33469853
000060 4f ab 5e bd d6 1b dd 3d c3 0b f1 bd f9 2e 5f bd
       -0.05436259 0.10796325 -0.117698215 -0.054488156
000070 39 68 b9 bc 09 22 ad bc dc 5e bf bd 90 53 13 be
       -0.022632705 -0.021134393 -0.09344265 -0.14387345
000080 a7 0c 4a be 58 bf ae 3d 3b 4d 8d bd fe 0a 6d 3e
       -0.19731389 0.0853259 -0.06899496 0.23148724
000090 2d c2 c8 3d 77 c4 3c 3e 32 8d 40 3e bd ce b9 3e
       0.09802661 0.1843432 0.18803862 0.3629054
0000a0 68 63 b1 3c 05 10 47 3d e6 6b 2f bd f9 d6 b0 3c
       0.021653846 0.04859926 -0.04282751 0.021586882
0000b0 65 9b e5 bd 13 e7 c6 bd 7c 10 ae bd 9f 43 84 3c
       -0.1121128 -0.09712043 -0.08499238 0.016145526
0000c0 70 1f 13 3c e4 35 e6 3d ee 1f 95 3e 31 75 b2 bd
       0.008979663 0.112407476 0.29125923 -0.08713759
0000d0 00 b5 8c b9 91 46 71 bd 57 b9 49 be b0 c5 c8 bd
       -0.00026837736 -0.058905188 -0.19699608 -0.09803331
0000e0 ac 69 00 3e 40 9a 1f be e5 10 73 bb 10 a3 fc 3d
       0.1254031 -0.15586185 -0.0037088927 0.12335789
0000f0 bf 4f 6a 3d e6 70 43 3e dc 0e 1a be ba 77 8b bd
       0.057204958 0.19086036 -0.15044731 -0.068099454
000100 04 bc bd 3b d4 e8 21 bd 3f a5 ba bd 6d f6 c7 3d
       0.0057902355 -0.039528683 -0.091135494 0.09763799
000110 10 97 c3 bd b2 91 4a be b3 da 23 3d 09 0e b8 bd
       -0.09550297 -0.19782141 0.04000349 -0.08987052
000120 8f dd 11 bc e9 19 21 3e e7 bd 29 bd 0d 78 78 be
       -0.008902921 0.1573254 -0.04144087 -0.24264546
000130 d3 ca 0a 3e a5 2e 21 be d2 ff 3d be 9e 27 db bd
       0.13553934 -0.1574045 -0.18554619 -0.10700916
000140 ad d4 7b bd 8b 16 a9 bd bf 72 9b bd 03 5c fa 3c
       -0.06148212 -0.08256253 -0.075902455 0.030561453
000150 2d 5e bc 3d be 71 93 bd ff 65 16 be 65 40 e9 3d
       0.0919765 -0.07199429 -0.14687346 0.113892354
000160 9b d1 fa bd 14 25 3c bd 06 bc 36 3a 5f 9b 33 be
       -0.1224701 -0.045933798 0.00069707667 -0.17539738
000170 7a 1a a9 bc 4e 72 1f be c0 9c 87 3d 47 74 1c bd
       -0.020642508 -0.15570948 0.066216946 -0.03819683
000180 3d e5 1d be b8 34 8b bd 53 ad b6 bd 04 f7 dd bc
       -0.15419479 -0.06797165 -0.08919778 -0.027095325
000190 fc 06 99 3b 92 b4 d6 3d 8f 7b 14 3d 71 c4 37 be
       0.004670022 0.1048366 0.036250647 -0.1794603
0001a0 9f 82 8b 3b 72 ce 22 bd 6e 3b c1 3d 33 36 2f 3e
       0.0042575146 -0.039747663 0.094351634 0.17110519
0001b0 1d 51 6e 3c f8 3d c9 3c c7 dc 61 bc f3 f8 dc 3d
       0.014545706 0.024565682 -0.013785548 0.10789671
0001c0 5e a7 76 3c 01 62 09 be cb ee 0a be f8 e2 98 3c
       0.015054552 -0.13416292 -0.13567655 0.018662915
0001d0 0d 5c 27 bd 4c 1a 12 bd 1a 9f 69 be f4 0d 6d bd
       -0.04085927 -0.03566961 -0.22814599 -0.057874635
0001e0 16 74 3f 3d b9 b0 63 3e 4b 8f 05 3e ec 75 04 bd
       0.046741568 0.22235383 0.13042943 -0.03233902
0001f0 ae 39 be 3d 69 44 1d be 71 74 8e 3c 52 e5 0c bd
       0.09288345 -0.15358128 0.017389508 -0.034398384
000200 bc 29 9f bd 2c 13 dd 3d 6b f3 a7 bd ae af 75 bd
       -0.07771632 0.10794672 -0.08200725 -0.059981994
000210 fd 04 b0 bc 4e 3a 0e b9 5e 92 0c 3e 77 e1 57 3d
       -0.021486754 -0.00013563895 0.1372771 0.052705254
000220 27 25 c5 3c b2 7f 47 be d8 9f ef 3d a4 fb 4e 3d
       0.024065567 -0.19482306 0.1170041 0.050532952
000230 24 18 14 3d c7 b4 66 3e 58 78 7f bd 9b b6 61 be
       0.036155835 0.22529899 -0.062370628 -0.22042315
000240 59 b6 a4 bc 60 18 31 bc aa 6a e8 3d a1 44 be bd
       -0.020106481 -0.010809034 0.113484696 -0.09290434
000250 cb 9d b9 bd 72 6d 9a bd 59 26 78 3c c2 73 82 bd
       -0.090633 -0.07540406 0.015145862 -0.06369735
000260 19 78 2d 3e d3 ba 62 3e 8a cd f5 3c 8b 46 4f be
       0.16940345 0.2214158 0.030005235 -0.20241754
000270 71 ca 1e bd 42 b5 bc 3d f1 12 e1 bd af 38 f3 bd
       -0.038767282 0.0921426 -0.10989941 -0.11876046
000280 b5 a1 10 bd c7 5e d8 3b c1 17 e7 bd 34 3a 5a 3d
       -0.035310466 0.006603095 -0.112838276 0.053278163
000290 ae e7 01 3d d0 5d 78 3d 6e 3a f8 bc 46 07 95 3d
       0.031715088 0.06063634 -0.030301299 0.07276778
0002a0 43 c4 10 be d7 d2 8c bc 3d 75 f6 b9 75 ef dc 3d
       -0.14137368 -0.01719038 -0.00047008126 0.1078786
0002b0 fb b6 9e 3d df 8d d9 bd 95 84 34 be 35 f8 ed 3d
       0.077497445 -0.10622763 -0.17628701 0.11619607
0002c0 c8 db 84 bd 35 4b 63 3d 0b 7f 52 3c ac 2f fe bd
       -0.064872324 0.055491645 0.012847672 -0.124114364
0002d0 fa d1 52 be 2e 22 81 3d 17 e2 16 be 54 a7 f1 3d
       -0.20587912 0.063053474 -0.14734684 0.117994934
0002e0 19 27 d7 3d 8e 32 bc bc 47 49 76 ba f7 cf 60 be
       0.10505504 -0.022973325 -0.00093950744 -0.21954332
0002f0 da e6 fa 3d f6 aa 68 bd c7 5b 2d bd 9b 90 1e 3d
       0.12251063 -0.056803666 -0.042323854 0.038712125
000300 ca 81 41 3d 96 4f b7 3d 3f 66 ac 3d 69 14 20 3e
       0.047242917 0.08950727 0.084179394 0.15632786
000310 3f 8d d7 bc 47 c0 eb bd 72 ff 30 be 94 b5 c6 3d
       -0.026312469 -0.11511283 -0.17284945 0.09702602
000320 bf b1 f6 3d 31 f1 82 3e 80 c6 a5 bd 50 ab 34 3e
       0.12045621 0.2557464 -0.080945015 0.17643476
000330 3c 0e 6d bd e3 d7 90 bd 20 7d fc 3d 9c d2 c6 bd
       -0.057874903 -0.07072427 0.12328553 -0.09708139
000340 f1 f8 5d bd 5d fc cb 3d b0 5a 8c 3e b2 8a 04 bd
       -0.054192487 0.09960244 0.2741294 -0.032358833
000350 8c da 34 bd 1f e5 d4 bd 76 56 c9 3c f8 27 a4 3e
       -0.044153735 -0.10395264 0.02457736 0.32061744
000360 43 dd bd bd 32 fa 8e 3d 8f 7b 4b be 6b 51 03 3c
       -0.09270718 0.06981315 -0.19871353 0.008015017
000370 ca 9d 3c bd 03 e4 94 3d 57 f7 26 bc 59 8c 50 3d
       -0.046048917 0.07270052 -0.010190806 0.050915096
000380 45 e4 e8 bd 82 d6 53 3e c3 fe 8f bd 7a 33 f9 3d
       -0.11371664 0.20687297 -0.07031014 0.121680215
000390 66 84 17 3e cb 9d a8 3d 3a 63 01 3d de c7 2a 3e
       0.147966 0.082332216 0.03158877 0.16677806
0003a0 db 19 24 be db 83 cb 3d 37 1a 08 3b 15 39 5b be
       -0.16025488 0.09937259 0.0020767578 -0.21408494
0003b0 ad ed 3a 3e 96 df 9a bc 3d c4 20 3e b4 93 28 3e
       0.18254729 -0.018905442 0.15699859 0.16462594
0003c0 07 00 fe 3d cf 3f fb bc 4e 46 84 3d d3 b8 7a bd
       0.12402349 -0.030670075 0.06458722 -0.06121142
0003d0 91 25 57 3e ac c4 24 3e db 7c 0f be 09 94 d2 bc
       0.21010424 0.1609065 -0.14012472 -0.025705354
0003e0 6d b8 d2 bd a3 a7 dd 3a a2 b5 9a bc 04 0e 85 be
       -0.10289083 0.0016910922 -0.018885437 -0.25987256
0003f0 dd 17 8e 3d 84 91 db bd e2 c8 c9 bb c9 7b 17 3d
       0.06938145 -0.10721114 -0.0061579803 0.036983285
